Results/AFP/1/model.pth (torch, 405501 bytes, 26 tensors)

gnn.init_context.project_node.0.weight f4 [64, 74]
000000 a0 d7 d6 3b 96 ff 4a 3b bd b4 94 bc cb 78 14 b9
       0.006556466 0.0030975095 -0.018152589 -0.00014159379
000010 61 e5 0e bb 8d 05 ef 37 00 01 d7 ba a8 a8 39 b9
       -0.00218042 2.8493605e-05 -0.0016403496 -0.00017705804
000020 41 65 21 37 85 33 1a a8 6c e8 07 80 b0 0d 48 ad
       9.619923e-06 -8.559889e-15 -7.26226e-40 -1.1371723e-11
000030 71 ba 6d 28 73 23 00 80 b3 77 9c ab 95 13 60 38
       1.3196571e-14 -1.2717e-41 -1.111769e-12 5.3424e-05
000040 1a 97 1c 29 6f 97 69 aa 43 68 4d a7 c8 0d 2e a5
       3.4770018e-14 -2.0747096e-13 -2.8505985e-15 -1.5096764e-16
000050 c1 97 67 b0 d3 3b 2b a7 ce ef 96 bb dc 60 bd a8
       -8.4252966e-10 -2.3763448e-15 -0.0046062237 -2.1025221e-14
000060 68 1b 05 a8 3b 0c 07 00 d1 4b cc a9 0c c6 9f 29
       -7.388926e-15 6.47236e-40 -9.072572e-14 7.095374e-14
000070 fc 39 59 2c b6 61 89 b5 f5 cd ac 38 71 34 a0 b5
       3.0869743e-12 -1.0235733e-06 8.2399616e-05 -1.1936191e-06
000080 19 34 00 80 e5 a9 46 28 f2 e0 ad bc 8f c6 33 35
       -1.8689e-41 1.1028048e-14 -0.021225426 6.6971637e-07
000090 53 01 38 2b 6f eb fa a8 0b e2 d5 28 c2 cc 66 aa
       6.537177e-13 -2.7857679e-14 2.3745781e-14 -2.0499143e-13
0000a0 2b b3 01 00 82 bf 6d 36 62 eb 85 26 b7 0c dc ab
       1.56109e-40 3.5427224e-06 9.29253e-16 -1.5635469e-12
0000b0 43 14 d7 3c cc e4 0f 3b ff 0f 00 3c 6f 30 84 b9
       0.026254779 0.0021956442 0.007816314 -0.00025213088
0000c0 f3 f0 bc 29 4d f9 7c 38 a6 97 93 31 06 fa 21 35
       8.390675e-14 6.031366e-05 4.2955035e-09 6.0341006e-07
0000d0 a9 31 74 a8 9b 84 1c 29 7d b7 b5 3c bd 85 fc 3a
       -1.3555489e-14 3.4753975e-14 0.02218222 0.0019265931
0000e0 f0 27 cd b8 bc f6 ab bb 77 8d 86 25 84 bc da 2a
       -9.782601e-05 -0.005247919 2.3341155e-16 3.8855388e-13
0000f0 37 5b 5d ad 2a 8d 8c 38 97 f8 a1 1a ca 9e 07 3a
       -1.2582649e-11 6.702014e-05 6.698966e-23 0.0005173503
000100 03 2f 8c 3c b3 5f 1a bb ee 0f 9d 27 d9 cc a3 37
       0.01711226 -0.0023555576 4.3593525e-15 1.9526504e-05
000110 54 7b d7 3b e7 b1 ac 3c b4 70 03 3b e8 37 c6 b8
       0.006575981 0.021080924 0.002005619 -9.451789e-05
000120 f4 8d ab bb 36 5d 0d 2b 09 92 c4 3b b5 23 77 bb
       -0.005235428 5.022262e-13 0.005998854 -0.0037710492
000130 cc 6c 3a b6 cc 93 2f b2 ed a1 8e b4 eb ba 3e 2b
       -2.7779488e-06 -1.0219946e-08 -2.6567378e-07 6.776096e-13
000140 a6 5c 49 31 7f 7c 35 31 f6 de 8d af 5b 7b 57 25
       2.9302014e-09 2.6409734e-09 -2.5806174e-10 1.8690072e-16
000150 e8 0d 49 28 0d bd 7b 29 d5 a4 ed 33 0a c0 33 b1
       1.1160757e-14 5.589717e-14 1.1066155e-07 -2.615709e-09
000160 aa 83 20 2c 85 35 76 2e bd 84 2d 06 d8 6b ef a6
       2.2810456e-12 5.598146e-11 3.2635204e-35 -1.6613188e-15
000170 55 a1 bf 36 d6 e2 8b 26 e2 4d 4f a8 d8 7e f2 af
       5.711025e-06 9.706547e-16 -1.15076964e-14 -4.4109671e-10
000180 c4 94 9b 30 4f 43 55 a9 f4 11 40 28 9f 41 47 2b
       1.1320016e-09 -4.7353882e-14 1.0662034e-14 7.079007e-13
000190 8c c5 bf 2c 20 b4 2e 8b 60 0b 96 81 bb 29 88 a9
       5.4504786e-12 -3.3646692e-32 -5.511762e-38 -6.046852e-14
0001a0 d4 35 94 28 1b b9 03 a9 1d 1a 88 ad c5 c0 00 00
       1.6454645e-14 -2.9248397e-14 -1.5473007e-11 6.9153e-41
0001b0 45 5b 34 bc 11 0c df b1 2e 8f 75 27 60 80 62 ac
       -0.0110080885 -6.491526e-09 3.4078198e-15 -3.2187794e-12
0001c0 dd 8b 15 83 77 40 3f 33 38 aa c0 b2 2a ab 33 a9
       -4.394772e-37 4.4529283e-08 -2.2429148e-08 -3.9894445e-14
0001d0 0e e4 d8 a9 82 01 d8 29 fa 01 d6 b8 8c 94 08 bd
       -9.631888e-14 9.5925885e-14 -0.00010204683 -0.03334479
0001e0 62 ca e5 3a 6c 17 98 33 3b da 21 b0 8d df 24 ae
       0.0017531628 7.082312e-08 -5.8881583e-10 -3.7487836e-11
0001f0 a0 92 03 80 ca 27 22 8b 02 ea 60 2d 83 1f e6 97
       -3.28106e-40 -3.123e-32 1.2784886e-11 -1.4871356e-24
000200 7a 6c 6b bd 05 cf 0e b8 55 b2 03 b7 f9 94 1e 34
       -0.0574765 -3.404824e-05 -7.84973e-06 1.4769093e-07
000210 4d b2 04 16 9e 91 22 2d 68 d3 6b 29 bb 4c 9e 34
       1.0719137e-25 9.240967e-12 5.2363848e-14 2.9485622e-07
000220 b8 63 d2 06 32 37 3e 34 2c f7 c8 bc b5 62 8a ba
       7.9139744e-35 1.7715209e-07 -0.024531923 -0.0010557981
000230 82 69 d8 a8 41 62 3a ae 8e 7c c8 bb be 39 4f bd
       -2.4026574e-14 -4.237877e-11 -0.0061183637 -0.050592177
000240 0a ec 76 b9 38 b5 03 b7 2b 95 1e 34 0d c6 0d b0
       -0.0002354832 -7.850402e-06 1.4769164e-07 -5.157695e-10
000250 0f b1 09 bd 20 17 f0 37 be 26 28 b7 b1 be 51 31
       -0.03361612 2.8620998e-05 -1.0022601e-05 3.0521898e-09
000260 f8 8c 41 b5 73 de 4f 2b a8 3e ae 2e d2 33 69 31
       -7.210324e-07 7.3849883e-13 7.923734e-11 3.393542e-09
000270 6c ab 4c ac cb ca 0b 81 9b 70 01 00 44 56 30 b1
       -2.9085302e-12 -2.5675765e-38 1.32231e-40 -2.5660407e-09
000280 b7 09 18 2a 9b 29 a2 3d 95 64 35 a0 9e 3b 2d af
       1.3503682e-13 0.07918092 -1.5364576e-19 -1.5755439e-10
000290 32 01 08 b7 53 0b 46 2b c7 c0 58 28 ed bd 00 80
       -8.10651e-06 7.0359446e-13 1.2032211e-14 -6.8133e-41
0002a0 c4 73 10 29 15 9b 4e ac c1 f5 14 ae 31 55 ef 29
       3.2074834e-14 -2.9360449e-12 -3.3869577e-11 1.06285105e-13
0002b0 7b 1d 92 aa 1f 18 eb a9 26 3b 43 2d 76 fa 4f ab
       -2.5955266e-13 -1.0440281e-13 1.10976e-11 -7.388876e-13
0002c0 18 50 01 80 1d 85 08 37 e0 2d 8f 92 83 b3 59 ac
       -1.20568e-40 8.1372245e-06 -9.035878e-28 -3.0937204e-12
0002d0 87 c8 e5 b2 f6 cd 71 b3 43 b8 cf ad f5 a7 13 ac
       -2.6750298e-08 -5.6299506e-08 -2.3615004e-11 -2.0983191e-12
0002e0 86 b6 d3 a6 19 cb 41 a8 0e 92 9f 27 e6 8a 26 a8
       -1.4690539e-15 -1.0757692e-14 4.428972e-15 -9.24497e-15
0002f0 50 b9 0d b6 8d 2b 02 80 bd be 4c 8e a1 4d 07 b4
       -2.1118503e-06 -1.99294e-40 -2.5236778e-30 -1.2601096e-07
000300 e4 92 97 b8 f9 a0 c4 bb ab c3 ba ba 65 2a 8b b3
       -7.2276016e-05 -0.0060006347 -0.0014248987 -6.4804034e-08
000310 12 f7 03 80 b9 aa 4e 2f 04 fe c3 a9 09 03 ab b3
       -3.64139e-40 1.8796244e-10 -8.703804e-14 -7.96336e-08
000320 6e 2c 5d a9 50 e9 c4 b6 89 55 a1 bc 3f f8 97 b9
       -4.9110394e-14 -5.8684163e-06 -0.019694107 -0.00028985922
000330 17 90 99 b6 8d 86 bb 34 38 fd 03 80 86 cd 01 28
       -4.5765296e-06 3.4929363e-07 -3.66344e-40 7.205504e-15
000340 df 49 b2 a7 45 c3 fb b6 49 dd ca 27 19 4c 4f 33
       -4.9485016e-15 -7.5031153e-06 5.630618e-15 4.8265154e-08
000350 a7 56 06 bd 0f 01 88 ba 84 86 39 b4 ee 16 59 2f
       -0.032797482 -0.0010376292 -1.7278404e-07 1.9744181e-10
000360 96 92 56 bc 43 b7 9d bc 73 dc 56 ba 44 af 99 b6
       -0.013096472 -0.019252425 -0.00081963016 -4.580159e-06
000370 26 66 bb 34 4d 33 29 aa ee 05 a9 36 e4 98 3f 35
       3.4905787e-07 -1.5028014e-13 5.037283e-06 7.137553e-07
000380 91 ed 89 b1 cb b0 88 b1 ed d3 bd 2f b5 49 16 38
       -4.014233e-09 -3.97822e-09 3.4529482e-10 3.5831432e-05
000390 cb f9 e5 2d 4b fc 9d ac 69 6b 75 bc 61 15 27 b6
       2.6145216e-11 -4.4902185e-12 -0.014979222 -2.4897383e-06
0003a0 88 14 d3 aa c1 77 98 ab 80 4c ae 29 41 cc 9d 88
       -3.7495376e-13 -1.0833488e-12 7.740423e-14 -9.497114e-34
0003b0 be 8a 3a af b0 ea 34 ae 29 b3 4f 39 44 31 b0 27
       -1.6965893e-10 -4.1135706e-11 0.000198078 4.8903227e-15
0003c0 6e 04 d9 a7 f2 40 37 34 b8 3d c2 3a 2c da 75 b9
       -6.02344e-15 1.706683e-07 0.0014819419 -0.00023446296
0003d0 4c 66 04 a8 91 97 af a7 37 93 ce a8 98 4a 62 a8
       -7.349654e-15 -4.8736586e-15 -2.2934439e-14 -1.2561695e-14
0003e0 4f 8f 89 29 f6 0b d7 12 1e eb 93 b6 52 49 c3 b4
       6.108882e-14 1.3571356e-27 -4.4083126e-06 -3.6374928e-07
0003f0 bb ae d9 ae e5 81 4f 29 c7 86 2c 2c 44 5b 01 80
       -9.899056e-11 4.60759e-14 2.4517487e-12 -1.24575e-40

gnn.init_context.project_node.0.bias f4 [64]
000000 0d cb e9 3b 29 fd ca bd 98 9f b9 bd ae f9 3a b9
       0.0071348012 -0.09911568 -0.09063643 -0.00017831355
000010 eb 3a 8c c0 88 85 12 bf 90 81 50 3b 8a dc b5 3d
       -4.382192 -0.57235 0.0031815507 0.08879955
000020 32 32 92 bc 4b a4 0b bb 7c 84 79 bc 9f f9 b5 be
       -0.0178462 -0.0021307643 -0.015229341 -0.35542008
000030 c6 7d 46 bc 37 21 34 b9 03 5a 2f c0 8e 2f 63 c0
       -0.012114948 -0.00017178511 -2.7398689 -3.5497775
000040 9e 8b 2a bf 86 31 dd b9 d9 35 f5 be 58 aa ae ba
       -0.6661929 -0.00042189303 -0.47892645 -0.0013325913
000050 b8 f1 a1 c0 a6 2a be 3f 0b 87 41 c0 da 85 78 bc
       -5.0607567 1.4856765 -3.0238674 -0.015168631
000060 30 72 66 bb 2c 30 93 3f 11 d6 4d bc 61 16 0b c0
       -0.0035163276 1.1499076 -0.012563244 -2.173241
000070 4e 5e 08 c0 11 de 9c c0 e6 ee 1c be fb 2d ab c0
       -2.130756 -4.9021077 -0.15325508 -5.349363
000080 51 44 11 bc c0 7e 01 be 29 61 a3 c0 9a 71 e2 b7
       -0.008866386 -0.12646008 -5.1056104 -2.69942e-05
000090 c9 d3 6e c0 76 cd 3d 40 f4 40 4d bf c2 09 8f b4
       -3.7316763 2.9656653 -0.80177236 -2.6642925e-07
0000a0 b3 9f 2c b9 b4 30 f2 bf e1 06 12 bd 17 9f 11 3d
       -0.00016462691 -1.8921113 -0.03565109 0.03555211
0000b0 3c 33 9b bb fc b7 02 be 16 5d 09 3c e4 97 c6 bb
       -0.004736332 -0.12765497 0.00838401 -0.0060605872
0000c0 46 b7 af bb a1 5b bc bd 50 87 cb ba 31 d8 ce bc
       -0.005362424 -0.09197164 -0.0015527997 -0.025249572
0000d0 ef e8 99 c0 b5 a6 86 bd 28 23 97 be 9d ea f2 bb
       -4.8096843 -0.065747656 -0.2951901 -0.007413222
0000e0 3e 51 86 be 3d 19 da 3f b6 54 e4 be d3 8b 6c 37
       -0.26233858 1.7038952 -0.4459588 1.40992515e-05
0000f0 5e 80 3d bf d2 45 7e bb e0 89 bb b7 0d fd 77 bd
       -0.74024 -0.003879894 -2.235634e-05 -0.060544062

gnn.init_context.project_edge1.0.weight f4 [64, 87]
000000 bc ff dd be b4 7b 8d be db 08 b2 3a b9 4e 67 39
       -0.43359172 -0.2763344 0.0013582961 0.00022059203
000010 8c 09 70 b8 3b e3 30 b3 13 a1 26 34 5e 9d ce b7
       -5.722935e-05 -4.1184858e-08 1.5518553e-07 -2.4630393e-05
000020 59 2b 1b b9 b0 35 0c b4 f6 fc a4 33 b4 66 cc 2b
       -0.000147981 -1.3058047e-07 7.6828584e-08 1.4523578e-12
000030 4b 89 17 aa 0e fa 55 a9 3a ca 75 2d 8c d6 b9 39
       -1.3459127e-13 -4.751239e-14 1.3971541e-11 0.000354458
000040 cc 92 99 a7 c2 c6 e5 2c 20 e2 0b 8f 6f 14 46 29
       -4.262519e-15 6.530638e-12 -6.896779e-30 4.3982555e-14
000050 ae 7b 6f 2d 33 0f cd af 75 ba 04 a8 13 46 7c a8
       1.36130395e-11 -3.7300082e-10 -7.367903e-15 -1.4004005e-14
000060 56 ff c5 2f 50 55 aa a7 e9 ae 37 38 02 14 f0 b0
       3.6015518e-10 -4.7276975e-15 4.3793498e-05 -1.7467985e-09
000070 f3 6f 7b 28 84 0d a4 30 f0 9e 02 00 53 44 22 80
       1.3957574e-14 1.1936412e-09 2.40687e-40 -3.146917e-39
000080 89 6d 51 aa b7 28 85 29 0a d8 89 3c aa 3e 53 30
       -1.8600932e-13 5.9134494e-14 0.016826648 7.6850404e-10
000090 3f 25 ff 29 b9 38 b6 a8 f7 a3 a2 9f 86 60 6d ba
       1.1330736e-13 -2.0230659e-14 -6.8880926e-20 -0.00090552156
0000a0 b2 4e 27 aa 34 6e 8f a8 24 81 1f a8 a0 41 a9 b6
       -1.4859883e-13 -1.5923982e-14 -8.854276e-15 -5.0442322e-06
0000b0 5a a2 a8 b9 f0 20 3f bf 47 d8 99 bd d9 85 91 38
       -0.00032164418 -0.74659634 -0.07511955 6.93907e-05
0000c0 4c aa 96 27 86 b1 17 34 44 b0 c0 2b 13 c2 2d 29
       4.1818e-15 1.4127554e-07 1.3691344e-12 3.858205e-14
0000d0 65 81 21 00 b4 fe a5 a8 7a 61 43 bf c2 c1 2d be
       3.07699e-39 -1.842914e-14 -0.7632061 -0.16968444
0000e0 c9 54 1c b9 01 59 59 39 81 4a 3e af 24 72 18 82
       -0.00014908904 0.00020727889 -1.7306868e-10 -1.1199953e-37
0000f0 ae 89 df 2b 18 1f 03 b7 e6 31 bd 27 36 2a 0f b8
       1.5883317e-12 -7.815448e-06 5.251214e-15 -3.413317e-05
000100 8d ca 93 bf bc 35 59 3a 27 97 33 b4 fb 68 17 34
       -1.1546189 0.00082859 -1.6725663e-07 1.4101163e-07
000110 64 10 7f bf 5c 37 42 bf dd 1c 34 be 2a 6c 1b b9
       -0.99634385 -0.7586572 -0.17589135 -0.00014822246
000120 8a 6b 59 39 ca 05 3f a3 ad 47 cd 3a b9 ba d6 ba
       0.00020734794 -1.0355357e-17 0.001566162 -0.0016382552
000130 3e 45 1f 39 c6 b1 50 bf 55 d6 4f bf 5b 69 79 bf
       0.00015189216 -0.8152126 -0.8118642 -0.97426385
000140 56 0d 8a bf ce 1b 32 b3 28 66 59 b5 e8 aa da b6
       -1.078532 -4.1469143e-08 -8.0987456e-07 -6.5168024e-06
000150 d4 ed 30 b6 d5 7d fc a7 b1 48 08 bc 49 72 14 b3
       -2.6364478e-06 -7.008048e-15 -0.008318112 -3.4562877e-08
000160 6e fc 45 32 b1 19 37 b1 58 f7 6c af 88 39 5b af
       1.1524305e-08 -2.6644609e-09 -2.1551949e-10 -1.9938373e-10
000170 b4 77 83 2b b3 f6 03 b8 7a 0f 5c af cb 6a 91 b2
       9.341334e-13 -3.146259e-05 -2.0014382e-10 -1.6928785e-08
000180 53 1c b4 af fb f0 05 bb e9 24 00 00 09 72 e9 a7
       -3.2761935e-10 -0.0020437825 1.3241e-41 -6.479413e-15
000190 59 52 7e ad 30 a6 6e 28 b1 3c be 30 38 4f 0c a9
       -1.4456513e-11 1.324769e-14 1.3841569e-09 -3.1154956e-14
0001a0 6b 3e 55 2f 77 b1 2c 2f 77 9d 23 07 9c 36 03 80
       1.9394412e-10 1.5706357e-10 1.2309032e-34 -2.95097e-40
0001b0 53 57 68 ab 5b 42 b3 b4 16 9d ee a7 49 28 b8 ab
       -8.2544144e-13 -3.3389628e-07 -6.6228583e-15 -1.3085168e-12
0001c0 44 de f0 84 9b b0 df b9 3d b0 a3 aa dd 89 3d 2c
       -5.6627848e-36 -0.00042665456 -2.9076906e-13 2.6935045e-12
0001d0 78 c8 0e a4 d1 da a1 37 f1 13 24 ac 38 0f 79 12
       -3.0961145e-17 1.929459e-05 -2.3316871e-12 7.8589305e-28
0001e0 96 59 2d 8c 56 7b 45 29 28 37 1f b8 b8 3b b3 3b
       -1.3354394e-31 4.3849764e-14 -3.7959922e-05 0.0054697655
0001f0 0d d5 b0 a7 64 73 90 31 02 34 85 a7 9b 43 8d a8
       -4.9080803e-15 4.20407e-09 -3.6971303e-15 -1.5683464e-14
000200 1e b4 ec 25 bd c3 22 b5 c2 01 9b a8 bd 72 a0 31
       4.1061526e-16 -6.063454e-07 -1.720922e-14 4.669657e-09
000210 5a 69 1b b1 7c ae 08 32 c2 ce 9b 30 1b 0e fa 2c
       -2.2615354e-09 7.955915e-09 1.1336498e-09 7.1069934e-12
000220 d6 b8 78 3a 6e c3 67 9d ca 66 74 a8 1b e7 37 a9
       0.0009487992 -3.067363e-21 -1.356701e-14 -4.0834615e-14
000230 8c e3 05 3a bf 3c 02 32 f9 3f 63 32 dd 91 61 b3
       0.00051074545 7.580808e-09 1.3227685e-08 -5.2519557e-08
000240 9c e7 64 b2 55 98 41 a8 b1 fb 82 26 5f c3 86 2f
       -1.3324009e-08 -1.0746684e-14 9.088783e-16 2.4513278e-10
000250 d5 f6 da 2e 00 4e df 2d 0d 6e e1 b1 d0 ff 74 b1
       9.9573384e-11 2.5386804e-11 -6.560873e-09 -3.5652086e-09
000260 0c a5 17 b3 ad 6e 86 28 6d 23 4c b2 b0 05 a3 31
       -3.5307536e-08 1.4924986e-14 -1.1882418e-08 4.744571e-09
000270 14 e9 00 b2 3a fa 77 b2 e6 4a 4d b3 92 3f 61 b2
       -7.503576e-09 -1.4434187e-08 -4.77984e-08 -1.3111178e-08
000280 ce fc f4 a9 ec 3d b7 32 e9 99 86 32 26 61 ad af
       -1.08796313e-13 2.1332163e-08 1.5669643e-08 -3.1537545e-10
000290 b9 e3 16 32 96 c0 49 2e bb ed 0f 33 66 db f4 b2
       8.782927e-09 4.587316e-11 3.3510997e-08 -2.850511e-08
0002a0 21 53 2d 00 f5 b5 f4 2f a0 bd a9 b2 39 91 95 28
       4.162418e-39 4.451263e-10 -1.976042e-08 1.6605303e-14
0002b0 97 4a 77 17 21 bb fc b0 7d 9e 50 35 8f a9 1c 35
       7.990415e-25 -1.8388598e-09 7.771667e-07 5.836127e-07
0002c0 6a ba 29 b4 f5 04 eb b1 0c ac f6 b1 e5 41 9d 2c
       -1.5807169e-07 -6.8399637e-09 -7.1791018e-09 4.469524e-12
0002d0 31 5e eb 38 15 04 f5 b1 97 fc 04 b2 16 6f 3d 9a
       0.00011223218 -7.1309025e-09 -7.7408435e-09 -3.917402e-23
0002e0 76 cb b8 37 80 ef 01 00 7e c6 88 af de a0 81 b0
       2.2029253e-05 1.77752e-40 -2.4879293e-10 -9.431707e-10
0002f0 42 88 f5 35 31 8b 0d ba 0b 94 78 2d 52 37 00 00
       1.8293579e-06 -0.0005399464 1.413004e-11 1.9845e-41
000300 26 b8 03 80 01 8e b6 a6 f5 92 92 30 34 0c 5a 26
       -3.41567e-40 -1.2667277e-15 1.0664666e-09 7.565048e-16
000310 6a d6 00 31 d5 db 10 a8 c4 2b e5 8d 83 d1 e4 39
       1.8748332e-09 -8.041274e-15 -1.4123751e-30 0.00043643647
000320 6b 39 4d 2d 67 58 cc 28 f6 4d fa 39 c5 24 bc b7
       1.166565e-11 2.2686888e-14 0.000477418 -2.2428469e-05
000330 f6 b3 13 a8 8b 53 94 a9 1c 7a 9f a7 9f 61 3c 83
       -8.199162e-15 -6.587013e-14 -4.4263756e-15 -5.53603e-37
000340 64 b7 20 a8 91 64 ea 27 e6 6b 3d a9 ed 9e 9a bc
       -8.921551e-15 6.505708e-15 -4.2060017e-14 -0.01887461
000350 c4 9a 21 a6 73 92 dd a7 d0 35 52 31 76 83 83 3a
       -5.606784e-16 -6.1498603e-15 3.058961e-09 0.0010033685
000360 b0 48 02 bc ce a1 95 b8 4a 01 9b 34 73 86 5b 34
       -0.0079519 -7.135012e-05 2.8871938e-07 2.0444877e-07
000370 1f 71 10 b5 1c 37 40 b5 c3 6b b3 a6 54 fe 25 b9
       -5.3808793e-07 -7.160577e-07 -1.2449829e-15 -0.00015830371
000380 72 37 9e 22 de 19 2e b7 85 08 02 35 e3 a2 84 af
       4.288469e-18 -1.0377231e-05 4.844117e-07 -2.4126398e-10
000390 80 c4 47 35 83 bc 18 b3 22 45 bd b3 e2 3b d3 b1
       7.441922e-07 -3.556171e-08 -8.8135735e-08 -6.147716e-09
0003a0 52 b2 05 a9 f4 44 08 15 22 0b 24 28 2e a8 88 31
       -2.96866e-14 2.7519376e-26 9.106243e-15 3.9772408e-09
0003b0 34 db ec 2e 49 e3 91 b0 7b 96 9b 35 9d 0f 32 35
       1.0770976e-10 -1.0614737e-09 1.1592196e-06 6.633289e-07
0003c0 4b 57 01 00 05 53 c2 b0 78 d5 dd b5 ae d8 79 35
       1.2315e-40 -1.4138953e-09 -1.6527911e-06 9.307504e-07
0003d0 9a d2 a6 33 f1 ec e9 b3 a6 d1 d3 b1 64 3c aa ac
       7.7682856e-08 -1.08930074e-07 -6.1647425e-09 -4.8383953e-12
0003e0 1f db 81 35 3e 7f c9 b4 1d d2 82 30 d8 ac 8e b5
       9.675022e-07 -3.7531748e-07 9.518463e-10 -1.0630129e-06
0003f0 ec f8 90 33 a6 29 eb 34 1b cd df 34 f1 9f 08 ac
       6.750801e-08 4.3802464e-07 4.168622e-07 -1.9415548e-12

gnn.init_context.project_edge1.0.bias f4 [64]
000000 29 68 97 bf cc a9 a0 32 a5 d9 aa b4 73 53 1f b6
       -1.1828662 1.8703666e-08 -3.1823325e-07 -2.374142e-06
000010 e1 ac 05 be 93 f9 0d 3c a6 c1 52 40 94 de 39 3f
       -0.1305423 0.00866546 3.2930694 0.7260525
000020 9f 42 ec bb 48 83 aa b3 ca e8 b2 ba 17 a1 df 32
       -0.0072100903 -7.940122e-08 -0.0013649699 2.6033872e-08
000030 0a 5a ea b6 54 ed 4a b6 d7 5b ef 3f de ee 44 35
       -6.9842254e-06 -3.0238489e-06 1.8699902 7.336329e-07
000040 d6 cd 42 b4 76 ed 93 bf 25 43 48 3b 9b f7 22 35
       -1.814254e-07 -1.1556842 0.00305576 6.0710016e-07
000050 8c f3 6e 3f b7 ff 2f be a1 d0 d6 38 84 07 e1 38
       0.93340373 -0.17187391 0.00010243175 0.00010730236
000060 c8 7e 8e ba f4 c3 c4 30 61 ba 71 b1 0e 3e e1 35
       -0.0010871524 1.431657e-09 -3.517606e-09 1.6781867e-06
000070 5a 11 ad b1 e1 f0 23 b2 e2 47 97 3a c3 6a 31 3d
       -5.0369353e-09 -9.542618e-09 0.0011541808 0.043314707
000080 72 bf c4 34 67 8f 63 39 8a 41 4a b7 5f 96 c0 b4
       3.664714e-07 0.00021701829 -1.2055398e-05 -3.5872196e-07
000090 8a 11 b1 3a fe fe d6 3f 42 65 04 af 08 d6 0d b3
       0.0013509255 1.6796567 -1.2041304e-10 -3.302378e-08
0000a0 89 f0 54 b5 0b 20 de 3f 92 0c 26 be c9 9b 4a b4
       -7.932618e-07 1.7353529 -0.16215733 -1.886939e-07
0000b0 95 a9 bd b4 68 8f 0f b5 a3 59 13 ad 25 66 96 32
       -3.532738e-07 -5.3480335e-07 -8.375886e-12 1.7508748e-08
0000c0 e1 fc c2 3e 07 65 d9 36 cd 27 af 33 8e a8 05 31
       0.38083556 6.478865e-06 8.156312e-08 1.944986e-09
0000d0 46 fa a9 bc a7 aa 2e ae 88 82 de b7 b0 67 4a 2a
       -0.020749222 -3.971459e-11 -2.6525246e-05 1.7977178e-13
0000e0 74 f6 e3 b4 c7 d6 db 37 09 73 a0 b5 53 2a 94 b7
       -4.2461363e-07 2.6206848e-05 -1.1954409e-06 -1.7662684e-05
0000f0 45 4d 4b 34 81 ec 3f bf ec 7d 0f b6 47 bc d3 b5
       1.8933959e-07 -0.7497025 -2.1381957e-06 -1.5775521e-06

gnn.init_context.project_edge2.1.weight f4 [1, 128]
000000 83 e1 db b8 8a 19 dc 3a b2 a6 80 b9 66 22 10 36
       -0.000104847386 0.0016792279 -0.0002453826 2.1477695e-06
000010 22 09 e1 3b 86 50 a0 38 71 18 06 37 b8 12 d4 3a
       0.006867544 7.644393e-05 7.992713e-06 0.0016179895
000020 be fd 00 b8 13 ce 95 b9 6f 7d 64 36 74 03 34 3a
       -3.0753894e-05 -0.00028573032 3.404766e-06 0.00068669696
000030 c0 f5 27 b8 13 a8 85 b7 c0 2d 20 3f d6 08 47 3a
       -4.0044775e-05 -1.5933101e-05 0.6256981 0.0007592564
000040 0f 70 c3 3b 9d 83 1e b6 ec 74 1f ba 98 3f 37 33
       0.005964286 -2.3620444e-06 -0.00060827914 4.2665846e-08
000050 65 8c 72 3c 3a 64 ad bf 6b a4 c0 3b f5 1e 10 b8
       0.0148039805 -1.3546212 0.005878975 -3.4361106e-05
000060 7e 61 04 36 27 c9 81 40 7b 70 9b 37 a8 ba cc 3b
       1.972628e-06 4.0558047 1.8529818e-05 0.006247837
000070 17 64 4e 3b 49 9b bc ba 3f 4c 7c 3a 34 23 48 3b
       0.0031492764 -0.001438954 0.00096243987 0.003053856
000080 86 70 b8 b6 94 2c 70 b8 f6 d6 ea 3c 9e e8 f6 31
       -5.4967268e-06 -5.7261976e-05 0.028666954 7.185988e-09
000090 08 23 45 3c 64 b1 c8 3f 9b d6 ee 3a 1b 17 57 b1
       0.012032278 1.5679135 0.0018221916 -3.1299752e-09
0000a0 c9 91 65 b3 87 e1 20 3d eb 77 be b8 05 56 35 bc
       -5.345081e-08 0.03927758 -9.0822425e-05 -0.011067872
0000b0 0a 87 2a 38 94 47 32 b9 32 81 a0 bb f4 f8 c8 37
       4.0656923e-05 -0.00017002068 -0.004898214 2.3957786e-05
0000c0 b3 9f e9 38 47 8a be 39 0b eb 00 b7 54 5e 8e 36
       0.00011140052 0.0003634265 -7.68412e-06 4.242911e-06
0000d0 5d cd 04 3f 88 e4 24 38 27 db 0c 3a 02 11 3c 3b
       0.5187586 3.9313483e-05 0.00053732324 0.002869666
0000e0 2e f4 f0 38 77 97 75 bf 1a ac a6 39 f7 6f d8 b4
       0.00011489574 -0.9593424 0.00031790213 -4.03146e-07
0000f0 cc 97 ea 3a e1 7b f4 36 81 33 b3 32 b6 d8 77 be
       0.0017898022 7.286188e-06 2.0861764e-08 -0.24203762
000100 a1 ec 4c 3e 4d a6 2a 33 a4 4c 2b b5 c8 b9 f5 b4
       0.20012142 3.973246e-08 -6.381399e-07 -4.576998e-07
000110 08 a2 2e bc 53 16 8e ba da 9a 85 c0 b5 11 c3 3e
       -0.010658748 -0.0010840393 -4.175153 0.38099447
000120 a7 37 51 3c b5 8b 00 33 cd dc 48 ba b1 cf 02 31
       0.012769616 2.9929385e-08 -0.00076622964 1.9035549e-09
000130 a0 51 9f 36 18 54 c8 b4 ae e7 34 3c 45 24 91 37
       4.7480717e-06 -3.731409e-07 0.011041565 1.7302236e-05
000140 fd be 33 b4 3a c0 54 3f af dc 73 bb 63 b9 4f b4
       -1.6740155e-07 0.83105814 -0.0037210395 -1.934582e-07
000150 6e a3 80 c0 13 72 ee 39 ab 41 f4 b6 c9 1b ad 38
       -4.01995 0.0004547989 -7.2794114e-06 8.254458e-05
000160 77 11 34 3d 97 c1 10 b0 02 60 40 b0 ef 4a 38 b6
       0.04396197 -5.2662e-10 -6.998563e-10 -2.7461754e-06
000170 af ed 7e ad 82 8d ed b2 d2 16 41 bb 95 c4 af bb
       -1.4491005e-11 -2.7654782e-08 -0.0029463065 -0.0053640106
000180 8d ac ff b2 3c 50 5a 38 8c 27 cc b5 74 82 a1 b3
       -2.9764374e-08 5.2049974e-05 -1.5210694e-06 -7.520876e-08
000190 16 fc 47 37 ba ca 9b c0 2c bc 81 30 f8 ab 83 33
       1.1920018e-05 -4.868497 9.439467e-10 6.131444e-08
0001a0 f5 b0 9d b5 9d 12 33 3f c2 dd 34 bd 63 2d 97 b0
       -1.1748913e-06 0.69950277 -0.044156797 -1.0999596e-09
0001b0 c1 c3 1a 36 e3 54 96 b6 7a 50 89 2e ed 5e 34 b1
       2.3061732e-06 -4.4802305e-06 6.244334e-11 -2.6247406e-09
0001c0 da 2e 76 c0 e3 de 6c 36 eb fa 8c b5 55 74 ad 30
       -3.8466096 3.5296478e-06 -1.050384e-06 1.262047e-09
0001d0 bd ea a7 3f 71 8a fc 2f b6 77 df 33 c5 be 36 ab
       1.3118511 4.5936902e-10 1.0406022e-07 -6.4924135e-13
0001e0 79 c7 4a b3 9a 8e 02 b9 dd e7 69 35 59 c6 a2 b8
       -4.721321e-08 -0.0001245089 8.713667e-07 -7.761707e-05
0001f0 14 70 d5 33 88 07 0b ba 92 84 d4 35 dd 58 b9 b1
       9.938972e-08 -0.00053035514 1.5833814e-06 -5.394311e-09

gnn.init_context.attentive_gru.edge_transform.1.weight f4 [64, 64]
000000 08 da 61 3a ba 14 4d b0 10 9a 3c b3 4d 65 69 b3
       0.0008615558 -7.460802e-10 -4.391228e-08 -5.4341672e-08
000010 ef 6d 4d bb b2 7f 96 b9 d6 60 3c c0 1c 9e 13 bc
       -0.0031346043 -0.0002870537 -2.9434104 -0.009009864
000020 2a 20 d4 3a 00 ba 8f 31 4e 1e cf b9 44 8e de b0
       0.0016183902 4.1829935e-09 -0.00039504695 -1.619306e-09
000030 3f 48 47 35 70 52 90 b2 3a 12 05 3b c4 df 37 b3
       7.423841e-07 -1.6801295e-08 0.0020305053 -4.281152e-08
000040 a5 7a b3 32 69 51 af bb 8b 8e 19 39 94 4e 05 b2
       2.0894115e-08 -0.005350281 0.00014644318 -7.7594855e-09
000050 b4 b1 18 bd 79 1e 63 bb c1 d4 17 37 79 4e c4 34
       -0.037278846 -0.0034655614 9.049837e-06 3.656494e-07
000060 a1 32 82 b8 ef 7b 13 af d4 88 84 ad 96 f1 fc 34
       -6.2083134e-05 -1.3413602e-10 -1.5067426e-11 4.7114435e-07
000070 0a 6b f7 2e 4c 36 13 2d d3 c6 60 39 27 75 b2 ba
       1.12512735e-10 8.368039e-12 0.00021436372 -0.0013615236
000080 f2 7d 40 b2 43 f4 9b b6 4e bc 3e b5 a0 43 78 33
       -1.12045075e-08 -4.647796e-06 -7.1054535e-07 5.7803504e-08
000090 c7 7d 89 38 6a 13 a1 b9 ab 53 41 ae a0 7e 60 b1
       6.556097e-05 -0.00030722778 -4.395743e-11 -3.2668268e-09
0000a0 38 a5 e3 34 40 bf 73 bd 0f a7 94 37 32 4c b4 31
       4.2402257e-07 -0.059508562 1.7720768e-05 5.247352e-09
0000b0 79 42 50 32 f0 20 1d 34 bb 4c 6e ac 07 4d 43 30
       1.2122308e-08 1.4633747e-07 -3.3864428e-12 7.105005e-10
0000c0 54 fb 18 bb 26 9f 58 b5 9f 6a a4 32 80 15 0a 31
       -0.0023343163 -8.069786e-07 1.9140598e-08 2.0093864e-09
0000d0 a7 f8 3c 38 10 1a 48 af b6 a5 8c 34 82 b6 29 2a
       4.505427e-05 -1.8199153e-10 2.6197603e-07 1.5073535e-13
0000e0 f5 95 8f b2 87 01 48 b8 d4 fc 3e b4 63 66 ba b3
       -1.6715584e-08 -4.768514e-05 -1.7787107e-07 -8.679924e-08
0000f0 bd e3 4b 33 e8 96 c5 ba d5 7e a0 b4 33 43 29 b1
       4.7471747e-08 -0.0015074881 -2.9894605e-07 -2.4630935e-09
000100 d9 26 9a b9 2b 27 1a 32 6b 73 8d 33 ba 52 0a 35
       -0.00029402113 8.9728855e-09 6.5868186e-08 5.152939e-07
000110 76 71 35 b8 7d 99 ae 38 fc d3 bc be e6 d0 03 bd
       -4.325943e-05 8.325556e-05 -0.3688048 -0.032181643
000120 bc d8 28 ba 49 ed e4 af fb dc 03 b8 32 96 11 b0
       -0.00064409873 -4.164156e-10 -3.1438638e-05 -5.2964133e-10
000130 c5 66 65 36 5d 67 32 35 ed bb fa bd 06 2a 77 af
       3.418348e-06 6.646058e-07 -0.12242875 -2.2479449e-10
000140 68 3b 87 32 90 cb 5e 3b ed 7b 3c bb d6 4b 23 30
       1.5743083e-08 0.0033995844 -0.002876039 5.9406824e-10
000150 cd 5a 5e bc 10 8b 84 b7 a6 2a 8a 35 f6 f2 95 35
       -0.013571453 -1.5800382e-05 1.0294214e-06 1.1172076e-06
000160 1f 18 47 38 fe 3b 9f ae 28 6d 60 2e c3 15 6d 34
       4.746776e-05 -7.2411396e-11 5.1028654e-11 2.2080262e-07
000170 2b 85 cf 30 e9 ab 06 b0 bd 97 98 b8 5b 0f 13 3b
       1.5099081e-09 -4.8993215e-10 -7.276188e-05 0.0022439572
000180 b9 b5 28 32 23 c1 93 37 ad 4d 05 35 f1 30 c7 32
       9.820206e-09 1.7613702e-05 4.9659394e-07 2.3188905e-08
000190 28 f6 01 38 00 3f d9 3a 1c 15 fc 2c ff 94 67 32
       3.0985248e-05 0.0016574562 7.1646144e-12 1.34798475e-08
0001a0 69 19 81 b4 fc bb a4 bd 2a 03 0b b7 27 f3 76 b3
       -2.404661e-07 -0.08043668 -8.285782e-06 -5.7497484e-08
0001b0 65 48 97 2f 59 9d 14 b6 80 3c b3 ab 04 a7 d6 31
       2.751818e-10 -2.2145307e-06 -1.2735507e-12 6.247207e-09
0001c0 d2 b8 0e bc 62 7c c7 b5 34 6e 61 b1 ba 30 b2 30
       -0.008711057 -1.4862856e-06 -3.2804452e-09 1.2965053e-09
0001d0 f0 5f 5c b8 84 b6 b4 b0 cd 90 a3 b3 99 e2 d4 2c
       -5.2541436e-05 -1.3148598e-09 -7.616618e-08 6.05056e-12
0001e0 fd 80 fb 32 b5 f6 48 37 11 9b 49 33 ce 6f 21 37
       2.9278903e-08 1.197837e-05 4.693999e-08 9.622379e-06
0001f0 41 22 4a 33 b1 bb 01 3a fd ba 18 35 ba e8 37 b2
       4.7062944e-08 0.00049489277 5.6896516e-07 -1.0704918e-08
000200 d9 68 37 3b a9 a5 b2 af 16 b8 b5 34 28 b2 ba b3
       0.0027986078 -3.249572e-10 3.3847817e-07 -8.6937064e-08
000210 55 e1 03 37 98 d9 88 39 da ba 7b c0 fa c0 ab 3a
       7.860673e-06 0.0002610206 -3.9332795 0.0013103776
000220 00 00 5c b8 63 93 95 b1 4b 20 8e 3a b6 84 c2 30
       -5.2452087e-05 -4.3532267e-09 0.0010843364 1.4153076e-09
000230 fa 38 2e 36 0d c7 93 b5 fd 4d 8f ba 98 f9 a3 b2
       2.5961185e-06 -1.1010285e-06 -0.0010933276 -1.90892e-08
000240 90 be 38 b2 b5 3e 2d bb 1e 20 3a 3b 1f af 11 34
       -1.07535385e-08 -0.0026435081 0.002840049 1.3567886e-07
000250 e9 8f 2e b7 a9 58 0a 39 03 11 3f 34 de 0b 21 b7
       -1.0404715e-05 0.00013193734 1.779445e-07 -9.599111e-06
000260 58 49 1b b9 63 17 9b 2f bf 80 0f 2f 32 e1 0a 34
       -0.00014809275 2.8210953e-10 1.3051514e-10 1.2934177e-07
000270 6d 76 09 30 53 60 f4 af 69 d6 ee 38 70 48 9c ba
       5.0008603e-10 -4.4451784e-10 0.000113886614 -0.0011923444
000280 14 34 b6 b1 47 80 89 37 1d 2e 01 b5 97 2f 6d 34
       -5.3028177e-09 1.6391406e-05 -4.812335e-07 2.2089658e-07
000290 23 69 3b b7 a5 ee dd ba 5d 08 91 2e cc aa 26 31
       -1.1170548e-05 -0.0016932084 6.595322e-11 2.4253266e-09
0002a0 b6 9f 5b b3 51 07 96 38 46 3a 8e 36 d9 99 2a b1
       -5.1135167e-08 7.15392e-05 4.2387137e-06 -2.4825708e-09
0002b0 00 6a ab b0 4b 50 8d 34 b6 e8 28 ae 56 a0 64 b0
       -1.2472015e-09 2.6321717e-07 -3.8405466e-11 -8.317377e-10
0002c0 e6 05 ab 3b aa a8 8b 35 5b a9 03 b3 c3 f9 6e 32
       0.005219209 1.0405395e-06 -3.0654842e-08 1.39102125e-08
0002d0 c7 77 67 37 c1 c4 0b 31 9e 10 d9 b4 2f ca c4 ac
       1.3796561e-05 2.0339004e-09 -4.043149e-07 -5.593102e-12
0002e0 6c 46 85 b3 15 68 af 34 bd 6e 74 b4 a5 e1 9f b5
       -6.206105e-08 3.267202e-07 -2.2764557e-07 -1.1912094e-06
0002f0 4c a5 86 31 8c 74 8a ba ec 63 07 b4 aa 89 ec 32
       3.9187054e-09 -0.0010563298 -1.2609206e-07 2.7536618e-08
000300 a5 b7 53 3b 88 6d 3f b1 d6 4c c0 33 f6 c2 8c b2
       0.0032305506 -2.785642e-09 8.954673e-08 -1.6386803e-08
000310 c2 4a e5 be b9 fc 9d ba c7 ba d2 bf d8 64 e0 be
       -0.44783598 -0.0012053467 -1.646325 -0.43826938
000320 d7 60 05 3c fd e9 0a b1 f2 02 3e 38 f4 21 1c b0
       0.008140764 -2.021465e-09 4.5302273e-05 -5.680072e-10
000330 1b 03 6f 35 46 83 59 32 81 24 04 bf c6 5c fb b4
       8.903896e-07 1.26609105e-08 -0.516182 -4.6819895e-07
000340 46 cd bd 32 7d 0a 26 be 9c 2b 77 bb d7 38 68 32
       2.2095843e-08 -0.16214938 -0.0037715202 1.3517101e-08
000350 34 2f 41 bf 58 5a d7 ba 6a de 26 37 68 b1 6e 37
       -0.7546265 -0.0016430123 9.946156e-06 1.4227211e-05
000360 7d 23 36 37 32 30 3d af 21 28 8b ae c3 90 27 34
       1.0856308e-05 -1.7206572e-10 -6.3281165e-11 1.5605751e-07
000370 d5 bb db 30 df ad 0b ac fa 0f 48 b8 d7 0a 09 3b
       1.5987732e-09 -1.9849606e-12 -4.7698595e-05 0.0020911002
000380 77 96 8b 32 97 5f ed 38 6e 90 44 b5 1a e3 35 b1
       1.6250153e-08 0.00011318846 -7.322586e-07 -2.6468059e-09
000390 d4 07 2c 3a 94 27 0c ba 95 ff 01 aa a1 38 c7 31
       0.0006562446 -0.0005346474 -1.1546174e-13 5.7981002e-09
0003a0 46 a7 a8 b4 e2 7b cd be 8e 4b 71 3a af c3 c4 b1
       -3.1414146e-07 -0.40133578 0.0009204679 -5.7265974e-09
0003b0 1d cb 82 b2 e2 78 1f 34 6c a2 91 2c 14 88 58 2f
       -1.5226357e-08 1.4852006e-07 4.1391803e-12 1.969343e-10
0003c0 50 e3 9c bd 05 97 43 36 87 05 82 b2 e7 10 98 b0
       -0.07660544 2.914517e-06 -1.5136505e-08 -1.106426e-09
0003d0 80 c9 b9 39 b0 e7 89 2f 4c 7e 11 35 5b 4d 7f ab
       0.0003543608 2.508478e-10 5.4200495e-07 -9.070155e-13
0003e0 78 85 4a b4 a8 f1 cf 35 c0 8c f8 34 06 cc c6 b5
       -1.8861272e-07 1.5493033e-06 4.629601e-07 -1.4811528e-06
0003f0 4a 9f 9f 32 cd 34 29 bb 6e f4 90 35 e2 bc 28 32
       1.8582472e-08 -0.0025818825 1.0799974e-06 9.821834e-09

gnn.init_context.attentive_gru.edge_transform.1.bias f4 [64]
000000 16 ec bc bb 4a 49 67 3a 94 77 b9 bb ad 0d 85 be
       -0.0057654483 0.00088228716 -0.005660007 -0.25986996
000010 cf 5c 07 ba 21 48 84 3b 58 39 83 bc fb bf 09 3c
       -0.0005163671 0.0040369187 -0.016018555 0.008407588
000020 3a f3 de 3e b2 d8 3f 3c ff a8 06 3f b8 df 9c 3c
       0.43544942 0.011709379 0.5260162 0.019149646
000030 fc 2f 84 b9 61 c4 94 be 6c ac a7 bc 19 1d 5e 3b
       -0.00025212753 -0.29056075 -0.02046796 0.0033891855
000040 ba 6f 13 be 8f ee 2f bc 1f 0c ae be 6d 33 17 bc
       -0.14398089 -0.010738029 -0.33993623 -0.009228569
000050 48 07 8b be bf 2f 23 3c dd c5 e9 bb be 1d 8f 3d
       -0.27153993 0.009960114 -0.007134183 0.06988095
000060 c9 3a b7 be 6b 29 79 be 47 f4 ed ba 85 1a 6d 3d
       -0.35787037 -0.24332206 -0.0018154465 0.05788662
000070 11 3d 52 bd 38 6a cf 3d 32 44 f0 bc 14 33 58 3e
       -0.05132777 0.101276815 -0.029329393 0.21113235
000080 9c 5d d0 3c 3d 25 9b ba 67 b9 ab 3b 75 93 ac 3a
       0.025435261 -0.0011836659 0.0052406075 0.0013166504
000090 93 cc 05 be e5 63 e4 b9 19 87 97 3a eb 3e ae b9
       -0.1306632 -0.00043561976 0.0011560648 -0.00033234744
0000a0 ea d5 f2 3e 9e 26 32 bc d6 88 aa 3c 13 a2 ed 3c
       0.47428828 -0.010873465 0.020817202 0.029007947
0000b0 2b e2 07 3e 0a 48 c8 3a 6b 05 72 bd 67 c3 b2 3c
       0.1326987 0.0015280258 -0.0590872 0.02182169
0000c0 cb 60 83 3a 57 02 c1 bb 4f f4 68 3d f8 7e 5e ba
       0.0010023353 -0.0058901715 0.056873616 -0.0008487548
0000d0 69 7f aa bd 59 ab 1c be b7 b5 50 be 5b 28 ae bd
       -0.08325083 -0.15299739 -0.20381819 -0.08503791
0000e0 18 93 28 3c 50 eb 06 3f b1 41 b7 bc 0a c4 12 3c
       0.010288976 0.5270281 -0.022370191 0.008957872
0000f0 0f 7d 96 3d 0e 3c 90 3c 8d 26 03 39 25 50 79 bd
       0.07348072 0.017606761 0.00012507495 -0.060867447

gnn.init_context.attentive_gru.gru.weight_ih f4 [192, 64]
000000 1c a1 96 b7 54 22 97 37 ca 54 b5 36 a2 5c e5 36
       -1.7956416e-05 1.8016588e-05 5.404091e-06 6.8355157e-06
000010 e5 21 ca b5 7f b3 2b 38 07 c6 ff b5 c6 89 2f b7
       -1.5060037e-06 4.0936746e-05 -1.9056614e-06 -1.0462891e-05
000020 96 9b c1 39 58 81 be 36 55 3e 8c 38 9b d5 56 b8
       0.0003692775 5.677499e-06 6.6873305e-05 -5.122051e-05
000030 21 77 00 b8 39 d4 e0 b6 f1 3e 2b 37 d2 8b 67 b7
       -3.0628526e-05 -6.700426e-06 1.0207049e-05 -1.3801227e-05
000040 9c 1a 2d b7 73 60 8b b6 1f 6f 73 b5 a3 78 97 38
       -1.0317799e-05 -4.153751e-06 -9.0686257e-07 7.2227114e-05
000050 71 11 9f 37 f5 cb f0 36 68 8b 31 b9 bf 4f bb 37
       1.8962399e-05 7.176301e-06 -0.00016931968 2.2329272e-05
000060 3c a9 ad 36 e3 ed 69 38 05 03 fb 37 67 28 2e b9
       5.1755032e-06 5.577308e-05 2.9922938e-05 -0.00016608984
000070 4b ca 1a b7 96 fd f6 b8 05 b9 05 b7 75 64 26 ba
       -9.226215e-06 -0.00011777428 -7.970496e-06 -0.0006347367
000080 60 37 ab 38 d4 69 cb b5 9c 8d f8 37 b5 fc 86 b6
       8.16423e-05 -1.5155479e-06 2.9629846e-05 -4.02293e-06
000090 59 26 a7 b7 2f 19 39 37 b3 8a 49 37 66 83 58 35
       -1.9925808e-05 1.1032723e-05 1.2012827e-05 8.065748e-07
0000a0 5e 30 38 39 8a 68 c4 37 8d cb eb 36 72 fc bd b7
       0.00017565626 2.34137e-05 7.027242e-06 -2.264811e-05
0000b0 f6 a6 f0 b9 85 af 02 b7 9c 1a 0d b8 08 f4 f0 37
       -0.00045900763 -7.78947e-06 -3.36418e-05 2.8723865e-05
0000c0 83 e7 06 38 d2 b5 9b 36 f5 4d e5 38 8d 0d 6c 37
       3.21637e-05 4.6405266e-06 0.000109340916 1.4069851e-05
0000d0 60 aa 12 37 e5 35 28 b7 15 fe 93 36 16 88 61 b6
       8.741947e-06 -1.0026129e-05 4.4105204e-06 -3.3606825e-06
0000e0 83 a7 db b7 b5 c9 e6 39 b7 a2 b7 b8 54 2c 02 b7
       -2.6184838e-05 0.00044019302 -8.756428e-05 -7.758925e-06
0000f0 8c b8 e8 37 00 51 1d 39 4a c6 30 36 0f 80 96 b7
       2.7742492e-05 0.00015002862 2.6341463e-06 -1.7941025e-05
000100 fc af c2 2a 5b 23 6d a9 37 b9 0f a8 50 fd b4 2a
       3.4583436e-13 -5.2655237e-14 -7.978257e-15 3.2150194e-13
000110 71 9e 9b 28 f5 a2 2e 2c 06 94 11 29 7e cb a8 28
       1.727717e-14 2.4817347e-12 3.2324858e-14 1.8739997e-14
000120 84 47 90 2c f7 5f 3b ac a9 d9 82 ac 71 ef eb aa
       4.100666e-12 -2.662757e-12 -3.7189874e-12 -4.1910532e-13
000130 88 55 25 ab 53 98 55 ab 20 fc 0e aa 7e 93 de 29
       -5.8738474e-13 -7.5884194e-13 -1.2699607e-13 9.884366e-14
000140 da 98 e1 29 d2 d7 8c 2c 7a 28 41 ab 5d 8a 21 a7
       1.0018523e-13 4.003e-12 -6.8623547e-13 -2.2418245e-15
000150 29 67 c5 ab 63 f5 b1 2a a6 cb 6b 28 72 35 13 2b
       -1.4026325e-12 3.1611787e-13 1.308928e-14 5.229906e-13
000160 db 60 9f ab a5 90 91 ab b3 bd 5c 2a 30 32 2c 2c
       -1.1324512e-12 -1.0343017e-12 1.960574e-13 2.447053e-12
000170 fe e0 ce ab 65 f2 8a ab 1b cf 03 2a ae c2 35 2a
       -1.4699628e-12 -9.872768e-13 1.1706991e-13 1.6143572e-13
000180 7d ba 3a 2b 51 83 7f 2a bb 83 99 ab 66 51 4a 2a
       6.633928e-13 2.2694109e-13 -1.0907866e-12 1.7969445e-13
000190 93 88 ec aa 92 18 ac 29 34 61 ed a9 8c 2e 6e aa
       -4.201679e-13 7.642597e-14 -1.0541776e-13 -2.1154796e-13
0001a0 b2 50 a4 2c 18 cf fc ac 73 45 20 a9 75 c0 d6 a9
       4.6701193e-12 -7.185263e-12 -3.5587374e-14 -9.536895e-14
0001b0 32 4e 19 2c 60 82 08 2b 91 aa 5a ab 97 ed b7 ab
       2.1786015e-12 4.849784e-13 -7.7685867e-13 -1.3068876e-12
0001c0 3a f1 48 2a 53 17 60 28 2e e5 5c 2b 1b 17 05 29
       1.784726e-13 1.24395555e-14 7.847775e-13 2.9551973e-14
0001d0 ce 45 97 ab 26 aa 92 ab 35 e3 01 ab b0 b3 8d aa
       -1.074857e-12 -1.042115e-12 -4.614532e-13 -2.5171315e-13
0001e0 79 62 14 ab 7a 64 e6 2c af cf 06 aa 0c 23 82 aa
       -5.271682e-13 6.5481483e-12 -1.1973646e-13 -2.3116958e-13
0001f0 83 21 42 a9 92 bf 21 2b 8d c6 5e 29 31 e6 6a 2a
       -4.310572e-14 5.746455e-13 4.9466118e-14 2.0863239e-13
000200 0d 9e 70 b5 8f c5 66 b3 70 f3 56 b4 3c d4 2d b5
       -8.963696e-07 -5.3730727e-08 -2.0018865e-07 -6.4756364e-07
000210 c1 d3 18 37 e7 fe 3e 36 55 a2 1d b2 df ce cf 33
       9.109209e-06 2.846058e-06 -9.175513e-09 9.676818e-08
000220 7f e3 19 b4 9b 19 63 36 ae 85 99 b4 f2 49 ab b4
       -1.4331998e-07 3.384054e-06 -2.8595736e-07 -3.1905034e-07
000230 ad d5 97 b4 f5 fd cc b4 9d 68 f2 36 65 fc f5 34
       -2.828141e-07 -3.818274e-07 7.2243406e-06 4.5818447e-07
000240 4b 9f 99 35 49 26 3e 32 dd 0a 0c 34 65 29 08 b6
       1.1445749e-06 1.1068161e-08 1.3042468e-07 -2.0289674e-06
000250 d9 67 60 b4 e4 fb 6c b5 28 08 a2 35 4f e3 38 b4
       -2.0899405e-07 -8.82834e-07 1.2072314e-06 -1.721903e-07
000260 d7 03 08 36 a0 15 c4 b4 62 90 30 b6 9d cb b4 34
       2.0267814e-06 -3.652358e-07 -2.6310086e-06 3.367576e-07
000270 43 73 cd 35 2f 89 bc b3 c8 08 cf 35 96 e1 05 34
       1.5307236e-06 -8.779386e-08 1.5425258e-06 1.2468658e-07
000280 51 4b 15 35 51 7d c0 35 5c fd 39 b4 13 0e be 34
       5.5616425e-07 1.4341587e-06 -1.7321639e-07 3.5400498e-07
000290 d2 c4 de 34 82 ae a6 34 0f ed 00 b4 52 72 4a 35
       4.1493928e-07 3.104688e-07 -1.200717e-07 7.541722e-07
0002a0 b5 b0 32 b4 5b 61 04 b6 ad bf 02 b4 4d 42 89 34
       -1.6641827e-07 -1.97262e-06 -1.2176925e-07 2.556648e-07
0002b0 6d 89 8f 32 b6 4b ad b3 7e 45 81 b4 e0 ce 19 b5
       1.6709885e-08 -8.069712e-08 -2.4078685e-07 -5.7297984e-07
0002c0 3e 3c 40 35 3b 5b ca 36 61 88 3b b4 a6 60 51 35
       7.161324e-07 6.0306897e-06 -1.7465347e-07 7.799921e-07
0002d0 79 cf 07 b4 d1 09 75 b5 93 10 37 33 44 da ae b3
       -1.2648333e-07 -9.1283897e-07 4.2623082e-08 -8.142209e-08
0002e0 9b 03 d5 b5 8b 52 6c b4 0e 36 a5 35 b5 2e 6f 35
       -1.5870786e-06 -2.2009242e-07 1.230919e-06 8.9102406e-07
0002f0 cc 2b 39 b5 a4 4c 9d b6 08 8a a1 b2 a0 2a 9f 35
       -6.8981603e-07 -4.6878868e-06 -1.8805636e-08 1.1858829e-06
000300 76 d5 cb b7 69 72 98 37 47 9a dc b7 3b 09 03 b7
       -2.4298886e-05 1.8173088e-05 -2.6297885e-05 -7.810358e-06
000310 61 04 be b8 8e de 22 38 5a e6 47 b6 a1 fc 01 b7
       -9.060722e-05 3.883108e-05 -2.9787393e-06 -7.747819e-06
000320 26 1d 32 b8 32 75 12 b7 99 26 17 b6 08 d0 67 37
       -4.2465654e-05 -8.729565e-06 -2.252322e-06 1.3817109e-05
000330 67 9d bd 34 b3 c9 bd 37 f7 81 2d 37 79 1a f0 b7
       3.531852e-07 2.262448e-05 1.0341863e-05 -2.8622557e-05
000340 80 71 74 b6 91 d2 8c b4 23 36 83 b7 ee 68 ce b8
       -3.64249e-06 -2.623024e-07 -1.5641626e-05 -9.84239e-05
000350 d7 bf 80 b7 b7 41 41 36 36 1d bf b8 52 68 2f 37
       -1.5348121e-05 2.8797492e-06 -9.113031e-05 1.0455102e-05
000360 a0 45 02 38 a8 be 47 37 e2 da 2d b8 e3 ed 5e 36
       3.105926e-05 1.1905715e-05 -4.1450265e-05 3.3219046e-06
000370 4f c7 0e b7 8e 80 a4 b6 ea 81 8d 35 e5 a4 e0 37
       -8.510265e-06 -4.9025466e-06 1.0543129e-06 2.6779666e-05
000380 21 4b 81 b7 af c8 02 38 76 9d 0e 37 33 62 8c 36
       -1.5412983e-05 3.1181316e-05 8.500521e-06 4.183757e-06
000390 66 7f 49 36 ca 7b 48 34 73 4d 22 36 ac b0 c7 b6
       3.002549e-06 1.8671486e-07 2.4184963e-06 -5.9512295e-06
0003a0 7d 63 bd 37 c4 9e 2b b8 6d 8c 7b 37 fa 1e d5 34
       2.2576884e-05 -4.091744e-05 1.4993461e-05 3.969688e-07
0003b0 48 12 9f b5 1e 9d 5c 37 a9 d0 3d 37 27 9b 5f 37
       -1.1851744e-06 1.3149604e-05 1.131386e-05 1.332796e-05
0003c0 58 c6 23 b7 e9 65 bc 38 40 2c 2c b7 c4 a0 55 b8
       -9.761738e-06 8.983521e-05 -1.0262302e-05 -5.0932882e-05
0003d0 78 2f 36 37 bc 80 e7 b6 d5 e5 b6 37 63 89 1b 38
       1.08590975e-05 -6.899323e-06 2.1803115e-05 3.708283e-05
0003e0 39 34 b7 37 13 95 ec 36 b2 49 86 b7 4a 58 b6 35
       2.1839618e-05 7.0507026e-06 -1.6008362e-05 1.3585752e-06
0003f0 98 f2 40 b7 58 67 04 37 91 81 ce b5 95 03 26 38
       -1.1500575e-05 7.891875e-06 -1.5385905e-06 3.958082e-05

gnn.init_context.attentive_gru.gru.weight_hh f4 [192, 64]
000000 a0 34 54 b8 e1 3d 45 34 e4 16 3b 36 2b ff d3 b6
       -5.059375e-05 1.8369566e-07 2.7878496e-06 -6.3179955e-06
000010 98 66 9a 37 5f 0a 76 35 8b 5a 91 3a 3e 69 59 b8
       1.8406005e-05 9.1657233e-07 0.0011089606 -5.1834846e-05
000020 ba d2 68 b6 c8 ed 36 af 45 37 2e 34 5a 4c 0d 36
       -3.4693353e-06 -1.663728e-10 1.622512e-07 2.105508e-06
000030 7e d1 11 37 da b6 77 b5 e1 7d a8 3b b8 3c 33 39
       8.69145e-06 -9.2280754e-07 0.005141959 0.0001709339
000040 1d 82 de 36 fd 7c 4f b8 d3 c5 e7 36 32 9b 14 33
       6.6312627e-06 -4.946905e-05 6.9073662e-06 3.4600085e-08
000050 80 56 9c 39 2f 9f 23 38 e2 8f cf 37 19 42 70 34
       0.00029819086 3.901048e-05 2.4743324e-05 2.2375788e-07
000060 e6 3a f5 32 c1 c0 91 39 d2 00 00 36 a4 3a 17 3b
       2.8548538e-08 0.00027800168 1.9073964e-06 0.0023075724
000070 7d 51 1f 38 a7 d5 cb 39 dc 22 be 36 53 69 23 3a
       3.7984446e-05 0.0003887836 5.6664994e-06 0.0006233651
000080 6f 9c cf 32 cd 25 20 34 db 57 f7 39 63 f5 bc b3
       2.416911e-08 1.4914913e-07 0.0004717697 -8.799068e-08
000090 78 dc 46 38 1e 6c 89 38 47 e1 9a 36 b7 fc ef ad
       4.7412206e-05 6.5528075e-05 4.6157834e-06 -2.7283382e-11
0000a0 c0 cf 16 2f 15 0a 12 39 8a 26 c6 34 24 af 21 37
       1.3716228e-10 0.00013927401 3.6908415e-07 9.637126e-06
0000b0 fd 53 0b 34 de 9c 17 39 20 82 37 b8 64 9b 22 3b
       1.2975939e-07 0.0001445892 -4.375179e-05 0.0024811858
0000c0 55 d5 9f 33 36 b5 bc b8 36 f8 a7 33 b4 54 a9 3c
       7.442819e-08 -8.998292e-05 7.821693e-08 0.020670272
0000d0 e0 ba 02 3b 03 71 1f 38 d9 89 43 36 7b fd e3 b7
       0.0019947812 3.8013804e-05 2.9137502e-06 -2.7178545e-05
0000e0 fa 02 d8 b3 1a 86 21 38 4c 31 5e 36 59 b0 6c b1
       -1.0058825e-07 3.8510283e-05 3.3109272e-06 -3.4442762e-09
0000f0 df 14 cd 36 f1 b1 9b b9 4e 8b b7 2e 3c f2 48 b2
       6.111906e-06 -0.0002969648 8.346622e-11 -1.169661e-08
000100 ee 4f de 27 b1 66 f6 a9 bd 41 f5 a8 ad 2b 16 a7
       6.1704038e-15 -1.0942409e-13 -2.7228974e-14 -2.0840358e-15
000110 1e 6e 41 a6 52 8f a1 aa 97 4c 1d a7 6c c3 13 26
       -6.7109563e-16 -2.8698794e-13 -2.1829646e-15 5.1265716e-16
000120 7f 1e 34 b5 7e fa 90 a6 26 a5 12 a9 52 29 6c 2a
       -6.7099603e-07 -1.0059903e-15 -3.2561756e-14 2.0975347e-13
000130 78 9c 0d 39 66 45 31 36 05 48 d8 a1 a9 c3 86 ab
       0.00013505097 2.641545e-06 -1.4655793e-18 -9.575579e-13
000140 ef 8c 71 2a ef eb 67 a6 92 c6 23 2c a9 8c bb 27
       2.1453996e-13 -8.0463974e-16 2.3273922e-12 5.205543e-15
000150 4b 8c 03 af 63 79 9c ac 5a e8 eb 2c e4 c0 fd a7
       -1.1964223e-10 -4.4472633e-12 6.704898e-12 -7.043074e-15
000160 5f 66 5e a7 3e 52 42 2d 5d 92 e6 24 13 8e 2a 3c
       -3.0864184e-15 1.1045885e-11 9.999455e-17 0.01040985
000170 70 d1 bb ab a1 7d 84 3a c2 5f b5 bb dd 35 d4 ba
       -1.334528e-12 0.0010108241 -0.005535097 -0.0016190369
000180 62 bd dd a7 ae bb f7 aa 3e bf 2a bb f7 5b 99 bb
       -6.154515e-15 -4.4006243e-13 -0.002605393 -0.0046801525
000190 6c 9c b3 26 80 8f eb ac 01 2a e6 aa 1e ab 49 a5
       1.2463018e-15 -6.6950334e-12 -4.0885353e-13 -1.7491948e-16
0001a0 c8 6d e8 24 dc f1 73 26 ff 3a 21 28 5a 98 55 2c
       1.0079994e-16 8.463534e-16 8.950088e-15 3.0353693e-12
0001b0 4a d9 8f 21 00 98 dc aa 53 a3 0b 2b 64 32 01 a7
       9.747573e-19 -3.9185322e-13 4.960938e-13 -1.7929663e-15
0001c0 91 1c 06 25 96 79 4d 28 ee 66 2c 28 82 5b 45 a6
       1.1632326e-16 1.1406151e-14 9.570237e-15 -6.847212e-16
0001d0 a1 c4 7f 2c ea c9 5b b4 98 6f cd 29 b5 ea e3 b9
       3.634683e-12 -2.046942e-07 9.123187e-14 -0.00043471684
0001e0 3d 64 7a 26 c1 41 b2 2c c7 4c c4 a9 b7 80 cb 33
       8.687202e-16 5.0663644e-12 -8.717467e-14 9.476337e-08
0001f0 6f d1 d2 aa cc 1a 7a 3c 2d c6 6b 25 85 a3 a6 a7
       -3.7448817e-13 0.015265178 2.0450145e-16 -4.6251544e-15
000200 25 4e 59 34 c6 88 d5 b0 1b 96 a0 b2 41 2c ea 2c
       2.0238129e-07 -1.5536663e-09 -1.8694712e-08 6.655593e-12
000210 ed 43 ed b0 83 23 6c 32 61 09 25 32 f1 00 fb b1
       -1.7263325e-09 1.3745082e-08 9.606397e-09 -7.3051685e-09
000220 0c 36 66 b1 b6 53 eb ad 71 c1 4a 30 81 03 45 b2
       -3.3500127e-09 -2.6753582e-11 7.376207e-10 -1.1467706e-08
000230 b3 0d 8b 31 9b 35 ba ad 24 c8 d8 b4 cb 62 b1 b4
       4.04699e-09 -2.1169557e-11 -4.0378757e-07 -3.30407e-07
000240 73 45 8c 32 d2 69 b2 b8 50 74 68 b8 3a bf 30 b0
       1.6329727e-08 -8.507412e-05 -5.5421435e-05 -6.4300176e-10
000250 f9 aa 63 31 d7 b1 8b 35 43 df 87 34 f1 5d 19 31
       3.3130034e-09 1.0408065e-06 2.5308154e-07 2.231783e-09
000260 0b ff 8f b1 e3 9c f9 b3 68 bb 8c 39 cb db a2 b5
       -4.190843e-09 -1.16235036e-07 0.0002684251 -1.2133909e-06
000270 0e a5 c5 35 09 14 49 36 21 b2 35 b3 d5 2e 9f b0
       1.4725681e-06 2.9962996e-06 -4.2304354e-08 -1.1582083e-09
000280 c2 d9 77 b0 73 9a c4 b8 2e 2b ab 33 f5 7d 84 bb
       -9.016753e-10 -9.374777e-05 7.970662e-08 -0.0040433356
000290 62 58 80 b5 4e fd c0 35 af 6e 8f b3 43 d0 43 2b
       -9.562466e-07 1.4378836e-06 -6.6790896e-08 6.956694e-13
0002a0 18 e2 71 2d 42 e2 ef b1 2b ad 17 b0 a7 7a 1b 35
       1.3749467e-11 -6.981538e-09 -5.5179566e-10 5.792048e-07
0002b0 68 9e 52 af 83 03 3f 31 3d 92 d6 b4 0f 20 31 31
       -1.9155666e-10 2.7796154e-09 -3.9967009e-07 2.5775113e-09
0002c0 66 2a 41 ba fa 4c 91 b1 53 59 e2 af 0a 92 0f b2
       -0.00073686836 -4.2288066e-09 -4.117263e-10 -8.356901e-09
0002d0 38 1d 3a 3a 99 eb 38 b2 76 e3 58 31 b9 2e 72 b5
       0.0007099691 -1.0763778e-08 3.1561433e-09 -9.0220016e-07
0002e0 d1 8d 97 b1 ae e3 f5 b4 64 1c 85 b2 e4 33 f9 2c
       -4.410801e-09 -4.5800465e-07 -1.5496148e-08 7.0827667e-12
0002f0 ab 23 33 33 2e ea 2d 30 e7 84 bd ac e6 1a 23 30
       4.1709125e-08 6.326982e-10 -5.386458e-12 5.933728e-10
000300 2b 33 1e 37 25 94 ac b3 a6 d4 97 b5 87 d0 fa b0
       9.429447e-06 -8.0363215e-08 -1.1312266e-06 -1.8249161e-09
000310 13 f5 3f b8 cb 54 2b 35 7e a6 8d b6 a0 bb fc 34
       -4.576619e-05 6.3825854e-07 -4.2215097e-06 4.7075173e-07
000320 30 5b 24 34 6a a3 c4 30 0b 9c d6 34 dc 34 c1 b5
       1.5306864e-07 1.4307322e-09 3.9974142e-07 -1.4395005e-06
000330 de 80 84 b2 a9 7b 90 b0 e9 ae a7 35 5e db 4c 37
       -1.5425424e-08 -1.0512525e-09 1.2493375e-06 1.2210423e-05
000340 a7 22 78 36 60 52 38 b1 4b 36 82 38 b3 fb 09 b3
       3.697505e-06 -2.6822349e-09 6.208996e-05 -3.2126717e-08
000350 9c c3 c7 32 04 1f 30 b9 5c e2 d3 36 a5 73 ca b3
       2.3255602e-08 -0.00016796222 6.3146417e-06 -9.4273936e-08
000360 33 b0 cb 32 02 00 ff b7 63 63 44 b5 28 b3 a3 b6
       2.3712436e-08 -3.0398372e-05 -7.3160317e-07 -4.878635e-06
000370 12 0a 20 36 06 c9 76 35 6c 67 a5 b5 1e fb 89 b3
       2.384772e-06 9.193467e-07 -1.2323558e-06 -6.4252376e-08
000380 ff e2 bc af 36 8c 9d 35 7f d7 af 36 fc a7 2e af
       -3.435829e-10 1.1738218e-06 5.2404935e-06 -1.5884888e-10
000390 ac 9d 70 36 d9 15 42 38 7b f7 b3 b6 8d 16 1f 2f
       3.5854564e-06 4.627355e-05 -5.363426e-06 1.4468977e-10
0003a0 82 3c 01 af 61 11 77 b1 aa f7 00 b4 d3 03 fa 35
       -1.1753978e-10 -3.595311e-09 -1.2011029e-07 1.8627564e-06
0003b0 f8 99 cb 33 3c 31 2e 34 eb 9d 82 37 7d 03 a4 32
       9.480931e-08 1.6222924e-07 1.5570744e-05 1.9093699e-08
0003c0 ed e3 09 3c cf 75 38 b5 af 2c b7 32 24 f5 63 35
       0.008416158 -6.8716776e-07 2.1324324e-08 8.4920816e-07
0003d0 e1 7d 8f 38 bf c5 0f b4 51 a7 44 b5 1f 85 ce b6
       6.842218e-05 -1.3389852e-07 -7.325917e-07 -6.1547757e-06
0003e0 16 66 73 33 0c 24 43 b9 d3 01 07 35 40 0c 9b 30
       5.6670693e-08 -0.00018610078 5.0294074e-07 1.1281216e-09
0003f0 5f 22 90 b5 07 36 df b6 90 40 e0 2e 06 02 8e 33
       -1.0738839e-06 -6.6522075e-06 1.0197809e-10 6.612758e-08
