Results/GAT/32/model.pth (torch, 604858 bytes, 13 tensors)

gnn.gnn_layers.0.gat_conv.attn_l f4 [1, 6, 128]
-0.008102527 0.08023529 0.04310361 0.017014151 -0.042087153 0.101432085 -0.017121177 -0.040180396
0.017220784 0.07583688 -0.00038069164 -0.05042211 0.09277807 0.07864828 0.045224585 -0.004359934
0.04636001 0.11310882 -0.030923558 -0.073257454 0.03921799 0.04584826 0.03125916 0.0427575
0.012420044 0.040804226 0.020138282 0.050777886 0.021645494 0.030896569 0.034211103 -0.03608629
-0.006595293 -0.0010387395 -0.053168435 -0.0847839 -0.10285906 0.003940138 -0.012656045 -0.008817646
-0.046155494 0.0037838775 0.018165743 0.051753722 -0.022527335 -0.11854552 -0.006867344 -0.008475088
0.10541169 0.07675818 0.060439944 -0.021791967 0.0135552585 -0.08096957 -0.025036301 -0.004405033
-0.10300256 -0.0029338782 0.079401754 -0.026250709 -0.009092286 -0.03920703 -0.08768986 0.038819414
-0.028313017 -0.035638787 0.049947433 0.045430183 0.021279108 0.100057974 -0.04305023 0.070554905
0.12874237 0.056912184 -0.08394853 0.056638297 -0.015220148 -0.06655955 0.015950697 -0.078226075
-0.0918383 -0.07486253 0.030469723 -0.061818466 0.0354071 -0.02018358 0.071707934 -0.036406796
-0.043721363 0.1092731 0.0132709695 -0.07901806 0.06742844 -0.09020956 -0.0035111713 -0.0037574791
0.003566223 0.06262452 -0.037965346 -0.0010706444 -0.014145491 0.0109715415 0.047858644 -0.007755533
-0.019339027 -0.05416307 -0.0835068 -0.006256997 0.020042375 0.029372888 -0.06801236 0.065071
0.08872337 -0.07096044 -0.0048948145 0.017103983 0.011757552 -0.038713552 -0.0017671124 0.01801135
0.04132372 0.061306715 0.06732151 0.045947872 0.0031263665 0.06415164 0.035740186 0.114600904
-0.05754391 0.007493522 0.03437454 0.056551643 -0.065817334 0.10605007 0.039330427 -0.022326715
-0.019965544 0.101605274 0.026340395 -0.059993524 0.13520671 0.1163217 0.08521392 -0.050709333
0.057161715 0.17542352 -0.07792685 -0.102228604 0.011722929 0.03525798 0.07097755 0.09028927
0.0045665107 -0.066672474 0.04657724 0.0813904 0.04154375 0.052925233 -0.047847208 -0.02045655
-0.0053117326 -0.038881738 -0.047134645 -0.1570172 -0.16319823 -0.016367244 -0.066283785 -0.053238947
-0.05850714 0.015307817 0.06886437 -0.0020894157 -0.028635968 -0.16533671 -0.06665182 -0.043397497
0.07333117 0.17408179 0.12481334 -0.0035099408 0.026426451 -0.12799078 -0.021867838 0.020114753
-0.10007213 0.04387094 0.06418075 -0.08348825 -0.031121785 -0.092320785 -0.11264276 0.002273951
0.044419613 -0.057573058 0.07754926 0.04339919 0.12021984 0.088804364 -0.0770906 0.12439611
0.1695307 0.10838164 -0.110011436 0.06773853 -0.038812086 -0.06684617 -0.0052559543 -0.13761827
-0.12544684 -0.11096017 0.09798079 -0.09261108 -0.044040255 0.032616284 0.09030026 -0.09281207
-0.054714028 0.17970306 0.0061213705 -0.10410512 0.10468237 -0.11085182 0.052911993 -0.057350893
-0.0049880208 0.035686906 -0.047229197 -0.01127234 -0.03825846 -0.04761533 0.08138015 0.0959315
-0.019370234 0.015152831 -0.090198986 -0.05450573 0.02768617 0.03112124 -0.098770365 0.11443139
0.14631876 -0.055586185 -0.004365792 0.01806499 -0.06877718 -0.059700858 0.05649804 0.03979427
0.011425469 0.035095837 0.095643856 0.049236372 0.033630643 0.08415794 0.11162829 0.1318329
00000000: 76c0 04bc 6652 a43d 698d 303d 4361 8b3c
00000010: 9463 2cbd a0bb cf3d b641 8cbc 3394 24bd
00000020: 9a12 8d3c 5e50 9b3d 9197 c7b9 6a87 4ebd
00000030: 6e02 be3d 5912 a13d 6a3d 393d c7dd 8ebb
00000040: fee3 3d3d 99a5 e73d 6753 fdbc 0108 96bd
00000050: 0ba3 203d 63cb 3b3d 9b09 003d 7d22 2f3d
00000060: 717d 4b3c 5522 273d 0af9 a43c 79fc 4f3d
00000070: e451 b13c cd1a fd3c f120 0c3d 38cf 13bd
00000080: 541d d8bb 5026 88ba 25c7 59bd 2ea3 adbd
00000090: c5a7 d2bd 461c 813b 4d5b 4fbc e377 10bc
000000a0: 8b0d 3dbd eefa 773b 53d0 943c b6fb 533d
000000b0: 3f8b b8bc fec7 f2bd 7507 e1bb 18db 0abc
000000c0: 16e2 d73d 6533 9d3d e08f 773d 1185 b2bc
000000d0: e016 5e3c 60d3 a5bd ee18 cdbc 1858 90bb
000000e0: 02f3 d2bd 4f46 40bb 639d a23d ba0b d7bc
000000f0: d0f7 14bc 8d97 20bd be96 b3bd 1b01 1f3d
00000100: b3f0 e7bc faf9 11bd ae95 4c3d 0015 3a3d
00000110: 8651 ae3c 32eb cc3d 7055 30bd 177f 903d
00000120: 0ad5 033e c01c 693d 35ed abbd 8ffd 673d
00000130: ed5d 79bc 6050 88bd 09ab 823c fe34 a0bd
00000140: b815 bcbd 8751 99bd a49b f93c 5c35 7dbd
00000150: 0907 113d 0958 a5bc 9cdb 923d 4b1f 15bd
00000160: 2c15 33bd 93ca df3d 7b6e 593c 38d4 a1bd
00000170: ec17 8a3d cabf b8bd ae1b 66bb 0a40 76bb
00000180: 4bb7 693b 4941 803d 8d81 1bbd dd54 8cba
00000190: 7dc2 67bc fbc1 333c 6d07 443d 2022 febb
000001a0: e16c 9ebc 18da 5dbd 9d05 abbd 7f07 cdbb
000001b0: e82f a43c 699f f03c 104a 8bbd f243 853d
000001c0: 99b4 b53d b553 91bd ae64 a0bb a71d 8c3c
000001d0: bfa2 403c 1a92 1ebd 749e e7ba 8a8c 933c
000001e0: 1043 293d c01c 7b3d dcdf 893d d633 3c3d
000001f0: bae3 4c3b ef61 833d 4d64 123d e1b3 ea3d
00000200: 2ab3 6bbd 388c f53b 51cc 0c3d b2a2 673d
00000210: 3dcb 86bd c730 d93d f118 213d 84e6 b6bc
00000220: c88e a3bc 6d16 d03d d0c7 d73c c5bb 75bd
00000230: a173 0a3e 123a ee3d a384 ae3d 97b4 4fbd
00000240: 6722 6a3d 39a2 333e 1d98 9fbd 3b5d d1bd
00000250: 8711 403c ac6a 103d ae5c 913d 95e9 b83d
00000260: aba2 953b 948b 88bd c7c7 3e3d 03b0 a63d
00000270: c729 2a3d 21c8 583d 6ffb 43bd 7f94 a7bc
00000280: 0b0e aebb 7542 1fbd 4210 41bd 1ec9 20be
00000290: 701d 27be 9914 86bc cbbf 87bd 1511 5abd
000002a0: 2fa5 6fbd a3cd 7a3c c308 8d3d 94ee 08bb
000002b0: fa95 eabc 074e 29be c080 88bd 93c1 31bd
000002c0: a72e 963d 7f42 323e 239e ff3d 0907 66bb
000002d0: 497c d83c 0410 03be 2e24 b3bc b2c7 a43c
000002e0: 9ef2 ccbd 04b2 333d 3271 833d e3fb aabd
000002f0: 1df3 febc ae12 bdbd 3fb1 e6bd 9106 153b
00000300: 57f1 353d bad1 6bbd 25d2 9e3d 59c3 313d
00000310: d235 f63d 10df b53d ade1 9dbd 63c3 fe3d
00000320: 7599 2d3e 31f7 dd3d ad4d e1bd 80ba 8a3d
00000330: 6cf9 1ebd a5e6 88bd 243a acbb ceeb 0cbe
00000340: 2375 00be 163f e3bd 27aa c83d e1aa bdbd
00000350: 8e63 34bd a798 053d 58ef b83d 4114 bebd
00000360: d11b 60bd 1404 383e c795 c83b 1135 d5bd
00000370: b663 d63d 4706 e3bd 3fba 583d c5e8 6abd
00000380: 8d72 a3bb 6f2c 123d 6773 41bd 9faf 38bc
00000390: e7b4 1cbd 4b08 43bd a3aa a63d bc77 c43d
000003a0: 53ae 9ebc 9443 783c 3fba b8bd 6641 5fbd
000003b0: 1bce e23c f9f1 fe3c 1e48 cabd 015b ea3d
000003c0: 96d4 153e 57ae 63bd eb0e 8fbb 08fd 933c
000003d0: 0ddb 8cbd e388 74bd 7d6a 673d 51ff 223d
000003e0: e431 3b3c a7c0 0f3d ede0 c33d 14ac 493d
000003f0: 49c0 093d ff5a ac3d 5f9d e43d 34ff 063e

gnn.gnn_layers.0.gat_conv.attn_r f4 [1, 6, 128]
-0.0136718815 0.0067227953 0.0077363024 0.0007395838 0.0070687304 0.0124152545 -0.0033825666 -0.0019151305
0.018350838 0.0034914408 -0.013735726 -0.01434494 0.011430434 0.00052951125 -0.000852127 0.0010940243
0.0011841424 0.004177053 -0.02294018 -0.01863167 -0.002968781 0.001784621 -0.002196589 0.010955439
0.0031203486 0.00343592 0.010589027 0.0046546166 0.0074526677 0.008048187 -0.022047622 -0.012476241
0.039154537 0.003584018 -0.0046357284 0.008422612 0.0008693467 0.00052468805 -0.0020223544 -0.00056074763
-0.0064584017 0.0038499027 0.013932556 -0.024136228 -0.0037358347 -0.029658904 0.0008899197 0.0016224309
0.006357697 0.0022588132 -0.000951934 -0.005301135 0.0069786333 0.005583852 -0.01128758 0.0076167937
-0.002248586 -0.008433487 0.019673418 0.0008238172 0.011221708 0.0030718853 -0.028748672 -0.016908232
0.028712466 -0.0062730596 -0.0015720027 0.011170751 0.012021805 0.016789338 -0.012719372 0.002559698
-0.0076261642 -0.0055255466 0.000643549 -0.012181318 0.0022230416 -0.0012398022 0.009873115 0.026651582
0.02945621 0.004216756 -0.0074810735 0.0066079064 -0.035195906 0.020172063 -0.017116947 -0.01894587
0.00755247 0.010261896 0.007025594 -0.00992139 -0.0067657735 -0.0003731668 0.000121333425 -0.008050267
-0.015846223 0.0065635606 -0.0052113454 -0.0056998204 -0.022454208 -0.017029563 0.004999194 -0.012599741
0.0019139674 -0.000574871 0.018590176 -0.013422939 0.0035490803 0.0013725071 -0.050261963 0.009352848
0.027335744 0.0053146803 0.002033467 -0.007675837 -0.0024502291 0.0023159406 0.00944956 0.005220377
0.012797131 0.03204944 -0.0023900901 0.0142554585 -0.008859896 -0.0029942845 0.008631137 0.00049481716
-0.008097369 -0.012725408 0.015713468 -0.018157177 -0.0152597865 0.017282853 -0.0010339883 0.00942602
0.018365718 0.02045374 0.005821996 -0.01829153 0.028646486 0.029934363 0.019324927 -0.0052495445
0.0072823707 0.009708071 -0.02443028 -0.03370042 0.0036996598 -0.0027332087 0.016592076 0.012180061
0.0052908333 0.004525476 0.0033507978 0.0026815145 0.010055081 0.018844975 0.032490347 -0.010794856
0.011072522 -0.0074336026 -0.020332972 -0.04417113 -0.018502846 0.0054303193 -0.010038247 0.0071853795
-0.009863499 0.0067707463 0.017391503 -0.010953003 -0.005455471 -0.052859437 -0.013889706 -0.0051116124
0.013217889 0.013135955 0.025937699 -0.014306867 0.022299824 -0.0035062234 -0.012799414 0.005392081
-0.013651469 0.0073177544 0.004789794 -0.034251228 -0.012483575 -0.007938044 -0.045114804 0.005969312
-0.0006929557 -0.017326055 0.0052074706 0.014319567 0.017041555 0.04022891 -0.0051682857 0.047180828
0.035900857 0.042640347 -0.012726873 0.009002291 -0.007992954 -0.011052011 -0.0035799718 -0.0399299
-0.051884446 -0.04375172 0.019357678 -0.015145863 0.02445896 0.018467098 0.027919946 -0.004303804
0.0030455752 0.06069057 0.0037887048 -0.011853318 0.014206229 -0.026793728 0.0146755725 -0.017058155
0.006834514 0.011513103 -0.0039850934 -0.0004922231 -0.016451282 -0.01562226 0.010287081 0.018298691
0.0025672747 -0.05604294 -0.0331612 -0.016795512 0.01790104 0.00034372546 -0.059982553 0.02413396
0.04356437 -0.039939553 0.00037151764 -0.005658128 -0.020436445 -0.02937911 -0.0051402915 0.019319763
-0.004757797 0.0004005221 0.0076877372 0.010598948 0.0069488348 0.012990903 0.0024512226 0.006776236
00000000: 0700 60bc e54a dc3b cf80 fd3b a1e0 413a
00000010: cfa0 e73b 5a69 4b3c 0dae 5dbb 1e05 fbba
00000020: 7f54 963c a8d0 643b cf0b 61bc 0a07 6bbc
00000030: b746 3b3c e6ce 0a3a 4661 5fba 5d65 8f3a
00000040: 3a35 9b3a a9df 883b 0bed bbbc 72a1 98bc
00000050: e18f 42bb f2e9 e93a a6f4 0fbb 717e 333c
00000060: c37e 4c3b 2c2d 613b 997d 2d3c c185 983b
00000070: 8235 f43b 8bdc 033c 379d b4bc 2669 4cbc
00000080: 8260 203d d8e1 6a3b 4fe7 97bb fffe 093c
00000090: dfe4 633a 388b 093a 7a89 04bb 23ff 12ba
000000a0: 00a1 d3bb a64e 7c3b 6045 643c 57b9 c5bc
000000b0: e8d4 74bb 3bf7 f2bc 8049 693a bfa7 d43a
000000c0: 3a54 d03b 9908 143b 368b 79ba 25b5 adbb
000000d0: 05ad e43b bff8 b63b 8bef 38bc 4c96 f93b
000000e0: 035d 13bb 9c2c 0abc 262a a13c 70f5 573a
000000f0: 41db 373c af51 493b 5682 ebbc 2283 8abc
00000100: 6836 eb3c 3d8e cdbb a80b ceba 8705 373c
00000110: 1bf7 443c cb89 893c ea64 50bc 9bc0 273b
00000120: e7e4 f9bb a50f b5bb d8b3 283a 2794 47bc
00000130: 73b0 113b dc80 a2ba d9c2 213c 6b54 da3c
00000140: 264e f13c b72c 8a3b cb23 f5bb 2387 d83b
00000150: 9529 10bd e23f a53c d738 8cbc 5f34 9bbc
00000160: b67a f73b 8321 283c f436 e63b 538d 22bc
00000170: 6cb3 ddbb 9aa5 c3b9 6374 fe38 44e5 03bc
00000180: f0cf 81bc 2313 d73b efc3 aabb 8fc5 babb
00000190: e3f1 b7bc 9581 8bbc 47d0 a33b 256f 4ebc
000001a0: 17de fa3a f1b2 16ba 6d4a 983c e3eb 5bbc
000001b0: b097 683b b2e5 b33a 7ddf 4dbd b03c 193c
000001c0: 36ef df3c c526 ae3b ea43 053b 9685 fbbb
000001d0: 0694 20bb 09c7 173b 54d2 1a3c b20f ab3b
000001e0: 0fab 513c 4646 033d 0fa3 1cbb ba8f 693c
000001f0: 1929 11bc c23b 44bb 9d69 0d3c 9eb6 013a
00000200: d4aa 04bc 3b7e 50bc 88b9 803c 5cbe 94bc
00000210: 2f04 7abc c594 8d3c e486 87ba 986f 1a3c
00000220: b473 963c 9a8e a73c 71c6 be3b 1ed8 95bc
00000230: 09ac ea3c e938 f53c 4f4f 9e3c 5f04 acbb
00000240: f4a0 ee3b 9a0e 1f3c 0322 c8bc 7409 0abd
00000250: fe75 723b a21f 33bb 1bec 873c e18e 473c
00000260: ba5e ad3b 724a 943b 0f99 5b3b 59bc 2f3b
00000270: 11be 243c c760 9a3c 9914 053d e8dc 30bc
00000280: 8669 353c 9495 f3bb 5591 a6bc c9ec 34bd
00000290: 4893 97bc d2f0 b13b 7677 24bc 5573 eb3b
000002a0: 839a 21bc 23dd dd3b a078 8e3c 3974 33bc
000002b0: cfc3 b2bb 2383 58bd a691 63bc 507f a7bb
000002c0: d88f 583c 3038 573c 4c7b d43c 5967 6abc
000002d0: 1fae b63c abc8 65bb a2b4 51bc 0eb0 b03b
000002e0: 69aa 5fbc c6c9 ef3b b4f3 9c3b 044b 0cbd
000002f0: e987 4cbc 920e 02bc 4dca 38bd 389a c33b
00000300: 78a7 35ba 5fef 8dbc 6ea3 aa3b 9e9c 6a3c
00000310: bb9a 8b3c 12c7 243d b95a a9bb af40 413d
00000320: c70c 133d a5a7 2e3d 6084 50bc 587e 133c
00000330: e1f4 02bc 7e13 35bc f69d 6abb 898d 23bd
00000340: c984 54bd 0135 33bd fe93 9e3c 5b26 78bc
00000350: 285e c83c 5048 973c 5fb8 e43c ed06 8dbb
00000360: 4698 473b ad96 783d eb4b 783b 6b34 42bc
00000370: 3ec1 683c 857e dbbc d071 703c 8bbd 8bbc
00000380: 0ff4 df3b 74a1 3c3c 6395 82bb 8808 01ba
00000390: d7c4 86bc 82f4 7fbc 258b 283c 23e7 953c
000003a0: b93f 283b 488d 65bd 0ad4 07bd be96 89bc
000003b0: 34a5 923c 0d36 b439 44b0 75bd 95b4 c53c
000003c0: 8e70 323d a897 23bd 41c8 c239 d167 b9bb
000003d0: 556a a7bc 76ac f0bc e46f a8bb 7b44 9e3c
000003e0: 4be7 9bbb 2bfd d139 6ae9 fb3b 36a7 2d3c
000003f0: 0db3 e33b ccd7 543c b1a4 203b 300b de3b

gnn.gnn_layers.0.gat_conv.bias f4 [768]
-0.053177983 -0.0060413154 0.049590584 0.0051833102 -0.020061806 0.07396361 0.054714862 -0.035134315
0.09961469 -0.034854066 -0.04629532 -0.06841714 0.22675222 0.079089224 0.05028528 0.0034205199
0.018477712 0.21678245 -0.032972403 -0.076927096 -0.047254 0.059343755 0.011983566 0.02226185
-0.0011234322 0.0067674485 0.15280947 0.0152955465 0.06279828 0.04380478 -0.12122868 -0.08198851
-0.020584328 0.016449066 -0.03968568 -0.126042 -0.036067326 0.02087447 0.00982038 -0.020565063
-0.07842606 0.043210965 0.0037029455 -0.096376546 -0.004152058 -0.121863514 -0.05710958 0.03225762
0.07131367 0.09779082 0.087758906 0.02846265 0.024108067 0.09848602 0.0116210375 -0.009326413
-0.06956133 0.0069893934 0.065956146 0.008595709 0.027220191 0.018014375 -0.20401353 0.03349233
0.10781107 -0.05371019 0.06111404 0.092596084 0.055480562 0.13817522 -0.056471273 0.11986713
-0.055387918 0.15991957 -0.060040608 -0.072494425 -0.050756283 -0.04565876 0.03380004 0.013332155
-0.028697131 0.04986691 0.008170227 0.010189442 -0.028777855 0.03455939 0.21282694 -0.042291693
-0.0053344276 0.26735467 0.013108562 -0.056988943 0.014002449 -0.048874073 0.008465966 -0.044603687
-0.099991865 0.051103506 -0.08608118 -0.025803685 0.008023453 -0.08205388 0.029190049 -0.0067262873
-0.006967706 -0.14122435 -0.07720537 -0.05822758 0.016720051 0.028688213 -0.20860296 0.09446693
0.4561732 -0.103342675 -0.036579482 -0.012726858 -0.00771982 -0.27536467 0.20163223 0.04171785
0.10071531 0.07292612 0.078573905 0.060497373 0.052677352 0.1369095 0.13333564 0.13805737
-0.053177983 -0.0060413154 0.049590584 0.0051833102 -0.020061806 0.07396361 0.054714862 -0.035134315
0.09961469 -0.034854066 -0.04629532 -0.06841714 0.22675222 0.079089224 0.05028528 0.0034205199
0.018477712 0.21678245 -0.032972403 -0.076927096 -0.047254 0.059343755 0.011983566 0.02226185
-0.0011234322 0.0067674485 0.15280947 0.0152955465 0.06279828 0.04380478 -0.12122868 -0.08198851
-0.020584328 0.016449066 -0.03968568 -0.126042 -0.036067326 0.02087447 0.00982038 -0.020565063
-0.07842606 0.043210965 0.0037029455 -0.096376546 -0.004152058 -0.121863514 -0.05710958 0.03225762
0.07131367 0.09779082 0.087758906 0.02846265 0.024108067 0.09848602 0.0116210375 -0.009326413
-0.06956133 0.0069893934 0.065956146 0.008595709 0.027220191 0.018014375 -0.20401353 0.03349233
0.10781107 -0.05371019 0.06111404 0.092596084 0.055480562 0.13817522 -0.056471273 0.11986713
-0.055387918 0.15991957 -0.060040608 -0.072494425 -0.050756283 -0.04565876 0.03380004 0.013332155
-0.028697131 0.04986691 0.008170227 0.010189442 -0.028777855 0.03455939 0.21282694 -0.042291693
-0.0053344276 0.26735467 0.013108562 -0.056988943 0.014002449 -0.048874073 0.008465966 -0.044603687
-0.099991865 0.051103506 -0.08608118 -0.025803685 0.008023453 -0.08205388 0.029190049 -0.0067262873
-0.006967706 -0.14122435 -0.07720537 -0.05822758 0.016720051 0.028688213 -0.20860296 0.09446693
0.4561732 -0.103342675 -0.036579482 -0.012726858 -0.00771982 -0.27536467 0.20163223 0.04171785
0.10071531 0.07292612 0.078573905 0.060497373 0.052677352 0.1369095 0.13333564 0.13805737
00000000: 28d1 59bd 3af6 c5bb 7f1f 4b3d c2d8 a93b
00000010: a858 a4bc 3c7a 973d b11c 603d 00e9 0fbd
00000020: c902 cc3d 23c3 0ebd 29a0 3dbd 491e 8cbd
00000030: bc31 683e 88f9 a13d f0f7 4d3d cd2a 603b
00000040: 925e 973c 38fc 5d3e 120e 07bd f48b 9dbd
00000050: 698d 41bd 7012 733d b856 443c 7c5e b63c
00000060: 2140 93ba 79c1 dd3b 167a 1c3e 2c9a 7a3c
00000070: 629c 803d a46c 333d be46 f8bd 98e9 a7bd
00000080: 77a0 a8bc 31c0 863c 748d 22bd 2711 01be
00000090: 55bb 13bd f000 ab3c a9e5 203c 1078 a8bc
000000a0: d89d a0bd fbfd 303d 1ead 723b 1161 c5bd
000000b0: fd0d 88bb 9493 f9bd bceb 69bd 9120 043d
000000c0: e70c 923d 8e46 c83d f1ba b33d 812a e93c
000000d0: 487e c53c 0ab3 c93d 2a66 3e3c d0cd 18bc
000000e0: 2c76 8ebd 4807 e53b 0414 873d 04d5 0c3c
000000f0: e1fc de3c e292 933c ece8 50be 412f 093d
00000100: 0dcc dc3d 37ff 5bbd b752 7a3d 04a3 bd3d
00000110: 963f 633d ce7d 0d3e 6c4e 67bd e67c f53d
00000120: 71de 62bd f5c1 233e 24ed 75bd f577 94bd
00000130: d2e5 4fbd ae04 3bbd e971 0a3d 1c6f 5a3c
00000140: 3f16 ebbc 3f41 4c3d 6adc 053c 9ef1 263c
00000150: 89bf ebbc 268e 0d3d 4eef 593e 0e3a 2dbd
00000160: 6ccc aebb b6e2 883e 4bc5 563c 3d6d 69bd
00000170: 876a 653c 2e30 48bd d6b4 0a3c 5bb2 36bd
00000180: 89c8 ccbd e951 513d 544b b0bd 4062 d3bc
00000190: cd74 033c dd0b a8bd f81f ef3c 3068 dcbb
000001a0: 5b51 e4bb 1e9d 10be d91d 9ebd 0b80 6ebd
000001b0: 7df8 883c 8b03 eb3c 049c 55be e177 c13d
000001c0: 898f e93e 53a5 d3bd 5ed4 15bd 5084 50bc
000001d0: 8bf6 fcbb 99fc 8cbe ae78 4e3e 56e0 2a3d
000001e0: d443 ce3d 4a5a 953d 5beb a03d 18cc 773d
000001f0: 35c4 573d 0132 0c3e 2389 083e e95e 0d3e
00000200: 28d1 59bd 3af6 c5bb 7f1f 4b3d c2d8 a93b
00000210: a858 a4bc 3c7a 973d b11c 603d 00e9 0fbd
00000220: c902 cc3d 23c3 0ebd 29a0 3dbd 491e 8cbd
00000230: bc31 683e 88f9 a13d f0f7 4d3d cd2a 603b
00000240: 925e 973c 38fc 5d3e 120e 07bd f48b 9dbd
00000250: 698d 41bd 7012 733d b856 443c 7c5e b63c
00000260: 2140 93ba 79c1 dd3b 167a 1c3e 2c9a 7a3c
00000270: 629c 803d a46c 333d be46 f8bd 98e9 a7bd
00000280: 77a0 a8bc 31c0 863c 748d 22bd 2711 01be
00000290: 55bb 13bd f000 ab3c a9e5 203c 1078 a8bc
000002a0: d89d a0bd fbfd 303d 1ead 723b 1161 c5bd
000002b0: fd0d 88bb 9493 f9bd bceb 69bd 9120 043d
000002c0: e70c 923d 8e46 c83d f1ba b33d 812a e93c
000002d0: 487e c53c 0ab3 c93d 2a66 3e3c d0cd 18bc
000002e0: 2c76 8ebd 4807 e53b 0414 873d 04d5 0c3c
000002f0: e1fc de3c e292 933c ece8 50be 412f 093d
00000300: 0dcc dc3d 37ff 5bbd b752 7a3d 04a3 bd3d
00000310: 963f 633d ce7d 0d3e 6c4e 67bd e67c f53d
00000320: 71de 62bd f5c1 233e 24ed 75bd f577 94bd
00000330: d2e5 4fbd ae04 3bbd e971 0a3d 1c6f 5a3c
00000340: 3f16 ebbc 3f41 4c3d 6adc 053c 9ef1 263c
00000350: 89bf ebbc 268e 0d3d 4eef 593e 0e3a 2dbd
00000360: 6ccc aebb b6e2 883e 4bc5 563c 3d6d 69bd
00000370: 876a 653c 2e30 48bd d6b4 0a3c 5bb2 36bd
00000380: 89c8 ccbd e951 513d 544b b0bd 4062 d3bc
00000390: cd74 033c dd0b a8bd f81f ef3c 3068 dcbb
000003a0: 5b51 e4bb 1e9d 10be d91d 9ebd 0b80 6ebd
000003b0: 7df8 883c 8b03 eb3c 049c 55be e177 c13d
000003c0: 898f e93e 53a5 d3bd 5ed4 15bd 5084 50bc
000003d0: 8bf6 fcbb 99fc 8cbe ae78 4e3e 56e0 2a3d
000003e0: d443 ce3d 4a5a 953d 5beb a03d 18cc 773d
000003f0: 35c4 573d 0132 0c3e 2389 083e e95e 0d3e

gnn.gnn_layers.0.gat_conv.fc.weight f4 [768, 74]
-0.056277517 0.02168146 0.02437524 0.091522135 0.013809743 0.000603863 -0.0001616631 0.011229945
0.0027372474 8.256996e-06 0.00015637983 8.187746e-05 3.2575224e-06 -0.00015335792 5.4710188e-05 0.0016755717
9.6308104e-05 -9.159673e-06 1.7541399e-05 0.00013337145 0.00023961578 -0.00012008599 5.55637e-05 -0.00013667533
-6.641967e-05 -0.00010064284 9.7864184e-05 0.00025811978 -0.00019931293 -0.0004884595 -9.953196e-05 -5.3501593e-05
-3.2581767e-05 -0.00021507159 0.00019076432 -0.00012396359 8.650109e-05 0.00010199865 8.282047e-05 -9.507816e-05
1.0355144e-05 -0.00012202278 8.296537e-05 -9.860076e-05 -0.060908698 -0.031116946 -0.02306865 0.01679612
0.00025866384 0.0028251936 -8.424233e-05 -2.909241e-05 6.2470914e-05 4.411112e-05 -0.027894523 -0.017933087
0.013883898 -0.027827477 -6.665339e-05 -3.5045753e-06 9.760969e-05 0.0004622175 -0.00010296799 -0.0006473484
-0.011680005 -0.028140184 9.2247086e-05 -0.0011161566 -0.029669678 -0.035732895 -0.027060023 0.004489041
-0.033403676 -0.00010191676 0.035864532 0.07641558 0.09108248 -0.07036476 -0.084174 -0.0006867945
-0.00087924657 -0.011129616 -0.0027510126 -2.9176428e-05 3.3130367e-05 -9.40675e-05 9.372738e-05 7.8007615e-05
-0.00012106619 -0.0039014278 6.577092e-05 -0.00011817509 -0.00015717809 -8.736038e-05 1.4243057e-05 -0.000119495
-0.00014053576 0.000119639415 0.00014248003 -0.00010309084 9.230575e-05 5.7270267e-05 -9.236626e-06 9.993907e-05
8.798116e-05 8.8088294e-05 -4.9010592e-05 -0.00024232725 0.00015682416 -0.000106311745 -8.9895155e-05 -4.6015597e-05
0.00017033501 7.3165815e-05 9.3561626e-05 9.1580834e-05 -0.00011649168 9.352416e-05 0.11461959 0.02358357
0.035789635 -0.077689 0.00020718989 -0.015362404 -1.775347e-05 -0.00012212919 -5.88065e-05 -9.626817e-05
0.08038772 -0.04093105 0.11450413 0.045527365 -9.631932e-05 1.037077e-05 5.977778e-05 -0.0073757125
-0.00016075249 -0.010565787 0.034189336 0.09008235 -3.1268126e-05 -0.00258847 0.07208298 0.04047296
-0.0024468694 0.11782381 0.032440137 9.359447e-05 0.12316995 0.06838178 0.019850692 -0.10091916
-0.042297877 -0.00041005368 0.008589206 0.00043425488 -0.002244906 0.00012068781 1.5037909e-05 7.6394965e-05
0.00012948683 3.1506806e-05 0.00011137031 -0.004570175 8.413715e-05 9.134547e-05 -8.808278e-05 0.000104564664
-0.00016759986 -0.00013239207 -0.00011799915 8.8213674e-05 -4.7040474e-05 -3.8802784e-05 9.7691955e-05 0.00015680779
-5.944175e-06 -0.00043037924 -9.0161666e-05 0.000118060445 6.788058e-05 -0.00017596572 3.1264113e-05 6.364331e-05
0.00018008346 9.954677e-05 0.000102622915 0.00030285248 0.00010150627 -5.6838664e-05 3.7702674e-05 -0.0003713227
0.08772834 0.029730143 0.10871008 -0.06887187 0.00014581953 -0.007002903 2.351003e-05 0.00017378865
7.2413684e-05 -0.000116684314 0.011657685 0.016929045 0.052607067 0.033934575 0.00011814025 -0.00025145328
-7.386095e-05 -0.028272666 5.6626293e-05 0.019495402 -0.042426914 0.025481805 1.3245935e-05 -0.008012438
0.08663359 0.035689227 0.0013856036 0.05289777 0.025709603 5.0215844e-05 -0.038433332 -0.043401536
-0.007983152 0.14834961 0.09970318 0.00019927269 0.0033593709 0.01309145 0.0031698656 -5.3063195e-05
1.400841e-05 0.00022792332 -8.959072e-05 -8.0929574e-05 -0.00012770285 0.00064448244 -9.013627e-05 -0.00010878076
2.287238e-05 0.00027360796 4.3418995e-06 7.08715e-05 -3.5576028e-05 9.452467e-05 8.0696074e-05 2.6027537e-05
9.5812575e-05 -8.189412e-05 3.3467368e-05 0.00028099245 -0.0001031966 -3.505193e-06 4.506885e-05 -0.00016393374
00000000: 4183 66bd 519d b13c 95ae c73c f56f bb3d
00000010: 4342 623c 8f4c 1e3a 1c84 29b9 cefd 373c
00000020: 6463 333b 8787 0a37 e4f9 2339 a0b5 ab38
00000030: cf9b 5a36 b4ce 20b9 9e78 6538 db9e db3a
00000040: 05f9 c938 7fac 19b7 de25 9337 a0d9 0b39
00000050: 5f41 7b39 add6 fbb8 120d 6938 8150 0fb9
00000060: ca4a 8bb8 3710 d3b8 6f3c cd38 4054 8739
00000070: a8fe 50b9 f60b 00ba d0bb d0b8 e666 60b8
00000080: 68a8 08b8 d784 61b9 e807 4839 39fc 01b9
00000090: eb67 b538 1ce8 d538 e7af ad38 b364 c7b8
000000a0: 01bb 2d37 7be6 ffb8 b2fd ad38 e1c7 ceb8
000000b0: 667b 79bd f7e8 febc 77fa bcbc 0498 893c
000000c0: 469d 8739 e226 393b 42ab b0b8 7a0b f4b7
000000d0: d102 8338 f403 3938 0e83 e4bc 69e8 92bc
000000e0: 4a79 633c 73f6 e3bc 44c8 8bb8 2530 6bb6
000000f0: ceb3 cc38 c855 f239 85f0 d7b8 d1b2 29ba
00000100: 7e5d 3fbc 3e86 e6bc c774 c138 004c 92ba
00000110: d30d f3bc a85c 12bd fbac ddbc ce18 933b
00000120: 4bd2 08bd 25bc d5b8 b0e6 123d c67f 9c3d
00000130: 7489 ba3d 661b 90bd 6b63 acbd 000a 34ba
00000140: 3d7d 66ba fe58 36bc 554a 34bb e7bf f4b7
00000150: 76f5 0a38 1b46 c5b8 818f c438 0598 a338
00000160: eae4 fdb8 19af 7fbb 7eee 8938 c5d4 f7b8
00000170: 2cd0 24b9 3f35 b7b8 77f5 6e37 6499 fab8
00000180: c85c 13b9 ece6 fa38 b166 1539 7932 d8b8
00000190: 4694 c138 7b35 7038 02f7 1ab7 6196 d138
000001a0: 8782 b838 0bbc b838 b990 4db8 3a19 7eb9
000001b0: 2a71 2439 aff3 deb8 1886 bcb8 df00 41b8
000001c0: f59b 3239 9970 9938 8436 c438 160f c038
000001d0: ff4c f4b8 6722 c438 adbd ea3d 5532 c13c
000001e0: 2798 123d 691b 9fbd 1d41 5939 98b2 7bbc
000001f0: 49ed 94b7 ce0f 00b9 00a7 76b8 95e3 c9b8
00000200: 51a2 a43d 51a7 27bd 2481 ea3d e77a 3a3d
00000210: 0bff c9b8 1efe 2d37 e7b9 7a38 f6af f1bb
00000220: ab8f 28b9 1f1c 2dbc 1e0a 0c3d 187d b83d
00000230: e525 03b8 52a3 29bb 3ea0 933d f9c6 253d
00000240: a85b 20bb 9c4d f13d f3df 043d 2648 c438
00000250: 8740 fc3d bf0b 8c3d eb9d a23c b4ae cebd
00000260: 8a40 2dbd 79fc d6b9 beb9 0c3c b4ac e339
00000270: 461f 13bb c619 fd38 544b 7c37 3c36 a038
00000280: dbc6 0739 2d26 0438 7b8f e938 68c1 95bb
00000290: ca72 b038 ba90 bf38 15b9 b8b8 ba49 db38
000002a0: bfbd 2fb9 bad2 0ab9 5076 f7b8 5bff b838
000002b0: 534d 45b8 2cc0 22b8 f8df cc38 c56c 2439
000002c0: 1374 c7b6 86a4 e1b9 2d15 bdb8 3897 f738
000002d0: 1c5b 8e38 7083 38b9 9621 0338 3e78 8538
000002e0: c9d4 3c39 c4c3 d038 4237 d738 2cc8 9e39
000002f0: c4df d438 0d66 6eb8 f022 1e38 17ae c2b9
00000300: eaaa b33d a18c f33c 64a3 de3d b20c 8dbd
00000310: 22e7 1839 9c78 e5bb 6837 c537 093b 3639
00000320: cddc 9738 6ab4 f4b8 e0ff 3e3c c8ae 8a3c
00000330: 827a 573d fbfe 0a3d 10c2 f738 7dd5 83b9
00000340: cce5 9ab8 149c e7bc 0582 6d38 d2b4 9f3c
00000350: d8c7 2dbd 38bf d03c dc3a 5e37 9a46 03bc
00000360: f46c b13d de2e 123d 249d b53a 55ab 583d
00000370: f29c d23c da9e 5238 456c 1dbd cfc5 31bd
00000380: c4cb 02bc f6e8 173e 2e31 cc3d dbf3 5039
00000390: e428 5c3b 857d 563c 85bd 4f3b 2c90 5eb8
000003a0: aa05 6b37 b3fe 6e39 a7e2 bbb8 bcb8 a9b8
000003b0: f9e7 05b9 7cf2 283a 8b07 bdb8 3a21 e4b8
000003c0: 10de bf37 0a73 8f39 a2b0 9136 d9a0 9438
000003d0: 7837 15b8 8c3b c638 603b a938 b655 da37
000003e0: fcee c838 92be abb8 505f 0c38 2b52 9339
000003f0: 416b d8b8 c23a 6bb6 4f08 3d38 a1e5 2bb9

gnn.gnn_layers.0.gat_conv.res_fc.weight f4 [768, 74]
-0.052203294 0.047544938 0.030470526 0.09261644 0.022403099 0.0003637244 -0.0016090655 0.0038752754
0.0012431557 -0.00012395399 -2.1376176e-05 0.00012160711 9.0353016e-05 -4.530779e-05 6.0385224e-05 0.0003604271
-5.5550932e-05 -0.00020376252 9.185549e-05 0.00017480417 -9.204514e-05 8.73545e-05 -0.00014625554 8.8753795e-06
9.4064526e-05 0.0002308584 -0.00014362339 -0.00017311805 -0.00016002549 0.00051096303 -9.224389e-05 8.948269e-05
-3.0236992e-05 2.531854e-05 0.00013145954 -6.5695785e-05 -0.00014215804 0.00036776773 8.3390805e-05 9.223036e-05
9.534553e-05 3.7267348e-06 -2.6186433e-05 -0.00034787186 -0.0426742 -0.026459819 -0.022611568 0.045841187
5.889579e-05 -0.0008839602 -2.3282611e-05 0.00012299504 8.206314e-06 0.000108305176 -0.04352356 -0.040021684
4.0297255e-05 -0.035470806 2.5013916e-05 -0.00020732939 -0.00010049832 -0.00079701946 0.00017372842 -0.00079372106
-0.020599397 -0.03009951 -7.143291e-05 0.0010211888 -0.037947353 -0.04077621 -0.03499277 0.0009889787
-0.025171954 0.00013195725 0.03179737 0.0665954 0.09905137 -0.079947956 -0.096986614 -0.0003768036
-0.013701837 0.0039887107 -0.00055733114 9.546182e-05 -8.87677e-05 -0.00012776167 -6.565625e-05 0.0001143778
7.125576e-05 0.0058949497 -6.854516e-05 9.103845e-05 0.00010146779 -9.0929876e-05 8.7364686e-05 7.3566436e-05
-3.7608228e-05 -0.00026373484 -6.9767164e-05 0.00021157663 0.00011891893 2.9859897e-05 -0.0002093333 -0.00035151377
2.5429072e-05 -4.3420172e-05 -9.32784e-05 -8.806154e-05 -2.617433e-05 -0.00027855168 -9.127691e-05 0.000101242455
1.3019385e-05 -0.0001110076 9.394178e-05 0.00010152501 0.00013241924 8.0876496e-05 0.08639985 0.008312621
0.026352953 -0.09156938 -0.00010238606 -0.005854893 -1.5362128e-05 -2.4927856e-05 8.885504e-05 -9.7778546e-05
0.07907794 0.0016445554 0.08232109 0.03753215 7.35663e-05 1.5943234e-06 9.015912e-05 -0.02150491
-1.619401e-05 -0.007896163 0.043673024 0.08834814 0.00010366917 0.0032220003 0.0489296 -0.0045737214
-0.04414351 0.063471526 0.027963653 -0.00010538705 0.08988879 0.029219475 0.027437203 -0.13871212
-0.0426586 -6.879496e-05 -0.0026230353 -0.0029483484 -0.00018047966 -8.6283086e-05 -0.00020482714 -4.3232903e-05
2.42465e-05 -0.00014802234 0.000117969124 -0.0034651088 -9.141575e-05 -0.00017284362 -0.00010147007 -0.00013386438
4.2571017e-05 0.00013704995 9.090662e-05 -0.00011985721 9.252269e-05 -5.8240188e-05 0.00014797246 -0.00019300215
3.539391e-05 0.00044963628 -7.55073e-05 -2.6800675e-05 -0.0001267585 -0.00017013845 0.00021367097 9.2238166e-05
5.574708e-06 0.00017029344 7.529143e-05 -5.3844607e-05 -0.00014330207 -3.266456e-05 6.384276e-05 -2.4177907e-05
0.09670089 0.022659386 0.083720595 -0.097331874 0.00016882668 -0.0023595262 7.655511e-05 -9.327622e-05
-3.76817e-06 -4.9882015e-05 0.032108817 0.029607402 0.04377117 0.044751335 -8.167258e-05 -0.00012074835
-0.00014394203 -0.022215804 -8.812183e-06 0.012190279 -0.050166946 0.021460993 -0.00013690734 -0.0023172149
0.045262687 0.0036307925 -0.00049805566 0.011752491 0.022292955 -7.00608e-05 -0.04458073 -0.025898663
-0.006215238 0.1449703 0.10009878 -0.00066324166 0.020311382 0.0073913666 0.0015650507 7.31516e-05
-0.0001263542 -2.3289405e-05 -0.00011312242 -0.00011282869 -3.75862e-05 0.0023100027 -8.932332e-05 -0.00023731736
0.000111306865 0.000114045346 -2.0204527e-05 -0.00017297665 0.00011014804 5.0732193e-05 -0.00018405968 -0.00013749745
-0.00015632538 0.00021567628 -0.000117336094 -0.00020804211 -8.370088e-05 -6.80964e-05 8.6561675e-05 8.187211e-05
00000000: 1fd3 55bd 7bbe 423d 539d f93c b0ad bd3d
00000010: b486 b73c 43b2 be39 47e7 d2ba 55f8 7d3b
00000020: 62f1 a23a a5f9 01b9 fd50 b3b7 5207 ff38
00000030: e87b bd38 de08 3eb8 2446 7d38 b5f7 bc39
00000040: 5cff 68b8 16a9 55b9 8aa2 c038 a34b 3739
00000050: 5c08 c1b8 1732 b738 2c5c 19b9 77e7 1437
00000060: 8244 c538 9412 7239 9c99 16b9 0687 35b9
00000070: 84cc 27b9 26f2 053a 1073 c1b8 a7a8 bb38
00000080: 72a5 fdb7 2763 d437 67d8 0939 28c6 89b8
00000090: 4210 15b9 f3d0 c039 19e2 ae38 cc6b c138
000000a0: 3ef4 c738 d118 7a36 f0aa dbb7 9262 b6b9
000000b0: 24cb 2ebd 43c2 d8bc e53b b9bc f8c3 3b3d
000000c0: df06 7738 91b9 67ba 074f c3b7 3bf8 0039
000000d0: daad 0937 e621 e338 c345 32bd c7ed 23bd
000000e0: d904 2938 d649 11bd fad4 d137 8f66 59b9
000000f0: a0c2 d2b8 12ef 50ba de2a 3639 b811 50ba
00000100: 11c0 a8bc 3f93 f6bc 40ce 95b8 69d9 853a
00000110: af6e 1bbd f504 27bd 9454 0fbd 9ea0 813a
00000120: 6a35 cebc 015e 0a39 f63d 023d 2b63 883d
00000130: 72db ca3d c1bb a3bd eba0 c6bd b98d c5b9
00000140: ab7d 60bc bbb3 823b dc19 12ba ad32 c838
00000150: cc28 bab8 c3f7 05b9 eeb0 89b8 1dde ef38
00000160: 256f 9538 6c2a c13b e7bf 8fb8 e5eb be38
00000170: 1bcb d438 9bb1 beb8 8f37 b738 ae47 9a38
00000180: 87bd 1db8 e445 8ab9 f64f 92b8 abda 5d39
00000190: 1d64 f938 a47b fa37 7b80 5bb9 614b b8b9
000001a0: 8450 d537 0e1e 36b8 769e c3b8 aead b8b8
000001b0: f290 dbb7 930a 92b9 eb6b bfb8 2152 d438
000001c0: d56d 5a37 c0cc e8b8 9c02 c538 d3e9 d438
000001d0: 05da 0a39 3d9c a938 68f2 b03d a931 083c
000001e0: 26e2 d73c ba88 bbbd 19b8 d6b8 67da bfbb
000001f0: ebdd 80b7 2a1c d1b7 b057 ba38 750e cdb8
00000200: 9df3 a13d 1f8e d73a f697 a83d 50bb 193d
00000210: 9b47 9a38 89fc d535 cf13 bd38 112b b0bc
00000220: 5fd8 87b7 e85e 01bc 7ce2 323d dfef b43d
00000230: f668 d938 3228 533b 676a 483d 28df 95bb
00000240: d3cf 34bd 5cfd 813d 0814 e53c 3e03 ddb8
00000250: 9d17 b83d ae5d ef3c fcc3 e03c 8d0a 0ebe
00000260: c9ba 2ebd 0346 90b8 3be7 2bbb 1439 41bb
00000270: 243f 3db9 e1f2 b4b8 dec6 56b9 fa54 35b8
00000280: f664 cb37 7236 1bb9 3166 f738 e116 63bb
00000290: 75b6 bfb8 5b3d 35b9 54cc d4b8 f25d 0cb9
000002a0: 488e 3238 11b5 0f39 1fa5 be38 da5b fbb8
000002b0: be08 c238 ed46 74b8 0e29 1b39 9f60 4ab9
000002c0: ec73 1438 29bd eb39 ac59 9eb8 03d2 e0b7
000002d0: 7aea 04b9 3167 32b9 dd0c 6039 fd6f c138
000002e0: 610e bb36 cc90 3239 c7e5 9d38 35d7 61b8
000002f0: 5b43 16b9 4e01 09b8 52e3 8538 a9d1 cab7
00000300: 1e0b c63d 2da0 b93c b475 ab3d ef55 c7bd
00000310: 1107 3139 48a2 1abb 368c a038 4a9d c3b8
00000320: abe0 7cb6 6838 51b8 8984 033d 398b f23c
00000330: 6649 333d 2d4d 373d a247 abb8 473a fdb8
00000340: 25ef 16b9 ebfd b5bc 0ad8 13b7 bcb9 473c
00000350: db7b 4dbd f7ce af3c c98e 0fb9 6adc 17bb
00000360: 5e65 393d 97f2 6d3b f38f 02ba 858d 403c
00000370: b79f b63c 9bed 92b8 499a 36bd 6f29 d4bc
00000380: 32a9 cbbb 1873 143e 9700 cd3d 65dd 2dba
00000390: 0e64 a63c 4733 f23b 6322 cd3a f768 9938
000003a0: f37d 04b9 9e5d c3b7 233c edb8 719e ecb8
000003b0: e0a5 1db8 6a63 173b 1853 bbb8 65d8 78b9
000003c0: 6b6d e938 a12b ef38 e47c a9b7 1161 35b9
000003d0: 47ff e638 47c9 5438 2500 41b9 312d 10b9
000003e0: 46eb 23b9 2927 6239 5612 f6b8 e125 5ab9
000003f0: 9188 afb8 face 8eb8 7288 b538 c1b2 ab38

readout.weight_and_sum.atom_weighting.0.weight f4 [1, 128]
0.2129894 -0.15528035 -0.3903207 0.40180433 0.09864346 -0.32944295 -0.24401861 -0.12226806
0.26296818 -0.21350825 -0.21875532 0.15112641 -0.22919104 -0.053974573 -0.42617708 0.24622568
-0.040405188 0.35020018 0.481633 0.13155016 -0.2027025 -0.074330814 -0.21041662 -0.032553338
0.01425565 0.016459925 -0.038043547 -0.04567177 -0.07988922 -0.3077217 -0.027114665 -0.10795041
0.32204965 0.06827458 0.040334772 0.5096338 0.03976257 0.1488396 0.26582605 0.16561007
0.1395915 0.18796948 -0.020330679 -0.32095742 0.15932617 0.5148475 0.45606688 0.11743789
0.0651363 0.108888105 -0.14017189 -0.15683752 -0.17930837 0.53286666 0.021349214 0.011278448
-0.11430959 -0.28848872 -0.1581136 0.3103978 0.25759596 0.2185448 0.44206488 -0.26382944
-0.19766778 0.12697574 -0.21171962 0.065438166 -0.17306158 -0.39258587 -0.08989554 -0.41678745
-0.11887617 -0.72458655 -0.11737986 -0.19014159 -0.05612575 0.1871544 0.06719843 0.23122896
0.5358026 0.05086353 -0.33665207 0.29362664 -0.30087087 -0.23640074 -0.6708472 0.38510233
0.24338631 -0.6242332 0.16164857 0.108964264 0.0024090246 0.30883917 -0.28306615 -0.11859046
-0.055571284 0.24364808 -0.20141843 0.079541765 0.15561451 -0.24799283 -0.10239592 -0.25242487
-0.12779182 0.06902765 0.33129272 0.14130554 -0.10112748 0.16471031 0.4138295 -0.5927871
0.09005374 0.53310084 -0.2431844 -0.2792973 0.02058034 0.55557036 -0.12544629 -0.31939018
0.08254065 0.30014327 -0.20720795 0.054991484 -0.25044072 -0.6110046 -0.42066976 -0.08144997
00000000: e519 5a3e d001 1fbe 1dd8 c7be 4cb9 cd3e
00000010: 9505 ca3d bfac a8be 04e0 79be ad67 fabd
00000020: c4a3 863e e8a1 5abe 6501 60be e2c0 1a3e
00000030: 0eb1 6abe 7114 5dbd e233 dabe 9622 7c3e
00000040: e97f 25bd 704d b33e 9a98 f63e 16b5 063e
00000050: 3f91 4fbe c13a 98bd 7477 57be a656 05bd
00000060: 8890 693c f7d6 863c 8dd3 1bbd 5212 3bbd
00000070: f69c a3bd b38d 9dbe 931f debc 1b15 ddbd
00000080: b1e3 a43e 8bd3 8b3d 1336 253d 5c77 023f
00000090: 14de 223d 6869 183e 5a1a 883e b095 293e
000000a0: 13f1 0e3e 127b 403e 868c a6bc 8854 a4be
000000b0: 6626 233e 0ccd 033f 9981 e93e 4783 f03d
000000c0: 2e66 853d ba00 df3d 3889 0fbe 049a 20be
000000d0: 9d9c 37be f369 083f 8ce4 ae3c 3dc9 383c
000000e0: 251b eabd cbb4 93be 88e8 21be 76ec 9e3e
000000f0: 9ee3 833e 35ca 5f3e 5456 e23e a714 87be
00000100: 6c69 4abe ee05 023e 07cd 58be 7204 863d
00000110: 0e37 31be 0401 c9be 271b b8bd 2a65 d5be
00000120: 5975 f3bd 817e 39bf da64 f0bd 7ab4 42be
00000130: 1de4 65bd 67a5 3f3e 559f 893d 49c7 6c3e
00000140: 5c2a 093f 4756 503d a95d acbe 3b56 963e
00000150: bf0b 9abe 0913 72be a4bc 2bbf 222c c53e
00000160: 433a 793e bfcd 1fbf 3487 253e a828 df3d
00000170: bae0 1d3b 2b20 9e3e 0cee 90be 8edf f2bd
00000180: b79e 63bd e27e 793e a240 4ebe cbe6 a23d
00000190: 6959 1f3e d5f1 7dbe f4b4 d1bd d53d 81be
000001a0: dcdb 02be 5e5e 8d3d 339f a93e 66b2 103e
000001b0: ed1b cfbd d2a9 283e 76e1 d33e e5c0 17bf
000001c0: 186e b83d 4c79 083f 5505 79be 0e00 8fbe
000001d0: 1a98 a83c dc39 0e3f fe74 00be 1c87 a3be
000001e0: 130b a93d 61ac 993e 522e 54be c03e 613d
000001f0: c439 80be cc6a 1cbf 0762 d7be 3ecf a6bd

predict.predict.1.weight f4 [128, 256]
0.0057833837 0.018442305 0.004253056 0.024911664 -0.0063132057 0.01654003 -0.0013612469 0.0035974158
-0.02225305 0.0032615406 0.008128847 0.0073156403 -0.00039061205 0.0011133726 0.011854005 0.019583281
0.047697507 -0.032739617 0.016371822 -0.0035611612 -0.006355226 0.00029753943 -0.0035242331 0.007788159
0.0036369893 0.0021701274 0.018858567 0.00011883359 0.042294085 0.0051394766 -0.0023233602 -0.0062564933
-0.015289522 0.006054479 9.564794e-05 -0.027683416 0.006399803 0.0049272096 -0.014251983 0.001698611
-0.005941622 0.0018683099 0.0041049058 0.034907725 0.027909644 0.01162425 0.00045098292 -0.005183036
0.021326795 -0.0123138 0.0038150346 0.0024429183 0.016146578 0.0103333425 -0.009771927 0.0029921224
-0.015127312 0.0064294646 0.0031854634 -0.0012907794 0.011440816 -0.003227092 -0.005341404 -0.0080079
0.012309846 -0.0043588784 -0.0050103273 -0.0006476404 0.0036609534 -0.0005004108 -0.009979255 0.021160465
-0.061171543 0.039609827 -0.0066481153 -0.0062610554 0.006762891 -0.004647989 0.033025086 -0.01281502
-0.048430536 0.0012296092 -0.013307503 0.00816482 0.02354755 0.025397403 0.056884225 -0.00977193
-0.012464997 -0.006131591 -0.005791466 0.017441193 -0.007466487 -0.009098606 1.8204717e-05 0.012513735
0.004944016 0.029309973 0.009654696 -0.005783629 0.0071897474 -0.027769178 0.005412854 -0.025593655
0.0045412355 -0.04410805 -0.043920256 0.002968176 -0.0013233665 -0.010344952 -0.03749312 -0.026054667
0.041272294 -0.03331928 -0.024843233 0.018446395 0.014072484 -0.12895682 -0.008121545 -0.017082306
0.0024196152 -0.04082496 0.00538125 0.013239054 0.026306288 -0.012584556 0.024717236 -0.0073812716
0.0057912827 0.0078594815 0.0042973687 -0.004545376 0.0076082405 8.61156e-05 0.060273148 0.00909494
0.053545646 -0.0020605447 4.699463e-05 0.0135162575 0.12137125 0.0074464297 0.041649293 0.00017289842
0.02285073 0.084296785 -0.004177198 0.0066630132 -0.016725598 0.03813284 0.019068856 0.0011833104
0.0018765642 0.029986843 0.03300752 -0.0032407234 0.023413032 -0.018216325 -0.0134277055 -0.0063404744
-0.0018950182 0.03732282 -0.0031924413 -0.01936036 0.012032837 0.020920943 -0.0015747669 -0.0053380714
0.0014080285 0.008578633 0.0015471291 -0.018287823 0.0035828347 0.0096213985 0.014183019 -0.0003270698
0.04576377 0.0039664037 0.017714621 0.041678477 0.029428167 0.009012282 -0.0048717796 0.0009751613
0.008514476 0.005986333 -0.009450771 -0.010083814 0.011215859 0.005634613 -0.013336608 -0.019487184
0.005027047 -0.0036762648 -0.007095241 0.048726268 0.029662434 0.023645563 0.0046485886 0.021703282
-0.0031560252 0.055278897 0.016180826 -0.0074081384 0.002801073 0.009981174 0.025610045 -0.0046486906
0.010946244 0.12583193 0.026631532 0.019974248 0.02004145 -0.010972039 0.06605604 0.004182048
0.0061596828 -0.04128878 -0.0020563859 -0.005600053 0.011140707 0.0020351135 0.03285458 0.00090922497
-0.018344482 -0.020153843 -0.0053506005 -0.0013883829 0.008262404 -0.003403677 0.03090909 0.00406222
-0.0009547554 0.0033405744 -0.03958418 -0.00036438854 0.00496544 0.0033992762 -0.004520247 0.03534068
0.064531416 -0.0318734 0.005812242 -0.0036662952 0.09648608 0.00012804357 -0.028446527 0.06471323
0.02772018 0.041169643 0.051879786 0.012805263 0.026573284 0.059392285 0.100429304 0.05071501
00000000: 8a82 bd3b 5114 973c 385d 8b3b 8c13 cc3c
00000010: 02df cebb f57e 873c de6b b2ba 9fc2 6b3b
00000020: 074c b6bc 92bf 553b db2e 053c 0ab8 ef3b
00000030: 10cb ccb9 96ee 913a 4d37 423c 1e6d a03c
00000040: 765e 433d fa19 06bd 331e 863c 5f62 69bb
00000050: 803f d0bb 11ff 9b39 d2f6 66bb d033 ff3b
00000060: 8e5a 6e3b b238 0e3b 487d 9a3c 4c36 f938
00000070: 903c 2d3d 0e69 a83b 8443 18bb 4503 cdbb
00000080: e780 7abc a764 c63b 9996 c838 55c8 e2bc
00000090: 70b5 d13b 6e74 a13b 2681 69bc eda3 de3a
000000a0: f0b1 c2bb 14e2 f43a 7282 863b 67fb 0e3d
000000b0: c4a2 e43c a373 3e3c e771 ec39 75d6 a9bb
000000c0: 88b5 ae3c d2bf 49bc a905 7a3b 5e19 203b
000000d0: d445 843c 2e4d 293c 6f1a 20bc 7c17 443b
000000e0: 8cd8 77bc 42ae d23b 35c3 503b 5f2f a9ba
000000f0: 4372 3b3c 9f7d 53bb f206 afbb 9133 03bc
00000100: 3caf 493c ecd4 8ebb ac2d a4bb 69c6 29ba
00000110: 9bec 6f3b 002e 03ba 0780 23bc b658 ad3c
00000120: 038f 7abd ea3d 223d 6fd8 d9bb 8a29 cdbb
00000130: 3e9b dd3b 284e 98bb 5045 073d 17f6 51bc
00000140: 195f 46bd d72a a13a b707 5abc bdc5 053c
00000150: cbe6 c03c 370e d03c 6fff 683d 721a 20bc
00000160: fd39 4cbc 83eb c8bb 57c6 bdbb d5e0 8e3c
00000170: 6fa9 f4bb 5212 15bc 55b6 9837 6906 4d3c
00000180: 6a01 a23b 781b f03c bb2e 1e3c 9984 bdbb
00000190: f997 eb3b 307c e3bc 4f5e b13b c9a9 d1bc
000001a0: a5ce 943b a5aa 34bd bae5 33bd bb85 423b
000001b0: d074 adba e07d 29bc 6392 19bd 9970 d5bc
000001c0: 230d 293d cc79 08bd 0984 cbbc e51c 973c
000001d0: 4790 663c 420d 04be 3b10 05bc 31f0 8bbc
000001e0: 6892 1e3b 1338 27bd 3255 b03b 9ee8 583c
000001f0: 4980 d73c 742f 4ebc cd7b ca3c 98de f1bb
00000200: cdc4 bd3b 0ec5 003c f1d0 8c3b 61f1 94bb
00000210: 8c4e f93b f698 b438 fae0 763d f102 153c
00000220: ae52 5b3d 340a 07bb 1a1c 4538 4b73 5d3c
00000230: 7d91 f83d 2e01 f43b 7398 2a3d 114c 3539
00000240: 7431 bb3c cba3 ac3d e0e0 88bb 6855 da3b
00000250: 1f04 89bc 2e31 1c3d 4a36 9c3c 4f19 9b3a
00000260: 0cf7 f53a f8a6 f53c e532 073d 5162 54bb
00000270: b0cc bf3c 673a 95bc e1ff 5bbc c1c3 cfbb
00000280: 4262 f8ba d0df 183d 4738 51bb 9e99 9ebc
00000290: 6025 453c 6662 ab3c 6968 ceba fdea aebb
000002a0: 998d b83a 658d 0c3c 0ac9 ca3a 58d0 95bc
000002b0: fecd 6a3b 12a3 1d3c e55f 683c 917a abb9
000002c0: ca72 3b3d 9bf8 813b 411e 913c 0db7 2a3d
000002d0: 5713 f13c 40a8 133c 73a3 9fbb f8a1 7f3a
000002e0: 4d80 0b3c 0029 c43b 68d7 1abc 9536 25bc
000002f0: b9c2 373c 8fa2 b83b ca81 5abc 96a3 9fbc
00000300: edb9 a43b 7ded 70bb 327f e8bb 3295 473d
00000310: a2fe f23c 57b4 c13c 3053 983b 15cb b13c
00000320: 51d5 4ebb 206c 623d a78d 843c f8bf f2bb
00000330: 3592 373b 1488 233c 28cc d13c 0b54 98bb
00000340: e057 333c 16da 003e 5f2a da3c 09a1 a33c
00000350: f82d a43c 11c4 33bc 6448 873d 9009 893b
00000360: 2ad7 c93b 6c1e 29bd 6ec4 06bb a680 b7bb
00000370: 8387 363c 8a5f 053b 8692 063d 0e59 6e3a
00000380: 2b47 96bc ac19 a5bc 1754 afbb 66fa b5ba
00000390: 095f 073c 3910 5fbb 0f35 fd3c 5f1c 853b
000003a0: 8d48 7aba 8aed 5a3b 0523 22bd 670b bfb9
000003b0: 21b5 a23b 64c6 5e3b 951e 94bb 64c1 103d
000003c0: 0c29 843d af8d 02bd 9f74 be3b 3a46 70bb
000003d0: 7e9a c53d 6f43 0639 b108 e9bc 5f88 843d
000003e0: 6e15 e33c 80a1 283d e67f 543d 2acd 513c
000003f0: 37b0 d93c 5345 733d e1ad cd3d 8bba 4f3d

predict.predict.1.bias f4 [128]
0.021509942 0.019044518 -0.013713223 0.025344659 -0.00083888514 -0.059140634 0.008242747 -0.0028759239
-0.04075979 0.046765577 0.01120943 0.009148914 0.00332735 -0.00030397103 -0.045558657 0.0037337255
0.06619402 0.024180928 -0.11811763 -0.0031032895 0.025379142 0.027160443 0.008475749 -8.509456e-05
-0.041090127 0.08621008 0.000536547 -0.037452593 -0.026427904 0.0070335073 0.10736244 0.02837266
0.008820453 0.028234731 -0.0022107437 0.034702916 -0.011694277 -0.047919337 -0.0949915 0.022905447
0.0044646724 0.0048256167 -0.0032215607 0.0045944722 0.06497797 -0.10832606 0.0012702437 0.1106887
-0.010775135 0.07848441 -0.018860275 0.086789325 0.009719407 0.010984763 -0.0028180168 0.08861408
0.0031971866 0.0056439214 -0.0015693974 -0.042194407 0.008653534 0.014368639 -0.0033291343 0.004721889
-0.002054681 0.0014749852 0.044616025 0.04574617 -0.004322521 0.00044909556 -0.006464574 0.0053129806
-0.0045109657 0.010368664 -0.0034520307 0.005990783 0.03625635 0.010375004 0.012494495 -0.0039035906
0.038614303 0.0019430883 0.08940229 0.020943299 0.024977619 -0.030010417 0.0087992335 -0.043487832
0.012618254 -0.0066477917 0.002044337 0.023926172 0.03354113 -0.023103202 -0.012090622 -0.001906207
-0.000962799 -0.14837001 0.009268898 0.08435541 0.013001291 -0.02193939 -0.06567979 0.0027350236
0.0013495779 -0.015979184 0.0026890931 0.0008389785 -0.040116284 -0.02049545 -0.03744973 0.0027815392
-0.061612558 0.0006483267 0.0020038472 -0.010148903 -0.02914409 0.003103721 -0.020354994 0.051992364
-0.0027503555 -0.002238138 8.045987e-05 -0.043901537 0.017186275 0.0093178535 0.00018494645 0.01804793
00000000: 9e35 b03c 4003 9c3c 6dad 60bc 9a9f cf3c
00000010: a1e8 5bba 733d 72bd 960c 073c ff79 3cbb
00000020: bdf3 26bd 438d 3f3d c2a7 373c 54e5 153c
00000030: ab0f 5a3b 4d5e 9fb9 b79b 3abd 85b1 743b
00000040: bb90 873d 1517 c63c a8e7 f1bd 8f60 4bbb
00000050: ebe7 cf3c 947f de3c dedd 0a3c cb74 b2b8
00000060: 1f4e 28bd e98e b03d 0fa7 0c3a e467 19bd
00000070: 557f d8bc 5679 e63b d7e0 db3d c86d e83c
00000080: a983 103c 864c e73c 20e2 10bb a524 0e3d
00000090: 5a99 3fbc 1147 44bd e78a c2bd 34a4 bb3c
000000a0: 634c 923b 3520 9e3b d220 53bb 3a8d 963b
000000b0: 2c13 853d 0eda ddbd 4e7e a63a c2b0 e23d
000000c0: 318a 30bc 6fbc a03d dd80 9abc 9abe b13d
000000d0: 263e 1f3c 6ff9 333c 7aae 38bb 4c7b b53d
000000e0: e487 513b a5f0 b83b 3db4 cdba 0bd4 2cbd
000000f0: 8dc7 0d3c 716a 6b3c 9b2d 5abb 13ba 9a3b
00000100: d4a7 06bb 4a54 c13a 4bbf 363d 5660 3b3d
00000110: efa3 8dbb 9674 eb39 c7d4 d3bb 8318 ae3b
00000120: b9d0 93bb 54e1 293c 773b 62bb 554e c43b
00000130: 8a81 143d ecfb 293c b6b5 4c3c 62d3 7fbb
00000140: 082a 1e3d 39af fe3a 8c18 b73d 4891 ab3c
00000150: dd9d cc3c 68d8 f5bc a92a 103c 4c20 32bd
00000160: cbbc 4e3c b8d5 d9bb 49fa 053b d200 c43c
00000170: 6d62 093d ed42 bdbc bf17 46bc b1d9 f9ba
00000180: 5964 7cba 4fee 17be 93dc 173c 87c2 ac3d
00000190: 5e03 553c 3cba b3bc 2083 86bd 153e 333b
000001a0: 52e4 b03a c7e6 82bc 7f3b 303b e5ee 5b3a
000001b0: f950 24bd 13e6 a7bc e364 19bd 7c4a 363b
000001c0: 735d 7cbd 78f4 293a fa52 033b 9647 26bc
000001d0: 96bf eebc cc67 4b3b 84bf a6bc f2f5 543d
000001e0: 4f3f 34bb baad 12bb 90bc a838 19d2 33bd
000001f0: 3bca 8c3c e9a9 183c 2fee 4139 41d9 933c

predict.predict.3.weight f4 [128]
0.09865638 0.05134181 -0.05517987 -0.034812994 -0.013358116 -0.31979796 -0.011302999 -0.062489778
0.12912136 -0.03408287 0.2674992 -0.090984955 0.011124378 0.0302825 -0.1750219 0.036330953
0.80465776 -0.02915713 0.08979908 0.2258149 -0.054185696 0.24460603 -0.017853837 -0.0650709
-0.09614021 0.05442023 -0.0053027524 -0.04861815 0.13879704 0.06897034 0.6288386 -0.0027329943
0.051416904 0.009860237 -0.027631681 -0.018655786 -0.028050901 0.09744364 0.072243564 -0.07222434
0.6177007 0.104478754 0.041726414 0.090896495 -0.17323704 0.6979239 0.00077547645 -0.53658587
-0.3466182 0.1781058 -0.10598647 0.028288482 -0.009298677 -0.03482638 0.039729133 -0.14716753
-0.08274598 -0.015581424 -0.08376612 0.12213062 0.24834472 -0.046457265 0.05577326 -0.009723966
-0.08072414 0.039099816 0.029911162 0.04942095 0.039434645 0.055940013 -0.030646736 0.06427492
0.09116041 -0.100498855 0.009738906 -0.05605481 0.2682073 0.06928067 0.19989151 0.022706682
0.06620855 0.030643588 0.42227438 0.18591234 -0.097540855 -0.3391399 -0.12568037 0.08250101
0.1415705 0.004385967 0.015964689 0.03615701 0.013914449 0.21037863 0.0010661936 0.0023859676
-0.057387784 0.024772707 0.07236539 0.036310703 0.060272165 -0.013602624 0.036976613 -0.0067670452
0.10286233 0.0018923671 0.0013490575 -0.07774908 -0.057624795 0.2074742 0.3149358 -0.010722315
-0.016510008 -0.0072341356 0.0014672561 -0.031197628 0.13315952 -0.029844247 -0.04845235 -0.09214816
-0.23094343 -0.00835843 0.0032980868 0.02127612 0.019962542 0.05465776 -0.02814063 0.28355438
00000000: 5b0c ca3d ca4b 523d 4a04 62bd 1298 0ebd
00000010: 00dc 5abc 8fbc a3be 3730 39bc 48f5 7fbd
00000020: 6438 043e 7b9a 0bbd a8f5 883e 5256 babd
00000030: 0643 363c 0113 f83c f138 33be c4cf 143d
00000040: 0dfe 4d3f efda eebc 94e8 b73d 053c 673e
00000050: d2f1 5dbd 017a 7a3e 3642 92bc e443 85bd
00000060: 29e5 c4bd bfe7 5e3d b6c2 adbb d323 47bd
00000070: d020 0e3e 5240 8d3d 91fb 203f 091c 33bb
00000080: 889a 523d d58c 213c d65b e2bc 05d4 98bc
00000090: 01cb e5bc 8890 c73d 6ff4 933d 5bea 93bd
000000a0: a221 1e3f f5f8 d53d 51e9 2a3d f127 ba3d
000000b0: 0d65 31be 24ab 323f 5849 4b3a b15d 09bf
000000c0: f177 b1be 5e61 363e 6f0f d9bd 3fbd e73c
000000d0: 7a59 18bc 1ba6 0ebd 04bb 223d 16b3 16be
000000e0: b976 a9bd 3b49 7fbc 928d abbd 9e1f fa3d
000000f0: 144e 7e3e f949 3ebd 8072 643d 4551 1fbc
00000100: b352 a5bd 2127 203d 4108 f53c 9f6d 4a3d
00000110: 3986 213d 5b21 653d dd0e fbbc 92a2 833d
00000120: 4fb2 ba3d 58d2 cdbd ef8f 1f3c ba99 65bd
00000130: 7852 893e 06e3 8d3d 5cb0 4c3e 5d03 ba3c
00000140: 5998 873d 4308 fb3c 5934 d83e ce5f 3e3e
00000150: 80c3 c7bd bfa3 adbe 5bb2 00be 4af6 a83d
00000160: dbf7 103e 28b8 8f3b 61c8 823c 5f19 143d
00000170: 6ef9 633c 7f6d 573e 85bf 8b3a e55d 1c3b
00000180: 740f 6bbd 22f0 ca3c 4e34 943d 88ba 143d
00000190: f2df 763d 8add 5ebc ca74 173d 17be ddbb
000001a0: 7ca9 d23d 4e09 f83a dcd2 b03a e93a 9fbd
000001b0: fa07 6cbd 1e74 543e 443f a13e a6ac 2fbc
000001c0: ff3f 87bc 540c edbb f250 c03a 2b92 ffbc
000001d0: f85a 083e ec7b f4bc f975 46bd 2db8 bcbd
000001e0: 6f7c 6cbe ccf1 08bc b724 583b 424b ae3c
000001f0: 7c88 a33c d1e0 5f3d 2e87 e6bc 0a2e 913e
