Results/GAT/41/model.pth (torch, 119544 bytes, 13 tensors)

gnn.gnn_layers.0.gat_conv.attn_l f4 [1, 4, 32]
-0.029682208 0.05229444 0.030744804 0.011741817 0.02857609 0.086334005 0.014660768 0.14462848
0.10096749 -0.02891493 -0.02480097 -0.08199972 -0.022873929 -0.034013666 0.026756715 0.12066147
0.005631325 -0.0008435214 0.091958456 0.13366793 0.020551244 -0.0017654862 -0.07063774 0.018916985
0.061808035 0.061007693 -0.053650282 -0.07120263 0.0024880683 -0.03262031 -0.03896752 -0.017869743
-0.008963652 0.0455349 0.06809486 -0.007322063 -0.003295733 0.043465223 0.01196447 0.12597641
0.06256601 -0.013928465 -0.1011812 -0.020380659 -0.044337515 -0.033403646 0.038719993 0.15472437
-0.013246878 0.0070253215 0.12363596 0.073447205 0.0036292726 -0.02941109 -0.0074945013 -0.03326014
0.06268592 0.054412086 -0.05131264 -0.012048915 0.006252323 -0.042951833 -0.08849827 -0.041214075
-0.013632674 -0.014300665 0.05717076 -0.015496123 -0.04805908 0.025286406 0.003964808 -0.007952351
0.05681029 -0.04066135 -0.06902349 -0.025890896 -0.06542768 -0.028361449 0.050270204 0.116019756
-0.0040273936 0.004021576 0.13259724 0.08560812 -0.009520037 -0.021406159 -0.07226737 -0.03510104
0.072061606 0.0695258 -0.042159624 -0.010199634 0.0044089626 -0.060459096 -0.08705817 -0.011435586
-0.122068435 0.016372962 0.16304195 -0.0785324 0.01581527 0.15610814 0.010845659 0.23291731
0.19360015 0.0647566 -0.19426529 -0.058495723 -0.20095496 0.019729018 -0.14671203 0.15904875
0.14590465 0.0014903466 0.14242166 0.17906305 0.021454055 -0.020696001 -0.07388909 0.0653551
0.14958255 0.16092314 -0.122080095 -0.13275783 -0.009666022 -0.09272573 -0.24072999 -0.10492018
00000000: 1a28 f3bc b232 563d 87dc fb3c c060 403c
00000010: 6718 ea3c e2cf b03d b833 703c 7d19 143e
00000020: 0bc8 ce3d 01df ecbc 672b cbbc 78ef a7bd
00000030: 1b62 bbbc ea51 0bbd e630 db3c 5c1d f73d
00000040: fa86 b83b c31f 5dba b754 bc3d 3fe0 083e
00000050: 155b a83c e367 e7ba 85aa 90bd cbf7 9a3c
00000060: 6c2a 7d3d 34e3 793d 66c0 5bbd afd2 91bd
00000070: dc0e 233b e09c 05bd 689c 1fbd 9163 92bc
00000080: 48dc 12bc ce82 3a3d 5175 8b3d ebed efbb
00000090: 39fd 57bb 9708 323d a006 443c f6ff 003e
000000a0: 9c22 803d 3734 64bc 1738 cfbd 57f5 a6bc
000000b0: 419b 35bd 43d2 08bd db98 1e3d 1170 1e3e
000000c0: 6f09 59bc ab34 e63b da34 fd3d 7d6b 963d
000000d0: 17d9 6d3b 87ef f0bc 6f94 f5bb c93b 08bd
000000e0: 7a61 803d 35df 5e3d 342d 52bd d068 45bc
000000f0: 49e0 cc3b 43ee 2fbd 953e b5bd 17d0 28bd
00000100: 945b 5fbc 564d 6abc e32b 6a3d 73e3 7dbc
00000110: 99d9 44bd 7025 cf3c 38eb 813b 944a 02bc
00000120: e8b1 683d 848c 26bd 305c 8dbd 2519 d4bc
00000130: f3fe 85bd 4556 e8bc 21e8 4d3d c49b ed3d
00000140: 3af8 83bb 6dc7 833b 92c7 073e 4f53 af3d
00000150: eef9 1bbc f85b afbc ea00 94bd 1cc6 0fbd
00000160: 0995 933d 8b63 8e3d 92af 2cbd 5e1c 27bc
00000170: 0f79 903b f5a3 77bd 8e4b b2bd 535c 3bbc
00000180: 04ff f9bd 9720 863c 78f4 263e 98d5 a0bd
00000190: 068f 813c d0da 1f3e feb1 313c e081 6e3e
000001a0: 1e3f 463e 1c9f 843d 7bed 46be 3699 6fbd
000001b0: 23c7 4dbe c09e a13c ae3b 16be addd 223e
000001c0: 0768 153e bc57 c33a fcd6 113e 4e5c 373e
000001d0: 6ac0 af3c a98a a9bc 2a53 97bd e5d8 853d
000001e0: 2b2c 193e 09c9 243e 2105 fabd abf1 07be
000001f0: 3c5e 1ebc fde6 bdbd ec81 76be 64e0 d6bd

gnn.gnn_layers.0.gat_conv.attn_r f4 [1, 4, 32]
0.087498344 0.05035657 -0.06444298 0.035669424 -0.0028271163 0.012725299 -5.84933e-05 -0.025929524
-0.018620389 -0.08428541 0.015199494 -0.022720918 -0.0048658256 0.024179747 0.050633337 0.044300545
-0.07396526 0.0031733925 0.05150749 -0.025898203 -0.01577039 0.0153811695 -0.011349135 -0.052221112
0.029530428 -0.01359374 0.033145722 0.008283204 0.017351314 -0.019816553 0.0028352032 -0.0002527232
0.039964903 0.04660031 -0.07972975 0.056481346 0.026300307 0.043320265 0.011427545 -0.0063393214
0.010646023 -0.047601707 -0.06980621 0.03307859 0.04223161 -0.015369671 0.07100282 0.031187102
-0.047800183 0.06558419 0.13159499 -0.026626738 -0.025714165 0.0084665995 -0.00884336 -0.09790531
-0.0493861 -0.059457317 0.00556067 0.016238732 0.03948172 0.053384334 -0.033996064 0.036076836
0.021231906 0.03577228 -0.025696628 0.04213801 0.018462159 0.013893708 0.007662191 -0.009265361
0.0036492308 -0.013355163 -0.023565218 0.007820111 0.04490932 -0.0022415842 0.024075473 0.046995737
-0.022967936 0.010242649 0.08992978 -0.0050295577 -0.007262238 0.0063608377 -0.0060756938 -0.061071843
0.02598691 0.023182243 0.016045334 -0.00018629372 0.018289901 -0.0067286203 -0.014158068 -0.004903182
-0.000863706 -0.0415691 -0.02812278 0.05563792 -0.050445188 0.07357784 0.016364992 0.03150602
0.05129913 0.026056174 -0.041563794 -0.004711273 0.06827559 -0.0030606824 -0.008992379 0.07511124
0.005484604 0.06453831 0.07510009 0.04708532 -0.00096826826 0.010155016 -0.05643277 -0.067492664
0.017051606 0.026308637 -0.012798346 -0.10625896 0.044409525 0.039269216 -0.04636377 -0.019050715
00000000: 5532 b33d b142 4e3d aefa 83bd 1a1a 123d
00000010: 2447 39bb c67d 503c b456 75b8 276a d4bc
00000020: c989 98bc d49d acbd 4c07 793c 3821 babc
00000030: 8171 9fbb 9b14 c63c e764 4f3d 7d74 353d
00000040: 197b 97bd b1f8 4f3b 85f9 523d 7828 d4bc
00000050: e830 81bc 4d01 7c3c b9f1 39bc cee5 55bd
00000060: cce9 f13c 47b8 5ebc cfc3 073d 47b6 073c
00000070: 5824 8e3c 5356 a2bc d1ce 393b ef7f 84b9
00000080: 3db2 233d f7df 3e3d 5a49 a3bd fc58 673d
00000090: be73 d73c 9770 313d 993a 3b3c 15ba cfbb
000000a0: a86c 2e3c 02fa 42bd 8ff6 8ebd 6a7d 073d
000000b0: 0dfb 2c3d 13d1 7bbc ed69 913d 187c ff3c
000000c0: 20ca 43bd 0151 863d d6c0 063e 5120 dabc
000000d0: 83a6 d2bc 7eb7 0a3c bde3 10bc 9482 c8bd
000000e0: 1449 4abd 8489 73bd 4836 b63b 1707 853c
000000f0: 96b7 213d 88a9 5a3d 753f 0bbd 4ec5 133d
00000100: 89ee ad3c f485 123d bc81 d2bc e898 2c3d
00000110: f43d 973c 6fa2 633c 1e13 fb3b becd 17bc
00000120: ef27 6f3b 9dcf 5abc d80b c1bc ec1f 003c
00000130: d6f2 373d 8be7 12bb ed39 c53c 9a7e 403d
00000140: 4127 bcbc c9d0 273c 1b2d b83d fdce a4bb
00000150: 11f8 edbb 936e d03b 9d16 c7bb 7826 7abd
00000160: 80e2 d43c b0e8 bd3c 8171 833c d757 43b9
00000170: b4d4 953c c27b dcbb 3ef7 67bc dfaa a0bb
00000180: 546a 62ba 5c44 2abd bf61 e6bc 96e4 633d
00000190: 9d9f 4ebd fbaf 963d e00f 863c 750c 013d
000001a0: 091f 523d c273 d53c cc3e 2abd 0661 9abb
000001b0: 13d4 8b3d bb95 48bb c554 13bc ecd3 993d
000001c0: 31b8 b33b a92c 843d 13ce 993d 89dc 403d
000001d0: 62d3 7dba 3961 263c 0c26 67bd 9839 8abd
000001e0: cfaf 8b3c 3685 d73c 27b0 51bc 4c9e d9bd
000001f0: c3e6 353d c2d8 203d f0e7 3dbd 3f10 9cbc

gnn.gnn_layers.0.gat_conv.bias f4 [128]
0.05748145 0.05477413 -0.12511455 0.09346226 0.056727827 0.09129558 0.040351134 -0.13329776
0.017129092 -0.03797461 -0.10006703 -0.03076881 0.09572528 -0.02064856 0.06136133 0.10141444
-0.0007234367 0.06650011 0.089820586 0.07406397 -0.01906191 0.054270554 -0.037791677 -0.06795452
-0.0168726 -0.11434738 0.031312287 0.047930297 0.030085586 0.01338436 -0.04209684 0.018005548
0.05748145 0.05477413 -0.12511455 0.09346226 0.056727827 0.09129558 0.040351134 -0.13329776
0.017129092 -0.03797461 -0.10006703 -0.03076881 0.09572528 -0.02064856 0.06136133 0.10141444
-0.0007234367 0.06650011 0.089820586 0.07406397 -0.01906191 0.054270554 -0.037791677 -0.06795452
-0.0168726 -0.11434738 0.031312287 0.047930297 0.030085586 0.01338436 -0.04209684 0.018005548
0.05748145 0.05477413 -0.12511455 0.09346226 0.056727827 0.09129558 0.040351134 -0.13329776
0.017129092 -0.03797461 -0.10006703 -0.03076881 0.09572528 -0.02064856 0.06136133 0.10141444
-0.0007234367 0.06650011 0.089820586 0.07406397 -0.01906191 0.054270554 -0.037791677 -0.06795452
-0.0168726 -0.11434738 0.031312287 0.047930297 0.030085586 0.01338436 -0.04209684 0.018005548
0.05748145 0.05477413 -0.12511455 0.09346226 0.056727827 0.09129558 0.040351134 -0.13329776
0.017129092 -0.03797461 -0.10006703 -0.03076881 0.09572528 -0.02064856 0.06136133 0.10141444
-0.0007234367 0.06650011 0.089820586 0.07406397 -0.01906191 0.054270554 -0.037791677 -0.06795452
-0.0168726 -0.11434738 0.031312287 0.047930297 0.030085586 0.01338436 -0.04209684 0.018005548
00000000: ab71 6b3d d75a 603d 071e 00be 2469 bf3d
00000010: 705b 683d 2df9 ba3d 3b47 253d 357f 08be
00000020: 4f52 8c3c 448b 1bbd f1ef ccbd df0e fcbc
00000030: 9e0b c43d 2b27 a9bc 0556 7b3d 60b2 cf3d
00000040: 04a5 3dba 3631 883d dbf3 b73d daae 973d
00000050: b927 9cbc cd4a 5e3d 72cb 1abd bd2b 8bbd
00000060: 6838 8abc f62e eabd 5041 003d 8f52 443d
00000070: 0c76 f63c 134a 5b3c bc6d 2cbd 5f80 933c
00000080: ab71 6b3d d75a 603d 071e 00be 2469 bf3d
00000090: 705b 683d 2df9 ba3d 3b47 253d 357f 08be
000000a0: 4f52 8c3c 448b 1bbd f1ef ccbd df0e fcbc
000000b0: 9e0b c43d 2b27 a9bc 0556 7b3d 60b2 cf3d
000000c0: 04a5 3dba 3631 883d dbf3 b73d daae 973d
000000d0: b927 9cbc cd4a 5e3d 72cb 1abd bd2b 8bbd
000000e0: 6838 8abc f62e eabd 5041 003d 8f52 443d
000000f0: 0c76 f63c 134a 5b3c bc6d 2cbd 5f80 933c
00000100: ab71 6b3d d75a 603d 071e 00be 2469 bf3d
00000110: 705b 683d 2df9 ba3d 3b47 253d 357f 08be
00000120: 4f52 8c3c 448b 1bbd f1ef ccbd df0e fcbc
00000130: 9e0b c43d 2b27 a9bc 0556 7b3d 60b2 cf3d
00000140: 04a5 3dba 3631 883d dbf3 b73d daae 973d
00000150: b927 9cbc cd4a 5e3d 72cb 1abd bd2b 8bbd
00000160: 6838 8abc f62e eabd 5041 003d 8f52 443d
00000170: 0c76 f63c 134a 5b3c bc6d 2cbd 5f80 933c
00000180: ab71 6b3d d75a 603d 071e 00be 2469 bf3d
00000190: 705b 683d 2df9 ba3d 3b47 253d 357f 08be
000001a0: 4f52 8c3c 448b 1bbd f1ef ccbd df0e fcbc
000001b0: 9e0b c43d 2b27 a9bc 0556 7b3d 60b2 cf3d
000001c0: 04a5 3dba 3631 883d dbf3 b73d daae 973d
000001d0: b927 9cbc cd4a 5e3d 72cb 1abd bd2b 8bbd
000001e0: 6838 8abc f62e eabd 5041 003d 8f52 443d
000001f0: 0c76 f63c 134a 5b3c bc6d 2cbd 5f80 933c

gnn.gnn_layers.0.gat_conv.fc.weight f4 [128, 74]
0.04830266 -0.02274368 0.030560795 -0.03158432 0.04575591 0.00084287126 -0.0011178312 -0.044126734
-0.005620413 -1.7516196e-07 8.6385927e-07 4.3865516e-06 1.3937274e-05 -3.791458e-06 7.3355172e-06 -0.0024879463
1.71486e-05 -5.0109406e-06 9.232533e-06 -2.0680527e-06 1.037592e-05 1.3696821e-05 1.5741454e-05 1.3438086e-05
-4.173221e-06 1.0810232e-05 5.3516064e-06 -7.2655043e-06 -2.2463337e-05 -0.0033490427 1.156132e-05 7.852515e-06
-2.827843e-06 1.42241e-06 -3.140172e-06 5.394566e-06 1.3926394e-05 -6.3828143e-06 1.4413247e-05 -5.4752827e-06
1.6343671e-06 2.9324553e-06 2.6064304e-06 -2.3577504e-06 0.02966059 0.033444807 -0.01798457 0.050877288
-9.806514e-06 0.0043192776 -2.9640529e-05 -1.2254403e-06 -2.8257045e-07 -3.144209e-07 0.035480734 0.051575765
-0.011006833 -0.012219385 2.551297e-06 4.23413e-06 -7.3422207e-06 -0.02219939 1.12381185e-05 0.034340497
0.096197195 -0.005906731 1.9979595e-06 -0.0032589573 0.123045884 0.08229936 0.0039670863 -0.0026065204
0.019145807 2.7365568e-06 0.0943355 -0.008386511 0.008039602 0.049284793 0.027042171 -0.0012320227
0.004454335 0.03422128 0.0054035345 -1.5087866e-05 1.0035136e-06 -1.9176496e-05 -9.70531e-06 2.547424e-06
4.242237e-08 0.0009754313 -5.825045e-06 -8.40533e-06 8.694379e-06 9.807342e-07 -2.641255e-06 5.4666766e-06
-1.6973076e-05 -5.399148e-06 7.4716227e-06 8.303231e-06 -5.888666e-06 1.0765055e-05 -1.6825788e-07 -0.00031748973
7.12858e-06 9.820022e-06 -7.4931513e-06 -9.551263e-06 -1.8790945e-05 -7.572385e-06 8.802876e-06 1.7351862e-05
7.404759e-09 -2.4074684e-06 -1.8105578e-05 7.8581525e-06 2.3656748e-05 3.4083346e-06 0.07367205 0.05333509
0.08558523 0.09372224 -1.1193123e-06 -0.0039992696 -2.8350933e-06 1.0800996e-05 -3.8928715e-06 2.9957794e-06
0.06269313 0.050213408 -0.094749436 0.038093176 5.788666e-06 -2.2544525e-06 1.821852e-05 -0.021094367
-8.561831e-06 0.034058537 0.11400482 0.01232734 -1.4195338e-05 0.004853469 0.11694651 0.13032955
0.036571108 -0.08551809 0.026841633 -7.198147e-06 -0.12107282 -0.0013208428 0.031459335 -0.023282394
-0.018649884 0.0049380227 -0.008660018 0.05210155 -0.009111468 -3.7958564e-06 -4.5025768e-06 -1.7838163e-05
-1.3947258e-06 2.52326e-06 1.8509578e-05 0.0036032842 1.3005427e-05 -6.0305506e-06 1.320394e-05 7.3544415e-06
1.4164202e-06 -1.2540906e-05 4.549669e-06 9.302406e-06 3.124443e-06 -2.1530666e-05 8.507219e-06 1.0114075e-05
-1.2234448e-05 0.0029373048 -5.1054603e-06 7.986967e-06 -1.48945755e-05 -1.1576172e-05 7.920011e-06 2.7450071e-06
1.1419404e-05 1.3643063e-06 -5.776689e-06 -9.192668e-06 9.1197535e-06 -1.713277e-05 -7.130573e-06 -7.636056e-06
0.010840217 -0.0645033 0.011778726 -0.043502588 -1.567331e-05 -0.0104373 9.712416e-08 8.13659e-06
-5.8034802e-06 -7.666128e-06 -0.012784594 -0.034170296 0.10804168 -0.014143631 1.5459704e-05 1.041896e-05
1.49944535e-05 0.059065484 1.0537233e-05 -0.014634945 -0.17620341 0.016149383 5.99491e-06 0.0018522489
-0.116438225 -0.07329822 -0.048676856 0.086902186 -0.01138755 8.733553e-06 0.08757991 -0.028051628
0.0018138554 0.01979018 0.03877891 0.001123583 0.0045023635 0.026393143 0.00079036213 -1.8795761e-05
1.0794886e-05 1.0584025e-05 -1.0574998e-05 -1.0875507e-05 -2.2404649e-05 0.005221395 1.1737986e-05 -1.3129528e-05
-9.952462e-06 5.624611e-06 1.9392059e-05 5.41198e-06 8.049159e-06 -1.8481438e-06 -1.4693692e-05 -1.0595567e-05
-2.8054208e-06 8.857067e-06 -2.946618e-07 0.002209708 1.6847758e-05 -6.907708e-06 1.3319907e-05 -1.22099555e-05
00000000: 03d9 453d f450 babc a25a fa3c 8f5e 01bd
00000010: 8d6a 3b3d 22f4 5c3a 3184 92ba 3cbe 34bd
00000020: 712b b8bb 2714 3cb4 f5e3 6735 3130 9336
00000030: 23d4 6937 c170 7eb6 9d23 f636 d00c 23bb
00000040: 57da 8f37 a723 a8b6 6de5 1a37 e0c8 0ab6
00000050: 3d14 2e37 66cb 6537 840c 8437 2474 6137
00000060: b207 8cb6 985d 3537 f391 b336 35ca f3b6
00000070: a66f bcb7 9d7b 5bbb 7ef7 4137 4cbe 0337
00000080: f9c5 3db6 a3e9 be35 bfbb 52b6 f802 b536
00000090: 68a5 6937 f52b d6b6 6dd0 7137 52b8 b7b6
000000a0: 6d5c db35 33cb 4436 22ea 2e36 d839 1eb6
000000b0: c4fa f23c 6cfd 083d 6054 93bc b464 503d
000000c0: a886 24b7 ba88 8d3b 8da4 f8b7 cf79 a4b5
000000d0: 30b4 97b4 aecd a8b4 3f54 113d 1c41 533d
000000e0: 0156 34bc d133 48bc f336 2b36 e612 8e36
000000f0: 325d f6b6 7fdb b5bc 5a8b 3c37 9fa8 0c3d
00000100: 0903 c53d 408d c1bb af14 0636 3b94 55bb
00000110: 7bff fb3d 918c a83d 55fe 813b 28d2 2abb
00000120: abd7 9c3c b0a5 3736 f832 c13d 9467 09bc
00000130: 89b8 033c dade 493d 8b87 dd3c d27b a1ba
00000140: acf5 913b 9d2b 0c3d 2210 b13b e421 7db7
00000150: 77b0 8635 36dd a0b7 fdd3 22b7 69f4 2a36
00000160: e433 3633 16b4 7f3a c174 c3b6 9e04 0db7
00000170: 13de 1137 c5a1 8335 6a40 31b6 656e b736
00000180: 6761 8eb7 542a b5b6 c0b4 fa36 1b4e 0b37
00000190: 4197 c5b6 8f9b 3437 60aa 34b4 c074 a6b9
000001a0: 0932 ef36 acc0 2437 ae6d fbb6 5d3e 20b7
000001b0: 3fa1 9db7 4b16 feb6 11b0 1337 d78e 9137
000001c0: f36c fe31 fe8f 21b6 6fe1 97b7 82d6 0337
000001d0: 7b72 c637 beba 6436 5fe1 963d e575 5a3d
000001e0: 4f47 af3d 72f1 bf3d 473b 96b5 4e0c 83bb
000001f0: 8842 3eb6 ed35 3537 839f 82b6 190b 4936
00000200: 4165 803d 93ac 4d3d fe0b c2bd 9707 1c3d
00000210: 433c c236 334b 17b6 f9d3 9837 18ce acbc
00000220: c9a4 0fb7 f780 0b3d 5c7b e93d 9df8 493c
00000230: 8328 6eb7 d909 9f3b a781 ef3d 1c75 053e
00000240: 96cb 153d 1c24 afbd fce2 db3c 9d87 f1b6
00000250: 07f5 f7bd 2120 adba 81db 003d b8ba bebc
00000260: a4c7 98bc 23cf a13b c0e2 0dbc 6f68 553d
00000270: 4448 15bc 51bc 7eb6 d714 97b6 2aa3 95b7
00000280: 6a32 bbb5 4755 2936 0445 9b37 1425 6c3b
00000290: e231 5a37 095a cab6 7e86 5d37 2cc6 f636
000002a0: d41b be35 c866 52b7 5ca9 9836 8811 1c37
000002b0: 86ad 5136 c19c b4b7 3aba 0e37 9faf 2937
000002c0: 8e42 4db7 cc7f 403b 924f abb6 c3ff 0537
000002d0: b7e3 79b7 4837 42b7 30e0 0437 dd36 3836
000002e0: f795 3f37 351d b735 61d5 c1b6 353a 1ab7
000002f0: 0b01 1937 58b8 8fb7 2843 efb6 9c1c 00b7
00000300: 2a9b 313c 4e1a 84bd 8ffb 403c c52f 32bd
00000310: 2d7a 83b7 3601 2bbc 9292 d033 6382 0837
00000320: 84bb c2b6 c59d 00b7 7976 51bc 27f6 0bbd
00000330: f544 dd3d b0ba 67bc 76af 8137 18cd 2e37
00000340: b090 7b37 a6ee 713d 12c9 3037 69c7 6fbc
00000350: ab6e 34be b64b 843c e327 c936 29c7 f23a
00000360: 2a77 eebd 611d 96bd 6261 47bd c6f9 b13d
00000370: d992 3abc 5386 1237 195d b33d 87cc e5bc
00000380: e3be ed3a 041f a23c a2d6 1e3d 3045 933a
00000390: 9088 933b 6f36 d83c 4e30 4f3a 97ab 9db7
000003a0: af1b 3537 0b92 3137 456b 31b7 f275 36b7
000003b0: 9ef1 bbb7 3c18 ab3b 44ee 4437 e546 5cb7
000003c0: 80f9 26b7 0abb bc36 21ac a237 8e98 b536
000003d0: e00a 0737 bd0d f8b5 ed84 76b7 9dc3 31b7
000003e0: c344 3cb6 d098 1437 0232 9eb4 c0d0 103b
000003f0: 4954 8d37 c3c8 e7b6 9178 5f37 5cd9 4cb7

gnn.gnn_layers.0.gat_conv.res_fc.weight f4 [128, 74]
0.030512476 -0.003590649 0.036275286 -0.05162091 0.022346621 -0.0035464577 -0.0058866977 -0.05208604
-0.002016148 8.513171e-06 -1.5093132e-05 -4.6713985e-06 -3.3225256e-06 -1.4592575e-05 -1.6436717e-06 -0.010339117
1.3630452e-06 -2.8371126e-06 -1.9734542e-05 -7.071334e-06 -3.3029748e-06 1.5156992e-05 1.2748528e-06 -9.699858e-06
-5.625128e-06 2.2910644e-06 -4.8331626e-06 1.9128256e-06 2.795982e-06 -0.0051921406 -5.6592544e-06 -6.0127545e-06
-7.3809115e-06 -3.0326898e-06 -4.9145756e-06 5.4628845e-06 -9.18658e-06 6.7253823e-06 7.561501e-06 1.1040913e-05
9.88384e-07 -1.803152e-05 -2.9189882e-06 -4.886544e-06 -0.0097023025 0.027065234 -0.030304475 0.071380325
-1.2816186e-09 -0.0008808573 4.858124e-06 -8.367862e-06 -3.5166727e-06 -7.945665e-06 0.026110064 0.061124206
-0.02773635 0.0076092277 -1.0052812e-06 1.1566737e-05 -1.4428318e-05 -0.046708897 5.070358e-06 0.032686956
0.072670124 -0.020841718 -4.7567305e-06 0.000109517176 0.106542096 0.065004684 -0.006156955 -0.020559864
0.021798223 1.4176268e-06 0.0730761 -0.040808376 -0.03593732 0.06372934 0.15823324 -0.0032702538
0.0077838893 0.03737106 0.008622393 -8.404431e-06 3.0846056e-06 7.790649e-06 -1.5268226e-05 -3.073838e-06
1.0092946e-05 0.0016116413 -1.2677366e-05 7.147947e-06 -5.580703e-06 5.3953554e-06 5.961355e-06 1.0382515e-05
-5.6121157e-06 5.0555e-06 -1.1897453e-05 -5.6263343e-06 -8.5584925e-06 -5.2087325e-06 4.519963e-06 -0.00059285574
1.0295342e-05 -1.370308e-05 -8.00329e-06 -1.8791037e-06 -6.673819e-07 -4.8365987e-06 1.4448396e-05 -6.0593866e-06
-5.1498716e-08 8.191655e-06 5.942287e-06 -1.3654907e-05 1.10289775e-05 1.2529499e-08 0.15617923 0.070788264
0.041346945 0.0030654338 7.0203273e-06 0.00054460246 -1.605219e-05 9.4193695e-07 1.3852252e-05 3.0935164e-06
0.019205019 0.062286563 -0.06054115 0.06397871 -1.3157059e-05 -7.206936e-07 2.0813202e-05 -0.02967086
-2.6483636e-05 0.025898706 0.08508923 -0.020762702 -3.5572783e-05 0.0040301066 0.11623256 0.082466386
0.027566275 -0.053518098 0.055388927 -2.4792112e-06 -0.09613083 0.0066101 0.0072745276 -0.0047661746
0.0006370085 -0.006220036 -0.00035591985 0.07452887 0.0050297906 6.712347e-06 2.2257477e-06 1.6571381e-06
-3.715517e-06 -1.2599803e-06 -9.837434e-06 -0.004461141 1.1046997e-05 -7.3470733e-06 -2.1737856e-06 5.222782e-06
3.0539616e-06 1.512727e-06 -1.1557548e-05 9.9998615e-06 -5.039677e-06 -2.8180723e-06 6.397006e-06 1.8794609e-06
-8.584442e-06 0.00011610089 1.6355685e-05 9.829462e-06 9.178991e-06 6.055189e-06 -3.233036e-06 -9.302459e-06
-5.3469016e-06 -1.2008751e-06 -4.378455e-06 -5.775229e-06 4.400745e-07 -5.2550536e-06 5.836184e-07 1.0299829e-05
0.0070026466 -0.101639055 0.055731814 -0.01390873 -1.1699883e-05 0.0013618243 5.576796e-06 -6.822466e-06
6.2420877e-06 4.0522436e-06 -0.021518521 -0.030643713 0.089060426 -0.037380442 -6.923285e-06 -1.545076e-05
-2.495237e-05 0.051850438 1.153368e-06 -0.023729742 -0.1536162 -0.0123242885 4.742637e-06 0.0019136266
-0.11219471 -0.08326229 -0.089353435 0.08523872 -0.038311522 1.6103194e-06 0.06522187 -0.013286819
0.011854669 0.06930646 0.06444421 -0.006128213 0.0013955059 0.052029558 0.0019440191 2.4413737e-06
1.6090498e-05 3.3390056e-06 1.4363185e-05 1.0237893e-05 4.454251e-06 0.013774246 -1.3263899e-05 -5.079686e-06
2.288346e-06 3.0214178e-06 -2.5838079e-05 -1.7442806e-05 1.508355e-06 1.9545021e-05 6.963184e-06 1.4094151e-06
8.841112e-06 -9.040649e-06 -7.1577374e-06 0.002728232 -1.1443961e-05 -9.278178e-06 -7.783162e-06 2.1215323e-05
00000000: 4df5 f93c 1851 6bbb 6595 143d 7370 53bd
00000010: 4310 b73c b06b 68bb 33e5 c0bb 2c58 55bd
00000020: 5a21 04bb cbd3 0e37 8238 7db7 02bf 9cb6
00000030: 8ef8 5eb6 a2d2 74b7 219c dcb5 6665 29bc
00000040: e0f1 b635 3965 3eb6 9b8b a5b7 4c46 edb6
00000050: ada8 5db6 c94a 7e37 9c1b ab35 93bc 22b7
00000060: 7bbf bcb6 30c0 1936 8d2c a2b6 185e 0036
00000070: 9ba2 3b36 d522 aabb a0e4 bdb6 2bc1 c9b6
00000080: 8ca9 f7b6 3785 4bb6 e2e7 a4b6 d24d b736
00000090: 1020 1ab7 98aa e136 cdb8 fd36 5c3c 3937
000000a0: 9ea8 8435 6542 97b7 d6e3 43b6 18f7 a3b6
000000b0: 68f6 1ebc e9b7 dd3c 1741 f8bc d92f 923d
000000c0: f224 b0b0 55e9 66ba f802 a336 b263 0cb7
000000d0: faff 6bb6 5f4e 05b7 c6e4 d53c 605d 7a3d
000000e0: 5837 e3bc d456 f93b 33ed 86b5 c20e 4237
000000f0: 2711 72b7 d451 3fbd 0b22 aa36 c2e2 053d
00000100: 13d4 943d 40bc aabc 019c 9fb6 96ac e538
00000110: be32 da3d 2d21 853d 48c0 c9bb 296d a8bc
00000120: 3092 b23c 4945 be35 eca8 953d af26 27bd
00000130: 0333 13bd 8784 823d e507 223e c151 56bb
00000140: ff0f ff3b 6612 193d f044 0d3c c200 0db7
00000150: 1f01 4f36 95b4 0237 4414 80b7 2248 4eb6
00000160: df54 2937 b53d d33a dfb0 54b7 66d8 ef36
00000170: e041 bbb6 c009 b536 a607 c836 9030 2e37
00000180: b54f bcb6 6aa2 a936 2c9b 47b7 d8c9 bcb6
00000190: 7296 0fb7 acc6 aeb6 30aa 9736 e069 1bba
000001a0: 28ba 2c37 48e6 65b7 de45 06b7 8335 fcb5
000001b0: 2326 33b5 114a a2b6 6367 7237 bc51 cbb6
000001c0: 702f 5db3 e46e 0937 db63 c736 6117 65b7
000001d0: 1909 3937 5241 5732 73ed 1f3e 70f9 903d
000001e0: 6a5b 293d 72e5 483b 2790 eb36 a7c3 0e3a
000001f0: d1a7 86b7 6ad9 7c35 f866 6837 359a 4f36
00000200: d853 9d3c 3220 7f3d fff9 77bd 4507 833d
00000210: 23bd 5cb7 b075 41b5 0398 ae37 4e10 f3bc
00000220: 2d29 deb7 8629 d43c 4343 ae3d 8b16 aabc
00000230: fc33 15b8 fc0e 843b 560b ee3d 23e4 a83d
00000240: abd2 e13c cb35 5bbd 80df 623d 8660 26b6
00000250: 3ee0 c4bd 8a99 d83b 295f ee3b 922d 9cbb
00000260: ebfc 263a 72d1 cbbb c19a bab9 98a2 983d
00000270: f1d0 a43b 9f3a e136 0e5e 1536 d56a de35
00000280: 1958 79b6 981c a9b5 750b 25b7 c32e 92bb
00000290: 7e56 3937 e186 f6b6 5ae1 11b6 5b3f af36
000002a0: a9f2 4c36 e708 cb35 4ae7 41b7 14c5 2737
000002b0: 7f1a a9b6 1d1e 3db6 dda5 d636 c941 fc35
000002c0: e605 10b7 317b f338 9133 8937 38e9 2437
000002d0: 77ff 1937 ad2d cb36 23f7 58b6 c211 1cb7
000002e0: 8969 b3b6 c12d a1b5 a4ea 92b6 d7c8 c1b6
000002f0: 6143 ec34 9154 b0b6 f3a9 1c35 6ecd 2c37
00000300: 7576 e53b 2328 d0bd 0b47 643d 71e1 63bc
00000310: 9d4a 44b7 3e7f b23a 5020 bb36 89ec e4b6
00000320: 2073 d136 82f8 8736 9c47 b0bc 8608 fbbc
00000330: 5065 b63d 3c1c 19bd 914e e8b6 419c 81b7
00000340: ce50 d1b7 2061 543d 6ccd 9a35 e064 c2bc
00000350: 914d 1dbe d0eb 49bc f122 9f36 a7d2 fa3a
00000360: 57c6 e5bd 6b85 aabd effe b6bd a391 ae3d
00000370: 8bec 1cbd 2722 d835 0b93 853d f5b0 59bc
00000380: 163a 423c 8cf0 8d3d 53fb 833d 2dcf c8bb
00000390: 68e9 b63a f21c 553d 75ce fe3a 7bd6 2336
000003a0: 15fa 8637 ae13 6036 69f9 7037 6ac3 2b37
000003b0: ba75 9536 60ad 613c 0388 5eb7 2c72 aab6
000003c0: 7c91 1936 90c3 4a36 dabe d8b7 2452 92b7
000003d0: af72 ca35 9df4 a337 4ca5 e936 222b bd35
000003e0: 4954 1437 4bad 17b7 7f2c f0b6 23cc 323b
000003f0: 70ff 3fb7 79a9 1bb7 6d94 02b7 8ff7 b137

readout.weight_and_sum.atom_weighting.0.weight f4 [1, 32]
-0.20105791 0.024288021 0.088073336 -0.001874321 0.14219058 -0.06951733 0.009193596 -0.6301607
0.18092628 0.5566668 -0.17418566 0.06849215 0.2372586 0.21289939 -0.11909467 -0.41739514
0.030981822 0.24664502 -0.17737836 -0.32444492 -0.029023947 0.3040463 -0.075816914 -0.28682512
-0.35237938 -0.07708646 0.040699933 0.24172153 0.009032815 0.38507035 -0.2607492 -0.105955124
00000000: 20e2 4dbe acf7 c63c cb5f b43d c7ab f5ba
00000010: 689a 113e 1a5f 8ebd bda0 163c 3652 21bf
00000020: bd44 393e b781 0e3f ba5d 32be 9d45 8c3d
00000030: ebf3 723e 4c02 5a3e e8e7 f3bd d1b4 d5be
00000040: 97cd fd3c 8390 7c3e aca2 35be a51d a6be
00000050: a1c3 edbc f5ab 9b3e e645 9bbd beda 92be
00000060: 126b b4be 82df 9dbd f9b4 263d d985 773e
00000070: 5ffe 133c f127 c53e eb80 85be 00ff d8bd

predict.predict.1.weight f4 [128, 64]
-0.024437623 -0.004309328 -0.040072884 0.0318036 0.019126413 0.040094644 0.008591582 -0.1350286
0.001322239 0.007281163 -0.011190223 0.012434822 0.043064073 -0.0031353484 0.017618146 -0.022288749
0.009928417 0.0020942853 -0.13707435 -0.04669317 -0.0050048046 0.0034196994 -0.004890207 0.00792337
-0.0932581 -0.044215374 0.0423906 0.011027602 -0.016655099 0.04975303 -0.008038423 0.08029872
-0.0020345817 0.0015936133 -0.015644668 0.0027492482 0.0003839403 -0.0028328507 9.637998e-05 -0.002873477
-0.005242629 0.004570323 0.013343442 -0.003709934 0.0009896273 0.0054371264 0.0051656566 0.015640987
0.0018070617 0.0041203625 0.0094043845 -0.0015551193 -0.004210429 -0.007909255 0.013753146 0.0026853576
0.0099316975 -0.01071279 0.00073381513 -0.0043896553 0.005498632 -0.008487014 0.043025777 0.016183523
-0.007859888 0.13635986 0.00091623276 0.22161862 0.11947385 -0.030065067 0.017460585 -0.13679606
-0.027332773 -0.12802303 0.10534129 -0.049610026 0.044818874 0.067281 0.22177584 0.16417329
-0.110727854 0.01915107 0.3423672 -0.31748515 -0.014697037 -0.013940879 0.05345221 -0.1949547
-0.16525885 -0.14809348 0.07290304 -0.0011372392 -0.01944817 0.23095523 0.02656876 0.17434399
-0.02094103 0.007360596 -0.018930558 0.014220716 0.004479159 -0.00037598892 -0.0052188635 -0.013343256
-0.06897973 -0.014760164 -0.05659421 0.0065337364 0.039406776 0.0017707011 0.018007813 0.011471788
0.009965631 0.008873506 -0.018799458 -0.009795209 -0.003351934 -0.005613271 -0.007226877 0.0005324896
-0.055689704 -0.015399148 0.006705677 -0.00866918 0.0026557965 0.00888051 0.012295261 0.0056323134
-0.005768984 -0.016196258 -0.007345097 0.00038113078 -0.0033450846 0.0116853025 0.0063482355 0.0054982947
-0.0068007354 -0.01876301 0.006224226 -0.0021063776 -0.012957366 -0.10097677 -0.033723395 0.019975213
0.008223324 -0.0058559016 0.0027252552 -0.00732251 0.0062380843 0.002220486 -0.011309852 0.007811244
-0.013518442 0.01850492 -0.021190152 0.0113293575 -0.0033019711 0.006182598 -0.027240617 0.0025362861
-0.00033884533 -0.0008221678 0.00310848 -0.00039300777 0.0006015149 0.0011567714 0.00074308395 -0.0011155771
-1.9867932e-05 -0.0009857473 -0.0010449084 -0.0010333533 0.0008675146 -0.0015153104 7.0578535e-05 0.00058546016
0.0001354538 -0.0011283766 -0.00015435043 0.00024357262 -0.00022435647 0.002445777 -0.001120387 0.0010357584
0.00049791305 -0.00041254453 -0.0015053514 -0.0013349876 0.0007262016 -0.00079373934 -0.00063367566 0.0016922561
0.011033513 0.03641361 0.16090629 -0.030176103 -0.019938972 0.14247929 0.04064243 0.25737232
0.025282716 0.15688272 -0.00016593742 -0.07850596 0.001212709 0.055759758 0.010996295 0.09302467
-0.058117107 -0.04842932 0.060546625 0.0123464875 0.011868398 0.01042311 0.0077749505 0.04214811
-0.104605705 0.26645845 -0.060795136 -0.01112611 -0.13088152 0.011603586 -0.08388454 0.014722121
-0.07429853 -0.02289268 -0.04595103 0.0068387687 -0.001782528 0.049369946 -0.007477444 0.035618175
0.013048655 -0.015555133 -0.02915764 0.0009434553 0.05869404 -0.006484275 -0.02778589 0.111415274
0.00066984276 0.0012298931 0.022618968 0.009946314 0.003911392 -0.0041148737 -0.0036423309 0.01218958
0.027909722 -0.029403586 0.010898605 0.019931966 0.0035915568 0.08636463 -0.0134443445 0.0369393
00000000: 6931 c8bc 4335 8dbb 7723 24bd 7e44 023d
00000010: ffae 9c3c 483a 243d b5c3 0c3c f044 0abe
00000020: fb4e ad3a d296 ee3b 3257 37bc 6cbb 4b3c
00000030: f463 303d 6b7a 4dbb ee53 903c e596 b6bc
00000040: cdaa 223c 4740 093b 385d 0cbe 5641 3fbd
00000050: 58ff a3bb 091d 603b 083e a0bb 06d1 013c
00000060: 1afe bebd 2e1b 35bd c4a1 2d3d 1dad 343c
00000070: 4670 88bc d5c9 4b3d 97b3 03bc a873 a43d
00000080: 9e56 05bb cae0 d03a 3f29 80bc bb2c 343b
00000090: 984b c939 59a7 39bb 9c1f ca38 f250 3cbb
000000a0: 5cca abbb a6c2 953b 749e 5a3c 5d22 73bb
000000b0: 62b6 813a ec29 b23b ab44 a93b 8721 803c
000000c0: eeda ec3a 1b04 873b d914 1a3c 25d5 cbba
000000d0: a3f7 89bb d295 01bc e054 613c d3fc 2f3b
000000e0: 8fb8 223c b384 2fbc 805d 403a 19d7 8fbb
000000f0: de2d b43b 1e0d 0bbc cc3b 303d 4f93 843c
00000100: c2c6 00bc eba1 0b3e 572f 703a feef 623e
00000110: b5ae f43d 044b f6bc 8009 8f3c 4414 0cbe
00000120: fbe8 dfbc 7818 03be 2dbd d73d e233 4bbd
00000130: ff93 373d 9fca 893d 3519 633e 0b1d 283e
00000140: 49c5 e2bd b4e2 9c3c c14a af3e 6a8d a2be
00000150: d7cb 70bc 4968 64bc b4f0 5a3d 34a2 47be
00000160: 9e39 29be d1a5 17be 304e 953d 6a0f 95ba
00000170: c551 9fbc 877f 6c3e baa6 d93c 3b87 323e
00000180: 868c abbc 2831 f13b 4214 9bbc 02fe 683c
00000190: e9c5 923b 6120 c5b9 0003 abbb ac9d 5abc
000001a0: 3f45 8dbd 9dd4 71bc 55cf 67bd f418 d63b
000001b0: 0069 213d df16 e83a 1f85 933c 2bf4 3b3c
000001c0: e346 233c 2f62 113c 5201 9abc 167c 20bc
000001d0: 1fac 5bbb 88ef b7bb 70cf ecbb c696 0b3a
000001e0: e31a 64bd b54c 7cbc 4cbb db3b 2d09 0ebc
000001f0: df0c 2e3b 8f7f 113c 1072 493c 458f b83b
00000200: bf09 bdbb 04ae 84bc 24af f0bb 82d2 c739
00000210: 3539 5bbb b673 3f3c dc04 d03b 0a2b b43b
00000220: b4d8 debb e2b4 99bc 98f4 cb3b 270b 0abb
00000230: 224b 54bc e9cc cebd 8b21 0abd 0fa3 a33c
00000240: 1fbb 063c dde2 bfbb 329a 323b aaf1 efbb
00000250: d868 cc3b 9385 113b f54c 39bc 77f5 ff3b
00000260: 757c 5dbc a197 973c f896 adbc c59e 393c
00000270: e265 58bb 6497 ca3b b727 dfbc d237 263b
00000280: 0da7 b1b9 bf86 57ba a4b7 4b3b 9c0c ceb9
00000290: fbae 1d3a cf9e 973a 85cb 423a 8e38 92ba
000002a0: 0faa a6b7 3134 81ba 4ff5 88ba 9571 87ba
000002b0: eb69 633a 619d c6ba 9003 9438 9179 193a
000002c0: 9a08 0e39 09e6 93ba 21d9 21b9 8767 7f39
000002d0: 3b41 6bb9 5449 203b f3d9 92ba 49c2 873a
000002e0: 6186 023a ca4a d8b9 364f c5ba c0fa aeba
000002f0: 905e 3e3a f212 50ba 411d 26ba b1ce dd3a
00000300: e8c5 343c 7026 153d 9ec4 243e e033 f7bc
00000310: 0e57 a3bc 17e6 113e ad78 263d 4ec6 833e
00000320: b31d cf3c dda5 203e 7dff 2db9 bcc7 a0bd
00000330: c3f3 9e3a 5864 643d ce29 343c b883 be3d
00000340: 340c 6ebd d35d 46bd bdff 773d ec48 4a3c
00000350: ab73 423c b1c5 2a3c 03c5 fe3b 7fa3 2c3d
00000360: 843b d6bd 3e6d 883e 5204 79bd 4a4a 36bc
00000370: ce05 06be f81c 3e3c a8cb abbd 0d35 713c
00000380: d429 98bd 6e89 bbbc 2637 3cbd c017 e03b
00000390: b7a3 e9ba 2438 4a3d 5905 f5bb 5de4 113d
000003a0: 07ca 553c f5da 7ebc 01dc eebc 3752 773a
000003b0: 2969 703d 0b7a d4bb 3c9f e3bc b12d e43d
000003c0: 6398 2f3a 5d34 a13a 6a4b b93c ddf5 223c
000003d0: 222b 803b 10d6 86bb 2cb4 6ebb ceb6 473c
000003e0: eea2 e43c cadf f0bc 1090 323c 5d48 a33c
000003f0: 5360 6b3b f0df b03d ab45 5cbc aa4d 173d

predict.predict.1.bias f4 [128]
0.009976825 -0.00973086 0.00074834004 0.03705765 0.001058686 -0.005154888 -0.0119016245 -0.07373757
-0.00987124 -1.5116153e-05 0.0010758413 -0.020460045 -0.016808452 -0.0023951847 -0.007868153 -0.0031462996
0.0003326927 0.007967619 -0.0018940648 0.051796492 -0.004722413 -0.0027202747 -0.00039949216 6.869284e-05
-0.00036559196 0.028621212 -6.0932754e-05 0.0018066656 0.000603587 0.010409996 -0.0013786018 0.025113465
-0.00010393783 -0.0018506654 0.00021899096 0.008616949 -0.0003555562 0.012982367 -0.00022292126 -0.0007203228
-0.0019822796 9.516523e-05 0.007747287 0.00012533955 -0.037020236 -0.007300099 -0.008361493 -0.12845631
0.0021006188 0.004652414 0.0012074749 0.0072411764 -2.3186265e-05 0.002095325 0.00032631095 0.00014492904
-0.0023184833 0.007981386 0.0002482259 0.00018063332 0.0070621395 -0.0047492 0.0012069653 -0.009287901
0.00015731105 0.002470391 0.002838816 -0.014678194 0.0041314117 0.0005097101 0.005060509 0.0029236777
0.13640845 -0.09585191 0.010640756 0.020172624 0.04889201 -0.004145103 0.0044052186 -0.09731917
0.0295112 0.013982975 0.00081219757 0.019005409 -0.008027941 -0.0028953427 -0.00030583158 -0.06895518
-0.0013100952 0.0005562669 -0.0047912295 -0.00033774212 0.0031158857 -0.0001298715 0.00012491777 -0.00847542
-0.003835258 -0.0014020614 -0.00041832196 0.00011206372 8.3157385e-05 -0.021905893 -0.0022141733 -0.02154086
0.04252727 0.0049597304 4.8057824e-05 -0.0094425175 -0.0013713258 0.0074448837 -4.199826e-05 -0.006419751
-0.007039472 -0.004126001 -0.0010305927 0.0064679454 -0.0008191804 -0.020973325 -0.00066573103 -0.002068078
-0.0012108365 0.005271536 -0.0002816422 0.0022718362 0.0065734256 0.02025166 0.0021434738 0.00088535034
00000000: d675 233c 2f6e 1fbc 402c 443a c3c9 173d
00000010: 9bc3 8a3a 56ea a8bb 08ff 42bc b903 97bd
00000020: fbba 21bc 629b 7db7 3e03 8d3a d39b a7bc
00000030: e1b1 89bc 88f8 1cbb 6de9 00bc 2632 4ebb
00000040: 426d ae39 9e8a 023c 4542 f8ba 8f28 543d
00000050: 79be 9abb a346 32bb ee72 d1b9 300f 9038
00000060: ecac bfb9 0877 ea3c 0c92 7fb8 a3cd ec3a
00000070: 0a3a 1e3a b08e 2a3c 33b2 b4ba c1ba cd3c
00000080: 33f9 d9b8 0792 f2ba f0a0 6539 1b2e 0d3c
00000090: f269 bab9 feb3 543c f8bf 69b9 0bd4 3cba
000000a0: 22e9 01bb 7293 c738 f4dc fd3b 946d 0339
000000b0: 88a2 17bd ab35 efbb a5fe 08bc 0d8a 03be
000000c0: 89aa 093b 4773 983b 2244 9e3a 6447 ed3b
000000d0: 2080 c2b7 b851 093b b714 ab39 18f8 1739
000000e0: b2f1 17bb 5cc4 023c 5124 8239 6368 3d39
000000f0: 8569 e73b 2d9f 9bbb 0933 9e3a 482c 18bc
00000100: ddf3 2439 49e6 213b 6e0b 3a3b cf7c 70bc
00000110: cb60 873b 119e 053a a0d2 a53b 2c9b 3f3b
00000120: a8ae 0b3e 024e c4bd 9156 2e3c 0f41 a53c
00000130: fd42 483d a5d3 87bb a759 903b 464f c7bd
00000140: 79c1 f13c d918 653c a8e9 543a 3bb1 9b3c
00000150: a087 03bc cabf 3dbb 0558 a0b9 6038 8dbd
00000160: 80b7 abba 71d2 113a bfff 9cbb fb12 b1b9
00000170: e333 4c3b 1e2e 08b9 5cfc 0239 7ddc 0abc
00000180: f458 7bbb 60c5 b7ba 3952 dbb9 c003 eb38
00000190: c864 ae38 fd73 b3bc aa1b 11bb 7576 b0bc
000001a0: 1331 2e3d 3c85 a23b b291 4938 cab4 1abc
000001b0: 0fbe b3ba 36f4 f33b 4a27 30b8 c65c d2bb
000001c0: 5fab e6bb 6833 87bb f414 87ba 0ff1 d33b
000001d0: 44be 56ba 40d0 abbc 7484 2eba 9788 07bb
000001e0: eeb4 9eba d9bc ac3b 60a9 93b9 16e3 143b
000001f0: e465 d73b cfe6 a53c 8679 0c3b db16 683a

predict.predict.3.weight f4 [128]
0.03684978 -0.27552012 -0.003327553 -0.13150361 0.008967514 -0.088215604 -0.16433768 0.25192055
-0.03158769 0.0050597535 -0.0046035927 0.23507479 0.06701751 0.013141608 0.33793008 0.00982488
-0.0018405723 0.0815496 -0.0052804905 0.33238825 -0.018143052 0.0055622812 -0.0038284948 -2.467702e-05
0.016537841 -0.6346381 0.0024369599 -0.01108962 0.0036539563 -0.14027181 0.05964629 -0.017449746
-0.006382104 -0.002184672 -0.0098949885 -0.19271468 0.017736414 0.030861376 0.0014656908 -0.0013146894
0.036760487 0.0030127051 0.35697466 0.0024057003 -0.66805375 0.17904446 0.024407513 0.10817273
0.03942593 -0.012435257 0.0065869195 0.007475228 0.04214269 -0.011451744 0.022394156 -0.0038603179
-0.11723987 -0.01632686 0.001257228 0.033498067 0.22016281 -0.007719526 0.006957697 0.10102835
-0.0033019646 0.2896211 0.12407172 0.0030878852 0.0052202144 0.0004890808 -0.026934931 0.09320295
-0.26212656 -0.08791893 -0.028086718 0.035177115 -0.15370299 0.17046411 0.038116537 0.4224852
0.178397 0.055511385 0.011844952 0.027190886 -0.04194682 -0.11011326 0.0071331062 -0.5252518
0.018780777 -0.008470612 0.0042559 -0.016655931 -0.018539084 0.0020538552 -0.0024452747 0.029316055
0.007064411 0.018072408 -0.0068545486 -0.0010939894 -0.0034918378 0.07908901 -0.0029891338 -0.016196031
-0.22856158 0.15850376 0.0041519045 0.06968245 -0.009613185 -0.0020069443 -1.3141496e-05 0.00047109494
-0.07517062 0.071484335 -0.07987854 -0.03324522 0.015076905 0.10725554 -0.010282152 -0.009209077
-0.0018965797 -0.016393753 0.0018633814 0.018534942 -0.013268167 -0.11549602 0.0048386073 -0.00030839595
00000000: cbef 163d f910 8dbe 1313 5abb e2a8 06be
00000010: 7bec 123c 62aa b4bd 2348 28be bbfb 803e
00000020: 1862 01bd 4acc a53b bcd9 96bb 72b7 703e
00000030: 7a40 893d e64f 573c 2c05 ad3e 89f8 203c
00000040: 5c3f f1ba 7a03 a73d f707 adbb cb2e aa3e
00000050: bda0 94bc cc43 b63b 7ce7 7abb 7f01 cfb7
00000060: 5e7a 873c a477 22bf 67b5 1f3b 3db1 35bc
00000070: 3777 6f3b 6aa3 0fbe ab4f 743d c5f2 8ebc
00000080: f820 d1bb b72c 0fbb 971e 22bc ff56 45be
00000090: f54b 913c ffd0 fc3c 6c1c c03a a851 acba
000000a0: 2a92 163d ce70 453b 62c5 b63e f4a8 1d3b
000000b0: 9205 2bbf 6e57 373e 44f2 c73c aa89 dd3d
000000c0: 157d 213d 40bd 4bbc 16d7 d73b c2f2 f43b
000000d0: d09d 2c3d 18a0 3bbc f373 b73c 63fd 7cbb
000000e0: 751b f0bd e8bf 85bc 92c9 a43a 4535 093d
000000f0: 5c72 613e 14f4 fcbb 65fd e33b f4e7 ce3d
00000100: c665 58bb 3849 943e 5019 fe3d 1e5e 4a3b
00000110: 550e ab3b a835 003a a5a6 dcbc 30e1 be3d
00000120: 7435 86be d70e b4bd 1e16 e6bc e115 103d
00000130: 5164 1dbe 258e 2e3e 1620 1c3d fb4f d83e
00000140: b4ad 363e e85f 633d 5411 423c 6cbf de3c
00000150: 6ed0 2bbd 1083 e1bd d5bc e93b e776 06bf
00000160: 25da 993c 52c8 0abc 1475 8b3b 0572 88bc
00000170: 47df 97bc f999 063b e740 20bb 3928 f03c
00000180: 937c e73b 960c 943c 1f9c e0bb 3164 8fba
00000190: 51d7 64bb 6bf9 a13d 58e5 43bb 8aad 84bc
000001a0: 0c0c 6abe cf4e 223e b30c 883b acb5 8e3d
000001b0: 9f80 1dbc f086 03bb 4c7a 5cb7 4bfd f639
000001c0: 0ef3 99bd 6166 923d 5c97 a3bd 242c 08bd
000001d0: 1f05 773c cba8 db3d 7976 28bc abe1 16bc
000001e0: a896 f8ba 314c 86bc b43c f43a 97d6 973c
000001f0: ba62 59bc 2d89 ecbd 2e8d 9e3b 34b0 a1b9

predict.predict.3.bias f4 [128]
0.109320134 -0.22233284 0.004744032 -0.0656143 -0.0017514838 0.021667013 0.035773173 -0.042576555
-0.1663018 -0.000724783 -0.0035531987 0.019591743 0.05758055 -0.0081885345 0.08625342 0.00669115
0.0012796213 0.0569039 -1.9393588e-05 0.25011253 -0.027726667 -0.05740839 -0.0019758313 0.00095309794
-0.0034243816 -0.18773416 0.00021408715 0.031402946 0.0033600193 -0.19736502 0.07830219 -0.019183423
-0.0030251846 -0.0025376992 -0.002574164 -0.14747635 -0.021386601 -0.056958314 0.0010916315 -0.0066179535
0.018822653 0.001050952 0.5009129 0.0017201512 -0.54308033 -0.005465699 0.013281216 0.084791824
0.0137620205 0.0020279624 0.0034731156 -0.025583483 0.022475367 0.07241982 0.0031901659 -0.0016352743
-0.022109559 0.039380256 0.010892234 -0.01813634 -0.1332299 0.004186279 0.0054953587 -0.048293784
0.00027605856 -0.03278432 -0.0029635353 -0.001367628 -0.006554902 -0.007992153 -0.10622306 0.0248359
-0.03596777 -0.044881098 -0.054252055 0.013882844 -0.30599672 -0.0470621 -0.011756911 -0.082676634
-0.16725612 0.067289144 -0.0012464724 0.06754764 -0.089552894 -0.06677198 0.0045112954 0.02911715
-0.016643394 -0.004758214 -0.0063325725 -0.008769156 0.0016167945 0.0034516184 -5.8726884e-05 -0.012886598
-0.050063785 -0.009574719 -0.013093743 -0.0025535466 0.0055786124 0.13201044 -0.0066523547 0.014258266
-0.033571023 0.26175913 0.0010275177 0.12348221 0.006346863 0.0351745 -0.00018491906 0.057865538
-0.002584293 -0.007882991 -2.824992e-05 0.015067394 -0.020002807 0.07156417 0.034235805 0.0062225787
0.0059934948 0.007282765 0.0027970825 0.003079716 -0.07421573 0.038916133 0.002478258 0.0034584065
00000000: 3ce3 df3d 38ab 63be d373 9b3b ca60 86bd
00000010: 0b92 e5ba 057f b13c e486 123d c164 2ebd
00000020: 054b 2abe 5dff 3dba c8dc 68bb dd7e a03c
00000030: 95d9 6b3d 3429 06bc a2a5 b03d 6f41 db3b
00000040: f7b8 a73a 1014 693d 6aaf a2b7 c00e 803e
00000050: 0923 e3bc 0f25 6bbd f37c 01bb 52d9 793a
00000060: 976b 60bb 623d 40be 957c 6039 60a0 003d
00000070: c533 5c3b 0e1a 4abe e65c a03d 8e26 9dbc
00000080: 2d42 46bb 874f 26bb 4eb3 28bb 0a04 17be
00000090: f432 afbc 1f4d 69bd 1315 8f3a 6bdb d8bb
000000a0: f731 9a3c 19c0 893a d43b 003f b276 e13a
000000b0: 5007 0bbf 9b19 b3bb 7599 593c 56a7 ad3d
000000c0: 197a 613c 90e7 043b 369d 633b 7494 d1bc
000000d0: 431e b83c d850 943d 1a12 513b b356 d6ba
000000e0: 1b1f b5bc 314d 213d 5775 323c a992 94bc
000000f0: 6b6d 08be 0e2d 893b 6912 b43b b4cf 45bd
00000100: f4bb 9039 da48 06bd df37 42bb fb41 b3ba
00000110: 81ca d6bb 85f1 02bc 7a8b d9bd a874 cb3c
00000120: f152 13bd 3ed5 37bd 6737 5ebd de74 633c
00000130: 9aab 9cbe 30c4 40bd 0fa0 40bc 5e52 a9bd
00000140: 3045 2bbe e4ce 893d ac60 a3ba 6b56 8a3d
00000150: 8267 b7bd bfbf 88bd 7dd3 933b 1787 ee3c
00000160: ba57 88bc cbea 9bbb 7881 cfbb 82ac 0fbc
00000170: 9fea d33a 8c34 623b 8351 76b8 4f22 53bc
00000180: af0f 4dbd 48df 1cbc 2387 56bc 6759 27bb
00000190: cbcc b63b bf2d 073e fffb d9bb 819b 693c
000001a0: c581 09bd 4b05 863e c6ad 863a 3ee4 fc3d
000001b0: 59f9 cf3b 2313 103d d5e6 41b9 6a04 6d3d
000001c0: 3e5d 29bb a927 01bc 3efa ecb7 3bdd 763c
000001d0: eddc a3bc 3c90 923d d83a 0c3d c6e6 cb3b
000001e0: 1465 c43b 43a4 ee3b 424f 373b 10d5 493b
000001f0: 6bfe 97bd 8666 1f3d 456a 223b 6fa6 623b

predict.predict.3.running_mean f4 [128]
14.670331 19.462574 0.36148214 2.1277761 1.397356 0.94752187 10.034584 0.92939544
9.8125105 0.8176592 0.50492126 1.498949 6.5909615 2.5110476 6.22109 1.2836126
0.49496055 1.8817343 0.20750786 23.54151 0.2733509 3.5731215 0.18509807 0.27839556
0.52412903 0.6690675 0.07024901 2.3851573 0.30268973 27.357735 2.8913903 1.7731495
0.4638562 0.874719 5.8146424 20.119213 0.972731 4.0156236 0.03154561 0.26254356
0.5695383 0.14623633 35.657837 0.07293273 66.2834 4.923393 1.3136989 0.91182303
1.5933934 0.038736876 0.585129 3.109716 4.0775294 5.2604237 4.8332195 0.016884468
28.357939 2.0842628 0.19212106 1.2612256 9.739515 0.73131347 1.1344221 14.998535
0.15846865 0.50060564 0.15047002 0.73905456 0.62811315 2.2056031 15.025781 0.5335166
2.9100103 2.0891645 7.9454355 1.5107065 29.26108 0.7342935 8.801462 12.195489
18.798399 6.663369 3.4549372 13.631125 7.983397 8.300286 0.6393223 91.52299
1.4770526 0.6687066 0.22364204 0.51560986 0.59396505 0.07626034 0.04033329 2.0487952
4.450317 2.7422357 3.3302271 0.14155257 0.22229242 13.773003 0.34555563 4.468809
3.5992794 13.963604 0.58871794 18.35572 5.3228087 23.43511 0.09807062 4.8469725
0.59417176 1.1887254 5.5229216 4.009718 1.218607 1.4477379 3.8317573 0.31494346
0.03690866 0.05599619 0.4127926 0.034539 8.576033 7.7984633 0.53832567 0.054196488
00000000: adb9 6a41 5ab3 9b41 3014 b93e 7c2d 0840
00000010: 90dc b23f cb90 723f a88d 2041 dcec 6d3f
00000020: 0b00 1d41 1d52 513f 8542 013f 90dd bf3f
00000030: 28e9 d240 01b5 2040 2b13 c740 6b4d a43f
00000040: 786b fd3e abdc f03f f17c 543e 0355 bc41
00000050: a6f4 8b3e 06ae 6440 598a 3d3e dd89 8e3e
00000060: 522d 063f 0248 2b3f b7de 8f3d 6ba6 1840
00000070: 26fa 9a3e a4dc da41 8a0c 3940 90f6 e23f
00000080: 8f7e ed3e 96ed 5f3f 8d11 ba40 26f4 a041
00000090: e604 793f fd7f 8040 f835 013d 1c6c 863e
000000a0: 43cd 113f fabe 153e a0a1 0e42 c15d 953d
000000b0: 1a91 8442 6f8c 9d40 4927 a83f 3c6d 693f
000000c0: 51f4 cb3f 8faa 1e3d 04cb 153f 9605 4740
000000d0: 1f7b 8240 6455 a840 bca9 9a40 4c51 8a3c
000000e0: 0fdd e241 9064 0540 62bb 443e d76f a13f
000000f0: 0ed5 1b41 5c37 3b3f be34 913f 00fa 6f41
00000100: 9b45 223e b127 003f d014 1a3e ae32 3d3f
00000110: 06cc 203f 9a28 0d40 9969 7041 8b94 083f
00000120: 9c3d 3a40 dfb4 0540 0241 fe40 d55e c13f
00000130: b116 ea41 a9fa 3b3f cad2 0c41 b920 4341
00000140: 1f63 9641 523a d540 b11d 5d40 1719 5a41
00000150: fd77 ff40 f9cd 0441 a0aa 233f c50b b742
00000160: 0f10 bd3f 5b30 2b3f 6b02 653e 02ff 033f
00000170: 180e 183f 622e 9c3d 8534 253d 761f 0340
00000180: ff68 8e40 ca80 2f40 7122 5540 28f3 103e
00000190: a0a0 633e 385e 5c41 abec b03e 7c00 8f40
000001a0: 985a 6640 ec6a 5f41 38b6 163f 84d8 9241
000001b0: 7354 aa40 1b7b bb41 40d9 c83d 661a 9b40
000001c0: a41b 183f 2728 983f c6bb b040 9c4f 8040
000001d0: 50fb 9b3f 7a4f b93f 833b 7540 4540 a13e
000001e0: 892d 173d 435c 653d 8d59 d33e c478 0d3d
000001f0: 6e37 0941 038d f940 b6cf 093f 23fd 5d3d

predict.predict.3.running_var f4 [128]
55.382988 56.831646 0.77902824 5.71708 1.6214983 1.939996 42.00463 4.7692413
19.80253 0.18950853 0.1608687 3.4180036 8.057697 2.1400642 33.343506 0.29920614
0.21024852 6.901948 0.06250992 103.10913 0.2743758 14.048922 0.0137369605 0.03323755
0.067267485 7.4075565 0.008447548 3.7458372 0.050588302 132.65324 6.1302676 1.0726141
0.04833613 0.29911712 10.542159 79.63572 0.7629725 5.7138963 0.010743032 0.06757644
0.7052429 0.0038603444 208.43266 0.0019376357 694.07916 9.605076 4.320258 2.6449575
0.6076063 0.0049887593 0.10512534 12.735533 2.2953932 12.558435 6.6474543 0.0012381867
183.24263 3.2266693 0.2091363 0.94504184 56.672333 0.17555764 2.756734 96.164246
0.06523487 1.0992262 0.41681063 3.1456254 0.6313488 1.6245853 48.69751 0.72816396
19.489214 16.019127 9.768321 1.017159 143.82965 2.1213396 24.460459 156.00728
102.85173 46.20739 2.6315942 47.036297 11.720358 74.0315 0.16144575 2284.467
1.4726772 0.21353146 0.05827351 0.093795724 0.24309134 0.031548176 0.0068160044 1.7263467
4.5613556 2.8181746 4.0688577 0.018295528 0.10091957 59.45182 0.046566762 7.719094
15.223383 63.734802 0.168526 75.68192 16.257483 87.20223 0.0053849774 10.726529
0.6071994 2.1420977 12.119317 7.8995023 0.76421314 3.8854985 5.7381063 0.26805943
0.00946685 0.013360427 0.0464058 0.025239991 17.026737 26.342314 0.15448895 0.017422432
00000000: 2e88 5d42 9b53 6342 656e 473f 52f2 b640
00000010: 428d cf3f ca51 f83f be04 2842 a09d 9840
00000020: 956b 9e41 860e 423e c4ba 243e 92c0 5a40
00000030: 54ec 0041 d0f6 0840 c05f 0542 8c31 993e
00000040: 634b 573e c2dc dc40 3305 803d e037 ce42
00000050: fc7a 8c3e 62c8 6041 fd10 613c 1924 083d
00000060: 89c3 893d b40a ed40 9667 0a3c ccbb 6f40
00000070: ae35 4f3d 3ba7 0443 272b c440 6b4b 893f
00000080: 1bfc 453d e125 993e afac 2841 7d45 9f42
00000090: 2a52 433f 3dd8 b640 8b03 303c 8465 8a3d
000000a0: cc8a 343f d5fd 7c3b c36e 5043 44f8 fd3a
000000b0: 1185 2d44 64ae 1941 8e3f 8a40 fc46 2940
000000c0: 168c 1b3f bf78 a33b f44b d73d bec4 4b41
000000d0: b9e7 1240 5aef 4841 f2b7 d440 a74a a23a
000000e0: 1d3e 3743 c081 4e40 d427 563e 43ee 713f
000000f0: 78b0 6242 62c5 333e 546e 3040 1854 c042
00000100: dc99 853d 72b3 8c3f 3468 d53e ed51 4940
00000110: 13a0 213f 69f2 cf3f 40ca 4242 f468 3a3f
00000120: e9e9 9b41 2c27 8041 0b4b 1c41 4432 823f
00000130: 64d4 0f43 07c4 0740 05af c341 dd01 1c43
00000140: 16b4 cd42 5ed4 3842 0a6c 2840 2b25 3c42
00000150: 9686 3b41 2110 9442 0952 253e 79c7 0e45
00000160: b080 bc3f fea7 5a3e 34b0 6e3d f917 c03d
00000170: f0ec 783e a938 013d ca58 df3b eef8 dc3f
00000180: a0f6 9140 f95c 3440 1534 8240 81e0 953c
00000190: ebae ce3d aace 6d42 cabc 3e3d d102 f740
000001a0: fa92 7341 70f0 7e42 1492 2c3e 255d 9742
000001b0: 530f 8241 8b67 ae42 7774 b03b dd9f 2b41
000001c0: 6b71 1b3f 2118 0940 b9e8 4141 b9c8 fc40
000001d0: 79a3 433f 02ac 7840 919e b740 163f 893e
000001e0: d91a 1b3c b1e5 5a3c 0214 3e3d 19c4 ce3c
000001f0: c236 8841 0fbd d241 5a32 1e3e 7db9 8e3c

predict.predict.4.weight f4 [1, 128]
-0.05094773 0.20117076 -0.0005739382 0.066620536 -0.0013987483 -0.03810674 -0.0046602855 -0.099158145
0.09488859 -0.0021790026 0.0013283245 -0.077418596 -0.03206709 0.0082912315 -0.12337499 -0.004720122
-0.00076567224 -0.045324955 0.0023034944 -0.18518847 0.016007284 0.04449924 0.0013907187 -0.00059231895
0.0024668467 0.0028919743 -0.00078927376 -0.013941628 -0.00032175708 0.16029122 -0.048529092 0.0056739794
0.0031625715 0.0014419913 -0.0023878224 0.12969476 0.01807119 0.019143973 -0.00097362493 0.0024159548
-0.016680198 -0.0021508068 -0.4180976 -0.0012043907 0.594891 0.055500064 -0.013476674 -0.067108296
-0.02336055 0.0033546705 -0.002333266 0.01053141 -0.017916994 -0.029292597 -0.002698538 0.0016376497
0.027378201 -0.015298406 -0.0044326507 0.005550074 -0.12029029 -0.0034310096 0.005240147 -0.011535723
0.0016113687 0.013556958 0.01974692 0.003518296 0.007941601 0.003740241 0.05670672 -0.03593161
0.108711235 0.014244446 0.03549989 -0.013517297 0.18208918 0.044640925 -0.009054964 0.033917196
-0.0664613 0.008120886 -0.0056065363 -0.037586354 0.047060374 0.022871606 -0.0032708559 0.275963
0.00741882 0.0027563127 0.0048096892 0.0054893503 0.0060786214 -0.0024297417 0.0005101094 0.009816679
0.019720707 0.0033456814 0.0141035635 0.0010554382 -0.00078664016 -0.08170776 0.0027085932 -0.013302487
-0.08235568 -0.15031223 -0.001808157 -0.07731255 -0.018041832 -0.045704998 0.00021050338 -0.01356344
0.0198797 -0.032208245 0.031053843 0.02343627 0.01090208 -0.062281985 -0.016328609 0.0027665356
-0.0056745573 -0.0027948765 -0.0020518994 0.0021961643 0.050847806 -0.001101171 -0.00093887065 -0.0024401117
00000000: 91ae 50bd b5ff 4d3e 5774 16ba 5970 883d
00000010: 3456 b7ba d015 1cbd 4fb5 98bb 6d13 cbbd
00000020: f354 c23d 99cd 0ebb 2d1b ae3a a48d 9ebd
00000030: c858 03bd f2d7 073c 07ac fcbd 41ab 9abb
00000040: 65b7 48ba a9a6 39bd 39f6 163b 0ca2 3dbe
00000050: b521 833c d644 363d c748 b63a da45 1bba
00000060: d2aa 213b 4787 3d3b 44e7 4eba 6d6b 64bc
00000070: 81b1 a8b9 6223 243e 71c6 46bd caec b93b
00000080: 2543 4f3b 3301 bd3a 037d 1cbb b4ce 043e
00000090: 080a 943c d2d3 9c3c dd3a 7fba ff54 1e3b
000000a0: e9a4 88bc 8df4 0cbb e310 d6be a5dc 9dba
000000b0: c74a 183f 0954 633d 45cd 5cbc 1370 89bd
000000c0: a05e bfbc 08da 5b3b b5e9 18bb ef8b 2c3c
000000d0: a9c6 92bc 07f7 efbc f4d9 30bb 68a6 d63a
000000e0: 4048 e03c 2aa6 7abc c53f 91bb 65dd b53b
000000f0: c15a f6bd cada 60bb 8ab5 ab3b 5400 3dbc
00000100: 9034 d33a 011e 5e3c 4bc4 a13c 3693 663b
00000110: 7d1d 023c d51e 753b 4e45 683d 062d 13bd
00000120: ffa3 de3d 8961 693c 5568 113d a777 5dbc
00000130: 9675 3a3e 67d9 363d 465b 14bc c2ec 0a3d
00000140: dd1c 88bd 770d 053c 09b7 b7bb 26f4 19bd
00000150: 61c2 403d 3c5d bb3c db5b 56bb 064b 8d3e
00000160: 9319 f33b 41a3 343b 999a 9d3b 02e0 b33b
00000170: 2c2f c73b 4d3c 1fbb ddb8 053a 23d6 203c
00000180: 528d a13c 3843 5b3b a212 673c a156 8a3a
00000190: 8736 4eba 6656 a7bd a782 313b adf2 59bc
000001a0: 18aa a8bd 73eb 19be aeff ecba 0b56 9ebd
000001b0: 77cc 93bc 2a35 3bbd 92ba 5c39 3139 5ebc
000001c0: c1da a23c cbec 03bd a164 fe3c 6cfd bf3c
000001d0: a39e 323c 651b 7fbd 93c3 85bc c44e 353b
000001e0: a3f1 b9bb 3f2a 37bb 2979 06bb 86ed 0f3b
000001f0: ca45 503d 2b55 90ba 8b1e 76ba 48ea 1fbb
