Results/AFP/22/model.pth (torch, 222293 bytes, 47 tensors)

gnn.init_context.project_node.0.weight f4 [32, 74]
000000 6e 6b 74 bb 0b dd 1f 3b 9d 2d 11 3b e8 8b f1 b9
       -0.0037295478 0.0024393226 0.0022152432 -0.0004607134
000010 11 25 bc 38 b7 93 e2 b6 fa 40 45 34 4f c9 bb b8
       8.971443e-05 -6.752521e-06 1.8370693e-07 -8.9543515e-05
000020 d0 9b 28 b6 05 0a f2 9b 0f f4 82 9b 33 06 60 9c
       -2.5124646e-06 -4.0042017e-22 -2.1664415e-22 -7.4123395e-22
000030 cb 9e 3c 9c bc 52 02 9c 8d ef 7a 1c 86 f9 ae 36
       -6.2409217e-22 -4.3120324e-22 8.3027673e-22 5.2146524e-06
000040 9c 3e 1b 1c 34 ec 9d 9b 37 eb 4c 9b 9e 4b af 9b
       5.136612e-22 -2.6126114e-22 -1.6950487e-22 -2.9000188e-22
000050 ab c9 54 1b 83 b5 3e 9c ac 00 94 9c 18 3e 39 1c
       1.7601391e-22 -6.3100325e-22 -9.793992e-22 6.129162e-22
000060 b2 82 25 9c 92 c2 65 97 73 59 1f 9c 55 f6 d8 9b
       -5.476284e-22 -7.4239473e-25 -5.2724297e-22 -3.589339e-22
000070 4b ea 84 99 1b 7f 32 b1 74 83 55 9c 00 e1 f1 9b
       -1.374311e-23 -2.597466e-09 -7.0645687e-22 -4.0015508e-22
000080 83 fc 9a 1c 18 16 8d 9b bb fb e9 9b a7 3b 8d 1c
       1.0256138e-21 -2.334077e-22 -3.8709294e-22 9.346017e-22
000090 4c 78 27 1c 49 54 be 9b 8a c5 82 1b 67 2f 0b 9c
       5.5411145e-22 -3.1487331e-22 2.1634353e-22 -4.605251e-22
0000a0 78 e3 0a 1b f7 2d 58 9c 61 e4 1f 1c 7b 5b 5a 1b
       1.1488592e-22 -7.1527813e-22 5.290386e-22 1.8062096e-22
0000b0 6f 26 4d 39 89 e4 cd bb 8c 35 a5 b9 dd 30 82 b9
       0.00019564641 -0.006283347 -0.00031511148 -0.00024831938
0000c0 de 70 ac 9b ec 4d 0d b9 77 2e 29 1c 7c 5a cb 1a
       -2.8527952e-22 -0.00013475836 5.5977464e-22 8.410502e-23
0000d0 fe e5 dc 1b c9 b5 36 9b 47 bc 1a bb d9 ec e4 bb
       3.6544576e-22 -1.5113425e-22 -0.0023610757 -0.0069862423
0000e0 77 24 2c 39 36 54 a0 38 79 63 28 1c df 65 9d 9c
       0.00016416782 7.64508e-05 5.5715103e-22 -1.0415722e-21
0000f0 4f 8f 43 9c 75 ee 40 b9 f9 aa 57 1c f5 76 30 38
       -6.470531e-22 -0.00018399379 7.135851e-22 4.2072457e-05
000100 6f 46 ae bb f7 5f 2a ba 66 05 4c 9b fb 6e fe b8
       -0.005318455 -0.0006499285 -1.6876229e-22 -0.000121323355
000110 2b 48 88 bb 30 b4 02 bb 83 a0 e3 bb 4c bb 1c 39
       -0.0041589937 -0.0019943826 -0.0069466247 0.00014947093
000120 7c 89 b4 38 b6 c1 3f 1b 7f aa 4e 3b b6 ba 28 3c
       8.608677e-05 1.5861741e-22 0.003153473 0.010298422
000130 52 bc a6 3b ee 91 94 ba b2 0f 12 39 7b 84 48 3b
       0.0050883675 -0.0011334994 0.00013929492 0.0030596543
000140 99 c5 55 b9 ba 54 14 38 5a da ad b5 7e 15 3f 1c
       -0.00020386874 3.5364857e-05 -1.2953053e-06 6.3224377e-22
000150 51 d0 98 9a 82 ac 61 1c 78 d4 82 9c 55 0d 29 1c
       -6.320228e-23 7.4669216e-22 -8.6576e-22 5.593464e-22
000160 f5 1a 62 9c f2 e3 46 b6 93 8c bd 9b 40 2c 33 9c
       -7.481197e-22 -2.963698e-06 -3.135827e-22 -5.9283324e-22
000170 21 7b 10 1c 3d 40 27 1b de f9 0c 9c e0 7d 94 9b
       4.7804744e-22 1.3834673e-22 -4.664506e-22 -2.456589e-22
000180 53 02 f0 9b e7 3a 14 1c 1f 63 70 1c 22 97 3f 1c
       -3.9706171e-22 4.904522e-22 7.953745e-22 6.3391933e-22
000190 e7 19 9b 9c 0a e6 27 1c eb a9 a7 1b 5e ff 19 37
       -1.0263735e-21 5.5552983e-22 2.773764e-22 9.178968e-06
0001a0 b7 c0 9c 1c 59 55 76 1c 93 4c ca 1b ce 38 b7 9b
       1.037303e-21 8.150488e-22 3.3467582e-22 -3.031152e-22
0001b0 ba cb 0a 9b 81 60 81 9c 4c 59 75 1c 16 83 49 9c
       -1.148092e-22 -8.56145e-22 8.1179114e-22 -6.6674746e-22
0001c0 97 32 3b 1c 36 aa a0 9c e8 bf 14 1c 72 69 ca 9b
       6.1938496e-22 -1.063191e-21 4.9217125e-22 -3.348624e-22
0001d0 2b b5 2c 9c ff e4 18 9c eb 19 9d ba d3 b3 11 3c
       -5.714418e-22 -5.058855e-22 -0.0011985874 0.008892971
0001e0 ff b4 f4 bb db 55 b6 bb 70 c4 8b 9b 80 40 30 3b
       -0.0074678655 -0.005564434 -2.3122566e-22 0.0026893914
0001f0 cf 42 35 1c 1e 30 de 1b 0e e1 17 9c 33 ed ad 1b
       5.9974224e-22 3.6757914e-22 -5.0252585e-22 2.8773736e-22
000200 ef 02 20 b8 66 25 8d 3c 09 11 cc bb ac 6c 43 3b
       -3.8149705e-05 0.017229747 -0.0062276167 0.0029819412
000210 25 dd 09 9c 9a 14 11 9c 85 d9 08 1b 08 a5 8c b9
       -4.561532e-22 -4.80031e-22 1.1319941e-22 -0.0002682584
000220 51 0c 6f 1b d3 16 2e 3c e5 31 a9 3b 8f ed be 3b
       1.9773596e-22 0.010625559 0.0051634186 0.005826659
000230 4d e9 66 1c 89 b0 71 3b 96 9e 34 3b 44 8a 15 3a
       7.640215e-22 0.0036878905 0.0027560345 0.0005704502
000240 f7 38 89 3c 8f 78 d8 bb e0 53 ad ba 8d 2b 84 9b
       0.016750796 -0.0066061686 -0.0013223849 -2.1865712e-22
000250 f5 42 6c b4 85 db ee 34 79 06 83 b1 38 73 25 b2
       -2.2003572e-07 4.4490676e-07 -3.8133376e-09 -9.630462e-09
000260 51 4c 91 ae 27 2f 4a ae 11 66 1b ab 92 37 0d 2e
       -6.607393e-11 -4.5971362e-11 -5.520871e-13 3.2109045e-11
000270 11 2e c4 2b 98 21 ee 9b 41 19 0c 1c 28 eb 09 1c
       1.3939424e-12 -3.9395507e-22 4.6354754e-22 4.563343e-22
000280 9b 15 97 99 73 c4 08 1c 0e db 86 1b 1c a0 c0 aa
       -1.562176e-23 4.525253e-22 2.231e-22 -3.421715e-13
000290 42 a6 80 9b 41 72 68 1c 85 da 95 9c 80 0e 51 1c
       -2.1283265e-22 7.691003e-22 -9.916479e-22 6.917104e-22
0002a0 3b 7f e3 9b ee dc a1 1c 74 27 1e 1c 23 e0 9e 1b
       -3.763622e-22 1.0711195e-21 5.2328807e-22 2.6283752e-22
0002b0 a2 a4 27 1c 14 13 de 1b 9e a9 c9 1b 4c 2c 06 9c
       5.546845e-22 3.6739148e-22 3.3362273e-22 -4.4394133e-22
0002c0 8e 3f 82 9c fe f6 b7 aa 3e eb 52 1c f0 a6 54 1c
       -8.619107e-22 -3.2678715e-13 6.9787215e-22 7.036068e-22
0002d0 f4 27 7b 9c 39 6b 83 1c 35 64 0c 1c f5 de 17 9c
       -8.310057e-22 8.696569e-22 4.645163e-22 -5.0249874e-22
0002e0 09 f6 1c 1b 7b 97 f9 9b ed 44 8a 9b c5 35 cf 9a
       1.2983516e-22 -4.1291486e-22 -2.2874727e-22 -8.570006e-23
0002f0 25 2b ae 1b cb ce 3e 9c 64 89 53 9c 96 c6 8a 9c
       2.8813767e-22 -6.3133e-22 -6.9991617e-22 -9.183407e-22
000300 84 b6 e9 b2 86 a2 64 b4 c3 bd 12 b0 05 91 d4 30
       -2.7207768e-08 -2.129328e-07 -5.338416e-10 1.5466247e-09
000310 ea 49 f6 1b 24 fd 1c af e0 b2 9f 9b 2c 90 b7 9b
       4.0745052e-22 -1.4278051e-10 -2.641994e-22 -3.036798e-22
000320 b0 1a f9 9b 1f 04 1b 9c 7b 98 9f 32 83 b0 5b 34
       -4.121084e-22 -5.1290524e-22 1.8579376e-08 2.0460179e-07
000330 ac 0d ab ad 96 ec 51 ac 26 8d 47 1c 62 b9 9b 9c
       -1.944652e-11 -2.9832018e-12 6.6026007e-22 -1.030496e-21
000340 70 49 88 9c dc 90 a7 b1 e1 2d 24 9c 8b a7 53 af
       -9.018708e-22 -4.8768083e-09 -5.4322345e-22 -1.9249861e-10
000350 7e 33 2f b4 7c a3 f5 b2 c9 7f 23 9c 39 65 24 2f
       -1.6316878e-07 -2.8596098e-08 -5.4097334e-22 1.4951675e-10
000360 72 d2 25 b4 6b 1d de 31 58 2d 8b 33 4f 9f ab ad
       -1.5443382e-07 6.464395e-09 6.48094e-08 -1.9511196e-11
000370 b7 49 3f 2c a5 8b 1a 9c e6 f3 b6 3a b9 fd 96 bb
       2.7183652e-12 -5.113481e-22 0.0013958185 -0.004607883
000380 00 d6 6f bb c2 64 db ba 81 3a af ba 58 29 df 39
       -0.003659606 -0.0016738402 -0.0013368876 0.00042564678
000390 3c 75 2f 3a 80 0e 86 39 95 e6 aa b6 8d b1 0c 1c
       0.00066931895 0.00025569275 -5.093238e-06 4.6551593e-22
0003a0 db db 2b 9c 27 62 09 1c ae 64 47 9c 47 12 ce 9a
       -5.686331e-22 4.5456356e-22 -6.59737e-22 -8.522913e-23
0003b0 5f 7d 3b 9b c0 a5 25 b8 78 bf 77 1c 33 56 3e 1c
       -1.5508787e-22 -3.9493432e-05 8.197291e-22 6.2977136e-22
0003c0 6c 65 76 1c 2c da 4f 1c 31 cb 06 1c 47 8a 05 1c
       8.1525657e-22 6.8772535e-22 4.45995e-22 4.418473e-22
0003d0 ca 79 7a 1c f3 da 8d 1b 03 6e cd 9b a6 04 4c 1c
       8.287547e-22 2.3467986e-22 -3.3985499e-22 6.7503946e-22
0003e0 13 b7 6f 1c 38 8c 61 1c 1d f2 17 1c b8 fe bb 35
       7.9315084e-22 7.4627484e-22 5.0274633e-22 1.4006719e-06
0003f0 6f d1 38 9c 88 cb 33 9c e4 0e 4e 9c df de 44 1c
       -6.115118e-22 -5.948919e-22 -6.817893e-22 6.5139014e-22

gnn.init_context.project_node.0.bias f4 [32]
000000 5c 8c d8 bb 34 90 df 3b 5f 90 a2 b4 42 2f 8d bb
       -0.006608529 0.0068226103 -3.0279895e-07 -0.004308612
000010 4f 57 34 b7 be 8f 7d bb 78 57 21 bb 83 7f b6 38
       -1.0749164e-05 -0.0038690413 -0.0024618786 8.702187e-05
000020 b3 af cc b9 11 30 b8 3e e7 d3 08 b5 db d4 aa b8
       -0.00039040818 0.35974172 -5.0972307e-07 -8.145879e-05
000030 ba f3 30 b5 7f 77 85 bb 7d 4e 27 bc 67 7a 6c bc
       -6.591978e-07 -0.004073083 -0.010211584 -0.01443348
000040 f0 d2 aa bd f7 24 10 b9 9f 42 59 ba bc cb 5d aa
       -0.083410144 -0.0001374668 -0.00082878204 -1.9699428e-13
000050 db 68 3f be 91 30 16 b9 54 c2 88 35 b3 40 2f b5
       -0.18692343 -0.00014323207 1.0189347e-06 -6.528673e-07
000060 37 a4 80 b8 8b dc c2 36 d6 2f 24 bd cf dc c9 ba
       -6.134103e-05 5.807325e-06 -0.040084682 -0.0015400889
000070 8f f4 9d ab 29 7b ab 3b b5 04 a7 b8 6d 75 1b 3e
       -1.12234e-12 0.0052331877 -7.964057e-05 0.15181513

gnn.init_context.project_edge1.0.weight f4 [32, 87]
000000 e7 ce 1e 9d cc fa 92 1c 67 f1 6c 19 62 c3 74 1c
       -2.1018092e-21 9.726299e-22 1.2249665e-23 8.0985354e-22
000010 b3 34 bd 9c 87 0d 98 9c e0 b9 07 1c 8e a4 a1 9c
       -1.2520593e-21 -1.0062013e-21 4.490799e-22 -1.0696623e-21
000020 49 4b 39 1c 04 a2 6f 9c e9 dc 09 1c e5 e4 89 1b
       6.130867e-22 -7.9287867e-22 4.5615017e-22 2.2812668e-22
000030 07 8d 40 1c 1d 77 91 9c cb 1b 71 9c fd 0b 3b 1c
       6.3709745e-22 -9.626085e-22 -7.9776133e-22 6.1888604e-22
000040 f6 1b 1f 9c f9 17 52 1c 50 5b 29 9c 03 6a 5f 1c
       -5.2644826e-22 6.9514155e-22 -5.603543e-22 7.392153e-22
000050 bd 98 4f 1c ed 03 42 1c d5 08 bf 99 24 21 a2 1b
       6.8687964e-22 6.419429e-22 -1.9752504e-23 2.6822068e-22
000060 31 64 c8 9b 9f 26 2c 1c 5c b5 96 1c 9a 06 99 9a
       -3.3151972e-22 5.6959943e-22 9.973048e-22 -6.328998e-23
000070 95 28 1a 1c 82 d1 8d 9c 8d 09 69 9c 83 59 d0 19
       5.1006777e-22 -9.384754e-22 -7.7105577e-22 2.154285e-23
000080 07 25 3d 9c 66 e2 89 9b dd b3 48 1c 0c 47 04 1c
       -6.258271e-22 -2.2811055e-22 6.6406917e-22 4.376696e-22
000090 69 6f 2b 9c a0 20 82 9c 7b a2 ce 9b b2 24 35 9c
       -5.672315e-22 -8.611112e-22 -3.4184842e-22 -5.9935304e-22
0000a0 bd 1f 43 1c b9 5a 17 1c eb 0f 55 1c 31 b1 5b 1c
       6.456111e-22 5.0078965e-22 7.049636e-22 7.2690036e-22
0000b0 6f a1 49 9d 8f 3f 57 1d fd 2a 93 9d f5 f6 c2 9c
       -2.6685588e-21 2.8487872e-21 -3.8955025e-21 -1.290168e-21
0000c0 83 7d 15 1c 9c b1 62 9c 2a cc 12 9c e0 72 77 9c
       4.9462185e-22 -7.500668e-22 -4.8571224e-22 -8.1873917e-22
0000d0 98 63 cd 1b 32 cb 21 1c 5d fa 38 9d 84 7b 9f 1d
       3.3978766e-22 5.3533055e-22 -2.4481632e-21 4.221466e-21
0000e0 b4 26 39 1d ce 8b 12 9c 0f 37 6a 1c 16 f3 08 9b
       2.4504555e-21 -4.848804e-22 7.7495267e-22 -1.1328202e-22
0000f0 2c f4 4d 1a 19 ba 41 1c 14 81 bb 1b 6b a6 8c 1b
       4.2590247e-23 6.409887e-22 3.101997e-22 2.3268602e-22
000100 76 1e 85 9d 27 5d a2 1c 79 16 03 9b a5 75 f2 9b
       -3.5236303e-21 1.074434e-21 -1.0843327e-22 -4.0111568e-22
000110 5b 32 25 9d 76 c3 95 9d 55 1c 0a 9e e1 51 d9 9d
       -2.1863601e-21 -3.9642073e-21 -7.311518e-21 -5.7524083e-21
000120 55 09 a5 1c 05 88 ae 1b 94 86 f1 9c ba 96 2f 1c
       1.0921196e-21 2.8873786e-22 -1.598283e-21 5.809745e-22
000130 a4 3a 1c 9c f4 18 07 1c b7 00 38 1a 1c 77 26 1c
       -5.169186e-22 4.4700004e-22 3.8050886e-23 5.507874e-22
000140 29 f2 87 9c 29 e4 2e 1c c1 a0 d3 1b bf 6f 2f 1c
       -8.996148e-22 5.786666e-22 3.5010907e-22 5.804707e-22
000150 41 22 62 1c 2c 9a 2b 1c 45 d0 b2 9d 6e 3e 12 1f
       7.48214e-22 5.6778416e-22 -4.7331553e-21 3.0968343e-20
000160 f9 7e c2 1e 98 f9 02 9f 51 62 2f 9e 71 3c 2d 9d
       2.0593064e-20 -2.773503e-20 -9.284754e-21 -2.2927607e-21
000170 ef 31 a8 1c ef 1f 23 9d d9 a3 4b 9d 77 e7 7c 9c
       1.1130215e-21 -2.158938e-21 -2.6951534e-21 -8.3678967e-22
000180 49 de 88 1b 63 d6 29 9c 78 9d 14 1c 19 fb 20 9c
       2.264296e-22 -5.61945e-22 4.9172616e-22 -5.3264095e-22
000190 5d 53 42 1c d9 dd 3c 9c 7c d2 f5 1b 88 3b 0f 19
       6.429696e-22 -6.2490713e-22 4.0667872e-22 7.404949e-24
0001a0 33 a6 c1 9b fb bd 8a 1c 73 3e 44 9c e4 ac 32 1c
       -3.2036575e-22 9.181183e-22 -6.4931674e-22 5.9118716e-22
0001b0 86 a1 0e 1c e9 71 d8 1b 79 f3 58 1c 0a 8b 32 9c
       4.7192623e-22 3.5807815e-22 7.1783086e-22 -5.9074963e-22
0001c0 74 c7 08 1c 2c 83 15 9b 02 e7 19 1c 76 a9 c9 1b
       4.525641e-22 -1.2367375e-22 5.0922024e-22 3.3362172e-22
0001d0 46 02 d2 1a 0c 02 d8 9b 4d d2 57 9c 37 1d 2d 1c
       8.685764e-23 -3.5735525e-22 -7.140934e-22 5.727866e-22
0001e0 49 68 23 1c 4d b7 28 1c 3d 41 68 9b 66 2f 0c 1b
       5.406696e-22 5.582345e-22 -1.921167e-22 1.1595844e-22
0001f0 27 16 5a 9c 51 df e0 1b a8 ac 2a 9c ad e8 22 1c
       -7.215878e-22 3.7202006e-22 -5.6471435e-22 5.390203e-22
000200 58 4b b9 9b f9 93 df 9b 1d e0 4f 1b 01 25 87 9e
       -3.0654372e-22 -3.698788e-22 1.7195054e-22 -1.4308985e-20
000210 de 17 72 1e 20 3c d5 1f f7 2d 90 1d d9 61 da 1b
       1.2816309e-20 9.030848e-20 3.816401e-21 3.6128307e-22
000220 5c c0 15 9d 58 46 0f 1b 6c da 37 9c aa 89 5c 1c
       -1.9819433e-21 1.1851412e-22 -6.0831924e-22 7.296982e-22
000230 11 54 8c 1c f7 23 05 9f e5 45 a9 9c db 10 bc 1e
       9.286154e-22 -2.8193595e-20 -1.1201549e-21 1.9912246e-20
000240 9a 95 00 9e 8d 17 40 9c 78 57 38 1c ac 63 22 1c
       -6.8072005e-21 -6.355791e-22 6.0993544e-22 5.3730127e-22
000250 12 40 82 9b 07 50 91 9c 22 63 20 9e 46 51 91 1d
       -2.15481e-22 -9.615982e-22 -8.49083e-21 3.8465215e-21
000260 a8 59 d6 1e 65 cb 22 9c 77 51 d6 9c 7d 93 6e 1f
       2.2695212e-20 -5.3864185e-22 -1.418239e-21 5.052046e-20
000270 0d d4 79 1a 72 4e 51 9e f0 60 d4 1e a2 bc 0b 1e
       5.1663286e-23 -1.108059e-20 2.2486466e-20 7.397607e-21
000280 f8 ac 70 9c 1c 81 bd 9d 7e 89 dd 1e b6 9b ba 9d
       -7.9632896e-22 -5.016138e-21 2.345615e-20 -4.939479e-21
000290 e1 eb 0a 1e 78 02 4e 1e db 5b a3 1e 2c 07 00 9c
       7.354438e-21 1.090606e-20 1.7296287e-20 -4.2360917e-22
0002a0 cc c5 63 1a f6 9c 8a 9c 11 6f d8 9b e4 0e 87 1c
       4.710228e-23 -9.172647e-22 -3.5805977e-22 8.9374e-22
0002b0 6b 0c 00 1c 69 43 93 1d 81 98 e6 9d 1f 78 4e 9d
       4.2367697e-22 3.8980276e-21 -6.103818e-21 -2.7325974e-21
0002c0 9f b2 08 9e e4 1b b0 9d 2e e1 11 9d 6a af 33 9c
       -7.236718e-21 -4.661565e-21 -1.9307005e-21 -5.945285e-22
0002d0 dd b9 2c 9d 33 70 64 1c 46 68 6a 9c b8 00 8a 9c
       -2.28601e-21 7.5583886e-22 -7.7558876e-22 -9.13226e-22
0002e0 d5 76 24 9c 22 f6 17 1c 31 73 17 1c 64 59 14 9c
       -5.4416635e-22 5.027983e-22 5.011059e-22 -4.9084627e-22
0002f0 55 ce 3d 1c b1 15 0f 9c 99 fa 80 1c e7 c0 e1 9b
       6.280153e-22 -4.7342767e-22 8.535107e-22 -3.7347788e-22
000300 8a a7 a2 1a 28 c4 91 9c 67 ac 09 9c 85 86 37 9c
       6.7272304e-23 -9.646e-22 -4.555232e-22 -6.0723483e-22
000310 8d 7f 36 9c c8 6d 7f 9c 16 9a 8b 1b 97 dd a4 9b
       -6.0383604e-22 -8.451431e-22 2.3095197e-22 -2.7274723e-22
000320 bc 64 24 9c f4 43 a3 1b ea 53 01 1c 73 c5 15 9c
       -5.4393244e-22 2.7010002e-22 4.2790976e-22 -4.955516e-22
000330 3b a5 2f 9c 5d 10 fe 9b 2f 5d 20 9c f8 ef 82 1b
       -5.81162e-22 -4.203135e-22 -5.3059996e-22 2.1661772e-22
000340 6f d9 27 1b d7 de 13 9c 5a 24 e6 9b b1 06 4f 1c
       1.3884173e-22 -4.8926234e-22 -3.80738e-22 6.8499203e-22
000350 50 d3 3f 9c ca 99 5e 9c 63 bc 6f 1b c7 19 85 9c
       -6.3469714e-22 -7.3652406e-22 1.9830488e-22 -8.807865e-22
000360 f2 9d 14 1c f0 c9 1d 9c 6f af 0a 9d 1d 1d 05 1e
       4.917323e-22 -5.220794e-22 -1.8354845e-21 7.046982e-21
000370 50 01 2b 1e 8b 3b 73 1d b8 c5 3b 9c 3c d5 53 9c
       9.052936e-21 3.2191565e-21 -6.2128655e-22 -7.0089643e-22
000380 c4 d9 13 1c 7d 99 05 9c 4a aa 25 1c 09 b0 4a 1a
       4.8919675e-22 -4.420439e-22 5.4814014e-22 4.191482e-23
000390 49 2d 9a 1d 9b 24 37 1e e9 9e 92 9d 33 ec 7a 9d
       4.0810284e-21 9.695509e-21 -3.8810187e-21 -3.3209337e-21
0003a0 5e bd cb 9b fc f7 84 9c bf a1 89 9c 9e 91 37 1c
       -3.3705909e-22 -8.79913e-22 -9.10771e-22 6.0737827e-22
0003b0 25 0e 03 9c 9c f4 6c 9d f7 ff 89 1e 62 4f 72 1d
       -4.3362545e-22 -3.13608e-21 1.4611304e-20 3.2069473e-21
0003c0 70 a6 29 9c 0e 54 8e 1b a4 1f 88 9d 94 c8 9a 9d
       -5.6132525e-22 2.3546248e-22 -3.6031616e-21 -4.0970854e-21
0003d0 96 80 46 1d 69 36 fb 1d bf eb c1 1d 38 a8 6e 1c
       2.627156e-21 6.6495406e-21 5.133043e-21 7.896501e-22
0003e0 1b 39 f1 1d b2 4e fb 9b 4b dc 66 9b f5 bd 6c 9e
       6.3851215e-21 -4.1575322e-22 -1.9096335e-22 -1.2533018e-20
0003f0 cb 1c 36 9e 0b ad 4c 1d 7d de 23 1e 58 ca f9 9b
       -9.640954e-21 2.7088636e-21 8.675158e-21 -4.1324356e-22

gnn.init_context.project_edge1.0.bias f4 [32]
000000 59 ee fb 1d f6 8d 1d 20 bc 92 93 1d 3b 64 35 23
       6.6685593e-21 1.3345388e-19 3.9062296e-21 9.833254e-18
000010 2e 47 38 1c 0b a1 cc 1d a2 30 a1 1d 30 3c 77 a0
       6.097249e-22 5.4164865e-21 4.266663e-21 -2.0941628e-19
000020 68 11 9b a3 15 7d 21 a1 39 0b 8d 1d 30 e7 56 1f
       -1.6812506e-17 -5.4714466e-19 3.7333993e-21 4.5507496e-20
000030 a8 1a d1 1e de bb 2e 9f bd 02 7c a1 da 41 30 1f
       2.213976e-20 -3.7001333e-20 -8.5384545e-19 3.732392e-20
000040 0d 9c d1 22 87 f9 c6 b5 19 ef 8c 21 0c d0 1f a1
       5.681479e-18 -1.4824772e-06 9.550058e-19 -5.4146643e-19
000050 c4 bb 24 9e 82 24 ab 9d d8 d8 10 a2 2d b2 01 1e
       -8.720917e-21 -4.530107e-21 -1.9630435e-18 6.866049e-21
000060 03 c3 a5 1d 11 03 de 1e 09 5b 6f 9e 9b 09 ff 9d
       4.3876774e-21 2.3506433e-20 -1.267138e-20 -6.750787e-21
000070 45 4c 88 1e 70 31 d4 9d 20 05 f3 9d 9d 6a b2 9d
       1.4431104e-20 -5.616705e-21 -6.4326864e-21 -4.7226443e-21

gnn.init_context.project_edge2.1.weight f4 [1, 64]
000000 d3 72 8a ac 71 a8 13 29 a7 dd 35 a4 94 bb 9e 2b
       -3.934944e-12 3.2786657e-14 -3.9435865e-17 1.1278639e-12
000010 a4 d7 8e a8 76 4c 61 2c 28 0d 24 29 0d ea d2 2b
       -1.5858686e-14 3.2016867e-12 3.6426726e-14 1.498636e-12
000020 a2 66 2e 28 a5 1b 43 30 62 8a b3 a3 b8 83 bb ab
       9.681195e-15 7.097987e-10 -1.9465826e-17 -1.3323708e-12
000030 ac a8 38 23 c3 88 47 aa 91 9e ce ad 41 ca 8e 2e
       1.0010378e-17 -1.7722199e-13 -2.3489906e-11 6.49334e-11
000040 49 41 08 2a 9f 52 44 a8 5a db a8 a9 29 8e 83 9a
       1.2101877e-13 -1.0898101e-14 -7.49875e-14 -5.441e-23
000050 e6 74 64 ae 3a c8 49 a9 55 1a 93 a7 c4 ae 39 22
       -5.1945025e-11 -4.4804634e-14 -4.0829245e-15 2.5164695e-18
000060 54 d9 22 a9 6c 5d 38 aa 89 7c 00 ae cb ac 4f 29
       -3.6159728e-14 -1.6374895e-13 -2.921444e-11 4.6113107e-14
000070 8f 37 01 9d fd b9 10 2f 93 ac d0 a9 29 6f 59 b0
       -1.710173e-21 1.31628e-10 -9.2669924e-14 -7.910211e-10
000080 1e 99 68 9c 43 73 83 9c 58 8c 39 1b b4 ad b3 9b
       -7.696026e-22 -8.698647e-22 1.5348189e-22 -2.972532e-22
000090 9b 62 35 1c 18 5d 7a 1c 3a b2 95 9b a1 69 3e 1b
       6.001532e-22 8.283838e-22 -2.4765158e-22 1.5750562e-22
0000a0 8a bb fb 34 a3 7a b7 1b 3d 66 96 9c 67 f6 7a 1b
       4.6888846e-07 3.0354063e-22 -9.952595e-22 2.0759132e-22
0000b0 78 d2 99 9c 35 8b 00 1c 94 d4 f8 1b 7e 42 41 9c
       -1.0179096e-21 4.253157e-22 4.1165534e-22 -6.394428e-22
0000c0 53 0c 59 1c 45 3b a4 ac 70 fc 19 9c c7 c1 b2 1b
       7.1815206e-22 -4.6677406e-12 -5.094972e-22 2.9572855e-22
0000d0 c8 0e a1 1c 85 01 e6 9c ee 4b 12 1c 4b 8f ee 1c
       1.0657907e-21 -1.5220516e-21 4.8405485e-22 1.5786559e-21
0000e0 35 fd 2d 1c 4e 52 77 1c 27 14 6c 1a 8c 3b 75 9c
       5.756816e-22 8.183182e-22 4.8819935e-23 -8.1140663e-22
0000f0 e8 7a 92 1c 3f 2c 58 9c 3c 56 76 1c fe d1 8d 1c
       9.69324e-22 -7.152559e-22 8.150603e-22 9.384879e-22

gnn.init_context.attentive_gru.edge_transform.1.weight f4 [32, 32]
000000 09 9e 50 1e 7a 44 b2 1c c9 4e 18 9d 6f f2 05 9b
       1.1044109e-20 1.1796753e-21 -2.0157763e-21 -1.1079837e-22
000010 dd c6 37 9e 7e 92 64 9e c6 5b 6a 1e 5c 87 a2 9d
       -9.729063e-21 -1.2100513e-20 1.2406835e-20 -4.3021e-21
000020 9a 0e f8 9c 19 f1 ed 1c 72 12 b7 9d 5b f7 6b 1d
       -1.6415038e-21 1.5745667e-21 -4.845877e-21 3.122987e-21
000030 4b 41 01 9d 60 13 f7 9d e1 0d 6e 1d cb 01 36 1d
       -1.7106764e-21 -6.540039e-21 3.1506213e-21 2.4088426e-21
000040 4c ac 8b 9d 83 27 36 a1 54 11 20 9b 50 86 d7 1c
       -3.6971144e-21 -6.171629e-19 -1.3240489e-22 1.4262226e-21
000050 f4 3f 68 9d 9e e3 14 9d 4b b6 ba 1c fe b5 7c 9d
       -3.0738007e-21 -1.9705312e-21 1.2355569e-21 -3.344601e-21
000060 ec e5 4c 1c 11 12 b3 1d df 86 20 1e a0 19 26 1e
       6.7795105e-22 4.7399586e-21 8.49822e-21 8.793266e-21
000070 9a 06 2f 1e d8 eb 64 1e 81 21 33 9c 9c 89 f5 9b
       9.265788e-21 1.2118991e-20 -5.9269435e-22 -4.0620778e-22
000080 95 f2 04 9c 28 82 39 9c 9a de bc 1d a3 17 65 9d
       -4.3988666e-22 -6.137959e-22 4.999335e-21 -3.0320118e-21
000090 c8 2d 9f 9c fb b9 c7 9d 25 c2 ad 9d d0 4f d4 9d
       -1.0533572e-21 -5.286716e-21 -4.599346e-21 -5.6198457e-21
0000a0 a3 d5 ed 9d df 69 b2 1d 24 6e a2 9c 5d ed 81 1b
       -6.2954273e-21 4.7225676e-21 -1.0748731e-21 2.1494652e-22
0000b0 8b a7 82 9a 4e 9b 21 9e fc 43 b0 1b 23 05 2c 1d
       -5.403742e-23 -8.555385e-21 2.9160691e-22 2.2766666e-21
0000c0 31 44 22 1d 3b 6e ef a4 86 49 01 1d ce 1a 1f 1c
       2.1475776e-21 -1.03836465e-16 1.7111019e-21 5.264333e-22
0000d0 4d ae 87 9d cc 4e a2 9d 54 8c db 1c 8d d6 2a 9d
       -3.5914425e-21 -4.2962517e-21 1.4528478e-21 -2.2610233e-21
0000e0 6c 68 4e 9e 7b c2 70 9d 10 30 c4 1d 2d 9d 78 9d
       -1.0927143e-20 -3.186428e-21 5.1930463e-21 -3.2903785e-21
0000f0 01 e0 11 9d b9 c3 c0 1d 83 a6 bb 1c bd 0c 1e 9d
       -1.9306398e-21 5.102435e-21 1.2417664e-21 -2.0917711e-21
000100 e0 19 3b 9d 84 a6 13 1e 7f 7b 06 9e fc 2e 15 9e
       -2.476262e-21 7.81655e-21 -7.119439e-21 -7.8977105e-21
000110 17 0b 0b 1d da d9 8e 9c ff 7e 57 1d 6e 7b f9 1d
       1.840223e-21 -9.453085e-22 2.8520669e-21 6.6037375e-21
000120 85 0c 97 9d 53 c1 05 9e e4 be 76 9d e5 5f 6c 9e
       -3.9982312e-21 -7.08094e-21 -3.2656517e-21 -1.25135665e-20
000130 1c b5 77 1a fb f7 26 9e e9 70 bc 1c 62 2d 8c 9b
       5.1224702e-23 -8.839248e-21 1.2469983e-21 -2.3190385e-22
000140 f2 87 20 9e 8e 82 6c 2a 42 c3 16 1d ce 6f 54 1c
       -8.498442e-21 2.1006306e-13 1.995328e-21 7.028942e-22
000150 40 df b5 9c f6 97 bb 9c 95 de 59 1d bd 5e 69 1c
       -1.2035284e-21 -1.2413903e-21 2.8834783e-21 7.721568e-22
000160 39 cb c3 9e fe 86 a8 9c 90 63 a4 1d d5 36 2d 9d
       -2.0730479e-20 -1.1152202e-21 4.3513384e-21 -2.2924707e-21
000170 54 02 d1 9c 05 5e 5d 9d 5a d1 86 1d bd 1a 13 1d
       -1.3831062e-21 -2.9297713e-21 3.568597e-21 1.9469111e-21
000180 56 8b 63 1d f0 39 0d 1e 9b 91 ce 1d 94 5c 04 9e
       3.0115235e-21 7.476459e-21 5.46783e-21 -7.0071665e-21
000190 21 3a f5 1d 34 be 25 1e 18 ef 3e 9d f5 06 92 9d
       6.4911064e-21 8.77436e-21 -2.52699e-21 -3.865307e-21
0001a0 cc d8 98 1e be 0f 29 1e f4 66 50 1e ed 5e 6a 9d
       1.6183291e-20 8.950041e-21 1.10327185e-20 -3.1018718e-21
0001b0 e0 df cc 1c ca d4 5d 1e 3b 33 ac 9d 47 67 45 1d
       1.3557458e-21 1.1743646e-20 -4.558099e-21 2.6126126e-21
0001c0 ec a1 4d 1e af 94 72 21 7c 54 c0 1d c6 73 26 9d
       1.0886094e-20 8.218957e-19 5.090933e-21 -2.202977e-21
0001d0 ec b2 01 1e c5 05 9a 9d 2e 62 de 1b e4 07 be 9d
       6.866203e-21 -4.0769426e-21 3.6790266e-22 -5.030074e-21
0001e0 d8 57 d2 1e 23 14 0f 9d d0 af 7b 9d bd a2 33 9d
       2.2270946e-20 -1.8936303e-21 -3.3310466e-21 -2.3774586e-21
0001f0 66 98 d9 9c ea 54 13 1e 2c b4 60 9d 94 bb 17 9d
       -1.439925e-21 7.799675e-21 -2.97393e-21 -2.008166e-21
000200 52 43 e4 9d 70 19 a8 1d 59 c9 00 9e 68 fd 10 1b
       -6.0420705e-21 4.449553e-21 -6.817901e-21 1.1993281e-22
000210 58 89 23 1e 7d aa f2 9c 53 af d0 1d d3 2b aa 1d
       8.65755e-21 -1.6058287e-21 5.5238423e-21 4.504394e-21
000220 63 79 8e 1e 4d 96 bb 1d 8c 1d cd 9c ce b1 37 9d
       1.5085039e-20 4.9653895e-21 -1.35734e-21 -2.4311771e-21
000230 57 00 a0 1c 3c 9c a0 9d d4 75 e0 9c 51 0d c6 9b
       1.0588e-21 -4.251319e-21 -1.4853534e-21 -3.2764958e-22
000240 a5 4e f9 1d 82 b6 d2 a3 f2 6d 11 9d 94 79 51 9c
       6.5991068e-21 -2.284554e-17 -1.924743e-21 -6.9309435e-22
000250 f4 97 f4 1d 9c 9e 13 1d 7e 88 b9 1c 47 bc b6 9d
       6.474338e-21 1.9537287e-21 1.2277555e-21 -4.8369673e-21
000260 27 12 03 9e 69 a0 17 9e 8c e3 ad 9c eb 09 4d 1d
       -6.938836e-21 -8.0270455e-21 -1.1506999e-21 2.7136652e-21
000270 d6 b8 64 9d cb bd 79 1c 79 17 83 9c 14 79 83 9c
       -3.0271107e-21 8.263249e-22 -8.67492e-22 -8.700151e-22
000280 5a b4 27 1e 98 5f 11 a0 86 23 89 9d b8 64 46 1f
       8.878202e-21 -1.2313607e-19 -3.630033e-21 4.2011443e-20
000290 2f 05 cb 98 01 2c d7 9c 1d 81 8c 1b 9b ad 3a 9e
       -5.2479504e-24 -1.4238881e-21 2.3244495e-22 -9.882659e-21
0002a0 e2 e4 84 1f 34 44 56 9e c2 39 1d 9d d8 59 65 9e
       5.628283e-20 -1.134317e-20 -2.0808637e-21 -1.2141738e-20
0002b0 be 72 50 1d bd 49 af 1e 8d 10 88 9e 06 7a 48 9e
       2.7587891e-21 1.8559343e-20 -1.4406405e-20 -1.0613146e-20
0002c0 af 83 91 a0 aa 9a d6 af fa 17 67 20 5d 9a 8c 1e
       -2.4651096e-19 -3.903627e-10 1.9574394e-19 1.488692e-20
0002d0 7a 1e 23 1e 07 3a 31 1e 3e 97 fc 9e af c4 09 1d
       8.6354506e-21 9.382302e-21 -2.674409e-20 1.8233482e-21
0002e0 6d 21 54 1d f7 eb 32 1e dc de b1 1e c0 d4 d5 1d
       2.8075247e-21 9.472038e-21 1.8832776e-20 5.660061e-21
0002f0 22 cd 4f 9e 12 9c 89 1c 96 61 ad 1d 87 e9 a6 1c
       -1.1000909e-20 9.106243e-22 4.589362e-21 1.1045324e-21
000300 74 45 86 9d ad 00 b7 9c d5 09 ad 9c 3c a5 8b 1b
       -3.5541318e-21 -1.2110099e-21 -1.1450721e-21 2.31024e-22
000310 4c 1d 01 9d a8 e3 0d 9d 9d c0 26 9d 77 8d 37 1d
       -1.7088154e-21 -1.877889e-21 -2.2069496e-21 2.4292984e-21
000320 64 9a 75 9d f0 52 07 1c 02 e9 b3 9d 4b f9 1c 9d
       -3.2505298e-21 4.4774947e-22 -4.762183e-21 -2.077531e-21
000330 fb 27 9b 9c e0 8b 39 1c 14 39 24 1c 2c 77 a8 1c
       -1.0267374e-21 6.139215e-22 5.433682e-22 1.1148113e-21
000340 68 67 8a 9b 9b 12 87 29 b4 08 9e 9c 7e 7b f5 9a
       -2.289701e-22 5.998432e-14 -1.0457813e-21 -1.0152914e-22
000350 1b 5a b1 1d 3f 7d f5 9d 18 37 90 1c 47 6b 53 1d
       4.6944677e-21 -6.498046e-21 9.543362e-22 2.7981079e-21
000360 f6 9d 9f 9d 16 55 5b 9d 21 9c 8b 9d 7c 5d 84 1d
       -4.2250277e-21 -2.9028397e-21 -3.6954427e-21 3.503677e-21
000370 b7 3e 73 9c 7c 6f 8a 1c 2a 30 e4 9b fb 12 06 9c
       -8.0483013e-22 9.160892e-22 -3.775056e-22 -4.436141e-22
000380 24 19 b5 1d 97 71 b5 9d 5b 9d a7 1d 02 12 91 9d
       4.7936296e-21 -4.802775e-21 4.4367234e-21 -3.83998e-21
000390 4c 9e dc 1d c3 9a c3 9d a0 50 50 1d 0c 78 a8 1c
       5.839719e-21 -5.177609e-21 2.7570253e-21 1.1148339e-21
0003a0 32 78 0b 1e 13 2c 39 1c 08 67 c9 9d c2 6f 5c 9e
       7.3834545e-21 6.126833e-22 -5.331079e-21 -1.1669814e-20
0003b0 bf 52 35 9c c1 c4 dd 9d df bd 7f 1d 21 be a4 1c
       -5.9994823e-22 -5.870165e-21 3.384713e-21 1.0901757e-21
0003c0 9c ab e3 1d 10 6c ee aa 11 79 f2 1b c2 2b 13 1c
       6.026384e-21 -4.2352276e-13 4.011378e-22 4.8694776e-22
0003d0 91 be 64 9d 46 3d 1a 1e ca 1b 27 1d 1d af 88 1d
       -3.027407e-21 8.165363e-21 2.2116633e-21 3.6179963e-21
0003e0 31 55 6c 9c d6 f5 9b 1b 78 a7 02 9e 10 5c 04 1d
       -7.8195957e-22 2.5801467e-22 -6.9167744e-21 1.751765e-21
0003f0 6f 83 18 9d d1 b6 1d 9d 15 11 0b 9d d8 db c8 9b
       -2.0184982e-21 -2.087329e-21 -1.8405328e-21 -3.3229295e-22

gnn.init_context.attentive_gru.edge_transform.1.bias f4 [32]
000000 fd 36 56 a6 09 a5 0c a8 7f df 8d 2e 60 86 24 a6
       -7.432069e-16 -7.8073475e-15 6.4516385e-11 -5.708104e-16
000010 4c 9c 33 a7 04 41 75 b6 91 59 7b ac 21 98 91 2e
       -2.4925969e-15 -3.654569e-06 -3.5718965e-12 6.62086e-11
000020 c9 87 f1 ac bc fb ff a4 9b 39 7d 3b 87 6d 07 a5
       -6.864707e-12 -1.11015076e-16 0.0038639072 -1.1746493e-16
000030 7f 00 a9 a8 19 d4 f5 a6 3e 26 36 ac 5c 6e 11 28
       -1.8762984e-14 -1.7057779e-15 -2.5884984e-12 8.073047e-15
000040 d4 da 86 a1 bf 78 9c a4 89 ef 59 a9 67 10 20 a0
       -9.138117e-19 -6.785877e-17 -4.8391443e-14 -1.3557954e-19
000050 b2 9e ce ba cb 9c ab a8 15 ea ab ba 3f 59 95 a2
       -0.0015763848 -1.9052812e-14 -0.0013116027 -4.0481024e-18
000060 5d d4 39 29 83 3b 90 3c c2 a9 13 27 41 59 41 a6
       4.1262448e-14 0.017606502 2.0492374e-15 -6.708129e-16
000070 c5 1e b6 a3 67 f0 ef b7 cc ec 8b af 5d 82 f9 a6
       -1.9745511e-17 -2.8602966e-05 -2.5452207e-10 -1.7313181e-15

gnn.init_context.attentive_gru.gru.weight_ih f4 [96, 32]
000000 45 6f 61 20 7c 8a 08 24 01 8a 16 a8 34 eb cc 22
       1.9095057e-19 2.96076e-17 -8.3565975e-15 5.554334e-18
000010 d1 de 8b 23 98 2a b6 32 f8 ec 2a a6 67 a1 83 a6
       1.5164777e-17 2.1206958e-08 -5.930175e-16 -9.133699e-16
000020 fb 84 bf 26 ca f8 8d 9f 4d 42 06 34 11 6b 9d 9e
       1.3289332e-15 -6.012741e-20 1.2503843e-07 -1.6667303e-20
000030 1a 40 86 a4 25 cc 21 21 ac 5a 2e 23 32 1b 93 a0
       -5.822183e-17 5.4819105e-19 9.4517594e-18 -2.4920765e-19
000040 23 89 5e 21 e2 3f 7f 9f 05 46 c1 a3 36 10 3b 9c
       7.5398025e-19 -5.4051193e-20 -2.0954756e-17 -6.189406e-22
000050 bc 70 01 b7 6e f6 83 a2 67 62 7d 36 9d dd d5 9c
       -7.715247e-06 -3.576854e-18 3.7757216e-06 -1.4152443e-21
000060 6e b7 84 a2 45 23 16 37 70 cf 4e a1 0a a8 29 22
       -3.5972885e-18 8.9489085e-06 -7.0070056e-19 2.299273e-18
000070 83 17 db 9d 17 77 05 b3 dd a4 43 3c 11 66 03 25
       -5.7993128e-21 -3.1074787e-08 0.011941162 1.139702e-16
000080 6d 96 33 a0 55 da 80 21 08 83 f3 28 27 c9 b6 1e
       -1.5211661e-19 8.731409e-19 2.7035245e-14 1.9353194e-20
000090 7b f5 59 a2 a6 07 52 32 0b a1 ca a3 ef 71 90 a6
       -2.953894e-18 1.2225348e-08 -2.1969088e-17 -1.0022889e-15
0000a0 60 41 e4 a5 61 16 30 9f 1e d3 98 36 b5 83 0d 9f
       -3.9595995e-16 -3.728796e-20 4.5545303e-06 -2.9966857e-20
0000b0 cc 38 9a 21 50 75 50 20 7a 82 92 a5 d0 39 07 20
       1.045048e-18 1.7657101e-19 -2.5415377e-16 1.1454073e-19
0000c0 47 24 77 9e 02 63 2c 1e f4 05 07 21 d2 94 12 1d
       -1.3083573e-20 9.1260785e-21 4.574766e-19 1.9399877e-21
0000d0 60 98 f7 b6 7e e6 4e 21 0a ff 27 b4 ce 31 91 9d
       -7.3789124e-06 7.010057e-19 -1.564587e-07 -3.8432677e-21
0000e0 76 d5 2a af f0 92 3d 36 35 96 7e 9e d7 f6 e0 1f
       -1.5537246e-10 2.8248724e-06 -1.347771e-20 9.527605e-20
0000f0 02 86 9c 9d 88 08 5b b2 31 db 01 23 76 fb 73 a1
       -4.1431417e-21 -1.27494175e-08 7.03952e-18 -8.266441e-19
000100 a9 87 91 9c 7e 10 c3 1d c7 10 e2 9f 9a f6 c4 9d
       -9.630362e-22 5.1633123e-21 -9.574248e-20 -5.213575e-21
000110 45 20 0a 9d 62 f9 75 26 a3 7f 4d 1d 99 1c 59 1f
       -1.828083e-21 8.5339427e-16 2.719751e-21 4.5975193e-20
000120 af fb 1a 1d 85 fe 48 1d 16 40 02 29 a0 8b 24 1b
       2.0511848e-21 2.6601363e-21 2.8921384e-14 1.3610877e-22
000130 da 21 f1 9c 79 dc 00 9c 96 df 94 9c df ff 7b 1c
       -1.5956793e-21 -4.26366e-22 -9.851614e-22 8.337964e-22
000140 b4 f4 94 1c 83 a0 96 1d 0a c5 23 9c 79 57 8a 1c
       9.857073e-22 3.9870635e-21 -5.4186843e-22 9.154685e-22
000150 de f8 4a 28 50 bd 2c 1d aa 25 10 a8 2b ee 13 9c
       1.1267217e-14 2.2861883e-21 -8.001773e-15 -4.8946045e-22
000160 87 fb b0 1b 84 e2 c1 27 54 ab bd 1c 27 35 22 9e
       2.9279303e-22 5.381385e-15 1.2551258e-21 -8.5872e-21
000170 b9 8c 5b 1c ae 5a 32 a9 a8 aa 22 9d d6 3e a1 9f
       7.26429e-22 -3.9602592e-14 -2.1528749e-21 -6.8290106e-20
000180 49 39 0d 9f 33 0d 0b a1 56 dd ba 27 21 ae 14 20
       -2.9905297e-20 -4.71125e-19 5.1865344e-15 1.2593702e-19
000190 de 23 fe a1 4e 34 f3 31 1e 06 c5 a3 e1 c8 07 28
       -1.7221203e-18 7.078177e-09 -2.1361374e-17 7.537564e-15
0001a0 3d b0 fe a5 f7 09 7e 9e 48 0a 89 b5 32 a1 c6 1d
       -4.41814e-16 -1.3448709e-20 -1.0210288e-06 5.2576836e-21
0001b0 ff 84 d4 a1 43 15 4f 1e a6 bc e6 a3 62 5c e1 21
       -1.4400883e-18 1.09628856e-20 -2.5016546e-17 1.5271047e-18
0001c0 e0 5b 64 21 4f 61 8d 9e 64 85 b5 a5 1f 6a 48 9e
       7.7371e-19 -1.4969202e-20 -3.1488884e-16 -1.0609857e-20
0001d0 94 6d 70 35 05 d8 87 a2 4a db 33 b4 6c e2 f5 9e
       8.9566424e-07 -3.6820543e-18 -1.6750451e-07 -2.603403e-20
0001e0 e4 6b 46 23 7f 02 c5 36 06 3f e4 a1 34 29 c5 a3
       1.0756448e-17 5.871348e-06 -1.5466563e-18 -2.1376233e-17
0001f0 45 e7 8b 1e d3 01 6d b1 ea 42 d9 9f 4c e4 96 a0
       1.4812848e-20 -3.4489076e-09 -9.2013775e-20 -2.5562063e-19
000200 da 3f 95 1d 75 81 4a 1f 2b 2b e7 a4 f9 d3 e2 9d
       3.9505993e-21 4.2882248e-20 -1.0025341e-16 -6.0040876e-21
000210 c6 16 0e 1e c0 b3 c6 af 47 d7 3d 20 8f b6 3a 22
       7.522127e-21 -3.614371e-10 1.6080152e-19 2.5304346e-18
000220 9a d5 4c 20 17 58 41 9d 0c f1 9d 2f 70 ab b1 9e
       1.7350147e-19 -2.5588879e-21 2.8729408e-10 -1.8811509e-20
000230 8c 02 79 1f c0 7c 96 9c d4 19 31 a0 ee 75 7a 9e
       5.2729908e-20 -9.958414e-22 -1.5001029e-19 -1.3259277e-20
000240 12 5d 4e 1d 97 a4 26 1d 06 d6 81 9f fa c7 0b 9e
       2.731199e-21 2.2055008e-21 -5.49877e-20 -7.399953e-21
000250 8b 26 88 af 16 09 00 9e a8 de 81 af b5 c8 4c 1f
       -2.4765642e-10 -6.7781425e-21 -2.362317e-10 4.33647e-20
000260 28 96 02 1e fe e9 a8 30 9d a3 ce 9d d7 a2 03 9c
       6.913194e-21 1.2290113e-09 -5.469692e-21 -4.355473e-22
000270 b4 8c 1f 9c d1 fb 2b ae 42 b9 2b 1d 14 1c 01 9f
       -5.279054e-22 -3.9104556e-11 2.2727438e-21 -2.7340038e-20
000280 89 32 4c 22 b8 77 16 22 dc ea 28 29 ea 73 20 a1
       2.7673908e-18 2.039217e-18 3.75072e-14 -5.436352e-19
000290 61 ad 1e a5 77 68 2f b3 98 b2 8d a7 17 c7 1c 29
       -1.3763059e-16 -4.0840373e-08 -3.9328993e-15 3.481164e-14
0002a0 9d c9 13 a7 f3 2d df 9e c2 41 fd 35 84 3a 0c a0
       -2.0509643e-15 -2.3630048e-20 1.8869107e-06 -1.1877822e-19
0002b0 69 8e 34 23 98 46 8c 24 5b bd 9e a7 d3 5a 92 a3
       9.787976e-18 6.083491e-17 -4.405911e-15 -1.5867817e-17
0002c0 b9 6e 88 22 91 05 fb a0 56 eb 5f 25 ed 9c 24 1d
       3.6980106e-18 -4.2524737e-19 1.9421902e-16 2.1786348e-21
0002d0 73 52 88 b8 a9 e0 5c 23 68 f1 4e b6 b4 46 02 20
       -6.500343e-05 1.19737975e-17 -3.083691e-06 1.1034822e-19
0002e0 c8 9a fa 23 6c 3e 11 b8 29 63 6c a3 f7 16 f3 22
       2.7170607e-17 -3.462883e-05 -1.2814584e-17 6.5889597e-18
0002f0 c6 49 92 20 68 a3 ee b3 43 df 62 24 fc 40 82 23
       2.478218e-19 -1.1112462e-07 4.9195048e-17 1.412215e-17
000300 22 bb 45 1c 64 2f 55 21 02 b2 ac a7 29 b4 eb 9f
       6.5423696e-22 7.222993e-19 -4.7932587e-15 -9.982442e-20
000310 9f 85 29 9f bc f2 92 b0 68 c3 6e 22 bd 42 2d 22
       -3.589767e-20 -1.0691887e-09 3.2358462e-18 2.3481203e-18
000320 d1 49 af 22 f9 be a8 9c 9e 9f 95 b4 87 da ac 9c
       4.7512e-18 -1.1166673e-21 -2.786955e-07 -1.1438493e-21
000330 64 56 c8 a1 2c fa 56 9d f1 45 db 1f 08 6a 84 21
       -1.3575395e-18 -2.8452e-21 9.2865816e-20 8.972734e-19
000340 32 c1 33 20 e2 29 c1 1e c1 a8 a1 24 01 fa 55 1c
       1.5225813e-19 2.0451992e-20 7.01085e-17 7.079891e-22
000350 07 d1 9a b5 52 98 36 21 ca d6 28 b3 6b 15 48 9c
       -1.1534729e-06 6.1865593e-19 -3.9310898e-08 -6.620213e-22
000360 11 0f c8 1d ec 1d b0 34 9e d8 8f 1d 84 a2 92 1e
       5.2955138e-21 3.2804326e-07 3.807576e-21 1.5525566e-20
000370 84 82 2c 1b 87 85 2a b1 fa d4 59 1d 60 e9 96 1f
       1.4269678e-22 -2.4814157e-09 2.8829817e-21 6.391356e-20
000380 9f a5 8b 9f 0d f9 a6 24 15 5e 96 29 05 1c 2a 22
       -5.914279e-20 7.241293e-17 6.677659e-14 2.305413e-18
000390 15 13 98 a4 2b 63 ab 32 cb 12 60 a6 5e 21 59 23
       -6.595182e-17 1.9952116e-08 -7.774108e-16 1.1770659e-17
0003a0 1a ae e2 a5 60 78 6b a1 b3 4b c7 34 a1 31 5f 20
       -3.9322726e-16 -7.978041e-19 3.7121717e-07 1.8905256e-19
0003b0 3a 15 7c a3 f1 5b e4 22 a1 b3 33 25 48 bf 20 a3
       -1.3665442e-17 6.189687e-18 1.5586636e-16 -8.714123e-18
0003c0 0c a2 b1 a3 ce 66 01 a3 4f ba 43 a5 cb e2 9c 9d
       -1.9259008e-17 -7.014874e-18 -1.6976678e-16 -4.1527355e-21
0003d0 7d 92 b5 b6 5a 01 1c a3 ae a9 cf 34 69 8f 21 1f
       -5.411274e-06 -8.457063e-18 3.8680213e-07 3.4211702e-20
0003e0 25 78 97 a3 2a 9c ef 35 dc 79 fe 22 73 1b f0 a4
       -1.6422336e-17 1.7852337e-06 6.897586e-18 -1.0412991e-16
0003f0 06 50 05 1e 85 5f 13 b2 41 22 b2 22 a9 56 04 23
       7.05751e-21 -8.578245e-09 4.8283264e-18 7.174085e-18

gnn.init_context.attentive_gru.gru.weight_hh f4 [96, 32]
000000 30 3c 95 38 76 50 26 33 2a a5 66 ae 8f c6 34 35
       7.1160845e-05 3.8723066e-08 -5.244264e-11 6.7344166e-07
000010 95 96 53 32 c6 a9 5d b6 a4 11 8a 36 42 21 7d b8
       1.2316055e-08 -3.3030387e-06 4.114774e-06 -6.0350874e-05
000020 a7 8f e3 b3 52 55 57 39 3d 99 4e af 05 09 38 b6
       -1.05966414e-07 0.00020535782 -1.8790032e-10 -2.7423387e-06
000030 ee 24 8d 2f cf 3a a0 b0 7a 0a 43 36 bb 68 cf b6
       2.567399e-10 -1.1658247e-09 2.9063362e-06 -6.181273e-06
000040 0c 85 51 b7 cc fc 84 b4 f4 36 11 b8 e6 b6 f8 a5
       -1.2488348e-05 -2.477085e-07 -3.4621873e-05 -4.314508e-16
000050 b0 9f aa b8 15 6b 0f b4 f0 1f 59 b3 14 35 36 2e
       -8.135976e-05 -1.3356869e-07 -5.0553297e-08 4.1429152e-11
000060 e0 4e b5 b1 c8 e2 3c 34 de d1 95 35 d3 2c 7f 34
       -5.2767604e-09 1.7591367e-07 1.1162444e-06 2.3765033e-07
000070 10 dc bc 28 a8 8a 4b b4 28 bd fd b5 71 21 aa 37
       2.096763e-14 -1.8956291e-07 -1.8905021e-06 2.0281152e-05
000080 94 5f 8d 35 41 91 2a b6 64 8f ad 2e 5b 1f c8 b4
       1.0533136e-06 -2.5416523e-06 7.8926005e-11 -3.7275717e-07
000090 e6 00 18 b1 a6 5a cf b7 37 c3 89 33 11 6f 19 b6
       -2.2119422e-09 -2.4718534e-05 6.415069e-08 -2.2863426e-06
0000a0 25 6f 7f b2 23 ed d9 b8 61 65 03 2f 75 d6 4c 35
       -1.4868225e-08 -0.000103915365 1.1950398e-10 7.6308e-07
0000b0 ae 2c 69 2b 94 5e 12 b5 6a 3a a9 b5 03 57 9f b5
       8.2840234e-13 -5.452687e-07 -1.2608482e-06 -1.1871747e-06
0000c0 a9 33 4e 35 61 62 ed b2 9c 84 48 b3 9f a2 e3 24
       7.6816156e-07 -2.7635169e-08 -4.6686736e-08 9.872105e-17
0000d0 17 dd 5b 37 61 9b 26 b1 78 ea c3 ae 94 21 da ad
       1.3104894e-05 -2.4244502e-09 -8.9092234e-11 -2.4798642e-11
0000e0 12 7b 9d b3 a9 bd 9c 32 e7 f6 83 36 f4 63 76 b3
       -7.3332686e-08 1.8247038e-08 3.9328474e-06 -5.7367245e-08
0000f0 ef a3 46 a4 ec 3f 59 38 d5 74 b5 32 96 29 87 38
       -4.3073263e-17 5.1796364e-05 2.1124302e-08 6.4450476e-05
000100 81 4b e3 a8 1e e0 73 a7 c5 a8 9a a6 d0 68 52 a7
       -2.5234807e-14 -3.3844519e-15 -1.0731642e-15 -2.9200173e-15
000110 46 37 e9 24 8a 48 a8 a9 76 0d e6 a5 ab a5 b2 27
       1.0114128e-16 -7.473282e-14 -3.9907761e-16 4.9584542e-15
000120 5b 44 57 a8 51 47 22 ab 6c e0 1d a0 29 98 2f 29
       -1.194972e-14 -5.7652933e-13 -1.3372672e-19 3.8989784e-14
000130 c6 6a 5e 23 f5 4a 66 a8 ad 94 60 a7 a1 0b 10 aa
       1.2057254e-17 -1.27838185e-14 -3.1166842e-15 -1.2793804e-13
000140 46 cb 84 28 0f 80 9d a7 94 47 ab a5 a0 f0 e2 21
       1.47431e-14 -4.3715095e-15 -2.9712275e-16 1.5378049e-18
000150 e5 06 86 a9 a7 ad fb a7 50 5f b7 21 39 d2 8d 24
       -5.9519914e-14 -6.985477e-15 1.2425791e-18 6.1505134e-17
000160 bd dd 9e 28 0c ea e4 26 f0 11 5f a8 45 e3 85 a2
       1.7637687e-14 1.5884117e-15 -1.2382876e-14 -3.6290353e-18
000170 eb f2 a1 a0 a4 49 2f 27 55 2f b3 a7 b9 38 b0 a9
       -2.743521e-19 2.432605e-15 -4.9733798e-15 -7.82581e-14
000180 af 0b 1d 35 64 ba 5c 38 87 4c 28 ad d4 0d 09 b7
       5.850406e-07 5.2625677e-05 -9.566687e-12 -8.169056e-06
000190 5c 0a 97 b2 bd 56 02 34 d4 4a 52 32 9b 8e b3 b5
       -1.7583424e-08 1.2138749e-07 1.2240623e-08 -1.3378043e-06
0001a0 40 f7 c5 b3 6e c7 cb b9 e5 a1 ef 2d 66 bd cb af
       -9.218502e-08 -0.00038867764 2.724305e-11 -3.706006e-10
0001b0 80 11 1e 2d 1e f9 db 35 26 b1 8b b4 82 5b 0d b5
       8.985146e-12 1.6389274e-06 -2.601966e-07 -5.2659755e-07
0001c0 8a e9 47 35 bc e6 22 b4 d8 69 ca b4 74 ff 7f a3
       7.447312e-07 -1.5171366e-07 -3.7702443e-07 -1.3877672e-17
0001d0 d8 15 94 36 d9 78 99 b3 6b 67 a3 b0 13 47 a7 ac
       4.4132867e-06 -7.1466e-08 -1.1889204e-09 -4.7543163e-12
0001e0 cb 16 3e b1 e0 22 9a b2 85 d3 7e 35 fb 34 53 b5
       -2.7661595e-09 -1.7943819e-08 9.4930175e-07 -7.868072e-07
0001f0 74 a9 ce 25 64 c2 f5 36 62 bb 9f 36 61 a4 aa 37
       3.585013e-16 7.324199e-06 4.7603835e-06 2.0342124e-05
000200 49 d4 8f 33 87 29 b0 2f e7 e5 90 a9 a0 31 dc b0
       6.697571e-08 3.204372e-10 -6.434766e-14 -1.6021211e-09
000210 a4 29 b7 2e 3e 1f 1a 31 d6 f8 13 b0 1e fe 99 33
       8.3292734e-11 2.2427709e-09 -5.3831906e-10 7.170841e-08
000220 64 8e 96 2e bf 3e 9b b3 3c b6 c5 ab 30 21 6b ae
       6.846504e-11 -7.2291634e-08 -1.4048272e-12 -5.346229e-11
000230 e4 a3 82 ab 4e e5 cc ae eb e6 0c 30 5c 03 9d 31
       -9.282544e-13 -9.317579e-11 5.125986e-10 4.5696833e-09
000240 32 77 2f b0 19 fc c1 30 15 5a 51 b2 21 fa 70 a2
       -6.3834016e-10 1.4114249e-09 -1.2185883e-08 -3.2658482e-18
000250 35 2f 00 33 49 93 18 31 00 2d 4d b1 7a db 96 28
       2.9845257e-08 2.2202633e-09 -2.9857006e-09 1.6748528e-14
000260 ef 7e 9b ae e7 5b 14 2f 3a cc 0c 2f 8b 33 a3 ad
       -7.071132e-11 1.3493172e-10 1.2805482e-10 -1.8553844e-11
000270 65 c0 68 a3 6c 75 f2 2f 5d be 0e 31 bc f3 28 b3
       -1.2617486e-17 4.4102977e-10 2.0771929e-09 -3.9337223e-08
000280 f5 06 04 b9 90 ba 93 b7 4c 82 97 2f 79 06 22 b5
       -0.00012591093 -1.761064e-05 2.7559321e-10 -6.035912e-07
000290 68 10 7c b2 53 52 1e ba 6c 4b 5c 34 e3 a0 d3 38
       -1.4672061e-08 -0.0006039489 2.0516535e-07 0.000100912315
0002a0 64 dc ea 34 9f d9 b4 3a 05 24 cd af a8 f8 68 b6
       4.3746252e-07 0.0013797766 -3.7314876e-10 -3.471543e-06
0002b0 03 70 b5 ad 40 6c 08 37 a6 b5 8e 37 60 53 bd b9
       -2.062706e-11 8.131436e-06 1.7012306e-05 -0.00036111008
0002c0 e6 56 d5 b6 bd 87 ce 36 97 69 10 37 1f 6b 1a a5
       -6.358011e-06 6.1550804e-06 8.607653e-06 -1.3393665e-16
0002d0 fe d2 94 b9 da 4c 7c 34 09 1c be 33 64 f9 35 2d
       -0.0002838596 2.3497287e-07 8.852664e-08 1.0344035e-11
0002e0 ce 73 48 b6 09 21 fd b4 7e 52 d5 35 39 36 b9 b5
       -2.986973e-06 -4.7148959e-07 1.5893745e-06 -1.3799355e-06
0002f0 a7 df 9a 27 99 47 08 b8 12 b5 95 b7 3b 1c 39 3a
       4.298607e-15 -3.2491607e-05 -1.7846502e-05 0.00070613966
000300 5c e1 42 34 6a 00 0b b5 8a 57 a8 ac 3d 54 13 32
       1.8149643e-07 -5.178214e-07 -4.784566e-12 8.57568e-09
000310 a3 30 cb 30 db 9b 03 b4 81 7e 99 b2 2c b7 93 b4
       1.4784017e-09 -1.2257026e-07 -1.7869072e-08 -2.751416e-07
000320 73 d1 ce b1 d4 70 93 39 e9 02 6a ac 90 8b 5e b0
       -6.0192007e-09 0.00028122088 -3.3255015e-12 -8.096146e-10
000330 32 e1 09 ac 72 62 1f b3 c1 0b 35 32 e1 bc ed 35
       -1.959388e-12 -3.7109608e-08 1.0538259e-08 1.7712847e-06
000340 95 b9 d7 b4 58 36 5b b1 04 88 b8 32 40 b4 93 22
       -4.01819e-07 -3.1899585e-09 2.1482272e-08 4.0035277e-18
000350 5b d5 2b b6 cd e6 ae b4 29 83 af 30 ac a0 a3 ab
       -2.5605175e-06 -3.2577955e-07 1.2770204e-09 -1.1626442e-12
000360 15 f6 9c b0 a7 fa 5e b0 aa 3c 1d b5 9e 62 77 b2
       -1.1420435e-09 -8.111933e-10 -5.8575336e-07 -1.4399715e-08
000370 35 b1 01 a4 08 3f 07 37 81 14 84 32 4e ed af 38
       -2.8122516e-17 8.061303e-06 1.5376147e-08 8.388852e-05
000380 b0 88 83 36 50 52 a2 34 23 37 17 ae 88 72 5c b5
       3.9200168e-06 3.0234742e-07 -3.4382396e-11 -8.212305e-07
000390 f0 ea 84 33 9f 69 0d b6 a9 db c4 34 13 41 d5 38
       6.189464e-08 -2.1072117e-06 3.666767e-07 0.000101687525
0003a0 6f 62 bb b3 b2 0e d7 39 7c e5 57 ae 19 f2 a7 34
       -8.725771e-08 0.00041018944 -4.9089163e-11 3.1282323e-07
0003b0 f3 20 71 ae 57 07 14 34 a2 7f eb b5 25 04 1a 38
       -5.482632e-11 1.3786244e-07 -1.754601e-06 3.672032e-05
0003c0 70 91 a8 b6 f7 d4 2d b4 ca 2f 0a 36 1b f0 4e 26
       -5.0237213e-06 -1.6189357e-07 2.059142e-06 7.179601e-16
0003d0 e7 d9 4f 37 d6 a1 dd 33 a6 1c fd b3 d9 cc 14 2e
       1.2388896e-05 1.0320552e-07 -1.1786442e-07 3.3833245e-11
0003e0 71 28 08 b4 3c 73 42 31 86 c6 92 b5 d6 e1 48 b4
       -1.26807e-07 2.8296219e-09 -1.0935626e-06 -1.870861e-07
0003f0 0e da d8 a6 7b 84 83 b6 95 b0 6b 36 a0 30 ad 37
       -1.5047115e-15 -3.919527e-06 3.5120513e-06 2.064585e-05

gnn.init_context.attentive_gru.gru.bias_ih f4 [96]
000000 2a 76 0b 38 5f b8 83 b9 fb 8a 3e 2a 17 65 bb b8
       3.325023e-05 -0.00025123634 1.6923609e-13 -8.935684e-05
000010 43 0a de b2 ee e6 1e 3a c6 7b ce b8 02 e5 4a 38
       -2.5848868e-08 0.0006061633 -9.8459e-05 4.8373833e-05
000020 a7 49 55 33 a8 18 02 3c ec aa e7 32 55 3d 15 b7
       4.9659914e-08 0.007940449 2.6969666e-08 -8.895372e-06
000030 ec 62 66 9d e5 3f c8 36 9b 6e a9 ba 6a 28 f4 3b
       -3.0491388e-21 5.967903e-06 -0.001292664 0.007451107
000040 c2 69 5e b7 15 8e 58 b3 a6 57 8a b7 1b 41 99 9c
       -1.3256855e-05 -5.0420642e-08 -1.6491696e-05 -1.014152e-21
000050 4c 67 98 bc 6f aa cb b4 d6 79 b8 b4 2d 4f ce 9c
       -0.018603943 -3.7935703e-07 -3.4361318e-07 -1.3652403e-21
000060 be 5d 9c 32 f4 37 29 b4 57 da 8a 39 01 09 18 b6
       1.820342e-08 -1.5759707e-07 0.00026484087 -2.2655006e-06
000070 a0 3c 1f a2 04 06 fb 3b 6b 46 11 b6 15 0f 71 ba
       -2.1580613e-18 0.007660629 -2.1647672e-06 -0.0009195668
000080 9d 1c 3f 38 61 77 1d 39 b9 1d af aa 11 e2 c1 37
       4.5564597e-05 0.00015017159 -3.110687e-13 2.3112663e-05
000090 84 fe ad b2 61 8f b6 bb da be 10 38 ec 15 19 38
       -2.0255591e-08 -0.0055712913 3.451002e-05 3.649846e-05
0000a0 c9 fe cb b4 09 76 69 3e 53 3d 32 2f 29 8e 3f 37
       -3.7997077e-07 0.22798933 1.6210792e-10 1.1417586e-05
0000b0 a0 11 b6 9c 9c d6 15 39 a2 7f 1b bb cb f8 94 bb
       -1.2048306e-21 0.00014289696 -0.0023727198 -0.00454626
0000c0 2d b9 e1 b6 46 4a 29 b4 4e 0a be 36 c0 a6 5d 1e
       -6.72708e-06 -1.5766372e-07 5.663641e-06 1.1734126e-20
0000d0 7c c3 c5 3c ed d0 59 b3 aa f1 ae b4 a5 f4 f9 1d
       0.024141066 -5.0714267e-08 -3.258586e-07 6.6162708e-21
0000e0 20 94 cf 31 53 bf 41 b3 0d ce 8f ba 72 6c 48 35
       6.0413328e-09 -4.5110323e-08 -0.0010971442 7.4663615e-07
0000f0 9f 9d 96 a4 68 0e 7d 3c 9a 83 62 b6 70 24 26 3e
       -6.531915e-17 0.015445329 -3.3753226e-06 0.16224837
000100 f0 2f 0b bb c2 13 ba bb e0 68 97 32 b1 32 d1 b9
       -0.002123829 -0.005678625 1.7626405e-08 -0.00039901354
000110 fb d6 38 b7 61 96 67 3c b4 95 27 bc 9b 9e ba b9
       -1.1017309e-05 0.014134974 -0.010228563 -0.00035594855
000120 9d b6 a9 b9 c3 5a 03 be 96 de e7 b6 f9 31 50 3a
       -0.0003237025 -0.12827592 -6.910249e-06 0.0007942017
000130 b3 e9 b3 b4 03 db c0 bb 02 f0 80 bc a5 f7 81 bc
       -3.3511387e-07 -0.005885483 -0.015739445 -0.015865156
000140 0d e6 82 bc c2 3e 4d b9 d7 88 b2 b9 df 61 d0 ab
       -0.015978837 -0.00019573703 -0.0003405276 -1.4806454e-12
000150 8e 2e 4b be c9 9c b1 b8 94 e3 b3 35 8b 90 57 1f
       -0.19841978 -8.469221e-05 1.3402773e-06 4.5647584e-20
000160 c8 45 0b b8 6d f4 21 ba 40 5d 32 bc 09 d6 7b b9
       -3.320517e-05 -0.0006178085 -0.01088649 -0.0002401696
000170 91 fd 6f aa 01 28 39 3c cc 97 e3 b7 55 55 30 3b
       -2.1315438e-13 0.011301042 -2.7131195e-05 0.002690633

gnn.init_context.attentive_gru.gru.bias_hh f4 [96]
000000 a5 ba f7 37 43 43 7d b9 51 3a 16 2b 90 88 be b8
       2.9531608e-05 -0.00024153017 5.3371635e-13 -9.085343e-05
000010 84 04 ef b2 fc 68 30 ba 94 34 d2 b8 3a 85 04 38
       -2.7825315e-08 -0.0006729511 -0.00010023374 3.159533e-05
000020 5f f2 4c 33 6a be 02 3c 74 2e bf 32 3e 7d 13 b7
       4.7717887e-08 0.007979969 2.2256451e-08 -8.791043e-06
000030 95 f1 8a 1d 19 88 c2 36 22 cf c8 ba c2 80 19 3c
       3.6778086e-21 5.7974944e-06 -0.001532052 0.009369077
000040 1f 82 5e b7 ef b5 43 b3 1a e3 75 b7 c0 b6 6a 9d
       -1.3262527e-05 -4.5567443e-08 -1.4656014e-05 -3.1064122e-21
000050 85 9e 91 bc 48 63 ca b4 72 a5 b6 b4 a3 c2 0d 1d
       -0.017775783 -3.769767e-07 -3.402052e-07 1.876182e-21
000060 65 aa d3 33 99 4f 39 b4 78 31 16 39 6f 12 19 b6
       9.856448e-08 -1.7258425e-07 0.00014323543 -2.2809506e-06
000070 9d 21 b1 a3 e8 0c 01 3c ab 21 35 b5 7b 15 71 ba
       -1.9204614e-17 0.007876612 -6.747675e-07 -0.0009196621
000080 8a 71 b0 38 12 be bd 38 94 44 a0 aa 2a 91 78 37
       8.413482e-05 9.047626e-05 -2.8469295e-13 1.4815751e-05
000090 2b ac a9 b2 90 71 b8 bb 44 60 10 38 8e 87 53 b8
       -1.9752482e-08 -0.005628772 3.442193e-05 -5.0432565e-05
0000a0 bf ad e9 b3 06 76 69 3e 89 b7 75 af 5d dc 3c 37
       -1.0881512e-07 0.22798929 -2.2347825e-10 1.12569805e-05
0000b0 45 4d 69 9d b4 df 15 39 c5 be 37 bb a9 b0 8f bb
       -3.087724e-21 0.00014293083 -0.0028037291 -0.004385073
0000c0 dd bd e1 b6 e4 49 62 b4 88 d0 ca 36 e9 16 a8 1e
       -6.7276255e-06 -2.1074771e-07 6.0443454e-06 1.7797167e-20
0000d0 ad 8f c5 3c 4c 73 59 b3 59 ba a6 b4 a2 4f 0a 1e
       0.024116362 -5.062911e-08 -3.1055495e-07 7.322127e-21
0000e0 1d 53 73 32 d2 f9 41 b3 25 ca 8f ba 29 74 3f 35
       1.4163359e-08 -4.5163524e-08 -0.0010970278 7.132208e-07
0000f0 ec a9 8c a4 35 e8 78 3c 82 51 62 b6 8f 24 26 3e
       -6.100318e-17 0.015192081 -3.3724068e-06 0.16224883
000100 d9 da 17 bb f0 91 b1 3b c7 7a 52 33 8c 86 7e 3a
       -0.0023171215 0.0054190084 4.90061e-08 0.000970938
000110 90 01 6e 35 78 7e 1e bc 55 42 15 bc c9 62 42 bb
       8.866418e-07 -0.009673707 -0.009110053 -0.0029660931
000120 6e 2e 14 b9 bf ec 19 bd b1 85 87 35 bc 45 d0 3a
       -0.00014131676 -0.037579294 1.0097193e-06 0.0015889923
000130 2f 99 cd a6 3d 68 81 bb 6d d4 e0 3a 85 36 e5 3b
       -1.4266253e-15 -0.0039491937 0.0017153152 0.0069950246
000140 b1 e0 53 38 4f eb 1f b8 43 5b b8 b8 21 34 c3 aa
       5.051558e-05 -3.8127702e-05 -8.7908025e-05 -3.467513e-13
000150 99 21 04 be 70 f0 3f b8 ff 79 00 b6 63 2b 97 1d
       -0.12903441 -4.5761873e-05 -1.9144497e-06 4.001423e-21
000160 9e 20 ca 37 6d 15 ea 39 fc 36 28 bc 91 1e 7a b8
       2.4095465e-05 0.00044647921 -0.010267016 -5.9633112e-05
000170 b7 3c b4 aa 30 f0 7b bd e8 00 8c b9 ce ac f7 bb
       -3.2016552e-13 -0.061508358 -0.00026703556 -0.0075584417
