Results/GAT/47/model.pth (torch, 690139 bytes, 20 tensors)

gnn.gnn_layers.0.gat_conv.attn_l f4 [1, 8, 32]
000000 2c 9a 88 bc 75 06 74 39 33 7b b9 bd ac ac 94 3c
       -0.016675077 0.00023272059 -0.090567015 0.018148743
000010 d9 58 8b 3a e0 2f 33 bd 3e 67 68 bd 18 f2 50 3c
       0.0010631337 -0.04374683 -0.056739084 0.012753032
000020 28 fd ba bd 84 48 1e 3c 41 89 ae bd fe 1b 3b 3b
       -0.09130317 0.009660844 -0.08522273 0.002855062
000030 35 08 c1 3c 76 d6 83 3e 29 2f 0a 3e 45 cb 8c 3d
       0.023563484 0.25749558 0.13494553 0.06874708
000040 ee 55 e0 bb e2 19 1a bd b1 5d c2 ba 73 52 09 bd
       -0.006846181 -0.03762234 -0.0014828948 -0.033525895
000050 29 c2 3a 3d 83 78 c8 3b 23 48 e5 3c 05 09 94 3d
       0.04559532 0.0061178817 0.027988499 0.07228283
000060 54 f6 4b 3b da ad 1c bd 73 79 4c bb 92 4b 85 3d
       0.0031122165 -0.038251735 -0.003120032 0.065085545
000070 7a 34 25 3d 0e 6a 15 bd cb 7b 31 3d f4 75 32 bb
       0.04033325 -0.036478095 0.04333095 -0.002723095
000080 ae 37 3a 3e 1c 48 8e b9 23 40 84 bd 19 c7 f7 bd
       0.18185303 -0.00027138076 -0.064575456 -0.12098522
000090 6e 7a 84 3c 0b 71 87 3d 34 f2 70 3b 7e 23 ab bc
       0.01617166 0.06613358 0.0036765458 -0.020890947
0000a0 47 ef f1 3d 51 d6 06 3e ad 57 11 3e 99 5c 3d 3e
       0.11813217 0.13167693 0.14193602 0.18492354
0000b0 1b d8 f9 3c 58 d8 fb bc c2 34 8b bc 79 89 43 3e
       0.030498555 -0.03074281 -0.01699293 0.1909541
0000c0 6d 13 30 3d 21 05 86 3d 93 9a 76 3d b6 95 0f be
       0.042987276 0.06543947 0.060206007 -0.14021954
0000d0 85 df 28 be b2 3e 8e bb 26 30 80 3c 1d 73 96 bc
       -0.16491516 -0.00434097 0.015647959 -0.018365437
0000e0 e9 b6 f9 3c cd 4c 8c 3d 07 50 33 3d ec 57 1c 3d
       0.030482726 0.06850586 0.043777492 0.038169786
0000f0 ae 88 9c bd 99 f3 0c bd 59 03 6f bd fc c6 16 bc
       -0.07643257 -0.034412 -0.058352802 -0.009202715
000100 72 9a 68 3d 75 0d 2e 3d 1f e0 c6 3c 84 ab 65 3d
       0.056787916 0.042493302 0.024276791 0.056071773
000110 b7 f8 15 3c b1 f3 8e 3c 62 e2 31 3a 6d 59 a1 3c
       0.0091535365 0.017450185 0.0006785748 0.019695962
000120 72 3f 03 be c5 ee 10 3c 1a a1 70 bb b0 47 75 3d
       -0.12817171 0.00884599 -0.0036717118 0.05988282
000130 00 14 9c 3d f5 89 33 bd d0 03 f7 bd 53 b8 b3 3d
       0.07621002 -0.043832738 -0.12061274 0.087753914
000140 b4 8d d6 3b 96 b5 dc bd 8e fa 49 bd 05 1f f1 3d
       0.006547654 -0.10776822 -0.049311213 0.11773495
000150 83 02 d0 3d 5b f9 bb 3c 3d 27 af 3d 1a 5a c4 3d
       0.10156729 0.02294605 0.08552406 0.09587498
000160 3a dc ea 3c 04 d9 9b bc a9 ca aa 3d b5 63 88 3c
       0.028669465 -0.01902438 0.083394356 0.016649107
000170 89 3b d8 bb 87 ba 92 3c bd d9 ae bd da 3e 07 3e
       -0.006598894 0.017911209 -0.08537624 0.1320757
000180 09 f0 c6 3b be 42 f9 bc b4 94 0c 3e 69 6d 5a bd
       0.006071095 -0.030427333 0.137286 -0.053326998
000190 eb 62 c9 3d 37 96 01 3d 35 6d af bc 4d ad 5f 3c
       0.0983332 0.031637397 -0.021414379 0.013652158
0001a0 8a 19 1a 3c b7 3d a5 bc 17 30 84 3d 14 11 b7 3c
       0.009405503 -0.02017103 0.06454485 0.02234701
0001b0 94 65 43 be 4c 90 2b be cd 9a a2 3d 98 8d 4b 3d
       -0.19081718 -0.16754264 0.07939682 0.04969558
0001c0 bf 29 f5 bc fe 9d 97 3d 87 d1 6a be 8e 16 cb 3c
       -0.029927133 0.074031815 -0.22931491 0.024791028
0001d0 43 88 c5 ba 53 52 98 bb 0c 5f c4 3e dc c5 ed 3b
       -0.0015070516 -0.0046484857 0.38353765 0.0072562527
0001e0 0d a8 14 bd 12 4d 78 3e 45 ab 57 3b 54 e8 a8 bc
       -0.03629308 0.2424815 0.003290848 -0.020618595
0001f0 34 ca 0d 3c 76 9a ec 3d c4 cb 9a 3a fc 52 2e bd
       0.008654166 0.115528986 0.0011809994 -0.04255961
000200 a6 5b 1e bc a2 cb f4 bc 75 57 93 3a f9 e3 f3 bd
       -0.009665405 -0.029882256 0.0011241274 -0.11908717
000210 e3 7b a9 3a 6f 05 ad bd 8c ea 43 bd 4b 7a 46 3d
       0.0012930598 -0.08448302 -0.047831103 0.04845647
000220 37 bc 88 bd 14 b0 d3 3d 2b 55 53 3d 20 c5 7b bd
       -0.06676524 0.103363186 0.051594894 -0.06146729
000230 19 b5 79 bc 60 23 35 bc 4f d7 6f 3d ae ba 5a bd
       -0.015240931 -0.011055797 0.058554944 -0.053400688
000240 25 5c 89 bc 25 23 86 3c 26 f2 32 bb cb 68 da 3d
       -0.01676757 0.01637418 -0.0027304976 0.10664519
000250 f7 b6 cd bc 8a be 7b 3b 47 c7 23 bd e7 8f 91 bd
       -0.025111658 0.003841313 -0.039984968 -0.07107525
000260 dd 6f 03 3c c4 73 67 3d d5 89 5c 3c d2 b4 e2 bd
       0.008022276 0.056506887 0.013460596 -0.11069645
000270 f9 7b 22 3d dc 69 1b bc 0e 49 8f bd 70 eb 9b 3b
       0.03966901 -0.009485688 -0.06996356 0.004758291
000280 52 30 e9 3d e2 12 e2 3d 6e a4 61 bc cb 47 f0 bd
       0.113861695 0.11038758 -0.013772113 -0.117324434
000290 34 ae 86 bc b7 44 af bd 1f f0 8b bd 57 55 9d bc
       -0.016440488 -0.08558028 -0.06832909 -0.019205732
0002a0 21 70 92 bc ef a1 6f 3d 4c c3 62 3c 4b ba dd bd
       -0.017875733 0.05850404 0.013840508 -0.10826548
0002b0 43 1f 28 3c 8a e7 19 bd 00 f0 58 3c e3 28 1a bd
       0.01026136 -0.03757433 0.013240814 -0.03763665
0002c0 dd 11 03 3c 70 77 4f 3c 06 99 c7 3d 31 01 e3 3c
       0.007999864 0.012662753 0.09745984 0.027710529
0002d0 f3 d4 8d bd f7 46 32 bd 9a 48 ac 3d b0 45 8f 3d
       -0.069253825 -0.04352471 0.08412285 0.06995714
0002e0 02 c7 36 bc 5b 82 9c bc 25 bf 27 bd 6f 0c 34 3e
       -0.011155846 -0.019105127 -0.040953774 0.17582868
0002f0 d6 a2 0c bb b8 41 fa 3c 84 37 37 3d cc b6 d6 bb
       -0.0021459362 0.030548915 0.04473068 -0.006552553
000300 53 96 34 bc f2 ab 41 bb 00 ff 21 bc 84 d9 9e bb
       -0.011022168 -0.002955195 -0.009887457 -0.004847707
000310 c4 d0 f4 3b 34 65 1f 3c 14 52 28 bd e5 2c 04 bb
       0.007471176 0.009728719 -0.0410939 -0.002016836
000320 10 aa 84 bb 78 c4 c4 3c b2 04 39 bc dd 27 2a bb
       -0.0040485933 0.024019465 -0.011292623 -0.0025963702
000330 84 e2 95 3b 7b f6 41 3a 1a 98 90 ba a7 dc c9 3d
       0.004574122 0.0007399094 -0.0011031658 0.09856539
000340 8d 31 15 3c a7 f1 fb bb 80 52 c1 3c 7f 67 dd 3b
       0.009106052 -0.0076887193 0.02359891 0.0067567225
000350 7a 53 83 3c b8 59 3a bc f5 f9 77 3c 67 6a 9c 39
       0.016031016 -0.01137393 0.015135278 0.00029833915
000360 c0 e9 75 bc ab 47 f8 bc 94 e6 70 ba b0 f6 01 bb
       -0.015009344 -0.030307611 -0.0009189632 -0.0019830875
000370 ca dd f2 3c 86 d9 66 bd da 34 42 bb 2c 65 1f bb
       0.029646773 -0.05635979 -0.0029633553 -0.0024321778
000380 4e 7a 2a bc 69 bf fe 3d 75 86 b2 3d 7a 63 b7 bd
       -0.010405136 0.12438852 0.08717052 -0.089545205
000390 70 e0 dc bd 82 a6 e6 3c 45 b7 aa 3b 04 2d c9 3d
       -0.107849956 0.028155569 0.0052098357 0.09823039
0003a0 31 40 f2 bd 3c b4 68 bd 8d 98 40 3e b5 21 b0 bc
       -0.1182865 -0.05681251 0.18808194 -0.021500448
0003b0 68 4e 0f bd 4f fb 5c 3d f4 38 e1 bc 67 2f 2b 3e
       -0.034986883 0.053950604 -0.027492978 0.16717301
0003c0 b8 4b ef bd 50 f6 c2 bd d1 df d7 bc 71 47 20 bd
       -0.11684364 -0.09519637 -0.026351841 -0.03913063
0003d0 3a 5a 34 bd 01 ab 6b bd ff da da bc 84 af 38 3e
       -0.04403136 -0.05753613 -0.026715754 0.18035704
0003e0 d0 e7 57 bd b9 60 82 bd ae 93 0e 3b 52 c3 9d 3d
       -0.052711308 -0.06366105 0.0021755504 0.0770327
0003f0 74 1e 38 3d 49 fc c4 3d 09 4e 3e bc ac 34 4c 3c
       0.044950917 0.09618432 -0.011615285 0.01246373

gnn.gnn_layers.0.gat_conv.attn_r f4 [1, 8, 32]
000000 cf db 8a 3b f2 fa c9 3a 8b 6b b4 3a 2e 78 95 ba
       0.004237629 0.001540987 0.001376496 -0.0011403614
000010 7b 87 33 b9 d4 78 1a 3c 53 3e bd bb 11 c1 6f 3b
       -0.0001712124 0.009428222 -0.005775252 0.0036583582
000020 0a ab 2f ba 3e 5e d5 bb 3e ce 28 3b cf e0 e4 bc
       -0.0006701207 -0.0065114787 0.0025757696 -0.027939228
000030 a7 2d 8e bb 01 6a d0 bb a9 10 bc bc 94 e9 ba 3b
       -0.0043389383 -0.006360293 -0.022957163 0.005704114
000040 f6 38 d3 3b 48 62 e9 3b 29 86 21 ba 8a bd 52 bb
       0.0064459993 0.0071223117 -0.0006161654 -0.003215643
000050 72 4b ac ba e3 1a 73 3b 3f 18 86 ba 7c 53 69 bc
       -0.0013145043 0.0037094883 -0.0010230615 -0.014241096
000060 c3 33 a9 bb 88 42 97 bb 8b 7b 68 ba ed 7e 6b 3c
       -0.005163641 -0.0046160854 -0.0008868507 0.014373523
000070 46 5f 05 bc 78 11 fd 39 81 69 b6 bb 4f 9a 8d 3c
       -0.008140391 0.00048268936 -0.0055667763 0.017285494
000080 65 fa 3f bc 3d 7a 80 3c 73 94 20 3c a6 b5 a0 bc
       -0.011717414 0.015683288 0.009801018 -0.019617867
000090 ba 25 3b ba 82 10 31 3b 95 99 30 3a 5e 94 27 3c
       -0.00071391056 0.0027017896 0.00067367527 0.010228245
0000a0 9a a9 35 3c 6b 75 55 bc f8 99 8d 3b 20 29 6f bc
       0.011087799 -0.013028483 0.004321333 -0.014597207
0000b0 24 2a ea bb 64 6a 3c 3c 03 f7 72 3c c8 4a 57 bc
       -0.007146137 0.011499975 0.0148294 -0.013140388
0000c0 79 5c 16 bb c9 66 86 39 78 92 ca bb df e9 29 3c
       -0.0022943302 0.00025635053 -0.006182011 0.010370701
0000d0 c4 4c 64 3b f2 f6 00 39 8b ac 66 ba 67 7d ec 3b
       0.0034835795 0.00012299026 -0.00087995146 0.0072170976
0000e0 c5 b4 11 3b b5 8a a2 bb 02 22 49 3b a0 23 af b8
       0.0022232991 -0.004960383 0.0030690436 -8.351286e-05
0000f0 0c df 40 3c 95 de 2d 3a 1c fe 85 3a 4d d1 3f 39
       0.0117719285 0.00066325936 0.0010222825 0.0001829315
000100 c7 0e 1b ba d8 67 e3 bc ed 9b b4 3b 87 1d 4a 3c
       -0.0005914983 -0.027759477 0.005511752 0.012336141
000110 46 f5 86 3b 49 58 25 3c e1 26 59 39 b6 d3 09 3b
       0.0041185943 0.01009185 0.00020709216 0.002103073
000120 9f 3f ac bc 61 4a 08 3a 61 a3 8d 3b 29 7c 41 bb
       -0.02102643 0.00051990716 0.004322455 -0.0029523468
000130 8d 6b 15 bc 3a 85 d4 bc 5b 04 b2 bc d8 80 cf 3a
       -0.00911988 -0.025942434 -0.021730592 0.0015831245
000140 57 f2 08 3b f1 0f bf 3b 77 9d 12 3c ef bf 06 3c
       0.00208964 0.005830758 0.008948675 0.0082244715
000150 4b c0 85 3a 72 f4 5b bc 87 8e 07 bc c8 57 13 3b
       0.0010204402 -0.0134249795 -0.008273727 0.0022482742
000160 6a 91 39 bb 09 86 89 bc 90 86 51 3b 26 20 79 bb
       -0.0028315433 -0.016787546 0.0031971075 -0.0038013547
000170 32 aa 09 3c 53 a9 4c 3b 12 9d ae 3b 7f 50 52 3b
       0.008402394 0.0031228855 0.005328783 0.0032091436
000180 85 a7 26 bd 87 da 55 3c b8 13 a6 bc 03 40 1d 3c
       -0.040687103 0.013052589 -0.020273075 0.009597781
000190 00 b6 25 bd 1b c3 b9 b9 8b 8f ba 3c 08 89 d0 39
       -0.04045677 -0.00035431315 0.022773525 0.00039774948
0001a0 18 2d 4b bb b9 97 ff ba 96 ba f9 3c 1d a1 a6 3c
       -0.003100222 -0.0019500173 0.030484479 0.020340497
0001b0 29 55 a4 3c a6 84 01 3d ff 5e 5b bc 65 27 46 3c
       0.020060139 0.031620644 -0.013389348 0.012094353
0001c0 14 8b 95 3b 26 87 19 bd 00 81 c5 bc bc 2f 76 bc
       0.0045636985 -0.037482403 -0.024109364 -0.015026029
0001d0 b5 c0 9f 3b 91 5c 48 bb db 09 39 bc f1 53 83 bb
       0.0048752674 -0.0030572752 -0.011293854 -0.0040078093
0001e0 f7 16 77 3c 28 d9 24 3d 30 d7 c1 bc c0 fb fe 3b
       0.015081159 0.04024616 -0.02366218 0.007781476
0001f0 76 0e 78 3b aa f2 31 bc 66 1a e0 39 91 7b f5 3c
       0.0037850416 -0.010861078 0.00042744278 0.029966148
000200 85 b4 2b 3c ff 8a 8d 3c 0a ab 1b 3b f3 4a d9 bb
       0.010480051 0.017278193 0.002375307 -0.006631249
000210 7f 7b 97 b8 40 17 c1 ba 37 e1 d7 3a 0e ab 59 3a
       -7.223244e-05 -0.001473166 0.0016470317 0.0008303382
000220 04 02 1e 3c 4d 73 4e ba c2 8f 9d bc c9 de 5b 3c
       0.009644035 -0.00078754575 -0.019233588 0.013419815
000230 35 a1 3e bb 97 ff b1 3a d2 53 63 3c 28 dc 4b bb
       -0.0029087786 0.00135802 0.013874965 -0.0031106565
000240 7f f0 da ba ee 75 c3 3c 9c d7 a4 3b 7e 53 1b bb
       -0.0016703753 0.023859944 0.0050305855 -0.0023700888
000250 95 db 6c 3b ea 57 70 3a dd 08 d1 3b ef cd b9 bb
       0.0036141623 0.00091683737 0.0063792304 -0.005670301
000260 f3 27 0d bb b4 1b eb bb 04 97 9b 3b 80 eb 34 bc
       -0.0021538704 -0.0071749333 0.004748227 -0.011042476
000270 6c 18 25 3c b2 3f d0 bb 0e 88 05 3c 1e e5 f4 ba
       0.010076623 -0.0063552493 0.008150114 -0.0018684005
000280 6c fc 4f 3d 64 5d 53 bc 62 ab 0a bb ee f5 20 bc
       0.050777838 -0.012900684 -0.002115928 -0.009824259
000290 a9 53 25 3c e8 c4 17 3d 3f 64 14 bd 9d 23 66 3c
       0.010090747 0.03705302 -0.036228415 0.014046577
0002a0 2f 05 fc bb ef 9e 36 ba 8e 62 15 bc e2 fd ba 3a
       -0.0076910476 -0.0006966432 -0.009117736 0.0014266337
0002b0 1a cc d7 bc 82 eb 11 bd 6f f4 e0 38 cd 60 7c bc
       -0.02634244 -0.03562499 0.00010726682 -0.0154039385
0002c0 f5 cf 55 bc 0b 47 fd 3b b2 a3 07 ba a9 07 13 bc
       -0.013050069 0.0077294162 -0.0005174234 -0.008973994
0002d0 73 b7 d7 3b a7 4b f3 3c c5 cc cb 3c 88 9d c7 3c
       0.006583148 0.02969916 0.024877915 0.024367109
0002e0 1a 89 08 3d a2 5f 62 3c 67 7c da 3c 7f 55 2b 3d
       0.033333875 0.013816746 0.026670648 0.041829582
0002f0 96 8c 3c 3c 9e f1 d7 3c f3 09 04 bd e5 d2 4f 3c
       0.011508128 0.02636033 -0.03223605 0.0126845585
000300 04 a3 89 3a 3b 0d 06 3b 76 b1 33 3c fb b6 24 bc
       0.0010500853 0.0020454663 0.010967603 -0.010053392
000310 cb fb 50 bb b1 0d df ba 4f 5e 94 3b bb 63 61 ba
       -0.0031888362 -0.001701763 0.004527844 -0.000859793
000320 32 c0 99 39 6d f0 0e 3b d3 f8 8a 3b ba 25 35 ba
       0.0002932563 0.0021810785 0.004241088 -0.0006910224
000330 ba 3c 40 bb 73 a6 53 3a d7 83 20 3b ef bb 81 3c
       -0.002933307 0.0008073814 0.0024492645 0.015836684
000340 2a f9 a3 3b a0 3f cd bb 34 4b e6 3b ca 35 6a bb
       0.005004068 -0.006263688 0.007028008 -0.0035737627
000350 be 3a 92 3b 72 5c 18 bc 10 31 a7 3b 1a 8f 19 bb
       0.004462569 -0.009299384 0.0051022843 -0.0023431242
000360 5b 5d 50 bb d1 0f 3b 3a d6 79 45 bc 59 44 7b 39
       -0.0031793925 0.0007135841 -0.012052974 0.00023962687
000370 01 ff 0f 3b 66 da 3c 3c 1a 6d ba 3a 34 73 b4 bb
       0.0021972063 0.01152668 0.0014223189 -0.0055068973
000380 bf 38 83 3c 9c 6e 8b bc 4c 3e 35 bc 1e 5e ab bc
       0.01601827 -0.017020516 -0.011062216 -0.020918902
000390 fd ec 70 bc 09 1e ae 3c 2b da 23 3b 16 a5 27 3b
       -0.01470494 0.021254556 0.0025001864 0.0025580577
0003a0 47 e6 78 bb 9c 11 9b ba fc 83 fe bc c4 58 c5 3c
       -0.0037979053 -0.001183081 -0.031068794 0.024090178
0003b0 0b 70 bf 3b 98 a9 6e 3b 66 21 20 3c cb f1 32 3c
       0.005842214 0.0036417004 0.009773588 0.010921906
0003c0 e4 5e 8b 3c 0d 00 08 3d a9 a6 78 bc 93 34 e7 3b
       0.01701302 0.033203173 -0.015176454 0.007055828
0003d0 ba 59 21 bc 3f bd 0f bc a2 96 a7 3a 5b b8 01 bd
       -0.009848053 -0.008773147 0.0012785981 -0.031669956
0003e0 c9 ed ab 3a de dc 9b 3c 94 57 4b 3a 52 1c 5e bb
       0.001311713 0.019026216 0.00077568856 -0.0033891392
0003f0 5c e7 86 3a 85 81 02 3c 7a 51 3a 3a 08 85 20 bb
       0.0010292339 0.00796545 0.0007107478 -0.0024493355

gnn.gnn_layers.0.gat_conv.bias f4 [256]
000000 ed fd 08 3e 54 d9 a0 3c 5d 00 15 3d 56 d9 8f bc
       0.13378115 0.01963488 0.0363773 -0.017559689
000010 8c ec 15 3d 4d a7 2b bd 10 f6 5a 3e c4 2b f1 ba
       0.03660254 -0.041907597 0.21382928 -0.0018399884
000020 0d 1f 85 bd 34 52 13 bd e5 a4 a3 bd 1a d7 ad 3d
       -0.06500063 -0.035967067 -0.079904355 0.08488293
000030 1a b1 cf 3c 30 05 c0 3d fb 0b 30 3e 89 4d 5a be
       0.025353003 0.093759894 0.1719207 -0.2131864
000040 9d bf 36 be 15 8b 4b be 5c 5b 06 bd a3 b7 cc bc
       -0.17846532 -0.19877274 -0.03280197 -0.024989909
000050 12 e2 67 bc 71 55 cf bd 8c 00 22 3d 44 52 25 3d
       -0.01415302 -0.101237185 0.039551303 0.040361658
000060 e2 06 ad 3d 11 18 51 bc 22 6a b9 3d 0c 8a d3 3c
       0.084485784 -0.012762086 0.09053446 0.025822662
000070 1e 17 87 3c 27 bf 08 be 36 db 34 be f4 f2 12 bd
       0.016490515 -0.13354169 -0.17661747 -0.03587623
000080 27 9c e6 3c 4a ac 02 be b9 36 0c 3e 25 f5 ac bd
       0.028150631 -0.12761036 0.1369275 -0.08445195
000090 2e ed 94 bd c8 f6 83 3d c1 4a b0 bd 1c e3 38 bd
       -0.07271801 0.06443554 -0.08608008 -0.045138463
0000a0 8b 90 f4 bc 6c 3d fa 3d 7f 1d 8e 3c 80 b8 f3 3d
       -0.02985408 0.122187465 0.01734805 0.11900425
0000b0 41 36 de 3d 9b 75 2e bd 4c 56 ec bd 97 a7 13 be
       0.10850192 -0.042592626 -0.11539897 -0.14419399
0000c0 ba 39 02 bd 01 d6 e4 3d c5 95 54 3e 04 fd 7d bc
       -0.031793334 0.111736305 0.20760258 -0.015502218
0000d0 87 c9 e7 3c 37 0c 91 3c b6 13 3d 3c 5f 4b 08 be
       0.028294338 0.01770602 0.011540344 -0.13310002
0000e0 db f1 19 3d 4e a3 a7 bc f0 b6 e6 bd e7 88 4d 3d
       0.037584167 -0.020463612 -0.11265361 0.05017939
0000f0 87 0d 95 bc 4c 06 c4 bb 74 92 07 3d 2b 99 5d 3c
       -0.018194927 -0.005982196 0.033098653 0.013525288
000100 e9 61 21 3e e3 44 9f bc a0 1d 1d 3d 66 5b 48 3d
       0.15760006 -0.019442027 0.03835833 0.04891529
000110 12 db 58 3d f8 72 64 3c ed b2 b0 ba c0 47 53 bc
       0.052943297 0.013943426 -0.0013481058 -0.0128955245
000120 b6 17 19 be 6e 24 08 bd 7f 96 fa bc 9b 71 1e 3e
       -0.14950451 -0.033237867 -0.03058934 0.15473025
000130 99 2a f9 3d c7 b1 8a be 1f f9 30 bd 20 1f 32 3c
       0.12166328 -0.27088758 -0.04320633 0.010871679
000140 23 21 8e bc 6e 5c c6 bd 18 47 02 3e 61 35 82 bd
       -0.017349785 -0.09685598 0.12722433 -0.063578375
000150 e0 09 58 3d 2f 90 53 bd b6 c5 c9 3d 9b e3 e7 3d
       0.052743793 -0.051651176 0.098521635 0.11322709
000160 1b 70 80 bc 5c 19 08 bd 9e 3f 1d bd 5d d7 b7 bc
       -0.015678456 -0.03322731 -0.03839075 -0.02244156
000170 14 b1 82 3c d6 86 13 bc 55 11 d8 bd ef b5 ac be
       0.015953578 -0.009004315 -0.10550181 -0.33732554
000180 eb 9a 3f be a8 84 22 3d 9c 19 e4 3d b1 1d 4a bd
       -0.1871144 0.039677292 0.11137697 -0.049344722
000190 fe d5 b3 bc 95 ee 3f 3e a9 6a 67 bc 1e 51 dd 3c
       -0.021952625 0.18743356 -0.014124551 0.027016219
0001a0 04 08 2b bb c3 06 61 be e1 f3 e4 3d 07 cf c8 3d
       -0.0026097307 -0.21975236 0.11179329 0.09805112
0001b0 48 9d 1f bd c1 1a d3 be e3 05 4e 3d a0 75 63 3d
       -0.038968354 -0.4123135 0.050298583 0.055532098
0001c0 72 89 4f 3c 8c ee 43 3e dc b2 04 bf 9b 6e 32 bd
       0.012667047 0.19133967 -0.5183542 -0.043562513
0001d0 dc bd dd 3c 64 09 12 bd cb bf 90 3d 0e 89 19 3d
       0.027068071 -0.035653487 0.070678316 0.03748422
0001e0 f8 a2 82 3d 70 bd 0a 3e 67 6d 37 3d 8f dc c4 bd
       0.0637874 0.13548827 0.04478207 -0.09612381
0001f0 c4 51 18 3c cc 3c 8d 3c 6f 8e 86 3b 82 37 d4 bd
       0.009296838 0.017240904 0.004106335 -0.1036215
000200 79 16 73 bd 7e d7 65 bd 71 c8 c0 bc f1 7d 18 bd
       -0.059347603 -0.056113712 -0.023533078 -0.037229482
000210 42 48 c6 3a f8 15 ff bd d1 10 f0 bd fa e2 7d 3d
       0.0015127736 -0.12455362 -0.117219575 0.06198404
000220 a8 cb e7 3d d1 92 5b bb 35 b2 02 3d 8f a1 4a bc
       0.11318141 -0.0033504257 0.031908233 -0.01236762
000230 70 93 64 3d 30 ce 4b bc c9 56 ba 3d e2 d1 30 bd
       0.05580467 -0.012439296 0.09098584 -0.04316891
000240 d2 d7 35 3d bb f2 0e 3e f2 90 fc 3d 80 43 1e be
       0.044395275 0.13959782 0.123323336 -0.15455437
000250 5b 3c 27 bc 39 d3 84 3b 11 ff 04 be 7e e8 09 3e
       -0.010207261 0.0040535 -0.12987925 0.13467595
000260 15 8a 42 bc d0 aa 86 3e a1 94 93 bd 4b 45 b0 bd
       -0.011873742 0.26302195 -0.07206083 -0.086069666
000270 fa d6 21 3d 00 8f 5e bd 84 94 ec bd d0 e4 d5 bb
       0.03951166 -0.054335594 -0.115517646 -0.0065275207
000280 49 52 73 3d f9 2f c1 bd ec 87 c0 bc 3a 0a 55 3d
       0.059404645 -0.09432978 -0.023502313 0.052011706
000290 d6 e1 c0 bd c3 7d 8d bb 8c e6 9e bb 1a e9 e4 bc
       -0.09418075 -0.0043179705 -0.0048492607 -0.027943183
0002a0 ad 37 8d bd b5 74 4e 3c 64 d9 4d bd 65 92 45 3d
       -0.06895385 0.012601067 -0.050256148 0.048235316
0002b0 7f 06 40 bd ae d3 46 3e 6d 32 ed 38 0c d4 91 3d
       -0.046881195 0.19416687 0.00011310433 0.07120523
0002c0 ae b7 e0 3c cb 8e 9c bd ca 4a 1b 3e 59 85 88 bd
       0.027431335 -0.07644423 0.15165249 -0.06666059
0002d0 02 07 87 3d e0 9f 2a be fa 8c 37 bc ce 6f 89 be
       0.065931335 -0.1666255 -0.011203045 -0.26843113
0002e0 f4 e8 63 3e ef d2 ac 3d aa 98 91 bd 74 ac e8 3d
       0.22256833 0.0843867 -0.071091965 0.11361018
0002f0 83 07 6a be 9a 7b 9a 3c 06 01 2a be cd 0a b1 3c
       -0.22854428 0.018857766 -0.16601953 0.021611596
000300 23 cb d3 3d 4e 14 74 be ba 54 1a be 46 49 1e bd
       0.1034148 -0.2383587 -0.15071383 -0.038644098
000310 e6 e4 47 3d 7a 44 0f 3d 8f c7 a2 bd e7 68 7d 3d
       0.04880228 0.034977414 -0.07948219 0.06186762
000320 d9 85 c8 3c 3e af b4 bd fc 1f 6d bd c9 63 aa bd
       0.024477886 -0.08822487 -0.05789183 -0.08319814
000330 f8 7f c7 3c 92 8b cf bb 6c 55 b2 bc 82 de 56 be
       0.024353012 -0.0063337767 -0.021769248 -0.20983317
000340 2e c4 6f 3d 62 8e d5 3b 5c 08 8b bc 3d 5e 3c bc
       0.0585367 0.0065172175 -0.01697176 -0.0114970775
000350 59 a3 2d be b0 c0 82 bd 3f ce c9 bc b9 98 cc bc
       -0.16956843 -0.063844085 -0.024634479 -0.024975168
000360 49 ca d3 3d c8 43 1f 3e e2 4b c3 3d fa f0 e4 3c
       0.10341317 0.155532 0.09535958 0.027946938
000370 72 c7 3d 3c 73 d9 62 3d 7c 5f 0e 3d 00 68 87 3d
       0.011583196 0.055383157 0.03475903 0.06611633
000380 bc b6 1f be 0b ff 10 3d dc 45 05 3e 03 1d f6 3d
       -0.15597051 0.035399478 0.1301493 0.12017252
000390 2f ee 80 3d 3b fe 92 bd 42 63 08 bd 41 58 37 3b
       0.0629543 -0.07177397 -0.033297785 0.0027976187
0003a0 ff 9d 1e 3e eb e0 7f bc 70 6c b4 3d f7 9e 07 be
       0.15489958 -0.0156175895 0.08809745 -0.13244234
0003b0 32 df ac bd 12 e0 2c bc 8e 6e 98 bd d9 85 e2 be
       -0.084410086 -0.010551469 -0.07442962 -0.44242743
0003c0 c7 6d a5 bd c1 2f 1b be 53 12 14 3e 77 94 7c 3c
       -0.08077579 -0.15154935 0.14460115 0.015416256
0003d0 92 11 83 3d a7 3e 1a 3d 7a a0 de bc bc 28 2d be
       0.06399836 0.037657406 -0.02717613 -0.1691007
0003e0 58 16 00 3c c8 f8 10 3b d2 78 3b bc bd 1c 4e be
       0.007817827 0.0022120941 -0.01144238 -0.2012815
0003f0 92 03 b1 3c c6 32 02 be 00 fc cf ba 3c 99 6b 3b
       0.021608148 -0.12714681 -0.0015867949 0.003594949

gnn.gnn_layers.0.gat_conv.fc.weight f4 [256, 74]
000000 a4 73 94 3d 98 1e 24 3d a9 0a 59 bd 91 9b d0 bc
       0.07248619 0.04006824 -0.052988682 -0.025464805
000010 d1 cf da 3c 0a 20 a6 ba c4 17 34 bc 00 c1 1b ba
       0.026710423 -0.0012674343 -0.010991994 -0.000594154
000020 50 b2 27 3a b2 16 b1 35 e4 23 51 35 20 31 0e 34
       0.0006397115 1.3194133e-06 7.7910795e-07 1.3242652e-07
000030 67 c7 5d 35 09 53 59 b5 fc aa 35 34 58 0c 29 3b
       8.2619084e-07 -8.095963e-07 1.6919142e-07 0.002579471
000040 16 51 5d 35 22 9e 01 35 9e 2e 9c b5 5a 93 24 35
       8.244691e-07 4.828636e-07 -1.1636473e-06 6.1309186e-07
000050 7f e3 7c 34 a7 a5 33 35 c6 0b 30 35 15 5e 77 b5
       2.3552091e-07 6.692375e-07 6.558224e-07 -9.215158e-07
000060 98 da 9f b5 09 41 38 b5 53 64 64 b5 62 c2 6e 35
       -1.1910042e-06 -6.863998e-07 -8.508261e-07 8.8944773e-07
000070 99 93 55 35 ae a7 9b 3a 2f 54 96 b5 97 ea e8 b3
       7.9563466e-07 0.0011875534 -1.1200372e-06 -1.08460135e-07
000080 17 f5 95 b5 f6 b1 ba 35 cc d9 1e b5 08 76 01 b4
       -1.1172696e-06 1.3909873e-06 -5.9176523e-07 -1.2057001e-07
000090 22 0d 64 35 ad ed d2 b4 22 b7 4f 35 64 fd 5c 35
       8.495573e-07 -3.928848e-07 7.738e-07 8.232512e-07
0000a0 a6 12 5a b5 57 a2 28 b4 de 2b ca b3 6a 86 c5 35
       -8.1238466e-07 -1.5705278e-07 -9.4143374e-08 1.4716763e-06
0000b0 4f 00 b1 3b 73 a4 11 3e 18 02 74 3e d8 3c f1 3c
       0.005401648 0.14222889 0.23828924 0.029447958
0000c0 a7 d1 51 b5 f2 10 0d 3c 67 90 58 b4 8c 72 42 35
       -7.816365e-07 0.008609997 -2.0169101e-07 7.243732e-07
0000d0 39 9f 02 35 89 50 1a 35 1f 91 0e 3e ff 0c 7e 3d
       4.8660473e-07 5.7486665e-07 0.13922547 0.062024113
0000e0 79 f3 06 3e aa 19 c3 bc e0 2f c3 b4 93 16 6f 35
       0.13178815 -0.023815949 -3.6356414e-07 8.906729e-07
0000f0 7d bc 50 b5 c4 e5 a3 bd 84 00 92 b4 31 0e 98 3c
       -7.7760325e-07 -0.08002809 -2.7194994e-07 0.018561454
000100 82 28 ed 3c 38 fd 85 3e c7 68 51 35 7a e6 32 bb
       0.02894998 0.26169753 7.801104e-07 -0.002729802
000110 37 41 0d 3c ba 0a 5e 3d fb a9 bc 3d 2a c2 fa 3d
       0.008621505 0.05420945 0.09212109 0.12244065
000120 69 0f d5 bc 7f 2e 75 35 5d b6 36 3c 25 94 5f bb
       -0.026008325 9.1337273e-07 0.011151877 -0.00341154
000130 c9 dd 28 bb 86 66 06 bb aa 50 f4 ba a1 b5 f2 39
       -0.002576696 -0.0020507886 -0.0018639762 0.0004629316
000140 41 01 05 ba 8e 25 bc 3a 8c 89 51 38 c8 4d 81 35
       -0.0005073734 0.0014354454 4.9957584e-05 9.633886e-07
000150 1b 4b 5c 35 6c 04 1b b5 97 d0 46 b4 72 64 4b 35
       8.206568e-07 -5.7748434e-07 -1.8516072e-07 7.576956e-07
000160 41 a1 7d b3 bc c6 8c b8 5a b1 2c 35 d6 f9 0a 2d
       -5.9052812e-08 -6.7127374e-05 6.4333074e-07 7.8998665e-12
000170 73 26 17 b5 03 50 5e 35 7f 72 24 b5 6e a7 66 b5
       -5.6307834e-07 8.2817877e-07 -6.1261375e-07 -8.592532e-07
000180 c3 ca 05 b5 da 0e 5e b5 c7 d6 88 35 b3 ad a6 34
       -4.984142e-07 -8.2723056e-07 1.0195298e-06 3.1046292e-07
000190 0a 8d af b5 fe ca 9a 35 f9 0f 85 b5 63 7a 1d 39
       -1.3079564e-06 1.1532973e-06 -9.913921e-07 0.0001501828
0001a0 ce 5e 13 b5 8a 41 4e 35 ef bf e3 b4 8d 1b 32 b5
       -5.4899726e-07 7.683635e-07 -4.2421695e-07 -6.635026e-07
0001b0 b9 7e a1 b5 66 ce 7c b5 34 fa 5c 34 74 1f 76 35
       -1.2032316e-06 -9.4177665e-07 2.058012e-07 9.168791e-07
0001c0 0c 85 04 35 6b 31 92 35 fc 77 58 35 2a 96 54 b5
       4.936744e-07 1.089223e-06 8.064087e-07 -7.919467e-07
0001d0 47 91 81 b5 f1 4e 3f 35 73 ab 26 3a 74 d6 9b 3a
       -9.65353e-07 7.126792e-07 0.00063579454 0.0011889474
0001e0 67 14 2e bb e1 5c dd bb cb 7a 25 b5 0d 1a 0e 3b
       -0.0026562454 -0.006755457 -6.164598e-07 0.0021683008
0001f0 4d f5 3e 35 b2 7a e1 34 65 01 b7 35 91 1b aa b5
       7.1137475e-07 4.1998788e-07 1.3634968e-06 -1.267401e-06
000200 06 84 0c bb 74 34 fa 3a ad 68 d4 bb 5d ae e7 bb
       -0.0021440997 0.0019089119 -0.006482205 -0.0070703463
000210 5e 7a af b5 5b 8f 0e b5 cf 35 b2 b4 b3 ca 43 3b
       -1.307413e-06 -5.310773e-07 -3.3194235e-07 0.0029875457
000220 d9 2e 50 35 48 89 e1 39 a3 e6 db ba e3 06 0a bb
       7.755421e-07 0.00043017627 -0.0016777109 -0.0021061234
000230 87 5d 91 35 be 50 df 3a a9 ab e1 bb d3 af 4f b9
       1.0830562e-06 0.0017037613 -0.0068869186 -0.00019806558
000240 c9 a1 39 ba db 90 1d bc 23 16 ef bb c6 6e d5 b4
       -0.0007081298 -0.009617056 -0.00729634 -3.975494e-07
000250 18 bf 6c 3d 46 b2 9f bd c4 46 db bc 2f 15 47 3d
       0.05779943 -0.07797675 -0.026767142 0.048604187
000260 50 ee df 3d 4a 17 02 3b 5b 86 81 bc a8 de 14 3b
       0.109341264 0.0019850307 -0.015811136 0.0022715721
000270 49 f6 34 3b 20 29 25 34 93 b0 7b b4 13 94 af b4
       0.0027612618 1.5381784e-07 -2.3440434e-07 -3.2704028e-07
000280 cd 0b 68 b5 fe 9f 54 b5 6e 22 37 35 f7 9f 28 ba
       -8.644391e-07 -7.9208974e-07 6.8222914e-07 -0.0006432528
000290 34 9f 5d 35 5c d3 49 35 3e 1d 4b 35 62 30 c2 b4
       8.2560587e-07 7.5185903e-07 7.5665946e-07 -3.617052e-07
0002a0 22 8e c4 b5 f2 81 48 35 10 d1 5d 34 fa a6 bb b5
       -1.4644504e-06 7.46949e-07 2.0658285e-07 -1.3981182e-06
0002b0 42 26 2a 35 31 32 01 b4 23 88 0c b4 14 6e 86 b4
       6.338561e-07 -1.2032321e-07 -1.3088042e-07 -2.5039537e-07
0002c0 43 ac bb b4 a9 08 a5 3b b7 56 49 34 19 e0 91 35
       -3.49568e-07 0.0050364328 1.875113e-07 1.0868563e-06
0002d0 4f 63 5a 35 79 49 56 b5 2e de 49 b5 2a 62 33 35
       8.135584e-07 -7.982813e-07 -7.520165e-07 6.6825544e-07
0002e0 d7 25 fc 35 e3 f1 57 35 ac 42 85 b5 21 07 82 b5
       1.8786476e-06 8.0445733e-07 -9.928676e-07 -9.68783e-07
0002f0 85 ba 62 b4 68 a3 83 b4 8f 3a 92 35 57 43 03 35
       -2.1115746e-07 -2.4519545e-07 1.089489e-06 4.8899295e-07
000300 42 1a 71 3c ff d4 65 3d b1 6b 4d 3d 4f ae 92 3d
       0.014715733 0.056111332 0.05015153 0.07162153
000310 0e 5f d6 b4 9b 77 60 bc cf 9e 46 35 0a f1 5d b5
       -3.9929768e-07 -0.013700391 7.3991845e-07 -8.2679674e-07
000320 87 ed 92 35 61 1d 55 b5 50 6a 72 3d 10 91 d0 3a
       1.0946977e-06 -7.9391435e-07 0.05918342 0.0015912373
000330 da 62 03 be ab b0 ab 3b 7e 70 be 35 da da 98 b5
       -0.12830678 0.0052395663 1.4188843e-06 -1.1388577e-06
000340 58 11 c7 b4 2a e0 99 bc 79 e6 b8 35 28 22 ed 3c
       -3.7079258e-07 -0.018783648 1.3776145e-06 0.028946951
000350 db ef 80 3d 11 b9 cd 3c d0 22 3a 35 b8 7f 99 bb
       0.06295749 0.02511266 6.934106e-07 -0.0046844147
000360 8e 4a ec 3d c0 b1 8d 3d 63 11 2c 3d 49 96 ff bd
       0.11537658 0.06918669 0.04200877 -0.124798365
000370 45 4f 06 3b 95 7b 43 35 38 80 a4 bc df 0b 53 bb
       0.0020494026 7.2822996e-07 -0.02008067 -0.003220312
000380 f8 1a 6a b5 15 d9 a6 bb 27 c6 99 3c 43 59 c7 ba
       -8.721104e-07 -0.005091796 0.018771244 -0.0015209097
000390 32 28 66 ba 33 44 0e bb 11 84 be b9 23 68 a0 b5
       -0.0008779793 -0.002170813 -0.0003633802 -1.1951237e-06
0003a0 c8 31 99 b5 bd 42 89 35 a8 15 b3 35 29 28 5d b5
       -1.1413877e-06 1.0226719e-06 1.3342842e-06 -8.2387356e-07
0003b0 06 06 c4 34 d0 90 90 ba 81 07 af 33 72 6a 54 35
       3.6512228e-07 -0.0011029486 8.1504375e-08 7.913105e-07
0003c0 3b 48 26 b3 e5 d6 8c b5 ae 99 6f b5 9a 14 5e 35
       -3.871558e-08 -1.0493355e-06 -8.925807e-07 8.2731424e-07
0003d0 61 e6 f5 34 42 34 5e b5 7f 15 82 35 df ff 5d b5
       4.580243e-07 -8.277749e-07 9.692011e-07 -8.2701257e-07
0003e0 9e c3 3a 35 e3 dc a6 b4 3d 78 3d b5 ff 02 05 ba
       6.957506e-07 -3.1080626e-07 -7.0582956e-07 -0.0005073994
0003f0 6e 0c a1 34 f7 39 68 b3 5b 92 83 35 d9 8c ac 35
       2.999763e-07 -5.4069428e-08 9.802856e-07 1.2855991e-06

gnn.gnn_layers.1.gat_conv.attn_l f4 [1, 8, 32]
000000 76 8c 92 3b 37 8a db bd a8 a2 0e 3d 39 aa 01 3e
       0.0044723107 -0.10719722 0.03482309 0.12662591
000010 04 6a 0e bb 2f fd b0 3c 38 bb 27 3d 21 7c 4e bd
       -0.002173067 0.021605102 0.04095003 -0.050411347
000020 d2 4a 83 bb 90 66 1c 3d d9 25 9d 3a 02 e2 a2 3c
       -0.004006722 0.03818375 0.0011989429 0.01988316
000030 82 5b 39 bc 6f d0 9a 3d 1f 43 35 3c 9f bc 09 bb
       -0.011313321 0.07559287 0.011063366 -0.0021016968
000040 2d ab 81 bc 94 47 b4 3b 37 87 ba bc d5 bc 3a 3b
       -0.015828693 0.005501697 -0.022769554 0.00284939
000050 91 13 c2 3d 3d 68 84 bb 75 69 8b bc e8 45 e2 38
       0.09476388 -0.0040407465 -0.01701806 0.00010789541
000060 d3 90 78 bc 0c 9a 7e 3c 8a bb b7 bc af e0 85 3d
       -0.015171248 0.015539657 -0.022428293 0.065369956
000070 a2 87 6a 3b 6c 7c 1a 3a c3 f1 e1 bc 40 11 e7 3d
       0.003578641 0.0005893174 -0.027581101 0.11282587
000080 01 4c ec 3d 4b ff b3 bb 8f 37 44 3c 0a 73 86 bc
       0.11537934 -0.00549308 0.011976137 -0.016412277
000090 f1 b0 85 bc 93 6e 23 3d d3 3d d7 bd 3a 88 fb 3d
       -0.016319724 0.039900374 -0.10509839 0.122818425
0000a0 b9 43 3f 3a 71 c0 22 bd 09 47 ac bd ac f8 f5 3d
       0.0007296163 -0.039734308 -0.084119864 0.12010321
0000b0 3b 97 0f 3d f2 08 78 3b 92 15 5b 3d ec a0 bc 3d
       0.035056334 0.0037847129 0.053487368 0.09210381
0000c0 8d 48 ac bc e5 4d 31 3d d9 74 35 3e 19 d2 d2 3d
       -0.021030689 0.043287177 0.17720355 0.10293979
0000d0 e0 a6 89 bc f8 80 b9 bd 05 42 19 3e c1 af d6 3c
       -0.016803205 -0.09057802 0.1496659 0.026206853
0000e0 df 78 46 bb f1 d0 86 bc 4e 01 53 3c b4 2b 6a b9
       -0.0030284447 -0.016457053 0.012878729 -0.0002233226
0000f0 64 f2 d4 bd 7a b0 1b bd b4 db 31 3c 87 8b 85 bd
       -0.10397795 -0.038010098 0.010855604 -0.06520753
000100 31 ae 51 3c f1 a0 da bd 04 e7 07 bc d5 22 82 bd
       0.012797878 -0.106752284 -0.0082948245 -0.063543
000110 43 d4 93 bc c3 29 89 bc c2 aa 63 bc ff 24 94 bd
       -0.01804555 -0.016743546 -0.013895692 -0.07233619
000120 ad dd 8a bb 59 b9 dd bc 99 ad 4c 3d 72 a0 44 bd
       -0.0042378516 -0.02706592 0.049970243 -0.048004575
000130 34 73 a1 3b b8 cd 0d be b9 21 53 bb a7 ce 84 3d
       0.0049270634 -0.13848007 -0.0032216145 0.06484728
000140 15 6e 70 bd 02 17 06 bd 9d fb a3 3e d4 92 73 bc
       -0.058698732 -0.032736786 0.32027903 -0.0148665495
000150 e3 32 44 3d 90 11 a3 bc 6d 7b a4 3c 90 e2 50 3c
       0.04790009 -0.019905835 0.020078385 0.012749329
000160 94 73 81 bd 28 7b 3f 3d 0c d8 fc 3c 0d 3d 36 bd
       -0.06320873 0.04674831 0.030864738 -0.044491816
000170 4d 48 28 be f3 72 fb bd e2 bf 80 3d 40 2c c3 3b
       -0.1643383 -0.12277784 0.06286599 0.0059562027
000180 ad 08 90 bd 28 66 45 be 41 f0 85 3e c1 ac 4a be
       -0.07032905 -0.19277251 0.26159862 -0.19792463
000190 58 f9 64 be 0e 6f 57 3e 25 8d b5 bd 9f 8c 63 be
       -0.22360742 0.21038458 -0.08864812 -0.22221611
0001a0 14 e0 60 bd 4e c6 b7 bd 04 11 14 3a 86 43 78 bb
       -0.054901198 -0.089733705 0.00056482875 -0.0037882044
0001b0 fe 47 31 3e e3 5c 30 bd d9 0a 5e 3c d8 6e c7 be
       0.17312619 -0.043057334 0.013552391 -0.38951755
0001c0 c9 19 6b bc d4 7f 80 3c f8 af 31 3b 61 c4 95 bc
       -0.014349409 0.015685953 0.0027112942 -0.018282117
0001d0 d5 b1 e2 bd 35 4d 51 bc 4e 78 e9 3e 36 68 45 3e
       -0.11069075 -0.012774755 0.45599598 0.19278035
0001e0 77 d5 ba 3d 61 c3 a8 3c b4 1a 05 be dd 95 87 bd
       0.091227464 0.020600976 -0.12998468 -0.06620381
0001f0 12 0a 38 3c 82 00 a0 bc 2a 01 75 bb 3a e1 a3 3d
       0.01123287 -0.019531492 -0.0037384727 0.08001943
000200 57 87 03 3c 8c dc 0c bd 53 a6 09 3c 26 ad 19 3c
       0.008027873 -0.034390017 0.008401471 0.009379661
000210 e5 71 60 3c e5 6e ca bd c6 08 20 3e 41 71 15 3e
       0.01369903 -0.09884433 0.15628347 0.14593984
000220 b3 5f 4e 3e 57 3b b0 3c b8 12 5c bd de d4 87 bd
       0.20153694 0.02151267 -0.05372879 -0.06632398
000230 ce 9b 6a 3d 37 f0 26 3d b4 a4 78 bd 2d 07 ad 3d
       0.057277493 0.04075643 -0.06070395 0.08448634
000240 bb 91 c3 bd 47 64 12 be af ae a2 bb f5 20 5b 3d
       -0.0954928 -0.14296065 -0.0049646716 0.053498227
000250 0f d2 bf 3d 32 b2 0b bd c8 0f 40 3c a7 ff 75 3d
       0.09366237 -0.034105487 0.011722513 0.060058262
000260 c8 26 96 bd 70 75 60 be dd b3 77 3d 5d f9 f9 bd
       -0.07331616 -0.21919799 0.060474265 -0.122057654
000270 57 44 63 3d 41 b9 56 3d 9d 78 24 bd c7 12 12 be
       0.055485096 0.052422766 -0.04015409 -0.14264975
000280 64 ed c2 bb aa ef bc 3c 30 55 ba 3c ce d0 17 bc
       -0.0059487093 0.0230635 0.022745699 -0.0092660915
000290 4e 36 a0 bb a3 e7 81 3d 1a 01 2a 3e f1 14 da ba
       -0.004889286 0.06343009 0.16601983 -0.0016638321
0002a0 6f 7a 97 bb 0c 15 5f 3c 57 24 1a bd fd 7b 2c bd
       -0.0046227495 0.013615858 -0.037632313 -0.042110432
0002b0 ca 74 27 3d f7 c5 33 bc 86 4b 07 3d ce 82 2c 3d
       0.040882863 -0.010972491 0.03303101 0.042116933
0002c0 bc 93 e9 3b 4a 02 ce 3a 1e 73 06 3d 52 f8 12 bb
       0.007128207 0.0015717235 0.032824628 -0.0022425842
0002d0 20 c4 59 3d 59 c2 af bb c1 7b 44 3d c8 b6 02 3c
       0.053165555 -0.005363744 0.047969583 0.007978149
0002e0 5e 30 9d 3c 6e 26 7f bd 61 c4 b0 3b 6f 10 14 bc
       0.019188102 -0.06229251 0.005394504 -0.009037121
0002f0 58 fb 43 bc 49 b0 a4 3e 58 ae c0 bc f8 5f aa 3d
       -0.0119617805 0.32165745 -0.023520634 0.08319086
000300 ce ec d1 bd 45 bc 75 3c ac 27 10 bd 5f 48 7c bc
       -0.10250245 0.0149985 -0.035194084 -0.015398114
000310 ad 74 00 be ec 3a 41 3b b0 40 53 3c 82 06 61 bd
       -0.12544508 0.0029484583 0.012893841 -0.054937847
000320 a5 fd ce bc 7e 5a 56 3d 09 d7 12 be 41 a5 0a 39
       -0.025267432 0.052332394 -0.14339842 0.00013222267
000330 53 c9 62 bd fb 0f f5 bd 6e 72 ce 3d 38 ab c6 bc
       -0.05536778 -0.11965939 0.100804195 -0.024251565
000340 36 29 90 3d 20 0a 51 bd 11 88 45 3d fe 01 43 bd
       0.0703911 -0.051035047 0.048225466 -0.04760932
000350 d6 66 56 3d 05 f3 e0 ba 36 4f 70 bd 53 80 bf 3a
       0.052344166 -0.0017162269 -0.05866929 0.0014610387
000360 2c 7b 8b bd 62 d9 59 bd ad a5 f5 bd 7b 05 3c 3d
       -0.068106025 -0.053185828 -0.11994491 0.045903664
000370 56 87 bb 3d 59 a2 61 bd 1d ed c1 3c 9d f8 47 bd
       0.09156673 -0.055086467 0.023672635 -0.04882108
000380 84 40 a8 3b 7b 39 10 bd 97 91 44 bc 67 74 95 bb
       0.005134644 -0.035211068 -0.011997602 -0.0045609954
000390 d6 44 16 bb 1e c5 c2 3c 3c 63 28 3c 69 84 90 bb
       -0.0022929213 0.023775633 0.010277566 -0.004410316
0003a0 ef 77 25 bd 8b c1 1a 3d 99 a5 09 3d 72 41 a6 3c
       -0.04039758 0.037782233 0.03360519 0.020294879
0003b0 3c 38 10 3c 6d 5d 45 3b fc 98 3c bb fc 1b d4 bc
       0.00880247 0.00301155 -0.002877771 -0.02589225
0003c0 02 d5 2c be 3d 97 86 3a 39 ba ac b9 5e 7a b4 bd
       -0.16878131 0.0010268461 -0.00032945143 -0.08812402
0003d0 11 03 6f 3c f3 e6 45 bc aa 5f ab bc 95 36 5a ba
       0.014588133 -0.012078988 -0.02091964 -0.00083241734
0003e0 5d 39 d8 3a 77 02 fa 3b ad 1f cc bc 44 0a 8c 3c
       0.0016496588 0.0076296884 -0.024917448 0.017094739
0003f0 fd 8d 93 bc 4a d9 d4 bd 21 a4 30 bb 03 25 d2 bc
       -0.018012041 -0.10393007 -0.0026953297 -0.025652414

gnn.gnn_layers.1.gat_conv.attn_r f4 [1, 8, 32]
000000 c9 a5 84 bc 74 09 b6 bd e5 56 17 bd 88 5d 54 bc
       -0.016192334 -0.08888522 -0.036948103 -0.012961753
000010 28 a0 9f 3c 83 a1 2a 36 8a 67 2c 3d 0c f7 a2 bc
       0.019485548 2.5425986e-06 0.04209093 -0.019893192
000020 d7 1e 36 b8 71 21 82 3b 03 e0 0f bb 01 7e f7 bc
       -4.3420903e-05 0.0039712717 -0.002195359 -0.03021145
000030 4e 61 00 3c 1d 29 d3 bc db 5a c2 3b 84 a4 b0 bb
       0.007835699 -0.02577644 0.005931241 -0.0053907055
000040 0d 0d 35 bc 48 a2 42 3b e6 a0 e6 bc 9c aa a4 bc
       -0.011050475 0.0029698778 -0.028152894 -0.020100884
000050 b3 95 a3 3c 78 fd 7a 3c cc fb aa 3c e1 89 69 39
       0.019968843 0.015319221 0.02087202 0.00022271975
000060 9d a8 3e 3c 85 3d 74 bb d4 a2 55 bc e1 f8 66 bb
       0.01163688 -0.0037268114 -0.0130393095 -0.0035243558
000070 cc 1f 78 3b 1f 1e 52 bb 11 9b 71 bd 36 f8 25 bd
       0.003786075 -0.003206141 -0.058985773 -0.040519916
000080 7a ff ae bc 59 25 3c 3c 63 6c ad 3b 78 c8 d9 3b
       -0.021362055 0.011483514 0.0052924617 0.006646212
000090 b1 21 f4 3b 2c 3c 18 3b c1 2e e4 bc e7 c7 99 bb
       0.0074503054 0.0023229225 -0.027854325 -0.0046930197
0000a0 98 0d d7 ba fa 90 38 3b 50 63 7d bc 88 49 82 bc
       -0.001640725 0.0028162585 -0.0154655725 -0.015904203
0000b0 94 0e 9d 3a 34 f1 cd ba c8 53 db bc 32 ce 46 3c
       0.0011982494 -0.0015712143 -0.026773348 0.012134122
0000c0 66 9e 2e 3c 69 b6 45 bc 4a e5 36 3c d5 ad 8e bb
       0.010657882 -0.012067416 0.011163065 -0.0043542185
0000d0 39 ed 83 3a e5 37 e1 bc 3c 9a 99 3a 17 fd 04 bb
       0.0010065205 -0.027492473 0.0011718939 -0.0020292455
0000e0 a4 88 c4 ba 42 0e 93 bd b6 8e 40 bd 1e 74 4f 3b
       -0.0014994335 -0.07180454 -0.0470111 0.0031654905
0000f0 ad ce a4 bc 2d fb e0 bc a2 9f 62 ba 91 56 2a bb
       -0.020118082 -0.02746352 -0.0008645003 -0.002599154
000100 73 30 f4 38 f9 cd 75 bc c9 46 76 3c 7d f7 37 3b
       0.00011643851 -0.015002721 0.015031525 0.0028071098
000110 2d 67 5f bb 84 41 95 bc 81 02 b3 bc 12 a9 1a bc
       -0.0034088597 -0.018219717 -0.02185178 -0.009439724
000120 e4 36 a2 3a 29 ae 89 3b ca 7c 04 bc 1e aa 2d bb
       0.0012375978 0.0042016697 -0.008086393 -0.0026499103
000130 ee aa 55 3b 02 1a 52 3d 50 c0 0c ba bf 17 22 3b
       0.0032603103 0.051294334 -0.0005369233 0.0024733392
000140 7b 62 8c bc 94 da 05 3c d5 a3 09 bd 83 78 bf 3b
       -0.017136803 0.008169789 -0.033603508 0.0058432235
000150 32 5e 50 bc fd 7e 0b 3d 37 61 2b 3b 2c 83 09 3b
       -0.01271777 0.034056652 0.0026150474 0.0020982726
000160 1c b0 2e bb 7e ae 07 bc 61 a4 7e 3b d5 d3 86 bc
       -0.0026655262 -0.008281348 0.0038855302 -0.016458431
000170 4c 59 0a bc e8 46 12 3c 6f af 27 bd c1 28 9b bb
       -0.008444142 0.008928038 -0.04093879 -0.004735083
000180 7e 12 9e bc a6 e1 ad 3d 71 e6 56 bc 2a f2 d1 3a
       -0.019295927 0.08490305 -0.013116465 0.0016017605
000190 c0 18 9a bc 2a 04 59 3d 40 6b 93 3d ba 17 38 bc
       -0.01881063 0.052982487 0.07198191 -0.011236126
0001a0 a1 14 a3 3c 2d 21 6b 3c 4d 72 b8 3b 2f 6c 74 3b
       0.019907298 0.014351171 0.00562886 0.0037295928
0001b0 ed 78 70 bc 0f d9 75 bd fb ae 94 3b 65 2b e1 3c
       -0.014677268 -0.060021456 0.004537461 0.027486512
0001c0 19 2b 95 3b bc 83 c3 3b 4f 9e a0 3b 63 92 76 bc
       0.004552257 0.0059666317 0.0049016844 -0.01504955
0001d0 f3 84 80 bc e9 e4 32 3d d0 ff e4 bc 82 ae 89 3c
       -0.015688395 0.043675337 -0.027954012 0.016806845
0001e0 f9 42 30 3b a9 cb 66 3b ed 81 c1 bb 73 5b d4 3a
       0.0026895388 0.0035216606 -0.005905381 0.001620157
0001f0 33 94 67 bc 9a c4 98 ba ad e0 2c 3c 64 19 c7 bc
       -0.014134455 -0.0011655272 0.010551614 -0.0243041
000200 87 9a 3c bc 98 48 4a 3a 27 30 ec 3b da 6c 37 3c
       -0.011511452 0.0007716506 0.0072078886 0.011195386
000210 5a 5d 13 3c 56 8f 00 bd be bc 04 3d 61 bd 9f bb
       0.008994425 -0.031386696 0.03240656 -0.0048748706
000220 b1 38 d2 ba 80 dc ec 3b 00 c0 18 bb 9a eb 58 bb
       -0.0016038624 0.007228434 -0.00233078 -0.0033099414
000230 60 b5 05 3b 1e 2f eb bb 1c a6 ca 39 4c fc ff 3b
       0.0020402297 -0.0071772477 0.00038652204 0.0078120586
000240 83 f3 0e bb 7a b6 5b 38 9a d8 16 3c ca 6a ab 3c
       -0.0021812625 5.2383613e-05 0.009206915 0.020924944
000250 b6 52 8a 3b 6e ef b6 bc 8f 0c 67 bc c0 8a a9 bc
       0.0042212857 -0.022330966 -0.014102115 -0.020696044
000260 d5 fb 0c bd 17 e9 0d 3d 7a 8b 0b 3a b4 04 d2 3b
       -0.034419853 0.03464612 0.0005323213 0.006409252
000270 a5 83 b2 3c db fa 7e bc 8e ec 02 bd f2 de 1b 3d
       0.021791289 -0.015562738 -0.031963877 0.038054414
000280 c0 0b 39 bc c0 0a 4d 3c d6 46 94 bc d3 50 e1 3a
       -0.011294305 0.01251477 -0.018100183 0.0017190225
000290 35 b8 d5 3b c8 17 86 bc ba cf 18 3d 8a f9 16 ba
       0.0065222033 -0.016368762 0.03730748 -0.000575923
0002a0 83 8f 54 bb 0b e8 ee 3b bb 87 30 3c fe 75 79 3c
       -0.0032434172 0.0072908453 0.010774548 0.015225885
0002b0 5d 9a 20 bc c3 30 65 bc 14 d1 31 ba 34 d3 c2 bb
       -0.009802428 -0.0139886765 -0.0006783169 -0.0059455875
0002c0 a7 ab 2a 3b c7 65 4b 3c 13 bb 95 3b f7 0f 1b bd
       0.0026042254 0.012414402 0.00456942 -0.037857022
0002d0 23 38 d7 3c af 00 9a bb 34 f9 e0 bb 00 f2 58 bd
       0.026271885 -0.0046997885 -0.006865645 -0.052965164
0002e0 1a 5a ee bc 44 b3 8d bc d1 9e 46 bd 6b bb 4c 3d
       -0.029095698 -0.017297395 -0.048491303 0.049983423
0002f0 f6 04 cc ba 94 d8 4d bd 59 3c 87 3c 6b ad 8b bb
       -0.0015565443 -0.050255373 0.016508268 -0.0042626164
000300 8d bb 9d bb a5 dd 63 bc 23 ec 58 3c 3a 0b 90 3b
       -0.0048136176 -0.013907825 0.013239893 0.0043958696
000310 ce e8 4d bc 7b eb 20 3a 04 3d 22 3b e4 47 a1 3b
       -0.012567712 0.0006138605 0.0024755606 0.0049219
000320 f4 1e 84 ba 52 59 88 bc 57 6e 25 bc bd cd e9 39
       -0.0010080026 -0.016644154 -0.010097108 0.0004459451
000330 b6 be ca ba 5a 5c f2 bb 74 17 ea b9 e4 a2 22 bc
       -0.0015468213 -0.007396263 -0.00044649432 -0.009926531
000340 9f 95 06 ba ae 3d b9 3b 84 48 14 3b 32 19 5b 3b
       -0.00051339896 0.0056531047 0.002262623 0.0033431766
000350 5c 0d 08 3a dd 70 02 3c 5c 6c 52 bb 62 66 0c bc
       0.0005189979 0.007961479 -0.0032108044 -0.008569332
000360 40 d8 a9 39 72 3b 6f 3b e0 61 b7 bb 17 4a 32 bb
       0.0003239531 0.0036503938 -0.0055963844 -0.0027204806
000370 fb 1c 7c bb d6 7f 8f bb a1 83 9e 3c 19 f8 ee 3b
       -0.0038469422 -0.004379253 0.019349875 0.007292759
000380 fc 3f 32 ba 2c 78 4a bb 7f 32 c0 ba 22 0f 1f 3c
       -0.00067996955 -0.0030894382 -0.0014663487 0.009708198
000390 cd f5 d7 39 6a 6b 73 bc 42 04 39 bb 1e c6 15 bc
       0.00041191131 -0.0148571525 -0.0028231298 -0.009141473
0003a0 41 b8 ec bb 3b c7 7b bb 66 40 ac bb 4b 37 42 3b
       -0.007224113 -0.003841831 -0.0052567003 0.0029635008
0003b0 6a ee 30 3c 54 2d 24 3b 4c 2b 39 bc 44 d0 66 bb
       0.01079903 0.0025051432 -0.011301827 -0.003521935
0003c0 6f 61 50 bc 7b 31 3b 3b 6d ee 2e ba 1f 3c f6 bb
       -0.0127185425 0.0028563428 -0.00066731015 -0.007514491
0003d0 ed d2 69 bb 11 4f 93 bb bd 0e 94 3a 7c 86 39 3b
       -0.00356787 -0.0044955094 0.0011295896 0.0028308919
0003e0 62 fd c4 3a 8b 19 d3 b9 3a 20 6c bc 9b 51 07 3b
       0.0015029127 -0.00040264087 -0.01441198 0.0020648006
0003f0 e8 12 e2 bb 3f 9e 39 bc c7 8c c0 3a 0a 5e 0a bc
       -0.0068992265 -0.011329233 0.0014690392 -0.008445272
