Results/AFP/29/model.pth (torch, 189069 bytes, 40 tensors)

gnn.init_context.project_node.0.weight f4 [32, 74]
0	0xbc31e40f	-0.010857596
1	0x380389af	3.136106e-05
2	0x379f2869	1.8973094e-05
3	0x370eaad8	8.503637e-06
4	0xb78a4248	-1.6481747e-05
5	0x3494bc8b	2.770433e-07
6	0x3612c090	2.1867781e-06
7	0x36e6acf7	6.87467e-06
8	0x36797928	3.7174414e-06
9	0xb97426f6	-0.00023284167
10	0x06719a22	4.54403e-35
11	0x8693c3b9	-5.558284e-35
12	0x86b3770b	-6.7507234e-35
13	0x0606596c	2.5268296e-35
14	0x06c4c15c	7.401112e-35
15	0xb531ff2b	-6.6308957e-07
16	0x06b21c58	6.6997806e-35
17	0x069cd55f	5.89942e-35
18	0x3ba6a2c4	0.005085321
19	0x0541fe23	9.121494e-36
20	0x8602d018	-2.4603166e-35
21	0x8554dad4	-1.00083845e-35
22	0x263ba9ef	6.510896e-16
23	0x38a56b0c	7.887752e-05
24	0x371fb827	9.520015e-06
25	0x860fcdbe	-2.7046466e-35
26	0x06d0acde	7.849491e-35
27	0x865d8aa3	-4.1667334e-35
28	0x066c1019	4.4398493e-35
29	0x345fb254	2.0833369e-07
30	0x069b1562	5.833594e-35
31	0x97193767	-4.9506894e-25
32	0x86873090	-5.085271e-35
33	0x868395b6	-4.9496704e-35
34	0x374ddc87	1.2270298e-05
35	0x856a3c81	-1.101374e-35
36	0x8632b40c	-3.3610357e-35
37	0x06be3a8d	7.155609e-35
38	0x8472550d	-2.8486017e-36
39	0x065e0929	4.176029e-35
40	0x2d7790e1	1.4072494e-11
41	0x89ec836b	-5.693852e-33
42	0x06b878a7	6.939039e-35
43	0x06aeb366	6.571513e-35
44	0x37e52f51	2.732096e-05
45	0xba40aa61	-0.0007349607
46	0x37fcb373	3.0124304e-05
47	0x37849ee8	1.5809623e-05
48	0x86be6f1f	-7.1633334e-35
49	0x34034302	1.2224703e-07
50	0x066269b6	4.258354e-35
51	0x0685a8bb	5.0276967e-35
52	0x8643baeb	-3.681275e-35
53	0x06713989	4.5369332e-35
54	0x383b7b2e	4.4698994e-05
55	0xb8337c55	-4.279272e-05
56	0xb691f736	-4.350116e-06
57	0xb59ae803	-1.1541418e-06
58	0x85b2db16	-1.6819519e-35
59	0x0617b6aa	2.8534144e-35
60	0x063daa48	3.5672052e-35
61	0x35f564f6	1.8283306e-06
62	0x0621e09f	3.044576e-35
63	0xb71aaeb5	-9.219792e-06
64	0x39038e2d	0.00012546098
65	0x38246772	3.9196988e-05
66	0x86622530	-4.2533197e-35
67	0x34161910	1.3978956e-07
68	0x388b7eef	6.65168e-05
69	0x3868645f	5.540659e-05
70	0xb828d133	-4.0249153e-05
71	0xb694af34	-4.43114e-06
72	0xb5b7775b	-1.36693e-06
73	0x3c8385f0	0.016055077
74	0x32c47261	2.2869417e-08
75	0x30c546ed	1.4353795e-09
76	0x2ff5df33	4.4723833e-10
77	0x2d45f441	1.1252389e-11
78	0x3131a02d	2.584794e-09
79	0xaecbdfbe	-9.271116e-11
80	0xaf81f8ee	-2.3641838e-10
81	0xafa1d40e	-2.9436403e-10
82	0xaf97e25e	-2.7627584e-10
83	0x066ab05f	4.4140086e-35
84	0x863d5f4d	-3.5616965e-35
85	0x064b7c05	3.8271172e-35
86	0x060ae9ae	2.6126596e-35
87	0x0600c187	2.4216306e-35
88	0x8535485a	-8.523868e-36
89	0x2f307210	1.604763e-10
90	0x85f430db	-2.2963596e-35
91	0x05f87a26	2.3366678e-35
92	0x0591b7dd	1.3703275e-35
93	0x867c4f4b	-4.7454187e-35
94	0x84e8d355	-5.4737016e-36
95	0x065611e8	4.0262082e-35
96	0x0686abca	5.065762e-35
97	0x865d9010	-4.167132e-35
98	0x03f7b42c	1.4558721e-36
99	0x86259f3c	-3.1150038e-35
100	0x0582275a	1.2239597e-35
101	0x05d4e040	2.001876e-35
102	0x068d14b2	5.3068714e-35
103	0x2de15202	2.5615957e-11
104	0x893f38ee	-2.3017557e-33
105	0x860fc440	-2.7039492e-35
106	0xbb27ac63	-0.0025584928
107	0x064b3e86	3.8225991e-35
108	0x04d86c06	5.088056e-36
109	0x86b5cecc	-6.8388493e-35
110	0x862fa93c	-3.3038176e-35
111	0x06936099	5.543719e-35
112	0xb7826be9	-1.5547457e-05
113	0x05ad2f7a	1.6286282e-35
114	0x38b81d81	8.779299e-05
115	0x86ad57d0	-6.5204396e-35
116	0x069398f5	5.5520004e-35
117	0x06a9eb83	6.391679e-35
118	0x31064c44	1.9542918e-09
119	0x31f20db5	7.0446853e-09
120	0x321486b4	8.645362e-09
121	0x302e10a4	6.332448e-10
122	0x85d3bc20	-1.9911451e-35
123	0x2df0c8bc	2.7373985e-11
124	0x8647837d	-3.7524342e-35
125	0x06695334	4.3883557e-35
126	0x0646d632	3.7397027e-35
127	0x8612aaca	-2.7585024e-35
128	0x32de69d8	2.5892334e-08
129	0x31de9a37	6.4785826e-09
130	0x2e872d32	6.1471175e-11
131	0x2953b450	4.7007808e-14
132	0x0698e760	5.751602e-35
133	0x0660a34a	4.2249683e-35
134	0x0670ffd4	4.5326936e-35
135	0x2ef51518	1.1145057e-10
136	0x05e25dad	2.1287349e-35
137	0xaf8bcda5	-2.5430072e-10
138	0x32d628cc	2.4931431e-08
139	0x320a54f5	8.051974e-09
140	0x05bae451	1.7575226e-35
141	0xae78cab3	-5.6568705e-11
142	0x324b2918	1.1825499e-08
143	0x32ebe039	2.7459565e-08
144	0x31de8fc8	6.4773964e-09
145	0x2e86c773	6.129044e-11
146	0xab4b74aa	-7.228199e-13
147	0x06131cb9	2.766873e-35
148	0x312f2a5a	2.5489926e-09
149	0x2ead1226	7.870353e-11
150	0x2e3c585a	4.2824723e-11
151	0xae4f5e3e	-4.7150055e-11
152	0x2ef8b6a8	1.13101806e-10
153	0xad9f604a	-1.8118968e-11
154	0x2dd4bac5	2.4184552e-11
155	0x2e029562	2.9691256e-11
156	0x2dadd3e1	1.9761916e-11
157	0xb88d25f9	-6.730477e-05
158	0x06052b35	2.5046263e-35
159	0x89a47c63	-3.9598537e-33
160	0x06a1a025	6.079678e-35
161	0x04c4c97c	4.6264413e-36
162	0x37a694e4	1.9858075e-05
163	0x2c86ad24	3.8277315e-12
164	0x864622c9	-3.7265217e-35
165	0x8fc908ee	-1.982357e-29
166	0x932e95a1	-2.203566e-27
167	0x05b781bf	1.7256898e-35
168	0xbb85545a	-0.0040688934
169	0x36f213c0	7.214461e-06
170	0x2ca4a649	4.6796217e-12
171	0x0640ffe8	3.6299197e-35
172	0x068d76a3	5.3212626e-35
173	0x85cdcb11	-1.9352702e-35
174	0x06b4b903	6.7980325e-35
175	0x06c858fc	7.536239e-35
176	0x84a79fde	-3.9408326e-36
177	0x2bd238dc	1.4937179e-12
178	0x865e59fe	-4.1819675e-35
179	0x8e65132b	-2.8235658e-30
180	0x8409e8d7	-1.6211187e-36
181	0x06610a7b	4.2325496e-35
182	0x065ba783	4.131239e-35
183	0x867a31dc	-4.7056405e-35
184	0x06bb6e35	7.0503517e-35
185	0x0666c123	4.3400087e-35
186	0x845792e4	-2.5340577e-36
187	0x8608a7a6	-2.5701926e-35
188	0x061ff62e	3.008544e-35
189	0x062de070	3.2702574e-35
190	0x860078af	-2.416279e-35
191	0x8614a0ca	-2.7953835e-35
192	0x2f0e9d8b	1.2970795e-10
193	0x2ff685fd	4.4842344e-10
194	0x2fd99c27	3.9583023e-10
195	0x2f38a36c	1.6792762e-10
196	0x86840b25	-4.9669257e-35
197	0x2aa37ff6	2.9043407e-13
198	0x861621bc	-2.8236649e-35
199	0x068108f4	4.853756e-35
200	0x045caf9d	2.5941513e-36
201	0x068f81fb	5.398161e-35
202	0x3078045f	9.0228086e-10
203	0x2fc98bea	3.6661102e-10
204	0x2d25d546	9.42652e-12
205	0x2c197fad	2.1813482e-12
206	0x8641e3e6	-3.64667e-35
207	0x2148fd5f	6.809797e-19
208	0x8599e8b4	-1.4473532e-35
209	0x2da4a692	1.8718613e-11
210	0x84f6f995	-5.8063527e-36
211	0xab480cca	-7.107202e-13
212	0x30f2633c	1.7636022e-09
213	0x2f45d475	1.7992526e-10
214	0x851ebb10	-7.463482e-36
215	0x2bff6ddb	1.8149331e-12
216	0x304ea0c2	7.5170814e-10
217	0x304d1797	7.461209e-10
218	0x2fc0a95e	3.504494e-10
219	0x2d2861f3	9.5714435e-12
220	0x2c0f50b0	2.0366313e-12
221	0x065e4cb8	4.1809923e-35
222	0xb5bf94b3	-1.4273886e-06
223	0x322f56ce	1.0206078e-08
224	0x317f14ca	3.71192e-09
225	0xb0f88a0f	-1.8083613e-09
226	0x329af783	1.8040515e-08
227	0x3853f4ea	5.0534414e-05
228	0x3356a892	4.997907e-08
229	0xb0cb31ce	-1.4784349e-09
230	0x30d2fa9b	1.5350737e-09
231	0x860f56de	-2.695913e-35
232	0x863e8e35	-3.5839505e-35
233	0x8658c9c0	-4.0773307e-35
234	0x85f1c74b	-2.273674e-35
235	0x862aff30	-3.2160929e-35
236	0x068d6d7d	5.3199184e-35
237	0x3115a303	2.1775015e-09
238	0x856830bb	-1.0917538e-35
239	0x8562de76	-1.06673286e-35
240	0x05a620c0	1.5622595e-35
241	0x86840662	-4.966226e-35
242	0x8508f7b8	-6.440188e-36
243	0x83967bda	-8.844643e-37
244	0xba336b24	-0.00068442733
245	0x066edb21	4.4923815e-35
246	0xbb0194c7	-0.0019772516
247	0x06a912f0	6.359856e-35
248	0x0551b5df	9.860537e-36
249	0x06c35ffd	7.349189e-35
250	0x064488e3	3.696407e-35
251	0xadda2234	-2.479892e-11
252	0x86976fe4	-5.6964296e-35
253	0x3ad2e21b	0.0016089113
254	0x864b449f	-3.823047e-35
255	0x86274e7d	-3.1466873e-35

gnn.init_context.project_node.0.bias f4 [32]
0	0xbc6cb99f	-0.014448552
1	0xb6c198b3	-5.7696247e-06
2	0xb49db237	-2.9373197e-07
3	0xb87c042a	-6.008536e-05
4	0xbb4b5a36	-0.0031029112
5	0xb8f0692c	-0.000114636816
6	0xa3035c96	-7.12113e-18
7	0xbb700a6a	-0.00366273
8	0xba4fa101	-0.0007920415
9	0xb51d051f	-5.849451e-07
10	0xbb5e2cc0	-0.0033901185
11	0xbb599bae	-0.0033204365
12	0xbb4ccbbe	-0.003124937
13	0xb9dd2296	-0.00042178173
14	0xbd15a2dc	-0.036532268
15	0xbc11a6ac	-0.008889835
16	0xba8bacd9	-0.0010656371
17	0xba4f8fd8	-0.0007917858
18	0xbe436054	-0.19079715
19	0xbc0f62aa	-0.008751551
20	0xa731d81f	-2.4680844e-15
21	0xbc234d05	-0.009967093
22	0xae676734	-5.2614982e-11
23	0xbf0689c6	-0.52553976
24	0x3e6d4abd	0.23173042
25	0xb989d7d6	-0.00026291487
26	0xbce30a8a	-0.027714986
27	0xbd90040e	-0.07032023
28	0xbbd35b09	-0.006450061
29	0xb618fe96	-2.2797954e-06
30	0xb58dfdea	-1.0579217e-06
31	0xb2c78e40	-2.3231337e-08

gnn.init_context.project_edge1.0.weight f4 [32, 87]
0	0x94f11759	-2.434399e-26
1	0x15573e7e	4.3468202e-26
2	0x14fecc63	2.5728062e-26
3	0x11f84398	3.9169159e-28
4	0x12ca7f3f	1.2779361e-27
5	0x92b73d71	-1.156407e-27
6	0x94946fba	-1.498825e-26
7	0x948d4540	-1.4264676e-26
8	0x93a34d76	-4.1223367e-27
9	0x06ab564b	6.4449847e-35
10	0x86a5dd77	-6.2391515e-35
11	0x851fffb3	-7.5231086e-36
12	0x3a5f2357	0.0008512041
13	0x86a9e6d0	-6.3909883e-35
14	0x863ba4b1	-3.5291787e-35
15	0x93ecabdc	-5.9744242e-27
16	0x860270b6	-2.453309e-35
17	0x05def66e	2.0967304e-35
18	0x84acddb7	-4.064062e-36
19	0x865858e7	-4.06904e-35
20	0x8674e287	-4.6057725e-35
21	0x858f391d	-1.3468635e-35
22	0x060aab68	2.6080845e-35
23	0x06acfbb7	6.506907e-35
24	0x38a16127	7.695174e-05
25	0x05a822d0	1.5811432e-35
26	0x0630842b	3.3199023e-35
27	0x85223716	-7.627321e-36
28	0x0634dda2	3.4017067e-35
29	0x126d2c2e	7.483847e-28
30	0x396bc8ac	0.00022486103
31	0x868ffe42	-5.416422e-35
32	0x04eaea44	5.5228275e-36
33	0x068c66d6	5.281325e-35
34	0x26ef0e14	1.6587772e-15
35	0x8611c403	-2.7415476e-35
36	0x0710cf3a	1.0894254e-34
37	0x391933c5	0.00014610503
38	0x8b9c2f7d	-6.0160467e-32
39	0xb5fcbee0	-1.8831015e-06
40	0x066ae819	4.4181027e-35
41	0x068dfed5	5.3412747e-35
42	0x854d9bcc	-9.667669e-36
43	0x8606f0ba	-2.5379457e-35
44	0x94efb0aa	-2.4202514e-26
45	0x9403608a	-6.632849e-27
46	0x9518ae0a	-3.0833448e-26
47	0x13e96b91	5.8923538e-27
48	0x8fa9f386	-1.6758488e-29
49	0x93183d2f	-1.9215263e-27
50	0x37b80070	2.1934713e-05
51	0x861314e0	-2.7662964e-35
52	0x06ad59bf	6.520724e-35
53	0x86af19e4	-6.5865727e-35
54	0x1504c1df	2.6810125e-26
55	0x13da25a9	5.5068073e-27
56	0x92530d81	-6.6596505e-28
57	0x94d3d4da	-2.138951e-26
58	0x86b26320	-6.710181e-35
59	0x86636ff7	-4.2776214e-35
60	0x0548daab	9.444118e-36
61	0x94872c2e	-1.3648942e-26
62	0x85c5261e	-1.8539793e-35
63	0x141cabf8	7.909902e-27
64	0x15c6588b	8.011126e-26
65	0x943248fc	-9.001097e-27
66	0xb9c0acdf	-0.00036749893
67	0x93eaa81f	-5.9235685e-27
68	0x959f6a2b	-6.438709e-26
69	0x158f6153	5.791079e-26
70	0x15b7e834	7.4279463e-26
71	0x932a7b88	-2.1517922e-27
72	0x1439cc2c	9.380379e-27
73	0x39de235d	0.00042369487
74	0x932c44f0	-2.174344e-27
75	0x951036f0	-2.9123906e-26
76	0x9408c69a	-6.9054126e-27
77	0x95fecd50	-1.0291371e-25
78	0x94eecb0a	-2.4111943e-26
79	0x9608bbdf	-1.1045274e-25
80	0x15b04787	7.1198684e-26
81	0x86a08d4e	-6.039294e-35
82	0x940dcbcf	-7.158875e-27
83	0x942d03ea	-8.73504e-27
84	0x86abb76d	-6.459257e-35
85	0x065063f2	3.919388e-35
86	0x15a21009	6.545658e-26
87	0xafbb6faa	-3.4094444e-10
88	0x2edd5170	1.0064383e-10
89	0xae7d591a	-5.7604678e-11
90	0x2e89436c	6.242015e-11
91	0xae155cc4	-3.396107e-11
92	0x2cc82cde	5.689323e-12
93	0xadc43935	-2.2308025e-11
94	0x2d89c70d	1.5663493e-11
95	0x362892c0	2.511937e-06
96	0x85cee699	-1.9456855e-35
97	0x3bd469a3	0.0064823194
98	0x85a71319	-1.571162e-35
99	0x05cebd11	1.9441599e-35
100	0x8673d689	-4.5860836e-35
101	0x068eaa13	5.3664365e-35
102	0x2c06b5fe	1.9143571e-12
103	0x860ccea5	-2.6482892e-35
104	0x059422a4	1.3930578e-35
105	0x8639ce0c	-3.4946012e-35
106	0x066664de	4.3332298e-35
107	0x06a16083	6.070328e-35
108	0x86a02ebd	-6.0253986e-35
109	0x05f3ce51	2.2927399e-35
110	0x862e5ec8	-3.2795397e-35
111	0x05b089a6	1.6601525e-35
112	0x069ae139	5.8259297e-35
113	0x8620c83d	-3.0239767e-35
114	0x864c649a	-3.8442046e-35
115	0xbc4baa2a	-0.012430707
116	0xac875e5f	-3.847408e-12
117	0x86033f74	-2.468498e-35
118	0xb845b6d6	-4.713874e-05
119	0x06427561	3.657358e-35
120	0x275c7688	3.059539e-15
121	0x3812dff6	3.5017692e-05
122	0x055f67f7	1.0504505e-35
123	0x8668a525	-4.375568e-35
124	0x382707ed	3.9823284e-05
125	0x84dbfb6c	-5.1717547e-36
126	0x8618660e	-2.8663e-35
127	0x85d771d1	-2.0260312e-35
128	0x86626c76	-4.258556e-35
129	0x868656af	-5.053257e-35
130	0x866dd2ab	-4.472952e-35
131	0xabd40ed3	-1.5067621e-12
132	0x300f16d1	5.205552e-10
133	0xad4965d3	-1.1448137e-11
134	0xaeb5bfc3	-8.264991e-11
135	0x064a18d9	3.8010233e-35
136	0xb0d5802b	-1.5534217e-09
137	0x06316cbf	3.3369894e-35
138	0x85b81c78	-1.7313735e-35
139	0xb82bf0e9	-4.0993942e-05
140	0x058557aa	1.2539463e-35
141	0x2d4e612c	1.1731321e-11
142	0xaff9d3e7	-4.5443402e-10
143	0x2db004e3	2.0011054e-11
144	0x2d1ba01a	8.84628e-12
145	0x06a531d9	6.2139346e-35
146	0x049a176a	3.622673e-36
147	0x3a914a9b	0.0011084856
148	0xad9d10be	-1.7856269e-11
149	0x06389929	3.4719078e-35
150	0xab1d8bb4	-5.597148e-13
151	0xaea98865	-7.709459e-11
152	0x2e1ecbcb	3.6106045e-11
153	0x064d7601	3.864291e-35
154	0x3125c7fc	2.4124338e-09
155	0x2fb4dc58	3.2898373e-10
156	0x2e476aea	4.534232e-11
157	0xaef7ea0c	-1.12738346e-10
158	0x2db07530	2.0060925e-11
159	0x2d34b175	1.0271219e-11
160	0x07c898ea	3.018253e-34
161	0xad2b26a0	-9.728801e-12
162	0x2d04f16e	7.5569394e-12
163	0x2c00d8dd	1.8310277e-12
164	0x2e6aef9c	5.3418256e-11
165	0xaec7e016	-9.089278e-11
166	0xaedfddbf	-1.0180256e-10
167	0x2e68a038	5.2892996e-11
168	0x05049d39	6.2354874e-36
169	0xad26e6ae	-9.487229e-12
170	0x2ca9d169	4.826518e-12
171	0x853f648c	-8.9992444e-36
172	0x38be992d	9.088437e-05
173	0x2ff9adb5	4.5416262e-10
174	0x990de20e	-7.3351805e-24
175	0x19325460	9.219424e-24
176	0x9a7b7646	-5.2001124e-23
177	0x99234cf2	-8.4424415e-24
178	0x9a83b468	-5.447179e-23
179	0x17c14b61	1.2491361e-24
180	0x19183d51	7.8705986e-24
181	0x99d13c88	-2.1634542e-23
182	0x1790da94	9.360959e-25
183	0x8bde9353	-8.573296e-32
184	0x047b2ece	2.95264e-36
185	0x864a134b	-3.8006152e-35
186	0x8500caed	-6.055803e-36
187	0x0660c258	4.22725e-35
188	0x0558d9f8	1.0196306e-35
189	0x184c7a10	2.6428008e-24
190	0x8557c376	-1.0145152e-35
191	0x06700b1e	4.514715e-35
192	0x05aca0f1	1.6233923e-35
193	0x86587739	-4.0712676e-35
194	0x06400b2f	3.6119403e-35
195	0xb20d5bfb	-8.228194e-09
196	0x84e745e7	-5.4372034e-36
197	0x39cee1c0	0.0003945958
198	0x850f1f1f	-6.729544e-36
199	0x8684bdb1	-4.993161e-35
200	0x06007ecf	2.4167289e-35
201	0x3a73be3f	0.0009298063
202	0x0689944c	5.1751575e-35
203	0x9793c8fa	-9.550386e-25
204	0x0648feaa	3.7802917e-35
205	0x0680e420	4.848345e-35
206	0x019c965d	5.752111e-38
207	0x86488040	-3.7710042e-35
208	0x06809766	4.837071e-35
209	0x865765f8	-4.051192e-35
210	0x859d5b41	-1.479773e-35
211	0x8611feeb	-2.7458753e-35
212	0x06a75326	6.2940594e-35
213	0x03ad7d28	1.0196761e-36
214	0x06a3aa11	6.1563675e-35
215	0x068bf26a	5.2642184e-35
216	0x868288cd	-4.9101576e-35
217	0x86574a7a	-4.0491722e-35
218	0x9b0effcf	-1.1828621e-22
219	0x9b352daa	-1.4986724e-22
220	0x9b13af69	-1.2216233e-22
221	0x9a41ff84	-4.011787e-23
222	0x865fac64	-4.206829e-35
223	0x16e21b1a	3.6529373e-25
224	0x85963fa8	-1.4129316e-35
225	0x862299ab	-3.058171e-35
226	0x38336495	4.27706e-05
227	0x065c7a54	4.1467274e-35
228	0x1b29814e	1.4021133e-22
229	0x1ba0edf4	2.6623553e-22
230	0x1a9cd96e	6.4871364e-23
231	0x998818f6	-1.4072152e-23
232	0xbaa8fa94	-0.0012892061
233	0x86bca291	-7.095661e-35
234	0x065b4f82	4.1247735e-35
235	0x99108fda	-7.473676e-24
236	0x0656322b	4.0285784e-35
237	0x18cd39ee	5.3049752e-24
238	0x196430e8	1.17972e-23
239	0x1a421b7a	4.0140455e-23
240	0x03d2ea54	1.239649e-36
241	0x1790beab	9.353913e-25
242	0x19e5850d	2.3731784e-23
243	0x1b3a0e8e	1.5390262e-22
244	0x1b97033a	2.498294e-22
245	0x1ab85567	7.623859e-23
246	0x1a853a10	5.5101316e-23
247	0x0621008e	3.0281142e-35
248	0x9a887c80	-5.644942e-23
249	0x1a215009	3.335867e-23
250	0x98e47bcc	-5.906162e-24
251	0x9b16f78b	-1.2487695e-22
252	0x1b478ce3	1.6506417e-22
253	0x1ad903ca	8.975522e-23
254	0x18018190	1.6738272e-24
255	0x86118ae0	-2.7373498e-35

gnn.init_context.project_edge1.0.bias f4 [32]
0	0x955c6f59	-4.4516484e-26
1	0xb0e4fec4	-1.6661592e-09
2	0x1b6bdaa1	1.9509387e-22
3	0xb20d634e	-8.2298595e-09
4	0xa0353351	-1.5348276e-19
5	0xb2e35c76	-2.6468324e-08
6	0xb3962b03	-6.992743e-08
7	0xb60e5d6c	-2.1214028e-06
8	0x20138442	1.2495145e-19
9	0xb2d8ac58	-2.5224082e-08
10	0xafac2128	-3.1310177e-10
11	0x1ac6f610	8.2288416e-23
12	0x9e8ed117	-1.5121312e-20
13	0x92809007	-8.113441e-28
14	0x15a7cb56	6.777157e-26
15	0xb2b1d911	-2.0704222e-08
16	0x168dc240	2.2902368e-25
17	0x8ea591c6	-4.0816015e-30
18	0x31d73481	6.2632926e-09
19	0x34151633	1.3884782e-07
20	0xba3e9ac0	-0.00072709844
21	0x312a6d7b	2.4800488e-09
22	0xa1dfa172	-1.5153802e-18
23	0xad14b349	-8.452635e-12
24	0x2f960b33	2.7292799e-10
25	0x968829f9	-2.1998473e-25
26	0x938a4366	-3.4902558e-27
27	0xa5a9d253	-2.9459348e-16
28	0x100c920f	2.772265e-29
29	0x949e515f	-1.5986018e-26
30	0xa8612dca	-1.2499938e-14
31	0xa64e04f7	-7.1477336e-16

gnn.init_context.project_edge2.1.weight f4 [1, 64]
0	0x316ff2e0	3.4917136e-09
1	0x29e68be1	1.0238317e-13
2	0x29507b67	4.6292312e-14
3	0xac12589f	-2.0797042e-12
4	0x3051344f	7.610809e-10
5	0x30e038a6	1.6314246e-09
6	0x1980088c	1.3238342e-23
7	0x2fe46bea	4.1549636e-10
8	0x3a672b03	0.000881836
9	0x29a17891	7.170751e-14
10	0xaf856252	-2.426242e-10
11	0x309c2915	1.136217e-09
12	0xaf53ab45	-1.9251185e-10
13	0xae4dc9ba	-4.6790773e-11
14	0xb99ff35c	-0.0003050816
15	0x325ab96d	1.2731431e-08
16	0x2e6041b3	5.0990056e-11
17	0xaf4d8d49	-1.8694836e-10
18	0x32dfb7cc	2.6044198e-08
19	0x341504b4	1.3878417e-07
20	0x9e9a4f54	-1.6338194e-20
21	0xb22f8099	-1.021558e-08
22	0xa46e6451	-5.1692995e-17
23	0x34121547	1.360505e-07
24	0xb54ab596	-7.5515106e-07
25	0xae154a02	-3.394441e-11
26	0xb231da46	-1.0352386e-08
27	0xb11c9b72	-2.2789348e-09
28	0x365f6a20	3.3291362e-06
29	0xad517977	-1.1907245e-11
30	0xabf3862a	-1.7303426e-12
31	0x3b759393	0.0037471994
32	0x0fe98170	2.3025431e-29
33	0xab3294ce	-6.344481e-13
34	0x947b6b07	-1.2693369e-26
35	0x2d8293fa	1.4845004e-11
36	0x19d9e250	2.2528681e-23
37	0xaeaa6584	-7.748738e-11
38	0xaa958fc6	-2.656748e-13
39	0x304d4a38	7.4684037e-10
40	0x9a321545	-3.682672e-23
41	0x29a208a5	7.195745e-14
42	0x2d8d3981	1.6055381e-11
43	0x137b0601	3.1683614e-27
44	0x9ac49b53	-8.131464e-23
45	0x8c54302c	-1.6346382e-31
46	0x8e74e592	-3.0185856e-30
47	0xa99eeb88	-7.057468e-14
48	0x91896521	-2.1677114e-28
49	0x880c81c1	-4.2282243e-34
50	0x2d0047b3	7.291878e-12
51	0xabec3bb7	-1.6785383e-12
52	0xb594386c	-1.104328e-06
53	0xabeb2a1f	-1.6709445e-12
54	0x1a230a8c	3.371613e-23
55	0x2a2f942f	1.5594534e-13
56	0x2c18694d	2.1658953e-12
57	0x10f6af94	9.730041e-29
58	0x8d4f63af	-6.390679e-31
59	0x2132fd0f	6.0643666e-19
60	0x0a708886	1.1581257e-32
61	0x8e8b9655	-3.441091e-30
62	0x9d5865cb	-2.8639988e-21
63	0x21d8e234	1.4696605e-18

gnn.init_context.attentive_gru.edge_transform.1.weight f4 [32, 32]
0	0x0e8c804c	3.463621e-30
1	0x169e9ab3	2.5623906e-25
2	0x8ddf4a68	-1.3761349e-30
3	0x17fbe490	1.6278192e-24
4	0x935251bc	-2.6546025e-27
5	0x96d246d2	-3.3972024e-25
6	0x17f5889b	1.5867238e-24
7	0x9a8b0543	-5.7497553e-23
8	0x91b07a87	-2.7843417e-28
9	0x97991dd7	-9.894926e-25
10	0x188115d5	3.3367763e-24
11	0x0d19a75f	4.734823e-31
12	0x0f645333	1.12572915e-29
13	0x8a002d45	-6.17149e-33
14	0x8f437ee3	-9.63868e-30
15	0x971689ef	-4.864171e-25
16	0x09fe6b54	6.1249207e-33
17	0x885c9fc4	-6.6391645e-34
18	0x17ee7487	1.5409805e-24
19	0x17a4b855	1.0644784e-24
20	0x9ec1e4cf	-2.0529303e-20
21	0x98022617	-1.6821337e-24
22	0x8ebc6238	-4.644016e-30
23	0x15b5bfb7	7.340779e-26
24	0x9839c489	-2.4009914e-24
25	0x0fd9ccf0	2.1476791e-29
26	0x8794348b	-2.2299447e-34
27	0x8f82be87	-1.2892378e-29
28	0x8a609f41	-1.081516e-32
29	0x8da5c578	-1.0216449e-30
30	0x93033723	-1.656171e-27
31	0x0cf0e70d	3.7116914e-31
32	0x8ed1217c	-5.1554722e-30
33	0x173dfc1e	6.138741e-25
34	0x0aa09715	1.546427e-32
35	0x98908384	-3.7355924e-24
36	0x12065a3b	4.239416e-28
37	0x1797d441	9.811727e-25
38	0x1a8d7bc7	5.8516206e-23
39	0x1c4866c6	6.630728e-22
40	0x91bf091a	-3.0140096e-28
41	0x1bbf1d1c	3.161711e-22
42	0x9b3125d8	-1.4653325e-22
43	0x8cce6fb7	-3.1806561e-31
44	0x8d209496	-4.948266e-31
45	0x89118132	-1.7514487e-33
46	0x8fe21c3b	-2.2296195e-29
47	0x9887eefd	-3.5138e-24
48	0x0912e17b	1.7680131e-33
49	0x88b232d2	-1.0724933e-33
50	0x999fef65	-1.6536905e-23
51	0x9aec5229	-9.774005e-23
52	0x9d5c96a3	-2.9194635e-21
53	0x1826a20a	2.1536806e-24
54	0x0d893494	8.455935e-31
55	0x960d59dc	-1.1418244e-25
56	0x19372583	9.468454e-24
57	0x10c9ec2c	7.96444e-29
58	0x880328c4	-3.94693e-34
59	0x8d91bd0f	-8.981829e-31
60	0x882097fe	-4.8326915e-34
61	0x881fd87e	-4.8101807e-34
62	0x8fd7c892	-2.1277894e-29
63	0x90555930	-4.207555e-29
64	0x0e974b90	3.7297138e-30
65	0x2376d39d	1.33804976e-17
66	0x90d6be77	-8.4701574e-29
67	0x2695505b	1.0360732e-15
68	0x146ca770	1.1947976e-26
69	0x275d5ccc	3.0720216e-15
70	0xa8c942ff	-2.2344538e-14
71	0xabaeedfd	-1.2429499e-12
72	0x93880ef2	-3.4345964e-27
73	0x2a8625a0	2.382929e-13
74	0x2a9458cc	2.6351696e-13
75	0x0e641c7c	2.8116884e-30
76	0x926da5a8	-7.49882e-28
77	0x097989a9	3.0037012e-33
78	0x0e36f8b8	2.2552986e-30
79	0xa8e2d2d1	-2.5182467e-14
80	0x0d09e8b4	4.249649e-31
81	0x88d142bb	-1.2594418e-33
82	0xa87e22a5	-1.4107345e-14
83	0xaa9460d4	-2.635727e-13
84	0x2eb68d73	8.301528e-11
85	0x25838def	2.2821055e-16
86	0x1b5faafe	1.8501378e-22
87	0x2659de49	7.558825e-16
88	0x25c009f8	3.3313446e-16
89	0x0f90a223	1.4261949e-29
90	0x0d0fbcd4	4.429257e-31
91	0x194e12a7	1.0653717e-23
92	0x0618bdc7	2.872745e-35
93	0x8df36e44	-1.5002577e-30
94	0x99879e34	-1.402257e-23
95	0x1ee0b6dd	2.3792553e-20
96	0x8cd845ee	-3.3322157e-31
97	0x1c91e1f1	9.6537e-22
98	0x8d5273f6	-6.485083e-31
99	0x9c4eb380	-6.839168e-22
100	0x0fbd3220	1.8656146e-29
101	0x9c4e6343	-6.8287975e-22
102	0x9df9f49b	-6.6162667e-21
103	0x1f5e9eb1	4.7141595e-20
104	0x8ec725ed	-4.909381e-30
105	0x1f0054ae	2.71751e-20
106	0x1dd6e861	5.6885603e-21
107	0x0cadaf61	2.6760423e-31
108	0x0cfb1e8d	3.869106e-31
109	0x09856d90	3.2121617e-33
110	0x0e4df726	2.5387199e-30
111	0x1ecfe3f9	2.2011265e-20
112	0x0a393443	8.917255e-33
113	0x89b97353	-4.464558e-33
114	0x1c9ef469	1.0518741e-21
115	0x9eb9ffdd	-1.969346e-20
116	0xa2bed1ec	-5.1721867e-18
117	0x1bdf11c9	3.6903749e-22
118	0x8fc82807	-1.973694e-29
119	0x9c107a3e	-4.78036e-22
120	0x1c62ead3	7.508063e-22
121	0x0f4a05b1	9.960465e-30
122	0x0847eec8	6.016507e-34
123	0x915cb643	-1.7411104e-28
124	0x0908c156	1.646131e-33
125	0x0c40f9e5	1.4866342e-31
126	0x106b37b9	4.6388505e-29
127	0x942f8247	-8.860935e-27
128	0x8dafdf2d	-1.0838935e-30
129	0x1b8d14d8	2.3339963e-22
130	0x8c47d0a9	-1.5393194e-31
131	0x9c406f54	-6.367136e-22
132	0x0fd75b4a	2.12358e-29
133	0x1d4f4eea	2.743702e-21
134	0x1d08723c	1.8058508e-21
135	0x9fee078c	-1.00809406e-19
136	0x8ecd42f8	-5.060089e-30
137	0x9d1868d8	-2.0171235e-21
138	0x9ea31f0a	-1.7271134e-20
139	0x8d26449c	-5.1235285e-31
140	0x8f68fef3	-1.14875846e-29
141	0x8b35344e	-3.4898682e-32
142	0x90362842	-3.5924185e-29
143	0x9d91ce88	-3.859473e-21
144	0x0bcd56d8	7.9093796e-32
145	0x8abb4536	-1.8033479e-32
146	0x9d40ae19	-2.5500995e-21
147	0x9f240990	-3.473626e-20
148	0xa4e5c722	-9.965026e-17
149	0x1af1957c	9.991677e-23
150	0x9003e9af	-2.6015218e-29
151	0x1bbb6d32	3.100712e-22
152	0x9c15bd8c	-4.954495e-22
153	0x11987f6f	2.4059909e-28
154	0x89c78480	-4.803211e-33
155	0x114db1ab	1.6226397e-28
156	0x897b28d8	-3.023223e-33
157	0x0dc45a34	1.2101148e-30
158	0x93afb058	-4.43501e-27
159	0x9411d8fe	-7.363423e-27
160	0x0e02240b	1.6041091e-30
161	0x194e4f58	1.0665974e-23
162	0x8cd70ded	-3.3134376e-31
163	0x9a664ded	-4.7625833e-23
164	0x906649c6	-4.5416335e-29
165	0x1b34a840	1.4943616e-22
166	0x1aceb567	8.5492674e-23
167	0x9c53cc51	-7.0078116e-22
168	0x90be1ec4	-7.498919e-29
169	0x1d5fe04a	2.9629759e-21
170	0x1c1c548b	5.172534e-22
171	0x0d0c56d0	4.3245328e-31
172	0x8eef6e74	-5.902441e-30
173	0x0a90e218	1.3951743e-32
174	0x0fae47e8	1.7185422e-29
175	0x1b30fc09	1.4639816e-22
176	0x0b2fef78	3.388393e-32
177	0x098a2f28	3.3266637e-33
178	0x1c0a7a0e	4.581812e-22
179	0x9a517722	-4.3316422e-23
180	0xa2099301	-1.8644785e-18
181	0x9a6949cd	-4.8242886e-23
182	0x8e6d390e	-2.9239976e-30
183	0x99c757c9	-2.0611574e-23
184	0x1adfa55c	9.249779e-23
185	0x90227141	-3.2036114e-29
186	0x88a4f7b9	-9.92863e-34
187	0x8f116937	-7.1693156e-30
188	0x88ce8bf8	-1.24310805e-33
189	0x8c0bf4e4	-1.0781865e-31
190	0x119ecbcb	2.5053602e-28
191	0x91f6809b	-3.8891216e-28
192	0x0fe58af8	2.2634672e-29
193	0x1916cf32	7.796661e-24
194	0x0d747006	7.532315e-31
195	0x18bf5ff0	4.9469215e-24
196	0x177b1793	8.113223e-25
197	0x996abb48	-1.2135338e-23
198	0x1afea109	1.05312104e-22
199	0x1d4581c9	2.613983e-21
200	0x14b210f1	1.7980089e-26
201	0x9c2f6f13	-5.8046203e-22
202	0x1c184d5a	5.0392556e-22
203	0x0e3832b3	2.2704162e-30
204	0x8f2d5130	-8.545195e-30
205	0x0a050468	6.404546e-33
206	0x10eede2c	9.421676e-29
207	0x9bec34de	-3.907709e-22
208	0x0a922882	1.4074526e-32
209	0x094ab100	2.439809e-33
210	0x9b112795	-1.2006909e-22
211	0x1b0b41c1	1.1519057e-22
212	0xa1bb8ccd	-1.2708883e-18
213	0x1a0772da	2.8010122e-23
214	0x8d93c9ad	-9.108126e-31
215	0x9955a500	-1.1045163e-23
216	0x1a9f1b24	6.5804707e-23
217	0x1209ca17	4.3478673e-28
218	0x87db6bec	-3.3014888e-34
219	0x0f28895b	8.309493e-30
220	0x0ace9783	1.9894071e-32
221	0x8f9b233a	-1.5297749e-29
222	0x957901ae	-5.0286475e-26
223	0x1201cd79	4.0958487e-28
224	0x8dfd3b40	-1.5606593e-30
225	0x17157610	4.829351e-25
226	0x0c3ef74f	1.4711489e-31
227	0x96af8193	-2.8354548e-25
228	0x111c3c7e	1.2324871e-28
229	0x97d31597	-1.3641005e-24
230	0x956d8cb5	-4.7972767e-26
231	0x9a503646	-4.3057234e-23
232	0x102b15ea	3.3740686e-29
233	0x9a6b9913	-4.8720513e-23
234	0x18123132	1.8894895e-24
235	0x0d4483c8	6.055579e-31
236	0x0e1fb644	1.968602e-30
237	0x05e0261c	2.1078858e-35
238	0x8f6ad60e	-1.1578316e-29
239	0x19837cde	1.3595516e-23
240	0x8a2ee802	-8.421431e-33
241	0x09c969a1	4.8488323e-33
242	0x967e923f	-2.0564104e-25
243	0x193c36c0	9.730429e-24
244	0x1d61c5a0	2.9880672e-21
245	0x9704b6a2	-4.2882015e-25
246	0x0e4cff68	2.5267915e-30
247	0x16a345c4	2.6378099e-25
248	0x9733c76c	-5.8089725e-25
249	0x90a3671c	-6.445103e-29
250	0x8741d3d8	-1.4581962e-34
251	0x8d580c32	-6.657482e-31
252	0x87c239cd	-2.9223848e-34
253	0x0d97fa91	9.366415e-31
254	0x104f09a5	4.0830982e-29
255	0x0f764fcd	1.21441055e-29

gnn.init_context.attentive_gru.edge_transform.1.bias f4 [32]
0	0xa65d3e86	-7.6759513e-16
1	0xa08d399b	-2.392445e-19
2	0x2ffd5da8	4.608698e-10
3	0xa523ccd6	-1.4207397e-16
4	0x246a7c1e	5.0845793e-17
5	0xa2b87279	-4.9994503e-18
6	0xaa86ed6c	-2.3967926e-13
7	0x1f95ca11	6.3438245e-20
8	0xa728d7ab	-2.3431597e-15
9	0xa7cd426e	-5.6970953e-15
10	0xb2d29d61	-2.4518785e-08
11	0xa9e7e0d0	-1.02974595e-13
12	0xa04b3ca7	-1.7214837e-19
13	0xb179b0b5	-3.6334715e-09
14	0xab2013d4	-5.6870936e-13
15	0xa2968e03	-4.0807942e-18
16	0xae4b8a44	-4.627966e-11
17	0x3b091927	0.0020919533
18	0x299cc896	6.962588e-14
19	0xafc8e1b5	-3.6540163e-10
20	0xa2760e09	-3.3346647e-18
21	0xaac28f6a	-3.4560836e-13
22	0xa6cc5c00	-1.418028e-15
23	0xa704ba38	-1.841963e-15
24	0xac4f51af	-2.9461813e-12
25	0xb1b1a198	-5.169749e-09
26	0xa4315fcb	-3.8461897e-17
27	0x242ecfb4	3.7906167e-17
28	0x32023c59	7.580717e-09
29	0xa9101bab	-3.199842e-14
30	0xb220896e	-9.344474e-09
31	0x33e86fe2	1.0823693e-07

gnn.init_context.attentive_gru.gru.weight_ih f4 [96, 32]
0	0x871cfc79	-1.1810331e-34
1	0x10fb030d	9.9006744e-29
2	0xa0daa21f	-3.703792e-19
3	0xa047b35d	-1.6915302e-19
4	0x1aefa047	9.9107025e-23
5	0x1e16367a	7.952199e-21
6	0x86b6594b	-6.8591995e-35
7	0x8bf73718	-9.5223835e-32
8	0x22b65578	4.9421692e-18
9	0x073cff18	1.4218513e-34
10	0xa72b15ed	-2.3742903e-15
11	0x87738a6d	-1.8321968e-34
12	0x1a775b18	5.1151988e-23
13	0xa5b52cbf	-3.1428816e-16
14	0x074f7361	1.5606856e-34
15	0x068750f2	5.0900294e-35
16	0x87e44c59	-3.43505e-34
17	0x351fa082	5.9465685e-07
18	0x21313c58	6.0049797e-19
19	0x244b8445	4.4130645e-17
20	0x8746b4d0	-1.4949e-34
21	0xa582f90f	-2.2720174e-16
22	0x87475bd2	-1.499808e-34
23	0x0793b0f6	2.222211e-34
24	0x0745ce6e	1.4881297e-34
25	0xab360536	-6.466662e-13
26	0x110755ff	1.0676122e-28
27	0x981b384a	-2.00617e-24
28	0xa76c4304	-3.2787908e-15
29	0x84490c37	-2.3633045e-36
30	0xa575b4b3	-2.1311586e-16
31	0x21c96ece	1.364962e-18
32	0x06a87084	6.3359903e-35
33	0x87023983	-9.797014e-35
34	0x86dcc43e	-8.3043154e-35
35	0x87291683	-1.2720762e-34
36	0x06685284	4.3694973e-35
37	0x84ce4029	-4.848929e-36
38	0x068a4e70	5.2025084e-35
39	0x066cf8a0	4.4569327e-35
40	0x86deaf2b	-8.3764505e-35
41	0x06d16341	7.87629e-35
42	0x0737c0c3	1.3824037e-34
43	0x06da8e54	8.221162e-35
44	0x061d6aec	2.9606972e-35
45	0x0744f5ab	1.4817596e-34
46	0x07163a25	1.1301833e-34
47	0x03dc1521	1.2935289e-36
48	0x86e50dcc	-8.61605e-35
49	0x86ef78c7	-9.0079274e-35
50	0x0746a9fb	1.4945817e-34
51	0x0584cb73	1.2487956e-35
52	0x06f8234b	9.333909e-35
53	0x870b287b	-1.0469094e-34
54	0x0690b50f	5.443282e-35
55	0x06eb1d32	8.8440074e-35
56	0x070b0101	1.0457493e-34
57	0x073c4874	1.416484e-34
58	0x86d67359	-8.066734e-35
59	0x063e4cc2	3.579142e-35
60	0x07604ef8	1.6875094e-34
61	0x87201499	-1.2043115e-34
62	0x06237c28	3.0748108e-35
63	0x069d4f9b	5.9173806e-35
64	0x05fe3223	2.3904463e-35
65	0x06a67854	6.2619066e-35
66	0x85a65031	-1.5640023e-35
67	0x070dfab1	1.0681333e-34
68	0x86a289b4	-6.1139964e-35
69	0x859f38c0	-1.4973135e-35
70	0x86af89ee	-6.6030353e-35
71	0x06943bc5	5.5759236e-35
72	0x85998381	-1.4436358e-35
73	0x86c921f4	-7.5657686e-35
74	0x87198ab1	-1.1551198e-34
75	0x86a88187	-6.33849e-35
76	0x069e9f3f	5.9666985e-35
77	0x871bfe2a	-1.1735596e-34
78	0x0711d220	1.0970338e-34
79	0x070ab2a1	1.043446e-34
80	0x06c86fae	7.5395737e-35
81	0x05d5c10b	2.0101337e-35
82	0x871198d1	-1.0953496e-34
83	0x05d2ecad	1.9835246e-35
84	0x06a4936a	6.190655e-35
85	0x071c5c20	1.1763209e-34
86	0x86e6f857	-8.6881287e-35
87	0x86a8124f	-6.322148e-35
88	0x05e49690	2.1496325e-35
89	0x87219bc6	-1.2158071e-34
90	0x061eaf6c	2.9845377e-35
91	0x05c681e7	1.8667549e-35
92	0x073df516	1.4290804e-34
93	0x06b3ad65	6.7587097e-35
94	0x87298c46	-1.275537e-34
95	0x06a16f63	6.0725137e-35
96	0x0a8251d1	1.254932e-32
97	0x088e1971	8.552295e-34
98	0x88857c1e	-8.033826e-34
99	0x8a5925ba	-1.04552655e-32
100	0x0ace9810	1.9894278e-32
101	0x8a99e4e4	-1.4819463e-32
102	0x09b5b12b	4.3740773e-33
103	0x8a9e33bf	-1.5234311e-32
104	0x8ac0563d	-1.8521367e-32
105	0x8a8a02a3	-1.3289908e-32
106	0x07726cd6	1.823804e-34
107	0x8a45a300	-9.515862e-33
108	0x898f522f	-3.4503283e-33
109	0x0b3b72f7	3.610138e-32
110	0x0b0ee096	2.7517165e-32
111	0x0a3b945f	9.031628e-33
112	0x8a4a7c1c	-9.7492886e-33
113	0x076d780a	1.7865175e-34
114	0x091c26f1	1.8796127e-33
115	0x0905775b	1.6065413e-33
116	0x8a779d18	-1.19221635e-32
117	0x0a81761e	1.2466679e-32
118	0x07499f0d	1.51683e-34
119	0x070b70ad	1.049031e-34
120	0x8b3768ef	-3.532346e-32
121	0x89089bd1	-1.6443669e-33
122	0x8ad8b369	-2.086753e-32
123	0x889f3feb	-9.584491e-34
124	0x89542e5f	-2.5540375e-33
125	0x0a9fd9df	1.5393097e-32
126	0x09b27a44	4.296692e-33
127	0x0988f158	3.2967768e-33
128	0x06d010ee	7.826578e-35
129	0x1178ebb1	1.9636378e-28
130	0xa1b1c9cc	-1.2047402e-18
131	0x20b217a1	3.017001e-19
132	0x9a9a2c42	-6.376441e-23
133	0x9f5e3d05	-4.7060803e-20
134	0x07003580	9.645372e-35
135	0x1710f211	4.683444e-25
136	0x2447d65d	4.333282e-17
137	0x07231427	1.2268679e-34
138	0xab4ed914	-7.348716e-13
139	0x062c76fa	3.2437015e-35
140	0x9701817e	-4.184559e-25
141	0xa97e55a4	-5.647361e-14
142	0x0594e2a7	1.4001112e-35
143	0x860ca145	-2.6449556e-35
144	0x071fff6c	1.2036892e-34
145	0x353b9437	6.987861e-07
146	0x1b894d55	2.2714723e-22
147	0x2a89d9c5	2.4487197e-13
148	0x8744010c	-1.4745709e-34
149	0x9c09b431	-4.556239e-22
150	0x1440ad48	9.7276965e-27
151	0x078463fc	1.9919918e-34
152	0x229694e4	4.0815226e-18
153	0xad3d0c12	-1.0746086e-11
154	0xa055f6a9	-1.8123415e-19
155	0x11dfe98d	3.5327133e-28
156	0xaca6717e	-4.730604e-12
157	0x87565a32	-1.6126077e-34
158	0xabb8894c	-1.3112094e-12
159	0x2983e6c6	5.8576015e-14
160	0x0739724a	1.395144e-34
161	0x073cb0aa	1.4195465e-34
162	0x20a54da8	2.8003476e-19
163	0x978e6c08	-9.203806e-25
164	0x99586247	-1.1186785e-23
165	0x1608c535	1.104822e-25
166	0x84daafbd	-5.1412944e-36
167	0x942754f4	-8.4480994e-27
168	0x1936adfe	9.444317e-24
169	0x073baea6	1.4119641e-34
170	0x258db298	2.458062e-16
171	0x05d79a34	2.0275148e-35
172	0x13076784	1.7090433e-27
173	0x0809629c	4.1342853e-34
174	0x8772c9b6	-1.8265334e-34
175	0x158416f6	5.33506e-26
176	0x07bfc7f8	2.8856017e-34
177	0xafcbb8d2	-3.7056808e-10
178	0x1c93df3e	9.785351e-22
179	0x87a4cb11	-2.479533e-34
180	0x8c879087	-2.0887028e-31
181	0x95b822f4	-7.4372154e-26
182	0x1877f814	3.204925e-24
183	0x8796b76f	-2.2677304e-34
184	0x0540d840	9.0675155e-36
185	0xa63adf4a	-6.4834326e-16
186	0x16c02b1e	3.1046484e-25
187	0x93b8a182	-4.660739e-27
188	0xa65d972e	-7.6879664e-16
189	0x8796fb4d	-2.2717193e-34
190	0xa401a905	-2.811558e-17
191	0x25fcc594	4.3848916e-16
192	0x0dbc8729	1.1618933e-30
193	0x8cf8a115	-3.8307398e-31
194	0x0d904780	8.891898e-31
195	0x8e16f3e2	-1.8606353e-30
196	0x8c0999d1	-1.0600384e-31
197	0x0d09d4ef	4.2472694e-31
198	0x0e0e0ebe	1.750995e-30
199	0x8e990762	-3.772452e-30
200	0x0e99636a	3.7813144e-30
201	0x8f45a9f4	-9.745582e-30
202	0x8b13cdf6	-2.8466118e-32
203	0x0c18aab7	1.1761027e-31
204	0x0b96e119	5.811659e-32
205	0x8da606df	-1.0232194e-30
206	0x0eb01a74	4.3412823e-30
207	0x8d40e695	-5.944212e-31
208	0x0c087dce	1.0514917e-31
209	0x0cdcf375	3.4042892e-31
210	0x0bfce142	9.74058e-32
211	0x8ed315bd	-5.203645e-30
212	0x8e31ddd1	-2.1923735e-30
213	0x0dd7cf4b	1.3300302e-30
214	0x8b45d4da	-3.8100952e-32
215	0x0d122304	4.503187e-31
216	0x0fafd4fc	1.7338371e-29
217	0x8cd9bcce	-3.3547777e-31
218	0x8e725418	-2.9869293e-30
219	0x0caa58b6	2.6246038e-31
220	0x8d3755a6	-5.6494324e-31
221	0x0e1b8ffe	1.9174555e-30
222	0x0dd198d6	1.2917413e-30
223	0x8d0bca21	-4.3075986e-31
224	0x873d3491	-1.4234228e-34
225	0x87b247f0	-2.6824744e-34
226	0x880cf5f4	-4.2418834e-34
227	0x0849ae6e	6.069128e-34
228	0x883b2e34	-5.6327577e-34
229	0x06575609	4.0500214e-35
230	0x0729aaa3	1.2764293e-34
231	0x865ddf6c	-4.1729625e-35
232	0x086ccea6	7.126158e-34
233	0x06690e88	4.3833105e-35
234	0x08b0d9a7	1.06437845e-33
235	0x073fc467	1.442696e-34
236	0x07728927	1.8246362e-34
237	0x884aa4cc	-6.098088e-34
238	0x0825d15b	4.9898978e-34
239	0x0675f577	4.6259718e-35
240	0x081f8e74	4.8014775e-34
241	0x0829e4b8	5.1125445e-34
242	0x882c27b2	-5.180603e-34
243	0x888af368	-8.362797e-34
244	0x07e35124	3.4202854e-34
245	0x0896698e	9.052612e-34
246	0x07d9f752	3.2795893e-34
247	0x0817e95d	4.5714227e-34
248	0x07c1ec4b	2.9178293e-34
249	0x07892a6d	2.0638405e-34
250	0x87c7232b	-2.9962862e-34
251	0x0851a3ce	6.30862e-34
252	0x88986bee	-9.173541e-34
253	0x08164cd9	4.5229317e-34
254	0x09095025	1.6528459e-33
255	0x082b48c1	5.1543963e-34

gnn.init_context.attentive_gru.gru.weight_hh f4 [96, 32]
0	0xb68f218d	-4.265638e-06
1	0x2c97e5a8	4.317175e-12
2	0x2af15724	4.2870666e-13
3	0xadff8dcd	-2.9053116e-11
4	0x2dfe4d35	2.8910744e-11
5	0x25a3ba11	2.8402076e-16
6	0x9c012594	-4.273109e-22
7	0x30895a10	9.993659e-10
8	0xb1abbb21	-4.998029e-09
9	0x2afbcdbc	4.4729314e-13
10	0x3205ac67	7.780819e-09
11	0xb419d105	-1.4325276e-07
12	0xad158497	-8.49911e-12
13	0x30a9b434	1.2347585e-09
14	0x36b8d29e	5.5081464e-06
15	0xaf8293ff	-2.375202e-10
16	0xa8241c19	-9.1099215e-15
17	0x2f23403f	1.4847588e-10
18	0xb404dbc3	-1.2373407e-07
19	0x3b2c7e31	0.0026320333
20	0x95da54c3	-8.818323e-26
21	0x9e284c23	-8.909591e-21
22	0x25b75bb3	3.1807577e-16
23	0x29d76223	9.564942e-14
24	0x35c1f0b0	1.444967e-06
25	0x2a9914e5	2.7192758e-13
26	0xb3b97225	-8.6354966e-08
27	0x22206ef9	2.1742792e-18
28	0xa2193631	-2.0764055e-18
29	0x31be3264	5.5354565e-09
30	0x248975c2	5.961377e-17
31	0x23d369bd	2.2921448e-17
32	0x869efe36	-5.9806524e-35
33	0x0724beba	1.2394038e-34
34	0x073d816c	1.4256813e-34
35	0x85adf28c	-1.635794e-35
36	0x87216c16	-1.2144057e-34
37	0x06bf42fc	7.194464e-35
38	0x07145800	1.1160143e-34
39	0x0711642d	1.0938027e-34
40	0x870b0bc3	-1.0460654e-34
41	0x06b71b57	6.887712e-35
42	0x86389a3b	-3.4719864e-35
43	0x860c34b1	-2.6369785e-35
44	0x06ca07c7	7.599538e-35
45	0x05d70c0b	2.0222927e-35
46	0x861f314c	-2.9940794e-35
47	0x86a7a3a3	-6.305886e-35
48	0x07170200	1.1360565e-34
49	0x86a5d076	-6.237241e-35
50	0x06359c9a	3.415737e-35
51	0x04987ad5	3.584783e-36
52	0x038efb1e	8.403664e-37
53	0x04de4300	5.225348e-36
54	0x86c067f3	-7.237511e-35
55	0x070aaca0	1.0432696e-34
56	0x06347846	3.39426e-35
57	0x874b9d73	-1.5318293e-34
58	0x86e0181f	-8.429488e-35
59	0x06efae02	9.015749e-35
60	0x85655027	-1.078225e-35
61	0x068bdbb0	5.260879e-35
62	0x8620a7e9	-3.0216016e-35
63	0x866b6410	-4.4272102e-35
64	0x86cf9ec6	-7.809804e-35
65	0x05cec495	1.944436e-35
66	0x071938c0	1.1527118e-34
67	0x86b04506	-6.630526e-35
68	0x86cc283a	-7.679538e-35
69	0x86fc1850	-9.482759e-35
70	0x05e438c5	2.1461871e-35
71	0x06ac9cda	6.492968e-35
72	0x06b8cfba	6.9518334e-35
73	0x8611830a	-2.736774e-35
74	0x8323ca1c	-4.8133405e-37
75	0x063ae947	3.5154097e-35
76	0x06a00683	6.019488e-35
77	0x8649dd0e	-3.7966304e-35
78	0x0611a21b	2.7390565e-35
79	0x06faa745	9.428533e-35
80	0x863e5b23	-3.5801985e-35
81	0x07165478	1.1309569e-34
82	0x85d9488c	-2.0433231e-35
83	0x05e44cb5	2.1469195e-35
84	0x86331063	-3.3678197e-35
85	0x8702708e	-9.81319e-35
86	0x38547e0d	5.0662133e-05
87	0x072cf6be	1.3012353e-34
88	0x85a9674b	-1.5930627e-35
89	0x869be2ac	-5.8637584e-35
90	0x06274b06	3.1464328e-35
91	0x86cb371d	-7.6441095e-35
92	0x86bf45f6	-7.1949013e-35
93	0x066f5126	4.5010522e-35
94	0x85b4b56b	-1.6993761e-35
95	0x06069830	2.531441e-35
96	0x88d03fec	-1.2533573e-33
97	0x88c99771	-1.2132851e-33
98	0x07d9f576	3.27948e-34
99	0x08a9cd3b	1.0219567e-33
100	0x87a870cf	-2.5344133e-34
101	0x883855ca	-5.547133e-34
102	0x07b4f01e	2.7224518e-34
103	0x89508d89	-2.5103639e-33
104	0x8999aecb	-3.6997785e-33
105	0x0712278f	1.0995444e-34
106	0x8d9e441a	-9.753897e-31
107	0x05465824	9.326104e-36
108	0x883621bb	-5.4808283e-34
109	0x089ecdbf	9.55765e-34
110	0x869c2278	-5.8731325e-35
111	0x077c89c6	1.8998861e-34
112	0x871dc7f4	-1.1870128e-34
113	0x8833276d	-5.39122e-34
114	0x87127306	-1.1017622e-34
115	0x071b7536	1.1695349e-34
116	0x07732cce	1.8294455e-34
117	0x07a2108d	2.4384779e-34
118	0x8886623e	-8.087928e-34
119	0x07844214	1.989999e-34
120	0x0cec6d54	3.6427357e-31
121	0x874010b4	-1.4449383e-34
122	0x884aef3f	-6.1068396e-34
123	0x87694087	-1.7547935e-34
124	0x07282392	1.2649368e-34
125	0x08c494fe	1.1831349e-33
126	0x085c4332	6.628283e-34
127	0x8929b656	-2.0428369e-33
128	0xb45b7474	-2.043833e-07
129	0x2bc54557	1.4016938e-12
130	0x2903dac2	2.9277585e-14
131	0x2d236a86	9.28913e-12
132	0xb11553cd	-2.172999e-09
133	0x2ae3c797	4.0461794e-13
134	0x1cc550a4	1.3057212e-21
135	0x2f2217d7	1.4742284e-10
136	0x2effcbac	1.1632237e-10
137	0x295e6597	4.9382017e-14
138	0xb19f70ae	-4.6403192e-09
139	0x32b44e2b	2.0990305e-08
140	0x2fed17ad	4.3126872e-10
141	0xaf47a4ab	-1.8157446e-10
142	0x35dbc004	1.6372655e-06
143	0x2d709536	1.3675552e-11
144	0x3046f293	7.23767e-10
145	0xae6b33c4	-5.347879e-11
146	0x324c9001	1.19071055e-08
147	0xaf87b65e	-2.4685937e-10
148	0x19c453c0	2.0299751e-23
149	0xb0160c62	-5.458728e-10
150	0xa7eb6686	-6.533676e-15
151	0xb45e7d77	-2.0721005e-07
152	0x36e5a5d9	6.844039e-06
153	0x2b924945	1.039426e-12
154	0x329dd80f	1.8375458e-08
155	0x30a2559a	1.1811381e-09
156	0xb189b9f1	-4.008364e-09
157	0xaf684e55	-2.1128106e-10
158	0x2d503fe0	1.1837614e-11
159	0x25495817	1.7463817e-16
160	0xae39d1e2	-4.2250543e-11
161	0x27c7fcac	5.5507543e-15
162	0x25a91952	2.9333984e-16
163	0x295733d7	4.7784554e-14
164	0xae934bb9	-6.698237e-11
165	0x2d6d4cd5	1.348895e-11
166	0x14ea4b9f	2.3657789e-26
167	0x2ca902c9	4.803578e-12
168	0x2a48ef73	1.7846644e-13
169	0x25fe40b8	4.4105831e-16
170	0xad084523	-7.746056e-12
171	0xac89e0fb	-3.918752e-12
172	0x2c8174ab	3.6793533e-12
173	0xabdd8b45	-1.574165e-12
174	0xb082a609	-9.505935e-10
175	0xafbc0668	-3.4201553e-10
176	0x2e95fc65	6.82057e-11
177	0x2b3b97bb	6.6646314e-13
178	0xb047c5dc	-7.2676953e-10
179	0x2cd95cd3	6.1778165e-12
180	0x9acf1916	-8.565372e-23
181	0xae374d7c	-4.1678203e-11
182	0xa186133a	-9.085282e-19
183	0x30d33cdb	1.5369567e-09
184	0xb442be76	-1.8136947e-07
185	0x2a1dcbd7	1.4015122e-13
186	0x2e2161dc	3.669408e-11
187	0x2f8db124	2.5773617e-10
188	0x2e36b955	4.1546617e-11
189	0xa7ef314e	-6.638928e-15
190	0x27107421	2.0046968e-15
191	0xa5292052	-1.4669364e-16
192	0x0d091bf5	4.2250036e-31
193	0x0d47bf8a	6.1552166e-31
194	0x8c9ea073	-2.4440321e-31
195	0x8d081d0b	-4.1943195e-31
196	0x898c4e31	-3.3777305e-33
197	0x0c95e2fe	2.30937e-31
198	0x0f8c9707	1.386324e-29
199	0x0cc486c6	3.0279695e-31
200	0x8b614fc4	-4.3393433e-32
201	0x8c748131	-1.8835953e-31
202	0x0f8cb7b8	1.3875832e-29
203	0x0d076579	4.172223e-31
204	0x0cae3c12	2.6845098e-31
205	0x8cb9eb80	-2.86455e-31
206	0x0e155b7d	1.8409718e-30
207	0x87da417a	-3.2839478e-34
208	0x06fb5a64	9.4548523e-35
209	0x0d9af990	9.551063e-31
210	0x0b90309b	5.5539916e-32
211	0x94297c79	-8.5568675e-27
212	0x09446347	2.3639322e-33
213	0x8aec9582	-2.2782212e-32
214	0x8d13de29	-4.556529e-31
215	0x0b83abd4	5.07179e-32
216	0x11f71c79	3.8987276e-28
217	0x0b2cef16	3.3305863e-32
218	0x0cc72f19	3.068915e-31
219	0x8b2bbe4c	-3.3076566e-32
220	0x899c70cc	-3.7661708e-33
221	0x0d10e5c1	4.464998e-31
222	0x8d0f48f8	-4.415311e-31
223	0x0d166166	4.633956e-31
224	0x0709d571	1.0369459e-34
225	0x07e03787	3.373641e-34
226	0x8818b429	-4.5952613e-34
227	0x08a5ea12	9.985606e-34
228	0x86579b1f	-4.055097e-35
229	0x88495cef	-6.059548e-34
230	0x86eb3b65	-8.848445e-35
231	0x0743ddeb	1.4735385e-34
232	0x858f81a9	-1.3495285e-35
233	0x083b72da	5.6408273e-34
234	0x86c547ae	-7.420849e-35
235	0x060c353e	2.637019e-35
236	0x08589569	6.5175766e-34
237	0x0696555f	5.654917e-35
238	0x87042a48	-9.943002e-35
239	0x084f7e20	6.2440056e-34
240	0x07243874	1.2354579e-34
241	0x066b14c6	4.421385e-35
242	0x0680ffdc	4.85242e-35
243	0x863e333a	-3.5772664e-35
244	0x08664c27	6.9302624e-34
245	0x86977e55	-5.6985515e-35
246	0x860a0120	-2.5955742e-35
247	0x07a9ec35	2.5567124e-34
248	0x87e884a9	-3.498545e-34
249	0x88c8dddf	-1.2089224e-33
250	0x86fc0c52	-9.480997e-35
251	0x878411c2	-1.987159e-34
252	0x07a26caf	2.443893e-34
253	0x8636f9ae	-3.441383e-35
254	0x87b78031	-2.7610124e-34
255	0x06461622	3.7255922e-35

gnn.init_context.attentive_gru.gru.bias_ih f4 [96]
0	0xb69282d9	-4.3663717e-06
1	0x874f150e	-1.5579137e-34
2	0x874b394c	-1.5288861e-34
3	0x0c1916f9	1.1793604e-31
4	0x3608825c	2.0341458e-06
5	0xb2eded9d	-2.7698485e-08
6	0x1120bfa2	1.2680826e-28
7	0x8c319f22	-1.3683471e-31
8	0x147fb690	1.2910214e-26
9	0x8718733b	-1.1469072e-34
10	0x1124e3c2	1.3007502e-28
11	0x33c62d79	9.228365e-08
12	0x97312d5f	-5.724905e-25
13	0x1e0db183	7.5011864e-21
14	0xb7854e7c	-1.5891383e-05
15	0xb82c639f	-4.1100775e-05
16	0x34c02d27	3.579564e-07
17	0xabc3a842	-1.3902284e-12
18	0x2766f989	3.2054185e-15
19	0xb76d7e71	-1.415574e-05
20	0x8e7a805f	-3.0876688e-30
21	0xbd2474cb	-0.040150445
22	0x1c007d4f	4.2513605e-22
23	0xb8ab357e	-8.163879e-05
24	0x3ca66934	0.020313837
25	0x31120382	2.124779e-09
26	0xb3d2a299	-9.8084634e-08
27	0xba105517	-0.00055058434
28	0xb98e701e	-0.00027167884
29	0x35572f89	8.0162914e-07
30	0x2c5c57b9	3.1312576e-12
31	0x9ccfeb3a	-1.3758916e-21
32	0x378fc284	1.7137507e-05
33	0x8fc6830e	-1.9574788e-29
34	0x88008757	-3.867769e-34
35	0x0d542429	6.537107e-31
36	0x3612eafd	2.1892477e-06
37	0xb46e6a96	-2.2204253e-07
38	0x10dab27f	8.6260855e-29
39	0x3267537a	1.346495e-08
40	0x9414d283	-7.5136066e-27
41	0x92913baa	-9.165495e-28
42	0xb3fb8f32	-1.17141454e-07
43	0xb5490eee	-7.490006e-07
44	0x92ddf8a0	-1.4008352e-27
45	0x1e3146f4	9.384975e-21
46	0xbd257af3	-0.040400457
47	0x39ff9f09	0.0004875588
48	0x34f79e80	4.612266e-07
49	0x2ec63d29	9.014862e-11
50	0xbd355ded	-0.044279028
51	0xb9e85167	-0.00044311138
52	0x0f71d6c7	1.1923582e-29
53	0x3d2073a2	0.039172776
54	0x1f42df10	4.126561e-20
55	0x39421e2e	0.00018512525
56	0x3f244d4f	0.64180464
57	0x2f3ae8a3	1.699925e-10
58	0xb634b7e1	-2.6929122e-06
59	0x3a8010e4	0.0009770659
60	0x37a4f880	1.966604e-05
61	0x3400b244	1.1985782e-07
62	0xac6c9944	-3.3622697e-12
63	0x22c26d8a	5.2699784e-18
64	0xbd059976	-0.032617055
65	0xb45f37d3	-2.0788802e-07
66	0x168e0fdf	2.2951353e-25
67	0xaa8f0fa5	-2.5412758e-13
68	0xbab16fd8	-0.001353736
69	0xb849b8dd	-4.80943e-05
70	0xa496e38a	-6.5437597e-17
71	0xb849ee67	-4.8144164e-05
72	0xbc59a1e1	-0.013283224
73	0xac1fa274	-2.2685439e-12
74	0xbb22cd61	-0.0024841654
75	0xba79074c	-0.00094996835
76	0xb8e90438	-0.000111110916
77	0xb9b7b55f	-0.00035039612
78	0xbe723583	-0.23653226
79	0xbc6a06ab	-0.014283816
80	0xba01234b	-0.00049262185
81	0xb91ada8d	-0.00014768001
82	0xbd2f1954	-0.042748764
83	0xbbcef4d5	-0.0063158073
84	0xa6fc495b	-1.7505896e-15
85	0x3cc76237	0.024338825
86	0xae6173a9	-5.1261804e-11
87	0xbef0e97e	-0.4705314
88	0x3e10077a	0.14065352
89	0xb9242e4e	-0.00015657509
90	0xb9dcc16a	-0.00042105775
91	0xbd733ed7	-0.0593861
92	0x3861bafd	5.3818327e-05
93	0xb8a896d6	-8.03896e-05
94	0xb3bacef3	-8.698944e-08
95	0xaf1acf8e	-1.4079957e-10

gnn.init_context.attentive_gru.gru.bias_hh f4 [96]
0	0xb68f0e67	-4.2634088e-06
1	0x07221ab8	1.2195377e-34
2	0x073a499a	1.4014714e-34
3	0x0c24d418	1.2697925e-31
4	0x3603a28b	1.9615134e-06
5	0xb2eef252	-2.7817041e-08
6	0x8f13e556	-7.291828e-30
7	0x8c2ff03a	-1.35538e-31
8	0x147aab62	1.2655574e-26
9	0x065708ea	4.0443555e-35
10	0x1124bc8c	1.2995419e-28
11	0x33c651f6	9.235002e-08
12	0x975732a3	-6.953416e-25
13	0x1e0ebb88	7.556198e-21
14	0xb785538e	-1.5893744e-05
15	0xb82ec78e	-4.1670683e-05
16	0x34c643a0	3.6929578e-07
17	0xabc1c94f	-1.3769349e-12
18	0x2766f501	3.2051729e-15
19	0xb765acc8	-1.3689692e-05
20	0x8e80b282	-3.1726333e-30
21	0xbd2cb1bc	-0.04216169
22	0x1ebd446c	2.0039452e-20
23	0xb8ab7f16	-8.177587e-05
24	0x3ca6694a	0.020313878
25	0x311e7d45	2.3063234e-09
26	0xb3d2aa35	-9.8098475e-08
27	0xba1456b3	-0.0005658671
28	0xb9b4bbdc	-0.00034472242
29	0x355160d5	7.7999476e-07
30	0x2c632435	3.227874e-12
31	0x9cd3d2e4	-1.4017323e-21
32	0x3790796d	1.7222681e-05
33	0x90635b35	-4.483812e-29
34	0x080908db	4.1237347e-34
35	0x0d56bad1	6.6168713e-31
36	0x361aed64	2.3085968e-06
37	0xb46eb7d8	-2.2232359e-07
38	0x11e03d0f	3.53786e-28
39	0x31ab6d73	4.989198e-09
40	0x945c6ffa	-1.1129245e-26
41	0x9240c38c	-6.082555e-28
42	0xb3fb9e30	-1.17168725e-07
43	0xb5488d45	-7.471138e-07
44	0x91dba6f6	-3.4655005e-28
45	0x1e3117c4	9.3752166e-21
46	0xbd257d65	-0.04040279
47	0x3a0036d8	0.0004890985
48	0x35005744	4.7810704e-07
49	0x2ec500e6	8.9586824e-11
50	0xbd35604d	-0.044281293
51	0xb9e7ae96	-0.0004418983
52	0x0f715eea	1.1900497e-29
53	0x3d1fc5a2	0.039006837
54	0x1f5da85f	4.6937844e-20
55	0x39420088	0.0001850148
56	0x3f244ca1	0.64179426
57	0x2f7136f4	2.1938346e-10
58	0xb63afea1	-2.7864373e-06
59	0x3a829c76	0.0009964842
60	0x37802857	1.5277574e-05
61	0x3410b454	1.3476648e-07
62	0xac72a417	-3.4481357e-12
63	0x22c27622	5.2708883e-18
64	0xbbb27a5a	-0.0054467143
65	0x1d4ab231	2.68266e-21
66	0x8bc7471f	-7.675902e-32
67	0x12ca36a1	1.2761459e-27
68	0xb9c930c1	-0.00038374032
69	0xb7e6bf58	-2.7507238e-05
70	0x2320e974	8.723053e-18
71	0xb5bcf7e7	-1.4079241e-06
72	0xb94c582e	-0.00019487806
73	0x0ea79c35	4.13191e-30
74	0xb5666344	-8.582613e-07
75	0x35b57235	1.351879e-06
76	0xb493e49f	-2.7547227e-07
77	0xb284893a	-1.5429226e-08
78	0x3c048510	0.008088365
79	0xbac328e5	-0.0014889507
80	0x395aaad1	0.00020853734
81	0xb6713799	-3.594416e-06
82	0xbba60b13	-0.005067238
83	0xbbbea8e9	-0.0058184755
84	0x25a50ae9	2.863033e-16
85	0x3d1478ec	0.036248133
86	0xadbe9fe3	-2.1671503e-11
87	0xbe91beaf	-0.28465793
88	0xbc399265	-0.011326407
89	0xb83076da	-4.207236e-05
90	0x3700bc15	7.673186e-06
91	0xbc909156	-0.017647427
92	0xb8d91f15	-0.00010353156
93	0xb70ac9ad	-8.272397e-06
94	0xb36685d1	-5.3672753e-08
95	0x2e9eddcb	7.2244065e-11

gnn.gnn_layers.0.project_edge.1.weight f4 [1, 64]
0	0xb515fdf8	-5.58764e-07
1	0x051b927f	7.314972e-36
2	0x04f355a3	5.720767e-36
3	0x8b9a89f5	-5.9526217e-32
4	0xb927082b	-0.00015929404
5	0xb5548c04	-7.9179904e-07
6	0x218c4b13	9.506641e-19
7	0x06bcf4fe	7.1077724e-35
8	0x8ffa071b	-2.465464e-29
9	0x0696bf76	5.6705055e-35
10	0x8e29c73f	-2.0926792e-30
11	0x2f82fe35	2.3827487e-10
12	0x864fcdd8	-3.9083603e-35
13	0x176e2a7e	7.695558e-25
14	0x365ceed9	3.2921582e-06
15	0xb85e19cd	-5.2952953e-05
16	0xb6a49194	-4.9045284e-06
17	0xaa17afc0	-1.347247e-13
18	0x9bc72ad5	-3.2949468e-22
19	0x2ffeaa20	4.6323212e-10
20	0xa4b4e83f	-7.8455997e-17
21	0xba2f1a33	-0.0006679624
22	0x2b17ede4	5.3976116e-13
23	0x35944172	1.1045906e-06
24	0xbacef3d7	-0.0015789223
25	0x2d986d2d	1.7328883e-11
26	0x2e2365fb	3.7152486e-11
27	0x3811658b	3.4665263e-05
28	0x3886f7c1	6.435766e-05
29	0x3317f9da	3.5384666e-08
30	0xb2a1c7ac	-1.8833667e-08
31	0xabfb11d2	-1.7839569e-12
32	0xb5bccbf9	-1.4066455e-06
33	0x867742bd	-4.6504568e-35
34	0x865c022e	-4.1379003e-35
35	0x0c54e66f	1.640123e-31
36	0xb7db2714	-2.6125032e-05
37	0xb61a9172	-2.3032449e-06
38	0x1fe49c0a	9.68199e-20
39	0x060a2df6	2.5988682e-35
40	0x915acbc2	-1.7259955e-28
41	0x09f97a6b	6.005969e-33
42	0x8e5e5859	-2.740615e-30
43	0xafa460e8	-2.9900282e-10
44	0x86e12c16	-8.470037e-35
45	0x98d0a4ac	-5.3933016e-24
46	0xb59fd70d	-1.1909011e-06
47	0x38ec237c	0.000112599664
48	0x367fe698	3.8132184e-06
49	0x25ca616e	3.5107435e-16
50	0x9a3008b5	-3.640298e-23
51	0xb4f76612	-4.60816e-07
52	0x2471ee05	5.2460155e-17
53	0x3af14ad4	0.0018409141
54	0x2c991a61	4.35145e-12
55	0xb4aefacc	-3.2592504e-07
56	0x3b63bf9a	0.0034751655
57	0x3024d648	5.9967364e-10
58	0x2f92cd02	2.6702912e-10
59	0xb91af506	-0.00014777863
60	0xb986c070	-0.0002570185
61	0x33614f03	5.2458756e-08
62	0xb0c15706	-1.4067332e-09
63	0x2a0ddfcb	1.260096e-13
