Results/GAT/39/model.pth (torch, 88185 bytes, 13 tensors)

gnn.gnn_layers.0.gat_conv.attn_l f4 [1, 4, 32]
0.021249212 -0.0049051936 0.030201457 -0.085818395 0.07155174 -0.08001486 -0.07913699 -0.015095538
0.07534657 -0.08571957 -0.11177762 -0.054961916 0.04852461 -0.16202812 0.06222758 -0.13473038
0.017400518 -0.12306432 -0.01994836 -0.076626144 0.047565963 0.032762174 0.13032968 0.08872905
0.040501524 -0.120037615 0.122888125 -0.11709826 -0.011386614 0.03893279 -0.16027635 -0.058470704
0.016231071 -0.008732293 0.029182002 -0.09835366 0.07927351 -0.061110243 -0.054263167 -0.005976263
-0.0012338108 -0.11839168 -0.123601004 -0.012440919 0.04120762 -0.15310185 0.057130106 -0.12657009
0.0022141447 -0.1281847 -0.03533382 -0.110772155 0.05578568 0.034436595 0.1221795 0.07470391
0.022849135 -0.099173054 0.13921554 -0.12409284 0.0092794495 0.0423836 -0.13672939 -0.053898185
0.003163584 -0.0053678793 0.026926922 -0.100710936 0.065257445 -0.103368014 -0.08106311 -0.018042801
0.007692787 -0.12296671 -0.12781456 -0.044136964 0.041895293 -0.14807086 0.073286474 -0.09890622
0.0020520298 -0.12670991 0.011025035 -0.09385401 0.05256809 0.04445245 0.09980482 0.08219276
0.038974185 -0.06379356 0.12797977 -0.118515 -0.007737486 0.042209882 -0.13517144 -0.07355273
0.009334663 -0.013203347 0.02100848 -0.09564042 0.07313079 -0.062363178 -0.037182376 -0.0011117838
0.040912088 -0.1643305 -0.10944072 -0.0044320677 0.036150113 -0.12522916 0.04711225 -0.08285449
-0.0030973554 -0.123842455 -0.006235819 -0.07500064 0.034409516 0.038433198 0.07687745 0.069349326
0.0020716996 -0.0539185 0.13205324 -0.0964178 -0.0019704355 0.036234908 -0.12820888 -0.041297905
00000000: d412 ae3c bfbb a0bb 0c69 f73c 8ec1 afbd
00000010: b889 923d d5de a3bd 9312 a2bd 4753 77bc
00000020: 4d4f 9a3d be8d afbd aaeb e4bd bf1f 61bd
00000030: bec1 463d b3ea 25be 59e2 7e3d c3f6 09be
00000040: 888b 8e3c 2509 fcbd be6a a3bc 2bee 9cbd
00000050: 87d4 423d a131 063d 2575 053e 93b7 b53d
00000060: ede4 253d 48d6 f5bd c5ac fb3d 36d1 efbd
00000070: ec8e 3abc fd77 1f3d 7c1f 24be fa7e 6fbd
00000080: 06f7 843c e411 0fbc 180f ef3c a56d c9bd
00000090: 265a a23d bc4e 7abd 0e43 5ebd 87d4 c3bb
000000a0: d2b7 a1ba 5677 f2bd 8622 fdbd ffd4 4bbc
000000b0: 52c9 283d bbc6 1cbe 4201 6a3d 979b 01be
000000c0: 2f1b 113b da42 03be 32ba 10bd 83dc e2bd
000000d0: 867f 643d 630d 0d3d 3f39 fa3d 5dfe 983d
000000e0: 1c2e bb3c 3e1b cbbd 858e 0e3e 6324 febd
000000f0: d508 183c 6d9a 2d3d ca02 0cbe 58c4 5cbd
00000100: 2254 4f3b 09e5 afbb d995 dc3c 8941 cebd
00000110: b2a5 853d 9cb2 d3bd 6a04 a6bd 7fce 93bc
00000120: c613 fc3b f8d5 fbbd d2e1 02be f6c8 34bd
00000130: 669a 2b3d e39f 17be 3817 963d 588f cabd
00000140: 597b 063b 3ec0 01be 59a2 343c 8836 c0bd
00000150: a351 573d c613 363d 7866 cc3d ae54 a83d
00000160: 65a3 1f3d 33a6 82bd 210d 033e feb7 f2bd
00000170: bd8a fdbb 45e4 2c3d 626a 0abe d0a2 96bd
00000180: 6af0 183c da52 58bc fa19 ac3c 20df c3bd
00000190: 98c5 953d 8870 7fbd 8c4c 18bd 46b9 91ba
000001a0: 6f93 273d 4146 28be 7522 e0bd e13a 91bb
000001b0: 2412 143d 133c 00be c6f8 403d 9daf a9bd
000001c0: 00fd 4abb 1da1 fdbd d755 ccbb ef99 99bd
000001d0: fef0 0c3d 216c 1d3d ed71 9d3d 0507 8e3d
000001e0: 5ac5 073b a5d9 5cbd f738 073e b276 c5bd
000001f0: 6c22 01bb 0e6b 143d 3049 03be fe27 29bd

gnn.gnn_layers.0.gat_conv.attn_r f4 [1, 4, 32]
-0.023556134 0.0042446367 -0.014162303 0.032226145 -0.011624792 -0.0019211946 0.017554136 0.009526651
0.045144852 -0.0063078543 -0.004357738 0.030222185 -0.013347227 -0.0035532387 -0.025165746 0.015495672
-0.011314581 -0.014558042 0.03489464 0.026987646 -0.0308615 0.0095342295 -0.0018104782 -0.017040124
-0.007839599 0.009499965 -0.0030491767 0.011588493 -0.0048579867 -0.0030409521 0.004064574 0.039087746
-0.026291212 0.004767532 -0.013051663 0.036528233 -0.018372577 -0.008546337 0.01708958 0.0047223913
0.04344854 -0.011247073 -0.011126869 0.038576018 -0.013892049 -0.013012259 -0.022372209 0.011768428
-0.011635664 -0.00846253 0.039837446 0.0411309 -0.02652232 0.007606226 -0.0074306983 -0.024444666
-0.0206867 0.0009145284 0.006871373 0.017118914 -0.0044171074 -0.0010556923 -0.0039238078 0.04174408
-0.00271726 0.00060385186 0.0025751304 -0.0066021928 -0.0026481582 -0.0003113951 0.0006486916 0.002872878
0.0037426096 0.000327233 -0.0047646128 -0.0076854425 -0.0014617352 -0.009767111 -0.00086358644 0.0023844664
-0.003136984 0.0007685464 0.0027633358 0.007390284 0.0032419614 -0.0008802236 -0.0109761655 0.0044936356
0.0010134242 0.0045660697 -0.0040694936 -0.0063217045 0.00048123288 -0.00068884005 0.006981945 -0.0065582604
-0.013286707 0.0038974553 -0.005803723 0.009757068 -0.009151928 -0.0008524227 0.006759515 0.0037763086
0.025229836 -0.009792859 -0.009994379 0.021778522 -0.008365482 -0.009381749 -0.01312078 0.01101101
-0.00957433 -0.0006659099 0.018315868 0.024419853 -0.01078968 0.0063866163 0.0060303668 -0.015483648
-0.010497077 -0.0037058254 0.016237268 0.000536905 0.0008654189 -0.0017252872 -0.007967568 0.0216137
00000000: cbf8 c0bc 9816 8b3b 0109 68bc 90ff 033d
00000010: e975 3ebc 98d0 fbba b1cd 8f3c ac15 1c3c
00000020: cfe9 383d 1eb2 cebb 5bcb 8ebb 8494 f73c
00000030: 54ae 5abc 74dd 68bb 6528 cebc 8fe1 7d3c
00000040: cb60 39bc db84 6ebc afed 0e3d 3215 dd3c
00000050: 42d1 fcbc 7535 1c3c 914d edba bb97 8bbc
00000060: a971 00bc bea5 1b3c b2d4 47bb aadd 3d3c
00000070: bf2f 9fbb b64a 47bb 1e30 853b 791a 203d
00000080: ab60 d7bc f538 9c3b a4d6 55bc a19e 153d
00000090: 1682 96bc ef05 0cbc 72ff 8b3c 4abe 9a3b
000000a0: 19f7 313d a545 38bc 794d 36bc e301 1e3d
000000b0: 7a9b 63bc 5f31 55bc ec45 b7bc 5dd0 403c
000000c0: 83a3 3ebc 6ca6 0abc 972c 233d e078 283d
000000d0: 5645 d9bc a63d f93b 377d f3bb 2e40 c8bc
000000e0: 2777 a9bc f6bc 6f3a 4129 e13b f73c 8c3c
000000f0: 62bd 90bb 285f 8aba 4993 80bb d7fb 2a3d
00000100: 0f14 32bb d04b 1e3a 85c3 283b 3557 d8bb
00000110: b98c 2dbb be42 a3b9 f50c 2a3a e546 3c3b
00000120: 9246 753b 7890 ab39 7820 9cbb 2ad6 fbbb
00000130: b297 bfba 3c06 20bc 4e62 62ba b544 1c3b
00000140: dc95 4dbb 4778 493a 1519 353b 322a f23b
00000150: 1677 543b cebe 66ba 60d5 33bc 593f 933b
00000160: e0d4 843a f89e 953b 6359 85bb 4d26 cfbb
00000170: fc4d fc39 4693 34ba cdc8 e43b ade6 d6bb
00000180: 7db0 59bc 736c 7f3b 282d bebb 1cdc 1f3c
00000190: f8f1 15bc 1e75 5fba ec7e dd3b f27b 773b
000001a0: cdae ce3c 3a72 20bc 77bf 23bc df68 b23c
000001b0: 600f 09bc e8b5 19bc 8af8 56bc 8667 343c
000001c0: a7dd 1cbc 7590 2eba 290b 963c 250c c83c
000001d0: 33c7 30bc d246 d13b 629a c53b 20af 7dbc
000001e0: effb 2bbc 6fdd 72bb 0504 853c 16bf 0c3a
000001f0: 47dd 623a 0823 e2ba 678a 02bc 370f b13c

gnn.gnn_layers.0.gat_conv.bias f4 [128]
-0.07779452 0.035158094 -0.06372425 0.14063847 -0.033669967 -0.061425664 0.026686413 0.023428634
0.16270548 -0.07812244 -0.0466557 0.12387334 -0.07060796 -0.030454727 -0.078571215 0.039775096
-0.06688787 -0.0492326 0.11224268 0.1367392 -0.124980465 0.01402263 0.0032091055 -0.14957762
0.002011429 0.010308306 0.01827129 0.04318759 -0.052565828 0.025663592 0.020552568 0.17282012
-0.07779452 0.035158094 -0.06372425 0.14063847 -0.033669967 -0.061425664 0.026686413 0.023428634
0.16270548 -0.07812244 -0.0466557 0.12387334 -0.07060796 -0.030454727 -0.078571215 0.039775096
-0.06688787 -0.0492326 0.11224268 0.1367392 -0.124980465 0.01402263 0.0032091055 -0.14957762
0.002011429 0.010308306 0.01827129 0.04318759 -0.052565828 0.025663592 0.020552568 0.17282012
-0.07779452 0.035158094 -0.06372425 0.14063847 -0.033669967 -0.061425664 0.026686413 0.023428634
0.16270548 -0.07812244 -0.0466557 0.12387334 -0.07060796 -0.030454727 -0.078571215 0.039775096
-0.06688787 -0.0492326 0.11224268 0.1367392 -0.124980465 0.01402263 0.0032091055 -0.14957762
0.002011429 0.010308306 0.01827129 0.04318759 -0.052565828 0.025663592 0.020552568 0.17282012
-0.07779452 0.035158094 -0.06372425 0.14063847 -0.033669967 -0.061425664 0.026686413 0.023428634
0.16270548 -0.07812244 -0.0466557 0.12387334 -0.07060796 -0.030454727 -0.078571215 0.039775096
-0.06688787 -0.0492326 0.11224268 0.1367392 -0.124980465 0.01402263 0.0032091055 -0.14957762
0.002011429 0.010308306 0.01827129 0.04318759 -0.052565828 0.025663592 0.020552568 0.17282012
00000000: bc52 9fbd ef01 103d dc81 82bd 8803 103e
00000010: 85e9 09bd 7a99 7bbd 779d da3c 68ed bf3c
00000020: 449c 263e a8fe 9fbd 0c1a 3fbd 4eb1 fd3d
00000030: e89a 90bd 317c f9bc f2e9 a0bd 36eb 223d
00000040: 82fc 88bd 1fa8 49bd 7ddf e53d 5c05 0c3e
00000050: c2f5 ffbd 2cbf 653c db4f 523b e02a 19be
00000060: 2ed2 033b 2be4 283c acad 953c 78e5 303d
00000070: 444f 57bd 743c d23c dc5d a83c c2f7 303e
00000080: bc52 9fbd ef01 103d dc81 82bd 8803 103e
00000090: 85e9 09bd 7a99 7bbd 779d da3c 68ed bf3c
000000a0: 449c 263e a8fe 9fbd 0c1a 3fbd 4eb1 fd3d
000000b0: e89a 90bd 317c f9bc f2e9 a0bd 36eb 223d
000000c0: 82fc 88bd 1fa8 49bd 7ddf e53d 5c05 0c3e
000000d0: c2f5 ffbd 2cbf 653c db4f 523b e02a 19be
000000e0: 2ed2 033b 2be4 283c acad 953c 78e5 303d
000000f0: 444f 57bd 743c d23c dc5d a83c c2f7 303e
00000100: bc52 9fbd ef01 103d dc81 82bd 8803 103e
00000110: 85e9 09bd 7a99 7bbd 779d da3c 68ed bf3c
00000120: 449c 263e a8fe 9fbd 0c1a 3fbd 4eb1 fd3d
00000130: e89a 90bd 317c f9bc f2e9 a0bd 36eb 223d
00000140: 82fc 88bd 1fa8 49bd 7ddf e53d 5c05 0c3e
00000150: c2f5 ffbd 2cbf 653c db4f 523b e02a 19be
00000160: 2ed2 033b 2be4 283c acad 953c 78e5 303d
00000170: 444f 57bd 743c d23c dc5d a83c c2f7 303e
00000180: bc52 9fbd ef01 103d dc81 82bd 8803 103e
00000190: 85e9 09bd 7a99 7bbd 779d da3c 68ed bf3c
000001a0: 449c 263e a8fe 9fbd 0c1a 3fbd 4eb1 fd3d
000001b0: e89a 90bd 317c f9bc f2e9 a0bd 36eb 223d
000001c0: 82fc 88bd 1fa8 49bd 7ddf e53d 5c05 0c3e
000001d0: c2f5 ffbd 2cbf 653c db4f 523b e02a 19be
000001e0: 2ed2 033b 2be4 283c acad 953c 78e5 303d
000001f0: 444f 57bd 743c d23c dc5d a83c c2f7 303e

gnn.gnn_layers.0.gat_conv.fc.weight f4 [128, 74]
-0.116702676 0.052227486 0.026782403 -0.04242689 -0.042752355 -0.0022514376 0.00070552266 -0.024848562
-0.0012667811 -1.5272007e-06 2.6669672e-06 7.255244e-07 1.3479604e-07 1.7219695e-06 7.3114843e-06 -0.006248061
-1.6604297e-06 1.1437332e-06 2.5838312e-06 4.063632e-06 2.1954643e-06 7.9526735e-06 1.7490422e-06 -1.6316892e-06
-3.4990853e-06 -1.5249933e-06 -2.0484867e-06 2.1076655e-06 -1.1506747e-06 -0.0022185354 3.4130276e-06 -2.290388e-06
-2.2725746e-06 -4.0475693e-06 2.8038103e-06 -5.391726e-06 -7.501545e-07 -1.7644489e-06 4.0451323e-06 2.3358575e-06
-3.8890757e-06 2.6555845e-06 -3.5446715e-07 3.3656295e-06 0.01780935 -0.065376274 0.018639501 -0.01438247
-2.1202466e-06 0.0007607722 -1.848445e-06 8.302666e-07 -2.966168e-06 5.1271436e-06 -0.10222556 -0.032336485
0.036540616 0.0027518356 -2.9458536e-06 -2.1253738e-06 -6.2082663e-06 -0.007513219 -3.8815715e-06 -0.016303165
-0.110963695 -0.030556314 -2.8154543e-06 -0.005754504 -0.09149306 -0.1235286 -0.012774998 0.03987172
0.006816473 -5.1724014e-06 0.034980897 -0.029681182 -0.007519683 0.007825254 -0.0012839222 0.0015007656
0.0003359533 0.008977374 0.0005404532 1.3853645e-06 7.547709e-06 -1.0458958e-06 3.141769e-06 2.4218673e-06
7.2969743e-07 -0.0001249145 2.9655375e-06 -2.0596008e-06 -1.9170434e-06 -3.0259152e-06 -3.524189e-07 5.7061065e-06
-3.868737e-06 -1.7465889e-06 3.4424081e-06 -3.946879e-06 -4.9544724e-06 -2.1156184e-06 3.1438196e-06 0.00083218946
-2.5027273e-06 -4.6083522e-07 -1.5559596e-06 -4.5269564e-07 2.1873536e-06 1.626723e-06 7.072426e-07 -1.0583169e-06
-3.4946338e-06 3.559372e-06 -3.7345822e-06 -5.1059224e-06 -1.5138964e-06 9.694485e-07 -0.005036963 0.016750623
-0.012950747 0.0032362498 1.4683018e-06 -0.0001621722 -2.3997188e-06 2.3256348e-06 2.982335e-06 3.4499722e-06
0.020177055 -0.0022113249 -0.010001759 0.00018884258 -3.3013678e-06 4.2862184e-06 1.5066812e-06 0.00043473553
-2.2852005e-06 0.0051523214 0.032145172 -0.0038238934 4.344352e-07 0.00024732025 0.020829057 0.03878149
-0.0129647795 -0.013475873 -0.0015777269 -2.539803e-06 -0.085047826 0.07516706 0.026627947 -0.034198258
-0.025940567 -0.005582897 -0.0023296555 -0.004128032 -0.002921256 1.6784261e-06 1.8955536e-06 1.3507927e-06
8.5151703e-07 -3.5543396e-06 1.4868148e-06 -0.004953567 -1.6925768e-06 5.8011224e-06 -3.0420006e-06 4.9873925e-06
3.1627267e-06 5.0259805e-06 -1.320087e-06 -1.8765104e-06 -2.6118873e-06 -3.0435656e-06 -1.8800022e-06 -1.2606039e-06
2.929583e-06 -0.00091509585 -3.738128e-06 9.831339e-07 4.532193e-06 -2.3785003e-06 4.1632666e-06 -1.9904594e-06
1.4914191e-06 -3.984301e-06 2.5334757e-06 1.8718968e-06 4.075287e-06 -3.350585e-06 4.183009e-06 1.6625902e-06
0.018935896 -0.034157325 0.021743407 -0.012025621 2.797713e-06 -0.0006802137 -2.167108e-06 3.125044e-06
-2.7672043e-06 3.0109588e-06 -0.05866255 -0.016354917 0.027589682 -0.006911502 -1.8302634e-06 2.571464e-07
1.935873e-06 0.0003697559 -2.0186926e-06 -0.023508575 -0.07025568 0.013906638 -1.7013167e-06 0.0031514736
-0.044245116 -0.10289197 0.021800457 0.03830053 -0.0061483346 1.4631746e-06 0.23991974 -0.16366675
-0.035376485 0.05945452 0.036431726 0.00033506646 -0.014591569 0.021038385 0.007654672 3.1487796e-06
-2.7977146e-06 -6.124955e-07 -4.201032e-06 2.3687649e-06 -3.818566e-06 0.013924227 -1.507542e-06 -4.651567e-06
-3.2828e-06 3.0017623e-06 2.9811983e-06 -1.5539952e-06 4.005178e-06 -1.7637602e-06 3.168689e-06 1.5579366e-06
2.7914218e-06 2.0855973e-06 -2.9272876e-06 0.0020399159 7.8043295e-06 4.1748862e-07 -4.7340036e-06 9.179051e-07
00000000: d001 efbd 7dec 553d c566 db3c d2c7 2dbd
00000010: 181d 2fbd db8c 13bb d3f2 383a 368f cbbc
00000020: 1f0a a6ba 37fa ccb5 26fa 3236 a8c1 4235
00000030: 74bc 1034 6c1e e735 2c55 f536 89bc ccbb
00000040: eedb deb5 6082 9935 e265 2d36 555a 8836
00000050: ca55 1336 796c 0537 a2c0 ea35 6a00 dbb5
00000060: d4d1 6ab6 5fae ccb5 bc78 09b6 6b71 0d36
00000070: e270 9ab5 d964 11bb 5e0b 6536 91b4 19b6
00000080: 8982 18b6 5bd0 87b6 1829 3c36 93ea b4b6
00000090: 3a5e 49b5 01d2 ecb5 6cbb 8736 bac1 1c36
000000a0: e87e 82b6 9836 3236 984d beb4 13dd 6136
000000b0: eae4 913c ffe3 85bd deb1 983c 74a4 6bbc
000000c0: 8f49 0eb6 8f6e 473a 1618 f8b5 7cdf 5e35
000000d0: 610e 47b6 d409 ac36 a25b d1bd 4373 04bd
000000e0: 9dab 153d 2458 343b 61b1 45b6 a5a1 0eb6
000000f0: 9a50 d0b6 7331 f6bb 723e 82b6 378e 85bc
00000100: ef40 e3bd 3c51 fabc 23f1 3cb6 4790 bcbb
00000110: b760 bbbd 90fc fcbd 3a4e 51bc 8750 233d
00000120: b85c df3b 978e adb6 2148 0f3d f325 f3bc
00000130: ac67 f6bb 7f35 003c 4849 a8ba 56b5 c43a
00000140: e322 b039 d615 133c 33ad 0d3a c3f0 b935
00000150: 5442 fd36 b560 8cb5 2ed7 5236 5d87 2236
00000160: 6de0 4335 7bfb 02b9 8c03 4736 ac37 0ab6
00000170: 8ea6 00b6 d410 4bb6 1634 bdb4 1577 bf36
00000180: 33d0 81b6 566c eab5 1f04 6736 6f6f 84b6
00000190: 983e a6b6 0cfa 0db6 69fa 5236 4a27 5a3a
000001a0: 87f4 27b6 b668 f7b4 5dd6 d0b5 040a f3b4
000001b0: 73ca 1236 c755 da35 57d9 3d35 7e0b 8eb5
000001c0: 5a85 6ab6 8cdd 6e36 a29f 7ab6 8a53 abb6
000001d0: 1631 cbb5 ff1d 8235 1c0d a5bb 9a38 893c
000001e0: 5f2f 54bc 4317 543b 7712 c535 c50c 2ab9
000001f0: db0a 21b6 1a12 1c36 2024 4836 1286 6736
00000200: 5a4a a53c e0eb 10bb 6bde 23bc 0b04 4639
00000210: 118d 5db6 56d2 8f36 2c39 ca35 37ed e339
00000220: 725b 19b6 ced4 a83b a8aa 033d 499a 7abb
00000230: 523c e934 c3aa 8139 b3a1 aa3c 57d9 1e3d
00000240: 3a6a 54bc e8c9 5cbc bbcb ceba 7c71 2ab6
00000250: 8e2d aebd 30f1 993d da22 da3c 7913 0cbd
00000260: 5081 d4bc bcf0 b6bb 22ad 18bb 7144 87bb
00000270: 8b72 3fbb 4846 e135 ba6a fe35 e24c b535
00000280: ce93 6435 1787 6eb6 918e c735 8851 a2bb
00000290: 7f2c e3b5 43a7 c236 2c25 4cb6 6059 a736
000002a0: 3b3f 5436 d8a4 a836 d82d b1b5 68dc fbb5
000002b0: e247 2fb6 0f40 4cb6 6254 fcb5 0532 a9b5
000002c0: da99 4436 0be3 6fba 8ddc 7ab6 39f4 8335
000002d0: 3e13 9836 539e 1fb6 30b2 8b36 d593 05b6
000002e0: c52c c835 e3b0 85b6 c804 2a36 e23d fb35
000002f0: 73be 8836 9dda 60b6 c65b 8c36 2a26 df35
00000300: 741f 9b3c 8de8 0bbd 3b1f b23c 1c07 45bc
00000310: 58c0 3b36 5e50 32ba a26e 11b6 d9b7 5136
00000320: 35b4 39b6 e10f 4a36 2448 70bd bffa 85bc
00000330: c203 e23c e279 e2bb 5fa7 f5b5 ef0d 8a34
00000340: 0bea 0136 ccdb c139 e078 07b6 0e95 c0bc
00000350: 36e2 8fbd abd8 633c cc58 e4b5 f488 4e3b
00000360: 5e3a 35bd 06b9 d2bd df96 b23c 04e1 1c3d
00000370: f877 c9bb 4c62 c435 85ad 753e 4298 27be
00000380: efe6 10bd 9586 733d 6f39 153d dcab af39
00000390: 7a11 6fbc b158 ac3c 0bd4 fa3b 9f4f 5336
000003a0: 5fc0 3bb6 5f6a 24b5 97f6 8cb6 12f7 1e36
000003b0: 3b21 80b6 7122 643c c056 cab5 a814 9cb6
000003c0: 134e 5cb6 e271 4936 9910 4836 de92 d0b5
000003d0: 3864 8636 57ba ecb5 aaa5 5436 4b1a d135
000003e0: 4354 3b36 4af6 0b36 6b72 44b6 1cb0 053b
000003f0: 57ef 0237 3323 e034 c8d8 9eb6 f565 7635

gnn.gnn_layers.0.gat_conv.res_fc.weight f4 [128, 74]
-0.094452724 0.041336045 0.015462006 -0.023208385 -0.040652648 -0.0042269323 0.0019863562 -0.033461366
-0.0031026609 -2.622324e-06 -4.291097e-06 2.947424e-06 -2.737244e-06 8.191053e-06 3.8644216e-06 -0.0034792824
-4.4168555e-06 2.7905307e-06 2.795782e-06 2.7699627e-06 1.6618169e-06 2.8196805e-06 4.8454444e-06 -2.9841283e-06
1.7977128e-06 -2.7509398e-06 -2.1510373e-06 -3.9546176e-06 -2.7026017e-06 -0.0008848754 3.986492e-06 -2.4555463e-06
1.55604e-06 -3.714393e-06 2.8721372e-06 1.7781067e-06 3.1894356e-06 -4.114625e-06 -1.7115485e-06 -2.055894e-06
3.2168043e-06 -1.4246178e-06 -1.8308666e-06 3.9529573e-06 0.01573634 -0.07322413 0.02084446 -0.016832864
8.0063586e-07 0.00026207604 -3.444455e-06 7.5153906e-07 -3.0643469e-06 -4.8407337e-06 -0.09574178 -0.05419982
0.037164845 0.002258129 3.3451624e-06 -1.5070684e-06 -5.9304745e-07 -0.020168057 -4.333149e-06 -0.021705218
-0.12082715 -0.023022424 1.5172619e-06 0.00016640182 -0.101158686 -0.108175226 -0.038127385 0.03926465
0.0048737274 -5.8796525e-07 0.028127244 -0.021468949 -0.008437591 0.0039898916 0.006908099 0.00057533255
-0.0007032081 0.007891352 0.0007006829 -3.262909e-07 1.4626338e-06 -3.4008426e-07 6.8161453e-06 -1.8344726e-06
-5.4413654e-06 0.00023304367 -6.493042e-06 4.372612e-06 2.6632924e-06 -8.811234e-07 -4.0386826e-06 -5.8842393e-06
-2.8311733e-06 -4.0447007e-06 3.7629545e-06 -6.1710953e-06 2.0017136e-07 2.0921445e-06 2.820942e-06 0.000988671
-1.7592057e-06 3.8766657e-06 2.8144254e-06 1.0837218e-06 -3.491526e-06 -2.9988005e-06 -4.3969007e-06 -1.2392061e-06
2.769475e-06 -6.1539015e-07 -8.5455656e-07 4.038101e-06 2.9876778e-06 1.4696367e-06 -0.0031647643 0.02324018
-0.026173582 -0.002652371 1.3362604e-06 -1.7431079e-06 3.7768725e-06 1.9812305e-06 4.9448954e-06 5.368213e-07
0.024902526 -0.004202868 -0.0047255545 0.0004533368 -2.7489066e-06 -1.2591402e-06 1.5302898e-06 0.0066968114
-3.0402825e-06 0.00468337 0.033770796 -0.004498267 -1.940828e-06 5.6961813e-05 0.023266714 0.04132635
-0.011580762 -0.013168435 -0.0012186251 -2.958978e-06 -0.070888124 0.053961895 0.020348834 -0.03870929
-0.0102532 -0.0053949864 -0.00020183244 -0.02048756 -0.003914 -2.2589893e-06 -2.0576535e-06 -3.4822212e-06
1.546745e-06 -9.765192e-07 3.148168e-06 -0.0051379506 5.6873347e-07 1.656669e-06 5.710523e-06 -2.3566006e-06
-3.818437e-06 -4.086816e-06 -3.92706e-06 -6.997979e-06 -3.029433e-06 7.877692e-07 3.5510668e-06 -2.1913092e-06
2.2087781e-06 -0.0007565279 -5.7085254e-07 6.636637e-06 2.7138242e-06 -6.434082e-06 -3.5303306e-06 1.5935522e-06
-3.5858975e-06 1.6918023e-06 -2.7005356e-06 4.1261765e-06 -3.5205642e-06 -7.963232e-06 3.1032928e-06 2.452256e-06
0.012267777 -0.051004965 0.047963824 -0.020848813 -2.7937288e-06 0.00022133114 -5.4788816e-06 4.1956523e-06
-2.4503959e-06 -7.349473e-07 -0.07159153 -0.03522787 0.031138284 -0.0010450976 -3.2854484e-06 1.1630692e-07
-2.2163977e-06 -0.011833078 -2.4503856e-06 -0.02167522 -0.07919819 0.019064069 -1.018644e-06 -5.8146525e-05
-0.05415587 -0.10375601 -0.0052014464 0.04043718 0.0013508677 3.1128516e-06 0.15984191 -0.10810292
-0.056674957 0.08032803 0.02161735 0.015673483 -0.008714068 0.04217355 0.010085818 2.9675311e-06
-4.9480004e-06 -3.3007193e-06 2.3637435e-06 1.9628542e-06 -3.0305384e-06 -0.0037151496 2.7561066e-06 4.8749657e-06
-5.6925086e-07 -7.9257796e-07 -2.645487e-06 -2.8653242e-06 3.4577267e-06 6.070267e-06 3.1449995e-06 -3.4755146e-06
-4.867555e-06 -5.655973e-06 -1.1855368e-06 0.0052442234 1.208671e-06 4.7115905e-06 -2.6464822e-06 -5.6391564e-06
00000000: 6e70 c1bd fc4f 293d 5b54 7d3c 831f bebc
00000010: 6483 26bd 1482 8abb 872d 023b c90e 09bd
00000020: 0356 4bbb 2ffb 2fb6 3efc 8fb6 5ccc 4536
00000030: 7eb1 37b6 4e6c 0937 21ab 8136 ac04 64bb
00000040: 8034 94b6 f444 3b36 2b9f 3b36 99e3 3936
00000050: 980b df35 be39 3d36 0d96 a236 ef42 48b6
00000060: f148 f135 c99c 38b6 8a5a 10b6 e8b1 84b6
00000070: 585e 35b6 fcf6 67ba b5c3 8536 f7c9 24b6
00000080: 21d9 d035 c944 79b6 f1be 4036 48a7 ee35
00000090: 160a 5636 5c10 8ab6 5cb8 e5b5 fdf7 09b6
000000a0: 47e0 5736 7f35 bfb5 19bc f5b5 a5a3 8436
000000b0: 7fe9 803c 88f6 95bd 00c2 aa3c 13e5 89bc
000000c0: 47eb 5635 4067 8939 4927 67b6 5fbd 4935
000000d0: 14a5 4db6 966d a2b6 4414 c4bd a100 5ebd
000000e0: 2a3a 183d 1efd 133b 747d 6036 7a46 cab5
000000f0: e931 1fb5 7b37 a5bc 7765 91b6 24cf b1bc
00000100: 3a74 f7bd 8699 bcbc b9a4 cb35 267c 2e39
00000110: 492c cfbd f98a ddbd 762b 1cbd f8d3 203d
00000120: cab3 9f3b aad4 1db5 1b6b e63c a6df afbc
00000130: d23d 0abc a3bd 823b 565d e23b ead1 163a
00000140: 7f57 38ba bb4a 013c 09ae 373a 142d afb4
00000150: b74f c435 d394 b6b4 3eb6 e436 0038 f6b5
00000160: f994 b6b6 2f5d 7439 cede d9b6 73b8 9236
00000170: 04bb 3236 5786 6cb5 0584 87b6 3b71 c5b6
00000180: 30ff 3db6 b7b7 87b6 1187 7c36 4e11 cfb6
00000190: afee 5634 c566 0c36 6a4f 3d36 4b96 813a
000001a0: d91d ecb5 4e14 8236 76df 3c36 6674 9135
000001b0: f64f 6ab6 003f 49b6 1789 93b6 cc52 a6b5
000001c0: 38db 3936 4a31 25b5 ae64 65b5 067f 8736
000001d0: ea7f 4836 5540 c535 ef67 4fbb 3162 be3c
000001e0: fb69 d6bc 67d3 2dbb 8f59 b335 bbf4 e9b5
000001f0: 2d76 7d36 48f5 0436 54ec a536 141a 1035
00000200: 6200 cc3c 36b8 89bb d3d8 9abb d6ad ed39
00000210: db79 38b6 baff a8b5 5b64 cd35 ed70 db3b
00000220: a807 4cb6 f476 993b 3f53 0a3d 3366 93bb
00000230: 2c3f 02b6 48ea 6e38 d699 be3c d245 293d
00000240: 3dbd 3dbc 6bc0 57bc 46ba 9fba db92 46b6
00000250: cb2d 91bd 2607 5d3d 99b2 a63c a28d 1ebd
00000260: 0afd 27bc 6dc8 b0bb fca2 53b9 87d5 a7bc
00000270: 0341 80bb 2499 17b6 3816 0ab6 1bb0 69b6
00000280: c199 cf35 f210 83b5 1d45 5336 415c a8bb
00000290: 11ab 1835 b75a de35 059d bf36 1726 1eb6
000002a0: 2020 80b6 7b21 89b6 30c5 83b6 2fd0 eab6
000002b0: 434d 4bb6 1677 5335 dd4e 6e36 680e 13b6
000002c0: 853a 1436 ba51 46ba b03c 19b5 47b0 de36
000002d0: 251f 3636 58e4 d7b6 9eea 6cb6 09e2 d535
000002e0: 40a5 70b6 e211 e335 d93a 35b6 9673 8a36
000002f0: d542 6cb6 d299 05b7 2a42 5036 7091 2436
00000300: c9fe 483c 95ea 50bd b775 443d 21cb aabc
00000310: e57b 3bb6 2015 6839 3cd7 b7b6 61c8 8c36
00000320: 7b71 24b6 3249 45b5 959e 92bd 194b 10bd
00000330: b715 ff3c a8fb 88ba 937b 5cb6 68c4 f933
00000340: 6cbd 14b6 87df 41bc 4e71 24b6 3b90 b1bc
00000350: a932 a2bd 402c 9c3c 57b8 88b5 5be2 73b8
00000360: 8cd2 5dbd 087e d4bd e570 aabb 75a1 253d
00000370: 990f b13a 62e6 5036 99ad 233e 1065 ddbd
00000380: 0024 68bd 0683 a43d de16 b13c ad65 803c
00000390: 73c5 0ebc 2cbe 2c3d fd3e 253c cc25 4736
000003a0: 0007 a6b6 ed81 5db6 cea0 1e36 94b9 0336
000003b0: 4160 4bb6 de79 73bb 8df5 3836 a393 a336
000003c0: 9fce 18b5 8bc1 54b5 1f89 31b6 e549 40b6
000003d0: 4b0b 6836 32af cb36 ae0e 5336 e33c 69b6
000003e0: fb53 a3b6 70c8 bdb6 bc1e 9fb5 bcd7 ab3b
000003f0: 9f39 a235 4118 9e36 389a 31b6 fc37 bdb6

readout.weight_and_sum.atom_weighting.0.weight f4 [1, 32]
-0.102770254 0.020567998 -0.010583597 0.18703234 -0.083468676 0.00065984076 0.075789735 0.08298515
0.23907782 0.024275469 0.046355866 -0.034330457 -0.084841974 0.070954055 -0.018252607 0.07041556
-0.055016804 0.04718422 0.096926086 0.2201292 -0.11318316 0.028043633 -0.1520649 -0.14865944
-0.10952038 0.1207445 -0.043184813 0.14087504 -0.05915459 -0.0025907063 0.14785081 0.10740531
00000000: 3679 d2bd 387e a83c d366 2dbc 6885 3f3e
00000010: a0f1 aabd 2af9 2c3a a637 9b3d 1ef4 a93d
00000020: d1d0 743e 59dd c63c a6df 3d3d 189e 0cbd
00000030: a1c1 adbd 5c50 913d 7e86 95bc 0836 903d
00000040: 4d59 61bd 3e44 413d 2f81 c63d 8d69 613e
00000050: 93cc e7bd c3bb e53c e7b6 1bbe 2e3a 18be
00000060: 394c e0bd e448 f73d 8fe2 30bd 8c41 103e
00000070: 154c 72bd d7c8 29bb 3466 173e 51f7 db3d

predict.predict.1.weight f4 [16, 64]
0.0004685259 -0.0012420836 0.00994728 -0.0003174887 0.0014697249 -3.605015e-05 -0.00041501384 -0.00028337847
-0.00030111356 0.0004470211 0.006924259 -0.0005951792 0.00054335484 0.025213873 -0.0052596075 -0.0003819945
-0.00033970486 -4.8573194e-05 0.057051647 -0.0007156607 -0.121712886 -0.019663345 -2.3080673e-05 -0.068875276
0.037263326 -0.0005120243 0.0025166897 -0.00088680314 0.0065758075 -0.002555573 -0.19817576 -0.00085940235
0.00013753721 0.0005604245 4.1588023e-06 -0.00013881199 -0.0012219934 0.00012187672 0.00016396231 0.00032651567
0.0010697589 0.00010878602 -0.00029798335 1.2669696e-05 -3.6083038e-05 0.0011745166 0.00069082447 -1.3204158e-05
-0.00053077587 -0.00030128958 5.897003e-05 -4.2642063e-05 -0.0006598732 7.854019e-05 -0.0019959896 -3.6754643e-06
-0.00046521873 0.0010584493 -0.0016551162 4.674001e-05 3.2974134e-05 -0.0020799916 0.00028076343 0.00037311134
0.006247743 0.024394311 0.012327139 -0.009798222 0.06417802 -0.0014271641 -0.030195223 0.0042084707
-0.13656881 -0.0023389405 0.066274054 -0.1530514 -0.056952238 0.09200247 -0.00666013 0.06923675
-0.03864582 0.07290563 0.020737436 -0.04643876 0.0038091256 -0.07400587 -0.055315256 -0.087783754
0.12999749 0.043749586 -0.14549269 -0.032664467 -0.06268063 0.03615821 0.0486571 -0.004669627
-0.0002449006 0.004182667 0.0011527909 0.000569775 -0.023909358 -0.0026888289 0.0035811048 -0.0025546628
-0.0002526371 -0.0031505595 0.002343308 -0.0166789 -0.00086765236 0.0063806125 -0.009046143 0.004895615
0.00038267535 0.004592981 0.0063368236 0.0030605032 -0.0035102547 0.0011394836 -0.050919935 -0.0062244856
-0.0024836885 0.0031346737 0.0016439522 0.00084998814 -0.0012832844 -0.00030757108 0.00716853 -0.0006237101
0.037832327 -0.0008418056 0.06673765 -0.12853031 0.089881845 0.0017455219 -0.0727791 -0.010028452
-0.13878551 0.0015866774 0.060192537 -0.22286057 -0.002520322 0.2065628 0.027210549 0.029759547
-0.012765431 0.07206447 -0.03834717 -0.06097496 0.05036347 -0.047082894 -0.027772825 0.0057261353
0.1301238 0.015761646 -0.16402453 -0.07116631 -0.0192522 0.03087446 0.039275523 -0.10906799
-0.00464255 0.000108168264 -0.0022721537 -0.009900242 -0.0070343176 0.001656063 0.003719523 0.0010246088
0.0031916653 0.0011316779 -0.0112671405 -0.0032599575 -0.0032276649 -0.013986248 -0.0027939153 -0.0054808906
-0.0011780049 -0.014126799 -9.704679e-06 0.0038874487 -0.004315512 0.00012237055 0.0019408314 -0.0050024623
0.0005257744 -0.00091352814 -0.00062492903 0.0056055584 3.1843763e-06 -0.002319882 0.00010867867 -0.0135220075
0.023720162 -0.006658134 0.00502888 -0.0251919 -0.036167424 0.023948373 -0.012292476 0.0021152375
-0.060283527 0.024866514 0.026972894 -0.07315887 0.008600472 0.028189268 0.048634037 -0.011913713
0.02273529 0.02977778 -0.045408454 -0.054622017 0.04383041 -0.007556041 0.02044509 0.0547366
0.01419756 0.026110118 -0.03756444 0.0045194253 0.014106182 -0.007142649 0.032268807 -0.009536528
-7.896635e-05 -0.0014743969 -0.00035321113 -0.0033615495 -0.00064945524 0.0020089892 -0.004008211 0.00052370405
-0.0032502797 0.003323117 -0.0004542955 -0.00054976856 -0.0006762816 -0.0050841523 0.000898006 -0.0013561847
0.00056104717 -0.004103997 -0.0022267937 -0.0007748013 -0.0002516581 0.00044912344 -0.00083629275 0.0002889811
0.00021379678 0.00056110957 -0.0013551681 -0.0005773074 -0.0002912709 -0.00066383637 -0.00130321 -0.0024072574
00000000: 7ba4 f539 69cd a2ba ebf9 223c 9d74 a6b9
00000010: c9a3 c03a 8e34 17b8 3796 d9b9 6a92 94b9
00000020: c7de 9db9 285e ea39 e5e4 e23b cd05 1cba
00000030: ed6f 0e3a 538d ce3c c958 acbb 6f46 c8b9
00000040: 6a1a b2b9 12bb 4bb8 fdae 693d 2d9b 3bba
00000050: 9b44 f9bd 0615 a1bc 5e9d c1b7 7b0e 8dbd
00000060: 6ea1 183d 5e39 06ba 0cef 243b 5a78 68ba
00000070: df79 d73b 667b 27bb 96ee 4abe 8449 61ba
00000080: dd37 1039 74e9 123a d78b 8b36 0f8e 11b9
00000090: 4b2b a0ba 1198 ff38 4ced 2b39 3130 ab39
000000a0: 2737 8c3a 0d24 e438 a63a 9cb9 ee8f 5437
000000b0: de57 17b8 3df2 993a 7218 353a 6d87 5db7
000000c0: c423 0bba 67f6 9db9 9656 7738 91da 32b8
000000d0: 57fb 2cba f2b5 a438 26cf 02bb ffa7 76b6
000000e0: 9ae8 f3b9 aabb 8a3a 7cf0 d8ba b40a 4438
000000f0: b54d 0a38 7850 08bb 6e33 9339 289e c339
00000100: deb9 cc3b 94d6 c73c c5f7 493c b988 20bc
00000110: c46f 833d ae0f bbba f95b f7bc 36e7 893b
00000120: b2d8 0bbe e948 19bb b1ba 873d 82b9 1cbe
00000130: c046 69bd ca6b bc3d 383d dabb ffcb 8d3d
00000140: 144b 1ebd 8c4f 953d 8ee1 a93c 9236 3ebd
00000150: 86a2 793b 6490 97bd 4092 62bd f8c7 b3bd
00000160: 101e 053e c432 333d 09fc 14be 2dcb 05bd
00000170: b45e 80bd a21a 143d ab4c 473d ac03 99bb
00000180: 0166 80b9 c10e 893b 3e19 973a f45c 153a
00000190: 8fdd c3bc 1037 30bb f8b0 6a3b 216c 27bb
000001a0: 6174 84b9 9e79 4ebb 2f92 193b 30a2 88bc
000001b0: 2a73 63ba 7514 d13b 4636 14bc 656b a03b
000001c0: d1a1 c839 b880 963b 21a5 cf3b b992 483b
000001d0: 4d0c 66bb ba5a 953a 6c91 50bd c5f6 cbbb
000001e0: 61c5 22bb 196f 4d3b e279 d73a bdd1 5e3a
000001f0: e133 a8ba 7e41 a1b9 fde5 ea3b 7a80 23ba
00000200: 12f6 1a3d 9eac 5cba c0ad 883d 739d 03be
00000210: f913 b83d ffc9 e43a 350d 95bd 604e 24bc
00000220: ca1d 0ebe 0ff8 cf3a 738c 763d 9035 64be
00000230: fd2b 25bb 3385 533e a8e8 de3c 4bca f33c
00000240: 1926 51bc 8996 933d ec11 1dbd e1c0 79bd
00000250: ed49 4e3d fed9 40bd d683 e3bc 4ea2 bb3b
00000260: 2c3f 053e 911e 813c 0cf6 27be a4bf 91bd
00000270: cab6 9dbc 6fec fc3c 5fdf 203d 0a5f dfbd
00000280: 8820 98bb 65d8 e238 6ae8 14bb a034 22bc
00000290: 2280 e6bb 4110 d93a 3ec3 733b 2b4c 863a
000002a0: 422b 513b cf54 943a d099 38bc 03a5 55bb
000002b0: 3b87 53bb 9326 65bc 1f1a 37bb 0b99 b3bb
000002c0: 4967 9aba 1774 67bc 47d1 22b7 91c4 7e3b
000002d0: 2369 8dbb 9850 0039 7f63 fe3a b2eb a3bb
000002e0: 1fd4 093a d679 6fba 47d2 23ba d5ae b73b
000002f0: 2bb3 5536 2909 18bb 6bea e338 698b 5dbc
00000300: c950 c23c 7a2c dabb 4ec9 a43b 3e5f cebc
00000310: 4b24 14bd 612f c43c 6266 49bc cc9f 0a3b
00000320: dceb 76bd dcb4 cb3c 42f6 dc3c 51d4 95bd
00000330: fee8 0c3c 2eed e63c 7c34 473d bc31 43bc
00000340: 5c3f ba3c 88f0 f33c 37fe 39bd 56bb 5fbd
00000350: 8487 333d aa98 f7bb 767c a73c 7c33 603d
00000360: e29c 683c e3e4 d53c 2cdd 19bd b017 943b
00000370: 9e1d 673c e20c eabb 4c2c 043d 193f 1cbc
00000380: bd9a a5b8 8d40 c1ba 322f b9b9 714d 5cbb
00000390: 3440 2aba 3fa9 033b 5057 83bb 2f49 093a
000003a0: a502 55bb a7c8 593b 832e eeb9 581e 10ba
000003b0: 7d48 31ba f698 a6bb 2a68 6b3a 02c2 b1ba
000003c0: 3d13 133a d27a 86bb 66ef 11bb 091c 4bba
000003d0: faf0 83b9 5478 eb39 a83a 5bba 6382 9739
000003e0: a32e 6039 6d17 133a e59f b1ba 7256 17ba
000003f0: b8b5 98b9 4e05 2eba 79d0 aaba 14c3 1dbb

predict.predict.1.bias f4 [16]
0.00015292177 0.0041750404 -0.0050334223 -0.0056828465 -0.0013442945 0.005616072 -0.017240886 0.0011751988
0.04587326 0.037374422 -0.00074721844 0.0012411578 -0.0021626714 0.0053567663 -0.0002339153 -0.00084085955
00000000: a059 2039 c7ce 883b 68ef a4bb 2c37 babb
00000010: 0a33 b0ba 0707 b83b c23c 8dbc 2109 9a3a
00000020: 99e5 3b3d ec15 193d fbe0 43ba 58ae a23a
00000030: 9bbb 0dbb d087 af3b 2947 75b9 216d 5cba

predict.predict.3.weight f4 [16]
-0.0011801862 -0.022161009 0.030598909 0.028424688 0.3658846 -0.045157664 0.24143118 0.086137205
-0.22292161 -1.1753261 -0.014148523 0.076583534 0.037695035 -0.034757294 0.49014014 0.0710557
00000000: 7ab0 9aba 018b b5bc 90aa fa3c e4da e83c
00000010: 3a55 bb3e 3ef7 38bd bc39 773e b468 b03d
00000020: 9045 64be 1671 96bf 35cf 67bc d4d7 9c3d
00000030: 1c66 1a3d aa5d 0ebd a6f3 fa3e a785 913d

predict.predict.3.bias f4 [16]
0.012394434 -0.04683744 0.066958696 0.010044428 -0.04373451 0.01631064 -0.012983389 0.059602108
-0.07750584 -0.6881249 0.00782161 0.072180174 0.012259957 -0.023056202 0.06963367 -0.00042317135
00000000: 0612 4b3c 9ed8 3fbd a421 893d 6291 243c
00000010: f522 33bd e49d 853c 48b8 54bc 5721 743d
00000020: 62bb 9ebd f428 30bf 3626 003c 33d3 933d
00000030: fddd 483c 5ce0 bcbc 199c 8e3d 19dd ddb9

predict.predict.3.running_mean f4 [16]
4.2338095 3.7178626 0.34479845 1.0395511 5.8597574 10.07475 25.2318 38.96829
20.050879 133.65031 1.9235455 0.78529036 4.2141666 0.5461779 66.03886 72.623314
00000000: 5e7b 8740 76f1 6d40 6c89 b03e 0310 853f
00000010: 2283 bb40 2d32 2141 bada c941 87df 1b42
00000020: 3368 a041 7ba6 0543 bd36 f63f ca08 493f
00000030: 74da 8640 51d2 0b3f e513 8442 233f 9142

predict.predict.3.running_var f4 [16]
1.6321951 5.3481765 0.08635802 0.47233522 10.13846 17.893873 76.67819 130.21565
35.904774 2443.3228 0.5115219 0.15019998 2.09055 0.73398656 1218.7479 444.85165
00000000: c5eb d03f 4324 ab40 79dc b03d ecd5 f13e
00000010: 2237 2241 a726 8f41 3c5b 9942 3537 0243
00000020: 7d9e 0f42 2ab5 1845 19f3 023f 06ce 193e
00000030: 92cb 0540 8be6 3b3f ef57 9844 036d de43

predict.predict.4.weight f4 [1, 16]
-0.011029597 -0.009379791 -0.032922387 -0.018949121 -0.043009184 -0.026874797 -0.06381445 -0.06239846
0.20932953 1.131136 0.00020240017 -0.06243658 -0.026436573 0.020244138 -0.33330503 0.043066967
00000000: 7cb5 34bc b2ad 19bc a0d9 06bd 303b 9bbc
00000010: 662a 30bd 8928 dcbc 26b1 82bd 8795 7fbd
00000020: 7b5a 563e 10c9 903f 623b 5439 80bd 7fbd
00000030: 8391 d8bc 09d7 a53c f5a6 aabe fd66 303d
