Results/GAT/34/model.pth (torch, 759482 bytes, 13 tensors)

gnn.gnn_layers.0.gat_conv.attn_l f4 [1, 8, 128]
00000000: 5b06 07b9 4d38 db3a ccb2 cd3b 722a 7aba
00000010: caa5 3e3a 301d 20ba e199 fe3b aefa b13a
00000020: 3c7a 48bb 552d 96bb 7ef2 70ba 2639 27ba
00000030: d3c9 9ebb e51f f7b8 2fad e33b f263 3e37
00000040: 6ab7 143c d75f 823b 0b87 24bb e4c6 a33a
00000050: b453 013b 5d11 8339 aded ceba 4e68 3e39
00000060: 1967 3d3b 4b72 e7b9 204e 3dbb b1ac 11bc
00000070: 4230 1fbc c033 40bb bfae b5ba b823 b93b
00000080: 4e4d cf39 7a61 ff3a aa2c 2a3c 9a01 0db9
00000090: 3860 4e3a d013 3ebb 07d5 14ba ce5e 9f3a
000000a0: d677 833b 2fac 3abb 5135 4fbb 6fae 20bb
000000b0: 6eca bdbb fcbf 71bb f7a8 a2ba 8573 b2bc
000000c0: 8948 7638 f6e5 a13b 42c2 47bb 77f4 01bc
000000d0: cd1d a5bb ceeb a0b9 d1b0 91bb 6b48 79bc
000000e0: b70e b13c 9fad 0bbc 75dd 3f3c ee3d 41bb
000000f0: ea6b 9bba de43 d039 d3b0 49bb 3e6a f23b
00000100: ca10 1f3a 4dd6 3cbb c983 1e3c 737e 673a
00000110: ef7c 12bb 43e6 e6b9 74eb a8bb d56c e7ba
00000120: db47 c4bb bf44 13bc 76a6 743b 9725 633b
00000130: ab8c d4bb f4e3 d73c b374 333b fa7d 3b3b
00000140: 0d73 dd39 9fc7 283b 0da0 b737 5224 74bb
00000150: 8080 c53a 3460 75bc 1c5a 7fbc 3e42 8639
00000160: 9d75 68bb bf0a 4c3b d2f4 823a b857 5a3b
00000170: ce34 4fbc 49f8 27ba bca6 f139 4d7f 6b3b
00000180: 607b 1dbc e8a9 30ba 0ca4 cbbb eaaa bfbb
00000190: 1e2b 413b 60a6 dbbc f8f8 ee3b c5a0 c3bb
000001a0: e0ce f7ba 7507 f439 ec40 303c 55ba cabb
000001b0: 5ea3 e3bb 83ae 0abc 35d8 93ba 0a4f dc3a
000001c0: 7323 473b f91a 5dba 20db 23bb f700 fbba
000001d0: 189a 3d3a cdf4 8fbc 407b 4c3c 4cae 003b
000001e0: f126 343c 93e1 833b 547c efb9 279d 8dbc
000001f0: 513a afbb 3c44 87ba cda5 5aba 6c92 b1bb
00000200: c78b 88ba 5197 dab9 f1fb 003c e876 32b8
00000210: 6b48 8838 bdce 53ba 0362 ba3b 02f8 36ba
00000220: ac25 89bb d599 123b d5c4 33bb bb2b ee37
00000230: 075d 90bb 76ab 91ba c015 01bb 0f95 a439
00000240: 1613 4c3a fc19 1dbb 3d87 8eba 6fb2 7a3b
00000250: 9e34 8a3b 641d 41bb ae9c ff3a dbc5 373a
00000260: 27e4 7f3a 8473 5abb 0c42 4abc aef6 4bbb
00000270: e8e2 b0bb c44f 9fbb 5705 10b9 1ffb 373c
00000280: 28ee 2b3a b151 193b 347d 803b 301e 123a
00000290: 2cfc 60b8 fa9f 2cba 3ba0 e739 42f9 033a
000002a0: ba83 cb3b 3151 8fbb 55c0 63bb 692b 01bb
000002b0: d938 a7ba 7aad 37bb 5c6e 91ba bc29 f4bc
000002c0: a932 71bb 81f1 07bb 75b7 0bba c468 43bc
000002d0: d521 94bb aa39 a6b9 948d 823b f80b 05bc
000002e0: 0ea6 9e3c 5bad e3ba 496d 133b 6b92 ae3b
000002f0: 0793 263b 102f 873b 7383 88b9 29d6 643b
00000300: 136e 2f39 25d5 26bb 9366 2c3c 644a 3139
00000310: b99c a4bb f4d9 0e3b 5307 66ba 407b b63b
00000320: cc08 1cbb 49a2 f7bb 9aaa 273c 6ee3 b0ba
00000330: d45a bfbb 8a60 b93c f297 523b 6e32 1338
00000340: 2ab4 50bb 4821 6c3b dfb4 2539 f616 bf3b
00000350: 909f 58bb e2b1 0fbc c14b f8bb 11f2 67bb
00000360: cfb7 8039 240e 223b 50e0 293b f779 063b
00000370: 0d25 27ba 9d76 cd3a f29f 0b3a 4c14 99ba
00000380: 90ad 6a3b 7162 453b f313 6dbb 0ce0 8d3b
00000390: 4b85 2f3a 5808 e8bc 3909 eb3b 3bf4 82ba
000003a0: f72a f438 cdc2 d8b8 52ef 8a3c d8c2 b8bb
000003b0: df7d 30ba 9564 0cbc b610 4e3a 90b1 eabb
000003c0: 5172 533b 9fe8 d7ba ae6d 8abb a53e 3dbb
000003d0: c511 e53a c337 bbbc 3185 ea3b afb5 9738
000003e0: 0e3b 013c 7175 173b 5617 d0bb ca13 16bc
000003f0: 59f3 7ebb 67ff a43a c8fa 2ebb fd40 8e3a
-0.00012876971 0.0016725153 0.0062774178 -0.0009543068 0.00072726293 -0.0006107865 0.0077698086 0.0013578737
-0.0030590435 -0.0045830407 -0.00091914076 -0.000637906 -0.0048458367 -0.000117838186 0.0069481353 1.1348153e-05
0.009076932 0.00397871 -0.0025104906 0.0012495187 0.001973373 0.00024999204 -0.0015787386 0.00018158669
0.0028900562 -0.00044144908 -0.0028885677 -0.0088912705 -0.009716095 -0.002932772 -0.0013861282 0.00565001
0.00039539713 0.0019484006 0.010386625 -0.00013447404 0.0007872614 -0.0029003508 -0.00056774955 0.0012158991
0.0040120883 -0.0028483977 -0.0031617472 -0.0024518033 -0.0057919538 -0.0036888113 -0.0012409975 -0.0217836
5.8718524e-05 0.0049407436 -0.0030480777 -0.00793182 -0.005038953 -0.00030693266 -0.004446127 -0.01521502
0.021613462 -0.008525281 0.011710514 -0.0029486376 -0.0011857722 0.00039723417 -0.0030775561 0.007397919
0.00060678704 -0.0028814257 0.009674975 0.0008830793 -0.0022352298 -0.00044040577 -0.0051550213 -0.0017656336
-0.005990011 -0.008988558 0.0037330664 0.0034659856 -0.0064864955 0.026353814 0.002738279 0.0028609023
0.00042238124 0.002575375 2.188983e-05 -0.0037253094 0.0015068203 -0.01497655 -0.015585449 0.00025607826
-0.0035470494 0.0031134335 0.0009991175 0.0033316445 -0.012646867 -0.0006407542 0.0004609133 0.0035934031
-0.009611934 -0.0006739185 -0.0062146243 -0.005849232 0.0029475163 -0.026812732 0.007292863 -0.005970093
-0.0018906258 0.00046544863 0.010757666 -0.0061867633 -0.006946965 -0.008464458 -0.0011279645 0.0016808223
0.003038612 -0.00084345 -0.0025002435 -0.0019150068 0.00072327396 -0.017572785 0.012480557 0.001963514
0.0109956125 0.0040246933 -0.00045678264 -0.01728685 -0.005347528 -0.0010320018 -0.0008340746 -0.005419066
-0.0010417633 -0.0004169294 0.0078725675 -4.2549247e-05 6.498474e-05 -0.00080798176 0.0056879534 -0.0006979705
-0.004185399 0.0022369523 -0.0027430553 2.8392174e-05 -0.004405621 -0.0011113721 -0.0019696802 0.00031391575
0.00077848264 -0.0023971787 -0.0010874044 0.0038253327 0.0042176982 -0.002946698 0.001950165 0.0007010379
0.00097614754 -0.0033333013 -0.012344848 -0.0031122374 -0.005398143 -0.0048618037 -0.000137349 0.0112293055
0.00065586204 0.002339464 0.0039211754 0.00055739563 -5.3640615e-05 -0.00065851177 0.00044179134 0.0005034396
0.0062107714 -0.0043736924 -0.003475209 -0.0019709712 -0.0012758031 -0.0028026984 -0.0011095512 -0.029805057
-0.0036803877 -0.0020743313 -0.00053297664 -0.011926834 -0.0045206347 -0.0003170495 0.0039841626 -0.008120529
0.01936629 -0.001737039 0.002249556 0.005327513 0.0025417225 0.0041254833 -0.0002603788 0.0034917688
0.00016730306 -0.0025456634 0.0105225025 0.00016907748 -0.0050235656 0.002179739 -0.0008774895 0.0055688918
-0.0023808954 -0.0075571877 0.010233546 -0.0013495514 -0.005839685 0.022629041 0.0032134023 3.5094497e-05
-0.0031845667 0.003603058 0.00015803006 0.0058315946 -0.003305409 -0.008770438 -0.00757739 -0.0035392086
0.0002455101 0.0024727667 0.0025921054 0.0020519474 -0.00063760654 0.0015675608 0.0005326263 -0.0011679023
0.0035809018 0.003011849 -0.003617522 0.004329687 0.00066955824 -0.028324291 0.0071727303 -0.0009990999
0.000116428295 -0.00010335967 0.01695982 -0.0056384616 -0.00067326234 -0.0085689025 0.00078607665 -0.0071622804
0.0032264183 -0.0016472525 -0.0042245006 -0.002887645 0.0017476609 -0.022853738 0.007156991 7.234082e-05
0.007887615 0.0023110772 -0.006350438 -0.0091599915 -0.003890237 0.0012588323 -0.002669977 0.0010853108

gnn.gnn_layers.0.gat_conv.attn_r f4 [1, 8, 128]
00000000: 524c 2eb9 6d4a 0bbb 617f 72ba 5c88 8f3a
00000010: 6b7d 873a d833 0839 c4f9 7dba 6c0e 383a
00000020: f866 23bc 4cb3 f2ba 1b38 a33a 386b 4dba
00000030: a776 983b 3437 21ba 2952 093b 51e1 b53b
00000040: 5bd8 7e3c 871d 1f3b edf3 b33a 24eb 0eba
00000050: d0ca 01bc 7ee6 c3ba 5dc0 74ba 3df7 8cb9
00000060: 8a72 bf3a 1117 833b 081e 0dbb f097 de3a
00000070: ff5f 78bb 3b5e 93ba c908 a6b9 9ab8 1dbb
00000080: 5e1b 0f3a 2ef3 763b dde5 8139 eb5b b1ba
00000090: 103c 99b9 8ecc 23ba 37b8 f239 2126 5cbb
000000a0: 2951 df3a 3c31 803a ec3c 0939 dbca 92b9
000000b0: 4df1 83ba a172 38bb 864d b43a 329a ba3a
000000c0: 5849 193b e5f7 6a3a df35 08bb 1fa9 2e3b
000000d0: 04d2 ae39 4952 6abb 9348 19bb 183e 6dbb
000000e0: 9bff 9f38 f32b acbb 3fba 433b 43d4 aeba
000000f0: a8e9 a73a 6210 003b 249d 443a f2ce 7cba
00000100: e82d 063a d1f9 1c3a bf27 23bb c0c2 6a3a
00000110: e811 673a 1b6b 3bba be85 7bbb 0498 613b
00000120: f992 8bbb c5b8 34bb 99cb 41bb 2bec 373b
00000130: a6bd 34bb 27fd 39bc 9ad4 24b8 b1bc bc3a
00000140: 8184 9e39 d245 f3b8 7b9c 3239 043f 0b3b
00000150: c188 a3ba 4358 f0b8 f3e3 71ba 69a1 503b
00000160: d571 b9ba 233b 98ba e98a cb39 b341 893b
00000170: 97be 0bba d149 eaba d4f9 dd39 e41c adb9
00000180: d5e3 293c 3444 113a d221 33bb 4c6f 69bb
00000190: 8646 9538 9f44 ed3b 19d6 66bb 369c 7c3a
000001a0: 724d 61bb 5204 f639 5bf4 ffb7 36a3 42bb
000001b0: 812c 2a3a ae3e 9d3a 5d29 dc39 4ab3 24ba
000001c0: 4ae7 fcb9 7a24 35b9 880e 443a 9fc8 f6ba
000001d0: 7732 38b9 8666 ad3b 4ffe 66b9 e744 013b
000001e0: 93e0 353b 6f97 04ba 7b11 343c c5ce 2f3b
000001f0: ba45 05bb 1d8b b73b e860 183a b821 1e38
00000200: 0a8a 733a ea64 c9ba 1567 69ba caaf d2ba
00000210: 96a6 8c3b bd95 1bba 8f9b 87ba ea32 7c39
00000220: afa9 56bc 6270 babb b337 e739 c433 02ba
00000230: ac14 073c 0100 1e3a aaba 0cba 5746 91ba
00000240: cfca 6b3b 7db9 753b 03d6 1e3a 50b1 cfbb
00000250: bcab 3ebc 9b0f 24bb 4865 b23b 740a f7b9
00000260: c082 283a a917 0f3c 1c5d 1539 933f 4e3b
00000270: dfbb 3fbc 833a 413b 3449 b3ba 13bf 503a
00000280: db38 f4ba 44fe 703c f00f d83b a1de 97ba
00000290: 69fa 00ba 2432 2a3a 7443 1b3a e391 7fba
000002a0: 0bb5 5bbb 30ba 9c3b 6754 fb3a 2cb5 55ba
000002b0: ea00 8dbb 9091 54ba 6ca6 2f3b 825d 923a
000002c0: 1994 1b3b d01e 583a dd4e fbb9 9729 97bb
000002d0: 2808 52bb 681b 84bb 96a6 bcbb 5550 483c
000002e0: 88d0 413b 1df3 9abb 131e c03b 70f5 f839
000002f0: 42e2 de3a ccbe 243b e7c2 33bb dea0 4f3b
00000300: be54 8fba b3e3 2b3a 4bc0 e9bb 6ec6 76b8
00000310: 414f 6bba d021 4fb9 c071 bcbb c437 74bb
00000320: aa78 f138 8c43 08bc 6131 b8b7 2915 9e3b
00000330: ba9b 87bb da2a 0cbc b230 5239 adbd 673b
00000340: dfb2 633b 36fc 933b bbc0 bbb9 f13a 98b9
00000350: 324a f13b e637 b33a ad82 df3a 4168 083c
00000360: 070d 27bb a4f4 beba d3b1 aaba f57e d53b
00000370: df35 0ebc 6511 47bb 75bc f039 6565 68b9
00000380: 4569 cfbb 3faf 2a3a 786f 76bb 7ada dabb
00000390: 35c0 a1b9 13f4 f13b 2f88 233a 8837 4f3a
000003a0: 3bb2 74bb 35de 043a 4c8a 993b 82ab c43a
000003b0: d64f 7b3b e883 8b3b 0295 0bba da42 d83b
000003c0: 986b 54bb 7c50 143a d738 533a 4f1a 1fbb
000003d0: 2ebe b2ba 2d26 ee3b bdf8 f0b9 1e13 3bba
000003e0: 5b7b 103b 367e 10bc 4d1b fc3b 46de ad3b
000003f0: 1c51 7e3a abc2 293b 6959 ef39 de28 4fbb
-0.00016622365 -0.0021254078 -0.00092505483 0.0010950672 0.001033706 0.00012989284 -0.0009688402 0.0007021192
-0.00997328 -0.0018516569 0.0012452634 -0.0007836106 0.0046528163 -0.00061498885 0.0020953512 0.0055505414
0.015554513 0.0024279074 0.0013729312 -0.0005451909 -0.007921889 -0.0014946011 -0.00093365257 -0.00026887088
0.0014606279 0.0040005525 -0.0021532793 0.0016982537 -0.0037899015 -0.0011243293 -0.00031668533 -0.002406633
0.0005459095 0.0037681567 0.0002477606 -0.0013531422 -0.00029227184 -0.00062484376 0.00046295088 -0.0033592063
0.0017037737 0.0009780298 0.00013088033 -0.0002799843 -0.001006642 -0.0028144496 0.0013756014 0.0014236628
0.0023389664 0.0008963331 -0.0020784063 0.0026651097 0.0003334434 -0.0035754612 -0.0023389205 -0.003620034
7.629321e-05 -0.0052542626 0.002986565 -0.0013338405 0.0012810724 0.0019541015 0.00075002224 -0.00096438744
0.0005118535 0.0005988153 -0.0024895517 0.00089554116 0.0008814619 -0.0007149444 -0.0038379277 0.0034422884
-0.004259464 -0.0027575952 -0.0029570817 0.002806435 -0.002757886 -0.01135186 -3.9298648e-05 0.0014399496
0.00030234832 -0.00011600148 0.00017033696 0.0021247277 -0.0012476669 -0.00011460532 -0.00092273875 0.003183449
-0.0014148304 -0.0011614304 0.00038822673 0.00418874 -0.00053308293 -0.0017874782 0.0004233854 -0.00033018657
0.010369261 0.0005541474 -0.002733339 -0.0035619317 7.11801e-05 0.0072408463 -0.0035222827 0.00096363144
-0.0034378436 0.00046923995 -3.0512156e-05 -0.0029699332 0.0006491617 0.0011996829 0.00041992488 -0.00062828197
-0.0004823751 -0.00017275094 0.0007478972 -0.00188281 -0.00017566407 0.0052917628 -0.00022029247 0.0019724907
0.0027752265 -0.0005057966 0.010990496 0.0026826125 -0.002033575 0.0056013004 0.000581278 3.770154e-05
0.0009290284 -0.0015365158 -0.0008903605 -0.0016074118 0.0042923195 -0.00059350935 -0.0010346043 0.0002405156
-0.013101979 -0.0056896666 0.00044101253 -0.000496682 0.008244675 0.0006027222 -0.0005368391 -0.0011083585
0.0035979038 0.0037494593 0.0006059112 -0.006338276 -0.011637624 -0.0025033716 0.0054442026 -0.000471193
0.00064281747 0.008733668 0.00014244433 0.0031470999 -0.011702507 0.0029484339 -0.0013678432 0.00079630426
-0.0018632667 0.014709059 0.006593697 -0.0011586734 -0.00049201265 0.0006492457 0.0005922832 -0.0009749217
-0.0033524658 0.0047829375 0.0019174934 -0.0008152302 -0.0043030875 -0.00081088487 0.0026802076 0.0011166784
0.0023739396 0.00082443375 -0.00047933208 -0.004613112 -0.0032048319 -0.0040315874 -0.0057571633 0.012226184
0.0029573757 -0.0047286884 0.00586296 0.0004748511 0.0017004686 0.0025138138 -0.0027429403 0.0031681578
-0.0010935289 0.0006557062 -0.007133519 -5.8835773e-05 -0.00089763483 -0.00019753654 -0.0057508647 -0.0037264684
0.00011514251 -0.008316886 -2.1957503e-05 0.0048243 -0.004138437 -0.0085551385 0.00020045301 0.0035360858
0.0034744067 0.00451615 -0.00035811015 -0.00029035614 0.007363581 0.0013673275 0.0017052494 0.008325637
-0.0025489943 -0.0014568758 -0.0013022966 0.0065153786 -0.008679836 -0.0030375358 0.0004591678 -0.00022163017
-0.006329688 0.0006511099 -0.0037603062 -0.0066788765 -0.00030851518 0.0073838322 0.00062382495 0.0007904698
-0.003733768 0.0005068512 0.0046856757 0.0015004727 0.0038347146 0.004257668 -0.0005324633 0.006599766
-0.0032412764 0.0005657745 0.0008057481 -0.0024277156 -0.0013637 0.0072677345 -0.00045961692 -0.00071363326
0.0022046182 -0.0088191535 0.007693684 0.005306038 0.00097014173 0.0025903385 0.00045652248 -0.0031610052

gnn.gnn_layers.0.gat_conv.bias f4 [1024]
00000000: 4509 db3b 927a 73ba 3166 073c 9c86 073c
00000010: 27e5 623c 133d 61bb b3bf cbbc 49a0 d6bb
00000020: df16 b5bc 5021 36bc 19b6 143c 72b3 923b
00000030: e7eb e13c b34a 903b b644 d0b9 eea7 59bc
00000040: b388 73bc 83bb 683c 37ba 96bb cb83 e9bc
00000050: fdeb a5bc ff7a e5bb b9ad 3b3a fa38 cbb9
00000060: c307 37bc 1343 173d dd6f 30bc 55e7 a03c
00000070: 62af 83bb f9e9 b6bb 7575 ffb9 4ed4 c73c
00000080: 9ae6 58b9 4889 443d c3b8 ca3c fe6e 0abb
00000090: d3a5 c93b 4603 de3b 0d63 4a3a 6ee2 c43b
000000a0: fd33 273b ff41 983c 5596 0dbc 9cf8 f1ba
000000b0: 5fbd d7bc b2ae f33b 70a8 4a3c 37dc 8a3b
000000c0: 849c a839 db4b 983c c43a 003c 1c68 13bd
000000d0: 1e77 47bc 8446 1cbc befa 21bb 9864 9c3d
000000e0: 6bad e2bc bb6a d73b 1d7f 42bd 8b8a 19bc
000000f0: 3f63 a83c db7e 9f3b 6dea e1bc 776e 3d3b
00000100: 7ef5 babb fb49 3abb 4ebd 0bbd 51c0 38bb
00000110: 633d a5bc ca3b 06ba db1f 92bb 6c30 49bc
00000120: 057d ce3c 32f1 5bbc 5d7e 71bd 538b c5bb
00000130: 11b9 bb3b ba7f c4bc 3f6c 9a3a 8ff5 433c
00000140: 52d7 f7bb 586f fc3c f7ef c73a 29a4 913d
00000150: 229b 0d3c 6dc5 91ba 1829 c13c ddcf 743c
00000160: c48e 743b 86c7 c6ba c7ac fd3b 101e 913b
00000170: b738 c2bc 5c6d 0dbc d8a8 bfbb 9441 adbb
00000180: 2338 f73b c8f1 f83b f2a6 863c a3df 403c
00000190: 2d84 2d3c 3289 15bc 7e2c 023c 4daa 503a
000001a0: 12ba a73a cb87 24bb a29b da3c 90c2 bf3c
000001b0: e007 333d 892a a03c dbb2 8b3b b8ac 233c
000001c0: d582 50bc b44a 93ba 4ba7 903b f676 c4bb
000001d0: a3dc dfbb 6091 b73a df61 4fbd cc7c 8b3b
000001e0: 54fe 863b ef48 73bd aa98 b8bc a7b0 73bb
000001f0: f399 b7bb 5361 0b3a ded2 133c 23a7 63bc
00000200: 4509 db3b 927a 73ba 3166 073c 9c86 073c
00000210: 27e5 623c 133d 61bb b3bf cbbc 49a0 d6bb
00000220: df16 b5bc 5021 36bc 19b6 143c 72b3 923b
00000230: e7eb e13c b34a 903b b644 d0b9 eea7 59bc
00000240: b388 73bc 83bb 683c 37ba 96bb cb83 e9bc
00000250: fdeb a5bc ff7a e5bb b9ad 3b3a fa38 cbb9
00000260: c307 37bc 1343 173d dd6f 30bc 55e7 a03c
00000270: 62af 83bb f9e9 b6bb 7575 ffb9 4ed4 c73c
00000280: 9ae6 58b9 4889 443d c3b8 ca3c fe6e 0abb
00000290: d3a5 c93b 4603 de3b 0d63 4a3a 6ee2 c43b
000002a0: fd33 273b ff41 983c 5596 0dbc 9cf8 f1ba
000002b0: 5fbd d7bc b2ae f33b 70a8 4a3c 37dc 8a3b
000002c0: 849c a839 db4b 983c c43a 003c 1c68 13bd
000002d0: 1e77 47bc 8446 1cbc befa 21bb 9864 9c3d
000002e0: 6bad e2bc bb6a d73b 1d7f 42bd 8b8a 19bc
000002f0: 3f63 a83c db7e 9f3b 6dea e1bc 776e 3d3b
00000300: 7ef5 babb fb49 3abb 4ebd 0bbd 51c0 38bb
00000310: 633d a5bc ca3b 06ba db1f 92bb 6c30 49bc
00000320: 057d ce3c 32f1 5bbc 5d7e 71bd 538b c5bb
00000330: 11b9 bb3b ba7f c4bc 3f6c 9a3a 8ff5 433c
00000340: 52d7 f7bb 586f fc3c f7ef c73a 29a4 913d
00000350: 229b 0d3c 6dc5 91ba 1829 c13c ddcf 743c
00000360: c48e 743b 86c7 c6ba c7ac fd3b 101e 913b
00000370: b738 c2bc 5c6d 0dbc d8a8 bfbb 9441 adbb
00000380: 2338 f73b c8f1 f83b f2a6 863c a3df 403c
00000390: 2d84 2d3c 3289 15bc 7e2c 023c 4daa 503a
000003a0: 12ba a73a cb87 24bb a29b da3c 90c2 bf3c
000003b0: e007 333d 892a a03c dbb2 8b3b b8ac 233c
000003c0: d582 50bc b44a 93ba 4ba7 903b f676 c4bb
000003d0: a3dc dfbb 6091 b73a df61 4fbd cc7c 8b3b
000003e0: 54fe 863b ef48 73bd aa98 b8bc a7b0 73bb
000003f0: f399 b7bb 5361 0b3a ded2 133c 23a7 63bc
0.0066844546 -0.0009287979 0.00826411 0.0082718395 0.0138485795 -0.0034368678 -0.024871683 -0.006549869
-0.022105632 -0.011116341 0.009076619 0.004476958 0.027578307 0.004403436 -0.00039724045 -0.013284666
-0.014864135 0.0142048625 -0.0045998353 -0.028505227 -0.02025413 -0.0070031877 0.00071593706 -0.00038761628
-0.011171284 0.0369292 -0.010768858 0.019641558 -0.00401871 -0.005582091 -0.00048724902 0.024393227
-0.00020685271 0.047982484 0.024746304 -0.0021123285 0.006153801 0.0067752926 0.0007720448 0.006008438
0.0025513165 0.018586157 -0.008641799 -0.0018460932 -0.026335416 0.007436597 0.01236926 0.0042376774
0.0003216007 0.018590858 0.007826511 -0.03598796 -0.012174396 -0.009538297 -0.0024716104 0.07636374
-0.027670583 0.0065740026 -0.047484506 -0.00937141 0.020555137 0.0048674173 -0.027577603 0.0028904954
-0.0057055345 -0.0028425443 -0.034116082 -0.0028190801 -0.020170873 -0.00051206036 -0.004459364 -0.012279611
0.025206098 -0.013424205 -0.0589584 -0.0060285716 0.0057288487 -0.023986686 0.0011781527 0.011960401
-0.00756351 0.030814812 0.001525401 0.07111389 0.008642944 -0.001112146 0.023579165 0.014942137
0.003731654 -0.0015165664 0.007741544 0.0044286326 -0.023708684 -0.00863203 -0.005848985 -0.0052873585
0.007544534 0.007597182 0.016437028 0.011772069 0.010590595 -0.009126948 0.007945178 0.0007959947
0.0012796542 -0.0025105353 0.02668554 0.023408204 0.043708682 0.019551532 0.0042632646 0.00998991
-0.012726505 -0.0011237473 0.004414474 -0.0059956266 -0.006831722 0.0014005117 -0.050630447 0.0042568203
0.0041196737 -0.059395727 -0.022533733 -0.003718415 -0.005603069 0.00053169316 0.009022443 -0.013894829
0.0066844546 -0.0009287979 0.00826411 0.0082718395 0.0138485795 -0.0034368678 -0.024871683 -0.006549869
-0.022105632 -0.011116341 0.009076619 0.004476958 0.027578307 0.004403436 -0.00039724045 -0.013284666
-0.014864135 0.0142048625 -0.0045998353 -0.028505227 -0.02025413 -0.0070031877 0.00071593706 -0.00038761628
-0.011171284 0.0369292 -0.010768858 0.019641558 -0.00401871 -0.005582091 -0.00048724902 0.024393227
-0.00020685271 0.047982484 0.024746304 -0.0021123285 0.006153801 0.0067752926 0.0007720448 0.006008438
0.0025513165 0.018586157 -0.008641799 -0.0018460932 -0.026335416 0.007436597 0.01236926 0.0042376774
0.0003216007 0.018590858 0.007826511 -0.03598796 -0.012174396 -0.009538297 -0.0024716104 0.07636374
-0.027670583 0.0065740026 -0.047484506 -0.00937141 0.020555137 0.0048674173 -0.027577603 0.0028904954
-0.0057055345 -0.0028425443 -0.034116082 -0.0028190801 -0.020170873 -0.00051206036 -0.004459364 -0.012279611
0.025206098 -0.013424205 -0.0589584 -0.0060285716 0.0057288487 -0.023986686 0.0011781527 0.011960401
-0.00756351 0.030814812 0.001525401 0.07111389 0.008642944 -0.001112146 0.023579165 0.014942137
0.003731654 -0.0015165664 0.007741544 0.0044286326 -0.023708684 -0.00863203 -0.005848985 -0.0052873585
0.007544534 0.007597182 0.016437028 0.011772069 0.010590595 -0.009126948 0.007945178 0.0007959947
0.0012796542 -0.0025105353 0.02668554 0.023408204 0.043708682 0.019551532 0.0042632646 0.00998991
-0.012726505 -0.0011237473 0.004414474 -0.0059956266 -0.006831722 0.0014005117 -0.050630447 0.0042568203
0.0041196737 -0.059395727 -0.022533733 -0.003718415 -0.005603069 0.00053169316 0.009022443 -0.013894829

gnn.gnn_layers.0.gat_conv.fc.weight f4 [1024, 74]
00000000: f1b4 a93b d907 a839 8f6d 5b3a 78d7 ec3a
00000010: 44e2 363b e770 47b9 0ba2 2cba cfbc c73a
00000020: 8980 0439 707a 0828 58e5 e226 5610 0d27
00000030: e466 e725 6ee2 9c27 a080 5227 a589 4ab7
00000040: ebc2 7aa8 e3e9 2f27 c52f bd27 bd00 b4a6
00000050: 7813 99a7 74f5 d2a7 82f1 9ea7 cf32 3ea8
00000060: 3837 8aa6 9693 85a7 c3db 5ba7 3fe1 a3a7
00000070: be2b f3a6 d20e 6238 9ac5 0227 f023 f8a6
00000080: dbf0 65a8 caa2 15a7 f447 71a5 e639 0128
00000090: bf0f 8927 908e 63a7 f649 ab27 b110 3328
000000a0: aa7a dfa5 2918 16a7 60af bf25 9d5f 35a8
000000b0: eef0 903b 5aef 88ba 9c31 5c3b 5d26 aab9
000000c0: 7a58 73a6 74eb 1ab8 50dc d126 fdad 8ea6
000000d0: c0c3 0828 7205 19a8 be5f 193c 99ea dcb8
000000e0: 4dfa 08ba d0a8 9c3a 1a53 0727 a85b 1ea7
000000f0: 407b b9a6 1776 963a 85e9 6fa7 0625 d236
00000100: 29f0 263c f03f 39ba 3fd3 92a7 3240 7fb8
00000110: 2874 853b debf 4b3c f8ba c83a 4361 27ba
00000120: 67d3 a33a c577 26a8 9c79 173b 5106 593b
00000130: 11af 5d3a a293 803b 923b ebb9 d56b 6639
00000140: f545 213a ab86 4f3a af15 e238 0e7e dba6
00000150: 2a9e 9a26 dcca 5026 e0ba c8a7 3f1c 7f26
00000160: c190 8327 361f 3c39 2f0a daa7 0e7d f8a6
00000170: 72c0 19a7 86fc 6127 a377 5fa5 d95e 6826
00000180: 2543 b427 7cd1 0827 3dc0 0a27 e341 b627
00000190: 1c6c 7fa7 314d c4a7 74ce ad25 ad21 32b9
000001a0: 2692 9fa8 3fed 2425 8f84 7ba6 173a 42a6
000001b0: b7e4 64a7 e52e c8a7 203e 0e28 f4f1 0327
000001c0: 14b9 8127 030d 2ba6 bd1f 8927 165a fe26
000001d0: 4989 b1a6 d677 2327 6219 61bb b441 e1bb
000001e0: 5b1c 32bc d370 033b 1742 21a8 2742 8339
000001f0: 9442 4b27 3b8f 14a8 d756 4aa5 8394 3528
00000200: 560c 40bb 51ec ccbb 3ba7 ca3a 52d9 bc39
00000210: b7fe cc27 4461 33a6 dd86 a5a7 de53 7f3a
00000220: 833a 30a8 221a 273a 0759 a3bb e1b6 a4bb
00000230: c9a2 8526 ae4b 9ab9 7e61 c9bb db1c debb
00000240: 21bf 05bb df4e c23a 0236 3e39 d42f 28a5
00000250: cc7e 2e3b 97a2 33bb 4e14 073c 5472 ccbb
00000260: 0f72 1c3c f646 2cb9 4f94 c7b7 707a 633a
00000270: 658c a7b7 bbcc c627 3011 d827 3a1c eea6
00000280: daeb e126 f908 9fa7 980e ada7 f2e2 c7b8
00000290: ed00 aea5 8abc ad26 e7b4 fca6 1ade 4528
000002a0: a0b3 b3a4 146b 01a8 d352 ac27 5dfe 3428
000002b0: 10d2 31a8 973b e324 b7fb 85a6 d538 8226
000002c0: a94c f3a7 390b ca38 4c18 2ca8 7377 6d26
000002d0: 247c 1f27 4bef 04a7 6cac ea26 704e d127
000002e0: c6de 7427 bb3e 87a7 5ffe 28a6 fa7d 24a8
000002f0: cc8f 8627 25a5 e6a6 c638 c626 a7f0 23a7
00000300: f0b9 0bbb 924b 8d3b fbec 893b 5346 753b
00000310: d6e7 84a7 f009 4db8 6fc4 85a6 d33c a926
00000320: 4ee2 c6a6 43d5 37a5 d4c5 953b dbf0 4b3c
00000330: 444f 133b a0b4 29bb 7ae9 14a7 1b90 df24
00000340: d221 51a7 efe1 9e3a 0894 2627 459b c9bb
00000350: 75f9 b73b f1b5 053b 74e9 25a8 a01c 4fba
00000360: b5f6 a93b c17c 1b3c 7855 d13b 97b5 663a
00000370: ba80 16bb fb3e 96a7 4d9b 023a 811c 053a
00000380: ec7c 143c f72f 34bc 84ff 4a3b 36f1 69b9
00000390: 2951 8aba 293c 86bb 050f 4f39 a657 e227
000003a0: 2b72 d027 763c 0827 d223 94a7 7fa1 9e27
000003b0: a030 3828 7fef b538 c095 c127 a6ff 3aa7
000003c0: 867e 73a6 b25d a4a6 4c30 21a7 e434 f327
000003d0: 9a2b 8da7 4a3e ea27 d9ce 8827 856a d826
000003e0: 1e35 a0a7 47bc bea7 0396 c125 38ca b5b9
000003f0: 1e0e b9a7 033e 10a7 e01b bc27 a0f6 86a7
0.0051790406 0.00032049304 0.00083705125 0.0018069586 0.002790586 -0.00019020178 -0.00065854256 0.0015238764
0.00012636384 7.576066e-15 1.5744064e-15 1.9576537e-15 4.0141834e-16 4.3544194e-15 2.9213082e-15 -1.2072186e-05
-1.3920054e-14 2.4412919e-15 5.250983e-15 -1.2490209e-15 -4.248714e-15 -5.855283e-15 -4.4115653e-15 -1.0558136e-14
-9.590641e-16 -3.707493e-15 -3.0511488e-15 -4.54858e-15 -1.6873369e-15 5.38964e-05 1.8148244e-15 -1.7218198e-15
-1.2764281e-14 -2.0766152e-15 -2.0927797e-16 7.173493e-15 3.804221e-15 -3.1579862e-15 4.7542223e-15 9.9401154e-15
-3.8767454e-16 -2.082978e-15 3.3252057e-16 -1.0068251e-14 0.0044232523 -0.0010447309 0.0033598905 -0.0003245351
-8.442747e-16 -3.6935744e-05 1.4562004e-15 -9.900389e-16 7.591963e-15 -8.494387e-15 0.009361206 -0.00010534115
-0.0005225286 0.0011952166 1.8780063e-15 -2.1976592e-15 -1.2870361e-15 0.0011479285 -3.3294504e-15 6.262798e-06
0.010189095 -0.00070667174 -4.0752174e-15 -6.0856524e-05 0.004072685 0.012435881 0.001531451 -0.00063850376
0.0012498916 -9.240822e-15 0.0023113256 0.0033115337 0.0008456568 0.003923849 -0.00044867076 0.0002197468
0.0006152087 0.00079164904 0.00010780559 -1.5230345e-15 1.0728767e-15 7.243942e-16 -5.571376e-15 8.850918e-16
3.6516747e-15 0.00017940704 -6.0518196e-15 -1.7242353e-15 -2.133734e-15 3.1361916e-15 -1.9382701e-16 8.061971e-16
5.0032834e-15 1.8987353e-15 1.925556e-15 5.0586582e-15 -3.5446965e-15 -5.448462e-15 3.0150614e-16 -0.00016987948
-1.7715928e-14 1.4305115e-16 -8.726277e-16 -6.7385997e-16 -3.1765343e-15 -5.5561994e-15 7.896055e-15 1.8311065e-15
3.6005355e-15 -5.9345177e-16 3.805955e-15 1.7649208e-15 -1.2319053e-15 2.2685757e-15 -0.0034347405 -0.0068742875
-0.010871018 0.0020056262 -8.951626e-15 0.00025035554 2.8208001e-15 -8.2467085e-15 -1.755013e-16 1.0079722e-14
-0.0029304228 -0.006253757 0.0015461216 0.0003602007 5.6897537e-15 -6.223492e-16 -4.594292e-15 0.0009739975
-9.78265e-15 0.00063744385 -0.004984978 -0.0050266837 9.272852e-16 -0.00029429555 -0.006145655 -0.006778342
-0.002040811 0.0014824531 0.00018139931 -1.4587882e-16 0.002662587 -0.0027410144 0.008244587 -0.006239215
0.009548678 -0.00016429633 -2.379171e-05 0.00086776074 -1.9973328e-05 5.517801e-15 5.997068e-15 -1.6522218e-15
1.5676439e-15 -4.4141093e-15 -4.803297e-15 -9.531331e-05 -3.0184816e-16 1.205539e-15 -1.7535046e-15 1.0983857e-14
-7.793317e-17 -7.184157e-15 4.782939e-15 1.00471635e-14 -9.871024e-15 9.8546506e-17 -9.296956e-16 9.035966e-16
-6.7529164e-15 9.634201e-05 -9.5531866e-15 8.2387777e-16 2.213298e-15 -1.84484e-15 1.6283747e-15 5.8094195e-15
3.3982568e-15 -3.753804e-15 -5.8631446e-16 -9.131146e-15 3.7348376e-15 -1.6004218e-15 1.3754398e-15 -2.2751252e-15
-0.0021320544 0.004311987 0.0042091585 0.003742595 -3.6888717e-15 -4.8885064e-05 -9.281972e-16 1.1743217e-15
-1.380035e-15 -1.5944976e-16 0.004570702 0.012447561 0.0022477666 -0.0025895014 -2.0665694e-15 9.695496e-17
-2.902291e-15 0.0012121777 2.3117376e-15 -0.006152543 0.0056144544 0.0020402635 -9.209962e-15 -0.0007900689
0.0051868805 0.009490193 0.0063883625 0.00088008627 -0.002296491 -4.1701647e-15 0.0004982248 0.0005077795
0.009062987 -0.010997764 0.0030975053 -0.0002231047 -0.0010552752 -0.004096527 0.00019746654 6.282263e-15
5.785538e-15 1.8906567e-15 -4.111709e-15 4.4028904e-15 1.0224596e-14 8.675362e-05 5.373062e-15 -2.5951273e-15
-8.447903e-16 -1.1405182e-15 -2.236942e-15 6.7503393e-15 -3.9182635e-15 6.501558e-15 3.7971848e-15 1.5016883e-15
-4.446651e-15 -5.2939724e-15 3.3581815e-16 -0.00034673675 -5.136312e-15 -2.0017631e-15 5.2210704e-15 -3.7459863e-15

gnn.gnn_layers.0.gat_conv.res_fc.weight f4 [1024, 74]
00000000: 0549 943b 21c3 ea3a 9a58 54b8 128d 263b
00000010: 6e0f 723b 9fdf 8038 0b15 3739 f0e8 183a
00000020: 5708 f0b8 2993 ed26 aa8b e826 f246 fb25
00000030: 3371 9527 6807 5225 4537 b026 6d2d 0238
00000040: 7635 e7a5 55f6 99a6 84a4 2a26 efa4 aa27
00000050: a004 a1a6 8773 ada5 0801 16a6 f6fd 9327
00000060: 05e9 1fa7 69a5 08a7 4f2e 38a7 3b41 bf26
00000070: ad88 dda6 b977 b538 4cb0 59a5 9511 0227
00000080: 988f 3fa7 cc3a 7ca6 bc60 1da6 89dc 4ca6
00000090: dce3 2428 f309 f3a7 0a15 65a7 10ab 3127
000000a0: d013 14a7 e790 9a26 f5b0 bb26 8d3a 14a7
000000b0: b750 863b cfb6 95b9 d22c 543b 7829 0a3b
000000c0: 6d62 b927 dfcc 5a39 4ef0 25a7 03ed 4f27
000000d0: f94f 92a7 dc7b efa6 7be8 0a3c 38f4 4b3a
000000e0: 217e a3ba b7ee 653a 640c 2527 3d20 4027
000000f0: f581 d3a6 8dcb 6d3a 059c 4da7 ed39 cb38
00000100: e856 303c 0a2f bbba 6d5d 8327 2656 7339
00000110: fecb 9b3b ddcc 293c f4e7 1a3b 9297 bdba
00000120: 9a61 3f3a 734f 9026 77a1 383a b3f6 583b
00000130: b306 633b 2695 6a3b 7241 e8ba 6c81 3b38
00000140: 98d2 f339 63be 173a 5c0d 2539 fdd8 6628
00000150: 908d 86a7 6825 0ea8 c902 72a6 385b 65a8
00000160: b5cd fe26 b693 3738 6a7b c626 bcb9 e126
00000170: c50b 2d28 829b bda7 e3dd 2628 3a9b 97a5
00000180: b2a3 b427 9da9 eea7 35fe 12a8 647a d427
00000190: 1454 9a26 18da 8827 893f 8ca6 58e1 21b9
000001a0: 76e3 bfa6 0b6a 0127 9401 a525 fb69 5a26
000001b0: 85bb 06a8 11c1 2027 3968 f626 d621 ffa7
000001c0: 6154 fba7 db96 0127 04e4 8f28 203b 5027
000001d0: fc62 e9a7 7b0b 55a7 6b25 d1bb 9dd9 f4bb
000001e0: 1518 22bc f0a1 ab3b 9456 c327 e9a3 b639
000001f0: d40a d2a7 b615 e1a6 e189 8027 0700 d8a6
00000200: 6aaa 91bb b869 13bc f2c5 f83a 820f e039
00000210: 4cad 31a6 1878 0a26 09db d8a6 a478 ed39
00000220: 18dc e1a6 4026 0e3a 46b0 8dbb 0efe 99bb
00000230: 817e de27 ad75 be39 162d b4bb 6790 07bc
00000240: 6b6d a3bb 0e3c 103b 6af9 ac3a cb7d ba27
00000250: 0d7d 0c3b 8a02 29bb fe19 c93b fd10 04bb
00000260: 369b b63b 1982 6539 97e9 95b8 0ab4 a9ba
00000270: b27e e4b8 2449 36a7 c72a 9726 8c82 0327
00000280: 8e57 03a6 4d77 fba7 2267 4e27 54b7 2539
00000290: 70a9 93a6 2558 d424 2973 c8a7 f462 eba6
000002a0: 5c78 7126 ba54 9827 f61a caa6 8103 72a6
000002b0: e779 9328 51a3 baa4 5f9d 41a4 ee2e c627
000002c0: e8cf 3da7 64fc 9eb9 a21f 3028 0190 b6a7
000002d0: bb2c 19a6 b52f 2b28 e1c3 a8a7 1b7d 1227
000002e0: a76e c627 f395 e4a7 af44 9425 ae5c a527
000002f0: 973d 3226 7910 4527 b620 3b28 553b 92a5
00000300: ecf3 a23b eb8d 9fb8 3d3a b83b 9815 aab9
00000310: 3b4a 19a5 f8a6 50b9 95a9 10a5 ae52 6227
00000320: f25d c326 ad83 8fa6 fc65 b43b 8063 593c
00000330: 2e17 dd3a ed39 47bb 2a90 eda6 b552 21a7
00000340: ad51 f727 7b94 06ba e574 e6a7 3bb1 ebbb
00000350: 7d3d c33b 7dff 953a 4577 4b26 edfe 2fba
00000360: 0490 873b bb03 123c b9bb d83b 2a62 dfba
00000370: 88b1 e7b9 b097 a6a7 ca1e d13a 99e4 abb9
00000380: b961 543b 7dc0 15bc 2a99 9bbb f16a 17b9
00000390: ca69 1d3a f0c8 d0bb f414 d439 65cc 2f28
000003a0: e12b 15a6 3927 3ba7 daa6 de26 c0f5 a4a5
000003b0: 0a36 6a28 71d3 8239 b978 eb26 60cf 8ca6
000003c0: e847 0e28 7d48 fba5 0b9d 7426 8e55 2227
000003d0: 8e6d daa6 b177 62a7 d39d 97a8 f6dd ce25
000003e0: 13ec 1628 1330 a125 eef0 23a7 8013 22b8
000003f0: b5c9 ae26 6b42 baa7 fc2e 6827 d22e a626
0.004525306 0.0017910936 -5.0627255e-05 0.0025413674 0.0036935466 6.145168e-05 0.00017460079 0.000583305
-0.00011445645 1.6485066e-15 1.613609e-15 4.3589634e-16 4.147854e-15 1.8217106e-16 1.2227434e-15 3.103672e-05
-4.010834e-16 -1.0683276e-15 5.920356e-16 4.73633e-15 -1.1172873e-15 -3.0089e-16 -5.20431e-16 4.107604e-15
-2.2192003e-15 -1.896346e-15 -2.5560234e-15 1.3270968e-15 -1.5372002e-15 8.653053e-05 -1.8881481e-16 1.8050655e-15
-2.6584417e-15 -8.750975e-16 -5.4601417e-16 -7.10756e-16 9.153238e-15 -6.7456836e-15 -3.179154e-15 2.4656418e-15
-2.0549866e-15 1.0725172e-15 1.3023696e-15 -2.0570866e-15 0.0040989774 -0.00028555698 0.0032375348 0.0021081846
5.145453e-15 0.0002086642 -2.302862e-15 2.8855505e-15 -4.0609847e-15 -1.6617529e-15 0.008478279 0.0007780227
-0.0012473502 0.0008771228 2.2905067e-15 2.666283e-15 -1.4676291e-15 0.0009071164 -2.8534043e-15 9.690584e-05
0.010762908 -0.0014280987 3.6461096e-15 0.00023206379 0.0047545424 0.010363785 0.002363679 -0.0014464727
0.00073006155 1.0013542e-15 0.0007043103 0.0033106029 0.0034641444 0.0035794466 -0.00177197 4.4704808e-05
0.00046505476 0.00057885627 0.00015740603 1.2814617e-14 -3.7345954e-15 -7.890695e-15 -8.396439e-16 -1.27318335e-14
1.7680548e-15 4.3768167e-05 1.3772461e-15 1.5662855e-15 9.605981e-15 -5.262664e-15 9.262965e-15 -2.629951e-16
5.0137515e-15 -6.6242165e-15 -8.1597504e-15 5.8974516e-15 1.0708686e-15 3.798404e-15 -9.731673e-16 -0.00015438104
-1.3314941e-15 1.7959832e-15 2.8624007e-16 7.5777574e-16 -7.479156e-15 2.2309122e-15 1.7097929e-15 -7.0813403e-15
-6.975798e-15 1.7984125e-15 1.5975075e-14 2.889785e-15 -6.477781e-15 -2.9565912e-15 -0.0063826344 -0.0074722306
-0.009893437 0.0052378103 5.421724e-15 0.00034835868 -5.829845e-15 -1.5618396e-15 3.5676625e-15 -1.4988018e-15
-0.004445364 -0.008997373 0.0018979891 0.00042736164 -6.164407e-16 4.8041125e-16 -1.504738e-15 0.00045294047
-1.5672168e-15 0.000542257 -0.004323992 -0.004699475 6.1754534e-15 0.000363273 -0.0054985387 -0.008274174
-0.004987409 0.0022008452 0.001319689 5.1761756e-15 0.002143684 -0.0025788867 0.0061371317 -0.0020151727
0.005572702 0.00021887607 -7.148383e-05 -0.0012947333 -0.00010895486 -2.5297223e-15 1.0489325e-15 1.8250672e-15
-4.5568414e-16 -6.979584e-15 2.8644151e-15 0.00015803921 -1.02461e-15 9.208967e-17 -5.563601e-15 -1.6333222e-15
8.377679e-16 4.2280336e-15 -1.4023873e-15 -8.3965365e-16 1.6373145e-14 -8.094131e-17 -4.1983502e-17 5.500692e-15
-2.6341725e-15 -0.00030324154 9.776822e-15 -5.0671277e-15 -5.314316e-16 9.502752e-15 -4.684174e-15 2.032939e-15
5.507601e-15 -6.3445288e-15 2.572045e-16 4.5897183e-15 6.1839626e-16 2.7348172e-15 1.0387678e-14 -2.5367168e-16
0.0049729254 -7.608145e-05 0.005622177 -0.00032441015 -1.3295785e-16 -0.00019898626 -1.2547466e-16 3.1408621e-15
1.3556307e-15 -9.958309e-16 0.0055053215 0.013268352 0.001686787 -0.0030399517 -1.6484254e-15 -2.2388074e-15
6.8644825e-15 -0.00051338196 -6.396456e-15 -0.0071927584 0.0059582577 0.0011443939 7.0591413e-16 -0.0006713707
0.004137041 0.008912022 0.006614175 -0.0017042805 -0.00044192025 -4.6238715e-15 0.001595461 -0.0003278598
0.003240688 -0.009140131 -0.004748483 -0.00014440321 0.00060048385 -0.00637161 0.00040451402 9.7587725e-15
-5.1754227e-16 -2.5972726e-15 1.544957e-15 -2.8615992e-16 1.3001327e-14 0.00024953068 1.6339123e-15 -9.770661e-16
7.898176e-15 -4.359068e-16 8.486734e-16 2.2528396e-15 -1.5156484e-15 -3.1428685e-15 -1.6832813e-14 3.588571e-16
8.377863e-15 2.7961624e-16 -2.2751402e-15 -3.864197e-05 1.2128348e-15 -5.169738e-15 3.2221938e-15 1.1531255e-15

readout.weight_and_sum.atom_weighting.0.weight f4 [1, 128]
00000000: 923b d6bc 01bf 043d 5557 97bd 06e9 cabd
00000010: 7ce1 dcbd ad55 a33b 3874 0d3d ab81 9e3d
00000020: ec81 84be 3d2b aa3d 76b0 8a3b 8dfa 9abc
00000030: 7935 303c def1 013d 6f25 13bd ce49 1fbe
00000040: c40a 80bd 7114 263e 3c61 2f3d 3a2a a43d
00000050: c555 123d f103 edbc dba4 ce3d 5121 0fbc
00000060: ad52 10bb 0b3c 67bd 5e8b 64be be2a a13d
00000070: f06b ce3c 74de f7bc 9dbf 183d 8987 a53d
00000080: d731 d4bc 6d79 983d 237e 0e3e d2f4 1f3d
00000090: 105d 91bc 5621 1a3c e045 533d dd06 9bbd
000000a0: 4e6d b0bd 9bb1 20bd 13c9 3e3d 7265 fcbd
000000b0: 029a 7fbd 9232 873d 792b 8fbd 1305 f6bd
000000c0: b126 033e 7e4b 17be e73b 3dbc 5f90 20be
000000d0: e7d2 c43d 2efa 10bd 176b e9bc e645 8aba
000000e0: 86b2 513e 73a6 16bd e7da 1c3d 0864 583c
000000f0: 880f 99bd 5373 db3d 2a0a a0bd de28 aabd
00000100: 2e60 b2bb 1d98 313d 7d10 623e 4e32 cabb
00000110: 227b 36bd e058 3f3d 5d31 52bd c182 9e3c
00000120: 7ce4 9bbc 145a b0bd efb7 133b ba32 2bbd
00000130: 1b98 06be dfa1 693e 240d 0abd b34b 91bd
00000140: 4470 a83d aa14 eb3d 070b 99bc 755d e6ba
00000150: bc76 653d 0890 e13d a85c 733d cc32 283d
00000160: 883d 7ebd 6fc0 59bd a092 2cbd 3cb3 f3bd
00000170: 8a3d 49bc cadf 883d 1f86 87bc 23f5 2ebd
00000180: 76aa 463d c0d8 293d 3c48 0fbe 2e91 b63d
00000190: e010 9cbd 1a15 c7be 2a61 103e fb1e dd3d
000001a0: 303c 223c 0741 d93c 237f a63e 5ba9 08be
000001b0: b456 3ebd bb0c 1cbe 8b9b 87bb 69c2 deba
000001c0: 43c2 543d 0275 f53b df01 bfbd 9654 593c
000001d0: 8a42 babc 597d ddbe 3d51 28bd b4d7 f93d
000001e0: 48d6 df3d ad83 b437 d6be 0a3c 1440 273e
000001f0: f2cf 8e3d 137a 1b3d e8a7 323d 6a0c efbd
-0.026151452 0.032408718 -0.07389704 -0.09907727 -0.10785195 0.0049845786 0.034534663 0.07739576
-0.25880373 0.08309028 0.0042324616 -0.0189183 0.010754936 0.031724803 -0.03592437 -0.15555498
-0.062520534 0.16218735 0.04281734 0.080158666 0.035726327 -0.028932543 0.100900374 -0.008735971
-0.0022021935 -0.056453746 -0.2231879 0.078694806 0.025197953 -0.030257441 0.03729211 0.08082492
-0.025902672 0.07445035 0.13915305 0.03905184 -0.017744571 0.009407362 0.05158031 -0.075696684
-0.08614598 -0.039231878 0.046578478 -0.12324037 -0.062402733 0.066014424 -0.069907136 -0.120126866
0.12807728 -0.14774892 -0.011549926 -0.15680073 0.09610539 -0.03539484 -0.028493447 -0.0010549396
0.20478258 -0.036779832 0.0382947 0.013207443 -0.074736655 0.10715356 -0.07814439 -0.08308576
-0.0054435944 0.043357957 0.22076602 -0.0061705476 -0.044551022 0.046715617 -0.051316608 0.019349458
-0.019029848 -0.08610931 0.0022540053 -0.041796423 -0.13143961 0.22815655 -0.033703938 -0.070945166
0.08224538 0.11478551 -0.018682016 -0.001757546 0.056021437 0.110138 0.059414536 0.04106407
-0.0620704 -0.053162035 -0.04213202 -0.118994206 -0.012282738 0.066833094 -0.016543446 -0.04271425
0.048502408 0.041466475 -0.13992399 0.089144096 -0.07620406 -0.38883287 0.14099565 0.10796925
0.009902045 0.026520265 0.32518873 -0.13345854 -0.046469405 -0.15239231 -0.004138415 -0.0016995195
0.051943075 0.007490755 -0.09326529 0.013264796 -0.022736806 -0.43259695 -0.0410931 0.12199345
0.10929543 2.1518988e-05 0.00846835 0.16333038 0.06973256 0.037958216 0.04361716 -0.1167229

predict.predict.1.weight f4 [128, 256]
00000000: a9ee 44bc 611a 2e3d 2210 1b3d 9023 fb3c
00000010: d902 6d3d cd9d 123b c207 adbc 1fdc 9a3b
00000020: 2a84 d33a a01a 96bd 9d36 a23d f066 e53c
00000030: cddd 283d 8ebd 723b 8214 d0ba 8fc5 d03d
00000040: 3377 3b3c 115b 8e3b 1093 96bd 7c56 69bb
00000050: e8e2 19bd 58b2 963c 2987 153c 35ba a23a
00000060: d19a 56bd e3c3 b83c 7256 a63d ef15 c33c
00000070: b549 3bbd d89e 943b ff78 03bd ab7b 8f3b
00000080: fc00 efbb 42ab 9a3c a942 e53c 48a0 6dba
00000090: 4399 833c 8e76 f3bb 1dfb 583b f3e2 94bb
000000a0: 4814 2b3c 238c 483a 3612 b4bc 836a 423d
000000b0: b0e7 fabb b553 a9bb 0ed2 273d 90fe 24bd
000000c0: 6dc9 83bc 520c fa3c fc31 3cbc e728 f23b
000000d0: ede3 4a3c 8d7e 36bd feb0 b53c ba71 273d
000000e0: 2a5b 813d 8d98 b1bb a8ba 88bb 6f99 2d3b
000000f0: 45e0 0b3d 994d 5abd 57ef 6ebb db63 38bb
00000100: 285f 5abc 2de1 a43b efe3 52bd 0f31 383c
00000110: bb40 f1bc bdf0 2dba 6238 93bc 62d6 043d
00000120: f81b 863d 5829 f5bb a5a0 583c b223 593d
00000130: b051 efb9 9a42 32bd 8881 1d3c e4d2 8d3d
00000140: 85ef a0bc e657 85bd 1c91 ecba bb5c b03d
00000150: f7aa c0bb e7c3 f0bc 7b6c a53b 2e31 293d
00000160: e17a 0d3c bbb3 df3c 3d1b 973b ba8b a33d
00000170: 031d b83a 2d43 80bc 1e06 24bb d6eb 61ba
00000180: a678 8f3b 79bd f73b aaa7 d43c 8cd7 79bd
00000190: 8d71 fe3c 3a88 17bc 5871 1cbc 1eed d8bc
000001a0: ed46 bcbc 7742 b63b a80c a7bc d798 0a3d
000001b0: 21ea 0a3d 981c 4b3d d784 e73c c24e 5dba
000001c0: dfb5 21bd d8ac 8b3b 36c6 843c 39d9 afbb
000001d0: 2994 603d e63b 413d 9638 89bc d657 3bbc
000001e0: 3ece 7a3b a53f 9b3c 3890 543d 2f33 0e3c
000001f0: c649 15bd 810e 8a3c fffa 39ba fc3f 203d
00000200: 58ba 6e3a 6f7e b9b9 1bc0 ef38 2bf2 a0b9
00000210: d52e 93b9 eeaa 0e39 77e6 11ba d16a 6a39
00000220: 2a2b 1539 2cfb 4339 a81d b13a 4819 50b7
00000230: bfc2 aa38 fc05 f738 3791 d139 a43f f239
00000240: 5d69 c53a 055a 293a 1fe4 b4b9 770b e6b9
00000250: 18fe 563a 91f6 223a eaaa 63b9 b679 9cb8
00000260: b7a7 823a a492 02ba 8c89 ce38 ad5d 8839
00000270: 4b36 3dbb 44a2 df39 f9db 0eb9 6648 ba39
00000280: aef8 96b9 e3ac 3d3b f7e3 39bb e2f5 4639
00000290: b011 87b8 e2c5 bc39 7612 7eb9 0f68 8ab9
000002a0: a870 783a 4c58 02ba c72a edb6 3970 83b9
000002b0: ae94 9b3a 0112 eaba 1302 4a3a b160 e73a
000002c0: 033a 7bb9 5850 86ba b2de d2b8 6e89 293a
000002d0: 6498 1eb9 d8eb acb9 a8e4 f1b9 c98d 02b9
000002e0: bba2 2dba d8c2 dcba e461 a63a 0f6f b2b8
000002f0: 754d a439 635d de39 6756 45ba 48d2 28b9
00000300: af57 8939 5ad4 da37 f48f 86ba 8dd5 e6b7
00000310: b6a9 0439 4019 55b8 619b beba f93b 373a
00000320: 5e4d 8c3a fbdc 61b8 a093 263a a256 883a
00000330: 420b a53a bf55 9c3a 8db8 1438 6ab3 f239
00000340: 352c 2239 6698 83b9 7d86 c636 1271 123a
00000350: 0cdd adb9 1b65 9cb9 a6ee c939 133a 5dba
00000360: f805 9b3a 2c56 6f39 5297 9eb8 da17 583a
00000370: 37a3 693a cd58 7bb9 8da6 5238 7593 47b9
00000380: f0fe b43b cca4 dfb9 54a8 8539 b5a9 8f39
00000390: be30 14ba 1c81 f1ba f55d 68ba 6248 06b7
000003a0: b9d5 a5b9 35fe 3937 8f87 3cba 23ee 283a
000003b0: 96a6 103b 48c4 473a fb95 91b9 604f 0a3a
000003c0: 408e 6ab8 3f80 1eb8 2b3e 2639 44f9 cdb8
000003d0: 3065 d038 6a1e 773a 8925 09ba b5f1 b9ba
000003e0: c5f0 62ba ec67 6a39 670c 1cba 9fa6 8db9
000003f0: 2b7b 3bba 867a da39 8aca cdb9 aec2 e0b9
-0.012019792 0.042505626 0.037857182 0.030656606 0.057864044 0.0022371889 -0.021121863 0.0047259475
0.001613741 -0.07329297 0.07920573 0.028003186 0.04122715 0.0037039253 -0.0015875252 0.10193931
0.0114419935 0.004344352 -0.07352269 -0.0035604527 -0.03756991 0.018395588 0.009126463 0.0012415113
-0.05239374 0.022554344 0.08121957 0.02381417 -0.04572459 0.004535537 -0.032097813 0.004378756
-0.0072938185 0.01888049 0.027985888 -0.0009064716 0.016064292 -0.0074299043 0.003310866 -0.004543656
0.010441847 0.00076502765 -0.02198134 0.04746486 -0.007657014 -0.0051674494 0.040971808 -0.040281832
-0.016087258 0.030523453 -0.011486527 0.00739013 0.012383443 -0.044554282 0.022179123 0.040879942
0.06316216 -0.005419797 -0.004172642 0.0026489159 0.034149427 -0.05329666 -0.0036458576 -0.002813569
-0.013328351 0.005031726 -0.051486906 0.011242165 -0.029449811 -0.0006635299 -0.017971221 0.032431014
0.06548303 -0.007481735 0.013221894 0.053012557 -0.00045646494 -0.043520547 0.009613402 0.0692499
-0.019645462 -0.06510906 -0.0018048617 0.08611437 -0.0058797556 -0.029390289 0.0050483323 0.041306667
0.008635254 0.027307382 0.0046114014 0.07985635 0.0014046732 -0.015657032 -0.002502806 -0.0008618211
0.004378396 0.0075604287 0.025958855 -0.060996577 0.031060005 -0.009248788 -0.009548508 -0.026480254
-0.022983039 0.0055621224 -0.020391777 0.033837166 0.03391469 0.049587816 0.028261585 -0.0008442217
-0.039480086 0.004262548 0.016207796 -0.005366471 0.054828797 0.047176264 -0.016750615 -0.011434516
0.0038269903 0.018951247 0.05189535 0.008679195 -0.03644731 0.01685262 -0.0007094591 0.03912352
0.0009106747 -0.0003538015 0.000114321905 -0.00030698007 -0.00028072917 0.00013605852 -0.0005565653 0.00022355771
0.00014225827 0.00018690218 0.0013512867 -1.2403652e-05 8.142506e-05 0.000117789925 0.0003997178 0.00046205253
0.0015061308 0.00064602523 -0.0003450224 -0.0004387756 0.0008201315 0.0006216551 -0.00021712077 -7.46133e-05
0.0009968196 -0.00049809576 9.8484656e-05 0.00026009735 -0.0028871472 0.00042654772 -0.00013624121 0.00035530626
-0.0002879551 0.002894216 -0.0028364637 0.0001897435 -6.440596e-05 0.00036005588 -0.00024230205 -0.0002639894
0.00094772363 -0.00049722637 -7.0681303e-06 -0.0002506988 0.0011869872 -0.0017858149 0.00077059976 0.0017652718
-0.00023958836 -0.0010247333 -0.000100550606 0.0006467317 -0.00015124824 -0.00032982114 -0.00046137464 -0.00012450585
-0.0006623675 -0.0016842736 0.0012693969 -8.508388e-05 0.00031338228 0.00042412718 -0.00075278286 -0.00016100064
0.00026196006 2.6086509e-05 -0.001026629 -2.7517579e-05 0.00012651723 -5.0806673e-05 -0.0014542156 0.00069898326
0.001070421 -5.3849984e-05 0.00063543953 0.0010401795 0.0012591856 0.001192741 3.5457826e-05 0.0004629151
0.00015465992 -0.00025099813 5.9165163e-06 0.0005586307 -0.00033161824 -0.00029829968 0.00038515514 -0.00084391347
0.001182734 0.00022824918 -7.562213e-05 0.00082433 0.00089125655 -0.00023970306 5.0223014e-05 -0.00019033051
0.005523555 -0.00042656658 0.0002549315 0.00027401527 -0.0005653015 -0.0018425318 -0.00088640983 -8.003875e-06
-0.00031630488 1.10860465e-05 -0.00071918307 0.00064441765 0.002207195 0.0007620496 -0.000277683 0.000527611
-5.5922428e-05 -3.7789574e-05 0.00015854153 -9.821591e-05 9.9370605e-05 0.00094268343 -0.00052317284 -0.0014186414
-0.0008657093 0.00022354693 -0.0005952776 -0.00027017758 -0.00071518373 0.00041671487 -0.0003925155 -0.00042869657

predict.predict.1.bias f4 [128]
00000000: 224d 1c38 1dd5 3bae 75e4 153b d3ca afb8
00000010: aea3 fd39 647c 1ab8 f028 17b7 f686 ea39
00000020: e872 8ebb d15c 89b1 f7e5 09bc cf33 fdbc
00000030: 6f98 9438 7c71 4dbd 0922 5dba cc73 9230
00000040: 4f79 7e38 7fe6 1aba 45d9 2fae c6e0 24b8
00000050: ef5b 0e36 75f3 83b5 4835 c5bd 468c 823d
00000060: c277 9a3b df48 29ba 30c8 5bb6 4e8b 7138
00000070: 18f2 0bb8 739b 49b0 a0e2 3dbd 9920 a5b2
00000080: 1634 962c abc4 b9bb 5ade 673a f043 043b
00000090: 2f0b 1632 a56f 213c 97f6 84b9 31c4 93b6
000000a0: 0665 7537 6196 5c3a 4df5 e8b7 7e85 262d
000000b0: 5377 97b2 26e4 14b4 ba5b 0a3c 00aa 86bb
000000c0: cc04 313a 071c 0738 79df 8b33 d5c7 9039
000000d0: f012 6abb 2892 e8bd fd18 e838 a511 1536
000000e0: 59b5 4abd 3fef 35b5 ccbb 27af 93bc e4b9
000000f0: 729c b1b8 07db 5e3b ba60 5bbb 5f12 3bb7
00000100: 49da bbb8 8cce 8fb9 5eac 21bd c6e7 7d38
00000110: e1f1 0f3d 207b 87b3 f031 98b7 e17a 2d3a
00000120: d0aa d83a c7e2 feb8 6c7b 0cbc 4313 1eb4
00000130: 0cf5 bd3a a3f2 ffbb 9140 e13a 2714 2239
00000140: 7d8f cdb9 9d91 1f39 472f d8b7 e75d 3fb9
00000150: 306c 8bab 6205 9537 a567 dcba 7fa4 9b2e
00000160: babf f3bc 2e22 c23c 8eca a73c 95a7 b5bb
00000170: 312c 6eb9 5fd4 8337 d458 0533 29b6 80b9
00000180: d1c5 29ba f852 f5b7 080c 7bb9 6f7f 9234
00000190: 2d04 88bb 8835 dabc 5fa5 4836 e1b2 1fb7
000001a0: 537d a634 874c 4f2d c3cd aab5 ab48 9b39
000001b0: 34f8 0fb3 cdfa f1af 3dd5 e0b3 4c44 5dba
000001c0: 61b6 a93c 0f48 7b2c c62c 873b fde4 f636
000001d0: c002 11b3 f0a6 6138 6f64 b93b 75be a936
000001e0: b95a d5b6 b341 5cb9 a9b5 b3bc 7d63 aab7
000001f0: 7f5d 0b38 6dee fa3a 6998 823d d8a9 d7b8
3.7265134e-05 -4.270816e-11 0.0022871767 -8.382429e-05 0.0004837787 -3.683231e-05 -9.009833e-06 0.00044732512
-0.004347194 -3.9977768e-09 -0.008416644 -0.030908493 7.085583e-05 -0.050157055 -0.00084355526 1.065581e-09
6.0671297e-05 -0.00059089804 -3.9983367e-11 -3.9309984e-05 2.1213161e-06 -9.831116e-07 -0.09629303 0.06374411
0.0047139833 -0.0006457697 -3.2750067e-06 5.7588615e-05 -3.336565e-05 -7.334428e-10 -0.046358705 -1.9223352e-08
4.269039e-12 -0.0056691966 0.00088450836 0.0020182095 8.733692e-09 0.009853278 -0.00025360726 -4.403781e-06
1.4626659e-05 0.0008414742 -2.7770782e-05 9.465649e-12 -1.7632976e-08 -1.3866574e-07 0.008444721 -0.004109621
0.0006752729 3.221261e-05 6.513341e-08 0.00027614707 -0.0035716854 -0.11356002 0.000110672765 2.2213e-06
-0.049489353 -6.7775903e-07 -1.525528e-10 -0.00043628048 -8.469158e-05 0.0034005062 -0.0033474402 -1.1150346e-05
-8.957514e-05 -0.00027428975 -0.039471023 6.0535756e-05 0.035142783 -6.308824e-08 -1.8143066e-05 0.00066177367
0.0016530398 -0.000121539044 -0.008574348 -1.4721904e-07 0.0014492585 -0.007810907 0.001718538 0.00015457031
-0.00039207554 0.00015217667 -2.5771222e-05 -0.00018250161 -9.906572e-13 1.776469e-05 -0.0016815556 7.077804e-11
-0.029754508 0.023697939 0.020482328 -0.005543659 -0.00022713911 1.571531e-05 3.1047264e-08 -0.00024549782
-0.00064763153 -2.9244911e-05 -0.00023941707 2.728734e-07 -0.0041508884 -0.026636854 2.989858e-06 -9.518787e-06
3.1011095e-07 1.178358e-11 -1.2725872e-06 0.00029618046 -3.352052e-08 -4.401585e-10 -1.0469601e-07 -0.0008440658
0.020716848 3.5709246e-12 0.0041252105 7.358029e-06 -3.3762944e-08 5.3799653e-05 0.0056577246 5.0587646e-06
-6.358456e-06 -0.0002100531 -0.021937208 -2.0311907e-05 3.3227258e-05 0.0019144543 0.06376726 -0.00010283635

predict.predict.3.weight f4 [128]
00000000: 25ab 4d3d 57f7 c530 18ac 16bd e97d 0c39
00000010: abf0 82bd 4a5b 653a 7be9 1fb7 b29b f73b
00000020: 5c52 2e3e 212b 5ab3 f1cb 37be 35d6 a33e
00000030: 1424 0bbc e404 383e 3b23 113c 8d03 1fb3
00000040: c9c6 7fbb 96ba 133e 6461 21b3 335f 8d39
00000050: 072d 2935 4780 81b7 918a 1e3d 4470 9d3e
00000060: 3d50 02bb 1c59 423d 868f 7339 6943 e9b9
00000070: e0f0 833a 4fc7 d6b1 7237 b53d 6bf4 25b4
00000080: 23d1 ea30 53a3 3f3e ab8f a8ba 51dc 203d
00000090: e54c 77b6 a407 cdbc 0842 793c 7b89 a2b8
000000a0: 0068 1339 24e9 683d c1f8 1aba 4e57 612f
000000b0: 2e20 70b6 a765 2fb6 0be7 023d 0e08 5a3b
000000c0: 3a66 143c d5b3 9fba 4039 6536 dbe1 1cbc
000000d0: 679a c93e fad5 b53d 8993 72ba c3c6 80b8
000000e0: c084 bc3d 5200 de39 acb2 0cb2 0413 da3a
000000f0: 183d 723d 21db 68bd 3792 c7bb 5b5c 0f39
00000100: 15cd 83ba 4cc5 a1bb 0a2e ce3d 0eff 303a
00000110: 4e7b 17bd fd75 10b7 c65a a038 24fa a0bb
00000120: dd66 31bb 6875 673b 156a 4f3d a110 03b8
00000130: 8ea4 1fbb 859e 93bd 7f3d 51bd 4069 0d3c
00000140: e739 953e 9633 5d3b 7ffa bdb9 6254 88ba
00000150: 28cd dd2b 4aa1 3b39 64d1 3a3c dd95 1731
00000160: 4b20 d5be 0267 36bc c180 9e3c ed67 723b
00000170: 52c2 c9bb 68ca dfb8 2ff9 b5b4 6966 393e
00000180: 96f5 903c fc91 69bb 541c 1fb8 fa2e 8637
00000190: 26e4 94bc 91e3 b9bc 84b4 be38 db3d cc38
000001a0: 0584 0c38 8c05 e42e 24f1 0137 e0d8 f03b
000001b0: da4b c135 fb1b 1e31 fe36 7f39 1356 02bc
000001c0: 0376 b63d 5b04 d32e cb6c a0bc 7944 5438
000001d0: 2d0f 2db5 9e7e ceb9 98fd ca3c 0a6c bd3c
000001e0: c755 a1b8 f4a0 74bc 688b 6c3c d271 c43a
000001f0: 3615 f7b9 b5e5 b0bc c044 02bd dcad 8abc
0.050212044 1.4403935e-09 -0.036785215 0.00013398346 -0.0639356 0.000874926 -9.5315e-06 0.007556402
0.17023605 -5.0796306e-08 -0.17948891 0.31999364 -0.008492488 0.17970616 0.008858497 -3.70233e-08
-0.0039028397 0.14426646 -3.757431e-08 0.00026964545 6.302293e-07 -1.5437732e-05 0.038706366 0.30749714
-0.0019884252 0.047448263 0.00023227753 -0.00044491448 0.0010066293 -6.2508785e-09 0.08848466 -1.5455741e-07
1.7085181e-09 0.18714647 -0.0012860199 0.03927261 -3.6850627e-06 -0.025028057 0.015213497 -7.75037e-05
0.00014057755 0.056862965 -0.0005911701 2.0494648e-10 -3.5781518e-06 -2.6136202e-06 0.03195862 0.003326896
0.009057576 -0.0012184331 3.4156983e-06 -0.0095753325 0.39375612 0.088787034 -0.0009253552 -6.140538e-05
0.092050076 0.00042343378 -8.189698e-09 0.0016637747 0.059140295 -0.056849603 -0.006090428 0.00013671948
-0.0010055626 -0.0049368497 0.10067375 0.00067518733 -0.036982827 -8.61054e-06 7.6463024e-05 -0.0049126316
-0.0027069368 0.0035317782 0.050638277 -3.124832e-05 -0.0024359557 -0.072079696 -0.051084038 0.008631051
0.29145738 0.0033752671 -0.00036235523 -0.0010401125 1.5759937e-12 0.00017893795 0.011402462 2.205858e-09
-0.416262 -0.011132957 0.019348504 0.0036988214 -0.006157198 -0.0001067117 -3.3895182e-07 0.18105473
0.01769523 -0.0035639992 -3.7934937e-05 1.599592e-05 -0.018175196 -0.02269152 9.09353e-05 9.7389995e-05
3.3501554e-05 1.0369225e-10 7.745144e-06 0.0073500723 1.4401696e-06 2.3007931e-09 0.00024339181 -0.007955092
0.08909228 9.595943e-11 -0.019583127 5.060851e-05 -6.4469606e-07 -0.0003938572 0.024779126 0.023122806
-7.6930555e-05 -0.014930952 0.014437534 0.0014987534 -0.00047127315 -0.021593908 -0.031803846 -0.016928606
