Results/AFP/44/model.pth (torch, 78869 bytes, 47 tensors)

gnn.init_context.project_node.0.weight f4 [16, 74]
0	0xb22e33fd	-1.0139954e-08
1	0x3236453d	1.0609537e-08
2	0x328d7f56	1.6472466e-08
3	0x30117092	5.2910665e-10
4	0xb1d5e94e	-6.2256396e-09
5	0x3121c5cc	2.3541018e-09
6	0xb01f7ed4	-5.8024097e-10
7	0xb05a75b3	-7.94752e-10
8	0x2f8cc1df	2.5603605e-10
9	0x13a8fd51	4.265895e-27
10	0x93998703	-3.875576e-27
11	0x13ad7d4b	4.379489e-27
12	0x93a61637	-4.1926197e-27
13	0x93a3dd04	-4.1364923e-27
14	0x93a83ebc	-4.2471023e-27
15	0xb01fbd66	-5.8113014e-10
16	0x920d8418	-4.4654573e-28
17	0x937b6c37	-3.1734008e-27
18	0x93ae6d64	-4.4031643e-27
19	0x93dc9a8e	-5.568821e-27
20	0x12d7330d	1.3580993e-27
21	0x93b57957	-4.5810474e-27
22	0x938f27c4	-3.6137487e-27
23	0x93e65a6f	-5.8149337e-27
24	0x93b5f58a	-4.5932944e-27
25	0x1324cfe8	2.0802216e-27
26	0x9388e829	-3.4560154e-27
27	0x138ea845	3.6011766e-27
28	0x93ae34a3	-4.397568e-27
29	0x2f048b6d	1.2054864e-10
30	0x9217095f	-4.765875e-28
31	0x93445b4d	-2.4783693e-27
32	0x13c04930	4.8539782e-27
33	0x123f829f	6.0429976e-28
34	0x926b3aff	-7.4225643e-28
35	0x1327258c	2.1096875e-27
36	0x13cab11d	5.1166616e-27
37	0x130dbcf1	1.7889857e-27
38	0x126a7f98	7.399465e-28
39	0x13754b8a	3.0960591e-27
40	0x932d9bf9	-2.191257e-27
41	0x93d959e7	-5.486715e-27
42	0x92e14633	-1.4216802e-27
43	0x13cea20b	5.2161498e-27
44	0x332c1524	4.0066098e-08
45	0x332bc206	3.9990503e-08
46	0x33283383	3.9162398e-08
47	0xafa24fca	-2.9524322e-10
48	0x12800e0f	8.081401e-28
49	0x30b20357	1.2952154e-09
50	0x9213ae46	-4.659983e-28
51	0x93d6df96	-5.4241668e-27
52	0x93ce2efd	-5.2048045e-27
53	0x9303cc3a	-1.6635216e-27
54	0x3355f927	4.981953e-08
55	0x32ce2555	2.3998533e-08
56	0x329d154e	1.8286894e-08
57	0xb1c2890e	-5.6617244e-09
58	0x13153eda	1.8837432e-27
59	0x13d727ad	5.4312754e-27
60	0x1352ea58	2.6621267e-27
61	0x307b8e15	9.151518e-10
62	0x92b61b69	-1.1492572e-27
63	0x2f5368bd	1.9227549e-10
64	0x33520cb8	4.8906003e-08
65	0x338b3519	6.48235e-08
66	0x1328ad38	2.1289985e-27
67	0x30b6f857	1.3312825e-09
68	0x32dc9472	2.5678876e-08
69	0x3332f69b	4.166814e-08
70	0x33005c73	2.9886404e-08
71	0x329e97ef	1.8462712e-08
72	0xb1c37ce0	-5.6894436e-09
73	0x13d782df	5.440268e-27
74	0xb0e22d4c	-1.6456538e-09
75	0x2d6072c5	1.275841e-11
76	0x2e649ab4	5.1978602e-11
77	0xac42dfbc	-2.7693256e-12
78	0xae10e117	-3.294173e-11
79	0x2a83cf7a	2.341424e-13
80	0x2b0025c4	4.5527145e-13
81	0x2c23ff45	2.3305396e-12
82	0xacd9d63b	-6.1912953e-12
83	0x93583d96	-2.7293397e-27
84	0x93ae9d49	-4.407887e-27
85	0x13782eff	3.1325172e-27
86	0x932d301c	-2.185939e-27
87	0x93c45d67	-4.9569458e-27
88	0x93d30c8a	-5.3276253e-27
89	0xac6b0f00	-3.3403835e-12
90	0x13d581b9	5.3896676e-27
91	0x9383cc6e	-3.3270632e-27
92	0x93dde2bc	-5.601182e-27
93	0x139a625d	3.897206e-27
94	0x139304a8	3.711261e-27
95	0x93a5da67	-4.1867217e-27
96	0x93480cfe	-2.5249955e-27
97	0x13cda2e4	5.1909898e-27
98	0x92e40912	-1.4391059e-27
99	0x92d56f78	-1.3469669e-27
100	0x93cd1601	-5.1770973e-27
101	0x134c20a1	2.5764507e-27
102	0x922149eb	-5.0893753e-28
103	0xaa8cbc37	-2.4999596e-13
104	0x13d4a25f	5.3676434e-27
105	0x91b95eb6	-2.9246224e-28
106	0x93d9502c	-5.4857557e-27
107	0x1368c5ab	2.9379975e-27
108	0x1288b7ef	8.62815e-28
109	0x136cb7f8	2.9878091e-27
110	0x92a40b1e	-1.0352596e-27
111	0x13453b33	2.4894083e-27
112	0x92e807d0	-1.4643184e-27
113	0x936a8b05	-2.9603494e-27
114	0x13c6eb26	5.02141e-27
115	0x137c3139	3.183114e-27
116	0x926379a6	-7.1778513e-28
117	0x93be51c3	-4.8043366e-27
118	0xad0e4f6e	-8.089402e-12
119	0x2e33db86	4.0894864e-11
120	0x2d7f6dad	1.4519425e-11
121	0xad76ae7a	-1.4022223e-11
122	0x92f5438a	-1.5478323e-27
123	0xabac6e41	-1.2251937e-12
124	0x1342e7cd	2.460053e-27
125	0x13877d5f	3.4202417e-27
126	0x93bea047	-4.812079e-27
127	0x13e4c944	5.7753755e-27
128	0x2e065318	3.0541875e-11
129	0x2e06083a	3.047538e-11
130	0xadebaaf7	-2.679233e-11
131	0xae3d9ecb	-4.311466e-11
132	0x13b45e8d	4.5531622e-27
133	0x931011a5	-1.8184055e-27
134	0x128ce21c	8.890982e-28
135	0x2c83634a	3.7342672e-12
136	0x13561f96	2.702617e-27
137	0xac59d721	-3.0956975e-12
138	0xb354682a	-4.9454833e-08
139	0x2e08531f	3.0996646e-11
140	0x925d3a93	-6.98075e-28
141	0xab983c48	-1.0816981e-12
142	0xaf8ac0b4	-2.5238978e-10
143	0x2e457538	4.4896725e-11
144	0x2dce0090	2.3419738e-11
145	0xae10acda	-3.2895332e-11
146	0xae384d19	-4.1905233e-11
147	0x8eec449b	-5.8244556e-30
148	0x3e3f87a5	0.18704088
149	0x3dbdd1c0	0.09268522
150	0x3d8148fe	0.0631275
151	0x3e45d063	0.19317774
152	0x3e80dba3	0.2516757
153	0xbbb42f1a	-0.005498779
154	0x3ca6d00c	0.020362876
155	0x3e270da5	0.16313799
156	0x3a8f0032	0.0010910092
157	0x13b94351	4.6766945e-27
158	0x13684710	2.9317553e-27
159	0x937e2d24	-3.2081563e-27
160	0x93a3c36a	-4.1339678e-27
161	0x13566474	2.7060125e-27
162	0x13b6b098	4.6117394e-27
163	0x3c0e38ed	0.008680564
164	0x91fe3db6	-4.0112166e-28
165	0x92e3384c	-1.4339592e-27
166	0x934df152	-2.5993618e-27
167	0x93b52699	-4.5728884e-27
168	0x933555ec	-2.2887775e-27
169	0x12dff2ec	1.4133163e-27
170	0x93de716c	-5.615252e-27
171	0x9397c24d	-3.8309354e-27
172	0x93be750e	-4.8078168e-27
173	0x13dc1e83	5.5565895e-27
174	0x93871e16	-3.410846e-27
175	0x13be211c	4.799539e-27
176	0x138ffa7a	3.6345264e-27
177	0x3bb7c235	0.005607868
178	0x13c44f11	4.955532e-27
179	0x93c9ef41	-5.0975456e-27
180	0x939bca5c	-3.9327043e-27
181	0x129b3077	9.793823e-28
182	0x93ba7b65	-4.7074677e-27
183	0x139f2b04	4.017966e-27
184	0x1227ae86	5.2911025e-28
185	0x13cb41ae	5.130917e-27
186	0x1338bbe7	2.3316708e-27
187	0x12bb72a7	1.1829623e-27
188	0x13d71075	5.428986e-27
189	0x93dea86d	-5.620676e-27
190	0x1395ddb1	3.7831493e-27
191	0x8fb2f455	-1.7646268e-29
192	0x3e41eb03	0.18937306
193	0x3e5add54	0.21373492
194	0x3de38898	0.111100376
195	0x3e54429d	0.20728536
196	0x13e7ab05	5.8481236e-27
197	0x3dd36404	0.10321811
198	0x93dd3220	-5.583767e-27
199	0x139abb88	3.9059985e-27
200	0x93bc4d5b	-4.753415e-27
201	0x126e7fcb	7.5257075e-28
202	0x3e0875b3	0.13326149
203	0x3e52489b	0.2053551
204	0x3dbed291	0.09317506
205	0x3e8afbf6	0.27145356
206	0x92abab9a	-1.083392e-27
207	0x939c7902	-3.949926e-27
208	0x1294b024	9.383535e-28
209	0x3d1ee1c8	0.03878954
210	0x93a54b28	-4.1725966e-27
211	0xbcbbcdea	-0.022925336
212	0x3e0ed36e	0.13947842
213	0x3e8bc947	0.27302
214	0x93b21052	-4.494961e-27
215	0x3dd386d8	0.10328454
216	0x3e209c2e	0.15684578
217	0x3e0441be	0.12915704
218	0x3e588809	0.21145643
219	0x3dba790f	0.09105121
220	0x3e8835a1	0.26603416
221	0x93a59fce	-4.1809435e-27
222	0x379b2300	1.8493738e-05
223	0x3528e6f9	6.2920986e-07
224	0xb36d9e0e	-5.5324612e-08
225	0xb1f303a5	-7.072645e-09
226	0xb3fc71d1	-1.17553675e-07
227	0x2fcc658c	3.7179537e-10
228	0x335e29d2	5.172644e-08
229	0xaf3124bd	-1.6111108e-10
230	0xafe29364	-4.1213888e-10
231	0x93b466a4	-4.55396e-27
232	0x9391fd74	-3.685307e-27
233	0x934906af	-2.5373062e-27
234	0x1380780c	3.2430118e-27
235	0x92911172	-9.155087e-28
236	0x93f0584c	-6.0671585e-27
237	0x30239103	5.950513e-10
238	0x93a5fe1b	-4.1902423e-27
239	0x13cbd7fa	5.1457374e-27
240	0x12fac541	1.5825845e-27
241	0x137efa70	3.2182782e-27
242	0x12bfb052	1.2097261e-27
243	0x12354dfb	5.720965e-28
244	0x137e935b	3.213196e-27
245	0x93834d1e	-3.3145093e-27
246	0x13af7dc5	4.430023e-27
247	0x13d43a87	5.3574036e-27
248	0x1301e08e	1.6392803e-27
249	0x13713a43	3.0447202e-27
250	0x93bf93af	-4.8360806e-27
251	0xafc29cd2	-3.5399822e-10
252	0x134e8b3d	2.6069505e-27
253	0x11a86950	2.657063e-28
254	0x13d3fad4	5.3511224e-27
255	0x135f1e83	2.81616e-27

gnn.init_context.project_node.0.bias f4 [16]
0	0xb8186a42	-3.6338584e-05
1	0xb515d2ce	-5.5813587e-07
2	0x3e2d6059	0.16931285
3	0xb99e7534	-0.00030223432
4	0xbee2d05a	-0.44299585
5	0xb247801d	-1.1612454e-08
6	0xbaf5b0e2	-0.0018744732
7	0x3dd24cde	0.102685675
8	0xbff9b314	-1.9507775
9	0xbf33eef1	-0.7028647
10	0xb83d17c4	-4.5083245e-05
11	0xbc1167f9	-0.008874887
12	0xbd27181c	-0.040794477
13	0xbf772ae8	-0.96549845
14	0xbc34292a	-0.010996142
15	0xbe63b393	-0.22236471

gnn.init_context.project_edge1.0.weight f4 [16, 87]
0	0xa38be776	-1.5168438e-17
1	0x233a0e07	1.0086051e-17
2	0x2480d4a3	5.587137e-17
3	0x245ad8ae	4.745475e-17
4	0x2366d216	1.2512812e-17
5	0xa2e23f2e	-6.1324317e-18
6	0xa4dffb27	-9.71363e-17
7	0x2287cf87	3.681155e-18
8	0xa1a07cb9	-1.0875036e-18
9	0x93b6a70b	-4.6107976e-27
10	0x93dff722	-5.6536806e-27
11	0x93dc665c	-5.563674e-27
12	0x93bab6bb	-4.7133187e-27
13	0x93c54d77	-4.9806178e-27
14	0x13db6d35	5.539106e-27
15	0xa2036519	-1.7807331e-18
16	0x13c870e9	5.0598436e-27
17	0x93c2762d	-4.9089015e-27
18	0x1186f35a	2.129145e-28
19	0x130635b1	1.693965e-27
20	0x93bd9be7	-4.786404e-27
21	0x12cc8b5a	1.2908563e-27
22	0x13cbc713	5.1440707e-27
23	0x93d69e45	-5.417726e-27
24	0x91c99afe	-3.180773e-28
25	0x12c1d366	1.2232126e-27
26	0x13b4d292	4.5646026e-27
27	0x91e1357d	-3.5531705e-28
28	0x93c43a76	-4.9535003e-27
29	0x2116a1e8	5.103626e-19
30	0x13450f64	2.4872484e-27
31	0x13dc4184	5.560041e-27
32	0x1333cfbd	2.26954e-27
33	0x13b52f2c	4.573734e-27
34	0x13db81af	5.541125e-27
35	0x93df5daf	-5.6385493e-27
36	0x13c25efc	4.9066147e-27
37	0x13743ee8	3.0828145e-27
38	0x9381603e	-3.265908e-27
39	0x93a9d433	-4.2870842e-27
40	0x1309d1ae	1.7395211e-27
41	0x130e0cb5	1.7929185e-27
42	0x12b37b40	1.1326872e-27
43	0x93d14b1f	-5.2833092e-27
44	0xa4019485	-2.8098217e-17
45	0xa42d3fd5	-3.7567463e-17
46	0x23cb3bfb	2.2034707e-17
47	0xa40e0c4d	-3.080176e-17
48	0x937f3074	-3.2209414e-27
49	0x228ebd7a	3.8689793e-18
50	0x91f023c0	-3.7887356e-28
51	0x9381bedc	-3.275238e-27
52	0x13b64860	4.6014626e-27
53	0x93cf61bb	-5.2350516e-27
54	0xa4d3ad88	-9.180064e-17
55	0xa42304a1	-3.5348912e-17
56	0xa3f24ad8	-2.626939e-17
57	0xa413e6b3	-3.2070954e-17
58	0x13b47d3b	4.5561875e-27
59	0x930ddfb1	-1.790699e-27
60	0x92763ab0	-7.769625e-28
61	0x228c6a11	3.805938e-18
62	0x93d0f4e8	-5.2748078e-27
63	0x20323e7b	1.509786e-19
64	0xa53159b5	-1.5382697e-16
65	0x24c2bd40	8.445469e-17
66	0x1329cc48	2.1431517e-27
67	0xa20c1ba1	-1.8988165e-18
68	0x245ca00b	4.7840457e-17
69	0x24fe8872	1.1038609e-16
70	0x24e653e9	9.988875e-17
71	0xa3d42364	-2.3000075e-17
72	0xa416cc6e	-3.2699224e-17
73	0x12fb395b	1.5854466e-27
74	0xa40ab06a	-3.007341e-17
75	0xa2ce3a31	-5.5898024e-18
76	0xa405209e	-2.8867406e-17
77	0x213bd31d	6.363747e-19
78	0x22e8f049	6.3138138e-18
79	0x24bfcd87	8.318122e-17
80	0xa4cb4ad8	-8.8164007e-17
81	0x93c4b30d	-4.9653914e-27
82	0x2279364a	3.3774533e-18
83	0xa235bc23	-2.4629673e-18
84	0x134fcc93	2.6227936e-27
85	0x93377765	-2.3156713e-27
86	0xa33c3e9f	-1.0204761e-17
87	0xa4f6f17e	-1.070946e-16
88	0xa543b3ec	-1.6974514e-16
89	0xa5fa3a8e	-4.3407765e-16
90	0x24321b2e	3.862062e-17
91	0xa5867331	-2.332335e-16
92	0x23dbd8e9	2.3835893e-17
93	0xa24dbaa9	-2.7881498e-18
94	0x240f9d2d	3.1141315e-17
95	0x232ae5c9	9.264377e-18
96	0x93be197c	-4.7987873e-27
97	0x131a0955	1.9442134e-27
98	0x934a02dc	-2.5497394e-27
99	0x9283d0ee	-8.318767e-28
100	0x93d33501	-5.3316154e-27
101	0x13bcfef3	4.770927e-27
102	0x223c0130	2.547938e-18
103	0x13b9686c	4.6803534e-27
104	0x93a79b2c	-4.2309738e-27
105	0x93bb48c3	-4.7277185e-27
106	0x1375ab0f	3.1007686e-27
107	0x93b50910	-4.569976e-27
108	0x938e1de0	-3.58753e-27
109	0x1294e043	9.395398e-28
110	0x9364f3bf	-2.8897822e-27
111	0x13c13e1d	4.8781298e-27
112	0x13bd7068	4.782115e-27
113	0x9328806f	-2.1267904e-27
114	0x13717da7	3.0480428e-27
115	0x93c478cb	-4.9596467e-27
116	0xa21d1fcf	-2.1294307e-18
117	0x934f2c9d	-2.614907e-27
118	0x1379e165	3.1539347e-27
119	0x93a440e5	-4.146341e-27
120	0x93b93ed0	-4.6762503e-27
121	0x93226aa8	-2.049986e-27
122	0x926efde2	-7.5412493e-28
123	0x93d11bbc	-5.2786366e-27
124	0x9355013b	-2.6884986e-27
125	0x9298b27e	-9.63655e-28
126	0x91b525ac	-2.8579982e-28
127	0x939daedb	-3.9804793e-27
128	0x121a177d	4.8622783e-28
129	0x138b3135	3.5137055e-27
130	0x13c34069	4.9288434e-27
131	0x22ca9b4d	5.491664e-18
132	0xa67261e7	-8.40933e-16
133	0x25d522cf	3.6973197e-16
134	0x2600b75b	4.4657414e-16
135	0x13cba315	5.1405216e-27
136	0x24d346c0	9.162652e-17
137	0x93b15442	-4.4764166e-27
138	0x939c4607	-3.944899e-27
139	0x13cb0f3a	5.125942e-27
140	0x9366f8b3	-2.91527e-27
141	0xa62cde75	-5.9975973e-16
142	0x2521442a	1.3987619e-16
143	0x2598ed92	2.652878e-16
144	0xa5c46455	-3.4068568e-16
145	0x1361fea4	2.852454e-27
146	0x132926ae	2.134987e-27
147	0x1396364f	3.7918876e-27
148	0xa4462b24	-4.2970948e-17
149	0x12b05ec4	1.1130523e-27
150	0xa4b12386	-7.682169e-17
151	0xa48819ef	-5.902453e-17
152	0xa582226a	-2.2574725e-16
153	0x13bf6851	4.8318042e-27
154	0xa52c4cda	-1.494466e-16
155	0x2504c361	1.1515372e-16
156	0xa60702a8	-4.6841134e-16
157	0x242c6c28	3.7388167e-17
158	0x258f61b9	2.4872765e-16
159	0xa6007cbc	-4.457797e-16
160	0x93357083	-2.2900884e-27
161	0xa60c68bc	-4.87142e-16
162	0xa4a5a19b	-7.1831114e-17
163	0x24e45b2d	9.9033696e-17
164	0x24080ddb	2.9502035e-17
165	0xa47f3c00	-5.5345133e-17
166	0xa5fdd331	-4.4031613e-16
167	0x2596751f	2.6100216e-16
168	0x93e5a03b	-5.7965727e-27
169	0x220ec33e	1.9347949e-18
170	0x227228f9	3.2818806e-18
171	0x92deadc5	-1.4053007e-27
172	0x1339609b	2.3397913e-27
173	0x26466bb4	6.8841015e-16
174	0x2dbaf2a3	2.1253504e-11
175	0xad1301cc	-8.3563816e-12
176	0xac0cdeca	-2.001887e-12
177	0x2cef5b46	6.802922e-12
178	0x2ccb8297	5.7841054e-12
179	0x2b1a8555	5.4896826e-13
180	0x2cf4e685	6.96049e-12
181	0x2b9318a0	1.0451813e-12
182	0x2ac222fa	3.4485593e-13
183	0x12ba49b6	1.1756421e-27
184	0x13918858	3.673759e-27
185	0x93c2b85c	-4.9154277e-27
186	0x9399d4d3	-3.883249e-27
187	0x13dc2f4b	5.5582442e-27
188	0x1277dbb7	7.8210277e-28
189	0xac01f999	-1.8470557e-12
190	0x93e499c8	-5.770693e-27
191	0x1393f6d7	3.735142e-27
192	0x93cc283d	-5.1536518e-27
193	0x93bfcdc2	-4.841807e-27
194	0x939b8b80	-3.926506e-27
195	0x13a32fec	4.119424e-27
196	0x9348a9be	-2.5327238e-27
197	0x92b22f5a	-1.1245052e-27
198	0x93b1f7cf	-4.492544e-27
199	0x13b0043e	4.443283e-27
200	0x13b1020b	4.4683096e-27
201	0x91bb0e65	-2.951227e-28
202	0x93a54971	-4.1724275e-27
203	0xaa0b9fb7	-1.2401092e-13
204	0x13b742ca	4.6261554e-27
205	0x13ebd0b2	5.952813e-27
206	0x9241cc42	-6.115183e-28
207	0x13a9772e	4.2779118e-27
208	0x937536b0	-3.095031e-27
209	0x936b0755	-2.9664785e-27
210	0x132ceeda	2.1827215e-27
211	0x93597374	-2.7446173e-27
212	0x932a3973	-2.1485341e-27
213	0x92af7496	-1.1072793e-27
214	0x93f3e1a3	-6.156432e-27
215	0x93a0e845	-4.0618714e-27
216	0x13551d0c	2.68987e-27
217	0x132c4027	2.1741082e-27
218	0xac57f33b	-3.0688358e-12
219	0x2c1929e9	2.1765873e-12
220	0xacf511b1	-6.965283e-12
221	0x2cd5d55c	6.0775118e-12
222	0x939bbf6b	-3.9316254e-27
223	0x2baf67e5	1.2463334e-12
224	0x93c9c205	-5.093085e-27
225	0x92aa1ba6	-1.0735324e-27
226	0x13d346f3	5.333385e-27
227	0x12d2a76d	1.3294137e-27
228	0x2c97bc1a	4.3125616e-12
229	0x2bdb406d	1.5578768e-12
230	0xad2d4872	-9.8499976e-12
231	0xaaa4387b	-2.9171443e-13
232	0x12b2fcd1	1.1295703e-27
233	0x93888cca	-3.4470055e-27
234	0x921d4f80	-4.9638456e-28
235	0x2c86feaf	3.8367846e-12
236	0x931ccd0b	-1.9791062e-27
237	0xac44c478	-2.7962337e-12
238	0x2d87f0b7	1.5454622e-11
239	0xad5eaf27	-1.2658131e-11
240	0x93c5a3eb	-4.9891427e-27
241	0x2c174da9	2.15015e-12
242	0x2cf26a9b	6.8898893e-12
243	0x2c0c6c11	1.9955186e-12
244	0x2d6fa82d	1.362292e-11
245	0xad2f2b40	-9.957202e-12
246	0xab47f261	-7.103537e-13
247	0x92a81b1e	-1.0608975e-27
248	0x2d052cd4	7.5701286e-12
249	0x2b33c670	6.386896e-13
250	0x2c86ae6c	3.8278738e-12
251	0x2cbaadc5	5.3057302e-12
252	0x2d96d8d0	1.714931e-11
253	0x2d182273	8.647849e-12
254	0x2c951c11	4.2379507e-12
255	0x13dce89d	5.5765182e-27

gnn.init_context.project_edge1.0.bias f4 [16]
0	0xa383e2d0	-1.4299107e-17
1	0x25d15a38	3.6316855e-16
2	0x2dbc679a	2.1419134e-11
3	0xba5c9e5a	-0.000841593
4	0xa6244d8c	-5.7004026e-16
5	0x1e67263c	1.2236945e-20
6	0x28eb2fde	2.6111e-14
7	0x290afd46	3.0861835e-14
8	0x29ee56b9	1.0584367e-13
9	0x29ad70c4	7.702305e-14
10	0x2816b06c	8.364928e-15
11	0x296d540a	5.2697464e-14
12	0x265ce7dc	7.664206e-16
13	0xa98a8094	-6.150736e-14
14	0x2aad1f19	3.0752552e-13
15	0x29144963	3.2926254e-14

gnn.init_context.project_edge2.1.weight f4 [1, 32]
0	0xa7236314	-2.2674504e-15
1	0x2598eb53	2.652726e-16
2	0xb0897a43	-1.0002811e-09
3	0x292fe538	3.905662e-14
4	0x2f84dc69	2.416727e-10
5	0x21cf2992	1.4037869e-18
6	0xaa029508	-1.1598025e-13
7	0x32372f7e	1.06628e-08
8	0x305076e1	7.5838896e-10
9	0x2f5edc7f	2.0269118e-10
10	0xa7f2b621	-6.7365958e-15
11	0xab3d3d56	-6.723141e-13
12	0xaae4655f	-4.0571276e-13
13	0x2fe1cd66	4.1073206e-10
14	0x2cfbba53	7.154535e-12
15	0x2e847dce	6.0250124e-11
16	0x1c9b373e	1.0271319e-21
17	0xa157e79b	-7.315136e-19
18	0x23da1766	2.3645517e-17
19	0x2a8ed1cc	2.5369843e-13
20	0x9f635cec	-4.8145983e-20
21	0x1d4db4b7	2.7224951e-21
22	0x1ccebf96	1.368146e-21
23	0x233b1b5c	1.0143084e-17
24	0x23045fae	7.175995e-18
25	0x9c69435b	-7.718029e-22
26	0xa339f523	-1.008078e-17
27	0x21ca7b5c	1.3720705e-18
28	0xa1f1ecba	-1.6393456e-18
29	0x22cb9ec2	5.519135e-18
30	0xa5bad026	-3.2406904e-16
31	0xa3919225	-1.5782826e-17

gnn.init_context.attentive_gru.edge_transform.1.weight f4 [16, 16]
0	0xa031561e	-1.5020977e-19
1	0xa0aa7e92	-2.8882877e-19
2	0x28d8e814	2.4081465e-14
3	0x2c805018	3.646871e-12
4	0x20f6d5d4	4.181552e-19
5	0x9c493294	-6.657069e-22
6	0x2079ce64	2.1159409e-19
7	0x2593958f	2.560178e-16
8	0x25d62c48	3.7153089e-16
9	0x215f4357	7.564446e-19
10	0x22df58ba	6.0538214e-18
11	0x23e4dbc7	2.4812889e-17
12	0x233900b4	1.0029019e-17
13	0xa5a4cdd5	-2.8588942e-16
14	0x2830ae9c	9.807825e-15
15	0xa4a67195	-7.218344e-17
16	0xa3354ffe	-9.828969e-18
17	0x24ce5f8a	8.950011e-17
18	0xab6d0efb	-8.4220104e-13
19	0x2fc8d0a8	3.6528047e-10
20	0xa41b871c	-3.372471e-17
21	0x9c829f7b	-8.643903e-22
22	0xa2106be9	-1.9572766e-18
23	0x23b97a62	2.0109571e-17
24	0xa74c3995	-2.8341902e-15
25	0x239cdee3	1.700795e-17
26	0xa6378984	-6.367725e-16
27	0x276cbb7c	3.2853215e-15
28	0xa4fc27b3	-1.0935483e-16
29	0xa8281347	-9.3300535e-15
30	0xa8d125aa	-2.3219995e-14
31	0x270d3889	1.9598329e-15
32	0xa2a9c002	-4.601084e-18
33	0xa3c35ff7	-2.1182585e-17
34	0x2b461f2e	7.0387e-13
35	0x30cbfef2	1.4842654e-09
36	0x22f793fe	6.7106177e-18
37	0x1d481d69	2.6484984e-21
38	0x232ba65f	9.305159e-18
39	0xa5eb8a69	-4.0859792e-16
40	0xa815e07c	-8.319839e-15
41	0x22f3b5cd	6.605777e-18
42	0x258d6877	2.453039e-16
43	0xa7651096	-3.1789125e-15
44	0xa4163e95	-3.2579074e-17
45	0x28fea487	2.8271017e-14
46	0x27d6f0f3	5.965817e-15
47	0xa5d2c8cb	-3.6565256e-16
48	0x2259c99f	2.9515721e-18
49	0xa42d7119	-3.7609193e-17
50	0x2a77c43d	2.2006091e-13
51	0x2fa42fea	2.986547e-10
52	0xa29cb293	-4.2472958e-18
53	0x1c8c1369	9.26944e-22
54	0xa412a386	-3.1797213e-17
55	0x26b91a54	1.284409e-15
56	0xa785d2f1	-3.714362e-15
57	0xa428c078	-3.659222e-17
58	0xa64c93f4	-7.097723e-16
59	0x27ca4a65	5.614692e-15
60	0x23da9ffe	2.3703367e-17
61	0x27c5a030	5.485216e-15
62	0x270a1de0	1.9167542e-15
63	0x260c794d	4.873665e-16
64	0x24b35065	7.776507e-17
65	0xa64683a7	-6.887347e-16
66	0x2ebac4ac	8.493237e-11
67	0x3d29c417	0.04144677
68	0x25a35683	2.8334615e-16
69	0x9f5004d9	-4.4049723e-20
70	0xa86f1f34	-1.3273931e-14
71	0xa9bb060a	-8.305516e-14
72	0xaa5d1330	-1.96354e-13
73	0xa75b0e32	-3.040005e-15
74	0xa83c6f58	-1.046024e-14
75	0xa9898370	-6.106823e-14
76	0x26b6fef4	1.2697892e-15
77	0xa9997c81	-6.816163e-14
78	0xaa655c29	-2.037126e-13
79	0xa940ece8	-4.2838048e-14
80	0x24075e8c	2.9353543e-17
81	0xa5905617	-2.5038355e-16
82	0x2d82ff86	1.4892764e-11
83	0x3b038eb9	0.0020074083
84	0xa53ee789	-1.655832e-16
85	0x9dec9fba	-6.2633833e-21
86	0xa774d801	-3.3978898e-15
87	0x29695838	5.181291e-14
88	0x29807414	5.704478e-14
89	0xa6060026	-4.649079e-16
90	0xa72aaff3	-2.3687622e-15
91	0x2891e733	1.61985e-14
92	0x24a6ac16	7.228255e-17
93	0x25b37422	3.1130245e-16
94	0x29bd02a2	8.393743e-14
95	0xa7268383	-2.310842e-15
96	0xa2e971ce	-6.327527e-18
97	0x22b01346	4.7725302e-18
98	0xab76491c	-8.7498216e-13
99	0x2f6161f3	2.049843e-10
100	0xa43924f2	-4.0146774e-17
101	0x1d859347	3.535709e-21
102	0xa1c43986	-1.3296703e-18
103	0x270be8fe	1.941643e-15
104	0x26d49951	1.4752012e-15
105	0x23bf3a90	2.0733064e-17
106	0xa6ed0cbd	-1.6448631e-15
107	0xa7114cf6	-2.0164513e-15
108	0x250996b0	1.1933911e-16
109	0xa7f64092	-6.8348723e-15
110	0x289bbe3f	1.7290963e-14
111	0x276eeffb	3.3159229e-15
112	0xa2ad2b2f	-4.6937466e-18
113	0xa4999fff	-6.662422e-17
114	0xaa0cb19c	-1.2496119e-13
115	0x308758be	9.847765e-10
116	0x238a9d61	1.5028643e-17
117	0x1d5f8d8c	2.9586982e-21
118	0x2419781d	3.3278326e-17
119	0x26ebea67	1.6369936e-15
120	0xa80b803c	-7.743856e-15
121	0xa32184d7	-8.7559574e-18
122	0x269d98e2	1.0935502e-15
123	0x27579fdf	2.992391e-15
124	0x24820148	5.6380683e-17
125	0xa8143420	-8.226953e-15
126	0xa8c5d12e	-2.196211e-14
127	0x2559de58	1.8897083e-16
128	0x2288c001	3.7066166e-18
129	0xa50b0d33	-1.20608e-16
130	0x2b3da65b	6.7377153e-13
131	0x3092ff7c	1.0695511e-09
132	0x23ce8e72	2.2394893e-17
133	0x9caad3a8	-1.1304368e-21
134	0xa334e601	-9.806525e-18
135	0xa73c71dc	-2.6151964e-15
136	0xa78ec56a	-3.9626954e-15
137	0x238fd591	1.559454e-17
138	0x2638e56d	6.4148754e-16
139	0x26cd6c30	1.4254057e-15
140	0xa4922579	-6.338089e-17
141	0x27e49b85	6.3451327e-15
142	0xa959d1d7	-4.8365686e-14
143	0x2609370b	4.760602e-16
144	0xa2b0cefc	-4.792405e-18
145	0x240b3bc5	3.0191447e-17
146	0x2b88daec	9.724144e-13
147	0x2fdf73b4	4.0645676e-10
148	0xa3887ce0	-1.4798036e-17
149	0x9cb48529	-1.1945822e-21
150	0x2312de30	7.961726e-18
151	0xa7b5b1bc	-5.043029e-15
152	0xa7efcbd8	-6.6556834e-15
153	0x2456c8e7	4.6574024e-17
154	0xa58990b7	-2.3863774e-16
155	0xa7044c56	-1.8360062e-15
156	0xa45df909	-4.8132677e-17
157	0xa74a804c	-2.8102681e-15
158	0xa6e104a7	-1.5613772e-15
159	0xa4de3e53	-9.6382734e-17
160	0xa002939b	-1.1060267e-19
161	0xa2b18283	-4.811413e-18
162	0x28ac35ee	1.9119224e-14
163	0x2d7dea6d	1.4433438e-11
164	0xa268b98a	-3.1540087e-18
165	0x9cdacbe1	-1.4478731e-21
166	0xa034df2b	-1.5320433e-19
167	0x260077c1	4.457122e-16
168	0x2486b838	5.8425315e-17
169	0xa1ed33b9	-1.6073436e-18
170	0xa446df77	-4.3123688e-17
171	0x2331b1f6	9.632874e-18
172	0xa3f12d92	-2.6148572e-17
173	0xa585ffe2	-2.3245215e-16
174	0x28357ce5	1.00746006e-14
175	0x23761f7e	1.33423555e-17
176	0xa219e128	-2.0854563e-18
177	0xa46865a2	-5.0393067e-17
178	0x290ab319	3.0797498e-14
179	0x2f638038	2.0691082e-10
180	0xa3150699	-8.078703e-18
181	0x1d11db60	1.9304004e-21
182	0xa24a2db4	-2.74003e-18
183	0xa585cb1c	-2.3209454e-16
184	0xa63c519c	-6.5336204e-16
185	0x228d52c5	3.8305762e-18
186	0x25060d44	1.1627142e-16
187	0xa5bce9cc	-3.2771228e-16
188	0x2358d590	1.1754607e-17
189	0xa6d39bfb	-1.4683345e-15
190	0x28894b1a	1.5242626e-14
191	0x23b070d5	1.9129744e-17
192	0xa48dd8ca	-6.151626e-17
193	0xa5805e45	-2.226834e-16
194	0x2d71b50c	1.3739464e-11
195	0x3b129052	0.0022363854
196	0xa4dabc87	-9.486181e-17
197	0x9ea9ece8	-1.7991553e-20
198	0xa6d72b42	-1.4930347e-15
199	0x296db4ff	5.278156e-14
200	0x29e594fb	1.0195487e-13
201	0x25535d84	1.8333017e-16
202	0x27acd79b	4.797335e-15
203	0x2917cec8	3.370809e-14
204	0xa61c9ac9	-5.4333145e-16
205	0x29ef74de	1.06340053e-13
206	0x29e15fb6	1.00086104e-13
207	0xa91584bf	-3.3199785e-14
208	0xa2119c8f	-1.9734046e-18
209	0xa397fea6	-1.64793e-17
210	0xa9bbd0ec	-8.3407104e-14
211	0xb0b3574c	-1.3048775e-09
212	0x2315343e	8.088369e-18
213	0x1d176096	2.0034617e-21
214	0x21971477	1.0237575e-18
215	0x26090018	4.753155e-16
216	0xa6f07993	-1.6686298e-15
217	0x22faf32f	6.8020116e-18
218	0xa586a6c1	-2.3358291e-16
219	0xa71c95a4	-2.173047e-15
220	0x240df39a	3.078084e-17
221	0xa66425a3	-7.91544e-16
222	0x2893d121	1.6410974e-14
223	0x26002494	4.4458494e-16
224	0xa0e3d81b	-3.8598302e-19
225	0xa348a1dd	-1.0876298e-17
226	0x2990a217	6.423003e-14
227	0x2bc59132	1.4037992e-12
228	0x22133831	1.9951962e-18
229	0x9bc68fb5	-3.284922e-22
230	0xa282368e	-3.5294333e-18
231	0xa602e4a2	-4.5412666e-16
232	0x25e96c60	4.0492495e-16
233	0x23281fc7	9.114027e-18
234	0xa53e69af	-1.651568e-16
235	0x252a253a	1.4757762e-16
236	0xa2324990	-2.4162442e-18
237	0x25aa1e49	2.951082e-16
238	0x279a9eb1	4.291564e-15
239	0x256067b5	1.946404e-16
240	0xa20d233c	-1.9127716e-18
241	0x241abb20	3.3551928e-17
242	0x2abf6331	3.3997243e-13
243	0x2f8ddf5c	2.5806457e-10
244	0xa31ba8e4	-8.438331e-18
245	0x9b7653e9	-2.0375756e-22
246	0x23207695	8.698728e-18
247	0x260e0c0d	4.928248e-16
248	0x271c9555	2.1730302e-15
249	0x2426ddb0	3.618329e-17
250	0xa581c794	-2.2513172e-16
251	0xa70186f6	-1.7975509e-15
252	0x205085be	1.7662537e-19
253	0x26fa25f6	1.7357524e-15
254	0x2888bf32	1.5181951e-14
255	0xa5c7afe0	-3.4640175e-16

gnn.init_context.attentive_gru.edge_transform.1.bias f4 [16]
0	0x33f9e386	1.1636352e-07
1	0xb77dfb7c	-1.5138528e-05
2	0x38496ee5	4.8025413e-05
3	0x38e80508	0.00011063559
4	0x3e9237fa	0.28558332
5	0x3d1b9b4d	0.037989903
6	0x38d3b28f	0.00010094523
7	0xb7e6142b	-2.7427528e-05
8	0xb832d751	-4.2639036e-05
9	0xb741de81	-1.1555502e-05
10	0x33ada1eb	8.085393e-08
11	0xb7139b3c	-8.798026e-06
12	0x3d95d7c8	0.07316548
13	0xb6672f41	-3.4449188e-06
14	0x32d4fe45	2.4795677e-08
15	0xb6d64eba	-6.386862e-06

gnn.init_context.attentive_gru.gru.weight_ih f4 [48, 16]
0	0x257e0fbe	2.2036322e-16
1	0x257f2076	2.2128723e-16
2	0x247b3cd8	5.4478486e-17
3	0x2592d9dd	2.5474593e-16
4	0xa7ef3fb0	-6.6404876e-15
5	0xa7af0930	-4.858222e-15
6	0x24f89972	1.078128e-16
7	0x2608a0e5	4.740253e-16
8	0x24546803	4.6058273e-17
9	0xa5b49df3	-3.1332053e-16
10	0xa2c5bcbd	-5.359679e-18
11	0xa396471a	-1.6293145e-17
12	0x2767a5f6	3.2147657e-15
13	0x25ddea19	3.849602e-16
14	0x2568614b	2.0155756e-16
15	0xa4245c22	-3.563987e-17
16	0x23951ab3	1.616592e-17
17	0xa51f464f	-1.3814873e-16
18	0x24944ad9	6.4311565e-17
19	0x25346d72	1.5649593e-16
20	0xa62ce18c	-5.998016e-16
21	0xa62f637f	-6.0850164e-16
22	0x252a0c73	1.4749368e-16
23	0xa5b5d26d	-3.1541085e-16
24	0x24bc930f	8.178113e-17
25	0xa596b11d	-2.614087e-16
26	0xa29db248	-4.2743698e-18
27	0x25a9b16f	2.943706e-16
28	0xa69a0e05	-1.0689697e-15
29	0xa315cc7f	-8.12061e-18
30	0xa4ebea7f	-1.02312256e-16
31	0xa5c5eb53	-3.4333514e-16
32	0x33145d71	3.454392e-08
33	0xb6912027	-4.3250798e-06
34	0x3747cb78	1.1908698e-05
35	0x37d4683a	2.5320904e-05
36	0x3d10e13e	0.035371058
37	0x3bbdc546	0.005791339
38	0x37c7a9cd	2.3801718e-05
39	0xb744e372	-1.1735467e-05
40	0xb781020c	-1.5378952e-05
41	0xb60585d6	-1.9896447e-06
42	0x3279e370	1.4545421e-08
43	0xb61195dd	-2.1693916e-06
44	0x3c2abd1a	0.010421062
45	0x351bb858	5.8010255e-07
46	0x31cacb4e	5.902087e-09
47	0xb5f9058b	-1.8553559e-06
48	0xadc02862	-2.1845806e-11
49	0xb03c7073	-6.85538e-10
50	0x2faf4723	3.188286e-10
51	0x2e26ca63	3.7923786e-11
52	0xb373a2b3	-5.672582e-08
53	0x3211b70e	8.481733e-09
54	0x2e5091b8	4.742315e-11
55	0x2f0470d8	1.204542e-10
56	0xb07f4a31	-9.287389e-10
57	0xb10f5f6b	-2.0863478e-09
58	0xae62cb02	-5.1566758e-11
59	0x2edd50d5	1.0064275e-10
60	0xb2c1df66	-2.2569747e-08
61	0x2f9c4860	2.842766e-10
62	0x2eb63428	8.2856666e-11
63	0x2ee9e1e8	1.0635742e-10
64	0x338e15fe	6.6163906e-08
65	0xb5f01a5a	-1.7889063e-06
66	0x37f263cd	2.8895121e-05
67	0x380bb5b1	3.3309396e-05
68	0x3d2df3e3	0.042468917
69	0x3c256030	0.010093734
70	0x38529379	5.0205246e-05
71	0x35d07eb6	1.5534085e-06
72	0x37993fed	1.8268789e-05
73	0xb5fc2b88	-1.8788132e-06
74	0xb35cae47	-5.1381246e-08
75	0x34d54298	3.9722795e-07
76	0x3b93ba3f	0.0045082862
77	0x37271432	9.958678e-06
78	0xb0405183	-6.996503e-10
79	0x34d4fe94	3.9673307e-07
80	0x14444b05	9.910266e-27
81	0x9471d9b7	-1.2210327e-26
82	0x94a810b9	-1.6970261e-26
83	0x93665da3	-2.9076248e-27
84	0x9421018d	-8.1287286e-27
85	0x94e4f0c9	-2.311709e-26
86	0x94c87d5f	-2.024429e-26
87	0x93f2489d	-6.116099e-27
88	0x1482ea49	1.3219055e-26
89	0x933ef0d8	-2.4100117e-27
90	0x943a0145	-9.3908506e-27
91	0x128fec10	9.082763e-28
92	0x143c8af3	9.518977e-27
93	0x149758fc	1.5282202e-26
94	0x151211f1	2.949862e-26
95	0x13e3bb48	5.748753e-27
96	0x269f50ab	1.1054706e-15
97	0x27373e4b	2.543012e-15
98	0xa5731393	-2.1083522e-16
99	0x2606edbc	4.681278e-16
100	0x28c9af44	2.2391492e-14
101	0xa97b2841	-5.576811e-14
102	0x27193eef	2.1267132e-15
103	0x27e7271d	6.4157786e-15
104	0xa5bde8dd	-3.2944068e-16
105	0xa67febce	-8.879047e-16
106	0xa80e0738	-7.884149e-15
107	0xa65a7aa3	-7.5800147e-16
108	0xa89373ae	-1.6370447e-14
109	0x26a02e01	1.11147e-15
110	0xa60642d0	-4.6581137e-16
111	0xa5fbec95	-4.3701873e-16
112	0xb136dcfb	-2.6610099e-09
113	0x36d0f1fa	6.227053e-06
114	0x38a6b73e	7.949628e-05
115	0x38436939	4.658962e-05
116	0xbdc78940	-0.09742975
117	0xbc1bd43a	-0.009511048
118	0x390c1b8f	0.00013361707
119	0xb45a5f19	-2.0337428e-07
120	0xb746f64e	-1.1859067e-05
121	0xb62b9489	-2.5567444e-06
122	0x33da1219	1.0154708e-07
123	0x35d9db47	1.6231578e-06
124	0xbc797efc	-0.015228029
125	0x380021b5	3.054897e-05
126	0xb145191c	-2.8681546e-09
127	0xb589a911	-1.02565e-06
128	0x2ade5f86	3.9501405e-13
129	0xaecabd80	-9.2195585e-11
130	0x2e9f24d1	7.237023e-11
131	0x2c28a258	2.3964355e-12
132	0x3036a092	6.64394e-10
133	0xb0483be4	-7.2844686e-10
134	0xaf0270f2	-1.1863557e-10
135	0xae315225	-4.03181e-11
136	0x2e36d392	4.156992e-11
137	0xada15273	-1.8340196e-11
138	0x2a925b25	2.5998054e-13
139	0x2da85596	1.9137397e-11
140	0xb094e810	-1.0834373e-09
141	0x2b855b79	9.475607e-13
142	0xac9c79a5	-4.447292e-12
143	0x2db7ebcc	2.0909406e-11
144	0xa1e96e51	-1.5817895e-18
145	0x9ed5c305	-2.263291e-20
146	0x21339a6e	6.0851945e-19
147	0x2120a163	5.44237e-19
148	0x22ce1769	5.58612e-18
149	0x245ab876	4.742746e-17
150	0x223c1b06	2.5493057e-18
151	0xa2838772	-3.565103e-18
152	0xa0418140	-1.6390501e-19
153	0x21f355cb	1.648903e-18
154	0x213fe711	6.501913e-19
155	0xa0c42265	-3.3226452e-19
156	0x22daa7ea	5.9266804e-18
157	0xa1be9ef9	-1.291698e-18
158	0xa205c940	-1.8131402e-18
159	0xa23f2b3c	-2.5908215e-18
160	0x21a35b26	1.1069436e-18
161	0xa3d02a63	-2.2569357e-17
162	0xa3a841bf	-1.8242441e-17
163	0x247db099	5.5010214e-17
164	0xa4d19169	-9.0885636e-17
165	0xa5278aad	-1.4531926e-16
166	0x232083cd	8.701527e-18
167	0x246cca04	5.1345456e-17
168	0xa45e8523	-4.8251348e-17
169	0xa44fc044	-4.5048825e-17
170	0x2483128b	5.684361e-17
171	0xa4505dab	-4.518215e-17
172	0xa43f928c	-4.1540653e-17
173	0x24189678	3.3087198e-17
174	0xa4592742	-4.7087627e-17
175	0x23201919	8.678932e-18
176	0x95216bba	-3.2598672e-26
177	0x16554d10	1.723032e-25
178	0x9548ebb8	-4.0575628e-26
179	0x1661c14d	1.823635e-25
180	0x97c9352a	-1.3002741e-24
181	0x97712257	-7.7914643e-25
182	0x9639b5ab	-1.5001505e-25
183	0x95dffb3d	-9.0465367e-26
184	0x96053e0b	-1.0763232e-25
185	0x96434084	-1.5772332e-25
186	0x169f3292	2.571975e-25
187	0x163d588e	1.5295241e-25
188	0x96ea5613	-3.785906e-25
189	0x95f64c07	-9.947856e-26
190	0x15b31025	7.2322996e-26
191	0x1604e0e9	1.0733844e-25
192	0x9ee7a1d5	-2.4525009e-20
193	0x9f35b593	-3.8478436e-20
194	0x1f3ef566	4.0437054e-20
195	0x9fa529c4	-6.9949314e-20
196	0x9f25d853	-3.5119048e-20
197	0x9ea90001	-1.7893573e-20
198	0x1f940773	6.269276e-20
199	0x9f78fe51	-5.2726408e-20
200	0x1d6205ed	2.9913915e-21
201	0x9ed68c9a	-2.2716283e-20
202	0x1ef29f6c	2.5688682e-20
203	0x1f161407	3.1780302e-20
204	0x1f410fa9	4.0882293e-20
205	0x1f739b06	5.1585484e-20
206	0x1e2dae8b	9.194638e-21
207	0x9e4ca194	-1.0833084e-20
208	0xb2b1053a	-2.0607889e-08
209	0x359a7fe8	1.151112e-06
210	0x368936ef	4.0893133e-06
211	0x35e3fb79	1.6986006e-06
212	0xb8e6c46f	-0.00011003843
213	0x3934082c	0.00017169182
214	0xb6037913	-1.9590996e-06
215	0x355b61bd	8.1726085e-07
216	0x350fc903	5.356416e-07
217	0x3535487c	6.7533233e-07
218	0xb300ebc0	-3.0016736e-08
219	0x34349363	1.6817425e-07
220	0xb8f4215e	-0.00011641042
221	0x34adc3de	3.2366273e-07
222	0xb2d5c9c8	-2.4888223e-08
223	0x350296ad	4.8648036e-07
224	0xac9a6544	-4.388186e-12
225	0x2f989fa3	2.7762068e-10
226	0x30b36e64	1.3055339e-09
227	0x302b0d75	6.222856e-10
228	0xb59f612f	-1.1874707e-06
229	0xb356159a	-4.9845404e-08
230	0x31041cce	1.9224902e-09
231	0x2fb9b97f	3.3783107e-10
232	0x2feb286a	4.2774967e-10
233	0x2f3da8de	1.7249444e-10
234	0xab29de6a	-6.034952e-13
235	0x2cdd86c3	6.2961593e-12
236	0xb3add5f5	-8.094859e-08
237	0x2f36615a	1.658739e-10
238	0x288f4684	1.590677e-14
239	0x2f54a120	1.9338531e-10
240	0x30f97d80	1.8152804e-09
241	0xb2bc0937	-2.1890271e-08
242	0xafb3e1b5	-3.2720285e-10
243	0x3217d5fe	8.838013e-09
244	0xb59f992a	-1.1891e-06
245	0x351e2227	5.8909285e-07
246	0x3117c945	2.20878e-09
247	0xb20a6ba7	-8.0571345e-09
248	0xb3550d6b	-4.960513e-08
249	0xb3137d07	-3.4339816e-08
250	0x30981ae4	1.1067098e-09
251	0xb2190959	-8.9078975e-09
252	0x34930015	2.7380943e-07
253	0x32ac0a26	2.002805e-08
254	0x31cba4d4	5.9268164e-09
255	0x332b2e28	3.985602e-08

gnn.init_context.attentive_gru.gru.weight_hh f4 [48, 16]
0	0x25d967ea	3.7713914e-16
1	0x289f90a0	1.7715267e-14
2	0x2444da31	4.268554e-17
3	0x24f77a76	1.0732663e-16
4	0x987eece2	-3.2948326e-24
5	0xa2d8344c	-5.860229e-18
6	0xa4072941	-2.9308402e-17
7	0xa6a39f8e	-1.1353644e-15
8	0x26b8a7a2	1.2813002e-15
9	0x26de00e0	1.5404582e-15
10	0xa687e835	-9.430447e-16
11	0x25654828	1.9887031e-16
12	0x22dbc980	5.9573415e-18
13	0x2451aadc	4.5464374e-17
14	0xa0918e83	-2.4658262e-19
15	0xa5603d5b	-1.9449691e-16
16	0xa343da09	-1.0617142e-17
17	0x2749d9f7	2.8012512e-15
18	0xa3c07a33	-2.0868435e-17
19	0x23271677	9.057845e-18
20	0x9bdf9098	-3.6985697e-22
21	0x1f1ae1cc	3.2797543e-20
22	0xa439d770	-4.0297963e-17
23	0x265c7937	7.649211e-16
24	0xa4197795	-3.3277876e-17
25	0x25a1234b	2.7952963e-16
26	0x24415c6d	4.192849e-17
27	0x23f41d4f	2.6466946e-17
28	0xa4827932	-5.6583826e-17
29	0x2233ab3f	2.434968e-18
30	0x23206bfe	8.696486e-18
31	0x224fe8b1	2.8176917e-18
32	0xb4c63ce8	-3.692469e-07
33	0xb205199f	-7.7474445e-09
34	0x3d9e043c	0.077156514
35	0xb54a81e5	-7.5439885e-07
36	0xbbd56eb0	-0.006513439
37	0xae4128ad	-4.3919247e-11
38	0xb4dc6908	-4.1054614e-07
39	0x3af22406	0.0018473871
40	0xbcfc370d	-0.030787969
41	0xbcaea511	-0.021318944
42	0xb48adaf7	-2.586382e-07
43	0xb8235a90	-3.894657e-05
44	0xb7a77b71	-1.9965433e-05
45	0xbd14f0a5	-0.03636231
46	0xb881638a	-6.16974e-05
47	0xbbf59b50	-0.0074953213
48	0x2dc7a478	2.269672e-11
49	0xac4f38e5	-2.9448052e-12
50	0x2850e83c	1.1596677e-14
51	0x2e78277f	5.642375e-11
52	0x2bf274df	1.7227572e-12
53	0xa8328f9f	-9.912128e-15
54	0x2f2d8e02	1.578471e-10
55	0x335028e8	4.8465978e-08
56	0x32f7b425	2.8836505e-08
57	0x3256382a	1.246921e-08
58	0x2e3fd59c	4.3618095e-11
59	0xaf18ecde	-1.3908472e-10
60	0xb035f2a6	-6.619224e-10
61	0xb1a0b506	-4.677193e-09
62	0x2b4a3305	7.183562e-13
63	0x3488e1e7	2.549634e-07
64	0x35330d89	6.670239e-07
65	0x3073ec7d	8.8738955e-10
66	0xaa53bbd6	-1.8805733e-13
67	0xb5659d6d	-8.553823e-07
68	0x3e656d91	0.22405078
69	0xae2d880a	-3.9456473e-11
70	0x37baa94a	2.225176e-05
71	0xbd8c3ef7	-0.06847947
72	0xbc6f30c3	-0.014599028
73	0xbc0236e3	-0.007947656
74	0xb38e2532	-6.619156e-08
75	0xb7d59411	-2.5460527e-05
76	0xb997284d	-0.0002883099
77	0xbb9978dc	-0.004683597
78	0xb9c5f6c2	-0.00037758617
79	0x3abcc82a	0.0014402915
80	0x933b29e1	-2.3623366e-27
81	0x149741dc	1.527308e-26
82	0x946925db	-1.17709595e-26
83	0x9471971e	-1.2197193e-26
84	0x94ad6fcb	-1.751263e-26
85	0x142f38e9	8.846466e-27
86	0x9388f673	-3.4574244e-27
87	0x936569eb	-2.8956085e-27
88	0x14a35882	1.6493704e-26
89	0x91f16eb0	-3.8091312e-28
90	0x13c7ec28	5.046753e-27
91	0x946895ce	-1.17425505e-26
92	0x12622a17	7.1364906e-28
93	0x92b2cd45	-1.1283982e-27
94	0x1332eda3	2.2583923e-27
95	0x940fd766	-7.262135e-27
96	0xa703fe86	-1.831788e-15
97	0x2888b781	1.5178615e-14
98	0x24845cc8	5.740305e-17
99	0xa787e9a9	-3.772336e-15
100	0x9b87b881	-2.245311e-22
101	0x22cad6c2	5.4979593e-18
102	0x2625bca3	5.7501525e-16
103	0xb7098891	-8.197633e-06
104	0x24a91bcb	7.333915e-17
105	0x28715fce	1.3398962e-14
106	0x280abd5c	7.7016e-15
107	0xa5db7689	-3.8070767e-16
108	0x27321ce9	2.4718135e-15
109	0x25bf1c24	3.3152287e-16
110	0x21106938	4.8928354e-19
111	0xa6b059b6	-1.2236769e-15
112	0xb51e18f2	-5.8895887e-07
113	0x3181d9b0	3.7791423e-09
114	0x3b2dc5b2	0.002651554
115	0x3514b030	5.5390683e-07
116	0xbc13dfcf	-0.009025528
117	0x2e1f6db2	3.6249843e-11
118	0x3689afaf	4.1033704e-06
119	0x3d728821	0.059211854
120	0xbd007eaa	-0.031370796
121	0xbc4ec82a	-0.012620965
122	0x32ccd04a	2.3843445e-08
123	0x36ec6f98	7.0463393e-06
124	0xb8c0767b	-9.177342e-05
125	0x3cb766f9	0.022387968
126	0x3a885625	0.001040165
127	0xbb6d676d	-0.0036224977
128	0x2c9d8bcb	4.4777285e-12
129	0xacccb585	-5.8181814e-12
130	0x28e880e3	2.581307e-14
131	0xb039dfab	-6.762046e-10
132	0x9dae5970	-4.6149893e-21
133	0x289a2f55	1.7117962e-14
134	0xac5b430a	-3.1158986e-12
135	0x31601b71	3.2611889e-09
136	0xb0af4205	-1.275169e-09
137	0x2e3c1e85	4.2773358e-11
138	0x2c54f0c4	3.0260664e-12
139	0x2d8c4ca5	1.5950194e-11
140	0xacf133cf	-6.855384e-12
141	0x2d26d43e	9.483135e-12
142	0x2593c273	2.56322e-16
143	0xab00ea1f	-4.5799643e-13
144	0x1e93a769	1.563347e-20
145	0xa0053068	-1.1281554e-19
146	0xa1d1cc27	-1.421643e-18
147	0x9b621dc6	-1.8703902e-22
148	0x1aac98fa	7.138468e-23
149	0x9e1678bd	-7.965902e-21
150	0x2014a19a	1.2589557e-19
151	0x3826d121	3.977225e-05
152	0xa03d386c	-1.6027591e-19
153	0x9db04ad4	-4.6664183e-21
154	0x9ded16d0	-6.2756965e-21
155	0x20c4529c	3.3258358e-19
156	0x2047a51b	1.6910584e-19
157	0x9e7dab94	-1.342919e-20
158	0xa16eb972	-8.088297e-19
159	0x1b0919fc	1.134077e-22
160	0x2225e307	2.2481857e-18
161	0x2588ae96	2.3710543e-16
162	0x224d8565	2.78533e-18
163	0x9d3f29dd	-2.5300282e-21
164	0x97fbcda1	-1.6272403e-24
165	0x9f8b5839	-5.901474e-20
166	0x235e0cea	1.2037379e-17
167	0x2474aa98	5.3053565e-17
168	0xa0803229	-2.1717237e-19
169	0x2354b033	1.1529855e-17
170	0x23d2f1ff	2.2870735e-17
171	0x21b9aa30	1.2581136e-18
172	0xa3119cad	-7.893643e-18
173	0x218b3cac	9.435066e-19
174	0xa443c107	-4.2447385e-17
175	0x9f0c68a7	-2.973272e-20
176	0x175facc6	7.2273257e-25
177	0x15478462	4.0292162e-26
178	0x12c00467	1.2117989e-27
179	0x9491e6cc	-1.4732292e-26
180	0x92c4317a	-1.2381536e-27
181	0x939c74a6	-3.949496e-27
182	0x96dd9e42	-3.580435e-25
183	0x987e6c45	-3.2883393e-24
184	0x9569951f	-4.717161e-26
185	0x950ed321	-2.8843223e-26
186	0x156752f9	4.6715532e-26
187	0x14c2714c	1.9633682e-26
188	0x9754006f	-6.850144e-25
189	0x1481d424	1.3109346e-26
190	0x1a186eb1	3.152228e-23
191	0x12748a97	7.716365e-28
192	0x9db3ce15	-4.759399e-21
193	0x1dc298a1	5.1509187e-21
194	0x9eb60b4c	-1.9274672e-20
195	0x1a049b2d	2.742231e-23
196	0x17e6ba17	1.4910377e-24
197	0x1ca1b3b5	1.0700539e-21
198	0x9ed2058c	-2.2236909e-20
199	0x9f36ec65	-3.873554e-20
200	0x9cfbb1a6	-1.6655708e-21
201	0x1d236ba7	2.1628525e-21
202	0x19e74672	2.3913293e-23
203	0x9daa8cc7	-4.5144186e-21
204	0x9e2a1d37	-9.0057666e-21
205	0x1b8abda8	2.2952747e-22
206	0x1e369f75	9.667975e-21
207	0x19ecaa02	2.4470494e-23
208	0x328d6d60	1.6464298e-08
209	0xb0a268d5	-1.1816846e-09
210	0xab50de87	-7.4205263e-13
211	0x3422fc41	1.5179195e-07
212	0xb748619d	-1.1943656e-05
213	0x2ea0edfb	7.3182314e-11
214	0xb2d71009	-2.5036586e-08
215	0xb9b760e0	-0.00034976657
216	0xb961ea95	-0.00021545061
217	0x38f90134	0.00011873469
218	0xb3534d2c	-4.9197453e-08
219	0xb623f650	-2.4432265e-06
220	0xb58396ae	-9.804114e-07
221	0xbab9e822	-0.0014183561
222	0xaea65a5b	-7.5648564e-11
223	0xb8e55b3d	-0.000109365654
224	0x2da26eba	1.846644e-11
225	0x2a0fb959	1.2765257e-13
226	0x2576f84a	2.1421222e-16
227	0xae15bc78	-3.404607e-11
228	0x3693056e	4.3815735e-06
229	0xa8543039	-1.1778821e-14
230	0x2e940f6c	6.733e-11
231	0xb5d3f751	-1.5792704e-06
232	0xb5eb46ae	-1.7529435e-06
233	0xb398755c	-7.099399e-08
234	0xae994ea3	-6.971603e-11
235	0x31aea01e	5.0822697e-09
236	0xb1a70389	-4.8607416e-09
237	0xb4f4ba93	-4.5584292e-07
238	0xb2c22e9e	-2.2605771e-08
239	0x351102ad	5.4020603e-07
240	0x30919eeb	1.0595306e-09
241	0xaf077a1d	-1.2321562e-10
242	0xac13b7f7	-2.0992077e-12
243	0x311ba9d0	2.2651996e-09
244	0x1f698fe5	4.9458696e-20
245	0xa8e7492a	-2.5677882e-14
246	0x31537015	3.0768252e-09
247	0xb595e9bb	-1.116939e-06
248	0x3502b897	4.869739e-07
249	0x340383df	1.22483e-07
250	0x311204a4	2.1248434e-09
251	0x32bc3212	2.190885e-08
252	0x3273b944	1.4186586e-08
253	0x3385a99b	6.224146e-08
254	0xae0665e2	-3.0558563e-11
255	0xb56cf891	-8.827856e-07

gnn.init_context.attentive_gru.gru.bias_ih f4 [48]
0	0x28077b66	7.520763e-15
1	0x263ed0b0	6.6202316e-16
2	0x3d88136f	0.06644332
3	0xb29abb13	-1.8013031e-08
4	0xbce62f9a	-0.02809887
5	0x94f50304	-2.4739867e-26
6	0xa8d50d0e	-2.3653412e-14
7	0x3e0d1afc	0.13779825
8	0x30bcc8ca	1.3735868e-09
9	0x20deff4d	3.7777207e-19
10	0x23d783c2	2.3366148e-17
11	0x98109d15	-1.869087e-24
12	0x9f0a830b	-2.9331033e-20
13	0x3a5a2e3a	0.00083229283
14	0x36871047	4.0252085e-06
15	0x350112ab	4.808341e-07
16	0x38daa1cc	0.00010425187
17	0xa6d76e71	-1.4948557e-15
18	0x3d229f30	0.039702594
19	0xb4d97f3e	-4.051198e-07
20	0xbebf460f	-0.37358138
21	0x14902876	1.4556243e-26
22	0x28fe82f0	2.825645e-14
23	0x3f1c7658	0.6111808
24	0xbe06fea1	-0.1318307
25	0xbdbc09a4	-0.09181526
26	0xa5c65d14	-3.4410597e-16
27	0x17e94ceb	1.5076689e-24
28	0x20ed302f	4.0181247e-19
29	0x3b9b5ac5	0.004741045
30	0xb92ccd42	-0.00016479663
31	0x3524924d	6.1307657e-07
32	0x29045a9f	2.938849e-14
33	0x27ce3af8	5.724042e-15
34	0x3e8ffa6c	0.28120744
35	0xbb311e64	-0.002702617
36	0xbe74ee08	-0.23918927
37	0x15c9b5f8	8.147035e-26
38	0xb93fae0f	-0.00018280021
39	0xbf22ae11	-0.63546854
40	0xbec1ab42	-0.37825972
41	0xbf0ae4bf	-0.5425529
42	0xa594cfb2	-2.5814647e-16
43	0x984c22a8	-2.6383879e-24
44	0xbca77faf	-0.020446626
45	0xbda7683c	-0.08174178
46	0xbc44f906	-0.012022262
47	0xb998e778	-0.00029164157

gnn.init_context.attentive_gru.gru.bias_hh f4 [48]
0	0x2805a36c	7.41842e-15
1	0x2643f3e2	6.798474e-16
2	0x3d88007a	0.06640716
3	0xb2638e77	-1.3245532e-08
4	0xbce9d21b	-0.028542569
5	0x944875d4	-1.0120657e-26
6	0xa8d512ff	-2.3655989e-14
7	0x3e0cb3de	0.13740489
8	0x30bccf74	1.3737762e-09
9	0x20dbb858	3.7222032e-19
10	0x22951abb	4.0414833e-18
11	0x97bb9f60	-1.2124824e-24
12	0x9f0a8d70	-2.933963e-20
13	0x3a59a187	0.00083019625
14	0x368710e2	4.025279e-06
15	0x3500fd9a	4.8052755e-07
16	0x38da9e23	0.00010424505
17	0xa6d797b7	-1.4959744e-15
18	0x3d22aa5d	0.039713252
19	0xb4d99f48	-4.0535292e-07
20	0xbebf4e46	-0.37364405
21	0x148a0650	1.3936929e-26
22	0x28fbb9f5	2.7947244e-14
23	0x3f1c7468	0.6111512
24	0xbe06fea2	-0.13183072
25	0xbdbc0925	-0.09181432
26	0xa5c5a0fe	-3.4283145e-16
27	0x17e7913d	1.4964688e-24
28	0x20ed37f9	4.0186401e-19
29	0x3b9b5d2b	0.004741331
30	0xb92ccc0e	-0.00016479215
31	0x3524a0ea	6.132892e-07
32	0xa84ffece	-1.154606e-14
33	0x272196f6	2.2425074e-15
34	0x3e843791	0.25823644
35	0xb46ff45a	-2.2347504e-07
36	0xbdeda1dd	-0.116031386
37	0x15919521	5.880032e-26
38	0x2c5aca6c	3.109203e-12
39	0xbf0f22a4	-0.5591223
40	0xbd2245fb	-0.03961752
41	0xb9e900a5	-0.00044441703
42	0x25665e78	1.9981327e-16
43	0x14538094	1.0678135e-26
44	0xb8de2439	-0.00010592532
45	0xbb51a1cc	-0.0031987308
46	0xbb56eca5	-0.003279486
47	0x3663490c	3.3868155e-06

readout.readouts.0.compute_logits.0.weight f4 [1, 32]
0	0x24c2c787	8.44721e-17
1	0x2462a4e5	4.914561e-17
2	0xb6e68031	-6.8694576e-06
3	0xac452dd3	-2.8020821e-12
4	0x378762ca	1.6139256e-05
5	0x115f7b5d	1.7629612e-28
6	0x1d78d6ed	3.293364e-21
7	0x38a6467a	7.928624e-05
8	0xaa6a9b02	-2.0837154e-13
9	0x1cb4c2f7	1.1961798e-21
10	0x9ccaa65b	-1.3410241e-21
11	0x140ac29e	7.005601e-27
12	0x9426a954	-8.414252e-27
13	0x3007b5bb	4.937097e-10
14	0x2eabe4f9	7.8168534e-11
15	0x2e33b16c	4.085747e-11
16	0xa55772e5	-1.8687205e-16
17	0x227f10e1	3.456788e-18
18	0xb4e64b86	-4.289579e-07
19	0x2d50c538	1.18672225e-11
20	0xb8b6c580	-8.7152235e-05
21	0x93a15321	-4.0724085e-27
22	0x22e48c1f	6.1947883e-18
23	0xb8e8b2e9	-0.00011095947
24	0x2b6e4eef	8.466413e-13
25	0x1ecd1398	2.1713323e-20
26	0x20d96f66	3.6834947e-19
27	0x18d36b8e	5.4650824e-24
28	0x9707a8ec	-4.383406e-25
29	0xad18ec51	-8.6926724e-12
30	0xafb4b5e9	-3.2871064e-10
31	0x2d931c5e	1.6724563e-11

readout.readouts.0.project_nodes.1.weight f4 [16, 16]
0	0x25c6d588	3.449222e-16
1	0xa46c0066	-5.117468e-17
2	0xae47a255	-4.539154e-11
3	0x2b8843a7	9.682159e-13
4	0x2e8142d8	5.878115e-11
5	0x948d29ca	-1.4253844e-26
6	0xa36f3da2	-1.2969267e-17
7	0x2dfdae8e	2.8840288e-11
8	0x2a2b7acb	1.5230453e-13
9	0xa0135e12	-1.248251e-19
10	0x23943961	1.6070493e-17
11	0x178d2523	9.121286e-25
12	0x181e11ba	2.0429971e-24
13	0x2dad03f3	1.9669577e-11
14	0x2a17b5bc	1.3474546e-13
15	0xadbe079a	-2.1603875e-11
16	0xa4c141a4	-8.381161e-17
17	0xa4a7a12f	-7.269776e-17
18	0xb50aa86e	-5.1654104e-07
19	0x2e916713	6.612146e-11
20	0xb57e03bf	-9.4627825e-07
21	0x15653719	4.6289646e-26
22	0xa28ea8fb	-3.8668092e-18
23	0xb432752e	-1.6620172e-07
24	0xa96d642d	-5.271146e-14
25	0x9f799196	-5.2848227e-20
26	0xa1836098	-8.902473e-19
27	0x9839b5a9	-2.4002405e-24
28	0x1b8ff1ca	2.3813618e-22
29	0x311d6df8	2.2909017e-09
30	0x2f4d62cb	1.867974e-10
31	0xb1a735c7	-4.8664535e-09
32	0x26bceb44	1.3108889e-15
33	0xa4e6aa16	-1.00034737e-16
34	0x362db31d	2.5883267e-06
35	0xb093182d	-1.0702529e-09
36	0x3a800325	0.0009766562
37	0x13900124	3.6351835e-27
38	0xa44da87d	-4.4595004e-17
39	0xb996f842	-0.00028795196
40	0x2a8ddbd1	2.519916e-13
41	0x20b8695d	3.1240536e-19
42	0xa229e12e	-2.302298e-18
43	0x185b8eaf	2.8377123e-24
44	0x9a4991cd	-4.1683603e-23
45	0xb3f1fb4a	-1.1268146e-07
46	0x32465345	1.154405e-08
47	0xb22ae730	-9.947868e-09
48	0xa524f443	-1.4307492e-16
49	0xa38ed0ad	-1.5484048e-17
50	0x3a3e46b0	0.0007258458
51	0xb1411ea1	-2.8102607e-09
52	0x3cb01571	0.021494599
53	0x94a48561	-1.6612377e-26
54	0x232796e5	9.085041e-18
55	0xbab796a0	-0.0014006682
56	0x2d586bb9	1.2302098e-11
57	0x9ec707c0	-2.107315e-20
58	0xa200c4bd	-1.7451387e-18
59	0x95b48a16	-7.291928e-26
60	0x95ca3b6e	-8.1680914e-26
61	0x3449cd49	1.8794266e-07
62	0xb4ed36dd	-4.4184608e-07
63	0xb4038d0a	-1.2251635e-07
64	0xa5cfcd87	-3.6048047e-16
65	0x9e89a74a	-1.4574628e-20
66	0x33a0cdfa	7.4880475e-08
67	0x2f43d755	1.7811648e-10
68	0xb651d102	-3.1265085e-06
69	0x94e68c3b	-2.3279376e-26
70	0x242f49c3	3.8009555e-17
71	0x35b9fa56	1.3856431e-06
72	0xacc1ad97	-5.5046623e-12
73	0x1d7f0191	3.3749779e-21
74	0xa0d8ec2e	-3.6748114e-19
75	0x16916728	2.3491114e-25
76	0x17efc3a5	1.5494401e-24
77	0x31071749	1.9658322e-09
78	0xaebf1d57	-8.690886e-11
79	0x3169a9b7	3.4002434e-09
80	0xa70bbd8b	-1.9392877e-15
81	0xa4e37c97	-9.865662e-17
82	0x31b8edcd	5.3821396e-09
83	0xaac67942	-3.5256005e-13
84	0x32ef4c78	2.7858036e-08
85	0x94cc61bd	-2.0637287e-26
86	0x240e7608	3.0891318e-17
87	0x31e8af98	6.7720514e-09
88	0xaa7278a7	-2.1535777e-13
89	0xa0906207	-2.4459418e-19
90	0xa3ec2610	-2.5603291e-17
91	0x1911720e	7.5193575e-24
92	0x1a2cb846	3.571762e-23
93	0xae41a8cf	-4.403305e-11
94	0x2c0ed489	2.0297394e-12
95	0x2db34bfa	2.0383684e-11
96	0xa64a7979	-7.0247455e-16
97	0x249fc901	6.929577e-17
98	0x3420ecab	1.498726e-07
99	0xac84916f	-3.767812e-12
100	0x3496a07f	2.8056454e-07
101	0x14ec36d0	2.385153e-26
102	0x243aa4fc	4.0472068e-17
103	0x346687ae	2.1469779e-07
104	0xabfc14d1	-1.7911455e-12
105	0x1e30db38	9.362696e-21
106	0xa40cdce4	-3.0544762e-17
107	0x97a72155	-1.0800536e-24
108	0x9926b08e	-8.617654e-24
109	0x2f2f7822	1.5958837e-10
110	0x2e061098	3.048281e-11
111	0x30821480	9.464571e-10
112	0xa66d96b9	-8.243016e-16
113	0x2539ad75	1.6104962e-16
114	0xb375e628	-5.7252834e-08
115	0x2c0acf04	1.9725896e-12
116	0xb453f924	-1.9741543e-07
117	0x1582d74f	5.284628e-26
118	0xa369f199	-1.2682116e-17
119	0xb4204bd1	-1.4928743e-07
120	0x285498f4	1.18015305e-14
121	0xa060c823	-1.9039758e-19
122	0xa42e777e	-3.783145e-17
123	0x95bdd556	-7.6673077e-26
124	0x18960561	3.8779523e-24
125	0xaf945c4c	-2.6986624e-10
126	0xad2c3b85	-9.790284e-12
127	0xae192e56	-3.4829327e-11
128	0xa429c705	-3.681461e-17
129	0x24f1bae9	1.0483373e-16
130	0x30f04374	1.748147e-09
131	0xabee0774	-1.6912986e-12
132	0x2f9f64e5	2.8993621e-10
133	0x956da420	-4.799124e-26
134	0xa437e3c9	-3.987474e-17
135	0x30a8dc34	1.2286194e-09
136	0xab1a90ff	-5.4913013e-13
137	0xa041e17b	-1.6422341e-19
138	0xa49ae8fd	-6.718155e-17
139	0x1815e321	1.937247e-24
140	0x98cb0cb8	-5.2487113e-24
141	0x2ccee0cb	5.879829e-12
142	0x2b866e76	9.551932e-13
143	0x2db00916	2.0012918e-11
144	0x261aa23b	5.3649346e-16
145	0xa4ac8162	-7.481229e-17
146	0xb486a284	-2.507769e-07
147	0x2db5c4be	2.0664689e-11
148	0x36074f61	2.0162772e-06
149	0x95388a3f	-3.726756e-26
150	0x22a2ed92	4.4161725e-18
151	0xb4ac97e7	-3.214802e-07
152	0xaaff1eef	-4.5318564e-13
153	0x9fac184e	-7.288504e-20
154	0xa3a2e3fe	-1.7660634e-17
155	0x181a1ca5	1.9918495e-24
156	0x196a6b3b	1.21191715e-23
157	0x3172ef7e	3.535177e-09
158	0xae8d7d8d	-6.43424e-11
159	0x30e08a62	1.6337476e-09
160	0xa4d4d6e0	-9.2304357e-17
161	0x2238b54c	2.5032628e-18
162	0x3b4a7888	0.0030894596
163	0x2f2cac1d	1.5704456e-10
164	0xb9bbc40c	-0.00035813486
165	0x958274ac	-5.269066e-26
166	0x22c5323e	5.3450153e-18
167	0x3ab6cede	0.0013947149
168	0xabcd8eca	-1.4605758e-12
169	0x1dd27e91	5.5717404e-21
170	0xa0ccf644	-3.472191e-19
171	0x1573f10d	4.9263615e-26
172	0x15ebc954	9.5233384e-26
173	0xb253c9e4	-1.2327721e-08
174	0xb4a6ed49	-3.1092557e-07
175	0x32cd202c	2.3879771e-08
176	0x259620ea	2.6043156e-16
177	0x220b3ae4	1.886919e-18
178	0xb783fdf7	-1.5734679e-05
179	0xaf665fb4	-2.0952379e-10
180	0x381cc9f5	3.7381385e-05
181	0x95436451	-3.9459072e-26
182	0xa4492074	-4.3612416e-17
183	0x38a3d859	7.8127436e-05
184	0x2b57a90f	7.661796e-13
185	0x1ef65df2	2.6085118e-20
186	0x20a7eb87	2.844676e-19
187	0x935b8389	-2.7706538e-27
188	0x955292f7	-4.2525097e-26
189	0xaf9617d8	-2.7301783e-10
190	0x30c58345	1.4370946e-09
191	0xb13c5167	-2.7403873e-09
192	0x26492560	6.9786536e-16
193	0xa44ba077	-4.4154527e-17
194	0xb482ad2f	-2.4340395e-07
195	0xafa7e68c	-3.0540936e-10
196	0x361a25c0	2.2969762e-06
197	0x152e1baa	3.5160843e-26
198	0x246705bc	5.0094998e-17
199	0x3655f4ff	3.188208e-06
200	0xac4c7798	-2.9056531e-12
201	0x20231890	1.3814764e-19
202	0x22a2cc6c	4.412663e-18
203	0x17e1b1e8	1.4585194e-24
204	0x19d5c5d2	2.2103583e-23
205	0xb0dc78bb	-1.604142e-09
206	0xaef3a4c6	-1.107963e-10
207	0xb0c91faf	-1.463368e-09
208	0x272050f0	2.2248337e-15
209	0x254fdcff	1.8029264e-16
210	0x30fef860	1.8551525e-09
211	0x2a884b3a	2.4210652e-13
212	0x31dc7f07	6.417284e-09
213	0x14d26fa9	2.1248623e-26
214	0x23a347aa	1.7702846e-17
215	0x3161e8b5	3.2874088e-09
216	0x2b1423e7	5.2629987e-13
217	0x9df54950	-6.4926763e-21
218	0xa382c731	-1.4178989e-17
219	0x9801da93	-1.6783211e-24
220	0x1908a915	7.065181e-24
221	0x2f917674	2.6459512e-10
222	0x2bb0b630	1.2556119e-12
223	0xac068ec0	-1.9121787e-12
224	0xa642e69e	-6.7619815e-16
225	0xa4b3f095	-7.803644e-17
226	0xb783e701	-1.5723987e-05
227	0xae208198	-3.649489e-11
228	0xb62fa762	-2.6174462e-06
229	0x95163510	-3.0334118e-26
230	0xa386d7f8	-1.4619775e-17
231	0xb7cb9aec	-2.4271627e-05
232	0xac9e1475	-4.4929013e-12
233	0x9f9a9318	-6.546488e-20
234	0xa40560fb	-2.8921923e-17
235	0x182fe773	2.2735072e-24
236	0x188e7711	3.6826366e-24
237	0x328897eb	1.5901568e-08
238	0xb1145e40	-2.159041e-09
239	0x314edb28	3.0101521e-09
240	0x26ea9337	1.6276914e-15
241	0xa31c9952	-8.489244e-18
242	0x37d725d7	2.5647618e-05
243	0xac8b67f0	-3.962157e-12
244	0x37695c1d	1.3909329e-05
245	0x94cf3cfb	-2.0925711e-26
246	0xa48bfa9a	-6.0706176e-17
247	0xb6b06c26	-5.257799e-06
248	0xabcf993c	-1.4750766e-12
249	0x9f26716a	-3.524568e-20
250	0x22018ac4	1.7556222e-18
251	0x97123c18	-4.7250993e-25
252	0x15fea63e	1.0285207e-25
253	0xb0672e95	-8.410351e-10
254	0x2ec36676	8.885774e-11
255	0xafaf93eb	-3.1937417e-10
