Results/GAT/28/model.pth (torch, 604855 bytes, 13 tensors)

gnn.gnn_layers.0.gat_conv.attn_l f4 [1, 6, 128]
000000 64 45 b3 3b a2 c1 cd 3d a6 36 90 be 3e 55 85 bd
       0.0054709185 0.10046698 -0.28166693 -0.06510399
000010 20 b3 29 3d 04 7a b7 3c 18 ee 1c 3e cb 77 36 bd
       0.041430593 0.022397049 0.153252 -0.044547837
000020 de 8d cd bd 13 34 15 3b 89 60 94 bd 54 d8 72 bc
       -0.10036825 0.0022766634 -0.07244975 -0.014822084
000030 5d 3a 1c bb c0 9a dd bd cf df c1 bb 02 e9 3b 3c
       -0.0023838498 -0.10820532 -0.0059165726 0.011469128
000040 71 48 9a bc c0 b8 9a 3b 34 cd 1f bd 62 0f 0f 3c
       -0.01883337 0.004721731 -0.039014056 0.008731695
000050 78 6c 7b 3d ed 47 28 be 4f fb a3 3d 74 3e d2 3c
       0.06138274 -0.16433688 0.08006918 0.025664546
000060 70 a0 26 bd 95 98 8a 3d 25 c3 9d bc a9 c9 2c 3c
       -0.04068035 0.06767384 -0.019258091 0.010546126
000070 b9 f8 15 3c 65 e8 5c bc cd 15 b5 bc 2b 4a 00 3d
       0.009153538 -0.013483142 -0.022105122 0.031320732
000080 0d 92 d2 3d 01 cb cf 3c 23 ee 2d bd 1c 27 6b 3d
       0.10281763 0.025365354 -0.042463433 0.057410344
000090 ea 65 20 bb 99 b8 2c bc 71 44 23 bd 92 5d df bc
       -0.0024474808 -0.010542058 -0.039860193 -0.027266297
0000a0 cd 9c 9e be c5 37 4e bd d6 11 1a bc a6 fe 43 3c
       -0.30979005 -0.050346155 -0.0094036665 0.011962568
0000b0 93 3f 6a bd 83 92 25 3d 24 0a e0 3a d0 bb f9 bb
       -0.057189535 0.040422928 0.0017092866 -0.007621266
0000c0 01 0d d0 3c 71 71 f9 3b 89 f2 15 bb 44 b1 e9 3c
       0.025396826 0.0076124 -0.0022880158 0.02852691
0000d0 4d 12 60 be 5d 5a 07 bd 49 9e a0 3e 2d 8d b2 3b
       -0.21881981 -0.03304516 0.31370762 0.0054489584
0000e0 6a ba 28 bd f8 40 70 3c 09 de 57 3d 5f a9 2e 3e
       -0.041193403 0.014663927 0.052701984 0.17056797
0000f0 f3 e9 22 be 07 2c b3 3d 82 97 5d 3e ba 18 55 bd
       -0.15909557 0.08748632 0.21639827 -0.052025534
000100 22 64 23 3d 1b 09 6d be 51 70 3b bd 93 62 aa bd
       0.039890416 -0.23148005 -0.04576141 -0.08319583
000110 13 71 50 3d b8 50 41 3e 27 f0 08 be 47 5d 93 ba
       0.050889086 0.18878448 -0.13372861 -0.0011243009
000120 3b 94 b5 3b d8 e9 30 bb f4 d2 c0 bd a8 3e f5 3e
       0.005541352 -0.002699485 -0.09415236 0.47899365
000130 15 79 7f 3c fb a1 8c bc 17 60 67 3b 6d 13 94 3c
       0.015592833 -0.017167082 0.0035305077 0.01807567
000140 66 91 c6 3d 45 0a 17 3b 88 fd 8c 3e 68 8c 08 3e
       0.09695701 0.0023046893 0.2753718 0.1333481
000150 54 e9 18 3e 43 90 05 3e c3 13 45 bd da 03 0d bb
       0.14932758 0.13043313 -0.04811455 -0.0021517188
000160 12 32 21 3c 3a dd 22 be 80 8c b4 3e e7 6d 20 bc
       0.009838598 -0.15904704 0.35263443 -0.009791828
000170 e1 36 25 bb aa ce 78 3e ec 93 ac bd 7b 24 8c bd
       -0.0025209712 0.24297586 -0.08426651 -0.068428956
000180 8e 2f 18 3d ce 34 4c bc 65 e3 69 3e bf 9c 1f be
       0.037154727 -0.0124637615 0.2284065 -0.15587138
000190 25 e7 2a 3d 34 57 f3 bd d5 94 a4 bd 1e 9d 03 be
       0.041724343 -0.11881867 -0.080362 -0.12852904
0001a0 a2 c7 8a 3b 7c 50 a1 bd fc 21 1e 3d 4b b4 9e bd
       0.004235224 -0.07876679 0.03860663 -0.07749232
0001b0 9f 50 87 3d 51 b4 04 be aa 2a 8a bd a6 b7 1c be
       0.06607174 -0.1295941 -0.06746419 -0.15304431
0001c0 6b 00 83 3c be e0 49 3d b7 fe 99 3d 9c ef ff 3b
       0.01599141 0.049286596 0.07519286 0.007810546
0001d0 7c af 73 bc 5f a2 2a bd 2c e6 76 bc b9 e7 98 bc
       -0.014873382 -0.041658755 -0.015069526 -0.018665181
0001e0 09 f4 0b bf e7 e7 66 3b fe 48 3a 3e 6e 4b fc bc
       -0.54669243 0.003523344 0.18191907 -0.030797686
0001f0 75 3d 73 3c 78 bb 7f bd a4 03 37 bd 3e 58 86 3e
       0.0148461955 -0.062434644 -0.044681206 0.26239198
000200 73 e6 dd 3b 1f a7 59 3d ed af a0 bd 98 e3 72 bc
       0.0067718565 0.053137895 -0.07846055 -0.01482477
000210 ac e7 c5 3c 42 b1 4b 3c d6 47 16 3e 59 75 92 bc
       0.024158321 0.012432398 0.1467584 -0.017878221
000220 3b 62 3f 3d f1 fc 89 bb c9 ae d1 bb 17 ed 96 bb
       0.04672454 -0.004211061 -0.00639901 -0.0046059
000230 d5 b1 9b bb 00 f3 00 be 01 33 a2 bc b4 a8 d3 3c
       -0.004751424 -0.12592697 -0.019799711 0.02583728
000240 3a c1 45 bc 4c 3b 7c 3b b0 48 f6 bc 43 97 59 bc
       -0.012069995 0.0038487492 -0.030063957 -0.0132806925
000250 ff 23 48 3d ac a8 e4 ba 73 96 91 3d 1f 5b 16 bc
       0.048862454 -0.0017445288 0.07108774 -0.009176998
000260 97 9d 35 ba ef b3 61 bc 41 37 a6 3c 57 61 c5 bb
       -0.0006928085 -0.01377581 0.020290019 -0.0060235667
000270 59 3a ca 3a 2f 34 d0 bc c9 91 d5 bc 38 43 1f 3d
       0.0015428766 -0.025415508 -0.026070492 0.038882464
000280 ed bb a8 3d e0 5c d2 3c 93 b7 db bb d0 3c f9 3d
       0.08238969 0.025679052 -0.0067052334 0.12169802
000290 c1 b9 97 bb c3 ef 71 bb a0 b9 c1 bd c0 d3 bf bc
       -0.004630298 -0.003691659 -0.09459233 -0.0234164
0002a0 50 b0 07 be bf ab 91 3a 3a 0b 8d ba ba e2 04 3c
       -0.13250852 0.0011113806 -0.0010760792 0.008110696
0002b0 d2 95 1a 3c d8 70 98 3d 9a 7e 76 3b 12 99 86 3c
       0.009435134 0.07443398 0.0037612082 0.016430411
0002c0 50 e6 ee bc bb 0c 6e bd 88 09 c9 3b 5e 6b 6c 3d
       -0.029162556 -0.05811761 0.0061351694 0.05771958
0002d0 dd 19 58 3d 71 8e 5b 3b f1 85 8d 3e 80 fd 98 bc
       0.05275904 0.003350165 0.27641252 -0.018675566
0002e0 d2 50 ca bc f6 76 80 3b 54 e2 9d 3d c6 ca 30 3e
       -0.024696741 0.0039204312 0.07709184 0.17264852
0002f0 0a ee 02 3e fc 33 58 3c 08 a6 6d 3e 25 28 8c bc
       0.12786117 0.013195988 0.23207867 -0.017108986
000300 ef 92 aa bc c3 39 91 3d 42 11 0f 3b 88 5e 13 bd
       -0.020822017 0.07091095 0.0021830355 -0.035978824
000310 8c 83 b6 bb c9 9e 77 3d 82 d1 37 3d 65 23 8f 3a
       -0.005569881 0.060454164 0.044877537 0.0010920583
000320 07 9f 4e bb e5 00 32 3b 15 84 64 bd 11 90 8c 3e
       -0.0031527893 0.0027161178 -0.055790026 0.27453664
000330 9d d1 ff 3c 62 25 d8 bd 83 fe 77 37 3d d2 02 3c
       0.031227881 -0.10554005 1.4781605e-05 0.007984695
000340 78 49 27 3e b3 84 a8 39 63 9b 5a be 26 58 e2 bb
       0.1633662 0.00032142326 -0.21348338 -0.006907481
000350 5f 1f f6 3d fa 55 3d 3d 27 88 f0 bb d1 b5 ac bb
       0.12017702 0.04622457 -0.0073404494 -0.0052706976
000360 8d 92 dc bb a4 c7 ec 3d b4 d2 f9 3d 4a 6e 43 bc
       -0.0067313374 0.11561516 0.121983916 -0.01192815
000370 1d 9e 9a bb d2 e9 61 3d 0e 44 94 bd c3 60 f5 3b
       -0.0047185556 0.05515463 -0.07239543 0.0074883415
000380 3d cf 87 bc 23 f1 b5 bc 94 cf 3a bb d1 f1 3d bc
       -0.016578311 -0.02220971 -0.0028505074 -0.011593298
000390 b0 65 80 3d f2 1b 37 bc 0a bb c9 bc 40 01 52 bc
       0.06269395 -0.011176096 -0.02462532 -0.012817681
0003a0 2c bc b1 3b e5 60 a1 3b 2f cd 5d 3c aa 38 8e bd
       0.005424043 0.004924881 0.013537689 -0.069444016
0003b0 ea 3b 64 bc 65 26 c2 bd 08 63 50 bd d6 77 d2 3d
       -0.0139303 -0.094799794 -0.050875694 0.10276763
0003c0 79 f0 b1 3b 96 a3 40 3c b0 37 03 3e 27 c5 f6 39
       0.005430278 0.011757752 0.12814212 0.00047067666
0003d0 92 d4 a7 bc c2 6f 7c bb 9d 05 f2 3b bf ff 05 bc
       -0.020487104 -0.0038518761 0.007385923 -0.00817865
0003e0 84 dc 86 be cc 21 b7 3b fb db 6d 3e 94 e6 dd bc
       -0.26340115 0.0055887457 0.23228447 -0.027087487
0003f0 84 a9 50 3c 02 78 8a bc 35 94 1c bc dd ff 4d 3e
       0.012735728 -0.016902927 -0.00955682 0.20117135

gnn.gnn_layers.0.gat_conv.attn_r f4 [1, 6, 128]
000000 a9 b3 65 b9 36 ce 34 bb 04 7d 97 bc 7b 54 ae bb
       -0.0002190607 -0.0027588732 -0.01849223 -0.0053201295
000010 3c 40 25 3c ff e5 8f 3a db 5e d5 ba 45 ee 96 3b
       0.010086115 0.0010978578 -0.001627888 0.0046060407
000020 5c 42 7b 3b b5 f4 36 3c 1a 31 a9 3b 51 31 5d ba
       0.0038339114 0.011166741 0.005163324 -0.00084378297
000030 54 1b 33 3a 30 f3 68 bc f5 43 de bb 24 9b aa 38
       0.00068323803 -0.014218137 -0.0067830035 8.135129e-05
000040 8f 88 a0 ba 92 aa 52 38 ed 66 da bb cb 4a 2a bb
       -0.0012247729 5.0226758e-05 -0.0066651017 -0.0025984521
000050 06 4c c0 bc 00 29 b1 ba 56 ce 3a 3b 27 29 9a 3a
       -0.02347375 -0.0013516247 0.0028504333 0.0011761532
000060 1e bd a7 bb a8 b6 10 3d 55 41 34 bc e9 3d c8 ba
       -0.00511898 0.035330445 -0.0110019045 -0.001527724
000070 c2 29 fe 3a 8c 20 ee b9 8c 95 24 bd 23 c8 28 3c
       0.0019391107 -0.00045419147 -0.04018168 0.010301623
000080 2c 9f 5c 3c af dd 44 bc 78 df ba ba 47 07 80 3c
       0.013465684 -0.012015744 -0.0014257273 0.01562847
000090 7b 2b e3 ba 47 ec 0c bb ce 94 17 bc 95 fa 85 bc
       -0.0017331684 -0.0021503137 -0.009251786 -0.016354838
0000a0 c0 43 bc bb 34 2a 11 bb 6e 7a 30 3a b2 02 46 b8
       -0.005745381 -0.00221504 0.00067321106 -4.720939e-05
0000b0 8f ed 2b 3c e9 3d 0d bc 20 95 0d 3a 65 c0 30 bc
       0.01049365 -0.008620718 0.00054009445 -0.010788058
0000c0 b1 89 49 3b 41 7b c4 3c 91 89 85 3a 1c d9 16 3c
       0.0030752236 0.023984553 0.0010188093 0.009207036
0000d0 ff e0 40 bc 91 c1 de bb 72 c2 6c 3c c6 4e a6 3c
       -0.011772393 -0.0067979773 0.014450656 0.020301234
0000e0 28 67 0d 3a f5 13 8b 3a 92 90 c2 3a b9 b0 24 3c
       0.00053940946 0.0010610806 0.0014844111 0.0100519
0000f0 27 2d 70 bd d3 4f 43 3c 6c e2 4e 38 6f 81 81 ba
       -0.05863681 0.011920887 4.93251e-05 -0.0009880493
000100 9f 04 c1 bb 96 e1 12 bd f4 9a 80 3b 01 f1 18 bc
       -0.0058904435 -0.035859667 0.003924722 -0.009334804
000110 bb eb bd 3a 3c ec 70 3c f2 55 ad 3b d4 5f 81 b9
       0.0014489809 0.01470476 0.0052897865 -0.00024676195
000120 1c 7f 6e 3b 56 1d be b9 f0 76 5b 3c 89 b5 13 3d
       0.003639168 -0.0003626148 0.013395056 0.036061797
000130 5a 17 9b bb 19 16 65 3c 2b d8 2d ba f6 00 f6 bb
       -0.0047330083 0.013982319 -0.0006631638 -0.007507439
000140 6d b4 73 3d 86 f0 14 b9 9e dc 1d bd 75 f8 8c bb
       0.05949824 -0.00014203982 -0.038540475 -0.0043020793
000150 c2 0e a5 3c 13 b5 7e 3c 2b 51 cb bb 2e 38 3a bb
       0.020148639 0.015546101 -0.0062047443 -0.0028414833
000160 46 ce 1a bb 26 79 4f bd f9 65 8e bd aa c6 0b ba
       -0.0023621484 -0.050652646 -0.069530435 -0.00053320325
000170 3a 1d 64 ba 72 c6 93 3d 9f 3e cf bb aa 6a 20 bd
       -0.0008701865 0.07215585 -0.0063246037 -0.039164223
000180 a3 80 69 3d 90 7e 0b bb 3e c4 48 3c 45 53 3f bd
       0.057007443 -0.0021285154 0.012253819 -0.04671027
000190 7d 19 08 3c 51 6d f0 bd d7 ee 4a bb 3e b7 04 bc
       0.008306858 -0.117396004 -0.0030965114 -0.008100329
0001a0 91 74 e7 ba e3 6d f9 bb 4f 75 07 bc f8 38 2a 3a
       -0.0017658641 -0.0076119765 -0.008267715 0.00064934744
0001b0 1e 48 38 39 ad cc a8 ba 85 16 c0 bb 9a ee 30 bc
       0.00017574473 -0.0012878381 -0.0058620595 -0.010799075
0001c0 31 5d 06 bb 2e bb 4e 39 2a 7f cf 3b 70 3f 0d ba
       -0.0020502324 0.00019715421 0.006332298 -0.0005388176
0001d0 8f 72 ab bb 65 eb 17 3a 5e 37 c8 3a 85 74 ca ba
       -0.0052321623 0.00057952694 0.001527529 -0.0015446102
0001e0 c7 73 b6 bc f5 29 30 3a 28 dc 7e bc dc 6e e1 3c
       -0.022272004 0.0006720119 -0.015555419 0.027518682
0001f0 4c 9c 72 3a 0e 20 40 3c 2f c5 47 39 58 4f 95 bc
       0.00092548574 0.011726392 0.00019051576 -0.01822631
000200 51 21 23 3a d7 10 16 bc 66 ea 5c 3c 85 3a 7e bc
       0.0006222921 -0.009159288 0.013483619 -0.015516882
000210 8d 84 15 3c 4b 4a 12 3b 46 34 78 bc c7 3e 2e bb
       0.009125841 0.0022322114 -0.015149182 -0.0026587711
000220 ec 11 59 3d 78 7c 1d ba a2 3a 96 3b e0 d1 33 bb
       0.052995607 -0.0006007622 0.0045846263 -0.0027438328
000230 fc 57 15 bb a0 7f 20 bc e9 09 a7 ba 92 6e 5a 38
       -0.0022788038 -0.009796053 -0.0012744042 5.2078227e-05
000240 f2 de ce ba 83 1b 28 ba ce e8 ee bb 15 30 90 3b
       -0.0015782996 -0.0006412791 -0.007290936 0.004400263
000250 6e 94 22 bc 69 7e 0c bc 06 fe 0c bb 77 1f 9b 3c
       -0.009923084 -0.00857506 -0.0021513714 0.018935902
000260 da 2e b2 ba b3 70 95 3c 6d e3 b0 bc 5e 50 55 b8
       -0.0013594285 0.018242216 -0.02159282 -5.0858005e-05
000270 a6 55 ba b8 c6 aa c5 3a b9 b4 33 bd dd 1d d4 3c
       -8.8851244e-05 0.0015080802 -0.043873522 0.025893146
000280 91 f2 e9 ba 8f 6a 82 bb 5a 7a b9 3b 1d 9f 17 3d
       -0.001784878 -0.003979988 0.0056603374 0.037016977
000290 9f 39 ab ba c6 f9 a3 b9 fa ee b7 3a 0d e4 b6 3b
       -0.0013063437 -0.00031275878 0.0014033013 0.005581385
0002a0 9f 36 17 bc a4 39 53 bb a6 d0 89 3a 2e 22 5c 3a
       -0.009229331 -0.0032230401 0.0010514453 0.0008397427
0002b0 e0 1c 97 38 19 f8 c7 b9 f7 e5 07 3a 21 5e 84 3c
       7.2056195e-05 -0.00038141085 0.0005184109 0.016158165
0002c0 68 85 9f ba ae 97 60 3c f8 5f 52 ba 01 f0 07 3b
       -0.0012170495 0.013708038 -0.0008025165 0.0020742419
0002d0 86 5c 4a bb 01 b8 e3 3c 9d 7a 70 bc 08 15 00 3b
       -0.0030877902 0.0277977 -0.014677671 0.0019543786
0002e0 4a 0d 13 39 75 7c be 3a c7 97 6e bc 38 67 a3 bd
       0.00014023963 0.0014532941 -0.014562554 -0.07978672
0002f0 64 0e 2e 3c 82 2f 86 bb 77 db 29 bc 59 67 53 bb
       0.010623548 -0.004095019 -0.010367266 -0.0032257645
000300 7d e0 0f bc 6e 00 dd bb 46 5a 7f 3b b6 43 1d bb
       -0.0087815495 -0.006744436 0.003896372 -0.0023996658
000310 bb 3a 75 39 c2 60 7d bb e3 4f b5 bc b2 76 ab b9
       0.000233869 -0.0038662408 -0.02213282 -0.00032704097
000320 24 61 56 ba 06 ef 97 ba 4e eb d9 3c 53 3b 09 bd
       -0.0008177927 -0.001159162 0.02660146 -0.03350384
000330 cb e1 5c bb 2a da ce bc 53 0f 38 3a 52 b4 a3 3b
       -0.003370392 -0.025250513 0.00070213265 0.004995861
000340 76 2f 00 3c 29 01 8d 37 14 a7 c0 bd 05 04 81 bb
       0.007823816 1.680905e-05 -0.094068676 -0.0039372467
000350 ff a1 a1 bc 29 b0 28 bc 8b 51 71 bc d2 9b d4 3b
       -0.019730566 -0.010295906 -0.014728914 0.006488302
000360 0c 0d f8 b9 d2 3d 7f bd 94 6d 2c be 90 d4 7c 3b
       -0.00047311967 -0.062314816 -0.16838676 0.0038578846
000370 78 97 45 39 ff cc 16 bd 1b d6 21 bc b7 a9 56 bd
       0.0001884381 -0.036816593 -0.009877707 -0.052407946
000380 96 20 bb 3c de ca 38 3a f6 70 b0 bb 95 63 09 3c
       0.022842687 0.00070492725 -0.0053845597 0.008385559
000390 7e a6 63 3c c1 85 1b 3d 36 82 08 ba 87 1b 10 bb
       0.013894675 0.037969355 -0.0005207391 -0.0021989064
0003a0 08 51 d5 b9 97 0b 10 bc cb 60 26 3b 71 10 90 3b
       -0.000406869 -0.008791826 0.0025387283 0.004396491
0003b0 a7 cd a0 bb 43 5d 20 3d d2 13 93 3b a6 21 3f 3d
       -0.004907328 0.03915144 0.0044884467 0.04666295
0003c0 bc 38 9a 39 17 6f a6 3b 70 5e a3 bb ed c4 87 bb
       0.0002941544 0.005079161 -0.004985623 -0.0041433484
0003d0 06 37 9f 3b fe 78 c7 3b c7 90 47 3b bc 95 3f ba
       0.004858854 0.0060874214 0.0030451284 -0.0007308384
0003e0 1b e5 7b 3c 50 e8 10 b7 b4 33 05 3d fd fe 93 bb
       0.015374447 -8.637158e-06 0.03252001 -0.004516481
0003f0 f8 e7 6f 3a 7b 97 27 ba 30 a9 b6 b7 2e e7 3f 3c
       0.00091516925 -0.0006393117 -2.1774875e-05 0.011712832

gnn.gnn_layers.0.gat_conv.bias f4 [768]
000000 e0 08 cb 3a 8d 48 00 3c ec 95 8a 3c 07 46 41 3b
       0.0015490316 0.007829797 0.016917191 0.0029491202
000010 39 f7 fc 3c 42 35 ff bb 72 c3 f0 3c 6b 58 cc 39
       0.030879604 -0.0077883312 0.02939007 0.0003897579
000020 4b 36 7d 3d 19 7f 82 bc b3 f5 8e bc fe c7 6a 3b
       0.061819356 -0.015929746 -0.017451143 0.003582477
000030 f2 db 79 3b 01 8e 14 bc e5 66 d7 3c 82 92 29 3c
       0.0038125482 -0.0090670595 0.026294181 0.010349872
000040 ba c0 a0 bb d2 ac bd 3a 0a 8e 78 3b 1e 6a 86 3d
       -0.0049057873 0.001447106 0.0037926459 0.06563209
000050 a5 3c 0a 3d d1 0e 8e 3d 6d ae 3b bb 37 04 3f bd
       0.03374924 0.0693642 -0.0028637901 -0.04663488
000060 df 02 34 3c c9 77 23 be 62 5e c2 3c d6 e0 86 bc
       0.010987013 -0.15963663 0.023726646 -0.016464632
000070 18 78 c4 bb f9 27 5e bc 82 29 95 3d 2d c9 b5 bb
       -0.0059957616 -0.013559335 0.072833076 -0.0055476637
000080 9e 4f 05 3d 1f 8a 1d 3c 46 31 06 3c 95 f8 22 bd
       0.032546632 0.00961545 0.008190459 -0.039787848
000090 b1 ee 0a 3c d0 e5 1d b9 c1 5d 28 3c 19 40 bd 3c
       0.00847976 -0.00015058299 0.010276259 0.023101853
0000a0 78 ba b5 bb 3e 2c 5f 3c 85 bb f6 ba a5 f8 57 ba
       -0.0055459104 0.013621388 -0.0018824196 -0.000823865
0000b0 35 b8 06 bd 91 4a 01 3d a6 6b 3d bb e0 0a a8 3d
       -0.032890517 0.031565253 -0.0028903275 0.08205199
0000c0 81 ce 69 bc 6a fe d8 bd 66 2c 13 bb 3d fc 8a 3d
       -0.014270426 -0.10595401 -0.0022456883 0.06786392
0000d0 ec 4e 10 bd e3 2e 1d 3d 53 bb 44 3e b8 c2 30 bc
       -0.035231516 0.038374793 0.19212084 -0.010788612
0000e0 46 4f 82 bc f4 23 13 bb cd 37 00 3d 91 ef 3c be
       -0.015906941 -0.002245185 0.031303216 -0.18450762
0000f0 e8 a7 88 3d 44 c9 71 bc c7 ff f9 3d 8c 51 e2 3c
       0.066726506 -0.014757458 0.12206989 0.027626775
000100 32 2d 53 bd 91 0e 15 3e b1 99 cd bb 69 b3 24 3c
       -0.051556773 0.14556338 -0.006274425 0.01005254
000110 09 50 37 bd 38 25 d1 bd 79 7e d8 3d 13 dc f4 39
       -0.04475406 -0.10212177 0.10570998 0.00046703275
000120 a7 b6 d7 bb f0 28 43 3b 5a e9 25 3d 51 ff 99 be
       -0.006583053 0.002977904 0.040505745 -0.30077603
000130 6d e9 12 3b 87 04 f3 bd 02 8a 7f ba c4 ef 75 3d
       0.0022416965 -0.11866098 -0.0009748043 0.06004311
000140 14 07 21 be e2 97 c8 ba 78 42 0f 3d 0a a8 09 be
       -0.15725356 -0.0015304054 0.0349755 -0.13443008
000150 94 cb 7b be 4a 2e 36 bd 30 f6 1a 3c 2a 75 94 bb
       -0.24589378 -0.04447774 0.00945811 -0.0045305686
000160 32 f3 2a 3b 82 88 cd 3d 8d f0 91 be d7 87 3f bc
       0.0026084897 0.100358024 -0.28503838 -0.011690102
000170 0f a0 47 39 78 a2 f7 bc 3e f6 30 3b 44 58 a3 3d
       0.00019037745 -0.030228838 0.002700224 0.0797582
000180 d6 19 ad be ef a4 5a 3c d7 37 7d bd 51 e8 06 3e
       -0.33808774 0.013344987 -0.06182083 0.13174559
000190 46 84 81 bd 56 b4 4a 3e 18 21 9f 3b 79 0e 90 3b
       -0.06324057 0.19795355 0.00485624 0.0043962565
0001a0 4c c2 53 3b ec 80 28 3d 89 77 46 ba cb cd cd 3b
       0.0032311855 0.041138574 -0.0007570913 0.006280636
0001b0 02 0f 0a bc 1b 75 7c 3d 95 5c 08 3c d5 5a 70 3d
       -0.00842643 0.061635118 0.0083228545 0.058680374
0001c0 1f d7 9e bc 02 5c ce 39 b1 73 17 bd d3 27 84 3b
       -0.019389687 0.00039359933 -0.036975566 0.0040330677
0001d0 72 34 e9 3c 1b 60 1f 3c 45 42 ab ba 3d 82 a8 bb
       0.02846739 0.009727503 -0.0013066015 -0.0051424787
0001e0 15 4d 8c bb 3e 45 aa 3a d9 91 51 3e 19 70 eb bd
       -0.00428165 0.0012990606 0.20465793 -0.1149599
0001f0 1c 35 02 bb ee 12 e1 3c 46 a4 e9 3b ec 6e 93 3e
       -0.0019868081 0.027474847 0.0071301786 0.28795564
000200 e0 08 cb 3a 8d 48 00 3c ec 95 8a 3c 07 46 41 3b
       0.0015490316 0.007829797 0.016917191 0.0029491202
000210 39 f7 fc 3c 42 35 ff bb 72 c3 f0 3c 6b 58 cc 39
       0.030879604 -0.0077883312 0.02939007 0.0003897579
000220 4b 36 7d 3d 19 7f 82 bc b3 f5 8e bc fe c7 6a 3b
       0.061819356 -0.015929746 -0.017451143 0.003582477
000230 f2 db 79 3b 01 8e 14 bc e5 66 d7 3c 82 92 29 3c
       0.0038125482 -0.0090670595 0.026294181 0.010349872
000240 ba c0 a0 bb d2 ac bd 3a 0a 8e 78 3b 1e 6a 86 3d
       -0.0049057873 0.001447106 0.0037926459 0.06563209
000250 a5 3c 0a 3d d1 0e 8e 3d 6d ae 3b bb 37 04 3f bd
       0.03374924 0.0693642 -0.0028637901 -0.04663488
000260 df 02 34 3c c9 77 23 be 62 5e c2 3c d6 e0 86 bc
       0.010987013 -0.15963663 0.023726646 -0.016464632
000270 18 78 c4 bb f9 27 5e bc 82 29 95 3d 2d c9 b5 bb
       -0.0059957616 -0.013559335 0.072833076 -0.0055476637
000280 9e 4f 05 3d 1f 8a 1d 3c 46 31 06 3c 95 f8 22 bd
       0.032546632 0.00961545 0.008190459 -0.039787848
000290 b1 ee 0a 3c d0 e5 1d b9 c1 5d 28 3c 19 40 bd 3c
       0.00847976 -0.00015058299 0.010276259 0.023101853
0002a0 78 ba b5 bb 3e 2c 5f 3c 85 bb f6 ba a5 f8 57 ba
       -0.0055459104 0.013621388 -0.0018824196 -0.000823865
0002b0 35 b8 06 bd 91 4a 01 3d a6 6b 3d bb e0 0a a8 3d
       -0.032890517 0.031565253 -0.0028903275 0.08205199
0002c0 81 ce 69 bc 6a fe d8 bd 66 2c 13 bb 3d fc 8a 3d
       -0.014270426 -0.10595401 -0.0022456883 0.06786392
0002d0 ec 4e 10 bd e3 2e 1d 3d 53 bb 44 3e b8 c2 30 bc
       -0.035231516 0.038374793 0.19212084 -0.010788612
0002e0 46 4f 82 bc f4 23 13 bb cd 37 00 3d 91 ef 3c be
       -0.015906941 -0.002245185 0.031303216 -0.18450762
0002f0 e8 a7 88 3d 44 c9 71 bc c7 ff f9 3d 8c 51 e2 3c
       0.066726506 -0.014757458 0.12206989 0.027626775
000300 32 2d 53 bd 91 0e 15 3e b1 99 cd bb 69 b3 24 3c
       -0.051556773 0.14556338 -0.006274425 0.01005254
000310 09 50 37 bd 38 25 d1 bd 79 7e d8 3d 13 dc f4 39
       -0.04475406 -0.10212177 0.10570998 0.00046703275
000320 a7 b6 d7 bb f0 28 43 3b 5a e9 25 3d 51 ff 99 be
       -0.006583053 0.002977904 0.040505745 -0.30077603
000330 6d e9 12 3b 87 04 f3 bd 02 8a 7f ba c4 ef 75 3d
       0.0022416965 -0.11866098 -0.0009748043 0.06004311
000340 14 07 21 be e2 97 c8 ba 78 42 0f 3d 0a a8 09 be
       -0.15725356 -0.0015304054 0.0349755 -0.13443008
000350 94 cb 7b be 4a 2e 36 bd 30 f6 1a 3c 2a 75 94 bb
       -0.24589378 -0.04447774 0.00945811 -0.0045305686
000360 32 f3 2a 3b 82 88 cd 3d 8d f0 91 be d7 87 3f bc
       0.0026084897 0.100358024 -0.28503838 -0.011690102
000370 0f a0 47 39 78 a2 f7 bc 3e f6 30 3b 44 58 a3 3d
       0.00019037745 -0.030228838 0.002700224 0.0797582
000380 d6 19 ad be ef a4 5a 3c d7 37 7d bd 51 e8 06 3e
       -0.33808774 0.013344987 -0.06182083 0.13174559
000390 46 84 81 bd 56 b4 4a 3e 18 21 9f 3b 79 0e 90 3b
       -0.06324057 0.19795355 0.00485624 0.0043962565
0003a0 4c c2 53 3b ec 80 28 3d 89 77 46 ba cb cd cd 3b
       0.0032311855 0.041138574 -0.0007570913 0.006280636
0003b0 02 0f 0a bc 1b 75 7c 3d 95 5c 08 3c d5 5a 70 3d
       -0.00842643 0.061635118 0.0083228545 0.058680374
0003c0 1f d7 9e bc 02 5c ce 39 b1 73 17 bd d3 27 84 3b
       -0.019389687 0.00039359933 -0.036975566 0.0040330677
0003d0 72 34 e9 3c 1b 60 1f 3c 45 42 ab ba 3d 82 a8 bb
       0.02846739 0.009727503 -0.0013066015 -0.0051424787
0003e0 15 4d 8c bb 3e 45 aa 3a d9 91 51 3e 19 70 eb bd
       -0.00428165 0.0012990606 0.20465793 -0.1149599
0003f0 1c 35 02 bb ee 12 e1 3c 46 a4 e9 3b ec 6e 93 3e
       -0.0019868081 0.027474847 0.0071301786 0.28795564

gnn.gnn_layers.0.gat_conv.fc.weight f4 [768, 74]
000000 96 10 4d 3b 46 0a 58 3b 0e eb 31 3b 37 4a 1e b9
       0.0031290404 0.0032965108 0.002714816 -0.00015095701
000010 c5 14 17 3b d0 ca f1 38 a8 a4 b2 b9 a9 55 bc 39
       0.002305315 0.00011529552 -0.00034073484 0.00035921976
000020 1d 77 1b 38 9b 44 e9 16 92 fc 38 96 96 b6 df 96
       3.7065813e-05 3.7686476e-25 -1.4943099e-25 -3.614282e-25
000030 5f 41 a5 96 2c 90 0a 15 8a 03 92 96 43 50 d2 b6
       -2.6698443e-25 2.798261e-26 -2.3589806e-25 -6.2678314e-06
000040 d4 c4 20 96 eb 20 ee 16 a3 39 cf 96 71 bf ed 16
       -1.2986805e-25 3.8471748e-25 -3.3479028e-25 3.8410232e-25
000050 6d 32 2d 15 fd 6d c4 96 84 56 0c 16 7b e0 78 96
       3.497685e-26 -3.173492e-25 1.133641e-25 -2.0104114e-25
000060 4e 96 8e 96 3d 39 a3 96 6e a1 9d 15 b1 38 6d 96
       -2.3036193e-25 -2.6370193e-25 6.3666486e-26 -1.9162596e-25
000070 6e c2 b7 96 70 68 96 b8 75 c8 c2 16 c8 a0 ed 16
       -2.9687947e-25 -7.1720104e-05 3.1468897e-25 3.8390882e-25
000080 9f 81 bb 96 5e 25 73 96 da b7 51 97 f7 f5 e3 96
       -3.0293282e-25 -1.9641175e-25 -6.7763595e-25 -3.6829054e-25
000090 16 e4 dd 16 b3 d8 c2 96 cf 94 c6 16 03 c9 b1 96
       3.5848418e-25 -3.1479147e-25 3.2082537e-25 -2.8722748e-25
0000a0 d4 93 23 96 1d 21 a5 16 de 09 9f 96 c1 18 f4 95
       -1.3213681e-25 2.6678085e-25 -2.5694062e-25 -9.858987e-26
0000b0 8b ac 9f 3b 8c d5 ff 39 2b 0d c0 3b ab 0a c2 ba
       0.0048728636 0.00048796495 0.0058609447 -0.0014804205
0000c0 ed 4a 04 97 56 bb 2c 39 b1 f2 f4 14 a7 2a ea 95
       -4.274607e-25 0.00016472986 2.4733429e-26 -9.457914e-26
0000d0 12 0b b5 96 92 ce a9 16 63 b4 42 3b 5f 07 3b bc
       -2.9249113e-25 2.7433787e-25 0.002970957 -0.011415332
0000e0 51 40 56 3b b9 ce 6f b9 4d 98 91 96 2c 55 b8 16
       0.0032692144 -0.00022869826 -2.3522129e-25 2.9780554e-25
0000f0 3a ab f6 16 c4 b2 5e 3a af 30 03 17 6e 45 b9 b9
       3.9851503e-25 0.0008495266 4.238983e-25 -0.0003533768
000100 57 d3 04 3b 86 56 8e 3b 3a 6f ab 96 2c 43 df 38
       0.002026757 0.0043438105 -2.7696734e-25 0.000106459804
000110 df f7 09 3b 8b 38 8f 3b 2b b1 28 bb 45 2f 60 3b
       0.0021052284 0.004370754 -0.0025740366 0.0034207862
000120 95 d0 51 3a 36 26 c5 96 8b 77 1d 3c c8 83 c2 3d
       0.00080037984 -3.185118e-25 0.009611021 0.094977915
000130 52 fd 97 bc c1 3c c2 bc ca a8 23 bd 7f fa 5b 3b
       -0.01855341 -0.02371061 -0.03995589 0.0033566055
000140 1f e5 8a bd e7 cc 9e 3b 99 d0 27 bb 4d 24 2f 16
       -0.06781983 0.0048462036 -0.0025606512 1.4147842e-25
000150 0c b3 85 96 af 35 2c 17 76 af 20 16 47 f0 ef 95
       -2.1600303e-25 5.5643956e-25 1.2980063e-25 -9.691042e-26
000160 1b b4 bd 16 21 31 cb 3a 63 fe 69 96 1c 57 a7 96
       3.064826e-25 0.0015502312 -1.890186e-25 -2.703528e-25
000170 2a fe b6 96 f3 f1 cf 15 c3 89 da 96 50 6f d2 16
       -2.9564086e-25 8.398836e-26 -3.530674e-25 3.3997578e-25
000180 44 9a be 96 74 17 c9 16 46 a8 99 95 89 db d9 96
       -3.079351e-25 3.2488102e-25 -6.2061697e-26 -3.5196787e-25
000190 02 22 21 97 b7 c4 f1 96 4d e5 88 96 db 97 c9 36
       -5.206483e-25 -3.9059794e-25 -2.2116694e-25 6.007945e-06
0001a0 48 b0 c0 95 07 34 cb 96 08 6e 3d 96 b5 ec 9a 96
       -7.7826305e-26 -3.2829253e-25 -1.5302018e-25 -2.5029425e-25
0001b0 50 46 b6 96 f1 18 82 94 ba c6 a6 15 b0 6c 31 96
       -2.944806e-25 -1.3136483e-26 6.73604e-26 -1.4332242e-25
0001c0 68 44 96 15 34 9f c8 16 a2 cd b4 16 d2 d9 00 97
       6.0692444e-26 3.2412214e-25 2.921034e-25 -4.163396e-25
0001d0 26 06 6f 95 a0 b6 a4 16 f7 c3 b0 bd 4c c8 73 bc
       -4.8270516e-26 2.6610882e-25 -0.08631127 -0.014879297
0001e0 a6 e0 0c 3e 52 a1 a9 bd e9 04 0c 97 73 0e 3f 3a
       0.13757572 -0.082827225 -4.5242637e-25 0.0007288225
0001f0 12 d8 8e 16 ee 68 ca 96 0b 79 a6 16 42 77 9a 96
       2.3077697e-25 -3.270108e-25 2.6895135e-25 -2.4955304e-25
000200 9a b7 cb bc 2d d8 f9 bd ab 5b 3f 3d 90 9e ae bb
       -0.024867821 -0.121994354 0.04671828 -0.0053289607
000210 b0 a8 a5 96 1a 53 43 16 c9 e8 af 15 92 0f 10 bd
       -2.6763644e-25 1.5778197e-25 7.104921e-26 -0.0351711
000220 c4 e5 27 97 bc 3c 0a 3a 10 75 97 3c b4 2e 18 bd
       -5.4250615e-25 0.00052733324 0.018488437 -0.037153915
000230 69 03 5d 96 71 48 be b9 18 d4 c2 3c ac c1 34 3b
       -1.7853314e-25 -0.00036293597 0.023782775 0.0027581258
000240 56 6a 79 bd 85 d2 64 3d cb 4d 19 b9 8c 45 be 96
       -0.060892425 0.05586483 -0.00014620197 -3.0740046e-25
000250 95 9a 87 3c f6 84 0c be f8 21 33 bd 95 d6 1e bb
       0.016553203 -0.13722596 -0.043733567 -0.0024236788
000260 bd d3 d6 3c a9 71 8c bb be 88 85 3b 49 1d 8f bd
       0.026224012 -0.0042860103 0.004075139 -0.069880076
000270 52 3f 8c 3b 8f 2d 32 97 61 6a 72 16 49 9a ed 96
       0.0042800093 -5.7572405e-25 1.9582172e-25 -3.8386783e-25
000280 32 33 0e 96 0e 45 ba 16 d8 02 79 16 57 54 91 3b
       -1.1486823e-25 3.00935e-25 2.0114957e-25 0.004435103
000290 24 cd 37 97 f6 26 c5 16 b5 86 12 97 2a 08 b5 96
       -5.9389413e-25 3.1851654e-25 -4.734517e-25 -2.924728e-25
0002a0 e7 47 cb 16 41 e6 d2 15 35 d0 f3 96 35 b4 0a 16
       3.2841796e-25 8.51816e-26 -3.9390164e-25 1.1204415e-25
0002b0 a4 19 0f 97 80 66 24 96 65 f4 54 96 c4 8e 4b 16
       -4.6238155e-25 -1.3280158e-25 -1.7202341e-25 1.6443258e-25
0002c0 f0 9c cd 96 d8 1c c4 ba f9 9c 3c 96 4f 37 b1 96
       -3.3218578e-25 -0.0014962209 -1.5236051e-25 -2.8630797e-25
0002d0 84 af 15 17 4f cf 10 17 29 31 82 15 7f 8d 53 16
       4.836603e-25 4.679057e-25 5.258414e-26 1.7089093e-25
0002e0 86 a8 be 95 df e0 bf 16 dc 93 d4 96 47 f9 18 96
       -7.700627e-26 3.0999628e-25 -3.434376e-25 -1.235712e-25
0002f0 0c f6 c7 16 54 ec 13 17 31 fd af 92 2b b3 6e 96
       3.2305461e-25 4.779655e-25 -1.1106469e-27 -1.9282022e-25
000300 0d 75 7c 3d f2 b3 b4 3d a6 fa 92 be 3b 54 77 3d
       0.061635066 0.08823384 -0.28706855 0.060383063
000310 c4 2b ae 96 ef db b8 ba ca 52 5d 16 73 f8 8f 16
       -2.8138836e-25 -0.0014103631 1.7878361e-25 2.325969e-25
000320 f3 65 e9 15 c4 33 b8 96 77 4a 8d bc 17 43 fe 3e
       9.42688e-26 -2.9759472e-25 -0.017247422 0.4966056
000330 3a f5 1e be a1 95 4a 3d ef ff fb 16 de fc d6 16
       -0.15523234 0.049459103 4.0712754e-25 3.4733146e-25
000340 6d 69 e6 96 1e e1 fc 3d 85 eb ac 96 3e 02 5e bd
       -3.7225037e-25 0.12347625 -2.7936732e-25 -0.054201357
000350 0f 72 82 3d 33 73 82 bd f9 76 92 96 a9 79 82 bb
       0.06369411 -0.06369629 -2.3662654e-25 -0.003981788
000360 25 bf 13 3d ea 23 45 bd 0b 78 70 3e 14 c3 0e be
       0.03607096 -0.048129953 0.23483293 -0.13941604
000370 3c 8f 7d 3c af 77 c7 96 8d e8 4a 3b 54 3e b3 bc
       0.015476044 -3.2225715e-25 0.0030961365 -0.021880306
000380 7b 08 38 bc fe fd 0a 39 83 7a 08 3b ae fa be bb
       -0.011232491 0.00013255325 0.0020824976 -0.005828223
000390 da 67 9b 3d 5b 4c f0 ba 99 4b c6 ba 74 9a 84 16
       0.075881675 -0.0018333303 -0.0015128731 2.1423224e-25
0003a0 36 01 af 95 aa bf c4 16 c2 85 02 17 a8 1a 04 96
       -7.068385e-26 3.1786465e-25 4.217409e-25 -1.0671286e-25
0003b0 fc 09 8d 16 1f 52 dd 39 2b fe 25 17 23 69 68 15
       2.278608e-25 0.0004221359 5.363518e-25 4.6934965e-26
0003c0 38 1a 11 96 5d 8a e9 96 8c 27 09 14 ac ef 2a 17
       -1.172128e-25 -3.77305e-25 6.924532e-27 5.523247e-25
0003d0 bf 00 b6 16 25 45 b1 94 26 87 a2 96 4b cc 6b 17
       2.9404157e-25 -1.7899705e-26 -2.6257802e-25 7.619045e-25
0003e0 0f 77 03 16 da c0 a3 16 61 39 56 16 86 b5 df b7
       1.0619664e-25 2.6455777e-25 1.7304888e-25 -2.66682e-05
0003f0 58 cb 89 16 9c 15 d3 96 b4 d0 ce 96 09 03 94 96
       2.2261872e-25 -3.4102526e-25 -3.3412805e-25 -2.3912605e-25

gnn.gnn_layers.0.gat_conv.res_fc.weight f4 [768, 74]
000000 49 cd 0b 3b ea c6 e6 3a 3e b2 d6 3b 02 16 34 ba
       0.0021332076 0.0017606888 0.00655201 -0.00068697345
000010 8a a5 33 3b e6 57 9a 36 86 56 93 bb 16 cb 8d 3a
       0.0027411901 4.5997904e-06 -0.0044963984 0.0010817971
000020 26 8b 2e b9 ba 96 17 17 03 51 a3 96 3c 66 e6 95
       -0.0001664577 4.8980975e-25 -2.6385196e-25 -9.305756e-26
000030 99 cc 22 97 87 44 dc 96 18 d5 bc 16 71 cb 29 b7
       -5.260326e-25 -3.5586164e-25 3.050752e-25 -1.0120552e-05
000040 eb 90 45 14 d2 11 fe 16 88 72 42 95 49 91 89 16
       9.974538e-27 4.104716e-25 -3.9268337e-26 2.2225232e-25
000050 65 cf ab 16 6c c9 c9 93 9a 70 b5 96 29 33 56 96
       2.7757424e-25 -5.093815e-27 -2.9313189e-25 -1.7302926e-25
000060 d2 2f c4 96 27 8a b7 16 86 69 d9 16 5b e9 02 96
       -3.1695687e-25 2.965243e-25 3.5124835e-25 -1.057495e-25
000070 09 5d a1 16 dd ac 4b 38 2d 83 a1 16 29 26 98 16
       2.6069666e-25 4.8559963e-05 2.6093736e-25 2.4581007e-25
000080 78 d9 fd 96 4d 72 31 95 d1 d9 53 16 a0 42 f6 96
       -4.1011597e-25 -3.5835033e-26 1.7113175e-25 -3.978549e-25
000090 a1 e3 03 16 05 ee c5 16 eb ed 1c 17 9a d5 b3 96
       1.0653923e-25 3.1977278e-25 5.0706613e-25 -2.9053811e-25
0000a0 1b ac a2 16 c9 d1 96 96 3c a2 05 94 54 0b e6 96
       2.6281125e-25 -2.43662e-25 -6.746779e-27 -3.7165653e-25
0000b0 35 3f d1 3b 26 79 ba b9 9e eb db 3b 2b 5f c4 3a
       0.0063857087 -0.00035566947 0.0067114374 0.0014981976
0000c0 d2 66 a4 95 54 3e 00 38 76 3f ce 15 0f 81 ae 16
       -6.6401294e-26 3.0575626e-05 8.330286e-26 2.8192664e-25
0000d0 4e 30 fd 95 18 09 c5 96 b8 fa d0 3b 14 cc 67 bc
       -1.022621e-25 -3.1832806e-25 0.0063775443 -0.014147777
0000e0 43 49 15 3b 4b ce b8 b9 62 51 7a 96 44 61 7a 96
       0.0022779263 -0.00035248915 -2.0220519e-25 -2.0225531e-25
0000f0 a7 ac 67 96 3e 3f 29 bb 2b c8 2b 16 4e f9 57 38
       -1.8714511e-25 -0.0025825049 1.3876432e-25 5.1492178e-05
000100 fe e2 14 3b 08 37 7d 3b fb 03 19 97 c0 11 64 b8
       0.0022718306 0.0038637538 -4.944199e-25 -5.4375967e-05
000110 71 03 e8 ba 12 b1 14 3c b5 10 b8 bb 8e 43 08 3b
       -0.0017701221 0.00907542 -0.005617226 0.002079222
000120 b6 27 3a 3a 38 65 73 96 5a a7 d4 3c 54 e1 93 3d
       0.00071012543 -1.9661323e-25 0.025958706 0.07220712
000130 04 7f 57 3b 51 e3 ad bc da 16 3c bd 5a c4 a8 b8
       0.0032882104 -0.021226557 -0.04592023 -8.0474376e-05
000140 4c 06 6a bd 41 0f ad 3c f9 df ad bb 83 bb 9c 16
       -0.05713491 0.021125438 -0.0053062406 2.5321496e-25
000150 17 81 b6 96 bd 92 58 96 eb ec c4 96 fe 0d 6e 16
       -2.9485153e-25 -1.7494643e-25 -3.1815024e-25 1.9229902e-25
000160 94 2c ed 96 97 38 21 39 4d 3b e8 16 1c ee 16 96
       -3.8317548e-25 0.00015375238 3.7519046e-25 -1.2192038e-25
000170 41 a0 e4 15 36 0d 9b 16 53 8f 67 16 ab 5e 8e 96
       9.23413e-26 2.5049938e-25 1.8705257e-25 -2.300108e-25
000180 1f 04 f3 16 59 fa da 96 69 dd 0e 96 e2 48 ca 96
       3.9261368e-25 -3.537779e-25 -1.1540533e-25 -3.2680856e-25
000190 8d 10 64 16 7b 60 12 16 11 bc d1 16 3a 64 1e 3a
       1.8422916e-25 1.182423e-25 3.3884458e-25 0.00060421566
0001a0 38 1a 01 97 59 eb 31 95 9c 24 db 15 67 73 ba 16
       -4.171524e-25 -3.5930522e-26 8.8511155e-26 3.012275e-25
0001b0 1b 5e 76 95 0f d6 b7 16 c9 cf b2 96 24 ad ef 16
       -4.975354e-26 2.9700335e-25 -2.8888582e-25 3.87218e-25
0001c0 2e 0e be 14 f9 d2 02 97 95 f2 c0 16 6c 36 c8 16
       1.919069e-26 -4.227155e-25 3.1172364e-25 3.2346088e-25
0001d0 79 7e 90 16 d7 83 9b 16 73 42 87 bd 1d bc 4a bc
       2.334427e-25 2.5124803e-25 -0.06604471 -0.012373951
0001e0 57 3f 17 3e 4f 64 8e bc be 85 14 96 2f 97 93 b9
       0.14770256 -0.017381815 -1.1997546e-25 -0.00028150665
0001f0 f8 3b b3 14 1b de ba 16 43 b6 1a 17 df 09 61 96
       1.8098035e-26 3.019009e-25 4.999013e-25 -1.817847e-25
000200 0b 93 10 3c fa 60 e2 bd 53 5e 26 3d 99 56 4c 3b
       0.00882412 -0.11053653 0.0406173 0.0031179546
000210 c7 b5 bb 15 b9 ed 2c 16 dd 76 57 96 57 b9 bd bc
       7.581549e-26 1.3969061e-25 -1.7405068e-25 -0.023159666
000220 ac f6 c2 16 52 6d 08 3c 12 3d c9 3c 58 68 a5 bb
       3.1498062e-25 0.008326845 0.024565253 -0.005047839
000230 5c 67 81 16 82 c0 0e b7 3e 18 8b 3c 23 97 2a 3d
       2.0906303e-25 -8.508681e-06 0.016979333 0.04164804
000240 ec d8 6f bd 6d 77 19 3d d5 8b cd 3c 7e b6 ea 15
       -0.058556482 0.03746741 0.025091091 9.479977e-26
000250 d4 65 00 3d 6e 7c 2e bd 71 95 14 be ae d2 3d 3d
       0.03134711 -0.042599134 -0.14510132 0.046343498
000260 95 e6 ff bc da e1 60 bc 9b 62 65 3d c3 1b 9f bd
       -0.03123788 -0.013725722 0.05600224 -0.07768967
000270 4c 3d f8 3a bb 49 ef 16 d0 5d bd 96 fd 02 93 16
       0.0018939166 3.8659063e-25 -3.05938e-25 2.3751017e-25
000280 c8 cf c6 16 d7 62 a2 96 ce d9 14 15 67 6e 45 3b
       3.2119754e-25 -2.6234888e-25 3.006018e-26 0.003012562
000290 de 80 a2 16 8a 20 a4 96 ad 94 c0 16 aa 4c b7 16
       2.6253838e-25 -2.6516164e-25 3.11131e-25 2.9613626e-25
0002a0 9a e2 93 95 3e 88 07 14 5a 23 54 95 2b 04 ac 96
       -5.973034e-26 6.842627e-27 -4.2840947e-26 -2.779073e-25
0002b0 3c a6 23 17 44 01 32 16 ed fc eb 96 27 6c c4 16
       5.287796e-25 1.4379125e-25 -3.8125916e-25 3.1733762e-25
0002c0 a6 cf b6 16 11 d4 b0 ba ca bf ff 15 3d 2a db 15
       2.953473e-25 -0.0013490935 1.0329627e-25 8.8520036e-26
0002d0 83 a8 82 94 59 03 c7 16 7e a8 26 15 17 a2 03 95
       -1.3193112e-26 3.2152297e-25 3.365635e-26 -2.6583106e-26
0002e0 5e 1f a1 16 28 c0 04 97 23 0e b2 96 5e 76 b0 16
       2.6030748e-25 -4.2894036e-25 -2.8766373e-25 2.8509034e-25
0002f0 a9 01 c9 16 fe ff b2 16 20 42 68 96 c7 d8 c0 16
       3.247435e-25 2.8919005e-25 -1.8761676e-25 3.1156079e-25
000300 46 65 ba bd 2f b9 dc 3d 7f c5 88 be 16 4b 44 bd
       -0.091013476 0.107775085 -0.26713178 -0.04792317
000310 c1 56 90 15 c1 da 1b bb ff ac 9f 16 f5 93 66 96
       5.829801e-26 -0.002378151 2.5797011e-25 -1.8625939e-25
000320 23 16 93 15 31 5f 09 13 f2 f1 df bd b3 b2 15 3f
       5.940775e-26 1.7338764e-27 -0.10934819 0.584758
000330 dc de ee bd d7 3f 5d 3d c7 b3 b5 96 2c 36 b3 16
       -0.11663601 0.05401596 -2.9355583e-25 2.8953197e-25
000340 2f ae 24 97 d5 5e 1d 3e bd ab c0 96 d6 b0 7e bd
       -5.321111e-25 0.15368207 -3.1127655e-25 -0.062180363
000350 03 ec 62 3d 13 7b a4 bd 24 31 20 97 c4 cf 6e bb
       0.05540086 -0.08031287 -5.1760812e-25 -0.0036439756
000360 04 08 42 3e 42 12 5a be f9 82 a1 3e 1b c9 d8 bd
       0.1894837 -0.21296027 0.31545237 -0.10585233
000370 29 14 83 bb 04 7a f4 94 df 28 24 3c 52 b5 25 3a
       -0.004000206 -2.468583e-26 0.01001951 0.00063212693
000380 10 23 e2 bc 0a a1 d0 3b 14 88 3b bc ae 27 d8 3a
       -0.02760461 0.0063668536 -0.011446018 0.0016491318
000390 be 1e 6f 3d 83 b0 14 bc 91 be 14 b9 8b 63 79 16
       0.058378927 -0.009075287 -0.00014185371 2.014547e-25
0003a0 f3 13 1b 96 99 55 f0 96 88 4e 49 14 9d 15 91 96
       -1.2527095e-25 -3.882811e-25 1.0163394e-26 -2.3439653e-25
0003b0 96 43 0a 16 9e f1 c2 39 8e 55 8c 96 55 77 7a 16
       1.1168878e-25 0.00037182582 -2.2672212e-25 2.0232494e-25
0003c0 be 54 7d 16 71 6a bf 95 5a bd bd 96 15 94 c7 16
       2.0463917e-25 -7.731222e-26 -3.0654094e-25 3.2243637e-25
0003d0 f1 ec c4 96 3b a0 af 16 31 c9 09 17 ae 2a c6 96
       -3.181504e-25 2.8373894e-25 4.4521027e-25 -3.201556e-25
0003e0 3e 71 8b 94 06 fb 88 16 a5 e8 82 96 62 23 80 37
       -1.408008e-26 2.2130403e-25 -2.1149452e-25 1.5275265e-05
0003f0 62 b7 f1 16 49 35 d0 95 48 c7 34 17 a1 09 45 15
       3.905138e-25 -8.40946e-26 5.8412665e-25 3.979143e-26

readout.weight_and_sum.atom_weighting.0.weight f4 [1, 128]
000000 76 aa 55 bb 52 f2 b4 bd f8 08 47 3e 30 11 9e 3b
       -0.0032602823 -0.088352814 0.19437015 0.0048238263
000010 e8 f5 cd 3c 59 43 e0 bc e5 72 97 be e1 f9 85 3c
       0.025141671 -0.027375864 -0.29579845 0.016354503
000020 d8 7d 49 3e 92 8e 6b bc 54 2b 9d 3d 06 62 56 3c
       0.19676912 -0.014377253 0.0767428 0.013084894
000030 e8 56 d4 bb 6a 49 ac bd c2 ac ab bd e1 65 9e 3d
       -0.0064800866 -0.0841244 -0.0838256 0.077342756
000040 82 d3 1e 3d ef a0 a3 bc 89 d0 c9 3b 7a 8e 23 3d
       0.03877593 -0.0199742 0.0061588925 0.039930798
000050 f5 b3 11 be 97 29 00 3e 71 5b f5 bd 42 80 c8 bd
       -0.14228804 0.12515865 -0.11980332 -0.09790088
000060 f3 08 77 3d d2 3d 30 be 58 93 56 3d 27 ff ee bb
       0.06031127 -0.17211083 0.05238661 -0.0072936
000070 77 f3 b9 bc 40 d3 13 bd 4e d5 68 3e 7d 04 6c 3c
       -0.0226991 -0.036090136 0.2273762 0.014405367
000080 e3 19 f3 bc fe 4a 87 bd c1 4b 77 3d 34 58 05 3e
       -0.02967543 -0.066061005 0.06037498 0.13021928
000090 9b 96 34 3b bd 66 79 3c 70 a4 d9 bc 61 f0 a6 3d
       0.0027555588 0.015222249 -0.026567668 0.081513174
0000a0 97 ff 73 3e cc 51 f1 3d 5b 0d 04 3d d3 d5 5a 3b
       0.23827969 0.1178318 0.0322393 0.003339161
0000b0 5a e5 a8 3d 90 2f 90 bd 12 f3 6d 3c 3f d6 bf 3d
       0.0824687 -0.07040322 0.0145232845 0.09367036
0000c0 a6 29 5f bd a2 77 a7 be fb 51 a2 3b 4f c3 cc bc
       -0.05448308 -0.3270846 0.0049536205 -0.024995474
0000d0 91 d6 cd 3e ed 8b 8a bd dc e9 f0 3c 2b ad 79 bd
       0.40202764 -0.0676497 0.029408388 -0.06095616
0000e0 4f cf a4 3c 28 d0 9c bc e8 64 0f be f5 05 aa 3d
       0.020118384 -0.019142225 -0.14003336 0.083019175
0000f0 6c 65 a9 3e 24 da 09 be 56 cd ed bd b2 a2 a7 3d
       0.3308519 -0.1346212 -0.1161143 0.081853285
000100 c0 7e 06 be 4b 74 00 3f 9e 4e 2d 3d 65 01 4f 3d
       -0.13134289 0.5017745 0.042311303 0.05053844
000110 63 df f2 bd 92 87 a0 be 63 f6 18 3f 7b fb 8d 3b
       -0.11859014 -0.31353432 0.59750956 0.0043329573
000120 7c 0c 54 bd 77 b2 83 3b 73 33 6e bd 77 11 1d bf
       -0.05176972 0.0040190774 -0.058154535 -0.61354774
000130 0e 54 e6 3c dc 46 9b be 7e 8c 33 bc 6c 20 95 3d
       0.028116252 -0.303275 -0.010958789 0.072815746
000140 91 c6 fb bc 63 4a 24 bb be 96 93 be 6c d2 8d be
       -0.030734332 -0.0025068752 -0.28825945 -0.27699602
000150 b1 e4 cc be 48 41 fe bd c8 0e f1 3d ca a7 e7 3b
       -0.40018228 -0.12414795 0.117703974 0.0070695626
000160 f1 6c 5e bc 36 9b 53 3e 60 f8 8f be ca dd be bb
       -0.013575778 0.20664677 -0.28119183 -0.005824779
000170 a2 fe 9d 3b a3 9e 81 be 27 54 48 bd 0e ab 19 3e
       0.0048216144 -0.25316343 -0.04890838 0.15006658
000180 26 83 76 be 6b 67 a9 bb 37 0a e6 be 3f a8 a7 3e
       -0.24073467 -0.005169799 -0.44929668 0.3274555
000190 82 41 23 be 9d 8d 24 3e 1c 38 83 3d 56 b5 e8 3d
       -0.15942958 0.16069646 0.064071864 0.11362712
0001a0 cd 4f 1c b8 90 09 04 3e 31 44 35 bd c4 ab c3 3d
       -3.726762e-05 0.12894273 -0.044254486 0.09554246
0001b0 2e 93 05 be 44 d6 f5 3e 51 77 86 3c ba 95 1b 3f
       -0.13044426 0.48015034 0.016414316 0.6077534
0001c0 a5 d9 97 bd 55 c0 a5 bb 1e 8d b5 3d da c1 6e bc
       -0.07414559 -0.005058328 0.088648066 -0.014572585
0001d0 da a7 63 3d 81 b4 00 3e bf ea 0f 3c 36 c2 d2 bb
       0.055579998 0.12568857 0.008783995 -0.006431843
0001e0 58 5c 46 3f d1 95 a7 3a 8d 69 0a be 8e c3 3a be
       0.77484655 0.0012785738 -0.13516827 -0.1823866
0001f0 d4 40 09 bd 42 92 9e 3d 7e 96 df 3c ab e8 80 be
       -0.03350909 0.0774274 0.02729344 -0.25177512

predict.predict.1.weight f4 [128, 256]
000000 0a d9 e2 24 66 4c ff a6 d2 89 90 a6 ce ca cd 25
       9.8379555e-17 -1.7714887e-15 -1.0029363e-15 3.5699257e-16
000010 d7 ba 7f a7 bb 52 bb 25 e9 bd 52 a5 d4 aa 0f 26
       -3.5489645e-15 3.249539e-16 -1.827894e-16 4.9844607e-16
000020 20 b3 0a 27 14 28 bd a5 09 71 df 25 e7 26 0d 25
       1.924845e-15 -3.2813432e-16 3.876093e-16 1.2242981e-16
000030 92 96 7a 27 56 30 0e 26 82 91 b0 a5 30 04 31 27
       3.4776094e-15 4.9331654e-16 -3.0629733e-16 2.4565954e-15
000040 55 a6 0a a5 d4 95 92 a7 f3 e9 85 24 a4 54 e7 25
       -1.2025947e-16 -4.0685584e-15 5.807588e-17 4.0129467e-16
000050 66 32 12 a5 fa 10 55 25 d0 25 0f 26 ef 00 23 27
       -1.2680557e-16 1.8480557e-16 4.9664337e-16 2.26213e-15
000060 49 f0 96 26 68 92 29 27 2c a2 14 26 8f 64 24 a8
       1.047347e-15 2.3532828e-15 5.15676e-16 -9.125634e-15
000070 1b 8e 37 26 dc 6d 26 27 88 87 76 a6 03 01 de a5
       6.368347e-16 2.3096683e-15 -8.5532074e-16 -3.8511547e-16
000080 4d 9b e1 a6 e8 59 72 a7 04 a4 6a a6 8b 75 27 25
       -1.5654606e-15 -3.3632985e-15 -8.140734e-16 1.4524766e-16
000090 14 3f 14 a5 c0 3b f7 25 04 f9 3e 26 16 23 fb 25
       -1.2858325e-16 4.2888158e-16 6.625697e-16 4.3565334e-16
0000a0 64 fd 16 26 c5 74 db a6 f6 04 20 26 f9 7c 18 26
       5.238511e-16 -1.5227828e-15 5.5517875e-16 5.2904963e-16
0000b0 a0 d7 16 a7 94 a9 01 a7 df 04 f7 27 b5 42 9a a6
       -2.0933572e-15 -1.7994275e-15 6.8561553e-15 -1.0703978e-15
0000c0 3a 1c e3 25 85 1c c9 a7 48 d7 a6 25 d8 84 01 a7
       3.939735e-16 -5.581963e-15 2.894229e-16 -1.797436e-15
0000d0 58 19 58 a7 c8 81 1c a6 81 b9 5e a8 d5 82 8a 24
       -2.998976e-15 -5.429926e-16 -1.23637e-14 6.00696e-17
0000e0 3d 86 72 a6 64 6a 4e 27 59 01 8a 27 31 2c b8 a7
       -8.4142543e-16 2.8645917e-15 3.8304155e-15 -5.111817e-15
0000f0 7e 7c d5 26 7c 58 e4 a6 2b 5d 72 a7 ea 1b fd a5
       1.4813588e-15 -1.5844662e-15 -3.3634753e-15 -4.390742e-16
000100 94 4a b1 a6 90 d4 e5 26 34 49 99 25 53 98 24 a6
       -1.2302057e-15 1.5947682e-15 2.6590874e-16 -5.710537e-16
000110 63 a9 8e 27 da 0e d7 26 43 42 cf 27 84 f9 a1 26
       3.9596567e-15 1.4922647e-15 5.7525883e-15 1.1239251e-15
000120 cc cc 6a 25 e7 29 4e a7 0a 8e 76 27 cc 21 87 27
       2.0365653e-16 -2.8610958e-15 3.4216358e-15 3.750667e-15
000130 c7 c7 74 24 4e 67 e2 a6 db 75 e9 24 06 72 22 26
       5.3078284e-17 -1.5709901e-15 1.012473e-16 5.635957e-16
000140 9a de 2e 27 d7 f6 a1 26 2e c4 a4 a6 02 ff 32 27
       2.4268023e-15 1.1238525e-15 -1.1432961e-15 2.4840702e-15
000150 3b a1 f8 25 bb f9 2d a7 0c b3 17 a3 bb b8 9c 24
       4.3130396e-16 -2.4143952e-15 -8.223641e-18 6.796716e-17
000160 94 41 a5 26 d4 4e 14 26 3e d7 95 a7 28 9e 4c 27
       1.146695e-15 5.1454647e-16 -4.1589174e-15 2.8396424e-15
000170 cb bf 5b 26 7c 81 30 a6 57 88 6a a6 4c 20 46 a6
       7.6240816e-16 -6.123775e-16 -8.1369834e-16 -6.873882e-16
000180 5c 71 db 26 d9 e2 ca 25 1e 52 88 a6 b7 60 b9 25
       1.5226904e-15 3.5195132e-16 -9.459154e-16 3.215792e-16
000190 f9 68 02 a6 d9 a5 39 26 2a fa 49 26 82 55 18 27
       -4.5245075e-16 6.4409534e-16 7.007492e-16 2.1140591e-15
0001a0 79 8a 2d 26 7c cb 00 26 e8 b1 97 a6 34 15 4c 26
       6.02091e-16 4.4684694e-16 -1.0525951e-15 7.0805453e-16
0001b0 96 48 c2 a7 56 83 c4 a6 c8 1b 6f 26 a2 e5 6e a7
       -5.3924515e-15 -1.3635831e-15 8.2957433e-16 -3.315362e-15
0001c0 b5 1e 4f a6 a3 fa 9b a4 c0 86 ef a4 e2 97 04 24
       -7.185917e-16 -6.764513e-17 -1.03878e-16 2.8751587e-17
0001d0 a8 47 99 a6 bc dd 07 a7 38 52 51 a7 84 fa c6 a5
       -1.063593e-15 -1.8855216e-15 -2.9049147e-15 -3.451728e-16
0001e0 6a 3d 94 28 4e 70 5f 26 1f 61 cc a6 5c db 79 a5
       1.6457935e-14 7.752087e-16 -1.4181668e-15 -2.1671629e-16
0001f0 30 87 37 a7 d6 06 59 26 1b 52 e1 a4 f8 b4 4e a7
       -2.5469637e-15 7.5296263e-16 -9.771729e-17 -2.8686346e-15
000200 b1 be 40 23 15 d8 fb a5 58 dd d7 24 e2 11 49 24
       1.0448721e-17 -4.3687982e-16 9.361636e-17 4.3600075e-17
000210 ce 9f 80 a4 b7 83 8c 25 10 06 5e 25 49 fa 2f 24
       -5.578187e-17 2.4375382e-16 1.9257485e-16 3.8159076e-17
000220 6c a0 9c 24 22 b1 95 25 ea a9 29 24 a7 d3 70 26
       6.792598e-17 2.596741e-16 3.6789956e-17 8.355357e-16
000230 73 8d 3d a5 c8 8d 1b a5 48 6c 07 a4 01 ab e1 a6
       -1.6441062e-16 -1.3492144e-16 -2.9365176e-17 -1.5658862e-15
000240 05 59 72 25 76 65 32 a6 d5 14 52 a4 07 f7 d4 a3
       2.1020315e-16 -6.189366e-16 -4.5554137e-17 -2.3089706e-17
000250 6f 29 f6 a4 d5 1a af a5 65 ff 78 a4 cd 41 95 a5
       -1.06755685e-16 -3.0375843e-16 -5.3992755e-17 -2.5891968e-16
000260 94 aa 75 23 ff 59 cc 23 29 7e 4c 24 94 50 c5 24
       1.3317598e-17 2.2155839e-17 4.434231e-17 8.5571636e-17
000270 82 d0 fb 23 23 f8 89 24 84 e8 c0 a3 4c 6e c9 a4
       2.7301781e-17 5.983464e-17 -2.0915156e-17 -8.7356705e-17
000280 50 e9 40 24 4e 61 c0 25 0f 9a 2c a4 63 33 4f 24
       4.1830987e-17 3.3372627e-16 -3.7427047e-17 4.4929496e-17
000290 c4 aa 5b 23 7a da ab a6 bb 50 c8 25 42 46 25 a4
       1.1908175e-17 -1.1924727e-15 3.4749175e-16 -3.5838182e-17
0002a0 ad bc fb 23 3c 59 e4 a4 a5 fb c5 24 00 21 cc a2
       2.7293382e-17 -9.903041e-17 8.5861434e-17 -5.532925e-18
0002b0 bb d9 58 a3 09 e7 8a a4 19 62 ec a6 13 43 a1 a4
       -1.175549e-17 -6.023935e-17 -1.6402379e-15 -6.993625e-17
0002c0 73 bf a6 a4 bc ad 59 26 3d be c3 a5 26 10 79 a1
       -7.231535e-17 7.5522453e-16 -3.3956018e-16 -8.4385854e-19
0002d0 d2 76 39 a4 39 b3 f5 24 54 0e d4 a3 b1 cc cc a3
       -4.0216125e-17 1.0655543e-16 -2.2991154e-17 -2.2204415e-17
0002e0 76 58 4e 25 fa 74 8a 25 08 44 c3 25 07 70 a1 25
       1.7897624e-16 2.401845e-16 3.3873208e-16 2.800496e-16
0002f0 a2 0f ba a5 a6 df bd 25 45 98 7f a6 56 c2 b8 25
       -3.227645e-16 3.2937824e-16 -8.867726e-16 3.20506e-16
000300 89 58 9b 24 b5 9e 3e a5 94 c7 a9 a2 49 54 70 a5
       6.737052e-17 -1.6533645e-16 -4.6018853e-18 -2.0845239e-16
000310 da c3 cd a5 ff ca fb 24 61 eb fa a6 59 a7 a6 25
       -3.5694545e-16 1.0919779e-16 -1.7411034e-15 2.890981e-16
000320 67 11 ac a3 67 8f a2 a2 a8 dc 47 a5 3f 22 0e a5
       -1.8655648e-17 -4.406202e-18 -1.733526e-16 -1.232814e-16
000330 64 1c 2f 26 99 e6 0f a5 c7 9c 81 24 ca 90 23 23
       6.07538e-16 -1.2481402e-16 5.621042e-17 8.866908e-18
000340 96 b4 82 a4 1f eb f1 a4 34 a8 42 25 4b c6 b6 25
       -5.668444e-17 -1.049154e-16 1.6883807e-16 3.1706336e-16
000350 cc f1 99 24 40 e0 29 25 93 22 42 a4 14 4a 8a 24
       6.676279e-17 1.4734392e-16 -4.209633e-17 5.997345e-17
000360 9c 2a 16 a5 49 6f 19 a6 8b 38 cb a5 fc ca 20 a6
       -1.3024863e-16 -5.323336e-16 -3.5253202e-16 -5.5786246e-16
000370 26 7f 5e a4 fb 74 b7 22 76 95 0d a3 86 b0 d1 23
       -4.8246275e-17 4.9726107e-18 -7.675275e-18 2.2734586e-17
000380 dc d8 15 25 03 f6 07 25 c3 f0 bd a4 fa 2e ba 24
       1.2997165e-16 1.1792735e-16 -8.237355e-17 8.074422e-17
000390 e8 79 22 a4 e3 6a 10 a5 57 73 eb 25 5d 80 9d a3
       -3.523141e-17 -1.2526224e-16 4.084416e-16 -1.7076338e-17
0003a0 c7 bd 13 24 21 78 bc 25 23 b2 1f a5 a5 8c 06 a5
       3.203629e-17 3.2694204e-16 -1.3851407e-16 -1.16703e-16
0003b0 40 37 5e 25 a2 be 95 24 ef 89 8a 25 de b9 b8 a5
       1.927415e-16 6.4941394e-17 2.4032651e-16 -3.204486e-16
0003c0 41 c8 96 22 15 72 8d a3 d9 d9 f9 23 bd 1e 01 a5
       4.086961e-18 -1.5335566e-17 2.7088896e-17 -1.1199381e-16
0003d0 e5 7c 3b a4 a1 68 68 26 c9 e1 0a 25 77 49 e5 25
       -4.065495e-17 8.063297e-16 1.2046091e-16 3.977495e-16
0003e0 a2 94 1d 26 c9 f8 09 a5 df 87 69 a5 59 48 89 25
       5.467175e-16 -1.1967148e-16 -2.0255563e-16 2.3814736e-16
0003f0 ee 50 bb 24 c5 42 00 25 3c 69 fb 22 c9 9c 92 a4
       8.123542e-17 1.1124853e-16 6.8145108e-18 -6.358301e-17
