Results/GCN/saved_model/GCN_bst_32.pth (torch, 68758 bytes, 40 tensors)

gnn.gnn_layers.0.graph_conv.weight f4 [74, 32]
0	0xbde27139	-0.11056752
1	0x3dced6ea	0.10099585
2	0xbdf94feb	-0.12173446
3	0xbdd938a3	-0.10606506
4	0x3e0b0a21	0.13578083
5	0xbe421422	-0.18952993
6	0xbe2f21ad	-0.1710269
7	0x3dc30cad	0.09523902
8	0xbd927c29	-0.07152588
9	0xbe34b95f	-0.17648838
10	0x3db11d15	0.08648125
11	0xbd988a17	-0.074482135
12	0x3e23013c	0.1591844
13	0x3dbf8079	0.09350676
14	0xbc884ad1	-0.016637238
15	0xbdc5075f	-0.096205465
16	0xbe32a74d	-0.17446633
17	0xbbd41371	-0.006472044
18	0xbdb9330c	-0.090429395
19	0x3e2c3c2f	0.16819833
20	0xbd73aa70	-0.059488714
21	0x3de7e79e	0.11323474
22	0xbdf4b741	-0.119490154
23	0x3d41b216	0.047288977
24	0x3b3795be	0.0028012837
25	0x3e299050	0.16558957
26	0xbe2d878b	-0.16946237
27	0xbdc7bc12	-0.097526684
28	0xbdd07ce6	-0.101800725
29	0xbd95e309	-0.07318694
30	0x3d4ad394	0.049518183
31	0xbe26d147	-0.1629077
32	0x3db5b639	0.08872647
33	0xbc1d1cfa	-0.009589428
34	0x3f065e40	0.52487564
35	0x3e3aca52	0.18241242
36	0xbe49eb2c	-0.19718617
37	0x3e549d82	0.2076321
38	0xbdbae8d4	-0.0912644
39	0xbe169aa3	-0.14707427
40	0x3d83e3a1	0.06439901
41	0x3e5557e8	0.20834315
42	0x3ce8df0a	0.028426666
43	0x3d3c62c2	0.04599262
44	0xbe9fa44b	-0.31180033
45	0xbec7f32c	-0.39052713
46	0x3cd026e0	0.025409162
47	0x3e911881	0.28339007
48	0x3e2a9b11	0.16660716
49	0x3e697ffb	0.22802727
50	0xbe382653	-0.1798337
51	0x3d3be921	0.045876626
52	0xbeb0e665	-0.34550777
53	0xbe2be4c6	-0.16786489
54	0x3e01e17c	0.12683672
55	0x3dfb2876	0.12263577
56	0x3c9f8156	0.019470852
57	0x3b4b4534	0.003101659
58	0xbddd108d	-0.107941724
59	0xbe05140b	-0.12995927
60	0xbe5a854c	-0.21339911
61	0xbcd5fcf0	-0.026121587
62	0xbedc4c1e	-0.43026823
63	0x3ec5ccf0	0.38632917
64	0xbcae89d9	-0.021305965
65	0xbd4d3354	-0.05009778
66	0xbdf26679	-0.11835951
67	0xbe214cb4	-0.15751916
68	0x3c5ba76a	0.013406614
69	0xbe344eea	-0.17608228
70	0xbe40774f	-0.18795513
71	0x3db698c7	0.08915859
72	0x3eb10a16	0.34578007
73	0xbc590545	-0.013245885
74	0x3e90242d	0.281526
75	0x3bf3aede	0.0074366173
76	0x3e3616d1	0.17782141
77	0xbe413fdf	-0.18872021
78	0x3db2287a	0.086991265
79	0xbe034e56	-0.12822852
80	0x3e639ba9	0.22227348
81	0x3d3e54bd	0.04646753
82	0xbe36d071	-0.17852952
83	0xbd6ffe8c	-0.058592364
84	0xbd85c740	-0.065321445
85	0x3e3db511	0.18526103
86	0x3d951f7f	0.07281398
87	0xbdd75c2d	-0.10515628
88	0x3e7d6920	0.24747133
89	0x3d5c382e	0.053764515
90	0x3c17b4fa	0.009259457
91	0xbea843ec	-0.3286432
92	0xbebacec7	-0.36485884
93	0x3a2c5b7a	0.00065749104
94	0xbdee6871	-0.11641014
95	0xbe2503f4	-0.16114789
96	0xbd627211	-0.055284563
97	0x3da11c20	0.078666925
98	0xbeb44acb	-0.35213313
99	0x3ded63c0	0.115912914
100	0x3d10a966	0.0353178
101	0xbe12daba	-0.1434125
102	0x3e3db98d	0.18527813
103	0x3eb87353	0.36025485
104	0x3e47665e	0.19472644
105	0x3d4bbb36	0.049739085
106	0x3d32b3d1	0.043628518
107	0xbca3c1b1	-0.01998982
108	0x3d99a718	0.07502574
109	0x3e858322	0.2607661
110	0x3da785ec	0.081798404
111	0xbe2c0920	-0.16800356
112	0xbcb35cfd	-0.021894926
113	0xbdb4d3c4	-0.088294536
114	0x3e0cd92a	0.13754717
115	0xbb093b4c	-0.0020939885
116	0x3e2673d0	0.16255116
117	0x3d3eb345	0.046557683
118	0xbdf7677d	-0.12080286
119	0x3bdff39f	0.006834462
120	0xbc95483d	-0.018222922
121	0xbe10374d	-0.14083596
122	0xbe01fb88	-0.12693608
123	0x3e15a3cc	0.14613265
124	0xbe39ffe2	-0.18164018
125	0x387f38e1	6.084971e-05
126	0x3ddd3fcd	0.10803185
127	0xbe9f740b	-0.3114322
128	0xbd6951ae	-0.05696266
129	0xbd9968b6	-0.07490675
130	0xbc9d5a4c	-0.019208096
131	0xbd98dff2	-0.07464589
132	0x3c749543	0.014928165
133	0x3e2df83f	0.1698923
134	0x3ceb8447	0.028749598
135	0xbe05a5cb	-0.13051526
136	0xbe3b5394	-0.18293601
137	0x3e1473d4	0.1449731
138	0x3dea4142	0.11438228
139	0x3c9cc02d	0.019134605
140	0xbd7bb28c	-0.061449572
141	0xbe169d7e	-0.14708516
142	0xbdec3fb1	-0.11535586
143	0x3d84ef7f	0.06490993
144	0xbe79d6b1	-0.24398305
145	0x3d982601	0.07429124
146	0xbcf23040	-0.029564023
147	0x3d73f603	0.059560787
148	0xbe17994a	-0.14804569
149	0xbe207456	-0.15669379
150	0xbcb24847	-0.02176298
151	0x3c3b28bb	0.011423285
152	0xbd9c983b	-0.07646223
153	0x3dc5e540	0.096628666
154	0x3e4832c1	0.19550611
155	0x3d4e3785	0.050345916
156	0xbd92d24d	-0.07169018
157	0x97ffb7f2	-1.6525423e-24
158	0xbe576542	-0.2103472
159	0x3cb13b7b	0.021634808
160	0xbbd5be08	-0.0065228976
161	0x3c7651eb	0.015034179
162	0xbda32765	-0.07966498
163	0x3b68b664	0.0035509104
164	0x3b35e81e	0.002775676
165	0xbdc3db26	-0.095632836
166	0x3bf4c102	0.0074692974
167	0x3e131747	0.14364348
168	0xbd62dca4	-0.0553862
169	0x3b75898a	0.0037466013
170	0xb7f34934	-2.9001945e-05
171	0xb2cd86ed	-2.3926498e-08
172	0x3e1adfff	0.1512451
173	0x3e05e45f	0.13075398
174	0x3b0e0fee	0.0021676975
175	0xbc218519	-0.009858393
176	0xbd97576f	-0.073897235
177	0xbdbb1a0b	-0.09135827
178	0xba540b42	-0.0008088836
179	0xbbfe2e2b	-0.0077569685
180	0x3e3c42d1	0.18384863
181	0x3d4e6459	0.050388668
182	0xbc90429b	-0.017609885
183	0x9fd2d364	-8.9288176e-20
184	0xbdd0d064	-0.10195997
185	0xbc97c585	-0.018526802
186	0x1ed0f811	2.2125454e-20
187	0x3e2e2d8f	0.17009567
188	0x3e273cf0	0.1633184
189	0x971b63fd	-5.0209404e-25
190	0x3ed0c5de	0.4077596
191	0xba6125b6	-0.0008588688
192	0x3c2702f9	0.01019358
193	0x3a5319e0	0.0008052867
194	0x3d197085	0.037460823
195	0xbc41786b	-0.011808495
196	0xbca01680	-0.019541979
197	0xbc273679	-0.010205858
198	0xbddb5970	-0.10710418
199	0xbd08a9e6	-0.033365153
200	0x3db7e62d	0.089794494
201	0x3b380941	0.0028081688
202	0x3cca6a0c	0.02470877
203	0x3cc4efae	0.02404007
204	0xb6022bad	-1.9396932e-06
205	0xbc9eed29	-0.019400196
206	0xbd3081c7	-0.043092515
207	0x140a6c64	6.988596e-27
208	0x3c5c5426	0.013447797
209	0x3cbb421c	0.022858672
210	0xbc1aecb0	-0.009455845
211	0x3a9b092e	0.0011828297
212	0xbd07ee1e	-0.03318607
213	0x3b8ba2c2	0.0042613456
214	0x3ca8b254	0.020592846
215	0x99496780	-1.0412358e-23
216	0x3ce227a9	0.027606802
217	0x3c1e25a3	0.009652528
218	0xbc240b32	-0.010012435
219	0xbe09a770	-0.13442779
220	0xbded7652	-0.115948334
221	0x1b1731d5	1.2506529e-22
222	0xbd9565cc	-0.07294807
223	0x3dd821fb	0.10553356
224	0x3c16dcfc	0.00920796
225	0x3bfe927a	0.007768926
226	0x3d8a1018	0.06741351
227	0x3d84d3a1	0.064856775
228	0x3d61105d	0.054947246
229	0xbdeab137	-0.11459582
230	0x3e32d38a	0.17463508
231	0x3eb7a65d	0.35869113
232	0xbcec329a	-0.028832722
233	0xbd464a13	-0.048410486
234	0xbd20e34c	-0.039279267
235	0xa1952fa9	-1.0109248e-18
236	0x3d37a61e	0.044836156
237	0x3e5e3abe	0.21702096
238	0x3d406486	0.046970867
239	0x1668fbfa	1.882032e-25
240	0xbdbcde61	-0.09222103
241	0x3954c749	0.00020292135
242	0x3d904a46	0.070454165
243	0xbc487892	-0.012235777
244	0x3ed574dc	0.4169072
245	0x3ce12447	0.027483119
246	0xbcb95fe1	-0.022628726
247	0xbbd7d4a4	-0.006586628
248	0xbd9056be	-0.07047795
249	0xbcaca97a	-0.021076906
250	0x3d88d527	0.066812806
251	0x3eefc0c4	0.46826756
252	0x3ed79996	0.42109364
253	0x9847a84d	-2.5805117e-24
254	0x3f05a3d0	0.52203083
255	0x3603c4cb	1.963507e-06

gnn.gnn_layers.0.graph_conv.bias f4 [32]
0	0x3d040b4f	0.032237347
1	0xbd647f9d	-0.055785764
2	0xbdbf84fd	-0.093515374
3	0xbbc32fe1	-0.0059566353
4	0xbd2459c2	-0.040124662
5	0x3b884e73	0.0041597425
6	0xbda12317	-0.07868021
7	0x3c28911b	0.010288502
8	0xbdfb66d1	-0.1227547
9	0xbccd57c6	-0.025066268
10	0xbd4e2bbf	-0.05033469
11	0xbcae3095	-0.0212634
12	0xbdabd2a2	-0.083897844
13	0xbcf6c988	-0.030125394
14	0x3aca4d84	0.0015434478
15	0x3ba73780	0.0051030517
16	0x3b8f2650	0.004368581
17	0xbc16a80e	-0.009195341
18	0xbc7022d2	-0.014656739
19	0x3cb96a4e	0.022633698
20	0xbe11aee6	-0.14226875
21	0xbd37da73	-0.044886064
22	0x3d48b536	0.04900094
23	0x3cc12711	0.023578199
24	0xbd4108d2	-0.047127552
25	0xbbed066e	-0.0072334325
26	0xbd241a63	-0.040064227
27	0xbd9f8566	-0.077891156
28	0xbd8e382c	-0.06944308
29	0xbc2f96e6	-0.010717129
30	0xbd10980c	-0.035301253
31	0x3bd002fe	0.006348013

gnn.gnn_layers.0.res_connection.weight f4 [32, 74]
0	0x3ceabe68	0.028655246
1	0x3d9e70ea	0.077363804
2	0xbc11f751	-0.0089090625
3	0xbb68a1fb	-0.0035496939
4	0x16cf4788	3.3487796e-25
5	0x1871410f	3.1181366e-24
6	0x9714300c	-4.7882023e-25
7	0x175c0719	7.109479e-25
8	0x188cc2d6	3.6385886e-24
9	0x18c806f6	5.1705817e-24
10	0x18f48876	6.3210312e-24
11	0x97e8d1bf	-1.5045596e-24
12	0x15840ceb	5.3334756e-26
13	0x170066cb	4.1488774e-25
14	0x19158dcd	7.731756e-24
15	0x17b8cd87	1.1942604e-24
16	0x178b4039	8.998877e-25
17	0x97da5285	-1.4108751e-24
18	0x97e8322a	-1.5005312e-24
19	0x183f1417	2.4696314e-24
20	0x182b90be	2.2174308e-24
21	0x19543682	1.0971151e-23
22	0x19226765	8.396084e-24
23	0x98591851	-2.805887e-24
24	0x9823bf61	-2.1163878e-24
25	0x969eb634	-2.5641263e-25
26	0x16f14868	3.8981345e-25
27	0x96e330e7	-3.670469e-25
28	0x995286ba	-1.0883953e-23
29	0x1991b739	1.5066652e-23
30	0x9721e373	-5.2308987e-25
31	0x178dc200	9.160884e-25
32	0x165a8bda	1.7654029e-25
33	0x97ab6c6d	-1.1077987e-24
34	0x174a9c46	6.5466965e-25
35	0x176bf8a4	7.6246424e-25
36	0x97ca563d	-1.3075714e-24
37	0x18a3b60d	4.2318337e-24
38	0x175f8dba	7.223407e-25
39	0x99499646	-1.0421804e-23
40	0x175fb34a	7.228148e-25
41	0x180f8325	1.8548528e-24
42	0x98348c48	-2.3335279e-24
43	0x990007d5	-6.6190266e-24
44	0xbd0f89bb	-0.03504346
45	0x3e06e7ba	0.13174334
46	0xbd81a95e	-0.06331132
47	0xbcdb0bcb	-0.026739022
48	0x995cd24e	-1.1416204e-23
49	0xbbff6271	-0.0077937176
50	0x18dc17e0	5.6892775e-24
51	0x17f6e65a	1.5955526e-24
52	0x1784cea9	8.582468e-25
53	0x997372ca	-1.2585987e-23
54	0x3d4567fc	0.04819487
55	0xbcb650b0	-0.022255272
56	0x3d6cc35f	0.057803508
57	0x97cc8645	-1.3217085e-24
58	0x98786b58	-3.2107443e-24
59	0x960c1bf6	-1.1317933e-25
60	0x988e9af3	-3.68626e-24
61	0xbc2bcbb6	-0.01048558
62	0x180b48b3	1.8002033e-24
63	0x3c0160dd	0.007896629
64	0x3d80a007	0.06280523
65	0xbd383d2b	-0.04498021
66	0x982936e4	-2.187045e-24
67	0xbbff868a	-0.0077980207
68	0x3aa7527c	0.0012765671
69	0x3ce62cd1	0.028097542
70	0xbc8ffcf0	-0.017576665
71	0x3c4cab27	0.012491978
72	0x987dc3f8	-3.2798423e-24
73	0x98677369	-2.9914317e-24
74	0xbd598938	-0.053109378
75	0x3cb2d6a4	0.021830864
76	0x3b9ff741	0.00488177
77	0x3d2b5c6d	0.04183619
78	0xbbdcf761	-0.006743357
79	0x3b50bddb	0.0031851444
80	0x3c19c6e2	0.009385796
81	0xb78195f5	-1.5447828e-05
82	0xb514de8c	-5.5458145e-07
83	0x196d9bae	1.2284052e-23
84	0x15f160f0	9.7492065e-26
85	0x19056df8	6.898147e-24
86	0x9709f6f9	-4.457881e-25
87	0x99075e0c	-6.998329e-24
88	0x98b2b92f	-4.619891e-24
89	0xb77e6026	-1.5161966e-05
90	0x176b8906	7.6105543e-25
91	0x9651746d	-1.6919623e-25
92	0x97aa8da0	-1.1021744e-24
93	0x188b7ed8	3.6058737e-24
94	0x18411e99	2.4960113e-24
95	0x990266a5	-6.741571e-24
96	0x15602e3b	4.527291e-26
97	0x97211920	-5.205362e-25
98	0x9882b1b7	-3.378366e-24
99	0x9756f579	-6.945696e-25
100	0x18564380	2.769293e-24
101	0x951ad159	-3.12652e-26
102	0x97c539e9	-1.2745445e-24
103	0xb460627d	-2.0897455e-07
104	0x1739b2f5	6.00026e-25
105	0x18b7a8b2	4.747473e-24
106	0x9630ec59	-1.4291745e-25
107	0x164f7a32	1.6759885e-25
108	0x17d94541	1.4040778e-24
109	0x175eeb47	7.202903e-25
110	0x17a4bb27	1.0645495e-24
111	0x19887ee3	1.411332e-23
112	0x184a0cd0	2.6114357e-24
113	0x1570f678	4.8662044e-26
114	0x162d912b	1.4020636e-25
115	0x967891b5	-2.0079257e-25
116	0x1688a789	2.2077715e-25
117	0x98564d1f	-2.7697788e-24
118	0xbd2556aa	-0.040365852
119	0x3d81c2bb	0.0633597
120	0xbcff4a05	-0.031163225
121	0x3d0cce82	0.03437663
122	0x18291409	2.1852853e-24
123	0xbba7d2d2	-0.0051215673
124	0x96993aca	-2.4755584e-25
125	0x1708e984	4.423871e-25
126	0x9850bbdc	-2.6978215e-24
127	0x192278d2	8.399603e-24
128	0xbb9a43cf	-0.0047077904
129	0x3d503674	0.05083318
130	0xbc81b9a5	-0.015835593
131	0xb4f6e868	-4.5990168e-07
132	0x18ce413a	5.3315614e-24
133	0x983c4205	-2.4331762e-24
134	0x161abf99	1.2500478e-25
135	0x3c6b958e	0.014378918
136	0x97c479dd	-1.2696966e-24
137	0x3b2225e3	0.002474182
138	0x3b9e568b	0.004832094
139	0x3c02c8c1	0.007982434
140	0x9684c797	-2.145171e-25
141	0xbba5bb49	-0.0050577265
142	0xbb243cde	-0.0025060694
143	0x3bdaaa2d	0.0066731186
144	0x3d6559a8	0.055993706
145	0xbc8121fc	-0.015763275
146	0xb393a400	-6.875052e-08
147	0x988b4868	-3.600377e-24
148	0xbd9c7d7f	-0.07641124
149	0x3e270044	0.16308695
150	0x3e12c5e4	0.14333302
151	0xbc8db0b5	-0.017296175
152	0xbdae2a6f	-0.08504187
153	0x18a801bf	4.3428745e-24
154	0x9aa69ccd	-6.8909316e-23
155	0xbda409f5	-0.08009712
156	0xbd3a341c	-0.04545985
157	0x9935c32c	-9.396895e-24
158	0x97aa3048	-1.099818e-24
159	0x1838cc70	2.3884657e-24
160	0x1922bd93	8.413488e-24
161	0x952d49af	-3.4995198e-26
162	0x94e9e74c	-2.3618218e-26
163	0xbd3401da	-0.04394708
164	0x988d6f98	-3.6560327e-24
165	0x96abf426	-2.778062e-25
166	0x97858dc1	-8.630707e-25
167	0x96c35787	-3.1559187e-25
168	0x15a5ffc9	6.704653e-26
169	0x15460b74	3.9994816e-26
170	0x17e0f241	1.4536814e-24
171	0x98986289	-3.9390574e-24
172	0x145a5474	1.1022843e-26
173	0x950c1630	-2.8290278e-26
174	0x1713ed54	4.779781e-25
175	0x1545e598	3.996495e-26
176	0x1718a1c7	4.931804e-25
177	0xbad1cb92	-0.0016006103
178	0x175641d3	6.923021e-25
179	0x98cf6235	-5.360741e-24
180	0x97e57812	-1.4829088e-24
181	0x1792d7c0	9.489492e-25
182	0x1723fdca	5.2988467e-25
183	0x97b23379	-1.1515974e-24
184	0x994335bc	-1.0092115e-23
185	0x981f7de9	-2.0613837e-24
186	0x17b654db	1.1782895e-24
187	0x985c5f5d	-2.848248e-24
188	0x16fc4c50	4.0760956e-25
189	0x18144d8a	1.9167699e-24
190	0x9466e6b0	-1.16575276e-26
191	0x180a54e0	1.7878933e-24
192	0x3d9a767a	0.07542129
193	0xbe4214f5	-0.18953307
194	0xbe119199	-0.14215697
195	0xbd383c63	-0.044979464
196	0x9911ccda	-7.537694e-24
197	0xb1ae3031	-5.0695452e-09
198	0x15452000	3.9809077e-26
199	0x984fe022	-2.6867281e-24
200	0x97355ad3	-5.859889e-25
201	0x98400e94	-2.4822778e-24
202	0xbd2379d0	-0.03991109
203	0xbd5184f7	-0.051152196
204	0x3c5cc75a	0.0134752635
205	0xbd45bf35	-0.048278052
206	0x98193371	-1.9800758e-24
207	0x18b70331	4.7307614e-24
208	0x17ed3f70	1.533178e-24
209	0xbe4583e0	-0.19288588
210	0x987cb5ba	-3.2661985e-24
211	0x3cf31126	0.029671263
212	0xbd79b8c1	-0.06096721
213	0xbbca907d	-0.006181775
214	0x17bf67ec	1.2369319e-24
215	0xb19329f0	-4.283031e-09
216	0x3d3a81a6	0.0455338
217	0xbd12dfc4	-0.03585793
218	0xbcab4539	-0.020907031
219	0x3d7fe41a	0.062473394
220	0xbd14d0fe	-0.036332123
221	0x179cd99a	1.0136194e-24
222	0xbd6f7ae6	-0.058466814
223	0xbc4dc41e	-0.012558965
224	0xbcd3bf1f	-0.02584797
225	0x3cd36026	0.025802683
226	0xbca7387f	-0.020412682
227	0x3a837ccd	0.00100317
228	0xbb8fd5b7	-0.0043894905
229	0x3b92b60b	0.0044772676
230	0x2feeacb3	4.3414658e-10
231	0x18663388	2.975282e-24
232	0x188f5f56	3.70609e-24
233	0x17252dcb	5.3372174e-25
234	0x982294f6	-2.1013215e-24
235	0x188cbc65	3.637938e-24
236	0x154a3b5c	4.08404e-26
237	0x30c800e0	1.4552164e-09
238	0x97b6f39f	-1.1822973e-24
239	0x98edb264	-6.1443193e-24
240	0x973fe5b7	-6.200537e-25
241	0x1615cf26	1.2101489e-25
242	0x1620b5e7	1.2982095e-25
243	0x18123d3c	1.8900973e-24
244	0x176f62e6	7.734989e-25
245	0x970c0639	-4.5244294e-25
246	0x9630ea75	-1.4291148e-25
247	0x96a2104e	-2.6182801e-25
248	0x969fad90	-2.5797369e-25
249	0x1685ee6d	2.1637777e-25
250	0x98be4e2e	-4.919279e-24
251	0x26893209	9.519847e-16
252	0x16904596	2.330837e-25
253	0x9701cc20	-4.193979e-25
254	0x16e5a500	3.7101075e-25
255	0x1557a086	4.3545535e-26

gnn.gnn_layers.0.res_connection.bias f4 [32]
0	0xbd627977	-0.05529162
1	0xbb9ee1af	-0.004848681
2	0xbd1203c7	-0.035648134
3	0xbcf7d3dd	-0.030252391
4	0xbce5a066	-0.028030585
5	0xbc72fa9f	-0.014830261
6	0x3c1cce16	0.009570619
7	0xbc65673a	-0.014001662
8	0xbd126876	-0.035744153
9	0xbc8ddb7c	-0.017316572
10	0xbcca0991	-0.024662765
11	0xbcbda059	-0.023147749
12	0x3cf4dc5b	0.02989023
13	0x3cb95a07	0.022625936
14	0xbdca84a5	-0.09888581
15	0x3cde7f08	0.027160183
16	0xbd2514aa	-0.04030291
17	0xbbd5b507	-0.0065218243
18	0x3d00b613	0.03142364
19	0x3d5429b6	0.05179759
20	0xbdca404c	-0.09875545
21	0x3b10b143	0.0022078312
22	0xbcc9b0e6	-0.024620485
23	0x3d019737	0.03163835
24	0xbd1887a5	-0.037238736
25	0xb502b65c	-4.869414e-07
26	0xbe0b6d88	-0.13616002
27	0xbd991c10	-0.074760556
28	0xbd8df18e	-0.069308385
29	0x3d810bfc	0.06301114
30	0xbccf02ce	-0.025269892
31	0xbdb79657	-0.08964222

gnn.gnn_layers.0.bn_layer.weight f4 [32]
0	0x3f0655d5	0.5247472
1	0x3f0ee352	0.55815613
2	0x3f592e36	0.8483614
3	0x3f0c2bb2	0.54754174
4	0x3f120e8a	0.57053435
5	0x3f1e5972	0.6185523
6	0x3f3c39ac	0.735255
7	0x3f311003	0.69165057
8	0x3f288b36	0.6583742
9	0x3f0a0665	0.5391601
10	0x3f1b5ced	0.6068867
11	0x3f1d251a	0.6138474
12	0x3f4272c3	0.7595636
13	0x3f363fc8	0.7119107
14	0x3f1af3e3	0.6052839
15	0x3f420ad5	0.7579778
16	0x3f0cc4c9	0.5498777
17	0x3f064778	0.524528
18	0x3f13f918	0.5780196
19	0x3ed9c630	0.42534018
20	0x3f2c8646	0.67392385
21	0x3f1d8795	0.61535007
22	0x3f1675c8	0.5877347
23	0x3f28cf04	0.6594088
24	0x3f2b0f17	0.668199
25	0x3f01cf9d	0.5070742
26	0x3f26a7d9	0.65099865
27	0x3f5497b5	0.83043987
28	0x3f50bc76	0.8153757
29	0x3eeeba26	0.46626395
30	0x3f51274b	0.8170058
31	0x3f598a0a	0.84976256

gnn.gnn_layers.0.bn_layer.bias f4 [32]
0	0x3c4cb02f	0.012493177
1	0x3d54c958	0.05194983
2	0xbdb4f9b4	-0.088366896
3	0xbcefa4e7	-0.029253436
4	0x3d666dcd	0.056257058
5	0xbd6f0f2c	-0.05836408
6	0x3d51e3dd	0.051242698
7	0x3dd0134b	0.1015993
8	0xbd630779	-0.05542705
9	0xbcb460d8	-0.022018835
10	0x3d8aa0b4	0.06768933
11	0xbd01ee3e	-0.031721346
12	0x3db779aa	0.089587525
13	0x3dd658a7	0.10466128
14	0x3d99b3f6	0.07505028
15	0xbc8b1de3	-0.016982025
16	0xbcc8647c	-0.024461977
17	0x3cdc2b96	0.026876252
18	0x3dbc0a2e	0.09181629
19	0x3d191eeb	0.037383
20	0x3da39944	0.079882175
21	0xbd6a74e7	-0.057240393
22	0xbd030ae3	-0.031992804
23	0xbaddfd14	-0.0016936385
24	0x3d0179e9	0.031610403
25	0x3cef0c5d	0.0291807
26	0xbb3cb5bf	-0.0028794853
27	0xbc8bb144	-0.0170523
28	0x3d6fd524	0.058552876
29	0xbca299d7	-0.019848747
30	0x3d73abec	0.05949013
31	0xbda5f2d5	-0.08102957

gnn.gnn_layers.0.bn_layer.running_mean f4 [32]
0	0x3ef0dfd8	0.4704578
1	0x3f095bc0	0.53655624
2	0x3c21f260	0.009884447
3	0x3e839cbb	0.25705513
4	0x3ec51974	0.38495982
5	0x3e1959f8	0.14975727
6	0x3dd0191b	0.101610385
7	0x3e384cbd	0.17998023
8	0x3d55e16e	0.05221694
9	0x3e5d44e6	0.21608314
10	0x3d9543ed	0.072883464
11	0x3d651402	0.055927284
12	0x3d9df45f	0.07712626
13	0x3e94c916	0.29059666
14	0x3e572639	0.21010675
15	0x3cb4583b	0.022014728
16	0x3e9a3c05	0.30123916
17	0x3dd33859	0.10313482
18	0x3f0d4fb9	0.5519977
19	0x3f41c5fc	0.75692725
20	0x3c0e1e55	0.008674224
21	0x3ded2424	0.11579159
22	0x3e36c1f1	0.1784742
23	0x3cdd0add	0.02698272
24	0x3e44a53f	0.19203661
25	0x3e635455	0.22200139
26	0x3bf7b161	0.007558987
27	0x3dcfbf21	0.10143877
28	0x3cc0b7e8	0.023525193
29	0x3e0417f8	0.12899768
30	0x3dcc10ce	0.09964143
31	0x3bd8d661	0.006617353

gnn.gnn_layers.0.bn_layer.running_var f4 [32]
0	0x3ed8ffed	0.42382756
1	0x3f1e8cd0	0.6193361
2	0x3b470064	0.0030365223
3	0x3e38a7da	0.1803278
4	0x3ebc4837	0.36773846
5	0x3e34d3d8	0.17658937
6	0x3d8db934	0.0692009
7	0x3dc9ad9c	0.098475665
8	0x3d349a04	0.044092193
9	0x3e3e6ad2	0.18595436
10	0x3d4875a7	0.048940327
11	0x3ca1333a	0.019677747
12	0x3d2919b2	0.04128427
13	0x3e4c2ad6	0.19938216
14	0x3df87e5c	0.12133476
15	0x3c5285e2	0.012849303
16	0x3e60b77a	0.21944991
17	0x3d821e26	0.063534066
18	0x3ee13e9b	0.43993077
19	0x3f3cbfa1	0.737299
20	0x3b538fb9	0.003228171
21	0x3dbe7d04	0.093011886
22	0x3e43c678	0.19118679
23	0x3c1ef442	0.00970179
24	0x3e217123	0.15765814
25	0x3e152db9	0.14568223
26	0x3ba77171	0.005109959
27	0x3d4d02ed	0.05005162
28	0x3c59589d	0.013265756
29	0x3d245613	0.04012115
30	0x3d2b3748	0.041800767
31	0x3b4e9848	0.0031523872

gnn.gnn_layers.1.graph_conv.weight f4 [32, 32]
0	0x3dccf26e	0.10007177
1	0x3ded2d91	0.11580957
2	0xbe17353f	-0.14766406
3	0xbd5a6bcc	-0.05332546
4	0x3bcfd3a9	0.0063423705
5	0xbde864f4	-0.1134738
6	0x3e19d24a	0.15021625
7	0xbc27d83c	-0.010244425
8	0x3e423fcb	0.18969648
9	0x3d82cd64	0.063868314
10	0xbd994999	-0.07484741
11	0xbda49666	-0.08036499
12	0x3c0f47a3	0.008745107
13	0xbc36f0d0	-0.011165813
14	0x3baf6f56	0.0053538484
15	0xbda845ca	-0.08216436
16	0xbe66f44a	-0.22554126
17	0x3e4b58e8	0.19858134
18	0x3dfcf8f3	0.12352171
19	0xbcf1cde9	-0.02951713
20	0xbddf8e43	-0.10915806
21	0x3caf3f1c	0.021392398
22	0x3c8be942	0.017079
23	0xbcbc1d9f	-0.022963343
24	0xbe02e5e9	-0.12783016
25	0x3cc788c0	0.0243572
26	0x3d037966	0.032098196
27	0x3c9efef9	0.01940869
28	0xbde15c19	-0.11003894
29	0xbd8174d3	-0.063211106
30	0xbdb10885	-0.08644203
31	0xbca3c0ee	-0.019989457
32	0xbdff6d3b	-0.12472006
33	0xbc93b17d	-0.018028969
34	0x3dce0b77	0.100607805
35	0x3e058b70	0.13041472
36	0x3dbd09bc	0.09230372
37	0xbdafecef	-0.08590113
38	0x3d850eb1	0.06496943
39	0x3e5ace0f	0.21367668
40	0x3e044f9f	0.12920998
41	0x3da177f7	0.078842096
42	0x3e11d6e9	0.14242138
43	0xbe09d779	-0.13461103
44	0x3d5729d4	0.052530125
45	0x3d6b09cd	0.057382394
46	0x3e1382c4	0.14405352
47	0x3d7e1f79	0.062041733
48	0xbdab558c	-0.08365926
49	0xbd3194eb	-0.04335491
50	0xbd89d9c2	-0.06730987
51	0x3e020985	0.12698944
52	0xbd8e9f39	-0.06963963
53	0x3da25a6b	0.07927402
54	0xbdbd938e	-0.092566594
55	0xbdf32bca	-0.118735865
56	0xbdcd1b98	-0.10015029
57	0x3d864c55	0.06557528
58	0x3dae4b71	0.08510483
59	0xbe39db83	-0.18150143
60	0x3dabf34e	0.08396016
61	0x3c9bad4e	0.019003537
62	0x3d38f727	0.045157578
63	0x3d67757e	0.056508534
64	0x3c467a51	0.012114123
65	0x3dca210c	0.098695844
66	0x3cd5f294	0.026116647
67	0xbd66b1c5	-0.056321878
68	0x3e5df349	0.21674837
69	0x3e710ccd	0.2354004
70	0x3e78fe44	0.24315745
71	0xbb6d1bfd	-0.0036180012
72	0xbcc9e0bc	-0.024643295
73	0xbe2e643b	-0.17030422
74	0x3cd7a31e	0.026322898
75	0xbe745740	-0.23861408
76	0x3dfec73c	0.12440345
77	0xbdc76a50	-0.097370744
78	0xbd5ef8c6	-0.054436468
79	0xbdd17aeb	-0.10228523
80	0xbc143215	-0.009045144
81	0x3e581a5e	0.21103808
82	0x3e3e3bc4	0.18577486
83	0xbdfd80b9	-0.123780675
84	0xbc77e273	-0.015129673
85	0x3d9234a1	0.071389444
86	0xbda0c229	-0.07849533
87	0x3d804fc9	0.06265218
88	0xbe2ed4f5	-0.17073424
89	0x3ddd0bcd	0.107932664
90	0x3cb2a50f	0.021807222
91	0x3d962fc8	0.07333332
92	0x3eaeac99	0.34116057
93	0x3d17bd34	0.037045673
94	0xbdec6368	-0.11542398
95	0x3e80b28c	0.2513622
96	0x3d71305c	0.05888401
97	0xbd821ab5	-0.0635275
98	0x3bafe37a	0.0053676935
99	0x3e057b29	0.13035263
100	0xbd232408	-0.039829284
101	0x3c23fa16	0.010008356
102	0x3e263b57	0.16233574
103	0x3b3eb516	0.0029099635
104	0x3d1e6f37	0.03868028
105	0xbdc80de2	-0.09768273
106	0xbdde1296	-0.10843389
107	0x3d915a94	0.070973545
108	0xbcc9ef4a	-0.024650235
109	0xbcbe1430	-0.023202986
110	0xbe10b71b	-0.14132349
111	0x3d032777	0.03202006
112	0xbdbf246f	-0.09333121
113	0x3e0c4093	0.13696508
114	0xbde8c4d2	-0.113656655
115	0x3c00514b	0.007831882
116	0xbe0028d9	-0.12515582
117	0x3dcd2c38	0.100182
118	0xbd3adce9	-0.045620833
119	0x3caf7cc3	0.021421796
120	0x3cc9a24c	0.024613522
121	0x3e3eccde	0.18632838
122	0x3e494a6d	0.19657297
123	0x3d0fed98	0.035138696
124	0xbe2f9ecf	-0.17150424
125	0xbd5f02aa	-0.0544459
126	0xbd11a14e	-0.035554223
127	0xbe51aaba	-0.20475283
128	0xbd2056e0	-0.03914535
129	0xbdc986b4	-0.09840146
130	0xbdbf0f85	-0.09329132
131	0x3cef5487	0.02921511
132	0xbd576505	-0.052586574
133	0xbdf85fab	-0.12127622
134	0xbe244b0b	-0.16044252
135	0xbcdd37cf	-0.02700415
136	0xbd266cc8	-0.040631086
137	0x3e20d2c1	0.15705396
138	0xbe338343	-0.17530541
139	0xbd263207	-0.040575054
140	0xbd05ac7d	-0.0326352
141	0x3d8b99e0	0.06816459
142	0x3db60d46	0.088892505
143	0xba9d7c6a	-0.0012015228
144	0x3e1ff2b0	0.15619922
145	0xbe26304a	-0.16229358
146	0xbd9cceab	-0.07656606
147	0x3e1ac5d4	0.15114528
148	0xbe27c037	-0.16381918
149	0xbd7aab63	-0.061198603
150	0xbd7bdd36	-0.06149026
151	0x3dc22cfe	0.09481238
152	0x3c6ba790	0.014383212
153	0x3d0728c0	0.032997847
154	0x3e051a13	0.12998228
155	0xbe127c6c	-0.14305276
156	0x3ca6d94d	0.020367289
157	0xbe147776	-0.14498696
158	0x3dd08e91	0.101834424
159	0x3cb4e37f	0.022081135
160	0xbc47014e	-0.012146307
161	0x3da2c052	0.079468384
162	0x3d29da8f	0.0414682
163	0x3e019893	0.12655859
164	0xbd55cef5	-0.052199323
165	0x3d60bbed	0.05486672
166	0x3e036bea	0.12834135
167	0xbdf90f8a	-0.12161167
168	0xbe461b58	-0.19346368
169	0xbdcb4afa	-0.0992641
170	0x3d23d384	0.03999664
171	0xbe45021c	-0.19239086
172	0xbd6ced46	-0.05784347
173	0xbd90bf3a	-0.070677236
174	0xbd9d90e9	-0.07693655
175	0x3e0377bc	0.12838644
176	0x3e4cb118	0.19989431
177	0x3e19bca1	0.15013362
178	0xbc6c0dfe	-0.014407633
179	0x3d14efb5	0.036361415
180	0x3ce9c132	0.028534506
181	0x3ba21c3d	0.004947214
182	0x3e812eea	0.25231105
183	0x3e385a1e	0.18003127
184	0xbdf80117	-0.12109583
185	0x3e222c79	0.15837277
186	0xbd2c48ff	-0.042061802
187	0x3cf66cee	0.030081239
188	0xbded04ff	-0.115732186
189	0x3d8fe90f	0.07026874
190	0xbdcbbdaf	-0.09948289
191	0xbd927da8	-0.07152873
192	0xbd5e4425	-0.054264206
193	0xbe2cae80	-0.16863441
194	0x3c94dee9	0.018172698
195	0xbd373182	-0.04472495
196	0x3c1936d8	0.009351455
197	0xbe2e85a6	-0.1704317
198	0xbe18ec76	-0.14933953
199	0x3de17104	0.11007884
200	0xbca784b6	-0.020449024
201	0xbd4b2b0b	-0.049601596
202	0x3e4a8ae9	0.19779553
203	0x3e4f0266	0.20215759
204	0x3cb787c3	0.022403603
205	0x3e58f787	0.21188174
206	0x3d19be13	0.037534785
207	0xbe160c49	-0.14653124
208	0xbd609b12	-0.054835387
209	0xbe2dfffe	-0.16992185
210	0x3d756b15	0.059916575
211	0x3e49e878	0.19717586
212	0xbe2ce604	-0.16884619
213	0x3e08e7b9	0.13369645
214	0xbdbf13b3	-0.09329929
215	0xbba89193	-0.005144307
216	0xbbe9fa32	-0.0071404213
217	0xbcd4865d	-0.025942976
218	0x3e1e6047	0.15466414
219	0xbd9581d1	-0.07300151
220	0xbd60ee81	-0.054914955
221	0x3e2af9ff	0.16696928
222	0x3e50f2db	0.20405142
223	0xbe00ad0d	-0.12566014
224	0x3e25d54e	0.1619465
225	0xbd325390	-0.043536723
226	0xbdfa32d5	-0.12216727
227	0x3c551b51	0.013007001
228	0xbd17996f	-0.03701156
229	0xbe308cd5	-0.17241223
230	0x3d7c096c	0.061532423
231	0xbd8af066	-0.067841336
232	0x3e59f17c	0.21283525
233	0xbe04d644	-0.12972361
234	0x3e01cb5b	0.1267523
235	0x3dcba108	0.09942824
236	0xbe286b7e	-0.16447255
237	0x3b6d2ed9	0.0036191253
238	0x3e042bb1	0.12907292
239	0x3db94eb9	0.09048218
240	0x3e3f1992	0.18662098
241	0x3d9fe75d	0.07807801
242	0xbdfb8de8	-0.12282926
243	0x3dfeccbe	0.12441395
244	0xbd39f221	-0.045396928
245	0x3e25dc46	0.16197309
246	0xbd43a202	-0.047761925
247	0xbd846f21	-0.06466509
248	0x3de7a3e8	0.113105595
249	0x3e394f28	0.18096602
250	0x3e5adab5	0.21372493
251	0xbe24311b	-0.16034357
252	0xbd6a5a9d	-0.05721532
253	0x3d76e05b	0.060272556
254	0xbded6d06	-0.1159306
255	0x3d9a2c7f	0.07528018

gnn.gnn_layers.1.graph_conv.bias f4 [32]
0	0x3c74587b	0.0149136735
1	0x3d9d468d	0.07679472
2	0x3ce51962	0.027966205
3	0xbbecbcef	-0.007224671
4	0x3d197c7c	0.037472233
5	0xbc90ce86	-0.017676603
6	0x3c7226a1	0.014779718
7	0x3c9a803e	0.018859979
8	0xbb11ef5c	-0.0022267913
9	0x3d3fb61c	0.046804532
10	0xbd951482	-0.07279302
11	0x3d84d79d	0.064864375
12	0x3d0a1f4d	0.033721257
13	0xbcb515d1	-0.02210513
14	0xbc3aec2d	-0.011408848
15	0xbda0afc6	-0.07846026
16	0x3c628b2e	0.013827128
17	0xbd11828d	-0.035524894
18	0x3c72650a	0.014794597
19	0x3d090d77	0.033460107
20	0x3db59818	0.088669
21	0x3afdf5fe	0.001937568
22	0x3c2b2f4c	0.010448288
23	0xbcc92c39	-0.02455722
24	0xbd8d39b4	-0.068957716
25	0xbbb691d9	-0.0055715856
26	0x3d3480ee	0.04406827
27	0xbdf7596f	-0.12077605
28	0xbd864163	-0.0655544
29	0xbd06066b	-0.032720964
30	0x3c71198c	0.0147155635
31	0x3d0d4042	0.03448511

gnn.gnn_layers.1.res_connection.weight f4 [32, 32]
0	0xbc5da23f	-0.013527452
1	0xbb643297	-0.0034820193
2	0x3989815d	0.0002622706
3	0x3c3f813c	0.011688527
4	0xbc96bd62	-0.018400852
5	0x3c809de9	0.015700297
6	0x3db55c73	0.08855524
7	0xbd1c35bc	-0.038137183
8	0xbaf2f403	-0.0018535856
9	0x3d370bd3	0.04468901
10	0xbcf08261	-0.029359045
11	0x3cbfe97d	0.023426766
12	0xbb45d8ce	-0.003018904
13	0x3c754565	0.014970158
14	0xbd5554d1	-0.05208284
15	0x3ccba315	0.024858037
16	0xbc2bcace	-0.010485364
17	0xbc92bb83	-0.017911678
18	0xbd2feae7	-0.04294863
19	0x3c4e72b5	0.0126005905
20	0x3abd6bbb	0.0014451662
21	0xbd147cd1	-0.036251847
22	0x3cd1af36	0.025596242
23	0x3cba2bcd	0.022725964
24	0xbb77b9da	-0.0037799985
25	0xbd20c33b	-0.039248686
26	0x3c0c1d22	0.008551868
27	0x3d9b686e	0.07588278
28	0x3d537c2d	0.051632095
29	0x3b351400	0.002763033
30	0x3db895fe	0.09012984
31	0x3d081ff0	0.033233583
32	0xbd85be65	-0.065304555
33	0xbd17eab6	-0.037089072
34	0x3d967bcd	0.07347832
35	0x3c4d56f3	0.012532937
36	0xbcc8bd0e	-0.02450421
37	0xbd7f10da	-0.06227193
38	0xbd14c2a3	-0.036318433
39	0xbbf6856f	-0.0075232307
40	0x3dcb366f	0.09922492
41	0xbd2f6029	-0.042816315
42	0x3d72ae1d	0.05924808
43	0x3dcfb426	0.101417825
44	0xbcb93183	-0.022606617
45	0xbd17d8ee	-0.037072115
46	0xbcdeadb5	-0.02718244
47	0x3d87801b	0.06616231
48	0x3c171268	0.009220697
49	0x3c21a8da	0.0098669175
50	0xbb578473	-0.0032885342
51	0xbd5a5358	-0.05330214
52	0xbcbcf073	-0.023063874
53	0x3c8a0479	0.016847836
54	0xbbcb46a8	-0.0062034912
55	0xbbfd70e5	-0.0077344053
56	0x3d54ae25	0.05192389
57	0x3cf6a26f	0.030106751
58	0xbcf6451f	-0.030062256
59	0xbd658e83	-0.056044113
60	0xbc9bbd83	-0.019011265
61	0x3c261dc4	0.010138933
62	0xbd4dcf50	-0.050246537
63	0x3de9a7f5	0.114089884
64	0x3ca33f7d	0.019927735
65	0xbcf641d6	-0.03006069
66	0x3e03f7b7	0.12887464
67	0x3be53197	0.006994437
68	0xbc9a529d	-0.018838221
69	0xbcd793ad	-0.026315534
70	0xbd555dd3	-0.05209143
71	0xbcd7e03b	-0.026352039
72	0xbd16dabe	-0.036829703
73	0x3c072465	0.008248423
74	0xbc7e2410	-0.015511528
75	0x3ce72e1e	0.028220233
76	0x3a191e4e	0.00058410026
77	0xbca626ec	-0.020282231
78	0xbc2deaef	-0.010615095
79	0x3d695776	0.056968175
80	0xbc6f18d2	-0.01459332
81	0x3c8da4e2	0.017290536
82	0xbca19709	-0.01972534
83	0x3ad5b96a	0.0016305868
84	0xbd178ba7	-0.036998417
85	0x3b85ce76	0.00408345
86	0x3b8e2a7c	0.0043385606
87	0xb9f93b7a	-0.00047537294
88	0x3cb24112	0.021759544
89	0xbb5a95c0	-0.0033353418
90	0x3cac45f6	0.021029454
91	0xbb37112f	-0.0027933826
92	0xb9b99021	-0.00035393334
93	0x3ce79d0e	0.028273132
94	0xbb45f56b	-0.0030206095
95	0x3d0ec7c5	0.034858484
96	0x3c6f88fa	0.01462006
97	0xbcdfa030	-0.027298063
98	0x3d432cc5	0.047650117
99	0x3d619220	0.055070996
100	0x3ad811ff	0.0016484855
101	0x3c07e09d	0.008293298
102	0xbac39412	-0.0014921448
103	0x3d13cc9b	0.0360838
104	0x3d0fd631	0.03511638
105	0x3d42e68f	0.04758316
106	0x3ce5e089	0.028061168
107	0x3c81b713	0.015834367
108	0xbc5d3bc8	-0.0135030225
109	0xbce527b6	-0.027973037
110	0x3c9c0f9e	0.019050416
111	0xbcb6b5bf	-0.02230346
112	0x3d6b947c	0.057514653
113	0x3ce5f09d	0.028068835
114	0x3d961adc	0.07329342
115	0xbcc91ca0	-0.024549782
116	0x3cad97c9	0.02119054
117	0x3c7d1d7f	0.015448927
118	0x3a9b72b4	0.0011859746
119	0xbce89f20	-0.02839619
120	0xbc4b1549	-0.0123952115
121	0xbcb6bb89	-0.02230622
122	0xbc688310	-0.014191404
123	0x3d47cec8	0.048781186
124	0x3ca28378	0.01983808
125	0x3d8bce04	0.06826404
126	0x3d30e51b	0.043187242
127	0xbc8310e8	-0.015999272
128	0x3d34b36b	0.04411642
129	0x3cb47aca	0.022031207
130	0xbca951c5	-0.020668874
131	0x3c9fc955	0.019505182
132	0xbc87a22d	-0.016556824
133	0xbcd1ff98	-0.025634572
134	0xbd3b0fbc	-0.045669302
135	0xbb6cfe3e	-0.0036162282
136	0x3ba88325	0.005142587
137	0x3a7c376c	0.00096212956
138	0xbd20aa59	-0.039224956
139	0x3d502912	0.050820418
140	0xbc785d51	-0.015158967
141	0xbd0b5e02	-0.0340252
142	0x3c225548	0.009908028
143	0x3da78b99	0.08180923
144	0x3d2dbc06	0.04241564
145	0xbb8c07ae	-0.0042733764
146	0x3cfe2b6f	0.03102657
147	0x3b85df7c	0.0040854793
148	0x3cc04de1	0.023474636
149	0xbd14a443	-0.036289465
150	0x3caa9218	0.020821616
151	0xbd04a30b	-0.032382052
152	0x3c73240e	0.014840139
153	0xbc9a0d90	-0.018805295
154	0xbc6610c0	-0.014042079
155	0xbc973ce0	-0.018461645
156	0xba8de745	-0.001082637
157	0xbcc62a21	-0.02419001
158	0xbc816652	-0.01579586
159	0x3d89ed19	0.06734676
160	0xbda31ab8	-0.079640806
161	0xbb8d0adf	-0.0043042745
162	0xbd325360	-0.043536544
163	0xbd7f1aae	-0.062281303
164	0xbc1f1d65	-0.009711598
165	0xbd9fbf44	-0.07800153
166	0xbd6c6c4d	-0.05772047
167	0xbd24eac5	-0.040262956
168	0x3deae7f9	0.114700265
169	0x3cda6a35	0.026661972
170	0x3ca31446	0.019907128
171	0x3d4b669e	0.04965841
172	0xbd6407f8	-0.055671662
173	0xbd422db8	-0.047406882
174	0xbd354349	-0.04425362
175	0x3da47431	0.08029974
176	0xbd5850dc	-0.05281149
177	0x3d0ccfd0	0.034377873
178	0xbc6a3807	-0.0142955845
179	0x3bbe4b24	0.0058072973
180	0xbbb99ea8	-0.0056646653
181	0x3ba36ff8	0.004987713
182	0x3d16af38	0.036788195
183	0x3dc76990	0.09736931
184	0xbc352f91	-0.011058704
185	0x3c7b7801	0.015348435
186	0xbccea7ce	-0.0252265
187	0xbd4c6253	-0.049898457
188	0xbd0f65d6	-0.035009228
189	0x3d491686	0.049093746
190	0xbcd1ef65	-0.025626848
191	0xbc85d2f7	-0.016335947
192	0xbc1bf3fa	-0.009518618
193	0xbd0892a0	-0.033342957
194	0x3da0c2db	0.07849666
195	0xbd7243ca	-0.05914668
196	0x3b8be100	0.0042687654
197	0xbdbe1451	-0.09281219
198	0xbd0dae1b	-0.034589868
199	0x3d80228b	0.062565885
200	0x3d65b45f	0.05608022
201	0x3c20fdff	0.009826182
202	0x3d9b9b39	0.07597966
203	0x3cb14845	0.021640906
204	0x3cbf9155	0.02338473
205	0x3b3109c6	0.0027013882
206	0x3b6cf4b1	0.003615659
207	0x3d6c0787	0.057624366
208	0x3c7556f6	0.014974346
209	0x3b8f9640	0.004381925
210	0xbd1a087e	-0.037605755
211	0xbcda29af	-0.026631204
212	0x3c0f7349	0.0087555135
213	0xbcbc03f6	-0.022951107
214	0x3cf0ed7d	0.029410118
215	0x3d793d97	0.060849752
216	0x3c003079	0.007824057
217	0xbca5663b	-0.020190349
218	0xbc53d7bb	-0.012929852
219	0xbd09700c	-0.03355412
220	0xbd56e0c1	-0.052460436
221	0xba986409	-0.0011626492
222	0x3ba3979c	0.0049924385
223	0x3db601ef	0.088870876
224	0x3cb91b5b	0.022596052
225	0x3bd90233	0.0066225766
226	0xbcef8c33	-0.029241657
227	0xbd7cf5c9	-0.061757836
228	0x3c9b0798	0.01892452
229	0xba697003	-0.00089049357
230	0xbc797946	-0.015226668
231	0xbd1ff329	-0.039050255
232	0x3c67f5dd	0.0141577395
233	0x3c286902	0.010278942
234	0xbd26a12b	-0.040681046
235	0x3c3a6db1	0.0113786915
236	0x3d927d6c	0.071528286
237	0x3d7a7bb0	0.061153114
238	0x3d2284f2	0.039677568
239	0x3acb68ce	0.0015518905
240	0xbc9fe533	-0.01951847
241	0xbc81192f	-0.015759079
242	0x3cf44c28	0.02982147
243	0x3d5ec60d	0.054388095
244	0x3c1e2beb	0.009654026
245	0x3dd5745e	0.10422586
246	0x3d798f60	0.06092775
247	0xbc79da2e	-0.015249772
248	0x3c386f9b	0.011257078
249	0xbd9126cf	-0.0708748
250	0x3b2f9a5e	0.002679489
251	0xbd78986d	-0.06069224
252	0x3acbb3f9	0.0015541307
253	0xbd48f188	-0.049058467
254	0xbd21cc4f	-0.039501484
255	0xbc83965a	-0.016062904

gnn.gnn_layers.1.res_connection.bias f4 [32]
0	0xb9a7aec8	-0.00031982944
1	0x3bf51c2c	0.007480165
2	0xbd74ccb0	-0.059765518
3	0xbd4a2ab5	-0.049357135
4	0xbda858db	-0.08220073
5	0xbd628309	-0.055300746
6	0x3c2608b7	0.010133914
7	0x3be3b7ab	0.006949385
8	0xbc7460d3	-0.014915663
9	0xbbc6168a	-0.0060451673
10	0xbd3dde7f	-0.046354767
11	0xbd77e07c	-0.06051682
12	0x3d0d0105	0.0344248
13	0xbb2aa09b	-0.002603567
14	0xbce409a8	-0.027836636
15	0xbb94104d	-0.0045185448
16	0x3c98c73e	0.018649694
17	0xbd8db918	-0.069200695
18	0xbd410eea	-0.047133364
19	0xbd2f46af	-0.04279202
20	0xbdf7497d	-0.12074564
21	0x3d1498a5	0.036278386
22	0xbd20aea5	-0.039229054
23	0xbd468d70	-0.04847473
24	0xbcb4eb59	-0.022084879
25	0x3d0423de	0.032260768
26	0xbc1808af	-0.009279414
27	0xbd8af842	-0.06785633
28	0xbc43dd33	-0.0119545935
29	0xbdf5b3cc	-0.11997184
30	0xbd3557f8	-0.044273347
31	0x3cb7bfaf	0.022430269

gnn.gnn_layers.1.bn_layer.weight f4 [32]
0	0x3f127b4c	0.57219386
1	0x3f1c64f0	0.6109152
2	0x3f00bbf4	0.50286794
3	0x3f04abea	0.5182482
4	0x3f28b4d2	0.6590091
5	0x3f38596a	0.72011435
6	0x3f12deb6	0.5737108
7	0x3f1b5b94	0.6068661
8	0x3f09e505	0.5386508
9	0x3f29ca03	0.6632387
10	0x3f109985	0.5648425
11	0x3f4c4220	0.797884
12	0x3f06a68d	0.52597886
13	0x3f0b4c33	0.54413146
14	0x3f1ff4a8	0.6248269
15	0x3f0bf6eb	0.5467364
16	0x3f20dda4	0.62838197
17	0x3f3fe59c	0.7495973
18	0x3f1de54b	0.61678
19	0x3f43aa2b	0.7643153
20	0x3f4913f8	0.78546095
21	0x3efa8a30	0.48933554
22	0x3ef5a717	0.47979042
23	0x3f054c9b	0.52070016
24	0x3f2edbad	0.6830395
25	0x3efba055	0.4914576
26	0x3f08bea1	0.53415877
27	0x3f435a2c	0.76309466
28	0x3f056ab3	0.52115935
29	0x3f2dc876	0.67884004
30	0x3f087412	0.5330211
31	0x3f111962	0.56679356

gnn.gnn_layers.1.bn_layer.bias f4 [32]
0	0x3da6eb59	0.08150358
1	0xbd42fd1f	-0.047604676
2	0xbda25d78	-0.07927984
3	0xbd096cd7	-0.033551063
4	0xbced9403	-0.029001242
5	0xba03f0bb	-0.0005033125
6	0x3d4983ac	0.049197838
7	0xbc3bd3b7	-0.011464051
8	0x3cd5cf10	0.026099712
9	0x3c092e22	0.008372815
10	0x3b27003b	0.0025482315
11	0x3df8f187	0.12155443
12	0xbd1e9562	-0.03871668
13	0x3c8d9ff2	0.017288182
14	0x3d40c518	0.047062963
15	0xbc841752	-0.016124401
16	0xbc83db73	-0.016095852
17	0x3ccfae81	0.025351765
18	0x3a9036c3	0.0011002648
19	0x3dbde4d9	0.09272165
20	0xbd16a550	-0.036778748
21	0x3c1bd9d5	0.009512384
22	0xbc3ed75a	-0.0116480235
23	0xbdba9bbf	-0.091117375
24	0x3b74349f	0.003726281
25	0x3d519faa	0.05117766
26	0x3a9caba0	0.0011953004
27	0x3c57ca94	0.013170857
28	0x3d75fac1	0.06005359
29	0x3d7c07b2	0.061530776
30	0x3d513fc9	0.05108622
31	0xbd924539	-0.071421094

gnn.gnn_layers.1.bn_layer.running_mean f4 [32]
0	0x3f1d6ae3	0.6149122
1	0x3ee352d3	0.44399127
2	0x3ea79572	0.32731205
3	0x3ec236dc	0.3793248
4	0x3e9f072d	0.31060162
5	0x3eac6ef2	0.33678395
6	0x3eb04bd6	0.34432858
7	0x3f0dcbcc	0.55389094
8	0x3f3edbba	0.74554026
9	0x3f53bf4b	0.82713765
10	0x3ea5b08f	0.32361266
11	0x3f561a2c	0.83633685
12	0x3eaf0980	0.34186935
13	0x3ef2df73	0.47436103
14	0x3f30764a	0.68930495
15	0x3eb6b3b6	0.35683984
16	0x3ef263b7	0.473417
17	0x3ec40fbe	0.3829326
18	0x3ebf8896	0.37408894
19	0x3f70cb27	0.94059986
20	0x3ed25d7d	0.4108695
21	0x3e91b267	0.28456423
22	0x3e81a1ed	0.25318852
23	0x3e90a61a	0.28251725
24	0x3f36f5be	0.7146872
25	0x3ee74aa9	0.4517415
26	0x3f2ad0de	0.66724956
27	0x3e6c9ca8	0.23106635
28	0x3e6f727f	0.2338352
29	0x3f0bd2c3	0.5461847
30	0x3ef514f9	0.47867563
31	0x3ebf4349	0.37356022

gnn.gnn_layers.1.bn_layer.running_var f4 [32]
0	0x3fe0021f	1.7500647
1	0x3f9371ea	1.1519139
2	0x3f34288a	0.7037436
3	0x3f5090b1	0.8147078
4	0x3fce5dda	1.6122391
5	0x3fdbcc74	1.7171769
6	0x3f876491	1.0577565
7	0x3fac8550	1.3478184
8	0x3fe7ece6	1.8119171
9	0x40091317	2.1417902
10	0x3f65be2c	0.89743304
11	0x40241811	2.563969
12	0x3f6655b2	0.8997451
13	0x3fe17b68	1.7615786
14	0x3fbf90c8	1.4966059
15	0x3f5ba8da	0.8580452
16	0x3fa0ce0d	1.2562882
17	0x3ffb5ed6	1.9638317
18	0x3f969c14	1.1766381
19	0x403a88e2	2.9146047
20	0x3faf253e	1.368324
21	0x3f437917	0.76356643
22	0x3f0e5fc9	0.55614907
23	0x3f19d5e0	0.6009197
24	0x401f24be	2.4866176
25	0x3f6aacc6	0.9166988
26	0x3fd42ec4	1.6576772
27	0x3f804572	1.0021193
28	0x3f52a0c8	0.8227658
29	0x401037a6	2.2533965
30	0x3f8f2b65	1.1185118
31	0x3f3abc40	0.72943497

gnn.gnn_layers.2.graph_conv.weight f4 [32, 32]
0	0x3da33fd8	0.079711616
1	0x3dc6d03d	0.09707687
2	0xbd67c70a	-0.056586303
3	0x3dd78935	0.10524217
4	0x3d333a81	0.043756966
5	0x3dcede07	0.10100942
6	0x3e2cc310	0.16871285
7	0xbdff8b20	-0.12477708
8	0x3d8c6992	0.068560734
9	0x3c659e7f	0.014014839
10	0xbd44c2ea	-0.048037447
11	0xbda38c4d	-0.079857446
12	0x3e1371e5	0.14398916
13	0x3deb49cc	0.11488685
14	0xbe2d1477	-0.16902338
15	0x3d375fbe	0.04476904
16	0x3d40c6d0	0.047064602
17	0x3d71f52b	0.0590717
18	0x3e58241d	0.21107526
19	0x3de87439	0.11350293
20	0xbc8c449a	-0.017122556
21	0xbcde5d75	-0.027144173
22	0x3e1a2e62	0.15056756
23	0xbe0aa87f	-0.13540839
24	0x3db36e70	0.08761299
25	0xbda868b4	-0.082230955
26	0xbd5e1aee	-0.0542249
27	0xbd45f342	-0.04832769
28	0x3dae3fd0	0.08508265
29	0xbd49489e	-0.04914152
30	0xbdb432a7	-0.08798724
31	0x3d6fc736	0.05853959
32	0x3e2df1c7	0.16986762
33	0xbe44e9a6	-0.19229755
34	0xbd89a686	-0.06721215
35	0xbd8b73ff	-0.06809234
36	0xbde3be0c	-0.11120233
37	0x3d87a8af	0.06623971
38	0xbde49854	-0.11161867
39	0xbcc6340c	-0.02419474
40	0x3de13b65	0.10997657
41	0x3dcad3f8	0.09903711
42	0xbdec53ad	-0.115393974
43	0x3e3bf480	0.18354988
44	0xbe0b5d12	-0.13609722
45	0xbdd956f5	-0.10612289
46	0xbb10b2d2	-0.0022079241
47	0xbdf3c2ef	-0.11902415
48	0xbd53093f	-0.05152249
49	0x3db73880	0.089463234
50	0xbe1cf5db	-0.15328161
51	0x3e498273	0.19678669
52	0xbc2cbb23	-0.010542664
53	0x3def943c	0.11698195
54	0x3a1e1c68	0.00060314545
55	0x3da3090d	0.07960711
56	0x3d353cf5	0.044247586
57	0x3dfc341f	0.12314629
58	0xbe279da4	-0.16368729
59	0x3de0293a	0.10945363
60	0x3daf9f6f	0.085753314
61	0x3d4d2934	0.050088122
62	0xbd85d847	-0.06535392
63	0xbdf12e15	-0.117763676
64	0xbd81fb1b	-0.06346723
65	0x3d7372bc	0.05943559
66	0x3e0212cd	0.12702484
67	0x3c45223a	0.012032086
68	0x3e1f47e0	0.15554762
69	0xbe13187b	-0.14364807
70	0xbdcc50c5	-0.09976343
71	0xbcdd067d	-0.026980633
72	0x3d896bb8	0.06709999
73	0xbdb9338c	-0.09043035
74	0x3e139da7	0.14415608
75	0x3c87eca0	0.016592324
76	0xbe21733d	-0.15766616
77	0x3dc7789a	0.097398
78	0x3d0c2a71	0.034220163
79	0xbdd8876c	-0.10572705
80	0xbdc0ee59	-0.09420461
81	0x3d9d55f0	0.07682407
82	0x3d735315	0.059405405
83	0x3e29fe49	0.16600908
84	0xbb1bdf60	-0.0023784265
85	0xbc89d4fe	-0.016825195
86	0xbe1d02cd	-0.153331
87	0x3e034f83	0.128233
88	0x3df87b9e	0.12132953
89	0x3dde5adb	0.10857173
90	0xbe052f78	-0.13006389
91	0xbd3d1f17	-0.046172228
92	0xbe267a89	-0.16257681
93	0x3db5c8b4	0.08876172
94	0x3db48f0a	0.08816345
95	0xbde3059b	-0.110850535
96	0xbc68188d	-0.01416601
97	0xbdc48bf3	-0.09597006
98	0xbe002284	-0.12513167
99	0x3cc4c7a7	0.024020983
100	0xbd06e2a3	-0.03293098
101	0xbcb35c6f	-0.021894662
102	0x3dcf256e	0.10114561
103	0xbd6ded73	-0.058087777
104	0x3db93759	0.0904376
105	0x3e20c7db	0.15701239
106	0xbde99b91	-0.11406625
107	0x3e2839d1	0.16428305
108	0x3d279369	0.040912066
109	0xbd986caa	-0.07442601
110	0x3e1cb24f	0.15302394
111	0x3ce820c1	0.02833593
112	0x3e0b9711	0.13631846
113	0x3d3856ee	0.045004778
114	0x3db2bab3	0.08727016
115	0xbe125456	-0.14289984
116	0x3d89b5de	0.067241415
117	0xbd2dc939	-0.04242823
118	0x3dc3da42	0.09563114
119	0xbab66226	-0.0013914749
120	0xbdbdf8c8	-0.09275967
121	0xbd1761a2	-0.036958344
122	0xbd965016	-0.07339494
123	0x3b590d9e	0.0033119689
124	0x3d5f3c42	0.054500826
125	0x3e228365	0.15870436
126	0xbddc58fc	-0.1075916
127	0xbe3b9440	-0.18318272
128	0x3e1fbd3d	0.15599532
129	0xbd41b7bb	-0.04729436
130	0xbddab36d	-0.10678754
131	0x3c171651	0.009221629
132	0xbe1058d5	-0.14096387
133	0x3d09e55e	0.033666007
134	0xbd486396	-0.048923098
135	0x3e277a98	0.1635536
136	0xbdf7c60b	-0.120983206
137	0x3d91c520	0.07117677
138	0xbdfbd9c6	-0.12297396
139	0xbce4e25c	-0.027939968
140	0x3de62269	0.11237032
141	0xbe1e38e1	-0.15451385
142	0xbdc367c6	-0.095412776
143	0xbe321160	-0.1738944
144	0xbd50dc20	-0.050991178
145	0xbc166b0c	-0.009180795
146	0x3e365474	0.17805654
147	0x3d7133e7	0.05888739
148	0x3e297d5c	0.16551727
149	0x3e57aa75	0.21061118
150	0xbe1d61ac	-0.1536929
151	0xbe335bc3	-0.17515473
152	0x3e8b9727	0.27263758
153	0x3e27fd66	0.16405258
154	0x3e1619a4	0.14658219
155	0x3c54f108	0.012996919
156	0xbda7dbf6	-0.08196251
157	0xbda5f059	-0.08102483
158	0x3e1d057c	0.15334123
159	0xbc2342a9	-0.0099646235
160	0x3dc6e56a	0.09711726
161	0xbd6ef399	-0.05833778
162	0xbdaea2bb	-0.08527132
163	0xbddfff24	-0.10937336
164	0xbde96c19	-0.11397571
165	0xbda40a1c	-0.08009741
166	0x3e0b6e16	0.13616213
167	0x3dc1fe20	0.094722986
168	0x3db41785	0.087935485
169	0xbd98943a	-0.07450147
170	0xbe253b10	-0.16135812
171	0xbd076808	-0.033058196
172	0xbdd20f7f	-0.10256862
173	0xbde5bb3d	-0.112173535
174	0x3e147203	0.14496617
175	0xbe09ccd6	-0.13457045
176	0x3e7fd40f	0.24983238
177	0xbce81c24	-0.028333731
178	0xbd65c7d8	-0.05609879
179	0xba6a96ae	-0.00089488446
180	0x3e50b3d8	0.20381105
181	0xbe00d49b	-0.12581103
182	0xbd48727e	-0.048937313
183	0x3d5854fc	0.052815422
184	0x3e157a62	0.14597467
185	0x3d685ba7	0.05672803
186	0x3d633257	0.05546793
187	0x3e29034c	0.16505164
188	0xbd915bbf	-0.07097577
189	0x3d15ed3c	0.036603197
190	0x3de15d31	0.11004103
191	0xbddff4a0	-0.109353304
192	0xbda25e94	-0.079281956
193	0xbd94334c	-0.072363466
194	0xbcbf3784	-0.023341902
195	0xbe1bee15	-0.1522754
196	0x3d88cd40	0.06679773
197	0x3d8fc39a	0.0701973
198	0x3d995079	0.07486052
199	0x3dc5162f	0.09623372
200	0x3df688c5	0.120378055
201	0xbdbb1dec	-0.091365665
202	0xbdeb39cd	-0.11485634
203	0xbd4c921e	-0.049944036
204	0x3c7c3cc4	0.015395347
205	0x3c223c83	0.009902122
206	0x3e511489	0.2041799
207	0x3d4458e0	0.04793632
208	0x3d45f645	0.048330564
209	0xbd526366	-0.051364325
210	0xbd416db9	-0.04722378
211	0xbd8f9e3d	-0.070126034
212	0x3df6a077	0.12042325
213	0x3da20d73	0.079127215
214	0xbe10cacf	-0.14139865
215	0xbdcd8fa0	-0.1003716
216	0x3de82a99	0.1133625
217	0x3d966bd7	0.073447876
218	0xbda3039b	-0.07959672
219	0x3d75ab87	0.059978034
220	0x3d5968d5	0.05307849
221	0xbd922a3a	-0.0713696
222	0x3d563310	0.05229479
223	0xbe1e26b3	-0.1544445
224	0x3e013540	0.1261797
225	0xbdd9a024	-0.106262475
226	0xbd2d6a8c	-0.04233794
227	0x3cdf7e74	0.027281977
228	0xbc9d345c	-0.019190006
229	0x3da405cb	0.080089174
230	0x3e166180	0.14685631
231	0xbe395fb3	-0.18102913
232	0x3dd0bbc9	0.10192067
233	0x3ddcfef7	0.10790818
234	0x3e046675	0.1292971
235	0xbd54fc32	-0.051998325
236	0x3e36ab0e	0.1783869
237	0x3dacc5ed	0.08436189
238	0xbe08b062	-0.13348535
239	0x3e1a7b87	0.15086184
240	0xbdc7de3a	-0.09759183
241	0xbc6b3d76	-0.014357915
242	0x3c0fe95a	0.008783663
243	0x3d5b424c	0.053530023
244	0x3d14c4e8	0.036320597
245	0x3db5ae30	0.08871114
246	0xbd1f09b1	-0.0388276
247	0x3e670f5a	0.2256445
248	0x3c98aa45	0.018635878
249	0x3c7aa271	0.015297518
250	0xbd3279f7	-0.043573346
251	0xbbd4ea13	-0.0064976304
252	0x3e0d14b4	0.13777429
253	0x3da13ef7	0.07873338
254	0xbde53a6a	-0.11192782
255	0xbda05b5f	-0.07829928

gnn.gnn_layers.2.graph_conv.bias f4 [32]
0	0x3d5bcb60	0.05366075
1	0x3ca4b8e9	0.020107703
2	0x3d01c407	0.031681087
3	0x3d70f099	0.0588232
4	0x3d98c243	0.074589275
5	0xbba08ef0	-0.004899852
6	0x3d730df6	0.059339486
7	0x3d183f41	0.0371697
8	0xbc77d3a0	-0.015126139
9	0x3c305668	0.010762788
10	0xbd11b6a9	-0.03557459
11	0x3d12071d	0.035651315
12	0x3d77360a	0.06035427
13	0x3c2b8c18	0.010470413
14	0x3d7c0fb4	0.061538413
15	0x3d352e11	0.044233385
16	0x3da1b6a5	0.07896165
17	0x3cb75d22	0.022383276
18	0xbcea6376	-0.02861188
19	0x3bb92cbb	0.0056510842
20	0x3c7c7d5f	0.01541075
21	0x3ca283d2	0.019838247
22	0x3c58df10	0.013236776
23	0xbd6546ed	-0.055975843
24	0x38e91ce6	0.000111156885
25	0x3d95dece	0.07317887
26	0x3d2ec74e	0.04267054
27	0xbd1b2109	-0.0378733
28	0x3dad4274	0.084599406
29	0xbcaf13fa	-0.02137183
30	0x3d53ebd9	0.051738594
31	0x3de3d00d	0.11123667
