Results/GCN/saved_model/GCN_bst_35.pth (torch, 68758 bytes, 40 tensors)

gnn.gnn_layers.0.graph_conv.weight f4 [74, 32]
0	0xbd80e30f	-0.06293308
1	0x3d087aff	0.033320423
2	0xbe1d070d	-0.15334721
3	0x3dff8b4c	0.12477741
4	0xbd19852d	-0.037480522
5	0xbcd81468	-0.026376918
6	0xbd41ce57	-0.04731592
7	0xbd6b38d4	-0.057427242
8	0x3c8814d7	0.0166115
9	0xbd50a712	-0.05094058
10	0xbe0aae6d	-0.135431
11	0xbc8a825e	-0.016907867
12	0xbab9939c	-0.0014158371
13	0x3e31a62f	0.1734855
14	0x3e303e08	0.17211163
15	0x3e21d07a	0.15802184
16	0xbddf794d	-0.10911808
17	0x3c9263ff	0.017869947
18	0x3da92a04	0.08259967
19	0xbe544150	-0.2072804
20	0xbda38afa	-0.07985492
21	0x3ddf9926	0.109178826
22	0xbdcee20a	-0.10101707
23	0xbd463acc	-0.048395917
24	0xbe1b9772	-0.1519449
25	0xbe05997c	-0.13046831
26	0x3dd50036	0.10400431
27	0xbe07ef9a	-0.13274994
28	0x3e40c94f	0.18826793
29	0xbddecfd6	-0.10879485
30	0xbe2c2f54	-0.16814929
31	0x3e5ec3a9	0.21754326
32	0x3e9fa9d0	0.31184244
33	0xbebf762e	-0.3739485
34	0x3d65cca8	0.05610338
35	0xbe9bcf4f	-0.304316
36	0x3e7136c3	0.23556046
37	0xbdfb4422	-0.12268855
38	0xbd492e4a	-0.04911641
39	0x3d023b45	0.031794805
40	0x3e66e7f5	0.22549422
41	0x3ec1568e	0.37761348
42	0x3d634bb1	0.055492107
43	0xbe3bd146	-0.1834155
44	0xbecf4273	-0.40480384
45	0xbe7b78c1	-0.24557783
46	0xbe0ce175	-0.1375788
47	0xbe3d301e	-0.18475387
48	0xbb8d35bb	-0.0043093837
49	0xbb9e35e0	-0.0048281997
50	0x3dcf959a	0.10135956
51	0xbd53e260	-0.05172956
52	0xbc1005a6	-0.008790409
53	0xbea187fa	-0.31549054
54	0xbd621133	-0.055192184
55	0xbea50103	-0.32227334
56	0xbe9996a0	-0.2999773
57	0xbdb41579	-0.08793158
58	0xbea7a57e	-0.32743448
59	0xbe42455f	-0.18971775
60	0xbe965dff	-0.29368588
61	0x3e1d913d	0.15387435
62	0x3e8cee73	0.27525672
63	0xbe98a19f	-0.29810807
64	0x3d1dea72	0.038553663
65	0x3e887325	0.26650348
66	0x3d92eb07	0.07173734
67	0x3ea8450b	0.32865176
68	0x3c0ac6e3	0.00847027
69	0xbdbea8ab	-0.093095146
70	0xbdb1d834	-0.086838156
71	0xbe1681b3	-0.14697914
72	0x3e8164c3	0.25272188
73	0xbe09e430	-0.13465953
74	0xbe565ae2	-0.20933107
75	0xbd640d3e	-0.05567669
76	0x3e52a41d	0.20570417
77	0x3dbbe819	0.091751285
78	0xbec33483	-0.38126
79	0xbd9dd65d	-0.07706902
80	0x3d2e9a1a	0.04262743
81	0xbea66119	-0.32495955
82	0xbd216fe4	-0.039413348
83	0xbd9fef05	-0.07809261
84	0x3e2ddb67	0.16978227
85	0xbe75903d	-0.23980804
86	0xbe939e7f	-0.2883186
87	0xbe628dfb	-0.22124474
88	0xbe8a3462	-0.2699309
89	0x3e2469a9	0.16055931
90	0x3dbdb6b5	0.09263364
91	0xbebfa684	-0.3743173
92	0x3d6800fd	0.056641567
93	0xbe1c163a	-0.15242854
94	0xbe723f29	-0.23656906
95	0xbd9494ad	-0.0725492
96	0xbe8cd7e4	-0.2750846
97	0x3dcc498c	0.099749655
98	0x3dd806a7	0.10548144
99	0x3d9a15eb	0.07523712
100	0xbdbac851	-0.091202386
101	0x3b177804	0.0023112306
102	0x3c94ccaf	0.018164007
103	0x3d3ed0c1	0.046585802
104	0xbe1b451f	-0.15163086
105	0xbdff8937	-0.124773435
106	0x3ea2b26e	0.31776756
107	0x3df4b3e0	0.11948371
108	0x3c88cc2b	0.016698917
109	0x3debb5a4	0.115092546
110	0x3e9c2e82	0.30504233
111	0x3d7f42a4	0.062319413
112	0xb5b8680c	-1.373935e-06
113	0x3de6be97	0.11266821
114	0x3d8b92ef	0.06815135
115	0x3e38dd37	0.18053137
116	0xbe0be841	-0.13662817
117	0x3e27d87f	0.1639118
118	0xbe09810a	-0.13428131
119	0x3d7f0f14	0.06227024
120	0x3e4ace18	0.19805181
121	0xbe133e07	-0.1437913
122	0x3de6d9ce	0.11272012
123	0x3e6648d3	0.22488718
124	0x3dd15d6e	0.102228984
125	0xbe497fe2	-0.1967769
126	0xbe5c2e6f	-0.21502088
127	0x3dc2e0da	0.09515543
128	0xbd5df7c8	-0.05419138
129	0xbdb67ea3	-0.08910873
130	0x3d22140b	0.039569896
131	0xbda69fed	-0.08135972
132	0xbe0ec19b	-0.13941042
133	0xbdcb8f0e	-0.09939395
134	0x3e3ad412	0.18244961
135	0xbdf83281	-0.12119008
136	0x3c93ac08	0.018026367
137	0x3d81eae5	0.06343631
138	0x3e03fc09	0.12889113
139	0xbd6814af	-0.05666035
140	0xbd70cd49	-0.058789525
141	0xbe625dbb	-0.22106068
142	0xbe06aa40	-0.13150883
143	0xbd9a8fea	-0.07546981
144	0x0535e86e	8.55327e-36
145	0x3dedf498	0.11618918
146	0x37970b50	1.800587e-05
147	0x3de5aabb	0.11214205
148	0x3e26fe47	0.16307937
149	0xbe2554da	-0.1614565
150	0x3e42c7a3	0.19021468
151	0xbdfed4e0	-0.124429464
152	0x3c7856c9	0.01515741
153	0xbcf1eb3e	-0.029531118
154	0xbdf80d20	-0.121118784
155	0xbe4fc9b9	-0.20291795
156	0xbcc1e238	-0.02366744
157	0xbe090d03	-0.1338387
158	0xbe257239	-0.16156854
159	0xbe4953b0	-0.1966083
160	0xbd9ad024	-0.07559231
161	0x3d72461f	0.059148904
162	0x3c15bd77	0.00913941
163	0x3d3e9414	0.046527937
164	0xbc464192	-0.012100594
165	0xb67ee110	-3.7979953e-06
166	0xb8c7f81b	-9.535273e-05
167	0x384d8b9b	4.9005826e-05
168	0xbb8c74d7	-0.0042863893
169	0xbcfcd1b9	-0.030861722
170	0x3d88487d	0.06654451
171	0x3c350c37	0.0110502755
172	0x10d0c81c	8.234985e-29
173	0x3d245d5a	0.04012809
174	0x3c0db2e0	0.008648604
175	0x3c7a7763	0.015287253
176	0x8093292e	-1.351459e-38
177	0x2b6a4958	8.3235285e-13
178	0x2951dc4d	4.6598403e-14
179	0x3b83e85f	0.0040255035
180	0xb8e70c37	-0.000110172135
181	0x3c0fe480	0.008782506
182	0xb50331a9	-4.887357e-07
183	0x3ea5ef7d	0.32409278
184	0x3d843333	0.06455078
185	0x8594e0be	-1.400041e-35
186	0x3d162a12	0.036661215
187	0x3d016c67	0.03159752
188	0x3c2f166a	0.010686496
189	0xbb096f76	-0.0020970977
190	0xbcab3b8a	-0.020902414
191	0x3d6576e4	0.056021586
192	0xbcfcee99	-0.030875491
193	0x3cd549ae	0.02603611
194	0x3d6fc6c5	0.05853917
195	0x3d93db9c	0.072196215
196	0x3d9fc040	0.07800341
197	0x3b078b17	0.002068227
198	0xbc18d7dc	-0.009328809
199	0xbb9a4b1b	-0.0047086603
200	0xbd629fb1	-0.055328075
201	0xbcd1acdf	-0.025595127
202	0x3d98e303	0.07465174
203	0xbab63673	-0.0013901725
204	0x3e0870c4	0.13324267
205	0x3c9b212d	0.018936718
206	0xbd928988	-0.07155138
207	0xba625015	-0.0008633149
208	0xa7a57b0b	-4.5930103e-15
209	0xbd53521b	-0.051591974
210	0x385373c6	5.0414143e-05
211	0x3dbb01d6	0.091312096
212	0x37d3f7c5	2.5268537e-05
213	0xbbd93c62	-0.0066295126
214	0xbc67131c	-0.014103677
215	0x3cb4025f	0.021973787
216	0xbdf151e7	-0.117832
217	0xbda24f37	-0.07925265
218	0xbba0d911	-0.004908689
219	0xbdad2448	-0.08454186
220	0x3d822313	0.06354346
221	0xbb2e4b98	-0.002659535
222	0x3d5a6ab3	0.053324413
223	0xbbe30b2a	-0.006928821
224	0x3d8f2f46	0.069914386
225	0xb9a3e652	-0.00031261385
226	0xbcafa8a8	-0.021442726
227	0xbc5b0c83	-0.013369682
228	0x3a74bf25	0.0009336344
229	0x3d0e29b9	0.03470776
230	0x3c5ab66f	0.01334916
231	0xbcf5ddac	-0.030012928
232	0xbd02fbfb	-0.03197859
233	0x3ca30071	0.019897671
234	0x3e3ed5ad	0.18636198
235	0x3d562412	0.052280493
236	0xbd0e53a9	-0.034747753
237	0x3b720cc5	0.003693388
238	0x3ec5edd5	0.38658014
239	0x3d04d6d6	0.032431446
240	0x87ae5c06	-2.6234697e-34
241	0x3d4ef040	0.05052209
242	0x32cd707e	2.3916296e-08
243	0xbd923d63	-0.07140615
244	0xbd1f821b	-0.038942438
245	0x3e102987	0.14078341
246	0xb840b039	-4.5940487e-05
247	0x3eaa88fe	0.33307642
248	0x3e46901e	0.19390914
249	0xb3498431	-4.6919187e-08
250	0xbbfc0218	-0.0076906793
251	0x3ebc1d0e	0.36740917
252	0x3cc1f242	0.023675088
253	0x3c546a94	0.012964863
254	0x3d65d39d	0.056110013
255	0x3d0f5c0f	0.034999903

gnn.gnn_layers.0.graph_conv.bias f4 [32]
0	0xbc0ed151	-0.008716897
1	0xbe3211b5	-0.17389567
2	0xbc2fb082	-0.010723235
3	0xbd96f2cc	-0.073705286
4	0xbcaae5ef	-0.020861594
5	0xbcb93ccc	-0.022611998
6	0xbd640d91	-0.055677
7	0xbda17ab9	-0.078847356
8	0x3beddc11	0.0072589
9	0xbd5758fe	-0.052575104
10	0x3b4f40de	0.0031624357
11	0xbd1f5547	-0.038899686
12	0xbc2674eb	-0.010159711
13	0xbe00a357	-0.12562309
14	0xbd62cbdf	-0.055370208
15	0xbcc85793	-0.024455821
16	0xbcaa4a0c	-0.020787261
17	0xbd88e2c4	-0.06683877
18	0xbd014291	-0.031557623
19	0xbd870825	-0.0659335
20	0x3da98b2e	0.082784995
21	0xbd95fcb2	-0.073235884
22	0xbdd1c9e1	-0.102435835
23	0xbe806c49	-0.25082615
24	0xbdca0cdc	-0.09865734
25	0xbe17ca22	-0.14823201
26	0xbdc62674	-0.09675303
27	0xbc791711	-0.015203253
28	0xbd4e87fb	-0.05042265
29	0xbdaaa972	-0.083331004
30	0xbd2852e2	-0.04109467
31	0xbd00355d	-0.03130089

gnn.gnn_layers.0.res_connection.weight f4 [32, 74]
0	0xbe396987	-0.18106662
1	0x3d13c696	0.03607806
2	0x3def19d9	0.11674852
3	0xbdbec52d	-0.09314952
4	0x3d527344	0.051379457
5	0xbcd83bd8	-0.026395723
6	0xba38abe6	-0.0007044658
7	0xbdfd5d6f	-0.12371337
8	0x3c8beb4c	0.017079972
9	0x80642814	-9.197927e-39
10	0x80514798	-7.464358e-39
11	0x81c74f68	-7.3215e-38
12	0x8256fae9	-1.5794245e-37
13	0x8205267c	-9.782341e-38
14	0x8152fb16	-3.8751054e-38
15	0xbca7640f	-0.020433454
16	0x81ad8c24	-6.3751255e-38
17	0x81b347ed	-6.5857424e-38
18	0x82f962b3	-3.6643912e-37
19	0x830c3ebb	-4.1214313e-37
20	0x0008fe91	8.26005e-40
21	0x01bafd3c	6.868898e-38
22	0x8313ac79	-4.3397406e-37
23	0x028ff8bf	2.1154735e-37
24	0x018a7b9a	5.0870553e-38
25	0x8238ce11	-1.3577323e-37
26	0x029d34f7	2.3099477e-37
27	0x00427dcb	6.106269e-39
28	0x0173831e	4.4726123e-38
29	0xbbab3c16	-0.0052256687
30	0x8271aa64	-1.7754783e-37
31	0x824a8388	-1.4878364e-37
32	0x80072015	-6.54357e-40
33	0x8105880c	-2.452585e-38
34	0x80a1284c	-1.479997e-38
35	0x828491d7	-1.9479365e-37
36	0x805aec42	-8.349948e-39
37	0x0282f1b9	1.9240525e-37
38	0x82b5ec62	-2.6731237e-37
39	0x808d1b66	-1.2958634e-38
40	0x80d3c97b	-1.9449567e-38
41	0x02d369db	3.1064422e-37
42	0x81804335	-4.711621e-38
43	0x816446be	-4.192774e-38
44	0x3d946eb9	0.07247681
45	0xbd808b0e	-0.062765226
46	0x3d68b055	0.05680879
47	0xbd828f37	-0.06374972
48	0x019ca59b	5.754298e-38
49	0xbadf12d3	-0.001701916
50	0x81e8697a	-8.537469e-38
51	0x028a0a32	2.028313e-37
52	0x01144f59	2.7240236e-38
53	0x801cd58a	-2.647997e-39
54	0x3ceadda2	0.028670136
55	0xbc531b7f	-0.012884974
56	0x3d7614e9	0.060078535
57	0xbc2ec93b	-0.010668094
58	0x01e3c322	8.366663e-38
59	0x81ba23d7	-6.8377037e-38
60	0x02480b66	1.4696951e-37
61	0x3d17a50b	0.03702263
62	0x02c4e038	2.8928307e-37
63	0xbc26a08d	-0.010170114
64	0xbceca263	-0.028886026
65	0x3cd83332	0.0263916
66	0x8203b0c7	-9.675093e-38
67	0xbae00a42	-0.0017092901
68	0x3c71463d	0.014726219
69	0xbbed4279	-0.00724059
70	0xbd04df03	-0.032439243
71	0x3d1824bd	0.03714441
72	0xbc9c53c7	-0.019082917
73	0x01d046d4	7.6508766e-38
74	0xbc2d908c	-0.010593545
75	0xbb9a7414	-0.0047135446
76	0x3a9a6695	0.0011779839
77	0xb4add813	-3.2380976e-07
78	0xb92ed4a5	-0.0001667315
79	0x8e455e2e	-2.432747e-30
80	0x23f44015	2.6481673e-17
81	0xa8d3e13c	-2.3523386e-14
82	0x938c65b6	-3.5441263e-27
83	0x00658570	9.323253e-39
84	0x0bb02767	6.785202e-32
85	0x830de0a3	-4.1694046e-37
86	0x02027faa	9.587529e-38
87	0x02a05428	2.355819e-37
88	0x02340db4	1.3228244e-37
89	0x92c2f9b4	-1.2304678e-27
90	0x0019199e	2.305077e-39
91	0x81f1a83b	-8.8770817e-38
92	0x82260d4a	-1.2199568e-37
93	0x0161111d	4.1338251e-38
94	0x010ded7b	2.6067994e-38
95	0x82b07427	-2.5927544e-37
96	0x80b0e160	-1.6243897e-38
97	0x02363c7a	1.3388604e-37
98	0x81165ea9	-2.7618564e-38
99	0x82c50bf0	-2.89534e-37
100	0x8116c805	-2.7694156e-38
101	0x022f7f33	1.2893474e-37
102	0x011e830a	2.9114033e-38
103	0x11bbf648	2.965518e-28
104	0x01d2c6ad	7.74269e-38
105	0x00833c7d	1.2052149e-38
106	0x830bca7c	-4.108087e-37
107	0x801c0236	-2.572187e-39
108	0x00058840	5.08055e-40
109	0x81097aa4	-2.5250916e-38
110	0x010f6ad4	2.6341597e-38
111	0x002c74da	4.08268e-39
112	0x011bd98f	2.8625094e-38
113	0x810d858f	-2.5993434e-38
114	0x824fbbbf	-1.5261839e-37
115	0x82427cf6	-1.4288731e-37
116	0x01901739	5.293057e-38
117	0x81aad260	-6.275001e-38
118	0x3ad60cc0	0.0016330704
119	0xbc4cf2cd	-0.01250906
120	0x3a76f52c	0.0009420689
121	0xb8e144fb	-0.00010741685
122	0x81ed4321	-8.7156376e-38
123	0x902bde6b	-3.3895148e-29
124	0x82f599fb	-3.6087895e-37
125	0x022596de	1.2165582e-37
126	0x819ffea9	-5.8772795e-38
127	0x81a53e1e	-6.070056e-38
128	0xbb93a004	-0.0045051593
129	0xbaf20f2f	-0.001846766
130	0xbc740f80	-0.014896274
131	0xb743a0d0	-1.1660348e-05
132	0x8188a87c	-5.0200273e-38
133	0x8288da5b	-2.0108734e-37
134	0x01dd3314	8.125587e-38
135	0x2d859f2d	1.5191038e-11
136	0x81315fc1	-3.2578466e-38
137	0xb2040b0c	-7.685923e-09
138	0x3c370103	0.011169675
139	0xbd12715e	-0.035752647
140	0x021e9fed	1.1653903e-37
141	0x0f37d7ad	9.064134e-30
142	0xbc0bd469	-0.008534529
143	0xbca14851	-0.019687803
144	0xbc105f71	-0.0088118175
145	0xbc7ba7f7	-0.01535987
146	0xb7c3f4f3	-2.3359875e-05
147	0x824c08b4	-1.4990051e-37
148	0xbd782b95	-0.060588438
149	0x3d8a6fee	0.0675963
150	0x3d528eb0	0.05140561
151	0x3d15299f	0.036416646
152	0x3d55f394	0.052234247
153	0x3b5f5568	0.0034078006
154	0x3d003866	0.031303786
155	0xbd5c2667	-0.05374756
156	0xb98a0ad5	-0.00026329482
157	0x834b7276	-5.9787733e-37
158	0x8082347a	-1.195744e-38
159	0x8228ca19	-1.240069e-37
160	0x83036830	-3.861704e-37
161	0x805ce98a	-8.532644e-39
162	0x80fe4f62	-2.3354693e-38
163	0xbcaec6b4	-0.021334983
164	0x81b46edf	-6.628065e-38
165	0x002abfdf	3.925921e-39
166	0x0108ca9f	2.5124628e-38
167	0x0248f9aa	1.476533e-37
168	0x0031c949	4.572147e-39
169	0x033aa259	5.4846853e-37
170	0x82d86322	-3.1795247e-37
171	0x80e4292e	-2.0953266e-38
172	0x0155a2c3	3.9238697e-38
173	0x01df5497	8.2038643e-38
174	0x825fd91d	-1.6445761e-37
175	0x03037a58	3.8637884e-37
176	0x0333c167	5.2825387e-37
177	0xbacf8fc8	-0.0015835697
178	0x81b6df0d	-6.7176303e-38
179	0x00a1e610	1.4868046e-38
180	0xa1c062d4	-1.3036586e-18
181	0x0070e714	1.0368471e-38
182	0x01fcf7c2	9.2925695e-38
183	0x020eebb5	1.0500157e-37
184	0x80d0f276	-1.9188762e-38
185	0x0198f623	5.618917e-38
186	0x82720298	-1.7780096e-37
187	0x00a31aff	1.497887e-38
188	0x80ef7bb6	-2.1993063e-38
189	0x827c214d	-1.8523593e-37
190	0x830bfc23	-4.1137867e-37
191	0x81cb1f53	-7.461537e-38
192	0x3cc06639	0.023486244
193	0xbda5c9a1	-0.08095098
194	0xbd516976	-0.051125966
195	0x3d2531bc	0.040330634
196	0x820a6729	-1.0168244e-37
197	0xbc2dc223	-0.010605368
198	0x0141759a	3.5532877e-38
199	0x0071fb7b	1.0467625e-38
200	0x82ee819c	-3.504535e-37
201	0x81c8ba58	-7.3735787e-38
202	0x3d7159a6	0.058923386
203	0xbbc88036	-0.0061187996
204	0xbd608442	-0.05481363
205	0xbc8b2ca3	-0.016989058
206	0x827ee6fe	-1.8727264e-37
207	0x824d8de5	-1.5101743e-37
208	0x02e83da5	3.4124718e-37
209	0x3ddf18a2	0.1089337
210	0x025a1b25	1.6023901e-37
211	0x3c986814	0.018604316
212	0xbb315582	-0.0027059023
213	0xbd142fa3	-0.036178242
214	0x01cc9c60	7.516215e-38
215	0xbc2c5d01	-0.010520221
216	0xbe0d704e	-0.13812372
217	0x3d4f8279	0.050661538
218	0xbd4931a9	-0.049119625
219	0xbd7f719c	-0.062364206
220	0xbc7f39d5	-0.015577753
221	0x031aa988	4.5451145e-37
222	0xbdc97bab	-0.09838041
223	0xbd646c49	-0.05576733
224	0x3d948bb6	0.0725321
225	0x3d8998d6	0.06718604
226	0xbcba16e5	-0.022715995
227	0x3ccefcfa	0.025267113
228	0x3b965351	0.004587569
229	0x3bf8e07f	0.0075951214
230	0xbc43ebe7	-0.011958099
231	0x02117d68	1.0688907e-37
232	0x017b771d	4.618688e-38
233	0x004f5b69	7.287796e-39
234	0x0255e047	1.5713133e-37
235	0x81e586f0	-8.431494e-38
236	0x02c7bad8	2.9347665e-37
237	0x3c6f8ef1	0.014621482
238	0x01949b64	5.458959e-38
239	0x020a6963	1.0168883e-37
240	0x8325eb3f	-4.875919e-37
241	0x830e2d17	-4.178181e-37
242	0x0290ce6b	2.1277376e-37
243	0x01fd12fb	9.296476e-38
244	0x0243728c	1.4359211e-37
245	0x818e1ef1	-5.220696e-38
246	0x81bd78bc	-6.960088e-38
247	0x80d9a2d7	-1.9986719e-38
248	0x82293c87	-1.243353e-37
249	0x0344a750	5.779129e-37
250	0x01be334e	6.9868596e-38
251	0x3515486c	5.5612213e-07
252	0x00b04fba	1.6191648e-38
253	0x030bcbc3	4.1082336e-37
254	0x00e7378c	2.1233926e-38
255	0x00c5a20d	1.8149726e-38

gnn.gnn_layers.0.res_connection.bias f4 [32]
0	0x3cdca43f	0.026933787
1	0xbceedb03	-0.029157167
2	0x3bfba7da	0.0076799216
3	0xbcdf9aaf	-0.027295439
4	0xbd6bbe70	-0.057554662
5	0xbcf15227	-0.029458119
6	0x3c6a14e4	0.014287207
7	0xbd2a99e2	-0.04165066
8	0x3c3d88a7	0.011568225
9	0xbda02635	-0.078197874
10	0xbce57086	-0.028007757
11	0xbc9432d3	-0.018090641
12	0xbd5430fd	-0.05180453
13	0xbb2f47f0	-0.002674576
14	0xbd947485	-0.07248787
15	0xbcf95228	-0.030434683
16	0xbd306a0c	-0.043069884
17	0xbd89b560	-0.06724048
18	0xbb449331	-0.002999496
19	0xbc770563	-0.015076968
20	0xbdd6e6d5	-0.104932465
21	0xbd0c8f02	-0.03431607
22	0xbd56ea89	-0.052469764
23	0xbd36302f	-0.044479545
24	0xbdadf704	-0.0849438
25	0xbd716b32	-0.05894012
26	0xbc6ac664	-0.014329527
27	0xbe024dc6	-0.1272498
28	0xbcb069e6	-0.021534871
29	0xbdcd191f	-0.10014557
30	0xbdc50028	-0.096191704
31	0xbc9a0ba7	-0.018804384

gnn.gnn_layers.0.bn_layer.weight f4 [32]
0	0x3f13f639	0.5779758
1	0x3ef13a42	0.4711476
2	0x3f0f3d3a	0.559528
3	0x3eeb8d1d	0.46006098
4	0x3eb82906	0.35968798
5	0x3ececc2a	0.4039014
6	0x3ed3f17f	0.41395184
7	0x3efb41d4	0.4907366
8	0x3f046ca6	0.51728284
9	0x3f05d546	0.52278554
10	0x3f2756a5	0.65366584
11	0x3ed828b9	0.4221857
12	0x3f279ec2	0.6547662
13	0x3f0958a8	0.53650904
14	0x3f310186	0.6914295
15	0x3edb73c2	0.42861754
16	0x3f06d176	0.5266336
17	0x3f174d13	0.5910198
18	0x3eeb6e76	0.45982713
19	0x3f08c536	0.5342592
20	0x3f30d791	0.6907893
21	0x3f1e42db	0.61820763
22	0x3f197bba	0.59954417
23	0x3f5918c1	0.84803396
24	0x3f1037ad	0.56334955
25	0x3f1668f7	0.58753914
26	0x3f03a283	0.5141985
27	0x3f37cd4d	0.7179764
28	0x3ef03acc	0.46919858
29	0x3f0da671	0.55332094
30	0x3f1bc706	0.6085056
31	0x3f12b924	0.5731375

gnn.gnn_layers.0.bn_layer.bias f4 [32]
0	0xbc90a135	-0.017654995
1	0x3d53a759	0.051673267
2	0xbd0f849b	-0.03503857
3	0x3da4e696	0.08051793
4	0x3d82d9ad	0.063891746
5	0x3cb8c364	0.022554107
6	0x3bdb6622	0.006695525
7	0x3d51d9d1	0.051233117
8	0x3d42a94e	0.047524743
9	0x3c299d38	0.010352425
10	0x3d92dff7	0.07171624
11	0x3d121e3c	0.035673365
12	0x3d131de8	0.035917193
13	0x3df060bf	0.11737203
14	0x3d20453a	0.03912852
15	0x3e08d964	0.13364178
16	0xbda4bc58	-0.08043736
17	0x3d276fc1	0.04087806
18	0xbd8d8149	-0.06909425
19	0x3ca4a1de	0.020096716
20	0xbc8d430a	-0.01724388
21	0x3e0da22d	0.13831396
22	0xbd70e17e	-0.058808796
23	0x3ce0d0b9	0.027443277
24	0xbb88845e	-0.00416617
25	0xbd19f28a	-0.03758482
26	0x3df8ee45	0.12154821
27	0x3d272768	0.040809065
28	0x3e13e163	0.14441447
29	0xbd984740	-0.07435465
30	0xbd81042c	-0.06299624
31	0x3e1d9ee2	0.1539264

gnn.gnn_layers.0.bn_layer.running_mean f4 [32]
0	0x3dc6be57	0.09704273
1	0x3c486a89	0.012232431
2	0x3dcf6ce0	0.10128188
3	0x3de47b2a	0.11156304
4	0x3c385c50	0.011252478
5	0x3e821150	0.25403833
6	0x3d991d1e	0.07476257
7	0x3c16e3e5	0.009209608
8	0x3d8c32fe	0.068456635
9	0x3cc84f4b	0.024451872
10	0x3cc27d61	0.023741426
11	0x3e6aef6f	0.22942899
12	0x3cec3359	0.028833078
13	0x3e6ca782	0.23110774
14	0x3dcc8cd2	0.09987797
15	0x3e7655df	0.24056195
16	0x3bb9f3db	0.005674822
17	0x3d366856	0.044533096
18	0x3d0487fc	0.032356247
19	0x3e735543	0.23762994
20	0x3c377132	0.011196421
21	0x3e40e8d7	0.18838821
22	0x3bfed96d	0.007777384
23	0x3bb7c5c1	0.005608291
24	0x3d7efaad	0.06225078
25	0x000020f9	1.1828e-41
26	0x3e17f028	0.14837706
27	0x3b6771f8	0.0035315733
28	0x3e27240e	0.16322348
29	0x3b22f2d1	0.0024863968
30	0x3bee7390	0.0072769597
31	0x3e460241	0.19336797

gnn.gnn_layers.0.bn_layer.running_var f4 [32]
0	0x3d4b19ea	0.04958526
1	0x3bc595e8	0.006029833
2	0x3dbeaec2	0.09310676
3	0x3d47a338	0.048739642
4	0x3ba449a3	0.005013661
5	0x3e84df40	0.25951576
6	0x3d7f75e0	0.062368274
7	0x3b8d2d1f	0.0043083574
8	0x3d39d019	0.045364473
9	0x3c1ec0b5	0.0096895
10	0x3c3c61d9	0.011497938
11	0x3e797ab4	0.24363214
12	0x3c9fd8ab	0.019512495
13	0x3e2bf698	0.16793287
14	0x3d4ffae2	0.05077637
15	0x3e5b4108	0.21411526
16	0x3b0282b5	0.0019914333
17	0x3cbca74a	0.023028988
18	0x3c3a9b4f	0.0113895675
19	0x3e57bb39	0.21067514
20	0x3b88002b	0.0041504106
21	0x3e07f1a4	0.13275772
22	0x3b849d22	0.004047052
23	0x3aff6b78	0.0019486984
24	0x3d40c6d7	0.04706463
25	0x00000ade	3.898e-42
26	0x3dcd510f	0.10025226
27	0x3ac2caff	0.0014861523
28	0x3e1c551b	0.1526684
29	0x3a74a866	0.00093329547
30	0x3b901b5c	0.0043977927
31	0x3e17d2fc	0.14826578

gnn.gnn_layers.1.graph_conv.weight f4 [32, 32]
0	0xbc4377db	-0.011930431
1	0x3d9b32e4	0.07578066
2	0x3e052aca	0.13004604
3	0xbe166a69	-0.1468903
4	0xbdb4100d	-0.08792124
5	0xbdadbd1b	-0.08483335
6	0x3d8bd6e5	0.06828097
7	0xbddeaa20	-0.108722925
8	0xbd9c3bdb	-0.07628604
9	0x3e20bd13	0.15697126
10	0xbd865005	-0.06558231
11	0x3b1b00fe	0.0023651714
12	0x3c44ff2b	0.012023727
13	0xbbf92c12	-0.0076041305
14	0xbdf42790	-0.119216084
15	0xbe075e51	-0.13219573
16	0xbde56008	-0.11199957
17	0xbd992a00	-0.07478714
18	0xbdb26cd6	-0.08712165
19	0xbe4ddead	-0.20104475
20	0x3d893f19	0.06701488
21	0xbdd1540b	-0.10221108
22	0x3e108b24	0.14115578
23	0x3dabccf9	0.08388705
24	0xbe75fac4	-0.2402144
25	0xbd4494e9	-0.047993574
26	0xbc1514f7	-0.009099237
27	0xbda5cc1b	-0.08095571
28	0xbdd6e948	-0.104937136
29	0xbc109e49	-0.008826801
30	0xbd8b51c5	-0.06802706
31	0xbe3bf7c2	-0.18356231
32	0x3d6ee218	0.05832109
33	0xbe25db4f	-0.16196941
34	0xbd1bb8ed	-0.038018156
35	0xbe4259bf	-0.18979548
36	0xbdd141c0	-0.10217619
37	0xbbfe7d5a	-0.007766408
38	0xbd14bf71	-0.036315385
39	0x3d7dadcb	0.06193332
40	0xbca7e43c	-0.020494573
41	0xbd86e9f5	-0.065875925
42	0xbda95b25	-0.082693376
43	0xbd80f5ba	-0.062968686
44	0xbcc09a00	-0.023510933
45	0xbe0a6559	-0.13515224
46	0xbd90cda2	-0.07070471
47	0xbe014fa5	-0.12628038
48	0x3e083e41	0.13304998
49	0x3db4c7cb	0.0882717
50	0xbd88d5f4	-0.06681433
51	0xbca24e16	-0.019812625
52	0xbdf7f5b5	-0.12107412
53	0x3d3af201	0.04564095
54	0x3d838c23	0.06423213
55	0x3d8bbf27	0.06823569
56	0x3b9457b1	0.004527055
57	0xbbfad62b	-0.0076549253
58	0xbd885a21	-0.06657816
59	0xbcc27906	-0.02373935
60	0xbcc1dfac	-0.023666225
61	0xbd1c614d	-0.03817873
62	0xbe0c79a0	-0.13718271
63	0xbdf00333	-0.1171936
64	0xbdfa1e95	-0.12212864
65	0xbd3c674a	-0.04599694
66	0x3e043402	0.12910464
67	0xbe03f223	-0.12885337
68	0x3c59ac89	0.0132857645
69	0xbba2baf4	-0.004966134
70	0xbda09e09	-0.07842643
71	0xbdd305a6	-0.10303812
72	0x3e0f61a3	0.14002089
73	0xbd98a1ad	-0.07452712
74	0x3d9402d6	0.072271034
75	0xbe0e2afc	-0.13883585
76	0x3e5ea06d	0.21740885
77	0x3d9df752	0.07713188
78	0x3c449995	0.011999507
79	0x3d3c73bb	0.046008807
80	0xbdf345d9	-0.11878557
81	0xbd8e3548	-0.06943756
82	0x3bfe68c6	0.007763955
83	0xbd6cfb8f	-0.057857092
84	0xbd7c184d	-0.061546613
85	0xbe0a051d	-0.13478513
86	0x3db2c91d	0.087297656
87	0x3c593fbf	0.013259827
88	0xbe5fa1c3	-0.21839051
89	0xbd4de2d5	-0.050265152
90	0xbc44bb9c	-0.01200762
91	0x3d389cdd	0.04507147
92	0x3e27f23b	0.16400997
93	0xbdd6a6f0	-0.104810596
94	0x3a328896	0.0006810514
95	0xbde9ac3c	-0.11409804
96	0x3c082d03	0.008311513
97	0xbe2aa01c	-0.1666264
98	0x3cbe6165	0.0232398
99	0x3cb7d2e7	0.022439433
100	0xbe0a6b1e	-0.13517424
101	0x3ddf45b4	0.10901967
102	0xbd7d8886	-0.061897777
103	0x3df29f44	0.11846784
104	0x3cfc2679	0.030780064
105	0xbd275f68	-0.04086247
106	0x3d7bb2e1	0.06144989
107	0xbda5067a	-0.08057876
108	0xbd9d547e	-0.07682131
109	0xbd3a9dd1	-0.04556066
110	0xbdda6440	-0.106636524
111	0xbd9f313e	-0.07773064
112	0x3decff14	0.1157209
113	0xbd813290	-0.06308472
114	0x3d33fc4b	0.043941777
115	0x3cce72d6	0.025201242
116	0xbe23e265	-0.16004331
117	0xbdddeb69	-0.108359165
118	0xbd3d90d2	-0.04628069
119	0x3de97a1a	0.11400242
120	0x3d535cf5	0.051602323
121	0x3dbf47a8	0.09339839
122	0xbdfc0b07	-0.12306791
123	0xbe34a19b	-0.17639773
124	0x3c5b13a1	0.013371379
125	0xbdd4f5f7	-0.103984766
126	0x3d96c5c9	0.07361943
127	0xbd009980	-0.03139639
128	0x3d1c31b3	0.038133334
129	0x3de1aceb	0.110193096
130	0x3be5d670	0.0070140883
131	0xbdb5b947	-0.088732295
132	0x3db8d8df	0.0902574
133	0xbdff2bb8	-0.124595106
134	0xbc23da49	-0.010000774
135	0xbd58cc8e	-0.052929454
136	0x3da9181d	0.08256552
137	0x3c228e2e	0.009921594
138	0x3d6555fa	0.055990197
139	0xbcd2d6d6	-0.025737207
140	0xbd8158fb	-0.063158
141	0xbd8bbeff	-0.06823539
142	0xbd9ec84d	-0.07753048
143	0x3cc73f7a	0.02432226
144	0x3de0999a	0.10966797
145	0x3d1150db	0.0354775
146	0x3d470cbf	0.04859614
147	0xbd487516	-0.048939787
148	0x3cda5355	0.026651064
149	0xbdc77e60	-0.09740901
150	0xbcea9fa0	-0.028640568
151	0xbdae3b2e	-0.085073814
152	0x3da3dcac	0.08001074
153	0x3d959e27	0.07305556
154	0xbdf15f53	-0.1178576
155	0xbdb1e7e4	-0.08686808
156	0xbd43a670	-0.04776615
157	0x3d83f3e4	0.06443003
158	0xbdb9ce8a	-0.09072597
159	0x3d383df5	0.04498096
160	0xbcde3b5a	-0.02712791
161	0x3d083206	0.03325083
162	0x3d58959e	0.05287706
163	0x3dc555a2	0.09635474
164	0x3cb49910	0.022045642
165	0xbc785dfe	-0.015159128
166	0x3da5366d	0.080670215
167	0x3e184318	0.14869344
168	0xbdc1d638	-0.09464687
169	0x3cc0fd5c	0.023558311
170	0x3d80e868	0.06294328
171	0xbdbcde87	-0.09222131
172	0xbd589711	-0.052878443
173	0x3d52126e	0.051287107
174	0x3dd33a11	0.1031381
175	0xbdf4d718	-0.119550884
176	0x3e037181	0.12836267
177	0x3d8ef327	0.069799714
178	0xbcc3a629	-0.023882942
179	0x3d1a554f	0.037679013
180	0xbde5a9d8	-0.11214036
181	0x3d702b89	0.05863527
182	0xbe03d4e7	-0.12874185
183	0x3b724788	0.0036968905
184	0xbcd64fbd	-0.026161069
185	0xbd28c4a5	-0.04120316
186	0xbde52445	-0.111885585
187	0xbdbbc688	-0.09168726
188	0xbd5209a0	-0.05127871
189	0xbd1270cd	-0.035752106
190	0xbb9a2dea	-0.0047051804
191	0x3bf54f93	0.0074862926
192	0xbb6bf070	-0.0036001466
193	0xbc8e2d65	-0.01735563
194	0xbc46778f	-0.012113466
195	0x3d96a9e7	0.07356625
196	0xbdae93b8	-0.08524269
197	0x3d116c4a	0.035503663
198	0xbd212e67	-0.039350893
199	0xbdcfd2f2	-0.101476565
200	0x3a98b922	0.0011651854
201	0x3db974ca	0.09055479
202	0xbceb039a	-0.02868824
203	0x3d79d1cf	0.060991105
204	0x3d85287c	0.065018624
205	0x3e050fb5	0.12994273
206	0xbd4da1e5	-0.050203223
207	0x3e151fa6	0.14562854
208	0xbe1a2353	-0.15052538
209	0xbdeba688	-0.11506373
210	0xbd05c3b3	-0.032657336
211	0x3c696ba8	0.014246859
212	0xbe11e5a7	-0.14247762
213	0x3c1a8854	0.009431917
214	0x3dbf99e1	0.09355522
215	0x3db5f73b	0.08885046
216	0xbcfe76ed	-0.031062568
217	0x3df5b85f	0.119980566
218	0x3e08d1f3	0.1336134
219	0x3d88029f	0.06641125
220	0x3cdf8bcb	0.027288338
221	0xbd9f448d	-0.07776747
222	0xbdb64584	-0.08899978
223	0xbddf366e	-0.108990535
224	0xbcb600d3	-0.02221719
225	0xbe034e42	-0.12822822
226	0xbcf1ac61	-0.029501142
227	0x3ccf04d7	0.025270863
228	0xbe22894c	-0.15872687
229	0xbe16df86	-0.14733705
230	0xbdad5a4c	-0.084644884
231	0x3dc21df5	0.0947837
232	0x3d6354b8	0.055500716
233	0x3e0de355	0.13856252
234	0xbe330ae5	-0.17484625
235	0xbdf490ef	-0.119417064
236	0xbd59a163	-0.053132426
237	0x3d0cd810	0.03438574
238	0xbd8091b5	-0.062777914
239	0xbd974691	-0.07386506
240	0x3d2775f5	0.040883977
241	0x3cfcdae9	0.030866103
242	0x3cb459c1	0.022015454
243	0x3e2cc061	0.16870262
244	0xbd6c1087	-0.05763295
245	0xbdab78a7	-0.08372622
246	0xbd51d1ee	-0.051225595
247	0x3e49862e	0.19680092
248	0x3db0972a	0.08622582
249	0xbdbf9027	-0.09353667
250	0xbdedb8b0	-0.11607492
251	0xbd546143	-0.05185057
252	0xbd7e0a46	-0.062021516
253	0xbe290c0d	-0.16508503
254	0x3d4a2b7d	0.04935788
255	0x3e10315b	0.14081328

gnn.gnn_layers.1.graph_conv.bias f4 [32]
0	0xbc64fac0	-0.013975799
1	0x3ddfafdd	0.10922215
2	0x3c0b817e	0.00851476
3	0xbd64b03e	-0.05583214
4	0xbdd39602	-0.10331346
5	0xbd2b405f	-0.041809436
6	0x3c84ce0e	0.016211536
7	0x3a9dfb86	0.0012053109
8	0x3c6aba6e	0.014326675
9	0xbc83b5e3	-0.016077941
10	0x3d461b8a	0.048366107
11	0x3d044e77	0.032301392
12	0xbdeef71e	-0.116682276
13	0xbcc30bec	-0.023809396
14	0x3c952baa	0.018209297
15	0xbcc5de7e	-0.024153944
16	0xbd229165	-0.03968944
17	0x35e1ccbd	1.6823393e-06
18	0x3cebf9a6	0.028805565
19	0x3dec8050	0.11547911
20	0x3cfa9f13	0.03059343
21	0xbdb57e2a	-0.088619545
22	0xbd36db2b	-0.04464261
23	0xbd219ac7	-0.039454248
24	0x3d23d120	0.03999436
25	0x3d5b0e5b	0.053480487
26	0xbd004842	-0.03131891
27	0x3bdcd9e5	0.0067398422
28	0x3b04ec9f	0.0020282639
29	0xbd742a0b	-0.059610408
30	0xbdbec5f3	-0.093150996
31	0xbbc01f3b	-0.005863098

gnn.gnn_layers.1.res_connection.weight f4 [32, 32]
0	0x3c072234	0.008247901
1	0xbbe30a62	-0.006928728
2	0x3a0937be	0.00052344415
3	0xbd0157ac	-0.03157775
4	0x3d0a2919	0.0337306
5	0xbcf3dabf	-0.029767392
6	0x3d9acd99	0.07558746
7	0xbd20dda7	-0.039273884
8	0xbcf014d6	-0.02930681
9	0x3d59c6d9	0.05316815
10	0x3b896a80	0.004193604
11	0x3c015d98	0.00789585
12	0xbd0695e8	-0.032857805
13	0xbd1d539c	-0.038409814
14	0xbc87cd52	-0.016577397
15	0xbb8d501d	-0.0043125288
16	0x3d2e8f0d	0.042616893
17	0x3d227dcd	0.039670754
18	0x3d1f5817	0.03890237
19	0x3c3754e9	0.011189678
20	0x3cd48dd8	0.025946543
21	0xbcf71572	-0.030161593
22	0xbc3ce7f5	-0.011529912
23	0x3b71cd16	0.0036895922
24	0x3c57aa59	0.013163173
25	0x3b4a52b8	0.0030872058
26	0xbccce6a5	-0.025012324
27	0xbcc07d3d	-0.023497218
28	0x3ccc3f2e	0.02493247
29	0x3d07be9b	0.03314076
30	0x3b1edbd9	0.0024239926
31	0xbcda1ca6	-0.026624989
32	0xbdd9005e	-0.10595773
33	0xbc1a654e	-0.009423567
34	0x3c969a6c	0.018384181
35	0x3d9d0374	0.07666674
36	0xbd8ea3e4	-0.069648534
37	0xbb6baa98	-0.0035959836
38	0xbb2f450b	-0.0026744034
39	0xbdaa2207	-0.083072715
40	0xbd3c5888	-0.045982867
41	0xbcfbe7dd	-0.03075021
42	0xbd970165	-0.07373313
43	0xbd13df95	-0.036101896
44	0x3da64fd7	0.08120697
45	0x3cf3378c	0.029689573
46	0xbd6e3ce4	-0.05816354
47	0xbd8cea91	-0.068806775
48	0x3dbc7d3a	0.092035726
49	0xbd1f6de0	-0.038923144
50	0x3c2db00b	0.010601054
51	0xbb752508	-0.0037406106
52	0x3c2f6916	0.010706207
53	0xbd2528d5	-0.040322144
54	0xbcc799a6	-0.024365257
55	0xbbe76e90	-0.0070627406
56	0xbd10a9bb	-0.035318118
57	0x3c7a5299	0.015278482
58	0x3c65b465	0.01402006
59	0xbd10714a	-0.03526429
60	0xbd0fa1a0	-0.035066247
61	0xbc4a6fff	-0.0123558035
62	0xbcc38660	-0.023867786
63	0xbdd3a623	-0.103344224
64	0xbb6240bb	-0.0034523446
65	0x38901069	6.869512e-05
66	0x3c3b4cc2	0.011431875
67	0xbd25f131	-0.04051322
68	0x3c7ddced	0.015494567
69	0xbc59c5db	-0.013291801
70	0x3a58333c	0.00082473806
71	0xbc9c9908	-0.01911594
72	0xbb22e74b	-0.00248571
73	0xbbbdd985	-0.0057937526
74	0xbc981bec	-0.018568002
75	0xbb6171c2	-0.003440008
76	0x3d93ac6e	0.07210623
77	0xba9adf7e	-0.0011815873
78	0xbc733d33	-0.014846134
79	0x3ba4a7a4	0.005024867
80	0x3b29d9ef	0.0025917252
81	0x3c92fb4a	0.01794209
82	0xbbac476b	-0.005257537
83	0xbc0f867d	-0.008760092
84	0xbc40234e	-0.011727167
85	0xbc2173b5	-0.009854247
86	0xbc64f810	-0.013975158
87	0x3b08a2e7	0.002084905
88	0xbd04d9e3	-0.032434355
89	0x37cb067c	2.4202505e-05
90	0x3d785330	0.06062621
91	0xbc11a0d8	-0.008888446
92	0x3d20fd5f	0.039304134
93	0xbc349d40	-0.011023819
94	0x3cb1b578	0.021692976
95	0x3ca7c57c	0.02047991
96	0x3d0bd384	0.034137264
97	0xbb850acc	-0.004060125
98	0x3d047ed4	0.032347515
99	0xbc98cccb	-0.01865234
100	0xbbc3e969	-0.0059787524
101	0xbcc15eec	-0.023604833
102	0x3d4964ec	0.049168512
103	0xbc6cc1f8	-0.014450543
104	0xbc8bf50c	-0.01708462
105	0xbb1404a1	-0.0022585767
106	0x3e13a4aa	0.14418283
107	0xbc9be658	-0.019030735
108	0xbd17698d	-0.036965895
109	0xbcc59963	-0.024120992
110	0x3db9d22f	0.090732925
111	0xbcbde4b6	-0.023180347
112	0x3b2c0d89	0.0026253185
113	0xbcd81e2d	-0.026381576
114	0xbcbcd5a3	-0.023051089
115	0x3aa911dc	0.0012898999
116	0xbbf12b8d	-0.007359928
117	0xbc8ab9e8	-0.01693435
118	0x3d966345	0.07343153
119	0x3daf0dcc	0.085475534
120	0x3d9dddd5	0.07708327
121	0xbb24e07e	-0.0025158222
122	0xbca7c799	-0.020480918
123	0x3cdc50b1	0.026893945
124	0x3c076cf1	0.00826572
125	0x3ac46bb1	0.0014985708
126	0xbc61292a	-0.013742724
127	0xbcbe4277	-0.023225052
128	0xbc1f825f	-0.009735673
129	0xbb2757f2	-0.0025534597
130	0xbd649717	-0.055808153
131	0x3c5f0911	0.013613001
132	0xbd167726	-0.036734723
133	0x3b564c30	0.003269922
134	0xbd4ff65f	-0.050772067
135	0xbcce2ed8	-0.025168821
136	0x3e59b6ed	0.21261187
137	0xbc0c9bb2	-0.0085820425
138	0xbbf0ccd1	-0.007348635
139	0xbca17298	-0.019707963
140	0x3e3b8ac6	0.18314657
141	0xbd687b60	-0.056758285
142	0xbd2944e8	-0.04132548
143	0xbd84ec66	-0.06490402
144	0x3df5f7fa	0.120101884
145	0xbd3c618c	-0.045991465
146	0xbca64d86	-0.020300638
147	0x3da7729f	0.08176159
148	0x3dc59fb8	0.096496046
149	0xbd34e377	-0.04416224
150	0xbd2f6fc9	-0.042831216
151	0xbd1341b4	-0.03595133
152	0xbd7e3d9c	-0.062070474
153	0x3d752860	0.059852958
154	0xbd87c409	-0.066291876
155	0xbd843e25	-0.06457166
156	0x3da843e1	0.08216072
157	0xbc3e4df2	-0.011615263
158	0xbd06f2e0	-0.032946467
159	0xbc81a620	-0.015826285
160	0x3cf0752d	0.029352749
161	0x3c929fa4	0.017898388
162	0x3cb293d2	0.021799002
163	0x3da671f1	0.08127201
164	0xbc792643	-0.015206876
165	0xbc1c73f5	-0.009549131
166	0xbca9cc87	-0.020727409
167	0xbc48028a	-0.012207637
168	0x3dad00a7	0.0844739
169	0xbce28638	-0.027651891
170	0xbcc89ad9	-0.0244879
171	0xbc83897e	-0.016056772
172	0x3dce4d96	0.10073392
173	0xbcd9ebe9	-0.026601749
174	0xbc929729	-0.017894344
175	0xbcbbade3	-0.022910064
176	0x3bbb54e7	0.0057169083
177	0xbd6cc3cd	-0.057803918
178	0xbc814ad5	-0.015782753
179	0x3ca31c94	0.019911088
180	0x3c8fbd57	0.017546339
181	0xbceb195d	-0.028698618
182	0x3d165803	0.03670503
183	0xbc8eebeb	-0.017446479
184	0xbbeaacd6	-0.007161717
185	0x39f21720	0.00046175066
186	0x3bc8df3e	0.006130128
187	0xbc2cb589	-0.010541328
188	0xbb381f36	-0.0028094775
189	0x3addd7f9	0.0016925327
190	0xbc856cb8	-0.016287193
191	0xbc232b41	-0.009959043
192	0xbc4ba77b	-0.012430067
193	0x3c9f1f5e	0.019424137
194	0xbccf4c57	-0.025304956
195	0x3c15d472	0.009144889
196	0x3d155c5b	0.03646503
197	0xbd3d9ef2	-0.04629416
198	0xbd11082c	-0.035408184
199	0x3c0e5747	0.008687801
200	0x3a805623	0.0009791296
201	0x3d86575f	0.065596335
202	0xbc23bc1f	-0.009993582
203	0x3d0c6aa9	0.034281407
204	0xbd199d56	-0.037503563
205	0xbc8e7dac	-0.01739391
206	0x3cc189a1	0.023625197
207	0x3d156370	0.036471784
208	0x3da86325	0.08222035
209	0x3cb3cf6f	0.021949498
210	0xbcefbf13	-0.029265916
211	0xbd2eaa7c	-0.042643055
212	0x3d7aabe7	0.061199095
213	0x3d682015	0.05667122
214	0xbd645a1e	-0.055750005
215	0xbc7f8b54	-0.015597183
216	0xbc86fc02	-0.016477589
217	0xbb6d0777	-0.003616778
218	0xbc8e7fb2	-0.017394874
219	0xbd42a09b	-0.047516447
220	0x3d198d0b	0.037488025
221	0x3cbb0ddf	0.022833763
222	0x3d67c82a	0.056587376
223	0x3cd98e96	0.026557248
224	0x3d1169ca	0.03550128
225	0xbcb44892	-0.02200726
226	0xbc28789f	-0.010282665
227	0x3c6eeda5	0.014583026
228	0xbc1b0e68	-0.009463884
229	0x3c3b3588	0.011426337
230	0xbc7c1320	-0.015385419
231	0xbcabf72c	-0.020991884
232	0xbc7696ef	-0.015050634
233	0x3bfe590e	0.007762081
234	0x3cd181aa	0.025574524
235	0xbc3dfd74	-0.011596072
236	0xbc32f96d	-0.010923726
237	0xbd1b0f28	-0.03785625
238	0xbcdb7ea9	-0.026793795
239	0x3bc756e1	0.006083355
240	0x3bd220b3	0.0064125895
241	0xbb26fc09	-0.0025479815
242	0xbb81eded	-0.0039651305
243	0xbc141f2c	-0.009040635
244	0x3b647737	0.0034861097
245	0x3c9e6be9	0.019338565
246	0x3d697748	0.05699852
247	0x3d86867c	0.065686196
248	0x3c3f5ae6	0.011679387
249	0x3b022f54	0.0019864636
250	0xbc2e1563	-0.010625216
251	0xbbcb04fd	-0.006195663
252	0x3c9c9455	0.019113699
253	0x3c167ac6	0.009184545
254	0xbc43cb23	-0.011950287
255	0xbca9b01d	-0.02071386

gnn.gnn_layers.1.res_connection.bias f4 [32]
0	0x3d291bd6	0.041286312
1	0xbcbb5ee9	-0.022872405
2	0xbd5747bf	-0.052558657
3	0xbcdcf9e2	-0.026974622
4	0xbdca7588	-0.098856986
5	0xbbebbe84	-0.007194342
6	0x3db22bc8	0.08699757
7	0xbd8bdf01	-0.06829644
8	0xbb191be7	-0.0023362578
9	0xbd234b60	-0.039866805
10	0xbd6d7d51	-0.05798084
11	0xbc5b0d70	-0.013369903
12	0x3b62ddd2	0.0034617078
13	0xbcee3256	-0.029076736
14	0x3cc4d0cd	0.024025345
15	0xbd4bfbaa	-0.049800552
16	0xbc97fcad	-0.018553102
17	0xbc7c8ed2	-0.01541491
18	0xbd26c8ff	-0.04071903
19	0xbd26009f	-0.040527936
20	0xbda428cb	-0.08015593
21	0xbc858f9b	-0.016303828
22	0xbd7b4b56	-0.061351143
23	0xbcac4e75	-0.021033505
24	0xbd8a252b	-0.067453705
25	0x3ce88e9c	0.028388314
26	0xbdbdb1ae	-0.09262405
27	0xbd5a93c5	-0.05336358
28	0xbd8432e2	-0.064550176
29	0xbd5e2529	-0.054234657
30	0xbce98281	-0.028504612
31	0xbd3dc0cf	-0.046326455

gnn.gnn_layers.1.bn_layer.weight f4 [32]
0	0x3eadec10	0.33969164
1	0x3f0f7417	0.56036514
2	0x3eb67b5c	0.3564099
3	0x3ee5cc3d	0.44882384
4	0x3f2b8421	0.6699849
5	0x3eab3f9b	0.33446965
6	0x3e81b672	0.25334507
7	0x3f0455b2	0.5169326
8	0x3edffc81	0.43747333
9	0x3efbe88d	0.4920086
10	0x3eef488b	0.46735033
11	0x3ecc027f	0.39845654
12	0x3f050f28	0.5197625
13	0x3ee95316	0.45571202
14	0x3f0046f7	0.50108284
15	0x3f11970f	0.5687112
16	0x3f0ef507	0.5584263
17	0x3ed01580	0.40641403
18	0x3efe9f1c	0.49730766
19	0x3ede75bd	0.43449202
20	0x3f13fcbb	0.5780751
21	0x3ee6a6af	0.45049044
22	0x3f06d717	0.5267195
23	0x3f035b05	0.5131076
24	0x3f15c0cf	0.5849733
25	0x3ee1c2e2	0.44093996
26	0x3ee0ab5c	0.43880737
27	0x3f07350c	0.5281532
28	0x3efcbced	0.4936289
29	0x3f1d85e9	0.61532456
30	0x3ee67c11	0.4501653
31	0x3f161a04	0.58633447

gnn.gnn_layers.1.bn_layer.bias f4 [32]
0	0x3cd308b6	0.02576099
1	0xbcd3b3c4	-0.025842555
2	0x3cc53496	0.024072926
3	0x3c826d05	0.015921125
4	0xbda077fe	-0.07835387
5	0xbd32e61b	-0.043676477
6	0x3beb060d	0.007172352
7	0x3d841a1b	0.06450292
8	0xbdcacc1e	-0.099022135
9	0x3c475a15	0.012167473
10	0xbd6ca467	-0.057773974
11	0x3c3a7a2d	0.011381668
12	0x3d53fbd5	0.051753838
13	0x3c59cda6	0.013293659
14	0x3cbe5c12	0.023237262
15	0x3de02665	0.10944823
16	0x3d9362a4	0.071965486
17	0x3beb8d15	0.007188449
18	0xbd87b6ca	-0.06626661
19	0x3d03eb8b	0.032207053
20	0xbd0b133d	-0.033953894
21	0x3df44e67	0.119290166
22	0xbd11198e	-0.03542476
23	0x3cd7cc13	0.026342427
24	0x3dab613a	0.08368154
25	0x3c819aeb	0.015820941
26	0x3cf45ecc	0.029830359
27	0x3cb552ce	0.02213421
28	0x3cce8e71	0.025214406
29	0x3b39ec6a	0.0028369674
30	0xbc4f0ee3	-0.012637827
31	0x3d568c1c	0.052379712

gnn.gnn_layers.1.bn_layer.running_mean f4 [32]
0	0x3e2f965a	0.17147198
1	0x3e6967cc	0.22793502
2	0x3e0eb258	0.1393522
3	0x3ec99aec	0.3937601
4	0x3df21558	0.11820477
5	0x3e2ea074	0.17053396
6	0x3e670405	0.22560127
7	0x3f2a3240	0.66482925
8	0x3e5e3b99	0.21702422
9	0x3e5cfdf2	0.21581247
10	0x3e22df6b	0.1590554
11	0x3e85adc1	0.26109126
12	0x3e55f074	0.20892507
13	0x3ed7fa17	0.4218299
14	0x3eb304b9	0.3496454
15	0x3eb459f3	0.35224876
16	0x3f245e6a	0.64206564
17	0x3f0eac24	0.55731416
18	0x3e687306	0.22700128
19	0x3f11f988	0.5702138
20	0x3e50d687	0.20394336
21	0x3e9d2759	0.30694082
22	0x3ea72f7f	0.32653424
23	0x3e5c84d5	0.21535046
24	0x3f4f1808	0.80896044
25	0x3ea3daf0	0.32002974
26	0x3e2b2291	0.16712405
27	0x3eaf5b25	0.34249225
28	0x3e64aadb	0.22330801
29	0x3e224bea	0.15849271
30	0x3e2a51aa	0.16632715
31	0x3ee1154d	0.43961564

gnn.gnn_layers.1.bn_layer.running_var f4 [32]
0	0x3e8e35c5	0.27775398
1	0x3ed233e7	0.41055223
2	0x3ed260a4	0.41089356
3	0x3f586723	0.84532374
4	0x3e661adf	0.22471188
5	0x3e96e3d4	0.29470694
6	0x3e28a0d1	0.16467597
7	0x3fbbfffd	1.4687496
8	0x3e97b025	0.29626575
9	0x3f5545b1	0.83309466
10	0x3e6c6c31	0.23088147
11	0x3f0916a5	0.5355018
12	0x3ef2c10e	0.47412914
13	0x3f20ff3e	0.6288947
14	0x3f87f044	1.0620198
15	0x3fbbdb06	1.4676216
16	0x3fb1ab05	1.3880316
17	0x3f6dc2c8	0.9287534
18	0x3f2b944d	0.67023164
19	0x3f858f00	1.0434265
20	0x3f1efede	0.62107646
21	0x3f584d86	0.8449329
22	0x3f846d21	1.0345803
23	0x3f1be3aa	0.6089426
24	0x3fced567	1.6158875
25	0x3f1131b0	0.5671644
26	0x3e96a4d7	0.29422638
27	0x3f552a91	0.83268076
28	0x3f2cf658	0.6756339
29	0x3f23bd71	0.6396094
30	0x3ef62f8e	0.48083156
31	0x3f9e9d45	1.2391745

gnn.gnn_layers.2.graph_conv.weight f4 [32, 32]
0	0x3da9fb29	0.08299858
1	0x3d995a33	0.07487907
2	0x3cca9260	0.024728
3	0x3cadd328	0.021218851
4	0x3d8e7e0f	0.069576375
5	0x3c506760	0.012719959
6	0xbdae6277	-0.085148744
7	0xbdc1d53d	-0.094645
8	0x3d5bfc2d	0.05370729
9	0x3d54a5d5	0.051915962
10	0x3de1847a	0.11011596
11	0x3adf7208	0.0017047534
12	0xbb90b515	-0.004416118
13	0x3d6c2bdc	0.057659015
14	0x3d797c16	0.060909353
15	0xbdc23fd9	-0.09484834
16	0x3d269520	0.04066956
17	0x3d020e5a	0.031751968
18	0xbd0bc691	-0.034124915
19	0x3cf689b1	0.030094953
20	0xbdf71cbf	-0.1206603
21	0xbbbee416	-0.00582553
22	0xbd0db3f4	-0.034595445
23	0xbd3027df	-0.043006774
24	0xbc4d5b3d	-0.01253396
25	0x3da54321	0.080694444
26	0xbda80118	-0.082033336
27	0x3da287cf	0.0793606
28	0xbd9bac7c	-0.07601258
29	0x3db0adda	0.086269096
30	0x3de7c1c7	0.11316257
31	0x3d635203	0.055498134
32	0xbb92ae9e	-0.0044763824
33	0x3dceda17	0.10100191
34	0xbd975d97	-0.07390898
35	0x3dddb15b	0.108248435
36	0x3da9414b	0.08264407
37	0x3d68af07	0.056807544
38	0x3dac6eb2	0.08419551
39	0x3db27c48	0.08715111
40	0xbe245463	-0.16047816
41	0x3b4ea9a7	0.0031534226
42	0x3da9723b	0.08273741
43	0xbdc22930	-0.09480512
44	0xbe05e9a6	-0.13077411
45	0xbe2d2fcf	-0.16912769
46	0x3e3d9650	0.18514371
47	0xbdb33906	-0.08751111
48	0xbd7a441d	-0.061100114
49	0xbd05a73a	-0.032630183
50	0xbd3590f9	-0.04432771
51	0xbe075975	-0.13217719
52	0x3d95bf6e	0.07311903
53	0xbd8f027d	-0.069828965
54	0xbe0f5eda	-0.14001027
55	0x3c36741e	0.011136083
56	0x3e1f8e3e	0.15581605
57	0xbdf94efe	-0.1217327
58	0xbd85a782	-0.0652609
59	0x3e325b76	0.17417702
60	0xbda82c87	-0.08211618
61	0xbe04a86a	-0.1295487
62	0xbd841a29	-0.06450302
63	0x3c29c80f	0.010362639
64	0x3e057ec9	0.13036646
65	0x3df55900	0.11979866
66	0xbd8c1431	-0.06839789
67	0x3d08c426	0.033390187
68	0x3cabae88	0.020957246
69	0x3d199570	0.03749603
70	0x3dc202c5	0.094731845
71	0xbd0991b0	-0.033586204
72	0x3daadf78	0.083434045
73	0xbcbceb88	-0.023061529
74	0xbada62d8	-0.0016661538
75	0xbd10fb4c	-0.035395905
76	0xbdbae5a6	-0.09125833
77	0x3b47dea9	0.0030497706
78	0xbd0459e3	-0.032312285
79	0x3b95031c	0.00454749
80	0x3d26545c	0.040607795
81	0x3d8d1901	0.06889535
82	0xbd943696	-0.07236974
83	0xbb901595	-0.004397104
84	0x3d0c7469	0.034290705
85	0x3d8797dd	0.066207625
86	0xbd79e205	-0.061006565
87	0x3d665e22	0.056242116
88	0xbd5ff7a3	-0.054679524
89	0x3da20029	0.07910187
90	0xbd39ba4c	-0.045343682
91	0xbd9bfc64	-0.07616499
92	0x3d874788	0.066054404
93	0x3ddc5b47	0.10759597
94	0xbc926eff	-0.017875193
95	0x3df547fd	0.11976621
96	0xbdf6d5a0	-0.120524645
97	0xbcb70f34	-0.022346117
98	0x3b179077	0.002312688
99	0x3b0048c4	0.0019574622
100	0xbd807e64	-0.06274107
101	0xbe164c85	-0.14677627
102	0xbd025e45	-0.031828184
103	0xbdecc553	-0.11561074
104	0xbd185e05	-0.03719904
105	0x3d54c9fe	0.051950447
106	0xbd2a7778	-0.04161784
107	0x3e124f41	0.14288045
108	0xbdabf2cb	-0.083959185
109	0xbd7b4127	-0.06134143
110	0x3d79f47d	0.061024178
111	0x3d69cee3	0.05708207
112	0xbd6ea2bd	-0.058260668
113	0xbce0ba12	-0.027432475
114	0x3d9687e8	0.07350141
115	0x3e022522	0.12709478
116	0xbd092c8c	-0.03348975
117	0xbd0c30d1	-0.034226242
118	0x3de2b8f1	0.11070431
119	0xbd9113a0	-0.07083821
120	0xbd78183c	-0.060569987
121	0x3d6e0bbc	0.05811666
122	0x3e094bbf	0.13407801
123	0xbdcf63f1	-0.10126484
124	0xbdd63fce	-0.104613885
125	0xbd870ad1	-0.0659386
126	0x3cb7def2	0.022445176
127	0x3ca65dfd	0.020308489
128	0x3e25dcac	0.16197461
129	0x3e2ce8df	0.16885708
130	0xbe2091c7	-0.1568061
131	0xbde3355a	-0.110941604
132	0x3e36b7bf	0.17843531
133	0xbb8d856b	-0.004318883
134	0x3e0a7e38	0.13524711
135	0x3bdd13a4	0.006746726
136	0xbdb7f291	-0.08981813
137	0xbdc87575	-0.09788028
138	0xbd0e92ec	-0.034808084
139	0xbdf35651	-0.11881698
140	0xbd676fac	-0.056502983
141	0xbe2dfe4c	-0.16991538
142	0x3e15f969	0.14645924
143	0xbc001943	-0.007818523
144	0xbdd1d369	-0.102454014
145	0x3b2c88d2	0.0026326668
146	0xbdff5765	-0.12467841
147	0xbd10d86b	-0.035362642
148	0x3c719755	0.014745553
149	0xbbc43923	-0.0059882565
150	0xbe0c7dcb	-0.13719861
151	0x3df8dc8d	0.12151442
152	0x3d7f65b8	0.062352866
153	0xbd811f9c	-0.06304857
154	0xbe0f7f41	-0.14013387
155	0xbdbdf2bb	-0.09274813
156	0xbdbce107	-0.09222608
157	0xbd89ce86	-0.06728844
158	0xbc485c6d	-0.012229067
159	0x3e0be3e3	0.1366115
160	0x3c8a205e	0.016861137
161	0x3d64ebcb	0.055888932
162	0x3c4123cb	0.011788319
163	0xbd8b4d01	-0.06801797
164	0x3d388eb3	0.045057964
165	0x3df8ef2d	0.12154994
166	0xbd4ae335	-0.049533088
167	0x3df141d6	0.11780135
168	0xbc796690	-0.015222207
169	0x3b4781b7	0.0030442306
170	0xbe02566e	-0.12728283
171	0x3d3a3c42	0.045467623
172	0x3ccfb91c	0.025356822
173	0xbdf2ba04	-0.11851886
174	0xbd7559a5	-0.059899945
175	0x3d1a740d	0.03770833
176	0xbd365ce5	-0.044522185
177	0x3deeb4c2	0.116555706
178	0x3d321292	0.04347474
179	0xbdeb1c33	-0.11479988
180	0x3dcb0825	0.09913663
181	0xbab6f55d	-0.0013958622
182	0xbdaf9a57	-0.0857436
183	0xbd69d83d	-0.057090987
184	0xbc3dcb5a	-0.011584127
185	0xbdad8522	-0.08472659
186	0xbdbe7c7d	-0.09301088
187	0xbd02dda8	-0.03194967
188	0x3dbb9073	0.09158411
189	0xbd69dcf7	-0.057095494
190	0xbdcc2244	-0.09967473
191	0x3b5fdc27	0.003415832
192	0x3d7c7402	0.06163407
193	0x3ca12107	0.019669069
194	0x3c310dc9	0.010806509
195	0xbc1c83d8	-0.009552918
196	0x3d98d8c1	0.074632175
197	0xbccf50cd	-0.025307084
198	0x3d8fb196	0.07016294
199	0x3dbe3638	0.09287685
200	0xbd3f11ef	-0.046647962
201	0xbd1438e2	-0.03618706
202	0x3d6041af	0.05475014
203	0xbc9ada85	-0.018903026
204	0x3dd2353f	0.10264062
205	0xbd94e2d2	-0.07269825
206	0x3e0679de	0.13132426
207	0x3d6dc3bb	0.05804799
208	0x3e042380	0.12904167
209	0xbde5f0ac	-0.11227545
210	0xbc90ec8c	-0.01769092
211	0xbda48b0e	-0.08034335
212	0x3cdfa4a4	0.027300186
213	0x3d2d3be5	0.042293448
214	0x3daed570	0.08536804
215	0xbd08fd12	-0.03344447
216	0xbd8bc649	-0.06824929
217	0xbd56782c	-0.0523607
218	0xbd824741	-0.06361247
219	0x3d0d4fd7	0.03449997
220	0x3ce89e65	0.02839584
221	0xbc8d045b	-0.01721399
222	0x3d32bdbb	0.043637972
223	0xbd2d88e9	-0.042366896
224	0xbbffa920	-0.0078021437
225	0xba8a9d7e	-0.0010575501
226	0x3cb51a9f	0.02210742
227	0xbd0df463	-0.034656893
228	0xbd41dacd	-0.047327805
229	0xbcbda965	-0.023152063
230	0xbd1f3fb2	-0.038879104
231	0xbe0ea943	-0.13931756
232	0xbcfc4083	-0.03079248
233	0x3e0b97d1	0.13632132
234	0xbcfba691	-0.030719073
235	0xbd4a4fd7	-0.049392547
236	0x3d91a388	0.07111269
237	0x3c829dd1	0.015944393
238	0xbd3cfe3b	-0.04614089
239	0x3af825d7	0.0018932176
240	0x3de67e8f	0.11254608
241	0xbdc4444c	-0.09583339
242	0x3e1daca6	0.15397891
243	0x3df0eb86	0.117636725
244	0x3c56b1b8	0.013103895
245	0x3dd5dc4b	0.10442408
246	0xbcb49d85	-0.022047767
247	0xbe0df256	-0.13861975
248	0xbdbf2d24	-0.09334782
249	0xbdbab467	-0.0911644
250	0x3e297f24	0.16552407
251	0xbde11505	-0.10990337
252	0xbe1f6ede	-0.15569636
253	0x3d560db6	0.05225917
254	0x3c3735bf	0.011182248
255	0xbc9c4267	-0.019074632

gnn.gnn_layers.2.graph_conv.bias f4 [32]
0	0x3d8a5f9b	0.067565165
1	0x3d36e102	0.044648178
2	0x3dcb4823	0.09925868
3	0x3c383197	0.011242292
4	0x39bb74d9	0.00035754478
5	0xbca4898e	-0.020085122
6	0x3cc4effd	0.024040217
7	0x3e04b037	0.12957846
8	0x3c203cf9	0.009780162
9	0x3c40b927	0.011762894
10	0x3dd39c99	0.10332603
11	0x3c100dd5	0.00879236
12	0x3c996a29	0.018727379
13	0x3d921b87	0.07134157
14	0x3ca2df12	0.019881759
15	0xbbccfa9a	-0.00625546
16	0x3af2df43	0.0018529672
17	0x3c37b811	0.011213318
18	0x3ccea62a	0.025225718
19	0x3c5d5992	0.013510125
20	0x3cbddef2	0.023177598
21	0x3c3aa9fb	0.011393066
22	0xbcfce3ee	-0.030870404
23	0x3db5cb04	0.08876613
24	0x3da32f9f	0.079680674
25	0x3da927f7	0.08259576
26	0x3dbc9f77	0.09210103
27	0x3d2b73c3	0.041858446
28	0xbc9e008e	-0.019287374
29	0x3d35a835	0.044349868
30	0xbc8fc7e1	-0.017551364
31	0x3d55a76b	0.052161615
