Results/GCN/saved_model/GCN_bst_2.pth (torch, 68758 bytes, 40 tensors)

gnn.gnn_layers.0.graph_conv.weight f4 [74, 32]
0	0xbc9d2b80	-0.019185781
1	0xbd66b13d	-0.05632137
2	0x3d042221	0.03225911
3	0xbc9ec511	-0.019381078
4	0xbe5854d2	-0.21126106
5	0x3d2341e9	0.03985778
6	0xbe006f5e	-0.12542483
7	0x3e481c21	0.1954198
8	0x3da9c9ee	0.08290468
9	0x3deb2395	0.11481396
10	0x3e4fe36e	0.20301601
11	0xbd8bbe7a	-0.0682344
12	0x3dac3bec	0.08409867
13	0xbe140509	-0.14455046
14	0xbe6a1b14	-0.22861892
15	0xbdebcc23	-0.11513545
16	0xbdadc466	-0.08484726
17	0xbe236b82	-0.1595898
18	0x3dad47d9	0.084609695
19	0xbe1dbcaf	-0.15404008
20	0xbd2433c9	-0.04008845
21	0x3d8451ae	0.06460892
22	0x3d9abab3	0.07555141
23	0xbdcfdc1b	-0.10149404
24	0xbe61f49f	-0.22065972
25	0xbc7f0e96	-0.015567442
26	0x3ce6ff4e	0.02819791
27	0xbe53d6e2	-0.2068744
28	0x3d77e8e3	0.060524832
29	0xbe405148	-0.18781006
30	0xbe15c89f	-0.14627312
31	0xbe82fdf6	-0.25584382
32	0xbdd124e6	-0.10212116
33	0xbdc2644f	-0.094917886
34	0xbde08505	-0.109628715
35	0x3edb9b9a	0.42892152
36	0x3c0f84d7	0.008759699
37	0x3cc93f3c	0.024566285
38	0xbdd7791b	-0.10521146
39	0xbec12efa	-0.37731153
40	0xbe00c3d7	-0.12574707
41	0xbdc80fc6	-0.097686335
42	0xbd16ac65	-0.036785502
43	0xbedfed2e	-0.4373564
44	0xbd884904	-0.066545516
45	0x3e9d3f92	0.30712563
46	0x3df23a07	0.11827474
47	0x3cf906b2	0.0303987
48	0xbe95a77b	-0.2922934
49	0xbe56d268	-0.20978701
50	0xbde5f0a5	-0.1122754
51	0x3de4808e	0.11157332
52	0x3cf5aea3	0.0299905
53	0x3d5b33a1	0.053516034
54	0xbda5db53	-0.080984734
55	0x3d239ba2	0.039943345
56	0x3d5fbb2b	0.054621857
57	0xbbf449a1	-0.0074550663
58	0xbb89e1c1	-0.00420782
59	0x3e1b3664	0.15157467
60	0xbe10d526	-0.1414381
61	0xbe9459fe	-0.2897491
62	0x3c91a8fe	0.017780777
63	0x3e9c5919	0.30536726
64	0xbe8e865f	-0.27836892
65	0x3d97fc5b	0.0742118
66	0xbd37634e	-0.04477244
67	0xbda3f4c7	-0.08005672
68	0x3d952345	0.07282118
69	0xbdc24bc4	-0.094871074
70	0x3dcfbe3c	0.10143706
71	0x3dd3ed29	0.10347969
72	0xbd2e6b70	-0.04258293
73	0xbdc8deb4	-0.09808102
74	0xbce5afd6	-0.028037947
75	0xbe3233b0	-0.1740253
76	0xbe11713b	-0.1420335
77	0x3dcb8bd3	0.09938779
78	0xbd80f449	-0.06296594
79	0x3e9f493b	0.31110558
80	0x3e6b3a10	0.22971368
81	0xbd278bb6	-0.040904723
82	0x3ee236f0	0.4418254
83	0x3de534e6	0.1119173
84	0x3e553dd8	0.20824373
85	0x3e247099	0.16058578
86	0x3e304a18	0.17215765
87	0xbd122166	-0.035676382
88	0x3dc95de3	0.098323606
89	0x3b43d07b	0.0029878903
90	0xbe230ee6	-0.15923652
91	0xbd609691	-0.05483109
92	0x3d2a5fc7	0.041595247
93	0x3da545c8	0.0806995
94	0x3c9e1816	0.019298594
95	0xbe890f98	-0.2676971
96	0x3eb10a6b	0.3457826
97	0x3e59a3d4	0.21253902
98	0x3dcef8e5	0.101060666
99	0xbe5ca0b4	-0.21545678
100	0xbdc900d3	-0.0981461
101	0x3d8b1be2	0.067924276
102	0x3dda88ad	0.106706
103	0x3dcc880f	0.099868886
104	0x3de5e5c7	0.11225467
105	0x3e11bcdf	0.14232205
106	0xbc19332c	-0.009350579
107	0x3e7227eb	0.2364804
108	0x3e6af19a	0.22943726
109	0xbe527d84	-0.20555693
110	0x3e12a844	0.14322
111	0xbe4779ba	-0.19480029
112	0x3dc0e65a	0.09418936
113	0x3dbbf05b	0.091767035
114	0xbe17ceea	-0.14825025
115	0xbe173fed	-0.1477048
116	0x3c82bae2	0.015958253
117	0xbd266279	-0.040621255
118	0x3d025639	0.03182051
119	0x3e002b86	0.12516603
120	0x3c377fe7	0.011199928
121	0x30437864	7.111167e-10
122	0x3cfa3af7	0.030545695
123	0x3d30af9c	0.043136224
124	0xbc7cf8a2	-0.015440138
125	0xbd1d5ef1	-0.03842062
126	0xbc973a5a	-0.018460441
127	0xbee298f0	-0.44257307
128	0xbe6b7d95	-0.22997124
129	0xbde77724	-0.11302021
130	0xbd7d9cba	-0.061917044
131	0xbd9b3e1f	-0.07580208
132	0x3d69de1b	0.057096582
133	0xbddd2222	-0.10797526
134	0xbc30406c	-0.010757547
135	0xbdacdd7f	-0.084406845
136	0xbe1fa859	-0.15591563
137	0x3d984191	0.07434381
138	0xbdf73876	-0.12071316
139	0xbe442c2f	-0.1915748
140	0xbe11f276	-0.14252648
141	0x3df95266	0.121739194
142	0xbd2afa22	-0.04174245
143	0x3e0d1758	0.13778436
144	0xbd864180	-0.06555462
145	0xbd92d607	-0.07169729
146	0x3cf624cb	0.030046841
147	0xbd081093	-0.03321893
148	0xbcf43cc9	-0.02981414
149	0xbdabcab0	-0.08388269
150	0xbdf42793	-0.11921611
151	0xbce50d16	-0.027960341
152	0xb339dd77	-4.327509e-08
153	0x391250c1	0.00013953728
154	0xbda54faf	-0.08071839
155	0xbc25a3d9	-0.010109865
156	0x3d3e036c	0.046389982
157	0x3d5ebb76	0.054377995
158	0xbc174946	-0.009233778
159	0xbd31b0cc	-0.043381497
160	0x3dcfafe7	0.101409726
161	0x3c91da9d	0.017804438
162	0x381eb235	3.7836104e-05
163	0xbc72a49a	-0.014809752
164	0x3c676b32	0.014124678
165	0x3acd5536	0.0015665654
166	0x3c146557	0.009057364
167	0x3d36743c	0.044544443
168	0x3b0b33c9	0.0021240583
169	0x3b628f84	0.0034570405
170	0x3a4fba97	0.00079242274
171	0x3ee69da4	0.45042145
172	0x388e2e3f	6.779702e-05
173	0xbce5fc2e	-0.02807435
174	0x3cdcaa36	0.026936632
175	0xbbcfbdf1	-0.0063397815
176	0xbba16a9d	-0.0049260394
177	0xae6d5e02	-5.3971057e-11
178	0x3aef3b56	0.0018251936
179	0x934ad257	-2.559969e-27
180	0xa5fea8f7	-4.417647e-16
181	0xb9d52ef0	-0.00040661497
182	0xbc85e7d3	-0.016345894
183	0x3c65912b	0.0140116615
184	0x9e08e9b6	-7.24811e-21
185	0x13c8d29f	5.0694786e-27
186	0x3cb84287	0.02249266
187	0x13c14983	4.8792538e-27
188	0x2c4543f3	2.8033103e-12
189	0x1e340ad1	9.5313574e-21
190	0xbc2ebf24	-0.010665689
191	0xbde25e85	-0.110531844
192	0xbd542b78	-0.051799268
193	0x3d5718af	0.052513774
194	0xbb524352	-0.0032083583
195	0x3bd99a9b	0.006640745
196	0xbd2dbe82	-0.04241801
197	0xbbeb1420	-0.00717403
198	0x3ad69dd1	0.0016373937
199	0x3414fb40	1.3874978e-07
200	0xbcdfc206	-0.027314197
201	0xbcc06c37	-0.0234891
202	0xbba4c2cc	-0.0050281044
203	0xbdae04e3	-0.08497026
204	0xbcb1e459	-0.02171533
205	0xbcdfc0d2	-0.027313624
206	0xbd379ea0	-0.04482901
207	0x3d79e694	0.061010912
208	0x3daed37f	0.085364334
209	0x39e61ea3	0.00043891845
210	0x3e234153	0.15942888
211	0xbc0bc30d	-0.00853039
212	0x3d9e650d	0.07734118
213	0x3c1bc07f	0.009506344
214	0x3e1e1302	0.15436938
215	0x394a3334	0.00019283296
216	0xb603a0de	-1.9614158e-06
217	0x137b47cb	3.171605e-27
218	0xbc997f57	-0.018737478
219	0x3baa0883	0.005189003
220	0x36f6d855	7.3565557e-06
221	0x3d2cad4d	0.04215746
222	0x3e2c13fe	0.16804501
223	0x3c49a76c	0.012307983
224	0x3ecfed7b	0.4061087
225	0x3e624a66	0.22098693
226	0x3d1b1a1e	0.037866704
227	0xb6922997	-4.3559808e-06
228	0xba2d7d11	-0.00066180626
229	0x3c916cbd	0.017752046
230	0x3d0bb1df	0.034105178
231	0x3cad1259	0.021126913
232	0x3d510fa2	0.0510403
233	0x3da9ad89	0.08285052
234	0x3cd74a4b	0.026280543
235	0x3ec3f04b	0.38269266
236	0x3d3f59fe	0.046716683
237	0xbcd7566d	-0.026286328
238	0x3e82fe85	0.25584808
239	0xbd868f11	-0.065702565
240	0xbd2ce76f	-0.0422129
241	0x3dceee2e	0.10104023
242	0xbdd33d35	-0.10314409
243	0x3c695bdd	0.014243093
244	0xbbdfa9ed	-0.0068256767
245	0xbcbb9474	-0.022897936
246	0xba0d7747	-0.0005396497
247	0x3c29e39f	0.0103692105
248	0x28635f0c	1.2621641e-14
249	0x97e331e3	-1.4682124e-24
250	0x3c6f1088	0.014591344
251	0x3b4e8479	0.0031512065
252	0xb62d36e2	-2.5810955e-06
253	0xbd17dfef	-0.037078794
254	0x1564c822	4.620211e-26
255	0x3d12d047	0.03584316

gnn.gnn_layers.0.graph_conv.bias f4 [32]
0	0xbe1338ad	-0.14377089
1	0xbd0babeb	-0.0340995
2	0xbd0d610b	-0.034516376
3	0xbe10168d	-0.14071102
4	0xbd1ae992	-0.037820406
5	0xbbbbae82	-0.00572759
6	0xbd31ea4b	-0.04343633
7	0xbdfc7afe	-0.123281464
8	0xbd07d83b	-0.033165198
9	0xbd112ac8	-0.03544119
10	0xbd9f3820	-0.07774377
11	0xbd961c24	-0.07329586
12	0xbe195611	-0.14974238
13	0x3c4ea21e	0.012611894
14	0x385b61ab	5.230463e-05
15	0x3cea4bb6	0.028600555
16	0xbcdec113	-0.027191674
17	0xbd724a06	-0.059152626
18	0xbd1cb733	-0.03826065
19	0xbc3980a2	-0.011322172
20	0xbd2b0a7e	-0.041758053
21	0xbc19e81f	-0.009393721
22	0xbd0e2ae1	-0.03470886
23	0xbd6638dc	-0.05620657
24	0xbd45eec1	-0.048323397
25	0xbcccc3c5	-0.024995694
26	0xbdcc8d52	-0.09987892
27	0x3c3916cd	0.01129694
28	0xbd9eb1c5	-0.077487506
29	0xba9aec04	-0.0011819606
30	0xbd854375	-0.06507007
31	0xbcad54da	-0.021158624

gnn.gnn_layers.0.res_connection.weight f4 [32, 74]
0	0x3a8e0092	0.001083391
1	0xb99056dc	-0.00027530536
2	0xb98f01da	-0.00027276465
3	0xa29293ee	-3.9730006e-18
4	0x2fd0d74d	3.798796e-10
5	0x94341301	-9.0914255e-27
6	0x938901cd	-3.4585438e-27
7	0x13e4e5e7	5.7781993e-27
8	0x121c9a18	4.9414856e-28
9	0x13993709	3.86769e-27
10	0x938cd409	-3.555005e-27
11	0x93bd8a1e	-4.78465e-27
12	0x13e521e6	5.7841154e-27
13	0x113d7911	1.4946778e-28
14	0x929f0811	-1.0036299e-27
15	0x949c59d4	-1.5787406e-26
16	0x1304c43c	1.6757493e-27
17	0x1501bfa4	2.620252e-26
18	0x9360a689	-2.8354883e-27
19	0x128a7034	8.736685e-28
20	0x142ad508	8.62482e-27
21	0x94351c52	-9.14375e-27
22	0x1300a764	1.6238401e-27
23	0x106de0ec	4.6913282e-29
24	0x938d0b63	-3.5604632e-27
25	0x92b38b65	-1.1330852e-27
26	0x12ac1c2c	1.0861671e-27
27	0x93cfb7f8	-5.2435554e-27
28	0x8e1e2871	-1.9494475e-30
29	0x92829a00	-8.242117e-28
30	0x933d64f3	-2.3904926e-27
31	0x1485e197	1.3518548e-26
32	0x149ea474	1.6018788e-26
33	0x94cb67d7	-2.053872e-26
34	0x923395a4	-5.6666887e-28
35	0x935e4d95	-2.805859e-27
36	0x916f6b36	-1.8886813e-28
37	0x938c8ae0	-3.547791e-27
38	0x93083fcc	-1.7197068e-27
39	0x9344f4a9	-2.4859305e-27
40	0x911d2eaa	-1.2399496e-28
41	0x13346a9c	2.2771757e-27
42	0x149e3be8	1.5977552e-26
43	0x93c4d1d4	-4.9684262e-27
44	0xba958806	-0.0011408336
45	0xbcb919ca	-0.022595305
46	0x3cdd70c4	0.02703131
47	0xaa3c32fe	-1.6715446e-13
48	0x0ed45899	5.234735e-30
49	0x9615a8fd	-1.2089447e-25
50	0x13c36b78	4.9330893e-27
51	0x920b37d2	-4.392947e-28
52	0x92e3fcce	-1.4388035e-27
53	0x131b4db6	1.9602065e-27
54	0xbd4d639a	-0.050143816
55	0x3cad4444	0.021150716
56	0xbb17c5cd	-0.002315867
57	0x330cf677	3.282045e-08
58	0x11d51177	3.3616238e-28
59	0x13349975	2.2794854e-27
60	0x9002189a	-2.5656932e-29
61	0xabd4768d	-1.509641e-12
62	0x94e188c8	-2.2773145e-26
63	0xaccafd6e	-5.7693217e-12
64	0xbcfa83db	-0.030580452
65	0xbcd40583	-0.025881534
66	0x13a0bae3	4.0573963e-27
67	0x1a1e7331	3.2766685e-23
68	0xba24440a	-0.0006266242
69	0x3a252a01	0.00063005096
70	0xbc5d6b90	-0.013514414
71	0x3a9fbcd4	0.0012187012
72	0xb500ba16	-4.7954506e-07
73	0x91b55f28	-2.861541e-28
74	0xbd5f935e	-0.0545839
75	0xbba9a0ad	-0.0051766247
76	0x3c8c5741	0.01713145
77	0x3dcf3c0b	0.10118874
78	0xbd74b024	-0.059738293
79	0x39bd612e	0.00036121294
80	0x3c84b02f	0.016197292
81	0x3e09886c	0.13430947
82	0x3b669408	0.0035183448
83	0x9437f17f	-9.286766e-27
84	0x15109159	2.9195227e-26
85	0x10c80130	7.888792e-29
86	0x147583fe	1.239537e-26
87	0x12f755d4	1.560905e-27
88	0x934bf496	-2.5742792e-27
89	0x3cea5d31	0.02860889
90	0x13b3aba9	4.5355223e-27
91	0x941af451	-7.823196e-27
92	0x117b0521	1.9801989e-28
93	0x93da01ff	-5.5032905e-27
94	0x11b05880	2.7822446e-28
95	0x146830a3	1.1722599e-26
96	0x93c4cb5d	-4.9677888e-27
97	0x13af9adb	4.432891e-27
98	0x93cbfd09	-5.1493916e-27
99	0x116df723	1.8772158e-28
100	0x9085dd88	-5.2800573e-29
101	0x92b8838b	-1.164446e-27
102	0x128a2208	8.717414e-28
103	0xb69bdcd3	-4.6450673e-06
104	0x930123bb	-1.6299706e-27
105	0x131de960	1.9931249e-27
106	0x9501baed	-2.61988e-26
107	0x150f55b3	2.8946225e-26
108	0x12dc9db1	1.3922826e-27
109	0x931f058b	-2.0071354e-27
110	0x93b25216	-4.501446e-27
111	0x9491694d	-1.4682792e-26
112	0x134bfbe9	2.5746403e-27
113	0x14a1172c	1.6265985e-26
114	0x94040b6b	-6.666549e-27
115	0x949e30a7	-1.5973113e-26
116	0x1464b570	1.15468406e-26
117	0x13f035c3	6.063753e-27
118	0xbc99ac51	-0.018758925
119	0x3c5893dd	0.013218847
120	0xbcc074a1	-0.023493113
121	0xbbd1fd62	-0.0064083794
122	0x12bc3d7e	1.1879627e-27
123	0xbc93c6cf	-0.018039135
124	0x1380ed62	3.254582e-27
125	0x91a36b03	-2.5782817e-28
126	0x93a3f6c5	-4.139032e-27
127	0x93c8710a	-5.0598563e-27
128	0xbcc2bbb3	-0.023771143
129	0x39212f4d	0.00015371777
130	0xbc471072	-0.012149917
131	0xbc6bce37	-0.014392427
132	0x908c5af7	-5.5360417e-29
133	0x124cd90b	6.4638576e-28
134	0x13514d68	2.6417673e-27
135	0x3d3de093	0.04635675
136	0x11eff88f	3.7860737e-28
137	0xbcf1cf93	-0.029517924
138	0xbe064c40	-0.13115025
139	0xbc37c6bc	-0.011216816
140	0x93a1a29c	-4.080246e-27
141	0xbc936988	-0.017994657
142	0xbd772bbb	-0.06034444
143	0x3d34b039	0.04411337
144	0xbd00ecbf	-0.03147578
145	0xbd4e4d52	-0.050366707
146	0x3a026248	0.00049737515
147	0x94dfa6cb	-2.2583034e-26
148	0x3d19bbae	0.0375325
149	0xbc1cea80	-0.0095773935
150	0xbdb25793	-0.0870811
151	0x3d53936d	0.051654268
152	0x3c86f7b4	0.016475536
153	0xb866dca2	-5.5041754e-05
154	0x93233e0f	-2.060409e-27
155	0x3c68481e	0.01417735
156	0xb73c1560	-1.121065e-05
157	0x1492c85a	1.4821257e-26
158	0x93a1afa7	-4.081532e-27
159	0x13e23f03	5.7112555e-27
160	0x93aaad6b	-4.3085037e-27
161	0x13e045d6	5.6614413e-27
162	0x126bf10e	7.445005e-28
163	0x37b840c8	2.1964675e-05
164	0x90ca0b39	-7.969224e-29
165	0x92851bee	-8.400365e-28
166	0x1294725a	9.368303e-28
167	0x145ffb9e	1.13082456e-26
168	0x924dc574	-6.4929974e-28
169	0x136bfacb	2.978482e-27
170	0x9397c120	-3.8308195e-27
171	0x1416b828	7.609383e-27
172	0x942382a6	-8.255163e-27
173	0x9380a5b5	-3.2475142e-27
174	0x139d2d12	3.9676815e-27
175	0x12d62088	1.3513318e-27
176	0x949eb58b	-1.6025529e-26
177	0xb64a8e01	-3.0183003e-06
178	0x92148d84	-4.6874997e-28
179	0x128ce316	8.891223e-28
180	0x1382e84b	3.3045672e-27
181	0x14d9e553	2.2001853e-26
182	0x933dca6f	-2.3954961e-27
183	0x13cb13db	5.1263983e-27
184	0x920131be	-4.0766535e-28
185	0x133a9abd	2.3552792e-27
186	0x933c7feb	-2.3792004e-27
187	0x9488af05	-1.3801524e-26
188	0x92ebff67	-1.4893547e-27
189	0x940e89d4	-7.19635e-27
190	0x92617118	-7.113688e-28
191	0x9464601a	-1.1530011e-26
192	0xbd16b472	-0.03679318
193	0xbdf41e7c	-0.11919877
194	0x3d83c1fe	0.064334854
195	0xbcba9300	-0.022775173
196	0x94bb9c71	-1.894388e-26
197	0x3c2aa762	0.010415884
198	0x13aade94	4.3133512e-27
199	0x9308772b	-1.7224368e-27
200	0x13804707	3.238178e-27
201	0x14c3dea2	1.9777781e-26
202	0x3ab2871e	0.001362059
203	0xbd8b09a4	-0.06788948
204	0x3c084750	0.0083177835
205	0xbcbe567d	-0.0232346
206	0x92c4831a	-1.2401658e-27
207	0x94cb2473	-2.0512138e-26
208	0x130e56d0	1.7965722e-27
209	0x3c83f0ca	0.016106028
210	0x132dd8bc	2.1942528e-27
211	0xbd21b0e2	-0.03947533
212	0x3ce9a2f7	0.02852009
213	0xbd9bbf94	-0.076049
214	0x0ff2b59e	2.3932999e-29
215	0x3c2d0b16	0.010561725
216	0x3d9419a2	0.072314516
217	0x3cbbc9db	0.0229234
218	0xbd57bbb8	-0.052669257
219	0x3c175bac	0.009238165
220	0xbc875e37	-0.016524417
221	0x14275441	8.4479615e-27
222	0xbe07de8f	-0.13268493
223	0x3dc4d747	0.096113734
224	0x3dc3e10a	0.09564407
225	0xbce3f3ce	-0.027826216
226	0xbdaeb44e	-0.08530484
227	0xaea0daac	-7.3148015e-11
228	0x31e097e2	6.536525e-09
229	0xbd7ad2a7	-0.06123605
230	0xbca948a3	-0.020664519
231	0x9217196b	-4.767853e-28
232	0x9412c94c	-7.410815e-27
233	0x125a970e	6.897486e-28
234	0x916dbc1d	-1.875397e-28
235	0x1393304e	3.715565e-27
236	0x8ffdffe9	-2.5046299e-29
237	0xbd2401a6	-0.040040635
238	0x132ed7ed	2.2068347e-27
239	0x12fdad98	1.6009339e-27
240	0x9416b3f2	-7.608553e-27
241	0x931d4c48	-1.9853795e-27
242	0x1319e3ef	1.9423695e-27
243	0x13852673	3.3611834e-27
244	0x10a1147a	6.353485e-29
245	0x13865dd3	3.3918873e-27
246	0x130a596c	1.7462137e-27
247	0x1382cc3e	3.3018012e-27
248	0x138f4990	3.6170813e-27
249	0x93a2d138	-4.1100855e-27
250	0x93ce5be0	-5.2092307e-27
251	0x9e7aceba	-1.327764e-20
252	0x92be5001	-1.2010408e-27
253	0x13a3c6bc	4.1342952e-27
254	0x93bed06b	-4.816826e-27
255	0x950bd7ff	-2.8241217e-26

gnn.gnn_layers.0.res_connection.bias f4 [32]
0	0xbd01c493	-0.03168161
1	0xbc424d1a	-0.011859203
2	0xbd273f10	-0.040831625
3	0xbce1f525	-0.027582714
4	0x3cc1b4da	0.023645807
5	0xbca23bbe	-0.019803878
6	0x3d3e5873	0.04647107
7	0xb6a86a3a	-5.0191566e-06
8	0x3d9fa99f	0.077960245
9	0xbc80359d	-0.015650565
10	0xbd982774	-0.074294
11	0xb7df92ca	-2.6652026e-05
12	0xbb8d6a03	-0.004315616
13	0xbdae71f3	-0.08517828
14	0xbd44ad98	-0.048017114
15	0xbd6e59ce	-0.058191113
16	0xbdf3ca43	-0.11903813
17	0xbd06f423	-0.03294767
18	0xbd173f0c	-0.03692536
19	0xbd17a281	-0.03702021
20	0xbcb404e5	-0.02197499
21	0xbc933299	-0.017968463
22	0xbda7f37a	-0.08200736
23	0xba424c14	-0.0007411849
24	0xbd801552	-0.062540665
25	0xbb133684	-0.0022462914
26	0xbd16473c	-0.03668903
27	0xbdff179e	-0.124556765
28	0xbdc41981	-0.09575177
29	0xbdeda836	-0.11604349
30	0xbc2d7756	-0.010587534
31	0xbd8d363a	-0.068951085

gnn.gnn_layers.0.bn_layer.weight f4 [32]
0	0x3f4917c5	0.78551894
1	0x3f119fc8	0.5688443
2	0x3f0d15fc	0.5511167
3	0x3f61aa97	0.88150924
4	0x3f2a5273	0.6653206
5	0x3f018c52	0.50604737
6	0x3f046d91	0.51729685
7	0x3f19a7ea	0.6002184
8	0x3f0db065	0.5534728
9	0x3f011f06	0.50437963
10	0x3f2881d4	0.658231
11	0x3f66d61b	0.9017045
12	0x3f12a8a7	0.57288593
13	0x3f2655d5	0.6497472
14	0x3f35c693	0.71006125
15	0x3f253282	0.64530194
16	0x3f151055	0.58228046
17	0x3f028786	0.5098804
18	0x3f36e3ee	0.71441543
19	0x3f246d71	0.64229494
20	0x3f0a81f0	0.5410452
21	0x3eb9a7e1	0.36260894
22	0x3f487014	0.7829602
23	0x3f004b1f	0.50114626
24	0x3f003242	0.5007669
25	0x3ee9232e	0.45534652
26	0x3ee9f004	0.4569093
27	0x3ef28e7a	0.47374326
28	0x3f38da9a	0.7220856
29	0x3f2af943	0.66786593
30	0x3f3a5d55	0.72798663
31	0x3f48f71c	0.7850206

gnn.gnn_layers.0.bn_layer.bias f4 [32]
0	0x3ca47d1e	0.020079192
1	0xbde9dc57	-0.114189796
2	0x3d9d95c4	0.07694581
3	0xbd21e592	-0.039525576
4	0xbd185ae3	-0.03719605
5	0xbbae9f01	-0.0053290133
6	0x3d02e686	0.031958126
7	0x3d82f0d6	0.06393592
8	0x3dbbcb0b	0.09169587
9	0x3ca45d00	0.020063877
10	0x3d5bfeb5	0.053709704
11	0x3db027b2	0.08601321
12	0x3d1b38a1	0.037895802
13	0xbd6354e4	-0.05550088
14	0x3ab6bb3b	0.0013941297
15	0xbb3a9108	-0.0028467793
16	0xbae93e16	-0.0017794992
17	0xbc7a549c	-0.0152789615
18	0x3dea5a7c	0.1144304
19	0xbd13de6a	-0.036100782
20	0x3d20daa5	0.039271016
21	0x3d8a74c6	0.06760554
22	0x3caba9b1	0.020954939
23	0x3d84d0ad	0.06485114
24	0xbd000a0b	-0.031259578
25	0xbe321c79	-0.17393674
26	0x3dad4bcc	0.08461723
27	0x3cf5ae54	0.029990353
28	0xbcd1db73	-0.025617337
29	0x3e019f38	0.12658393
30	0x3c302342	0.010750594
31	0x3d808fd8	0.06277436

gnn.gnn_layers.0.bn_layer.running_mean f4 [32]
0	0x3d020f5c	0.03175293
1	0x3d5f493f	0.054513212
2	0x3e8b1cbd	0.27170363
3	0x3bc72504	0.0060774107
4	0x3d169e82	0.03677226
5	0x3ee37141	0.44422343
6	0x3e86db36	0.2633912
7	0x3cd6677b	0.02617239
8	0x3ecfc85a	0.40582544
9	0x3ef9c98d	0.48786584
10	0x3df615ef	0.12015902
11	0x3c05040e	0.0081186425
12	0x3d5f5a65	0.054529566
13	0x3ca92b4c	0.020650528
14	0x3cbe58ee	0.023235764
15	0x3db547f8	0.088516176
16	0x3c86cd0e	0.0164552
17	0x3e3b3db3	0.18285255
18	0x3da39c52	0.079888
19	0x3d49e70d	0.049292613
20	0x3d654b7b	0.055980187
21	0x3f1b6fc6	0.6071743
22	0x3c869026	0.016426157
23	0x3d9092df	0.070592634
24	0x3a065009	0.00051236205
25	0x3d848228	0.06470138
26	0x3e60f598	0.21968687
27	0x3da2131d	0.07913802
28	0x3c402a06	0.011728769
29	0x3cfe85fb	0.031069746
30	0x3ad79a9c	0.0016449275
31	0x3cf6a4a6	0.030107807

gnn.gnn_layers.0.bn_layer.running_var f4 [32]
0	0x3c96a553	0.01838938
1	0x3d27327f	0.04081964
2	0x3e98b39d	0.29824534
3	0x3b4e9f1b	0.003152794
4	0x3ce64c7d	0.028112644
5	0x3eea8b3a	0.45809346
6	0x3e062146	0.1309863
7	0x3c816782	0.015796427
8	0x3ec4af6c	0.38415086
9	0x3ee7e31e	0.45290464
10	0x3dd617e3	0.10453775
11	0x3ba29e47	0.004962716
12	0x3cad1d4a	0.02113213
13	0x3c246489	0.010033735
14	0x3c5e2751	0.013559178
15	0x3d7cf46b	0.061756533
16	0x3bc6692f	0.0060550193
17	0x3d79ffbf	0.061034914
18	0x3d1dbcaf	0.03851002
19	0x3d04952c	0.032368824
20	0x3ca2a969	0.019856172
21	0x3eeb5054	0.45959723
22	0x3bd36828	0.0064516254
23	0x3d68a4d9	0.056797836
24	0x38f9fa52	0.00011919871
25	0x3cda6fab	0.026664576
26	0x3e0ab2d1	0.13544776
27	0x3d3157f7	0.04329678
28	0x3b2d77fa	0.0026469217
29	0x3c0a12aa	0.008427301
30	0x39fef715	0.00048630746
31	0x3c7d7976	0.015470853

gnn.gnn_layers.1.graph_conv.weight f4 [32, 32]
0	0xbcb8dcc0	-0.0225662
1	0xbc55cf26	-0.013049876
2	0x3b316700	0.002706945
3	0x3e54743a	0.20747462
4	0xbdb5434e	-0.08850728
5	0xbe18e7b7	-0.14932142
6	0x3e981ad1	0.2970796
7	0xbe25e79d	-0.16201635
8	0xbcf6d80f	-0.030132322
9	0xbda45a7b	-0.0802507
10	0xbcb24cab	-0.021765074
11	0xbe1d3afc	-0.15354532
12	0x3d6ff347	0.058581617
13	0xbd9dd4fd	-0.0770664
14	0x3e4b2e48	0.19841874
15	0xbc988df8	-0.018622383
16	0xbde0d14b	-0.109774195
17	0x3dd50136	0.104006216
18	0x3d2f1e9e	0.04275381
19	0xbd814aef	-0.063131206
20	0x3e944288	0.2895701
21	0xbdc798b9	-0.097459264
22	0x3e4ded1b	0.2010998
23	0xbda01acf	-0.07817613
24	0x3d997464	0.07492903
25	0x3dd5eecc	0.104459375
26	0x3d6caeb7	0.05778381
27	0x3d52647b	0.051365357
28	0x3dfd0f77	0.12356465
29	0xbd4547b4	-0.048164085
30	0x3eb001a9	0.34376267
31	0x3c7ff08f	0.0156213185
32	0x3dde3bb3	0.108512305
33	0xbd388ca5	-0.045056004
34	0x3e1d7e9b	0.15380327
35	0x3cf14e6d	0.029456342
36	0xba4104fc	-0.00073631085
37	0xbe353e83	-0.17699628
38	0xba9573cf	-0.0011402312
39	0xbd8061d7	-0.062686615
40	0x3defd32a	0.11710198
41	0xbdc2f274	-0.095189005
42	0x3de03615	0.10947815
43	0xbccd5707	-0.025065912
44	0x3e322569	0.17397083
45	0x3de285b3	0.11060657
46	0x3e4cb35b	0.19990294
47	0x3a09e54e	0.00052603043
48	0xbc1d7e8a	-0.009612689
49	0x3af1cefb	0.0018448526
50	0x3d99213f	0.07477044
51	0xbc992128	-0.018692568
52	0x3d2baff2	0.04191584
53	0x3d72d948	0.059289247
54	0x3db1f89a	0.08689995
55	0x3d8fb481	0.0701685
56	0x3e43f040	0.19134617
57	0x3d0aab68	0.033854872
58	0x3dd783f0	0.10523212
59	0x3e44c4d5	0.1921571
60	0x3d297de1	0.041379813
61	0x3ba2f909	0.004973535
62	0x3d7c8304	0.061648384
63	0x3d34309b	0.043991666
64	0xbda529d6	-0.0806462
65	0xbdeb758d	-0.114970304
66	0xbd52ed8b	-0.05149607
67	0x3c46d0b7	0.012134722
68	0x3cf92ac2	0.030415896
69	0xbda44389	-0.08020694
70	0x3dd383ff	0.10327911
71	0xbdc4d29b	-0.09610482
72	0x3dc7262d	0.09724078
73	0x3d3c1eb2	0.04592771
74	0x3db18e4a	0.086697176
75	0xbdcaa749	-0.09895188
76	0x3d7b5f72	0.06137032
77	0x3c012d3a	0.007884318
78	0x3cd07bab	0.025449594
79	0x3e005bff	0.12535094
80	0x3da95ee0	0.08270049
81	0xbd9b71a7	-0.07590037
82	0x3cc02bcf	0.02345839
83	0xbd6303bd	-0.055423487
84	0x3d8cc20a	0.068729475
85	0xbdb069c9	-0.08613927
86	0x3e23e4e3	0.16005282
87	0x3cb0f1f8	0.021599755
88	0xbd9db353	-0.07700219
89	0x3d8772c9	0.066136904
90	0xbdc76ea4	-0.097379
91	0xbe1e6b43	-0.15470605
92	0x3e3535fa	0.17696372
93	0x3d92fb34	0.071768194
94	0x3d8d7e59	0.069088645
95	0xbda2ac70	-0.07943046
96	0xbe13932a	-0.14411607
97	0x3e833e15	0.25633302
98	0x3e36b508	0.17842495
99	0xbe0713e7	-0.13191186
100	0x3e6aa418	0.2291416
101	0x3d958c63	0.07302167
102	0xbe0016d8	-0.12508714
103	0x3e92cd5f	0.2867231
104	0x3d881cbb	0.06646105
105	0x3e2e39d7	0.17014252
106	0xbd17ca06	-0.0370579
107	0x3e9c76f7	0.30559513
108	0x3e4c605f	0.19958638
109	0x3da7e4b2	0.08197917
110	0xbd6cc135	-0.057801444
111	0xbcf5e4a0	-0.030016243
112	0x3e0247d8	0.12722719
113	0xbd9fd4e0	-0.078042746
114	0xbdf221af	-0.11822831
115	0x3de27409	0.11057288
116	0xbe062a94	-0.1310218
117	0xbd9e56cb	-0.07731398
118	0xbd0b5503	-0.03401662
119	0xbc83e423	-0.016099995
120	0xbe16851d	-0.14699216
121	0xbcaff841	-0.021480681
122	0x3e7f01b2	0.2490299
123	0xbd0c078f	-0.034186896
124	0xbc636476	-0.013878932
125	0xbd295773	-0.041343164
126	0x3b0ecf8c	0.0021791188
127	0x3d477193	0.048692297
128	0x3e678e90	0.22612977
129	0xbc6ceff9	-0.014461511
130	0xbdc5ae05	-0.09652332
131	0x3dd0c899	0.10194511
132	0xbca186dd	-0.019717628
133	0xbe6b3562	-0.22969583
134	0xbb5d13e2	-0.0033733775
135	0xbcc4b959	-0.024014162
136	0x3e0ade6c	0.1356141
137	0x3c00c7ba	0.0078601185
138	0x3d17607a	0.03695724
139	0xbdc0df9c	-0.0941765
140	0x3da9481b	0.08265706
141	0x3c495352	0.0122879315
142	0x3d907dbe	0.070552334
143	0x3db44ba7	0.08803492
144	0xbde11b7b	-0.109915696
145	0x3cc4ed56	0.024038952
146	0x3c9340d4	0.017975248
147	0xbca7969d	-0.02045756
148	0xbd9eb760	-0.0774982
149	0x3c05c17f	0.008163809
150	0x3d14b43c	0.036304697
151	0xbda30f7e	-0.07961939
152	0x3e6c0da7	0.23052083
153	0x3e0e2a27	0.13883267
154	0x3df19614	0.11796203
155	0xbdaeb60a	-0.08530815
156	0xbcd345d4	-0.025790133
157	0xbdafeccb	-0.085900865
158	0xbde8bb71	-0.113638766
159	0x3dc912d6	0.09818046
160	0x3deb1005	0.11477665
161	0xbe215bf0	-0.15757728
162	0xbd33fd50	-0.04394275
163	0xbd321c6c	-0.043484136
164	0x3d9f11c1	0.07767058
165	0xbab88509	-0.0014077734
166	0x3e6a0679	0.22854032
167	0xbdf52caf	-0.11971413
168	0xbdec3f7e	-0.11535548
169	0x3dc88237	0.097904615
170	0xbd1e1516	-0.038594328
171	0x3d533d99	0.051572416
172	0xbdbe0ee0	-0.09280181
173	0x3dc234a3	0.09482696
174	0x3d54303a	0.051803805
175	0x3a01475f	0.00049315946
176	0x3db9cdbc	0.09072444
177	0x3db7806a	0.0896004
178	0xbe0fed0e	-0.14055273
179	0x3da6e052	0.081482545
180	0x3cbf7aec	0.023374043
181	0xbd90add2	-0.070644036
182	0x3d02a7c8	0.03189829
183	0xbd2f1b77	-0.042750802
184	0x3b90157d	0.004397093
185	0x3d0bdebf	0.034147974
186	0x3e0069d7	0.12540375
187	0x3d95f03f	0.07321214
188	0x3d7ba17e	0.061433308
189	0xbc86f843	-0.016475802
190	0xbdede450	-0.11615813
191	0x3e293678	0.16524684
192	0xbd98063f	-0.07423066
193	0xbd4b91ea	-0.0496997
194	0x3ddf5377	0.109045915
195	0x3d64a7f7	0.055824246
196	0xbde75e64	-0.112973005
197	0x3d3c08bd	0.04590677
198	0x3e27af92	0.16375569
199	0x3dd3f1bd	0.10348842
200	0x3e09719b	0.13422243
201	0x3da25ee2	0.07928254
202	0x3d5e8600	0.05432701
203	0xbe2ad64c	-0.1668331
204	0x3d35af21	0.04435647
205	0x3de30fd6	0.11087005
206	0x3b0ef885	0.002181561
207	0x3db163ad	0.0866159
208	0xbc6d1338	-0.014469914
209	0x3df3298b	0.11873158
210	0x3e09566d	0.13411875
211	0xbdfddda6	-0.12395792
212	0x3c195bcf	0.009360268
213	0x3dcaf5ed	0.09910188
214	0xbdf6f302	-0.12058069
215	0xbe062329	-0.1309935
216	0xbd63a095	-0.055573065
217	0xbca75ee6	-0.020430993
218	0x3de6ef3d	0.112761
219	0xbdbadd1d	-0.09124205
220	0x3d7f43d4	0.062320545
221	0xbdc08ada	-0.09401484
222	0x3de1c996	0.110247776
223	0x3de9967f	0.11405658
224	0x3e1f7b89	0.15574469
225	0xbdce7ef7	-0.1008281
226	0xbd9e8341	-0.077398784
227	0xbdcfb451	-0.101418145
228	0xbe29c743	-0.16579919
229	0xbc968fef	-0.01837918
230	0xbd89570f	-0.06706058
231	0xbe0aba71	-0.13547684
232	0x3cec31bc	0.028832309
233	0xbe796257	-0.2435392
234	0x3a5f213a	0.0008511726
235	0xbb929ee5	-0.004474508
236	0xbd6ffa9c	-0.05858861
237	0xbd5dd1c4	-0.054155126
238	0x3ca99906	0.02070285
239	0x3bb56a15	0.0055363276
240	0xbd7b3789	-0.06133226
241	0x3dd9a9fd	0.10628126
242	0xbe2b719a	-0.16742554
243	0xbdcf972c	-0.101362556
244	0x3db36809	0.087600775
245	0xbbad62ca	-0.0052913176
246	0x3c1ffb80	0.009764552
247	0xbdd0386e	-0.10167013
248	0xbdd16ab0	-0.10225427
249	0x3d3cee8a	0.046125926
250	0x3d8be17e	0.068301186
251	0x3da160b5	0.078797735
252	0x3df2b04c	0.11850032
253	0x3e6e65f5	0.23281081
254	0xbd085670	-0.03328556
255	0x3e69d5f3	0.22835521

gnn.gnn_layers.1.graph_conv.bias f4 [32]
0	0xbbce725d	-0.0063002543
1	0xbd833d26	-0.064081475
2	0x3ca6f1ed	0.020379031
3	0xbc495f2f	-0.01229076
4	0x3d072b9e	0.03300058
5	0x3a643415	0.00087052706
6	0xbd143957	-0.036187496
7	0xbcd26583	-0.02568317
8	0xbbf13033	-0.007360482
9	0xbb486fed	-0.003058429
10	0xbc67bff4	-0.014144886
11	0xbd18606f	-0.03720134
12	0xbd8ad0d9	-0.06778116
13	0xbd5137e6	-0.0510787
14	0x3d04bf54	0.032409027
15	0x3da3ce61	0.07998348
16	0xbdb95fdd	-0.090514876
17	0x3d152f8a	0.03642229
18	0xbccd3927	-0.025051666
19	0x3ca1dc39	0.01975833
20	0xbc99cf0c	-0.018775485
21	0xbcbe78a1	-0.02325088
22	0xbcd237c1	-0.025661351
23	0xbbdef09b	-0.0068035848
24	0xbe11a31c	-0.14222378
25	0xbd829f84	-0.063780814
26	0xbd71fd67	-0.059079554
27	0xbd91519f	-0.07095646
28	0xbd59dabc	-0.053187117
29	0x3d1e9162	0.038712867
30	0xbcbdf87e	-0.02318978
31	0xbcb5705a	-0.0221483

gnn.gnn_layers.1.res_connection.weight f4 [32, 32]
0	0xbd87e2e8	-0.06635076
1	0xbce8daaa	-0.02842458
2	0x3e044926	0.12918529
3	0xbc6fdc6e	-0.014639957
4	0x3ddf8b8e	0.1091529
5	0xbc9f96f3	-0.019481158
6	0x3da5e9c1	0.08101226
7	0xbdf94c08	-0.12172705
8	0x3e1c20da	0.15246907
9	0xbcd7cc47	-0.026342524
10	0x3da5fa5b	0.08104392
11	0x3d83945b	0.06424781
12	0xbda9ac03	-0.08284762
13	0xbd3a0d14	-0.04542263
14	0xbd3d1de1	-0.046171073
15	0x3c0c6624	0.008569274
16	0x3c821039	0.015876876
17	0x3d363d12	0.044491835
18	0xbd871108	-0.06595045
19	0xbd1fb442	-0.038990267
20	0xbd59b001	-0.053146366
21	0xbb030c4b	-0.001999634
22	0xbce1ae7f	-0.027549027
23	0xbcae72e2	-0.021295015
24	0xbd299dc7	-0.041410234
25	0x3d0748a7	0.03302827
26	0xbc5042ad	-0.012711209
27	0xbc62a8c2	-0.01383418
28	0xbc9bd9b5	-0.01902471
29	0xbbeb1bdd	-0.0071749524
30	0xbcc27110	-0.023735553
31	0x3b1c8b75	0.0023886834
32	0xbc656cb8	-0.014002971
33	0xbcbb0333	-0.022828674
34	0xbcf08e96	-0.029364865
35	0x3dc2b926	0.095079705
36	0xbd0be57a	-0.034154393
37	0xbc803e36	-0.015654664
38	0x3d908ffc	0.07058713
39	0xbd0ed00c	-0.034866378
40	0xbbbc84a7	-0.005753118
41	0xba930603	-0.0011217002
42	0xb9a3b02e	-0.00031221047
43	0x3db27d34	0.08715287
44	0x3ba8a2b1	0.0051463475
45	0xbcc4e8ca	-0.024036784
46	0x3d7278f5	0.059197385
47	0x3cd44a3c	0.025914304
48	0xbc5fb5ea	-0.013654212
49	0xbbecd236	-0.0072272075
50	0xbc3f3fbd	-0.011672911
51	0x3c8f2d24	0.01747758
52	0x3d564a6f	0.05231708
53	0xbc84b6eb	-0.016200503
54	0xbcfb62ea	-0.030686814
55	0x3ca036ed	0.01955744
56	0x3bd77920	0.0065757185
57	0x3c9c2fd3	0.019065773
58	0x3c9bad72	0.019003604
59	0xbcaed857	-0.021343393
60	0x3dc47a1b	0.09593602
61	0x3dc40542	0.09571315
62	0x3d244c57	0.040111866
63	0xbc39d1e6	-0.011341548
64	0x3c4e1478	0.012578122
65	0xbca8da67	-0.020611955
66	0x3bea9a08	0.0071594752
67	0xbc82a90c	-0.015949748
68	0x3b1c2ecf	0.002383161
69	0x3d0d0780	0.03443098
70	0x3c48efb4	0.012264181
71	0x3d27cf8d	0.04096942
72	0xbcd3ec7e	-0.025869604
73	0x3c32491f	0.010881691
74	0x3d25ceeb	0.040480535
75	0x3d435fb4	0.04769869
76	0x3c053883	0.008131149
77	0xbc0364c9	-0.0080196345
78	0x3b12e5c3	0.002241478
79	0x3d95ddc9	0.07317693
80	0x3d0ffd38	0.035153598
81	0xbd0fb906	-0.03508856
82	0xbca1d864	-0.019756503
83	0xbd0d5ae1	-0.034510497
84	0x3d1212c2	0.03566242
85	0x3c942873	0.018085694
86	0x3da66421	0.08124567
87	0xbc51bb9c	-0.012801077
88	0x3d04c6bc	0.03241609
89	0xbb487bad	-0.0030591295
90	0xbca36d8e	-0.0199497
91	0xbba002d8	-0.0048831515
92	0x3d3821b1	0.044954006
93	0x3b0e0176	0.0021668351
94	0x3d638eec	0.055556223
95	0x3d1451a3	0.036210667
96	0x3ddf8b9e	0.10915302
97	0x3c05bd97	0.0081628775
98	0xbc2952fc	-0.010334726
99	0xbc7ec0f5	-0.015548934
100	0xbcb5a7ef	-0.022174804
101	0xbc2fe1ac	-0.010734957
102	0x3d2811df	0.04103267
103	0x3d549727	0.051901963
104	0xbd3d272c	-0.046179935
105	0xbba896f2	-0.005144947
106	0xbd346d3b	-0.044049483
107	0x3db7601e	0.0895388
108	0x38adf8f5	8.295655e-05
109	0xbc8442d2	-0.016145144
110	0x3b8fa97f	0.004384219
111	0xbd7c32e4	-0.06157197
112	0xbd61ba05	-0.055109043
113	0x3d0f9431	0.035053436
114	0xbd177da7	-0.036985066
115	0x3cf3de61	0.029769124
116	0x3c32635c	0.010887947
117	0x3c9083a4	0.017640896
118	0xbc064286	-0.008194571
119	0x3c76fb05	0.015074496
120	0xbca91c1b	-0.020643285
121	0x3d5cbd17	0.053891268
122	0xbcef66b6	-0.029223781
123	0xbc60433a	-0.013687903
124	0xbc4033da	-0.011731112
125	0xbd2cd7a1	-0.042197827
126	0xba21eb65	-0.0006176739
127	0xbcaf7fad	-0.021423185
128	0xbc853a72	-0.01626322
129	0x3d2ac231	0.0416891
130	0xbbc48070	-0.0059967563
131	0x3aaab1c5	0.001302295
132	0xbc8c8013	-0.017150914
133	0x3bf23865	0.0073919767
134	0xbb72da0e	-0.003705624
135	0x3c885ba0	0.016645253
136	0xbcbb6086	-0.022873174
137	0xbc5361c3	-0.012901726
138	0x3d17acc5	0.03703
139	0x3ac36b36	0.0014909271
140	0x3ae479ef	0.0017431359
141	0xbd2021c7	-0.039094713
142	0xbd29834c	-0.04138498
143	0xbd78e9a2	-0.060769685
144	0xbc09e466	-0.008416271
145	0xbd13ebcd	-0.03611355
146	0xbd205430	-0.039142787
147	0xbce1a6b8	-0.027545318
148	0xbb78f0c1	-0.0037985297
149	0xbd213536	-0.039357387
150	0x3dd2c164	0.102907926
151	0xbba43d0e	-0.005012161
152	0x3c8126dd	0.015765602
153	0x3d7ebffc	0.06219481
154	0xbce0622b	-0.02739056
155	0x3cb91b87	0.022596134
156	0x3dadd3bb	0.0848765
157	0x3d9090af	0.07058846
158	0xbc5ab799	-0.013349437
159	0x3dba0bf4	0.09084311
160	0xbcd5010d	-0.026001478
161	0xbc409766	-0.011754846
162	0xbc7c3951	-0.015394525
163	0xbb7a90e6	-0.003823334
164	0xbc405623	-0.011739287
165	0xbaa53c46	-0.0012606464
166	0xbc10b4d4	-0.008832175
167	0xbc53597f	-0.0128997555
168	0xbcd6bfa5	-0.02621443
169	0xbc93a4e7	-0.018022968
170	0xbc4334fb	-0.011914487
171	0xbce1955b	-0.027537039
172	0x3b90fd17	0.004424702
173	0x3cc4274f	0.023944525
174	0xbc8f34af	-0.017481176
175	0x3d20e7a7	0.03928342
176	0x3bc0ff46	0.005889806
177	0xbd0a10a1	-0.033707265
178	0xbd79e279	-0.061006997
179	0x3ca55ac0	0.020184875
180	0xbd004992	-0.031320162
181	0x3d204803	0.039131176
182	0xbd465976	-0.04842516
183	0xbcb579dc	-0.022152834
184	0x3d363003	0.04447938
185	0xbc52369d	-0.012830404
186	0xba3ecd8d	-0.0007278554
187	0xbd86478d	-0.06556616
188	0x3d09cd6e	0.03364318
189	0x3d62c871	0.055366937
190	0x3dd62e87	0.10458093
191	0x3e17a324	0.14808327
192	0x3d96d038	0.07363933
193	0x3dc857ab	0.09782346
194	0x3da4e4e0	0.08051467
195	0xbbc210c5	-0.0059224092
196	0x3dea0159	0.11426038
197	0x3b6658a5	0.003514805
198	0xbbe56dc3	-0.00700161
199	0x3d1f3101	0.038865093
200	0xbd1148bc	-0.035469756
201	0x3cc0c877	0.02353309
202	0xbd231f62	-0.03982485
203	0xbaf27ddc	-0.0018500644
204	0xbc0bb008	-0.008525856
205	0xbc1b172d	-0.009465975
206	0x3d0af5ea	0.03392593
207	0x3c3b54b6	0.011433771
208	0xbca7fd4a	-0.02050652
209	0xbc19d6b5	-0.009389569
210	0xbd02cee1	-0.031935576
211	0xbc53f356	-0.012936434
212	0xbc541bc1	-0.01294607
213	0xbd5ac76b	-0.053412836
214	0xbd321dee	-0.043485574
215	0x3b10f858	0.002212068
216	0xbcdf5fd4	-0.027267374
217	0xbba1d686	-0.0049389033
218	0xbd082b62	-0.033244498
219	0x3c7852b7	0.0151564395
220	0x3b3155b1	0.0027059133
221	0xbc5b8e87	-0.01340068
222	0xbc934e01	-0.017981531
223	0xbd1979d4	-0.0374697
224	0xbd70f568	-0.058827788
225	0xbcb9d925	-0.02268655
226	0xbbe03407	-0.0068421396
227	0x3c312872	0.010812866
228	0x3adfd9dc	0.0017078477
229	0x3d0e4f0e	0.03474336
230	0xbc8e3c6d	-0.017362798
231	0xbc4ecc57	-0.012621961
232	0xbc25b00b	-0.010112773
233	0xbbc63f32	-0.006050014
234	0xbd077a16	-0.033075415
235	0xbd19d4ee	-0.03755658
236	0xbb47d590	-0.0030492283
237	0x3da7c409	0.081916876
238	0xbcc20360	-0.02368325
239	0xbd6f3808	-0.058403045
240	0xbcb407ee	-0.021976437
241	0xbd72f5a0	-0.059316278
242	0xbbf08c76	-0.007340963
243	0x3de2661d	0.11054633
244	0xbc1ac926	-0.009447372
245	0x3cf50f49	0.029914515
246	0xbd34a2f0	-0.0441007
247	0x3b2e9cfb	0.002664386
248	0xbc1feaa4	-0.0097605325
249	0x3c8368a8	0.016041115
250	0xbd3ec0aa	-0.046570458
251	0xbd14dc0c	-0.036342666
252	0x3c18bc5c	0.009322252
253	0x3d3a161e	0.04543125
254	0x3ce65043	0.028114444
255	0x3cf3e798	0.029773518

gnn.gnn_layers.1.res_connection.bias f4 [32]
0	0xbd90b7de	-0.0706632
1	0xbcc3da2e	-0.023907747
2	0xbd2b3400	-0.041797638
3	0xbd341658	-0.04396662
4	0xbd92796e	-0.07152067
5	0xbd445f14	-0.047942236
6	0xbd99a5f3	-0.075023554
7	0x3d5f9942	0.054589517
8	0xbc941c3c	-0.01807987
9	0xbc475292	-0.012165682
10	0x3d0de60d	0.03464322
11	0xbc29eda3	-0.010371598
12	0x3c9223fc	0.017839424
13	0xbd4d1205	-0.050066013
14	0xbc695d9f	-0.014243512
15	0xbd6b2ea9	-0.057417545
16	0xbbf1a824	-0.0073747803
17	0x3c523979	0.012831085
18	0xbba6645e	-0.0050778827
19	0xbbd490b8	-0.0064869784
20	0xbc920a7d	-0.017827267
21	0xbcae084f	-0.021244196
22	0x3c8846c3	0.016635304
23	0x3d67a2d1	0.05655176
24	0xbad486e9	-0.0016214523
25	0x3d1b00ce	0.037842564
26	0xbd55b240	-0.052171946
27	0xbcb34b73	-0.021886563
28	0xbcc5e03b	-0.024154773
29	0xbd4561d2	-0.04818899
30	0xbd94ab9a	-0.07259293
31	0x3cc26edf	0.023734508

gnn.gnn_layers.1.bn_layer.weight f4 [32]
0	0x3f438161	0.7636929
1	0x3f036c7d	0.51337415
2	0x3f18b55f	0.5965175
3	0x3f11d0f9	0.5695949
4	0x3f23dcd3	0.64008826
5	0x3f1619ed	0.5863331
6	0x3f1ea5d7	0.619718
7	0x3f031de2	0.5121747
8	0x3f2ab942	0.6668893
9	0x3ef30cad	0.47470608
10	0x3f1eebf0	0.6207876
11	0x3f290188	0.6601796
12	0x3f00d697	0.5032744
13	0x3ed95722	0.4244929
14	0x3f13a009	0.5766607
15	0x3ef1887f	0.4717445
16	0x3f328801	0.69738775
17	0x3ef47e93	0.47752818
18	0x3f0b72ad	0.54471856
19	0x3f21784f	0.630742
20	0x3f0c1c13	0.5473034
21	0x3f0e4e4b	0.55588216
22	0x3f3338d2	0.70008576
23	0x3f236d1d	0.6383837
24	0x3f37e236	0.71829545
25	0x3f050cc3	0.519726
26	0x3f21b9bf	0.6317405
27	0x3f097da5	0.53707343
28	0x3f199244	0.5998881
29	0x3f1c5308	0.61064196
30	0x3f2b8b0c	0.67009044
31	0x3f14f26a	0.58182395

gnn.gnn_layers.1.bn_layer.bias f4 [32]
0	0x3d08a6ba	0.033362128
1	0x3c3cbfce	0.011520339
2	0x3c10029f	0.008789687
3	0x3d4faba1	0.050700787
4	0xbb3de086	-0.0028972938
5	0xbdcb70df	-0.09933638
6	0x3debe638	0.1151852
7	0x3cfadcfd	0.030622954
8	0x3dffd5a6	0.12491922
9	0xbd80afc2	-0.06283523
10	0x3cafb9ff	0.021450995
11	0xbdac8b79	-0.0842504
12	0x3cf9d99a	0.030499268
13	0x3b1e8f5f	0.0024194343
14	0xbc82618d	-0.015915656
15	0x3d108e34	0.035291865
16	0x3c86a03b	0.016433826
17	0xbd0f79dd	-0.035028327
18	0x3d633a82	0.05547572
19	0x3d19959a	0.037496187
20	0x3a9377c4	0.0011250903
21	0x3c6c3006	0.014415747
22	0x3db75921	0.08952547
23	0xbd2f30e0	-0.04277122
24	0x3d7ab955	0.061211903
25	0x3b307000	0.0026922226
26	0xbc8a3e0d	-0.016875291
27	0xbc81c0ac	-0.015838943
28	0x3d6b77ff	0.057487484
29	0x3dd2322a	0.10263474
30	0x3d1852ff	0.037188526
31	0xbcdc5834	-0.026897527

gnn.gnn_layers.1.bn_layer.running_mean f4 [32]
0	0x3ed9e7b7	0.42559597
1	0x3e3493e3	0.1763454
2	0x3ebbd050	0.36682367
3	0x3ec2643a	0.37967092
4	0x3e91fa34	0.28511202
5	0x3e80b0d1	0.251349
6	0x3f011739	0.5042606
7	0x3e91a58d	0.28446618
8	0x3eff72c3	0.49892244
9	0x3e45fa86	0.19333848
10	0x3edc4506	0.4302141
11	0x3e94aa9d	0.29036418
12	0x3e802fff	0.25036618
13	0x3e69872e	0.22805473
14	0x3f002325	0.50053626
15	0x3f090cc4	0.53535104
16	0x3e826b8d	0.2547268
17	0x3edb1f4b	0.42797312
18	0x3ec35a08	0.38154626
19	0x3e985039	0.29748705
20	0x3edae96c	0.42756212
21	0x3ebef719	0.37297896
22	0x3eb8934c	0.3604988
23	0x3eea08a4	0.45709717
24	0x3e974a33	0.29548797
25	0x3e45a669	0.19301762
26	0x3e90433d	0.281763
27	0x3e41a002	0.18908694
28	0x3f07d963	0.5306608
29	0x3ef2a0bd	0.4738826
30	0x3f08e60a	0.5347601
31	0x3eade566	0.3396408

gnn.gnn_layers.1.bn_layer.running_var f4 [32]
0	0x3f5451bc	0.82937217
1	0x3f0b1332	0.54326165
2	0x3fa3c7ec	1.2795386
3	0x3f2208ea	0.6329485
4	0x3f8620c6	1.0478752
5	0x3f88759b	1.066089
6	0x3fc2bf17	1.5214566
7	0x3f4f9b18	0.8109603
8	0x3ffc58b8	1.9714575
9	0x3ececfda	0.40392953
10	0x3f9d60a2	1.2295115
11	0x3fb5ce07	1.42035
12	0x3f292932	0.66078484
13	0x3ece0b43	0.40242967
14	0x3fa216f0	1.266325
15	0x3f394574	0.723716
16	0x3f8bace6	1.091214
17	0x3f8be47e	1.0929105
18	0x3f993d12	1.1971762
19	0x3f7ff3d5	0.99981433
20	0x3f9d55ef	1.229185
21	0x3f96c17f	1.17778
22	0x3f701789	0.9378591
23	0x3fb96691	1.4484426
24	0x3f8ebd27	1.1151475
25	0x3e819bbc	0.25314128
26	0x3f9c5fde	1.2216756
27	0x3eac85a0	0.33695698
28	0x3fb40bce	1.4066103
29	0x3f58cc28	0.8468652
30	0x401534dc	2.3313513
31	0x3f4c84e9	0.79890305

gnn.gnn_layers.2.graph_conv.weight f4 [32, 32]
0	0x3cd1ea73	0.02562449
1	0xb91ae8ca	-0.00014773305
2	0x3e5e694d	0.21719857
3	0xbe2c7d1b	-0.16844599
4	0xbd96aa87	-0.07356744
5	0x3ddc4977	0.107562
6	0x3e6215cf	0.22078632
7	0x3d8730ce	0.06601106
8	0xbe0111d8	-0.12604463
9	0x3dbd29ae	0.092364654
10	0x3d57c151	0.052674595
11	0xbe4960da	-0.19665852
12	0xbdbe34f0	-0.09287441
13	0xbd9054ea	-0.07047446
14	0xbe1e2ee0	-0.15447569
15	0x3ca8283b	0.020526996
16	0xbd0c4773	-0.034247827
17	0x3e3b9f07	0.18322383
18	0xbcab4a3c	-0.020909421
19	0xbcb6dc5a	-0.022321869
20	0xbc108641	-0.008821071
21	0xbe1369ef	-0.14395879
22	0xbdee2654	-0.11628404
23	0x3daf6f64	0.08566168
24	0x3da0aee4	0.07845858
25	0xbe167b48	-0.14695466
26	0xbe62b608	-0.22139752
27	0x3e747445	0.23872478
28	0x3da96651	0.082714684
29	0xbe0288d5	-0.1274751
30	0xbe0b4928	-0.13602126
31	0xbe070eb2	-0.131892
32	0xbd9d1557	-0.07670086
33	0x3dce0a15	0.10060517
34	0xbdb0f90c	-0.08641252
35	0x3d449c7f	0.04800081
36	0xbd386369	-0.04501668
37	0xbd4bdcf4	-0.049771264
38	0x3dcef1fa	0.10104747
39	0x3e1064f9	0.14101018
40	0xbdd40b95	-0.103537716
41	0x3e142a03	0.14469151
42	0x3e02c57c	0.12770647
43	0x3d1f62b5	0.038912494
44	0x3e0e3a06	0.13889322
45	0xbe18ffa2	-0.14941266
46	0xbc50a1a0	-0.012733847
47	0x3dc3f16b	0.09567531
48	0x3e015c7d	0.12632938
49	0x3c3a09a4	0.011354838
50	0xbd9c1287	-0.07620721
51	0xbdf07d58	-0.117426574
52	0x3e246c41	0.1605692
53	0xbd3ad33d	-0.04561161
54	0x3d9d16e0	0.07670379
55	0x3daa93cb	0.083289705
56	0x3dfb726c	0.122776836
57	0x3e0a416d	0.1350152
58	0x3d92c925	0.071672715
59	0xbe2f2b7a	-0.17106429
60	0x3e120093	0.14258032
61	0x3db95441	0.09049273
62	0x3da29bc7	0.079398684
63	0xbd2c0299	-0.041994665
64	0xbe103aa6	-0.14084873
65	0xbdf2063c	-0.11817595
66	0x3e1cf004	0.15325934
67	0x3db81786	0.08988862
68	0xbdfa18bb	-0.12211748
69	0x3da2f10f	0.079561345
70	0xbe02893c	-0.12747663
71	0xbe1e0814	-0.15432769
72	0x3e3a7e03	0.18212132
73	0x3e1ba1f2	0.15198496
74	0xbda1200a	-0.07867439
75	0x3d9745a1	0.073863275
76	0x3d52ae2b	0.05143563
77	0xbdbf833f	-0.09351205
78	0xbdbbdc47	-0.09172874
79	0xbdb0573d	-0.086103894
80	0xbcac9037	-0.02106486
81	0x3cdce203	0.02696324
82	0xbd842668	-0.06452638
83	0xbe114304	-0.1418572
84	0xbd7dbd43	-0.061948072
85	0xbacbe4e3	-0.0015555884
86	0x3c742797	0.014902017
87	0x3e1102a8	0.1416117
88	0xbe0ef095	-0.13958962
89	0x3e2bf043	0.16790871
90	0x3d9dc809	0.07704169
91	0x3d332cc6	0.04374387
92	0xbde65696	-0.11246984
93	0x3d42c8dd	0.04755484
94	0x3e0e4c6d	0.13896342
95	0x3da5b5e7	0.08091336
96	0xbd5521c5	-0.05203416
97	0xbd8e7d9f	-0.06957554
98	0x3c4c08a7	0.012453235
99	0xbc073b3a	-0.008253867
100	0x3e1ef397	0.1552261
101	0xbce5642f	-0.028001873
102	0x3d365770	0.04451698
103	0xbd461bee	-0.04836648
104	0xbd62d444	-0.055378214
105	0xbdc92ca3	-0.09822967
106	0xbd100248	-0.035158426
107	0xbd546b02	-0.051859863
108	0x3df91cd3	0.12163701
109	0xbe470206	-0.19434366
110	0x3b3df522	0.0028985222
111	0x3cabf2ab	0.020989737
112	0x3ced2e67	0.02895279
113	0x3d8b5a41	0.06804324
114	0x3d8a8e40	0.06765413
115	0xbe00fe35	-0.12596972
116	0x3e051ac7	0.12998496
117	0xbdd36d0f	-0.10323536
118	0xbdc2d033	-0.09512367
119	0x3e18894b	0.14896123
120	0xbd1efd36	-0.0388157
121	0xbda47790	-0.08030617
122	0x3dc6727c	0.09689805
123	0x3e60c731	0.21950985
124	0x3d2ac8ce	0.04169541
125	0xbc7412b9	-0.014897042
126	0xbd9d88ad	-0.076920845
127	0x3e0047cf	0.12527393
128	0xbde3da86	-0.111256644
129	0xbcc522e9	-0.024064498
130	0x3db3afeb	0.08773788
131	0x3e2e7066	0.17035064
132	0xbdd97464	-0.10617903
133	0xbd6be5ad	-0.057592083
134	0xbdb9292a	-0.090410545
135	0xbce910b6	-0.028450351
136	0x3e3be68b	0.18349664
137	0x3d8b3e9e	0.06799053
138	0x3e292706	0.16518793
139	0x3e15e6cf	0.14638828
140	0x3ae2d864	0.0017306921
141	0x3e4bc464	0.19899136
142	0x3d56ad3b	0.0524113
143	0xbdd1ebef	-0.10250079
144	0xbd96bffc	-0.07360837
145	0x3dee0b8d	0.11623297
146	0x3d1108ac	0.03540866
147	0x3d911785	0.07084564
148	0x3d38184d	0.04494505
149	0xbd99d5e3	-0.07511499
150	0x3e1f8c90	0.15580964
151	0xbcacc80b	-0.021091482
152	0x3d4b9d1d	0.04971038
153	0xbd82baae	-0.063832626
154	0x3e2cbe96	0.16869578
155	0xbd81f3d7	-0.06345337
156	0xbd5b5331	-0.053546134
157	0xbe09680b	-0.13418595
158	0x3e2b1dce	0.16710588
159	0xbd00f523	-0.03148378
160	0xbd3e75c1	-0.046499018
161	0x3de047c0	0.10951185
162	0xbe4589d5	-0.1929086
163	0x3d5521ca	0.052034177
164	0x3cb3f465	0.021967122
165	0xbd984274	-0.0743455
166	0x3e04e604	0.12978369
167	0x3d0edbd9	0.03487763
168	0x3dc968da	0.09834452
169	0x3e3339b0	0.17502475
170	0xbd3e10b8	-0.046402663
171	0x3bcb02ec	0.0061954167
172	0xbc247c6a	-0.010039428
173	0x3e2cf574	0.16890508
174	0x3cf79e1d	0.030226761
175	0xbdb98fe4	-0.09060648
176	0xbcf736fb	-0.030177584
177	0xbe40c518	-0.18825185
178	0xbd83f614	-0.0644342
179	0xbdc62fc9	-0.09677083
180	0x3d490f3c	0.049086794
181	0x3d47fb48	0.048823625
182	0x3e26a925	0.16275461
183	0xbd9f9625	-0.0779231
184	0xbd1755a0	-0.036946893
185	0x3da8e931	0.08247603
186	0xbdcd814a	-0.100344256
187	0xbd1ebabf	-0.038752314
188	0xbd6b9172	-0.057511754
189	0xbdf98a3b	-0.121845685
190	0x3e03a1fd	0.12854762
191	0x3e0b3c98	0.13597333
192	0x3dfe1d39	0.124079175
193	0xbe0ba4fc	-0.13637155
194	0xbda8ffa6	-0.08251886
195	0xbdbf6c7a	-0.09346862
196	0xbd38ee75	-0.045149285
197	0x3de4a5f9	0.11164469
198	0x3e21e7f0	0.15811133
199	0xbddf6952	-0.1090876
200	0xbcb90ed8	-0.022590086
201	0x3d8cba1b	0.06871434
202	0xbd0acd41	-0.03388715
203	0xbe14dfd6	-0.14538512
204	0xbd320e5e	-0.043470733
205	0xbdf4d75a	-0.119551376
206	0xbe09e9ff	-0.13468169
207	0xb93a7989	-0.00017783618
208	0xbd9e36d8	-0.07725304
209	0x3e22c461	0.15895225
210	0xbda1b0be	-0.07895039
211	0x3e730ba9	0.23734917
212	0xbcc60c56	-0.024175804
213	0xbd8f5217	-0.06998079
214	0xbdc29c41	-0.09502459
215	0xbe15ba32	-0.14621809
216	0xbe14586d	-0.14486857
217	0xbd3c2881	-0.045937065
218	0xbe263e7d	-0.16234775
219	0x3e219cfd	0.15782543
220	0xbda5e11f	-0.08099579
221	0x3dcb5458	0.09928197
222	0xbbae8405	-0.0053257965
223	0x3d3b13e9	0.045673285
224	0xbd917257	-0.07101887
225	0xbca231b0	-0.019799083
226	0xbdbe2771	-0.092848666
227	0xbc593016	-0.0132560935
228	0x3e10e5fd	0.14150234
229	0x3af2aa55	0.0018513898
230	0xbd8e4279	-0.069462724
231	0xbda82e4c	-0.082119554
232	0xbd9dfed4	-0.0771462
233	0x3e0f6623	0.14003806
234	0x3e03ba6e	0.12864086
235	0xbbb79ff8	-0.0056037866
236	0x3d87d0d4	0.06631628
237	0x3d1be385	0.038058776
238	0xbe17e61c	-0.14833874
239	0xbdf17589	-0.11789996
240	0xbc928818	-0.01788716
241	0x3d8e9cb4	0.069634825
242	0xbd945fbe	-0.07244824
243	0xbdbd06c6	-0.092298076
244	0xbdb0e9f3	-0.08638372
245	0x3e41d2cf	0.18928073
246	0x3cfb18a1	0.030651392
247	0x3d3ccd2e	0.046094112
248	0xbd87bfb5	-0.06628362
249	0x3df4d875	0.119553484
250	0x3e4fb345	0.2028323
251	0x3cb52d82	0.022116426
252	0x3dab99d4	0.0837895
253	0xbe16aa4f	-0.14713405
254	0x3ce054fa	0.02738427
255	0x3d095b27	0.033534195

gnn.gnn_layers.2.graph_conv.bias f4 [32]
0	0x3daf6d3d	0.085657574
1	0xbcba7465	-0.02276058
2	0xbc3e8895	-0.011629243
3	0x3d8f11d8	0.06985825
4	0x3cf4628f	0.029832153
5	0x3a9c8eea	0.0011944447
6	0x3d313aa4	0.043268815
7	0x3d111077	0.035416093
8	0x3cb85904	0.022503383
9	0x3bf3584f	0.0074262987
10	0xbc96faa4	-0.018430062
11	0x3d322847	0.043495443
12	0x3dbc212b	0.09186014
13	0x3c650272	0.013977634
14	0xbc80ca86	-0.01572157
15	0x3d4f4cb1	0.050610248
16	0x3be2c707	0.0069206986
17	0x3d046c6d	0.032329965
18	0xbd02f1dc	-0.031968936
19	0x3d83a0ae	0.064271316
20	0xbbe71dd2	-0.0070531154
21	0x3be621ef	0.007023088
22	0x3d8a7b60	0.06761813
23	0xbcc3ab40	-0.02388537
24	0x3c9c8279	0.019105183
25	0x3d7d5a1c	0.061853513
26	0x3db8631f	0.09003281
27	0x3d8d93b3	0.06912937
28	0x3c79f274	0.015255559
29	0x3cc36a15	0.023854295
30	0x3bb88f1b	0.005632294
31	0x3d15d484	0.036579624
