Results/GAT/saved_model/GAT_bst_3.pth (torch, 759484 bytes, 13 tensors)

gnn.gnn_layers.0.gat_conv.attn_l f4 [1, 8, 128]
0	0x398cce28	0.0002685648
1	0xbb855a1d	-0.00406958
2	0x393d784b	0.00018069257
3	0x38ed1792	0.00011305431
4	0xbb2b6b1d	-0.0026156374
5	0xbb595bd7	-0.0033166313
6	0xba8fb60a	-0.0010964286
7	0xbad01f87	-0.0015878537
8	0x3b80b568	0.0039278753
9	0xbb10c450	-0.0022089668
10	0x3ac5fdc7	0.0015105539
11	0x3ab99058	0.0014157398
12	0xbacf86ca	-0.0015833017
13	0xb81ddf0b	-3.7639442e-05
14	0xba18a6ad	-0.00058231765
15	0x37e1c8e9	2.6915646e-05
16	0x385d1307	5.2708227e-05
17	0xb9615d45	-0.00021492418
18	0xba974781	-0.0011541696
19	0x3a87fa2b	0.0010374238
20	0xb88f28b8	-6.826356e-05
21	0xba0d7c44	-0.000539724
22	0x3b949dfb	0.0045354343
23	0xbb7ac663	-0.003826522
24	0x399273f0	0.0002793367
25	0x3bd52b2a	0.0065053897
26	0x3a291996	0.0006450651
27	0x3bcc74b5	0.0062394985
28	0xbb13e8fb	-0.0022569287
29	0xbb4cca88	-0.0031248648
30	0xbbd24465	-0.0064168447
31	0x3c10f50e	0.008847488
32	0x397d9ab8	0.00024185597
33	0xbb1e4d0c	-0.002415481
34	0xba385a32	-0.0007032483
35	0x3a711268	0.0009196163
36	0x3b149406	0.0022671237
37	0xba15ef6d	-0.0005719576
38	0xbb1f3387	-0.0024292187
39	0x3acf6a95	0.0015824611
40	0xbbb81ead	-0.005618891
41	0x3b51e36d	0.0032026425
42	0xb8457a11	-4.7082143e-05
43	0x3be5b667	0.0070102694
44	0x37e43197	2.720281e-05
45	0xb9915bb4	-0.0002772488
46	0x3aa511b3	0.0012593776
47	0xb81dd8c1	-3.7633585e-05
48	0x3b03bd0e	0.00201017
49	0x3b49ae10	0.0030773915
50	0x3b26c1e6	0.0025445162
51	0x3b23d7d4	0.002500047
52	0xba7de954	-0.00096859527
53	0x39159fb3	0.0001426924
54	0x3b7ac262	0.0038262834
55	0xb9b6710e	-0.00034797977
56	0x3a571375	0.00082044984
57	0xbaec6644	-0.0018035849
58	0x3b94ab61	0.0045370315
59	0xbbe933f4	-0.007116789
60	0x3a8388db	0.0010035293
61	0xb90e4290	-0.00013566972
62	0xbb6dc942	-0.003628329
63	0xbaf8ea44	-0.0018990715
64	0x38930abf	7.011508e-05
65	0xba7915f4	-0.00095018675
66	0xb99bf110	-0.0002974351
67	0x3a5d2649	0.0008436186
68	0xbae1214a	-0.0017176059
69	0xbbaa2ff1	-0.0051937033
70	0xb9ed328d	-0.00045241826
71	0x38bcb206	8.997698e-05
72	0xb972b99d	-0.00023148065
73	0x38363200	4.3438748e-05
74	0xbbd0d67c	-0.006373225
75	0x3b8b4082	0.0042496333
76	0x39b35ec7	0.00034212155
77	0xba169ee0	-0.000574572
78	0x39c1f914	0.00036997406
79	0xba2596ff	-0.00063167507
80	0xbad12707	-0.0015957066
81	0x3c2d823a	0.01059013
82	0x3b07d9dd	0.0020729222
83	0x3a7cffa2	0.00096511294
84	0x3a3dff79	0.0007247846
85	0xbb8b4b7a	-0.004250941
86	0x37240305	9.775865e-06
87	0x3c042331	0.008065031
88	0xba0f425e	-0.00054649066
89	0x3ab36671	0.0013687146
90	0x3b4273ab	0.0029670994
91	0xbaed1954	-0.0018089213
92	0x3ac758ed	0.0015208997
93	0x3a0b7766	0.0005320221
94	0x3a941819	0.0011298686
95	0xbad16026	-0.0015974089
96	0xbb29fa1d	-0.0025936433
97	0xbb0a6dc3	-0.0021122552
98	0x382f9f84	4.1871812e-05
99	0x39ea6e97	0.00044714354
100	0xb999f6bc	-0.00029366266
101	0xba49c4e7	-0.0007696882
102	0xbc1283a2	-0.0089425165
103	0xbb830f9d	-0.003999664
104	0xb9a958d9	-0.0003230039
105	0xbc315e47	-0.0108257
106	0x39afa914	0.00033504574
107	0xbbecf9d9	-0.0072319326
108	0x3a2e381f	0.0006645936
109	0x3be52f32	0.0069941515
110	0xb91661c0	-0.0001434153
111	0x3a067598	0.0005129217
112	0xbb9844ed	-0.0046468885
113	0x38e34381	0.00010836777
114	0xbba32abd	-0.00497946
115	0xbb22fae4	-0.002486878
116	0xba7a6004	-0.00095510506
117	0x3b0d99bb	0.0021606523
118	0xbb0b0a0a	-0.00212157
119	0xbaaa3666	-0.0012986183
120	0xba95a60f	-0.0011417287
121	0xbbfa28a7	-0.0076342407
122	0xbb4e63a3	-0.0031492494
123	0x397a5d1c	0.00023876544
124	0xb9370c11	-0.00017456735
125	0xbade4e5c	-0.0016960609
126	0xbadb5ce0	-0.0016736053
127	0xbb1e7861	-0.0024180638
128	0x38f45188	0.00011650013
129	0xb9e55ec0	-0.00043748878
130	0x3bd6372e	0.0065373397
131	0x3b3df114	0.0028982805
132	0xbb437e46	-0.0029829904
133	0xba8ea2a4	-0.0010882211
134	0x3aa03be6	0.0012224882
135	0xb98795f8	-0.00025860942
136	0xb9cb0941	-0.00038726072
137	0xbb5613dc	-0.0032665646
138	0x3b51e45c	0.0032026982
139	0x3a5ad5b2	0.0008347883
140	0xba8fde1d	-0.0010976229
141	0x36cbe4a4	6.0764887e-06
142	0xbaa1047d	-0.0012284663
143	0xba04526f	-0.0005047684
144	0x397f6e81	0.00024359861
145	0x3b1c1075	0.002381352
146	0xb9bab36f	-0.00035610373
147	0xbb88c285	-0.004173579
148	0x38657516	5.47069e-05
149	0xbb9423e6	-0.004520881
150	0x3b57f33e	0.003295138
151	0xbc0dbd42	-0.00865108
152	0x3b8b31ae	0.0042478656
153	0x3b80216c	0.003910234
154	0x3ac82d30	0.0015272256
155	0xbae9a758	-0.0017826362
156	0xba2e7bd2	-0.0006656024
157	0x3a8fef5b	0.0010981368
158	0x3ae2b53d	0.0017296445
159	0x3afcb15c	0.0019278931
160	0xb976d8f1	-0.00023541205
161	0xbb82cc63	-0.00399165
162	0xba883fd0	-0.0010394994
163	0x3a698133	0.0008907497
164	0xba565283	-0.00081757474
165	0xbab63903	-0.0013902489
166	0x3b3f8b2f	0.0029227247
167	0x39901ed1	0.0002748878
168	0xbc591e75	-0.01325189
169	0xbb9ee885	-0.004849496
170	0x392c464d	0.00016429387
171	0xbb7d847d	-0.0038683705
172	0xb82d18c4	-4.126948e-05
173	0xbbaca26f	-0.005268387
174	0xbb2f683d	-0.0026765012
175	0xb8faa4b4	-0.00011951607
176	0x3b2a5084	0.0025987932
177	0x3aa28e4a	0.0012402025
178	0x3b0c3e44	0.0021399418
179	0xbb00a547	-0.0019629763
180	0xba213cb1	-0.00061507063
181	0x39a39986	0.00031204167
182	0x3bd47e81	0.006484807
183	0xbb1d0a7e	-0.0023962553
184	0xbb7808ef	-0.0037847122
185	0x3b176bd0	0.0023105033
186	0xbbfe9e57	-0.0077703404
187	0xbb7cc399	-0.0038568734
188	0x3c4827f8	0.012216561
189	0xbadd6b53	-0.0016892947
190	0x39f5d643	0.0004688968
191	0xbb21d143	-0.002469138
192	0xb915e110	-0.0001429359
193	0xbab17092	-0.0013537577
194	0xb8bb8c53	-8.942992e-05
195	0xba1311d2	-0.00056102604
196	0x38bf1a47	9.112484e-05
197	0xba2d7b97	-0.00066178426
198	0x38568b70	5.1151437e-05
199	0xbb0a4fd8	-0.002110472
200	0xbb1922a2	-0.002336659
201	0xb9cbc7dc	-0.00038868084
202	0x3afdc9b7	0.0019362484
203	0x3c243b0a	0.010023842
204	0x390c3e6c	0.00013374694
205	0xbb2120d8	-0.0024586227
206	0x39f69b3d	0.00047036438
207	0xbaab8b1e	-0.0013087725
208	0x3a893afe	0.0010469852
209	0x3bcb9b42	0.0062135765
210	0xbab7bd97	-0.0014018294
211	0x3b3102f0	0.0027009808
212	0xbab92404	-0.0014125113
213	0xbc3aab4d	-0.01139338
214	0x3a7fc830	0.0009757308
215	0xba17001c	-0.0005760209
216	0x3b090f68	0.0020913724
217	0x3a1ed537	0.0006058993
218	0x3b5e54ca	0.003392505
219	0x3b44d5c4	0.003003464
220	0x3a45f68b	0.00075516914
221	0xbb878f64	-0.0041369665
222	0xba23f9fc	-0.0006255207
223	0xb99f32c0	-0.00030364655
224	0xbab8b84c	-0.0014093011
225	0xbb8d5c5b	-0.004313988
226	0x394b9166	0.00019413754
227	0xbaf871ad	-0.0018954776
228	0xbc188fea	-0.009311656
229	0xbaa65d12	-0.0012692532
230	0xbba1c6ed	-0.004937044
231	0xb999e892	-0.00029355712
232	0xba630c2a	-0.00086611754
233	0xbbbbdc27	-0.0057330313
234	0x3a37681a	0.00069964083
235	0x3b442285	0.0029927802
236	0xba85f2b3	-0.0010219425
237	0x3b4c796f	0.003120031
238	0xbb2069f6	-0.002447722
239	0xbc05c8dd	-0.008165565
240	0x39dca824	0.00042086944
241	0x39bca44a	0.0003598056
242	0xbb6aba1a	-0.0035816492
243	0xba89dccb	-0.0010518072
244	0x3b9f0def	0.004853956
245	0xba718eb2	-0.00092146837
246	0x3bd8a4c7	0.00661144
247	0xbc0acff9	-0.008472436
248	0x397ea835	0.0002428599
249	0xbb7e5ecf	-0.0038813835
250	0x395c48d6	0.00021007968
251	0xbb489221	-0.0030604678
252	0xb8a88309	-8.0352715e-05
253	0xb9bb33ed	-0.00035706107
254	0x3ae78e73	0.0017666355
255	0x3b732b9a	0.0037104846

gnn.gnn_layers.0.gat_conv.attn_r f4 [1, 8, 128]
0	0x3977a0a5	0.000236156
1	0xbb2b8aae	-0.0026175189
2	0x3c039322	0.008030685
3	0xba170ff7	-0.0005762572
4	0xba97483c	-0.0011541913
5	0xbb8b318f	-0.004247851
6	0x3b10b218	0.0022078808
7	0xba4192d6	-0.0007384246
8	0xbb2d9435	-0.0026486043
9	0xbbb6da29	-0.005580206
10	0xba2d33a4	-0.00066071213
11	0x3aca9d07	0.0015458175
12	0x3b03efd1	0.0020131955
13	0xb81d66ed	-3.7527574e-05
14	0xbab55343	-0.0013834018
15	0xbb717d78	-0.0036848467
16	0x38c7fa4e	9.535682e-05
17	0x3afb2d11	0.0019163211
18	0xba8a6ec8	-0.001056158
19	0xbab852a0	-0.001406271
20	0xb95c1e91	-0.00020992222
21	0xbaa4b4e6	-0.0012566119
22	0xba46b337	-0.00075798057
23	0xbc48c29a	-0.012253428
24	0x3b124cb8	0.002232356
25	0x3b24c871	0.0025143886
26	0xb93ef2ef	-0.00018210312
27	0xbb794647	-0.0038036273
28	0xba1975be	-0.0005854032
29	0xba1349ea	-0.0005618619
30	0x3b080f3b	0.0020761031
31	0x3be421c3	0.0069620325
32	0xb9ef77ee	-0.00045674987
33	0xbb1b014c	-0.0023651896
34	0xba34f6a1	-0.00069032056
35	0xbb62de3a	-0.003461732
36	0xbb2f8314	-0.002678101
37	0xbb3f118c	-0.0029154746
38	0xb9a94d8c	-0.0003229197
39	0x3a6562b5	0.0008750365
40	0xbc0fc63f	-0.008775293
41	0xbc2474e5	-0.010037635
42	0x380bb806	3.3311568e-05
43	0x3b063cf4	0.0020483108
44	0x3924f448	0.0001573126
45	0xbb998738	-0.004685309
46	0xba29fede	-0.00064848165
47	0xbb0476ed	-0.0020212487
48	0xbb1f8128	-0.0024338458
49	0xbb7681c9	-0.003761398
50	0x3b3991a4	0.0028315568
51	0x3aeb90db	0.0017972247
52	0x3a1ad4c9	0.0005906341
53	0x39882f99	0.00025975404
54	0x3b97b5fa	0.0046298476
55	0x38bf5a57	9.124417e-05
56	0xbb9ddb53	-0.0048174052
57	0x38864723	6.402868e-05
58	0xbb4b96b4	-0.0031065168
59	0xbb9f3625	-0.0048587495
60	0xbb88daba	-0.004176465
61	0xba269c1d	-0.000635566
62	0xbae9efd8	-0.0017847968
63	0x3b83a76c	0.004017761
64	0xb9019a10	-0.00012359791
65	0xbb94ec07	-0.004544738
66	0xba4a76c2	-0.0007723385
67	0xbb059dbf	-0.0020388213
68	0x3b4e394e	0.0031467262
69	0xbbec41e7	-0.0072100046
70	0x39b75fd2	0.00034975872
71	0xba247e09	-0.0006274884
72	0xbadb8c04	-0.0016750102
73	0xb9e70d71	-0.00044069768
74	0xbb5b9334	-0.0033504488
75	0x3ba7b6fa	0.005118248
76	0xba7b4bd0	-0.0009586187
77	0xbb27cf8e	-0.002560589
78	0x39a8f0a8	0.0003222276
79	0xbad3aa6c	-0.0016148812
80	0xba2918b3	-0.0006450519
81	0x3bb3d035	0.0054874667
82	0xbbc1c366	-0.005913186
83	0x3a5562b2	0.0008140012
84	0xbb1b06c2	-0.002365515
85	0xbc5f1fbf	-0.013618409
86	0xba4dbbde	-0.0007848124
87	0xbbbb0a08	-0.005707983
88	0xba9321c5	-0.0011225274
89	0x3b0906fd	0.0020908706
90	0x3bb36f2f	0.0054759006
91	0x3b066560	0.0020507202
92	0x3a94c634	0.0011350573
93	0xbaf6ee15	-0.0018839265
94	0x3a34d3d2	0.0006898019
95	0xba543c52	-0.00080961466
96	0x3a07b865	0.0005177318
97	0xbb10ff59	-0.0022124855
98	0x38c16947	9.2225666e-05
99	0xbaac3b6f	-0.0013140271
100	0xbbef8b53	-0.00731031
101	0xbb183fc7	-0.0023231374
102	0xba51502c	-0.0007984664
103	0xbb38e0ce	-0.0028210166
104	0xbb04be3d	-0.0020254992
105	0xbbb35b5a	-0.0054735364
106	0xba788d3d	-0.00094814954
107	0xbb6cc897	-0.0036130303
108	0xbb002728	-0.001955459
109	0x3c0ea234	0.008705664
110	0xbb439e2a	-0.0029848912
111	0xbb9fdf03	-0.00487888
112	0xbbcbc9c3	-0.00621912
113	0xbba31c2b	-0.004977723
114	0x3ab82e01	0.0014051796
115	0xbb170568	-0.0023043994
116	0x3b1a7363	0.002356731
117	0x3b88ac69	0.0041709435
118	0x3b700f3c	0.0036630174
119	0xbb7ea156	-0.0038853488
120	0xbafdfe61	-0.0019378179
121	0xbb02c0d6	-0.0019951365
122	0xba4b3d35	-0.0007752956
123	0xba6ae4a6	-0.0008960463
124	0xb979ce92	-0.00023823444
125	0xbb0cff74	-0.0021514567
126	0x3b91ca24	0.004449146
127	0xbbceb919	-0.0063086865
128	0x3a37c892	0.00070107833
129	0xbad46132	-0.0016203283
130	0x3aa2b766	0.0012414276
131	0x3a9b3250	0.0011840556
132	0xb99debf3	-0.0003012117
133	0xbae84a1e	-0.0017722284
134	0x3b2b2fb5	0.0026120965
135	0xba8082cc	-0.0009804606
136	0x3b491300	0.003068149
137	0x39e9607a	0.00044513104
138	0xbaeb2a4b	-0.0017941681
139	0x3b409972	0.0029388336
140	0x3a43d500	0.0007470399
141	0xb7dfbc44	-2.667134e-05
142	0xbb114efb	-0.002217232
143	0xbb05b902	-0.0020404463
144	0x380099ee	3.0660936e-05
145	0x3b1ea841	0.0024209174
146	0xbabc31ad	-0.0014358066
147	0x3a92519c	0.0011163238
148	0xb9cf1bde	-0.0003950288
149	0xbb19e0a0	-0.0023479834
150	0x39939e35	0.00028155898
151	0xbbaeb070	-0.0053310916
152	0x3b1710d3	0.00230508
153	0x3b5ace84	0.0033387253
154	0xbab307a5	-0.0013658894
155	0xbb2d9ba1	-0.0026490467
156	0xb5a1ba4a	-1.2049652e-06
157	0xbaa32376	-0.0012446481
158	0x3877539c	5.8967256e-05
159	0x3b93c89f	0.00451
160	0xbacae2ba	-0.0015478947
161	0xba4d484f	-0.0007830904
162	0xba8bb36a	-0.0010658328
163	0xba844120	-0.001009021
164	0xb94adc9f	-0.00019346409
165	0xbb220359	-0.0024721234
166	0x3b07cb8f	0.0020720696
167	0x3a9d2e40	0.0011991933
168	0xbc18469b	-0.009294177
169	0xb9af9c7b	-0.00033495188
170	0x393971ac	0.00017685321
171	0x3bec1d90	0.0072056726
172	0x39606b4c	0.00021402276
173	0xbb6d9080	-0.0036249459
174	0x39c4bf73	0.00037526674
175	0xb9a79943	-0.0003196691
176	0xba6a14a8	-0.00089294696
177	0xbb4c4fe2	-0.0031175544
178	0x3b366f93	0.00278375
179	0x3afa1624	0.0019080085
180	0x3abbbf0f	0.0014323908
181	0x39afd581	0.00033537674
182	0x3c0dc5fd	0.008653161
183	0xb875934c	-5.8549733e-05
184	0xbb7cab88	-0.003855439
185	0x3b2f0d1c	0.0026710695
186	0xbb921a71	-0.0044587185
187	0xbba3d8ea	-0.0050002234
188	0xb9cca01e	-0.0003902921
189	0xbad4668a	-0.0016204875
190	0xbb0a46a6	-0.0021099239
191	0x3bad292e	0.00528445
192	0xb910860b	-0.00013782845
193	0xbb1dea40	-0.0024095923
194	0xb9f10455	-0.0004597033
195	0xbad149b9	-0.0015967406
196	0x3b2b4be2	0.002613776
197	0xbb817132	-0.0039502615
198	0xb9efd4e3	-0.00045744245
199	0xb9cf7633	-0.00039570182
200	0xbac676cc	-0.0015141605
201	0xba22fa41	-0.00062171003
202	0xbbaee36d	-0.00533717
203	0x3ba24ac6	0.0049527613
204	0xba5abb39	-0.00083439384
205	0xba58c8c3	-0.0008269662
206	0x3a1b8128	0.00059320265
207	0xba81c808	-0.0009901533
208	0xba322a3c	-0.00067964545
209	0x3b6a5b64	0.003576004
210	0xbb76ffa9	-0.0037689006
211	0xbac33c6b	-0.0014895325
212	0xbb282f0f	-0.0025662815
213	0xbb980bbd	-0.004640071
214	0xbaca5a89	-0.0015438359
215	0x38495d55	4.8009057e-05
216	0x38ccd31c	9.7668e-05
217	0x3ae5004a	0.00174714
218	0xbb064f25	-0.002049395
219	0x3a3ed58f	0.00072797475
220	0xbace8446	-0.0015755973
221	0x396b8367	0.00022460298
222	0xb97ce21e	-0.00024116828
223	0xbacf3da4	-0.0015811217
224	0xb98746ac	-0.0002580186
225	0xbab86a3a	-0.0014069744
226	0x39326604	0.00017013407
227	0xbb934fe3	-0.004495607
228	0xba33731c	-0.0006845461
229	0xbb266d32	-0.0025394675
230	0xbb29d180	-0.0025912225
231	0xba4e1631	-0.0007861583
232	0xbb36ef5c	-0.0027913665
233	0x3b02be03	0.0019949682
234	0x3a342af6	0.0006872857
235	0xba867c26	-0.0010260388
236	0xbb227523	-0.0024789057
237	0x3ba396e3	0.0049923523
238	0xba78b517	-0.00094874337
239	0xbad826f0	-0.0016491096
240	0xbb34b95d	-0.0027576305
241	0xbb3b78d3	-0.0028605952
242	0x39c79a27	0.0003807109
243	0xbb371916	-0.0027938536
244	0xbb120c07	-0.0022285
245	0x3b81c8c5	0.003960701
246	0x3b58066f	0.003296282
247	0xba914801	-0.0011084081
248	0xbad54c39	-0.0016273326
249	0x3aa18ce3	0.0012325313
250	0xba1b6cd0	-0.0005928995
251	0x39dc0042	0.00041961862
252	0xba04be93	-0.0005063798
253	0xbb28a637	-0.0025733837
254	0x3b63039d	0.0034639605
255	0xbafaf73b	-0.0019147167

gnn.gnn_layers.0.gat_conv.bias f4 [1024]
0	0xba1e8319	-0.0006046757
1	0xbbd5e339	-0.006527331
2	0x3d3326b2	0.043738075
3	0x3b35613b	0.0027676362
4	0xbcafa30f	-0.021440057
5	0xbc2aa15d	-0.010414449
6	0x3b8f52ab	0.0043738685
7	0xbb5da8a0	-0.0033822432
8	0x3b1fc18d	0.002437684
9	0xbc9953fd	-0.018716807
10	0xbb75c9a9	-0.0037504232
11	0x3b90e0f9	0.00442135
12	0xb992a5f4	-0.00027970935
13	0xb7bbd73d	-2.2392365e-05
14	0xbb81eea3	-0.0039652153
15	0xbca20cd6	-0.019781511
16	0x39d11021	0.00039875603
17	0x3c910657	0.017703218
18	0xbc22ead4	-0.009943683
19	0xbc2c52b5	-0.010517766
20	0xba43a855	-0.0007463743
21	0xbc80d1c3	-0.015725022
22	0xbc25c346	-0.010117358
23	0xbd19083c	-0.03736137
24	0x3ba0884d	0.004899061
25	0x3c8c466e	0.017123427
26	0xbaf030a3	-0.0018325042
27	0xbd24b63e	-0.040212862
28	0x3b66dcd2	0.0035226834
29	0xbcad01b4	-0.021118976
30	0x3bc7a32a	0.0060924487
31	0x3c57cbc9	0.013171145
32	0xbb1bd06c	-0.0023775352
33	0xbca02def	-0.019553153
34	0xbb67907a	-0.0035333917
35	0xbc041254	-0.00806101
36	0xbc991a9e	-0.01868945
37	0xbc216d85	-0.009852772
38	0x3c232c9f	0.009959369
39	0x3b82f460	0.003996417
40	0xbcd6010e	-0.02612355
41	0xbd83c853	-0.06434693
42	0x398759c8	0.000258161
43	0xbd011647	-0.031515386
44	0x3a561262	0.00081661914
45	0xbc3d50f9	-0.01155495
46	0x3af6b9bc	0.0018823664
47	0xbb4f539d	-0.003163553
48	0xbc886135	-0.016647914
49	0xbcc59051	-0.024116667
50	0xbb6cc4c2	-0.003612802
51	0x3c055dfc	0.008140083
52	0xbb45015c	-0.0030060625
53	0x39ea6838	0.00044709607
54	0x3c74bfd1	0.014938311
55	0xbb459ae6	-0.003015214
56	0xbce2d683	-0.027690178
57	0x3c4a0aad	0.012331647
58	0xbd43e10e	-0.04782205
59	0x3bb146ba	0.0054100426
60	0xbdd860c0	-0.105653286
61	0xbb10d645	-0.002210037
62	0xbc14cfe5	-0.009082769
63	0x3bd72bee	0.006566516
64	0xba5faec0	-0.00085328147
65	0xbcc6d9b8	-0.024273738
66	0x3a9a1838	0.0011756485
67	0xbc06bbfb	-0.008223529
68	0xbcb65ede	-0.022262033
69	0xbcfe84cd	-0.031069184
70	0x3a41ed4c	0.0007397726
71	0xba6c5315	-0.0009015066
72	0xbbf6ac05	-0.0075278305
73	0xbaefad23	-0.0018285852
74	0x3b057aa0	0.002036728
75	0x3ce3c3bd	0.027803296
76	0xbb067ae7	-0.0020520033
77	0xbbd5fc2e	-0.0065303063
78	0x3ab90a50	0.0014117453
79	0xbc0b9dc9	-0.008521506
80	0x3a86e85c	0.0010292637
81	0x3c1ce608	0.009576328
82	0xbc860aef	-0.016362635
83	0xbb899347	-0.004198465
84	0xbc1a1a9e	-0.00940576
85	0xbd696b5b	-0.056987148
86	0xbbb354f1	-0.0054727723
87	0xbd1739b4	-0.036920264
88	0x3b3e6c0e	0.0029056105
89	0x3c00bf4d	0.00785811
90	0xbc04f25f	-0.008114426
91	0xbcda4769	-0.02664538
92	0xbd148c09	-0.03626636
93	0xbbffe732	-0.007809543
94	0x390af08d	0.00013250318
95	0xbb702a86	-0.003664644
96	0x3b4eeb09	0.0031573197
97	0xbcc56e59	-0.02410047
98	0xb8aebf48	-8.3325955e-05
99	0x3954cbde	0.00020293842
100	0xbd11bf53	-0.03558285
101	0xbc25c938	-0.010118775
102	0xbe0154ba	-0.12629977
103	0x3c20d9d3	0.009817558
104	0xbb64ae6f	-0.003489401
105	0xbdae6af7	-0.08516496
106	0xbc71373b	-0.014722641
107	0xbd8d8475	-0.0691003
108	0xbc82b693	-0.015956199
109	0x3bca85f2	0.0061805183
110	0xbbffce2d	-0.0078065605
111	0xbd4b13d1	-0.049579445
112	0xbd59cd58	-0.053174347
113	0xbc99ac33	-0.018758869
114	0x3c2c7caf	0.010527774
115	0xbc3fe1c0	-0.011711538
116	0x3c43561d	0.0119223865
117	0xbc671580	-0.014104247
118	0x3ba84323	0.0051349564
119	0xbc9f14fc	-0.019419186
120	0xbc35c598	-0.011094473
121	0xbdf440da	-0.11926432
122	0x3b08268d	0.0020774931
123	0xbb640bc7	-0.003479706
124	0xba1fa7cd	-0.0006090373
125	0xbc27dcbe	-0.0102455
126	0x3c453c03	0.012038234
127	0xbd2f1d87	-0.04275277
128	0xba1e8319	-0.0006046757
129	0xbbd5e339	-0.006527331
130	0x3d3326b2	0.043738075
131	0x3b35613b	0.0027676362
132	0xbcafa30f	-0.021440057
133	0xbc2aa15d	-0.010414449
134	0x3b8f52ab	0.0043738685
135	0xbb5da8a0	-0.0033822432
136	0x3b1fc18d	0.002437684
137	0xbc9953fd	-0.018716807
138	0xbb75c9a9	-0.0037504232
139	0x3b90e0f9	0.00442135
140	0xb992a5f4	-0.00027970935
141	0xb7bbd73d	-2.2392365e-05
142	0xbb81eea3	-0.0039652153
143	0xbca20cd6	-0.019781511
144	0x39d11021	0.00039875603
145	0x3c910657	0.017703218
146	0xbc22ead4	-0.009943683
147	0xbc2c52b5	-0.010517766
148	0xba43a855	-0.0007463743
149	0xbc80d1c3	-0.015725022
150	0xbc25c346	-0.010117358
151	0xbd19083c	-0.03736137
152	0x3ba0884d	0.004899061
153	0x3c8c466e	0.017123427
154	0xbaf030a3	-0.0018325042
155	0xbd24b63e	-0.040212862
156	0x3b66dcd2	0.0035226834
157	0xbcad01b4	-0.021118976
158	0x3bc7a32a	0.0060924487
159	0x3c57cbc9	0.013171145
160	0xbb1bd06c	-0.0023775352
161	0xbca02def	-0.019553153
162	0xbb67907a	-0.0035333917
163	0xbc041254	-0.00806101
164	0xbc991a9e	-0.01868945
165	0xbc216d85	-0.009852772
166	0x3c232c9f	0.009959369
167	0x3b82f460	0.003996417
168	0xbcd6010e	-0.02612355
169	0xbd83c853	-0.06434693
170	0x398759c8	0.000258161
171	0xbd011647	-0.031515386
172	0x3a561262	0.00081661914
173	0xbc3d50f9	-0.01155495
174	0x3af6b9bc	0.0018823664
175	0xbb4f539d	-0.003163553
176	0xbc886135	-0.016647914
177	0xbcc59051	-0.024116667
178	0xbb6cc4c2	-0.003612802
179	0x3c055dfc	0.008140083
180	0xbb45015c	-0.0030060625
181	0x39ea6838	0.00044709607
182	0x3c74bfd1	0.014938311
183	0xbb459ae6	-0.003015214
184	0xbce2d683	-0.027690178
185	0x3c4a0aad	0.012331647
186	0xbd43e10e	-0.04782205
187	0x3bb146ba	0.0054100426
188	0xbdd860c0	-0.105653286
189	0xbb10d645	-0.002210037
190	0xbc14cfe5	-0.009082769
191	0x3bd72bee	0.006566516
192	0xba5faec0	-0.00085328147
193	0xbcc6d9b8	-0.024273738
194	0x3a9a1838	0.0011756485
195	0xbc06bbfb	-0.008223529
196	0xbcb65ede	-0.022262033
197	0xbcfe84cd	-0.031069184
198	0x3a41ed4c	0.0007397726
199	0xba6c5315	-0.0009015066
200	0xbbf6ac05	-0.0075278305
201	0xbaefad23	-0.0018285852
202	0x3b057aa0	0.002036728
203	0x3ce3c3bd	0.027803296
204	0xbb067ae7	-0.0020520033
205	0xbbd5fc2e	-0.0065303063
206	0x3ab90a50	0.0014117453
207	0xbc0b9dc9	-0.008521506
208	0x3a86e85c	0.0010292637
209	0x3c1ce608	0.009576328
210	0xbc860aef	-0.016362635
211	0xbb899347	-0.004198465
212	0xbc1a1a9e	-0.00940576
213	0xbd696b5b	-0.056987148
214	0xbbb354f1	-0.0054727723
215	0xbd1739b4	-0.036920264
216	0x3b3e6c0e	0.0029056105
217	0x3c00bf4d	0.00785811
218	0xbc04f25f	-0.008114426
219	0xbcda4769	-0.02664538
220	0xbd148c09	-0.03626636
221	0xbbffe732	-0.007809543
222	0x390af08d	0.00013250318
223	0xbb702a86	-0.003664644
224	0x3b4eeb09	0.0031573197
225	0xbcc56e59	-0.02410047
226	0xb8aebf48	-8.3325955e-05
227	0x3954cbde	0.00020293842
228	0xbd11bf53	-0.03558285
229	0xbc25c938	-0.010118775
230	0xbe0154ba	-0.12629977
231	0x3c20d9d3	0.009817558
232	0xbb64ae6f	-0.003489401
233	0xbdae6af7	-0.08516496
234	0xbc71373b	-0.014722641
235	0xbd8d8475	-0.0691003
236	0xbc82b693	-0.015956199
237	0x3bca85f2	0.0061805183
238	0xbbffce2d	-0.0078065605
239	0xbd4b13d1	-0.049579445
240	0xbd59cd58	-0.053174347
241	0xbc99ac33	-0.018758869
242	0x3c2c7caf	0.010527774
243	0xbc3fe1c0	-0.011711538
244	0x3c43561d	0.0119223865
245	0xbc671580	-0.014104247
246	0x3ba84323	0.0051349564
247	0xbc9f14fc	-0.019419186
248	0xbc35c598	-0.011094473
249	0xbdf440da	-0.11926432
250	0x3b08268d	0.0020774931
251	0xbb640bc7	-0.003479706
252	0xba1fa7cd	-0.0006090373
253	0xbc27dcbe	-0.0102455
254	0x3c453c03	0.012038234
255	0xbd2f1d87	-0.04275277

gnn.gnn_layers.0.gat_conv.fc.weight f4 [1024, 74]
0	0xbb13a1fc	-0.002252697
1	0x3b417bb5	0.0029523198
2	0x38de5abb	0.00010602685
3	0x38ee03ff	0.00011349469
4	0x399c67dc	0.0002983202
5	0xb9ce1495	-0.00039306717
6	0xb8ecdf59	-0.00011294959
7	0xba00aeca	-0.0004908858
8	0x37b4b3ef	2.154146e-05
9	0x00001710	8.273e-42
10	0x0273b632	1.7905108e-37
11	0x80000735	-2.585e-42
12	0x0000247b	1.3087e-41
13	0x36d40c7d	6.319546e-06
14	0x000052ea	2.9744e-41
15	0xb8614fe4	-5.3718584e-05
16	0x2d344b4d	1.02485355e-11
17	0xb282eabb	-1.5240735e-08
18	0x00000ada	3.893e-42
19	0x800036d6	-1.9671e-41
20	0x31a91334	4.9207305e-09
21	0x80001c8a	-1.0238e-41
22	0x80000a97	-3.799e-42
23	0x00002d81	1.6324e-41
24	0xb4804e2e	-2.389874e-07
25	0x000010e3	6.058e-42
26	0x8000015c	-4.88e-43
27	0x2be01f62	1.5924868e-12
28	0x0000007b	1.72e-43
29	0x3720344f	9.548922e-06
30	0x39e2afb5	0.0004323699
31	0x22033efc	1.7787154e-18
32	0x80002c6a	-1.5933e-41
33	0x8000077d	-2.686e-42
34	0x0000137b	6.988e-42
35	0x00001fa5	1.1352e-41
36	0x8000085c	-2.999e-42
37	0xa88de418	-1.5753065e-14
38	0xac70b7cd	-3.4208081e-12
39	0xafae139a	-3.1664343e-10
40	0x800043f7	-2.4381e-41
41	0x800069f6	-3.8012e-41
42	0x00001fa7	1.1355e-41
43	0x80001632	-7.962e-42
44	0xb96a7d09	-0.00022362558
45	0xbacba337	-0.0015536313
46	0xb9686471	-0.00022162661
47	0xb807eec8	-3.240889e-05
48	0x0f8806b6	1.341322e-29
49	0xb9009426	-0.00012262221
50	0x271279e1	2.032764e-15
51	0x80000bc4	-4.221e-42
52	0x27be3af2	5.2799502e-15
53	0xa8869448	-1.4941295e-14
54	0xb862766d	-5.399289e-05
55	0xbb692f1e	-0.0035581063
56	0x3a89ade2	0.0010504092
57	0x38ece41f	0.00011295848
58	0x00003b83	2.1349e-41
59	0x1d6a8468	3.1038095e-21
60	0x00001a85	9.513e-42
61	0x3a77e8ae	0.0009456974
62	0x800000f4	-3.42e-43
63	0xb9dca653	-0.0004208559
64	0xba5f360d	-0.0008514829
65	0xb988e54e	-0.00026110787
66	0x0000394f	2.0558e-41
67	0xb805c62b	-3.189423e-05
68	0x39f3daa0	0.0004651146
69	0x3b2aeb57	0.0026080215
70	0xbb457651	-0.0030130337
71	0x3a3afda0	0.000713313
72	0x3907780b	0.00012919323
73	0x3726f088	9.950374e-06
74	0x3c1d9f2d	0.00962047
75	0xbc910ca1	-0.017706217
76	0xbacb0bac	-0.0015491149
77	0x39b8fdef	0.0003528441
78	0x3c440595	0.0119642215
79	0xbac0c86f	-0.0014708171
80	0x3a3ba95f	0.0007158722
81	0xb9916cfe	-0.0002773776
82	0x394b4033	0.00019383505
83	0x800012e8	-6.782e-42
84	0x00002bf5	1.5769e-41
85	0x00000b5d	4.076e-42
86	0x80001651	-8.006e-42
87	0xb0d37e9a	-1.5388253e-09
88	0x80002d42	-1.6235e-41
89	0x39ff510c	0.00048697775
90	0x21e8490f	1.574027e-18
91	0x000001d0	6.5e-43
92	0x80000b5d	-4.076e-42
93	0x31150494	2.1684956e-09
94	0x80000dfa	-5.014e-42
95	0x00000d49	4.766e-42
96	0x80000dea	-4.991e-42
97	0xb35254ea	-4.8971664e-08
98	0x80003d13	-2.191e-41
99	0x80000f67	-5.525e-42
100	0x00000ef9	5.371e-42
101	0x80004391	-2.4238e-41
102	0x2b11b1a5	5.176088e-13
103	0xb6d570eb	-6.36104e-06
104	0x2dac05dc	1.9556738e-11
105	0x00000fb7	5.637e-42
106	0x2c5e9af3	3.1634112e-12
107	0x00002374	1.2718e-41
108	0x0000465f	2.5244e-41
109	0xb56b3327	-8.761876e-07
110	0x2684d903	9.218161e-16
111	0x000014ea	7.503e-42
112	0x8000404a	-2.3063e-41
113	0x800016af	-8.137e-42
114	0x333eb148	4.439906e-08
115	0x800027d3	-1.4286e-41
116	0x80000a5c	-3.716e-42
117	0x80000cc9	-4.586e-42
118	0x3b52e5a4	0.0032180334
119	0xbaac8095	-0.0013160879
120	0xbb50450f	-0.0031779443
121	0x3c3e71ac	0.011623781
122	0x00002870	1.4506e-41
123	0x3aa35c81	0.0012463481
124	0xa79c9dae	-4.3469655e-15
125	0x00001b91	9.889e-42
126	0x80001a3f	-9.415e-42
127	0x98648587	-2.9535723e-24
128	0xbb67c0f7	-0.0035362819
129	0x3c13acb5	0.0090133445
130	0xbb8ef6ab	-0.004362901
131	0xbb2bef80	-0.0026235282
132	0x80004730	-2.5537e-41
133	0x80001c77	-1.0211e-41
134	0x37d8848f	2.5810934e-05
135	0xbb09c519	-0.002102202
136	0x00002eac	1.6743e-41
137	0x39ccbf35	0.00039052372
138	0xbb89cb8a	-0.004205172
139	0xbabca5c4	-0.0014392664
140	0x25cb25b2	3.524043e-16
141	0x3ade4e3f	0.0016960575
142	0xbbd171b1	-0.006391727
143	0xbc4ce106	-0.012504822
144	0x3be490ea	0.006975283
145	0xbb83e886	-0.0040255217
146	0x3b5af835	0.0033412103
147	0xb80d0bfc	-3.362818e-05
148	0x3cf83894	0.030300416
149	0xbbeb4cca	-0.007180785
150	0x3ba14a59	0.004922193
151	0x3abddf5d	0.0014486123
152	0x3bcafe86	0.0061948923
153	0xbbf732e6	-0.0075439094
154	0xbba0886b	-0.004899075
155	0x3a335fb4	0.0006842569
156	0xb9047aa9	-0.00012634195
157	0x0000173d	8.336e-42
158	0xb78b37d3	-1.6596086e-05
159	0x33bfc431	8.9298176e-08
160	0x80004fc1	-2.861e-41
161	0x0000276f	1.4146e-41
162	0x0000343b	1.8737e-41
163	0xb9a0e546	-0.000306884
164	0xb26e5e04	-1.38748e-08
165	0x000012c6	6.735e-42
166	0x800075a6	-4.2204e-41
167	0x95c40c4c	-7.918317e-26
168	0x80002db7	-1.64e-41
169	0x000018e5	8.93e-42
170	0x00003535	1.9087e-41
171	0xb6c02282	-5.726063e-06
172	0x07aa7fdd	2.5653908e-34
173	0x2535307a	1.5715672e-16
174	0xb04e55fb	-7.506455e-10
175	0x0000582b	3.1629e-41
176	0x00003d25	2.1935e-41
177	0x380dd161	3.381202e-05
178	0xb76ec315	-1.42313265e-05
179	0x80003566	-1.9156e-41
180	0x000028f5	1.4693e-41
181	0x80000f6a	-5.53e-42
182	0x00002ff2	1.72e-41
183	0x800033d3	-1.8591e-41
184	0x16bf18e1	3.0873415e-25
185	0x00000b14	3.974e-42
186	0xb8d80c14	-0.00010301932
187	0x14e60c79	2.3228985e-26
188	0x00003481	1.8835e-41
189	0x80000a73	-3.748e-42
190	0x80002c51	-1.5898e-41
191	0x366ad932	3.4995142e-06
192	0x3bdad4db	0.0066782064
193	0x3c954a2d	0.018223846
194	0x3cc05aa3	0.023480719
195	0x3ca5363e	0.020167466
196	0xab8c8ce4	-9.986703e-13
197	0xba53d336	-0.0008080484
198	0x800003db	-1.383e-42
199	0x2dea211b	2.6617422e-11
200	0x800023bc	-1.2819e-41
201	0x80002943	-1.4802e-41
202	0x3cdef6e2	0.027217332
203	0x3c9c4ebb	0.01908051
204	0x3c8a3480	0.016870737
205	0x3b926872	0.0044680173
206	0x00002f5e	1.6992e-41
207	0x1e8f41be	1.5167904e-20
208	0xb0c993b5	-1.4666656e-09
209	0xbb1258a3	-0.0022330664
210	0x36162227	2.237162e-06
211	0xbc0baa3c	-0.008524474
212	0x3cf40780	0.029788733
213	0x3cc70f2d	0.024299229
214	0x2fa529e2	3.0043085e-10
215	0xb9fdf5ae	-0.00048438966
216	0x3cc0a4ee	0.023516145
217	0x3ce23eb9	0.0276178
218	0x3c5d7e3e	0.013518868
219	0x3bf9964a	0.007616793
220	0x3bdc2e8a	0.006719415
221	0x800044c7	-2.4673e-41
222	0xbb315133	-0.0027056455
223	0x3b9fce24	0.004876869
224	0xbb2d957b	-0.0026486802
225	0xba639866	-0.0008682072
226	0xbb2c3e40	-0.002628222
227	0xb8043058	-3.1516276e-05
228	0x3a148c44	0.0005666653
229	0x39900e22	0.0002747635
230	0x398cf753	0.00026887152
231	0x3950865b	0.00019886477
232	0x00002488	1.3105e-41
233	0x00003155	1.7697e-41
234	0x3747fd2e	1.1920272e-05
235	0x00002d87	1.6332e-41
236	0xb6e360a6	-6.7763785e-06
237	0xba4715d9	-0.0007594503
238	0x00007abf	4.4033e-41
239	0x80003f9f	-2.2823e-41
240	0xadd4d357	-2.4195463e-11
241	0x80000f26	-5.434e-42
242	0xa3198d00	-8.3240045e-18
243	0x00000cc3	4.578e-42
244	0x800005a2	-2.02e-42
245	0x80000169	-5.06e-43
246	0x00002c30	1.5851e-41
247	0xa5230b36	-1.4141795e-16
248	0x8000222d	-1.226e-41
249	0x800025fc	-1.3626e-41
250	0x800019a5	-9.2e-42
251	0xb44cc77a	-1.907155e-07
252	0x8000333b	-1.8378e-41
253	0x2f971aae	2.7485697e-10
254	0x80000332	-1.146e-42
255	0x9487db57	-1.371803e-26

gnn.gnn_layers.0.gat_conv.res_fc.weight f4 [1024, 74]
0	0xbafdfd77	-0.0019377907
1	0x3ab16735	0.0013534786
2	0x39953c1c	0.0002846428
3	0xb9962681	-0.00028638917
4	0x3a5915f9	0.0008281167
5	0xb8a0625e	-7.647717e-05
6	0x37d28c62	2.5099322e-05
7	0xb9cd4cf1	-0.00039157973
8	0xb8ea29c6	-0.000111657704
9	0x86353910	-3.408424e-35
10	0xb1fc108b	-7.336046e-09
11	0x9b433aa3	-1.6148968e-22
12	0x2c8677c6	3.8218066e-12
13	0x0000163f	7.98e-42
14	0x30824427	9.478115e-10
15	0xb9d59baa	-0.00040742505
16	0x800024ad	-1.3157e-41
17	0x800019b8	-9.226e-42
18	0x00000a0a	3.601e-42
19	0x80002491	-1.3118e-41
20	0x00003960	2.0582e-41
21	0x0000004c	1.06e-43
22	0x80001d6f	-1.0559e-41
23	0x1cacd195	1.1436181e-21
24	0x000034be	1.892e-41
25	0x00004035	2.3033e-41
26	0x00001e1f	1.0805e-41
27	0x00000119	3.94e-43
28	0x80001b16	-9.717e-42
29	0x370b09ed	8.287357e-06
30	0x800008eb	-3.199e-42
31	0x000003e6	1.398e-42
32	0x800016db	-8.199e-42
33	0x80001425	-7.226e-42
34	0x00000b15	3.975e-42
35	0x0000060d	2.17e-42
36	0x800027a9	-1.4227e-41
37	0x2c69b7d7	3.3213343e-12
38	0x00001b4f	9.796e-42
39	0xb50b6aa6	-5.193673e-07
40	0xae98919b	-6.9380245e-11
41	0x8000236c	-1.2707e-41
42	0x80000cf6	-4.65e-42
43	0x9e395b20	-9.812663e-21
44	0x399b1577	0.00029579896
45	0xbafee1df	-0.0019445977
46	0xb96c3583	-0.00022526649
47	0x3a74fe34	0.00093457405
48	0x80001033	-5.811e-42
49	0x380d6b86	3.371716e-05
50	0x00000009	1.3e-44
51	0x00000cbe	4.571e-42
52	0xb7b9b250	-2.2136752e-05
53	0x263925a3	6.4235776e-16
54	0x3aa284d5	0.0012399206
55	0xbb37b8a0	-0.002803363
56	0x39ecf71b	0.00045197536
57	0xb8b08129	-8.416392e-05
58	0x80000ed4	-5.32e-42
59	0x0000079f	2.734e-42
60	0xa389d3f4	-1.4943335e-17
61	0xb8c1fd7e	-9.250174e-05
62	0x0000176c	8.402e-42
63	0xb9fcd60e	-0.0004822467
64	0xba016119	-0.0004935428
65	0xba150a46	-0.000568543
66	0x00002103	1.1842e-41
67	0xb71e261c	-9.426407e-06
68	0x39038a1b	0.00012544582
69	0x3b1086eb	0.0022053074
70	0xbb2e9650	-0.0026639886
71	0x39aae75e	0.0003259731
72	0x38412a0d	4.605395e-05
73	0xb2a797ba	-1.9510356e-08
74	0xbbadaaa9	-0.0052998853
75	0xbc34bb13	-0.01103093
76	0x391580ad	0.00014257683
77	0xbaee6514	-0.0018188083
78	0x3c62913c	0.013828572
79	0x3a12f5b4	0.00056060706
80	0x39f3b53c	0.00046483602
81	0xba20ad25	-0.0006129316
82	0x39fa8fcc	0.00047790853
83	0x00000862	3.007e-42
84	0x80000ad4	-3.884e-42
85	0xb1387b11	-2.684548e-09
86	0x00002e2b	1.6562e-41
87	0x80002fd1	-1.7153e-41
88	0x00002286	1.2385e-41
89	0x3a0c8319	0.0005360111
90	0x800119fe	-1.0116e-40
91	0xa6073014	-4.690269e-16
92	0x2f8785f3	2.4651534e-10
93	0x16b6a4a8	2.9507599e-25
94	0x00002ddf	1.6455e-41
95	0x27548b68	2.9496482e-15
96	0x80003ba8	-2.14e-41
97	0xa54341d3	-1.6935856e-16
98	0x1adefd06	9.222583e-23
99	0xa636977d	-6.334924e-16
100	0x33365340	4.2450893e-08
101	0x36e54ba7	6.833539e-06
102	0x338221bf	6.059735e-08
103	0xb7195fce	-9.141817e-06
104	0x00002117	1.187e-41
105	0xb70386ca	-7.8395915e-06
106	0x98203935	-2.0708397e-24
107	0x2821be3c	8.978546e-15
108	0x000013d7	7.117e-42
109	0x00000ec7	5.301e-42
110	0x00002ac4	1.5341e-41
111	0x00004a62	2.6684e-41
112	0x33877b16	6.3088166e-08
113	0xb46acb7e	-2.1866978e-07
114	0x03187168	4.479897e-37
115	0xae1528b9	-3.3914847e-11
116	0x00001f2c	1.1182e-41
117	0x80005b34	-3.2718e-41
118	0x3ae2eb12	0.0017312488
119	0xbc30868a	-0.010774264
120	0xbabbe65d	-0.0014335621
121	0xba40bf44	-0.00073527195
122	0x23305de7	9.560864e-18
123	0x368db7a1	4.2235047e-06
124	0x000006d4	2.45e-42
125	0x2d1471a1	8.438057e-12
126	0x35153f6c	5.5599116e-07
127	0x3a0cfbfd	0.00053781254
128	0xbbb9ed2e	-0.005674026
129	0x3b151294	0.002274667
130	0xbbc6719f	-0.006056025
131	0xbb87aadb	-0.0041402406
132	0x80000c79	-4.474e-42
133	0xa7ad632a	-4.812466e-15
134	0x80003288	-1.8127e-41
135	0xb8c1b7f1	-9.237219e-05
136	0x000006ea	2.48e-42
137	0x3a8455fd	0.0010096427
138	0xbb8e7fa4	-0.004348712
139	0xbb165d8e	-0.0022943947
140	0x00006d4c	3.9208e-41
141	0x3656ac50	3.1988784e-06
142	0xbb0fcc47	-0.0021941827
143	0xbc063717	-0.008191845
144	0x3b038e02	0.0020073657
145	0xbbb8937c	-0.005632816
146	0x3a671186	0.0008814562
147	0x8000239b	-1.2773e-41
148	0x3d12cc6a	0.035839476
149	0xbbf3d928	-0.0074416585
150	0x3ba9d76b	0.0051831505
151	0xba055db6	-0.00050875114
152	0x3c2790fd	0.010227439
153	0x3a48a6b1	0.00076542335
154	0x3ac1cc36	0.0014785591
155	0xb85e8fba	-5.306278e-05
156	0xba4c0a75	-0.00077835406
157	0x000050d1	2.8991e-41
158	0x80001430	-7.242e-42
159	0x343079ec	1.6435632e-07
160	0x98e087fe	-5.803996e-24
161	0x80003935	-2.0522e-41
162	0x000029d2	1.5002e-41
163	0x379a1702	1.8368944e-05
164	0x000011b2	6.348e-42
165	0x00000ca0	4.529e-42
166	0x000007db	2.818e-42
167	0x00008206	4.6644e-41
168	0x00005074	2.8861e-41
169	0x3187d9b5	3.9537675e-09
170	0x17b6c034	1.1809993e-24
171	0x00000775	2.675e-42
172	0x00002894	1.4557e-41
173	0x800011ae	-6.342e-42
174	0x8000123c	-6.541e-42
175	0x00001447	7.274e-42
176	0xb31a57ff	-3.593595e-08
177	0x35e6c9aa	1.7195027e-06
178	0x0000251f	1.3317e-41
179	0x30de5241	1.6176004e-09
180	0xb0d72e14	-1.5656405e-09
181	0x000009dd	3.538e-42
182	0xb5aa88a0	-1.270575e-06
183	0x800033c7	-1.8574e-41
184	0x80000e88	-5.213e-42
185	0x800005a7	-2.028e-42
186	0x000073c6	4.1532e-41
187	0x29b572ea	8.057949e-14
188	0x2394cc6c	1.6132768e-17
189	0x000018bd	8.874e-42
190	0xa942ed9a	-4.328274e-14
191	0xb6e546cc	-6.8329737e-06
192	0x3c3f28f7	0.011667482
193	0x3cc70ffc	0.024299614
194	0x3cbac70d	0.022799993
195	0x3c4e6f42	0.012599768
196	0x00000fa6	5.614e-42
197	0xb9edeac4	-0.00045379077
198	0x80000288	-9.08e-43
199	0xba1555c5	-0.00056966796
200	0x00002d11	1.6167e-41
201	0xb923b23b	-0.00015611287
202	0x3ce38a85	0.027776012
203	0x3ca1f074	0.019767977
204	0x3c9a81a1	0.01886064
205	0x3ba91d64	0.0051609743
206	0xaf467d6e	-1.8052557e-10
207	0x80004124	-2.3368e-41
208	0x800024ab	-1.3154e-41
209	0xb9b41da5	-0.00034354362
210	0x80003a61	-2.0942e-41
211	0xbbc4fac3	-0.0060113384
212	0x3d037f02	0.032103546
213	0x3cf32e11	0.029685052
214	0x80000fc8	-5.661e-42
215	0xba07b18d	-0.00051762984
216	0x3cb57367	0.022149755
217	0x3ce2d31e	0.02768856
218	0x3c951d8e	0.01820257
219	0x3c0731b4	0.008251596
220	0x3c132475	0.00898086
221	0x80002f28	-1.6916e-41
222	0x3b461e0f	0.0030230319
223	0xbaa8e9f7	-0.001288711
224	0xb99cfd13	-0.00029943194
225	0x38935996	7.026193e-05
226	0x3ab97c9f	0.001415152
227	0xb93b0893	-0.00017836904
228	0x393730d6	0.00017470433
229	0xb9309888	-0.0001684149
230	0x39affdf4	0.0003356781
231	0xa71183e0	-2.0194282e-15
232	0x80003bc1	-2.1436e-41
233	0x8000276a	-1.4139e-41
234	0x80002679	-1.3801e-41
235	0x00004560	2.4887e-41
236	0x000011d8	6.401e-42
237	0x3a16dcf1	0.0005754969
238	0xb2024562	-7.582772e-09
239	0xae5edb9b	-5.0672005e-11
240	0x00000393	1.282e-42
241	0x000015d3	7.829e-42
242	0x2d11d115	8.288721e-12
243	0xb19ca6a4	-4.5591424e-09
244	0x2c1b1cbd	2.2042778e-12
245	0x800030be	-1.7485e-41
246	0x00000f56	5.501e-42
247	0xb6239e92	-2.4381193e-06
248	0x000042c1	2.3947e-41
249	0x80001dc1	-1.0674e-41
250	0x00002cf7	1.613e-41
251	0xb3ed401c	-1.1047834e-07
252	0x00003773	1.9891e-41
253	0x34152d26	1.3893131e-07
254	0x00006618	3.6624e-41
255	0x391f1e32	0.0001517467

readout.weight_and_sum.atom_weighting.0.weight f4 [1, 128]
0	0xbc0e3e68	-0.008681871
1	0x3d7156d8	0.05892071
2	0xbdca91d7	-0.09891098
3	0xbc2d4436	-0.010575345
4	0x3e40d3b1	0.18830754
5	0x3d2b811b	0.04187117
6	0xbd39d35c	-0.045367584
7	0x3d1e8539	0.03870127
8	0xbd145ab7	-0.036219325
9	0x3df098bb	0.11747881
10	0x3d98009b	0.074219905
11	0xbd07472e	-0.033026867
12	0x3d421564	0.04738368
13	0x3a409c75	0.00073475327
14	0x3cc2445e	0.02371424
15	0x3d7fff04	0.06249906
16	0xbadb7ef5	-0.001674621
17	0xbda40486	-0.08008675
18	0x3d71b92b	0.05901448
19	0x3daed14c	0.08536014
20	0x3c0d2d61	0.008616776
21	0x3d5794d8	0.052632183
22	0x3d551c43	0.052028906
23	0xbc915432	-0.017740343
24	0x3da86474	0.08222285
25	0xbde342cb	-0.11096724
26	0x3ce98e4d	0.028510237
27	0x3dfca6ce	0.12336503
28	0x3c21e5f5	0.009881486
29	0x3d1a0d4b	0.037610333
30	0x3d4d860c	0.050176665
31	0xbe909b84	-0.2824365
32	0x3cf0fdeb	0.029417953
33	0x3dd4ebd7	0.103965454
34	0x3ca58bdc	0.020208292
35	0xbcda7b21	-0.02667004
36	0x3dac38cb	0.0840927
37	0x3d8f69c7	0.07002597
38	0xbde2707e	-0.110566124
39	0xbd55146d	-0.052021433
40	0xbd3182e4	-0.043337718
41	0x3d4b2306	0.049593948
42	0x390ed055	0.00013619785
43	0x3e17e9b1	0.1483524
44	0xba5ebac9	-0.0008496461
45	0x3d494690	0.04913956
46	0x3cba7e86	0.02276541
47	0x3da8ec25	0.08248166
48	0x3dd422e5	0.10358218
49	0x3e12fa92	0.14353397
50	0xbc121776	-0.008916726
51	0xbda94f36	-0.082670614
52	0xbc7b70a6	-0.015346682
53	0x3b97ca32	0.004632258
54	0x3bd2911a	0.006425989
55	0x3b9f2e0a	0.004857783
56	0x3e129a13	0.14316587
57	0xbd623ed8	-0.055235714
58	0x3d73f84f	0.059562977
59	0x3b7dca7a	0.0038725422
60	0x3e4b5317	0.19855915
61	0x3c908032	0.017639253
62	0x3de006dd	0.10938809
63	0xbd39567f	-0.045248505
64	0x3b44d5d0	0.0030034669
65	0x3da96710	0.08271611
66	0xbb927de4	-0.0044705737
67	0x3dd1641a	0.10224171
68	0x3ddc65b9	0.107615896
69	0x3ebb5955	0.36591592
70	0x3b24fc21	0.0025174695
71	0xbaf3b7bb	-0.0018594185
72	0x3d351b22	0.04421533
73	0x3c4c4772	0.012468206
74	0x3d47fcc9	0.04882506
75	0xbd8aec27	-0.06783324
76	0x3d4732cc	0.048632428
77	0x3d3e6d18	0.04649076
78	0xbbf5cb97	-0.0075010764
79	0x3c987e32	0.018614862
80	0xbb9d842e	-0.004807017
81	0xbe76c97d	-0.24100299
82	0x3d98192b	0.074266754
83	0x3d9f5b87	0.07781129
84	0x3d11049b	0.035404783
85	0x3e35e466	0.17762908
86	0x3cd82703	0.02638579
87	0x3d8af58b	0.06785115
88	0x3c930683	0.017947441
89	0xbd913661	-0.0709045
90	0x3d2839e5	0.041070838
91	0x3e154ad3	0.14579324
92	0x3e036baf	0.12834047
93	0x3cffc9a5	0.031224081
94	0xbb05f5d1	-0.0020440707
95	0x3d53756c	0.051625654
96	0x3bf56718	0.0074890964
97	0x3d856fa4	0.065154344
98	0x3a8b0435	0.0010606112
99	0x3b720777	0.003693072
100	0x3d847c98	0.06469077
101	0x3d1f8c6c	0.038952276
102	0x3e8d1e22	0.27562052
103	0xbdc24560	-0.094858885
104	0x3d4061b0	0.046968162
105	0x3e9c2097	0.30493614
106	0x3dbb84e2	0.09156205
107	0x3de45bea	0.11150344
108	0x3dccc872	0.099991694
109	0xbec31566	-0.38102263
110	0x3d085d8b	0.033292335
111	0x3df2c4fd	0.11853979
112	0x3e9f2fe8	0.31091237
113	0x3d91d634	0.07120934
114	0xbdc7e362	-0.09760167
115	0x3c917a97	0.01775865
116	0xbcefb9b8	-0.029263362
117	0xbe0cfb97	-0.13767849
118	0xbd41413c	-0.047181353
119	0x3dd603ad	0.1044992
120	0x3d682c1b	0.056682687
121	0x3ebfbe8b	0.3745006
122	0xbc446d49	-0.011988946
123	0x3c1adf8b	0.009452711
124	0x3bdb91a9	0.0067007137
125	0x3da4409a	0.08020134
126	0xbd93899f	-0.072039835
127	0x3d51139e	0.0510441

predict.predict.1.weight f4 [128, 256]
0	0xaa913be6	-2.5798737e-13
1	0x2b807d6b	9.129757e-13
2	0x2d679cca	1.3165644e-11
3	0xab42cbe4	-6.92056e-13
4	0xa876606b	-1.36766505e-14
5	0xabf773b4	-1.758252e-12
6	0xad126530	-8.321607e-12
7	0xab367aef	-6.4829994e-13
8	0xac30b09f	-2.5109149e-12
9	0xad97303d	-1.7188135e-11
10	0x2add8214	3.9347746e-13
11	0x2bff0f96	1.8123166e-12
12	0xac4fb3f4	-2.9516363e-12
13	0xa896b71a	-1.6732753e-14
14	0x2a5b11e9	1.9457321e-13
15	0x2d263ecc	9.449951e-12
16	0x2b65d156	8.1647655e-13
17	0xad0a5b63	-7.864684e-12
18	0x2bc11540	1.3719373e-12
19	0x2c03221e	1.8635159e-12
20	0x28cc6645	2.2692902e-14
21	0xad026fc0	-7.414458e-12
22	0x2b08e81f	4.863904e-13
23	0xacefdd3c	-6.8173505e-12
24	0x2b384fce	6.5480683e-13
25	0xacc8b678	-5.7046e-12
26	0x2b1cd36c	5.571574e-13
27	0x2d527c38	1.19647e-11
28	0xaa60a861	-1.9953615e-13
29	0x2c590cde	3.0844697e-12
30	0x2c256d92	2.3508734e-12
31	0x2cf1866b	6.8645554e-12
32	0x25404b11	1.6678779e-16
33	0xab4a1157	-7.178888e-13
34	0xab4ffe5d	-7.3894173e-13
35	0xac81e636	-3.691959e-12
36	0x2ce73cfe	6.5721864e-12
37	0xac091758	-1.948183e-12
38	0xa982b54d	-5.8046104e-14
39	0x29767853	5.4727337e-14
40	0xacae7013	-4.95782e-12
41	0xad9a0965	-1.7511945e-11
42	0xa81ad7a0	-8.5954735e-15
43	0xadb78ce4	-2.086726e-11
44	0x2a2ea103	1.5510167e-13
45	0xabea5c82	-1.6652376e-12
46	0x2aa6f50e	2.9657564e-13
47	0x2bf45902	1.7361947e-12
48	0xabf5f8c0	-1.7477339e-12
49	0xac93fb81	-4.205914e-12
50	0x2c19fb31	2.1882047e-12
51	0x2bac8311	1.2257713e-12
52	0x29dfc119	9.9366865e-14
53	0xab0340f3	-4.6630684e-13
54	0xacbee333	-5.425349e-12
55	0xac87396e	-3.8433067e-12
56	0xadbea868	-2.1675287e-11
57	0x2b86075e	9.523317e-13
58	0xace93dba	-6.6291113e-12
59	0x2744b04b	2.7296033e-15
60	0x2c622e79	3.214233e-12
61	0xaaa7df6e	-2.9820195e-13
62	0xabc8499e	-1.4231288e-12
63	0xac0a53b9	-1.9657455e-12
64	0xa7ae8ae9	-4.844531e-15
65	0x2d51de7e	1.1929678e-11
66	0x2b283129	5.9753813e-13
67	0xad298972	-9.637057e-12
68	0xab127e90	-5.204526e-13
69	0x2cfec6ce	7.241186e-12
70	0xab1709a6	-5.3659366e-13
71	0x2bef97ef	1.7024141e-12
72	0x2a1df40e	1.4029075e-13
73	0x2ae55107	4.0734796e-13
74	0x2ccfa6e6	5.9018233e-12
75	0x2db7ee98	2.0910648e-11
76	0xabb9af62	-1.3193719e-12
77	0xac77b742	-3.520254e-12
78	0x2b522c22	7.4668234e-13
79	0x2b330d53	6.3612066e-13
80	0xaa812b7e	-2.2945182e-13
81	0x2cc9fb0b	5.740635e-12
82	0x2c4c6e1e	2.905127e-12
83	0xa9fe8645	-1.1303158e-13
84	0x2b032748	4.6595063e-13
85	0xad7bc8f1	-1.4312316e-11
86	0xab93b610	-1.0495511e-12
87	0xad8e4cf8	-1.6177712e-11
88	0xab7f4f7a	-9.0704495e-13
89	0x2c12141b	2.0759009e-12
90	0x2c4bc8e2	2.8959547e-12
91	0xac97dc17	-4.316113e-12
92	0x2ba225a5	1.1521241e-12
93	0x2b9f28d5	1.1308963e-12
94	0x2a9847a9	2.7050348e-13
95	0xac0884e7	-1.9400538e-12
96	0xab9cb347	-1.1134226e-12
97	0xabe766f5	-1.6442114e-12
98	0xa9cd46d6	-9.116117e-14
99	0xac7a08d6	-3.5532042e-12
100	0xad97c6c6	-1.7254986e-11
101	0xaaefc05e	-4.258841e-13
102	0x2c8dee1c	4.0338965e-12
103	0x2d0ce14b	8.008104e-12
104	0xabc0c719	-1.3697681e-12
105	0xacd30e72	-5.9985844e-12
106	0xac67ea50	-3.2957144e-12
107	0xad2a1f73	-9.670364e-12
108	0xad32e833	-1.0169687e-11
109	0x2c49ea10	2.8693749e-12
110	0x2c12c68d	2.0858066e-12
111	0xaa469ffd	-1.764144e-13
112	0xad0c9341	-7.990776e-12
113	0xad8508b8	-1.5124221e-11
114	0x2cc1eada	5.5114637e-12
115	0xa918f1bc	-3.396045e-14
116	0xac397316	-2.6353967e-12
117	0xab22e770	-5.7875146e-13
118	0xac157a8a	-2.1242196e-12
119	0xacb57a4c	-5.157907e-12
120	0x2aa80abc	2.9850243e-13
121	0x2b09ea6a	4.899749e-13
122	0x2c02c5f7	1.8584004e-12
123	0xab61501b	-8.0047226e-13
124	0x29b5032f	8.038567e-14
125	0x2b958394	1.0623607e-12
126	0x2cf7846c	7.034864e-12
127	0x2d3fa6ca	1.0894128e-11
128	0x2aee33c4	4.2313212e-13
129	0x2bfb9372	1.7875547e-12
130	0xae27fb8b	-3.819482e-11
131	0xac991cb3	-4.351708e-12
132	0xad6227f9	-1.2855488e-11
133	0x2bed0cf7	1.6843461e-12
134	0x2c2b68f5	2.4358824e-12
135	0x2a13a7dc	1.3114461e-13
136	0xad317373	-1.008692e-11
137	0x2b2d6bc0	6.161148e-13
138	0x2b5a1f84	7.7492895e-13
139	0x2bb8171c	1.30804e-12
140	0x2bf74663	1.7569942e-12
141	0x293dc13f	4.2134045e-14
142	0x2c172c86	2.1483106e-12
143	0xab9c436f	-1.1103183e-12
144	0x29d72795	9.5547844e-14
145	0xacf362fa	-6.917464e-12
146	0x2b82b401	9.287017e-13
147	0x2c58d21e	3.0812085e-12
148	0x2adbbd2f	3.9033487e-13
149	0xaac870a2	-3.5605292e-13
150	0xacb1c320	-5.052306e-12
151	0x2c3d1677	2.6870986e-12
152	0xac323fca	-2.5330731e-12
153	0xae11a05a	-3.3111604e-11
154	0x2bcd78da	1.4599669e-12
155	0x2cf6b9af	7.0123555e-12
156	0x2c209b98	2.282374e-12
157	0x2d08f38f	7.784786e-12
158	0xad90cff3	-1.6463253e-11
159	0xad0e5796	-8.0912135e-12
160	0x2b7a1321	8.884439e-13
161	0x2c300318	2.5012822e-12
162	0x2bcadf0f	1.4414874e-12
163	0xab397a94	-6.5895314e-13
164	0xab7d501d	-8.9994836e-13
165	0x2c3df5a7	2.699488e-12
166	0x2cf694fe	7.008282e-12
167	0x2910cc91	3.2151856e-14
168	0x2d0dbd6b	8.056981e-12
169	0x2d8fa711	1.633141e-11
170	0x2a63d33b	2.0234935e-13
171	0xad3d6753	-1.0766349e-11
172	0x2baa4517	1.2098403e-12
173	0x2c773e4b	3.513539e-12
174	0x2c27bf66	2.3838375e-12
175	0x2d193ffb	8.71125e-12
176	0x2c38ae95	2.6244885e-12
177	0x2c35935f	2.5803454e-12
178	0x2d50b573	1.1863721e-11
179	0x2c9a1e61	4.380316e-12
180	0xab9ccb9b	-1.1140979e-12
181	0xab5b7f09	-7.7980726e-13
182	0x2c712655	3.4269438e-12
183	0x2bead8f1	1.6686913e-12
184	0x2c5ba681	3.12142e-12
185	0xaca39012	-4.6487337e-12
186	0xac52dfeb	-2.9967094e-12
187	0x2d82586d	1.4818558e-11
188	0xac14ed58	-2.1163817e-12
189	0x2bc94dea	1.4303534e-12
190	0x2af6a1f7	4.3810764e-13
191	0x2b794601	8.855972e-13
192	0xa9dfcb64	-9.938472e-14
193	0x2c914f36	4.129942e-12
194	0x2bd1891a	1.4888397e-12
195	0x2c87c8a9	3.8592085e-12
196	0x2d370e23	1.0405485e-11
197	0x2c5c80ca	3.1335373e-12
198	0x2c1f7492	2.2659969e-12
199	0xaa97822e	-2.6913319e-13
200	0xab913bc8	-1.0319462e-12
201	0x2acba998	3.6177723e-13
202	0x2d8b9fce	1.5873438e-11
203	0xae2ad7d5	-3.8845222e-11
204	0x2bba83f5	1.325272e-12
205	0x2a43a516	1.7376755e-13
206	0x2b4357e6	6.93999e-13
207	0xabdf7c1e	-1.5879552e-12
208	0x2a2d8a16	1.5413395e-13
209	0x2c198af5	2.1819744e-12
210	0xab561545	-7.605759e-13
211	0x2b7872a5	8.82664e-13
212	0x2a979b72	2.693085e-13
213	0x2d9bb391	1.7701203e-11
214	0x2b50c7e7	7.4173865e-13
215	0x2ac2e375	3.4619153e-13
216	0x2c7a25f3	3.5548203e-12
217	0x2c7972b3	3.54487e-12
218	0x2c3f1001	2.7151616e-12
219	0x2a85f0ef	2.3792727e-13
220	0x2c44ba5b	2.7956723e-12
221	0xab05a16b	-4.7475104e-13
222	0xac818d26	-3.682071e-12
223	0xaaffce9e	-4.544047e-13
224	0xac17bcb6	-2.1563146e-12
225	0xac2942a1	-2.405333e-12
226	0xa9fdb6d5	-1.1267173e-13
227	0xabf02d6d	-1.7065634e-12
228	0x2d99ca6d	1.7483981e-11
229	0x2c48498a	2.8462532e-12
230	0x2dc8365b	2.2761506e-11
231	0x2c37e56d	2.613322e-12
232	0x2bc90c55	1.4285332e-12
233	0x2d385c87	1.0479734e-11
234	0xabf10168	-1.712447e-12
235	0x2dc47d51	2.2338272e-11
236	0x2ce4983b	6.4970507e-12
237	0x2cc687eb	5.6425884e-12
238	0x2b1cc2df	5.569277e-13
239	0x2cb1ce86	5.0535713e-12
240	0x2d417c2c	1.09983515e-11
241	0x2c41303c	2.7453725e-12
242	0x2d836c3b	1.494104e-11
243	0xac2cad46	-2.4538856e-12
244	0x2d8a4b0e	1.5722115e-11
245	0xac74731d	-3.4738386e-12
246	0xad53e68d	-1.2045154e-11
247	0x2bf7eaed	1.7615611e-12
248	0xaa4bfca7	-1.8117678e-13
249	0x2c39283b	2.6312414e-12
250	0x2d0618e2	7.622543e-12
251	0x2b74b90a	8.6943007e-13
252	0x2b396141	6.586017e-13
253	0x2c5c236b	3.1283541e-12
254	0xacde7525	-6.322625e-12
255	0x2d83d3a9	1.4986972e-11

predict.predict.1.bias f4 [128]
0	0x2c768b0e	3.5035893e-12
1	0x0f2783f8	8.259152e-30
2	0x985f9148	-2.8895423e-24
3	0x80000499	-1.65e-42
4	0x12bd02bd	1.1928252e-27
5	0x0000085f	3.003e-42
6	0x00000750	2.623e-42
7	0x8f067afc	-6.630396e-30
8	0xbbb77da6	-0.0055996953
9	0x2545c3e0	1.7153391e-16
10	0x014b6dd9	3.7364023e-38
11	0x80000389	-1.268e-42
12	0x0000016b	5.09e-43
13	0xac457b9c	-2.8064e-12
14	0xbc724305	-0.0147864865
15	0xa20f5ad5	-1.94282e-18
16	0x00000cd6	4.605e-42
17	0x0000027a	8.88e-43
18	0x9e8aa87c	-1.4681002e-20
19	0xbb286140	-0.002569273
20	0x3d535838	0.051597804
21	0x0000087d	3.045e-42
22	0x80000ab3	-3.838e-42
23	0x80000791	-2.714e-42
24	0x8000037e	-1.253e-42
25	0x8000010f	-3.8e-43
26	0xb4883938	-2.5373606e-07
27	0xb9f8d974	-0.0004746426
28	0x34e28b23	4.2197016e-07
29	0xb80147fb	-3.0823034e-05
30	0x20b374ef	3.040116e-19
31	0xb98ff830	-0.0002746
32	0xb94b397f	-0.00019381008
33	0xb913cbba	-0.00014094907
34	0x0000049d	1.655e-42
35	0xbbeab487	-0.007162634
36	0x03363007	5.3540126e-37
37	0x3b9a1ffc	0.00470352
38	0xb0ba0a1f	-1.3536158e-09
39	0x000005c4	2.068e-42
40	0xb7adc2f1	-2.0713984e-05
41	0x800002ab	-9.57e-43
42	0x123780db	5.7903445e-28
43	0x0000108f	5.94e-42
44	0x8000014a	-4.62e-43
45	0x0000074b	2.616e-42
46	0x1f544187	4.494695e-20
47	0x8438f8d7	-2.1743358e-36
48	0x00001177	6.265e-42
49	0xb3c4e7da	-9.169135e-08
50	0x1ecbea33	2.1590324e-20
51	0x343517aa	1.6865548e-07
52	0x000006b0	2.399e-42
53	0x000000ab	2.4e-43
54	0xa2a2b982	-4.41066e-18
55	0xb0d4a9ab	-1.5473253e-09
56	0x36825316	3.8839744e-06
57	0xaebe754e	-8.661037e-11
58	0x000009e2	3.545e-42
59	0x989d1f3e	-4.0615095e-24
60	0x885ad3ce	-6.5850964e-34
61	0x369d1a13	4.682e-06
62	0x3ae69b72	0.0017593934
63	0x2b841d90	9.387369e-13
64	0x000009d9	3.533e-42
65	0xbaabbb11	-0.0013102015
66	0x0000086e	3.024e-42
67	0x800002a7	-9.51e-43
68	0x800008f8	-3.217e-42
69	0xb7c8546f	-2.3881175e-05
70	0x00077866	6.86039e-40
71	0x98a686c1	-4.304606e-24
72	0xb9b29071	-0.00034058423
73	0x80000820	-2.915e-42
74	0x00000264	8.58e-43
75	0x8982015a	-3.1297633e-33
76	0xba31154b	-0.0006755187
77	0xb180aa01	-3.7446175e-09
78	0x0000d4ea	7.6379e-41
79	0x8000020f	-7.38e-43
80	0x8000044d	-1.543e-42
81	0xaeb10628	-8.050122e-11
82	0x0000070b	2.527e-42
83	0x80000011	-2.4e-44
84	0x8000094a	-3.332e-42
85	0x80000e16	-5.053e-42
86	0x39154ce9	0.00014238399
87	0x000002de	1.029e-42
88	0x0000064d	2.26e-42
89	0x80000150	-4.71e-43
90	0x3e949df3	0.29026756
91	0xaf838c09	-2.3928262e-10
92	0x00000631	2.221e-42
93	0x00000858	2.993e-42
94	0xba3498f2	-0.00068892457
95	0x80000c2e	-4.369e-42
96	0x35ebc82d	1.7567123e-06
97	0x000004f4	1.777e-42
98	0x0000094c	3.335e-42
99	0x99a33e52	-1.6878976e-23
100	0x80000245	-8.14e-43
101	0xb9328a59	-0.00017026941
102	0x91a23c12	-2.5596115e-28
103	0x80003387	-1.8485e-41
104	0x800002b0	-9.64e-43
105	0xb8494587	-4.7986887e-05
106	0xa68d3d10	-9.800391e-16
107	0x0028ab23	3.734812e-39
108	0xb8189736	-3.638045e-05
109	0x9d8bcdbe	-3.7005726e-21
110	0x800001cc	-6.45e-43
111	0x00000023	4.9e-44
112	0x2c032b9f	1.8640434e-12
113	0x8947c073	-2.4044243e-33
114	0x2423acc6	3.5491336e-17
115	0x3ae4d533	0.0017458558
116	0x89021fbd	-1.5663104e-33
117	0x800012ec	-6.788e-42
118	0x2b91ef0f	1.0369222e-12
119	0x8778fd9f	-1.8731979e-34
120	0x000003bf	1.344e-42
121	0x8005aa64	-5.20302e-40
122	0xb992dcf6	-0.0002801192
123	0xab076774	-4.8105205e-13
124	0xbb5743e2	-0.0032846858
125	0x3b69b6a1	0.0035661834
126	0xa7116766	-2.0178845e-15
127	0x8000095c	-3.358e-42
