Results/GAT/saved_model/GAT_bst_2.pth (torch, 759482 bytes, 13 tensors)

gnn.gnn_layers.0.gat_conv.attn_l f4 [1, 8, 128]
000000 50 15 08 bc 62 69 19 3b fc 9f ec 3b 01 8f b9 3b
       -0.008305863 0.002340876 0.00722122 0.0056627993
000010 ce a7 ae 3b 26 90 45 bc e9 cd 8e bc 9a 7a 62 bb
       0.0053300625 -0.012058293 -0.01743217 -0.003455794
000020 6a c4 13 3a 83 ff 5d bb 06 4e b3 3b 9d 9f 2f bc
       0.0005636873 -0.003387422 0.0054719476 -0.010719207
000030 c9 37 a7 bc 38 99 25 3a 31 f5 90 3b 19 b5 ad bc
       -0.020412343 0.0006317082 0.0044237603 -0.021204518
000040 84 76 6c 3a 20 14 aa bb c4 6e 5d 3a 6e 13 19 bc
       0.0009020346 -0.0051903874 0.00084469863 -0.009343011
000050 06 54 ca 3b de fa 6c bb c4 e3 60 3a 2f b7 a6 ba
       0.006174567 -0.003616027 0.00085788616 -0.0012719388
000060 5a 65 41 bb 83 a8 5b 3c 9a c9 c4 3a ec 61 98 bc
       -0.0029509873 0.013406876 0.0015013695 -0.01860138
000070 a2 6d 95 bc ad 28 29 3b 2a 93 86 3b ca 1a e8 38
       -0.018240754 0.0025811598 0.004106899 0.00011067612
000080 20 9a 0a 3b d2 3e 04 3c d1 0c 4e bb dc 90 ab bc
       0.0021148995 0.008071618 -0.0031440745 -0.020943098
000090 cb 70 66 bc 8b e9 44 3c 4f 95 c0 bb d1 c9 87 3b
       -0.014064978 0.012018572 -0.005877174 0.0041439314
0000a0 7c b6 9c 3c 44 24 0f 3c 5b fb e3 bb 0d ff 34 b8
       0.019129984 0.008736674 -0.006957454 -4.315288e-05
0000b0 9c 81 51 bb 2f 1b 99 bb 97 c3 9b bb ce 9b d8 bc
       -0.0031968122 -0.00467243 -0.0047535407 -0.026441481
0000c0 e1 70 83 3b 34 e1 a6 ba 5a f3 c9 3b b8 80 22 bc
       0.004011259 -0.0012731911 0.006163043 -0.009918384
0000d0 ba 41 e0 3b d4 db 93 3b 28 fd 42 bc 09 d1 40 bc
       0.0068437727 0.0045122895 -0.0119011775 -0.011768588
0000e0 31 ce 4a 3c 4d 07 59 3a d0 4a ee 3a 2d 3b 22 3c
       0.012378261 0.0008278981 0.0018180255 0.009901804
0000f0 33 b2 02 3b a9 f9 f5 ba 55 a0 19 bc 66 8a 95 bc
       0.001994264 -0.0018766421 -0.009376605 -0.01825447
000100 f1 bc 90 bc 4c f9 45 3c da ff f9 ba 44 b2 70 bc
       -0.01766822 0.012083363 -0.0019073442 -0.014690939
000110 76 f8 95 3b c5 08 35 bc 2a 23 67 bc ae 55 89 b9
       0.004576738 -0.011049454 -0.014107505 -0.00026194513
000120 d4 54 33 b8 af 03 25 3b b5 b7 9b ba 74 d9 d8 bb
       -4.2755928e-05 0.0025179198 -0.001188031 -0.0066177193
000130 96 39 3b 36 52 a0 26 ba e4 2e a8 ba f3 7e 9c 3a
       2.789869e-06 -0.0006356287 -0.0012831357 0.0011939689
000140 e3 57 2c 3b 4c 9a 46 bc 9c 17 9b ba 93 15 9e bc
       0.0026297502 -0.012121748 -0.0011832598 -0.019297397
000150 b6 09 19 bc b3 06 2c 3b ef 91 4e 3b c1 55 ae b8
       -0.009340694 0.002624911 0.0031520089 -8.3129395e-05
000160 f9 49 93 3a d5 94 fd 39 72 7e 9f 3b 0d ac 80 3b
       0.0011237256 0.0004836681 0.0048673684 0.00392676
000170 3e a6 d8 3a 20 8a 5d bc 4d d3 b6 bb fd d5 6c ba
       0.0016529036 -0.013521701 -0.0055793882 -0.0009034572
000180 d1 15 b7 ba 4a cc 02 bb 23 8f 81 3b e7 4e e8 bc
       -0.0013968294 -0.0019958192 0.003953831 -0.028357936
000190 fd 17 0b 3c 5d d5 0e bc 6a 16 c2 bb f7 38 04 3b
       0.008489606 -0.008717862 -0.005923082 0.0020175555
0001a0 3c 5d b1 3b a1 dc a0 bc b4 be 31 3b c3 63 84 3a
       0.0054127257 -0.019636454 0.0027121725 0.0010100532
0001b0 49 cd 08 3c 37 3e d0 ba 07 ba 84 ba 19 bb 87 3a
       0.008349725 -0.0015887682 -0.0010126241 0.0010355442
0001c0 0d 89 d3 bb 4a 98 5a bc 95 5c f7 bc 61 8c bc 3b
       -0.0064555467 -0.013341973 -0.030195514 0.005754039
0001d0 03 a8 45 bc c9 cf b3 3c 39 99 ce bb c1 d4 a3 bb
       -0.012063983 0.021949666 -0.0063048867 -0.0049997275
0001e0 58 b4 c6 39 bd 15 53 3b 3e b1 b9 bc 70 60 30 bc
       0.0003789987 0.0032209002 -0.022667523 -0.01076518
0001f0 2c bc 4b bc ff ff 1c bc d3 bc c9 bb 63 46 11 3a
       -0.012435 -0.009582519 -0.006156543 0.00055417995
000200 22 3a 87 ba d7 ba fd 3a f1 e4 04 3a 84 cf c5 b8
       -0.0010317008 0.0019358051 0.00050695153 -9.432345e-05
000210 c4 9e a5 38 39 27 27 bb c7 be 13 bb 6a a5 2f b9
       7.8973855e-05 -0.0025505556 -0.0022544132 -0.00016750922
000220 7c 72 67 ba e7 f5 86 ba d1 24 dd b9 6a 0c 31 bb
       -0.000882901 -0.0010296673 -0.00042179835 -0.0027015456
000230 97 09 87 bb f2 4e 5b bb 30 f1 64 b9 83 c6 3f bb
       -0.0041210162 -0.0033463803 -0.00021833624 -0.002926261
000240 ff 83 6e 39 48 4e 2e ba 55 be 59 3a bb a7 51 bb
       0.00022746621 -0.0006649238 0.0008306255 -0.0031990844
000250 84 d5 ae 39 cb 6f 34 ba 34 20 23 bb 5a 1e e5 b8
       0.00033346948 -0.00068831135 -0.002489102 -0.00010925224
000260 01 b1 47 ba cb dc 11 3b 94 fa d5 b9 b5 8b 5c bb
       -0.0007617623 0.0022256847 -0.0004081322 -0.0033652608
000270 02 74 9b bb 1f 4b 57 38 9b f6 40 3a 62 99 a9 b9
       -0.004744054 5.1329956e-05 0.0007360966 -0.0003234847
000280 8a 54 74 39 72 c0 55 ba 91 f9 1b 3a f9 6b f7 ba
       0.00023301147 -0.0008153982 0.0005949969 -0.0018876783
000290 ba 39 a1 ba 2d 7b bc 39 fd 86 0d bb 32 f0 a4 3a
       -0.0012300529 0.00035949927 -0.0021595352 0.0012583791
0002a0 a2 9f e4 3a ad 71 ed 3a 29 6a 48 bb d4 23 b5 b9
       0.0017442594 0.0018115543 -0.0030580855 -0.00034549704
0002b0 91 f2 44 b9 14 f9 e0 3a 2b c7 fc ba 74 cf 92 bb
       -0.0001878238 0.0017164075 -0.0019285431 -0.0044802967
0002c0 79 b6 50 3a 6b b0 e5 35 04 5e 5b 3b 7e 99 db ba
       0.0007961761 1.7113174e-06 0.0033472786 -0.0016754118
0002d0 cd 82 ba ba 82 aa e8 38 3f a3 01 bb 87 1a 51 bb
       -0.0014229655 0.000110943816 -0.001978114 -0.003190668
0002e0 90 7f af 39 16 1b 33 b9 99 a1 37 ba ed 53 00 3b
       0.00033473643 -0.0001708086 -0.0007004976 0.0019581274
0002f0 2e f0 c9 39 c6 56 de 39 70 6e 14 bb 1d 31 63 bb
       0.00038516655 0.0004240779 -0.0022648834 -0.0034666725
000300 7b 3f 85 bb c1 e3 15 3b 65 75 87 ba 9c 04 17 bb
       -0.0040664054 0.0022871348 -0.0010334669 -0.002304352
000310 ba 2f 32 ba 63 5e e4 ba ca 29 36 bb 95 df 96 3a
       -0.0006797273 -0.0017423149 -0.0027795904 0.0011510724
000320 8a 9b 40 3a 75 0b be 39 53 08 00 ba 72 cf 72 ba
       0.0007347396 0.0003624816 -0.0004884053 -0.0009262479
000330 c6 2d 70 b9 40 c8 2c ba 2e 03 23 ba 98 d9 14 ba
       -0.00022905236 -0.0006591119 -0.00062184304 -0.0005678176
000340 ab d8 fc 39 a4 1c 04 b8 f2 4f 06 ba e1 12 a7 bb
       0.00048226616 -3.1497926e-05 -0.0005123607 -0.005098686
000350 cf e2 d2 ba a2 14 65 b9 4e 7b 75 38 46 90 8f b9
       -0.0016089323 -0.00021846828 5.852739e-05 -0.00027382578
000360 3b ea c2 b9 b3 07 9c 39 3d 5a e7 3a 38 0f 95 3a
       -0.0003717708 0.00029760375 0.0017650794 0.0011372333
000370 78 32 43 ba f5 24 1f bb 19 33 02 3a e2 5c 7a ba
       -0.000744618 -0.0024283503 0.00049667206 -0.0009550584
000380 ba a9 ac b9 aa c1 4a ba 1f 08 78 39 e6 31 d7 bb
       -0.00032932853 -0.00077345467 0.00023654148 -0.0065672277
000390 de ac ce 3a 52 f6 aa ba 21 8b 9e ba da aa 6c 3a
       0.0015768071 -0.001304338 -0.0012095907 0.00090281444
0003a0 9e 6a 07 b9 59 2a 64 bb c3 c1 90 3a 52 71 96 ba
       -0.00012914321 -0.003481528 0.0011044074 -0.0011477864
0003b0 66 25 bb 3a 42 b4 ad ba 60 1a 8a b9 11 1a a8 39
       0.0014278113 -0.0013252574 -0.00026341062 0.00032062878
0003c0 41 ff 88 b9 11 a9 7e bb 5b d8 e8 bb 41 84 87 3a
       -0.0002613012 -0.0038858096 -0.0071058697 0.0010339097
0003d0 d3 d2 4a bb 8a 89 2a 3b ec 90 92 ba 5d a5 af ba
       -0.0030948415 0.002602192 -0.0011182106 -0.0013400723
0003e0 73 ec d5 37 de a4 0a 3b eb 09 a0 bb 18 c4 26 bb
       2.5501684e-05 0.0021155397 -0.004883995 -0.002544647
0003f0 c4 7b 0c bb 20 0d 83 b9 9b 9b 97 ba 9a 5a 7f b9
       -0.0021436075 -0.00024996046 -0.001156676 -0.00024352447

gnn.gnn_layers.0.gat_conv.attn_r f4 [1, 8, 128]
000000 b9 fa 51 3a 44 20 0d bb c6 8c 95 ba bf 17 b8 b9
       0.0008010078 -0.0021534124 -0.0011409752 -0.00035112907
000010 80 e4 8e 3a e8 b7 83 3a 7d 19 6d 3b 7f 71 d1 3a
       0.0010901839 0.0010049315 0.0036178522 0.0015979259
000020 54 48 34 3a 4b c7 aa 3a 4e 61 f4 38 42 99 2b 3b
       0.0006877233 0.0013029365 0.00011652951 0.0026183878
000030 1a d2 17 3b 70 a1 74 3a 2d 81 ca b7 1c 19 80 b8
       0.0023166002 0.00093319174 -2.4140429e-05 -6.1081926e-05
000040 1a 37 b1 39 e0 6d c7 39 fd 82 19 bb 02 d6 2a b9
       0.00033801125 0.000380381 -0.0023424022 -0.00016292188
000050 f9 4d cf ba bc f0 bf 39 03 a4 4a 3a 88 6f c4 ba
       -0.0015816084 0.0003660972 0.0007730128 -0.0014986852
000060 0a 9d 62 3a b6 c3 2a bb 42 d3 a5 39 b7 fa c7 ba
       0.00086446165 -0.0026056594 0.00031628652 -0.0015257214
000070 c7 20 d2 3a 16 9c 49 ba 0d 04 52 ba 26 83 61 3a
       0.0016031497 -0.00076908 -0.0008011468 0.00086026115
000080 c0 37 f9 b9 e2 3b 04 bb c9 63 05 38 3f 11 5b 3a
       -0.00047534518 -0.0020177295 3.1802603e-05 0.0008356757
000090 42 bd 03 ba eb 47 d9 39 de fa d4 3a 39 25 ae ba
       -0.0005025455 0.00041443048 0.0016249081 -0.001328624
0000a0 03 15 c5 ba eb 14 3e ba 7e c4 e2 3a 17 e8 bb 3a
       -0.0015036169 -0.0007251042 0.0017300991 0.0014336136
0000b0 44 8e 90 39 ed d3 a4 ba 2c 9b 13 3b fe e7 23 3b
       0.00027571816 -0.0012575366 0.002252291 0.0025010104
0000c0 23 ed df 38 c9 eb 6b 3a df e0 0a ba 15 5a 74 3b
       0.00010677639 0.00089996733 -0.00052977906 0.0037285138
0000d0 ed 8a 19 bb ab 83 45 bb 05 25 34 3b f7 29 9f ba
       -0.0023428753 -0.0030138295 0.0027487886 -0.0012143244
0000e0 9b 7c 23 bb 24 91 90 b9 73 dc 42 bb 1e f5 eb ba
       -0.0024946097 -0.00027573959 -0.0029733449 -0.0018002128
0000f0 3b e9 1a 39 27 31 17 ba 22 0d a7 39 cb 4d 8d 3b
       0.0001477347 -0.0005767517 0.00031862507 0.004312252
000100 49 0b 58 3a 9c 41 ad ba a7 82 d1 b8 00 88 03 3b
       0.0008241428 -0.0013218406 -9.9902325e-05 0.0020070076
000110 14 51 34 3a 4d 19 a4 bb 58 a3 3f 3a 3d bb 66 3a
       0.00068785367 -0.005007899 0.0007310412 0.00088017044
000120 ab cd c7 b9 01 3f 0c ba 4a 18 73 3a 3a 0f 7a 3b
       -0.00038109472 -0.00053499645 0.00092733337 0.0038156048
000130 c5 85 cf ba ad cc 49 3a e5 a5 a2 38 37 1d b8 35
       -0.0015832713 0.00076980406 7.755662e-05 1.3717571e-06
000140 6b 11 b7 39 41 4a 1a 3b 39 c2 38 38 03 3a 45 ba
       0.00034917457 0.0023542794 4.4049902e-05 -0.0007523598
000150 d9 75 88 3a f0 53 d0 39 c6 2e 07 ba ab 3c f2 39
       0.0010411098 0.0003973539 -0.0005156811 0.00046203038
000160 82 cc 68 b8 53 c4 06 3b d1 fe ac 38 ed d9 3f bb
       -5.5503573e-05 0.0020563796 8.2490624e-05 -0.002927418
000170 da 81 08 3a 30 e4 d4 3a f8 44 92 3a 71 ac a8 b9
       0.00052073377 0.0016242322 0.001115947 -0.00032171936
000180 ba 86 59 3a 12 92 65 b9 dc 65 ab ba bd c6 e5 3a
       0.0008297969 -0.00021893557 -0.0013076621 0.0017530542
000190 fb 88 22 bb 57 a4 0b 3b 38 2d 3b 3a 9c d3 b1 39
       -0.0024800885 0.002130767 0.0007140222 0.00033917732
0001a0 7a d8 f1 38 0b bc ce 3a 51 e3 47 bb d9 26 80 39
       0.000115320974 0.0015772594 -0.0030500481 0.00024443006
0001b0 a1 f8 a3 ba 8a 22 09 bb 93 08 d0 b9 27 48 4e 3a
       -0.001251001 -0.0020925128 -0.0003967924 0.0007869028
0001c0 02 c6 ec 3a 2d ff a3 3a bb 0f 98 3a 09 b0 f6 b8
       0.0018064382 0.0012511961 0.0011601368 -0.00011762983
0001d0 b8 b3 13 38 e7 2e 9d ba f9 b6 aa 39 90 80 8e 3a
       3.5214907e-05 -0.0011992127 0.00032561252 0.0010872055
0001e0 6f 88 50 b9 6b 61 ec ba e0 19 1e 38 81 94 00 3b
       -0.00019887251 -0.0018034404 3.7694233e-05 0.0019619765
0001f0 e5 e5 3a 3b 58 46 1a 3b d4 c9 b7 3a 9b d3 d8 3a
       0.0028518375 0.0023540463 0.0014021941 0.0016542556
000200 d9 95 51 3a 06 a3 62 b8 dd 8c 37 b9 32 bc 08 ba
       0.00079950463 -5.4034426e-05 -0.00017504716 -0.00052160316
000210 6f 4b 9b 3a de 26 68 3a 44 13 38 3a 25 9b 43 3a
       0.0011848042 0.00088558893 0.0007021914 0.0007461778
000220 d2 dc 22 ba 0d 19 96 37 60 9d 28 ba c2 ad 09 3b
       -0.00062127144 1.7893059e-05 -0.0006432142 0.0021008109
000230 b6 33 24 3b e0 fa 06 3b 7b 65 81 ba 2c fe e5 3a
       0.0025055236 0.002059631 -0.0009872162 0.0017547063
000240 e9 0e e6 ba ec 5c 80 ba f0 5f 9a ba 36 a7 88 ba
       -0.0017552051 -0.0009793318 -0.0011777859 -0.0010425809
000250 03 4e 87 3a 9d 8b eb b9 54 d1 b0 3a b3 29 a6 39
       0.0010322932 -0.00044926713 0.0013490119 0.00031693056
000260 67 94 97 ba 1a c0 94 ba 52 47 2b 3b 21 d3 1f 3b
       -0.0011564613 -0.0011348755 0.002613504 0.0024387317
000270 2f c1 c3 3b 91 fc 2c 3b af 69 41 ba 78 96 80 ba
       0.005973957 0.0026395658 -0.0007378114 -0.0009810468
000280 87 5a cf b9 bd de 9c 39 7f e2 b7 39 a5 12 8e 3b
       -0.00039549565 0.00029920592 0.00035073233 0.0043357187
000290 09 a7 6b 3b 09 00 9b ba 04 2e 21 b6 6a 73 cf ba
       0.0035957715 -0.0011825572 -2.4017654e-06 -0.0015827243
0002a0 25 84 10 bb d1 01 05 bb c6 47 99 3a 63 12 d7 39
       -0.002205142 -0.0020295272 0.0011694364 0.00041021695
0002b0 df f8 34 39 f4 60 7a ba e3 3a 8a 3a 3e a5 29 3b
       0.0001725885 -0.00095511903 0.0010546114 0.0025885846
0002c0 df c9 76 39 cf 62 10 39 45 22 83 39 ed bc a1 39
       0.00023535591 0.00013769719 0.000250118 0.00030849074
0002d0 40 8c e5 ba 6c 81 cf ba 39 69 8e 3a 16 ba 43 3b
       -0.0017513111 -0.0015831417 0.0010865099 0.0029865555
0002e0 a1 50 2b 3a bc 56 92 b9 24 f3 95 ba 86 ad fd b9
       0.0006535147 -0.00027911912 -0.0011440259 -0.00048385205
0002f0 4b a8 14 b9 5f 85 1d 39 10 42 b3 3a 04 4a 31 3b
       -0.00014177074 0.00015022371 0.0013676304 0.0027052173
000300 e2 61 64 3b 32 48 72 38 1c ee d4 39 23 9c 9c 3b
       0.0034848382 5.7764533e-05 0.00040613196 0.004779355
000310 db 71 2e b9 cd e8 48 bb e3 39 6d 3b 70 e1 b0 3a
       -0.00016636348 -0.0030656338 0.0036197833 0.001349492
000320 e1 51 0d 3a a3 ba 79 b8 6b 64 e6 39 eb 5e eb b7
       0.0005390924 -5.9540045e-05 0.00043943836 -2.8058383e-05
000330 67 c8 01 b9 56 66 88 b9 91 59 f6 38 9c 0e 44 3a
       -0.00012377054 -0.00026016188 0.00011746877 0.00074789836
000340 57 c2 a3 3a dd 94 d7 ba 79 94 38 b9 9b 41 5d 3b
       0.0012493831 -0.0016447563 -0.00017602918 0.0033761028
000350 c4 fc 2e 39 d5 37 d0 39 ae 0f 83 39 d4 a2 40 b9
       0.00016688096 0.0003971445 0.0002499795 -0.00018371205
000360 0e 99 48 ba 93 62 17 ba ff 10 f5 ba ba 33 81 b9
       -0.00076522015 -0.00057748816 -0.0018697082 -0.00024643337
000370 07 40 58 b9 37 53 a6 3a ac 14 11 3a 17 29 f5 38
       -0.00020623217 0.0012689595 0.00055343914 0.00011690164
000380 61 6c 76 b9 c3 19 a0 39 0c 08 0e 3a df 2a 58 3b
       -0.00023500762 0.00030536772 0.0005418069 0.0032984538
000390 00 a8 50 b9 8e 47 32 39 9a 10 96 b8 24 e8 69 3a
       -0.0001989901 0.00017002059 -7.15565e-05 0.0008922836
0003a0 69 80 3c 39 b1 77 a9 3b e3 9e 74 3a 29 d3 a3 3a
       0.00017976914 0.005171739 0.00093315373 0.0012498844
0003b0 40 74 8f ba 87 eb 91 3a 3c 59 ac b7 be 2b 2c b9
       -0.0010944679 0.0011132815 -2.054555e-05 -0.00016419493
0003c0 d9 7b ee 3a e7 d4 0d 39 12 8b 63 3b 74 26 de ba
       0.0018194868 0.0001352612 0.0034720344 -0.0016948716
0003d0 aa 0c 64 3b fe cd 8b bb 66 9c 86 3a ac ca d6 b9
       0.0034797587 -0.0042664995 0.0010269999 -0.00040968263
0003e0 dc d5 27 39 4f 53 b1 39 77 f1 02 3b a6 0e e4 3a
       0.0001600603 0.0003382214 0.001998035 0.0017399385
0003f0 f1 5e 7a 3a 53 5f cd 3a 07 c1 0b 3a 34 fb d1 39
       0.00095508905 0.0015668668 0.00053311925 0.00040050747

gnn.gnn_layers.0.gat_conv.bias f4 [1024]
000000 db 0e 7b bc 6c 8b 1e 3c 29 bf b1 3c c0 93 54 3c
       -0.015323366 0.009676795 0.021697598 0.0129746795
000010 5e ac c6 3c 6d 75 a5 bb f2 0f 01 bd 34 a1 25 bc
       0.024252113 -0.0050493986 -0.031509347 -0.010109235
000020 49 86 33 3c fe 9d 07 bc 30 01 27 3c a0 81 04 bd
       0.010957309 -0.008277414 0.010193154 -0.032350183
000030 7e 94 92 bd a0 ca e0 3b 8d 4c 1f bc 3c 2b a2 bc
       -0.07157229 0.0068600923 -0.009722841 -0.019796006
000040 5e ee 50 3b 70 e5 20 bc 9e 3d 12 3b f4 29 b0 bb
       0.003188036 -0.009820327 0.0022314559 -0.005376095
000050 3a 20 7e 3c 3c 22 b4 bb 18 a3 86 3b 16 9e 37 b9
       0.015510613 -0.005497245 0.0041087978 -0.00017511132
000060 be fc 04 bc 66 32 14 3d 79 90 9a ba 4e b8 a1 bc
       -0.008116899 0.036180876 -0.0011792324 -0.019741204
000070 a5 79 9f bc 59 5c 90 37 6d 21 d0 3b 80 d5 df ba
       -0.019467184 1.720914e-05 0.006351641 -0.0017077178
000080 bf 7a 18 3c 3f 7a 63 3b c6 f4 94 bc d6 08 15 bd
       0.009306609 0.0034710316 -0.018183123 -0.03638538
000090 66 27 b8 bc 06 a6 4f bb 57 10 6a bc 65 48 a9 3c
       -0.022479724 -0.003168465 -0.014286122 0.020664403
0000a0 9f ad 37 bd cf c3 bf 3c 91 67 65 bb 28 d9 30 3c
       -0.044843312 0.023408799 -0.0035004357 0.010793962
0000b0 f2 11 cc bb a6 99 cd bb 9d 65 29 bc 9a 18 89 bc
       -0.006227725 -0.00627442 -0.010339168 -0.016735364
0000c0 a5 66 7a 3c ea 75 a8 ba 18 32 42 3c 06 1a b5 bc
       0.015283261 -0.0012852524 0.011852764 -0.022107136
0000d0 ea 43 9c 3c 8e b9 e7 bc 75 0d 0e bd 6f 37 38 bc
       0.019075353 -0.028286722 -0.034680802 -0.011243685
0000e0 48 05 09 3d be 61 5c 39 3b b3 9d 3c 1f c8 b2 3c
       0.033452302 0.00021017247 0.019250503 0.02182394
0000f0 31 05 9c 3b 39 c5 ff bb a9 14 9e bb cb 5b 45 bd
       0.004761361 -0.007805493 -0.00482424 -0.048183244
000100 f0 82 a2 bb dd f8 fc 3c a4 aa 90 bb d5 49 ef bc
       -0.0049594566 0.030880386 -0.004414873 -0.02921001
000110 7e ed 29 bc 1b 57 13 bd 91 28 18 bc 60 fc 52 3c
       -0.010371564 -0.035971742 -0.009287016 0.012877554
000120 85 28 ab b9 da 33 cf 3b e0 13 83 ba f5 55 03 bd
       -0.0003264585 0.00632332 -0.001000043 -0.032064397
000130 c6 6d 3a 3b 7d ee a2 bb 1a 4a 84 bb 63 6c c5 3a
       0.0028446778 -0.0049722777 -0.004037154 0.0015062209
000140 76 c1 1a 3c cc 48 e6 bc 6e ee 48 bb 5f d2 b3 bc
       0.009445539 -0.028110884 -0.0030659693 -0.021950899
000150 07 44 c5 bc 8d f0 b2 bb 15 15 bb 3a cf 8d ff 3a
       -0.02408029 -0.005460805 0.0014273251 0.0019497218
000160 78 61 d6 3b fe e8 07 bb 6b d5 6e 3c 55 1a 4b 3c
       0.006542381 -0.002073824 0.01457725 0.012396415
000170 f6 ca c4 3c 6c 0f 21 bd dc a7 df bb 83 d4 98 bb
       0.02402256 -0.039321348 -0.0068254303 -0.0046640052
000180 5b e4 b9 bb f0 a9 9d 3a 1c c0 c4 3c 02 76 92 bc
       -0.005672974 0.0012028795 0.024017386 -0.017878536
000190 ba 0c e6 3c b5 c8 7e bc d1 a8 29 bc 97 20 9a 3b
       0.02808224 -0.015550782 -0.01035519 0.004703592
0001a0 63 7d a3 3c 40 97 a3 bc da 9b 08 3c 24 bd 45 bc
       0.01995725 -0.019969583 0.008337939 -0.01206902
0001b0 1d 22 ac 3c d3 8c e4 39 13 59 1f bb a0 c2 89 ba
       0.02101236 0.0004359247 -0.0024314567 -0.0010510273
0001c0 e5 37 f5 bc 3b 22 51 bd 50 26 9d bd be 03 f2 3b
       -0.02993388 -0.051058035 -0.07673323 0.0073857
0001d0 83 e8 4e 3a 9f df 0d bd 2f db 96 bc f5 d2 80 bc
       0.00078929233 -0.03463709 -0.018415062 -0.015725592
0001e0 e9 6d a2 3a 7f a5 49 3c c2 33 73 bc a9 cd aa bc
       0.0012392375 0.012307524 -0.014843883 -0.02085002
0001f0 3d 22 4c bd ac c7 b5 bc b0 a4 96 bc a2 b3 29 bc
       -0.04983734 -0.022189938 -0.018389076 -0.010357769
000200 db 0e 7b bc 6c 8b 1e 3c 29 bf b1 3c c0 93 54 3c
       -0.015323366 0.009676795 0.021697598 0.0129746795
000210 5e ac c6 3c 6d 75 a5 bb f2 0f 01 bd 34 a1 25 bc
       0.024252113 -0.0050493986 -0.031509347 -0.010109235
000220 49 86 33 3c fe 9d 07 bc 30 01 27 3c a0 81 04 bd
       0.010957309 -0.008277414 0.010193154 -0.032350183
000230 7e 94 92 bd a0 ca e0 3b 8d 4c 1f bc 3c 2b a2 bc
       -0.07157229 0.0068600923 -0.009722841 -0.019796006
000240 5e ee 50 3b 70 e5 20 bc 9e 3d 12 3b f4 29 b0 bb
       0.003188036 -0.009820327 0.0022314559 -0.005376095
000250 3a 20 7e 3c 3c 22 b4 bb 18 a3 86 3b 16 9e 37 b9
       0.015510613 -0.005497245 0.0041087978 -0.00017511132
000260 be fc 04 bc 66 32 14 3d 79 90 9a ba 4e b8 a1 bc
       -0.008116899 0.036180876 -0.0011792324 -0.019741204
000270 a5 79 9f bc 59 5c 90 37 6d 21 d0 3b 80 d5 df ba
       -0.019467184 1.720914e-05 0.006351641 -0.0017077178
000280 bf 7a 18 3c 3f 7a 63 3b c6 f4 94 bc d6 08 15 bd
       0.009306609 0.0034710316 -0.018183123 -0.03638538
000290 66 27 b8 bc 06 a6 4f bb 57 10 6a bc 65 48 a9 3c
       -0.022479724 -0.003168465 -0.014286122 0.020664403
0002a0 9f ad 37 bd cf c3 bf 3c 91 67 65 bb 28 d9 30 3c
       -0.044843312 0.023408799 -0.0035004357 0.010793962
0002b0 f2 11 cc bb a6 99 cd bb 9d 65 29 bc 9a 18 89 bc
       -0.006227725 -0.00627442 -0.010339168 -0.016735364
0002c0 a5 66 7a 3c ea 75 a8 ba 18 32 42 3c 06 1a b5 bc
       0.015283261 -0.0012852524 0.011852764 -0.022107136
0002d0 ea 43 9c 3c 8e b9 e7 bc 75 0d 0e bd 6f 37 38 bc
       0.019075353 -0.028286722 -0.034680802 -0.011243685
0002e0 48 05 09 3d be 61 5c 39 3b b3 9d 3c 1f c8 b2 3c
       0.033452302 0.00021017247 0.019250503 0.02182394
0002f0 31 05 9c 3b 39 c5 ff bb a9 14 9e bb cb 5b 45 bd
       0.004761361 -0.007805493 -0.00482424 -0.048183244
000300 f0 82 a2 bb dd f8 fc 3c a4 aa 90 bb d5 49 ef bc
       -0.0049594566 0.030880386 -0.004414873 -0.02921001
000310 7e ed 29 bc 1b 57 13 bd 91 28 18 bc 60 fc 52 3c
       -0.010371564 -0.035971742 -0.009287016 0.012877554
000320 85 28 ab b9 da 33 cf 3b e0 13 83 ba f5 55 03 bd
       -0.0003264585 0.00632332 -0.001000043 -0.032064397
000330 c6 6d 3a 3b 7d ee a2 bb 1a 4a 84 bb 63 6c c5 3a
       0.0028446778 -0.0049722777 -0.004037154 0.0015062209
000340 76 c1 1a 3c cc 48 e6 bc 6e ee 48 bb 5f d2 b3 bc
       0.009445539 -0.028110884 -0.0030659693 -0.021950899
000350 07 44 c5 bc 8d f0 b2 bb 15 15 bb 3a cf 8d ff 3a
       -0.02408029 -0.005460805 0.0014273251 0.0019497218
000360 78 61 d6 3b fe e8 07 bb 6b d5 6e 3c 55 1a 4b 3c
       0.006542381 -0.002073824 0.01457725 0.012396415
000370 f6 ca c4 3c 6c 0f 21 bd dc a7 df bb 83 d4 98 bb
       0.02402256 -0.039321348 -0.0068254303 -0.0046640052
000380 5b e4 b9 bb f0 a9 9d 3a 1c c0 c4 3c 02 76 92 bc
       -0.005672974 0.0012028795 0.024017386 -0.017878536
000390 ba 0c e6 3c b5 c8 7e bc d1 a8 29 bc 97 20 9a 3b
       0.02808224 -0.015550782 -0.01035519 0.004703592
0003a0 63 7d a3 3c 40 97 a3 bc da 9b 08 3c 24 bd 45 bc
       0.01995725 -0.019969583 0.008337939 -0.01206902
0003b0 1d 22 ac 3c d3 8c e4 39 13 59 1f bb a0 c2 89 ba
       0.02101236 0.0004359247 -0.0024314567 -0.0010510273
0003c0 e5 37 f5 bc 3b 22 51 bd 50 26 9d bd be 03 f2 3b
       -0.02993388 -0.051058035 -0.07673323 0.0073857
0003d0 83 e8 4e 3a 9f df 0d bd 2f db 96 bc f5 d2 80 bc
       0.00078929233 -0.03463709 -0.018415062 -0.015725592
0003e0 e9 6d a2 3a 7f a5 49 3c c2 33 73 bc a9 cd aa bc
       0.0012392375 0.012307524 -0.014843883 -0.02085002
0003f0 3d 22 4c bd ac c7 b5 bc b0 a4 96 bc a2 b3 29 bc
       -0.04983734 -0.022189938 -0.018389076 -0.010357769

gnn.gnn_layers.0.gat_conv.fc.weight f4 [1024, 74]
000000 d4 b1 e5 b9 11 99 2c 3c 71 2b cb bb 1c c3 a9 bb
       -0.00043810776 0.010534541 -0.006200247 -0.0051807296
000010 68 4a 2b bc ea 20 02 bb 9f 2b 7c 3b e0 85 07 bb
       -0.010454752 -0.0019856044 0.0038478149 -0.002067916
000020 2a 62 23 b7 d0 c5 80 9b 12 84 44 1b df 88 43 1b
       -9.738413e-06 -2.1303657e-22 1.6255414e-22 1.6174247e-22
000030 4b 62 8d 99 d8 58 0d 9b 59 bf 38 1a 3b 16 80 ba
       -1.4618759e-23 -1.1691954e-22 3.8204878e-23 -0.000977225
000040 de d4 52 9a e2 04 5a 19 19 39 00 1a dd 45 9e 9b
       -4.3598935e-23 1.1271322e-23 2.6515903e-23 -2.6184055e-22
000050 1f 6f 6f 1a ab 40 1d 1a cf 40 40 9c 77 70 88 19
       4.9513805e-23 3.2519077e-23 -6.3611234e-22 1.4107495e-23
000060 4f d5 16 19 8d db 99 9c 05 f5 d8 9a da de a0 9b
       7.7978956e-24 -1.0181443e-21 -8.9731357e-23 -2.6613794e-22
000070 64 2c 67 1b 93 06 9a ba 66 7d 5a 1a 6f b8 4f 9b
       1.9122216e-22 -0.0011751227 4.518264e-23 -1.7182232e-22
000080 18 d1 12 99 bc d6 10 1a a2 07 fc 98 13 8d 8b 19
       -7.590249e-24 2.9951963e-23 -6.514818e-24 1.4429243e-23
000090 04 23 ae 9a 3d 88 1a 9a e6 fd 6c 9a fe 4c 3d 9a
       -7.2021284e-23 -3.1956506e-23 -4.9008754e-23 -3.9146478e-23
0000a0 56 08 99 98 3d 14 80 1b 8a 17 70 99 a5 c5 8b 19
       -3.955799e-24 2.1188902e-22 -1.2412463e-23 1.4452091e-23
0000b0 86 a1 fa bb 85 14 47 bc 68 58 ad bb 10 90 bd bb
       -0.0076486496 -0.012150888 -0.00529008 -0.005784996
0000c0 2f ff 12 9c ef 33 73 39 e0 63 f2 99 71 dd ce 19
       -4.8637165e-22 0.00023193633 -2.5062553e-23 2.138934e-23
0000d0 57 d8 a3 1a 89 0c d4 1b e1 82 94 bb 00 2c 5b bc
       6.7764736e-23 3.5080559e-22 -0.0045322035 -0.01337719
0000e0 70 2c 6a 3a 64 5b b9 bb 9a 1c 8c 1a 3a 55 da 99
       0.00089330133 -0.0056566466 5.794885e-23 -2.2575094e-23
0000f0 91 b7 69 1a 90 9a 3b ba f3 73 56 1a 76 f3 40 3b
       4.8331554e-23 -0.00071565155 4.4347826e-23 0.002944199
000100 2b 29 c3 bc 4b b3 0e 3c 56 88 b8 99 42 84 25 39
       -0.023823341 0.008709739 -1.908022e-23 0.00015784896
000110 58 13 97 bc 4d 0b 97 bc 27 d6 fc 3b a5 0a c6 3b
       -0.018441841 -0.018438006 0.0077159586 0.0060437494
000120 71 97 cb bb 57 8c 52 1a 13 16 3f 3b 7b 42 40 3b
       -0.0062131216 4.3540348e-23 0.0029157444 0.00293365
000130 77 66 d5 3b 13 ff c6 bb 73 27 9d bb 36 20 bf b9
       0.006512459 -0.0060728877 -0.0047959625 -0.00036454358
000140 e5 d2 fa ba 81 6e 82 bb 94 d8 29 b8 59 a6 1d 9b
       -0.0019136338 -0.0039804582 -4.0494444e-05 -1.3040485e-22
000150 11 0f 99 1a 99 73 08 1b 75 34 3d 1a 05 e7 45 1b
       6.330366e-23 1.1287008e-22 3.9126658e-23 1.6370105e-22
000160 0f 98 09 1a 22 37 6a 3a 7e 64 ff 1a a5 5a 16 9a
       2.8453768e-23 0.0008934607 1.0562788e-22 -3.1092495e-23
000170 e5 12 a9 98 78 e1 9e 98 60 ef 35 99 28 fc fe 1a
       -4.3704555e-24 -4.1069708e-24 -9.405822e-24 1.0545932e-22
000180 7b 01 28 9a d7 55 3b 99 97 92 47 98 3a 3a 1d 9a
       -3.4742782e-23 -9.685009e-24 -2.5794156e-24 -3.2513874e-23
000190 e0 f2 3c 19 68 97 15 1a 5b e9 7d 1a e9 55 21 b9
       9.7684204e-24 3.0934783e-23 5.2507677e-23 -0.0001538616
0001a0 21 a2 1d 9b 91 7a 68 1a 27 29 87 98 d3 5c 36 9b
       -1.3039122e-22 4.8075484e-23 -3.4938235e-24 -1.508468e-22
0001b0 0e b9 1c 19 a1 f0 99 99 30 05 8d 19 8d a4 cc 1a
       8.1023825e-24 -1.5917018e-23 1.4581154e-23 8.463827e-23
0001c0 f8 22 81 9a 7b d1 20 9a 1a 72 b1 9b 09 2e 56 99
       -5.3409645e-23 -3.325644e-23 -2.935593e-22 -1.10728374e-23
0001d0 4c f9 45 1b ef 3a fe 1a 36 f1 ab 3b 1d 2a 90 3b
       1.637601e-22 1.0514715e-22 0.0052472604 0.0043995515
0001e0 16 ec c6 3b 08 b0 eb bb da f9 3f 97 69 65 2b 3a
       0.006070624 -0.0071926154 -6.2030786e-25 0.00065382436
0001f0 76 40 8d 1b 7e ca 65 19 37 85 b6 1a bf 2f dd 1a
       2.336815e-22 1.18799155e-23 7.5488656e-23 9.1480596e-23
000200 0b 6d f1 b9 31 ef 3c bb 07 c4 98 3c 9a 7e 0b 3c
       -0.00046048345 -0.0028829093 0.01864816 0.008514071
000210 ef d9 26 1b 9b df e9 1a 77 69 79 9b 51 77 c6 ba
       1.3801616e-22 9.6727795e-23 -2.0630875e-22 -0.001514176
000220 c5 2e a8 1b 9c 91 86 b9 af 12 66 ba 0d 0d 47 3c
       2.7823493e-22 -0.0002566696 -0.0008776588 0.012149108
000230 8a 1f 2c 9b bc 66 80 b9 c2 72 a1 bb b5 75 93 bb
       -1.4237697e-22 -0.00024490606 -0.0049270103 -0.0045001158
000240 42 eb b9 3b 8a 56 4f 3c da 5d 44 3c 56 74 0e 19
       0.005673797 0.01265491 0.011985267 7.364722e-24
000250 8c 43 4d 3c ec a7 c8 bb ee 1f 47 3c 7f c0 50 3a
       0.012528311 -0.0061235335 0.012153609 0.00079632545
000260 31 ee 4e 3c 94 ef fe 3a f4 05 ee ba b2 ad 6b 3b
       0.012630031 0.0019450062 -0.0018159733 0.0035961685
000270 9c b5 05 ba af 8c a3 1b d8 e1 fb 19 a6 5b d7 9a
       -0.0005100609 2.7057003e-22 2.604401e-23 -8.906998e-23
000280 fb 67 c0 9b 0a 97 07 1a 62 db c0 18 e8 cb 4b ba
       -3.1830931e-22 2.8039354e-23 4.9852357e-24 -0.000777422
000290 a3 d8 1e 9b b3 3b 15 1b 99 00 40 1a 4a ee 54 95
       -1.3139453e-22 1.2344281e-22 3.9705152e-23 -4.3001036e-26
0002a0 30 48 8a 1a 85 42 ad 1a 13 af 5b 1b 02 77 5d 1a
       5.719209e-23 7.165859e-23 1.8171825e-22 4.5797863e-23
0002b0 fd 05 71 1a f4 5e 51 1a ff 79 a9 1a 0c 71 07 99
       4.984247e-23 4.329689e-23 7.009386e-23 -7.002166e-24
0002c0 58 28 eb 98 a6 4b 5d 39 ea 3e 63 1a 32 dd 8a 9a
       -6.0786813e-24 0.00021104384 4.699332e-23 -5.743282e-23
0002d0 7f a6 1e 1a 8d 00 78 9a e7 a6 08 18 fb 8c 6e 1b
       3.280813e-23 -5.1285643e-23 1.7661852e-24 1.9732452e-22
0002e0 3d 15 28 9b 66 9f 65 1a e8 d5 7a 1c cd 6c 5c 1a
       -1.3903497e-22 4.748485e-23 8.299453e-22 4.5582822e-23
0002f0 c4 70 0a 9b 89 fb df 99 78 62 26 1d e1 c4 9c 98
       -1.1451529e-22 -2.3159254e-23 2.2020824e-21 -4.052385e-24
000300 fa 78 7a 3c 4e cf 2c 3c 8f 92 85 3b 26 e6 c4 3c
       0.015287632 0.010547472 0.004076309 0.024035525
000310 9d da 00 99 f6 1e 9a ba ab 9b f6 98 7c 99 1a 1a
       -6.6615935e-24 -0.0011758495 -6.3746694e-24 3.1970437e-23
000320 fc d4 c7 1a 0c c2 57 9a 2a 4c 7d 3c ad 6c c3 3b
       8.2648566e-23 -4.4617708e-23 0.015460053 0.005963883
000330 39 0e 03 3c d6 5c df 3b 16 2a c8 9a e2 9e 0b 1b
       0.007998996 0.006816487 -8.2786055e-23 1.1549148e-22
000340 84 bf bd 99 14 e3 16 3c 7e c7 13 9a e2 fa 70 39
       -1.9619495e-23 0.009209413 -3.0560036e-23 0.00022981645
000350 82 ff 5d 3c a6 92 8a 3c 6e d2 64 9c 55 89 fb 39
       0.013549687 0.01691563 -7.5710846e-22 0.0004797677
000360 97 a1 19 39 6b db b0 3c a6 d8 e4 ba 35 ae ba 3b
       0.00014651414 0.021589002 -0.0017459586 0.0056970366
000370 6e a9 8f 3b 94 de a7 1a 1b 46 93 3c 5c 26 7a bc
       0.0043842113 6.9429176e-23 0.017977765 -0.015267935
000380 38 1b 29 3b 78 d7 93 3a 2c 45 92 3a be 20 98 39
       0.0025803577 0.0011279425 0.0011159531 0.00029016094
000390 2e 30 d3 ba fc f8 23 bb d8 de 38 b9 ba 6a 27 1b
       -0.0016112381 -0.0025020232 -0.00017630623 1.3848401e-22
0003a0 8f 00 9a 99 2e 7f 5d 1b 2a 2a a2 19 c2 e1 06 1c
       -1.5923452e-23 1.8321786e-22 1.6767437e-23 4.4628666e-22
0003b0 32 26 bf 16 6c de 5a b9 a2 c6 c6 19 83 5a 94 1a
       3.088182e-25 -0.00020872959 2.0552947e-23 6.1357595e-23
0003c0 bd 2f 0d 9a 5a 5e 33 9c 10 0a 8d 97 f9 a4 92 19
       -2.919668e-23 -5.934808e-22 -9.114452e-25 1.5162678e-23
0003d0 81 b4 c3 9c 96 2c 28 99 65 69 83 18 59 5e d8 99
       -1.2950677e-21 -8.6944005e-24 3.3969128e-24 -2.2371983e-23
0003e0 b9 2c d0 9a 96 83 9f 1a 4c e4 81 19 77 87 f1 b9
       -8.609904e-23 6.597345e-23 1.3430496e-23 -0.0004606803
0003f0 b5 87 1e 9b 62 d7 46 1b 3d 0e a0 99 e1 70 80 1a
       -1.3113303e-22 1.644777e-22 -1.6549363e-23 5.3121925e-23

gnn.gnn_layers.0.gat_conv.res_fc.weight f4 [1024, 74]
000000 93 1b 70 bc 5f e7 87 3c b3 bd b9 ba 34 26 b8 bb
       -0.014655012 0.016589819 -0.0014170915 -0.0056197885
000010 c2 4d 70 bc fe 6e e9 ba 4a 54 87 3b fa 5e 46 3b
       -0.014666976 -0.0017809568 0.004129921 0.0030269013
000020 d3 d0 7b b9 4b f4 9a 19 59 32 75 9a 7b f6 16 99
       -0.00024015018 1.6021896e-23 -5.0705483e-23 -7.8045946e-24
000030 94 88 b5 1a f2 39 8c 98 ef 8a 8a 19 77 b5 a1 3a
       7.50805e-23 -3.624766e-24 1.432498e-23 0.0012337406
000040 a7 eb db 1d c2 3d c4 1a 04 13 78 19 99 3a 5b 9b
       5.8212476e-21 8.1163475e-23 1.282514e-23 -1.8134189e-22
000050 9f 48 20 98 c3 3a 92 1a ba 30 85 99 5f 45 85 99
       -2.071618e-24 6.047912e-23 -1.3771558e-23 -1.3779896e-23
000060 25 89 a2 9b 44 39 e0 1a 91 35 ab 9a 6b ed 3c 1b
       -2.688928e-22 9.2736746e-23 -7.0810484e-23 1.562771e-22
000070 8c 82 ed 1a 01 c8 9c 3a d0 ae d1 9a 82 e0 11 1a
       9.823181e-23 0.0011961461 -8.67228e-23 3.0166653e-23
000080 61 2a ba 1a ae 3d 58 1a b1 7e 0f 1c c8 37 04 97
       7.6996264e-23 4.4717578e-23 4.7478476e-22 -4.2721906e-25
000090 60 29 76 9a ac 7d 12 1b 1e 02 16 9b ff 5c 09 1a
       -5.090503e-23 1.2117444e-22 -1.2408393e-22 2.8406058e-23
0000a0 95 33 51 9a 50 cd 5a 9a 6b 0f 12 9b 9f f4 11 9a
       -4.3261855e-23 -4.5247194e-23 -1.2081819e-22 -3.01829e-23
0000b0 7a c4 00 ba d8 9a 96 bc 41 87 83 bb d6 2f ac bb
       -0.000491209 -0.018384382 -0.0040139263 -0.005254726
0000c0 3c c6 2f 99 25 57 81 39 d7 a9 82 9b b9 d7 a8 1a
       -9.087321e-24 0.00024669725 -2.1616452e-22 6.983169e-23
0000d0 66 68 36 9b 2d ab 11 18 50 66 da bb ba 6f 6d bc
       -1.508842e-22 1.8827232e-24 -0.0066650286 -0.01449197
0000e0 74 89 9b 3b 28 fc f4 bb 87 24 2a 19 5b 40 b7 9a
       0.0047466103 -0.0074763484 8.796171e-24 -7.5791e-23
0000f0 b8 9f 81 98 4f 35 2f 3a b0 65 09 1a d5 1e 0e 3b
       -3.3506993e-24 0.0006683664 2.841308e-23 0.0021685858
000100 4d 7a d1 bc 8c c6 08 3c 25 e7 67 19 24 1c 19 b8
       -0.025571013 0.0083481185 1.1989099e-23 -3.650425e-05
000110 52 04 31 bc 56 c0 45 bc 62 fe 83 bb 54 fb 79 3c
       -0.010804253 -0.012069782 -0.0040281275 0.015257675
000120 48 ea 78 bb 39 dd b6 1a c3 60 9a 3c 93 ed e0 38
       -0.003798144 7.563084e-23 0.018844968 0.00010725404
000130 4d 02 ae 3b f8 08 9c bb 36 ee 0f bc d1 c7 f3 b9
       0.005310333 -0.0047618113 -0.008784821 -0.00046497447
000140 45 ac 8f 39 ae eb 3f bb 76 5d b2 b9 cf 20 5a 9a
       0.00027403436 -0.0029284763 -0.0003402044 -4.5107846e-23
000150 a1 db 8a 99 4b 11 32 98 19 7b 0f 19 e8 da c5 9c
       -1.4357573e-23 -2.3014692e-24 7.417786e-24 -1.3092952e-21
000160 d1 9e 8a 9a d2 20 18 3a ce e7 26 1a fb ec 5b 1b
       -5.7332044e-23 0.00058032305 3.4515246e-23 1.8191828e-22
000170 9c 05 f9 99 4d fe 02 19 a2 69 3a 19 9f b5 3f 1a
       -2.5748262e-23 6.772198e-24 9.637307e-24 3.9644587e-23
000180 63 91 62 18 8e b7 d7 1a 59 d3 4f 1b 63 35 e6 18
       2.9283217e-24 8.9218464e-23 1.7190929e-22 5.9507513e-24
000190 29 55 54 9b 25 3c b6 9a 00 2f f1 17 e5 f3 5a b8
       -1.7563746e-22 -7.5370604e-23 1.5586124e-24 -5.2202395e-05
0001a0 87 4f f3 99 f3 fa d6 9a 98 9f 86 1a d9 ca df 17
       -2.5157732e-23 -8.8913756e-23 5.567894e-23 1.4462243e-24
0001b0 93 c2 1b 9a d1 85 fa 98 7e 8b fa 18 28 b0 37 1a
       -3.2210425e-23 -6.4758605e-24 6.4764336e-24 3.798581e-23
0001c0 98 2f 2c 9a 8b 9d 69 1a 2b 6f 0e 9b 3f 7f 42 9b
       -3.5607212e-23 4.8310533e-23 -1.1781885e-22 -1.6088419e-22
0001d0 bd f8 1a 19 47 a7 72 9c b2 13 7d 3b e4 45 10 3b
       8.011846e-24 -8.0287284e-22 0.0038616476 0.0022014314
0001e0 84 7d af 3b 42 1b 35 bb 7b 3b c7 18 d6 91 52 b8
       0.005355539 -0.0027634655 5.1500354e-24 -5.0203722e-05
0001f0 c3 68 b0 9c c6 bc 81 1a 29 39 4b 19 93 3d 35 19
       -1.1673783e-21 5.365813e-23 1.05063974e-23 9.3699155e-24
000200 93 68 ba 3a a0 7c 05 bc da 52 81 3c 52 de 3a 3c
       0.0014221839 -0.008147389 0.015786577 0.011405544
000210 f2 ea 87 1b 97 aa d3 9a 3a 01 d2 9a 36 27 1e 3b
       2.2485706e-22 -8.754316e-23 -8.6855946e-23 0.0024132258
000220 5e f2 5a 9a 44 6f 21 ba e9 2f 1c bb 18 4c 82 3c
       -4.5277126e-23 -0.00061582425 -0.0023832268 0.015905425
000230 2b 3c 92 99 78 6c 2e b9 77 3c 6d bb 46 2b cd ba
       -1.5120348e-23 -0.00016634341 -0.003619937 -0.0015653155
000240 ac 66 c0 b9 bf d8 81 3c 5c bf 91 3c ee f0 87 1b
       -0.0003669759 0.015850423 0.017791443 2.2489574e-22
000250 0a 47 44 3c 9b 3b a3 bb 3b 04 16 3c 4e a7 cc b9
       0.011979828 -0.0049814708 0.009156282 -0.00039034564
000260 2b 47 0e 3c 83 0c 0a 3a 9a 27 a9 ba 8e 81 a5 3b
       0.00868396 0.00052661466 -0.0012905479 0.0050508445
000270 37 c1 e5 38 9e d2 c6 9b d7 06 0b 19 1e a4 92 1a
       0.0001095556 -3.289246e-22 7.187513e-24 6.064933e-23
000280 22 5c 2c 1b f5 5f ca 1a a9 f9 93 9a 51 7a 99 b9
       1.4257276e-22 8.370027e-23 -6.120112e-23 -0.00029273567
000290 73 e4 6d 9a 59 32 99 1a cf ad 7f 9a 2b f4 79 9a
       -4.919499e-23 6.336066e-23 -5.2873166e-23 -5.168923e-23
0002a0 77 44 85 1b 54 ed a3 1a b9 68 5a 1a e0 c1 8d 1a
       2.2047249e-22 6.7798644e-23 4.5165938e-23 5.8629455e-23
0002b0 85 8e c7 9c 2d 1b d3 1b 34 88 18 9a ca ed ff 9a
       -1.3205556e-21 3.4924584e-22 -3.1542887e-23 -1.058497e-22
0002c0 2d 59 00 9b d0 ca 8f b9 5b 97 64 9b 22 47 46 98
       -1.0616726e-22 -0.00027426193 -1.8908624e-22 -2.5626813e-24
0002d0 3e cf 45 9a c5 7a e5 9b d7 87 4d 99 49 ff a1 98
       -4.0906054e-23 -3.796421e-22 -1.0625684e-23 -4.1875297e-24
0002e0 b3 cb 89 99 7a f3 0b 1b 76 a0 68 1a 88 3a a7 1a
       -1.4247741e-23 1.1576482e-22 4.8106095e-23 6.9164143e-23
0002f0 78 f9 3a 9b cb bd b2 19 53 cf 81 98 f2 01 48 1b
       -1.5466167e-22 1.8481425e-23 -3.3555062e-24 1.6544241e-22
000300 04 61 32 3c ee fd 73 3c a5 cb 88 3b 67 b6 0f 3c
       0.010887388 0.0148920845 0.004174667 0.008771515
000310 f2 83 86 17 19 c7 75 38 e5 9f e0 19 9f 95 94 98
       8.692855e-25 5.8597976e-05 2.3225638e-23 -3.8408182e-24
000320 cd 1a 6f 9b b0 9d 7a 1a 59 5e 72 3c a1 9a 44 3c
       -1.9778276e-22 5.1826167e-23 0.014793002 0.011999757
000330 da 2c cf 3b b7 69 ad 3b ce 79 36 1a 6b 3d d9 9a
       0.0063224854 0.005292143 3.773511e-23 -8.984832e-23
000340 d9 b4 0d 1b ea 50 12 3c d0 b4 c3 98 36 38 a4 39
       1.1721682e-22 0.008930424 -5.0588893e-24 0.00031322398
000350 28 f4 7e 3c 34 01 49 3c ba d6 cd 19 8c a0 70 b8
       0.015561141 0.012268353 2.128323e-23 -5.736998e-05
000360 54 3e 94 3a 44 49 9b 3c c4 d2 be 3b 9c 12 a4 3b
       0.0011310079 0.018955834 0.005823465 0.005007101
000370 98 ff 6f 3b 54 20 4f 99 88 f0 58 3c 74 78 88 bc
       0.0036620852 -1.0708178e-23 0.013240941 -0.016658999
000380 2e 09 d3 bb fa 71 d6 3b f5 4a 91 3b 59 89 4f 3a
       -0.0064403033 0.006544349 0.0044339844 0.000791689
000390 cf a5 13 bb e0 ce bb 3a 31 01 40 39 37 6d 19 9a
       -0.002252925 0.0014328621 0.0001831099 -3.172788e-23
0003a0 21 a3 aa 18 fb 1a d0 1a 69 98 c8 9b 5b 4f e3 99
       4.410869e-24 8.607037e-23 -3.3185717e-22 -2.3503301e-23
0003b0 06 cf f5 99 de 02 3e ba 01 80 ca 1a 52 2d 65 9a
       -2.5416022e-23 -0.0007248352 8.3752043e-23 -4.73927e-23
0003c0 fb 77 5d 97 00 9b c7 9a f9 2c 42 9a e6 9c 1c 9b
       -7.156039e-25 -8.255489e-23 -4.0154588e-23 -1.2954714e-22
0003d0 b2 c6 10 99 0f 23 cb 9a 7a b5 50 99 07 8b a0 1a
       -7.484752e-24 -8.401547e-23 -1.0789997e-23 6.639906e-23
0003e0 c3 40 85 1a 96 ba c1 19 45 7b 2d 19 89 b7 0d ba
       5.511214e-23 2.0031094e-23 8.9687845e-24 -0.0005406072
0003f0 91 48 2d 1b df 32 a8 19 95 f3 94 9a e2 c2 b4 19
       1.4333672e-22 1.739134e-23 -6.1604893e-23 1.8690276e-23

readout.weight_and_sum.atom_weighting.0.weight f4 [1, 128]
000000 7c 21 bc 3d 7f 0b 7b bd 31 72 ed bd 3b 0e 2d be
       0.09186074 -0.06129026 -0.11594046 -0.1689996
000010 cd ee 2a be 95 76 5f 3c 6d ea 66 3e 92 06 b3 3d
       -0.16692658 0.013639112 0.22550364 0.087414876
000020 e3 05 65 bd 56 75 c2 3d 7a 85 71 bd 93 36 42 3e
       -0.055913817 0.09495036 -0.058965184 0.18966131
000030 9d bc c5 3e 33 54 b1 bc 84 27 86 bc e7 f0 6e 3d
       0.38620463 -0.021646595 -0.016376264 0.05833521
000040 ba 86 3e 3d 57 e1 79 3d e5 70 ad bd c4 db 22 3e
       0.046515204 0.061005916 -0.084687985 0.15904146
000050 64 b9 ac bd 1c 34 6d 3d 61 36 30 3d 8a f8 98 bd
       -0.08433798 0.057911023 0.04302061 -0.0746928
000060 d8 46 5b bc 3c 67 82 be d9 86 32 bc e6 82 83 3d
       -0.01338359 -0.25469387 -0.010896408 0.06421451
000070 be 65 d1 3d 9e 16 01 be 8a a7 6f bd fd 1d b0 bc
       0.10224484 -0.12606284 -0.058509387 -0.021498675
000080 e7 03 da 3d 21 1a 99 bd da 87 95 3d e8 02 b6 3c
       0.106452756 -0.07475687 0.07301302 0.022218183
000090 2c 7c 08 3e d4 4f 34 3d ea e7 e2 3c 31 20 1a be
       0.13328618 0.044021443 0.027698476 -0.15051343
0000a0 63 e6 87 3e 0b fc 5b be 85 20 e0 3d 66 21 16 bd
       0.2654296 -0.21482866 0.109437026 -0.036652945
0000b0 71 bc 66 3d ca 92 a7 bd ff 03 01 3e ee 8a 53 3e
       0.056332055 -0.08182295 0.1259918 0.20658466
0000c0 ab c3 f8 bd bd 87 6e 3c 26 c2 a4 bd 83 31 5b 3e
       -0.12146696 0.01455873 -0.080448434 0.21405606
0000d0 3f b0 a2 ba 87 72 c2 3d 85 2c 6d 3e ed d3 78 ba
       -0.0012412145 0.094945006 0.23161514 -0.00094920286
0000e0 53 1a 71 be d4 22 72 3c 37 f7 4a bd bd bf 3d be
       -0.23545198 0.0147788115 -0.04955217 -0.18530174
0000f0 91 72 78 bd 79 14 25 3d 6e d9 22 3e e6 60 82 3e
       -0.060656134 0.040302727 0.15903255 0.25464553
000100 87 4e 85 3d 24 d4 4a be 6f 48 87 3d 74 e2 b4 3d
       0.065091185 -0.19807488 0.066056125 0.08832255
000110 a2 41 98 3d 94 4d 8b 3d da a0 77 3d d8 e7 aa bd
       0.074343935 0.06801906 0.060456134 -0.08345002
000120 23 f2 2c 3c 2e 70 99 bd 00 d5 a2 3c 43 54 50 3e
       0.010555777 -0.074921 0.019876957 0.20344643
000130 7e c7 af bc 13 ed 41 bc 35 31 e4 3c 4b 3b a0 bc
       -0.02145743 -0.011836308 0.027855495 -0.019559523
000140 a7 db 42 bd 1d 6a 5e 3d f6 3a fb 3b f1 1f 65 3d
       -0.047572758 0.054300416 0.007666941 0.055938665
000150 1f 86 4b 3e 0e 6f 74 3c ff a2 68 bd 1b b6 b3 bc
       0.19875382 0.014919056 -0.05679607 -0.02193742
000160 0c 4c fe bc cc 24 b4 3d b0 0b de bd fe 60 ca bd
       -0.031042121 0.08796081 -0.10842073 -0.09881781
000170 cf af 94 bd c5 ec 7a 3e 43 a7 28 3e 16 c6 13 3c
       -0.07260095 0.24504383 0.16470055 0.009019395
000180 1a 61 52 3d 51 e1 3f bd 8d fb 39 be 98 4a 8a 3e
       0.051362135 -0.046845738 -0.18162365 0.27010036
000190 1d 67 53 be 8a 62 4d 3e 26 7b 03 3e 5b ec 27 be
       -0.20644803 0.20057121 0.12839946 -0.16398756
0001a0 2a c2 8d bd 86 e5 58 3e 25 6a e2 bc f1 98 06 3c
       -0.069217995 0.21181306 -0.027638504 0.008215175
0001b0 a8 eb 17 be 84 54 87 bd b1 de e1 3b 92 4b 4e 3c
       -0.1483599 -0.06607917 0.006893002 0.01259126
0001c0 17 2d 41 3e ed 68 5c 3e d8 d0 5f 3e d2 eb 64 bd
       0.18864857 0.21524401 0.21857011 -0.05588896
0001d0 18 56 8e 3d 2f 4f 93 3e b2 1c f0 3d 88 41 a6 3d
       0.06950015 0.2877135 0.11724223 0.08117968
0001e0 1d cb b0 bc 92 bf ef bd 28 cc 89 3d 1c cd 60 3e
       -0.021581227 -0.11706461 0.06728393 0.21953243
0001f0 f0 e6 57 3e 44 34 51 3e 1d b3 0e 3e ea 7d a7 bc
       0.2108419 0.20430094 0.13935514 -0.020445783

predict.predict.1.weight f4 [128, 256]
000000 9e c9 08 3b 29 68 94 3a 26 1d 88 bb 60 9d fc bb
       0.0020872126 0.0011322546 -0.0041538654 -0.0077091902
000010 71 bd 31 bb 72 79 80 b8 cd 23 98 bb ef 41 5b 3b
       -0.0027120973 -6.1261366e-05 -0.0046429397 0.0033456048
000020 34 e2 bf bb e5 0e e8 bb 93 f2 cb bb 91 03 b8 3b
       -0.005855823 -0.0070818537 -0.0062239855 0.0056156595
000030 b9 c2 18 bb 32 d2 6a 3a b6 21 0a bc b5 d2 84 3b
       -0.0023309423 0.0008957713 -0.008430889 0.0040534385
000040 e0 fc 44 ba 59 35 3e 3b 95 4a 27 bb d3 68 23 bb
       -0.0007514488 0.0029023497 -0.0025526632 -0.0024934306
000050 b0 c0 5a 3b 83 1b bc 3a 4a 78 4d 39 26 7c ab ba
       0.003337901 0.0014351461 0.00019595135 -0.0013083264
000060 65 9f e7 b9 5c 9a 04 bc 7d 9c c0 bb 9b ce 84 3b
       -0.00044178512 -0.008093443 -0.00587803 0.0040529496
000070 c3 46 9a 3b 45 e1 41 3b 44 84 0c 3c e4 46 82 bb
       0.0047081425 0.0029583734 0.008576456 -0.003975736
000080 14 71 25 3b 9e ad f5 bb 0b c7 30 3b af 97 97 3b
       0.0025244402 -0.0074975034 0.0026974108 0.0046262364
000090 ca ae 8f 3b dc bd ce bb e5 15 8b ba 9c da 0a bc
       0.00438485 -0.006309254 -0.0010611383 -0.008474972
0000a0 6e bc a0 3b ab 94 e0 bb f5 7b c3 3b 03 5d 32 bb
       0.004905275 -0.00685366 0.0059657046 -0.0027216084
0000b0 9a 45 a9 3a 51 74 cb 3b 5f 35 7d 3b 3b 41 08 3b
       0.001291442 0.0062089344 0.0038636548 0.0020790834
0000c0 dd 4a c9 b8 36 2d 97 39 29 3f f8 ba 25 22 c2 3b
       -9.598371e-05 0.0002883465 -0.0018939722 0.0059244805
0000d0 31 9e a5 bb d2 8e d8 3b 5a bd 34 bb 70 1a 4e 3a
       -0.0050542583 0.0066088224 -0.0027578683 0.0007862216
0000e0 1e 61 cf bb bf 3a 24 39 eb 65 fa b9 4c b0 1f 3b
       -0.006328716 0.00015662143 -0.0004775965 0.0024366556
0000f0 7c a8 24 3b 9d 78 b2 39 88 ce d6 bb 83 90 7d 3b
       0.0025124839 0.0003404067 -0.006555382 0.0038690872
000100 41 6b 4d ba a1 18 8b bb 48 13 9d 3b 4b 22 73 3b
       -0.00078361115 -0.0042448794 0.0047935583 0.0037099298
000110 6c ec aa 3a 4f db 04 39 3a 27 7c 3b 12 d1 82 3a
       0.001304043 0.000126702 0.003847553 0.0009980521
000120 7f ea 9d 3a 5a 55 a5 bb 6a 74 82 3a 0a a8 0f bb
       0.0012048035 -0.005045575 0.0009952907 -0.0021920227
000130 07 55 a1 38 4b f5 6e ba 88 2e 50 bb c7 be 45 bc
       7.692916e-05 -0.0009115531 -0.0031766016 -0.012069411
000140 15 92 d1 ba 82 70 78 bb 42 0b e1 38 b9 1c d7 3b
       -0.001598897 -0.0037908857 0.00010730933 0.0065647033
000150 ec 62 6f bb 24 3c 8f 3b a2 a5 20 3a a6 f0 14 3b
       -0.0036527468 0.004371183 0.0006128197 0.0022726445
000160 01 d3 89 3b f1 d4 c4 bb bd a7 a7 3b f7 e3 08 bb
       0.004206062 -0.00600683 0.0051164315 -0.002088783
000170 d7 0f b6 bb 00 e6 63 3b 89 51 a8 3b 61 ce 92 bb
       -0.0055560875 0.0034774542 0.005136673 -0.0044801687
000180 42 fd 02 b9 8b 6e 99 ba 2f ad 98 ba 5a 37 04 3c
       -0.00012492112 -0.0011705918 -0.0011648292 0.0080698375
000190 a1 2e 4b 3a d1 7f f0 3b a7 1c e5 3a 06 f5 2d 3a
       0.00077507837 0.0073394557 0.0017479853 0.00066359376
0001a0 ca 1d ec 3a 4f 94 8b 3a 86 db 3e 3b ec 7c 72 3b
       0.0018014249 0.0010649058 0.0029122545 0.0037000729
0001b0 ba 06 32 bb e7 41 11 ba 44 0f 83 3a 10 21 85 39
       -0.0027164654 -0.0005541131 0.0009999056 0.0002539237
0001c0 22 b1 41 3b 01 fd a6 3b 25 10 df 3b 64 4b 74 bb
       0.0029555042 0.0050960784 0.0068073445 -0.0037276382
0001d0 52 69 a5 ba 73 cb 1e 3c 20 c4 95 3b 5c fb cf 3b
       -0.0012619889 0.009692061 0.004570499 0.006347103
0001e0 c7 24 15 38 f1 31 e2 3b d3 90 6a 3a 47 83 00 3c
       3.555862e-05 0.006902926 0.0008947972 0.007843799
0001f0 c9 f5 7c 3b 72 7f 67 3b 97 e0 df 39 c7 34 10 3c
       0.0038598648 0.0035323766 0.00042701207 0.008801646
000200 6f 70 eb 39 80 af 88 b8 82 15 7f b9 a6 ec 34 bb
       0.00044906462 -6.517675e-05 -0.00024326707 -0.0027606874
000210 c4 e5 46 3a 57 70 f2 b8 00 86 a0 39 5f b9 a7 39
       0.00075873383 -0.00011560384 0.00030617416 0.00031990834
000220 57 e6 97 b9 75 1d 2a b7 ce a2 d0 39 bd 45 c5 39
       -0.0002897258 -1.0139648e-05 0.0003979415 0.00037626727
000230 2c ef 74 3a 20 3c 65 b9 cc 5b b7 3a f7 d7 d1 38
       0.0009343501 -0.0002186154 0.001398915 0.00010006123
000240 7e 30 8a 39 99 3b 6d b8 88 fe ac 38 44 ad dd b8
       0.0002635754 -5.6560708e-05 8.249009e-05 -0.000105703744
000250 dd 2d 2a b8 81 f5 01 38 fe f6 c1 38 02 81 64 39
       -4.0573872e-05 3.098464e-05 9.248963e-05 0.00021791834
000260 43 8f 35 39 c2 61 30 bb a2 14 6b 3a 65 6c 2b 39
       0.00017314874 -0.0026913737 0.0008967613 0.00016348211
000270 ec d5 5a b9 2e a7 5a b9 c0 3a ef b9 07 f1 9c 39
       -0.00020869792 -0.0002085238 -0.00045629404 0.00029934218
000280 31 83 85 39 ae 99 c6 b6 5f b0 ec b7 97 e2 94 38
       0.00025465482 -5.9187505e-06 -2.8215522e-05 7.0993956e-05
000290 51 0e 23 37 fb f6 29 3a 7b 8b ba 39 53 f5 20 bb
       9.71889e-06 0.00064836413 0.00035580606 -0.0024560287
0002a0 32 60 84 37 3f 9a fa ba 09 82 68 b9 d2 8f 59 b8
       1.578042e-05 -0.0019119455 -0.00022173686 -5.1870775e-05
0002b0 d0 95 10 b7 a5 5e 88 38 ba b0 60 b7 ba 81 c8 39
       -8.61795e-06 6.502614e-05 -1.3392588e-05 0.00038243626
0002c0 8b 96 7e b9 92 cf 35 38 9c 7c e1 b8 d5 90 87 b8
       -0.00024279409 4.3347078e-05 -0.000107520464 -6.464279e-05
0002d0 ac 50 53 3a 53 f8 66 37 12 8c 11 b7 34 3f 9f 39
       0.0008061032 1.3766886e-05 -8.675286e-06 0.00030373933
0002e0 79 7f 24 bb e4 f5 96 b6 3c a4 3a ba e2 1d eb b9
       -0.0025100394 -4.498974e-06 -0.000711981 -0.00044844957
0002f0 ba 10 7c b8 77 ae b0 36 a6 f5 ad 3a 2b 48 9b b9
       -6.009706e-05 5.265519e-06 0.0013272061 -0.00029617673
000300 53 36 4f 3a 15 35 05 bb 3a d9 f2 b8 0a ee a6 37
       0.0007904518 -0.0020325829 -0.00011579921 1.9899588e-05
000310 6a be 09 39 b9 d1 2e 38 fb e5 20 3a c7 fd 78 3a
       0.00013136273 4.1680152e-05 0.00061377854 0.0009498265
000320 16 a1 9d 35 9b 32 97 ba 3f 8e 2d 39 2f 17 cd b8
       1.1744294e-06 -0.0011535467 0.00016551556 -9.77948e-05
000330 a5 f3 15 b7 67 5c 98 b5 42 1d 1c 37 f6 42 e6 39
       -8.93782e-06 -1.1351775e-06 9.305137e-06 0.00043918908
000340 89 ec 61 ba d5 a4 c2 b8 dc 04 9e 39 c8 fd 9c 39
       -0.00086183153 -9.281343e-05 0.0003013973 0.0002994372
000350 73 24 84 b9 51 0d 46 37 97 5b 8f 39 80 9c 6e 38
       -0.0002520416 1.180482e-05 0.00027343325 5.6889374e-05
000360 5b c8 11 36 86 83 46 3a f3 69 ca b9 d8 75 b0 ba
       2.1723306e-06 0.0007572699 -0.0003860738 -0.0013462855
000370 4e d2 5c ba fb 55 41 39 f1 4a e7 38 f8 41 fa 37
       -0.0008423672 0.00018437945 0.00011028897 2.9833041e-05
000380 89 17 f1 36 aa 6a 92 39 4d e0 83 ba 75 b4 89 38
       7.1850995e-06 0.0002792676 -0.0010061354 6.566282e-05
000390 f5 0b 05 bb f2 78 30 b9 2e b0 e5 38 f2 25 6b b9
       -0.0020301316 -0.00016829724 0.00010952387 -0.00022425482
0003a0 98 0b da b9 81 5a 6b 3a 70 e3 6f b9 f3 60 18 b9
       -0.00041588838 0.00089780247 -0.00022877543 -0.00014531966
0003b0 f0 34 38 ba a8 dd f8 38 a9 f4 7e 38 a2 cd 9d b8
       -0.0007026931 0.00011866848 6.0786177e-05 -7.5246455e-05
0003c0 46 7c af b7 27 0e f6 b9 42 5c a1 38 88 9a 36 39
       -2.0919495e-05 -0.0004693132 7.6942626e-05 0.0001741444
0003d0 ad 25 71 3a 18 10 08 38 7f cf b0 39 50 08 f7 b6
       0.00091990345 3.2439915e-05 0.00033723933 -7.3621413e-06
0003e0 8f 5e 38 39 1a 3d b4 b9 20 56 3c 38 ba a7 18 b8
       0.00017582833 -0.000343778 4.4902903e-05 -3.639583e-05
0003f0 48 d1 cb b8 35 7a 13 b8 07 8c ad b7 77 03 89 b8
       -9.718776e-05 -3.5161345e-05 -2.0688412e-05 -6.5333144e-05
