Results/GAT/saved_model/GAT_bst_34.pth (torch, 759480 bytes, 13 tensors)

gnn.gnn_layers.0.gat_conv.attn_l f4 [1, 8, 128]
00000000: c8c5 08bc 15ee 1cba cf34 5fbc 5738 f5ba
00000010: 9357 36bc 0bfd 08bc 2b9b 8e3a c9d5 6cbc
00000020: 2255 6bba 54a2 9f3a be54 10ba 19c5 e7ba
00000030: ca46 c3bb 8526 aa3a afc0 7eba 7e40 403c
00000040: f823 48bb f3a0 8fbc af8c 5fbb e807 5fba
00000050: 6a2e 2bbb 9bfe 31bc 7bac 8eba 0f7a 01bc
00000060: 84cb 9ebb fab2 b7b9 ffba 2d3c 2a31 b5b9
00000070: ecc1 62ba 0a55 95bc f030 2f3c 6805 dabb
00000080: f0f9 a93b a55d d0b9 445f 50bb fc73 4c3c
00000090: 9215 993a 2661 11bc 2641 53b8 61e6 58bb
000000a0: ec66 72bb fbaf 34ba d7d3 19bb 9a0d a53b
000000b0: 0b3a 5b3b 59b4 283b 5e89 d9bb ffb2 08ba
000000c0: 928b 8dbc 9707 debb d587 b337 64fb f5ba
000000d0: 28d9 113c 4c1a a13b 68e4 82ba a64b 563b
000000e0: 119b 3fbc 149c 173a ce9c 1938 c61a ccbb
000000f0: 5aec a2ba c32a 8e39 6ab4 bc3b 6133 b4bb
00000100: f3d5 a83b a027 6bbc 94b0 4cb9 3216 d03c
00000110: fed5 963b b104 16bb 3a31 16bb 9e25 8fba
00000120: f35c 2639 c6b2 16bb c512 02bc b78c 9239
00000130: 65ec d4ba d36d 49bb bd36 983b 1fba ac3a
00000140: 5e56 53ba 0e2c e1bb d57c 823a 7e21 c3ba
00000150: b1a3 763b 03e3 b2b8 7d35 0e3a e2f8 2e3a
00000160: 3286 20bc 8e2d 49bb ed65 c8bb 23da ff3a
00000170: 99df dcbb 6a75 8a3b f18e 26bc f952 9838
00000180: 3a33 6cbb 49e9 84b8 3753 783b da77 54bc
00000190: 3d61 9c3a 47fb 773c 0b84 ddbb 8347 e8bb
000001a0: fa13 99bb f883 b939 1d04 b1b9 c2e7 5fba
000001b0: 0a5d 53ba bd1f e03a 0a6c a03b dcf8 ac3c
000001c0: 20a8 1abb 5bad 9fbb 6f79 cd3a 7e0c 80bb
000001d0: 0175 01bc 71b6 1f3b 58c5 d63b 4cf7 65bc
000001e0: 2c5c 20bb 921a f2bb f5cb 27bb f9cf 28b9
000001f0: 61e4 b9bb 24dc 36ba 51fb 99b9 4cd5 c53b
00000200: 9c2b cdbc 2b77 62ba 6c31 0ebb 5737 3f3c
00000210: f65d 3fbc d1a4 09bc 3225 c83a 0685 24bb
00000220: 2eb9 d1b9 67d1 ec39 f2ea 9b39 9597 773b
00000230: de48 8dbb 851e 5c3b 1f23 603b 31a8 9d3b
00000240: 0f64 a2bb 0d7d 77bc b399 2bbb 6667 343a
00000250: 7ad8 6cbb 0f71 01bc ecf4 0bb9 bada d8bb
00000260: 4c9d 12bc 2229 4dba 2f6f d73b bab2 cd39
00000270: 2f48 91ba f154 9abc 9d6c df3b e546 4cbc
00000280: 7c8e d238 8fb0 1aba 7d73 38bb dd5e 843b
00000290: 55ca 7e3b 7505 8e3b 2934 a03a bde3 e7ba
000002a0: a58c e43b 0685 31ba 50cb 3cbc 36a3 17bb
000002b0: 9fda aeb9 0af7 233b 7761 acbb 2e71 24ba
000002c0: 7358 99bc a8b9 9dbc 701e 0ebb 6b91 0abb
000002d0: ba94 1b3b aaaa 693b a8f3 0ebb 4ec4 3bba
000002e0: aebc 38bc 2ae9 8bbb 425a e837 9502 9cbc
000002f0: 2bf1 c738 fd89 60ba b055 89bc c5dd e7bb
00000300: 110d 033b cf62 a2bc 1e56 993a ed38 d83c
00000310: 293e 8e3b b66e f5bb ba60 10bb b9bc 233a
00000320: d71c dfba 11e7 8ebb d43a f2bb e5ec 8d3a
00000330: d689 b93a 4e89 56bb 12a7 b73c d8dd 47bb
00000340: dfb3 4cba 29ac 2bbc bc0a 863a 27c9 4cbb
00000350: 69b9 dc3a 6756 8bb9 5782 de3b 50e9 5dba
00000360: 2b70 743c 9c36 463b aa19 2bbc 437d b93a
00000370: 9497 86bb 7203 753b 020d c23b 00d1 6039
00000380: cfb2 83bb b29d bfbb 1ae9 373b 9b9c 46bb
00000390: 1be7 2c3a e3cd 433c 2905 08bc 9362 5abc
000003a0: 208f 35bb 80d3 b23a 4034 a5b9 86d9 8ab9
000003b0: 7ace b6ba 815a 203b d43d 253b 1bb8 923c
000003c0: 1848 cbba 86e6 bfbb eaba 45bb c2d2 a9bb
000003d0: 959a bbbb 8b63 61ba ed7c 71ba abb6 ccbc
000003e0: 7a9e 2abb 355b c9bb 94c8 04bc 9606 3ebb
000003f0: ce64 a5bb 65c3 c2ba 8816 14bb 098d fe3b
-0.008347936 -0.0005986405 -0.01362343 -0.0018708807 -0.011129278 -0.008361111 0.0010879984 -0.014455267
-0.00089772244 0.0012179115 -0.00055057916 -0.0017682641 -0.0059593664 0.001298145 -0.0009718043 0.011734126
-0.0030539017 -0.017532801 -0.0034110954 -0.0008507953 -0.0026120194 -0.010863925 -0.0010885143 -0.007902636
-0.0048460383 -0.00035037828 0.010603665 -0.0003455964 -0.00086501124 -0.018229026 0.01069282 -0.0066534765
0.0051872656 -0.00039742622 -0.0031795064 0.012478825 0.0011679402 -0.00887326 -5.0366994e-05 -0.00330963
-0.0036987616 -0.0006892678 -0.0023472214 0.005037022 0.0033451344 0.0025742261 -0.00663869 -0.0005214661
-0.017278466 -0.006775807 2.1401715e-05 -0.0018766937 0.008901872 0.004916465 -0.0009986283 0.0032698899
-0.011694686 0.00057834503 3.662408e-05 -0.0062287776 -0.0012430057 0.0002711621 0.0057588117 -0.005499289
0.005152458 -0.014352709 -0.00019520737 0.025401209 0.0046031466 -0.002289098 -0.0022917525 -0.0010921245
0.0001586562 -0.002299474 -0.007939045 0.0002795213 -0.0016244767 -0.0030735626 0.004645197 0.0013178027
-0.0008061881 -0.006871707 0.0009955416 -0.0014887301 0.0037634189 -8.529986e-05 0.00054248405 0.00066746597
-0.00979762 -0.0030697319 -0.006115666 0.0019519966 -0.006740522 0.0042254226 -0.010165916 7.26338e-05
-0.0036041276 -6.337703e-05 0.0037891397 -0.012968028 0.0011930835 0.015135593 -0.0067601255 -0.007088603
-0.004671571 0.00035384274 -0.00033763135 -0.00085413095 -0.0008062875 0.0017099302 0.0048956918 0.02111476
-0.0023598745 -0.0048729605 0.0015676449 -0.003907739 -0.007901431 0.0024370218 0.006554287 -0.014036011
-0.0024469001 -0.0073884213 -0.0025603746 -0.00016099204 -0.005672977 -0.00069755525 -0.0002936968 0.00603739
-0.025045209 -0.0008638973 -0.0021696938 0.011670909 -0.011680117 -0.008401112 0.0015269874 -0.0025103702
-0.00040001556 0.00045169445 0.00029738952 0.003777956 -0.004311665 0.0033587527 0.0034200621 0.0048113097
-0.0049557756 -0.015105498 -0.0026184141 0.00068818626 -0.0036139772 -0.00790049 -0.00013347314 -0.006617871
-0.008948635 -0.00078262587 0.0065745334 0.0003923381 -0.0011084134 -0.018839331 0.0068183676 -0.012468074
0.0001004012 -0.0005900943 -0.0028145008 0.004039629 0.0038877924 0.0043341466 0.0012222576 -0.0017691773
0.006974774 -0.0006771836 -0.011523083 -0.0023138053 -0.00033350752 0.0025019073 -0.005260642 -0.00062729686
-0.018718934 -0.019253567 -0.0021685623 -0.0021143805 0.002373977 0.0035654702 -0.002181271 -0.00071627356
-0.0112754535 -0.0042697387 2.7698585e-05 -0.0190442 9.5339805e-05 -0.0008565484 -0.016764492 -0.0070759975
0.0019996802 -0.019822506 0.0011698639 0.026394332 0.004340906 -0.0074900044 -0.002203031 0.00062460784
-0.0017022145 -0.0043610414 -0.0073922668 0.0010828046 0.0014155458 -0.0032735649 0.022418533 -0.003049722
-0.00078087853 -0.010478058 0.0010226588 -0.0031247826 0.0016839925 -0.0002657652 0.00679044 -0.0008465247
0.014919321 0.0030244952 -0.0104431305 0.0014151711 -0.004107425 0.0037386087 0.005921961 0.00021440163
-0.0040191184 -0.005847656 0.0028062523 -0.0030305746 0.00065957167 0.011950943 -0.0083020115 -0.013329166
-0.0027703717 0.0013643354 -0.00031510182 -0.0002648348 -0.0013947033 0.0024468007 0.0025213854 0.017910054
-0.0015509157 -0.005856338 -0.0030171224 -0.005182595 -0.0057252147 -0.0008597902 -0.0009212036 -0.024989447
-0.00260344 -0.006144906 -0.008104462 -0.0028995625 -0.0050474172 -0.0014859257 -0.0022596437 0.0077682775

gnn.gnn_layers.0.gat_conv.attn_r f4 [1, 8, 128]
00000000: b38d a0b9 fc4a e2b8 76f1 4839 e909 ad3a
00000010: 58b4 81ba 767e 75bb 0184 713a 1e12 adba
00000020: 1878 7c36 0fa5 b6b8 dc98 bab9 fc6b 53ba
00000030: b927 1a3b 25dd a837 5acf c3ba 5ede 1d3b
00000040: e5e0 28b9 7bb5 70bb f710 ddb9 341a 9e3a
00000050: 8501 063a 06d5 0d3a 6834 673a cac3 fab9
00000060: 14dc 0ebb b088 80b9 7bb6 f7ba 391c a1ba
00000070: 3214 3db9 2b35 2abb 8d37 87b8 7e80 54ba
00000080: 214a cfb9 3c25 c637 13e9 58ba 88d9 cd3a
00000090: 569a 013a 96a2 8a3b 10db 263a 77c7 62b9
000000a0: 4a3c 23ba f638 23b9 5e52 49bb 673f 56bb
000000b0: 8475 adbb c642 bf39 7f2a 1fba 4eed 64b9
000000c0: 8a04 6bbb 6016 e6ba fd16 a139 0e19 4d38
000000d0: 1fac aeba 4195 97b9 83e0 8b38 ec66 3abb
000000e0: a53a d6ba e0d7 a1bb 22a7 7f37 6c57 b7ba
000000f0: 1c4f 30ba 63bd 8eb9 27d5 1cbb da2b 943a
00000100: 5782 f7b9 9ee5 e1ba 1632 8bba 0c59 95b8
00000110: 20c0 643a a1d6 faba 8fa1 d039 c59d 3d3a
00000120: fe8f 64ba 3760 a1ba 4c6c 2fb9 5bdc 43b7
00000130: 2a2e 4539 6e44 8c39 4fe5 c73a abea 263b
00000140: 433f 8fb9 3ec2 8c39 6f26 dd39 efdb 63ba
00000150: d2b3 9139 d4fa adb8 5dd5 7639 29c7 24ba
00000160: cb94 213a 1d30 65ba 796a 8dbb cdf0 8bb9
00000170: 4a03 15bb 4bae a8b9 ecf4 643b ff14 e3b9
00000180: e5fe 15bb 6bcc 48bb 75ab b6ba aee0 82b8
00000190: ccb1 c9b9 7ba1 90ba ddac bbbb 795b 3cbb
000001a0: 124a ab3b c265 103a 8826 5d37 40da 8ebb
000001b0: 61c9 8fba 91c5 9c3a 84e8 ba3a 9bb5 313b
000001c0: a4d4 3dba 9496 c1ba c4e3 c4ba 12db 03bb
000001d0: 30bd 51bb 03e0 41bb 94ef 16bb 0a17 0fbb
000001e0: 81eb a4b9 f621 1fbb c8e3 57ba 3a5d 203b
000001f0: 39cf 34bb b8b6 d9b9 18a6 31ba 0961 bc3b
00000200: 8a23 313a df0c 06b9 5a51 95b9 665e 003b
00000210: 0618 26bb d055 2dbb 3816 bd39 79f7 e839
00000220: f6d9 5838 955f 1cb8 32db 79b7 80bf beba
00000230: aab8 c03a 1061 08ba 7aa8 acba 081e aebb
00000240: 5689 69b8 17e2 ccba 910b 1dba eec8 1eba
00000250: a411 10b9 7da6 75ba 4042 fd38 c6a2 e739
00000260: dee5 d9b7 6365 92b9 8336 a6bb 1c0f 20ba
00000270: 7a85 8bb9 58cf 083b 6858 85ba 6288 84ba
00000280: d2c2 cbba 605b 2639 e0d9 afb9 d50e 2a3b
00000290: 0a0f 6f3a c5d1 f63a 4303 cf39 0e5d b9b8
000002a0: cc09 613a 1da3 ecb8 c1dc 11bb 1488 22bb
000002b0: debe b5ba 4b07 a9b9 2efa 6d39 1d7d c6b8
000002c0: 2614 363b 6bb9 31b9 b25a 23b9 4935 22b9
000002d0: 810f 59bb c9d8 fab9 f90e f3b9 0421 25bb
000002e0: 33b1 44bb 7bbc 4ebb db94 ad36 a8ee 43b9
000002f0: 7957 19ba 3d7b 38b9 f447 d9ba 7c6e 54b8
00000300: f5e9 96ba cc6f 323b 695e 113a e000 2f3b
00000310: 3931 9639 2cc9 8039 69ef c2b9 573d 8c3a
00000320: c5cd fbb9 56ca ecb9 fcd7 dd39 7632 74b9
00000330: d4d4 b5b9 12ce 0939 a8a5 1739 7d19 38b9
00000340: 5aea 21b9 f8c4 253a e2ba 1a39 70ba 84ba
00000350: 7371 b138 92fc 41b9 bb27 bbbb 5b03 5db9
00000360: 06e7 ba3a 9eff 043a 5886 5ebb 9e24 8cb9
00000370: cf65 d0ba a316 feb9 408a c93a 4e2e a9b9
00000380: 42e0 94ba 0c5b 7c38 ee84 fbba 7ca5 0d3b
00000390: 54fc 10b9 05f1 fcba 29c5 4bbb 15cb 2439
000003a0: 41e5 dd3a 3e52 2e3a a77f ceb7 824b 10bb
000003b0: e9c5 1dba 82f0 6139 3c53 08ba 2d2c eeba
000003c0: 5ffc 94b9 271d e6b9 db1a 5bba 223d 9dba
000003d0: 8a04 933a 679b 02b9 fe6e 1ebb f5b9 1f3b
000003e0: 5e8d bd39 20c0 4f37 db87 b2ba e07c 193a
000003f0: 5047 e2ba 5219 81ba f1ce 19ba 54a7 1d3b
-0.00030623152 -0.00010790487 0.00019163438 0.0013201806 -0.0009895666 -0.003745941 0.00092130905 -0.0013204252
3.762083e-06 -8.709181e-05 -0.00035590574 -0.0008065102 0.0023522212 2.013014e-05 -0.0014939115 0.002408884
-0.00016105508 -0.0036729265 -0.00042165045 0.0012062252 0.0005111921 0.0005410466 0.000881976 -0.0004782959
-0.0021798657 -0.00024515903 -0.0018898988 -0.0012291736 -0.00018031968 -0.0025971632 -6.447649e-05 -0.0008106305
-0.00039537347 2.3620778e-05 -0.0008274477 0.0015705088 0.00049439573 0.0042308075 0.00063650403 -0.00021627346
-0.00062269403 -0.00015566111 -0.003071926 -0.00326916 -0.00529355 0.0003648011 -0.0006071701 -0.00021832177
-0.003586086 -0.0017554276 0.0003072544 4.8899143e-05 -0.0013326443 -0.00028912167 6.669855e-05 -0.0028442694
-0.0016344382 -0.0049390644 1.5238098e-05 -0.0013987846 -0.00067256554 -0.00027225455 -0.002393076 0.0011304573
-0.00047208622 -0.0017234569 -0.0010619785 -7.12146e-05 0.00087261386 -0.0019137451 0.00039793222 0.00072332873
-0.0008718966 -0.0012312 -0.00016729644 -1.1674211e-05 0.00018804581 0.00026753865 0.0015250834 0.0025469463
-0.0002732222 0.00026847603 0.0004218104 -0.00086921355 0.00027790532 -8.296003e-05 0.00023539872 -0.00062857807
0.00061638345 -0.0008742826 -0.004315671 -0.00026691557 -0.0022737556 -0.00032173315 0.0034936024 -0.00043312457
-0.0022887525 -0.003063942 -0.0013936596 -6.240733e-05 -0.00038470177 -0.0011034453 -0.005727394 -0.0028741045
0.0052273357 0.0005508327 1.3181598e-05 -0.0043595135 -0.001097005 0.0011960735 0.0014259969 0.0027116302
-0.0007241464 -0.0014769607 -0.0015021493 -0.002011959 -0.0032003634 -0.0029582984 -0.0023030983 -0.00218338
-0.00031455982 -0.0024281717 -0.0008235541 0.002446963 -0.0027589335 -0.000415256 -0.0006776764 0.005748872
0.000675731 -0.0001278403 -0.00028480106 0.0019587516 -0.002534391 -0.0026448853 0.00036065443 0.0004443487
5.1701405e-05 -3.7282316e-05 -1.4892592e-05 -0.0014552921 0.0014703472 -0.0005202452 -0.0013172769 -0.0053136386
-5.5679433e-05 -0.0015631345 -0.0005990798 -0.00060571625 -0.00013739482 -0.0009370817 0.0001207632 0.0004418103
-2.5975456e-05 -0.0002792283 -0.0050724163 -0.0006105767 -0.00026611594 0.002087554 -0.0010173442 -0.0010111446
-0.0015545732 0.00015865033 -0.0003354093 0.0025948782 0.00091193675 0.0018830827 0.00039484547 -8.83882e-05
0.00085845287 -0.00011283739 -0.0022256824 -0.0024800347 -0.0013866087 -0.00032239626 0.0002269528 -9.46468e-05
0.0027783005 -0.00016949109 -0.00015578678 -0.00015469374 -0.0033120813 -0.00047845233 -0.00046359727 -0.002519668
-0.0030012846 -0.0031545449 5.173131e-06 -0.00018685556 -0.0005849521 -0.00017593517 -0.001657723 -5.0647635e-05
-0.0011513816 0.002722728 0.0005545379 0.0026703402 0.00028646903 0.00024563947 -0.00037180938 0.0010699433
-0.0004802776 -0.0004516418 0.00042313326 -0.00023288451 -0.0003468158 0.00013142105 0.00014462194 -0.00017557103
-0.00015441459 0.0006323601 0.00014756204 -0.0010126363 8.461149e-05 -0.00018500004 -0.0057115234 -0.00021077452
0.0014259524 0.00050734903 -0.0033954587 -0.00026730163 -0.0015899482 -0.0004846352 0.0015376285 -0.00032268692
-0.0011358338 6.0166276e-05 -0.0019189396 0.002161353 -0.0001382691 -0.0019297904 -0.0031092858 0.00015715913
0.0016929285 0.0006649828 -2.4616556e-05 -0.0022017662 -0.00060185656 0.00021547268 -0.0005200391 -0.0018171124
-0.0002841679 -0.0004389074 -0.0008358189 -0.0011996368 0.0011216563 -0.00012455658 -0.0024175043 0.0024372314
0.00036154216 1.2382894e-05 -0.001362081 0.00058550946 -0.0017263684 -0.0009849465 -0.00058673235 0.0024056034

gnn.gnn_layers.0.gat_conv.bias f4 [1024]
00000000: f930 5cbc 54fc 0cbb 640e 6cbd b8a2 143c
00000010: 52c3 75bd 4a92 6fbd feab b33b 58b2 bbbb
00000020: fdaf 9cb9 cba7 71ba 161e 05bb fe3e be38
00000030: c871 2bbb 6ad2 0d3c f0aa a6bc 182e 22bd
00000040: 6119 48bc a424 65bd 3375 04bc da66 bfba
00000050: aa3d e3bb 3714 57bd d219 aa3b 1ef2 99bb
00000060: 448e 7abc a808 01bb 7d61 a8bd 6c2d 97bb
00000070: b0d2 85bb 9178 b0bd 4bb7 87bc 43f4 d6bc
00000080: baa7 acbb f91c e5b9 685c d7bb 3574 ff3c
00000090: d456 9a3b f3eb eb3b cb21 b23a 6006 b8bb
000000a0: adca 72bc afca 65ba ac54 b3bc bcb3 bdbb
000000b0: b7f2 10bd e4be 73ba cec0 27bc 420d c3ba
000000c0: a64a c5bd 4d75 1cbc c734 a6bb 595f f8bb
000000d0: b3e4 213c 724f 973a 3e69 40bb 295f 0abc
000000e0: a232 a4bd ae0b f9bc 2b8d cf38 1d65 66bc
000000f0: 486d 03bb 1d48 04bb 6d1d 18bc 0bf4 2fbc
00000100: b9c1 9fbb a077 26bd fc11 34b9 9d26 033d
00000110: a409 083c 7623 e3bc 0ea8 7cba 88cd 6e3c
00000120: 8245 a6bb f62b 8bbb b8be 28bc 0f32 63ba
00000130: 840e 5b3b 039f 2abb 4dea 7a3c 0c01 0fba
00000140: 88d2 a0ba 80b0 a2bc c1b5 22bb 3365 25bc
00000150: 0726 b9b8 6ecf b9ba 52b9 87bd eaaa 55bc
00000160: ff4e ccbc d57a 0dbb cd2d 41bd 51ab a5bc
00000170: 9311 37bd 4d12 00bc c246 0dbc f271 e9ba
00000180: 7d07 80bc aa07 61bc 46ff 8bbb 1366 85ba
00000190: c166 03b9 afe6 d93b d1b3 52bc 152b 0eba
000001a0: 4c08 a63c c525 a53b 2404 2bba 6f17 f5bc
000001b0: f33d e8bb d6d7 923b d466 1a3c 99c9 c73c
000001c0: 6f1b b5bb cd0c 5cbc 2683 1bbc 50e8 b1bc
000001d0: d51b fabb ecc0 edbb 7d65 8bbc 11b3 82bd
000001e0: 543a 3eb9 0c79 60bc e29b 02bc d627 d3ba
000001f0: 3644 ffbc c4ae 15bc 5a12 cbbb 4311 2c3d
00000200: f930 5cbc 54fc 0cbb 640e 6cbd b8a2 143c
00000210: 52c3 75bd 4a92 6fbd feab b33b 58b2 bbbb
00000220: fdaf 9cb9 cba7 71ba 161e 05bb fe3e be38
00000230: c871 2bbb 6ad2 0d3c f0aa a6bc 182e 22bd
00000240: 6119 48bc a424 65bd 3375 04bc da66 bfba
00000250: aa3d e3bb 3714 57bd d219 aa3b 1ef2 99bb
00000260: 448e 7abc a808 01bb 7d61 a8bd 6c2d 97bb
00000270: b0d2 85bb 9178 b0bd 4bb7 87bc 43f4 d6bc
00000280: baa7 acbb f91c e5b9 685c d7bb 3574 ff3c
00000290: d456 9a3b f3eb eb3b cb21 b23a 6006 b8bb
000002a0: adca 72bc afca 65ba ac54 b3bc bcb3 bdbb
000002b0: b7f2 10bd e4be 73ba cec0 27bc 420d c3ba
000002c0: a64a c5bd 4d75 1cbc c734 a6bb 595f f8bb
000002d0: b3e4 213c 724f 973a 3e69 40bb 295f 0abc
000002e0: a232 a4bd ae0b f9bc 2b8d cf38 1d65 66bc
000002f0: 486d 03bb 1d48 04bb 6d1d 18bc 0bf4 2fbc
00000300: b9c1 9fbb a077 26bd fc11 34b9 9d26 033d
00000310: a409 083c 7623 e3bc 0ea8 7cba 88cd 6e3c
00000320: 8245 a6bb f62b 8bbb b8be 28bc 0f32 63ba
00000330: 840e 5b3b 039f 2abb 4dea 7a3c 0c01 0fba
00000340: 88d2 a0ba 80b0 a2bc c1b5 22bb 3365 25bc
00000350: 0726 b9b8 6ecf b9ba 52b9 87bd eaaa 55bc
00000360: ff4e ccbc d57a 0dbb cd2d 41bd 51ab a5bc
00000370: 9311 37bd 4d12 00bc c246 0dbc f271 e9ba
00000380: 7d07 80bc aa07 61bc 46ff 8bbb 1366 85ba
00000390: c166 03b9 afe6 d93b d1b3 52bc 152b 0eba
000003a0: 4c08 a63c c525 a53b 2404 2bba 6f17 f5bc
000003b0: f33d e8bb d6d7 923b d466 1a3c 99c9 c73c
000003c0: 6f1b b5bb cd0c 5cbc 2683 1bbc 50e8 b1bc
000003d0: d51b fabb ecc0 edbb 7d65 8bbc 11b3 82bd
000003e0: 543a 3eb9 0c79 60bc e29b 02bc d627 d3ba
000003f0: 3644 ffbc c4ae 15bc 5a12 cbbb 4311 2c3d
-0.01343941 -0.0021512704 -0.05763091 0.009071998 -0.060000725 -0.05848912 0.0054831496 -0.0057280473
-0.0002988576 -0.00092184235 -0.0020312122 9.071639e-05 -0.0026160348 0.008656124 -0.020345181 -0.03959474
-0.012213082 -0.055943146 -0.008084583 -0.0014602796 -0.006934841 -0.052509513 0.0051910663 -0.004698052
-0.015292708 -0.0019688997 -0.082217194 -0.004613569 -0.004083954 -0.08616746 -0.016566893 -0.02623952
-0.005269018 -0.0004369987 -0.006572295 0.031183342 0.0047100578 0.007199758 0.0013590393 -0.0056159943
-0.0148188295 -0.0008765859 -0.02189096 -0.0057892483 -0.03538772 -0.0009298159 -0.010238839 -0.001488127
-0.09633379 -0.009549451 -0.0050722095 -0.0075797257 0.009881186 0.0011544062 -0.0029359604 -0.0084455395
-0.0801747 -0.030401077 9.896824e-05 -0.014062193 -0.002005415 -0.0020184584 -0.009284359 -0.010739337
-0.0048753885 -0.040641427 -0.00017172837 0.032019246 0.00830308 -0.02772687 -0.0009638079 0.01457537
-0.005074204 -0.004247184 -0.010299377 -0.0008666822 0.00334254 -0.002603472 0.015314651 -0.0005455173
-0.0012269774 -0.019859552 -0.0024827572 -0.010094929 -8.8285706e-05 -0.0014176199 -0.06627144 -0.013041237
-0.024940012 -0.0021588106 -0.04716282 -0.020223292 -0.044694494 -0.007816863 -0.008622827 -0.0017810448
-0.01562857 -0.013734737 -0.0042723743 -0.0010177515 -0.00012531412 0.006649814 -0.012860254 -0.000542329
0.020267628 0.005039903 -0.00065237493 -0.0299184 -0.007087463 0.004481296 0.00942393 0.024388121
-0.005526952 -0.013430786 -0.009491717 -0.02171722 -0.0076327124 -0.007255664 -0.017016167 -0.063818105
-0.00018141541 -0.013700735 -0.007971736 -0.0016109894 -0.031160455 -0.009135906 -0.006197256 0.04200865
-0.01343941 -0.0021512704 -0.05763091 0.009071998 -0.060000725 -0.05848912 0.0054831496 -0.0057280473
-0.0002988576 -0.00092184235 -0.0020312122 9.071639e-05 -0.0026160348 0.008656124 -0.020345181 -0.03959474
-0.012213082 -0.055943146 -0.008084583 -0.0014602796 -0.006934841 -0.052509513 0.0051910663 -0.004698052
-0.015292708 -0.0019688997 -0.082217194 -0.004613569 -0.004083954 -0.08616746 -0.016566893 -0.02623952
-0.005269018 -0.0004369987 -0.006572295 0.031183342 0.0047100578 0.007199758 0.0013590393 -0.0056159943
-0.0148188295 -0.0008765859 -0.02189096 -0.0057892483 -0.03538772 -0.0009298159 -0.010238839 -0.001488127
-0.09633379 -0.009549451 -0.0050722095 -0.0075797257 0.009881186 0.0011544062 -0.0029359604 -0.0084455395
-0.0801747 -0.030401077 9.896824e-05 -0.014062193 -0.002005415 -0.0020184584 -0.009284359 -0.010739337
-0.0048753885 -0.040641427 -0.00017172837 0.032019246 0.00830308 -0.02772687 -0.0009638079 0.01457537
-0.005074204 -0.004247184 -0.010299377 -0.0008666822 0.00334254 -0.002603472 0.015314651 -0.0005455173
-0.0012269774 -0.019859552 -0.0024827572 -0.010094929 -8.8285706e-05 -0.0014176199 -0.06627144 -0.013041237
-0.024940012 -0.0021588106 -0.04716282 -0.020223292 -0.044694494 -0.007816863 -0.008622827 -0.0017810448
-0.01562857 -0.013734737 -0.0042723743 -0.0010177515 -0.00012531412 0.006649814 -0.012860254 -0.000542329
0.020267628 0.005039903 -0.00065237493 -0.0299184 -0.007087463 0.004481296 0.00942393 0.024388121
-0.005526952 -0.013430786 -0.009491717 -0.02171722 -0.0076327124 -0.007255664 -0.017016167 -0.063818105
-0.00018141541 -0.013700735 -0.007971736 -0.0016109894 -0.031160455 -0.009135906 -0.006197256 0.04200865

gnn.gnn_layers.0.gat_conv.fc.weight f4 [1024, 74]
00000000: d19b 573d c8da 22be 6973 8dbd 4a36 ef3c
00000010: 6baa 6c3d 8285 673c 2bd6 44bc eba7 ba3a
00000020: 2dbf 9b3b 0c0c 0000 6a0b 0000 1807 0000
00000030: 4117 0000 60da 042f c527 0000 bc09 b53b
00000040: d10e 0080 6a11 0000 0436 0080 874f 0080
00000050: c606 0000 4313 0080 5800 0080 c428 0080
00000060: 1109 0000 9f07 0080 9335 3028 ee6c 0000
00000070: 8624 0080 1647 433b 110e 0000 f106 0080
00000080: 2611 0080 e217 0080 ad12 0000 9201 0000
00000090: 2614 0080 eb85 0100 3514 0000 220e 0000
000000a0: ab3d 912d a26f 9539 d219 0000 3628 0000
000000b0: b3ae febc 4f6f 7dbb dac8 d8bc e324 423d
000000c0: 4b0c 0080 bec0 b4bb 4eb7 94a4 ed5f 0fb5
000000d0: 225b 0080 2d07 0000 d608 dcbc 9053 0d3d
000000e0: 4e6e 64bd ae48 43bc 4904 0080 c20c 0000
000000f0: 9203 0080 3d78 d2bb 5d0c 0080 0ab8 d3b9
00000100: 9329 fabb 45b2 babc 0812 0000 d3f5 aebb
00000110: a65e 113d 8bfb 223c ee63 d13b c009 3dbd
00000120: 50d7 85bc 2300 bca5 58f6 20ba ff80 d8b9
00000130: 5e8d f338 8145 9237 7a8c 91b9 0bb5 7f37
00000140: 6a80 b438 bb9a 3039 71db 96b8 a06e d922
00000150: e2a7 a6a7 9d2d 0000 b869 ff82 b70c 0000
00000160: d61e 0080 1ea9 03b7 9d26 0000 5af9 83a8
00000170: 3e2b c32e ed0c 0000 1442 0080 e22d 0080
00000180: fe0e 0000 cd30 37b0 35bd 431d e048 0000
00000190: 5f12 0080 ed0a 0080 81ea b628 32bf 1638
000001a0: 1a0e 0080 c749 fb1d 8442 0000 9c45 0080
000001b0: eb82 b0a8 63e3 9a22 9c29 0000 5a08 0080
000001c0: 3f0a 0000 f524 0000 828c 1ab4 930a 0080
000001d0: 8e51 0080 e706 0000 ebdf 15ba 085e fcba
000001e0: d24b b8b9 9bbc c6b9 9d03 0000 9835 1739
000001f0: 2a0e 0080 fa2c 0000 0d2d 12ba d208 0080
00000200: 3e3d 90ba ec76 3aba 71a3 baba 850b a8b9
00000210: 9344 0000 c712 0000 6b12 0000 c3de cc38
00000220: 7115 0000 3371 f938 f0c4 03bb cc34 1bba
00000230: de11 0000 fb5a e038 8367 90ba 2ea7 9eba
00000240: 9da3 33b9 fe6e 8cba 4c62 50b8 5624 0000
00000250: 3e80 22bd a015 9b3d 1c2e e5bc 9f75 1dbd
00000260: 3758 afbc d621 bdbb 34e7 58bb 216f 0d3c
00000270: d188 a9b9 9110 0000 db0f 0080 d816 0080
00000280: a103 0080 311e 0080 5e11 0000 6f45 b638
00000290: 8217 0000 af0c 0000 9756 0080 df1f 0080
000002a0: a10d 0080 df18 0080 984f 0080 b0f3 1136
000002b0: 461a 0000 25cf 1aa3 0603 a62a 8e12 0080
000002c0: 9d06 0000 05aa ab38 45d4 c821 291b 0080
000002d0: 4317 0080 8e05 0080 870d 0000 3401 0000
000002e0: 5507 0000 de31 0080 f61e 0000 5d0b 0080
000002f0: fd07 0000 f5c3 7a9f 2107 f39d 9919 0000
00000300: 8b15 b9bb e251 d1bc 1c58 12bc 5dce 5cbc
00000310: 2004 0000 e563 d53a ea01 0000 93f2 be2d
00000320: 01ff 4e1f 8317 0000 7d6d 95bc 067a 3cbb
00000330: c6bc 43bc 5dcc 0fbc 0616 0080 e422 0080
00000340: 7f2b 0000 c5b2 5b3d 3337 0080 66a2 d1bc
00000350: c10e eabc 978a 853c 4601 0080 312f 33b9
00000360: fc91 a93c 173c 26bd 7e6b 223d 0f5a 533a
00000370: e66d 0eba 821a 0000 6d51 7d3b 83b4 9d3c
00000380: 368d ccb9 f5cf 80bc 4b39 423d 23cb 9e39
00000390: f2fb 2c3a 3e4f a4bb cc52 9aba 3401 0000
000003a0: 341c 0080 9827 8da8 d511 0000 b5ec 861e
000003b0: 06cc 9fa1 4d59 d3b9 9b0f 0000 f0a8 6197
000003c0: 3b0b 0000 9506 a835 452b 0080 4675 0000
000003d0: 6ac7 a922 0f0e 0000 cc1e 0000 ce2e e1a8
000003e0: 1219 0080 7508 0000 cc74 0000 a9f5 7ab8
000003f0: ed49 0000 0371 0000 5625 0080 3e00 0000
0.052638832 -0.15903771 -0.06906778 0.029200692 0.05777971 0.014130952 -0.012013952 0.0014240717
0.0047530145 4.322e-42 4.095e-42 2.545e-42 8.342e-42 1.2082912e-10 1.4267e-41 0.005524842
-5.315e-42 6.247e-42 -1.9377e-41 -2.8529e-41 2.43e-42 -6.91e-42 -1.23e-43 -1.4624e-41
3.252e-42 -2.734e-42 9.78158e-15 3.9077e-41 -1.3102e-41 0.002979701 5.046e-42 -2.49e-42
-6.152e-42 -8.568e-42 6.7e-42 5.63e-43 -7.228e-42 1.39876e-40 7.249e-42 5.07e-42
1.6511978e-11 0.00028502668 9.263e-42 1.4425e-41 -0.031089162 -0.0038671081 -0.026462961 0.04739846
-4.41e-42 -0.0055161407 -6.44953e-17 -5.341124e-07 -3.2692e-41 2.574e-42 -0.026859682 0.03450352
-0.055769257 -0.011919184 -1.537e-42 4.577e-42 -1.281e-42 -0.006423025 -4.435e-42 -0.00040382176
-0.0076343506 -0.022790084 6.468e-42 -0.005339363 0.035490654 0.009947668 0.0063900864 -0.046151876
-0.01633802 -3.2612894e-16 -0.00061402237 -0.0004129484 0.000116134746 1.7436922e-05 -0.00027761218 1.5241337e-05
8.606988e-05 0.0001684231 -7.1934315e-05 5.8935097e-18 -4.6256274e-15 1.6363e-41 -3.7529562e-37 4.561e-42
-1.1062e-41 -7.847584e-06 1.3852e-41 -1.465206e-14 8.875255e-11 4.637e-42 -2.3704e-41 -1.646e-41
5.378e-42 -6.664436e-10 2.5905853e-21 2.6143e-41 -6.59e-42 -3.92e-42 2.0307759e-14 3.594085e-05
-5.059e-42 6.651543e-21 2.3861e-41 -2.4971e-41 -1.9596702e-14 4.198254e-18 1.4927e-41 -2.996e-42
3.676e-42 1.3258e-41 -1.4393484e-07 -3.793e-42 -2.9256e-41 2.476e-42 -0.00057172653 -0.0019254098
-0.00035151705 -0.00037906025 1.296e-42 0.00014420447 -5.081e-42 1.6135e-41 -0.0005576171 -3.164e-42
-0.001100458 -0.00071130577 -0.0014239383 -0.0003205204 2.46e-41 6.736e-42 6.607e-42 9.7689706e-05
7.692e-42 0.0001189433 -0.0020106398 -0.0005920648 6.41e-42 0.00010698099 -0.0011017177 -0.0012104267
-0.00017131721 -0.0010714231 -4.968261e-05 1.3035e-41 -0.039673083 0.07572484 -0.027976088 -0.03844225
-0.021404369 -0.005771856 -0.0033096792 0.008632452 -0.00032336128 5.943e-42 -5.688e-42 -8.195e-42
-1.302e-42 -1.083e-41 6.23e-42 8.691369e-05 8.433e-42 4.55e-42 -3.1063e-41 -1.1433e-41
-4.889e-42 -8.922e-42 -2.8553e-41 2.1748529e-06 9.425e-42 -8.392221e-18 2.9489621e-13 -6.656e-42
2.372e-42 8.185584e-05 1.3608714e-18 -9.743e-42 -8.345e-42 -1.993e-42 4.853e-42 4.32e-43
2.63e-42 -1.7889e-41 1.1107e-41 -4.076e-42 2.866e-42 -5.310165e-20 -6.4328936e-21 9.183e-42
-0.00564832 -0.02555174 -0.00893214 -0.013476935 1.48e-42 0.0016280381 6.87e-43 2.1708224e-11
4.383313e-20 8.434e-42 -0.018240685 -0.0028759255 -0.011946863 -0.008776751 -7.9e-42 -1.2516e-41
1.5603e-41 0.053637285 -1.9802e-41 -0.025590133 -0.028571488 0.016301436 -4.57e-43 -0.0001708835
0.020699494 -0.04058465 0.039653294 0.0008062431 -0.0005433246 9.509e-42 0.003865327 0.019251114
-0.00039015122 -0.015724162 0.04741792 0.00030287457 0.0006598822 -0.005014329 -0.0011773943 4.32e-43
-1.0117e-41 -1.5671316e-14 6.397e-42 1.4285702e-20 -1.0828264e-18 -0.0004031159 5.598e-42 -7.291465e-25
4.029e-42 1.2518891e-06 -1.5522e-41 4.207e-41 4.601868e-18 5.043e-42 1.1048e-41 -2.5000316e-14
-8.994e-42 3.034e-42 4.1899e-41 -5.9833434e-05 2.652e-41 4.0541e-41 -1.3394e-41 8.7e-44

gnn.gnn_layers.0.gat_conv.res_fc.weight f4 [1024, 74]
00000000: d833 f6bb 2e49 d9bd f503 adbd 885d 093d
00000010: d318 e13d da4e fb3b fa09 0fbc 648c 813c
00000020: f765 be3b 2b68 0080 264d de2b 9d56 69b8
00000030: d717 0080 3f2c 0000 422f c234 9d9c c13b
00000040: 2d22 0080 c72d 0000 4603 0080 11c1 9cab
00000050: 4e76 b628 c81a 0080 3c32 0000 e931 0080
00000060: a12b 0000 4226 0080 4148 0000 a34c 0000
00000070: 5e18 0080 a565 f53b 4b55 9025 7010 0080
00000080: b31d 0000 99a9 4430 530f 0080 181e 0080
00000090: b51b 0080 4e26 0080 b212 0000 1617 0080
000000a0: 7414 0000 c053 a488 ab32 0080 040f 0000
000000b0: 2aef 06bc 8b78 d93c 0215 48bd 3851 8f3c
000000c0: d413 0080 052c 90bb 790e 0080 f868 0200
000000d0: 5560 0000 1a22 0000 214d e5bc 63df 633d
000000e0: 6cf8 82bd 1f65 aebc 9549 0000 31cc 8b2a
000000f0: 42af c1ac 030e 483b b3c5 2ab0 8b88 32bb
00000100: 7302 543c 5f34 d3bc 9501 0000 2656 8bbb
00000110: 3bbb 333d 31ff 0f3c 33c1 253d 57df 66bd
00000120: 5fe8 b8bc 4a0b 0000 35e6 a2ba d882 0bba
00000130: 6eb3 a4b8 1483 1e39 053b c8b9 ea61 dfb8
00000140: 5264 d5b8 912e d739 988b 38b7 2b46 8929
00000150: 3b0f 0000 2ff4 4c1e cf0f 0080 0a0d 0080
00000160: 506a f636 364a 6fb8 4816 0080 2711 0080
00000170: 7224 0aa1 9d0a 0000 b629 0080 c51a 0080
00000180: be1d 0080 6e29 0000 580b 0000 7e1f 0000
00000190: c030 0080 2117 0080 c304 0000 a129 88b8
000001a0: ba81 0d31 b025 0000 160d 0000 0506 0000
000001b0: b913 0000 4a0d 0000 4d18 0000 de10 0080
000001c0: 9026 0080 861f 0000 6311 0000 170b 0080
000001d0: eb7b daa9 e21a 0000 1081 89ba c601 e7ba
000001e0: e8b1 52ba 6368 b4b9 b60c 0000 c2ea 8738
000001f0: ea4c cfa3 415b 82a5 3405 0000 ce34 0080
00000200: c253 d3ba adc8 31ba 121d 92ba 2444 0aba
00000210: 252d 0000 8d00 0000 dae3 7fa6 a9b0 e6b8
00000220: 5602 0080 bd48 6b36 514f d2ba 7548 42ba
00000230: 5712 0080 d78d 5b38 6a5b bdba 97d0 8bba
00000240: d1fa c1b6 36e0 73ba 8945 59b8 6618 0080
00000250: 20c0 48bd ab35 aa3d 4093 293c e72c d8bb
00000260: 3d80 14bd 8c8c afb8 7f24 2aba cf25 573c
00000270: 3cac fdb9 e415 0080 5317 0000 7e1b 0000
00000280: 2e01 0000 2804 0080 751a 0080 0ac1 8838
00000290: 6a7c 479e bb1c 0080 e06b 99a5 6e28 602f
000002a0: c8ba 3196 4336 0080 2725 0080 8b2e 0000
000002b0: f508 0080 5743 9cb1 6c18 0080 120c 0000
000002c0: e70a 0000 607e 7039 cd0c 0080 3424 0080
000002d0: 8c1c 0000 f819 0000 af0e 0080 4317 0000
000002e0: 3122 4a2a 410f 0080 dc05 0000 8200 0000
000002f0: 9724 0080 7d17 0080 252c 6b2f b015 0000
00000300: 195b 963c 8b71 01bd 539f 15ba 83e7 a6bc
00000310: fe26 0080 e1ca 6db8 4414 0000 a206 0080
00000320: 8a07 0080 d003 0080 c908 013c 973b 50bc
00000330: 8744 bcbb f875 ddbc aa0a 0000 da19 0080
00000340: f522 0080 ba2d f93d 250a 0080 8076 a7bc
00000350: 597d cfbc 4335 563c c2f0 6f83 85a0 2eb8
00000360: a7c7 d23c dc5b e5bc e6c2 22bb 68d6 7f3d
00000370: 01b8 30bc 2754 9a2c eef4 9abb 5160 c83c
00000380: 04e9 9e3b 4e97 ad39 c30a 543d d6af 2b3a
00000390: 0e06 a438 cfd3 d0bb 4e72 c139 6367 22a0
000003a0: b815 0000 9ab5 faa0 b5e6 4d33 8505 0080
000003b0: de09 0000 d512 14ba b110 0080 3c0a 8827
000003c0: fc1a 0000 f616 0000 9011 0080 11ae d499
000003d0: d51d 0000 e00e 0080 3e0c 0000 a31a 0000
000003e0: f1f4 9736 bc0c 0080 bc0e 0080 5748 1139
000003f0: 25a5 0000 112b 0000 6d45 0180 b115 0000
-0.0075135045 -0.10609661 -0.0844802 0.033536464 0.10991063 0.007669312 -0.008730406 0.015814014
0.005810495 -3.7368e-41 1.5795462e-12 -5.5632194e-05 -8.552e-42 1.5873e-41 3.61697e-07 0.0059085623
-1.226e-41 1.6422e-41 -1.174e-42 -1.1138053e-12 2.0257366e-14 -9.607e-42 1.802e-41 -1.7904e-41
1.5651e-41 -1.3724e-41 2.592e-41 2.7492e-41 -8.741e-42 0.0074889236 2.5037815e-16 -5.897e-42
1.0654e-41 7.15454e-10 -5.497e-42 -1.0796e-41 -9.94e-42 -1.3741e-41 6.707e-42 -8.282e-42
7.337e-42 -9.8900805e-34 -1.8176e-41 5.387e-42 -0.008235732 0.026546737 -0.04884816 0.017494783
-7.113e-42 -0.004399779 -5.192e-42 2.21327e-40 3.4557e-41 1.2233e-41 -0.02799088 0.05563296
-0.06395039 -0.021288453 2.6396e-41 2.4833046e-13 -5.5048474e-12 0.003052593 -6.2126587e-10 -0.002724203
0.012940037 -0.025781808 5.68e-43 -0.004252213 0.04387973 0.00878887 0.040467452 -0.056365337
-0.02257174 4.05e-42 -0.0012428226 -0.00053219264 -7.853551e-05 0.00015116885 -0.00038190946 -0.000106517065
-0.000101753176 0.0004104269 -1.0999756e-05 6.0961944e-14 5.464e-42 1.0850166e-20 -5.671e-42 -4.678e-42
7.3437477e-06 -5.7051155e-05 -7.993e-42 -6.153e-42 -4.6804454e-19 3.807e-42 -1.4963e-41 -9.603e-42
-1.067e-41 1.4862e-41 4.07e-42 1.1297e-41 -1.7488e-41 -8.297e-42 1.708e-42 -6.492739e-05
2.0591941e-09 1.352e-41 4.694e-42 2.16e-42 7.075e-42 4.767e-42 8.717e-42 -6.051e-42
-1.3834e-41 1.1308e-41 6.237e-42 -3.978e-42 -9.702641e-14 9.644e-42 -0.0010490734 -0.001762443
-0.00080373744 -0.0003441005 4.56e-42 6.481029e-05 -2.247556e-17 -2.261324e-16 1.867e-42 -1.8943e-41
-0.0016122984 -0.0006781917 -0.001114758 -0.0005274436 1.6195e-41 1.98e-43 -8.8779694e-16 -0.0001100016
-8.38e-43 3.5060068e-06 -0.0016045367 -0.00074113096 -6.579e-42 5.2345767e-05 -0.0014446799 -0.0010667023
-5.781047e-06 -0.00093031244 -5.180159e-05 -8.753e-42 -0.04901135 0.083110176 0.010350049 -0.0065971497
-0.03625511 -8.370829e-05 -0.00064904237 0.013131573 -0.00048384245 -7.853e-42 8.367e-42 9.862e-42
4.23e-43 -1.491e-42 -9.491e-42 6.520942e-05 -1.05607005e-20 -1.0307e-41 -2.6614368e-16 2.0387045e-10
-1.4356884e-25 -1.9465e-41 -1.3328e-41 1.6696e-41 -3.213e-42 -4.547853e-09 -8.761e-42 4.33e-42
3.911e-42 0.00022935262 -4.592e-42 -1.2987e-41 1.024e-41 9.316e-42 -5.267e-42 8.345e-42
1.7953067e-13 -5.472e-42 2.102e-42 1.82e-43 -1.3126e-41 -8.426e-42 2.1388809e-10 7.78e-42
0.018353986 -0.031602424 -0.000570764 -0.020374065 -1.3988e-41 -5.669415e-05 7.27e-42 -2.38e-42
-2.705e-42 -1.368e-42 0.00787563 -0.01270952 -0.005745474 -0.027033791 3.826e-42 -9.274e-42
-1.254e-41 0.12166925 -3.639e-42 -0.020442247 -0.025328325 0.013074222 -7.0512164e-37 -4.163433e-05
0.025729967 -0.027997904 -0.0024835407 0.062460333 -0.010786057 4.386286e-12 -0.004728905 0.02445999
0.004849555 0.00033109862 0.051768076 0.0006549334 7.821257e-05 -0.006372906 0.00036896992 -1.3756142e-19
7.791e-42 -4.247182e-19 4.794011e-08 -1.98e-42 3.54e-42 -0.0005648558 -5.988e-42 3.775868e-15
9.68e-42 8.237e-42 -6.3e-42 -2.1990591e-23 1.0702e-41 -5.336e-42 4.392e-42 9.555e-42
4.5286656e-06 -4.568e-42 -5.286e-42 0.00013855226 5.9243e-41 1.545e-41 -1.16741e-40 7.781e-42

readout.weight_and_sum.atom_weighting.0.weight f4 [1, 128]
00000000: 6ad0 e63e d909 403c be07 853d 7d07 a73c
00000010: 3eba f93d 8777 7a3e 194c 9fbc 8591 24bd
00000020: a9ba af3b 447b c23c b617 c73c 6d43 b8bc
00000030: 9e5c 90bb bb42 94bc e346 9c3d 2072 823e
00000040: 9cca c23d af6a 2b3e 3e0a 863d 5680 be3c
00000050: a9ce 513d 0df2 303e e52c 56bd 20c4 f43c
00000060: 5141 503d 3972 873c 50fd 903e 5020 c83c
00000070: 2407 993c 5b79 2f3e 9f8f 81bc 6eb9 273e
00000080: d26b 9c3c 85fe 573b 15f8 6c3c 0d97 7cbd
00000090: 726f 29bd 7bf7 1a3d fc8d 163c c1e5 363d
000000a0: 9f98 923d a138 1f3c b73f 593e b7fc 503d
000000b0: 703a b53d 7664 6b3c 802a b53d a3d0 123c
000000c0: f247 1a3e d58c 963e 131e 973d 7725 a13d
000000d0: c128 41bd ab7e 503a 3864 1ebc f6b6 7a3d
000000e0: db22 ab3e d796 5e3d 1250 18ba a417 943e
000000f0: 323a a13c 54bd 713c 7410 1d3c 15f4 0c3e
00000100: 7a7f bfbc 7705 ab3e 7a16 15bc 28d5 a3bd
00000110: f9ea 3fbd e574 193e 76bf e33b 86a1 c2bd
00000120: efae e73c da34 893c 6875 753d 7dd0 d33b
00000130: 3166 9abc a7ad 993c 663a 2abe 5689 b3b9
00000140: 8beb cc3a 37ce eb3d b364 cc3d 89b9 983d
00000150: d50a 42bd f730 003c fbfd 683e cf54 903d
00000160: 6dd1 94bc 1029 b0bb 3199 d43d 860a f13d
00000170: d46f 343e d407 0b3d 49c0 fe3d 1175 1c3c
00000180: ccb9 f73d 90fe c63d 4826 023c e2ea 673d
00000190: 1883 053c 5d63 d7bc 87e6 88bd 2ad2 9e3d
000001a0: 3ae4 02be c31d 18bd 2e59 593b f6ba db3d
000001b0: ccb1 883c 77a6 51bd 7425 cebc a2ec 17be
000001c0: 0652 953c 0fff 243d aa06 0e3d 3e47 283e
000001d0: 4177 ab3c 18d8 773d 0fd7 523d 42c8 783e
000001e0: a349 253d f938 6a3d b5fa b93c 3b9d 4cbc
000001f0: bd9a 313e 6fde 6d3d 912c 3c3d daba a1bd
0.45080882 0.011721098 0.06495617 0.020389313 0.12193726 0.24459659 -0.019445466 -0.04017784
0.005362828 0.023740418 0.024303298 -0.022493089 -0.004405572 -0.018098226 0.07630708 0.25477695
0.09511301 0.16739915 0.06544922 0.023254555 0.051222477 0.17279835 -0.05228891 0.029878676
0.05084354 0.016533958 0.28318262 0.02442947 0.018680163 0.17136137 -0.015815554 0.1637933
0.019094381 0.0032958102 0.014463444 -0.06166749 -0.04136605 0.037833672 0.009189125 0.044652704
0.071580164 0.009718091 0.21215712 0.051022258 0.08849037 0.0143672135 0.08845997 0.008960876
0.15066507 0.2940432 0.07378783 0.07868474 -0.047158007 0.00079534453 -0.009667449 0.06120964
0.3342503 0.05434307 -0.0005810271 0.28924286 0.01968107 0.014754612 0.009586442 0.13764985
-0.023376215 0.33402607 -0.009099597 -0.07999641 -0.046854947 0.14985998 0.006950314 -0.095034644
0.028281657 0.016748834 0.05992642 0.0064640627 -0.018847557 0.018759562 -0.1662384 -0.00034243864
0.0015634162 0.11513942 0.09980144 0.07457263 -0.04737361 0.007824174 0.22753136 0.07047426
-0.018166268 -0.005375989 0.103807814 0.11769585 0.17620784 0.033943012 0.12439019 0.009549395
0.12095985 0.09716523 0.007943697 0.056620486 0.008148931 -0.026292497 -0.066845946 0.07754929
-0.12782374 -0.037137758 0.0033164728 0.10729019 0.016686343 -0.051184144 -0.025164343 -0.14836362
0.018227588 0.040282305 0.034674324 0.16433427 0.020930888 0.060508817 0.051474627 0.24295142
0.04035343 0.05718324 0.022702554 -0.012488659 0.17344184 0.058073457 0.04594094 -0.07896967

predict.predict.1.weight f4 [128, 256]
00000000: dd90 ae00 50d4 1400 22d0 df01 eb50 a282
00000010: 24e5 7d02 12de 9704 76f6 2f00 2978 2c01
00000020: 6e90 4500 8758 1900 1aa3 2501 3551 9b01
00000030: ac03 3a81 a076 1000 f0f2 a601 6f45 8300
00000040: 7352 ae04 9c55 6402 d69d 3801 aef7 ae18
00000050: b634 5380 cbb5 3180 1c4b 6480 8620 3300
00000060: 32f7 b301 fe91 0480 d6e1 7a81 6ac2 1900
00000070: 6062 0c00 cbf7 d401 4e39 cc80 6174 e101
00000080: 0266 4200 1bb0 0e00 39ec c500 2db6 6000
00000090: 5daa 6f81 3de8 ce01 c4ee 1901 ee47 ac81
000000a0: 5a06 e301 4e66 1400 33fe 7e8e 2275 1a81
000000b0: b386 d680 26df 8b80 3b88 9a81 81f5 2100
000000c0: 5238 4102 00da 0c80 f608 7a00 5edf 3401
000000d0: 81f7 ce80 2abd 7680 0f0a 3380 f2eb 4881
000000e0: 87fb 2e81 60bf 1400 ea23 0080 632b 8981
000000f0: 8fdd 0201 8379 2b80 3c4a e101 404e 2400
00000100: 2c14 ac00 91af 0401 f436 6501 f378 6616
00000110: c31e ce00 7535 c11a 815f e600 a52b 7c81
00000120: 4e89 1580 b237 3a00 c204 2a01 1838 2b00
00000130: 94ec f384 9c63 6400 6df2 6001 b3c0 b381
00000140: 6ae1 3400 8f75 f200 2e0b 8481 7c6d 3d00
00000150: c44f 9401 a4e0 7792 09d1 0202 18b7 3c01
00000160: bd44 0a01 60e6 2f00 be61 f601 c56d 7f01
00000170: 9189 fc01 dcf9 1000 4b5a 5d02 11c7 8300
00000180: f8ed 2186 242a 7d01 da2d 5101 eae3 4f00
00000190: 8cfe 4080 6027 d700 4d0b 000e 61cc 9881
000001a0: b703 5080 fcb6 3680 8969 1780 27db 5d00
000001b0: fedd 3a00 a551 3380 0bf3 8a81 4a1d 6982
000001c0: e1ba e68e 80ee 1181 8c68 4401 b871 da04
000001d0: 598e b781 3c65 7081 d8ea 3481 af37 b701
000001e0: c062 f480 ef46 8601 8cee 1001 c7f4 9d01
000001f0: 5812 7201 bff8 0381 a0cb 6b00 ec51 4582
00000200: 442e 9581 76f4 0e80 e5c8 5501 5d50 3402
00000210: ed45 4b01 db88 8380 1b32 7880 ec8c 4181
00000220: 6be9 0980 52ce 2700 1464 1880 9250 6a02
00000230: 2cbb c300 f239 3780 c5d6 0781 db3b 7e00
00000240: 195d 2701 c407 1701 f2cd ed80 5bd6 4a00
00000250: ec91 a080 d142 9800 d7c1 4800 c7e6 0e81
00000260: 6386 1381 cc70 0b00 0930 0f00 755c d800
00000270: 3edc 3000 0f4c 0f80 1a6f cf80 3766 0182
00000280: ed5c e801 3dc5 2500 2396 9080 1a81 8181
00000290: 5aef e080 9c56 0382 7a4e 3180 2e91 7300
000002a0: 89ef 3d81 f3e1 6680 a26e 1d00 07d1 c281
000002b0: 9a2b 8f81 b998 4880 57c6 1580 bb49 1900
000002c0: 643d 3d80 72f6 4e82 e3c8 5380 1268 8801
000002d0: a532 4b81 88ce 4701 1f1a 6381 0f31 5c81
000002e0: 9fb9 2601 0849 3480 c037 0400 d56c 4900
000002f0: cb1f 2401 24cb 2400 697f 8481 63f4 2381
00000300: 1fea 1181 1bb1 5680 f663 5101 dec7 2801
00000310: 036d 9201 5496 4a81 61e7 a080 7c82 9600
00000320: 7528 7000 61c8 0180 e4f1 c900 3bff 4680
00000330: 81d9 fc01 ba63 7080 3306 3482 afda 7901
00000340: 5101 2000 0371 8a00 0b28 7700 2175 da00
00000350: 5016 7900 2203 2b80 1784 3800 7f3a 7300
00000360: 1776 0102 aa89 5581 d590 1e80 19ec 5d80
00000370: 6c78 4f01 eae0 3281 25fa 4901 32ae 3300
00000380: 2a7b 1c80 9afe 3780 d12b 3881 a6dc 0882
00000390: 564f d000 13e3 5a81 d225 2882 970f 6d80
000003a0: ff1b e501 3541 0e81 c678 0c80 7dbe 9481
000003b0: 7f75 5080 4778 ac01 c508 9d00 9c0d ff02
000003c0: 255d 6280 3abc 4e81 4ed8 d500 6366 5280
000003d0: 2f39 d301 68f9 fb00 54e4 e880 fafd 2400
000003e0: 83fd 5180 49e3 7300 b721 b800 4ffd 0d01
000003f0: fbbb 9381 24e6 f900 85b6 3d00 d5c5 1c81
1.6031343e-38 1.912873e-39 8.221592e-38 -2.3850205e-37 1.8653265e-37 3.570387e-36 4.404682e-39 3.167762e-38
6.388461e-39 2.327645e-39 3.0422733e-38 5.7054534e-38 -3.416544e-38 1.511923e-39 6.132737e-38 1.2055358e-38
4.098292e-36 1.6775363e-37 3.3908704e-38 4.522804e-24 -7.641255e-39 -4.565154e-39 -9.210494e-39 4.695278e-39
6.6108923e-38 -4.19714e-40 -4.6079777e-38 2.36563e-39 1.137316e-39 7.8232066e-38 -1.8754998e-38 8.281894e-38
6.097736e-39 1.348872e-39 1.8176333e-38 8.88156e-39 -4.4019597e-38 7.6005694e-38 2.8272968e-38 -6.3286035e-38
8.3395745e-38 1.87341e-39 -3.143031e-30 -2.8369371e-38 -1.9701117e-38 -1.2845185e-38 -5.6766147e-38 3.118642e-39
1.4195564e-37 -1.18023e-39 1.1207145e-38 3.3221037e-38 -1.90069e-38 -1.0904448e-38 -4.687219e-39 -3.690348e-38
-3.2139215e-38 1.905362e-39 -1.2884e-41 -5.038811e-38 2.403619e-38 -3.992517e-39 8.275847e-38 3.334149e-39
1.5802942e-38 2.4370534e-38 4.2100084e-38 1.8617417e-25 1.8929147e-38 7.9909294e-23 2.1156424e-38 -4.6316403e-38
-1.977801e-39 5.346438e-39 3.1227482e-38 3.969049e-39 -5.7346288e-36 9.219283e-39 4.1316234e-38 -6.6030725e-38
4.856309e-39 2.2266362e-38 -4.8505184e-38 5.641241e-39 5.448107e-38 -7.821635e-28 9.610882e-38 3.466151e-38
2.5395914e-38 4.398911e-39 9.050638e-38 4.691486e-38 9.276758e-38 1.559e-39 1.6262429e-37 1.2101862e-38
-3.0455566e-35 4.6498995e-38 3.8420134e-38 7.336764e-39 -5.968786e-39 1.9758757e-38 1.578266e-30 -5.612925e-38
-7.348172e-39 -5.024759e-39 -2.150075e-39 8.619318e-39 5.406095e-39 -4.712899e-39 -5.1041943e-38 -1.7126542e-37
-5.6879335e-30 -2.680341e-38 3.6074523e-38 5.1355988e-36 -6.742784e-38 -4.415367e-38 -3.322927e-38 6.7303485e-38
-2.2443286e-38 4.932561e-38 2.6619772e-38 5.802393e-38 4.446154e-38 -2.4239367e-38 9.899445e-39 -1.4496785e-37
-5.4800344e-38 -1.373393e-39 3.9266056e-38 1.3247375e-37 3.733538e-38 -1.2079544e-38 -1.1038234e-38 -3.5549608e-38
-9.10254e-40 3.655598e-39 -2.239953e-39 1.7214727e-37 1.7975066e-38 -5.071739e-39 -2.4949674e-38 1.1592745e-38
3.073985e-38 2.7739891e-38 -2.1838892e-38 6.872723e-39 -1.4746026e-38 1.3982965e-38 6.681692e-39 -2.6246856e-38
-2.7096054e-38 1.050654e-39 1.394764e-39 1.9869635e-38 4.487112e-39 -1.404817e-39 -1.9049803e-38 -9.506757e-38
8.535668e-38 3.468669e-39 -1.327817e-38 -4.757237e-38 -2.0657014e-38 -9.649216e-38 -4.528091e-39 1.0613163e-38
-3.4885676e-38 -9.448276e-39 2.702917e-39 -7.1564285e-38 -5.259247e-38 -6.666942e-39 -1.999696e-39 2.322337e-39
-5.623988e-39 -1.5205216e-37 -7.694411e-39 5.0107843e-38 -3.7321547e-38 3.6698706e-38 -4.1712056e-38 -4.0442816e-38
3.062256e-38 -4.801644e-39 3.87341e-40 6.743033e-39 3.0144853e-38 3.378951e-39 -4.8671967e-38 -3.011371e-38
-2.6800268e-38 -7.961386e-39 3.8458956e-38 3.1000124e-38 5.3788354e-38 -3.7209396e-38 -1.4776682e-38 1.3822133e-38
1.0300089e-38 -1.63718e-40 1.8545709e-38 -6.520044e-39 9.2882283e-38 -1.0321351e-38 -1.322609e-37 4.5890975e-38
2.939208e-39 1.271384e-38 1.0942789e-38 2.0062156e-38 1.1120099e-38 -3.95005e-39 5.190173e-39 1.0582067e-38
9.511313e-38 -3.922069e-38 -2.807021e-39 -8.625397e-39 3.8106294e-38 -3.2854805e-38 3.709734e-38 4.7461e-39
-2.615577e-39 -5.142286e-39 -3.38269e-38 -1.0055025e-37 1.9130244e-38 -4.0203194e-38 -1.2353545e-37 -1.0015662e-38
8.4161487e-38 -2.6128065e-38 -1.145351e-39 -5.463995e-38 -7.38899e-39 6.335541e-38 1.4421319e-38 3.7476694e-37
-9.033293e-39 -3.797127e-38 1.9638556e-38 -7.56724e-39 7.7591213e-38 2.314018e-38 -2.1387744e-38 3.397187e-39
-7.529618e-39 1.0642617e-38 1.6909826e-38 2.607935e-38 -5.426901e-38 2.2949597e-38 5.667441e-39 -2.8794612e-38

predict.predict.1.bias f4 [128]
00000000: 00d7 3a03 dd3c 29b7 079d 0f00 5a0a 0000
00000010: c246 892a 53b3 8abc b623 a790 4697 af2c
00000020: 9d71 158b 178e 1e92 168a 3002 c3c8 24bc
00000030: 3d01 0080 5387 693c 3b97 03ab d690 3592
00000040: 1309 0080 e8ea 19bb a403 0080 3957 c21a
00000050: c5c4 4584 3b03 0080 ee01 0000 f1c3 00b7
00000060: 2e90 cbb1 aa5c f82f 4f1f 09b9 f025 2929
00000070: 9831 46b6 575e b7b8 b0d8 051b f305 0000
00000080: f366 00b2 da06 0080 f206 0000 ba05 0000
00000090: f002 0000 4b36 403d d8ad e63c 5b06 0000
000000a0: 59ab 3996 d222 25b2 7005 0000 1908 8bb5
000000b0: b6f8 179e c671 05b2 8c00 0000 29bb 163b
000000c0: dead 6eac a308 0000 46fd 793a 7732 2b92
000000d0: 940f 0080 2e09 0080 34b0 8c0e fb6b 47b7
000000e0: 94b8 3f2f 9c01 b0b5 c700 3ca1 2468 1cba
000000f0: 0988 9fae f111 a113 7704 0000 8602 0000
00000100: 9574 2639 2d09 9fba 2ff5 fcaf 9ca3 e63b
00000110: d603 0080 c041 8f88 210f 0000 b901 0080
00000120: f446 452a 6003 0000 0f0e 0080 726b 8108
00000130: 5809 0000 ced4 ed1c b626 05b5 1005 0080
00000140: 600a cbb2 f1fb ccb0 9d51 02b5 1266 6d08
00000150: 58d2 d6ba a0cc 3423 6807 0080 0804 0000
00000160: 68a7 14b7 bace 15aa 16d4 38bd 7106 0080
00000170: 83b4 bfb9 1c0a 0080 a805 0000 715c 93af
00000180: 1483 09ba 47fd 3b26 df5e 8c97 a8cb 243d
00000190: 3808 0000 37fc 9f3c 4ea6 473c 1317 040d
000001a0: 0104 44bc 5b07 0000 dba3 c4b8 c521 e4bb
000001b0: 3fb0 26a3 8806 0080 845a 1a9b 2aac b9ae
000001c0: f0a9 0ba7 0745 eba9 c240 8582 8707 0000
000001d0: 6a02 0080 8c37 913b 150e 0080 08c5 ab25
000001e0: fb49 983e abed 3cb3 e3c2 75b9 8108 0000
000001f0: 7bbc 9bbb 20a2 1cb5 dd9c 329f 5be0 032b
5.4907295e-37 -1.0087356e-05 1.433863e-39 3.713e-42 2.4385187e-13 -0.016931212 -6.592491e-29 4.990594e-12
-2.878183e-32 -5.003115e-28 1.2970067e-37 -0.010057631 -4.44e-43 0.014253455 -4.6750424e-13 -5.7292054e-28
-3.255e-42 -0.0023485962 -1.306e-42 8.0377435e-23 -2.324759e-36 -1.159e-42 6.92e-43 -7.675016e-06
-5.924469e-09 4.517678e-10 -0.00013077001 3.7558444e-14 -2.9533167e-06 -8.743692e-05 1.1071518e-22 2.134e-42
-7.4739885e-09 -2.458e-42 2.492e-42 2.054e-42 1.054e-42 0.046926778 0.028159067 2.28e-42
-1.4998249e-25 -9.612181e-09 1.95e-42 -1.0358664e-06 -8.045306e-21 -7.767488e-09 1.96e-43 0.002299974
-3.391835e-12 3.098e-42 0.0009536337 -5.402029e-28 -5.588e-42 -3.293e-42 3.4682342e-30 -1.18864655e-05
1.7436924e-10 -1.311349e-06 -6.3697906e-19 -0.0005966446 -7.2546476e-11 4.0659805e-27 1.602e-42 9.05e-43
0.00015874424 -0.0012133472 -4.6012746e-10 0.0070385467 -1.376e-42 -8.621957e-34 5.427e-42 -6.18e-43
1.7521732e-13 1.211e-42 -5.043e-42 7.789165e-34 3.352e-42 1.5738353e-21 -4.960269e-07 -1.816e-42
-2.3637028e-08 -1.491456e-09 -4.8547537e-07 7.1439576e-34 -0.0016389592 9.8011506e-18 -2.657e-42 1.446e-42
-8.860465e-06 -1.3305581e-13 -0.045124136 -2.311e-42 -0.0003656485 -3.627e-42 2.029e-42 -2.6804828e-10
-0.00052456674 6.5221913e-16 -9.071237e-25 0.040233284 2.948e-42 0.019529445 0.012185646 4.0703415e-31
-0.011963845 2.639e-42 -9.376529e-05 -0.0069620335 -9.0362e-18 -2.343e-42 -1.2767829e-22 -8.4434085e-11
-1.9382248e-15 -1.0448071e-13 -1.9579763e-37 2.7e-42 -8.66e-43 0.0044316705 -5.052e-42 2.9797285e-16
0.29743943 -4.398832e-08 -0.00023437622 3.05e-42 -0.004752693 -5.835045e-07 -3.782272e-20 4.6851905e-13

predict.predict.3.weight f4 [128]
00000000: 4bb7 e98a 62e9 6db8 112b 7c0b 6406 0000
00000010: 0e9c b7b4 ac68 d53b 78f0 3395 d41d 8ab1
00000020: e8bd 6511 2859 4c1d 2ac6 6809 c310 c9bc
00000030: 2102 0080 cf56 e53a 3c78 86ad 9d8a 1415
00000040: 3c03 0080 4a19 17bc fd3e a984 d83a 4821
00000050: 908f 3db9 7505 0080 eca0 3209 05e6 0a3b
00000060: 24bc dcb3 1da3 31b2 7187 e6ba 4b09 9931
00000070: 4365 3f38 a52d b83c 6f3d 6621 64f8 0780
00000080: 7db1 e134 e903 0000 f308 1905 2c05 0000
00000090: 7902 0080 96b1 733c 6248 aabc 8702 0000
000000a0: 6328 b839 c11b 51b7 bf1e 0000 0bac 1fb9
000000b0: fa57 29a2 8bd8 98b1 9406 0000 1186 fa3b
000000c0: eaea 31b4 da01 0080 c814 093b 8d03 f999
000000d0: e603 0080 d2ed 4502 3bac 0c1a 0756 56b8
000000e0: 66ba 55b8 d871 96bb f842 c83a 82b7 19ba
000000f0: 0210 c7af 37ce 8e18 6205 0000 8c05 0000
00000100: 4255 123c 594c beba 95d1 5231 47ca 64bb
00000110: 2a01 0000 e795 2290 9d03 0000 22c5 6f84
00000120: e8b1 d1ad 3406 0080 9500 0080 f127 dd11
00000130: 5264 4e84 ad49 9ca4 6dce 9bb6 1401 0080
00000140: 0641 8430 f23e bbbb a44c 53b8 e29e 1d92
00000150: 9d5a a63a d1fa 8e28 b005 0080 bd05 0080
00000160: 5289 26b8 21fc 2f2e 7044 e93c 3902 0080
00000170: d435 43ba 4acf 8c05 8e06 0000 b4d7 78b1
00000180: d02c 0d3a b5aa 182b 3bee 86ba 5de2 f63e
00000190: 6b02 1c0b befa ab3e eecd ff39 14a7 f10d
000001a0: a913 243d 6e3b 8f05 7356 f4b8 c58f ae3d
000001b0: 4cda 5628 ae02 0000 3f4b 8b9d 5c93 a2b7
000001c0: 3573 023a d7d2 f22d 769e 320d 3305 0000
000001d0: 8202 0080 0cb0 9b3c d806 0000 78d2 e9aa
000001e0: 5417 483f bbc1 94b9 1fc6 60bc 5c7c 2408
000001f0: 653f 953c c195 b135 36f9 57a3 7c2f 03ba
-2.2506031e-32 -5.6722558e-05 4.8565834e-32 2.293e-42 -3.419995e-07 0.006512722 -3.633846e-26 -4.0197197e-09
1.8123434e-28 2.7045268e-21 2.801916e-33 -0.024544125 -7.64e-43 0.0017497184 -1.5287431e-11 2.999771e-26
-1.16e-42 -0.009222338 -3.9789555e-36 6.7840515e-19 -0.00018077926 -1.958e-42 2.1501636e-33 0.0021194231
-1.0278771e-07 -1.0339844e-08 -0.0017587972 4.4539425e-09 4.5632256e-05 0.022482703 7.800834e-19 -7.31954e-40
4.2038656e-07 1.403e-42 7.195669e-36 1.855e-42 -8.87e-43 0.014873883 -0.020786468 9.07e-43
0.00035125305 -1.2463833e-05 1.103e-41 -0.00015227513 -2.2950345e-18 -4.4484003e-09 2.36e-42 0.0076453765
-1.6569871e-07 -6.64e-43 0.0020916928 -2.574743e-23 -1.398e-42 1.4541525e-37 2.9090448e-23 -5.1101695e-05
-5.0956754e-05 -0.004591208 0.0015278747 -0.00058638316 -3.6209263e-10 3.6914363e-24 1.931e-42 1.99e-42
0.00893146 -0.0014518603 3.0678156e-09 -0.0034910606 4.18e-43 -3.2064347e-29 1.296e-42 -2.8184834e-36
-2.3839555e-11 -2.225e-42 -2.09e-43 3.4892268e-28 -2.4261248e-36 -6.777903e-17 -4.643391e-06 -3.87e-43
9.622745e-10 -0.005714291 -5.0377697e-05 -4.9736303e-28 0.00126918 1.5873941e-14 -2.04e-42 -2.059e-42
-3.9705374e-05 4.001433e-11 0.028475016 -7.97e-43 -0.00074466807 1.3241683e-35 2.351e-42 -3.6211363e-09
0.0005385401 5.423815e-13 -0.0010294387 0.48219576 3.0046326e-32 0.3358974 0.0004879082 1.4892994e-30
0.040057812 1.3469486e-35 -0.00011650929 0.085235156 1.1926722e-14 9.61e-43 -3.6870796e-21 -1.9380524e-05
0.00049762736 2.7605846e-11 5.5041225e-31 1.865e-42 -9e-43 0.019004844 2.455e-42 -4.1535156e-13
0.78160596 -0.000283731 -0.013719111 4.949814e-34 0.018218705 1.3231112e-06 -1.1707946e-17 -0.0005004329
