Results/GAT/saved_model/GAT_bst_35.pth (torch, 759485 bytes, 13 tensors)

gnn.gnn_layers.0.gat_conv.attn_l f4 [1, 8, 128]
-0.0044964147 -0.0006614436 0.0077625876 0.0016425134 0.0033155826 -0.0016881005 0.0065237866 -0.0019110005
-0.004539998 0.006438881 -0.0013235657 -0.0035709098 0.0037151242 0.005180668 -0.005400244 -0.004157564
-0.0018769511 0.002344941 0.0015263704 -0.003951228 0.008319619 0.017766476 0.00984244 -0.0010530264
0.0026553345 0.0031098048 -0.0038405652 -0.0013570905 -0.00014604273 -0.004046219 -0.008557003 -0.0079848
-0.0022625087 0.002047569 0.00296149 -0.0016248404 -0.0084773805 0.008374395 0.0016716893 0.0053900955
-0.0011000977 2.8344399e-05 0.0025133234 0.0055992347 -0.0023726332 -0.005512043 -0.003702975 -0.00684059
-0.011082199 -0.0012171943 0.001045027 0.0017726121 -0.01047893 -0.007459521 -0.0019875246 0.013718319
-0.0003586623 0.0013791781 -0.0007965038 0.0014910403 -0.00084323686 0.00077480584 0.0059629963 0.0052910335
-0.00066866685 0.008108145 0.009138074 -0.00287662 -0.0003362776 -0.00021270277 -0.0029286484 0.0028099688
-0.00043542095 -0.004470776 -0.0061939163 0.013511446 -0.0073492 -0.0043967245 -0.0035525444 -0.0026256922
0.0005820195 0.0010686596 0.005581491 0.0015311824 0.0026384245 0.007622758 -0.0038668686 -0.010236743
0.0019791957 -0.008835421 0.0004272752 -0.001575149 0.0057628034 -0.0024566134 -0.00038349166 -0.0062087197
-0.0024612136 0.0007681231 0.0022665919 0.002439031 0.010251628 -0.0029506562 0.0082631875 -0.0027313821
-0.0058056833 -0.0052911257 -0.011253409 -0.0028163283 -0.009174859 0.0020363277 6.620656e-05 -0.00056111586
-0.004534749 0.0014341517 0.00038937584 0.006441269 0.0037420157 -0.0061621577 0.00011336129 -0.009923319
-0.0020780705 0.0050780918 -0.0005517326 0.0046041133 -0.0044175894 -0.007064592 -0.0027182368 0.0020387496
-0.004699892 0.015572441 0.009279468 0.00346814 0.0003163709 0.008581759 0.004375988 -0.004924026
-0.006147602 0.01007218 0.0009801816 -0.002128478 0.0036987502 0.0022320955 -0.0049627176 -0.0067025847
0.0004882614 0.0055767773 0.0015005579 -0.004950495 0.0036423476 0.016711976 0.0055881683 0.0017995891
0.0026746031 0.0033093062 -0.0011142654 -0.00085258606 -0.0010713327 -0.009007451 -0.010173856 0.0009797752
-0.0045119827 -0.0010877609 0.0027496477 -0.0023255933 -0.0073388554 0.014752494 0.0026493892 0.0032812175
-0.00055355666 0.0019829113 -0.000107734595 0.006397133 -0.0068240743 0.0009920301 -0.0027216775 -0.006357843
-0.008344269 -0.0011114364 0.0032712093 0.010539673 -0.0060775224 -0.0072567873 -0.0015526342 0.015822055
-0.0020394623 0.0067598103 -0.00067678926 0.0005518696 -0.0030219976 0.013268276 0.008186257 0.005398317
-0.000967625 0.008594729 0.008873191 -0.00213466 -0.001270597 0.002847695 -0.0045335195 0.001888307
0.004582425 0.012908802 -0.003584008 0.0081247585 -0.0053313063 -0.006358506 -0.000593244 -0.0017736453
-0.0026068685 0.0008826989 0.012510361 -0.0012018909 0.0024499937 0.0060287197 -0.0027100872 -0.0068061724
0.001322425 -0.005471473 -0.00064821454 -0.00073239976 0.0051428075 -0.0026622885 -0.000814535 -0.0026618643
-0.0077438 0.0013955216 0.0016287818 -0.00023658057 0.009466192 -0.0052948566 0.008601284 -0.0009133622
0.006855351 -0.0053724563 -0.0065122405 -0.0035854396 -0.0058826613 -0.0003321407 -5.173888e-05 -0.0004974937
-0.0056503695 0.0004480755 -0.0019107842 0.008650328 0.010407822 -0.0071445536 -0.0020022267 -0.0012699802
0.00048873335 0.009896109 0.003556378 0.0015592191 -0.003849029 -0.0090478165 -0.0024777744 0.0008556372
00000000: a956 93bb bb64 2dba 4e5d fe3b 9b49 d73a
00000010: 3f4a 593b 4143 ddba 7dc5 d53b 897a faba
00000020: 43c4 94bb 40fd d23b 7f7b adba ed05 6abb
00000030: 7179 733b 98c2 a93b 88f4 b0bb 2d3c 88bb
00000040: 0704 f6ba 95ad 193b 7e10 c83a 4e79 81bb
00000050: 034f 083c 008b 913c 2f42 213c b405 8aba
00000060: 1f05 2e3b decd 4b3b feb1 7bbb 67e0 b1ba
00000070: 0c23 19b9 2596 84bb ac32 0cbc aed2 02bc
00000080: 9946 14bb 8230 063b 8f15 423b 99f8 d4ba
00000090: b6e4 0abc c234 093c 961c db3a 669f b03b
000000a0: 2731 90ba 22c5 ed37 92b6 243b c979 b73b
000000b0: 2e7e 1bbb 5e9e b4bb 9dad 72bb 0727 e0bb
000000c0: 1d92 35bc 438a 9fba 4af9 883a fe56 e83a
000000d0: d1af 2bbc ff6e f4bb 2141 02bb cdc2 603c
000000e0: d70a bcb9 8ac5 b43a 77cc 50ba 036f c33a
000000f0: ab0c 5dba 571c 4b3a 3d65 c33b 6860 ad3b
00000100: 7949 2fba 06d8 043c dcb7 153c ad85 3cbb
00000110: 6a4e b0b9 f708 5fb9 91ee 3fbb 7427 383b
00000120: 3649 e4b9 967f 92bb 56f6 cabb 1d5f 5d3c
00000130: 8fd1 f0bb 6612 90bb ced1 68bb ce13 2cbb
00000140: ab92 183a 4412 8c3a f1e4 b63b f5b1 c83a
00000150: 6be9 2c3b 54c8 f93b 4a6b 7dbb 03b8 27bc
00000160: 65b5 013b 71c2 10bc e803 e039 3b75 ceba
00000170: e6d5 bc3b 22ff 20bb 610f c9b9 8472 cbbb
00000180: 504c 21bb de5b 493a 1a8b 143b 26d8 1f3b
00000190: 72f6 273c cc5f 41bb 5262 073c fd00 33bb
000001a0: 9a3d bebb 2e61 adbb 3860 38bc 2692 38bb
000001b0: 2652 16bc e973 053b 60d8 8a38 d917 13ba
000001c0: 3b98 94bb 25fa bb3a 2425 cc39 4811 d33b
000001d0: 9b3c 753b edeb c9bb 61bc ed38 6b95 22bc
000001e0: 3d30 08bb 1f66 a63b 26a2 10ba 1ade 963b
000001f0: 6dc1 90bb 187e e7bb 7224 32bb 8b9c 053b
00000200: 8d01 9abb 8d23 7f3c e908 183c bc49 633b
00000210: 95de a539 829a 0c3c 7364 8f3b b959 a1bb
00000220: d371 c9bb c905 253c 7079 803a ef7d 0bbb
00000230: bb66 723b 5948 123b 4b9e a2bb 5ba1 dbbb
00000240: 56fd ff39 66bd b63b 5eae c43a c337 a2bb
00000250: 74b4 6e3b 8ee7 883c f41c b73b 31e0 eb3a
00000260: 6548 2f3b f2e0 583b 8b0c 92ba 1580 5fba
00000270: f66b 8cba fd93 13bc 3fb0 26bc cd6b 803a
00000280: 41d9 93bb 3393 8eba 6f33 343b fb68 18bb
00000290: c87a f0bb 72b4 713c 60a1 2d3b b209 573b
000002a0: 8f1c 11ba bbf3 013b 92ef e1b8 0b9f d13b
000002b0: 7c9c dfbb 0207 823a 2c5e 32bb 7455 d0bb
000002c0: 67b6 08bc 9ead 91ba c961 563b 98ae 2c3c
000002d0: f425 c7bb 58ca edbb c281 cbba 419d 813c
000002e0: 80a8 05bb 6681 dd3b 8f6a 31ba 58ab 103a
000002f0: b50c 46bb 2f63 593c a71f 063c 5de4 b03b
00000300: 37a8 7dba e8d0 0c3c dc60 113c a7e5 0bbb
00000310: 298a a6ba 65a0 3a3b eb8d 94bb 1281 f73a
00000320: 2b28 963b 717f 533c ade1 6abb b51d 053c
00000330: 3db2 aebb 045b d0bb ee83 1bba a979 e8ba
00000340: ffd7 2abb ec64 673a 42f8 4c3c c488 9dba
00000350: 1390 203b 918c c53b b89b 31bb 5006 dfbb
00000360: 3855 ad3a 0b4a b3bb f1ec 29ba 84fe 3fba
00000370: ff84 a83b ca79 2ebb 8586 55ba ac72 2ebb
00000380: b4bf fdbb efe9 b63a d97c d53a 9d12 78b9
00000390: 1618 1b3c 7a80 adbb 66ec 0c3c b36e 6fba
000003a0: daa2 e03b 6e0b b0bb a264 d5bb b2f9 6abb
000003b0: 57c3 c0bb 2c23 aeb9 3302 59b8 3d6a 02ba
000003c0: bc26 b9bb adeb ea39 4773 faba 1bba 0d3c
000003d0: 9285 2a3c dc1c eabb ca37 03bb 7775 a6ba
000003e0: 571e 003a 4a23 223c 1f12 693b b65e cc3a
000003f0: fe3f 7cbb 4b3d 14bc 2862 22bb d74c 603a

gnn.gnn_layers.0.gat_conv.attn_r f4 [1, 8, 128]
-0.00031040673 0.0024609913 0.001442888 0.0005267314 -0.0005127519 0.0028971913 -0.00019083201 -0.0012829169
-0.00044957493 0.0026270484 0.0004291684 0.00079838024 2.9043753e-05 -0.00041000344 -0.0003705509 -0.0015700902
0.00081128866 0.0024383725 0.00023306883 0.00013714976 0.0009481803 0.0020045638 -3.5593806e-05 0.0011340724
-0.00030660987 0.00279779 0.0003044725 0.00012494178 8.646291e-05 -0.00092596834 -0.0011724627 0.0015241571
-0.0013480905 0.00020387488 -0.0010930286 0.00010886438 -0.0009351905 0.002662372 -8.713624e-05 2.9058183e-05
-4.8194834e-05 0.00040310234 0.00018467478 0.0008580473 0.0006088897 0.0009993009 0.000899917 -0.0011881242
-0.0027206084 -0.00012936491 0.0023353999 0.00083478726 -0.0016995869 -0.002283379 0.00053542206 0.0032495847
0.00031142027 0.003072094 -0.00024949305 8.0068305e-05 0.00025825144 0.0023708632 0.001940639 0.0017087627
2.1049285e-05 0.001076458 0.0006949454 0.0009053619 0.00033532042 -0.0011541083 -0.0005624877 0.0002897002
0.001013211 0.0031363347 -0.00043987867 0.0021912416 -0.0008417415 -0.00023701775 0.00041385196 8.567263e-05
-0.0013525276 -0.0003146574 0.003441452 -3.5657267e-06 0.00027360072 0.00046632253 -0.00073315814 -0.0011428294
-0.00011747612 -1.9294246e-06 -0.00018544988 0.0007216668 -0.00046449725 -0.00030437662 -0.000117344905 -0.00040306564
-0.0010533956 2.3868864e-05 0.0010129688 0.00044819518 0.0009277041 -0.001449438 0.00040447395 -0.0017507095
0.0041059144 -0.00023964084 -0.0006114248 0.00035145 -2.2906881e-05 0.0002993705 0.0001310067 -2.9991952e-05
-0.0012747004 -0.0006209753 0.00034052963 -0.00021536935 0.0019274616 -0.00070384576 -0.0007430021 0.00053476566
6.768931e-05 -0.0016481264 0.0015874165 -2.3382941e-05 0.00021048599 -0.0031201993 5.1117306e-05 0.0011898832
-0.00082053925 0.0018800272 0.0036184986 -0.0006166417 -0.00077172933 0.001633944 0.00036255733 -1.9055175e-06
0.000112956965 0.007146159 -0.00081254577 0.00056951557 0.0009589874 -0.0025498732 -0.0016395017 -0.0043899026
-0.0022479622 0.009111708 0.0027842098 -0.00029829293 0.0035201297 0.00078173017 0.001731996 0.00020363888
-0.0010412782 0.0053917216 -0.004399068 3.0724506e-05 0.0012069278 0.00044887906 -0.0026969346 -0.00036268868
-0.0027724984 0.00022612105 0.00087771256 -0.0005649948 -0.0020521772 0.0036297354 7.970455e-05 -0.0025199277
0.00095209375 0.0007863978 -0.0007197536 -0.0005948411 -0.0023705184 -0.0011619916 -0.0026033544 -0.004977348
-0.0067987894 0.00044165598 0.008844851 0.0033036654 -0.005272316 -0.0033360103 -0.0008249729 0.0002770023
0.0030895537 0.009552227 0.0006747985 0.0033164483 -0.00020864364 0.0016076623 0.002563154 -0.00051019975
-0.0003913874 0.000863492 0.001722883 0.003979854 -0.0002724894 0.004438671 0.0021766892 0.005193349
0.00024760395 0.0012412715 -0.0017845287 -0.0011804193 -0.0032337243 0.0025734906 -0.0023503457 -0.0015484532
-0.00502878 -0.00026431298 0.0050147735 0.0023898128 -0.0011369121 0.00056803366 -0.00060689775 0.0001611814
0.0008067375 -0.002227509 0.0007524051 -0.0019916613 -0.0005255878 -0.0011820138 -0.0008459756 -0.0032139716
0.0034244342 -0.0023077882 -0.0008636175 0.0006599078 0.0028930146 0.0059729507 -0.0012211823 0.00015497931
0.003476963 -0.0014185867 -4.280608e-06 -0.0011267745 -0.0003179979 -0.00075318344 -2.2064696e-05 8.044134e-05
-0.00021408078 -7.3762734e-05 0.0073234634 0.0021491938 0.0027328886 -0.0017461607 -0.0017282306 0.0007338816
-0.00035462435 0.0024239924 -0.0027143923 0.0025435262 0.00089531054 -0.0041767396 0.0005073091 -0.0011542311
00000000: 16be a2b9 9548 213b 4a1f bd3a 5914 0a3a
00000010: 336a 06ba cede 3d3b 141a 48b9 8c27 a8ba
00000020: edb4 ebb9 8f2a 2c3b 0202 e139 644a 513a
00000030: fca2 f337 bbf5 d6b9 8046 c2b9 7ccb cdba
00000040: a9ac 543a 1acd 1f3b f063 7439 dccf 0f39
00000050: 4e8f 783a 005f 033b 8f4a 15b8 28a5 943a
00000060: 7bc0 a0b9 215b 373b 9ba1 9f39 ce02 0339
00000070: 6c53 b538 afbc 72ba 52ad 99ba 3ac6 c73a
00000080: 69b2 b0ba 3fc7 5539 f443 8fba 1e4e e438
00000090: 9227 75ba 317b 2e3b eabc b6b8 f9c1 f337
000000a0: cf24 4ab8 7b57 d339 42a5 4139 94ee 603a
000000b0: e59d 1f3a f9fa 823a 68e8 6b3a d5ba 9bba
000000c0: 3c4c 32bb 21a6 07b9 820d 193b a0d5 5a3a
000000d0: acc4 deba bea4 15bb 915b 0c3a fcf6 543b
000000e0: 1f46 a339 2f55 493b 64ce 82b9 58ea a738
000000f0: ec65 8739 7c60 1b3b 0a5d fe3a 90f8 df3a
00000100: ff92 b037 f017 8d3a ff2c 363a cf55 6d3a
00000110: f2cd af39 7345 97ba e973 13ba e7e2 9739
00000120: b8cd 843a f78a 4d3b 849f e6b9 ef9a 0f3b
00000130: 51a8 5cba f887 78b9 45fa d839 25ab b338
00000140: 4c47 b1ba 9af8 a4b9 fc89 613b b84a 6fb6
00000150: 1172 8f39 c07c f439 6931 40ba feca 95ba
00000160: 835d f6b8 437b 01b6 5375 42b9 3d2e 3d3a
00000170: c487 f3b9 bd94 9fb9 1117 f6b8 8e52 d3b9
00000180: 1712 8aba ff39 c837 98c5 843a bdfb ea39
00000190: 2b31 733a 12fb bdba 930f d439 1078 e5ba
000001a0: e88a 863b 1948 7bb9 0648 20ba d242 b839
000001b0: 2728 c0b7 d4f4 9c39 d85e 0939 3a97 fbb7
000001c0: d913 a7ba f2c8 22ba 1d89 b239 c5d4 61b9
000001d0: e1a2 fc3a 4a82 38ba 07c6 42ba 842f 0c3a
000001e0: 6cf4 8d38 f205 d8ba dc10 d03a 7c26 c4b7
000001f0: e7b5 5c39 427c 4cbb ca66 5638 dbf5 9b3a
00000200: 7519 57ba 3f6b f63a 5524 6d3b 20a6 21ba
00000210: e14d 4aba 102a d63a 9f15 be39 15c1 ffb5
00000220: 4fe3 ec38 542a ea3b 0601 55ba 8b4b 153a
00000230: 8e64 7b3a c61b 27bb 8ce4 d6ba 2cd9 8fbb
00000240: 8c52 13bb 4649 153c 4a77 363b 3364 9cb9
00000250: fab1 663b 06ed 4c3a 2404 e33a e587 5539
00000260: 807b 88ba 0aad b03b 0f26 90bb 30de 0038
00000270: c731 9e3a 8757 eb39 0ebf 30bb 4027 beb9
00000280: ceb2 35bb e81a 6d39 4b16 663a 291c 14ba
00000290: d27d 06bb dbe0 6d3b 0e27 a738 5f25 25bb
000002a0: ee95 793a 4326 4e3a d9ad 3cba 1cef 1bba
000002b0: b35a 1bbb f84d 98ba 0a9d 2abb 0519 a3bb
000002c0: 61c8 debb 108e e739 fee9 103c 4f82 583b
000002d0: 64c3 acbb f7a0 5abb ff42 58ba 9f3a 9139
000002e0: 1c7a 4a3b f280 1c3c f6e4 303a c558 593b
000002f0: 5ac7 5ab9 32b8 d23a 97fa 273b edbe 05ba
00000300: 2133 cdb9 f85b 623a 5cd2 e13a 6f69 823b
00000310: e8dc 8eb9 4572 913b c9a6 0e3b f82c aa3b
00000320: d7d0 8139 29b2 a23a d9e6 e9ba 4db8 9aba
00000330: e4ec 53bb 02a8 283b 4208 1abb 78f5 caba
00000340: 77c8 a4bb 7d93 8ab9 f852 a43b 689e 1c3b
00000350: 7104 95ba 18e8 143a 3818 1fba cd02 2939
00000360: 3d7b 533a 66fb 11bb 0d3d 453a 8886 02bb
00000370: 9ac7 09ba cded 9aba 76c4 5dba 7fa1 52bb
00000380: 796c 603b 433e 17bb 6464 62ba aafd 2c3a
00000390: bb98 3d3b beb8 c33b 1410 a0ba f181 2239
000003a0: c2dd 633b dfef b9ba 25a2 8fb6 47b0 93ba
000003b0: f5b8 a6b9 4971 45ba 9317 b9b7 9eb2 a838
000003c0: df7a 60b9 11b1 9ab8 aaf9 ef3b 7dd9 0c3b
000003d0: 431a 333b 6edf e4ba cc85 e2ba f661 403a
000003e0: e0ec b9b9 d8db 1e3b f2e3 31bb 4ab1 263b
000003f0: 46b3 6a3a 08dd 88bb f0fc 043a 9249 97ba

gnn.gnn_layers.0.gat_conv.bias f4 [1024]
0.0034008343 -0.05641459 -0.010756802 0.008618333 0.005790989 -0.012063605 0.020875035 0.013601319
0.011225167 0.0011935041 -0.027159424 -0.011077177 0.013135547 0.015818115 -0.030138854 0.0041583185
-0.026108727 -0.01564519 0.027366677 0.00092920114 0.04964897 0.009342607 0.0526005 -0.027076347
0.0077746506 -0.03160477 -0.019655949 -0.0050962744 -8.143387e-08 -0.003676268 -0.0086916555 -0.0066633015
-0.0071384558 0.00767313 -0.0071200966 0.010381115 -0.0069602 0.0024181253 -0.0023576773 -0.016993748
0.00081619475 0.01260128 0.00049633015 -0.00020295297 -0.019745274 -0.029294694 -0.023528215 0.002696618
-0.010726714 -0.0052107237 0.005087625 -0.046315562 -0.007239681 -0.004424749 -0.015655357 0.008453288
-0.0006246685 -0.0140592195 -0.0028852466 0.012726917 0.0008520641 -0.028595248 -0.0032529377 -0.007483803
-0.0017791324 -0.011954233 0.008216419 0.035765123 -0.0077867666 -0.0062872274 0.014336437 -0.0077570984
-0.01390855 -0.0717905 -0.02197949 0.02288182 -0.02263379 0.0069346037 -0.02962316 0.0006234068
-0.030378249 0.0009303834 -0.013690165 0.017659685 -0.0012263188 -0.00742448 -0.0069769793 -0.0061769397
0.0019791035 -0.037548985 0.0039506424 -0.0040762695 0.022281311 -0.004813222 0.00015108434 -0.028512662
0.013254462 -0.020201247 -0.008127263 -0.0021077034 0.02438239 0.027241368 0.012384233 0.01058434
-0.057216566 -0.016490445 -0.0111093605 -0.018804086 -0.020848554 0.016216652 -0.0062881117 -0.007368658
0.00053451414 0.020506995 0.0015560003 0.009264703 -0.014941567 -0.0245049 -0.005786293 -0.0167452
0.011176088 -0.05835609 -0.021805769 0.040490862 -0.02473971 -0.028305164 -0.002822804 -0.00044838848
0.0034008343 -0.05641459 -0.010756802 0.008618333 0.005790989 -0.012063605 0.020875035 0.013601319
0.011225167 0.0011935041 -0.027159424 -0.011077177 0.013135547 0.015818115 -0.030138854 0.0041583185
-0.026108727 -0.01564519 0.027366677 0.00092920114 0.04964897 0.009342607 0.0526005 -0.027076347
0.0077746506 -0.03160477 -0.019655949 -0.0050962744 -8.143387e-08 -0.003676268 -0.0086916555 -0.0066633015
-0.0071384558 0.00767313 -0.0071200966 0.010381115 -0.0069602 0.0024181253 -0.0023576773 -0.016993748
0.00081619475 0.01260128 0.00049633015 -0.00020295297 -0.019745274 -0.029294694 -0.023528215 0.002696618
-0.010726714 -0.0052107237 0.005087625 -0.046315562 -0.007239681 -0.004424749 -0.015655357 0.008453288
-0.0006246685 -0.0140592195 -0.0028852466 0.012726917 0.0008520641 -0.028595248 -0.0032529377 -0.007483803
-0.0017791324 -0.011954233 0.008216419 0.035765123 -0.0077867666 -0.0062872274 0.014336437 -0.0077570984
-0.01390855 -0.0717905 -0.02197949 0.02288182 -0.02263379 0.0069346037 -0.02962316 0.0006234068
-0.030378249 0.0009303834 -0.013690165 0.017659685 -0.0012263188 -0.00742448 -0.0069769793 -0.0061769397
0.0019791035 -0.037548985 0.0039506424 -0.0040762695 0.022281311 -0.004813222 0.00015108434 -0.028512662
0.013254462 -0.020201247 -0.008127263 -0.0021077034 0.02438239 0.027241368 0.012384233 0.01058434
-0.057216566 -0.016490445 -0.0111093605 -0.018804086 -0.020848554 0.016216652 -0.0062881117 -0.007368658
0.00053451414 0.020506995 0.0015560003 0.009264703 -0.014941567 -0.0245049 -0.005786293 -0.0167452
0.011176088 -0.05835609 -0.021805769 0.040490862 -0.02473971 -0.028305164 -0.002822804 -0.00044838848
00000000: 88e0 5e3b fc12 67bd 4c3d 30bc e933 0d3c
00000010: 56c2 bd3b 6da6 45bc 1f02 ab3c 11d8 5e3c
00000020: c3e9 373c 5a6f 9c3a 717d debc 0c7d 35bc
00000030: 7a36 573c fe94 813c c2e5 f6bc 8142 883b
00000040: f8e1 d5bc 572a 80bc 1530 e03c a295 733a
00000050: b85c 4b3d bc11 193c 9f73 573d 37cf ddbc
00000060: 7fc2 fe3b 0174 01bd 8305 a1bc a6fe a6bb
00000070: bee0 aeb3 8bed 70bb 7267 0ebc d357 dabb
00000080: b5e9 e9bb e16e fb3b b34f e9bb 8d15 2a3c
00000090: 6412 e4bb 6979 1e3b 4383 1abb 7936 8bbc
000000a0: e7f5 553a 9975 4e3c 271c 023a c6cf 54b9
000000b0: d7c0 a1bc 6dfb efbc 3ebe c0bc beb9 303b
000000c0: 19bf 2fbc b8be aabb 17b6 a63b 63b5 3dbd
000000d0: d93a edbb 7cfd 90bb aa3f 80bc a97f 0a3c
000000e0: cbc0 23ba a458 66bc 6816 3dbb 8f84 503c
000000f0: 0e5d 5f3a 9540 eabc 3d2f 55bb b13a f5bb
00000100: c731 e9ba b0db 43bc 299e 063c 737e 123d
00000110: 2228 ffbb 1605 cebb 60e3 6a3c 422f febb
00000120: b0e0 63bc e606 93bd 550e b4bc a872 bb3c
00000130: 7f6a b9bc ac3b e33b 45ac f2bc 1f6c 233a
00000140: cedb f8bc f9e4 733a b74c 60bc 0bab 903c
00000150: 6ebc a0ba 0d49 f3bb 259f e4bb ed67 cabb
00000160: d9b3 013b f7cc 19bd 6474 813b 3a92 85bb
00000170: 4c87 b63c 3cb8 9dbb 656c 1e39 6393 e9bc
00000180: 3e29 593c 167d a5bc 3628 05bc 6521 0abb
00000190: 94bd c73c 4a29 df3c 3de7 4a3c f169 2d3c
000001a0: eb5b 6abd f816 87bc 0904 36bc 070b 9abc
000001b0: 96ca aabc c9d8 843c 810c cebb c974 f1bb
000001c0: a31e 0c3a 49fe a73c b5f2 cb3a fbca 173c
000001d0: 79cd 74bc 80be c8bc f29a bdbb 3b2d 89bc
000001e0: e91b 373c cc06 6fbd 03a2 b2bc bfd9 253d
000001f0: efaa cabc 3be0 e7bc cbfe 38bb af15 ebb9
00000200: 88e0 5e3b fc12 67bd 4c3d 30bc e933 0d3c
00000210: 56c2 bd3b 6da6 45bc 1f02 ab3c 11d8 5e3c
00000220: c3e9 373c 5a6f 9c3a 717d debc 0c7d 35bc
00000230: 7a36 573c fe94 813c c2e5 f6bc 8142 883b
00000240: f8e1 d5bc 572a 80bc 1530 e03c a295 733a
00000250: b85c 4b3d bc11 193c 9f73 573d 37cf ddbc
00000260: 7fc2 fe3b 0174 01bd 8305 a1bc a6fe a6bb
00000270: bee0 aeb3 8bed 70bb 7267 0ebc d357 dabb
00000280: b5e9 e9bb e16e fb3b b34f e9bb 8d15 2a3c
00000290: 6412 e4bb 6979 1e3b 4383 1abb 7936 8bbc
000002a0: e7f5 553a 9975 4e3c 271c 023a c6cf 54b9
000002b0: d7c0 a1bc 6dfb efbc 3ebe c0bc beb9 303b
000002c0: 19bf 2fbc b8be aabb 17b6 a63b 63b5 3dbd
000002d0: d93a edbb 7cfd 90bb aa3f 80bc a97f 0a3c
000002e0: cbc0 23ba a458 66bc 6816 3dbb 8f84 503c
000002f0: 0e5d 5f3a 9540 eabc 3d2f 55bb b13a f5bb
00000300: c731 e9ba b0db 43bc 299e 063c 737e 123d
00000310: 2228 ffbb 1605 cebb 60e3 6a3c 422f febb
00000320: b0e0 63bc e606 93bd 550e b4bc a872 bb3c
00000330: 7f6a b9bc ac3b e33b 45ac f2bc 1f6c 233a
00000340: cedb f8bc f9e4 733a b74c 60bc 0bab 903c
00000350: 6ebc a0ba 0d49 f3bb 259f e4bb ed67 cabb
00000360: d9b3 013b f7cc 19bd 6474 813b 3a92 85bb
00000370: 4c87 b63c 3cb8 9dbb 656c 1e39 6393 e9bc
00000380: 3e29 593c 167d a5bc 3628 05bc 6521 0abb
00000390: 94bd c73c 4a29 df3c 3de7 4a3c f169 2d3c
000003a0: eb5b 6abd f816 87bc 0904 36bc 070b 9abc
000003b0: 96ca aabc c9d8 843c 810c cebb c974 f1bb
000003c0: a31e 0c3a 49fe a73c b5f2 cb3a fbca 173c
000003d0: 79cd 74bc 80be c8bc f29a bdbb 3b2d 89bc
000003e0: e91b 373c cc06 6fbd 03a2 b2bc bfd9 253d
000003f0: efaa cabc 3be0 e7bc cbfe 38bb af15 ebb9

gnn.gnn_layers.0.gat_conv.fc.weight f4 [1024, 74]
0.012567197 -0.022831416 -0.0069797914 0.0011175042 0.011844038 -7.093973e-05 0.00083049363 0.0024767737
0.0011586399 2.1278037e-23 1.1758961e-22 -3.9898747e-22 4.7729007e-23 2.2087373e-23 -2.2051829e-23 0.00041236202
-5.390888e-23 -2.5778163e-23 -3.4424606e-23 6.814391e-23 -4.1893332e-23 -8.2784307e-23 2.1237229e-22 -9.9945805e-23
2.6434085e-22 9.0586444e-23 2.8101866e-22 6.6842804e-23 2.1142738e-24 0.00014705204 -8.442509e-23 -3.6780127e-24
-1.1407335e-23 6.4191196e-23 5.3748205e-23 1.3427983e-22 1.4759196e-23 -9.3089216e-24 5.581965e-23 4.6038932e-24
5.832363e-23 1.3201404e-22 -4.9678462e-23 -2.22552e-22 -0.00035392106 0.00073115184 0.0061088614 0.00675903
3.1681029e-24 0.00053218065 -2.240739e-22 -3.3081832e-23 8.616918e-24 -1.6163921e-23 -0.0001497898 0.008791179
-0.0056671333 -0.0018959476 -1.4428766e-22 -1.912238e-22 3.0969348e-23 -7.938672e-05 1.29049984e-23 0.00069049466
0.002463723 -0.0014980293 1.1629121e-22 0.00027842223 0.012215134 0.013638693 -0.0037317001 -0.008135619
-0.0025751006 -2.1700134e-25 0.009168685 0.056545973 -0.024426425 -0.042457905 -0.039207134 0.00011819548
-0.000810178 0.007622839 -0.004792252 -1.01884865e-23 -5.0002144e-23 -1.4784115e-23 -2.2597842e-23 4.822244e-24
-2.6339728e-24 -0.0028115157 -1.6272451e-22 -3.8140194e-23 1.5640384e-23 -3.1588023e-23 1.9982235e-23 -8.214914e-23
3.451901e-23 -1.01510015e-22 1.4197184e-22 2.3851995e-23 -4.5369953e-23 -1.9909656e-23 2.3861062e-23 0.00019762405
-1.960075e-23 -1.05611726e-22 1.03469874e-22 -8.673948e-23 4.869186e-23 -2.6682583e-23 -2.5433115e-23 1.4584279e-24
-8.2983264e-23 1.171841e-23 -1.0665933e-22 8.776856e-24 7.767181e-24 -4.0096686e-23 -0.019666746 -0.07047796
-0.018514592 -0.016712127 -5.229258e-22 -0.009419304 -1.6584353e-20 2.170826e-22 -1.4932954e-23 -3.1016216e-24
-0.018784802 -0.02955381 -0.0133921495 -0.0085632065 -4.7802135e-24 3.9334104e-24 2.2399529e-23 0.030105691
-9.448965e-23 -0.011052073 -0.04800597 0.022966724 -2.48017e-22 -0.012163431 -0.020421047 -0.06434631
0.006063214 0.010966049 0.0039409096 -1.657538e-22 -0.01227737 0.05153495 -0.0038632299 -0.012471021
-0.013116976 0.0018131204 0.0019487829 -0.009466601 -0.0004291296 -4.934437e-23 -1.5255136e-22 -2.4665197e-23
-8.90527e-23 4.1526585e-24 1.12550824e-23 -0.0005481842 -6.1350325e-23 1.7026053e-22 2.8143768e-23 -4.4402737e-23
1.1387202e-22 -3.5984596e-24 -2.398118e-22 9.1623253e-23 -2.3074996e-23 -1.5847837e-23 -3.767032e-22 9.945872e-23
-6.639762e-23 -0.00020875248 -3.6627026e-23 4.8125438e-24 1.518466e-24 -1.1161142e-22 -6.1302505e-22 -1.4050679e-22
2.6629795e-24 9.4631226e-24 -2.5228704e-23 9.833159e-23 -1.1154179e-22 4.5310845e-23 1.424712e-22 8.360846e-22
0.020453777 -0.018584657 0.019498393 -0.020193534 -3.5430678e-23 -0.0008982311 -2.285673e-23 2.4812075e-23
1.5819251e-22 -1.9331283e-23 -0.013579028 -0.0063741757 -0.0032504827 0.022950042 -2.724748e-23 -1.2409328e-24
-9.152795e-23 0.00068225316 -3.7975183e-22 -0.006177298 -0.022695823 0.033150114 1.2241268e-23 -0.00056148093
0.001976032 -0.01822078 0.015200677 -0.0004980338 0.039900504 3.0095258e-23 0.0047685783 0.001763812
0.008689186 -0.0010261044 -0.00022817918 1.9163464e-05 -0.00096050877 -0.001469669 -0.00052829884 7.326707e-24
-4.774755e-24 -1.4546589e-22 8.307269e-23 -5.061946e-22 -8.916443e-24 -0.00057594577 -2.4306253e-22 -3.3306152e-23
-1.0131078e-21 -5.197185e-23 5.786223e-23 3.240946e-23 1.8838275e-24 6.6200117e-22 -2.684081e-23 9.3874195e-23
-1.5675141e-22 -1.0190735e-23 -6.774523e-23 -0.00012852144 -1.2201581e-23 9.1888285e-23 -2.0134467e-22 -2.5019741e-24
00000000: a5e6 4d3c f308 bbbc bcb6 e4bb 3879 923a
00000010: 7f0d 423c 7ac5 94b8 7cb5 593a 5e51 223b
00000020: 81dd 973a dec9 cd19 3928 0e1b 522c f19b
00000030: a6cd 661a b09d d519 af45 d599 4b32 d839
00000040: fb57 829a a44f f999 9977 269a 0ac3 a41a
00000050: 6f95 4a9a 0129 c89a 055f 801b 75a7 f19a
00000060: c4c8 9f1b 4b06 db1a 88dd a91b b19d a11a
00000070: 8295 2318 fb31 1a39 9a20 cc9a 4649 8e98
00000080: 63a6 5c99 6d34 9b1a 87f4 811a 9855 221b
00000090: 00be 8e19 8c0f 3499 b1f6 861a c01a b218
000000a0: 9404 8d1a 5e98 1f1b f53a 709a 4186 869b
000000b0: 7b8e b9b9 c5aa 3f3a d82c c83b da7a dd3b
000000c0: be1e 7518 0a82 0b3a c271 879b 53f9 1f9a
000000d0: e9ac 2619 ee53 9c99 e510 1db9 e108 103c
000000e0: 5cb3 b9bb 7281 f8ba de6e 2e9b e62c 679b
000000f0: 32c2 151a 6c7c a6b8 759e 7919 5002 353a
00000100: 6a76 213b 8659 c4ba 6396 0c1b 33f9 9139
00000110: fc21 483c d374 5f3c 8a8f 74bb 424b 05bc
00000120: 05c3 28bb 3c51 8696 4138 163c c09c 673d
00000130: ed19 c8bc 57e8 2dbd a997 20bd b7df f738
00000140: 2062 54ba 02c9 f93b 5308 9dbb f112 4599
00000150: a8cb 719a b2fb 8e99 8c8d da99 318d ba18
00000160: 35cb 4b98 6841 38bb ccb8 449b 466f 389a
00000170: b743 9719 14c0 189a 9e41 c119 db9f c69a
00000180: 77ec 261a a86f f59a 28a2 2b1b aeae e619
00000190: 4865 5b9a ec8d c099 21c5 e619 4d39 4f39
000001a0: 1b91 bd99 7e5a ff9a c02c fa1a 23b9 d19a
000001b0: 9a75 6b1a 7007 019a 58f9 f599 48ae e117
000001c0: 27a4 c89a c1aa 6219 77f1 009b e3c4 2919
000001d0: 383d 1619 4be5 419a 281c a1bc c056 90bd
000001e0: eaab 97bc dfe7 88bc 6d0b 1e9c 6d53 1abc
000001f0: 81a2 9c9e e837 831b 346c 9099 f2f9 6f98
00000200: 96e2 99bc d51a f2bc bf6a 5bbc b14c 0cbc
00000210: f1ec b898 9c2a 9818 8ca2 d819 36a0 f63c
00000220: 4376 e49a c113 35bc e8a1 44bd b624 bc3c
00000230: c6ea 959b 2149 47bc 0a4a a7bc 00c8 83bd
00000240: edad c63b f1aa 333c bf22 813b 5162 489b
00000250: 0627 49bc 5016 533d 3e2e 7dbb 4153 4cbc
00000260: 96e8 56bc 3aa6 ed3a 4e6e ff3a cd19 1bbc
00000270: cdfc e0b9 5f9d 6e9a 5c6c 389b 128c ee99
00000280: f450 d79a f0a5 a018 78b4 5919 05b4 0fba
00000290: 0356 949a 15d5 4d1b 4c18 081a edb7 569a
000002a0: afa9 091b 6b35 8b98 14f5 909b 0c88 dd1a
000002b0: ec2a df99 5845 9999 ffb3 e39b f779 f01a
000002c0: 238a a09a 91e4 5ab9 101e 319a 202d ba18
000002d0: a3f8 ea17 10ee 069b 8446 399c bfdc 299b
000002e0: be09 4e18 1d0b 3719 3fff f399 4ec0 ed1a
000002f0: 83d8 069b 1c1c 5b1a b33c 2c1b eab0 7c1c
00000300: ae8e a73c da3e 98bc 18bb 9f3c e96c a5bc
00000310: 0e55 2b9a 4577 6bba 860e dd99 b9f7 ef19
00000320: 363e 3f1b f0f5 ba99 927a 5ebc 76de d0bb
00000330: 0d06 55bb ba01 bc3c bfc2 039a 6a06 c097
00000340: 0f4d dd9a 3cd9 323a c08b e59b ee6a cabb
00000350: 97ec b9bc 6ac8 073d d3c7 6c19 5930 13ba
00000360: 5180 013b bf43 95bc 430c 793c 7c8e 02ba
00000370: b66e 233d 2088 111a bc41 9c3b b62f e73a
00000380: 165d 0e3c 5a7e 86ba 6243 6fb9 3ac1 a037
00000390: a7ca 7bba e9a1 c0ba 897d 0aba 19b8 0d19
000003a0: e2b6 b898 83db 2f9b 81db c81a e9fc 189c
000003b0: 1678 2c99 11fb 16ba 1bec 929b 050f 219a
000003c0: b618 999c 0952 7b9a fce6 8b1a f8b8 1c1a
000003d0: 0cc1 1118 dc13 481c 50cb 019a 50f9 e21a
000003e0: 3680 3d9b 131e 4599 44cc a39a b6c3 06b9
000003f0: 4d03 6c99 182c de1a 2869 739b b494 4198

gnn.gnn_layers.0.gat_conv.res_fc.weight f4 [1024, 74]
-0.00057722186 -0.015982555 -0.008484735 0.0031168887 0.015263758 -0.00013335094 0.000661085 0.002627868
0.002388519 -4.795432e-23 -3.0928777e-22 8.308651e-23 2.4589722e-23 5.9004536e-24 8.382829e-23 0.00064357906
7.1821216e-23 -1.3125388e-22 -1.8036257e-22 -3.263461e-24 1.5960323e-22 -2.0908381e-23 -4.95947e-22 -9.423579e-23
1.4245082e-22 -7.7418636e-24 1.2985863e-22 9.794564e-23 3.2896502e-24 0.00018102066 3.8889066e-23 5.0011052e-23
1.6288662e-23 -2.601671e-22 1.8819653e-22 -3.3996154e-24 -2.6450022e-23 2.5052682e-23 -5.23549e-23 1.8489753e-23
-7.750352e-23 2.1238703e-24 2.92967e-23 9.5101625e-23 0.0031195981 0.007898009 -0.00023362217 0.0033497065
-1.8563115e-23 0.00017769306 3.2718781e-24 1.909687e-23 -4.5293818e-23 -1.3190768e-22 0.00221902 0.006678098
-0.004422448 -0.0006833395 2.1348362e-23 -7.629409e-23 -1.08330316e-23 -0.0004022277 2.4502065e-22 -0.00023854188
0.006964998 -0.002336178 -6.933156e-24 0.00073352584 0.008751156 0.006507759 -0.0035575414 -0.008651875
-0.0009850183 4.6956263e-22 -0.072435826 0.10857137 -0.03325881 -0.004823907 -0.06012589 -5.8264137e-05
-0.0026837273 0.0015102586 -0.008489151 3.7986795e-23 -6.879802e-21 -1.129727e-22 -2.2901587e-23 -2.2245177e-21
-4.334386e-23 -0.0029526537 6.2074917e-25 5.4949966e-22 6.4343654e-23 1.0930722e-23 -2.882183e-22 1.1005298e-22
3.1479706e-23 -3.8130403e-23 -4.6978744e-22 2.770927e-22 -2.734556e-22 -1.6692885e-22 -1.6439072e-23 0.00019774084
-8.037638e-23 -9.3193976e-23 -3.871739e-23 2.469949e-22 5.157825e-24 4.5454673e-23 4.0158593e-23 -4.570739e-21
4.292726e-23 5.682597e-23 8.348197e-23 9.3389816e-23 -1.6119282e-22 1.3948142e-23 -0.032690965 -0.039335873
-0.03551174 -0.0416551 5.861782e-23 -0.0001436313 2.4712866e-24 -2.3051528e-22 -1.5827747e-22 -2.7089818e-23
0.004117864 0.0068489593 -0.023760753 -0.03818851 6.581369e-23 9.7302665e-26 -1.1914128e-22 0.09331862
-1.0374928e-22 0.0129537685 -0.04154047 0.0353272 4.2723732e-23 0.0027265828 0.004014663 -0.012479228
0.021434482 0.028908258 -0.015465911 -8.6156706e-24 -0.020925557 0.05085666 0.013460224 -0.015771972
-0.020840213 6.0840208e-05 0.000372788 -0.011214309 -0.00053846504 -1.2837154e-22 -1.2000951e-22 -3.0388585e-23
-4.39275e-22 2.9961896e-23 4.314385e-23 -0.0006421417 -5.694837e-23 4.8151524e-23 8.223572e-24 -1.0255777e-22
-8.495777e-23 2.4381272e-22 -1.9301148e-22 -2.7333317e-23 1.2162035e-22 -6.001412e-23 -1.0055184e-22 -2.4467961e-23
-5.916616e-23 -0.0003299675 -1.3847803e-23 7.584394e-24 3.1825612e-23 -5.9841056e-24 4.4306755e-23 3.2746166e-22
1.937755e-23 -5.157424e-23 1.1355376e-22 6.07082e-23 1.901853e-23 1.1446783e-22 2.1967638e-22 7.619621e-25
0.021109361 -0.010517378 -0.01050405 -0.0023959768 -2.0218216e-23 -0.0004840778 -1.74632e-22 -3.4648925e-24
-2.0789425e-24 7.30829e-23 -0.019487612 0.00572987 0.0030830454 0.008753615 1.1254985e-22 9.142261e-23
-4.0699768e-22 -0.002518761 -1.2693207e-21 -0.0047061075 -0.013459729 0.026121056 -2.0012619e-22 3.523709e-05
0.0042764526 -0.01579342 0.012894376 0.024041219 0.025019497 -1.1033667e-22 0.00070389407 0.00971768
0.0054160175 -0.002673649 -0.0039283996 2.3636067e-05 -0.0011780317 -0.0012213193 -0.0010347891 -2.9041794e-23
2.3342254e-23 -9.4537854e-23 -5.5190205e-23 -1.1588994e-22 -2.970037e-23 -0.00042952882 -5.0918483e-24 -5.2623625e-24
8.665547e-25 1.0662043e-22 -1.2824743e-22 5.7792985e-23 -2.4274386e-23 -2.7076243e-23 1.4844336e-23 5.445959e-23
-6.443388e-23 -3.789722e-22 2.1325066e-22 -0.00015159923 -9.71618e-23 1.4894584e-26 6.183646e-23 6.263246e-22
00000000: b450 17ba d9ed 82bc 8f03 0bbc b744 4c3b
00000010: d714 7a3c 1fd4 0bb9 aa4c 2d3a 4f38 2c3b
00000020: b388 1c3b 93e4 679a f7f3 ba9b 0fe4 c81a
00000030: 34d1 ed19 4343 e418 33af ca1a dcb5 283a
00000040: 2ea7 ad1a 1cad 1e9b 830b 5a9b 817f 7c98
00000050: cff2 401b a536 ca99 0ae4 159c 21d9 e39a
00000060: 6536 2c1b dabf 1599 4dfd 1c1b 6ad1 ec1a
00000070: 3c86 7e18 5dd0 3d39 550e 3c1a afd6 711a
00000080: c688 9d19 e942 9d9b 0184 631b 2984 8398
00000090: 15cf ff99 704b f219 3a2c 7d9a 69d2 b219
000000a0: 5b64 bb9a 9653 2418 8fab 0d1a 0ef1 e51a
000000b0: 2c72 4c3b a766 013c 79f8 74b9 c086 5b3b
000000c0: 0c88 b399 1e53 3a39 3926 7d18 8fb1 b819
000000d0: 0807 5b9a 7377 1f9b fa6c 113b f2d3 da3b
000000e0: 2fea 90bb 2322 33ba fc77 ce19 c177 b89a
000000f0: 938a 5199 17e2 d2b9 1c1b 941b 1921 7ab9
00000100: a33a e43b 901a 19bb 531b 0699 164a 403a
00000110: 0261 0f3c 0a3f d53b a425 69bb 98c0 0dbc
00000120: bb1b 81ba a6ea 0d1c 3c59 94bd ab5a de3d
00000130: 643a 08bd dd11 9ebb 9146 76bd a460 74b8
00000140: 79e1 2fbb dff3 c53a 1416 0bbc 60b1 371a
00000150: aef4 019e 5b93 089b 957d dd99 6e14 289d
00000160: 1a99 519a 4f81 41bb d11c 4017 7a13 261c
00000170: cb92 9b1a 506e 5319 9f37 ae9b bf0b 051b
00000180: fd39 181a 2763 389a 0bfc 0d9c 057e a71b
00000190: 344b a59b facd 499b 2cfd 9e99 a758 4f39
000001a0: 9256 c29a 4754 e19a cf39 3b9a 9c4c 951b
000001b0: a088 c718 29ce 5b1a ee31 421a 7aad ac9d
000001c0: 6095 4f1a 9265 891a d6d8 c91a 7fcd e11a
000001d0: c3de 429b ede5 8619 f6e6 05bd a71e 21bd
000001e0: c274 11bd 8a9e 2abd acba 8d1a bc9b 16b9
000001f0: e034 3f18 8356 8b9b 8158 3f9b 92ff 029a
00000200: 26ef 863b 3c6d e03b e9a5 c2bc 8e6b 1cbd
00000210: b320 9f1a e4e8 f015 7108 109b d51d bf3d
00000220: b2d9 fa9a 0b3c 543c 5726 2abd 41b3 103d
00000230: 6b99 4e1a 78b0 323b 6f8d 833b ad75 4cbc
00000240: 5e97 af3c 03d1 ec3c bb64 7dbc bca6 2699
00000250: 136c abbc 134f 503d 4588 5c3c 3934 81bc
00000260: 18b9 aabc ad2e 7f38 c272 c339 39bc 37bc
00000270: c727 0dba 1131 1b9b 2515 119b 3ff3 129a
00000280: 42c3 049c 08e3 101a 80a1 501a 6655 28ba
00000290: 55b1 899a b3d8 681a 2811 1f19 2ff8 f79a
000002a0: 506a cd9a 3160 931b 2956 699b 022d 049a
000002b0: ad07 131b f11a 919a 931e f39a bda3 ec99
000002c0: 140e 8f9a 7dff acb9 80ed 8599 1ab4 1219
000002d0: 33e6 191a b67f e798 1b41 561a 3df0 c51b
000002e0: 7d68 bb19 d165 799a 3047 091b 8ec8 921a
000002f0: 99ef b719 1462 0a1b 46c9 841b dbd0 6b17
00000300: 8aed ac3c 1551 2cbc 2e19 2cbc d205 1dbb
00000310: e189 c399 d3cb fdb9 fc1d 539b a20a 8698
00000320: b3d9 2098 20b4 b01a 7ca4 9fbc a2c1 bb3b
00000330: eb0c 4a3b 536b 0f3c 7e10 081b db0b dd1a
00000340: d703 f69b cc11 25bb 77d0 bf9c b135 9abb
00000350: 3286 5cbc d3fb d53c 0ef0 719b 8acb 1338
00000360: 7c21 8c3b 3461 81bc ef42 533c 17f2 c43c
00000370: b0f5 cc3c 8c63 059b 8885 383a e736 1f3c
00000380: d978 b13b 6338 2fbb ceb9 80bb 1146 c637
00000390: 2f68 9aba ad14 a0ba c3a1 87ba 0070 0c9a
000003a0: 9fc0 e119 1994 e49a 1571 859a 331a 0c9b
000003b0: 479f 0f9a 6232 e1b9 39fb c498 ea93 cb98
000003c0: c517 8617 6de5 001b a80a 1b9b 20bc 8b1a
000003d0: 78c4 ea99 c4ee 029a cc90 8f19 daac 831a
000003e0: a4ca 9b9a 1c13 e59b f1e6 801b 9cf6 1eb9
000003f0: 3eec ea9a 4282 9314 ea82 951a 854b 3d1c

readout.weight_and_sum.atom_weighting.0.weight f4 [1, 128]
-0.048360568 0.16328092 0.03845636 -0.08256974 -0.113350034 0.03766146 -0.24182929 -0.073454306
-0.05178621 0.03714117 0.18578129 0.10933152 -0.07928095 -0.16453102 0.2218176 -0.058883473
0.14464723 0.07883717 -0.20885162 -0.009450291 -0.32153073 -0.15119752 -0.28730795 0.21465366
-0.07527566 0.09138576 0.1672213 0.041001435 -0.02921669 0.03376353 0.11531243 0.19184282
-0.025793701 -0.030295003 0.08081638 -0.07452993 0.05730774 -0.10828332 0.07365843 0.11199984
-0.010765858 -0.06610123 -0.041762836 -0.101942874 0.103817225 0.2299795 0.1479167 -0.051858738
0.123261355 0.04796673 0.029318884 0.26734954 0.006803429 0.052075732 0.1784682 -0.15747482
0.035359442 0.14338695 0.025630206 -0.06630916 -0.013877747 0.09569741 -0.06821298 0.08653333
0.029017204 0.08822635 -0.065505646 -0.26532942 0.023397192 0.0058408612 -0.098268956 0.013173419
0.13706627 0.23493089 0.11411773 -0.15040803 0.13090175 0.014663675 0.17815682 -0.0488459
0.059860133 -0.011940417 -0.030585062 -0.08425958 -0.04047075 0.09025131 0.057344537 0.10305543
-0.003881762 0.25280032 0.001473959 0.036875773 -0.24894512 0.079851896 -0.031200506 0.21081036
-0.012366656 0.15864374 0.00079086877 -0.03168757 -0.16059959 -0.08625681 -0.1503331 -0.12317293
0.21511178 0.08024832 0.17220165 0.12262198 0.1879123 -0.13900562 0.04976135 0.09370785
0.042586207 -0.14027917 0.01887829 -0.13144927 0.0018634401 0.2024003 0.04395112 0.21442369
-0.07777944 0.24362502 0.13063024 -0.2797158 0.25107652 0.21024384 0.074410364 -0.03347884
00000000: bb15 46bd 1d33 273e 6b84 1d3d 531a a9bd
00000010: 1024 e8bd e742 1a3d 19a2 77be 366f 96bd
00000020: c71d 54bd 5721 183d 733d 3e3e 34e9 df3d
00000030: 0d5e a2bd d27a 28be 2724 633e cc2f 71bd
00000040: 671e 143e 6275 a13d 33dd 55be 65d5 1abc
00000050: ad9f a4be 86d3 1abe 071a 93be 2bce 5b3e
00000060: 202a 9abd 7528 bb3d 0f3c 2b3e 1ff1 273d
00000070: d757 efbc a14b 0a3d ec28 ec3d 7272 443e
00000080: 504d d3bc 3a2d f8bc 0f83 a53d 26a3 98bd
00000090: 85bb 6a3d a5c3 ddbd 3bda 963d 2c60 e53d
000000a0: 4863 30bc 1560 87bd 820f 2bbd 6dc7 d0bd
000000b0: 209e d43d bf7f 6b3e 7a77 173e d469 54bd
000000c0: 7370 fc3d c378 443d 282e f03c 0ae2 883e
000000d0: 4def de3b 5d4d 553d 5ec0 363e 1441 21be
000000e0: 10d5 103d 07d4 123e 70f6 d13c 19cd 87bd
000000f0: 7d5f 63bc 01fd c33d 3fb3 8bbd 6338 b13d
00000100: 7db5 ed3c 04b0 b43d d327 86bd 42d9 87be
00000110: 78ab bf3c b264 bf3b 3c41 c9bd 53d5 573c
00000120: 1a5b 0c3e b991 703e 8eb6 e93d 9004 1abe
00000130: 1c0b 063e e93f 703c be6e 363e a312 48bd
00000140: e62f 753d bda1 43bc 868d fabc 4990 acbd
00000150: a8c4 25bd aed5 b83d 1be2 6a3d ba0e d33d
00000160: 2965 7ebb 0b6f 813e db31 c13a 0d0b 173d
00000170: 78eb 7ebe 6489 a33d 3498 ffbc acde 573e
00000180: 849d 4abc 8173 223e 4e52 4f3a d3ca 01bd
00000190: 3874 24be 69a7 b0bd ecf0 19be 1742 fcbd
000001a0: 4346 5c3e 3b59 a43d a155 303e 3c21 fb3d
000001b0: 156c 403e 7d57 0ebe 8fd2 4b3d e7e9 bf3d
000001c0: e06e 2e3d 58a5 0fbe a5a6 9a3c a39a 06be
000001d0: ad3e f43a 0642 4f3e 1706 343d e291 5b3e
000001e0: d44a 9fbd d678 793e efc3 053e e936 8fbe
000001f0: 1a8d 803e 294a 573e 7664 983d 1c21 09bd

predict.predict.1.weight f4 [128, 256]
-0.004219544 -0.036807336 -0.008198892 -0.0022265613 -0.00016389631 0.003114239 -0.0032621874 0.021347152
0.006018256 -0.008781639 -0.0040311874 -0.002502275 0.010565374 -0.015623146 0.00860184 0.017137256
-0.015843123 -0.012238598 -0.008179246 0.009266574 -0.020037334 -0.024596024 0.049506467 -0.010667358
0.012465875 0.0030303148 -0.016825879 0.006518748 0.00086230796 0.0029930961 0.007180261 -0.004058731
0.000979761 -0.009031493 0.00053752016 -0.0011867415 0.004830374 -0.007669945 0.007406375 0.002736122
0.002429733 0.015833898 -0.009105625 -0.0047316193 -0.015844805 -0.015904246 -0.0050889994 0.028154774
0.023176098 0.016860802 -0.008829661 -0.018589117 -0.0046098777 0.01687071 -0.015247881 -0.021553222
0.0070798025 -0.009660094 0.007134624 -0.0034633249 0.017251749 -0.026531426 -0.012438419 -0.00589929
0.010080659 0.0008109143 -0.016645424 0.00814974 -0.003626082 -0.00019659183 -0.0034491855 -0.007102706
-0.016632292 -0.059230436 0.015349993 -0.006856473 0.00831595 0.010987505 0.005464414 0.00399254
-0.00046394396 0.011394452 -0.009803593 0.008603218 0.01258549 0.0006406791 0.005412114 0.012317167
0.00074946275 -0.007433948 -0.010643397 -0.003997115 -0.019492986 -0.0186586 -0.00056151615 0.006570695
0.013877913 -0.01232482 -0.008197008 -0.007137782 -0.00021638212 0.019653216 -0.0011008822 0.0037987
-0.00641257 0.007253576 0.012142026 0.0044581415 0.0077633606 0.007295549 0.008529137 0.0009185918
0.0017538818 0.009887926 0.0021764527 0.0021766943 -0.014127792 -0.008824886 -0.00072541623 -0.0014250339
0.007483415 -0.006094363 -0.011069205 -0.024321275 -0.0048326 0.0004314831 0.008460825 0.0055457964
0.002495395 -0.029248452 0.005581367 -0.00302403 -0.009585308 -0.017570421 -0.0008371949 0.0019084725
0.006226124 -0.01549153 -0.00060662226 -0.0010324443 -0.0036811526 -0.0029246716 0.0007573053 -0.0021235168
0.0015291065 0.0152910175 -0.00013839277 0.0020390209 0.0019594028 -0.0007722762 -0.013517873 6.26728e-05
-0.004766147 -0.009233395 0.011388735 0.0022644147 0.0005505305 0.009896355 -0.0019394264 -0.018290259
0.0014484398 0.006286531 3.5502268e-05 -0.0018448172 0.007154879 -0.011249501 0.003220939 -0.01495287
0.0057493 0.0033074415 -0.004173745 -9.926004e-05 0.001706877 -0.0033835352 0.0038426793 0.013792616
0.0045340774 0.0017693605 -0.025056265 0.052060444 0.00136499 -0.0008119623 0.006051134 -0.0010966437
0.0022671772 -0.017270535 0.00093805004 -0.007854143 0.0044747447 -0.012275119 0.0023724842 -0.0024549612
-0.001960507 -0.003818005 -0.0027118803 0.011014319 0.002061907 0.0006666856 0.0061811367 0.011985888
-0.0036335255 -0.023021832 0.002820831 -0.02625591 0.0024182019 0.013376832 0.006603838 0.0008006458
-0.008119429 5.9080783e-05 -0.0105479425 0.011375013 0.0037518237 -0.009169526 -0.0012982866 0.014623324
0.0035650802 0.0091757225 0.0044215233 0.00048906106 -0.00015782949 0.0007819866 -0.0009581152 0.016414858
0.016651316 0.0021240246 -0.0015459473 0.0010584823 0.0036406452 0.005771548 0.012353191 -0.008735889
-0.028003894 -0.005055918 0.012091364 0.012174488 -0.005437609 -0.008810321 0.000490708 0.0016575933
0.010902758 0.0013964548 0.01780956 -0.0075029097 -0.0054329727 -0.0003790012 -0.0041516563 -0.007187198
-0.0009852997 0.043378808 0.0122911045 -0.009942121 -0.00017292837 -0.00068230456 0.00030030258 0.0008817012
00000000: 1a44 8abb 4ac3 16bd a554 06bc 80eb 11bb
00000010: 95db 2bb9 4318 4c3b 6cca 55bb 39e0 ae3c
00000020: ca34 c53b dde0 0fbc 0d18 84bb 35fd 23bb
00000030: 641a 2d3c 39f8 7fbc bbee 0c3c 6e63 8c3c
00000040: 70c9 81bc 6784 48bc 3f02 06bc d4d2 173c
00000050: 5625 a4bc 9a7d c9bc 4bc7 4a3d 24c6 2ebc
00000060: ab3d 4c3c 3f98 463b 6dd6 89bc 399b d53b
00000070: 820c 623a d227 443b 6548 eb3b 1aff 84bb
00000080: 536b 803a d4f8 13bc 5ee8 0c3a 708c 9bba
00000090: 1d48 9e3b 2954 fbbb 2db1 f23b 8350 333b
000000a0: 283c 1f3b 17b6 813c c22f 15bc b30b 9bbb
000000b0: f7cc 81bc 9f49 82bc 9fc1 a6bb d7a4 e63c
000000c0: cddb bd3c aa1f 8a3c 48aa 10bc 3448 98bc
000000d0: 750e 97bb 7134 8a3c 40d2 79bc 6290 b0bc
000000e0: b0fd e73b 5f45 1ebc 90c9 e93b f3f8 62bb
000000f0: 8a53 8d3c 6f58 d9bc 83ca 4bbc d54e c1bb
00000100: 5929 253c 8a93 543a fc5b 88bc 7d86 053c
00000110: 90a3 6dbb 3824 4eb9 bb0b 62bb d1bd e8bb
00000120: 7240 88bc 9d9b 72bd 897e 7b3c 44ac e0bb
00000130: 9f3f 083c f004 343c d40e b33b dad3 823b
00000140: 813d f3b9 ccaf 3a3c 409f 20bc 83f4 0c3c
00000150: 5f33 4e3c 3ff3 273a 1a58 b13b f1cd 493c
00000160: 9877 443a 7a98 f3bb a561 2ebc 3bfa 82bb
00000170: c1af 9fbc ecd9 98bc b632 13ba fc4e d73b
00000180: 3060 633c 0bee 49bc be4c 06bc 0ee4 e9bb
00000190: a2e4 62b9 c8ff a03c 7a4b 90ba 9cf3 783b
000001a0: 8920 d2bb 68af ed3b 59ef 463c 9a15 923b
000001b0: ca63 fe3b 800f ef3b cbbd 0b3c a7cd 703a
000001c0: 82e2 e53a f800 223c d1a2 0e3b dfa6 0e3b
000001d0: 4178 67bc 4196 10bc dc29 3eba 34c8 baba
000001e0: 6f37 f53b 39b3 c7bb 9c5b 35bc 693d c7bc
000001f0: c95a 9ebb ae38 e239 469f 0a3c 83b9 b53b
00000200: c889 233b 739a efbc e6e3 b63b ce2e 46bb
00000210: b20b 1dbc d8ef 8fbc 3377 5bba b625 fa3a
00000220: 8304 cc3b 30d0 7dbc bb05 1fba 1553 87ba
00000230: 7e3f 71bb d9ab 3fbb e685 463a b32a 0bbb
00000240: 4d6c c83a 2d87 7a3c 871d 11b9 18a1 053b
00000250: 5369 003b 9472 4aba 127a 5dbc 346f 8338
00000260: 572d 9cbb aa47 17bc d197 3a3c 9366 143b
00000270: 7a51 103a 5224 223c 5a34 feba 74d5 95bc
00000280: 93d9 bd3a 3fff cd3b 45e8 1438 cbcd f1ba
00000290: 7a73 ea3b d44f 38bc 6416 533b e2fc 74bc
000002a0: a064 bc3b a9c1 583b e9c3 88bb d429 d0b8
000002b0: 4ab9 df3a 4dbe 5dbb 76d5 7b3b 6dfa 613c
000002c0: 9992 943b e3e9 e73a cc42 cdbc 553d 553d
000002d0: 77e9 b23a ded9 54ba 9748 c63b 42bd 8fba
000002e0: ec94 143b f07a 8dbc 79e7 753a aaae 00bc
000002f0: e1a0 923b 951d 49bc ae7b 1b3b 6ae3 20bb
00000300: d97b 00bb 7f37 7abb cdb9 31bb 6775 343c
00000310: 0f21 073b 83c4 2e3a 228b ca3b 7560 443c
00000320: 7120 6ebb 4898 bcbc b1dd 383b a216 d7bc
00000330: b27a 1e3b 802a 5b3c 0265 d83b 6ee2 513a
00000340: 5b07 05bc 82cd 7738 47d1 2cbc 435e 3a3c
00000350: 28e1 753b c83b 16bc 452b aaba ab96 6f3c
00000360: 1fa4 693b c555 163c 6de2 903b 5534 003a
00000370: 087f 25b9 3bfe 4c3a 062a 7bba 7478 863c
00000380: 5768 883c 3833 0b3b 62a1 caba c6bc 8a3a
00000390: e497 6e3b 411f bd3b 0a65 4a3c f920 0fbc
000003a0: 6c68 e5bc 1dac a5bb db1a 463c 8177 473c
000003b0: f82d b2bb 2a59 10bc dba2 003a 9a43 d93a
000003c0: 7ba1 323c 3f09 b73a 5be5 913c f8da f5bb
000003d0: 1407 b2bb aeb4 c6b9 9e0a 88bb 9682 ebbb
000003e0: 2c25 81ba faad 313d a160 493c 47e4 22bc
000003f0: 1b54 35b9 afdc 32ba ee71 9d39 f721 673a

predict.predict.1.bias f4 [128]
0.001396306 5.2783056e-05 -0.0049126153 -0.014869767 5.5683763e-08 1.5484167e-05 2.8133783e-07 0.021068713
-0.009254103 0.04385068 0.007426548 -0.006184192 0.06766903 0.0046743336 -0.00014795407 0.006160174
-2.9370649e-05 0.005171389 -0.01096787 8.593933e-05 0.00020083113 -0.001142716 4.917222e-05 -0.0011327475
8.1842605e-10 0.012235113 -8.732137e-05 0.001117957 0.0005138473 -0.030815175 -0.037745345 -0.00011162019
0.02709358 0.020866733 1.001669e-05 -0.0011505233 0.0021674945 0.0042607216 -4.751568e-07 -0.01622066
7.268906e-07 0.006682117 0.009608709 0.00019590076 0.0004853679 -0.0014757266 -0.0150653655 0.002367125
-0.0024362018 -0.030485393 0.015774593 0.00097514817 -0.032780778 0.028547533 -0.008758964 0.032879867
0.01629811 0.0040427325 8.879882e-05 0.0023406195 0.010722495 0.0016657183 -0.0023422088 -0.00051182613
6.723133e-05 -0.0003095407 0.00015645777 -0.00036903008 0.028587574 0.012497748 0.00017926152 0.023176031
0.005208741 -0.029880853 2.8562263e-05 0.04976372 -0.003188812 0.00028024951 -0.0007183786 -3.099039e-07
8.822502e-05 -1.3050153e-06 0.0147361 -0.0002009394 0.00014661407 0.0065019317 -0.018633043 0.016039714
0.0072048167 0.023869395 -0.00011945729 -0.021032047 0.021491768 -1.6597714e-07 0.0004195409 -0.009154774
0.025061866 -0.0073145726 2.935626e-07 0.0007910468 0.0015425899 0.032789648 0.016011141 -0.019032134
0.00029582743 1.3769832e-05 3.4046627e-06 0.012209085 0.00626586 0.0013826874 -0.028915824 0.020016374
0.0014580439 -0.02700145 2.756096e-07 -0.0023316632 -0.0027477115 0.025846284 -0.00021161047 9.1288376e-07
-0.004920261 -0.0046422165 -0.026708141 0.0035892357 0.0003153354 -7.899536e-05 -0.015100298 8.763015e-08
00000000: 4104 b73a 6063 5d38 01fa a0bb 53a0 73bc
00000010: f228 6f33 ffe3 8137 c70a 9734 4b98 ac3c
00000020: 859e 17bc c59c 333d 665a f33b c3a4 cabb
00000030: 0f96 8a3d 272b 993b 1e24 1bb9 49db c93b
00000040: fd60 f6b7 c174 a93b 95b2 33bc 543a b438
00000050: 3296 5239 30c7 95ba 453e 4e38 b378 94ba
00000060: 9df7 6030 c975 483c 4e20 b7b8 6a88 923a
00000070: b5b3 063a 1b70 fcbc dd9a 1abd a215 eab8
00000080: 5bf3 dd3c b6f0 aa3c 5b0d 2837 28cd 96ba
00000090: 860c 0e3b 869d 8b3b 0e19 ffb4 31e1 84bc
000000a0: 8b1f 4335 a9f5 da3b d96d 1d3c b66a 4d39
000000b0: fa78 fe39 2b6d c1ba b9d4 76bc c421 1b3b
000000c0: afa8 1fbb 81bc f9bc b839 813c 16a1 7f3a
000000d0: 2345 06bd 84dc e93c c281 0fbc 0aad 063d
000000e0: 9d83 853c e678 843b 8139 ba38 1465 193b
000000f0: 67ad 2f3c 3b54 da3a be7f 19bb 122c 06ba
00000100: 8cfe 8c38 d949 a2b9 d00e 2439 617a c1b9
00000110: 7d30 ea3c 5bc3 4c3c 26f8 3b39 a9db bd3c
00000120: 16ae aa3b b1c8 f4bc fe98 ef37 0bd5 4b3d
00000130: 63fb 50bb 74ee 9239 9251 3cba de60 a6b4
00000140: 7205 b938 fc27 afb5 af6f 713c 42b3 52b9
00000150: 6abc 1939 280e d53b 53a4 98bc b865 833c
00000160: 6216 ec3b c089 c33c 2585 fab8 664b acbc
00000170: 810f b03c 7337 32b4 d4f5 db39 e8fd 15bc
00000180: 8b4e cd3c 15af efbb f09a 9d34 415e 4f3a
00000190: ba30 ca3a 704e 063d cc29 833c 47e9 9bbc
000001a0: 4919 9b39 fa04 6737 a97b 6436 9d08 483c
000001b0: d851 cd3b 4a3b b53a e1e0 ecbc 61f9 a33c
000001c0: d61b bf3a 2532 ddbc 7ff7 9334 d1ce 18bb
000001d0: f312 34bb 96bb d33c c1e3 5db9 e50c 7535
000001e0: 243a a1bb bc1d 98bb 08cb dabc 6239 6b3b
000001f0: 9a53 a539 50aa a5b8 3e67 77bc 2f2f bc33

predict.predict.3.weight f4 [128]
0.1566692 0.032913968 0.01712813 0.04142251 0.15657161 0.07012269 0.021388413 0.026790043
0.12714271 0.36443037 0.29896116 0.03757073 0.4941766 0.25914428 0.021089366 0.021351218
0.022324977 0.14824381 0.01783976 0.028111823 0.041787498 0.02517643 0.102779225 0.019313905
0.017823432 0.04283377 0.022991939 0.027314859 0.12066369 0.022279492 0.020526659 0.027353572
0.21290626 0.28479916 0.041493487 0.022302484 0.09030024 0.039710995 0.022728598 0.03265182
0.02039211 0.018216154 0.19873556 0.07083057 0.279318 0.022683509 0.1563498 0.011935255
0.017837588 0.13207215 0.19605708 0.20521502 0.020291984 0.4949157 0.034169167 0.035533495
0.29498905 0.065504484 0.058199488 0.2621813 0.36523375 0.31772247 0.025792647 0.019101575
0.033864215 0.019212041 0.13026875 0.24195611 0.2861475 0.32067004 0.136056 0.14218867
0.2699321 0.042211752 0.0144052785 0.47167566 0.017066633 0.05131222 0.017253233 0.030826895
0.061882842 0.09008336 0.3292245 0.022359025 0.08976515 0.022213299 0.02231798 0.23152891
0.17102419 0.39220244 0.022411004 0.019831805 0.22359721 0.11196019 0.028476525 0.048256136
0.0972466 0.027638614 0.13272993 0.03195389 0.20499864 0.21372436 0.10080596 0.19595163
0.28926647 0.035876747 0.22888616 0.07048206 0.39992574 0.10015497 0.22177087 0.1620347
0.2254344 0.022289107 0.2215939 0.03568646 0.029928172 0.08346974 0.017387033 0.01789657
0.08590138 0.048171464 0.028413309 0.315795 0.18764348 0.020606471 0.03526753 0.038479354
00000000: e46d 203e ccd0 063d 4b50 8c3c a6aa 293d
00000010: 4f54 203e 7c9c 8f3d c136 af3c cb76 db3c
00000020: b331 023e 9e96 ba3e 7011 993e c4e3 193d
00000030: b704 fd3e 8fae 843e 9bc3 ac3c c0e8 ae3c
00000040: dfe2 b63c 3acd 173e b024 923c c44a e63c
00000050: 5e29 2b3d cd3e ce3c ea7d d23d 3238 9e3c
00000060: 7202 923c 7772 2f3d 9759 bc3c 69c3 df3c
00000070: 861e f73d 7b83 b63c 8627 a83c 9914 e03c
00000080: 1904 5a3e 32d1 913e 13f5 293d b3b3 b63c
00000090: 55ef b83d ffa7 223d 5331 ba3c eabd 053d
000000a0: 5b0d a73c 0b3a 953c 5681 4b3e 9e0f 913d
000000b0: c502 8f3e c4d2 b93c 291a 203e 168c 433c
000000c0: 2220 923c ec3d 073e 30c3 483e e323 523e
000000d0: 603b a63c 9765 fd3e f8f4 0b3d 928b 113d
000000e0: ce08 973e 3727 863d 9662 6e3d a13c 863e
000000f0: ebff ba3e 85ac a23e 1a4b d33c e87a 9c3c
00000100: 34b5 0a3d 9262 9d3c 2c65 053e 58c3 773e
00000110: ed81 923e dd2e a43e 4452 0b3e e899 113e
00000120: 8a34 8a3e 3be6 2c3d 1e04 6c3c 797f f13e
00000130: 53cf 8b3c c32c 523d a756 8d3c af88 fc3c
00000140: dd78 7d3d a07d b83d 1d90 a83e 462a b73c
00000150: cad6 b73d aaf8 b53c 32d4 b63c ea15 6d3e
00000160: f720 2f3e c2ce c83e 4897 b73c 4f76 a23c
00000170: abf6 643e 624b e53d 9a47 e93c 3aa8 453d
00000180: 3a29 c73d 606a e23c 5bea 073e 15e2 023d
00000190: 2aeb 513e 8fda 5a3e 5b73 ce3d 8ba7 483e
000001a0: bc1a 943e 7ff3 123d 2261 6a3e e658 903d
000001b0: 11c3 cc3e 0d1e cd3d e717 633e 6dec 253e
000001c0: 46d8 663e a597 b63c 83e9 623e f72b 123d
000001d0: ed2b f53c 2ff2 aa3d 406f 8e3c d49b 923c
000001e0: 10ed af3d 714f 453d 07c3 e83c e2af a13e
000001f0: 9d25 403e e7ce a83c af74 103d 879c 1d3d
