Results/GAT/saved_model/GAT_bst_8.pth (torch, 759482 bytes, 13 tensors)

gnn.gnn_layers.0.gat_conv.attn_l f4 [1, 8, 128]
0	0x3bcf9908	0.0063353814
1	0x39f8a62d	0.00047426057
2	0x3ac010f2	0.0014653488
3	0x3ad592cc	0.0016294359
4	0x3af4fcda	0.0018691078
5	0x3c16f68d	0.009214056
6	0xbae971dd	-0.0017810423
7	0xba04f742	-0.00050722447
8	0x3ab9c19b	0.0014172079
9	0xba8c4991	-0.0010703077
10	0x3b4b7539	0.0031045212
11	0xb7c521ef	-2.3500032e-05
12	0xba5bd5c0	-0.0008386038
13	0xb83cf2d5	-4.5048848e-05
14	0x3b87a9a5	0.0041400963
15	0x3b038151	0.0020066092
16	0xbafa47a7	-0.001909484
17	0x3a80c8e2	0.0009825493
18	0xbb6b9681	-0.0035947862
19	0x39eeec69	0.00045571037
20	0xbb3c497c	-0.0028730324
21	0x3a232570	0.0006223535
22	0xbb132781	-0.0022453966
23	0xbc5b8d29	-0.013400354
24	0x3b2e395c	0.0026584482
25	0xbb3c14af	-0.0028698852
26	0xb9fe8d73	-0.00048552043
27	0x3afd46a6	0.0019323423
28	0x3a848d8c	0.0010112985
29	0x3989d900	0.00026292354
30	0x3b751936	0.003739906
31	0x3b7acc7d	0.0038268857
32	0xba1ac62d	-0.0005904164
33	0x3b0c65e1	0.002142303
34	0x3a552e57	0.00081322104
35	0x3aeef132	0.0018229841
36	0xbab1232e	-0.0013514513
37	0x3a5a2ece	0.00083230145
38	0x39f685b2	0.00047020387
39	0x3a0b5b30	0.0005316017
40	0x3b3740d9	0.0027962236
41	0xbb84faac	-0.0040582027
42	0x3be6cfd7	0.0070438194
43	0x3bec7909	0.007216577
44	0x3b866b44	0.0041021425
45	0x3b0650a2	0.0020494838
46	0x3be9869e	0.0071266433
47	0xbb96508b	-0.004587238
48	0xba825a0e	-0.0009945051
49	0x3b54b893	0.0032458648
50	0x3b69a118	0.0035648998
51	0x39b3b906	0.00034279394
52	0x3aad0064	0.0013198969
53	0x3c1689b7	0.009188107
54	0x3bd1816b	0.0063936017
55	0x3b4c72ad	0.0031196282
56	0x3b1ae29c	0.0023633605
57	0x3a32eb1e	0.00068251963
58	0xbc2f7de6	-0.010711169
59	0x3a80313b	0.0009780297
60	0x3a2646be	0.0006342939
61	0x391fa201	0.00015223773
62	0x3bd52821	0.006505028
63	0x3b042f0a	0.002016964
64	0x3b42b4fb	0.0029709924
65	0xba5f5b3f	-0.00085203716
66	0x3b7caf15	0.0038556505
67	0xb865fe46	-5.4834665e-05
68	0x394767f2	0.00019016842
69	0x3ad1622f	0.0015974696
70	0xbaa35f30	-0.0012464281
71	0x393b9188	0.00017887924
72	0x38d8da6a	0.000103403654
73	0xbb46496b	-0.0030256163
74	0xbb2a9fc0	-0.002603516
75	0xba88a204	-0.0010424261
76	0x39d4e388	0.00040605315
77	0x3b857305	0.0040725493
78	0x39667aed	0.00021980303
79	0x3a9fd437	0.0012193982
80	0x3bbceb3f	0.005765348
81	0x3980e4f7	0.00024584655
82	0x3c120abc	0.008913692
83	0xba030a7e	-0.0004998817
84	0x3a4d81c7	0.0007839468
85	0x3b464c05	0.0030257714
86	0x39cf806c	0.00039577798
87	0xba68f2ae	-0.000888626
88	0x3ac2710b	0.0014834715
89	0xba75a1c3	-0.00093701127
90	0x3acb06c1	0.0015489684
91	0xbb1dc9b7	-0.002407653
92	0xbac7c0d7	-0.0015239966
93	0x3c0b8053	0.008514482
94	0x3be86bd2	0.0070929313
95	0x3a165325	0.00057344354
96	0x3a90ff4e	0.0011062415
97	0x3bc249b1	0.005929195
98	0x3bd02449	0.006351982
99	0x3baeddd6	0.0053365035
100	0x3a586bec	0.00082558277
101	0xbb5e9ea8	-0.0033969078
102	0x3bdf267f	0.006810009
103	0xb99773f2	-0.0002888735
104	0xbb538f0b	-0.0032281305
105	0xba3a05f5	-0.00070962246
106	0xbbad86d1	-0.0052956124
107	0xbb720978	-0.0036931913
108	0x3bc88ede	0.0061205467
109	0x3ae1ddac	0.0017232201
110	0xbbe6e17c	-0.007045923
111	0x3985fc64	0.00025555782
112	0xbab91933	-0.001412189
113	0x395aedc9	0.00020878682
114	0xb9552f47	-0.00020330875
115	0xbc20474f	-0.009782626
116	0xbb9a5290	-0.0047095492
117	0xbb06d1a1	-0.0020571726
118	0x3aeac282	0.0017910751
119	0x3ad36d0d	0.0016130522
120	0x3bcce26a	0.0062525766
121	0xbc17b4ee	-0.009259446
122	0x3b1f0f1a	0.0024270476
123	0xbb17dc7c	-0.002317219
124	0x39b39584	0.00034252938
125	0x399401a9	0.00028229997
126	0x3968d763	0.00022205482
127	0xba81a163	-0.0009890016
128	0x3becb319	0.0072234985
129	0x3a23f51f	0.00062544824
130	0x3b9753a5	0.0046181255
131	0x3a08512b	0.0005200083
132	0xb99b8f52	-0.00029670686
133	0x3bfe8b0c	0.0077680405
134	0xbb6f7c29	-0.003654251
135	0xbaca74cd	-0.0015446186
136	0x3ae9a6f7	0.0017826249
137	0xbb2745ab	-0.0025523703
138	0x3b738d27	0.003716299
139	0x3a85a581	0.0010196419
140	0x3b9fa450	0.0048718825
141	0xba8411cb	-0.0010076103
142	0xbb427a74	-0.0029675039
143	0x3b836a58	0.00401048
144	0xbb8a0e2f	-0.0042131166
145	0x39117904	0.0001387336
146	0xbae7095a	-0.0017626688
147	0x3a2c0b2e	0.0006562945
148	0xbb9061eb	-0.004406204
149	0x3b87f77c	0.0041493755
150	0xb9bc5161	-0.00035918786
151	0xbbf71660	-0.007540509
152	0x3b709c68	0.003671432
153	0xbb1f3f6b	-0.0024299275
154	0xbacbf54d	-0.0015560776
155	0xbacdb743	-0.0015694875
156	0x3a3577f0	0.0006922474
157	0x3af61800	0.0018775463
158	0x3b35496f	0.0027662178
159	0x3baae0e0	0.0052147955
160	0xbad6f458	-0.0016399724
161	0x3aecd9e7	0.0018070311
162	0x3a9cc854	0.0011961558
163	0x3b53ae46	0.003229992
164	0x3a087d7b	0.00052066863
165	0x3b02a381	0.0019933882
166	0x3b48083e	0.003052249
167	0xba92ec2b	-0.00112093
168	0x3b6570b8	0.0035009813
169	0xbc02d3b3	-0.007985043
170	0x3c4461d8	0.011986218
171	0xbb6295b6	-0.0034574098
172	0x3bea1b6b	0.0071443818
173	0x39a74243	0.0003190209
174	0x3bc05ba2	0.0058702985
175	0xbc03dfc1	-0.008048953
176	0x3b8bedfe	0.0042703142
177	0x3b6d7633	0.0036233782
178	0x3bd37cb3	0.0064540743
179	0x3a894d87	0.0010475375
180	0x3ae707f3	0.001762627
181	0x3c11d995	0.008901973
182	0x3c167cc1	0.009185017
183	0x3b785835	0.0037894372
184	0x3b7846a6	0.0037883907
185	0x3a6cf851	0.00090396876
186	0xbc3716a5	-0.0111748325
187	0xba3821fa	-0.0007024106
188	0x3ab44f98	0.0013756631
189	0x3a4c6a9b	0.0007797868
190	0x3be49a35	0.0069763907
191	0x39cc4e12	0.0003896808
192	0x3babdaa0	0.005244568
193	0x389c80f6	7.4626805e-05
194	0x3b349371	0.0027553702
195	0x3a98ce77	0.0011658211
196	0xba24777d	-0.00062739087
197	0x3b09a5e5	0.0021003422
198	0xbaed83b0	-0.0018120911
199	0xbad14be1	-0.0015968048
200	0xb9ed7616	-0.00045292143
201	0xbb3633fb	-0.002780198
202	0xbb48d610	-0.003064517
203	0xba7badaf	-0.0009600771
204	0x3a34b0be	0.0006892792
205	0x3b8764ca	0.004131888
206	0xb972b990	-0.00023148046
207	0x3bbc6531	0.0057493676
208	0x3ba179f8	0.00492787
209	0x3a313865	0.00067604176
210	0x3c5e79ca	0.013578841
211	0xb895fff0	-7.152546e-05
212	0xba43c9d3	-0.0007468734
213	0x3bb4fe3d	0.0055234716
214	0x3b03d64a	0.002011674
215	0xb9989ca1	-0.00029108397
216	0x3b6e0dab	0.0036324065
217	0x3a235471	0.00062305393
218	0xbc1c1a36	-0.009527734
219	0x3b7f5b48	0.003896432
220	0x39d65fcf	0.00040888644
221	0x3c0d2968	0.008615829
222	0x3c018858	0.007906042
223	0x37dcd49f	2.6325053e-05
224	0x3ae2c820	0.0017302074
225	0x3c207b72	0.009795057
226	0x3bc74735	0.0060814866
227	0x3c25a6d1	0.010110573
228	0x3b16dc06	0.0023019328
229	0xbb6ccbf8	-0.0036132317
230	0x3b77e141	0.003782347
231	0xb7fff34e	-3.0511666e-05
232	0xbbcd4c1e	-0.0062651774
233	0x3a94a0be	0.0011339409
234	0xbb5fbe15	-0.0034140397
235	0xbbe2a329	-0.006916423
236	0xbac60ffc	-0.0015110965
237	0x3b38f2c2	0.0028220867
238	0xbc55c6fa	-0.013047928
239	0x3a9d217b	0.0011988127
240	0xbb264b0d	-0.0025374324
241	0xbb008818	-0.0019612368
242	0x3bdca4e8	0.0067335255
243	0xbc1aa2fe	-0.009438274
244	0xbc39981d	-0.011327771
245	0xbaf1138c	-0.0018392666
246	0x3b22eba8	0.00248597
247	0xbacb16d5	-0.0015494475
248	0x3c2eee80	0.01067698
249	0xbc1c9b8a	-0.009558568
250	0x3bc0a422	0.005878941
251	0xbc01f75d	-0.007932511
252	0xb8c7cce1	-9.527221e-05
253	0xba3a0e62	-0.000709748
254	0xbace5cfa	-0.0015744262
255	0xbb7ed206	-0.0038882508

gnn.gnn_layers.0.gat_conv.attn_r f4 [1, 8, 128]
0	0xba9f0827	-0.0012133167
1	0xb9e7ca84	-0.0004421064
2	0xba10ec55	-0.000552838
3	0xb9b74b49	-0.00034960572
4	0xbb43b4d9	-0.0029862432
5	0x3a99a2c1	0.0011721478
6	0xba8f7127	-0.0010943756
7	0x3a10ec14	0.00055283424
8	0xba228fc1	-0.00062012306
9	0x39a87ab9	0.00032134893
10	0xba773053	-0.0009429503
11	0x3911e7a9	0.00013914578
12	0xba3d3da0	-0.00072189607
13	0x39c5b009	0.00037705924
14	0xbaaa4297	-0.0012989816
15	0xbae351fa	-0.0017343157
16	0xb983bebf	-0.00025128384
17	0x380ebe25	3.4032524e-05
18	0xbade5665	-0.0016963003
19	0x398828c1	0.00025970305
20	0xba3f0476	-0.00072867365
21	0xbaef0b62	-0.0018237645
22	0x39e8d7e6	0.00044411345
23	0x3ac4334a	0.0014968899
24	0xba8ad732	-0.0010592698
25	0xbb2bd98b	-0.0026222195
26	0x36af84ff	5.230889e-06
27	0xbb276460	-0.0025542006
28	0xba57f668	-0.00082383165
29	0x399df19a	0.0003012538
30	0x3a6940c5	0.0008897896
31	0xbacf8388	-0.0015832046
32	0x39d846d3	0.000412515
33	0xb928b6cb	-0.00016089824
34	0xb9d7309c	-0.00041044212
35	0xbb19dc63	-0.0023477308
36	0x3a35cd9c	0.000693524
37	0xb9457421	-0.00018830645
38	0x3ab09f45	0.00134752
39	0xbaa5bc17	-0.0012644556
40	0xb96dc243	-0.0002267445
41	0x3b283682	0.0025667255
42	0xbb0bd439	-0.0021336211
43	0xba50ff94	-0.00079726544
44	0xbadf288b	-0.0017025633
45	0x3727715b	9.980368e-06
46	0xba368bbf	-0.0006963573
47	0x3aa44ecb	0.0012535689
48	0xbaa14c1e	-0.001230601
49	0xba296485	-0.0006461817
50	0xba8aa35b	-0.0010577248
51	0xb805da48	-3.191296e-05
52	0x3934340f	0.00017185531
53	0xbb2129fe	-0.002459168
54	0xba969710	-0.0011489112
55	0xba9c94bc	-0.0011946182
56	0x39522a31	0.00020042878
57	0x381210bd	3.48247e-05
58	0xb9f7393a	-0.00047154148
59	0x38e87f88	0.000110863766
60	0xb93975c6	-0.00017686849
61	0xba181412	-0.00058013306
62	0xbac4f79b	-0.0015027405
63	0xba8c7422	-0.0010715763
64	0xba417949	-0.00073804386
65	0xba294170	-0.00064565893
66	0xbb0118f7	-0.0019698718
67	0x3904b395	0.000126554
68	0xb79f93a4	-1.9023028e-05
69	0x3aa671ca	0.0012698707
70	0x3a67d5f7	0.0008843834
71	0x3a64ad80	0.0008723363
72	0xb7761fa8	-1.4670113e-05
73	0xb9484bbb	-0.00019101698
74	0x3afb8525	0.001918946
75	0x3a08db15	0.0005220634
76	0xbb3223d9	-0.0027182011
77	0x39ba5045	0.0003553649
78	0x39cbfb80	0.0003890656
79	0x39073c18	0.0001289699
80	0x3a36360e	0.0006950804
81	0x395a30f8	0.00020808342
82	0xbb039b21	-0.0020081478
83	0xb9a183c6	-0.00030806492
84	0xb986062c	-0.0002556307
85	0xba783620	-0.00094685145
86	0xb9fade35	-0.00047849273
87	0x3965fe02	0.00021933767
88	0xb9e7cfa0	-0.00044214446
89	0x393ddcfa	0.00018106765
90	0xbb312f38	-0.0027036201
91	0x3a106626	0.00055083854
92	0xb59e5fc7	-1.1799792e-06
93	0xbb3dd6c3	-0.002896712
94	0xb9d55506	-0.00040689873
95	0xb8920bde	-6.964033e-05
96	0xb98f0cfe	-0.00027284765
97	0xba4331a5	-0.0007446057
98	0xba52dc31	-0.00080436753
99	0xba62cd4c	-0.00086518074
100	0xb9214def	-0.00015383189
101	0x3a942695	0.0011303002
102	0x3adb6cfe	0.0016740856
103	0x393e3830	0.00018140743
104	0x3b1bb6d8	0.0023760106
105	0x3ae75069	0.0017647865
106	0xb8f9828c	-0.000118975615
107	0x3a93692b	0.0011246552
108	0xbad89cc4	-0.0016526212
109	0xb9fc2fb7	-0.00048100736
110	0x3b8a4f07	0.0042208466
111	0xba1e814d	-0.0006046489
112	0x3a4882fe	0.0007648914
113	0x38b4dede	8.624581e-05
114	0xba89f50f	-0.0010525304
115	0x3aa8fc32	0.0012892543
116	0x3ac88936	0.0015299681
117	0xba1c8aa4	-0.0005971587
118	0xbb15d8a5	-0.0022864726
119	0xb9a51ed4	-0.0003149422
120	0xbb00ca50	-0.0019651838
121	0x3a2b0529	0.0006523901
122	0x39a4d386	0.00031438115
123	0xba1435ea	-0.0005653786
124	0xb8adc1c8	-8.2853774e-05
125	0xb87952f9	-5.94435e-05
126	0xb9d6c4fa	-0.0004096402
127	0xb9a5972b	-0.0003158388
128	0xba1e4e7e	-0.0006038918
129	0xb9b8cc5f	-0.00035247483
130	0xb98c5c9d	-0.00026771883
131	0xba5c5178	-0.0008404474
132	0x3a9a16c8	0.0011756057
133	0xba9c1efb	-0.0011911088
134	0xb88333ec	-6.256238e-05
135	0xb9817192	-0.00024689414
136	0xba4701e8	-0.00075915316
137	0x39653778	0.00021859806
138	0xba635199	-0.0008671522
139	0xb9cf83a4	-0.00039580197
140	0xbab9c7e7	-0.0014173955
141	0x39ab3db8	0.00032661646
142	0xb9f3eff8	-0.00046527362
143	0xba891f79	-0.001046165
144	0x399cd06a	0.0002990992
145	0x3836dd6b	4.3598393e-05
146	0xb9425606	-0.00018533328
147	0x382ee286	4.16958e-05
148	0x39a2deb5	0.00031064978
149	0xb99c6ca0	-0.0002983557
150	0x3982de76	0.00024961279
151	0xb959dccd	-0.00020776987
152	0xbab26f79	-0.0013613544
153	0xb92cfaaa	-0.00016496578
154	0xb8922342	-6.96839e-05
155	0xbaefb037	-0.0018286769
156	0xba621a71	-0.0008625156
157	0x38fc0831	0.00012017822
158	0x3a96d574	0.0011507706
159	0xba3e104a	-0.0007250352
160	0x3a0d798a	0.0005396834
161	0xb9187a4f	-0.00014541413
162	0xb9b37e6e	-0.00034235738
163	0xb9d2ddea	-0.0004021966
164	0x39f83319	0.00047340317
165	0xb9c943ca	-0.00038388214
166	0xb849c2ea	-4.8103662e-05
167	0xb6849b77	-3.952005e-06
168	0xb99a2f30	-0.00029408326
169	0xb9f9bd03	-0.00047633806
170	0xba9eb331	-0.0012107847
171	0x39ad70a4	0.00033081055
172	0xb91e59fa	-0.00015101573
173	0x39abdde4	0.00032780983
174	0xba55b03b	-0.00081515656
175	0x3a32ee98	0.00068257144
176	0xbaec4b64	-0.0018027839
177	0xba2c5c5d	-0.00065750425
178	0xba28b37f	-0.00064354384
179	0x39165663	0.00014337296
180	0xb9d0b771	-0.00039809526
181	0xbaba4c27	-0.0014213369
182	0xba077bb7	-0.0005168276
183	0x394dc424	0.00019623392
184	0xb8afd967	-8.3851446e-05
185	0xb8b06e18	-8.4128405e-05
186	0x38df7d23	0.00010656777
187	0xb92ce23a	-0.00016487474
188	0xb82d6354	-4.133892e-05
189	0xba728a5c	-0.00092521845
190	0xb8be80d7	-9.083904e-05
191	0xba3adb1c	-0.0007127987
192	0x38a49c54	7.849248e-05
193	0xba1bd32c	-0.0005944248
194	0xbb0f7428	-0.0021889303
195	0x394b406c	0.00019383588
196	0xba84ecce	-0.0010141374
197	0x3b518226	0.0031968444
198	0x3989a488	0.00026253262
199	0xb9dc66c3	-0.00042038233
200	0xb985d58c	-0.00025526842
201	0x39b6a15a	0.0003483396
202	0x3b04abdc	0.0020244038
203	0x390be2b3	0.00013340525
204	0xbb1fbae6	-0.0024372875
205	0xba1a46a9	-0.0005885163
206	0x3a329a20	0.00068131275
207	0xba6914fb	-0.0008891371
208	0x3972b784	0.00023147283
209	0x39c4a5b8	0.00037507503
210	0xba128b6f	-0.0005590235
211	0xb9f9c627	-0.00047640616
212	0x388f6bb5	6.838833e-05
213	0xb8c176f9	-9.2251175e-05
214	0xba4267aa	-0.000741596
215	0x39edc604	0.00045351696
216	0xba063acc	-0.0005120456
217	0x3982f06f	0.0002497467
218	0xb90bfb4f	-0.00013349693
219	0xba847595	-0.0010105843
220	0xb71ca755	-9.337285e-06
221	0xbb1b5818	-0.002370363
222	0xbac3961c	-0.0014922055
223	0x3902ace9	0.0001246218
224	0x3922ea7b	0.00015536875
225	0xb729d23f	-1.0122137e-05
226	0xb8b492d3	-8.610417e-05
227	0xbada3b54	-0.0016649761
228	0xb96c50a2	-0.00022536752
229	0x3947ae52	0.00019043058
230	0x3ad85c1d	0.0016506944
231	0xb90d4088	-0.00013470848
232	0x3b15b29b	0.0022842053
233	0x3a3e36a5	0.00072560675
234	0x3aeb19e1	0.001793679
235	0x3a0faec1	0.00054810575
236	0xba280cd1	-0.0006410601
237	0xb9a454d4	-0.0003134372
238	0x3b2fa26f	0.0026799699
239	0xb9e72c36	-0.00044092693
240	0x3a91a1e9	0.0011110875
241	0xb8690f55	-5.5565808e-05
242	0x3a61fad4	0.0008620445
243	0x3b44b2d3	0.0030013814
244	0x3aaa95d7	0.0013014626
245	0x389277bc	6.984125e-05
246	0x38e57782	0.00010941831
247	0x3aa95744	0.0012919684
248	0xba2f5c33	-0.0006689459
249	0x3b1c9ec0	0.0023898333
250	0x39d37dd1	0.00040338797
251	0x3a828a3f	0.0009959413
252	0x3a2335b9	0.0006225962
253	0xba58df44	-0.0008273015
254	0xb627e6ae	-2.5019212e-06
255	0xb896a5ba	-7.183426e-05

gnn.gnn_layers.0.gat_conv.bias f4 [1024]
0	0xbbd429cb	-0.0064747087
1	0xbb8ce807	-0.0043001208
2	0xbc48e255	-0.012260993
3	0xbb3ea645	-0.0029090804
4	0xbd4ecb75	-0.050487
5	0xbdc096be	-0.09403752
6	0xbc5f0c53	-0.013613778
7	0x3c3e21bc	0.011604723
8	0xbbc1b91e	-0.0059119603
9	0x3c862b06	0.016377937
10	0xbc1614e7	-0.009160257
11	0x3c063e32	0.008193539
12	0xba48855b	-0.0007649266
13	0x3c083347	0.008313007
14	0xbc84270e	-0.016131904
15	0xbcf15f04	-0.029464252
16	0xbba5a1ab	-0.0050546727
17	0x3b54b7d1	0.0032458196
18	0x3c2a717f	0.010403036
19	0xbb4bad5d	-0.0031078674
20	0xbb0a99eb	-0.0021148871
21	0xbd530ed0	-0.0515278
22	0x3be57059	0.0070019183
23	0x3c4d5a4a	0.012533734
24	0xbc68cb06	-0.014208561
25	0xbd998ea1	-0.074979074
26	0x3b098af7	0.002098737
27	0xbca051ce	-0.019570258
28	0xbc4f0c96	-0.012637278
29	0xbb63cc3a	-0.003475918
30	0x3bf4b7f3	0.0074682175
31	0xbd152432	-0.03641147
32	0x3b432eda	0.0029782564
33	0xb9990292	-0.0002918435
34	0xbbea2e17	-0.0071466076
35	0xbd609f26	-0.054839276
36	0x3c424f94	0.011859793
37	0xbbb8b7a8	-0.005637128
38	0xbb265cc7	-0.002538489
39	0x3a2380d3	0.0006237153
40	0xbbda369e	-0.006659343
41	0xbcde4581	-0.027132751
42	0xbd0cf1d2	-0.034410305
43	0xbce68945	-0.028141627
44	0xbc6613cb	-0.014042805
45	0x3bfb4f80	0.0076693892
46	0xbc0c1c6a	-0.008551696
47	0x3d1564a6	0.03647294
48	0xbca6d6b4	-0.02036605
49	0xbc45ad2e	-0.012065215
50	0xbc9cd3e7	-0.019144012
51	0xbb37d2e7	-0.0028049292
52	0xb91800ab	-0.00014496098
53	0xbce2958e	-0.027659204
54	0xbc9c89e9	-0.01910873
55	0xbd27e1f3	-0.040986966
56	0x39a335ee	0.00031129963
57	0xbac29e90	-0.0014848281
58	0xbb7da8b2	-0.0038705287
59	0x3ba940e2	0.0051652053
60	0xbb1aeb6e	-0.0023638862
61	0xbcbc2ee2	-0.022971574
62	0x3b311c72	0.0027025011
63	0xbb0e156b	-0.0021680247
64	0xbd25700a	-0.040390052
65	0xbbc8efad	-0.006132087
66	0xbcee07b1	-0.029056402
67	0xbb9db20a	-0.0048124837
68	0xbc2764e0	-0.010216922
69	0x3be65cf6	0.007030125
70	0x3bcd8596	0.006272028
71	0x3b3ee7d2	0.0029129875
72	0xbbdb87b1	-0.0066995253
73	0xbaefd62e	-0.0018298083
74	0x3ad37543	0.0016132969
75	0xbd5efc20	-0.054439664
76	0xbc3e3e48	-0.011611529
77	0xbcd2aaa3	-0.025716132
78	0x3b0d6ad7	0.0021578574
79	0xbc49f6f5	-0.012326946
80	0xbb8bf5cc	-0.0042712446
81	0x3a5b24fa	0.0008359697
82	0xbd20af79	-0.039229844
83	0xba7bc435	-0.0009604127
84	0xbb93f8d9	-0.004515749
85	0xbcb4f2d9	-0.022088455
86	0xbca586b4	-0.020205833
87	0x3bbada78	0.005702313
88	0xbc5ba3d1	-0.013405756
89	0xba3624fa	-0.0006948259
90	0xbd2e7a01	-0.04259682
91	0xbcd4b860	-0.025966823
92	0x3a4ee8bd	0.0007892957
93	0xbcff18ee	-0.031139817
94	0xbc842fb7	-0.016136033
95	0xbb529e9c	-0.0032137996
96	0xbbde44e8	-0.0067831166
97	0xbcb2769f	-0.021785079
98	0xbb2235f7	-0.0024751404
99	0xbc92539b	-0.017862132
100	0xbbca921a	-0.0061819674
101	0x3cb480f6	0.02203415
102	0xbd10a891	-0.035317007
103	0x3b23bc1b	0.0024983946
104	0x3ca7884f	0.02045074
105	0x3b0ac3a3	0.0021173737
106	0x3c2091b2	0.0098003615
107	0x3c1ea10c	0.009681951
108	0x3b10edaf	0.0022114327
109	0xbbda8bf1	-0.0066695143
110	0x3cb6acfe	0.022299286
111	0xbc248ed0	-0.010043815
112	0x3b8b239d	0.004246189
113	0xbae822fd	-0.0017710623
114	0xbdb5ab20	-0.0887053
115	0x3c49bdbb	0.012313302
116	0x3cdb1d10	0.026747257
117	0x3c8f5c84	0.01750017
118	0xbd8a7b82	-0.067618385
119	0xbb7522e0	-0.003740482
120	0xbd1b27d1	-0.03787977
121	0x3d031e9c	0.032011613
122	0xbbf2d0a7	-0.007410127
123	0x3c4a5dd5	0.012351473
124	0x3b461a47	0.0030228065
125	0xbbc3e2ca	-0.005977963
126	0x3c06f6f1	0.008237586
127	0xba8ebafb	-0.0010889465
128	0xbbd429cb	-0.0064747087
129	0xbb8ce807	-0.0043001208
130	0xbc48e255	-0.012260993
131	0xbb3ea645	-0.0029090804
132	0xbd4ecb75	-0.050487
133	0xbdc096be	-0.09403752
134	0xbc5f0c53	-0.013613778
135	0x3c3e21bc	0.011604723
136	0xbbc1b91e	-0.0059119603
137	0x3c862b06	0.016377937
138	0xbc1614e7	-0.009160257
139	0x3c063e32	0.008193539
140	0xba48855b	-0.0007649266
141	0x3c083347	0.008313007
142	0xbc84270e	-0.016131904
143	0xbcf15f04	-0.029464252
144	0xbba5a1ab	-0.0050546727
145	0x3b54b7d1	0.0032458196
146	0x3c2a717f	0.010403036
147	0xbb4bad5d	-0.0031078674
148	0xbb0a99eb	-0.0021148871
149	0xbd530ed0	-0.0515278
150	0x3be57059	0.0070019183
151	0x3c4d5a4a	0.012533734
152	0xbc68cb06	-0.014208561
153	0xbd998ea1	-0.074979074
154	0x3b098af7	0.002098737
155	0xbca051ce	-0.019570258
156	0xbc4f0c96	-0.012637278
157	0xbb63cc3a	-0.003475918
158	0x3bf4b7f3	0.0074682175
159	0xbd152432	-0.03641147
160	0x3b432eda	0.0029782564
161	0xb9990292	-0.0002918435
162	0xbbea2e17	-0.0071466076
163	0xbd609f26	-0.054839276
164	0x3c424f94	0.011859793
165	0xbbb8b7a8	-0.005637128
166	0xbb265cc7	-0.002538489
167	0x3a2380d3	0.0006237153
168	0xbbda369e	-0.006659343
169	0xbcde4581	-0.027132751
170	0xbd0cf1d2	-0.034410305
171	0xbce68945	-0.028141627
172	0xbc6613cb	-0.014042805
173	0x3bfb4f80	0.0076693892
174	0xbc0c1c6a	-0.008551696
175	0x3d1564a6	0.03647294
176	0xbca6d6b4	-0.02036605
177	0xbc45ad2e	-0.012065215
178	0xbc9cd3e7	-0.019144012
179	0xbb37d2e7	-0.0028049292
180	0xb91800ab	-0.00014496098
181	0xbce2958e	-0.027659204
182	0xbc9c89e9	-0.01910873
183	0xbd27e1f3	-0.040986966
184	0x39a335ee	0.00031129963
185	0xbac29e90	-0.0014848281
186	0xbb7da8b2	-0.0038705287
187	0x3ba940e2	0.0051652053
188	0xbb1aeb6e	-0.0023638862
189	0xbcbc2ee2	-0.022971574
190	0x3b311c72	0.0027025011
191	0xbb0e156b	-0.0021680247
192	0xbd25700a	-0.040390052
193	0xbbc8efad	-0.006132087
194	0xbcee07b1	-0.029056402
195	0xbb9db20a	-0.0048124837
196	0xbc2764e0	-0.010216922
197	0x3be65cf6	0.007030125
198	0x3bcd8596	0.006272028
199	0x3b3ee7d2	0.0029129875
200	0xbbdb87b1	-0.0066995253
201	0xbaefd62e	-0.0018298083
202	0x3ad37543	0.0016132969
203	0xbd5efc20	-0.054439664
204	0xbc3e3e48	-0.011611529
205	0xbcd2aaa3	-0.025716132
206	0x3b0d6ad7	0.0021578574
207	0xbc49f6f5	-0.012326946
208	0xbb8bf5cc	-0.0042712446
209	0x3a5b24fa	0.0008359697
210	0xbd20af79	-0.039229844
211	0xba7bc435	-0.0009604127
212	0xbb93f8d9	-0.004515749
213	0xbcb4f2d9	-0.022088455
214	0xbca586b4	-0.020205833
215	0x3bbada78	0.005702313
216	0xbc5ba3d1	-0.013405756
217	0xba3624fa	-0.0006948259
218	0xbd2e7a01	-0.04259682
219	0xbcd4b860	-0.025966823
220	0x3a4ee8bd	0.0007892957
221	0xbcff18ee	-0.031139817
222	0xbc842fb7	-0.016136033
223	0xbb529e9c	-0.0032137996
224	0xbbde44e8	-0.0067831166
225	0xbcb2769f	-0.021785079
226	0xbb2235f7	-0.0024751404
227	0xbc92539b	-0.017862132
228	0xbbca921a	-0.0061819674
229	0x3cb480f6	0.02203415
230	0xbd10a891	-0.035317007
231	0x3b23bc1b	0.0024983946
232	0x3ca7884f	0.02045074
233	0x3b0ac3a3	0.0021173737
234	0x3c2091b2	0.0098003615
235	0x3c1ea10c	0.009681951
236	0x3b10edaf	0.0022114327
237	0xbbda8bf1	-0.0066695143
238	0x3cb6acfe	0.022299286
239	0xbc248ed0	-0.010043815
240	0x3b8b239d	0.004246189
241	0xbae822fd	-0.0017710623
242	0xbdb5ab20	-0.0887053
243	0x3c49bdbb	0.012313302
244	0x3cdb1d10	0.026747257
245	0x3c8f5c84	0.01750017
246	0xbd8a7b82	-0.067618385
247	0xbb7522e0	-0.003740482
248	0xbd1b27d1	-0.03787977
249	0x3d031e9c	0.032011613
250	0xbbf2d0a7	-0.007410127
251	0x3c4a5dd5	0.012351473
252	0x3b461a47	0.0030228065
253	0xbbc3e2ca	-0.005977963
254	0x3c06f6f1	0.008237586
255	0xba8ebafb	-0.0010889465

gnn.gnn_layers.0.gat_conv.fc.weight f4 [1024, 74]
0	0xbc522e27	-0.012828386
1	0xbc2a4144	-0.010391537
2	0xbbe1db31	-0.0068925847
3	0x3bc242c2	0.0059283683
4	0xbb4c7446	-0.0031197234
5	0x3a0c60de	0.00053550105
6	0xbb63ffe5	-0.0034789976
7	0x3b5d146f	0.0033734103
8	0xb9429fff	-0.00018560885
9	0x0005e87d	5.42579e-40
10	0x0012524f	1.682566e-39
11	0x000bf46b	1.097871e-39
12	0x800586ef	-5.07583e-40
13	0x80040ce7	-3.7197e-40
14	0x8009f7db	-9.15433e-40
15	0xbaac1b14	-0.0013130629
16	0x0001608d	1.26471e-40
17	0x00058eb2	5.10367e-40
18	0x000ee38d	1.367327e-39
19	0x001c3a5e	2.592332e-39
20	0x8002c5bc	-2.54605e-40
21	0x0000e3ee	8.1766e-41
22	0x00045112	3.96425e-40
23	0x8021fc88	-3.121163e-39
24	0x0009fe46	9.17736e-40
25	0x0010919a	1.5216e-39
26	0x001ea7d2	2.815267e-39
27	0x001dfce0	2.753944e-39
28	0x001ad0cb	2.462624e-39
29	0xb9fed1b9	-0.0004860291
30	0x8004d361	-4.4317e-40
31	0x8006948e	-6.04304e-40
32	0x800cb177	-1.165688e-39
33	0x0002fd45	2.74527e-40
34	0x8011a7d3	-1.621407e-39
35	0x001357f1	1.776422e-39
36	0x8012118e	-1.659336e-39
37	0x00036bb7	3.14147e-40
38	0x000af010	1.004473e-39
39	0x800d476d	-1.219484e-39
40	0x001b030c	2.480651e-39
41	0x800ea30b	-1.344186e-39
42	0x0001bbbf	1.59186e-40
43	0x0002b3e1	2.482e-40
44	0x3ba19d01	0.0049320464
45	0xbc12e35f	-0.008965342
46	0xbc484611	-0.012223736
47	0xba428595	-0.0007420418
48	0x0006df60	6.31145e-40
49	0x3a856b28	0.001017903
50	0x0004a0e4	4.25059e-40
51	0x8004a5ff	-4.2689e-40
52	0x800b13dd	-1.017316e-39
53	0x00155231	1.95803e-39
54	0xbacf5e59	-0.0015820964
55	0xbc518a59	-0.012789332
56	0xbb81726c	-0.0039504077
57	0x3c5ce802	0.013483049
58	0x001d7115	2.703796e-39
59	0x00560d57	7.902638e-39
60	0x80043241	-3.8537e-40
61	0x3b128bf4	0.002236125
62	0x00a4cac1	1.5133756e-38
63	0x3a81a244	0.0009890278
64	0xbc8492fb	-0.016183367
65	0xbb37c7f2	-0.002804276
66	0x8022368a	-3.141972e-39
67	0x3a8bc449	0.0010663356
68	0xbc05fb4a	-0.008177588
69	0xbc1a9db9	-0.009437018
70	0xbc905ae5	-0.017621467
71	0xbb55c21b	-0.0032616917
72	0x3b9192bb	0.0044425405
73	0x00026902	2.2134e-40
74	0xbb0a85c3	-0.0021136857
75	0xb99a63ee	-0.00029447622
76	0xba14132c	-0.0005648609
77	0xba2fb872	-0.00067032047
78	0xba10e743	-0.0005527625
79	0xb7821f65	-1.5511827e-05
80	0x39a93850	0.00032276148
81	0x3893a6a6	7.040547e-05
82	0x368a8fad	4.1294466e-06
83	0x8000f3dd	-8.7482e-41
84	0x800b06bd	-1.012608e-39
85	0x0005d36f	5.35026e-40
86	0x8003eda0	-3.6075e-40
87	0x0000fe21	9.1164e-41
88	0x801c5e95	-2.605324e-39
89	0x393bb5ef	0.00017901485
90	0x8009cde3	-9.00378e-40
91	0x00081be2	7.44686e-40
92	0x801da15b	-2.721113e-39
93	0x8003d90c	-3.53368e-40
94	0x000254b6	2.1406e-40
95	0x000b4913	1.036405e-39
96	0x800935a2	-8.45759e-40
97	0x8002e7a0	-2.66762e-40
98	0x80066722	-5.8801e-40
99	0x0001468c	1.17143e-40
100	0x80010e10	-9.688e-41
101	0x800609fd	-5.54596e-40
102	0x00099a60	8.81899e-40
103	0xb6bcd4af	-5.6275962e-06
104	0x80171e31	-2.123047e-39
105	0x0001f19f	1.78513e-40
106	0x80062613	-5.64671e-40
107	0x80073b80	-6.64193e-40
108	0x00033fb1	2.98355e-40
109	0x00004b85	2.7091e-41
110	0x80098605	-8.74597e-40
111	0x00579897	8.044427e-39
112	0x000e20f5	1.29752e-39
113	0x8000a69d	-5.977e-41
114	0x00063aeb	5.72149e-40
115	0x0000dd7d	7.9455e-41
116	0x0019ff81	2.387545e-39
117	0x80154cad	-1.956052e-39
118	0xbb0b8a94	-0.0021292316
119	0xbb909f3e	-0.0044135144
120	0xbb2e7b1f	-0.002662368
121	0xba042d7f	-0.000504218
122	0x0002b575	2.48766e-40
123	0x3735f271	1.08448885e-05
124	0x800b22f2	-1.022726e-39
125	0x8014ef23	-1.922496e-39
126	0x00dee0cd	2.0468123e-38
127	0x80086ebe	-7.74411e-40
128	0xbb7b6e0c	-0.0038365154
129	0xb853662d	-5.040148e-05
130	0xbb4ccc2e	-0.003124963
131	0xba342b60	-0.00068729185
132	0x801cda0c	-2.649614e-39
133	0x0000506f	2.8854e-41
134	0x80009f69	-5.7186e-41
135	0xb88a4c40	-6.5945555e-05
136	0x00067af2	5.95117e-40
137	0xb746fbac	-1.1860317e-05
138	0xbb875cba	-0.004130927
139	0xbaf2aaf4	-0.0018514083
140	0x8000b1f1	-6.3833e-41
141	0xb79862c8	-1.816581e-05
142	0xbb24cd7d	-0.0025146895
143	0xbb942621	-0.004521147
144	0xb8e26fe8	-0.00010797364
145	0xbb1eddc2	-0.0024241065
146	0xbb0b0fd1	-0.0021219144
147	0x00000439	1.515e-42
148	0xbabea825	-0.0014545961
149	0xbc69c780	-0.014268756
150	0xbc2052ef	-0.009785398
151	0x3b4c26fc	0.0031151166
152	0x3bb7b6ed	0.0056065232
153	0x36227e92	2.4213555e-06
154	0x396a4849	0.00022342907
155	0x3b6c74bc	0.0036080321
156	0x386f67c5	5.7078683e-05
157	0x00023797	2.03613e-40
158	0x800a4478	-9.42917e-40
159	0x00bd50c0	1.7385876e-38
160	0x8001b194	-1.55539e-40
161	0x8005d6d7	-5.36247e-40
162	0x802e666a	-4.261172e-39
163	0x3b6b6500	0.0035918355
164	0x0001d4d7	1.68188e-40
165	0x00065c35	5.8409e-40
166	0x00013297	1.09984e-40
167	0x80018273	-1.38632e-40
168	0x80064f48	-5.79454e-40
169	0x000375fa	3.17829e-40
170	0x80039d19	-3.31863e-40
171	0x8030df7c	-4.488275e-39
172	0x0015840d	1.975916e-39
173	0x0009156e	8.34207e-40
174	0x0001d21a	1.67206e-40
175	0x0002e054	2.64145e-40
176	0x8002208b	-1.95345e-40
177	0x38557ba5	5.089831e-05
178	0x00012ccb	1.07904e-40
179	0x801ea12c	-2.812882e-39
180	0x8001743a	-1.3353e-40
181	0x0000087e	3.046e-42
182	0x80090f66	-8.32043e-40
183	0x8004791a	-4.10785e-40
184	0x800e986a	-1.340373e-39
185	0x00061271	5.57629e-40
186	0x000f9cd3	1.43379e-39
187	0x800492b8	-4.19975e-40
188	0x800bd832	-1.087747e-39
189	0x000e7607	1.328037e-39
190	0x0000e924	8.3635e-41
191	0x00051dfc	4.69934e-40
192	0xba3366dc	-0.00068436353
193	0xbc7c52f6	-0.015400639
194	0xbbf069a4	-0.007336812
195	0x3b7e0d42	0.0038765226
196	0x800c58b2	-1.133844e-39
197	0x39908431	0.0002756431
198	0x0014919e	1.888948e-39
199	0x000561b5	4.94228e-40
200	0x80004ea9	-2.8218e-41
201	0x801e1486	-2.762427e-39
202	0xbc1831df	-0.009289234
203	0x3bb559d1	0.0055343886
204	0xbc0a79c9	-0.008451887
205	0x3b5fac7a	0.0034129904
206	0x80010a34	-9.5496e-41
207	0x0001a579	1.51196e-40
208	0x80053ffb	-4.8213e-40
209	0x39a4cd67	0.00031433554
210	0x000ca4b9	1.161117e-39
211	0xba3bd42d	-0.00071651005
212	0xbc70181a	-0.014654184
213	0xbb38733a	-0.0028144852
214	0x8003221e	-2.87745e-40
215	0x394612ef	0.00018889805
216	0xbc71f252	-0.014767246
217	0xbc3c1077	-0.011478535
218	0x3b25dc7f	0.0025308428
219	0xbc142252	-0.009041386
220	0x3aec71e5	0.0018039314
221	0x800aeeaf	-1.003979e-39
222	0x3c0a1360	0.008427471
223	0xbd082dcf	-0.03324681
224	0xbb6ffe72	-0.0036620167
225	0x3bc61941	0.006045491
226	0x3cbabfcc	0.022796534
227	0x3a07a49d	0.00051743706
228	0x3b30b9a7	0.0026966126
229	0x3c9db95f	0.01925343
230	0x39fa4e25	0.00047741938
231	0x0000c0a2	6.9104e-41
232	0x00009970	5.5043e-41
233	0x0006026e	5.51885e-40
234	0x8005d31a	-5.34906e-40
235	0x000d758f	1.236034e-39
236	0x00386f9a	5.182823e-39
237	0x3a6c9a21	0.00090256525
238	0x800a2d64	-9.34638e-40
239	0x8004c9fa	-4.39798e-40
240	0x800132b3	-1.10023e-40
241	0x800587c0	-5.07875e-40
242	0x800580fc	-5.05448e-40
243	0x8006180f	-5.59644e-40
244	0x800875b9	-7.76915e-40
245	0x801235cb	-1.672336e-39
246	0x0002f111	2.7015e-40
247	0x80000d72	-4.823e-42
248	0x00010bcb	9.6066e-41
249	0x003af60c	5.414724e-39
250	0x805f71ad	-8.765151e-39
251	0x38754cad	5.848396e-05
252	0x800162cb	-1.27276e-40
253	0x0014a6f1	1.896597e-39
254	0x0000afdd	6.3088e-41
255	0x8002c062	-2.52685e-40

gnn.gnn_layers.0.gat_conv.res_fc.weight f4 [1024, 74]
0	0x3b31b7bb	0.0027117569
1	0xbc96433a	-0.018342603
2	0xbbd22808	-0.0064134635
3	0x3bac5cb6	0.0052600754
4	0xbba34985	-0.0049831294
5	0xb8698be9	-5.568183e-05
6	0xb99a68e3	-0.00029451316
7	0x3b6476cf	0.0034860855
8	0xb98b5ae5	-0.00026579868
9	0x000c73dd	1.14359e-39
10	0x80016f79	-1.31824e-40
11	0x00015351	1.21724e-40
12	0x0001f203	1.78653e-40
13	0x000610fc	5.57106e-40
14	0x80178bf1	-2.162418e-39
15	0xb8e34b14	-0.00010838188
16	0x80281b8d	-3.683303e-39
17	0x8008b8c4	-8.00965e-40
18	0x000f43d6	1.401867e-39
19	0x8001f1e8	-1.78615e-40
20	0x000100a9	9.2072e-41
21	0x0013e06a	1.825379e-39
22	0x80092677	-8.40318e-40
23	0x800619d6	-5.60281e-40
24	0x0006b64c	6.16409e-40
25	0x8001d6a7	-1.68838e-40
26	0x800502fa	-4.60245e-40
27	0x8019977c	-2.35023e-39
28	0x0006b64b	6.16407e-40
29	0xb985a9cf	-0.00025494254
30	0x800fc420	-1.447889e-39
31	0x8018bea9	-2.272448e-39
32	0x800fdba5	-1.456326e-39
33	0x800fae22	-1.44e-39
34	0x0005395e	4.79757e-40
35	0x800514ad	-4.66595e-40
36	0x800c8db0	-1.152854e-39
37	0x0005af29	5.22013e-40
38	0x800fcaa9	-1.450233e-39
39	0x800718c3	-6.51731e-40
40	0x0003d2a1	3.51066e-40
41	0x80002403	-1.2919e-41
42	0x00095456	8.56773e-40
43	0x00007a77	4.3932e-41
44	0x3c43881c	0.0119343065
45	0xbbf9b041	-0.007619888
46	0xbc3960fd	-0.011314628
47	0xbb45b242	-0.0030166064
48	0x00023dcc	2.0584e-40
49	0x396fb911	0.00022861759
50	0x8012537b	-1.682986e-39
51	0x000308b3	2.78627e-40
52	0x8000132a	-6.875e-42
53	0x0002561f	2.14565e-40
54	0xbc1eefd8	-0.009700738
55	0xbbce806a	-0.0063019292
56	0xbbb592d7	-0.0055411863
57	0x3cac9230	0.021065801
58	0x80048fa5	-4.18872e-40
59	0x000b6b66	1.048718e-39
60	0x000c29f1	1.117072e-39
61	0xbb82f079	-0.0039959517
62	0x80014954	-1.1814e-40
63	0x3bc6064e	0.006043232
64	0xbbe7ed72	-0.0070778662
65	0xbc11ac6a	-0.008891204
66	0x801b08b8	-2.482686e-39
67	0x39ff5ecf	0.00048708028
68	0xbc2320b6	-0.009956529
69	0xbbc0d9f1	-0.0058853556
70	0xbc49808c	-0.012298714
71	0xbbfced73	-0.007718736
72	0x3b090197	0.0020905489
73	0x00021acd	1.93285e-40
74	0xbae73115	-0.0017638529
75	0x3aae97f2	0.001332043
76	0xba67f316	-0.00088481733
77	0xb9b94945	-0.0003534054
78	0xb85afbec	-5.220987e-05
79	0x3782d1d0	1.559491e-05
80	0x384110c1	4.603039e-05
81	0xb944ce06	-0.00018768766
82	0xb88acc61	-6.618421e-05
83	0x0005b9e1	5.25858e-40
84	0x001dcc91	2.736614e-39
85	0x801052a3	-1.499012e-39
86	0x0012b7ca	1.71897e-39
87	0x80009048	-5.1758e-41
88	0x00012978	1.06712e-40
89	0x39329b37	0.00017033225
90	0x80036b49	-3.13993e-40
91	0x00007ed0	4.5492e-41
92	0x800a6c3b	-9.57181e-40
93	0x000dce4d	1.267868e-39
94	0x00067337	5.92344e-40
95	0x8040bccd	-5.945201e-39
96	0x80061625	-5.58957e-40
97	0x800c1e61	-1.112924e-39
98	0x80007838	-4.3126e-41
99	0x800f64e6	-1.413728e-39
100	0x8006c660	-6.22177e-40
101	0x000716a5	6.50972e-40
102	0x800d8d48	-1.244544e-39
103	0xb717303d	-9.011533e-06
104	0x000136bd	1.11472e-40
105	0x800363bf	-3.11289e-40
106	0x000048be	2.6095e-41
107	0x000b988e	1.064917e-39
108	0x80116dba	-1.600566e-39
109	0x0000dc12	7.8946e-41
110	0x80014f84	-1.2036e-40
111	0x800acd68	-9.92041e-40
112	0x0004f996	4.56877e-40
113	0x00232594	3.227723e-39
114	0x8008da78	-8.13056e-40
115	0x8007f545	-7.30835e-40
116	0x0008edd9	8.20008e-40
117	0x00068c74	6.01398e-40
118	0xbacd2fe7	-0.0015654535
119	0xbb418be4	-0.0029532844
120	0xbb200337	-0.0024415979
121	0xb9f204fb	-0.00046161548
122	0x800001f2	-6.98e-43
123	0x37be37f5	2.2675822e-05
124	0x000501f6	4.59881e-40
125	0x800caae9	-1.163337e-39
126	0x00074a29	6.69452e-40
127	0x8000ae9d	-6.264e-41
128	0xbb59db6d	-0.003324236
129	0x38da16d2	0.00010399301
130	0xbb4d249a	-0.0031302334
131	0xba8c8e57	-0.0010723573
132	0x0001a9c5	1.52737e-40
133	0x00093082	8.43921e-40
134	0x00025f27	2.17805e-40
135	0xb8ba2a2f	-8.8770284e-05
136	0x8001b19c	-1.5555e-40
137	0xb8e3c618	-0.00010861101
138	0xbacb1b73	-0.0015495851
139	0xbb06fb95	-0.0020596732
140	0x80007d07	-4.4851e-41
141	0x383957ca	4.4189197e-05
142	0xbaa33440	-0.0012451485
143	0xbb89d6f5	-0.004206533
144	0x3ab44f83	0.0013756606
145	0xbb31d7b6	-0.002713663
146	0xbb23226c	-0.0024892343
147	0x000358d7	3.07376e-40
148	0x38a5983c	7.896169e-05
149	0xbc3bd540	-0.011464417
150	0xbc208353	-0.009796935
151	0x3af4282d	0.0018627696
152	0x3c29d04a	0.010364601
153	0x3802b0f0	3.11592e-05
154	0xb7aab01e	-2.034759e-05
155	0x3b84d7a0	0.004054025
156	0x390254da	0.00012429376
157	0x8001aa1a	-1.52856e-40
158	0x001569a2	1.96644e-39
159	0x80133779	-1.764774e-39
160	0x8001d38d	-1.67726e-40
161	0x00079b93	6.98658e-40
162	0x800b4420	-1.034629e-39
163	0x3a77dce0	0.0009455215
164	0x8000ed0e	-8.5039e-41
165	0x8012e151	-1.733867e-39
166	0x0005ece7	5.44162e-40
167	0x0001f9c2	1.81432e-40
168	0x80029cb7	-2.3989e-40
169	0x0037ac2e	5.112719e-39
170	0x800e4be2	-1.312919e-39
171	0x804ccd94	-7.053245e-39
172	0x00027356	2.25046e-40
173	0x000f4ef4	1.405855e-39
174	0x002a56d9	3.888246e-39
175	0x00044b61	3.94383e-40
176	0x00051ab8	4.68762e-40
177	0xb8c00808	-9.1567694e-05
178	0x000313f8	2.8267e-40
179	0x80056c1b	-4.97958e-40
180	0x00082747	7.48774e-40
181	0x8003fbe2	-3.65865e-40
182	0x8001a6d2	-1.5168e-40
183	0x8002c247	-2.53365e-40
184	0x0006900f	6.02691e-40
185	0x001cad94	2.633662e-39
186	0x8002decd	-2.63597e-40
187	0x000627c1	5.65274e-40
188	0x80131aab	-1.754441e-39
189	0x80028bda	-2.3384e-40
190	0x80012d70	-1.08135e-40
191	0x800b30f5	-1.027753e-39
192	0x3badf844	0.0053091366
193	0xbc28e441	-0.010308326
194	0xbc055771	-0.008138523
195	0xb99cec56	-0.00029930723
196	0x803cd8cf	-5.587906e-39
197	0x392711b9	0.00015932963
198	0x001e01b5	2.755677e-39
199	0x800bd654	-1.087077e-39
200	0x80070cb9	-6.47413e-40
201	0x8006ea7e	-6.35133e-40
202	0xbc135535	-0.008992483
203	0xbbc797af	-0.00609108
204	0xbc3ec23a	-0.011642987
205	0x3b9efdb1	0.0048520197
206	0x800c8113	-1.148329e-39
207	0x8000a26c	-5.8266e-41
208	0x80038618	-3.2361e-40
209	0x3a332bd1	0.0006834837
210	0x000c1f04	1.113152e-39
211	0xba9c544d	-0.0011926979
212	0xba818472	-0.0009881391
213	0xbbd7f8cb	-0.0065909377
214	0x80024e16	-2.11683e-40
215	0x38fb9df2	0.00011998032
216	0xbb25c4a5	-0.0025294211
217	0xbc2a9b72	-0.010413038
218	0xba167681	-0.00057397044
219	0xbc3dc4e7	-0.01158259
220	0x3bc2120b	0.005922561
221	0x80012c16	-1.0765e-40
222	0xb9e1df75	-0.00043081833
223	0xbcdd746b	-0.027033051
224	0xbbbe1725	-0.005801099
225	0xbb847ff7	-0.004043575
226	0x3c2b3684	0.010450009
227	0xb9fdd273	-0.00048412717
228	0x3a1d690f	0.00060047297
229	0x3cbd4343	0.023103362
230	0xb96caff0	-0.00022572256
231	0x801aeb9f	-2.472248e-39
232	0x80033ced	-2.97363e-40
233	0x800561a2	-4.94202e-40
234	0x80075068	-6.71693e-40
235	0x80248134	-3.352427e-39
236	0x000402c5	3.68336e-40
237	0x3a82cffe	0.0009980199
238	0x8000a869	-6.0414e-41
239	0x0004270b	3.81348e-40
240	0x002b7f2d	3.994548e-39
241	0x80004eab	-2.8221e-41
242	0x80048d30	-4.1799e-40
243	0x00002e11	1.6526e-41
244	0x0001ed7c	1.77029e-40
245	0x80014782	-1.17488e-40
246	0x0008a88a	7.95144e-40
247	0x80051edf	-4.70252e-40
248	0x8006b0e4	-6.1447e-40
249	0x8009b688	-8.92e-40
250	0x000c9f12	1.15909e-39
251	0x369d5105	4.6883965e-06
252	0x800b7911	-1.053621e-39
253	0x00060675	5.5333e-40
254	0x00086f71	7.74662e-40
255	0x0001fb1a	1.81914e-40

readout.weight_and_sum.atom_weighting.0.weight f4 [1, 128]
0	0x39788533	0.00023700744
1	0x3cc13a56	0.023587387
2	0x3dd9c372	0.10632981
3	0xbcc2e07e	-0.023788687
4	0x3e1c5a3e	0.152688
5	0x3ec447c8	0.38336015
6	0x3e12c2ab	0.14332072
7	0xbdb8df77	-0.090269975
8	0xbbe4fcdb	-0.0069881505
9	0xbe144a7e	-0.14481542
10	0x3d07393a	0.03301356
11	0xbda63ceb	-0.08117088
12	0xbd680b8f	-0.056651648
13	0xbc236e3a	-0.0099750105
14	0x3d302a38	0.043009013
15	0x3e0587bf	0.13040064
16	0x3e1b7b7e	0.15183827
17	0xbd0c1504	-0.03419973
18	0xbd8adee3	-0.067807935
19	0xbcd896f5	-0.02643917
20	0x3db8a667	0.09016114
21	0x3e23442c	0.15943974
22	0xbcd1691a	-0.025562812
23	0xbdae5a76	-0.08513348
24	0x3d8a092a	0.06740029
25	0x3ebe14d6	0.37125272
26	0xbc828620	-0.015933096
27	0x3db9e54c	0.09076938
28	0x3cea561a	0.02860551
29	0x3c2e45f6	0.010636797
30	0xbcabba16	-0.020962756
31	0x3e8f52df	0.27992913
32	0xbc791a8c	-0.015204083
33	0xbd04162e	-0.032247715
34	0x3d862f94	0.065520436
35	0x3e4e52c6	0.20148763
36	0xbde0bc4f	-0.10973417
37	0x3d20b2e5	0.039233107
38	0x3d47461c	0.048650846
39	0x3ccaec18	0.024770781
40	0x3c32065d	0.010865775
41	0x3db5c481	0.08875371
42	0x3e3790f9	0.17926396
43	0x3e6867a2	0.22695783
44	0x3dfed625	0.124431886
45	0xbdbff207	-0.09372335
46	0x3c23a219	0.009987378
47	0xbe8aa180	-0.2707634
48	0x3e0311a4	0.12799698
49	0x3db87a39	0.09007687
50	0x3e0e5557	0.13899742
51	0x3c9ba229	0.018998222
52	0x3b91aab5	0.0044453987
53	0x3d9bc58c	0.076060385
54	0x3e42b443	0.19014077
55	0x3e91ebb8	0.28500152
56	0xbd393d9d	-0.045224775
57	0x3cfc76ea	0.030818421
58	0xbce1cbbc	-0.027562968
59	0xbdd5ce05	-0.10439686
60	0x3c8aa070	0.016922206
61	0x3d9b010e	0.075685605
62	0xbe34f415	-0.17671235
63	0xbd1bdd68	-0.038052946
64	0x3e8628c5	0.2620298
65	0x3d34a5d7	0.04410347
66	0x3defc991	0.117083676
67	0x3d79763a	0.060903765
68	0x3c436bcc	0.011927556
69	0x3ca4ef89	0.02013375
70	0xbdeb6be6	-0.11495189
71	0xbccb61fa	-0.024826992
72	0x3d3f1d33	0.046658706
73	0x3d0ec504	0.034855857
74	0x3cad2fb4	0.02114091
75	0x3e4d3a86	0.20041856
76	0xbdaf9cb8	-0.085748136
77	0x3dd082e4	0.101812154
78	0x3cf38e85	0.029731045
79	0x3e411d64	0.18858868
80	0x3d57dd33	0.052701186
81	0xbc66789b	-0.0140668405
82	0x3d7842af	0.06061047
83	0xbd0ab1e0	-0.03386104
84	0xbb2c1269	-0.002625609
85	0x3e59dc14	0.2127536
86	0x3e090bdb	0.13383429
87	0xbd45f233	-0.048326682
88	0x3de95b7e	0.11394404
89	0x3cd88e75	0.026435116
90	0x3e4efe83	0.20214276
91	0x3def5291	0.1168567
92	0xbd0807ee	-0.033210687
93	0x3e00916a	0.12555471
94	0xbe17ab3b	-0.14811413
95	0x3c686900	0.01418519
96	0x3d981fb0	0.07427919
97	0x3e303fd6	0.17211851
98	0xbb19a17f	-0.0023442206
99	0x3e11bbe6	0.14231834
100	0x3d2302e6	0.039797686
101	0xbe54b212	-0.20771053
102	0x3e88cb84	0.2671777
103	0x3bc71f6b	0.0060767434
104	0xbe2b9323	-0.16755347
105	0x3baca7bf	0.0052690203
106	0x3e44cc82	0.19218639
107	0xbdbdd856	-0.092697784
108	0xbdd5c197	-0.10437315
109	0x3da10246	0.07861762
110	0xbd58b375	-0.05290552
111	0x3df0edc8	0.11764103
112	0xbd9e3ac7	-0.07726055
113	0xbc7fb818	-0.015607856
114	0x3e91629c	0.28395545
115	0x3e647427	0.22309934
116	0xbe167ec5	-0.14696796
117	0xbe23e9a2	-0.16007093
118	0x3e9a50bb	0.30139717
119	0xbb09d9a0	-0.0021034256
120	0x3e92b46d	0.2865328
121	0xbe321133	-0.17389373
122	0xbdba8cd7	-0.09108894
123	0x3ccbf45e	0.024896797
124	0x3bbb32fb	0.0057128645
125	0x3c862e27	0.016379429
126	0xbdf02a8e	-0.11726867
127	0xbda25825	-0.079269685

predict.predict.1.weight f4 [128, 256]
0	0x3629d61c	2.530759e-06
1	0x33d14282	9.7444186e-08
2	0xb6400a8b	-2.8616366e-06
3	0xb6b699a5	-5.4419093e-06
4	0xb7e376d6	-2.7115846e-05
5	0x373f2bbb	1.1394669e-05
6	0xb63df226	-2.8304144e-06
7	0x37de475c	2.6497692e-05
8	0x366c3f90	3.5203739e-06
9	0x36c2396c	5.7883353e-06
10	0x360b2b13	2.0737687e-06
11	0x38be9093	9.086835e-05
12	0x3591f2ba	1.0873985e-06
13	0x35535e63	7.8740976e-07
14	0x35cfc8b3	1.5481113e-06
15	0x36cfe09c	6.1952287e-06
16	0x36317b5e	2.6446864e-06
17	0x353750e8	6.8290547e-07
18	0x36d66cda	6.390369e-06
19	0xb59ea1a6	-1.1818963e-06
20	0x36f25a3a	7.2226658e-06
21	0x378e0630	1.69306e-05
22	0xb583dee8	-9.825135e-07
23	0xb6dc9259	-6.573548e-06
24	0x366b47e6	3.505958e-06
25	0xb7ef428b	-2.8522007e-05
26	0xb594ca1c	-1.1085681e-06
27	0x36fd55a8	7.5499593e-06
28	0x3603877c	1.9599383e-06
29	0x35479fdc	7.4365903e-07
30	0xb633b5ce	-2.6778903e-06
31	0xb8c9249f	-9.591248e-05
32	0xb52e1055	-6.484382e-07
33	0x358e0476	1.0581123e-06
34	0xb4c929e1	-3.7469638e-07
35	0x3710a981	8.622535e-06
36	0x376abc3a	1.3991312e-05
37	0xb4e13d07	-4.195392e-07
38	0x370c956f	8.379443e-06
39	0xb66c0f22	-3.517555e-06
40	0x33a6414c	7.741855e-08
41	0x351f66af	5.938154e-07
42	0x363d7b58	2.823499e-06
43	0xb631e3fd	-2.6507762e-06
44	0x36505f55	3.1049906e-06
45	0xb699f81e	-4.58864e-06
46	0x373c77ac	1.12335365e-05
47	0xb8a33a7c	-7.783339e-05
48	0x3657be83	3.214839e-06
49	0x370de7dd	8.45824e-06
50	0xb7d23447	-2.5058294e-05
51	0x348fad35	2.676185e-07
52	0x3521e824	6.0314983e-07
53	0x34e46fe4	4.254972e-07
54	0x3649da93	3.007856e-06
55	0xb8419390	-4.6152214e-05
56	0x366db6d1	3.5422165e-06
57	0x368d70c0	4.2152533e-06
58	0xb4e3eb17	-4.2453095e-07
59	0x352191dc	6.0189427e-07
60	0x3589f6a3	1.0279076e-06
61	0x358168f6	9.641797e-07
62	0x368a3fbe	4.120141e-06
63	0xb5b8264f	-1.3720218e-06
64	0xb81f48db	-3.7976406e-05
65	0x35429ff6	7.2503406e-07
66	0xb6adf377	-5.184145e-06
67	0x36f991b4	7.4377404e-06
68	0x362f1571	2.6089513e-06
69	0xb5ad1c12	-1.2897674e-06
70	0xb689d7c9	-4.108039e-06
71	0xb59a5332	-1.1498107e-06
72	0x355d780c	8.2503607e-07
73	0x363f0da7	2.8469165e-06
74	0xb2c23d74	-2.2612518e-08
75	0xb7cb125e	-2.4208039e-05
76	0x35d41fee	1.5804524e-06
77	0xb5c63f4d	-1.4770573e-06
78	0x3511a327	5.425413e-07
79	0xb88af6ed	-6.626346e-05
80	0x36b89c69	5.501836e-06
81	0x3439330e	1.7248041e-07
82	0x3701f1fa	7.745339e-06
83	0xb61cf6ff	-2.3389582e-06
84	0x3504b96b	4.944365e-07
85	0xb71fec47	-9.532151e-06
86	0x36c8530c	5.9701324e-06
87	0xb621ba94	-2.4099472e-06
88	0x35b1b4be	1.324013e-06
89	0xb3eed549	-1.1121535e-07
90	0x3737586b	1.0928236e-05
91	0x36a16785	4.810225e-06
92	0xb67ebcc3	-3.7958823e-06
93	0xb6f3cc8d	-7.265777e-06
94	0xb6658c64	-3.4205377e-06
95	0xb5f80fdd	-1.8482057e-06
96	0x35b201c9	1.3262553e-06
97	0x3786d8d4	1.6075013e-05
98	0x36295888	2.5234494e-06
99	0xb68a8ae8	-4.1288913e-06
100	0x3522764b	6.052184e-07
101	0xb727ee55	-1.0009467e-05
102	0x37601362	1.3355953e-05
103	0xb59a8eed	-1.1515491e-06
104	0x36ab3494	5.102318e-06
105	0x3691f72b	4.350111e-06
106	0xb5ed5ec4	-1.7685456e-06
107	0x35320976	6.6323935e-07
108	0x36f1af3d	7.20276e-06
109	0x345c00a0	2.0489324e-07
110	0x34d9f834	4.059999e-07
111	0x36536254	3.1498685e-06
112	0xb2fb303a	-2.9242177e-08
113	0x35da64d3	1.6271609e-06
114	0x36912367	4.325458e-06
115	0xb59385b8	-1.0991271e-06
116	0xb8948c77	-7.0833536e-05
117	0xb79a2459	-1.8375156e-05
118	0x37743cc8	1.4557685e-05
119	0x34d65047	3.9919016e-07
120	0x36ef7c6b	7.137239e-06
121	0xb6f571af	-7.3148035e-06
122	0x367549cd	3.6550803e-06
123	0xb5c9d7b9	-1.503845e-06
124	0x35d951fe	1.6191623e-06
125	0x33ec2786	1.0996796e-07
126	0x37127328	8.72909e-06
127	0xb716176f	-8.946153e-06
128	0x337d2623	5.8940838e-08
129	0x3250083a	1.2109064e-08
130	0xb2199d8c	-8.941594e-09
131	0x354f3576	7.7191305e-07
132	0xb407b567	-1.2638849e-07
133	0x34e47199	4.2550963e-07
134	0x359d1943	1.1704764e-06
135	0xb4237c35	-1.5225744e-07
136	0xb3250da7	-3.8429473e-08
137	0xb3e199e9	-1.0505375e-07
138	0xb4297a7a	-1.5783908e-07
139	0xb4605f61	-2.0896324e-07
140	0x317ab4cc	3.648256e-09
141	0xb385ba49	-6.22718e-08
142	0x3402446a	1.2132082e-07
143	0xb4063655	-1.2499488e-07
144	0x35265eb8	6.1977653e-07
145	0x35113ecf	5.410811e-07
146	0x35a8e307	1.2583049e-06
147	0x34d09c3d	3.8856697e-07
148	0xb159f815	-3.1718674e-09
149	0xb5887ba6	-1.0168776e-06
150	0x34eaaa9d	4.3710034e-07
151	0x361523b9	2.2223524e-06
152	0xb3c0c3c7	-8.9763084e-08
153	0x34b27642	3.3241128e-07
154	0x3209c2b2	8.018718e-09
155	0x33be6079	8.865113e-08
156	0xb3a5d1f5	-7.721602e-08
157	0x34c9e626	3.7606623e-07
158	0x346e90f7	2.2218215e-07
159	0xb4bf68b9	-3.5652718e-07
160	0xb232fc5b	-1.0418343e-08
161	0xb3b481fc	-8.405547e-08
162	0xb4518b36	-1.9515286e-07
163	0x34d7bd84	4.0184761e-07
164	0xb45773b8	-2.0065534e-07
165	0xb3fbf48a	-1.173258e-07
166	0xb4811ad4	-2.4047642e-07
167	0x35622764	8.424888e-07
168	0x3488337c	2.5369434e-07
169	0x344e0e53	1.9190456e-07
170	0x350b094f	5.179508e-07
171	0xb57ce0c3	-9.4204387e-07
172	0x3284dd65	1.5467501e-08
173	0x3412fa0a	1.3688273e-07
174	0x33073c98	3.1487247e-08
175	0xb5f89ad6	-1.8522503e-06
176	0xb361e4b0	-5.2594885e-08
177	0xb452b49f	-1.9623484e-07
178	0x32ca97d7	2.3584944e-08
179	0xb348bd4c	-4.6738293e-08
180	0xb27cda5e	-1.47179815e-08
181	0xb5356dcc	-6.758753e-07
182	0xb4f4c873	-4.5594388e-07
183	0x359bbeec	1.1603966e-06
184	0x33f68fac	1.14814014e-07
185	0x33806b35	5.979965e-08
186	0x34943f92	2.7613402e-07
187	0xb2dfe5e3	-2.6065157e-08
188	0xb3845504	-6.162193e-08
189	0xb4f58ea1	-4.5738582e-07
190	0x34fe7dc1	4.7402685e-07
191	0x3552ff8c	7.8602966e-07
192	0x350c70fb	5.231847e-07
193	0xb4c7c26f	-3.7208108e-07
194	0xb538d922	-6.886131e-07
195	0xb391939d	-6.7789394e-08
196	0x338f3326	6.66826e-08
197	0x3568a2b0	8.6663476e-07
198	0x3421d2af	1.507094e-07
199	0xb59b3d2e	-1.1566206e-06
200	0xb2dba84f	-2.5571493e-08
201	0xb45aaec4	-2.0366411e-07
202	0x359908ac	1.1401912e-06
203	0x34a755e9	3.1168682e-07
204	0xb39a21c4	-7.177326e-08
205	0xb5064bb0	-5.002903e-07
206	0x3414828b	1.3831065e-07
207	0xb472ee8b	-2.2624788e-07
208	0x34e3e5f2	4.2449352e-07
209	0xb065a1ea	-8.353981e-10
210	0xb5533d3f	-7.869275e-07
211	0x34fd7670	4.7211097e-07
212	0x3397f00c	7.07515e-08
213	0xb4aeb252	-3.253977e-07
214	0xb3a68fd8	-7.7561424e-08
215	0x340ca543	1.3098638e-07
216	0xb3143348	-3.4505575e-08
217	0x33be3e4c	8.858896e-08
218	0xb5119290	-5.4229986e-07
219	0x344257fc	1.8099666e-07
220	0xb208ed06	-7.970135e-09
221	0xb531f14c	-6.628877e-07
222	0x36236f3c	2.435364e-06
223	0xb30f206b	-3.3324266e-08
224	0xb4ac491c	-3.209069e-07
225	0xb55f8498	-8.3266923e-07
226	0xb4664b2c	-2.1447767e-07
227	0x3329ccc3	3.953461e-08
228	0x343a752c	1.7365227e-07
229	0xb4faa365	-4.6685014e-07
230	0xb48c9ffb	-2.6193433e-07
231	0xb31e89fb	-3.6912734e-08
232	0x33cc9fa6	9.52853e-08
233	0xb451d262	-1.9541179e-07
234	0x3648a5ee	2.9898906e-06
235	0x35b47829	1.3446016e-06
236	0x35f7f5be	1.8474454e-06
237	0xb49fb02b	-2.9744237e-07
238	0x34591e93	2.0220823e-07
239	0x31314537	2.5796234e-09
240	0x33b985b2	8.639053e-08
241	0xb313ad9c	-3.4384e-08
242	0x35fff4b0	1.9070194e-06
243	0x35d6d65b	1.6006628e-06
244	0xb4c6ac7a	-3.7005867e-07
245	0x34b849a7	3.432626e-07
246	0xb4e05683	-4.1786197e-07
247	0xb50ae4fd	-5.174223e-07
248	0xb500705a	-4.784721e-07
249	0x35424c11	7.2381323e-07
250	0x3419a68e	1.4309828e-07
251	0x35badc57	1.3922207e-06
252	0x341aabad	1.4404823e-07
253	0xb331792c	-4.132123e-08
254	0xb4ec333b	-4.39957e-07
255	0x35312501	6.5991486e-07

predict.predict.1.bias f4 [128]
0	0xb6585f83	-3.2242103e-06
1	0x3b05e9b7	0.0020433494
2	0xb98a518b	-0.00026382165
3	0xb5a4d7a4	-1.2281712e-06
4	0xbb90a5d1	-0.004414298
5	0xbb234030	-0.0024910085
6	0x3bf95e5d	0.007610126
7	0x39baf501	0.00035659227
8	0xbb4de232	-0.003141534
9	0xbb135c2b	-0.0022485356
10	0xb87d14e9	-6.0339375e-05
11	0x3b819cdc	0.0039554667
12	0xaf56ef11	-1.954812e-10
13	0xba2738ce	-0.0006379009
14	0xbc3fac6c	-0.011698823
15	0xb68378ef	-3.9181828e-06
16	0xbaf01aff	-0.0018318592
17	0xb8603baa	-5.346133e-05
18	0x39d87d94	0.00041292293
19	0x3c964c8e	0.018347051
20	0xb5af76a1	-1.3073042e-06
21	0xbd36b831	-0.044609252
22	0x3d77e21f	0.06051838
23	0x2fc1ff20	3.5287773e-10
24	0x3d0bf5e2	0.03417004
25	0xbc040d95	-0.008059879
26	0xb9b16b79	-0.00033840144
27	0xb33799f0	-4.2748013e-08
28	0x32304db2	1.0262214e-08
29	0x3e112c7c	0.14177126
30	0xbc81618d	-0.015793586
31	0xb9def3b3	-0.0004252471
32	0x399f9e1c	0.00030444644
33	0xbceb819e	-0.02874833
34	0x3bd8ebf9	0.006619927
35	0x3d2a170c	0.041525885
36	0x3c29921a	0.010349775
37	0xba274d1a	-0.00063820335
38	0x3b31a599	0.002710676
39	0x3adeb00e	0.0016989724
40	0x38ddf4bb	0.00010583686
41	0x39a19d82	0.00030825665
42	0x3ad1a3b6	0.0015994224
43	0x3a0f63cb	0.00054698874
44	0x3c05b470	0.008160695
45	0xb6d4d16b	-6.342472e-06
46	0x3c55e6b9	0.013055497
47	0x3c292df6	0.010325899
48	0x3cb0cedd	0.021583015
49	0x35af606e	1.3066581e-06
50	0xbb0ebe4e	-0.002178091
51	0xbbb6aea8	-0.00557502
52	0x2b99af0f	1.0919892e-12
53	0x3c559393	0.013035673
54	0xb80c2127	-3.3409477e-05
55	0xb9514ea4	-0.00019961089
56	0x39be895d	0.00036341968
57	0xbc8efb78	-0.017453894
58	0x338895f2	6.3602684e-08
59	0xbcaa465f	-0.020785509
60	0x3b5a85ee	0.0033343988
61	0x2b347a73	6.411878e-13
62	0x2e816382	5.883917e-11
63	0xba97b6df	-0.0011574886
64	0xba3fb37b	-0.00073128165
65	0xba404777	-0.0007334868
66	0x3b82a618	0.003987085
67	0xbb316f32	-0.0027074334
68	0xbc70d306	-0.014698749
69	0x3c06ab2f	0.008219524
70	0x3ce379f1	0.027768107
71	0xabc52731	-1.400857e-12
72	0x39031984	0.00012502639
73	0xbb66aede	-0.0035199444
74	0x3938b49d	0.00017614891
75	0x3766b1af	1.37504385e-05
76	0xbc45473b	-0.012040908
77	0x2c28dbca	2.3996243e-12
78	0xbd268ddc	-0.04066263
79	0x3d3225c1	0.043493036
80	0xbb9cc3b1	-0.0047840704
81	0xb75bf657	-1.3110773e-05
82	0xb3da8e4b	-1.0177299e-07
83	0xbc2264d4	-0.009911735
84	0x3e1e662a	0.1546866
85	0x3881ee10	6.195542e-05
86	0xbae30a06	-0.0017321713
87	0xbd07f160	-0.033189178
88	0x38b044c1	8.4051404e-05
89	0x34b53183	3.3749902e-07
90	0x393b6595	0.00017871552
91	0x3c6a977c	0.014318343
92	0xba9a3736	-0.0011765722
93	0x3a14f178	0.00056817336
94	0xba632f35	-0.0008666397
95	0xb52c54fd	-6.419867e-07
96	0x12ae222c	1.0989368e-27
97	0xb834c01e	-4.3094267e-05
98	0x3906cecc	0.00012856274
99	0xba2557d6	-0.0006307339
100	0x3a1d276e	0.000599495
101	0x37547aba	1.2664759e-05
102	0xbd2d75ec	-0.042348787
103	0xbbb20eca	-0.005433892
104	0x3b9fb725	0.0048741275
105	0x35e7f0c3	1.7280912e-06
106	0xba80f88e	-0.00098397
107	0x33d5a1ef	9.948041e-08
108	0xbbb9fb60	-0.005675718
109	0x3cb6fa1b	0.022336056
110	0xbba2fcc3	-0.004973979
111	0x3d8a24a6	0.067452714
112	0x34818a91	2.4128943e-07
113	0x38cede1f	9.864219e-05
114	0x30dbc090	1.5989077e-09
115	0xbb058ed2	-0.0020379317
116	0x362451ac	2.4485444e-06
117	0x3cb12f9d	0.02162915
118	0x3d8e2b0d	0.06941805
119	0xbb7d542e	-0.0038654911
120	0xb83e5ea9	-4.538769e-05
121	0xb8be3913	-9.070537e-05
122	0xba97c7a0	-0.0011579879
123	0xb7813e75	-1.5407082e-05
124	0xb5f4ba79	-1.8233687e-06
125	0x3aaa826b	0.0013008838
126	0x3a24c4be	0.00062854204
127	0xab84e9bc	-9.444038e-13
