Results/GAT/saved_model/GAT_bst_36.pth (torch, 759482 bytes, 13 tensors)

gnn.gnn_layers.0.gat_conv.attn_l f4 [1, 8, 128]
000000 bb 26 f7 bb ec eb 85 bb 9c 37 07 bb 75 9f c3 b9
       -0.007542459 -0.004086962 -0.002063251 -0.00037312103
000010 42 27 2c 3c 2d 85 14 bb c6 a8 3e b9 8f 52 3d 3c
       0.010507407 -0.0022662387 -0.00018182685 0.011555328
000020 5c 7b fc bb c6 9d 91 39 51 75 bb bb 50 93 e9 39
       -0.0077051353 0.00027774106 -0.0057207723 0.0004455098
000030 aa 41 18 3c 9a 71 c3 3b eb 87 dc 3a d3 c5 19 bc
       0.009292999 0.00596447 0.0016825175 -0.009385544
000040 f2 4a c8 bb e5 c9 49 3c d1 66 01 bb 36 12 0c bc
       -0.00611245 0.012316202 -0.0019745121 -0.008549264
000050 57 0a ac bb d9 ed 5c 3b fd f8 01 bb 2a cd ad ba
       -0.005250256 0.0033711104 -0.0019832246 -0.0013259996
000060 cc 42 ab 3b d2 f7 ac 3b ed 71 c3 3a 27 04 fb 3a
       0.0052264687 0.005278566 0.0014911272 0.0019151018
000070 f9 4a da b7 c5 5c 8b bc 94 b8 ec 3a 6d 00 3b bc
       -2.6022537e-05 -0.01701201 0.001806038 -0.011413676
000080 6a eb b0 3b fc 58 7a 3b 2a a3 83 3b 21 19 89 3b
       0.0053991573 0.0038200011 0.0040172534 0.004183904
000090 8c fb 0a bb 10 9a 3f bc a0 ba f9 3b 60 01 c2 3b
       -0.0021207063 -0.011694446 0.0076211244 0.005920574
0000a0 e8 ea 50 3c 12 ac f4 38 30 d4 07 3c 03 24 1b 3c
       0.0127513185 0.00011666877 0.008290336 0.009469035
0000b0 69 85 fd bb 54 2c 04 bb a6 52 31 3b 77 bd 9d 3c
       -0.007736851 -0.0020168023 0.002705732 0.019255383
0000c0 22 47 40 b9 6e cc 4f ba 67 cb e8 3b f4 3b f1 3a
       -0.00018337046 -0.0007926886 0.0071043256 0.0018404708
0000d0 dd fc 33 3c 9e 05 76 bb 16 2c 7f ba 84 f5 cd ba
       0.01098558 -0.003753997 -0.00097340473 -0.0015713428
0000e0 6c 4f 81 3b 5f 74 e1 bb 66 cd 8a ba af 3b 77 bb
       0.0039462354 -0.0068803276 -0.0010589778 -0.0037724783
0000f0 a4 91 e8 ba 61 fe 28 bb 9d 96 eb bb be cb ba 3c
       -0.00177436 -0.0025786387 -0.0071895854 0.02280223
000100 fb 6c 1b ba 22 5d 6d bb 4b 14 a1 3a fe df 87 3b
       -0.000592902 -0.0036218842 0.0012289373 0.004146575
000110 56 a4 69 3b fe 10 9c 3a d9 fe 88 3c bd 9a 8f 3a
       0.003565093 0.001190692 0.016723083 0.001095615
000120 92 33 de b8 c8 f0 ff ba 92 5e cc 3a 56 98 11 ba
       -0.000105953906 -0.0019526714 0.0015592149 -0.0005554011
000130 28 0d a5 3a b5 a9 68 bc 86 7a 84 3b 9d 70 b3 3b
       0.0012592422 -0.014200618 0.0040429262 0.005476071
000140 55 37 c6 b9 54 2f 60 3c 5f 05 0e 3c 51 4b 7d 3c
       -0.00037806729 0.013683159 0.008668273 0.015459851
000150 c5 39 94 3a bc ee db 3b 22 5e 98 bb 50 7e 85 3b
       0.001130872 0.006711809 -0.0046498934 0.0040738955
000160 84 7c 94 bc a5 93 4c b9 97 e3 6a b9 ec 8f 1e 3b
       -0.01812578 -0.00019509958 -0.00022400763 0.002419467
000170 7b e8 04 bc 7e 48 f2 3b 58 5d 76 ba 23 65 76 3a
       -0.008112068 0.0073938956 -0.00093980646 0.0009399226
000180 ef ec 4a bb 8d 07 c5 bb d7 53 53 bb 86 61 49 bc
       -0.0030963977 -0.006012863 -0.0032246017 -0.012291318
000190 cd b9 6e 3c 27 89 da 38 a5 0a 2b 3c 7f 9a e9 ba
       0.014570666 0.00010420597 0.01043955 -0.0017822533
0001a0 b0 af c2 bb 74 82 ed 3b 81 ae fe 3a bf 5e 66 bb
       -0.0059413537 0.0072482172 0.0019430668 -0.0035151688
0001b0 e7 07 f6 ba 85 e9 a5 bb 63 69 95 ba 05 91 25 bc
       -0.0018770666 -0.005063238 -0.0011399206 -0.010105376
0001c0 55 77 af bb b6 9a 1e 3c 31 f0 7e 3c 80 ed 76 3b
       -0.0053548017 0.009680441 0.015560196 0.0037678182
0001d0 a8 10 5b bb 12 68 6d 3c 14 a9 5c 3c 2f 3f db ba
       -0.0033426676 0.014490144 0.013468046 -0.0016727204
0001e0 9b d4 10 3c 2f 94 98 bc e5 77 f4 ba 8d d6 ce bb
       0.008839752 -0.018625347 -0.0018651454 -0.0063121975
0001f0 69 b8 3e 3a 0d bb 6a 3c de 5b 84 3c 0d 5d b9 ba
       0.0007275404 0.014326823 0.016157087 -0.0014142111
000200 23 aa f5 ba c0 e5 72 ba 0f e9 2d bb ec b8 e2 39
       -0.0018742721 -0.0009265803 -0.0026536619 0.00043243857
000210 a9 9b 40 bb e2 1b 18 3b f3 89 d4 b8 2f 0f 02 3c
       -0.0029389656 0.0023209979 -0.00010134643 0.00793819
000220 c2 9d 6f bb 21 96 a7 ba 97 c2 29 39 07 6d 81 bb
       -0.0036562537 -0.0012785831 0.00016189586 -0.0039497647
000230 7b b7 03 3c 41 df 13 3c db 20 db 3a 2f 17 6e 3b
       0.008039351 0.009025396 0.0016718166 0.0036329736
000240 f4 a5 f2 bb 38 3e 6e bb 71 89 c6 bb 84 89 b5 bb
       -0.007405037 -0.0036353003 -0.0060588648 -0.005540075
000250 87 cf 97 bb a6 57 26 3a 89 82 a2 3b 28 19 86 ba
       -0.0046328935 0.0006345458 0.0049594087 -0.0010230886
000260 c4 ab 1c 39 da c3 73 3b c4 80 2d 3b b6 0d 71 39
       0.00014941307 0.0037195594 0.0026474455 0.00022988659
000270 d3 fd 93 3b c0 82 b6 bb da af 79 3b de 4c 1b bc
       0.004516342 -0.005569786 0.00380992 -0.009478776
000280 3b ed 81 3b df 5c a7 3a 28 c3 bf 3b be 8e 29 bb
       0.0039650477 0.0012768767 0.005852122 -0.0025872434
000290 15 42 55 3b 2d 73 90 bb 32 89 c3 3a e7 99 30 3b
       0.0032540609 -0.0044082613 0.0014918207 0.0026947202
0002a0 41 4e 54 3b d9 41 03 b9 fb 9a ef 3b a5 23 02 3a
       0.0032395276 -0.00012517664 0.0073121763 0.0004964418
0002b0 89 f9 8d bb a6 f2 8b 39 62 12 16 3b e9 5d bb 3b
       -0.0043327254 0.00026692933 0.002289914 0.005717982
0002c0 32 0c c9 3a 2c 0a 83 bb 17 3e 9c 3a 7d e5 3d 3b
       0.0015338717 -0.0039990153 0.001192036 0.0028975897
0002d0 16 6f 4b 3b 82 23 df 3a f6 38 cb ba 91 57 f1 3a
       0.0031041554 0.0017024132 -0.0015504647 0.0018412938
0002e0 cc 66 7b 3b b9 e3 a0 ba ed 0b 63 bb 9f ae 23 3b
       0.0038360832 -0.0012274898 -0.003464456 0.0024975908
0002f0 78 b9 ac 3a 7e 7b 18 3b 1e 54 28 3b ee a7 26 3c
       0.0013177833 0.0023266966 0.0025684903 0.0101718735
000300 c0 6a 54 3b 21 92 4a bb 1c 29 9e 3a b8 a4 06 b8
       0.003241226 -0.0030909854 0.0012066695 -3.2101496e-05
000310 52 5e cb 3b 04 88 fb 3a 58 dd 64 3c 3a 0a 2e 3b
       0.006206312 0.0019190316 0.013968788 0.0026556388
000320 39 4b 0d 3b 1d 81 8e bb 77 5f e8 3a 65 0d 84 ba
       0.0021559729 -0.0043488876 0.0017728646 -0.0010074793
000330 1e af e8 38 a9 20 69 bc 9d f4 ad 3b 73 de d9 3a
       0.0001109524 -0.014228978 0.005308701 0.0016622081
000340 30 0c cf 3a 77 9a ea b9 76 a4 76 3a b6 b3 ba 3b
       0.0015796479 -0.00044747043 0.0009408662 0.0056976927
000350 e1 76 22 3b af 95 5d 3b 93 b5 fd bb d7 69 a1 3b
       0.0024790096 0.0033811142 -0.0077425926 0.004925947
000360 b0 b9 c2 bb b3 9d 0c 3b 16 12 a6 3b cd 98 ae 3b
       -0.005942546 0.00214563 0.005068074 0.005328274
000370 b2 db da ba 8c 7f dd 3b 71 e7 5e ba 1c a2 ab 3b
       -0.0016697554 0.0067595895 -0.00085031154 0.005237831
000380 bc 8b 25 ba d9 9d a3 bb d2 d7 13 bc 22 47 be bb
       -0.00063150725 -0.004993182 -0.009023624 -0.0058068195
000390 bc 63 e0 3a cc 3e d3 3b 50 94 c8 3b e8 b1 11 3b
       0.0017119567 0.006446695 0.006121196 0.0022231285
0003a0 0f 16 6e bb aa 81 3f 3b dd 04 2c 3b 71 a6 12 ba
       -0.0036329066 0.0029221573 0.0026248016 -0.000559426
0003b0 67 7b 8c ba c3 fa 21 3a e9 9f 26 b9 ea 87 11 bc
       -0.0010717929 0.0006179029 -0.00015890565 -0.008882502
0003c0 b0 36 5d 3b 68 3c 22 3c a6 41 93 3b 94 43 06 3c
       0.003375452 0.009902097 0.00449391 0.008194823
0003d0 11 8a 46 3b 01 41 b6 b9 b1 68 d9 3b be 7f a1 3a
       0.0030294696 -0.00034762177 0.0066347946 0.0012321395
0003e0 b5 94 4d 3c 78 32 31 bc 3a 39 2e bb 25 90 24 bb
       0.012547662 -0.010815255 -0.0026584403 -0.002511033
0003f0 b1 60 61 3a fd c8 0e 3c 15 ef 74 3b e1 99 1a b9
       0.0008597477 0.0087149115 0.003737395 -0.00014743909

gnn.gnn_layers.0.gat_conv.attn_r f4 [1, 8, 128]
000000 a7 25 14 bc 36 4f 80 bb 84 de a2 37 da 6d 8a ba
       -0.00904218 -0.0039156927 1.9415522e-05 -0.0010561303
000010 ee a4 b7 ba 1b a2 ac ba 0a 23 8e b9 fc 3b 80 39
       -0.0014010945 -0.001317087 -0.00027110457 0.00024458754
000020 53 8a 93 bb fd e3 95 3a 39 22 9e bb 8b 8b 8a 39
       -0.0045025735 0.0011435744 -0.004825857 0.0002642538
000030 8e 5b 60 3b 7e e2 74 3a df 7d 7c ba 7e b4 ac bb
       0.0034234258 0.00093416113 -0.00096317934 -0.00527054
000040 5d 98 15 3a 4a 1a 99 3b 60 44 08 3b 69 1d e4 ba
       0.0005706603 0.0046723234 0.0020792708 -0.0017403784
000050 f5 01 cc 3a fc 28 80 ba 1f 42 86 ba 2d e4 18 39
       0.0015564548 -0.0009777839 -0.0010243094 0.00014580852
000060 5d 06 26 3b b3 3b 82 3a 76 72 84 3b 53 6a ae bb
       0.0025333383 0.0009936005 0.004041965 -0.0053227334
000070 cc 9a c7 ba 0a 9a fa ba 26 48 42 bb 7e 62 8a b6
       -0.0015228628 -0.0019119394 -0.0029645055 -4.1241865e-06
000080 a1 8c f9 3a a9 55 4a 39 6f 29 4e 3a e8 18 14 3b
       0.0019039103 0.00019296132 0.00078644505 0.0022597853
000090 25 26 cb 38 d9 a2 f9 b9 dd f8 71 3b 33 e2 d1 3a
       9.686899e-05 -0.00047614312 0.0036922016 0.0016012847
0000a0 88 d4 80 b9 08 b1 93 3b 58 c6 60 ba de 7d 3e 3b
       -0.0002457241 0.0045071878 -0.00085744774 0.0029066722
0000b0 ae 68 5d ba 77 81 67 ba 2b 52 62 bb 78 a5 d3 3b
       -0.00084460794 -0.00088312424 -0.003453384 0.0064589344
0000c0 e6 17 94 ba 80 be e8 3a 99 f5 b7 b9 db e3 5e ba
       -0.0011298626 0.0017756969 -0.00035087464 -0.0008502581
0000d0 9a 95 a7 3b 8b f6 c0 bb 9d d2 f7 ba 78 a7 62 ba
       0.0051142694 -0.005888765 -0.0018907372 -0.00086461706
0000e0 5c 85 2d 3a e4 85 8d bb 84 1f c2 39 82 69 48 bb
       0.00066192984 -0.0043189395 0.00037026044 -0.0030580466
0000f0 45 84 97 b9 1b e1 29 bb 65 09 fd ba ff ad 84 3a
       -0.00028899513 -0.0025921527 -0.0019305168 0.0010122656
000100 34 a6 1e bb d4 26 0d ba 2a 3c d8 39 9b 0e 5c 3b
       -0.0024207952 -0.0005384509 0.00041243556 0.0033578041
000110 cf 02 96 3a bd 79 42 3a c7 02 b6 3a 48 43 35 ba
       0.0011444929 0.0007418653 0.0013886326 -0.0006914628
000120 91 79 44 ba 82 c3 18 39 f6 7c cc ba 81 ca 80 b9
       -0.00074949214 0.00014568682 -0.0015601206 -0.0002456494
000130 db 84 e9 3a 46 d6 30 ba 45 ae 1b ba 28 cc 00 ba
       0.0017816083 -0.00067457964 -0.0005938749 -0.0004913234
000140 8d 30 c7 ba de 12 ed ba d3 89 0a 3c 31 7e ae 3b
       -0.0015196964 -0.0018087288 0.008455711 0.005325102
000150 18 8c 06 bb f8 de 3f bb fc 43 89 bb 09 dd ac ba
       -0.002053028 -0.0029277187 -0.0041890126 -0.0013188432
000160 f9 0d 93 bb 5e 99 53 bb ab a8 f2 39 4f 84 b1 ba
       -0.0044877497 -0.003228746 0.00046283504 -0.0013543459
000170 aa 49 8a ba d7 d9 ad b9 43 2a 96 3a f0 92 49 bb
       -0.0010550518 -0.00033159435 0.0011456687 -0.0030757748
000180 13 ef 70 bb 70 39 f5 ba 76 2f ff 3a 2b 3b c8 ba
       -0.0036763593 -0.0018709134 0.00194691 -0.0015276422
000190 c0 24 a8 3a 71 96 a9 b9 5e a5 37 3a 5c cb d1 ba
       0.0012828335 -0.0003234628 0.00070055376 -0.001600604
0001a0 42 fa 1e bb a1 c7 fe 3a c6 e8 0a ba 89 bd 6d bb
       -0.0024258052 0.0019438156 -0.0005298968 -0.0036276302
0001b0 d8 76 61 3a da 66 a0 bb dd 71 0f ba 78 9d fb ba
       0.0008600778 -0.0048950734 -0.0005471984 -0.001919671
0001c0 2b ed 30 bb 78 cc bc 39 f6 e0 d1 bb ec de c6 ba
       -0.0026996832 0.00036010495 -0.0064049913 -0.0015172637
0001d0 8e a8 23 ba 51 86 c4 ba e5 b2 55 ba e6 e0 a9 bb
       -0.0006243073 -0.0014993643 -0.00081519625 -0.0051842807
0001e0 72 ec 01 3b 43 44 13 bb c8 fb 3c b9 34 ff 01 bb
       0.001982477 -0.0022471107 -0.00018022873 -0.001983595
0001f0 bc 63 7d 38 4d dd b2 3b cb 02 56 bb dc e7 8a 39
       6.0412785e-05 0.00545851 -0.0032655473 0.0002649416
000200 16 f6 a2 3a 11 ab 8b ba 93 ab 2d 37 ad 09 4f b8
       0.0012432958 -0.001065584 1.0351551e-05 -4.9361657e-05
000210 64 e3 d1 3a 24 4b 7d 3a c7 bf 3a 39 19 45 cf ba
       0.0016013202 0.0009662381 0.00017809785 -0.0015813439
000220 1d 01 83 b9 a1 fd 62 3a 34 cc 8c 39 b3 87 23 39
       -0.00024987097 0.00086590095 0.00026855024 0.00015595443
000230 b8 ac 62 ba 6b 47 43 ba 28 e5 72 b9 5a 42 92 ba
       -0.0008646953 -0.0007449302 -0.00023164286 -0.001115869
000240 0a 9f 6e 3a 77 e8 43 3a 3a 7c 9c 39 c1 a2 d5 ba
       0.0009102678 0.00074732996 0.00029847195 -0.0016299115
000250 a7 b9 05 ba 8a ee d7 ba 3b 9e 73 ba e6 5d 0a ba
       -0.0005101212 -0.0016474288 -0.00092932925 -0.0005278274
000260 1e 28 b0 39 b4 40 d0 ba d1 4b 98 ba c8 7b af ba
       0.00033599226 -0.0015888424 -0.0011619275 -0.001338833
000270 7c 5d b7 b9 46 9b d3 3a 38 03 e2 b6 c8 ea 49 ba
       -0.0003497413 0.0016144298 -6.7356996e-06 -0.00077025266
000280 16 9b ab ba 3b 2f 71 ba 0f f0 51 ba 8a c7 8e ba
       -0.0013092484 -0.00092004583 -0.0008008489 -0.0010893208
000290 a8 a5 f6 b9 f6 bd 0d ba 01 f6 72 ba cb 06 1a 3b
       -0.000470442 -0.00054070295 -0.0009268225 0.0023502584
0002a0 82 5f 1a 3b a8 7d ab ba 6d 36 24 bb 3d 77 83 38
       0.0023555462 -0.0013083713 -0.0025056854 6.2687766e-05
0002b0 3c 12 bc ba 48 2c a6 39 14 6a 7d 3a da 78 7c 39
       -0.0014348696 0.0003169498 0.0009666991 0.00024077613
0002c0 e3 36 86 39 44 73 d0 39 d6 19 f1 3a 1c 9e 3c ba
       0.00025599365 0.0003975873 0.001839454 -0.0007195191
0002d0 2d 4a 3b ba 9f 72 53 ba ee 74 69 3a 8a 8a b3 b9
       -0.0007144537 -0.0008066091 0.00089056685 -0.0003424476
0002e0 f6 5f be b8 f7 c9 78 39 d3 5d 49 3a eb 84 2a 39
       -9.07778e-05 0.00023726361 0.00076815224 0.00016261979
0002f0 aa 12 dc b9 c7 a5 a4 39 71 67 ad b8 8e ff a2 ba
       -0.00041975576 0.0003140403 -8.26855e-05 -0.001243578
000300 70 a1 bb 39 bb 57 55 39 fa cc 29 39 d7 e6 c0 b9
       0.000357877 0.00020345945 0.00016193456 -0.00036793083
000310 a1 01 f9 b9 0f ef d8 38 38 72 a2 ba 4d 77 8d b7
       -0.00047494195 0.00010344211 -0.0012393659 -1.6864064e-05
000320 5d 78 f1 b9 4d 8f 54 3a 26 a2 bf b8 cc 8f b1 b9
       -0.0004605678 0.00081085117 -9.137792e-05 -0.00033867208
000330 53 26 67 3a 1c c0 eb 39 63 59 55 ba c0 90 e5 39
       0.00088176614 0.00044965826 -0.0008138625 0.0004378613
000340 6f 75 47 ba 3d 84 1e 3b b9 81 17 bb 17 41 a9 ba
       -0.00076087465 0.0024187707 -0.0023118092 -0.0012913075
000350 17 5a 4a ba 75 77 a1 3a 99 c6 d9 3a 53 d0 0c 3a
       -0.0007719113 0.0012318926 0.0016614973 0.0005371619
000360 c8 1b 4f 3a 4b fb ab 3a 78 0f 7d 39 a6 45 11 3a
       0.0007900563 0.0013121156 0.00024133723 0.00055416895
000370 d3 03 a1 b8 b1 6c a3 ba fd 0c 3a b9 af 4f b3 b7
       -7.6777906e-05 -0.0012468306 -0.00017743181 -2.1375568e-05
000380 16 5e 34 b9 99 9a c6 ba 1d 9f 87 3a 4a cf 8b 3a
       -0.00017201187 -0.0015152275 0.0010347102 0.0010666635
000390 66 f8 31 3b f6 10 67 ba e1 0a 7e ba 14 44 5e 39
       0.0027156114 -0.0008814478 -0.0009690952 0.00021196931
0003a0 74 62 90 3a 75 53 3a b8 07 d4 b8 b9 b4 08 d7 39
       0.001101567 -4.442358e-05 -0.00035253188 0.0004101448
0003b0 46 a8 67 b9 0a 83 a3 39 1f 0a 6e 39 d1 53 6d 3a
       -0.00022092563 0.00031187414 0.00022701219 0.0009053322
0003c0 b4 3d 0b 39 c1 0f ce ba 44 b3 a2 3b 05 6a 62 ba
       0.00013279059 -0.0015721248 0.004965218 -0.0008637014
0003d0 30 55 08 b9 b7 4c 93 3a 89 a7 e8 ba 35 0a 4b 3b
       -0.00013001706 0.0011238073 -0.0017750125 0.0030981426
0003e0 44 c3 93 3a 29 a6 77 ba 44 7f e1 39 83 ee c7 38
       0.0011273404 -0.0009447062 0.00043010165 9.533486e-05
0003f0 e6 00 dc b8 a4 43 41 ba bf 70 2b 3b 55 32 a8 b9
       -0.00010490585 -0.0007372445 0.0026159731 -0.00032080957

gnn.gnn_layers.0.gat_conv.bias f4 [1024]
000000 23 b0 4b bd 2e 21 11 bd c7 95 e5 ba 4e 89 86 bb
       -0.049728524 -0.035432033 -0.0017515951 -0.0041057235
000010 81 70 ce bc 85 2b bf bc e5 ae 33 bb 12 ce 1f bd
       -0.02520013 -0.023336181 -0.0027417478 -0.039014883
000020 e5 e7 b3 ba e8 ce 3f 3b ca 48 c6 ba 05 dc bf bb
       -0.0013725726 0.0029267613 -0.0015127894 -0.005855086
000030 97 e9 1c 3c 20 33 75 ba 42 18 11 bc 91 bd 80 3b
       0.0095771765 -0.00093536265 -0.008855881 0.003928848
000040 79 90 6c 3b 5e cb 69 bc d4 e2 66 3c a8 96 f3 bc
       0.0036096855 -0.014269678 0.014092166 -0.029734924
000050 04 d1 1d 3d 84 92 90 bc 56 a7 f6 bb 0b 63 63 3c
       0.03852941 -0.01764799 -0.007527272 0.013878594
000060 76 01 95 3b f3 4f 54 bc f8 db 86 3b 04 6c 81 bc
       0.0045472933 -0.0129585145 0.004115578 -0.015798576
000070 bc 2c 73 bc fe 7d 01 bd a0 a3 bd bc 0c 90 d6 3a
       -0.0148422085 -0.031614296 -0.023149312 0.0016369834
000080 fc e7 aa bb bc ab 9f bc d7 42 aa 39 63 72 a4 3c
       -0.005215643 -0.019491069 0.00032474726 0.020074075
000090 64 0d 1b bb aa 36 1e bc 99 39 87 bb 70 8c cc bb
       -0.0023659104 -0.009656588 -0.004126739 -0.0062423274
0000a0 1f c3 43 bd 53 40 5a 3b 18 ab 9b bc 69 af 05 bd
       -0.047793504 0.00333025 -0.019002482 -0.032637987
0000b0 8e 94 45 3c af 38 ac 3c 4b a3 be bc 0c b7 85 3b
       0.012059344 0.021023123 -0.023271224 0.004080659
0000c0 34 ae b1 bb 55 9e 1b 3c 73 4c be bc c2 c7 57 bb
       -0.005422378 0.0094981985 -0.023229813 -0.0032925461
0000d0 77 14 8f ba 8b 41 a1 bc 23 cd 2f bc c1 2a 5c 3c
       -0.0010916133 -0.019684574 -0.010730061 0.013437928
0000e0 97 94 9e bc aa 88 79 bc e8 c8 63 3b ee f0 fa bb
       -0.019357963 -0.015230337 0.00347572 -0.0076581156
0000f0 5f eb 58 bb 73 b8 09 bc 36 25 8f bb ce 03 ae bc
       -0.0033099276 -0.0084057925 -0.0043684496 -0.021242049
000100 f1 bd b4 bb 99 1b 54 bb f0 ae fe 3a c0 c2 e9 3c
       -0.005515807 -0.0032365082 0.0019430798 0.028535247
000110 42 79 7c 3b 10 c5 2b b9 6a 28 a0 bc 91 8f 06 bb
       0.0038524424 -0.00016381242 -0.01955052 -0.002053235
000120 78 f2 2d bc 60 cb 26 3c 08 01 83 b9 2f 4d 12 b9
       -0.010616891 0.010180324 -0.00024987035 -0.00013952398
000130 e6 b2 1d bd b3 6b 33 3c 8f da 04 bd 77 f1 11 bc
       -0.03850069 0.01095097 -0.032434996 -0.008907667
000140 72 58 db bc ca ca 36 bd 47 c7 b5 3c a0 fd 5d 3c
       -0.026775572 -0.04462699 0.02218975 0.013549238
000150 7b e9 55 bc 49 0d 99 bc 30 30 8e 3c 18 e8 96 ba
       -0.013056154 -0.018683093 0.017356962 -0.0011513261
000160 da ad 98 bd 33 0c ca bc 36 a5 0c bc f2 d0 23 bc
       -0.074550346 -0.02466402 -0.008584311 -0.009998547
000170 07 3e 5d bb 8d 5e 6c bc 25 bf df 3a f7 65 41 bc
       -0.0033758895 -0.01442684 0.0017070515 -0.0118040955
000180 d4 a2 0c bc 26 8e ee bb d8 b4 2d 3c 71 0c de 3c
       -0.008583743 -0.007280129 0.010602199 0.027105542
000190 9c 8a 91 bd 3c 4c cf bb bb 24 e2 bc cf 7c 9f 3b
       -0.07106516 -0.0063262265 -0.027605405 0.0048671733
0001a0 48 68 3d bc 1a d1 87 bb f7 c0 1f 3b fa d7 58 bc
       -0.011560507 -0.0041448 0.002437649 -0.013235087
0001b0 f8 fb 7a ba 96 ac 84 bc 45 5a f1 ba f4 63 a6 3b
       -0.00095742894 -0.016195577 -0.0018413743 0.0050778333
0001c0 e3 00 48 ba 61 08 72 bc 4a 1b 57 bd bb c0 dd bb
       -0.00076295267 -0.0147725055 -0.05251626 -0.00676736
0001d0 eb ae 63 bc e3 c0 39 bd ff 2e 9a bc 5f 39 f5 bd
       -0.013896684 -0.045349967 -0.018821238 -0.11973833
0001e0 fc a2 99 bc a9 de 36 bd 9c d3 89 bb 40 00 c7 3b
       -0.018754475 -0.04464594 -0.004206134 0.006073028
0001f0 af 2a 24 ba 40 fc a0 3b 32 ce 71 bd b4 0a 0e 3a
       -0.0006262464 0.004912883 -0.059034534 0.0005418465
000200 23 b0 4b bd 2e 21 11 bd c7 95 e5 ba 4e 89 86 bb
       -0.049728524 -0.035432033 -0.0017515951 -0.0041057235
000210 81 70 ce bc 85 2b bf bc e5 ae 33 bb 12 ce 1f bd
       -0.02520013 -0.023336181 -0.0027417478 -0.039014883
000220 e5 e7 b3 ba e8 ce 3f 3b ca 48 c6 ba 05 dc bf bb
       -0.0013725726 0.0029267613 -0.0015127894 -0.005855086
000230 97 e9 1c 3c 20 33 75 ba 42 18 11 bc 91 bd 80 3b
       0.0095771765 -0.00093536265 -0.008855881 0.003928848
000240 79 90 6c 3b 5e cb 69 bc d4 e2 66 3c a8 96 f3 bc
       0.0036096855 -0.014269678 0.014092166 -0.029734924
000250 04 d1 1d 3d 84 92 90 bc 56 a7 f6 bb 0b 63 63 3c
       0.03852941 -0.01764799 -0.007527272 0.013878594
000260 76 01 95 3b f3 4f 54 bc f8 db 86 3b 04 6c 81 bc
       0.0045472933 -0.0129585145 0.004115578 -0.015798576
000270 bc 2c 73 bc fe 7d 01 bd a0 a3 bd bc 0c 90 d6 3a
       -0.0148422085 -0.031614296 -0.023149312 0.0016369834
000280 fc e7 aa bb bc ab 9f bc d7 42 aa 39 63 72 a4 3c
       -0.005215643 -0.019491069 0.00032474726 0.020074075
000290 64 0d 1b bb aa 36 1e bc 99 39 87 bb 70 8c cc bb
       -0.0023659104 -0.009656588 -0.004126739 -0.0062423274
0002a0 1f c3 43 bd 53 40 5a 3b 18 ab 9b bc 69 af 05 bd
       -0.047793504 0.00333025 -0.019002482 -0.032637987
0002b0 8e 94 45 3c af 38 ac 3c 4b a3 be bc 0c b7 85 3b
       0.012059344 0.021023123 -0.023271224 0.004080659
0002c0 34 ae b1 bb 55 9e 1b 3c 73 4c be bc c2 c7 57 bb
       -0.005422378 0.0094981985 -0.023229813 -0.0032925461
0002d0 77 14 8f ba 8b 41 a1 bc 23 cd 2f bc c1 2a 5c 3c
       -0.0010916133 -0.019684574 -0.010730061 0.013437928
0002e0 97 94 9e bc aa 88 79 bc e8 c8 63 3b ee f0 fa bb
       -0.019357963 -0.015230337 0.00347572 -0.0076581156
0002f0 5f eb 58 bb 73 b8 09 bc 36 25 8f bb ce 03 ae bc
       -0.0033099276 -0.0084057925 -0.0043684496 -0.021242049
000300 f1 bd b4 bb 99 1b 54 bb f0 ae fe 3a c0 c2 e9 3c
       -0.005515807 -0.0032365082 0.0019430798 0.028535247
000310 42 79 7c 3b 10 c5 2b b9 6a 28 a0 bc 91 8f 06 bb
       0.0038524424 -0.00016381242 -0.01955052 -0.002053235
000320 78 f2 2d bc 60 cb 26 3c 08 01 83 b9 2f 4d 12 b9
       -0.010616891 0.010180324 -0.00024987035 -0.00013952398
000330 e6 b2 1d bd b3 6b 33 3c 8f da 04 bd 77 f1 11 bc
       -0.03850069 0.01095097 -0.032434996 -0.008907667
000340 72 58 db bc ca ca 36 bd 47 c7 b5 3c a0 fd 5d 3c
       -0.026775572 -0.04462699 0.02218975 0.013549238
000350 7b e9 55 bc 49 0d 99 bc 30 30 8e 3c 18 e8 96 ba
       -0.013056154 -0.018683093 0.017356962 -0.0011513261
000360 da ad 98 bd 33 0c ca bc 36 a5 0c bc f2 d0 23 bc
       -0.074550346 -0.02466402 -0.008584311 -0.009998547
000370 07 3e 5d bb 8d 5e 6c bc 25 bf df 3a f7 65 41 bc
       -0.0033758895 -0.01442684 0.0017070515 -0.0118040955
000380 d4 a2 0c bc 26 8e ee bb d8 b4 2d 3c 71 0c de 3c
       -0.008583743 -0.007280129 0.010602199 0.027105542
000390 9c 8a 91 bd 3c 4c cf bb bb 24 e2 bc cf 7c 9f 3b
       -0.07106516 -0.0063262265 -0.027605405 0.0048671733
0003a0 48 68 3d bc 1a d1 87 bb f7 c0 1f 3b fa d7 58 bc
       -0.011560507 -0.0041448 0.002437649 -0.013235087
0003b0 f8 fb 7a ba 96 ac 84 bc 45 5a f1 ba f4 63 a6 3b
       -0.00095742894 -0.016195577 -0.0018413743 0.0050778333
0003c0 e3 00 48 ba 61 08 72 bc 4a 1b 57 bd bb c0 dd bb
       -0.00076295267 -0.0147725055 -0.05251626 -0.00676736
0003d0 eb ae 63 bc e3 c0 39 bd ff 2e 9a bc 5f 39 f5 bd
       -0.013896684 -0.045349967 -0.018821238 -0.11973833
0003e0 fc a2 99 bc a9 de 36 bd 9c d3 89 bb 40 00 c7 3b
       -0.018754475 -0.04464594 -0.004206134 0.006073028
0003f0 af 2a 24 ba 40 fc a0 3b 32 ce 71 bd b4 0a 0e 3a
       -0.0006262464 0.004912883 -0.059034534 0.0005418465

gnn.gnn_layers.0.gat_conv.fc.weight f4 [1024, 74]
000000 a0 16 f8 bc 99 e1 14 bd 60 26 b1 bd 1e 4a b6 3d
       -0.030284226 -0.03634796 -0.086498976 0.089008555
000010 a5 ee 4f bd c6 47 81 3b 5c bb 77 bb d1 9c d9 3c
       -0.0507647 0.0039453236 -0.0037800884 0.026564034
000020 22 01 12 3c b8 0f 00 80 c5 00 00 80 92 1f 00 80
       0.008911403 -5.639e-42 -2.76e-43 -1.1325e-41
000030 f1 20 00 80 b1 13 6c ad 81 07 00 00 4b f0 b2 3c
       -1.1817e-41 -1.3419419e-11 2.692e-42 0.021843096
000040 c6 0a 00 80 fd 10 00 00 af 16 00 80 4f 02 00 00
       -3.865e-42 6.094e-42 -8.137e-42 8.28e-43
000050 4e 41 00 00 99 11 00 00 ca 2a 00 80 ef 0c 00 80
       2.3427e-41 6.313e-42 -1.535e-41 -4.64e-42
000060 58 24 00 00 79 38 00 80 08 00 00 80 28 42 00 80
       1.3038e-41 -2.0259e-41 -1.1e-44 -2.3732e-41
000070 38 03 00 00 1a a8 cd b9 84 02 00 00 8d 00 00 00
       1.155e-42 -0.00039225892 9.02e-43 1.98e-43
000080 9f 1a 9c ab bd 1f 00 00 1f 0a 00 80 ca 55 75 b5
       -1.1091856e-12 1.1386e-41 -3.631e-42 -9.139445e-07
000090 15 1d 00 00 8e 13 00 80 0f 12 00 00 fa 12 00 80
       1.0433e-41 -7.015e-42 6.478e-42 -6.808e-42
0000a0 70 78 00 80 0a 11 00 80 f6 1f 00 80 62 13 00 00
       -4.3205e-41 -6.112e-42 -1.1465e-41 6.953e-42
0000b0 89 1d 64 bd db 8a 9d bc 05 e8 6e bc 23 5b b7 3c
       -0.05569223 -0.01923125 -0.014581685 0.022382325
0000c0 18 13 00 80 11 b6 35 3b 52 03 00 80 35 06 00 00
       -6.85e-42 0.0027726928 -1.191e-42 2.227e-42
0000d0 8d 0d 00 00 82 07 00 80 a5 ab 61 bc 2a 2e 38 bc
       4.861e-42 -2.693e-42 -0.013773833 -0.011241475
0000e0 e5 23 17 bd 1b 0d 07 bd 6a 08 00 80 4a 02 00 80
       -0.036899466 -0.032971483 -3.018e-42 -8.21e-43
0000f0 d1 0f 00 00 5e 27 b9 3c 8e 0d 00 00 88 a3 ee bb
       5.674e-42 0.02260178 4.863e-42 -0.007282678
000100 41 51 44 bd 6e 87 5d bd 4c 01 00 80 38 ff 92 3b
       -0.047929052 -0.054084234 -4.65e-43 0.004485991
000110 0b 4f 15 bd 0e 61 b9 bc 3f 84 9f bc 58 23 17 bd
       -0.036452334 -0.022629287 -0.01947224 -0.03689894
000120 98 a0 37 bd 5e 0a 00 80 46 09 ca bb 29 84 aa 3c
       -0.04483089 -3.719e-42 -0.0061656563 0.020814972
000130 c3 c0 fc 3b 4e e0 89 bb 6e e6 1d bc 48 74 b2 3a
       0.0077134087 -0.0042076474 -0.009637458 0.0013614977
000140 07 bb e1 b9 f6 97 84 bc d5 3c a0 3a 5b 63 02 2b
       -0.0004305469 -0.016185742 0.0012225161 4.632316e-13
000150 d7 0a 00 00 b8 e1 05 30 24 0e 00 00 67 0c 00 00
       3.889e-42 4.8705884e-10 5.073e-42 4.449e-42
000160 1e 67 d0 36 81 b5 a6 b7 a9 12 00 00 69 33 00 80
       6.2108875e-06 -1.9873261e-05 6.694e-42 -1.8442e-41
000170 30 02 00 00 d5 0f 00 00 db 08 00 80 e1 29 00 00
       7.85e-43 5.68e-42 -3.177e-42 1.5023e-41
000180 13 02 00 00 c3 0a 00 80 6a 0f 00 80 49 19 00 00
       7.44e-43 -3.86e-42 -5.53e-42 9.07e-42
000190 d6 0b 00 80 cc 74 5a 2c b2 2d 00 00 94 32 af 38
       -4.246e-42 3.1044499e-12 1.6392e-41 8.354071e-05
0001a0 0d 03 00 80 3d 13 00 80 77 0d 00 00 b1 0b 00 00
       -1.094e-42 -6.901e-42 4.83e-42 4.194e-42
0001b0 14 0a 00 00 9c 06 00 00 6f 00 00 00 25 07 00 80
       3.615e-42 2.371e-42 1.56e-43 -2.563e-42
0001c0 60 17 00 00 f0 3c 00 00 5e 0c 00 80 4c 07 00 80
       8.385e-42 2.186e-41 -4.437e-42 -2.618e-42
0001d0 4f 3b 00 00 86 42 00 80 22 81 11 bc dd 26 85 bc
       2.1276e-41 -2.3864e-41 -0.008880885 -0.016253883
0001e0 d1 03 8b bc 30 b7 5a bc 18 0c 00 80 40 94 4c 3a
       -0.016969593 -0.013349339 -4.338e-42 0.00078040734
0001f0 1f 92 09 ad a3 35 00 80 6e 06 00 00 92 1b 00 00
       -7.819994e-12 -1.9241e-41 2.307e-42 9.89e-42
000200 02 0c 8f 3b 2c 57 7a bc 8b 34 0f bc 94 2d fd bb
       0.004365445 -0.015279572 -0.008740555 -0.0077263806
000210 73 26 00 80 0f ae 55 a7 b5 25 00 00 90 04 6c bd
       -1.3793e-41 -2.9654045e-15 1.3527e-41 -0.05762154
000220 f5 10 00 00 e8 ed 54 bc 9e bf d1 3a 6c 44 28 bd
       6.083e-42 -0.012996174 0.0016002541 -0.041080877
000230 7e 0c 00 00 f1 21 a4 3a e1 64 b2 3c 7c e5 8b 3b
       4.481e-42 0.0012522322 0.021776618 0.0042693
000240 ac 23 0c bd 53 ce b4 bc af 7d 32 bc 1a 24 00 00
       -0.034213707 -0.02207104 -0.010894223 1.2951e-41
000250 aa 28 7b 3a 80 af 05 3b 55 44 e0 ba 4f 47 9a ba
       0.00095809496 0.0020398796 -0.0017110208 -0.0011770519
000260 f2 e3 16 bb 81 b9 60 bb 88 9c 86 b9 d2 ed 7d 3a
       -0.002302405 -0.0034290256 -0.00025675097 0.0009686622
000270 86 75 6f b8 d7 0d 00 80 e1 14 00 00 7c 28 00 80
       -5.7091493e-05 -4.965e-42 7.49e-42 -1.4523e-41
000280 6b 07 00 00 d6 0f 00 80 38 07 00 00 05 c0 ee 39
       2.661e-42 -5.681e-42 2.59e-42 0.00045537963
000290 b5 22 00 00 97 29 00 00 a2 08 00 80 f3 0a 00 00
       1.245e-41 1.492e-41 -3.097e-42 3.928e-42
0002a0 ed 0e 00 80 12 00 00 00 6a 0c 00 80 e6 1e 00 00
       -5.354e-42 2.5e-44 -4.453e-42 1.1084e-41
0002b0 75 08 00 80 14 51 00 80 8a 2b 00 00 72 09 00 00
       -3.034e-42 -2.9085e-41 1.5619e-41 3.388e-42
0002c0 4f 24 00 80 a6 6a 7e 38 92 04 00 00 d9 07 00 80
       -1.3025e-41 6.0657643e-05 1.64e-42 -2.815e-42
0002d0 95 03 00 00 ac 06 00 80 c0 00 00 00 22 06 00 80
       1.285e-42 -2.393e-42 2.69e-43 -2.2e-42
0002e0 8e 1b 00 80 ae 19 00 00 05 1b 00 80 95 0b 00 00
       -9.885e-42 9.212e-42 -9.693e-42 4.155e-42
0002f0 e1 18 00 80 bd 12 00 00 c5 33 00 80 82 34 00 80
       -8.925e-42 6.722e-42 -1.8571e-41 -1.8836e-41
000300 20 9d f7 39 0e 2f f4 ba 71 58 fa b9 2a af e2 38
       0.00047228578 -0.0018629746 -0.0004774961 0.000108091466
000310 40 26 00 80 89 a7 ab ba 6e c5 1a b4 27 16 00 80
       -1.3722e-41 -0.0013096194 -1.4414192e-07 -7.947e-42
000320 77 0f 00 00 56 09 00 00 c4 3c da b9 62 71 37 b9
       5.548e-42 3.349e-42 -0.00041625474 -0.00017494478
000330 b7 18 e9 bb 7c 0b 82 3a 6c 1c 00 00 e9 30 00 00
       -0.007113542 0.0009921636 1.0196e-41 1.7546e-41
000340 5b 34 00 00 c5 4c 62 3a 9d 17 00 00 50 aa 5c ba
       1.8782e-41 0.00086326554 8.471e-42 -0.00084177125
000350 00 67 b7 3b 8f 5a fd ba bb 34 00 00 d8 45 de ba
       0.0055969954 -0.0019329357 1.8916e-41 -0.0016958071
000360 3c 84 b8 bb 51 78 a2 bb a9 46 94 3b 3a 4b e9 bb
       -0.005630998 -0.0049581905 0.004525025 -0.0071195634
000370 85 41 06 3b 2c 33 00 80 b8 80 ce ba 42 1c 1d bb
       0.002048583 -1.8357e-41 -0.0015754914 -0.0023973142
000380 69 0b 51 bb 1d f9 7f 3a 7a 4b 75 3a 47 ab 02 3a
       -0.003189767 0.0009764599 0.0009357255 0.0004984629
000390 a3 00 d4 38 09 d1 db 39 f1 91 a7 39 2f 0d 00 00
       0.00010109066 0.00041926678 0.00031961457 4.73e-42
0003a0 ee 66 02 80 74 25 00 80 7b 26 00 80 cc 08 00 80
       -2.20595e-40 -1.3436e-41 -1.3804e-41 -3.156e-42
0003b0 88 0c 00 80 21 de 40 39 55 08 00 80 94 0b 00 00
       -4.495e-42 0.00018393296 -2.989e-42 4.153e-42
0003c0 27 10 00 80 1e 06 00 80 97 3c 00 80 77 00 00 00
       -5.794e-42 -2.194e-42 -2.1736e-41 1.67e-43
0003d0 6c 05 00 80 29 54 00 80 d8 0e 00 80 7c 18 00 80
       -1.945e-42 -3.0191e-41 -5.325e-42 -8.783e-42
0003e0 11 15 00 80 0e 12 00 00 d9 0f 00 80 08 d5 69 37
       -7.557e-42 6.477e-42 -5.685e-42 1.3937482e-05
0003f0 c7 06 00 00 60 2e 00 80 e4 01 00 80 15 11 00 80
       2.431e-42 -1.6636e-41 -6.78e-43 -6.128e-42

gnn.gnn_layers.0.gat_conv.res_fc.weight f4 [1024, 74]
000000 db 08 6d bd f8 5e 83 bd 6b 7b 6e bd 10 46 51 3e
       -0.057869773 -0.06414598 -0.05822317 0.20436883
000010 fe 8c 03 bd d0 ca 8c 3a 4f c4 56 39 f0 b5 7d 3d
       -0.032116883 0.0010741595 0.00020481761 0.061941087
000020 0a 63 40 3c 4b 00 00 00 12 66 00 80 16 1f 00 00
       0.011742363 1.05e-43 -3.6616e-41 1.1152e-41
000030 63 0e 00 00 a7 02 00 00 30 44 00 00 07 27 39 3d
       5.161e-42 9.51e-43 2.4461e-41 0.045203235
000040 74 0a 00 00 77 15 00 80 7c 11 00 00 db 06 00 80
       3.75e-42 -7.7e-42 6.272e-42 -2.459e-42
000050 46 17 00 00 6d 96 1e a2 1a 17 00 80 ff 0f 00 80
       8.349e-42 -2.1492628e-18 -8.287e-42 -5.738e-42
000060 80 10 00 80 8a 4d 00 00 19 0f 00 00 61 14 00 00
       -5.919e-42 2.7816e-41 5.416e-42 7.31e-42
000070 73 2f 00 80 0a b7 70 b9 05 02 00 80 cd 0d 00 80
       -1.7022e-41 -0.00022956371 -7.24e-43 -4.951e-42
000080 60 27 00 80 a1 02 00 80 b3 0b 00 80 f4 06 00 80
       -1.4125e-41 -9.43e-43 -4.197e-42 -2.494e-42
000090 a0 4b 00 00 20 12 00 00 8e 0c 00 80 9c 17 00 00
       2.7129e-41 6.502e-42 -4.504e-42 8.47e-42
0000a0 34 0b 00 00 e3 b2 00 80 06 09 00 80 a8 21 00 80
       4.019e-42 -6.4172e-41 -3.237e-42 -1.2074e-41
0000b0 87 7c 90 3c 0f 7a ef 3c 4a 31 a5 3c 96 af 31 bd
       0.017637504 0.029233007 0.020165104 -0.043380342
0000c0 9f 2a 00 80 05 69 aa 3c 1f 03 00 80 b7 1a 00 80
       -1.529e-41 0.02080203 -1.12e-42 -9.583e-42
0000d0 dc 48 1b 34 d0 06 00 00 66 b1 a6 ba 5f 86 11 bc
       1.4462006e-07 2.444e-42 -0.0012717664 -0.008882134
0000e0 33 51 33 bd d2 fc c5 bb 93 00 00 00 8f 08 00 80
       -0.04377861 -0.0060421014 2.06e-43 -3.07e-42
0000f0 31 01 00 80 03 c1 e2 3c 01 10 00 80 1d 42 14 bc
       -4.27e-43 0.027679926 -5.741e-42 -0.009048966
000100 60 c0 3b bc 54 be 2c bd 8f 17 00 00 b2 97 a4 3c
       -0.01145944 -0.0421737 8.451e-42 0.020091865
000110 c9 44 27 bc 29 f0 d7 3c 17 10 ae bc 5d f3 58 bd
       -0.010209271 0.026359634 -0.021247907 -0.052966464
000120 54 61 b6 bc 47 09 00 80 8e 20 ae bc 9d 36 bc bc
       -0.022263207 -3.328e-42 -0.021255758 -0.02297526
000130 2d 7b 11 3d e4 dc 42 bc 0e f0 30 bb cb 70 dd 39
       0.03551786 -0.011893485 -0.0026998552 0.00042236442
000140 31 5e 5c b9 c2 9c 6e bc bf d2 92 3a ab 1e 00 00
       -0.00021015924 -0.014563741 0.0011201723 1.1002e-41
000150 c8 0f 00 00 ba 0f 00 80 e3 0b 00 80 59 29 00 80
       5.661e-42 -5.642e-42 -4.264e-42 -1.4833e-41
000160 5a 0f 00 00 1d 69 2e b9 3d 09 00 00 de 20 00 00
       5.507e-42 -0.00016633091 3.314e-42 1.179e-41
000170 c6 09 00 00 fc 06 00 80 d3 39 00 80 a0 1b 00 80
       3.506e-42 -2.506e-42 -2.0743e-41 -9.91e-42
000180 fa 18 00 80 36 10 00 80 2a c9 6b 07 42 26 00 00
       -8.96e-42 -5.815e-42 1.7738552e-34 1.3724e-41
000190 8e 11 00 00 81 18 00 00 e4 02 00 00 0e 85 93 39
       6.297e-42 8.79e-42 1.037e-42 0.00028137158
0001a0 fc 11 00 00 f6 05 00 80 d9 0e 00 00 da 1a 00 80
       6.452e-42 -2.138e-42 5.326e-42 -9.633e-42
0001b0 9f 08 00 80 e4 16 00 00 b8 19 00 80 2c 43 00 80
       -3.093e-42 8.212e-42 -9.226e-42 -2.4097e-41
0001c0 cb 19 00 80 88 13 00 00 2a 16 00 00 8e 22 f6 b1
       -9.253e-42 7.006e-42 7.951e-42 -7.1634707e-09
0001d0 03 0e 00 80 67 10 00 80 56 7d b1 3b f7 bf f2 bc
       -5.026e-42 -5.884e-42 0.0054165525 -0.029632552
0001e0 81 b3 1c bc 62 91 6c 3a 53 14 00 00 9b ac 1e 3a
       -0.009564281 0.0009024349 7.291e-42 0.0006052942
0001f0 56 0d 00 00 45 30 00 00 84 07 00 00 e9 44 43 23
       4.784e-42 1.7316e-41 2.696e-42 1.05855635e-17
000200 d1 91 57 3c 95 6c 6a bb b8 84 8c bc d8 46 8e bc
       0.013157324 -0.0035770286 -0.017153129 -0.017367765
000210 8d 19 00 00 cf 17 00 00 ea 12 00 00 ed 27 11 be
       9.166e-42 8.541e-42 6.785e-42 -0.14175387
000220 8a 0e 00 80 0a f5 9a bc 71 80 25 bc 3d a9 0b bd
       -5.216e-42 -0.018915672 -0.010101424 -0.034096945
000230 db 0d 00 00 84 cd 5e 3a 9d bb 7c bc fa 21 80 ba
       4.97e-42 0.0008499252 -0.01542559 -0.0009775751
000240 a4 c7 cd bc 2b cc c8 bc f2 aa 86 bc f3 16 00 80
       -0.02511961 -0.024511417 -0.016438935 -8.233e-42
000250 34 3b 50 bb 94 ea 82 3b 00 4b 18 b9 5b 7e 54 bb
       -0.003177357 0.003995249 -0.0001452379 -0.0032423947
000260 59 db 37 bb 4e f3 09 ba e7 95 a0 39 08 6f 30 3a
       -0.0028054325 -0.00052623905 0.00030629264 0.0006730412
000270 79 ea 91 ba 06 47 21 2f 3b 75 af 2d 82 1b 00 80
       -0.00111325 1.4668097e-10 1.9947257e-11 -9.868e-42
000280 a8 6b 00 80 8d 0e 00 00 b5 39 00 80 96 32 4b 3a
       -3.862e-41 5.22e-42 -2.0701e-41 0.00077513733
000290 e8 00 00 00 e7 16 00 80 c1 15 00 00 29 09 00 00
       3.25e-43 -8.216e-42 7.804e-42 3.286e-42
0002a0 7a 11 00 80 04 ca d4 28 68 05 00 00 64 05 00 80
       -6.27e-42 2.3624338e-14 1.94e-42 -1.934e-42
0002b0 05 00 00 00 4b 5b 44 99 d8 14 00 80 ef 14 00 00
       7e-45 -1.0151399e-23 -7.477e-42 7.51e-42
0002c0 e6 22 00 80 30 cb 41 b8 b2 13 00 80 2a 1d 00 00
       -1.2519e-41 -4.620402e-05 -7.065e-42 1.0462e-41
0002d0 5c 14 00 00 d5 13 00 80 84 01 00 00 ea 0a 00 80
       7.304e-42 -7.114e-42 5.44e-43 -3.915e-42
0002e0 59 78 0f 80 99 36 00 80 e8 0c 00 80 c1 01 00 00
       -1.420705e-39 -1.9586e-41 -4.63e-42 6.29e-43
0002f0 77 0d 00 80 5f c0 a6 b8 4a 08 00 80 64 1a 00 80
       -4.83e-42 -7.951329e-05 -2.974e-42 -9.467e-42
000300 35 a8 3f ba c5 5b 14 bb 6f ca 9a ba fe 0e 07 ba
       -0.00073111366 -0.0022637707 -0.0011809597 -0.00051520753
000310 67 08 00 80 8c e9 4c b8 79 35 00 80 a7 02 00 80
       -3.014e-42 -4.8854898e-05 -1.9182e-41 -9.51e-43
000320 d5 08 00 80 06 04 00 80 4e f8 8d bb 10 f8 dd 3a
       -3.168e-42 -1.443e-42 -0.0043325787 0.001693489
000330 ec e7 84 bb 1b e7 5f 39 40 09 00 00 4f 16 00 00
       -0.0040559676 0.00021353031 3.318e-42 8.003e-42
000340 83 1b 00 00 1c 6c 5c 3a 42 00 00 00 60 df 44 ba
       9.87e-42 0.00084084435 9.2e-44 -0.0007510092
000350 c0 bd 31 3b 4e 66 d8 ba 55 00 00 80 75 de f3 b9
       0.0027121156 -0.0016509981 -1.19e-43 -0.00046514315
000360 71 5a 7d bb 61 7d da bb 9d b2 1d 3b 3a dd 42 bb
       -0.0038658644 -0.0066677784 0.002406276 -0.0029733912
000370 72 8d f3 3a 7d 2a 00 00 50 20 c2 ba 72 37 ce b9
       0.0018581583 1.5242e-41 -0.0014810655 -0.00039332692
000380 70 41 13 bb 63 fd 2c 3a 98 d0 cf 3a b9 8c 8f 39
       -0.0022469424 0.0006599037 0.0015855012 0.00027379932
000390 32 b3 5a b7 27 d9 1f 3a 7a 31 51 39 fe 0d 00 00
       -1.3035535e-05 0.0006097727 0.00019950225 5.02e-42
0003a0 8e 02 00 80 e0 0a 00 80 9f 0c 00 80 44 16 00 80
       -9.16e-43 -3.901e-42 -4.528e-42 -7.987e-42
0003b0 8b a0 2b 30 c0 66 78 39 0f 05 00 00 e4 08 00 00
       6.2437583e-10 0.000236894 1.815e-42 3.19e-42
0003c0 70 0b 8a ae 0f 17 00 80 10 10 00 80 45 17 00 00
       -6.277545e-11 -8.272e-42 -5.762e-42 8.348e-42
0003d0 99 10 00 00 ce 00 00 80 35 03 00 80 56 2d 82 a5
       5.954e-42 -2.89e-43 -1.15e-42 -2.2582126e-16
0003e0 12 10 00 80 97 20 87 14 06 2a 00 80 71 40 e3 38
       -5.765e-42 1.3644371e-26 -1.5075e-41 0.00010836207
0003f0 c3 0b 00 00 6e 10 00 00 80 05 00 80 86 15 00 80
       4.22e-42 5.894e-42 -1.973e-42 -7.721e-42

readout.weight_and_sum.atom_weighting.0.weight f4 [1, 128]
000000 50 15 b6 3e ae 31 c8 3d 34 a6 2a 3d d2 05 1f 3d
       0.35563135 0.09775101 0.04166241 0.03882391
000010 5e c2 90 3d eb d0 df 3d 83 dc 26 3d e5 c4 d1 3d
       0.070683226 0.1092852 0.04073764 0.10242633
000020 c9 31 d3 3c 39 70 3c 3d b3 4b 56 3d f5 03 ab 3c
       0.025780575 0.04600546 0.052318286 0.02087591
000030 0e 2c 1c bd 71 cb aa 3b e0 3e d3 3d 61 17 4c bd
       -0.03812795 0.0052122404 0.10314727 -0.049826983
000040 8c 2d 65 bb 87 09 ef bb df b9 40 bd db 10 26 3d
       -0.0034969775 -0.007294837 -0.04705226 0.04054342
000050 b8 db 0c be 74 14 68 3d 9e b9 e9 3c 1a 83 e5 bd
       -0.13755691 0.05666013 0.028530892 -0.11206646
000060 6a 7c b3 3c bf 05 02 bd 49 db 06 3d 12 4a 44 3d
       0.021909911 -0.03174376 0.03292397 0.0479222
000070 de d9 b1 3d 47 65 55 3e 89 4b 42 3e 3b 81 be 3c
       0.08684133 0.20839415 0.18974127 0.023254981
000080 37 b5 03 3c f6 e8 e1 3d 59 c6 de bd 06 d0 3e be
       0.00803881 0.11030762 -0.108776756 -0.18634042
000090 28 76 2c bc c9 4a 92 3d d8 d6 b1 3d 1c 72 7a 3d
       -0.0105262175 0.071431704 0.08683556 0.06114398
0000a0 1c ad 10 3e 31 89 44 3d 87 91 a5 3d 31 88 1b 3d
       0.14128536 0.0479824 0.08084398 0.03797168
0000b0 6d a3 af bd ce 63 00 bd f4 e9 16 3e 82 0f 35 bd
       -0.08576093 -0.03134518 0.14737684 -0.044204243
0000c0 9d 6a 4f 3d 7c 79 85 bc 70 91 91 3d fe a9 d5 3c
       0.050638784 -0.01629328 0.07107818 0.026082035
0000d0 24 a8 1f 3d b7 dd 34 3d 3d 02 f2 3d cb 9a 9f bd
       0.03897871 0.044156756 0.11816833 -0.07793196
0000e0 c1 1d d9 3c 35 31 de 3d cf e6 2f 3d 52 9e 19 3d
       0.026503446 0.10849229 0.042944726 0.0375045
0000f0 23 4b 2a bb d5 88 f9 3c ed 15 8b 3c c8 2a b0 3b
       -0.0025984726 0.030460754 0.016978228 0.0053761937
000100 8e 74 90 bd 33 90 34 bc 26 a9 23 bc 9d 0a 0a be
       -0.07053481 -0.011020708 -0.009989059 -0.13480611
000110 d9 7c 70 bb 9e 77 2d 3d f0 1c b4 3c 10 2c b8 3c
       -0.0036695509 0.042350404 0.021986455 0.022481948
000120 57 3f 8b 3d cc 03 1c bd a2 5a 68 bd 05 ec ce bc
       0.067991905 -0.03808956 -0.05672706 -0.025259027
000130 9c 9a 05 3e ea 28 f3 bc c1 c9 1d 3e 80 a7 db 3d
       0.1304726 -0.029682595 0.15408994 0.107253075
000140 b6 e2 fd 3d ed 0a 17 3e d4 e9 9a be 58 4c fa bd
       0.12396757 0.14750262 -0.30256522 -0.12221593
000150 3c 45 03 3e 8f 38 6a 3e af d0 88 3d c6 01 b7 bd
       0.1281938 0.22873138 0.06680428 -0.08935885
000160 64 a6 c3 3e 7b 81 84 3e 47 b3 e7 3c 40 0d a7 3d
       0.38212883 0.25880036 0.028283728 0.08156824
000170 b6 06 97 bd c0 ad 81 3d 42 e0 0c bd 70 4d 19 3d
       -0.07374327 0.06331968 -0.034393556 0.037427366
000180 03 81 c0 bb d0 e6 43 3d 17 40 56 bc a5 39 1c be
       -0.0058747544 0.04782754 -0.013076804 -0.15256365
000190 77 95 4c 3e fc bf 91 3d 0c d4 90 3d 64 89 eb bc
       0.19978891 0.07116696 0.07071695 -0.028752036
0001a0 3b 86 f5 3d c3 00 be 3d 17 6b 3b bd 79 d8 28 3e
       0.11988493 0.09277489 -0.045756426 0.16488828
0001b0 e0 4c de bb ab 13 09 3e 16 4b 1f 3d 62 71 c1 3d
       -0.0067840666 0.13386409 0.038889967 0.09445454
0001c0 10 ef 95 bd 35 da 62 3d 62 bb 87 3e b9 6c 1a bc
       -0.07320988 0.05538388 0.2651015 -0.009425336
0001d0 1c f7 03 3d a6 75 03 3d 38 e1 3c 3d ec b9 fa 3e
       0.032218084 0.03209462 0.046113223 0.48969972
0001e0 2c ef 45 bd 1f 2d 73 3e 04 0a 5d 3d b8 ca 09 bd
       -0.048323795 0.23747681 0.05396463 -0.033640593
0001f0 f0 13 3f bb 5e 9b 33 be b2 87 3b 3e fe f7 79 ba
       -0.002915617 -0.17539737 0.18313482 -0.000953555

predict.predict.1.weight f4 [128, 256]
000000 0b c3 ce 36 dd 9e 9e b6 65 ad f0 34 9b ed b3 a7
       6.1619844e-06 -4.727261e-06 4.4829645e-07 -4.9940093e-15
000010 76 9a 7c 34 78 90 57 2e 3f 9f 63 29 47 38 c1 2e
       2.3525521e-07 4.9013654e-11 5.054225e-14 8.786621e-11
000020 37 b5 fa 33 37 2d 2c b0 d9 b8 c3 2d 99 62 04 34
       1.1674495e-07 -6.263749e-10 2.2251022e-11 1.2329328e-07
000030 bc 00 87 37 9b 24 11 30 0b d6 80 36 9a b5 09 b3
       1.6093596e-05 5.280271e-10 3.839615e-06 -3.2062964e-08
000040 c2 bb 86 36 11 dc 28 34 b5 df 88 2c 9b e6 f4 36
       4.015369e-06 1.5726279e-07 3.890189e-12 7.2986127e-06
000050 7e c1 66 af a4 59 88 34 4a ad b4 a3 f8 c8 a2 b5
       -2.098712e-10 2.5397196e-07 -1.958903e-17 -1.212843e-06
000060 2e 65 9c 36 9e 11 a5 b3 67 d5 0f b0 62 1a c2 35
       4.660941e-06 -7.686616e-08 -5.232636e-10 1.4461805e-06
000070 05 0e 45 2a d8 4d 29 36 2d be b6 33 70 1f ae ae
       1.7501979e-13 2.5228273e-06 8.509628e-08 -7.918188e-11
000080 e2 3f 5c ad 20 1a 69 31 0b 3e fd b4 ff b2 72 b7
       -1.2519737e-11 3.3920813e-09 -4.7170064e-07 -1.4466e-05
000090 07 84 c0 b3 30 8e 85 34 b6 b2 83 30 21 74 47 35
       -8.964712e-08 2.4876636e-07 9.582297e-10 7.4302267e-07
0000a0 78 60 7c 33 ef c7 97 b4 b1 c6 70 2f f2 ec c8 30
       5.876106e-08 -2.8271413e-07 2.1898462e-10 1.4619259e-09
0000b0 03 58 c5 b5 54 90 46 b8 ce e5 16 2f ea 6e ed 34
       -1.4703259e-06 -4.7341295e-05 1.3724064e-10 4.422539e-07
0000c0 13 36 d9 35 e5 6a 49 b5 66 9d 07 34 ff be 99 37
       1.6183498e-06 -7.5033887e-07 1.2630116e-07 1.832796e-05
0000d0 22 b3 25 28 d7 24 36 2c a6 a8 c1 34 b2 37 84 b5
       9.198183e-15 2.5884206e-12 3.607176e-07 -9.850976e-07
0000e0 0f bf e5 35 91 af 16 34 a9 d9 03 32 7a ee 2d 2f
       1.7117435e-06 1.403371e-07 7.674694e-09 1.5818982e-10
0000f0 a2 f7 8b b2 31 17 ba 30 25 49 13 2c dc 7e 15 b2
       -1.629434e-08 1.3539873e-09 2.093056e-12 -8.701786e-09
000100 41 fc 09 b5 8c a2 b8 a9 d5 e7 44 32 65 4f 9f b1
       -5.1403555e-07 -8.199439e-14 1.1461414e-08 -4.636535e-09
000110 50 95 d9 a8 94 de 7a 21 b2 9f 5a 31 95 a5 b6 31
       -2.4156594e-14 8.4997874e-19 3.1813951e-09 5.3157216e-09
000120 28 81 b2 2d 45 5b 3f b0 ad bd 19 32 57 db 56 b1
       2.0293614e-11 -6.9615097e-10 8.948899e-09 -3.1265779e-09
000130 54 c6 69 34 70 39 68 27 9b a7 b0 31 91 62 2c 31
       2.1771967e-07 3.2227605e-15 5.1413287e-09 2.5085323e-09
000140 19 78 6b 32 9e 84 56 32 0e 1e c7 b1 2e f7 87 b3
       1.3706107e-08 1.2486593e-08 -5.795079e-09 -6.331389e-08
000150 19 59 db 37 f5 2f c0 36 46 fe 92 33 10 a7 32 b3
       2.6148324e-05 5.727629e-06 6.844907e-08 -4.1595797e-08
000160 45 81 13 36 23 3b 6e b7 b1 74 a7 30 45 fb 80 33
       2.1979952e-06 -1.4199674e-05 1.2184015e-09 6.00617e-08
000170 e4 ca ea b1 4c c2 11 2e 4c 0a df 28 19 ae ee 33
       -6.8333623e-09 3.3141753e-11 2.4762439e-14 1.1114407e-07
000180 de 04 bb b2 55 c3 3c 35 81 77 e3 31 4b 6b 09 b4
       -2.1771879e-08 7.0319703e-07 6.6201555e-09 -1.2798152e-07
000190 f1 6f db 34 c8 20 72 23 5b 8c 46 32 a4 2b a6 b3
       4.0873377e-07 1.3125788e-17 1.155703e-08 -7.7379156e-08
0001a0 52 cd 60 33 39 12 d2 35 a4 da 0b b6 0b e0 7a 35
       5.2340802e-08 1.5651523e-06 -2.083988e-06 9.3458283e-07
0001b0 91 f9 84 ab 18 a9 8f 34 9a bc bd 33 99 0e eb 32
       -9.448433e-13 2.6758858e-07 8.835305e-08 2.7364239e-08
0001c0 e1 23 83 a9 c6 c0 55 a9 6f c0 60 34 61 2d 04 b3
       -5.8237926e-14 -4.7462705e-14 2.0931633e-07 -3.0774917e-08
0001d0 d6 1d 8d b1 8f e8 b0 36 7b 22 87 b2 dd 02 e1 b6
       -4.107032e-09 5.272282e-06 -1.5731748e-08 -6.705856e-06
0001e0 cc 75 c4 b2 c1 60 3d 34 f6 d2 af 29 30 7d 0a b5
       -2.2870971e-08 1.7637196e-07 7.808157e-14 -5.159118e-07
0001f0 a2 e2 ea 30 3d 87 a3 2f 37 7a 38 34 5b 6f 87 23
       1.7090154e-09 2.974562e-10 1.7180797e-07 1.468389e-17
000200 aa 11 14 a6 5b c1 0f 29 80 32 2d a8 d0 c5 92 27
       -5.1371754e-16 3.1920088e-14 -9.61438e-15 4.073761e-15
000210 9c 99 19 af 58 23 7e 28 f4 fb 0e 29 7b 9e 1d a8
       -1.3969842e-10 1.4107496e-14 3.174887e-14 -8.749616e-15
000220 bf df 3c a9 e7 ef 0f 21 2e b2 65 29 eb 53 98 a5
       -4.1938455e-14 4.8767793e-19 5.100276e-14 -2.6424662e-16
000230 ff 52 3c b2 18 59 a1 26 85 e5 5f a2 7b f6 0a a8
       -1.0961911e-08 1.1195768e-15 -3.0343642e-18 -7.713986e-15
000240 f6 7d 36 29 65 82 79 ac 9f ed d9 9f 9a 7f 98 27
       4.0521372e-14 -3.5457412e-12 -9.2296186e-20 4.232682e-15
000250 cf e4 c3 29 49 84 9b af b3 47 bd 26 07 f4 1f a3
       8.6994316e-14 -2.828833e-10 1.3133944e-15 -8.671082e-18
000260 c5 15 04 28 ae 39 e2 ae 35 44 06 a9 b6 b9 87 a7
       7.3321925e-15 -1.0287536e-10 -2.9813137e-14 -3.7671375e-15
000270 66 85 e9 a6 79 f5 60 ad af 83 da 2e f7 f4 f1 28
       -1.620378e-15 -1.2787432e-11 9.936884e-11 2.6862611e-14
000280 d7 91 52 a2 c7 07 96 27 86 62 1a a8 70 49 31 b2
       -2.8537514e-18 4.1641796e-15 -8.570081e-15 -1.0319454e-08
000290 77 1d db a8 a4 a7 c3 28 b3 e2 7a 22 55 68 96 a7
       -2.4326663e-14 2.1722052e-14 3.4001331e-18 -4.174648e-15
0002a0 37 da 48 a8 c5 76 ed a7 d0 48 96 27 91 33 91 b3
       -1.1149548e-14 -6.5909484e-15 4.1712307e-15 -6.7614685e-08
0002b0 4f c8 25 2a 08 9e a9 28 b5 1e 1a a2 7b da 16 a9
       1.472444e-13 1.8831304e-14 -2.0887148e-18 -3.3496192e-14
0002c0 c7 d1 99 a7 40 52 af a2 b7 ce 90 28 40 eb 51 26
       -4.269347e-15 -4.752093e-18 1.607686e-14 7.2830264e-16
0002d0 b2 b0 78 28 ef 31 5f a9 e2 0f 33 27 b1 11 d5 b0
       1.380508e-14 -4.9559257e-14 2.484985e-15 -1.5502818e-09
0002e0 b7 04 2b 29 56 4d ba a7 8a 4c 98 27 b7 9d 0b a8
       3.7973717e-14 -5.170922e-15 4.227146e-15 -7.750249e-15
0002f0 1e bb a6 a8 b6 d5 a0 a8 a3 ec 21 29 74 7d 32 29
       -1.8510851e-14 -1.785625e-14 3.595443e-14 3.9632753e-14
000300 ac f4 72 a3 80 ec 15 a7 e3 44 09 27 1c 97 1c 2a
       -1.31706576e-17 -2.080611e-15 1.9049913e-15 1.390801e-13
000310 bd 79 18 21 71 36 61 28 1e 0b 9d 20 73 86 19 a6
       5.166072e-19 1.2501814e-14 2.660419e-19 -5.326475e-16
000320 5d c9 f5 a7 f0 f2 71 29 5f 0e b8 26 94 07 61 a7
       -6.821948e-15 5.3723464e-14 1.277146e-15 -3.122913e-15
000330 7d dc 18 a7 90 c8 6a 27 25 51 41 a1 ce b0 04 28
       -2.1213764e-15 3.2582749e-15 -6.549834e-19 7.36581e-15
000340 17 f6 b5 26 8f ab b1 ac 37 7d e3 2a 74 b0 a5 a9
       1.2626101e-15 -5.0496894e-12 4.0410186e-13 -7.358082e-14
000350 27 d8 6b 27 e9 5f 0c a2 74 78 e2 a3 c7 b9 e1 21
       3.2729978e-15 -1.9024312e-18 -2.4553983e-17 1.5295768e-18
000360 c4 b3 82 27 61 51 cd a2 be 02 90 a6 03 28 5d a7
       3.627715e-15 -5.5651525e-18 -9.99275e-16 -3.0691601e-15
000370 c6 57 a8 27 69 8b 9f a7 15 0d 06 22 4c 0a 1e a8
       4.672453e-15 -4.4282514e-15 1.8167312e-18 -8.772995e-15
000380 f2 42 ab 28 01 2b a8 a5 fa 4f 78 a9 d4 69 4b a5
       1.9013847e-14 -2.9172495e-16 -5.513643e-14 -1.7643299e-16
000390 ac cc a5 b3 44 67 55 a8 21 61 ab 9f 71 25 50 27
       -7.720641e-08 -1.1846267e-14 -7.2582003e-20 2.8886096e-15
0003a0 ad d5 92 28 ba 38 3e 29 f0 2e 89 a9 dd d6 ac a7
       1.6301923e-14 4.2237677e-14 -6.0921645e-14 -4.7972545e-15
0003b0 05 02 79 27 49 97 28 a7 53 8c 20 28 75 04 27 27
       3.4556786e-15 -2.3396695e-15 8.912212e-15 2.3178322e-15
0003c0 3f 8d 6a a9 b9 70 ae a7 b4 76 d9 28 28 f1 12 a9
       -5.208095e-14 -4.8416916e-15 2.4143319e-14 -3.2627682e-14
0003d0 24 45 34 27 12 4c 05 b1 45 3f 96 af 39 34 4c b2
       2.50175e-15 -1.9397288e-09 -2.7329797e-10 -1.1886237e-08
0003e0 cb 18 95 a1 2f 26 cf a2 74 3b 46 a7 93 42 88 a9
       -1.0103195e-18 -5.614789e-18 -2.751025e-15 -6.051162e-14
0003f0 c7 0e e1 a5 b3 8d 5b 28 9b d9 7f a7 97 73 3f 25
       -3.9041292e-16 1.2187668e-14 -3.5506323e-15 1.6605773e-16
