Results/GAT/saved_model/GAT_bst_17.pth (torch, 759480 bytes, 13 tensors)

gnn.gnn_layers.0.gat_conv.attn_l f4 [1, 8, 128]
0	0xba96f8d0	-0.0011518244
1	0x3b4976a7	0.0030740888
2	0x3b8237a4	0.003973918
3	0x3b4fc6d4	0.0031704204
4	0x3ba8f632	0.005156302
5	0xba9a9cc8	-0.0011795992
6	0xba9a6bef	-0.0011781434
7	0xbae500f1	-0.0017471594
8	0x3af52a54	0.0018704631
9	0x3bbe2e49	0.0058038575
10	0xbb06f689	-0.0020593724
11	0x3b90411d	0.0044022934
12	0xbc22bc5e	-0.009932606
13	0xbbbb53f4	-0.005716795
14	0xbb6c7010	-0.0036077537
15	0x3bbbef0d	0.005735284
16	0x3af1b75d	0.0018441487
17	0x3bbc690b	0.005749827
18	0x3a02e538	0.00049932627
19	0x3bd25a87	0.006419483
20	0x3b0b01a3	0.0021210692
21	0x3aa05dd5	0.0012234995
22	0x3b0508a8	0.002029935
23	0x3bcce93a	0.0062533887
24	0x3a22987c	0.00062025315
25	0xbb865644	-0.004099639
26	0x3b51e095	0.003202473
27	0xb9a1ac21	-0.0003083656
28	0xbb35cf1f	-0.0027741862
29	0xba1e0af5	-0.00060288544
30	0xb8724f2e	-5.7771038e-05
31	0x3a28d248	0.0006440026
32	0x3af3d84d	0.0018603891
33	0xba37de6c	-0.00070140394
34	0x3b9e883c	0.0048380177
35	0xbb920b1c	-0.0044568907
36	0x3b2db424	0.0026505077
37	0xb91efcbb	-0.00015162204
38	0x3b4b1442	0.0030987416
39	0xbb192091	-0.0023365358
40	0x3b0b5f6b	0.002126659
41	0x3b272876	0.0025506294
42	0x39c6e159	0.000379334
43	0x3a9b375e	0.0011842062
44	0x3a95331f	0.0011383033
45	0xbb551192	-0.0032511693
46	0x39ed2317	0.00045230307
47	0xba8c9b1a	-0.0010727376
48	0xbb1645f9	-0.002292989
49	0x3a5ca323	0.0008416643
50	0xb79c15e2	-1.860684e-05
51	0xbbc6ecd7	-0.006070714
52	0x3adf3dcd	0.0017031968
53	0x3b00ed56	0.0019672713
54	0xb952663c	-0.00020065246
55	0x3bbe0d79	0.005799946
56	0xbb71bbf3	-0.0036885708
57	0xbb894c18	-0.0041899793
58	0x3b537ad8	0.0032269266
59	0x3bd35187	0.006448928
60	0x3b8aaacf	0.0042317878
61	0x39e4404e	0.0004353546
62	0x3a9850bf	0.0011620744
63	0x3bd4b62c	0.006491443
64	0xbbab07ee	-0.005219451
65	0xba7cd3a0	-0.00096445717
66	0xbb10e4da	-0.0022109062
67	0x3aee02d7	0.0018158805
68	0xbb7e70a4	-0.0038824463
69	0xb9896143	-0.00026203142
70	0xba5e7eed	-0.00084875413
71	0xba5f8247	-0.0008526188
72	0x3ae47274	0.0017429129
73	0xbb217c61	-0.0024640786
74	0xbac59f35	-0.0015077355
75	0xbacdec9a	-0.0015710772
76	0x3c18a2e7	0.009316183
77	0x3b90f959	0.004424256
78	0x3b7e5dc0	0.0038813204
79	0xbbdcba8c	-0.0067361053
80	0xbbbbfa3b	-0.005736617
81	0xbb0749b4	-0.0020643296
82	0xbb2c5b14	-0.0026299404
83	0x3bb7ab1f	0.005605116
84	0xbac8d305	-0.0015321678
85	0x3b945928	0.00452723
86	0xbafb8679	-0.0019189856
87	0x3abf9f4b	0.0014619617
88	0xbae1c656	-0.0017225246
89	0x3b52d833	0.0032172322
90	0xba9befe9	-0.001189706
91	0xbbf050d9	-0.0073338565
92	0xb98e3d2a	-0.0002712992
93	0x3b41b6af	0.002955835
94	0xbab67cef	-0.0013922731
95	0xb995a1d1	-0.00028540057
96	0x3aa62236	0.001267499
97	0x3ad0c3b0	0.001592746
98	0x3a1c42e6	0.00059608964
99	0x3be525f7	0.006993051
100	0x3a58640b	0.00082546537
101	0x3af313bb	0.0018545309
102	0xb96507c1	-0.0002184203
103	0x3a402efe	0.0007331221
104	0xbb84d26f	-0.004053406
105	0xbb94f6b9	-0.004546013
106	0x3b54e78c	0.0032486646
107	0x3b160d62	0.002289616
108	0xbb13c558	-0.0022548046
109	0xba95c284	-0.0011425768
110	0x3a7e9e55	0.00097129244
111	0xbb47665d	-0.0030426004
112	0xbb1b23f8	-0.0023672562
113	0x3c4a5716	0.0123498645
114	0x3b187a22	0.0023266156
115	0x3bad6686	0.0052917628
116	0x3aba908f	0.0014233756
117	0x3b00f56c	0.0019677533
118	0xbafc94bb	-0.0019270399
119	0x3b9d8d42	0.004808099
120	0xbc00a099	-0.007850789
121	0xba4f442b	-0.0007906581
122	0xb9ffcaf1	-0.00048788593
123	0xb9ef91dd	-0.0004569431
124	0xbc7a1898	-0.015264653
125	0xba30f4f0	-0.0006750366
126	0x3b0f2769	0.0021843559
127	0x394b55da	0.00019391571
128	0xbb507726	-0.00318093
129	0x3ac89da5	0.0015305771
130	0x3b2ed522	0.002667733
131	0x3be77511	0.007063516
132	0x3b62cfb6	0.0034608669
133	0xbbdccc73	-0.0067382394
134	0xbb30392c	-0.0026889546
135	0xbb362b4f	-0.002779681
136	0x3ab6ce1b	0.0013946922
137	0x3b80f25e	0.0039351424
138	0x38b4f7f1	8.6292515e-05
139	0x3b5124a5	0.003191271
140	0xbbdfedfc	-0.00683379
141	0xbb9e6e98	-0.004834961
142	0x3a02c724	0.0004988781
143	0x3b8c7aa8	0.0042870827
144	0x3aa5bf02	0.0012645426
145	0x3b7cfd67	0.0038603188
146	0x3bd8848d	0.006607598
147	0x3a5b8df1	0.0008375338
148	0x3b16263a	0.0022910968
149	0xba95a19c	-0.0011415961
150	0x3a8238ea	0.0009935175
151	0x3995a06f	0.00028539027
152	0x397be9ab	0.00024024273
153	0xbba2632f	-0.0049556713
154	0x3b5220ae	0.0032062936
155	0x3b2dfeba	0.0026549534
156	0xbabf1905	-0.00145796
157	0xb9a0faee	-0.00030704535
158	0xbb49eb2b	-0.0030810337
159	0xbc262160	-0.010139793
160	0xb8a20980	-7.7265315e-05
161	0x3ae4cad6	0.0017455469
162	0x3b5ca49d	0.0033667453
163	0xbbcbe17d	-0.0062219487
164	0x3a4d3a9d	0.00078288635
165	0xb9c1ee5e	-0.00036989426
166	0x3b1f35e4	0.0024293596
167	0xbac7cf13	-0.0015244208
168	0x3b55071f	0.0032505465
169	0x3b93bb0b	0.0045083812
170	0x3ab169e6	0.0013535589
171	0x3a95ef28	0.0011439072
172	0x3ad39969	0.0016143742
173	0xbb9b9319	-0.00474776
174	0x3aee4fdc	0.0018181759
175	0x3a0829ed	0.0005194236
176	0x3aa1e7e6	0.0012352436
177	0xb9d0a580	-0.0003979616
178	0xbb62f0dc	-0.0034628427
179	0xbb1a50ce	-0.0023546699
180	0x39805c43	0.00024482803
181	0x3b115608	0.0022176523
182	0x3af02e24	0.0018324298
183	0x3bca3a01	0.0061714654
184	0xbbd80e1c	-0.006593479
185	0xbb3abf88	-0.002849551
186	0x387dc39e	6.0502083e-05
187	0x3b3e69e7	0.0029054822
188	0x3ba600dd	0.005066021
189	0x3a4ed510	0.0007890025
190	0x3b9ce771	0.004788332
191	0x3b21ec82	0.002470762
192	0xbaea28ac	-0.0017864904
193	0x3a8338ab	0.0010011395
194	0xba410b7b	-0.00073640764
195	0xbb0c370e	-0.002139512
196	0xbb48b4aa	-0.0030625262
197	0xbb433746	-0.0029787584
198	0xb9121520	-0.00013931515
199	0xba94dcca	-0.0011357304
200	0xb8edbaf7	-0.000113358656
201	0xbb697796	-0.0035624257
202	0xbabbd144	-0.0014329334
203	0xbab0e1eb	-0.0013495063
204	0x3bd632d4	0.006536821
205	0x3b243929	0.0025058484
206	0x3bcc92b3	0.006243074
207	0xbbb62727	-0.0055588665
208	0xbb972f75	-0.0046138116
209	0x39b7be25	0.0003504615
210	0xba69e0a4	-0.00089217187
211	0x3becae73	0.0072229444
212	0xba6126f4	-0.00085888733
213	0x3a59101b	0.0008280293
214	0xbb96c4a6	-0.004601079
215	0x3975a652	0.0002342698
216	0xbb193fde	-0.0023384015
217	0xbb078b33	-0.0020682334
218	0xba27bc95	-0.00063986453
219	0xbb2df0a4	-0.0026541138
220	0xbac3d6c6	-0.0014941327
221	0x3b5750e0	0.0032854602
222	0xbb8ffb5f	-0.0043939794
223	0xbb1f7263	-0.0024329654
224	0xbb725bb2	-0.0036980924
225	0x3ac2bad3	0.0014856703
226	0xb646fab2	-2.9650223e-06
227	0x3b5cf8e6	0.003371769
228	0x3b0b2d95	0.0021236886
229	0x37999d1a	1.8312177e-05
230	0x3ae0b0ce	0.0017142536
231	0xba8f90f0	-0.0010953229
232	0xbbbfed26	-0.0058571277
233	0xbc26855a	-0.010163629
234	0x3b853253	0.004064837
235	0x3b465a6f	0.0030266305
236	0xbaa4c642	-0.0012571292
237	0xbb795e14	-0.003805046
238	0xbb196a4a	-0.00234093
239	0xb95a245a	-0.00020803642
240	0xbbe5ea77	-0.007016476
241	0x3c26d0ae	0.010181589
242	0x3b567c76	0.0032727993
243	0x3bf1e8bc	0.0073824804
244	0x3b59b4c9	0.0033219329
245	0xba1a21ad	-0.0005879652
246	0x3a2cb723	0.0006588569
247	0x3b931caf	0.0044895033
248	0xbb9f4903	-0.0048609986
249	0xbbda6ecc	-0.00666604
250	0xbb6b759d	-0.0035928257
251	0xb9add13f	-0.00033153032
252	0xbc3c4588	-0.011491187
253	0xbb22565e	-0.0024770717
254	0x39693195	0.00022239082
255	0x38df3718	0.00010643731

gnn.gnn_layers.0.gat_conv.attn_r f4 [1, 8, 128]
0	0xb89b18f0	-7.395621e-05
1	0x3a9df1f2	0.0012050255
2	0x3b2e7deb	0.0026625346
3	0xbb293ad4	-0.0025822418
4	0xb80690f4	-3.2083088e-05
5	0xbb856ad3	-0.0040715723
6	0xb99106c2	-0.0002766159
7	0x3b6c4880	0.0036053956
8	0x3aa604a6	0.001266618
9	0xba76ee2f	-0.00094196474
10	0xbb0d376e	-0.0021547931
11	0xba9d6017	-0.0012006786
12	0xbb350cdb	-0.002762607
13	0x3a8d0f69	0.0010762039
14	0xbb2dbdf8	-0.0026510935
15	0x3b5958c1	0.0033164474
16	0x3a2f08f6	0.00066770555
17	0x3ae69a24	0.0017593545
18	0x39458ce8	0.00018839876
19	0x3b2394c6	0.0024960502
20	0x39566c76	0.00020449035
21	0xbb233cd9	-0.0024908094
22	0x3b17a4c8	0.0023138989
23	0xbb994342	-0.004677207
24	0x37878d7a	1.6159134e-05
25	0xbb0ca590	-0.0021460988
26	0xbaf20b1a	-0.0018466443
27	0x389ed170	7.573038e-05
28	0xba115630	-0.0005544154
29	0x3b231ba6	0.0024888306
30	0xbabf0961	-0.0014574939
31	0x3a1e42a6	0.0006037153
32	0x3ad751bf	0.001642756
33	0xb9e77333	-0.00044145584
34	0xba8c9437	-0.0010725324
35	0xb91e8956	-0.00015119216
36	0x3ae5b123	0.0017524104
37	0xbaa7c729	-0.0012800443
38	0xbb14ce14	-0.002270584
39	0xb90dfb47	-0.00013540416
40	0x375e17ef	1.3237804e-05
41	0xbba205c4	-0.004944535
42	0xbb7177a5	-0.0036844995
43	0x38877e66	6.460845e-05
44	0xbad9d6f5	-0.0016619848
45	0x3a2d4500	0.0006609708
46	0xba5d6ec9	-0.0008446989
47	0x381bbee8	3.7132675e-05
48	0xbb23f3d2	-0.0025017154
49	0x394ff488	0.00019832153
50	0xb9d52c5f	-0.00040659585
51	0xb9333f31	-0.00017094311
52	0xbaa33442	-0.0012451487
53	0x3b0ea0cd	0.0021763325
54	0xbb115f16	-0.002218192
55	0x3adbdd34	0.0016774298
56	0xbaa845fe	-0.0012838242
57	0x3c1645e6	0.0091719385
58	0x3a8338ea	0.0010011469
59	0xbb0d5f12	-0.002157156
60	0xb94d8b40	-0.00019602198
61	0xba2809d6	-0.0006410157
62	0x39fbeee4	0.00048052438
63	0x3ac9003e	0.0015335155
64	0x3ac8672c	0.0015289537
65	0xb70376c2	-7.835859e-06
66	0xb962a1d2	-0.00021613322
67	0x3b1931c6	0.0023375615
68	0xbb2b5b99	-0.0026147126
69	0xb97ac825	-0.00023916418
70	0x3b117236	0.002219332
71	0xbabdf862	-0.001449358
72	0x3a1fc052	0.00060940266
73	0xbaa69115	-0.0012708033
74	0xbad951ab	-0.0016580125
75	0x3a27a560	0.0006395187
76	0x3ae77b9e	0.0017660742
77	0x39e15da9	0.00042985126
78	0x3a01038b	0.00049214874
79	0xba9ea422	-0.0012103359
80	0x3b5f20cb	0.0034046646
81	0x393d0869	0.00018027578
82	0x391206ab	0.00013926129
83	0x3a8162ec	0.00098714
84	0x3a92aaf9	0.001118987
85	0xba1abb34	-0.0005902529
86	0xbbac7b7c	-0.005263744
87	0x3a63167e	0.00086627144
88	0x3ad5503a	0.001627452
89	0xbb5e83e2	-0.003395312
90	0xbaa4a058	-0.0012559993
91	0xba951432	-0.0011373817
92	0xb8a90157	-8.0587975e-05
93	0x3b0fa20d	0.0021916658
94	0xbb81df01	-0.0039633517
95	0xba1dfd18	-0.00060267886
96	0x3b694ac5	0.0035597545
97	0xbb163613	-0.0022920414
98	0x3abc2da6	0.0014356866
99	0xbb0e88bd	-0.0021748983
100	0x39a091da	0.00030626246
101	0x390cc7ff	0.00013425945
102	0xbac0673c	-0.0014679204
103	0xb9d68d28	-0.0004092243
104	0xbad865ab	-0.0016509792
105	0xbb2d3ca8	-0.002643386
106	0x3acc66c4	0.0015594591
107	0x3aa00b84	0.0012210463
108	0xbafc2279	-0.0019236348
109	0xbad379dc	-0.0016134339
110	0xb88d50f5	-6.738483e-05
111	0xbae331c6	-0.0017333559
112	0xbb767a28	-0.0037609432
113	0x3aec192f	0.0018012876
114	0xba546726	-0.00081025285
115	0xbb035086	-0.002003701
116	0xbb3e2054	-0.0029010968
117	0xba19d667	-0.0005868435
118	0xbaa3e92e	-0.0012505406
119	0x3ac1b9a9	0.0014780062
120	0xbb9fedb2	-0.0048806304
121	0x3ad7a917	0.0016453591
122	0xbbb3ed16	-0.0054909093
123	0xba963c24	-0.0011462015
124	0xbb352fc4	-0.0027646879
125	0xb99b2fc1	-0.00029599483
126	0x384ddea8	4.9083174e-05
127	0x3a0a8773	0.0005284466
128	0xb9adcc21	-0.0003314922
129	0x38f4787e	0.0001165727
130	0x3b0fcff3	0.0021944016
131	0xba8c3c54	-0.0010699132
132	0xb999e45d	-0.00029352578
133	0xbbf3c617	-0.0074393856
134	0xb90e7683	-0.00013586324
135	0x3ae9a0d0	0.0017824415
136	0xb94b0110	-0.00019359984
137	0xba472c3c	-0.0007597839
138	0xba733b3a	-0.000927854
139	0x38dbff86	0.00010490329
140	0xbafcf9b7	-0.0019300495
141	0x39407139	0.00018352726
142	0xbb444287	-0.002994688
143	0x3a8a89d2	0.0010569638
144	0x391db320	0.00015039416
145	0x3ac8e18f	0.0015326011
146	0x3afc3e98	0.0019244729
147	0xba37c777	-0.00070106186
148	0x3a3b79f1	0.00071516546
149	0xbad6a7dd	-0.0016376931
150	0xb8db2e22	-0.00010451327
151	0xbadcf0ee	-0.0016856471
152	0x382837a2	4.0106133e-05
153	0xbb16a172	-0.0022984412
154	0xbaef8e18	-0.00182766
155	0xb849284a	-4.7959657e-05
156	0xbb194334	-0.0023386003
157	0x3afcd7ed	0.0019290425
158	0xbad1967d	-0.0015990284
159	0xb9f15894	-0.00046033098
160	0x39e5ad9a	0.00043807627
161	0xb9f00242	-0.0004577805
162	0xb96a0dcc	-0.00022321119
163	0x39d746f0	0.00041060848
164	0x3abcbe39	0.0014399952
165	0xb96fbf39	-0.00022864052
166	0xbb2ed996	-0.0026679984
167	0xba3b97e9	-0.000715612
168	0xb94fc546	-0.00019814548
169	0xb9fd8c49	-0.0004836044
170	0xbb6ced1b	-0.0036152068
171	0xb83cd49c	-4.50207e-05
172	0xba74afe6	-0.0009334072
173	0xb9bec079	-0.00036383027
174	0xb9b2f1d8	-0.00034130993
175	0x3a778f70	0.0009443676
176	0xba02dcfc	-0.00049920357
177	0xba84d033	-0.0010132849
178	0xb8516449	-4.992288e-05
179	0xb91ac05e	-0.00014758247
180	0xb8b365c4	-8.5543405e-05
181	0x3a93e63e	0.0011283827
182	0xbaafa612	-0.0013400933
183	0x3a0ea662	0.0005441663
184	0xba2762b4	-0.00063852523
185	0x3b7c8b42	0.0038535153
186	0x3a8e206e	0.0010843405
187	0xba8960a3	-0.001048107
188	0x392da375	0.00016559458
189	0x3a6ab689	0.00089535915
190	0xb98f3d5e	-0.00027320808
191	0x3a54843d	0.0008106863
192	0x39c7cc96	0.00038108666
193	0x3a736340	0.0009284504
194	0x3a12e983	0.0005604254
195	0xb726baa1	-9.937824e-06
196	0xbb04c362	-0.0020258059
197	0x3a0c868b	0.00053606246
198	0x3a8723b3	0.0010310322
199	0xb91c49a9	-0.0001490476
200	0x3a8f838a	0.0010949236
201	0xb964f864	-0.00021836307
202	0xbaa8f92e	-0.0012891644
203	0x3974e978	0.00023356627
204	0xba16aa3b	-0.0005747412
205	0xb898e258	-7.2900846e-05
206	0x3ae37bf0	0.0017355662
207	0x39983c67	0.00029036702
208	0x3a3b94d1	0.0007155659
209	0x39e15792	0.0004298059
210	0x3a96902a	0.0011487056
211	0xba48e61b	-0.0007663683
212	0x3aae144f	0.0013281199
213	0xb907acbc	-0.00012938952
214	0xbafd745f	-0.001933705
215	0x3a79eb08	0.00095336186
216	0x3ab3d5d9	0.0013720348
217	0xbb88924f	-0.004167832
218	0xba20fb83	-0.0006140994
219	0xba2b7916	-0.00065411755
220	0x3879023c	5.9368307e-05
221	0x3a46e6d8	0.0007587499
222	0x39f484e8	0.0004663833
223	0xbaaebc67	-0.0013331295
224	0x3a7f9d85	0.000975095
225	0xb9c93f76	-0.0003838499
226	0x3a96a73f	0.0011493935
227	0xba67b01a	-0.0008838192
228	0x38b1df95	8.481663e-05
229	0x3a27842f	0.00063902413
230	0xb9dd3330	-0.00042190542
231	0x3a143266	0.0005653262
232	0xbb164c12	-0.0022933525
233	0xbac6fade	-0.0015180965
234	0x3a3c29ab	0.000717784
235	0x3ab59f82	0.0013856741
236	0x3b35acaa	0.0027721324
237	0xba8dee2e	-0.0010828429
238	0xba5bfda0	-0.000839198
239	0xb9d55e2c	-0.0004069669
240	0xbaa0f283	-0.0012279305
241	0x3a890a17	0.0010455278
242	0x3737bcb8	1.09515895e-05
243	0x3a6726c8	0.00088177295
244	0xba5c38b2	-0.0008400782
245	0xba83ed61	-0.0010065251
246	0xba345daa	-0.0006880412
247	0x3a702a31	0.00091615604
248	0xbaab3489	-0.0013061921
249	0x3b0d31b1	0.002154451
250	0xbb3becfe	-0.0028675194
251	0x396f7c22	0.00022839059
252	0xbb04fa9b	-0.0020290974
253	0xbb175fdf	-0.0023097915
254	0xba9fbcef	-0.0012187044
255	0x3a0960e2	0.0005240572

gnn.gnn_layers.0.gat_conv.bias f4 [1024]
0	0x3bfd6443	0.0077328994
1	0x3b0479d1	0.002021421
2	0x3cd6dc86	0.0262282
3	0xbcf03c23	-0.02932555
4	0xbbb0d252	-0.005396166
5	0xbcfa57ad	-0.030559385
6	0xbad1226d	-0.0015955694
7	0x3ca3d474	0.019998766
8	0xbb05d205	-0.002041937
9	0xbccf29c9	-0.02528848
10	0xbc8aab9c	-0.016927533
11	0x3b074679	0.002064137
12	0xb9b46da2	-0.00034413958
13	0xbba55d08	-0.0050464906
14	0xbcabc24e	-0.020966675
15	0x3d0b3d96	0.03399428
16	0x3c581308	0.013188131
17	0x3d1b6e9d	0.037947286
18	0xbbfb4018	-0.0076675527
19	0x3bd734f7	0.006567593
20	0x3b40c3f3	0.002941367
21	0xbc9872f0	-0.018609494
22	0x3b634e32	0.003468406
23	0xbc974d6d	-0.018469537
24	0xba63bc40	-0.0008687414
25	0xbc4d18f2	-0.012518154
26	0xbd1025aa	-0.03519217
27	0xbc30256a	-0.010751108
28	0xbbe29769	-0.006915022
29	0x3ba33e24	0.004981773
30	0xbc94d64e	-0.018168595
31	0xbdb040ba	-0.086060956
32	0x3bcd9120	0.0062734038
33	0xbbb51bfa	-0.0055270167
34	0xbc24631d	-0.010033396
35	0xbb56b987	-0.0032764392
36	0x3b7a9e28	0.003824124
37	0xbc0b1ebd	-0.008491215
38	0xbcd225e5	-0.025652835
39	0x3ac29fb5	0.0014848622
40	0xbbbea8d0	-0.005818464
41	0xbc889f5b	-0.01667755
42	0xbd2d6c73	-0.042339753
43	0x3c89c6a2	0.016818348
44	0x3b35c0ad	0.0027733252
45	0x39b9f72d	0.0003547011
46	0xbba143a2	-0.0049213925
47	0x3bc26457	0.0059323716
48	0xbc2a22f4	-0.01038431
49	0x3ba9046e	0.0051579988
50	0x3baa72b7	0.0052016634
51	0xbc0223b1	-0.00794308
52	0x3bcdf116	0.006284843
53	0x3ca2cedb	0.019874027
54	0xbcf3d2ca	-0.029763598
55	0x3cbe76bb	0.023249974
56	0x3b862eab	0.0040949187
57	0x3d438418	0.047733396
58	0x3bc7ca18	0.0060970895
59	0xbc0e6ce2	-0.008692952
60	0x3c376ef6	0.011195889
61	0xbbbba9b2	-0.0057270164
62	0xbc195b33	-0.0093601225
63	0x3c4baf80	0.012431979
64	0x3c56dab0	0.013113663
65	0xb8ef7589	-0.00011418301
66	0xbbcc7d2c	-0.0062405076
67	0xbb74653f	-0.0037291793
68	0xbcf36652	-0.029711876
69	0x3c0aec5a	0.008479202
70	0x3ca771f7	0.020440085
71	0xba9de57d	-0.0012046542
72	0x3cca1a93	0.024670875
73	0xbc5943d0	-0.013260797
74	0xbc97ee62	-0.018546287
75	0xbba13c6b	-0.0049205325
76	0x3bf9fcda	0.007629019
77	0x3c02525e	0.007954208
78	0x3c90b1c9	0.0176629
79	0xbb3b8e48	-0.0028618742
80	0x3a408d68	0.000734529
81	0x3c025f36	0.00795727
82	0x3bcbfdff	0.006225347
83	0x3b010883	0.0019688911
84	0xbb146a95	-0.0022646536
85	0x3b02686d	0.0019898668
86	0xbd05eb41	-0.03269506
87	0x3b830e53	0.0039995103
88	0xbaa83fce	-0.0012836398
89	0xbccb5b76	-0.024823885
90	0xbb83cb94	-0.004022071
91	0xbc189ad7	-0.00931426
92	0x3b9a026a	0.004699995
93	0x3c2be57b	0.010491724
94	0xbd194ceb	-0.03742687
95	0xbb596c48	-0.0033176113
96	0x3c5213da	0.012822116
97	0xbc8a4f1a	-0.016883422
98	0x3d242d34	0.04008217
99	0x3bd89743	0.0066098287
100	0x3c58d459	0.013234221
101	0xbbe4a09d	-0.0069771544
102	0xbc13c7f7	-0.009019843
103	0x390a07fc	0.0001316368
104	0xbc80964c	-0.015696667
105	0xbb9d48a2	-0.0047999183
106	0x3d231f5c	0.03982483
107	0x3bb20915	0.0054332116
108	0x3a8e59ee	0.0010860541
109	0x3b7a8612	0.0038226885
110	0xbc2ceeb6	-0.01055496
111	0x3b32a53f	0.002725914
112	0xbc103f5a	-0.008804167
113	0x39ccddae	0.00039075076
114	0xbb919a60	-0.0044434518
115	0x3b972596	0.004612635
116	0xbc8d6c8a	-0.01726367
117	0xbce1881a	-0.027530719
118	0xbc4b3269	-0.012402155
119	0xba8b9b90	-0.001065122
120	0xbdb4571e	-0.08805679
121	0xbbe392c4	-0.006944986
122	0xbcd706e5	-0.026248405
123	0x3b73995a	0.0037170262
124	0xbc0142e1	-0.00788948
125	0xbc182039	-0.009285026
126	0xbb7e9577	-0.0038846412
127	0xbb1133fb	-0.0022156227
128	0x3bfd6443	0.0077328994
129	0x3b0479d1	0.002021421
130	0x3cd6dc86	0.0262282
131	0xbcf03c23	-0.02932555
132	0xbbb0d252	-0.005396166
133	0xbcfa57ad	-0.030559385
134	0xbad1226d	-0.0015955694
135	0x3ca3d474	0.019998766
136	0xbb05d205	-0.002041937
137	0xbccf29c9	-0.02528848
138	0xbc8aab9c	-0.016927533
139	0x3b074679	0.002064137
140	0xb9b46da2	-0.00034413958
141	0xbba55d08	-0.0050464906
142	0xbcabc24e	-0.020966675
143	0x3d0b3d96	0.03399428
144	0x3c581308	0.013188131
145	0x3d1b6e9d	0.037947286
146	0xbbfb4018	-0.0076675527
147	0x3bd734f7	0.006567593
148	0x3b40c3f3	0.002941367
149	0xbc9872f0	-0.018609494
150	0x3b634e32	0.003468406
151	0xbc974d6d	-0.018469537
152	0xba63bc40	-0.0008687414
153	0xbc4d18f2	-0.012518154
154	0xbd1025aa	-0.03519217
155	0xbc30256a	-0.010751108
156	0xbbe29769	-0.006915022
157	0x3ba33e24	0.004981773
158	0xbc94d64e	-0.018168595
159	0xbdb040ba	-0.086060956
160	0x3bcd9120	0.0062734038
161	0xbbb51bfa	-0.0055270167
162	0xbc24631d	-0.010033396
163	0xbb56b987	-0.0032764392
164	0x3b7a9e28	0.003824124
165	0xbc0b1ebd	-0.008491215
166	0xbcd225e5	-0.025652835
167	0x3ac29fb5	0.0014848622
168	0xbbbea8d0	-0.005818464
169	0xbc889f5b	-0.01667755
170	0xbd2d6c73	-0.042339753
171	0x3c89c6a2	0.016818348
172	0x3b35c0ad	0.0027733252
173	0x39b9f72d	0.0003547011
174	0xbba143a2	-0.0049213925
175	0x3bc26457	0.0059323716
176	0xbc2a22f4	-0.01038431
177	0x3ba9046e	0.0051579988
178	0x3baa72b7	0.0052016634
179	0xbc0223b1	-0.00794308
180	0x3bcdf116	0.006284843
181	0x3ca2cedb	0.019874027
182	0xbcf3d2ca	-0.029763598
183	0x3cbe76bb	0.023249974
184	0x3b862eab	0.0040949187
185	0x3d438418	0.047733396
186	0x3bc7ca18	0.0060970895
187	0xbc0e6ce2	-0.008692952
188	0x3c376ef6	0.011195889
189	0xbbbba9b2	-0.0057270164
190	0xbc195b33	-0.0093601225
191	0x3c4baf80	0.012431979
192	0x3c56dab0	0.013113663
193	0xb8ef7589	-0.00011418301
194	0xbbcc7d2c	-0.0062405076
195	0xbb74653f	-0.0037291793
196	0xbcf36652	-0.029711876
197	0x3c0aec5a	0.008479202
198	0x3ca771f7	0.020440085
199	0xba9de57d	-0.0012046542
200	0x3cca1a93	0.024670875
201	0xbc5943d0	-0.013260797
202	0xbc97ee62	-0.018546287
203	0xbba13c6b	-0.0049205325
204	0x3bf9fcda	0.007629019
205	0x3c02525e	0.007954208
206	0x3c90b1c9	0.0176629
207	0xbb3b8e48	-0.0028618742
208	0x3a408d68	0.000734529
209	0x3c025f36	0.00795727
210	0x3bcbfdff	0.006225347
211	0x3b010883	0.0019688911
212	0xbb146a95	-0.0022646536
213	0x3b02686d	0.0019898668
214	0xbd05eb41	-0.03269506
215	0x3b830e53	0.0039995103
216	0xbaa83fce	-0.0012836398
217	0xbccb5b76	-0.024823885
218	0xbb83cb94	-0.004022071
219	0xbc189ad7	-0.00931426
220	0x3b9a026a	0.004699995
221	0x3c2be57b	0.010491724
222	0xbd194ceb	-0.03742687
223	0xbb596c48	-0.0033176113
224	0x3c5213da	0.012822116
225	0xbc8a4f1a	-0.016883422
226	0x3d242d34	0.04008217
227	0x3bd89743	0.0066098287
228	0x3c58d459	0.013234221
229	0xbbe4a09d	-0.0069771544
230	0xbc13c7f7	-0.009019843
231	0x390a07fc	0.0001316368
232	0xbc80964c	-0.015696667
233	0xbb9d48a2	-0.0047999183
234	0x3d231f5c	0.03982483
235	0x3bb20915	0.0054332116
236	0x3a8e59ee	0.0010860541
237	0x3b7a8612	0.0038226885
238	0xbc2ceeb6	-0.01055496
239	0x3b32a53f	0.002725914
240	0xbc103f5a	-0.008804167
241	0x39ccddae	0.00039075076
242	0xbb919a60	-0.0044434518
243	0x3b972596	0.004612635
244	0xbc8d6c8a	-0.01726367
245	0xbce1881a	-0.027530719
246	0xbc4b3269	-0.012402155
247	0xba8b9b90	-0.001065122
248	0xbdb4571e	-0.08805679
249	0xbbe392c4	-0.006944986
250	0xbcd706e5	-0.026248405
251	0x3b73995a	0.0037170262
252	0xbc0142e1	-0.00788948
253	0xbc182039	-0.009285026
254	0xbb7e9577	-0.0038846412
255	0xbb1133fb	-0.0022156227

gnn.gnn_layers.0.gat_conv.fc.weight f4 [1024, 74]
0	0xbb8f5263	-0.004373835
1	0xbc24db6c	-0.01006208
2	0xbc07fe82	-0.0083004255
3	0x3c976b82	0.01848388
4	0x3c2e8c00	0.010653496
5	0x39866a8d	0.00025637858
6	0x39e5c771	0.0004382688
7	0x3c5c1c91	0.013434545
8	0xba4ae383	-0.00077395904
9	0x2447950b	4.327749e-17
10	0xa520eb74	-1.3957562e-16
11	0xa49976cd	-6.655443e-17
12	0xa5d7f110	-3.7459905e-16
13	0x25b324b7	3.107643e-16
14	0xa3037645	-7.126569e-18
15	0xbb2ba5b7	-0.0026191303
16	0xa1be8fd0	-1.2912968e-18
17	0x24823c93	5.648113e-17
18	0xa75e0d7e	-3.0816003e-15
19	0xa56f8f11	-2.0778418e-16
20	0xa5f2164b	-4.1995414e-16
21	0x264439ec	6.807966e-16
22	0xa5236476	-1.4172034e-16
23	0xa787d8ff	-3.7705295e-15
24	0xa55410a7	-1.8393711e-16
25	0x257a9577	2.1734684e-16
26	0xa2fc1c8e	-6.833497e-18
27	0xa4a0983e	-6.964685e-17
28	0xa74333da	-2.7089795e-15
29	0x36ef88d9	7.138686e-06
30	0x245d17c6	4.7941873e-17
31	0x24b7c07e	7.9689693e-17
32	0x257af7f1	2.1768049e-16
33	0x25651964	1.9871186e-16
34	0x253d6b54	1.6429501e-16
35	0x250985b8	1.1928161e-16
36	0xa5d58fc0	-3.704702e-16
37	0x25004b61	1.112777e-16
38	0x22638ecc	3.0839833e-18
39	0x2495d775	6.498345e-17
40	0x24cefe49	8.9769035e-17
41	0xa4c0b835	-8.3578786e-17
42	0xa4d81ac6	-9.3720424e-17
43	0xa555c437	-1.8541285e-16
44	0x3bb34f65	0.005472111
45	0x3c07965d	0.0082755955
46	0xbb33c89d	-0.0027432807
47	0x3bf85675	0.007578666
48	0x25f056da	4.1692216e-16
49	0x3b2cf9d9	0.0026394038
50	0x230b6459	7.5564545e-18
51	0xa521b87a	-1.4027027e-16
52	0xa29c08af	-4.229308e-18
53	0xa3cd2860	-2.2243244e-17
54	0x3b5a6ce9	0.0033329076
55	0x3c007ed5	0.007842739
56	0x3b84d064	0.0040531624
57	0x3a75f4ea	0.00093825033
58	0x255f13e7	1.934891e-16
59	0xa557a298	-1.8703366e-16
60	0xa6067a1e	-4.665609e-16
61	0x3ad62823	0.0016338866
62	0x24994bbe	6.6481485e-17
63	0x3ab61d79	0.0013894282
64	0xbc46193b	-0.012090976
65	0x3c89d170	0.0168235
66	0x25cae9ea	3.519992e-16
67	0x3b302fed	0.0026884035
68	0x3b8d155d	0.004305525
69	0x3c60a9f0	0.013712391
70	0x3b77b338	0.0037796032
71	0x3b82b34a	0.003988658
72	0x3b512316	0.0031911782
73	0x22ffd0d0	6.9338977e-18
74	0xbb0aaecb	-0.0021161314
75	0x3b93a70d	0.004505998
76	0x3bffd693	0.0078075617
77	0xbae3405f	-0.001733791
78	0xbbe1c5f1	-0.0068900515
79	0x390b4f63	0.00013285647
80	0xbaabdae8	-0.0013111504
81	0xbb88ea4f	-0.0041783224
82	0x3aa0be1f	0.0012263692
83	0xa4d962ea	-9.4276316e-17
84	0x253a7fb9	1.6176202e-16
85	0x260e2f56	4.93303e-16
86	0xa4b654db	-7.907367e-17
87	0xa549248e	-1.7446356e-16
88	0x25cb45ff	3.5262318e-16
89	0x3a064afc	0.0005122868
90	0xa6293425	-5.870432e-16
91	0xa52caf94	-1.497811e-16
92	0xa65a55ca	-7.575021e-16
93	0x24685957	5.0382655e-17
94	0xa5ef5548	-4.151768e-16
95	0xa64accdf	-7.036048e-16
96	0x250ee85c	1.2395263e-16
97	0xa3a7f8d6	-1.8211562e-17
98	0x2557d147	1.8719183e-16
99	0x2412172c	3.167833e-17
100	0x251cf5c6	1.3614114e-16
101	0xa3da8fcb	-2.3696506e-17
102	0xa6847d05	-9.193227e-16
103	0xba04db47	-0.0005068075
104	0x257ff77b	2.2201574e-16
105	0xa553053d	-1.8303107e-16
106	0x24e9eaae	1.01445205e-16
107	0xa1d385bf	-1.4333318e-18
108	0x251aa747	1.3414047e-16
109	0x24b5e431	7.888281e-17
110	0xa2c697a2	-5.3828555e-18
111	0xa518fc3a	-1.3269356e-16
112	0xa43c22e5	-4.079556e-17
113	0x22d037c9	5.6437578e-18
114	0xa2c3fc80	-5.31222e-18
115	0x26f7fbcf	1.7207321e-15
116	0x235ec56b	1.2076449e-17
117	0x23717b4c	1.3090745e-17
118	0x3b39225b	0.0028249237
119	0xbb67f181	-0.003539175
120	0x3c9291fa	0.017891873
121	0xbb862c0b	-0.004094606
122	0x2424d027	3.5738143e-17
123	0xbb153558	-0.002276739
124	0x24e86a88	1.0079443e-16
125	0xa53ac1d2	-1.6198597e-16
126	0xa620d511	-5.579991e-16
127	0x24e18ebe	9.782001e-17
128	0x3c33b7ba	0.010969097
129	0xbb9900d7	-0.0046692896
130	0x3bd066c1	0.0063599055
131	0x3b165e7f	0.0022944508
132	0xa4d089fe	-9.043939e-17
133	0x250acbfb	1.2038703e-16
134	0xa4cc47b9	-8.85924e-17
135	0x3b2b7fe3	0.0026168756
136	0x24623d0a	4.905764e-17
137	0xba78ce22	-0.00094911654
138	0x3c4252a7	0.011860526
139	0x3c0346dc	0.0080125
140	0xa4414813	-4.1911253e-17
141	0xbb2b9d70	-0.002618637
142	0xbc76ad11	-0.015055911
143	0x3bddb7ad	0.0067662806
144	0xba8a76c5	-0.001056396
145	0x3c15c813	0.00914194
146	0x3b304d61	0.002690159
147	0xa4712346	-5.2288422e-17
148	0xbb9b1a5f	-0.0047333683
149	0x3c7fac27	0.015605009
150	0x3c7b3d8d	0.015334499
151	0xbb6ab1d5	-0.0035811563
152	0xba17be95	-0.0005788592
153	0xbac26960	-0.001483243
154	0x3a85e050	0.0010213945
155	0xbbea1a48	-0.0071442463
156	0xba40cd09	-0.00073547714
157	0xa3bd11d1	-2.0498967e-17
158	0xa4b0af25	-7.662454e-17
159	0x254b9db4	1.7660875e-16
160	0x2310f051	7.857145e-18
161	0x23761ab3	1.33413405e-17
162	0xa2ec5fca	-6.406935e-18
163	0x39ba36ea	0.000355176
164	0x247c2a78	5.4679762e-17
165	0x2383e786	1.4301102e-17
166	0x24b5c47d	7.88291e-17
167	0xa69ddd89	-1.0954111e-15
168	0xa3625379	-1.22691606e-17
169	0xa4a60cac	-7.201249e-17
170	0x24f15715	1.0466461e-16
171	0xa515ad6d	-1.2982449e-16
172	0xa59ef832	-2.7576815e-16
173	0x2491b617	6.31922e-17
174	0xa5164f7a	-1.3037354e-16
175	0x25af3786	3.0395285e-16
176	0xa6729104	-8.415715e-16
177	0x3708d071	8.154763e-06
178	0x2548023e	1.7347994e-16
179	0xa3123264	-7.9253465e-18
180	0x25427a6e	1.6868299e-16
181	0xa579b7b5	-2.165955e-16
182	0x253267c1	1.5474192e-16
183	0x23ceaf5f	2.2408837e-17
184	0xa636b755	-6.3392396e-16
185	0x240bfe38	3.0356152e-17
186	0xa4db4761	-9.509703e-17
187	0xa5ff1759	-4.425127e-16
188	0xa56a67ef	-2.0331479e-16
189	0x2503a5b4	1.1418581e-16
190	0x25c62376	3.4371554e-16
191	0x25f87758	4.3102013e-16
192	0x3c334c0c	0.010943424
193	0xbb973767	-0.004614759
194	0x3cb2319c	0.021752171
195	0x3b7948e6	0.0038037836
196	0x267f9ab9	8.8680586e-16
197	0xbaac6a92	-0.0013154319
198	0xa5469219	-1.7223262e-16
199	0x2378a4a1	1.34789685e-17
200	0xa59d829e	-2.7323668e-16
201	0x2360d0d2	1.2187284e-17
202	0x3ca3c9e8	0.019993737
203	0xba7a433d	-0.00095467624
204	0x3c4bdea9	0.012443223
205	0x39824d6e	0.00024853222
206	0x24652042	4.9683783e-17
207	0xa633b93c	-6.235414e-16
208	0x250e6e88	1.2353986e-16
209	0x3c0a033e	0.008423625
210	0xa503a548	-1.1418438e-16
211	0xbb4c3648	-0.0031160284
212	0x3c953756	0.018214863
213	0x3b8fecd8	0.0043922476
214	0xa400c33d	-2.792095e-17
215	0xbae2e933	-0.001731193
216	0xbac01ab0	-0.0014656391
217	0x3c8ca28f	0.017167358
218	0x3ab3bac5	0.0013712278
219	0x3ba2271f	0.0049485113
220	0xb9124c61	-0.00013952098
221	0x25a5b091	2.8742583e-16
222	0xbc837f1c	-0.016051821
223	0x3b145728	0.0022634957
224	0xbb97cb30	-0.004632376
225	0x3c02fb73	0.0079945205
226	0xbc4324a1	-0.0119105885
227	0x3ab3febe	0.0013732535
228	0xb91faef8	-0.00015228603
229	0xbb8b42d3	-0.0042499094
230	0xbb121180	-0.0022288263
231	0xa616a9ac	-5.227165e-16
232	0xa4e6e5ed	-1.0013611e-16
233	0x2542c81d	1.6894619e-16
234	0xa4b688a3	-7.916139e-17
235	0xa5fca215	-4.3824863e-16
236	0xa5c47dd9	-3.4085858e-16
237	0xbaa0f99c	-0.0012281421
238	0x251cbd49	1.3594975e-16
239	0x2541b46f	1.6801215e-16
240	0xa63ad76b	-6.482366e-16
241	0xa63d956c	-6.577505e-16
242	0x25597932	1.8862812e-16
243	0xa62841ea	-5.837604e-16
244	0xa5cdc750	-3.569689e-16
245	0xa6a007d6	-1.1104354e-15
246	0xa6016457	-4.489185e-16
247	0xa6486f9e	-6.954021e-16
248	0x25b7209f	3.1767545e-16
249	0x2463dc58	4.9409417e-17
250	0xa60baf27	-4.846269e-16
251	0x398ce8d0	0.0002687634
252	0x2535333d	1.5716608e-16
253	0xa52841d7	-1.4593985e-16
254	0x260fcd4e	4.989133e-16
255	0x24e608c6	9.976146e-17

gnn.gnn_layers.0.gat_conv.res_fc.weight f4 [1024, 74]
0	0x3b897d4c	0.0041958448
1	0xbc43b4cd	-0.011944962
2	0xbc3a6782	-0.011377217
3	0x3d24bf26	0.040221356
4	0x3bfa79fd	0.0076439367
5	0x3995211c	0.00028444163
6	0xba969684	-0.0011488949
7	0x3c91824c	0.017762326
8	0xba7c5f76	-0.0009627262
9	0xa43a7d51	-4.0438468e-17
10	0x25847055	2.297447e-16
11	0x2588effb	2.3754856e-16
12	0x264e146d	7.149829e-16
13	0xa607354e	-4.6909775e-16
14	0xa3f843d4	-2.691694e-17
15	0xbb9cb9c8	-0.004782889
16	0xa333f5bf	-9.755648e-18
17	0x23cd7973	2.227758e-17
18	0x25091bac	1.1892231e-16
19	0x265b0dcb	7.599958e-16
20	0x27057659	1.8521614e-15
21	0xa4ae457f	-7.55782e-17
22	0xa5823e25	-2.2593516e-16
23	0xa5c95047	-3.492234e-16
24	0xa4a9c865	-7.363155e-17
25	0xa48b185b	-6.03229e-17
26	0x23edb917	2.577398e-17
27	0xa4068fd5	-2.917845e-17
28	0x238de0ff	1.538254e-17
29	0xb9bbd2df	-0.0003582453
30	0xa5e4698a	-3.962321e-16
31	0x257e668e	2.2065735e-16
32	0xa61ba75f	-5.400326e-16
33	0xa53fd583	-1.663895e-16
34	0xa3e181a3	-2.4449452e-17
35	0xa3b1d8d0	-1.9282202e-17
36	0xa4d6d673	-9.3171e-17
37	0x234d5b2a	1.1132377e-17
38	0xa520c4c3	-1.3944453e-16
39	0x2607a106	4.705576e-16
40	0x24102b69	3.1261792e-17
41	0x252919f4	1.4667207e-16
42	0xa59652de	-2.6077005e-16
43	0x25ded894	3.865762e-16
44	0x3af9acbd	0.0019048672
45	0x3c607cd5	0.013701637
46	0xba604f72	-0.000855676
47	0xbbf52c5d	-0.007482095
48	0xa64edf54	-7.1773273e-16
49	0x3b642e41	0.0034817609
50	0xa316b1de	-8.169181e-18
51	0xa59d9c85	-2.734122e-16
52	0xa6da403f	-1.5144203e-15
53	0xa3286ae6	-9.129935e-18
54	0x3c115668	0.0088706985
55	0x3bffaa67	0.007802296
56	0x3ab85a05	0.0014064914
57	0xba04b52e	-0.0005062398
58	0xa5dd51c4	-3.8392795e-16
59	0xa524ff07	-1.4311139e-16
60	0xa362cf99	-1.2295445e-17
61	0x3b4efdc5	0.0031584364
62	0x25bcb4f8	3.273543e-16
63	0xb8f9439d	-0.00011885839
64	0xbcd42327	-0.025895668
65	0x3c42fa73	0.011900532
66	0x23d55566	2.3129674e-17
67	0x3b6198e0	0.0034423396
68	0x3c1e45a7	0.009660161
69	0x3c9c265a	0.019061256
70	0x3be16591	0.0068785627
71	0x3b03bc2a	0.0020101168
72	0x3a7f0bcf	0.00097292376
73	0x25e07046	3.8933885e-16
74	0x3a899a35	0.0010498228
75	0x34fe5f6a	4.738061e-07
76	0x3c819429	0.015817719
77	0xbb80dcc6	-0.0039325682
78	0xbc1e2d01	-0.009654284
79	0x3a23315f	0.00062253134
80	0xb9a38f21	-0.00031196422
81	0xbb559b15	-0.0032593657
82	0x3af94be9	0.0019019815
83	0xa4ce6652	-8.9511596e-17
84	0x246f2235	5.1853838e-17
85	0x249f66d6	6.912947e-17
86	0xa3953330	-1.6176291e-17
87	0x25436065	1.6946214e-16
88	0xa39f1671	-1.7248319e-17
89	0xb96f50ad	-0.0002282287
90	0x255e392a	1.9274799e-16
91	0x21453351	6.6814113e-19
92	0xa5b76be6	-3.1818554e-16
93	0xa57a9a75	-2.1736376e-16
94	0x24a21893	7.029793e-17
95	0xa674e027	-8.495829e-16
96	0x235db284	1.2018236e-17
97	0x24ac03cf	7.459956e-17
98	0x24e097ef	9.74019e-17
99	0xa41df7b7	-3.425377e-17
100	0x2549ce2f	1.7503829e-16
101	0x26374870	6.358905e-16
102	0xa416141b	-3.2543095e-17
103	0x372b07d0	1.0194213e-05
104	0x250635f0	1.1640922e-16
105	0x27f13bde	6.6955845e-15
106	0x23d45a9f	2.3023466e-17
107	0x255f8cff	1.9389938e-16
108	0xa3df805a	-2.4232067e-17
109	0xa54e5a69	-1.7898284e-16
110	0x257ded9a	2.2024755e-16
111	0x239b6a2b	1.6850098e-17
112	0xa78ad8ba	-3.853767e-15
113	0xa4287f5d	-3.6537074e-17
114	0x262f9bf3	6.092667e-16
115	0x252fef9d	1.5260015e-16
116	0x23e1356f	2.4417179e-17
117	0xa48844e0	-5.909728e-17
118	0xb9bcac11	-0.00035986354
119	0xbb71c443	-0.0036890663
120	0x3bd81057	0.0065937447
121	0x3b7e8639	0.0038837327
122	0xa4d834b1	-9.376433e-17
123	0xba20cb92	-0.000613385
124	0xa617d452	-5.2676397e-16
125	0xa6cd9737	-1.4265719e-15
126	0x24acebc9	7.4992545e-17
127	0x2443373a	4.2330663e-17
128	0x3be9314f	0.0071164737
129	0xbb9f0ce6	-0.0048538325
130	0x3bd5c8aa	0.006524165
131	0x3a507082	0.0007951335
132	0x236d38db	1.2859835e-17
133	0xa6208646	-5.5693126e-16
134	0xa63d151f	-6.560117e-16
135	0x39386f6c	0.00017589115
136	0x2362dc45	1.22981284e-17
137	0xba3a6639	-0.0007110569
138	0xba9f0762	-0.0012132938
139	0x3b4f999e	0.0031677256
140	0x23170356	8.186433e-18
141	0xb940758a	-0.00018354334
142	0xbbf28a79	-0.007401761
143	0x3b4e83ae	0.0031511593
144	0xbb922f49	-0.0044612032
145	0x3c156ae1	0.00911972
146	0x3a917ded	0.0011100151
147	0x22b52e23	4.9108997e-18
148	0x3c996cf8	0.018728718
149	0xbb2a9eb7	-0.0026034543
150	0x3cdeb854	0.027187504
151	0xbbaff98d	-0.005370325
152	0x3a4bc7a2	0.0007773583
153	0xba74bb6d	-0.000933579
154	0x398131ee	0.00024641998
155	0xbb2e579d	-0.0026602515
156	0xbaefee2f	-0.0018305237
157	0xa47b3034	-5.446778e-17
158	0x25ca2d73	3.5072212e-16
159	0xa367197d	-1.25279324e-17
160	0x232284db	8.810171e-18
161	0xa3e37a77	-2.4663255e-17
162	0x25ef3ba3	4.1500302e-16
163	0x392d1a3e	0.00016508342
164	0xa3f989e0	-2.7055026e-17
165	0xa46447af	-4.9500337e-17
166	0xa5a8e501	-2.9298533e-16
167	0x25d2cf27	3.6569565e-16
168	0xa674a046	-8.4871717e-16
169	0x2364dac2	1.24062285e-17
170	0x2323ff7b	8.890348e-18
171	0xa3da9997	-2.3700655e-17
172	0x2391bc57	1.5800697e-17
173	0x261c6310	5.4257627e-16
174	0x24e25e49	9.81716e-17
175	0xa533c243	-1.5591594e-16
176	0xa5c8f67f	-3.4861502e-16
177	0x387bfffd	6.008147e-05
178	0xa444344d	-4.2545026e-17
179	0x26b78eab	1.2736846e-15
180	0x25907190	2.505697e-16
181	0xa1893b8f	-9.299246e-19
182	0xa20542d4	-1.806024e-18
183	0x2505fca5	1.162151e-16
184	0xa5b61435	-3.158566e-16
185	0xa4870ff7	-5.857396e-17
186	0xa3fd7bea	-2.7482795e-17
187	0x2165b867	7.783227e-19
188	0x25d44c13	3.6827688e-16
189	0xa35cbc66	-1.1966119e-17
190	0x27022c77	1.8065229e-15
191	0x255eacd3	1.9313986e-16
192	0x3c692906	0.014230972
193	0x3c1ae0a4	0.009452973
194	0x3bae93c4	0.0053276736
195	0x3c02557e	0.007954953
196	0xa3cc77e0	-2.2168493e-17
197	0xb9923d64	-0.0002789303
198	0xa1420b3b	-6.574462e-19
199	0xa4d2e001	-9.145246e-17
200	0xa51a19bd	-1.3366091e-16
201	0x24480815	4.3374933e-17
202	0x3c4f7615	0.01266243
203	0x3c2873f9	0.010281556
204	0x3c42d19b	0.011890794
205	0x3b148201	0.0022660496
206	0xa38c7795	-1.5229475e-17
207	0xa89711df	-1.6772118e-14
208	0xa2e58e46	-6.2221212e-18
209	0xbcc4fdb4	-0.024046756
210	0xa5ffa240	-4.4345394e-16
211	0xbb4e0997	-0.0031438821
212	0x3ca1acb2	0.019735668
213	0x3c6bee9b	0.01440015
214	0x262888d6	5.8472156e-16
215	0xb98d6b8b	-0.00026973741
216	0x3aaeb8b7	0.0013330196
217	0x3c93de25	0.018050263
218	0x3c03f8dd	0.008054939
219	0x3c25fac0	0.010130584
220	0x3b48bd2a	0.0030630329
221	0x27a41ae7	4.554831e-15
222	0xbd05be42	-0.032652147
223	0x3c86933f	0.016427634
224	0x3b613f76	0.00343701
225	0x3b9eb042	0.004842789
226	0xbcbae88c	-0.022815965
227	0x3a9dd3a6	0.0012041226
228	0xb987e15f	-0.0002591712
229	0xbae875a1	-0.0017735251
230	0x3a8807a2	0.0010378251
231	0x240c09dc	3.0366012e-17
232	0xa59f4531	-2.762899e-16
233	0x23c64930	2.1498199e-17
234	0xa56d1550	-2.0563694e-16
235	0x271d8d44	2.1864707e-15
236	0xa4cbd6a5	-8.840084e-17
237	0xbaae0ca5	-0.0013278915
238	0xa57ae839	-2.1762724e-16
239	0x248bb62a	6.059024e-17
240	0x236996a4	1.2662855e-17
241	0xa6a1cf48	-1.1227803e-15
242	0xa48db605	-6.1457356e-17
243	0x25294ff3	1.4685501e-16
244	0x2503fa32	1.1447208e-16
245	0x25ae35c9	3.0220635e-16
246	0x24bed027	8.275199e-17
247	0x235bc31a	1.1913328e-17
248	0xa5ad85c1	-3.010135e-16
249	0xa3bd47ec	-2.0521881e-17
250	0x26329060	6.195182e-16
251	0x39e76d94	0.00044141395
252	0xa1a329bc	-1.1056357e-18
253	0x23670107	1.2522753e-17
254	0xa5c54128	-3.4218204e-16
255	0xa604ce15	-4.6075993e-16

readout.weight_and_sum.atom_weighting.0.weight f4 [1, 128]
0	0xbc2762e6	-0.01021645
1	0xbd8607e9	-0.065444775
2	0xbe507abc	-0.2035932
3	0x3e17b175	0.14813788
4	0x3cd5e103	0.02610827
5	0x3e3a004e	0.18164179
6	0x3cfd49ea	0.030919034
7	0xbdae112b	-0.08499368
8	0x3c746b5c	0.014918175
9	0x3e64ce85	0.22344406
10	0x3dd28c65	0.102806844
11	0xbd00b66f	-0.031423982
12	0x3e1c7b98	0.15281522
13	0x3e184170	0.14868712
14	0x3e8acf18	0.27111125
15	0xbe78335d	-0.24238344
16	0xbd950aa6	-0.07277422
17	0xbe8e5f2c	-0.27806985
18	0xbda22343	-0.07916882
19	0xbd2fdbb7	-0.042934146
20	0xbbfcb277	-0.0077117044
21	0x3c85ab06	0.016316902
22	0x3d9dbe95	0.07702366
23	0x3d98dbc0	0.07463789
24	0x3acd18ef	0.001564769
25	0x3e1e6438	0.15467918
26	0x3e5daaf6	0.21647248
27	0x3ddccc29	0.10781128
28	0x3dc4233a	0.095770314
29	0x3cd3fabe	0.0258764
30	0x3e1234d1	0.1427796
31	0x3e7969ec	0.24356812
32	0xbca5305f	-0.020164667
33	0xbcee95d3	-0.029124176
34	0xbc5772f2	-0.013149964
35	0x3ddb3a7c	0.107045144
36	0xbd8909e4	-0.066913396
37	0xbbcfb782	-0.0063390145
38	0x3e2afb3f	0.16697405
39	0x3b41223b	0.0029469866
40	0x3b1d6727	0.0024017782
41	0x3df70b24	0.12062672
42	0x3e92a813	0.28643855
43	0xbe24e220	-0.16101885
44	0xbcf1028f	-0.029420165
45	0xbc9f8f6e	-0.019477572
46	0x3d21085d	0.039314616
47	0xbd9f54c1	-0.077798374
48	0x3da2cb47	0.07948928
49	0xbd50413f	-0.050843474
50	0xbd3999eb	-0.045312803
51	0x3d4dd105	0.050248165
52	0xbd87e341	-0.06635142
53	0xbe6073e0	-0.21919203
54	0x3e333911	0.17502238
55	0xbe73db99	-0.23814239
56	0x3c8ae162	0.016953174
57	0xbdc83766	-0.097761914
58	0xbdac342c	-0.084083885
59	0x3cf91268	0.030404285
60	0xbe3f8ad6	-0.18705305
61	0x3d44b2e2	0.04802216
62	0x3d2b58d3	0.041832756
63	0xbda706ea	-0.08155616
64	0xbda762c4	-0.08173135
65	0xbd8c97a9	-0.068648644
66	0x3dd77545	0.10520414
67	0x3d1b69ef	0.037942823
68	0x3e39c6ba	0.18142214
69	0xbba21d2b	-0.0049473247
70	0xbdfcec77	-0.123497896
71	0x3e65a741	0.22427084
72	0xbe5ce505	-0.21571739
73	0x3d7f960b	0.06239895
74	0x3df6ab8b	0.12044438
75	0x3d8157e8	0.06315595
76	0xbe241841	-0.16024877
77	0xbdbdc8a1	-0.092667826
78	0xbe2ded5f	-0.16985081
79	0x3d9af751	0.07566703
80	0x3bb8444e	0.005623377
81	0xbda05745	-0.07829145
82	0xbc8171c8	-0.015801325
83	0xbddd14b8	-0.107949674
84	0x3dd2adda	0.10287066
85	0xbca962b9	-0.020676957
86	0x3e2d1fd0	0.16906667
87	0xbdbc03f4	-0.091804415
88	0x3cef6a29	0.029225426
89	0x3e1c1a35	0.15244372
90	0x3d4901d3	0.049074005
91	0x3e096b10	0.13419747
92	0xbd8a0ef7	-0.067411356
93	0xbdbcbc4b	-0.092156015
94	0x3e3a2166	0.18176803
95	0x3b9f796d	0.00486677
96	0xbe24beee	-0.16088459
97	0x3d9d4d7a	0.07680793
98	0xbe78e4ca	-0.24306026
99	0xbdb26ae0	-0.08711791
100	0xbdb5bbfd	-0.088737465
101	0x3d5b6814	0.053566054
102	0x3cdf597f	0.027264355
103	0xbd013d69	-0.031552706
104	0x3e42678e	0.18984815
105	0x3e2d8eb2	0.16948965
106	0xbea1ac6b	-0.31576857
107	0xbc961414	-0.01832012
108	0xbdd6e546	-0.10492949
109	0xbd9be351	-0.076117165
110	0x3d86dbfb	0.06584927
111	0xbcb52f23	-0.022117203
112	0x3e304ea0	0.17217493
113	0xbddd88b7	-0.10817092
114	0xbc83c8b1	-0.016086908
115	0xbdbf3852	-0.09336914
116	0x3dc21986	0.094775245
117	0x3e63daec	0.22251481
118	0x3d7bb74f	0.061454114
119	0x3d1fae57	0.038984623
120	0x3e6c8fd1	0.23101737
121	0x3ab25dd5	0.0013608286
122	0x3da8b30f	0.08237278
123	0xbd89b827	-0.067245774
124	0x3e3d8e29	0.18511261
125	0x3bfb2635	0.0076644667
126	0x3d0ccc7a	0.03437469
127	0x3c9681ae	0.018372383

predict.predict.1.weight f4 [128, 256]
0	0x3c5cfdc0	0.013488233
1	0xbbbd97e0	-0.005785927
2	0x3d19d28b	0.037554305
3	0xbb4f0854	-0.0031590657
4	0x3b871b5a	0.0041231336
5	0xbc838fb8	-0.016059741
6	0xbc0ea876	-0.008707156
7	0xbc3b9d95	-0.011451145
8	0xbcaea84d	-0.021320486
9	0xbc4ae07a	-0.012382621
10	0xbc2cd5b3	-0.010548997
11	0xbc5fc2e0	-0.013657302
12	0xbbda8291	-0.0066683968
13	0x3bcf766a	0.0063312547
14	0x3b4649df	0.0030256433
15	0x3c0c5a9c	0.008566525
16	0x3beec5d6	0.0072867675
17	0x3c3a85c6	0.011384433
18	0xba1a5c7b	-0.00058884145
19	0x3b829d52	0.003986039
20	0xba454fd4	-0.0007526849
21	0x3cac3d55	0.02102534
22	0x3bd1f844	0.0064077694
23	0x3bf641ae	0.007515154
24	0xb9a4b5c8	-0.00031415955
25	0xbb3f3bbd	-0.0029179894
26	0xbcc74971	-0.024327012
27	0x3b091ed8	0.0020922925
28	0x3b7d6cae	0.0038669514
29	0xbb05cf1b	-0.0020417634
30	0xbba14428	-0.004921455
31	0xbc567dec	-0.013091546
32	0xbc4ccbc7	-0.012499756
33	0x3c733497	0.014844081
34	0x3a14649f	0.00056607457
35	0xbbb442c3	-0.0055011227
36	0xbac92992	-0.0015347472
37	0xbb57c8c9	-0.0032926074
38	0xbc292b79	-0.010325306
39	0xbc4b6c3f	-0.012415945
40	0x3c34a2f6	0.011025181
41	0x3c067554	0.008206684
42	0xbc085e71	-0.008323298
43	0x3ba38e35	0.0049913176
44	0x3b42c2fa	0.0029718266
45	0x3b92ac3f	0.0044760997
46	0xbb882be7	-0.004155624
47	0x3bc3296b	0.005955865
48	0x3acb9506	0.0015532083
49	0x3b670613	0.0035251423
50	0xbbb0addb	-0.005391819
51	0x3a04dc59	0.0005068235
52	0x3b793607	0.0038026588
53	0x3cb53f2f	0.022124855
54	0xbc57a3cc	-0.013161611
55	0xbc957794	-0.018245496
56	0xbb60f8f0	-0.0034328066
57	0x3c610524	0.013734136
58	0xbac79d4f	-0.0015229377
59	0x3af04548	0.0018331194
60	0x3bd9632b	0.006634136
61	0x3ab803f1	0.001403926
62	0x3aa701c8	0.001274162
63	0x3bc09f73	0.005878383
64	0x3c19bb57	0.009383044
65	0x3c1cf779	0.009580486
66	0x3ab71e7a	0.0013970875
67	0xba56132b	-0.00081663084
68	0xbcd6990f	-0.02619603
69	0x3c7e596f	0.015524252
70	0x3bcb4ec4	0.006204458
71	0xba06caca	-0.0005141912
72	0x3be62372	0.0070232684
73	0xba428147	-0.00074197765
74	0xbbae4e68	-0.0053194053
75	0x3ae8c0e1	0.0017757678
76	0xbb532e35	-0.0032223586
77	0x3c528778	0.012849681
78	0x39e72801	0.0004408956
79	0xbbb5e0bd	-0.0055504725
80	0xbc4cdbcf	-0.012503578
81	0x3b6c8962	0.0036092629
82	0xba7494f0	-0.0009330055
83	0xbade8d78	-0.0016979417
84	0xbc303175	-0.010753979
85	0x3a360bdf	0.0006944518
86	0x3a83e5ce	0.0010062994
87	0x3b2398e9	0.0024962968
88	0xba7d1225	-0.0009653888
89	0xbb891064	-0.004182862
90	0x3c48325d	0.012219039
91	0x3b248f33	0.0025109767
92	0x3c540580	0.012940764
93	0xbb43e535	-0.0029891257
94	0xbbaa583e	-0.0051985076
95	0xbba1da01	-0.004939318
96	0xbb09fb54	-0.0021054344
97	0x3bf50bb4	0.0074782018
98	0xbb9f2b4d	-0.004857457
99	0x3bb67c0a	0.005568986
100	0x3bfdc8c0	0.0077448785
101	0xbcc7750a	-0.0243478
102	0x3bb0aa05	0.0053913617
103	0x3b2d2855	0.0026421745
104	0xbc79bb57	-0.015242419
105	0x3a1a7bb4	0.0005893067
106	0x3d111597	0.03542098
107	0x3b9b8203	0.004745723
108	0x3c2dbe2d	0.0106044235
109	0x3c1af144	0.009456936
110	0xba1338ad	-0.00056160503
111	0xbc088b33	-0.008333969
112	0xbb38d787	-0.0028204636
113	0x3b115d23	0.0022180758
114	0xba15df81	-0.00057172036
115	0x3a53c21b	0.0008077935
116	0x381b79da	3.7068363e-05
117	0xbc147622	-0.009061368
118	0xbb4c0b85	-0.0031134796
119	0xbc05c477	-0.008164517
120	0xbad8cb69	-0.0016540113
121	0xbbbebb87	-0.005820695
122	0xbc1d5a3a	-0.009604031
123	0x3c010638	0.007875018
124	0xbaca47cc	-0.0015432774
125	0xba6429d2	-0.00087037415
126	0xbc667c74	-0.014067758
127	0x3c0bbd46	0.008529013
128	0x3b89dfe8	0.0042076
129	0xba8eb5bc	-0.0010887901
130	0xba944884	-0.0011313115
131	0x3bc2a74d	0.005940354
132	0xbc0280c0	-0.007965267
133	0x3b3568d0	0.0027680881
134	0x39b30207	0.0003414305
135	0x3c92f9b0	0.017941326
136	0xba580537	-0.0008240523
137	0x39225f99	0.00015485137
138	0x3a6ec82a	0.0009108806
139	0xbad3b288	-0.0016151229
140	0x3bbbae22	0.0057275454
141	0x3b1211ef	0.0022288521
142	0x3b8b3a83	0.0042489185
143	0xb9c7c042	-0.0003809948
144	0xba7e9998	-0.00097122183
145	0xbb6e1c4f	-0.0036332791
146	0xba6e0a29	-0.00090804935
147	0xbbad34b3	-0.0052858233
148	0xb9ee3f41	-0.00045442025
149	0x39ae1aee	0.0003320793
150	0x3bb730e1	0.0055905436
151	0xbb6cc7be	-0.0036129798
152	0xba07a53f	-0.0005174465
153	0x3b5a53ba	0.0033314065
154	0xba7ac889	-0.0009566625
155	0xbb0542e2	-0.0020334055
156	0x3af5817e	0.0018730608
157	0x3c9e9a45	0.01936067
158	0x3b6c8218	0.0036088284
159	0xbbbeacac	-0.005818924
160	0xbb9325e3	-0.0044906004
161	0x393baf78	0.00017899077
162	0xbb8592d6	-0.004076342
163	0xbb83e01f	-0.00402452
164	0xbc3ddb49	-0.011587926
165	0x39ac2484	0.00032833603
166	0xbc00f0e9	-0.007869937
167	0xba0f6fb2	-0.0005471661
168	0xba8a693d	-0.0010559928
169	0xbb3e69b9	-0.0029054715
170	0x3b8125e9	0.003941287
171	0xb9ae9d05	-0.00033304855
172	0x3aa8e7d8	0.0012886478
173	0x3ada3ba5	0.0016649856
174	0x3b28ed45	0.002577619
175	0x3a011228	0.0004923665
176	0x3a31109e	0.00067544903
177	0xbb8097a4	-0.003924327
178	0x3aaab7d1	0.0013024752
179	0x3a22ea1e	0.0006214696
180	0xb9c6a8fb	-0.00037891403
181	0xbaf4da13	-0.0018680714
182	0xbabfd440	-0.0014635399
183	0xb9926758	-0.00027924287
184	0xbc4175ac	-0.01180784
185	0xbbc17744	-0.00590411
186	0x3b01fcc4	0.0019834498
187	0xba938b23	-0.0011256676
188	0x3afc7f0a	0.0019263935
189	0xb99bd233	-0.00029720514
190	0xbad8bf6f	-0.0016536544
191	0x3a316217	0.00067666307
192	0xbb86df4e	-0.0041159755
193	0xb8245b17	-3.918548e-05
194	0x3aca02b5	0.0015412184
195	0xbb10cf75	-0.002209631
196	0xbb2539d9	-0.0025211482
197	0x3a9c3df2	0.0011920317
198	0xba8c58b3	-0.0010707587
199	0x3c7309f3	0.014833915
200	0x3ac29f67	0.0014848531
201	0x3995571e	0.00028484402
202	0x3b18491b	0.0023236934
203	0xb96c95ca	-0.00022562515
204	0xbabb3c38	-0.0014284914
205	0x38ee93d9	0.00011376263
206	0xbb87448a	-0.0041280435
207	0x3b6d977b	0.003625362
208	0xbbb3152c	-0.0054651704
209	0x3b2e4374	0.0026590498
210	0x39a7d196	0.00032008876
211	0xbb95574e	-0.0045575267
212	0xb920a767	-0.00015321151
213	0xbacb6c5f	-0.0015519968
214	0xbb154373	-0.0022775799
215	0x3a82a588	0.0009967545
216	0x3b0e9590	0.0021756627
217	0x38765ac6	5.873551e-05
218	0xba6d65bf	-0.0009055994
219	0x3a1f3290	0.0006072903
220	0xb90cccc1	-0.00013427717
221	0xbbd4f395	-0.006498764
222	0x3b838ebf	0.0040148194
223	0x39b859fc	0.00035162258
224	0x3b2493b2	0.0025112447
225	0xb9cbf0d4	-0.00038898608
226	0xbb11a7c0	-0.002222523
227	0xbbe7bf7c	-0.0070723873
228	0x3a0b0f90	0.0005304748
229	0x3ab9dc4c	0.0014180033
230	0xb84abe30	-4.833768e-05
231	0xbabf829e	-0.001461107
232	0x39e839eb	0.0004429364
233	0xbae32362	-0.001732927
234	0x3c3a84d4	0.011384208
235	0x3b9cca38	0.0047848485
236	0xbc8cf4d4	-0.017206587
237	0xbb31da81	-0.0027138295
238	0xba16fb56	-0.0005759498
239	0x38c7036c	9.489697e-05
240	0x3c0a4e1e	0.008441476
241	0xbbda61e5	-0.006664502
242	0x38bb6c6e	8.9370515e-05
243	0xbab82426	-0.0014048859
244	0x3aa7b149	0.0012793924
245	0xbad6841d	-0.0016366277
246	0xbaf86aec	-0.0018952764
247	0x39f33874	0.00046390633
248	0xbab156ae	-0.0013529861
249	0x3a490c25	0.0007669351
250	0x3b98909d	0.004655911
251	0x3957149b	0.00020511674
252	0x3ae1fb25	0.0017240985
253	0xbc2ad202	-0.010426046
254	0xba8f9437	-0.0010954206
255	0xb8f82d66	-0.00011834018

predict.predict.1.bias f4 [128]
0	0xbae7e209	-0.0017691265
1	0x3a103fbb	0.00055026606
2	0xbbaaa232	-0.0052073235
3	0xbbb69999	-0.0055725095
4	0x394503e8	0.00018788839
5	0xba21c3c1	-0.0006170832
6	0x3ce4c538	0.027926072
7	0xba65aa5c	-0.0008761042
8	0x3bb5de2a	0.0055501657
9	0xbb163a40	-0.0022922903
10	0x3b23ef34	0.0025014402
11	0x3919b328	0.00014657958
12	0xbc8fe0fd	-0.017563337
13	0xbc98ae54	-0.018637814
14	0x3c46119a	0.0120891575
15	0xbd09a378	-0.03360316
16	0xb8fd6902	-0.00012083539
17	0xbb03c357	-0.0020105445
18	0x3bbd55e2	0.0057780603
19	0xbd5ab117	-0.053391542
20	0x3d3139d7	0.04326805
21	0x3cf1b26f	0.02950403
22	0x3b22ad9a	0.0024822713
23	0xbcaf58ae	-0.02140459
24	0x3c10c14c	0.008835148
25	0xbc51ac53	-0.012797433
26	0x31bc1823	5.474264e-09
27	0xbc960c03	-0.018316275
28	0x3824507f	3.9175615e-05
29	0x3c478356	0.012177309
30	0x3c49f366	0.012326097
31	0x397794fb	0.00023611255
32	0x3c767199	0.015041732
33	0xbcb588cb	-0.022159955
34	0x32b55866	2.1111372e-08
35	0xbb8577a1	-0.004073099
36	0x3ce459eb	0.027874907
37	0x3221de96	9.422044e-09
38	0x3bd12284	0.0063822884
39	0xbb70412e	-0.0036659944
40	0x3a52299d	0.0008017065
41	0x3caa5601	0.020792963
42	0xbbb8d4e0	-0.005640611
43	0xb9ffedf1	-0.0004881467
44	0xb5d6f86c	-1.6016543e-06
45	0x3c9fa86e	0.019489493
46	0x3c92079c	0.017825894
47	0xbc513b4b	-0.012770484
48	0x3afa1bea	0.0019081805
49	0xb422773a	-1.51308e-07
50	0xbcb7bbb7	-0.022428377
51	0x3a00cb93	0.00049131474
52	0x3c3c0c8e	0.011477603
53	0xbcb4dcbb	-0.022077909
54	0x3bb5bf11	0.0055464585
55	0x3b86b18d	0.004110521
56	0xbcb8460e	-0.022494342
57	0xbabd48e2	-0.0014441276
58	0x3ca98381	0.020692589
59	0x3d634088	0.055481464
60	0xbc912eda	-0.017722536
61	0x3d1e55da	0.038656093
62	0xbc01d58b	-0.007924448
63	0xb9b0db3e	-0.00033732684
64	0xbbddd0b4	-0.006769264
65	0x3b0f5983	0.0021873422
66	0x3ca7a095	0.020462314
67	0xbc8381cd	-0.016053105
68	0xbc064a5c	-0.00819644
69	0xbd20655c	-0.039159164
70	0x3a2a8228	0.000650438
71	0x3a6f31aa	0.0009124527
72	0x3ae82346	0.0017710708
73	0xbcaa4eb7	-0.020789487
74	0x3c4c4ca0	0.012469441
75	0x39839615	0.00025098087
76	0x3b2e1c81	0.0026567283
77	0x318c6b4d	4.086735e-09
78	0xbc770a03	-0.015078071
79	0xbce2c71c	-0.027682833
80	0x3c91d313	0.017800843
81	0x3c8a1f0b	0.016860506
82	0xbcbb7dce	-0.022887137
83	0x3d03c071	0.03216595
84	0xbd3b19a2	-0.045678742
85	0xb6900784	-4.2924094e-06
86	0xbbca0cab	-0.006166061
87	0xbb60ca11	-0.0034300128
88	0xbb98debc	-0.004665224
89	0x32f3eb33	2.839588e-08
90	0xbb4bde81	-0.0031107964
91	0x2d9cdf45	1.7834298e-11
92	0xb73b265d	-1.1155001e-05
93	0x393821d7	0.00017560214
94	0x3c6f06e9	0.01458905
95	0x3c2f3b2b	0.010695259
96	0x3d18b5bd	0.037282694
97	0x3ae07e25	0.0017127438
98	0x3cee4d37	0.029089553
99	0x3b181a10	0.0023208894
100	0x3d191872	0.03737683
101	0x2e8b086d	6.322485e-11
102	0xbcb7931b	-0.022409013
103	0x3be57c34	0.0070033316
104	0x3c01eaaa	0.007929483
105	0xbb810910	-0.003937848
106	0x3cb2c3fc	0.021821968
107	0x32b9c352	2.1625656e-08
108	0x3cdc2db6	0.026877265
109	0xbbd90136	-0.006622459
110	0x3ca74c44	0.020422108
111	0xba76bc43	-0.00094122085
112	0xbbea1ace	-0.0071443086
113	0x3c2bc6ef	0.010484441
114	0x3d20b7e2	0.039237864
115	0xbb4b58f7	-0.003102837
116	0x3ca7210c	0.0204015
117	0x3a2523e5	0.0006299599
118	0x394b528b	0.00019390338
119	0x3a0a8f78	0.0005285661
120	0xbd48853d	-0.04895519
121	0xbcb88c5e	-0.02252787
122	0xbd937c98	-0.07201499
123	0x3cfbaf69	0.03072329
124	0xbc51814d	-0.012787175
125	0xbafe8293	-0.0019417576
126	0xb8ae9cd8	-8.326181e-05
127	0x3ca21e2a	0.019789774
