Results/GAT/saved_model/GAT_bst_13.pth (torch, 759481 bytes, 13 tensors)

gnn.gnn_layers.0.gat_conv.attn_l f4 [1, 8, 128]
000000 31 2b 2d bb 21 c5 b2 3a d5 4d 3f 39 ba 26 02 3a
       -0.002642345 0.0013639071 0.00018244174 0.0004964877
000010 c8 1b 7e 3a 14 7c ad 3a 53 45 23 3c cf 0b 22 3c
       0.0009693471 0.0013235831 0.009965259 0.009890511
000020 53 07 9c 37 ff a4 65 3b ed cf a4 37 37 18 07 bc
       1.860006e-05 0.0035040972 1.9647146e-05 -0.008245519
000030 c5 f4 26 3b a6 29 17 b9 24 55 0e 3a e2 95 a6 ba
       0.0025475484 -0.00014415997 0.0005429557 -0.0012709463
000040 98 73 9d b8 1b 8d 64 39 a9 17 98 3b 43 05 6e 39
       -7.5078744e-05 0.0002179634 0.0046414924 0.00022699409
000050 62 16 93 38 71 89 bb ba 2f 77 f2 3a e6 15 9e 3a
       7.013675e-05 -0.0014307929 0.0018498654 0.001206097
000060 80 57 9e 3a b6 96 ed 3a 9a 99 62 3a 49 8a 08 3b
       0.001208052 0.001812658 0.0008644104 0.0020834378
000070 99 b8 eb 3b 32 10 d3 3b 98 8e 69 bb 25 7a 1a 3c
       0.0071936366 0.0064411396 -0.003563797 0.009428536
000080 af 8c 15 ba 83 ca 26 3b 4c f0 e1 b8 0b e8 ad bb
       -0.00057048624 0.0025450296 -0.00010773595 -0.0053072027
000090 85 e0 10 3c 30 91 82 b9 45 85 0d ba 34 90 c1 bb
       0.008842592 -0.00024903705 -0.0005398582 -0.005907083
0000a0 d2 f9 0d 3b db ab 7b bb cb 05 88 39 b8 21 6e b9
       0.0021663797 -0.0038401994 0.00025944258 -0.0002271001
0000b0 04 85 b8 3b 4c 7d 2b 3c 1c 91 10 3c 8e 8e 90 ba
       0.005631091 0.010466885 0.008823659 -0.0011028813
0000c0 d0 25 62 3b a3 0b f1 3a 85 6d c0 ba ef 0d a5 3a
       0.0034507401 0.0018390309 -0.0014681077 0.0012592654
0000d0 db 99 a1 b9 d0 11 c3 39 b9 27 c5 3b da 28 a8 3b
       -0.00030822944 0.0003720657 0.006016698 0.005131823
0000e0 d8 5a f1 3a ab 20 fb 3a 84 72 af 3b 7f 94 2e 3b
       0.0018413914 0.0019159516 0.0053542275 0.0026638804
0000f0 83 d5 dd ba 40 e5 c5 ba 57 c6 1c 3a b1 f3 04 39
       -0.0016924593 -0.0015098229 0.00059804827 0.00012679283
000100 2e ad c6 3b 2a a9 8d 3b 09 cd ad bb 05 2d f5 3a
       0.006063125 0.0043231444 -0.005303983 0.0018705433
000110 fd c8 3c 3c 35 99 9a b9 6f a9 b2 3a 62 01 ce ba
       0.011522529 -0.00029487317 0.0013630817 -0.0015716965
000120 a5 87 e1 ba ab 05 2c 3a 13 41 43 bb e2 d4 c0 3b
       -0.0017206563 0.0006562124 -0.0029793426 0.0058847526
000130 33 0a 64 3b 35 d5 f5 ba 27 db 58 3b f3 d8 5b 3b
       0.0034796118 -0.0018755557 0.003308961 0.003354606
000140 34 3f 3d b9 ae 1f 3a bb f9 e6 df ba cc 9a db 3a
       -0.0001804799 -0.002840023 -0.0017082385 0.0016754507
000150 61 c6 05 3a b0 84 8f 3a 46 22 74 3a 56 99 f5 b7
       0.0005103108 0.0010949578 0.00093129685 -2.9277679e-05
000160 3c 4f ee ba ce a3 e9 b7 b5 7d d7 3b fa 93 16 3b
       -0.0018181573 -2.7852042e-05 0.0065762647 0.0022976384
000170 8f 03 83 3b 91 34 9f bb a2 19 b9 3b 1f 57 4e bb
       0.003998227 -0.0048585613 0.0056488076 -0.0031485034
000180 64 47 c8 ba e5 c5 62 3a 64 7b 11 39 39 8e 3c ba
       -0.0015280065 0.00086507044 0.00013874244 -0.00071928237
000190 aa 88 eb 3a a4 a6 cd 3b 50 0f ad 3b 1d d2 90 b9
       0.0017969806 0.0062759686 0.0052813664 -0.00027622367
0001a0 4a 47 45 3a 35 9d b2 bb d1 d7 13 3b 8c a4 08 3b
       0.00075255765 -0.0054508694 0.0022559057 0.002085003
0001b0 d0 f4 dd 3b 0a 22 27 3c e0 c5 13 3a 73 1a 5d 3b
       0.0067735687 0.010200987 0.00056370907 0.0033737689
0001c0 73 37 bc 3a 0d d6 3e bb d2 ba 8e bb 2f 1b fe 3b
       0.0014359787 -0.0029119283 -0.004355767 0.0077547054
0001d0 bb b7 37 bc 48 2d 0b 3b a3 08 d4 3a 6a 10 a7 ba
       -0.011213238 0.0021236707 0.001617689 -0.0012745981
0001e0 16 8c 4a bb ca d1 0b bb d9 ea 04 bb 2f 62 89 ba
       -0.0030906252 -0.002133476 -0.0020281582 -0.0010481531
0001f0 d2 f4 84 38 6d 44 65 39 8e d3 0a 39 ba a5 99 3b
       6.339852e-05 0.00021864632 0.00013239516 0.0046889456
000200 00 b3 8d 3b 07 53 b8 3a 94 0b be 39 88 bb 8d bb
       0.004324317 0.001406283 0.0003624825 -0.004325334
000210 92 72 12 3b a6 b1 66 ba d1 2b 5c 3a 7a 5f c2 3b
       0.0022346121 -0.00088002754 0.0008398863 0.005931792
000220 9f 06 28 3a d9 c8 9f 3a 72 18 97 39 7a 83 b4 3a
       0.0006409678 0.0012190595 0.00028819178 0.0013772093
000230 b1 5f 06 3b 9c 4c a0 38 f3 db 86 b8 d8 8b 49 bb
       0.0020503814 7.643664e-05 -6.430587e-05 -0.003075352
000240 c3 27 e6 b9 45 57 95 ba 4b 76 e2 ba 42 b2 ca 36
       -0.00043898643 -0.0011393806 -0.0017277686 6.040821e-06
000250 ff e9 16 ba 2b e8 1f bb f9 b4 7f 3b 4a 80 1d 3a
       -0.0005756914 -0.0024399858 0.003901778 0.0006008191
000260 6d 9c 1b 3b 21 3b 8f ba a2 ed dc 3a 51 7a 1c 3b
       0.002374436 -0.0010927656 0.0016855488 0.0023876617
000270 2d 89 0c 3c fe 40 89 3b b5 1b fb ba 2f bc 54 3c
       0.008577627 0.004188656 -0.0019158038 0.01298432
000280 c0 b6 7e bb a6 9e 06 3b fa d2 db 3a a9 67 e6 3b
       -0.0038866252 0.002054134 0.001677125 0.0070314
000290 28 fc 40 3c a5 f1 48 3a 48 40 a6 ba b1 57 fb 3a
       0.011778869 0.00076654024 -0.0012683952 0.0019175914
0002a0 89 87 39 3b 67 62 4e bb c5 a2 73 37 1f b0 e5 b9
       0.0028309545 -0.0031491758 1.4521826e-05 -0.00043809504
0002b0 a3 2b e1 bb 9e 14 a4 3b 7f c4 d0 3b fc 10 9a ba
       -0.006871657 0.0050073406 0.0063710804 -0.0011754329
0002c0 7a bd 88 3b b4 ba 2c 3b f6 68 8c bb 99 1d 03 3b
       0.004172978 0.00263564 -0.0042849733 0.0020006655
0002d0 2d a7 20 ba e3 76 fe 3a 3f 2b 24 3c 06 52 ed 3a
       -0.0006128427 0.0019414093 0.010020076 0.001810611
0002e0 40 85 20 3c cc d6 c9 3a 67 17 73 3b 2c 2e af 3b
       0.009797394 0.0015399097 0.0037092806 0.0053460803
0002f0 c6 89 85 3c f3 19 a2 3b e9 28 35 3b a3 d4 47 3b
       0.016301047 0.004946941 0.0027642793 0.0030491732
000300 60 f9 b5 ba b2 b4 07 3b ef 35 a8 bb b4 c3 5d b9
       -0.0013883524 0.0020707068 -0.0051333825 -0.00021149107
000310 c4 b6 16 3c 98 d7 3b 3a b0 ec 01 3b 42 83 d1 b9
       0.009198848 0.000716561 0.0019824915 -0.0003996138
000320 73 ef a6 ba 3d c2 ce 39 da c2 e9 bb ba 9f 7f ba
       -0.0012736156 0.000394361 -0.007133824 -0.0009751279
000330 f9 75 9b 3b 0c fa 01 bb 4f 30 38 3b 99 f3 48 ba
       0.004744288 -0.0019832877 0.0028104966 -0.00076656934
000340 90 b5 a5 b7 e4 fe be bb cc 98 3e bb e1 3d 00 3a
       -1.975408e-05 -0.005828725 -0.0029082773 0.0004892033
000350 ab ed 4e ba bb 96 ab 3a a3 6b 15 3b 00 58 e6 38
       -0.00078936917 0.0013091186 0.0022799752 0.00010983646
000360 27 00 3f bb 00 8e 97 3b 6b 94 c2 39 69 e7 1f 3a
       -0.0029144378 0.004625082 0.00037113143 0.00060998515
000370 5b 5c 62 3b b9 39 92 bb 88 01 f0 3b 08 ba a0 ba
       0.0034539911 -0.0044624475 0.0073244013 -0.0012262473
000380 38 9a 12 ba d3 03 1c b8 1f 9f bf 39 ea 48 a8 ba
       -0.00055924384 -3.719686e-05 0.00036548913 -0.0012839113
000390 bb 15 f8 3a cc e4 e7 3b e8 78 38 3c f1 71 1f bc
       0.0018927375 0.0070768353 0.011259295 -0.009731756
0003a0 2c f3 75 3a f7 68 40 b9 29 17 86 3a c1 8b 3c ba
       0.0009382244 -0.0001834965 0.0010230291 -0.0007192456
0003b0 73 f9 38 ba 4d 35 e6 39 8d 34 01 bb 6d 08 1a 3a
       -0.0007056214 0.0004390873 -0.001971516 0.00058758893
0003c0 00 c9 db 3a d8 bb 71 bb 43 03 a2 bb 87 73 c5 3b
       0.0016768277 -0.0036885645 -0.0049442365 0.006025735
0003d0 7f c4 6b ba 01 6a fd 3a 1e 0d 05 3b ba 15 fd bb
       -0.0008993819 0.001933396 0.0020302008 -0.0077235373
0003e0 18 fb b7 ba dc 56 ea bb fb 06 61 ba 26 18 56 bb
       -0.0014036624 -0.0071514677 -0.0008584109 -0.0032668202
0003f0 69 34 80 b9 7d ae fe 39 e8 21 21 bb c3 08 95 ba
       -0.0002445311 0.0004857666 -0.002458686 -0.0011370409

gnn.gnn_layers.0.gat_conv.attn_r f4 [1, 8, 128]
000000 37 6d b6 bb 94 29 92 ba 0e 18 37 3a a0 1d 36 3c
       -0.0055672186 -0.0011151307 0.00069844804 0.011115462
000010 c5 45 17 3a 25 ea 95 3b 61 1d cb b9 31 4a 15 3b
       0.00057705893 0.0045750313 -0.00038741066 0.0022779817
000020 3c de 76 38 b7 af 2b 3b 1b 47 da 39 c4 5d b5 3b
       5.8857942e-05 0.0026197264 0.00041633178 0.0055348594
000030 57 ef 49 ba 3e 87 c1 ba f3 24 61 ba cb 21 fa ba
       -0.0007703206 -0.0014765037 -0.0008588575 -0.0019083557
000040 35 99 30 3b 64 0b 1a 3a 54 1e 41 bb 88 82 9a b9
       0.0026946787 0.0005876331 -0.002946754 -0.00029470422
000050 43 76 a0 bb eb 97 db ba 54 40 bd 3a a9 ba 34 3b
       -0.0048969104 -0.0016753649 0.0014438727 0.0027577078
000060 5c 9b ff 3a 21 5e 90 3b 29 c0 3d bb ac c1 3f bb
       0.0019501257 0.0044057523 -0.0028953648 -0.0029259725
000070 8d 81 fc ba 66 da 06 3b 58 f3 be 3a ad 72 fa 3b
       -0.0019264683 0.0020576953 0.0014568372 0.007643065
000080 d9 a0 8f bb 84 d8 db 3a 2f 5e d3 39 99 9c c0 3b
       -0.004383188 0.0016772901 0.00040315228 0.005878043
000090 92 0e e9 3b c8 19 99 bb 29 b6 c8 ba 54 bf 48 bb
       0.0071123326 -0.004672263 -0.0015313077 -0.0030631619
0000a0 5d 67 14 bb 56 9e 9b 3a 65 2d 2f bb db 07 f1 b9
       -0.0022644617 0.0011872749 -0.0026729938 -0.00045972955
0000b0 d9 93 4f bb 7c c4 ef 39 64 0a 2f ba 84 86 02 3b
       -0.0031673817 0.00045732025 -0.00066772685 0.0019916603
0000c0 c4 33 b1 3b 20 49 cc 3b e3 95 b8 b9 1f 2c 0c 3b
       0.0054077823 0.006234303 -0.0003520689 0.0021388603
0000d0 ae 77 3f bb 43 43 47 3a 60 c7 b1 3b ef 02 6c bb
       -0.0029215622 0.00076012703 0.0054253787 -0.003601249
0000e0 f6 11 44 3b 5d f6 4e 3b 29 0c a9 3b 55 9f 16 3b
       0.0029917932 0.003157995 0.0051589203 0.0022983153
0000f0 f3 a5 a4 3b 64 e9 f3 bb 3a 0e fa b7 55 44 21 3b
       0.0050246655 -0.007443594 -2.9808947e-05 0.002460738
000100 72 3f fe 3a 4b 76 13 3b b5 91 2f bb d4 10 a6 3b
       0.001939757 0.0022500928 -0.002678973 0.005067924
000110 54 c8 61 3c e7 5c e9 ba 28 79 46 3b 1d 8e e5 39
       0.013780672 -0.0017804176 0.0030284617 0.00043784166
000120 f2 72 2f bb ec 8e 2c 3a 66 d2 1b bc 83 13 37 bb
       -0.0026771394 0.00065825763 -0.009510612 -0.0027935214
000130 b2 38 85 3b 2c 22 5a bb e7 54 5e ba d9 f2 d1 38
       0.0040655965 -0.0033284528 -0.00084812794 0.000100111305
000140 84 77 8a b9 87 c4 95 3a 10 9e 2d 3b 90 a1 68 3b
       -0.00026410457 0.0011426368 0.0026491918 0.003549669
000150 c3 43 25 bb 9f 53 da 3a 6f 9b 4f 3b b7 11 7a b9
       -0.002521739 0.0016657001 0.003167834 -0.00023848457
000160 04 01 35 bb c0 25 95 bb 01 2b f8 ba 9b 73 9d 3b
       -0.0027619014 -0.0045516193 -0.0018933715 0.004805041
000170 39 a8 98 b9 54 cf 12 bc ac 0c 52 3b a4 38 85 3b
       -0.00029117035 -0.008960564 0.003205101 0.00406559
000180 1c f3 b7 3a 5f f9 27 3b f9 77 13 3a 6a 50 36 ba
       0.0014034244 0.0025630814 0.00056254823 -0.00069547317
000190 a2 6e 1c 3b 96 18 c5 3b e0 dd 0b 3c 91 4c 8d 3b
       0.0023869653 0.0060148938 0.008536786 0.004312106
0001a0 39 e8 d0 3a 46 8c 85 3b ef 08 e4 b9 62 d0 17 bb
       0.0015938348 0.00407556 -0.00043494205 -0.0023164977
0001b0 3e 73 39 bc 76 4d 63 3b 07 5b a7 ba 10 e9 ee b9
       -0.01131898 0.0034683621 -0.0012768217 -0.00045568543
0001c0 fd c3 c6 3b d9 93 87 3a 7b 01 20 bb a6 30 77 ba
       0.006065844 0.0010343745 -0.0024414945 -0.00094295514
0001d0 f2 a9 cc bb c2 e2 6e 3b 97 32 a2 b9 11 e4 77 ba
       -0.006245845 0.0036451076 -0.0003093674 -0.0009456287
0001e0 d3 8f d4 b9 1c ea 86 3b 8b 63 8b bb e9 fe 9d bb
       -0.00040542948 0.0041172635 -0.00425381 -0.0048216474
0001f0 8a 8a e7 b9 86 16 c0 39 8a 28 8e b8 62 f9 41 bb
       -0.00044162973 0.00036637875 -6.7786386e-05 -0.0029598107
000200 42 e4 88 bb d5 88 84 3a 97 5d 2f 39 0d 6b 8d 3b
       -0.004177601 0.001011158 0.00016724165 0.00431574
000210 92 de 60 3a b1 2c e3 37 e7 74 39 bb f6 c2 b8 bb
       0.00085780874 2.708132e-05 -0.002829844 -0.0056384755
000220 4e 22 b1 b9 e3 81 4b ba fa 80 9c 39 39 be 52 3a
       -0.0003378563 -0.000776319 0.00029850734 0.00080392096
000230 5b a7 29 b9 0a 0d 86 38 fe a5 68 ba ca 95 53 ba
       -0.0001617944 6.3920466e-05 -0.00088748324 -0.00080713315
000240 b2 41 9c 3a bf 61 df 39 3b ae 7b bb 33 81 b3 b9
       0.0011921434 0.000426067 -0.003840341 -0.000342378
000250 fc 23 87 bb 7d b6 b1 b9 cc 4e 3f 3a bf a5 50 39
       -0.0041241627 -0.00033896035 0.00072978134 0.00019898171
000260 fc da 68 3a 55 8e 04 3a 5d b3 6d bb 14 37 18 bb
       0.0008882729 0.00050566095 -0.003627024 -0.0023226188
000270 5a 82 8e bb e9 76 3d bb 40 95 59 3b e8 ad 6a 3a
       -0.004349035 -0.0028909987 0.0033200532 0.00089523057
000280 e6 8b 98 bb bd e7 22 ba 46 f9 3a b9 ca 15 9d 3b
       -0.004655349 -0.0006214341 -0.00017831204 0.004793857
000290 31 c8 c8 3a ce a3 84 bb 40 19 e2 b9 df 8b e6 3b
       0.0015318451 -0.0040478474 -0.00043124892 0.007035717
0002a0 27 7d 13 bb 49 46 ff b9 a5 07 a3 3a c6 7c fc b8
       -0.0022505017 -0.00048689757 0.0012438191 -0.00012039537
0002b0 b4 b5 8e ba c8 35 e9 bb 3e ec a5 bb a3 34 5c 3a
       -0.0010887892 -0.007117007 -0.0050635627 0.00084001775
0002c0 76 89 10 3b 84 26 66 3b 2c f0 96 39 17 55 b5 3a
       0.002205459 0.0035118172 0.00028789171 0.0013834563
0002d0 de 1c 49 ba 9b b8 a1 3a df 75 b1 b8 74 31 aa bb
       -0.0007671843 0.0012338342 -8.461973e-05 -0.0051938836
0002e0 9b a2 96 3b 58 9e 4d 3a a0 09 66 39 20 20 4b 3a
       0.004597021 0.00078437245 0.00021938095 0.00077486224
0002f0 f7 ee 87 3b 63 a1 02 3b 3a 28 80 b7 e3 65 b3 3a
       0.00414836 0.001993262 -1.5277521e-05 0.0013686981
000300 82 62 2d bb c6 8d e5 3a 90 34 de ba 38 e3 20 3b
       -0.002645642 0.0017513565 -0.0016952921 0.0024549495
000310 db 32 9b 35 97 47 a8 ba 7e c7 53 39 a0 1c 2b 3a
       1.1563201e-06 -0.0012838718 0.00020196845 0.0006527398
000320 3a fc 87 b9 0a 4f 1f 37 f3 4f c5 bb 4f b9 e7 bb
       -0.0002593713 9.495541e-06 -0.0060214936 -0.007071651
000330 79 91 d9 39 df bd 5f ba fd 53 05 bb eb 03 2d bb
       0.0004149785 -0.0008535068 -0.002034425 -0.002640004
000340 55 19 27 b8 3d 12 d0 ba 6c 64 a3 3a 7e e9 b2 3a
       -3.9839495e-05 -0.0015874576 0.0012465841 0.0013649908
000350 3a 15 0f bb 3b 7d 12 39 ac cd 50 3b e0 f0 e8 b8
       -0.002183272 0.00013970297 0.0031860871 -0.000111074885
000360 a8 2a bf b9 3c 78 78 39 d4 14 12 bb a2 0e d9 3a
       -0.0003646214 0.00023695914 -0.0022290247 0.0016560147
000370 05 61 4d bb 28 33 40 bb 89 8b 32 3b f8 16 38 3b
       -0.0031338346 -0.0029327367 0.0027243814 0.0028089862
000380 2f 45 10 bb 4d 5c bf 3a 87 7d fa 38 a8 1b bc b9
       -0.0022013893 0.0014599651 0.0001194431 -0.0003587876
000390 91 62 cd 39 7d 3f 8c 3a 8a 85 c7 3a cb ad 0e ba
       0.00039174085 0.0010700073 0.0015222293 -0.0005442767
0003a0 b1 88 12 3a 51 15 46 3b 25 89 82 ba 72 92 3e bb
       0.00055898266 0.0030225108 -0.0009959085 -0.0029078987
0003b0 04 08 0c bc c3 5e 87 b9 68 fb 09 bb 6d f1 f9 39
       -0.008546833 -0.0002581981 -0.002105439 0.00047672857
0003c0 64 8e 03 3b 76 f2 1e 3b 82 aa 3a 3a 3a ea 30 bb
       0.0020073885 0.0024253405 0.00071207446 -0.0026995079
0003d0 ac 86 bf 3a f7 c1 30 ba 94 2d 90 38 7b 9d ce ba
       0.0014612279 -0.000674277 6.874945e-05 -0.0015763486
0003e0 25 00 3c 3b ce c3 65 3b 45 2f 5e 39 b9 50 9c bb
       0.002868661 0.0035059336 0.00021189179 -0.004770365
0003f0 aa 78 95 b9 6e 99 8f b9 75 a5 96 3a 7d f9 d8 bb
       -0.00028509396 -0.000273894 0.0011493402 -0.006621538

gnn.gnn_layers.0.gat_conv.bias f4 [1024]
000000 1f e5 88 3c a3 2b 15 3b ba e1 1d b9 9c 87 84 bc
       0.016710816 0.0022761605 -0.00015056776 -0.016177945
000010 f1 ec 75 bb ed cd 82 bb fa 10 df bc 89 22 81 bc
       -0.0037525261 -0.0039918334 -0.027229775 -0.015763538
000020 4a 45 43 bb 1d 4f 4e bc 58 24 66 ba 22 03 98 bd
       -0.0029795938 -0.012592104 -0.00087792194 -0.074224725
000030 ab 1d 13 3b 3b 22 58 3b 1f 56 c2 b9 29 25 54 3c
       0.0022448103 0.0032979387 -0.0003706673 0.012948313
000040 d4 39 cb 3a cf e0 fd bb c6 1f c2 3a 15 6e 58 3b
       0.0015504905 -0.0077477465 0.0014810495 0.0033024598
000050 33 4b 02 3c 03 3f c6 3b ce d9 4c bc d5 1d 25 bc
       0.007952499 0.006049992 -0.012503101 -0.010077913
000060 4e 3b 03 bc f3 ab d7 bc e1 54 9d 3b 49 24 b2 3a
       -0.008009745 -0.026327109 0.004801378 0.0013591136
000070 81 7d 56 bb b6 19 85 bc b2 16 ac bd 72 a5 5f bc
       -0.0032728615 -0.016247611 -0.08402766 -0.013650285
000080 44 c7 bd 3c 41 f6 4b bc e4 eb 9e 3a a3 71 79 bd
       0.023166306 -0.012448848 0.0012124744 -0.060899388
000090 d3 3d a2 bc 43 8d 51 3c 91 28 c5 3b 60 64 a0 bd
       -0.01980487 0.012790027 0.006016799 -0.07831645
0000a0 a7 fb 72 bd 3b 14 06 3b 8a e8 d1 3b 61 ce bd 3a
       -0.059322026 0.0020458836 0.0064058946 0.0014481061
0000b0 58 52 11 bc 54 b2 75 3c bb 1a 41 bb 02 e2 35 bc
       -0.00886973 0.01499613 -0.0029465395 -0.011101248
0000c0 64 22 f7 bc a4 5b 22 bc 7a 2a 55 3c eb bc d9 bb
       -0.030167766 -0.009909544 0.0130106155 -0.006644835
0000d0 b9 9e 04 3b 81 7d aa bb 31 69 a5 bc fd 53 5e 3c
       0.0020236208 -0.0052029495 -0.02019176 0.013569829
0000e0 83 c8 82 bb 08 d1 49 bc 41 6a fa bc ea 31 26 bb
       -0.003991188 -0.012317903 -0.030568244 -0.002535934
0000f0 4f a9 71 bd 4d 75 b1 bd 66 0e ef 39 bf ef f0 bb
       -0.058999356 -0.086649515 0.0004559636 -0.0073527987
000100 ff a5 fb bc 93 58 18 bd 30 5d ee ba b1 cd 84 bc
       -0.030718802 -0.037193846 -0.0018185731 -0.016211363
000110 db 2a f6 bc fe df 10 3c ec 4a 69 bb 0e 3e 8f ba
       -0.030049732 0.008842466 -0.0035597635 -0.0010928528
000120 8b cd 13 3c 7d fd 6a bb fb 40 0d 3d 75 d5 ae 3c
       0.009021173 -0.0035856657 0.0344858 0.021342019
000130 20 61 ae bc 2c c4 23 3c dd 02 c0 bb c8 1c 13 bd
       -0.021286547 0.0099955015 -0.0058597163 -0.03591612
000140 f0 4e 6a b9 62 a0 95 39 01 99 e6 3b eb 36 1e bc
       -0.00022345386 0.0002853899 0.0070372825 -0.009656648
000150 70 78 5d b9 2a 1d 82 bb 4d 96 14 bd 6b ef 21 ba
       -0.00021121069 -0.003970762 -0.03627615 -0.00061773387
000160 4c 8b 7b 3c c0 b0 8d bc 16 9d e7 bc 44 7e 56 bc
       0.015353035 -0.017296195 -0.028273147 -0.0130916275
000170 21 03 19 bb 6a 77 7d 3c 8f a6 d0 bc 96 2c bf bc
       -0.0023347812 0.015470365 -0.025470046 -0.02333669
000180 d7 b9 13 bb 84 c0 9e bb 86 2f e9 ba b2 2d 2d 3b
       -0.002254119 -0.004844727 -0.0017790652 0.0026424942
000190 a7 21 cd bb f7 84 a9 ba 1c 5d 2f bd c8 64 5d bc
       -0.006260115 -0.0012933303 -0.042813405 -0.013512798
0001a0 71 60 d0 bb 5e 6b c6 3b f3 ea c7 3a b1 d0 25 3c
       -0.006359153 0.0060552796 0.0015252515 0.010120557
0001b0 4c 76 5c 3c 79 d9 6d bb d3 be c1 3c c2 9e dc bc
       0.013455939 -0.0036292954 0.023650562 -0.02693117
0001c0 80 3d 43 bc d6 fd dc 3a 76 42 0d 3b 17 0b c0 ba
       -0.011916518 0.0016860317 0.0021554506 -0.0014651743
0001d0 4d 83 15 bd af 46 fc bb e7 2a 52 3b 28 b0 dd bb
       -0.03650217 -0.007698856 0.0032069029 -0.006765384
0001e0 52 84 d9 3b 60 ef db 3c c8 f3 c2 3b 80 85 51 3d
       0.0066380883 0.026847541 0.005949471 0.051152706
0001f0 ae 37 a5 3a d1 90 b8 39 5e 39 01 3a 3e 2d 67 3c
       0.0012605095 0.00035203111 0.0004929508 0.014109908
000200 1f e5 88 3c a3 2b 15 3b ba e1 1d b9 9c 87 84 bc
       0.016710816 0.0022761605 -0.00015056776 -0.016177945
000210 f1 ec 75 bb ed cd 82 bb fa 10 df bc 89 22 81 bc
       -0.0037525261 -0.0039918334 -0.027229775 -0.015763538
000220 4a 45 43 bb 1d 4f 4e bc 58 24 66 ba 22 03 98 bd
       -0.0029795938 -0.012592104 -0.00087792194 -0.074224725
000230 ab 1d 13 3b 3b 22 58 3b 1f 56 c2 b9 29 25 54 3c
       0.0022448103 0.0032979387 -0.0003706673 0.012948313
000240 d4 39 cb 3a cf e0 fd bb c6 1f c2 3a 15 6e 58 3b
       0.0015504905 -0.0077477465 0.0014810495 0.0033024598
000250 33 4b 02 3c 03 3f c6 3b ce d9 4c bc d5 1d 25 bc
       0.007952499 0.006049992 -0.012503101 -0.010077913
000260 4e 3b 03 bc f3 ab d7 bc e1 54 9d 3b 49 24 b2 3a
       -0.008009745 -0.026327109 0.004801378 0.0013591136
000270 81 7d 56 bb b6 19 85 bc b2 16 ac bd 72 a5 5f bc
       -0.0032728615 -0.016247611 -0.08402766 -0.013650285
000280 44 c7 bd 3c 41 f6 4b bc e4 eb 9e 3a a3 71 79 bd
       0.023166306 -0.012448848 0.0012124744 -0.060899388
000290 d3 3d a2 bc 43 8d 51 3c 91 28 c5 3b 60 64 a0 bd
       -0.01980487 0.012790027 0.006016799 -0.07831645
0002a0 a7 fb 72 bd 3b 14 06 3b 8a e8 d1 3b 61 ce bd 3a
       -0.059322026 0.0020458836 0.0064058946 0.0014481061
0002b0 58 52 11 bc 54 b2 75 3c bb 1a 41 bb 02 e2 35 bc
       -0.00886973 0.01499613 -0.0029465395 -0.011101248
0002c0 64 22 f7 bc a4 5b 22 bc 7a 2a 55 3c eb bc d9 bb
       -0.030167766 -0.009909544 0.0130106155 -0.006644835
0002d0 b9 9e 04 3b 81 7d aa bb 31 69 a5 bc fd 53 5e 3c
       0.0020236208 -0.0052029495 -0.02019176 0.013569829
0002e0 83 c8 82 bb 08 d1 49 bc 41 6a fa bc ea 31 26 bb
       -0.003991188 -0.012317903 -0.030568244 -0.002535934
0002f0 4f a9 71 bd 4d 75 b1 bd 66 0e ef 39 bf ef f0 bb
       -0.058999356 -0.086649515 0.0004559636 -0.0073527987
000300 ff a5 fb bc 93 58 18 bd 30 5d ee ba b1 cd 84 bc
       -0.030718802 -0.037193846 -0.0018185731 -0.016211363
000310 db 2a f6 bc fe df 10 3c ec 4a 69 bb 0e 3e 8f ba
       -0.030049732 0.008842466 -0.0035597635 -0.0010928528
000320 8b cd 13 3c 7d fd 6a bb fb 40 0d 3d 75 d5 ae 3c
       0.009021173 -0.0035856657 0.0344858 0.021342019
000330 20 61 ae bc 2c c4 23 3c dd 02 c0 bb c8 1c 13 bd
       -0.021286547 0.0099955015 -0.0058597163 -0.03591612
000340 f0 4e 6a b9 62 a0 95 39 01 99 e6 3b eb 36 1e bc
       -0.00022345386 0.0002853899 0.0070372825 -0.009656648
000350 70 78 5d b9 2a 1d 82 bb 4d 96 14 bd 6b ef 21 ba
       -0.00021121069 -0.003970762 -0.03627615 -0.00061773387
000360 4c 8b 7b 3c c0 b0 8d bc 16 9d e7 bc 44 7e 56 bc
       0.015353035 -0.017296195 -0.028273147 -0.0130916275
000370 21 03 19 bb 6a 77 7d 3c 8f a6 d0 bc 96 2c bf bc
       -0.0023347812 0.015470365 -0.025470046 -0.02333669
000380 d7 b9 13 bb 84 c0 9e bb 86 2f e9 ba b2 2d 2d 3b
       -0.002254119 -0.004844727 -0.0017790652 0.0026424942
000390 a7 21 cd bb f7 84 a9 ba 1c 5d 2f bd c8 64 5d bc
       -0.006260115 -0.0012933303 -0.042813405 -0.013512798
0003a0 71 60 d0 bb 5e 6b c6 3b f3 ea c7 3a b1 d0 25 3c
       -0.006359153 0.0060552796 0.0015252515 0.010120557
0003b0 4c 76 5c 3c 79 d9 6d bb d3 be c1 3c c2 9e dc bc
       0.013455939 -0.0036292954 0.023650562 -0.02693117
0003c0 80 3d 43 bc d6 fd dc 3a 76 42 0d 3b 17 0b c0 ba
       -0.011916518 0.0016860317 0.0021554506 -0.0014651743
0003d0 4d 83 15 bd af 46 fc bb e7 2a 52 3b 28 b0 dd bb
       -0.03650217 -0.007698856 0.0032069029 -0.006765384
0003e0 52 84 d9 3b 60 ef db 3c c8 f3 c2 3b 80 85 51 3d
       0.0066380883 0.026847541 0.005949471 0.051152706
0003f0 ae 37 a5 3a d1 90 b8 39 5e 39 01 3a 3e 2d 67 3c
       0.0012605095 0.00035203111 0.0004929508 0.014109908

gnn.gnn_layers.0.gat_conv.fc.weight f4 [1024, 74]
000000 0d 3e dc 3c 53 3c 8c 3c 6e 9f 24 3b a8 e0 9c 3c
       0.026885057 0.017118609 0.0025119442 0.019150093
000010 de bb b3 bb 21 04 ef 3b da 1b 99 3a 2b 10 06 b9
       -0.005485042 0.0072941934 0.0011681274 -0.00012785259
000020 52 98 84 b8 1d 34 52 b6 13 0c 00 80 82 27 00 00
       -6.322622e-05 -3.1322772e-06 -4.331e-42 1.4173e-41
000030 72 33 00 00 24 05 00 80 47 4f 8c a9 07 b6 ca 3a
       1.8455e-41 -1.844e-42 -6.2310014e-14 0.0015465625
000040 4c 0c 00 00 06 1b 00 00 65 0c 00 80 44 0d 00 80
       4.411e-42 9.694e-42 -4.446e-42 -4.759e-42
000050 2d 1b 00 80 29 0a 00 80 85 ea ee 39 94 08 00 00
       -9.749e-42 -3.645e-42 0.00045569628 3.077e-42
000060 eb 0c 00 00 30 1d 00 00 3a bf 7c a4 70 0e 00 00
       4.634e-42 1.047e-41 -5.4805765e-17 5.179e-42
000070 86 f3 11 a7 b0 19 53 39 0c 43 28 30 46 0c 00 00
       -2.0254807e-15 0.00020132097 6.1213323e-10 4.403e-42
000080 45 03 00 00 68 13 00 80 4f 0b 00 80 2e 3f 00 80
       1.173e-42 -6.962e-42 -4.057e-42 -2.2665e-41
000090 e0 3c 00 80 d5 30 00 80 77 1d 00 80 2e 13 00 00
       -2.1838e-41 -1.7518e-41 -1.057e-41 6.88e-42
0000a0 9c 13 00 80 1b 04 00 80 92 3c 00 00 66 08 00 80
       -7.035e-42 -1.473e-42 2.1729e-41 -3.013e-42
0000b0 d4 68 1d 3c 60 92 fe 3c dd 44 59 3c a3 aa e5 3b
       0.0096075125 0.031075656 0.013261047 0.007008867
0000c0 8f 0b 00 00 c4 fb ed ba 37 18 00 00 f6 12 00 80
       4.146e-42 -0.0018156697 8.687e-42 -6.802e-42
0000d0 63 40 00 00 81 04 00 00 f9 57 fb 3a 4c 49 25 bc
       2.3098e-41 1.616e-42 0.0019175998 -0.010088276
0000e0 15 20 7b 3d 40 dd 8d 3c 39 0c 00 80 82 02 00 80
       0.061309893 0.017317414 -4.385e-42 -9e-43
0000f0 0b 19 00 00 4a 33 86 3a ad 22 00 80 93 c5 d5 3a
       8.984e-42 0.0010238674 -1.244e-41 0.0016309492
000100 02 44 94 bc 10 3d 84 3d 5f 0c 00 00 9b 43 c1 ba
       -0.018098835 0.06456959 4.438e-42 -0.001474488
000110 9c a3 86 bc 51 95 57 3b 6b 37 a9 bb cd 59 a3 3d
       -0.016435437 0.0032895396 -0.005164077 0.079761125
000120 9d 8f 20 3c ed 0b 00 00 6a 1a 10 ba 59 ed 35 3b
       0.009799865 4.278e-42 -0.00054971 0.0027759878
000130 ab 67 bb 3a 94 9a a4 39 6d 00 be ba e6 9c b7 39
       0.0014297863 0.00031395687 -0.0014495977 0.00035021378
000140 f0 63 58 ba e8 ab 64 3b cd 42 38 b9 d2 14 00 80
       -0.0008254638 0.0034892503 -0.00017572493 -7.469e-42
000150 d4 18 00 80 b8 3a 00 00 71 15 00 80 6d 44 16 80
       -8.907e-42 2.1064e-41 -7.692e-42 -2.044927e-39
000160 83 0c 00 80 e6 6a 04 ba 9a 0f 00 00 d4 05 00 00
       -4.488e-42 -0.00050513295 5.597e-42 2.091e-42
000170 40 09 00 00 28 04 00 00 a5 05 00 00 d3 20 f4 2c
       3.318e-42 1.491e-42 2.025e-42 6.9385413e-12
000180 d2 17 00 80 63 32 2f ab 55 14 00 80 37 0d 00 00
       -8.545e-42 -6.2242415e-13 -7.294e-42 4.74e-42
000190 bd 0c 00 00 c7 32 18 ad 28 1b 00 80 37 b2 0a 39
       4.57e-42 -8.6514745e-12 -9.742e-42 0.00013227096
0001a0 a4 9c 39 36 72 12 00 80 54 12 00 80 1b 05 00 00
       2.7658325e-06 -6.617e-42 -6.575e-42 1.831e-42
0001b0 18 15 00 00 72 18 00 80 84 03 00 00 7d ba 82 a5
       7.567e-42 -8.77e-42 1.261e-42 -2.2677775e-16
0001c0 27 07 00 00 b5 3b 00 80 30 11 00 00 b3 25 00 80
       2.566e-42 -2.1419e-41 6.166e-42 -1.3524e-41
0001d0 f1 07 00 16 7c 01 00 80 e1 36 88 bb b8 3a 83 bb
       1.0342264e-25 -5.32e-43 -0.0041569327 -0.0040048026
0001e0 76 ea 8b bb d2 d3 f1 3a 3f 11 00 80 63 7c ec 39
       -0.0042698933 0.0018449968 -6.187e-42 0.00045106103
0001f0 92 12 00 00 b9 27 00 80 6e 0c 00 80 19 ab ed b2
       6.662e-42 -1.425e-41 -4.459e-42 -2.7668237e-08
000200 92 d7 2a bb 84 f6 e6 39 8a 13 aa 3b d2 d7 b2 bb
       -0.0026068431 0.00044052687 0.0051903175 -0.0054578567
000210 69 18 00 80 fb 06 00 80 a7 04 00 80 27 e4 b6 3a
       -8.757e-42 -2.504e-42 -1.669e-42 0.0013953493
000220 79 1e 00 80 15 34 1d bb 2e 3a d3 bb a3 19 a2 3b
       -1.0932e-41 -0.0023987342 -0.0064461445 0.004946904
000230 9e 15 00 80 a2 9c 81 3a f2 b1 09 bc 1d 98 7d 3b
       -7.755e-42 0.0009888599 -0.008404242 0.0038695403
000240 78 11 23 b9 da df 92 3b 24 47 81 bb 05 0e 00 80
       -0.00015551399 0.0044822516 -0.003945248 -5.029e-42
000250 06 dc 8f b9 56 0c b2 ba 90 09 e2 b9 1c 65 fd b9
       -0.00027439016 -0.0013583999 -0.00043113204 -0.00048331253
000260 b6 2b 4a ba 94 be 91 39 6a a2 5e 39 c5 55 7d ba
       -0.0007712202 0.00027798547 0.00021232074 -0.0009663965
000270 ed 6b 21 38 4e 05 00 00 cd 3e 00 80 00 b0 3e 18
       3.8485905e-05 1.903e-42 -2.2529e-41 2.4645782e-24
000280 97 0d 00 80 ac 11 00 80 13 26 00 80 e9 d9 b1 38
       -4.875e-42 -6.34e-42 -1.3658e-41 8.4806066e-05
000290 23 14 00 00 8c 1c 00 80 2f 05 00 00 99 09 00 00
       7.224e-42 -1.024e-41 1.86e-42 3.443e-42
0002a0 47 41 00 80 73 17 00 00 1c 0f 00 80 c1 09 00 80
       -2.3417e-41 8.412e-42 -5.42e-42 -3.499e-42
0002b0 d3 1c 00 80 f7 02 00 00 73 05 00 80 ae 19 00 00
       -1.034e-41 1.064e-42 -1.955e-42 9.212e-42
0002c0 a7 0f 00 00 70 25 12 38 fb 29 00 00 d9 11 00 00
       5.615e-42 3.484398e-05 1.506e-41 6.403e-42
0002d0 89 01 00 80 24 08 00 00 76 0e 00 00 5a 0c 00 00
       -5.51e-43 2.92e-42 5.188e-42 4.431e-42
0002e0 41 3b 00 00 05 02 00 00 33 16 00 00 44 3f 00 00
       2.1256e-41 7.24e-43 7.964e-42 2.2695e-41
0002f0 a9 14 00 00 e3 d8 da 9e 22 9a b7 9c 99 36 00 00
       7.411e-42 -2.317135e-20 -1.2149767e-21 1.9586e-41
000300 38 ac 9c ba e1 18 8b ba 60 2e 3b ba 87 1c 50 ba
       -0.0011953181 -0.0010612273 -0.00071403943 -0.0007938821
000310 fe 1e 00 80 4a 81 46 39 de 18 00 80 df 17 00 80
       -1.1118e-41 0.00018930915 -8.92e-42 -8.563e-42
000320 d6 1b 00 00 05 11 00 00 9b d0 f0 ba d0 77 18 38
       9.986e-42 6.105e-42 -0.0018372716 3.6351208e-05
000330 b0 72 36 ba 67 fe 8a b9 f7 09 00 00 1e 1f 00 80
       -0.0006959839 -0.00026510956 3.575e-42 -1.1163e-41
000340 91 1c 00 00 88 34 f4 38 7c 00 00 80 70 5e 9e b9
       1.0248e-41 0.000116446114 -1.74e-43 -0.0003020647
000350 8b fe 39 ba 3e 4a 82 b9 0c 0c 00 80 74 d9 01 39
       -0.000709512 -0.00024850847 -4.322e-42 0.00012383406
000360 26 26 03 bb f5 2d c8 ba 80 0e 42 ba d2 5a a0 ba
       -0.0020011752 -0.0015272485 -0.00074026734 -0.0012234098
000370 f7 1c 1b 38 5f 2b 00 00 a9 2f bf bc 57 aa b3 bc
       3.6981855e-05 1.5559e-41 -0.023338156 -0.02193181
000380 b4 3e 0c bc 1b a3 af 39 e3 5b 5b bb 95 a8 70 3b
       -0.008559871 0.00033500124 -0.0033471517 0.0036721576
000390 00 37 55 bb e2 c4 03 bc b5 4d 53 ba 7b 12 00 80
       -0.0032534003 -0.008042546 -0.00080605905 -6.63e-42
0003a0 55 0d 00 00 16 14 00 80 4e 8a 7e 1d 25 3a 00 80
       4.783e-42 -7.205e-42 3.3688122e-21 -2.0858e-41
0003b0 05 21 d5 12 da b4 81 bb 14 23 00 00 b4 12 00 80
       1.345033e-27 -0.0039583268 1.2584e-41 -6.71e-42
0003c0 27 24 00 00 01 0b 00 00 5a 11 00 80 bd 0d 00 00
       1.2969e-41 3.947e-42 -6.225e-42 4.928e-42
0003d0 65 15 00 00 e0 08 00 80 cc 03 00 00 bc 51 00 80
       7.675e-42 -3.184e-42 1.362e-42 -2.9321e-41
0003e0 55 27 00 80 4e 4b 00 80 3b 10 00 00 7a 7a 50 3a
       -1.411e-41 -2.7014e-41 5.822e-42 0.0007952821
0003f0 87 0a 00 00 a6 08 00 80 8e 0f 00 00 64 20 00 80
       3.776e-42 -3.102e-42 5.58e-42 -1.162e-41

gnn.gnn_layers.0.gat_conv.res_fc.weight f4 [1024, 74]
000000 00 cf d1 3c 87 8f 64 3c d5 56 01 bb 03 ce 61 3b
       0.0256114 0.013950235 -0.0019735594 0.0034455068
000010 53 4d a8 bc a7 3d 07 bb 85 5d 19 3a f7 39 a2 bb
       -0.020544684 -0.0020636113 0.00058504223 -0.0049507576
000020 e7 7a e5 ba 47 5f 00 80 0b 1c 00 80 d5 0d 00 00
       -0.0017507941 -3.4179e-41 -1.006e-41 4.962e-42
000030 7b 18 9e a8 16 4a 00 00 7f 15 00 00 39 5d 3a 3b
       -1.755214e-14 2.6577e-41 7.711e-42 0.0028436913
000040 61 17 00 00 66 0c 00 00 b9 0a 00 00 67 10 00 00
       8.387e-42 4.448e-42 3.847e-42 5.884e-42
000050 09 08 00 80 2b 02 00 80 4a 21 00 80 ba 26 00 80
       -2.882e-42 -7.78e-43 -1.1942e-41 -1.3892e-41
000060 3d 0a 00 80 49 22 00 00 45 13 00 00 46 0c 00 80
       -3.673e-42 1.2299e-41 6.913e-42 -4.403e-42
000070 11 07 00 80 47 ff 28 39 f2 0f 00 80 2a 0f 00 00
       -2.535e-42 0.00016116827 -5.72e-42 5.44e-42
000080 c3 67 00 80 1f 59 cd 2e 61 04 00 80 76 0a 00 80
       -3.7223e-41 9.338152e-11 -1.571e-42 -3.753e-42
000090 b3 27 00 80 c0 0c 00 80 eb 0d 00 00 ed 2f 00 80
       -1.4241e-41 -4.574e-42 4.993e-42 -1.7193e-41
0000a0 0f 7f b0 ab bc 0b 00 80 89 06 00 80 27 09 00 00
       -1.2540818e-12 -4.21e-42 -2.344e-42 3.283e-42
0000b0 7e fb 9d bc fd 49 f5 3c 07 1b 4a 3c b7 d3 ed 3c
       -0.01928496 0.029942507 0.012335545 0.029031618
0000c0 90 02 00 80 59 07 c4 ba 7e 22 00 80 20 13 00 80
       -9.19e-43 -0.0014955803 -1.2373e-41 -6.861e-42
0000d0 a5 72 36 35 58 10 00 80 80 4a b2 3b cb 64 80 3b
       6.7967113e-07 -5.863e-42 0.00544101 0.0039182655
0000e0 f8 cc 6f 3d 42 74 bd ba cd 02 00 80 61 0c 00 80
       0.058545083 -0.0014454203 -1.005e-42 -4.441e-42
0000f0 8b 2f 00 00 c8 0b 24 3c 2c 1e 00 80 55 b5 43 3b
       1.7055e-41 0.0100125745 -1.0824e-41 0.002986272
000100 d6 9c 8f bc 8a 12 79 3d c1 04 00 00 87 83 9c ba
       -0.01753084 0.060808696 1.705e-42 -0.0011941054
000110 33 e6 02 bc c6 a8 ca bb b8 ad e1 3a 7f e8 8e 3d
       -0.007989454 -0.00618467 0.001721791 0.06977939
000120 b5 09 2e bc 9b 19 00 00 a4 4c 6f 3b 6d 14 d0 b8
       -0.0106224315 9.186e-42 0.0036514187 -9.9220175e-05
000130 e8 d9 85 3b d8 08 e5 b7 36 cd c3 bb 0f 65 84 3a
       0.0040848143 -2.7303045e-05 -0.005975391 0.0010100919
000140 b4 10 1c b9 69 a2 62 3b 32 15 85 b9 70 3d 00 80
       -0.00014883542 0.0034581667 -0.0002538353 -2.204e-41
000150 42 b3 9b 88 2a 0b 00 80 f6 88 e8 b6 af 15 00 80
       -9.3708665e-34 -4.005e-42 -6.930083e-06 -7.779e-42
000160 5a 10 00 80 d2 25 0c ba e0 0a 00 80 10 a8 5d 07
       -5.866e-42 -0.0005346212 -3.901e-42 1.6675581e-34
000170 37 47 44 ab 75 6b 00 b9 ba 1d 00 80 bf 20 00 80
       -6.973202e-13 -0.00012247062 -1.0664e-41 -1.1747e-41
000180 fc 0e 00 80 78 0d 00 00 4c 13 00 00 cd 20 00 80
       -5.375e-42 4.832e-42 6.922e-42 -1.1767e-41
000190 b9 0e 00 00 e5 05 00 80 a1 1a 00 80 d5 2b b7 39
       5.281e-42 -2.115e-42 -9.553e-42 0.00034937137
0001a0 ea 08 00 80 25 4c 00 80 99 0a 00 00 72 1c 00 00
       -3.198e-42 -2.7316e-41 3.802e-42 1.0204e-41
0001b0 3e 2f 00 80 30 10 00 80 a9 0d 00 00 8b 02 00 00
       -1.6947e-41 -5.807e-42 4.9e-42 9.12e-43
0001c0 04 1a 00 00 4a 0a 00 00 2a 08 00 80 ff 10 00 80
       9.333e-42 3.691e-42 -2.929e-42 -6.097e-42
0001d0 24 35 00 80 e1 d0 01 ba 7c f3 86 bb e9 34 36 bc
       -1.9063e-41 -0.0004952085 -0.004118381 -0.011121013
0001e0 d3 c5 11 ba 79 30 d0 39 ce 11 00 00 02 e7 04 38
       -0.0005560789 0.00039708967 6.387e-42 3.1686395e-05
0001f0 9d 19 00 00 a2 09 00 00 29 1b 00 80 a0 08 00 80
       9.188e-42 3.456e-42 -9.743e-42 -3.094e-42
000200 1f 5e 16 bb 10 9e 99 ba 6e ef 08 3c 90 c5 cf bb
       -0.0022944284 -0.001172008 0.008357866 -0.00634069
000210 7d 1b 00 00 05 00 00 00 e2 00 00 80 9b 60 a5 39
       9.861e-42 7e-45 -3.17e-43 0.0003154323
000220 0b 28 20 35 33 ca a7 3b 55 c2 17 bb 5e ac 65 3a
       5.9662915e-07 0.0051205396 -0.0023156602 0.00087613415
000230 42 04 00 00 e4 5f 89 39 a3 86 fe ba 43 cf 5c 3b
       1.527e-42 0.0002620212 -0.0019418787 0.0033692874
000240 72 0a ac ba d3 30 21 3c 73 4c a4 bb f1 1c 00 80
       -0.0013125672 0.009838301 -0.0050139963 -1.0382e-41
000250 41 33 be b9 6e 8c 57 39 30 0c 88 39 6a 89 46 ba
       -0.0003627781 0.00020556312 0.00025949022 -0.0007573577
000260 52 f9 0c ba ba b9 38 3a cc f6 9b b9 28 43 8e ba
       -0.0005377728 0.00070467184 -0.00029747782 -0.0010853754
000270 6c 6a d6 38 b4 75 73 9b 17 0e 00 00 c6 03 00 00
       0.00010224138 -2.0138521e-22 5.054e-42 1.354e-42
000280 0f 0d 00 00 50 1b 00 00 9d 06 00 00 6b 80 47 b9
       4.685e-42 9.798e-42 2.372e-42 -0.00019025958
000290 4a 60 00 80 b0 0c 00 00 68 50 00 80 ff 01 00 00
       -3.4542e-41 4.551e-42 -2.8844e-41 7.16e-43
0002a0 62 5a 9c a9 05 0f 00 80 e9 7b 6b 2a 1f 20 00 00
       -6.9434706e-14 -5.388e-42 2.0915183e-13 1.1523e-41
0002b0 3e 03 00 80 e6 12 00 80 a9 41 00 80 c6 2d 00 00
       -1.163e-42 -6.78e-42 -2.3554e-41 1.642e-41
0002c0 dc 07 00 80 86 43 0a 38 09 15 00 80 29 22 00 80
       -2.82e-42 3.296465e-05 -7.546e-42 -1.2254e-41
0002d0 74 26 00 80 0a 0d 00 00 19 0a 18 b0 b6 34 00 00
       -1.3794e-41 4.678e-42 -5.531163e-10 1.8909e-41
0002e0 a2 19 00 80 13 e5 1a 1a e9 08 00 80 d2 0f 00 80
       -9.195e-42 3.2031498e-23 -3.196e-42 -5.675e-42
0002f0 58 13 00 80 2e 0f 00 00 97 37 00 00 4c 08 00 80
       -6.939e-42 5.445e-42 1.9942e-41 -2.976e-42
000300 58 dd 88 ba 9a 64 54 ba e9 12 6e ba 66 77 77 ba
       -0.0010441942 -0.0008102149 -0.00090817973 -0.0009440094
000310 0b 08 00 00 7f 4f 35 b8 13 1b 00 80 45 1f 00 80
       2.885e-42 -4.32278e-05 -9.712e-42 -1.1217e-41
000320 53 17 00 80 00 28 94 a5 ff 7c dd ba 01 77 e6 37
       -8.367e-42 -2.5701012e-16 -0.0016898214 2.7473552e-05
000330 78 58 64 ba b4 f4 e0 b9 e3 0c 00 00 ce 1f 00 00
       -0.00087106926 -0.00042906927 4.623e-42 1.141e-41
000340 4f 0d 00 80 54 d7 8a 38 dd 19 00 80 eb e7 b9 b9
       -4.774e-42 6.620461e-05 -9.278e-42 -0.00035458742
000350 67 21 55 b9 d8 f9 9a ba 3c 16 00 80 2e 06 3f 38
       -0.00020325706 -0.0011823727 -7.976e-42 4.5543704e-05
000360 5b 21 41 ba 60 76 8f ba 46 f3 ef b9 bd 76 85 ba
       -0.0007367336 -0.0010945313 -0.00045766885 -0.0010182481
000370 c4 0e 29 b9 c6 0d 00 80 e4 19 32 bc b8 a1 a5 bc
       -0.00016122597 -4.941e-42 -0.010870431 -0.020218715
000380 d3 00 2c bc 9e f4 6f ba 43 16 b1 b9 f9 81 8d 3b
       -0.010498243 -0.0009153577 -0.00033776657 0.0043184725
000390 b9 2c 0d bc f1 94 e2 bb df b4 14 3b 94 15 00 80
       -0.00861662 -0.006914728 0.0022690815 -7.741e-42
0003a0 ff 07 00 80 18 13 00 00 e0 15 00 80 ce 26 d0 8c
       -2.868e-42 6.85e-42 -7.847e-42 -3.207083e-31
0003b0 07 1f 00 80 f4 06 d4 bb cc 07 00 00 b3 0b 00 00
       -1.113e-41 -0.0064705554 2.797e-42 4.197e-42
0003c0 32 32 00 00 c5 24 00 80 3e 4e 00 ba 87 10 00 80
       1.8007e-41 -1.319e-41 -0.00048944715 -5.929e-42
0003d0 8a 2b 00 00 d2 0f 00 80 56 23 00 80 fa 11 00 00
       1.5619e-41 -5.675e-42 -1.2676e-41 6.449e-42
0003e0 5f 0b 00 80 d1 00 00 00 12 03 00 00 26 88 9e 3a
       -4.079e-42 2.93e-43 1.101e-42 0.0012095019
0003f0 57 0c 00 80 b7 47 00 80 ff 08 75 31 68 0b 00 00
       -4.427e-42 -2.5726e-41 3.5657306e-09 4.092e-42

readout.weight_and_sum.atom_weighting.0.weight f4 [1, 128]
000000 aa e0 05 3e b5 03 3a 3c 38 36 42 3c bf b9 a6 bc
       0.13073984 0.011353423 0.011853747 -0.020352243
000010 1c 6a fc bc f1 ac da 3c 16 41 f1 3c 7f 42 76 bd
       -0.030812316 0.026693793 0.02944998 -0.06012201
000020 98 4b ff 3b 77 1a e2 3d 19 42 8f 3b e2 7e 84 3e
       0.007790994 0.11040204 0.004371893 0.25878054
000030 1b 3c 39 bd 80 f4 a3 bc 71 13 ef bb 31 80 ae bd
       -0.045223337 -0.020014048 -0.007296019 -0.08520544
000040 d1 a3 e6 bb ca 76 40 3d c1 8f 88 bc 44 ae bf ba
       -0.0070385714 0.046988286 -0.01667011 -0.0014624079
000050 b6 0c 76 3d 5b 64 7c bc 3b 63 cf 3d 6e 2b 46 3d
       0.060070716 -0.015404786 0.101263486 0.04838126
000060 82 71 0d 3d 7e 20 88 3d 6c a8 47 3a e8 37 f2 3c
       0.034532078 0.066468224 0.00076163444 0.029567674
000070 f5 68 22 3d 22 ed 22 3e 15 0c e8 3e d5 99 e7 3d
       0.039650876 0.15910771 0.45321718 0.11308638
000080 e2 31 ce bd 57 ec 9a 3d ee 7b 95 bc e2 7e c8 3e
       -0.10068108 0.075646095 -0.01824757 0.39159304
000090 a1 5d 24 3c 02 80 6c 3d da 88 c0 bc 9a 9e 82 3e
       0.0100320885 0.057739265 -0.023502756 0.25511628
0000a0 95 30 5c 3e f7 f1 c5 bc d1 bb bc bd ff 22 0f bb
       0.21502908 -0.02416323 -0.09215511 -0.0021840928
0000b0 43 1b ac bb 96 af 9f be 44 70 89 3d 5c 04 99 3d
       -0.0052522733 -0.3118865 0.06710866 0.074715346
0000c0 69 b1 4c 3e 58 c9 9b 3d 45 99 45 bd f7 95 41 3d
       0.19989552 0.07606763 -0.048241872 0.04726216
0000d0 1d 5f 47 bc 0b 00 f8 3c 16 64 d9 3d e1 2d f7 3b
       -0.012168673 0.030273458 0.10614793 0.007543311
0000e0 bc b4 a7 3d 4c b8 7d 3d 58 7a 52 3e a2 ed f5 ba
       0.08188769 0.061943337 0.20554483 -0.0018762837
0000f0 7c d5 8c 3e 3e 72 83 3e 9a c1 6b 3a 23 f0 51 3d
       0.27506626 0.25673097 0.00089933875 0.051254403
000100 d6 92 cb 3c d0 c0 8c 3e 89 6e f6 bb 75 d7 97 3d
       0.02485029 0.27490854 -0.007520501 0.07414142
000110 fc d8 e0 3d c7 39 a1 bd ea fe bf 3c 42 41 60 bc
       0.109788865 -0.07872348 0.023436982 -0.013687434
000120 d4 08 93 bd ba 00 a1 3c 48 6e c5 bd 4e 41 e1 bd
       -0.07179418 0.019653667 -0.09640175 -0.10998784
000130 0e ef d9 3d d7 7b 1b bd b8 7a 11 3d 39 7c 53 3e
       0.10641299 -0.0379599 0.035517424 0.20652856
000140 9d 59 00 bb 15 36 18 3c 1c bc 05 bd 9a 38 27 3d
       -0.0019584664 0.009290238 -0.0326501 0.040825464
000150 c4 c2 12 3d 5b 39 0e 3d 4a 05 64 3e ad e1 c4 3b
       0.035830274 0.034722667 0.22267643 0.006008348
000160 41 95 fa bc ea 67 5b bc 5b ab f3 3d a2 f2 75 3d
       -0.030588748 -0.013391474 0.11897918 0.060045846
000170 ea ad 5e bc 76 0b 30 bd e3 25 16 3e be 74 c6 bb
       -0.013591269 -0.04297968 0.1466289 -0.006056397
000180 8e 86 de 3c e1 7b ea 3c dd 81 09 3c 11 e4 81 bc
       0.02716377 0.028623523 0.008392778 -0.01585582
000190 8c ef 31 3d 89 4f 91 3c 08 27 ea 3d 6c 81 98 3d
       0.04344134 0.01773812 0.11433226 0.0744656
0001a0 e0 04 6b 3d 45 74 f2 3b 40 76 23 bd 62 49 a0 bd
       0.057377696 0.0073991143 -0.039907694 -0.07826497
0001b0 ca c6 90 3d 2d fc 0f 3d f9 06 6b be cc 46 7b 3c
       0.07069166 0.035152603 -0.22951879 0.0153367035
0001c0 ff 97 f1 3b 04 e5 77 bd da 8a fc bc ee 9f 19 3c
       0.0073728557 -0.06052114 -0.030827928 0.009376509
0001d0 34 33 ac 3e f1 4c a4 3c 03 48 d4 bc 0a 07 06 3d
       0.33632815 0.02005622 -0.025913244 0.032721557
0001e0 2a 10 91 bd 10 4d 87 bd 9c 4d d5 bc 19 fd b4 be
       -0.07083161 -0.066064954 -0.026037984 -0.35349348
0001f0 af 27 7b bb ae 73 bc ba c1 29 65 3c 7a c0 b5 bd
       -0.0038323214 -0.0014377737 0.013987006 -0.088746026

predict.predict.1.weight f4 [128, 256]
000000 3d 94 10 b8 82 38 e3 35 9d 96 bf 35 48 bb 82 35
       -3.4470333e-05 1.6929264e-06 1.4274443e-06 9.740261e-07
000010 f5 36 a9 b6 1d 64 bc b5 53 e0 a8 37 80 15 44 37
       -5.0429903e-06 -1.4036228e-06 2.013162e-05 1.1687516e-05
000020 24 9a 75 35 6e f0 37 36 b7 ae 99 34 b6 3a d8 b8
       9.1493916e-07 2.7409073e-06 2.8625593e-07 -0.000103106184
000030 a0 5f 1c 37 14 bc 23 36 13 10 10 37 03 2d 92 36
       9.320589e-06 2.4398369e-06 8.586811e-06 4.356379e-06
000040 5b 03 3c b7 37 a1 f9 b6 4b ad e9 b7 27 9a c7 35
       -1.12064545e-05 -7.439546e-06 -2.785646e-05 1.487152e-06
000050 77 57 a5 b6 2e d7 cb 36 a1 05 7b 36 b5 29 86 35
       -4.9275654e-06 6.0749217e-06 3.740519e-06 9.995916e-07
000060 45 44 8e b7 d3 cf 0f b8 4e 2c c7 37 52 16 2f b7
       -1.695951e-05 -3.428741e-05 2.374328e-05 -1.043601e-05
000070 8d 94 7f 38 de b3 e7 b6 90 38 4c 38 d8 3d 72 b6
       6.0935086e-05 -6.9052758e-06 4.8690068e-05 -3.6096808e-06
000080 fe 98 4c 37 de 29 5e 36 a6 3c 19 b6 4e 6c 7b b8
       1.2194969e-05 3.3104948e-06 -2.2834079e-06 -5.994393e-05
000090 f0 84 83 b8 ca 03 5c b8 f9 c8 47 37 a2 82 d3 b7
       -6.271328e-05 -5.2455616e-05 1.1908117e-05 -2.521399e-05
0000a0 b3 17 b9 b7 21 b8 af b6 ea c6 35 b8 0e cb 57 36
       -2.2064754e-05 -5.236842e-06 -4.3339016e-05 3.215569e-06
0000b0 43 43 c9 38 0a 84 22 b8 4a 07 e5 b7 60 24 7d b6
       9.596955e-05 -3.874678e-05 -2.7302322e-05 -3.772111e-06
0000c0 13 ab 27 37 6c 21 81 37 9f 32 ac 36 6a 64 cb b7
       9.993807e-06 1.5393562e-05 5.1318925e-06 -2.4246245e-05
0000d0 f3 de d4 b5 41 b0 18 36 28 4b 46 b7 21 96 b0 b7
       -1.5860118e-06 2.2752358e-06 -1.1819218e-05 -2.1050744e-05
0000e0 12 14 f9 b6 15 7d 88 36 21 db 0c 37 4a 30 86 b7
       -7.4231148e-06 4.0676773e-06 8.39567e-06 -1.5996531e-05
0000f0 73 d6 aa b6 8f d1 18 b9 90 53 a1 35 bb d8 73 b6
       -5.09136e-06 -0.00014573916 1.2019755e-06 -3.6335975e-06
000100 c8 fe ab b7 1f 7b fa 36 29 ce 82 37 43 b6 18 37
       -2.050343e-05 7.464914e-06 1.5593208e-05 9.102342e-06
000110 42 84 96 b8 7b 3f 8e 36 18 fd 28 b7 51 74 52 36
       -7.177192e-05 4.23932e-06 -1.0072508e-05 3.1360144e-06
000120 a0 11 64 37 41 87 97 b5 63 1f e9 37 b3 66 4a b8
       1.3593963e-05 -1.1289741e-06 2.779038e-05 -4.82562e-05
000130 04 c8 49 b7 90 8d 67 37 6e fa 82 b6 ce c6 16 b6
       -1.2027103e-05 1.3801633e-05 -3.9034558e-06 -2.2467461e-06
000140 9a c3 83 b5 93 a0 a3 36 24 bc 41 36 f7 b6 2e 36
       -9.817188e-07 4.876472e-06 2.8868753e-06 2.603452e-06
000150 e9 2c 2e 36 06 71 d8 b3 4b d9 44 b7 fa d9 35 35
       2.5954162e-06 -1.0078843e-07 -1.1733103e-05 6.774495e-07
000160 3c e2 63 37 8f 1a c0 b6 70 f8 d2 35 66 ee 88 b7
       1.3582929e-05 -5.7251377e-06 1.5718524e-06 -1.6323476e-05
000170 6e 97 e1 b7 90 dc 9d b6 19 58 69 37 81 33 f2 37
       -2.6892605e-05 -4.7046415e-06 1.3908394e-05 2.8872631e-05
000180 cf 07 90 b7 6d 9f a8 b6 35 c4 1f b5 bf 69 ce 35
       -1.7169774e-05 -5.0253498e-06 -5.9517635e-07 1.5378972e-06
000190 6f 0c 1d b7 55 d8 01 37 09 ab 41 b8 4e ee e7 b6
       -9.360824e-06 7.739368e-06 -4.6174075e-05 -6.912079e-06
0001a0 8c 45 37 37 88 b3 b3 37 52 d9 56 b6 8c cf 23 37
       1.0923843e-05 2.1422064e-05 -3.2014982e-06 9.76388e-06
0001b0 05 fc f3 37 59 74 e3 37 54 18 7e b7 1f a6 5e b7
       2.9085213e-05 2.7114687e-05 -1.5145244e-05 -1.3270909e-05
0001c0 a8 dd 12 37 46 bf b4 b6 19 96 7f 37 ef 0b 8c 36
       8.7538865e-06 -5.386685e-06 1.5234132e-05 4.1737144e-06
0001d0 f6 07 4e b5 9a 54 9d 35 98 61 e2 b5 9c 9f 01 b7
       -7.6752565e-07 1.1722034e-06 -1.6866716e-06 -7.726161e-06
0001e0 8b 55 5c 37 1f 60 10 37 f5 6d 45 b6 09 16 e0 b7
       1.3132939e-05 8.605449e-06 -2.941929e-06 -2.6713142e-05
0001f0 b2 b6 69 36 cd d4 8c 35 ef 3d 35 37 3d 46 fd b7
       3.4826048e-06 1.0492746e-06 1.0802861e-05 -3.0192658e-05
000200 9f e1 11 39 54 b5 b6 b5 95 37 58 33 5d ec 5c b7
       0.00013912328 -1.361283e-06 5.034197e-08 -1.31680545e-05
000210 33 06 10 b7 f7 d8 c4 37 66 a5 76 b8 67 c4 35 b6
       -8.584512e-06 2.3466053e-05 -5.880501e-05 -2.7085423e-06
000220 b5 b5 9d b6 0b dd ec 36 64 60 d9 b4 db 45 ca 36
       -4.700118e-06 7.059081e-06 -4.0489533e-07 6.0282014e-06
000230 17 a4 b6 b7 8c 99 4a 35 4a ee 17 b7 6c d5 42 37
       -2.1772501e-05 7.5474304e-07 -9.055782e-06 1.1612992e-05
000240 ed 3b ea b6 46 01 9e 36 f7 93 73 b7 03 63 ce 36
       -6.9807197e-06 4.708915e-06 -1.4518379e-05 6.150805e-06
000250 4c 21 c0 b7 e1 76 b6 b7 01 1b ee b5 3a fe 5c b7
       -2.2903689e-05 -2.1751448e-05 -1.7740241e-06 -1.3172214e-05
000260 8a de 31 36 89 1c ed 36 3f 4c af 37 62 8c a4 36
       2.650459e-06 7.0664723e-06 2.089713e-05 4.9039236e-06
000270 03 a5 98 b7 92 b5 ba b6 6f 7e 02 38 16 0e b1 b7
       -1.8196652e-05 -5.5643695e-06 3.1112166e-05 -2.1106604e-05
000280 6b ae b3 38 dd cc 8d b7 7b ff 1c 36 86 aa 7f b5
       8.567873e-05 -1.6903907e-05 2.339452e-06 -9.5243047e-07
000290 61 c2 9b 36 15 76 5e b8 6b d5 2d b7 47 7b c0 b8
       4.6419887e-06 -5.3038897e-05 -1.0361294e-05 -9.1782356e-05
0002a0 e4 4e 75 b7 76 e5 4c b7 b7 5d df 37 d4 c8 c8 36
       -1.4621506e-05 -1.2212773e-05 2.6627311e-05 5.983844e-06
0002b0 7b 03 30 38 02 fc 7f b7 a0 8b 32 37 3f a4 2f b4
       4.196491e-05 -1.525786e-05 1.0642136e-05 -1.6357897e-07
0002c0 b5 c2 95 38 18 a6 72 b6 97 2c 5b b7 aa 48 f7 35
       7.141141e-05 -3.615749e-06 -1.3063799e-05 1.8424082e-06
0002d0 e0 7c 59 b6 c5 1c 6b 34 f8 b9 9d 37 36 9e b5 b7
       -3.2408207e-06 2.1896547e-07 1.8802457e-05 -2.1650554e-05
0002e0 15 c7 82 b8 4f 32 40 37 e5 0e 49 37 f9 86 46 37
       -6.235965e-05 1.1455805e-05 1.19840015e-05 1.1833145e-05
0002f0 e2 c2 9c b6 16 97 ba b7 bf 82 8f b7 94 1e 47 35
       -4.6718496e-06 -2.2243283e-05 -1.7107812e-05 7.4177774e-07
000300 6b 31 52 b6 fa 9e 86 37 9a 25 84 38 97 07 72 36
       -3.1321204e-06 1.6048074e-05 6.301254e-05 3.6065228e-06
000310 a7 e5 5a b7 dc 24 b7 b6 e8 f2 76 35 3e 1f 41 36
       -1.3047283e-05 -5.458116e-06 9.1995616e-07 2.8777426e-06
000320 8c 1b 98 37 bd f1 8c 35 e5 f2 21 38 4a 66 3e b8
       1.813264e-05 1.0501168e-06 3.8611604e-05 -4.5394794e-05
000330 50 08 90 37 22 d0 3e b8 8d c7 48 36 bb 7b 13 36
       1.7170009e-05 -4.549337e-05 2.9918476e-06 2.1976728e-06
000340 6b 7b ba b4 36 66 49 b7 c2 2d 48 b7 94 75 3a b6
       -3.4734998e-07 -1.2004331e-05 -1.1931583e-05 -2.77846e-06
000350 b7 8b a1 35 29 6d ec b5 ba 7a 08 38 78 e4 83 b4
       1.2036097e-06 -1.761514e-06 3.2539225e-05 -2.4566884e-07
000360 67 8c 74 35 f6 6e ad 37 88 6f 92 b7 1a e7 5e 36
       9.1101396e-07 2.0674877e-05 -1.7456492e-05 3.3215097e-06
000370 05 fc ce b7 9d d7 89 b8 bd f2 48 b7 7c e4 58 b7
       -2.467447e-05 -6.57283e-05 -1.1977446e-05 -1.2927801e-05
000380 88 f8 ba b7 c0 95 8a b7 a6 c2 e3 b4 d9 48 44 b7
       -2.228866e-05 -1.6520615e-05 -4.242367e-07 -1.16994715e-05
000390 14 fc e2 b5 76 78 a3 b7 c8 f1 d9 b7 88 26 23 37
       -1.6911677e-06 -1.9487208e-05 -2.5981004e-05 9.724528e-06
0003a0 2a 7a e7 b6 40 e8 21 37 2e f6 17 b7 c4 48 87 37
       -6.8985582e-06 9.650423e-06 -9.0576195e-06 1.6127138e-05
0003b0 8b f5 8f b7 2b 9d 44 b8 6f 98 aa b7 52 b8 f2 38
       -1.7161268e-05 -4.6876416e-05 -2.0336562e-05 0.000115737916
0003c0 43 6d 9e b7 e7 78 ae b7 13 f5 ea 37 2f 2e 78 b7
       -1.8885947e-05 -2.0798716e-05 2.8009095e-05 -1.4792705e-05
0003d0 59 62 88 b8 aa cf 46 35 bf e6 10 37 53 09 7a b7
       -6.503304e-05 7.406294e-07 8.636794e-06 -1.4903332e-05
0003e0 ae 62 fa 32 f5 a6 d6 b8 98 28 72 b7 bf ee 7b b8
       2.9148705e-08 -0.00010235413 -1.44337755e-05 -6.0065413e-05
0003f0 92 11 c3 b6 23 e1 1d b5 ba f5 ae b5 e4 50 9b b8
       -5.8134983e-06 -5.8814675e-07 -1.3035526e-06 -7.406043e-05
