Results/GAT/saved_model/GAT_bst_43.pth (torch, 759482 bytes, 13 tensors)

gnn.gnn_layers.0.gat_conv.attn_l f4 [1, 8, 128]
000000 bc 15 94 39 e5 f2 7a bc 6b dd ff 3a 8c e0 fb 3a
       0.00028244953 -0.0153167 0.0019520944 0.00192167
000010 3f a0 61 b8 47 6d 24 3b 20 25 65 bb 0b 2a c0 3a
       -5.379342e-05 0.0025089548 -0.0034964755 0.0014660967
000020 9e 6d b9 3b a0 53 fc 3a 09 85 53 bb e3 f0 c9 3a
       0.0056588193 0.0019250996 -0.003227534 0.0015406873
000030 66 7e 35 3b 87 64 08 bb b3 1b cd ba aa d4 90 38
       0.0027693748 -0.0020811872 -0.0015648514 6.906067e-05
000040 b6 8a ae 3a 5a 92 eb 3b 06 5c 45 b7 27 36 a3 bb
       0.0013316486 0.0071890773 -1.1763541e-05 -0.0049808207
000050 7d 04 74 3a 48 36 93 bb 53 c2 7a 3a ed 7e 15 3a
       0.000930853 -0.004492555 0.00095657 0.00057028123
000060 ec 61 2d 3a 5c 70 06 3b 16 8c 99 3a 59 67 13 3a
       0.0006614018 0.0020513749 0.0011714722 0.0005623005
000070 69 f1 f3 ba bd 5e ba b8 2a 53 53 3b b6 0c 88 39
       -0.0018611375 -8.8868175e-05 0.0032245615 0.00025949412
000080 b3 0c f4 b8 05 b7 0d ba 3e bc a7 3b 57 52 51 3b
       -0.00011637192 -0.0005405995 0.0051188758 0.0031939948
000090 fc 5f d7 ba e3 31 b2 bb 39 f7 3b 38 0f 17 17 3a
       -0.0016431804 -0.005438076 4.481452e-05 0.0005763629
0000a0 c7 5b 52 3b 63 5e e5 3a 7a c9 ef 39 2b e6 6a bb
       0.003209816 0.0017499443 0.00045735744 -0.0035842757
0000b0 f6 64 ee bb fe 8c a0 b8 56 36 e8 b9 09 ae b8 ba
       -0.007275219 -7.6556564e-05 -0.00044290972 -0.0014089952
0000c0 ee f9 86 3a ef 5c 80 b8 3a 00 88 b8 23 9a 7d ba
       0.0010297874 -6.120826e-05 -6.4850276e-05 -0.0009674152
0000d0 90 9d 81 3b 30 eb f6 ba 4c 32 9f bb 99 53 55 ba
       0.0039555505 -0.0018838402 -0.004858291 -0.0008137762
0000e0 5d 65 ee ba 9e 83 b3 3b 5a 28 7d 3b 9f 2b c2 ba
       -0.0018188168 0.0054783365 0.0038628788 -0.0014814025
0000f0 eb 1a cf bb 0e a2 93 ba bf 6b 60 3b 11 8e 87 bb
       -0.0063203475 -0.0011263506 0.003424391 -0.0041368087
000100 31 04 9c 3b 01 6e 49 ba dd ac 1a 3b 63 d5 bd bb
       0.004761242 -0.00076839334 0.002360157 -0.00579326
000110 8d 84 5e 3a 48 84 92 3a 4a b1 f4 b9 dd 53 8e 39
       0.00084883795 0.0011178339 -0.00046671397 0.00027146834
000120 36 31 69 ba d3 95 68 ba c4 e4 f0 35 03 9d df 3a
       -0.00088955776 -0.0008872423 1.7947973e-06 0.0017060343
000130 98 e1 97 3b d8 a7 d4 b8 42 0f a5 39 51 5f fb 3a
       0.004635047 -0.00010140211 0.0003148262 0.0019178187
000140 72 37 28 3b 4c 95 26 b9 1a 2e 70 ba 07 d6 55 b9
       0.0025667814 -0.00015886611 -0.0009162143 -0.00020392994
000150 c9 32 12 ba ff 52 be bb 5f 30 d8 3b 9f 0d 0a 3a
       -0.00055770256 -0.0058082337 0.006597563 0.0005266312
000160 99 ed 9a 3b 7e f7 72 3a cf 4b 96 bb a0 84 a5 bb
       0.004728031 0.00092684466 -0.004586674 -0.0050512105
000170 c8 37 d9 3a 36 c7 cb ba 22 07 b6 3b a0 c0 57 b7
       0.001657241 -0.001554704 0.0055550495 -1.2859848e-05
000180 fb 5f e7 39 ac 6b de 3a 99 25 39 3a 93 cd 28 bc
       0.00044131264 0.0016969345 0.00070627924 -0.010302919
000190 c3 52 56 3a 30 e2 f1 b9 6a 74 66 3b 7d 8a 17 b9
       0.00081757846 -0.00046135625 0.0035164603 -0.00014452073
0001a0 0a a3 2d bb 24 3d 3e 3b 00 24 d2 ba 50 5c 88 39
       -0.0026494884 0.0029028142 -0.0016032457 0.0002600872
0001b0 f7 a5 6f 3a a0 96 7f 3a 01 79 23 3b 9d c8 c2 3a
       0.0009141857 0.0009749923 0.002494395 0.0014860813
0001c0 a4 d9 78 37 3f ac 9a 39 4f 38 58 3b 75 f4 99 39
       1.4832625e-05 0.00029501502 0.0032992547 0.0002936457
0001d0 5a 38 e8 b9 9e 5f d1 3a 09 26 17 bb dd a2 05 3b
       -0.00044292473 0.0015973931 -0.0023063442 0.0020391264
0001e0 d1 9c 47 bb 50 72 5f bb 58 47 54 3b 60 bb 1d 3b
       -0.003045846 -0.0034095235 0.0032391157 0.0024067983
0001f0 96 ac 4c 39 0b 53 1f 3c ed 74 1e 3a 0e dd a6 39
       0.0001951925 0.009724389 0.0006044645 0.00031826686
000200 5d 20 62 3a f9 cd b7 bb 34 b3 cd 3b 4f e8 06 3c
       0.00086260383 -0.0056092707 0.006277466 0.008234098
000210 64 f3 e6 39 a7 bc 0c 3b f2 b7 ec ba 40 d8 f4 3a
       0.0004405036 0.002147475 -0.0018060191 0.001868017
000220 8f 2e 8a 3a ab 08 a4 3b 07 24 05 bb 96 48 6a 3b
       0.001054244 0.005005916 -0.0020315663 0.003574883
000230 dd 1a 31 3a 1c 83 b2 bb 30 02 92 3b bf 48 f5 ba
       0.0006756017 -0.0054477584 0.004455827 -0.0018713697
000240 36 87 86 3b e2 c7 ed 3b 62 03 70 b9 83 bc 14 bb
       0.004105474 0.007256494 -0.00022889444 -0.002269537
000250 5c 73 5c 3b 01 a5 8f bb bb d5 99 39 57 b0 1f 3b
       0.0033638095 -0.0043836837 0.00029341676 0.0024366581
000260 ff a1 db 37 fd 14 90 3b 36 25 c9 3a c3 ec 54 b9
       2.618227e-05 0.0043970332 0.0015346173 -0.00020306096
000270 87 3a 6d bb 7e ed bf 3a 79 fd aa ba c1 ff 35 bb
       -0.0036198215 0.0014642922 -0.0013045511 -0.002777085
000280 ba 71 17 bb 15 93 9c 39 27 c3 82 3b 42 d6 2a 3b
       -0.0023108558 0.00029864223 0.003990549 0.002606765
000290 d1 3a e6 b9 ba 45 74 bb 5a 62 0e 3b 39 b2 42 b9
       -0.0004391284 -0.0037273006 0.0021726103 -0.00018567675
0002a0 fc 05 ad 3a 90 8d ee 3b 0e 8f 64 3b 38 02 0a bb
       0.0013200636 0.007280059 0.0034875306 -0.0021058451
0002b0 c8 57 58 bb 77 5e 5e ba b8 22 81 b9 3a 67 6a b9
       -0.0033011306 -0.0008482704 -0.00024630665 -0.00022354434
0002c0 60 14 08 3b 34 27 50 b9 ee e6 55 38 15 87 e3 3a
       0.0020764098 -0.0001985103 5.0998227e-05 0.0017358983
0002d0 fb 11 60 3b 05 63 59 ba 66 7e 18 37 97 66 8d 3b
       0.0034190405 -0.0008292648 9.089335e-06 0.004315208
0002e0 75 00 33 bb 81 07 22 3a 67 c4 b2 3a c1 fc 92 3a
       -0.0027313505 0.0006180928 0.0013638855 0.0011214243
0002f0 16 d9 82 b7 40 69 97 bb 4b f8 88 3b 23 27 27 3b
       -1.5598296e-05 -0.004620701 0.0041799895 0.0025505505
000300 f5 4b cb 3b 08 6e a3 ba 5f a3 1a 3b c9 64 38 3b
       0.006204123 -0.0012468705 0.0023595912 0.0028136245
000310 15 8f 5c 3b db 63 dd 3a d9 ac 30 bb 52 c7 ec 39
       0.003365462 0.0016890721 -0.0026958494 0.00045161933
000320 93 6a 60 ba cc f6 3c b9 59 58 96 b8 e7 5b 60 3b
       -0.00085608027 -0.00018021016 -7.1690134e-05 0.0034234466
000330 e2 c0 83 bb de bd 9f 39 e9 b1 13 ba 11 8f 40 3b
       -0.004020796 0.00030468305 -0.00056341157 0.002938215
000340 11 8f a5 3b bc 09 08 bc 9c 2f 89 37 14 fe 3a ba
       0.0050524552 -0.008303102 1.6353843e-05 -0.00071331975
000350 9e a3 1a bb cd 9b 82 bc 7f a7 92 39 d3 56 5a 3a
       -0.0023596059 -0.015943432 0.00027972084 0.0008328978
000360 a8 cb 84 3b 91 44 7e 3a ec e4 be bb 9d ca 51 bb
       0.004052598 0.0009699548 -0.0058256295 -0.0032011636
000370 94 6e 49 3b 53 88 95 b9 11 74 03 3b bc cd 54 b8
       0.0030736076 -0.00028521064 0.0020058195 -5.0736344e-05
000380 1e 87 a1 b8 c1 77 6e b9 a1 f4 f5 39 d4 49 05 3c
       -7.702246e-05 -0.0002274206 0.00046912304 0.008135278
000390 c2 60 26 ba 89 3b b3 3b a1 19 09 3b 70 b2 9d b9
       -0.00063468155 0.0054697436 0.0020919817 -0.0003007832
0003a0 f3 61 28 3b 18 ff ee 39 ac dd f2 ba 10 3d ac 37
       0.0025693148 0.00045584957 -0.0018529198 2.0532432e-05
0003b0 36 53 13 3b ad 09 fc 3a bc 89 28 bb 22 f2 7d 3b
       0.0022480018 0.0019228958 -0.0025716862 0.0038749059
0003c0 e4 e7 47 38 c7 a3 5d 38 bf 38 37 3b b2 51 3b 3b
       4.7661262e-05 5.2843036e-05 0.0027957407 0.002858263
0003d0 2c 4a 4d 39 2a 47 4c 3b fc 80 78 bb 13 e6 1a 3b
       0.00019577955 0.0031170347 -0.0037918678 0.002363567
0003e0 10 42 f4 3b 7b bb 4b 3b 6f ac 39 3a a8 46 29 3b
       0.0074541643 0.003108709 0.00070828845 0.0025829468
0003f0 fb 64 84 3b 7d 30 86 3a 52 25 b8 3a d4 f4 b4 3a
       0.004040358 0.0010237839 0.0014049208 0.0013805875

gnn.gnn_layers.0.gat_conv.attn_r f4 [1, 8, 128]
000000 06 8b a4 39 06 7f 9e ba 4d 52 e3 b8 3b 14 c1 3b
       0.00031384098 -0.0012092299 -0.00010839533 0.0058923042
000010 6f c0 dd 39 d8 83 15 b9 de b1 99 ba 07 7c d1 3a
       0.0004229578 -0.00014258863 -0.0011725982 0.0015982398
000020 20 9e 37 3b 80 12 44 3b d7 8e 7a 3a 73 4e 09 3b
       0.0028017834 0.0029918253 0.0009558028 0.00209513
000030 27 11 b8 3b f9 31 23 bb 67 35 6a 3b 47 73 05 ba
       0.005617279 -0.0024901612 0.0035737397 -0.0005090725
000040 cf 28 70 3b 3e a2 44 3b dc ad 0c 39 db b2 80 39
       0.0036645418 0.003000393 0.00013416208 0.0002454732
000050 97 b5 b9 3a f5 9f a0 ba ca 5b ad 39 1e 6b 93 3b
       0.0014168498 -0.0012254702 0.0003306552 0.0044988533
000060 6e a5 cb b9 7d 00 05 3b eb c9 2c 38 67 a4 ad 38
       -0.00038842432 0.002029448 4.1196046e-05 8.279905e-05
000070 86 de 0c 3a 6a 15 15 3a 2c 6f cb 3b 6d de 0b b9
       0.0005373735 0.000568709 0.006208321 -0.00013338933
000080 20 80 f9 ba 68 45 87 38 40 94 c5 ba c1 71 1e ba
       -0.0019035377 6.4502296e-05 -0.0015074089 -0.00060441723
000090 fa fb 91 38 a5 a1 b5 3a 52 e1 e9 39 60 59 6a 3b
       6.961073e-05 0.0013857378 0.000446091 0.0035758838
0000a0 5c 6d e9 ba 2a 15 ec 3b ee 7e 4e 3b b6 9e 10 ba
       -0.0017809081 0.0072046714 0.0031508761 -0.0005516814
0000b0 ca ee 09 ba 1d fe e4 38 19 0a b1 38 0a a7 0b 3b
       -0.00052617176 0.000109192195 8.4418985e-05 0.002130928
0000c0 cf c1 24 ba fc 01 c5 38 62 e4 57 b9 69 ae 6a b9
       -0.0006284983 9.3940616e-05 -0.00020589077 -0.00022380952
0000d0 74 50 bf b9 28 22 ed b8 d5 55 46 3a 06 84 85 3b
       -0.000364903 -0.00011307403 0.00075658906 0.0040745763
0000e0 cf de 96 b9 4f 21 22 ba 30 f6 24 3a 3b c7 24 39
       -0.00028776235 -0.0006184773 0.00062927883 0.00015714478
0000f0 b3 8f 3e 3b 56 0e 48 bb bf 9b 93 3a ac 9f 58 39
       0.002907735 -0.0030526123 0.0011261626 0.00020658848
000100 c5 77 9e 39 ea 66 86 3b b8 08 d6 3a 16 31 3b 3b
       0.00030225344 0.004101624 0.0016329503 0.0028563193
000110 2a 2a a2 3a 97 2d 9d 3a d5 f5 1a 3a d0 65 66 b8
       0.0012372185 0.0011991736 0.00059112656 -5.4931093e-05
000120 fc 5e f9 b8 5b b0 31 39 47 93 05 38 81 ba b1 b9
       -0.000118909375 0.00016945733 3.1846834e-05 -0.00033899027
000130 33 20 52 39 f5 d2 ef 3a 5f c1 00 b9 37 12 1a 3b
       0.00020039156 0.0018297123 -0.00012279068 0.0023509392
000140 ed fd 9a 3b 9d bb 1d b9 cf ef 1e 39 11 b4 ee 37
       0.0047299773 -0.00015042578 0.0001515739 2.845566e-05
000150 63 96 24 bb f3 bb ee ba a9 0d c3 ba a7 83 d7 b8
       -0.0025114052 -0.0018213972 -0.001488139 -0.00010276521
000160 84 87 89 3b c7 a8 88 39 17 53 a5 3a 72 78 71 ba
       0.004197063 0.0002606569 0.0012613264 -0.0009211368
000170 15 e7 3a 3a 26 bb 6a 3a ed 57 83 b9 c5 06 ee 37
       0.0007129771 0.0008954279 -0.00025051777 2.8374963e-05
000180 39 c4 63 ba de 89 56 bb f4 91 74 39 51 f0 18 ba
       -0.0008688602 -0.0032735984 0.00023324025 -0.000583415
000190 a9 f4 17 3a d6 5d 9e 3b 9c 3b 20 bb fc 6c 1b 39
       0.000579665 0.0048329635 -0.0024449592 0.00014822552
0001a0 48 a7 b1 ba f2 77 43 3a 6c 76 8d 39 26 e1 99 38
       -0.0013553882 0.0007456533 0.00026981847 7.337546e-05
0001b0 73 ad c9 39 2b b5 18 3a 79 09 07 3b f2 1a 1f 3b
       0.00038466937 0.0005825336 0.0020605011 0.0024277535
0001c0 9b 47 70 b7 dd 67 57 b9 46 bb cd ba 59 99 ae 3a
       -1.4321787e-05 -0.0002054269 -0.0015696071 0.0013320848
0001d0 c9 4e 72 3b f0 d4 61 3b 83 25 44 bb c0 5f ba 3b
       0.003697323 0.0034459196 -0.0029929585 0.005687684
0001e0 39 fc ec 38 e5 e0 8a ba e7 77 7f 3b d3 99 b0 39
       0.00011300337 -0.0010595588 0.003898138 0.00033683944
0001f0 6c 3d b3 3b af 51 8b 3a 04 64 6f 39 0b ab a0 38
       0.0054699685 0.0010629202 0.00022830075 7.661254e-05
000200 d0 ac a2 37 33 1b b0 b9 cc 5b f7 b9 ca c1 39 3a
       1.9392377e-05 -0.000335896 -0.00047179905 0.0007086067
000210 c2 8c 0f 38 2f e5 10 b9 74 80 d4 3a 28 ff 3e b9
       3.4224948e-05 -0.00013818288 0.0016212598 -0.00018214865
000220 25 20 ad ba eb e6 87 ba 8e ec a1 38 f4 9a a6 b9
       -0.0013208432 -0.0010368502 7.72114e-05 -0.00031777436
000230 3d 73 cf 3a 72 b3 66 3a 45 4e 9f ba f9 81 b5 b5
       0.001582719 0.0008800543 -0.0012154063 -1.3523378e-06
000240 53 bd 29 39 24 dc 7b 3a e6 b7 84 b7 ed 38 b6 39
       0.00016187625 0.00096076936 -1.582126e-05 0.00034756158
000250 d3 35 82 b9 cb 88 08 ba fa 80 4b b9 ee 67 43 3a
       -0.00024835634 -0.0005208372 -0.00019407636 0.00074541464
000260 42 d5 17 38 8c 50 2c ba 2c 58 46 b8 98 85 1a b8
       3.6199817e-05 -0.0006573282 -4.7288995e-05 -3.684088e-05
000270 32 38 1d ba 4a 3b 87 b8 2b be cc 37 2d 9b b9 b8
       -0.00059974485 -6.448345e-05 2.4407249e-05 -8.850391e-05
000280 0d 68 c4 b8 33 4d 16 b9 f2 c2 61 3a dd af b8 37
       -9.365389e-05 -0.00014333874 0.0008612118 2.2016402e-05
000290 71 1b 5a b8 7c 28 77 3a fc 6a f2 b7 56 a8 12 39
       -5.2000807e-05 0.0009428335 -2.8898467e-05 0.00013986355
0002a0 8a 4c c4 b9 32 7b 8f ba 48 d7 87 b9 29 ac 91 39
       -0.0003744106 -0.0010946749 -0.00025909604 0.00027784824
0002b0 a0 95 46 39 42 af 11 39 4b d5 4d 39 7c 8c 20 b5
       0.00018938491 0.00013893566 0.00019629781 -5.9809076e-07
0002c0 0d c1 28 b9 26 a7 70 38 4c 39 61 39 d9 78 50 39
       -0.00016093646 5.7376128e-05 0.00021479017 0.00019881445
0002d0 14 97 db b8 bb ec 58 b9 f0 00 83 ba 9e ee 69 ba
       -0.00010470874 -0.00020687554 -0.0009994786 -0.00089238014
0002e0 01 2a a8 38 41 38 cb ba 98 2a 07 ba 82 6f 18 ba
       8.018688e-05 -0.0015504436 -0.0005156188 -0.0005814956
0002f0 0b d7 1e 39 ca b9 21 3a c3 9d 36 b8 c0 6f cb ba
       0.00015148164 0.00061693473 -4.353911e-05 -0.0015520975
000300 87 ac 5c 3a 70 d9 f9 3a 60 b5 33 3a 91 b5 ba b9
       0.00084180426 0.0019061994 0.0006855335 -0.00035611962
000310 f3 5b 82 b9 28 f8 08 3a 0f 8b f2 38 eb 08 d8 b8
       -0.0002486404 0.00052249664 0.00011565361 -0.00010301344
000320 79 88 55 b6 ad 6e ec 38 4c 58 66 37 96 60 5d b9
       -3.181891e-06 0.00011273972 1.37296265e-05 -0.00021112183
000330 00 18 e0 39 ce 5b 12 ba 91 54 8c ba 48 50 dc b8
       0.0004274249 -0.0005583138 -0.0010706355 -0.00010505371
000340 7e 27 cb 39 34 78 47 3a c1 e4 8d b8 d3 ad 0b b7
       0.000387486 0.0007609159 -6.766013e-05 -8.325517e-06
000350 72 b2 23 39 bd 9e 55 ba d5 f0 1d 39 85 ed 08 b7
       0.00015611367 -0.0008148959 0.00015062404 -8.1615335e-06
000360 5b 23 19 3a b0 69 39 38 1d fb c8 3a ca 4a da 39
       0.0005841755 4.4205866e-05 0.0015333627 0.00041635922
000370 e7 12 39 39 70 43 36 3a 59 7e c5 38 17 bb 79 36
       0.00017650017 0.0006952798 9.417226e-05 3.7212792e-06
000380 fb f7 1c b9 1c 85 d3 b9 50 1d e1 b9 5b c3 84 b9
       -0.00014969699 -0.0004034423 -0.00042937184 -0.00025322553
000390 fc 4e 5f b9 fa 03 d9 3a 48 63 ee ba 3c c2 93 38
       -0.00021296361 0.0016556971 -0.0018187547 7.045685e-05
0003a0 51 50 c3 39 7d d1 8c 3a 01 64 b0 39 4f fe 02 38
       0.0003725314 0.0010743585 0.00033643845 3.123126e-05
0003b0 32 f5 64 b9 ad e3 67 b8 9d d7 5b 3a 2c d3 89 b9
       -0.00021835117 -5.528673e-05 0.0008386316 -0.00026288012
0003c0 d4 d0 02 b7 10 76 a0 37 6a 45 35 b7 0c 7a 48 39
       -7.797225e-06 1.9128463e-05 -1.0804602e-05 0.00019118952
0003d0 5a b5 da b9 59 7b ac b9 86 91 e3 39 4a 02 54 3a
       -0.00041715318 -0.00032898298 0.00043405237 0.00080874993
0003e0 55 cd 9c ba cd 42 71 ba 34 7a 95 39 76 b2 23 b9
       -0.0011963049 -0.00092033745 0.00028510543 -0.00015611373
0003f0 63 43 57 b9 15 86 59 3a 40 73 02 39 1b 80 f6 b8
       -0.00020529101 0.0008297873 0.000124407 -0.000117540556

gnn.gnn_layers.0.gat_conv.bias f4 [1024]
000000 92 9c 94 bb 02 2a d1 bc 12 73 be ba 11 2b 1a bd
       -0.004535266 -0.025532726 -0.0014530143 -0.037638728
000010 3c 4d ef bb 59 9c 0d bc c4 7f 6c 3b 26 5e 9c bc
       -0.007302908 -0.008643233 0.0036086896 -0.019087862
000020 06 6f 90 bc 93 2a 0b bd e7 b5 d2 bb f7 e8 b0 bc
       -0.017631065 -0.03397615 -0.006430376 -0.021595461
000030 9f 5f b7 bd 14 af 82 3c c2 a4 e7 bc 57 52 c7 3b
       -0.08953785 0.015952624 -0.028276805 0.0060828137
000040 32 ee cb bc 29 3f 67 bd 56 82 73 3a 43 63 e5 bb
       -0.024893854 -0.05645672 0.0009289136 -0.0070003583
000050 cf d7 92 bc b4 9f 99 3c 3f bf 18 3c 8a 1d df bc
       -0.017925171 0.01875291 0.00932294 -0.027235765
000060 30 57 7f 3b 7c 92 88 bc 8b 57 63 ba ed 4d 46 3b
       0.003896188 -0.016671412 -0.0008672408 0.003025885
000070 c7 28 58 bd 1e 4f ba bb 31 57 34 bd eb 58 85 3c
       -0.052773263 -0.005685701 -0.044028465 0.016277751
000080 00 4d ba 3c 9b 1c e0 bb 0e 6d f3 bc 20 08 08 bb
       0.022741795 -0.0068393475 -0.029715087 -0.0020756796
000090 08 4c ea 3b 4a 54 7e 3b 18 96 6e bc d9 14 e7 bc
       0.007150177 0.0038807564 -0.014562152 -0.028208183
0000a0 11 e5 52 3c a2 0a 90 bd 1c e8 ae bc 1a 31 cf bb
       0.0128719965 -0.07033278 -0.021350913 -0.006322992
0000b0 84 90 53 3b 59 05 88 3b 02 70 27 3a f6 e7 dd bc
       0.0032282183 0.004151028 0.0006387235 -0.027088147
0000c0 f0 9c c2 3b 6e 6a fd b9 37 26 37 bb f7 9b 82 ba
       0.0059391186 -0.00048335217 -0.0027946362 -0.0009964694
0000d0 83 ad 9a bb 0c 92 fd 3a 12 0b 86 bb c4 71 a2 bc
       -0.0047203912 0.0019345894 -0.004090675 -0.019829638
0000e0 b5 99 66 3c b9 01 8c bd 6f d0 17 bc 60 24 17 bc
       0.014074733 -0.06836266 -0.009266003 -0.009224981
0000f0 76 1a a0 bc 6a 8d e2 3b 48 e6 31 bd 3b 69 70 bc
       -0.019543868 0.0069138305 -0.043432504 -0.014673526
000100 2d f2 c2 bc b8 f1 ad bc 90 71 2f 3b 27 3c ff bc
       -0.023797119 -0.021233425 0.002677057 -0.031156613
000110 ae 3d 7b bc 63 a3 91 bc 5d 7d 5e 3b d1 0f a9 ba
       -0.01533453 -0.017778104 0.0033949234 -0.001289839
000120 8d 08 9d 3b 51 21 09 bc fa b8 1a 37 87 ea dc bb
       0.004792279 -0.00836976 9.2221835e-06 -0.006741825
000130 08 20 4b 3a 86 c2 1f 3c 69 4f 49 bd 5a 56 e1 bc
       0.00077486085 0.009750968 -0.049147997 -0.027506996
000140 70 ae 93 bd f8 1d fe 3c d5 87 c5 39 22 09 b5 3b
       -0.07211006 0.03102015 0.0003767597 0.0055247704
000150 16 31 84 3c 5d a5 42 3c 82 7e 91 3c 93 52 ab ba
       0.016136687 0.011880246 0.017760519 -0.0013070874
000160 1f ce 99 bd 83 33 a3 bb be 5c bf bc 15 f3 83 3c
       -0.075100176 -0.004980506 -0.023359653 0.016107121
000170 65 05 c7 bc 0d 0a a6 bb 15 84 6b bb 8e 35 82 b9
       -0.024294565 -0.005067116 -0.0035936881 -0.00024835434
000180 02 75 94 3c 1a 61 8d 3c 93 f4 08 bc 4a a4 f9 bc
       0.0181222 0.017258216 -0.008359092 -0.030473847
000190 b9 ac eb 3b ad 9f 8a bd 19 60 7a 3c c0 f1 16 3b
       0.007192221 -0.06768737 0.0152817005 0.0023032278
0001a0 5b bb 8a 3b f7 3e 0a bc 5c 36 c6 3b 7a 37 c9 ba
       0.0042337603 -0.008437864 0.0060489606 -0.0015351616
0001b0 a4 77 d2 bb b6 0f 85 bc 76 30 07 3d e3 1b d1 bc
       -0.0064229537 -0.016242843 0.0330052 -0.025525993
0001c0 45 0a 49 b9 32 46 54 3b c5 4c 28 3c c4 4f fc bb
       -0.0001917268 0.0032390472 0.0102722095 -0.0076999385
0001d0 c2 da 90 bc ae 20 e2 bc f2 32 a4 3c e2 2a 33 bd
       -0.017682437 -0.027603474 0.020043824 -0.043742068
0001e0 26 8f 31 bb b1 07 83 bc e4 01 b7 bd 48 b5 3d bb
       -0.002709338 -0.015994878 -0.089359075 -0.0028947163
0001f0 34 8d a3 bd c2 f3 91 bc 9b a6 be bb 05 dd 48 bb
       -0.07985917 -0.017816428 -0.0058182008 -0.0030649316
000200 92 9c 94 bb 02 2a d1 bc 12 73 be ba 11 2b 1a bd
       -0.004535266 -0.025532726 -0.0014530143 -0.037638728
000210 3c 4d ef bb 59 9c 0d bc c4 7f 6c 3b 26 5e 9c bc
       -0.007302908 -0.008643233 0.0036086896 -0.019087862
000220 06 6f 90 bc 93 2a 0b bd e7 b5 d2 bb f7 e8 b0 bc
       -0.017631065 -0.03397615 -0.006430376 -0.021595461
000230 9f 5f b7 bd 14 af 82 3c c2 a4 e7 bc 57 52 c7 3b
       -0.08953785 0.015952624 -0.028276805 0.0060828137
000240 32 ee cb bc 29 3f 67 bd 56 82 73 3a 43 63 e5 bb
       -0.024893854 -0.05645672 0.0009289136 -0.0070003583
000250 cf d7 92 bc b4 9f 99 3c 3f bf 18 3c 8a 1d df bc
       -0.017925171 0.01875291 0.00932294 -0.027235765
000260 30 57 7f 3b 7c 92 88 bc 8b 57 63 ba ed 4d 46 3b
       0.003896188 -0.016671412 -0.0008672408 0.003025885
000270 c7 28 58 bd 1e 4f ba bb 31 57 34 bd eb 58 85 3c
       -0.052773263 -0.005685701 -0.044028465 0.016277751
000280 00 4d ba 3c 9b 1c e0 bb 0e 6d f3 bc 20 08 08 bb
       0.022741795 -0.0068393475 -0.029715087 -0.0020756796
000290 08 4c ea 3b 4a 54 7e 3b 18 96 6e bc d9 14 e7 bc
       0.007150177 0.0038807564 -0.014562152 -0.028208183
0002a0 11 e5 52 3c a2 0a 90 bd 1c e8 ae bc 1a 31 cf bb
       0.0128719965 -0.07033278 -0.021350913 -0.006322992
0002b0 84 90 53 3b 59 05 88 3b 02 70 27 3a f6 e7 dd bc
       0.0032282183 0.004151028 0.0006387235 -0.027088147
0002c0 f0 9c c2 3b 6e 6a fd b9 37 26 37 bb f7 9b 82 ba
       0.0059391186 -0.00048335217 -0.0027946362 -0.0009964694
0002d0 83 ad 9a bb 0c 92 fd 3a 12 0b 86 bb c4 71 a2 bc
       -0.0047203912 0.0019345894 -0.004090675 -0.019829638
0002e0 b5 99 66 3c b9 01 8c bd 6f d0 17 bc 60 24 17 bc
       0.014074733 -0.06836266 -0.009266003 -0.009224981
0002f0 76 1a a0 bc 6a 8d e2 3b 48 e6 31 bd 3b 69 70 bc
       -0.019543868 0.0069138305 -0.043432504 -0.014673526
000300 2d f2 c2 bc b8 f1 ad bc 90 71 2f 3b 27 3c ff bc
       -0.023797119 -0.021233425 0.002677057 -0.031156613
000310 ae 3d 7b bc 63 a3 91 bc 5d 7d 5e 3b d1 0f a9 ba
       -0.01533453 -0.017778104 0.0033949234 -0.001289839
000320 8d 08 9d 3b 51 21 09 bc fa b8 1a 37 87 ea dc bb
       0.004792279 -0.00836976 9.2221835e-06 -0.006741825
000330 08 20 4b 3a 86 c2 1f 3c 69 4f 49 bd 5a 56 e1 bc
       0.00077486085 0.009750968 -0.049147997 -0.027506996
000340 70 ae 93 bd f8 1d fe 3c d5 87 c5 39 22 09 b5 3b
       -0.07211006 0.03102015 0.0003767597 0.0055247704
000350 16 31 84 3c 5d a5 42 3c 82 7e 91 3c 93 52 ab ba
       0.016136687 0.011880246 0.017760519 -0.0013070874
000360 1f ce 99 bd 83 33 a3 bb be 5c bf bc 15 f3 83 3c
       -0.075100176 -0.004980506 -0.023359653 0.016107121
000370 65 05 c7 bc 0d 0a a6 bb 15 84 6b bb 8e 35 82 b9
       -0.024294565 -0.005067116 -0.0035936881 -0.00024835434
000380 02 75 94 3c 1a 61 8d 3c 93 f4 08 bc 4a a4 f9 bc
       0.0181222 0.017258216 -0.008359092 -0.030473847
000390 b9 ac eb 3b ad 9f 8a bd 19 60 7a 3c c0 f1 16 3b
       0.007192221 -0.06768737 0.0152817005 0.0023032278
0003a0 5b bb 8a 3b f7 3e 0a bc 5c 36 c6 3b 7a 37 c9 ba
       0.0042337603 -0.008437864 0.0060489606 -0.0015351616
0003b0 a4 77 d2 bb b6 0f 85 bc 76 30 07 3d e3 1b d1 bc
       -0.0064229537 -0.016242843 0.0330052 -0.025525993
0003c0 45 0a 49 b9 32 46 54 3b c5 4c 28 3c c4 4f fc bb
       -0.0001917268 0.0032390472 0.0102722095 -0.0076999385
0003d0 c2 da 90 bc ae 20 e2 bc f2 32 a4 3c e2 2a 33 bd
       -0.017682437 -0.027603474 0.020043824 -0.043742068
0003e0 26 8f 31 bb b1 07 83 bc e4 01 b7 bd 48 b5 3d bb
       -0.002709338 -0.015994878 -0.089359075 -0.0028947163
0003f0 34 8d a3 bd c2 f3 91 bc 9b a6 be bb 05 dd 48 bb
       -0.07985917 -0.017816428 -0.0058182008 -0.0030649316

gnn.gnn_layers.0.gat_conv.fc.weight f4 [1024, 74]
000000 29 a7 86 39 a4 6c b2 bb 80 3c 66 ba 25 df b0 39
       0.00025683016 -0.00544508 -0.0008782819 0.00033735592
000010 e4 0c 2e 39 98 b1 3b 39 e3 24 e8 38 0b eb c2 b9
       0.00016598735 0.00017899869 0.00011069493 -0.00037177684
000020 bf ad 35 b8 cf 15 00 00 1a 0f 00 80 14 0d 00 00
       -4.3315576e-05 7.823e-42 -5.417e-42 4.692e-42
000030 b8 1b 00 00 cb 1c 00 80 30 13 00 00 49 15 d4 b8
       9.944e-42 -1.0329e-41 6.883e-42 -0.000101129124
000040 4e 5b 00 80 bc 13 00 80 42 0d 00 00 46 7a 00 00
       -3.2754e-41 -7.08e-42 4.756e-42 4.3863e-41
000050 86 0f 00 80 94 0b 00 00 1a 4a 00 00 19 6f 01 97
       -5.569e-42 4.153e-42 2.6583e-41 -4.1822373e-25
000060 31 1c 00 80 1a 31 00 80 05 02 00 80 b3 38 00 00
       -1.0113e-41 -1.7614e-41 -7.24e-43 2.034e-41
000070 82 23 00 80 d8 dd 9f 37 aa 04 00 00 ec 11 00 80
       -1.2738e-41 1.9057581e-05 1.673e-42 -6.429e-42
000080 1d 17 00 80 69 14 00 00 9e 13 00 80 ba 0f 00 00
       -8.291e-42 7.322e-42 -7.037e-42 5.642e-42
000090 71 3e 00 00 43 47 07 ad 1e 09 00 80 d0 00 00 00
       2.24e-41 -7.689685e-12 -3.27e-42 2.91e-43
0000a0 22 19 00 00 1a 1a 00 80 fa 02 00 00 60 02 00 00
       9.016e-42 -9.363e-42 1.068e-42 8.52e-43
0000b0 b0 50 1b ba e3 9e e8 ba 57 9b 6c bb 4e c5 ca 3a
       -0.0005924804 -0.0017747547 -0.0036103332 0.0015470178
0000c0 22 0f 00 80 c9 65 03 38 1f 8a 33 b4 96 12 00 00
       -5.429e-42 3.132763e-05 -1.6720922e-07 6.667e-42
0000d0 95 0b 00 80 a2 32 00 00 ae 1b 93 bb 37 3c d9 3a
       -4.155e-42 1.8164e-41 -0.0044893837 0.0016573732
0000e0 f6 5b 3e bb e5 37 35 ba 31 40 00 80 cf a7 7d 0e
       -0.0029046512 -0.0006912931 -2.3028e-41 3.1265455e-30
0000f0 b1 09 00 00 0d 06 a6 b9 ff 1a 00 80 04 61 f6 39
       3.477e-42 -0.00031666495 -9.684e-42 0.0004699306
000100 1e 97 47 bb 63 db a5 bb c0 0a 00 80 be 7b 8f 38
       -0.0030455063 -0.0050615533 -3.856e-42 6.84182e-05
000110 75 00 1e bb 07 a5 b4 bb d2 bf 14 3b f4 bf 3f bb
       -0.002410916 -0.005512837 0.0022697342 -0.00292587
000120 2f b0 a4 ba b1 0c 00 00 16 ed b7 bc 84 f0 cc 3c
       -0.0012564714 4.553e-42 -0.022451919 0.02501703
000130 f3 2d 4a bc 54 9c e4 bb 7d 14 88 bb 88 03 44 bb
       -0.012340057 -0.0069766436 -0.004152833 -0.0029909331
000140 c1 0a 85 ba 37 cf 76 ba 58 b4 81 39 4c 0c 00 80
       -0.00101503 -0.00094150327 0.00024739164 -4.411e-42
000150 c3 03 00 00 24 4c df b7 0d 18 00 00 57 05 00 80
       1.35e-42 -2.6619127e-05 8.628e-42 -1.916e-42
000160 1b 46 00 00 8e 1a 0d ba 32 05 00 00 96 09 00 80
       2.5149e-41 -0.000538268 1.864e-42 -3.439e-42
000170 88 12 00 80 ce 05 00 00 6f 0a 00 00 ff 35 00 39
       -6.648e-42 2.082e-42 3.743e-42 0.00012227146
000180 49 16 00 00 7d 60 00 80 13 3f 00 80 74 0c 00 80
       7.994e-42 -3.4613e-41 -2.2627e-41 -4.467e-42
000190 78 21 00 80 47 10 00 80 9d 1f 00 80 2b 94 cc b9
       -1.2006e-41 -5.839e-42 -1.1341e-41 -0.00039020306
0001a0 ea 0d 00 80 5a 18 00 80 de 0e 00 00 e4 2d 00 00
       -4.991e-42 -8.736e-42 5.333e-42 1.6462e-41
0001b0 5d 09 00 80 d9 13 00 00 d8 12 00 80 7b 5b 00 00
       -3.359e-42 7.12e-42 -6.76e-42 3.2817e-41
0001c0 a7 1f 00 00 fb 0c 00 80 b7 05 00 80 c9 18 00 80
       1.1355e-41 -4.657e-42 -2.05e-42 -8.891e-42
0001d0 b3 0b 00 80 ec 1a 00 80 67 ec 03 3c 6b 55 03 bc
       -4.197e-42 -9.658e-42 0.008051968 -0.008015971
0001e0 e6 f1 e7 ba 73 72 2e bc 93 1a 00 00 3f 7a 33 bb
       -0.0017695993 -0.010647404 9.533e-42 -0.0027386097
0001f0 89 01 00 80 32 2b 00 00 bd 16 00 80 77 1f 00 80
       -5.51e-43 1.5496e-41 -8.157e-42 -1.1287e-41
000200 ff de a9 3b c1 17 e0 bc 3b 70 cf 3b ed d0 c8 3c
       0.005184054 -0.027355077 0.0063305176 0.024513686
000210 59 06 00 80 1d 0b 00 80 7c 6f 00 00 5c 86 14 3c
       -2.277e-42 -3.987e-42 3.9993e-41 0.009065237
000220 e0 0c b1 b0 d0 51 ae bb dc 6d b0 bc e1 7d d2 3b
       -1.2882104e-09 -0.0053198114 -0.02153676 0.0064236973
000230 be d9 67 13 e3 ba 17 bb 32 11 b4 bc a6 2e b2 bc
       2.9263654e-27 -0.0023152165 -0.021980856 -0.02175076
000240 c2 49 a6 bc 28 65 cb ba 06 d3 fd 3c f3 03 00 00
       -0.020298842 -0.0015517818 0.030984413 1.417e-42
000250 93 e5 3b 3b 14 59 a8 ba 3e 9b 65 bb 78 ac 43 3b
       0.0028670772 -0.001284393 -0.0035035159 0.0029857438
000260 af 65 59 3a 6b 80 d4 39 8d 07 91 37 72 1b 69 36
       0.0008293045 0.0004053147 1.7288863e-05 3.473568e-06
000270 92 d5 d4 38 ef 00 00 80 5a 1d 00 00 ef 11 00 00
       0.00010148728 -3.35e-43 1.053e-41 6.433e-42
000280 36 2f 00 80 93 16 00 00 4b 32 00 80 c1 7a c1 b8
       -1.6936e-41 8.098e-42 -1.8042e-41 -9.225822e-05
000290 05 03 00 00 64 36 00 00 60 11 00 80 f5 06 00 80
       1.083e-42 1.9512e-41 -6.233e-42 -2.496e-42
0002a0 3f 15 14 a2 bb 1b 00 80 8c 05 00 80 31 1c 00 00
       -2.0068988e-18 -9.948e-42 -1.99e-42 1.0113e-41
0002b0 9a 21 00 80 eb 17 00 00 5b 00 00 80 ca 0b 00 00
       -1.2054e-41 8.58e-42 -1.28e-43 4.229e-42
0002c0 83 15 00 00 10 9b 8b 37 0f 10 00 80 5b 0e 00 00
       7.717e-42 1.6642298e-05 -5.761e-42 5.15e-42
0002d0 c3 01 00 00 9e 07 00 00 c8 9b 5d b6 63 d9 ad 2b
       6.32e-43 2.733e-42 -3.3022243e-06 1.2352726e-12
0002e0 68 3d 00 00 83 37 00 00 cd 09 00 80 b2 02 00 80
       2.2028e-41 1.9914e-41 -3.516e-42 -9.67e-43
0002f0 c1 07 00 80 a4 18 00 80 36 01 00 80 9e 18 00 80
       -2.782e-42 -8.84e-42 -4.34e-43 -8.831e-42
000300 8c 89 32 bb 9f 5f 9f 3b c2 07 86 ba 7b 4d 3c ba
       -0.002724263 0.004863694 -0.0010225701 -0.00071831763
000310 94 29 2f 32 ff 03 b0 39 be 06 00 00 11 08 00 80
       1.0195794e-08 0.00033572313 2.419e-42 -2.894e-42
000320 66 10 00 00 15 07 00 00 03 41 8e ba 7b d5 d1 ba
       5.883e-42 2.54e-42 -0.0010853115 -0.0016009057
000330 33 6b 84 bb c9 7b 23 ba c2 24 00 00 f7 0c 00 00
       -0.0040410995 -0.0006236402 1.3186e-41 4.651e-42
000340 29 08 00 00 c4 04 81 3a 8e 12 00 80 f9 bc 20 3b
       2.927e-42 0.0009843339 -6.656e-42 0.00245267
000350 f6 64 db 3b f5 b9 f5 bb a4 09 00 00 3f 93 50 39
       0.006695385 -0.0074989744 3.458e-42 0.00019891279
000360 dc fa 9f 3b d7 8a 02 3b 5b 2b 99 ba 09 47 89 bb
       0.0048821997 0.001991918 -0.0011685895 -0.0041893763
000370 53 c9 70 ba a0 4f 86 2c 1c ba 82 3b 66 3f b6 bc
       -0.0009185273 3.817349e-12 0.003989471 -0.022247028
000380 4e 74 34 bc fa 42 d8 3a bd 09 c1 39 43 cc a1 b9
       -0.011014057 0.0016499453 0.00036819084 -0.000308605
000390 a1 1a 88 39 b2 8f c1 ba 8f 04 2f 3a 6a 0a 00 00
       0.00025959781 -0.0014767556 0.00066763995 3.736e-42
0003a0 72 0a 00 00 d4 2f 00 00 56 13 00 80 7d 3e cb 20
       3.747e-42 1.7157e-41 -6.936e-42 3.443089e-19
0003b0 4b 1b 00 80 44 99 d7 b8 48 12 00 00 1b 1c 00 80
       -9.791e-42 -0.00010280547 6.558e-42 -1.0082e-41
0003c0 98 13 00 00 31 08 00 00 5d 16 00 00 70 04 00 80
       7.029e-42 2.939e-42 8.022e-42 -1.592e-42
0003d0 d5 0a 00 80 a7 f0 d3 18 cd 04 00 80 7a 0f 00 00
       -3.886e-42 5.478522e-24 -1.722e-42 5.552e-42
0003e0 8f 12 00 80 dd 0e 00 80 00 0e 00 80 76 ee 18 b8
       -6.658e-42 -5.332e-42 -5.022e-42 -3.6461708e-05
0003f0 ba 0c 00 00 cb 0f 00 00 dc ac 10 9e a7 15 00 00
       4.565e-42 5.665e-42 -7.659043e-21 7.767e-42

gnn.gnn_layers.0.gat_conv.res_fc.weight f4 [1024, 74]
000000 b7 f6 11 bb 6f 35 b6 ba 19 6e ba ba e2 a5 3c ba
       -0.0022272298 -0.0013901422 -0.0014223485 -0.00071963493
000010 1c e3 2a b9 10 05 8d 38 68 40 0d 38 7e 4a ae b9
       -0.00016297068 6.724347e-05 3.3677003e-05 -0.00033243367
000020 dd ad 47 b9 97 19 00 80 48 34 00 00 68 19 00 80
       -0.00019042888 -9.18e-42 1.8755e-41 -9.114e-42
000030 ba 0f 00 00 c3 22 00 00 b0 24 00 80 f9 d0 03 b9
       5.642e-42 1.247e-41 -1.3161e-41 -0.00012570982
000040 62 18 00 80 87 03 00 80 90 86 09 27 3e 0e 00 00
       -8.747e-42 -1.265e-42 1.9085516e-15 5.109e-42
000050 de 90 c4 b3 d0 52 00 00 fd 15 00 80 4d 0d 00 80
       -9.1533124e-08 2.9708e-41 -7.888e-42 -4.771e-42
000060 01 ab 21 8b 83 0d 00 80 c3 0a 00 80 84 01 00 00
       -3.113612e-32 -4.847e-42 -3.86e-42 5.44e-43
000070 07 0f 00 80 6f d6 2a 38 1d 16 00 00 14 1d 00 80
       -5.391e-42 4.0730865e-05 7.933e-42 -1.0431e-41
000080 88 00 00 00 43 f6 04 1d 0b 07 00 00 28 44 00 80
       1.9e-43 1.7597369e-21 2.527e-42 -2.445e-41
000090 06 19 00 00 37 08 00 80 8a 03 00 00 62 16 00 80
       8.977e-42 -2.947e-42 1.27e-42 -8.03e-42
0000a0 2c 0b 00 80 a1 c9 dd 10 ed 2f 00 80 83 04 00 80
       -4.008e-42 8.747979e-29 -1.7193e-41 -1.618e-42
0000b0 9d 1b 18 bb e0 f2 0f 3b b0 d1 05 bb a9 83 c8 3a
       -0.0023209818 0.0021964833 -0.0020419173 0.0015298027
0000c0 91 0d 00 80 9a 09 d0 38 f9 04 00 80 7d 89 82 b2
       -4.867e-42 9.920001e-05 -1.784e-42 -1.5196514e-08
0000d0 05 0c 00 00 d2 1b 00 00 0f 8f 51 bb 99 2d 0b 3b
       4.312e-42 9.98e-42 -0.0031976139 0.0021236895
0000e0 37 ca 07 bb 6a b5 ec ba 1e 05 00 80 a1 06 00 80
       -0.0020719895 -0.0018059437 -1.836e-42 -2.378e-42
0000f0 ab 88 48 1f e4 9a 0e 3a 6a 12 00 00 d6 94 18 39
       4.2464696e-20 0.00054399506 6.606e-42 0.00014551295
000100 85 78 1b bb ad 45 b3 bb 0f 30 00 80 a4 4d 35 38
       -0.0023722958 -0.0054709525 -1.724e-41 4.322607e-05
000110 47 e3 92 ba 9f 84 58 bb 5f 45 6b 3b f4 7e 42 bb
       -0.001120665 -0.0033038033 0.0035899503 -0.002967772
000120 bd d7 13 bb c5 04 00 80 80 25 cd bc bb 66 a1 3c
       -0.002255901 -1.711e-42 -0.025042295 0.019702306
000130 12 90 5c bc 5a 3a 10 bc d7 ae 0f bc 45 53 1b bb
       -0.013462083 -0.008802975 -0.008769712 -0.0023700756
000140 0a 86 77 39 bd bd 96 bb a0 16 94 39 02 0c 00 00
       0.00023605689 -0.0046002553 0.00028245617 4.308e-42
000150 0f 11 00 00 fd d6 19 b0 2a 16 00 00 77 17 00 80
       6.12e-42 -5.596659e-10 7.951e-42 -8.418e-42
000160 1d 10 00 00 f5 41 b6 b9 3a 1d 00 00 e6 49 00 00
       5.78e-42 -0.00034762887 1.0485e-41 2.651e-41
000170 b8 04 00 80 0f 32 00 80 27 0d 00 80 ba 07 00 00
       -1.693e-42 -1.7958e-41 -4.718e-42 2.772e-42
000180 c9 04 00 80 ef 07 00 80 6a 00 00 00 6e 31 00 80
       -1.717e-42 -2.846e-42 1.49e-43 -1.7732e-41
000190 41 2a 00 80 ca 09 00 00 cc 12 00 00 bc 42 cb 39
       -1.5158e-41 3.512e-42 6.743e-42 0.00038768898
0001a0 2d e4 02 3a ad 20 00 00 ec 18 00 80 6a 0e 00 80
       0.0004993107 1.1722e-41 -8.94e-42 -5.171e-42
0001b0 7c bf 4b ad cd 0b 00 80 e4 15 00 00 9d 06 00 00
       -1.1581732e-11 -4.233e-42 7.853e-42 2.372e-42
0001c0 3a 36 00 00 dc 02 00 80 ff 04 00 00 8f c8 77 b4
       1.9453e-41 -1.026e-42 1.792e-42 -2.307663e-07
0001d0 f9 12 7a 37 28 0f 00 80 be d0 22 3c 23 b8 8a bc
       1.4905579e-05 -5.437e-42 0.009937463 -0.016933506
0001e0 35 42 67 3b e9 e0 06 bc a5 13 00 00 2f aa a3 ba
       0.0035287265 -0.008232334 7.047e-42 -0.0012486632
0001f0 26 27 00 00 cc 08 00 80 92 26 00 80 fe 16 00 80
       1.4044e-41 -3.156e-42 -1.3836e-41 -8.248e-42
000200 bb 54 82 bb af 5b f6 bc ca 2f bd ba c9 b9 01 3d
       -0.003977386 -0.030073015 -0.0014433798 0.03167132
000210 48 0d 00 00 96 2a 00 00 af 04 00 00 41 99 f9 3b
       4.764e-42 1.5277e-41 1.68e-42 0.0076171462
000220 7f 09 00 80 e2 83 a8 bb f7 85 c1 bc 78 2a e0 3b
       -3.407e-42 -0.005142675 -0.02362345 0.006841
000230 70 09 00 80 f3 b4 1f b9 8f 2c bb bc 4d 47 f7 bc
       -3.386e-42 -0.0001523083 -0.022848396 -0.030185366
000240 e3 ef db bc 0d 4d 83 ba a5 f2 0e 3d e4 0e 00 80
       -0.026847785 -0.001001747 0.034899373 -5.342e-42
000250 53 8b d6 3b 8f df ab bb cd 31 74 bb e8 be 47 b9
       0.0065473705 -0.005245156 -0.003726113 -0.00019049237
000260 0a b1 ee 3a a3 50 89 39 46 c2 1c b8 5c f5 cd 36
       0.0018210721 0.00026190755 -3.737423e-05 6.1380397e-06
000270 7a cf 11 3a e3 10 00 80 78 45 00 80 c2 26 00 00
       0.00055622275 -6.058e-42 -2.492e-41 1.3904e-41
000280 37 0c 00 00 1c 0c 00 80 3c 10 00 80 13 30 77 b9
       4.382e-42 -4.344e-42 -5.824e-42 -0.00023573665
000290 60 10 00 80 63 2a 00 00 3e 28 00 80 66 01 00 00
       -5.874e-42 1.5205e-41 -1.4436e-41 5.02e-43
0002a0 ba 0a 00 80 aa 13 00 00 cc 05 00 80 92 04 00 00
       -3.848e-42 7.054e-42 -2.08e-42 1.64e-42
0002b0 cb 0b 00 00 c8 6d 02 b2 9f 0c 00 00 1b 09 00 00
       4.23e-42 -7.591957e-09 4.528e-42 3.266e-42
0002c0 11 08 00 80 ad 0f 96 b8 70 07 00 00 c6 22 00 00
       -2.894e-42 -7.155477e-05 2.668e-42 1.2474e-41
0002d0 75 11 00 80 3c 11 00 80 47 05 00 00 3d 10 00 00
       -6.262e-42 -6.183e-42 1.893e-42 5.825e-42
0002e0 b9 08 00 00 85 0d 00 80 cb 11 00 00 9e 09 00 00
       3.129e-42 -4.85e-42 6.383e-42 3.45e-42
0002f0 77 05 00 00 07 04 00 00 3a 53 de 26 2f 0d 00 80
       1.96e-42 1.445e-42 1.5426903e-15 -4.73e-42
000300 5f be a1 bb 0b 51 15 3c ea 6d 22 bb b3 c1 d5 38
       -0.004936024 0.00911356 -0.0024784752 0.00010192711
000310 d2 30 00 80 16 73 e4 39 9f d6 0c 21 a1 07 00 00
       -1.7513e-41 0.00043573295 4.7717894e-19 2.737e-42
000320 8d 0c 00 00 36 05 00 80 14 53 ac bb 86 5b 2e 3b
       4.502e-42 -1.87e-42 -0.005258927 0.0026604845
000330 c1 59 aa bb a4 9d 37 b9 6b 36 00 80 9f 46 00 00
       -0.005198688 -0.00017510966 -1.9521e-41 2.5334e-41
000340 49 24 00 00 4f b3 65 3a cf 14 00 00 50 c9 fd 3a
       1.3017e-41 0.0008762376 7.465e-42 0.0019362364
000350 4f 8f 21 bb 13 c3 b8 bb 1b 2b 00 00 a0 be a4 39
       -0.002465207 -0.005638489 1.5463e-41 0.00031422544
000360 a0 36 cf 3b be 4d 31 bb 79 d5 61 3c 43 92 b3 bb
       0.0063236505 -0.0027054395 0.013783806 -0.0054800822
000370 f5 ad 57 ba 7e df 3c b7 d4 cb 19 bc aa 13 9c bb
       -0.0008227521 -1.1257709e-05 -0.009386975 -0.0047630863
000380 f2 bf a6 bc ea 7a 40 3a 06 01 63 3b 05 3e e8 37
       -0.020355199 0.00073425344 0.0034638061 2.7685435e-05
000390 b9 4c 1f b8 f3 cf 33 ba 5b 73 b2 3a cc 08 00 80
       -3.7980008e-05 -0.0006859295 0.0013614701 -3.156e-42
0003a0 8a 32 00 00 6a 21 00 80 f2 09 00 00 51 08 00 00
       1.813e-41 -1.1987e-41 3.568e-42 2.983e-42
0003b0 46 2c 00 80 30 81 82 b7 51 12 00 80 5a 1a 00 80
       -1.5882e-41 -1.5557365e-05 -6.57e-42 -9.453e-42
0003c0 71 75 b1 b1 65 15 00 80 fd 12 00 80 6b 0f 00 80
       -5.1647295e-09 -7.675e-42 -6.812e-42 -5.531e-42
0003d0 59 10 00 80 eb 1d 00 80 e2 47 00 00 cb 1f 00 00
       -5.864e-42 -1.0733e-41 2.5787e-41 1.1405e-41
0003e0 ce 35 00 80 ae 10 00 00 45 1b 00 80 b1 01 57 b9
       -1.9301e-41 5.984e-42 -9.782e-42 -0.00020504628
0003f0 32 1f 00 00 ee 10 00 80 85 1a 00 80 78 19 00 80
       1.1191e-41 -6.073e-42 -9.513e-42 -9.136e-42

readout.weight_and_sum.atom_weighting.0.weight f4 [1, 128]
000000 33 07 28 3d c8 2e 4b 3d dd b6 17 3d 7a 4e 9d 3e
       0.04102249 0.04960516 0.037039626 0.30723935
000010 35 a1 0d 3d 3a 5d 57 3d cc e1 76 3c 1c d9 e2 3d
       0.034577567 0.052579142 0.015068483 0.110765666
000020 26 80 a4 bd ce 5b d6 3d 60 a6 85 3d ef f1 e7 3d
       -0.08032255 0.10466729 0.06525874 0.11325442
000030 27 98 58 3e 86 70 8a bd 17 75 72 3e 1b 93 52 bd
       0.21151792 -0.067597434 0.23677479 -0.051409822
000040 02 91 60 3e ed 9a a0 3e 80 a9 45 bb 13 0f 3d 3d
       0.21930316 0.313682 -0.0030160844 0.046156954
000050 e6 86 da 3d d0 20 2d 3d 53 35 13 bd da 96 68 3e
       0.10670261 0.04226762 -0.035939526 0.22713795
000060 04 08 44 bd 17 47 0b 3e 90 91 b6 3c d7 58 a7 3c
       -0.047859207 0.13601337 0.022286206 0.020428104
000070 e4 7f 45 3e 12 52 3e 3d fb 08 05 3e ff a5 a6 bd
       0.19287068 0.046464987 0.12991707 -0.0813713
000080 57 36 74 bd ff 74 83 3e a9 0f 02 bd ee e5 60 3c
       -0.059622135 0.25675198 -0.031753216 0.0137266945
000090 26 11 0e ba b8 5a 6e 3d ec 77 86 3d 87 67 8d 3d
       -0.00054194254 0.058191985 0.06565842 0.06904512
0000a0 17 82 07 bd 66 7d 5f 3e 69 8c cd 3d 56 8e 35 3d
       -0.033083048 0.2182518 0.10036547 0.044325195
0000b0 f0 ec 0b bd 03 6f 79 bb af 00 62 bb a1 06 0e 3e
       -0.034161508 -0.0038060553 -0.003448527 0.13869716
0000c0 a4 af 53 bd 8d 6b 24 bb f9 61 3d 3d 15 fe 16 3d
       -0.051681176 -0.002508852 0.046236012 0.036863405
0000d0 53 66 78 3d 26 6f 29 bc c3 06 96 3d 48 e4 b2 3d
       0.06064446 -0.010341441 0.073255084 0.087349474
0000e0 35 fb 7e bd 48 a6 8a 3e 8f 75 03 3d 76 0e 64 3d
       -0.06225129 0.27079988 0.032094534 0.055677854
0000f0 19 61 91 3d 51 4c 93 3d a7 ea d2 3d f9 c7 c4 bd
       0.07098598 0.071922906 0.10298663 -0.09608454
000100 89 36 73 3d 34 99 9e 3e 39 59 76 bc 73 8a 56 3d
       0.05937818 0.3097626 -0.015035921 0.05237813
000110 37 c5 e6 3d 64 84 c7 3d 5e ce 94 bd 09 dd 42 3c
       0.112680845 0.097420484 -0.07265924 0.011893519
000120 75 de d6 bc a2 a1 c1 3c eb c1 25 bb b6 bc 25 3d
       -0.026229123 0.023636643 -0.0025292586 0.040463172
000130 75 d3 1c bd 36 83 85 3d cc ef ea 3d d2 2f 15 3e
       -0.0382876 0.06519167 0.11471519 0.14569023
000140 04 46 23 3e d6 e3 b6 bd b9 4c 89 3c 2b 97 45 bd
       0.15944678 -0.08930175 0.016760217 -0.048239868
000150 56 0a f0 bd 7b 3f 9f 3c 29 61 f4 bd b8 92 0b 3c
       -0.117207214 0.01943945 -0.11932594 0.008518867
000160 e9 45 9a 3d a2 10 54 3d 0c bf d4 3d 68 b8 af bd
       0.075328656 0.051773675 0.10388002 -0.085800946
000170 ed de e9 3c 13 37 8c bb 4c e8 ea 3a 4f 50 7e 3b
       0.028548682 -0.0042790263 0.0017922013 0.0038805192
000180 9a 21 89 bd 03 80 b2 3c 6a 01 e3 3c 28 6b aa 3d
       -0.06695862 0.021789556 0.027710635 0.0832122
000190 af e5 15 be a2 4a a2 3e 3d 6c a8 be c8 a0 3d bc
       -0.14638399 0.31697565 -0.3289508 -0.011573978
0001a0 64 1e f8 bb 3f 96 d9 bc 2a 3f 80 bc ec 62 c3 3b
       -0.007571982 -0.0265609 -0.015655119 0.00596272
0001b0 cc 98 03 3d 30 96 32 3e 71 5c 0f bd 93 0a 3c 3e
       0.03212814 0.17440104 -0.03500027 0.18363409
0001c0 cb 4d 58 3a 55 9e 15 bd 4d b5 a8 bd b3 c0 8e 3b
       0.0008251338 -0.03652795 -0.082377054 0.0043564676
0001d0 b4 8a 00 3e e0 f4 61 3e ef 01 23 be d1 e4 7f 3e
       0.12552911 0.22066069 -0.15918706 0.2498963
0001e0 26 10 b4 bc b6 1d 27 3e 07 2c 64 3e d7 bd 00 3d
       -0.021980356 0.16319928 0.2228242 0.031431045
0001f0 c0 73 9a 3e 9b b5 a1 3c f5 b4 03 3d 78 3c 91 3c
       0.30166435 0.019739917 0.032154996 0.017729029

predict.predict.1.weight f4 [128, 256]
000000 0f d9 bf b9 37 ef 0c 38 ff 40 46 37 8a f0 c0 39
       -0.0003659208 3.3601387e-05 1.1816853e-05 0.0003680031
000010 a5 d8 a8 37 0b 20 cf 37 8d ee 5a b8 76 09 a9 38
       2.0128044e-05 2.4691244e-05 -5.2197418e-05 8.06031e-05
000020 7b 63 69 b8 9d 3e 0e 38 db da e9 38 d0 01 bd 38
       -5.5644177e-05 3.391375e-05 0.00011151071 9.01256e-05
000030 18 60 47 39 03 e3 35 b8 f7 a9 2a 39 a2 45 fa b8
       0.00019013917 -4.3365184e-05 0.0001627578 -0.00011933899
000040 4f 76 c9 39 92 ac 78 39 d9 a2 d6 b5 7a 0a 59 38
       0.00038425854 0.0002371541 -1.5991637e-06 5.174659e-05
000050 ef 0d 5d 37 95 0c 3e 39 da 1b 61 37 b4 89 2d 38
       1.3175871e-05 0.00018124499 1.341753e-05 4.137466e-05
000060 f6 63 28 b8 ff 9a 24 38 9e 35 63 36 16 e8 49 37
       -4.0147417e-05 3.9245e-05 3.3856845e-06 1.203457e-05
000070 1e 87 15 39 d0 1f d8 b8 ff 3a 1a b5 2c fa 4d bb
       0.00014260082 -0.00010305608 -5.745532e-07 -0.0031429632
000080 96 37 97 b8 78 dc 00 39 31 97 2d b8 8b a0 b7 b7
       -7.210595e-05 0.00012289162 -4.1387222e-05 -2.1890059e-05
000090 b6 a8 a6 b7 88 af 7b b6 e6 8a 0d 37 d4 c1 e0 38
       -1.9867304e-05 -3.7504087e-06 8.436595e-06 0.00010717256
0000a0 23 2b c4 b7 13 bb 10 39 47 f1 b0 38 ac 02 c2 39
       -2.3385108e-05 0.00013802601 8.4372754e-05 0.00037004554
0000b0 c8 3e 02 b9 aa f2 af 34 45 59 ce 35 3f ff 9c 39
       -0.00012421154 3.2772851e-07 1.5374177e-06 0.00029944812
0000c0 ee e4 45 37 fe 2f a7 36 aa d5 12 38 40 7d 90 b7
       1.1795417e-05 4.982575e-06 3.5008103e-05 -1.7224462e-05
0000d0 e1 6d 8b 38 b1 45 19 b7 a6 d5 e4 37 65 53 18 39
       6.648503e-05 -9.135737e-06 2.7279206e-05 0.00014526916
0000e0 2d a0 0d b8 c8 f0 36 3a 38 e5 4f b8 75 b4 04 38
       -3.3766195e-05 0.0006978628 -4.9566122e-05 3.1639316e-05
0000f0 33 07 0e 39 f0 23 04 39 59 0c b2 38 96 27 de b7
       0.00013544857 0.00012601889 8.490001e-05 -2.6482896e-05
000100 1c f3 cc 38 b5 f8 57 b5 64 d9 97 37 92 f4 e7 37
       9.772761e-05 -8.045566e-07 1.8101833e-05 2.7651233e-05
000110 1b b5 ec 38 f1 7b 63 b9 39 a1 bb b9 bb ff 30 36
       0.000112870905 -0.00021694579 -0.0003578754 2.6374898e-06
000120 71 94 b4 35 8b 0a f8 36 b8 14 35 37 31 46 35 36
       1.3454247e-06 7.3922033e-06 1.0793265e-05 2.7011959e-06
000130 9c 1a 61 36 4f 6c 91 38 46 94 70 38 fc 02 5a 39
       3.3543101e-06 6.934313e-05 5.735855e-05 0.00020791212
000140 80 40 16 39 52 b7 ba b7 fb c7 ce 37 bd 5f 17 b8
       0.00014329143 -2.2258293e-05 2.4650237e-05 -3.609037e-05
000150 d6 6a 5a 3a 83 ca a2 39 a7 2d 28 b9 e8 67 73 b7
       0.000833196 0.0003104993 -0.00016038735 -1.4508121e-05
000160 2d a8 ce 38 14 16 1e 37 1e 02 d4 39 ec 07 9f b8
       9.854171e-05 9.422674e-06 0.00040437368 -7.5831864e-05
000170 5a 24 26 38 9e e3 9c b7 8d 09 bb b7 15 8c cb 36
       3.961134e-05 -1.8702642e-05 -2.2296585e-05 6.066179e-06
000180 6d d1 47 b8 69 7d 97 37 88 2c 1b 39 1b 2d e2 37
       -4.764034e-05 1.8059001e-05 0.00014798541 2.6962303e-05
000190 b8 04 76 b8 4d b3 22 39 3f 02 a0 b7 84 52 6c 39
       -5.8655365e-05 0.00015516319 -1.9074532e-05 0.00022537453
0001a0 d2 86 83 b8 13 6b 3b 38 1b dc b5 b6 85 5b 04 b8
       -6.271679e-05 4.4683995e-05 -5.419844e-06 -3.1556487e-05
0001b0 e8 66 1f 37 66 8c 06 b9 31 4f dc b8 d4 a1 fb 38
       9.501098e-06 -0.00012831538 -0.00010505168 0.000119987555
0001c0 70 ce 93 b4 dc 75 a1 b7 2b 01 7b b9 44 7f 41 b7
       -2.7531087e-07 -1.9247578e-05 -0.0002393766 -1.1533328e-05
0001d0 e3 ae a0 3a fb 9e 23 b8 8b 41 2d b9 70 b4 3e 39
       0.0012259152 -3.901029e-05 -0.00016522982 0.0001818703
0001e0 29 2a 97 b8 14 ad 22 39 07 15 ed 38 a7 01 7b 38
       -7.208094e-05 0.00015514 0.00011304957 5.9844602e-05
0001f0 d5 e3 8b 39 0e 9a 3f b9 23 e9 cf 36 1b 47 4d 36
       0.00026681894 -0.0001827257 6.1962214e-06 3.058877e-06
000200 52 6c a6 b1 95 93 2b 33 5b c9 0b 34 41 d6 fd 36
       -4.8435504e-09 3.9948265e-08 1.3018636e-07 7.56493e-06
000210 d3 61 e1 34 9d 22 f4 31 df f5 68 b5 b5 d1 4a b5
       4.1980692e-07 7.1052697e-09 -8.6784524e-07 -7.555603e-07
000220 ec 78 92 b7 b1 91 cd 32 45 b3 ed b4 a8 d7 61 36
       -1.7460865e-05 2.3931394e-08 -4.4275126e-07 3.3653141e-06
000230 96 b1 ea 36 bc 22 39 36 05 b9 af b5 c8 32 cb b5
       6.994417e-06 2.7587366e-06 -1.3092364e-06 -1.5139458e-06
000240 9b 93 0b 35 76 bc 34 37 7c 6c 8d 33 95 96 9c b4
       5.199633e-07 1.07727155e-05 6.585557e-08 -2.9166827e-07
000250 e6 4a 06 33 e8 8b 52 35 0e ee a7 b6 40 ae 7b b2
       3.1267426e-08 7.8434687e-07 -5.004701e-06 -1.4649743e-08
000260 85 bc a4 b5 74 ad 8d b4 c2 28 34 b4 a9 8a 95 33
       -1.2273819e-06 -2.63895e-07 -1.6778634e-07 6.963575e-08
000270 1b c4 eb 35 47 86 30 b4 ee 1a 82 b4 2c 22 71 b7
       1.7565939e-06 -1.6440127e-07 -2.423398e-07 -1.4372676e-05
000280 c4 9c 70 b7 05 be 17 b5 15 ce 7d b7 3a d2 68 35
       -1.4341615e-05 -5.65284e-07 -1.5127957e-05 8.6732655e-07
000290 cb c4 21 b7 51 d4 01 b7 c0 f4 99 32 ff 83 2e b5
       -9.642167e-06 -7.738433e-06 1.7922844e-08 -6.501213e-07
0002a0 29 5c 45 35 2a 8f 87 33 9e 7b 3b b2 6b 5a af b5
       7.352233e-07 6.312469e-08 -1.091294e-08 -1.3064831e-06
0002b0 b1 ed a0 34 7c ec 96 b4 cb fb 88 b6 75 45 d5 35
       2.9975266e-07 -2.8111742e-07 -4.0824284e-06 1.5889951e-06
0002c0 dc 74 54 34 86 ca 1a 33 86 11 30 34 89 67 85 35
       1.9786552e-07 3.6040113e-08 1.6397652e-07 9.939405e-07
0002d0 37 63 66 b4 66 66 cd b5 92 5c 9d 34 19 1a 8d b3
       -2.1456513e-07 -1.5303492e-06 2.9310883e-07 -6.570571e-08
0002e0 3a ec b2 b2 22 7e 01 b5 00 b3 d6 b4 82 15 4e 31
       -2.082935e-08 -4.823979e-07 -3.9990846e-07 2.9989171e-09
0002f0 7e ef 32 33 8c 87 aa b4 b3 d6 b3 34 2e 29 47 b5
       4.166167e-08 -3.176359e-07 3.3497562e-07 -7.41932e-07
000300 1a ca 56 36 c5 ba 17 b6 ac 37 57 34 0a 32 82 b3
       3.2006124e-06 -2.2609468e-06 2.0043689e-07 -6.062699e-08
000310 40 af 49 b3 a7 0b 81 34 06 76 ac 35 f2 20 30 b3
       -4.695835e-08 2.40366e-07 1.2849348e-06 -4.1008157e-08
000320 29 c4 11 35 33 f9 53 b3 03 2e c9 b1 cd 67 f4 b3
       5.430216e-07 -4.935391e-08 -5.855101e-09 -1.1381017e-07
000330 7c 22 63 b4 d0 f2 70 b6 a9 63 fc b7 68 41 d4 33
       -2.1153568e-07 -3.5904122e-06 -3.0087149e-05 9.8839166e-08
000340 0c 1a c1 b4 52 32 35 35 b4 05 87 b4 85 8d 62 b7
       -3.5968003e-07 6.750098e-07 -2.514986e-07 -1.35036e-05
000350 bc 78 83 36 09 e5 5a 34 c3 0f 2c b7 fa c7 a8 b6
       3.9181596e-06 2.0386155e-07 -1.0255669e-05 -5.0300705e-06
000360 a7 98 41 32 00 90 02 34 23 d4 1c 35 ca f4 aa b7
       1.1268788e-08 1.215958e-07 5.842323e-07 -2.0379568e-05
000370 b1 51 e8 b3 82 04 90 b4 e6 c6 e4 31 cf ee 61 30
       -1.08182014e-07 -2.682537e-07 6.6582855e-09 8.219389e-10
000380 16 1e 86 34 5f 0b 2c b6 71 94 2c ae 1c 20 f1 32
       2.4981335e-07 -2.5636616e-06 -3.9240115e-11 2.8070694e-08
000390 db 10 c7 b7 5d 92 b3 b7 75 46 47 b8 c7 0a a6 b5
       -2.3730498e-05 -2.1406619e-05 -4.7510915e-05 -1.23711e-06
0003a0 72 8f 39 33 49 56 30 b7 42 ca 44 b5 6e c6 0d b1
       4.3204132e-08 -1.0510507e-05 -7.3310014e-07 -2.0630995e-09
0003b0 08 1c 1b 32 50 65 09 36 1e 13 5f b5 fd e0 0d 35
       9.028561e-09 2.0473562e-06 -8.310179e-07 5.2853994e-07
0003c0 38 6d 42 30 6b 61 7a b3 db 6a 7d b7 f0 5c e2 b6
       7.0732e-10 -5.8296262e-08 -1.5104854e-05 -6.746144e-06
0003d0 3e ab 97 b5 77 06 95 b4 52 5d c1 b8 fe 6d 79 b6
       -1.1300215e-06 -2.7758117e-07 -9.2203394e-05 -3.7167915e-06
0003e0 4a 8f f5 b4 d6 7b bd 34 db cb be b6 0a d5 a6 b4
       -4.5739063e-07 3.5294096e-07 -5.686173e-06 -3.1074916e-07
0003f0 3e 25 0a b6 53 9b d4 35 a3 ac f3 b2 fa 1d 17 31
       -2.058528e-06 1.5840436e-06 -2.836743e-08 2.1990432e-09
