Results/GAT/saved_model/GAT_bst_14.pth (torch, 759480 bytes, 13 tensors)

gnn.gnn_layers.0.gat_conv.attn_l f4 [1, 8, 128]
00000000: b2f9 9dbb 3db5 23ba 2bd8 adbb 5e74 b539
00000010: eaa9 96bb 7e13 ad3a b8b1 01ba e850 f538
00000020: b87b 473b 58c3 14bb 78ae 42ba 2f8b a83a
00000030: 0075 3e3b 1635 62bc 811d 433b 28b5 95bb
00000040: 3c17 f23a 5a78 9a38 426d 7cbb be0a 06bc
00000050: 46e9 05bc 3ac9 5abb 1d33 5f3a 0eea 133b
00000060: a13f e3bb 1664 cb39 d67d 8e3b 735b c63b
00000070: 0ca4 afba f69c 4c3b 9a99 c43a 025e f23a
00000080: 3c85 423b 69cb 7bb9 0393 deba 3d5a bcbb
00000090: f1fe 803a e9e5 533b 4302 603a adce 72ba
000000a0: 9d3d 0bbb 320d 813b 33fa a9bb de67 0cbb
000000b0: b45f fa3b b0e2 943b d34d a23b 8fef cabb
000000c0: 09e9 3e3b 2613 763b 466b 483a 031a 73bb
000000d0: 19ef c6bb cbe8 963b 9682 3aba 1b0a abba
000000e0: a638 c13a 07fb 1ebb d5fd e73b ea2e 443b
000000f0: 803d 7fbb e2b8 0a3c df22 393b 0f00 1abc
00000100: e116 07bb 4bcb 5c3b 5751 c03a 39b2 c8ba
00000110: 345d 14bc 0174 96b9 042f efbb deaa 6cbb
00000120: 656c 3d3b c0f7 50ba 092d 663b 88fa 85bb
00000130: 1467 6dbb 20d9 a73a b984 88ba 64b9 2db9
00000140: 8d59 3dba 6929 d2bb e280 d3ba 8259 2abb
00000150: 5206 afbb fcef d33b fcfc b43b 5586 ef3a
00000160: 9bec 0d3c ebd4 deba 446e 8f39 3666 0fbb
00000170: 7d74 c43a 397f bf39 f8a3 173c 13ff 253b
00000180: c45d 833a 73e4 88ba 9973 82bb 20a0 023b
00000190: 5470 123a dd40 e9ba 6a1e 723c 9548 463b
000001a0: 1fe3 0cbb 8477 64bb 500d 893b 4c8e 4c3b
000001b0: 86eb 243b 5dca dcbb 3e1f 533a 6658 0e3b
000001c0: 26fd 4f3a 68ee 6ebb 4b3a 0abb a476 7abb
000001d0: d2bc 03bb 02d4 6ebb d23b b0ba 4f61 723a
000001e0: 6270 73bc b646 a73b 8666 44bc 1fcb f4bb
000001f0: 323f 153b caf5 18bb 5e19 b33b a8e7 ecba
00000200: 1744 1c3b ab79 9fba f3fc 8bbb 8247 07bb
00000210: 4bc2 05bc 72c9 cfb7 8cbc bc3b 6c5f 08b8
00000220: 77ac f23a 1db9 9939 4a14 2e3b b268 b83a
00000230: e61c 2ebb 630b 02bc d0ac 94ba 9465 de3b
00000240: f41a 9eba ba1b d03a acbf 7ebb e97b f3bb
00000250: 33fe 9bba 005d a339 6dde 973a c69c 3c3b
00000260: 3635 793a e7ac 033a d642 1e3a 1780 f63a
00000270: 718e cd39 d36a b5b9 75b6 2b3a 25f8 de3a
00000280: f766 3c3b 6ada ad3a 7913 02bb 7f91 e1ba
00000290: 5e06 0f39 c6b0 9b3b 0171 023a be77 1fbb
000002a0: cef8 86bb 72f9 733a a148 3fbb a95c 85b8
000002b0: d560 ef3b 09fd b73b 8a6b 8f3a 4aa1 343c
000002c0: 6c00 d3ba 9e49 a4ba 6269 623b 1a7e 45bb
000002d0: 890c 0d3b 6c50 813b 4611 f2ba fea9 303b
000002e0: 5b9c 0cbb 3e2f 02bb 7b09 d139 1fe4 9eba
000002f0: 5bf3 b7bb 0670 233c 1ab2 8339 e4d0 53bc
00000300: 010d 47ba 1d24 ad3a 82ab 673b 8deb fe3b
00000310: aa2f 20ba 035a 513a abb1 84bb 768d b438
00000320: e438 703b 40a2 913a b1ec 1a3b 54ed bfba
00000330: e051 9cbb 5506 4c3a 4e74 5fba e9ab c5bb
00000340: 4fab 673b 133b 31bb 76c5 5b3a 6627 de39
00000350: 8d8c 18ba 9140 303b d6c9 513b 28ee 37ba
00000360: 80be fc3b 36f9 67bb d11d cb3b 14ee 7e3b
00000370: 3ccb 24bb 47b7 8339 10ad ba3b 418c ccb9
00000380: 51e6 10ba 60c0 a33a 4337 0cbb db80 143a
00000390: 0f93 383b 1f85 a3ba 1823 3f3c 4dce 0e3a
000003a0: dad8 a53b c888 eeba bac1 b739 09a3 933a
000003b0: 95c0 0f3b 34ea cdbb 7d49 8dbb 22a1 e23b
000003c0: d4c4 e3b9 2652 05bb d267 463c 55f4 0f39
000003d0: cb01 17bb 4cbc 13ba 50b7 8eba 073c 733b
000003e0: a1b5 41bc 9d00 f03b 2e06 3cbb 66a2 47bc
000003f0: 46fc 2fba 49cb 853a 015b 0dbb 8b21 d439
-0.0048210258 -0.0006244963 -0.0053053102 0.0003460971 -0.004597892 0.0013204662 -0.00049474416 0.0001169758
0.0030438732 -0.0022699442 -0.00074265106 0.0012858863 0.0029061437 -0.013806602 0.0029772224 -0.0045687146
0.0018470059 7.3657095e-05 -0.0038517271 -0.008181272 -0.0081732925 -0.00333841 0.00085143914 0.0022569927
-0.0069350754 0.00038793747 0.004348497 0.006053382 -0.001340033 0.0031221486 0.001499939 0.0018491151
0.0029681465 -0.00024013002 -0.0016981069 -0.005748062 0.0009841603 0.0032333082 0.0008545259 -0.00092623645
-0.0021246441 0.0039383406 -0.005187297 -0.0021424214 0.007640803 0.004543625 0.004953125 -0.0061931084
0.00291306 0.0037548034 0.00076453795 -0.0037094362 -0.006070983 0.004605388 -0.0007114796 -0.0013049276
0.0014741614 -0.002425851 0.0070798197 0.002993519 -0.003894657 0.008466931 0.0028249545 -0.009399428
-0.0020613002 0.0033690508 0.0014672679 -0.0015311904 -0.0090554245 -0.0002869666 -0.007299306 -0.0036112587
0.002890372 -0.0007971488 0.0035122058 -0.0040887035 -0.003622477 0.0012805797 -0.0010415531 -0.00016567629
-0.0007223122 -0.006413628 -0.0016136433 -0.0025993292 -0.0053413296 0.0064678174 0.005523322 0.0018274287
0.008662368 -0.001700071 0.0002735724 -0.002188099 0.001498833 0.00036525147 0.009255402 0.0025329038
0.0010022451 -0.001044406 -0.0039810655 0.0019931868 0.0005586196 -0.001779582 0.014777759 0.0030255665
-0.002149768 -0.0034861276 0.004182495 0.0031212745 0.0025164797 -0.006737991 0.00080536667 0.002172017
0.00079341454 -0.003645802 -0.0021091874 -0.0038217688 -0.002010156 -0.0036442284 -0.0013445562 0.00092460675
-0.014858337 0.005104865 -0.011987334 -0.007470503 0.0022773263 -0.002333986 0.0054656705 -0.001807441
0.0023844296 -0.0012166997 -0.0042720973 -0.0020641987 -0.008163999 -2.4770128e-05 0.005759781 -3.2513795e-05
0.0018514533 0.00029320354 0.0026562386 0.0014069288 -0.0026567518 -0.007937285 -0.0011343006 0.0067870114
-0.0012062476 0.0015877404 -0.003887157 -0.0074305427 -0.0011901319 0.00031159073 0.0011586674 0.0028779968
0.0009506525 0.0005023018 0.0006037181 0.0018806484 0.00039206774 -0.000346026 0.00065503205 0.0017011209
0.0028747895 0.0013263945 -0.0019848032 -0.0017209499 0.00013639915 0.0047512976 0.00049759453 -0.0024332847
-0.0041190153 0.00093068846 -0.0029187577 -6.3591935e-05 0.0073052444 0.005614881 0.0010942083 0.011024782
-0.0016098148 -0.0012534147 0.0034547676 -0.0030134977 0.0021522364 0.0039463546 -0.0018468283 0.0026956792
-0.00214555 -0.0019864584 0.0003987065 -0.0012122429 -0.005613727 0.009975439 0.00025118963 -0.012928221
-0.00075931853 0.0013209615 0.003535003 0.0077795447 -0.0006110618 0.000798613 -0.0040495 8.609418e-05
0.0036655003 0.0011110976 0.0023639614 -0.0014642873 -0.0047705024 0.0007782926 -0.00085241057 -0.006032456
0.003534991 -0.0027043268 0.0008383611 0.00042372494 -0.00058192835 0.0026893953 0.0032011173 -0.0007016384
0.007713139 -0.0035396344 0.0061986228 0.003889923 -0.0025145551 0.0002512282 0.0056969 -0.0003901441
-0.0005527484 0.0012493245 -0.0021395243 0.0005664953 0.0028163826 -0.0012475586 0.011666082 0.00054476113
0.005061251 -0.0018198723 0.00035048818 0.0011263798 0.0021934856 -0.0062840227 -0.004311739 0.006916181
-0.00043443462 -0.0020343154 0.012109714 0.00013728563 -0.002304184 -0.00056356634 -0.0010888372 0.0037114637
-0.011823089 0.007324292 -0.0028690207 -0.012184715 -0.0006713312 0.0010207678 -0.0021569135 0.00040460782

gnn.gnn_layers.0.gat_conv.attn_r f4 [1, 8, 128]
00000000: 6d8e d33b f651 af3a 84b4 82ba 14f6 67ba
00000010: 5a5e 3bbb 964c 1bbb 53e8 5a3b 3511 7139
00000020: cd0a d5bb 9bfc 2dbb 9bd3 1c3a 44a1 86ba
00000030: f99a 3eb8 6947 08bb bf8d 983a d589 b33a
00000040: 5db4 90b9 7780 f23a 8b66 f0ba fc55 193b
00000050: d020 523a d5d0 34ba f02c 3d3b d1a6 bcb9
00000060: b23f b83b 46e8 0cba f57c a43b c17d 893b
00000070: 4e93 b8b9 c089 90ba 4ac5 e1ba d6d0 b7b8
00000080: 39c3 0aba 018c c33a 52b8 1e3a c498 2dbb
00000090: f19f 673b 173e 01b7 07c8 cb3a e4af b139
000000a0: 3047 aeb9 e59f b3b9 df2b afb9 7839 543a
000000b0: 8faf a03a bb54 7f3b ddff 1639 a070 763a
000000c0: f58e 493b 5d90 f738 d0a5 83ba 99e2 93ba
000000d0: 6add aa38 dbc8 3139 f7f8 4a3a b960 d238
000000e0: 0b62 8c3a f3b4 0db9 0aad 3533 de27 ec39
000000f0: 9053 1538 174c d23a 4b8a 93b9 7a39 03ba
00000100: 1a1f 203a 8aa6 fe3a 08d4 d03b 521f 253b
00000110: 7ccf 1dbb 7ded d33a 2e14 5c38 19dc 34b9
00000120: 46fd 1db5 6fb6 853a a15c 0bba a7ac ad3a
00000130: 3959 9638 7a73 cf39 d126 cb39 e7bb 95ba
00000140: 62f4 eb3a afa2 c43a b998 723b 65f0 4f39
00000150: bf2f d6b6 b20a 723a 7414 f939 f318 b0b9
00000160: fa7f 5eba 11ae b6ba 4710 983a a105 baba
00000170: ca77 9fb9 6ab9 a73a 2f03 1f38 d9a2 c93a
00000180: 48be 543a 4b41 823a a099 e538 1b2f b33a
00000190: 2cd0 b03a cebd ef3a e328 4d3a ead3 433a
000001a0: 8e70 d73a b72b 5639 cfd8 45ba e07a 8e3a
000001b0: 5dbe 183a f76e 093b 3538 9eba 0c7c ca3a
000001c0: a210 283a 7f66 e3ba ae33 523b 99ee 8fba
000001d0: c65a ecb8 ae11 9aba b7b6 033a 412b 593b
000001e0: aad9 00b9 98ad c83a c916 03bc 0e64 0bbb
000001f0: f65f 273b 492c b7ba 9cfd 1dba e844 3cbb
00000200: 2721 073b b6aa 173a 9722 bc3b cac4 9ebb
00000210: 82df 9a3a 2758 a0ba 59b5 eb39 c7c9 e538
00000220: 1e27 9bbb b55a 31bb 10a6 803b ee71 5dba
00000230: dcd6 333b 911d 953b 88ea bb3b b898 99bb
00000240: 690c 413b f375 0239 1bf4 4dbb 3904 39bb
00000250: 23c0 13bb ab4d 1e3c 4b91 bf38 3564 903b
00000260: de34 373b 8875 07ba 0d52 573b 6f14 e73b
00000270: 0bc5 78ba 869b c23b 160b a53a f513 1639
00000280: 2dae 823b 2c97 d1b9 e793 b7ba 4a76 eaba
00000290: 4d74 4b3b e8e8 003b 0336 5b3a 4e29 7539
000002a0: 0579 c4bb 0b81 993a f0e6 c7bb bc4e 553a
000002b0: a057 c93b 57a3 523b d0cb 8f3b 3034 193c
000002c0: 6b7f ac39 6e0c 883a e28f 6f39 826b 8b39
000002d0: 4b66 1c3c d757 8a39 e773 893a 70ca fa3a
000002e0: b143 223b 4f2d 293a bdf7 2b3b af80 0c3b
000002f0: bb25 46ba 1de8 9c3b f3a5 3d3a 90b8 bb3b
00000300: ddd5 10ba e0bf 34ba b1e2 df3b 3a69 f639
00000310: 7e70 33bb 55df 1b3a f77d 8fbb be0e 86bb
00000320: 9949 e03a 611c 623a 50db bf3b 775a 9cba
00000330: 190e 9c39 2a29 07bb cf42 06b8 96df 8d3b
00000340: 002a 813a 9abb ccbb 4a0c 163a d4db 9dba
00000350: 8b72 99bb c05d 993b 0dd7 733b 0650 84ba
00000360: e594 ac3b bfe8 1f3a 0fb1 13ba 9ac6 033c
00000370: 1574 383b 495f e93b bd9c 173b 4173 bb3b
00000380: 4a2a 2c3a bb74 023a 1674 8db9 1c7b 9a3b
00000390: 4a56 9837 75e6 973a 931a d63a 8ba3 bdba
000003a0: 19ba 29bb 9389 8dbb 39df b73b e8ff 343a
000003b0: cc89 233b a3de a2bb 7237 aa3b fce4 b9ba
000003c0: de5b 2939 5a41 6cbb f58c b1b8 15f3 f6ba
000003d0: ac15 feb9 c8cd 48bb 0325 9d3a 717b 723b
000003e0: bf0e 5c3b 9646 83bb 76d8 9a3b 3005 d039
000003f0: 0f4d 1e3a be19 993b 25e1 a73b 9347 8c3a
0.0064561875 0.0013375867 -0.0009972011 -0.0008848619 -0.0028590173 -0.0023696772 0.0033402636 0.00022989961
-0.0065015317 -0.002654827 0.00059824594 -0.001027145 -4.544386e-05 -0.0020794517 0.0011638923 0.0013697693
-0.000276002 0.001850142 -0.0018341107 0.0023397198 0.00080157537 -0.00068975735 0.0028865896 -0.00035982442
0.0056228274 -0.00053751876 0.005019779 0.0041958992 -0.00035204965 -0.0011027381 -0.0017224934 -8.765019e-05
-0.00052933727 0.0014919044 0.00060546875 -0.002648876 0.0035343135 -7.703456e-06 0.0015547284 0.0003389112
-0.00033240905 -0.0003426067 -0.00033411288 0.0008095722 0.0012259352 0.0038960415 0.00014400431 0.00094009377
0.0030755375 0.000118047676 -0.0010043923 -0.0011282741 8.147473e-05 0.0001695486 0.0007742787 0.00010031596
0.0010710371 -0.00013514217 4.2299725e-08 0.0004504313 3.5602192e-05 0.0016044405 -0.0002814106 -0.0005005818
0.000610815 0.0019428295 0.0063729323 0.002519567 -0.002407997 0.00161688 5.247088e-05 -0.0001724813
-5.885562e-07 0.0010201464 -0.0005316232 0.0013250307 7.1691764e-05 0.00039568153 0.00038748098 -0.0011423797
0.0018001909 0.0015002097 0.00370173 0.00019830612 -6.3832554e-06 0.0009233161 0.0004750822 -0.00033587925
-0.0008487698 -0.0013937374 0.0011601531 -0.0014192351 -0.00030416093 0.0012796347 3.791152e-05 0.0015383615
0.00081155123 0.0009937672 0.00010948186 0.0013670655 0.0013489774 0.0018290819 0.0007826222 0.00074702373
0.0016436742 0.00020424915 -0.00075472606 0.001087036 0.0005826706 0.0020970681 -0.0012071194 0.0015448346
0.000641117 -0.0017349272 0.003207426 -0.0010981142 -0.00011270265 -0.0011754537 0.000502448 0.0033137354
-0.00012288117 0.0015310524 -0.008001038 -0.0021269354 0.0025539375 -0.001397499 -0.00060268654 -0.0028727595
0.0020619126 0.0005785631 0.005741428 -0.0048452364 0.0011815878 -0.0012233303 0.00044957807 0.00010957155
-0.0047348877 -0.0027062122 0.003926046 -0.0008447458 0.0027441299 0.0045506437 0.0057347454 -0.004687395
0.002945686 0.00012441706 -0.0031426016 -0.0028231277 -0.0022544942 0.009662072 9.134653e-05 0.004406477
0.0027955095 -0.0005167355 0.0032855303 0.0070519964 -0.0009489811 0.00593895 0.0012591805 0.0001431255
0.0039880485 -0.00039976218 -0.001400587 -0.0017888036 0.0031044662 0.0019670073 0.00083622354 0.00023380408
-0.005995872 0.0011711431 -0.006100528 0.00081370375 0.006144479 0.0032140815 0.00438831 0.009350821
0.0003290133 0.0010379681 0.00022846417 0.00026592246 0.009545873 0.00026386857 0.0010486812 0.0019133817
0.0024759586 0.000645359 0.0026240193 0.0021439006 -0.0007558723 0.0047884122 0.0007234506 0.0057287887
-0.0005525032 -0.00068950467 0.0068324436 0.00046999176 -0.0027380283 0.000594606 -0.00437903 -0.004091113
0.0017111778 0.00086254446 0.0058550015 -0.0011928816 0.00029765142 -0.00206239 -3.201031e-05 0.004329632
0.0009854436 -0.00624795 0.0005723877 -0.0012043663 -0.004682844 0.0046803653 0.0037207038 -0.001009465
0.005266773 0.00061000505 -0.0005633989 0.008042956 0.0028145362 0.0071219546 0.0023134195 0.0057205264
0.0006567581 0.00049765006 -0.00026980106 0.004714383 1.8159993e-05 0.0011589067 0.0016334824 -0.0014468295
-0.0025898276 -0.0043193786 0.005611327 0.0006904588 0.002495396 -0.004970388 0.005194598 -0.0014182623
0.00016151319 -0.0036049695 -8.466273e-05 -0.0018840755 -0.00048462802 -0.0030640233 0.001198918 0.0036999846
0.0033578125 -0.0040062172 0.004725511 0.00039676717 0.00060387043 0.004672258 0.005123275 0.0010702483

gnn.gnn_layers.0.gat_conv.bias f4 [1024]
00000000: 7d48 80bc 97cb acbb e2b9 f8bc a1a5 133d
00000010: 4e59 e0bb 1e07 813c 8276 0dbc 42c4 3cbb
00000020: 9893 203d 719e 863b d3fd fbbc 1688 f13b
00000030: 869b adbb 3598 79bd 386f d6bc f628 d53b
00000040: 7dc8 0cbc d982 e3bb 557e b53c 1d28 823c
00000050: 6a0b babb 3fcd 9dbd fd52 babb 28e6 09bd
00000060: 22f7 cdbc 21c9 143b bf2d 003c 4980 46bc
00000070: e194 2b3c 2026 51bc fb7f 12bb fd17 a0ba
00000080: ec8a d0bc 59b7 9ebb 7ea2 7f3c 087f 133c
00000090: dfca 15bc fa9c c4ba 8c85 debb c05c a63b
000000a0: aca1 d83c e5f2 a5bc ecca 033d e1a2 013a
000000b0: 674f 29bd 4097 a8bc 0b66 a7bc a892 42bd
000000c0: 256a 95bb 4f69 dcbb 46ef 16b9 e54b abb9
000000d0: cbb3 4cbd 96fa 8bbc 9772 3cbb beee 0cbb
000000e0: b11d 47bd 524f 87ba d400 e4bc 8632 0abc
000000f0: 09e3 b43a 0e6d 12bd 5c6d b8ba 1488 18bd
00000100: ec7e bb38 8ef0 80bb 521b f8bc 60db b4bc
00000110: 58f7 703c 3adf 21bc 245f cf3c ccda b63c
00000120: 40c4 59bc 8279 05bc 2594 fcbc 5046 de3b
00000130: cda7 363c bf26 2f3c a6a2 a138 9804 1f3b
00000140: 8428 d2bc 13c3 053d efd3 d3bb 32f8 df3b
00000150: 63d8 ef3c 9bad bdbc 63ac f0bc 4898 713b
00000160: 5f8b 9bbb e8c4 383c ba5c d5ba 787d 70bd
00000170: 0fdc 8abc 24cc 1cbd f277 80bb f1f2 85bc
00000180: 67f0 eaba 65fd 5cbb 0242 893c 9dfe 14bd
00000190: d1a5 c8bb 458b 8ebb 2ea6 e8bc deb7 0b3c
000001a0: a735 59bc 3837 9a3c eabc fbbc 4199 61bc
000001b0: 242b 99bc 3de7 8d3c 8f48 19bc 27c8 b5bb
000001c0: 7c40 2bbc a39a 913c db5a 87bb 80e5 9f3c
000001d0: 910e 0f3c 3244 c03c 96e0 223b 27bd a0bc
000001e0: d27b 9cbc 81c7 ba3a a0ef 6bbd f715 2d3c
000001f0: 8578 f4bb b98e 6cbc ed88 dfbc d0db 14bb
00000200: 7d48 80bc 97cb acbb e2b9 f8bc a1a5 133d
00000210: 4e59 e0bb 1e07 813c 8276 0dbc 42c4 3cbb
00000220: 9893 203d 719e 863b d3fd fbbc 1688 f13b
00000230: 869b adbb 3598 79bd 386f d6bc f628 d53b
00000240: 7dc8 0cbc d982 e3bb 557e b53c 1d28 823c
00000250: 6a0b babb 3fcd 9dbd fd52 babb 28e6 09bd
00000260: 22f7 cdbc 21c9 143b bf2d 003c 4980 46bc
00000270: e194 2b3c 2026 51bc fb7f 12bb fd17 a0ba
00000280: ec8a d0bc 59b7 9ebb 7ea2 7f3c 087f 133c
00000290: dfca 15bc fa9c c4ba 8c85 debb c05c a63b
000002a0: aca1 d83c e5f2 a5bc ecca 033d e1a2 013a
000002b0: 674f 29bd 4097 a8bc 0b66 a7bc a892 42bd
000002c0: 256a 95bb 4f69 dcbb 46ef 16b9 e54b abb9
000002d0: cbb3 4cbd 96fa 8bbc 9772 3cbb beee 0cbb
000002e0: b11d 47bd 524f 87ba d400 e4bc 8632 0abc
000002f0: 09e3 b43a 0e6d 12bd 5c6d b8ba 1488 18bd
00000300: ec7e bb38 8ef0 80bb 521b f8bc 60db b4bc
00000310: 58f7 703c 3adf 21bc 245f cf3c ccda b63c
00000320: 40c4 59bc 8279 05bc 2594 fcbc 5046 de3b
00000330: cda7 363c bf26 2f3c a6a2 a138 9804 1f3b
00000340: 8428 d2bc 13c3 053d efd3 d3bb 32f8 df3b
00000350: 63d8 ef3c 9bad bdbc 63ac f0bc 4898 713b
00000360: 5f8b 9bbb e8c4 383c ba5c d5ba 787d 70bd
00000370: 0fdc 8abc 24cc 1cbd f277 80bb f1f2 85bc
00000380: 67f0 eaba 65fd 5cbb 0242 893c 9dfe 14bd
00000390: d1a5 c8bb 458b 8ebb 2ea6 e8bc deb7 0b3c
000003a0: a735 59bc 3837 9a3c eabc fbbc 4199 61bc
000003b0: 242b 99bc 3de7 8d3c 8f48 19bc 27c8 b5bb
000003c0: 7c40 2bbc a39a 913c db5a 87bb 80e5 9f3c
000003d0: 910e 0f3c 3244 c03c 96e0 223b 27bd a0bc
000003e0: d27b 9cbc 81c7 ba3a a0ef 6bbd f715 2d3c
000003f0: 8578 f4bb b98e 6cbc ed88 dfbc d0db 14bb
-0.015659565 -0.0052732932 -0.030362073 0.036046628 -0.0068465834 0.015750464 -0.0086342115 -0.0028803502
0.039203256 0.004108243 -0.030760681 0.007370959 -0.005298081 -0.06093617 -0.02617608 0.006505127
-0.008592722 -0.0069430885 0.022154966 0.015888268 -0.00567763 -0.07705163 -0.0056861625 -0.03366676
-0.025142256 0.002270289 0.007823407 -0.0121155465 0.010472507 -0.012765437 -0.0022354114 -0.001221418
-0.025456868 -0.004843634 0.015602706 0.009002455 -0.0091426065 -0.0015000396 -0.0067908224 0.0050769746
0.026444279 -0.020257423 0.032175943 0.00049452303 -0.04133549 -0.020579934 -0.0204344 -0.047503144
-0.0045597726 -0.006726421 -0.00014394251 -0.00032672207 -0.04997615 -0.017087262 -0.0028754824 -0.0021504606
-0.0486123 -0.0010323322 -0.027832426 -0.008434897 0.0013800572 -0.035748534 -0.0014070678 -0.03723915
8.940496e-05 -0.0039349264 -0.030286465 -0.022077262 0.014707409 -0.0098798815 0.025313921 0.022321127
-0.013291419 -0.0081466455 -0.03083236 0.0067832842 0.011148405 0.01069039 7.707374e-05 0.0024264213
-0.025654085 0.03265674 -0.0064644734 0.006835007 0.029277986 -0.02315407 -0.029379075 0.0036864448
-0.004746839 0.011277415 -0.0016278245 -0.058713406 -0.016950635 -0.03828062 -0.0039205486 -0.016351195
-0.0017924429 -0.003372037 0.016755108 -0.03637563 -0.0061232825 -0.0043500983 -0.028399553 0.008527724
-0.013257421 0.018825158 -0.03072973 -0.013769449 -0.018697329 0.017322177 -0.009355678 -0.0055475417
-0.010452386 0.017773932 -0.004130704 0.019518614 0.0087315 0.023470018 0.0024853102 -0.019621445
-0.01910201 0.0014250131 -0.05760157 0.010564319 -0.007460656 -0.014438325 -0.027286971 -0.0022714026
-0.015659565 -0.0052732932 -0.030362073 0.036046628 -0.0068465834 0.015750464 -0.0086342115 -0.0028803502
0.039203256 0.004108243 -0.030760681 0.007370959 -0.005298081 -0.06093617 -0.02617608 0.006505127
-0.008592722 -0.0069430885 0.022154966 0.015888268 -0.00567763 -0.07705163 -0.0056861625 -0.03366676
-0.025142256 0.002270289 0.007823407 -0.0121155465 0.010472507 -0.012765437 -0.0022354114 -0.001221418
-0.025456868 -0.004843634 0.015602706 0.009002455 -0.0091426065 -0.0015000396 -0.0067908224 0.0050769746
0.026444279 -0.020257423 0.032175943 0.00049452303 -0.04133549 -0.020579934 -0.0204344 -0.047503144
-0.0045597726 -0.006726421 -0.00014394251 -0.00032672207 -0.04997615 -0.017087262 -0.0028754824 -0.0021504606
-0.0486123 -0.0010323322 -0.027832426 -0.008434897 0.0013800572 -0.035748534 -0.0014070678 -0.03723915
8.940496e-05 -0.0039349264 -0.030286465 -0.022077262 0.014707409 -0.0098798815 0.025313921 0.022321127
-0.013291419 -0.0081466455 -0.03083236 0.0067832842 0.011148405 0.01069039 7.707374e-05 0.0024264213
-0.025654085 0.03265674 -0.0064644734 0.006835007 0.029277986 -0.02315407 -0.029379075 0.0036864448
-0.004746839 0.011277415 -0.0016278245 -0.058713406 -0.016950635 -0.03828062 -0.0039205486 -0.016351195
-0.0017924429 -0.003372037 0.016755108 -0.03637563 -0.0061232825 -0.0043500983 -0.028399553 0.008527724
-0.013257421 0.018825158 -0.03072973 -0.013769449 -0.018697329 0.017322177 -0.009355678 -0.0055475417
-0.010452386 0.017773932 -0.004130704 0.019518614 0.0087315 0.023470018 0.0024853102 -0.019621445
-0.01910201 0.0014250131 -0.05760157 0.010564319 -0.007460656 -0.014438325 -0.027286971 -0.0022714026

gnn.gnn_layers.0.gat_conv.fc.weight f4 [1024, 74]
00000000: 7a57 9fbc c7ea 2f3c 98a0 833c 0026 41bc
00000010: b814 a538 3fd5 0cbb 61df 15bb 9410 3e3b
00000020: 30c5 98b7 1411 2897 cc88 6415 c3df a495
00000030: e18c 1716 8f02 7616 b0c0 0415 9c90 ebb9
00000040: a76f bb15 ceb7 0815 73c7 a795 2147 9213
00000050: 15fa 0a16 b191 1495 9281 0917 6882 2b15
00000060: dccc 2216 01ea aa14 146c 2997 ce68 7d15
00000070: 7653 a615 632e ef39 97e9 1a97 726a dc96
00000080: 2543 2b96 3206 ed14 298a 9a14 3916 a614
00000090: 5ddd 2f16 8a06 ad17 ea18 2915 f077 2296
000000a0: 58f1 ef16 f762 f617 fabd 3116 e7e3 cc96
000000b0: b433 bfbb c1ca f9ba 93d1 21bc 2f2d 233c
000000c0: 9155 1414 307d 18ba 5267 1995 2026 cb16
000000d0: c0ec 2297 53cc 4714 095d 53bb 9461 b8bc
000000e0: e7c8 af3c 5772 4dbb 959e 5296 0aed ff16
000000f0: 7d5f 5f96 6273 523b 4ae8 8816 d8d9 ac3b
00000100: 690e c2bc f3fc 84bb e958 e293 e939 c5ba
00000110: b768 c9bc 2a08 5ebc 2e2c b0bc f871 8a3c
00000120: f44a 2cbb 8809 6296 8112 f13a ffaf 9b3a
00000130: ea71 2abb 78cc cfba ca58 f6ba 8bd0 80ba
00000140: 4290 a6b8 72ee b439 c5d2 c8b9 a298 1893
00000150: e7b5 1a96 e2af 9b16 5588 9016 373e 7e94
00000160: 6dfc 7696 7090 2c39 9329 b115 3b10 0d19
00000170: 1310 3695 2f9c 1614 358a 8d97 b71c b416
00000180: bda2 8716 ae14 e716 1539 0316 a20d 5115
00000190: 41d2 a415 79f0 f895 96d8 7816 e525 3cb8
000001a0: c533 a014 7974 b015 62cf cc93 cc32 5696
000001b0: d087 8096 77a9 b715 24fd ed15 bcb7 9e15
000001c0: c368 7494 e28b 9495 e912 3896 efab 2616
000001d0: 894d 8d96 1193 1c95 3332 93bb 1cc1 a1bb
000001e0: cdd1 85bb 0b2a 303b 39fc 9b91 cb30 3939
000001f0: 7cbc bd15 d5b6 8a97 b1aa 6795 7070 0415
00000200: 7425 b3bb d294 1dbb d8ac 073b ea82 7dbb
00000210: c491 5216 daff 2f96 0b9d 5b96 1c7f 553b
00000220: 3b70 4416 e03c e6b9 1c49 d8bb 7e86 3dbb
00000230: 49ab 1696 5a0a 0cba 6456 02bc 2cdf fabb
00000240: b557 eb3b 0e87 8e3a 2f6c 91bb caac 0716
00000250: f116 79bc b706 dcbc 98f8 8cbc 926e 6d3c
00000260: aff8 03bc 94cf c0ba 6240 29b8 a92a 82ba
00000270: 1df2 2db9 f269 0496 0a90 2f15 34f9 ef15
00000280: 2e8c 0296 9f90 5396 63fe 2b16 3443 6d38
00000290: ec33 7096 2645 f491 0423 9395 b00a 8815
000002a0: 5632 401a 8285 d316 3873 0396 d036 3f95
000002b0: 1885 7e16 46ec 8515 526a 5115 3aa7 f394
000002c0: 0d77 1e17 d16c c639 568c 2397 0aff 9c96
000002d0: b0c4 5c16 7edf 8196 1444 f397 8d47 a616
000002e0: 384d 1095 0ded 6115 05cc 8c96 8dad ae14
000002f0: aa4a 1b17 15ee ae96 5a57 d814 e3c8 d116
00000300: 0755 41bd b4b3 fcbc 79cb bcba 1bb6 9abb
00000310: 2e16 fb96 6898 6639 d35a 1395 2d71 da16
00000320: b4bd 8016 4ed0 9815 8605 09ba 9975 12bb
00000330: df76 7fbc 355a 48b9 7053 5b17 c90e 6316
00000340: cb9e ae95 867d 853b bd93 2795 4990 dcbb
00000350: a795 193b e88c fdbc d118 cb96 977c 95b8
00000360: a790 05bd 18dc 97ba d16e cfbb 75e8 90bc
00000370: 171e 8a39 58b6 5b94 89ee 7e3c df77 723c
00000380: 8bef 713c 2c1e 93bb 15ba d7bb a724 f83b
00000390: 5e00 ab3a 79d9 8ebb cbe3 fcb9 adbd 5616
000003a0: 6cfc a515 334b fa13 0cf4 0296 9e1f da16
000003b0: 51be 9316 2f6d 983b af1b 3994 3a3b 2096
000003c0: 0696 6796 0ca8 2e96 b51f 9c16 4891 cd95
000003d0: 3cf7 f114 8eb7 e116 b4ee aa93 4b85 8694
000003e0: 2ba7 f113 5fbf 1c96 6254 a814 88db 4db7
000003f0: 85e9 2295 3735 c116 85ae 0b17 0f89 9914
-0.019450892 0.010737128 0.016067788 -0.011788845 7.871672e-05 -0.002148941 -0.002286874 0.002900158
-1.8211635e-05 -5.4305283e-25 4.6152147e-26 -6.6592106e-26 1.2242136e-25 1.9872529e-25 2.680919e-26 -0.00044930435
7.5704855e-26 2.7609978e-26 -6.776544e-26 3.692572e-27 1.1226463e-25 -3.0003292e-26 4.443063e-25 3.4636047e-26
1.3150898e-25 1.7257912e-26 -5.474326e-25 5.117562e-26 6.7178544e-26 0.00045620193 -5.0054916e-25 -3.5610093e-25
-1.3834457e-25 2.3933328e-26 1.560452e-26 1.6770482e-26 1.4206237e-25 1.1181514e-24 3.4148932e-26 -1.3124101e-25
3.8764842e-25 1.592236e-24 1.4357892e-25 -3.3101804e-25 -0.005835021 -0.0019057618 -0.009876627 0.009959503
7.4889655e-27 -0.0005816994 -3.097961e-26 3.282048e-25 -5.2643844e-25 1.0087228e-26 -0.0032251498 -0.022507466
0.021458102 -0.003134867 -1.7013705e-25 4.1347065e-25 -1.8043927e-25 0.003211223 2.211858e-25 0.0052749924
-0.023688512 -0.004058474 -5.7138093e-27 -0.0015047166 -0.024586065 -0.013551751 -0.021505442 0.016900048
-0.0026289793 -1.8259142e-25 0.0018392355 0.0011878012 -0.002600784 -0.0015853783 -0.0018794772 -0.0009827776
-7.942367e-05 0.0003450993 -0.00038304008 -1.9260351e-27 -1.2497419e-25 2.5152598e-25 2.3350492e-25 -1.28359926e-26
-1.9951373e-25 0.00016457005 7.1555323e-26 7.292807e-24 -3.6767288e-26 7.6038665e-27 -9.1468e-25 2.909869e-25
2.1913129e-25 3.7333114e-25 1.0600108e-25 4.2217968e-26 6.6570795e-26 -1.005458e-25 2.0101623e-25 -4.4857985e-05
1.6176291e-26 7.1269595e-26 -5.1701335e-27 -1.7302811e-25 -2.0765225e-25 7.418048e-26 9.6122923e-26 6.4105574e-26
-1.23395125e-26 -5.999742e-26 -1.4869369e-25 1.3463626e-25 -2.282871e-25 -3.1619964e-26 -0.004492068 -0.0049363505
-0.004083848 0.0026880528 -2.4610132e-28 0.00017661152 7.663387e-26 -8.964194e-25 -4.678473e-26 2.6745885e-26
-0.0054671112 -0.0024045003 0.0020702388 -0.0038682767 1.700966e-25 -1.421712e-25 -1.7740233e-25 0.0032576984
1.5868168e-25 -0.00043914374 -0.006600512 -0.0028919275 -1.2170952e-25 -0.00053421187 -0.007955167 -0.0076559987
0.0071820864 0.001087399 -0.0044379453 1.0959736e-25 -0.015203224 -0.02685867 -0.017208382 0.014491694
-0.008054896 -0.0014710301 -4.03527e-05 -0.0009930927 -0.0001658876 -1.0696306e-25 3.5454595e-26 9.6924504e-26
-1.0545549e-25 -1.7090079e-25 1.389354e-25 5.656779e-05 -1.9403429e-25 -3.8539028e-28 -5.942807e-26 5.4946824e-26
3.974533e-23 3.4173144e-25 -1.0618452e-25 -3.8615382e-26 2.0559954e-25 5.4091046e-26 4.2291086e-26 -2.4602689e-26
5.1202817e-25 0.00037846577 -5.284527e-25 -2.5364112e-25 1.7833522e-25 -2.0982117e-25 -1.5720692e-24 2.6863901e-25
-2.9141483e-26 4.5625388e-26 -2.2746974e-25 1.7637964e-26 5.017744e-25 -2.8261467e-25 2.184488e-26 3.3892548e-25
-0.04720023 -0.030847408 -0.0014403901 -0.0047214157 -4.0565234e-25 0.00021991285 -2.975806e-26 3.5291223e-25
2.0799235e-25 6.172096e-26 -0.00052269583 -0.0022347926 -0.015592306 -0.00019107091 7.086803e-25 1.8341579e-25
-7.052857e-26 0.0040738015 -3.3841926e-26 -0.0067310673 0.0023435147 -0.030950978 -3.281208e-25 -7.12808e-05
-0.032608654 -0.0011585979 -0.006330349 -0.01768897 0.0002634383 -1.10926354e-26 0.015559801 0.014799087
0.014766584 -0.0044896808 -0.006583462 0.0075727287 0.0013046374 -0.004359421 -0.00048234905 1.7346633e-25
6.704122e-26 6.3183025e-27 -1.0578324e-25 3.5239753e-25 2.3869237e-25 0.0046516876 -9.345573e-27 -1.2943386e-25
-1.870737e-25 -1.4108634e-25 2.522317e-25 -8.3028054e-26 2.4432298e-26 3.646655e-25 -4.3149413e-27 -1.3583117e-26
6.1001793e-27 -1.2661966e-25 1.6996948e-26 -1.2270066e-05 -3.2899854e-26 3.1214415e-25 4.5133597e-25 1.5503112e-26

gnn.gnn_layers.0.gat_conv.res_fc.weight f4 [1024, 74]
00000000: 2d86 5dbc 2671 613c 60f8 453c 4bb0 7fbc
00000010: 439c a4ba e31f 8337 0929 de3a c4ac 663b
00000020: 076e 2e3a 33a7 1c15 a8e2 0915 178f 8015
00000030: aeb7 1796 7948 7e15 349b 1e16 75d3 e5b8
00000040: a3f9 a116 2eb5 5c18 6c62 c417 366f 7616
00000050: d3b1 8496 50c5 0e96 38fa b615 95e9 d196
00000060: 9ce2 3b16 dc11 9795 35a3 de94 c6ad 2f15
00000070: 5605 6115 7b6e 723a 4c79 cc95 0625 8894
00000080: df22 a695 e44f ee99 ed4f ef95 508d 0797
00000090: 18d5 2596 6d24 9816 71b5 ca95 a494 5b15
000000a0: a960 c516 9609 7f96 c8ea 7896 0663 9e95
000000b0: 2bed 44ba 41a9 3bbc bae3 95bb 7dda 953c
000000c0: cabd 8295 86a3 27b9 0345 2094 6e98 1093
000000d0: 86f5 be16 1580 3716 b073 2dbb 5a65 d1bc
000000e0: 9bd8 a93c 026c fb3a 01b9 1216 bfaa c693
000000f0: 8f5e e394 5904 643b b5f0 6496 1d0e 1d3c
00000100: 9a7d e6bc d5fa 2cbb 8a49 2015 a307 39ba
00000110: 5856 b4bc 2c85 38bc 2498 c6bc 51e0 7b3c
00000120: 8f9b 9bba a3f7 4294 be60 a1bb 93ec ff3b
00000130: c40e 48bb d9c1 c2ba 84c0 96ba 6e17 2dba
00000140: 0893 8439 96c3 29ba 9e60 5bb9 07a0 4b94
00000150: 2bcc 1996 f2cd a196 a750 1697 19b8 3395
00000160: 5aca 6793 b0c1 ac39 0b4b e795 3af9 b115
00000170: fafc 4794 1ff7 b796 82cc 6715 27d5 2314
00000180: 2648 5596 e59c 1196 031e c697 e6da e495
00000190: dd28 1794 3a18 5015 26ac 9f95 25df 2ab7
000001a0: 2013 0398 afc7 f693 f948 0016 ef25 6797
000001b0: 62b1 4796 a425 0f16 a253 9815 fc89 b696
000001c0: 82c5 9c15 ee02 d196 15c9 9b14 096b 6213
000001d0: 382c a115 fd8a 9c95 c01e 9a3a 7130 bebb
000001e0: 12fa 85bb b162 2f39 1607 2716 1baf 5c36
000001f0: 3451 3916 3783 4d15 ee2e 5a95 393b 4816
00000200: cdd7 d4bb c71c aab9 1187 d33b 7555 03ba
00000210: 48b7 4316 5972 3a96 bbb4 2897 94f6 ad3b
00000220: 389f f793 4f49 27b8 2bd7 09bc 1fa0 dcb9
00000230: a048 9e96 6ea3 3fb9 6f90 01bc e1d3 03bc
00000240: d1d4 373c 1546 503b 7f96 53bb 894b 4a15
00000250: 1ada 44bd ab3a 3f3b 884a 60ba 9959 af3d
00000260: 4185 21bc 4b1a 413a 1281 7db9 c365 923a
00000270: 9df3 043a c4d9 5315 f793 3093 d013 b415
00000280: 9872 8a17 2078 8215 37cb 1993 5fef b839
00000290: e280 ef14 33d3 d218 efc4 4716 a71b 2217
000002a0: ac97 9315 0e9e f996 ace3 7516 8400 9115
000002b0: 6af2 1a98 1c01 6696 8552 5c14 175a 8416
000002c0: 1e5b 4396 6b03 ed39 337c d316 2d07 f296
000002d0: 48ea e095 d70a 3b94 086c a115 a27d 4994
000002e0: 8207 c396 af94 9016 0819 de94 1d34 b715
000002f0: 4b56 3896 31c7 1996 250c 5397 1bc3 e096
00000300: 1780 7bbd 0218 28bc 48df 9cbc 83a4 adbc
00000310: 70fa f292 7726 9f3a 5e04 eb97 283a 8e94
00000320: 0ac9 0e15 72b9 0f17 7868 e8bc 800b 2d3c
00000330: 09ee f13a d3f3 463c 8078 6f17 db80 9516
00000340: c21d a215 9611 02bc de9d 1a15 7655 40bc
00000350: a25e a03c c88d c2bc b7a7 0c94 4e49 b33b
00000360: eb4f 18bc 8264 9dbc 470e 9bbb 5590 19bc
00000370: c140 28bb 5baf 9016 db16 203d b882 0a39
00000380: 01fd 933c 1eaf 12bc 0305 05bc 6e00 ad39
00000390: 674c 8138 5574 45bc e468 85b9 9d11 2b15
000003a0: d130 9b16 1c53 8e95 8a04 3b16 0ade a716
000003b0: bc5a f993 3bc5 0bbb 837c 6996 e3b7 0d96
000003c0: b60d a694 b498 3196 742c 9296 7e99 b795
000003d0: 33ee 7195 b33a ea15 457c 5014 0aff b215
000003e0: 03ff 6e14 b4a2 8414 67db 2516 33ed 3538
000003f0: c858 0416 edf0 8615 d18e 2c16 9aae be16
-0.0135207595 0.013759887 0.012083143 -0.015605996 -0.0012558777 1.5631265e-05 0.0016949485 0.0035198191
0.00066539686 3.1635846e-26 2.784573e-26 5.1924544e-26 -1.2255642e-25 5.1352062e-26 1.2812112e-25 -0.00010958958
2.6168496e-25 2.8525806e-24 1.2691048e-24 1.9906814e-25 -2.1437973e-25 -1.153293e-25 7.390399e-26 -3.3913182e-25
1.5177245e-25 -6.101659e-26 -2.2480645e-26 3.5478052e-26 4.5442597e-26 0.000924803 -8.2586317e-26 -1.3747094e-26
-6.710188e-26 -2.4640891e-23 -9.665743e-26 -4.3799214e-25 -1.3395834e-25 2.4579912e-25 -8.1873414e-26 4.4343955e-26
3.1888068e-25 -2.0601761e-25 -2.0107364e-25 -6.3971923e-26 -0.00075121474 -0.0114539275 -0.0045742663 0.01829266
-5.2806016e-26 -0.00015987278 -8.091546e-27 -1.8250509e-27 3.0851103e-25 1.4823038e-25 -0.002646666 -0.025561024
0.020733168 0.0019181969 1.1852163e-25 -5.0150596e-27 -2.295844e-26 0.003479263 -1.8493647e-25 0.009585884
-0.028136063 -0.0026394625 3.2369755e-26 -0.0007058328 -0.022013828 -0.011262219 -0.024242468 0.015373305
-0.0011871922 -9.843335e-27 -0.0049248626 0.0078101843 -0.003052638 -0.0014858796 -0.0011501466 -0.00066029176
0.0002528655 -0.0006475983 -0.0002092146 -1.0280441e-26 -1.2423666e-25 -2.6140923e-25 -4.856941e-25 -3.629399e-26
-2.9256066e-27 0.00032950705 -9.3418554e-26 7.188294e-26 -1.0096823e-26 -2.97212e-25 4.6811407e-26 8.271434e-27
-1.7228769e-25 -1.1762514e-25 -1.2803026e-24 -9.243383e-26 -7.631611e-27 4.2024377e-26 -6.449119e-26 -1.01847445e-05
-1.6941009e-24 -6.2296034e-27 1.0362784e-25 -7.4688005e-25 -1.6131064e-25 1.1563325e-25 6.152426e-26 -2.9490766e-25
6.331951e-26 -3.376762e-25 1.5730313e-26 2.8577983e-27 6.509715e-26 -6.322718e-26 0.0011758432 -0.0058041145
-0.0040886486 0.00016726066 1.3492388e-25 3.288448e-06 1.4969804e-25 4.150293e-26 -4.406177e-26 1.6174559e-25
-0.006495452 -0.00032446368 0.00645531 -0.00050099875 1.5809808e-25 -1.5061042e-25 -5.451184e-25 0.0053089354
-6.2508568e-27 -3.9884177e-05 -0.008413116 -0.0004208097 -2.557211e-25 -0.00018276062 -0.007907971 -0.008046121
0.011220173 0.0031780053 -0.0032285748 4.0853162e-26 -0.04805956 0.0029179256 -0.0008556028 0.08562011
-0.00985843 0.00073662837 -0.00024176043 0.0011169243 0.00050717016 4.2782897e-26 -2.2287275e-27 7.273268e-26
8.946969e-25 5.2696106e-26 -1.9411508e-27 0.0003527356 2.4183668e-26 5.4496984e-24 1.6137233e-25 5.2379925e-25
5.9612123e-26 -4.0327866e-25 1.9862783e-25 5.856585e-26 -2.0026421e-24 -1.8579602e-25 1.1123436e-26 2.1382605e-25
-1.5780726e-25 0.0004520671 3.416727e-25 -3.9101737e-25 -9.084251e-26 -9.443225e-27 6.5197825e-26 -1.01726834e-26
-3.1508687e-25 2.3358287e-25 -2.2426145e-26 7.399533e-26 -1.4890631e-25 -1.2422095e-25 -6.8193106e-25 -3.631228e-25
-0.061401453 -0.01025963 -0.019149438 -0.02119661 -1.5334085e-27 0.0012142201 -1.5187621e-24 -1.4361274e-26
2.8835263e-26 4.6439857e-25 -0.028370127 0.010561824 0.0018457781 0.012143093 7.7377157e-25 2.4153568e-25
6.547823e-26 -0.007938763 3.1224588e-26 -0.0117391255 0.019576374 -0.023749247 -7.10127e-27 0.005471385
-0.009296398 -0.019212965 -0.0047319266 -0.00937279 -0.0025673362 2.337512e-25 0.039084297 0.00013209402
0.018064978 -0.008952884 -0.008118871 0.00032997451 6.1654304e-05 -0.0120516615 -0.00025445886 3.454707e-26
2.5072408e-25 -5.7484467e-26 1.5107172e-25 2.7120431e-25 -6.2945908e-27 -0.0021327275 -1.8860879e-25 -1.1447914e-25
-1.6767125e-26 -1.4346131e-25 -2.3615626e-25 -7.415528e-26 -4.885747e-26 9.460446e-26 1.0525824e-26 7.229601e-26
1.20662215e-26 1.3392769e-26 1.3397825e-25 4.337467e-05 1.069089e-25 5.450228e-26 1.3939114e-25 3.0806345e-25

readout.weight_and_sum.atom_weighting.0.weight f4 [1, 128]
00000000: eba8 ce3b 24b1 833d 2e32 6b3e 5486 73be
00000010: 055f 8c3d b20a cebd a198 593d ae23 b63c
00000020: daa3 18be dfa1 573d cf0e e3bd 3168 55bd
00000030: 7699 d23d 2a61 853e a9ba 213e b033 1dbe
00000040: 338b ec3d 3617 d23b 390d 15be 2d31 29be
00000050: 6123 3fbe 7379 aa3e b775 3f3c 90f7 723e
00000060: 9684 903d 47ce b6bc ea71 c43b 3f85 873d
00000070: b009 89bd 13a6 1c3e d454 10bd 7e70 c8bc
00000080: bcff 3e3e a7b2 6e3c 18a0 6bbe 376d 40be
00000090: 4677 59bc 4a7c 6ebd 5437 a23d 64c8 f6bc
000000a0: 5c85 38be 97ad e43d 4435 8cbe cfaa 3ebd
000000b0: d2e4 5d3e b636 b13d 2fe3 4d3e 8e5d 973d
000000c0: 77d4 0c3d 4cec 293d 4fcc 96bc 6096 6d3c
000000d0: 9091 623e 7192 1d3e 0d84 27bb 7ebd 10bd
000000e0: 58cf e93d 0bf2 3e3d 3aa2 513e 88bc 8f3d
000000f0: 24e0 053c 0c87 343e 8009 2c3d 23e8 373e
00000100: 6162 71b9 2da0 aa3d 6177 c03d 7992 c13d
00000110: ac52 f4bd b7aa bd3c b093 80be 1977 31be
00000120: 6839 ec3d f015 923d 443b 2d3e 687b 06be
00000130: c79f d1bc cab3 84bd 1bd0 f1bb d81f b63d
00000140: db1b 063e d38f 62be da65 8d3d 716f d6bd
00000150: 6111 6dbe c493 1f3e 8803 663e f672 ba3c
00000160: 6920 003e b0a8 b43b f4ce 053d b0a7 8c3e
00000170: 833b 153e a391 4f3e 225e b7bd 4012 a93d
00000180: c4ae e2bc 653c 1abc 9159 95bd c53d 1e3e
00000190: e435 7a3c 790e 54bc 41ad 8f3e 476d 60bc
000001a0: c6ce 573b 82a1 10be 7a44 b13e ca5f bf3d
000001b0: d927 463e cfa9 ebbd 767f 0e3d c655 95bc
000001c0: f9e6 d63d c41f 0ebe aad2 87bd 2702 17be
000001d0: b7d6 d6bd 8fad cbbd e8f3 27bd 5771 df3d
000001e0: d973 1e3e 6c8a 31bd 4acc 863e efa8 893d
000001f0: b4c7 c13d f5ab 503d ac80 213e 1d8b 9d3b
0.0063067577 0.06430271 0.22968361 -0.23781711 0.06854061 -0.10060634 0.053124074 0.02223381
-0.14906254 0.052644607 -0.11086809 -0.052101318 0.102831766 0.26050693 0.15793861 -0.15351748
0.11549988 0.0064114584 -0.14555825 -0.16522665 -0.1866584 0.33295783 0.01168578 0.2372725
0.07056539 -0.022315158 0.005995025 0.066172116 -0.06691301 0.15297727 -0.03523715 -0.024467703
0.18652242 0.014568961 -0.2301029 -0.18791662 -0.013273066 -0.058224 0.07920709 -0.03012485
-0.18019623 0.11165922 -0.27384388 -0.046549615 0.2166932 0.086530134 0.20106195 0.07390891
0.03438231 0.041485116 -0.018407969 0.014501184 0.2212584 0.15387894 -0.0025560886 -0.035336964
0.11416501 0.04661755 0.20472041 0.07018381 0.008171115 0.17629641 0.042001247 0.17959647
-0.000230202 0.08331332 0.0939777 0.094517656 -0.11929831 0.023152692 -0.25112677 -0.17330588
0.11534387 0.071330905 0.1691714 -0.13133013 -0.025588883 -0.064796045 -0.0073795444 0.088927925
0.13096564 -0.22125177 0.06904192 -0.104704745 -0.23151161 0.15583712 0.22462285 0.022759896
0.12512363 0.005513273 0.03266807 0.27471685 0.14573483 0.202704 -0.08953501 0.08255434
-0.027671225 -0.009413813 -0.07292474 0.1545325 0.015271638 -0.012942904 0.2806187 -0.013697929
0.0032929643 -0.1412411 0.34622556 0.09344442 0.19351138 -0.11506998 0.034789525 -0.018229377
0.10493273 -0.13879305 -0.06631978 -0.14746915 -0.10490172 -0.09945213 -0.04100409 0.1091029
0.1547388 -0.0433449 0.26327735 0.06721675 0.094619185 0.05094524 0.1577174 0.0048078434

predict.predict.1.weight f4 [128, 256]
00000000: 835c e6b9 3622 9c35 2957 ac3b dadd 1cbc
00000010: 67df 02bc 145b 60bb 5bef e723 420c 123c
00000020: e467 22b8 445b 1db8 f98f f9bb c1da 87bb
00000030: b84b beb4 5020 4a3b e730 b13a 792f 603b
00000040: 126a 4039 0498 ff3a fecc 6bb9 da5a 84bc
00000050: 9ac9 30b9 228c 5e3a 18a5 5726 9e19 843c
00000060: efb6 323a 8c07 0eb9 5f07 a937 9212 9d3a
00000070: 0545 59bb cb1a 0c3c b9de 66bb 9f2a 2727
00000080: b10e a33c e86e 63ba 2466 f9bb 0c11 6238
00000090: 8d22 0c3c a429 68bb 4241 f13a ac52 95bc
000000a0: 22b6 72bb d7fb c22e 05d4 b438 8b52 af31
000000b0: 6b96 1019 90dd 3f3b 339f b895 b63c 1cbb
000000c0: 3ee8 2d3b 4d61 1a3b 4188 d2ba a996 8c38
000000d0: d7e5 153b 6b94 2a3b 3d60 ecb8 5519 14bc
000000e0: 31f3 e2bb 4bc0 f6ba 43aa 9c3a 3d01 22b7
000000f0: af31 0dbb 33b2 6e39 6717 333c fe3b d1bb
00000100: 2c02 acbb ff1f b63b bb30 05ba 5e5f ac3a
00000110: 8c46 82bb 744d d4b7 fa56 8abc e505 59b8
00000120: c492 5b3b 0d3d f715 0441 e6b8 2f4c 32bb
00000130: cbfd dbbb fd2e 893b 9316 80ba 2d24 823c
00000140: 9faf bc3a ec1e 92bc 9b64 4f95 c53a c2ba
00000150: f8a3 0dbc 9eda 323b 750a 8838 752e c338
00000160: c429 2f39 ced9 b8ba ba81 1cbb 49b5 023c
00000170: 060f 16b7 1257 89bb 026f 83b7 0a9e 70bb
00000180: 682e d6b7 5170 9b3b beba 4ebb 1b17 043c
00000190: 485d 183b dcb6 393a 0055 5437 ade5 bfb8
000001a0: 641b 17b6 2014 04bc 39ef 423c 35a0 973b
000001b0: 3905 403c 6dee a998 7348 6cbb b882 963b
000001c0: 7d75 5d3a dac9 c63a e111 95b5 f524 96bb
000001d0: 5424 cdbb 26db deba 0366 323a b756 ae3a
000001e0: 1608 833b dc37 c039 b2eb 413b 729a cabb
000001f0: 47d1 fb3a b4df 2f39 e3b2 10b8 946e 8ab9
00000200: 3a9d 6e28 de49 07a9 3c9f 6d9b 0c7e 8cb7
00000210: 1f29 15b7 e4b8 56aa c06d 1918 ff3d 25b3
00000220: 7611 cab3 2d3a 29b1 65f6 d4b4 8df4 bab3
00000230: 35e3 43b2 e630 f7a9 15ca 58aa 4d72 e0b3
00000240: 3058 a9a6 e376 6516 e0ef 5b27 69dd 36b7
00000250: 8229 37b1 eea6 8596 1e98 0126 5e76 fea1
00000260: ba2d 7126 0f76 0e15 94df 17b5 8db0 3b34
00000270: ac7e 57b5 548a c9a6 3666 b12b 9499 89a5
00000280: 5254 acac 3c38 27b3 5bfc c5b7 34f1 6a24
00000290: 809f eb97 c5e9 a72c 131f 5727 36d8 03b5
000002a0: 5c3e d1a5 0202 9633 f653 42b4 8872 cca9
000002b0: 1135 e825 ee26 8db2 60b8 a426 336d a6b3
000002c0: 78be 6a23 a960 0fb1 4645 bf17 068f 21a5
000002d0: 2f67 a32b 8236 3a2a cae1 5cb1 b19d c0b6
000002e0: ad84 7eb5 9bd5 7130 b67f 4018 9930 9123
000002f0: 6391 f3b2 ba81 252b 871c 46a6 85ad 27a8
00000300: 11e4 5bb7 f044 4cb3 f8ec 392c ea14 e416
00000310: 5814 93af f361 25b5 e794 68b8 52f7 4632
00000320: c6cc 2d24 beb0 5724 d638 bfb2 ed4c 262b
00000330: f120 c626 a545 b0b5 e2a9 3929 4988 d6b1
00000340: 7723 242e 04c7 32ae 5559 6028 d265 85b5
00000350: 397e 8bb7 0b73 ad25 01d3 2cb1 cf48 85a9
00000360: 15c6 952b e447 81b5 8ad1 08b7 3e33 1fa5
00000370: 4895 fcaf 467f ba26 9561 92a6 db11 5117
00000380: d5aa 91a6 e36d 44a5 313c 8db2 feee 3a18
00000390: fae4 3ab5 8489 a32d a024 87ad 7b10 e1a6
000003a0: 7887 91b1 11a0 c9b3 8d32 a032 935d 97b4
000003b0: 3362 29a5 5da3 1d1f c7c5 75ae deae f126
000003c0: 4d80 66a6 d6df 95b8 86ca 4bb0 8701 2d16
000003d0: 9115 02b6 8d4a ba2b 6e1d 23a5 71d4 819d
000003e0: ca92 0cb8 822f 4cae 6e6b 6f2b 14fd 88b8
000003f0: 9830 c426 4ad4 faa6 75b6 2526 0622 f226
-0.00043937945 1.1632862e-06 0.0052594137 -0.009574378 -0.007987834 -0.0034233974 2.5146441e-17 0.008914055
-3.8720565e-05 -3.7516715e-05 -0.00761604 -0.0041459505 -3.544535e-07 0.0030842014 0.0013518602 0.0034207983
0.00018350061 0.001950026 -0.00022487712 -0.016156603 -0.0001685977 0.00084895093 7.4816853e-16 0.016125496
0.00068174204 -0.00013544987 2.0149802e-05 0.0011983684 -0.003315271 0.00855131 -0.0035227968 2.319901e-15
0.019904466 -0.0008675889 -0.007611053 5.3898475e-05 0.008553159 -0.003542521 0.0018406289 -0.018227898
-0.003703483 8.8668344e-11 8.6225606e-05 5.1025544e-09 7.475002e-24 0.0029276349 -7.456818e-26 -0.0023839897
0.0026536132 0.002355653 -0.0016062335 6.703783e-05 0.002287259 0.0026028405 -0.00011271283 -0.009039243
-0.0069259633 -0.0018825618 0.0011952597 -9.656241e-06 -0.0021544506 0.00022763833 0.0109308725 -0.0063853255
-0.0052492823 0.0055580135 -0.0005080809 0.001315098 -0.003975695 -2.5308436e-05 -0.016887177 -5.174232e-05
0.0033504227 9.9858827e-26 -0.00010979365 -0.0027206053 -0.006713604 0.0041865096 -0.0009772353 0.01588639
0.0014395601 -0.01783701 -4.188268e-26 -0.001481854 -0.00864505 0.002729095 6.486933e-05 9.306978e-05
0.0001670486 -0.0014102997 -0.0023881034 0.007977792 -8.944195e-06 -0.004191288 -1.5668109e-05 -0.0036715292
-2.5532398e-05 0.004743614 -0.0031544412 0.008062149 0.002324896 0.0007084438 1.2655975e-05 -9.15037e-05
-2.2516697e-06 -0.008061439 0.011897855 0.0046272525 0.011719995 -4.3926225e-24 -0.0036053925 0.0045932196
0.0008447988 0.0015166358 -1.1106569e-06 -0.0045820423 -0.006260434 -0.0017002567 0.0006805362 0.001330099
0.0039987667 0.00036662712 0.0029589948 -0.006182962 0.001921215 0.00016772636 -3.4498877e-05 -0.00026403798
1.3245747e-14 -3.004009e-14 -1.9655632e-22 -1.6747996e-05 -8.890666e-06 -1.9071165e-13 1.9830196e-24 -3.847344e-08
-9.409534e-08 -2.4625806e-09 -3.9667353e-07 -8.7057835e-08 -1.1402155e-08 -1.0977486e-13 -1.9254765e-13 -1.0451604e-07
-1.1750634e-15 1.8535987e-25 3.0522392e-15 -1.0899596e-05 -2.66536e-09 -2.1592656e-25 4.4962023e-16 -1.7243041e-18
8.367564e-16 2.8769803e-26 -5.657723e-07 1.7479961e-07 -8.0278073e-07 -1.3984671e-15 1.2604976e-12 -2.386978e-16
-4.8978955e-12 -3.8933862e-08 -2.3601742e-05 5.094497e-17 -1.5226783e-24 4.772379e-12 2.985409e-15 -4.911593e-07
-3.6297977e-16 6.9852845e-08 -1.8098203e-07 -9.079288e-14 4.0281544e-16 -1.6432264e-08 1.1429761e-15 -7.7498406e-08
1.2725499e-17 -2.0864184e-09 1.2360573e-24 -1.4012982e-16 1.1610486e-12 1.653903e-13 -3.214256e-09 -5.7404036e-06
-9.481544e-07 8.797884e-10 2.4879896e-24 1.5741513e-17 -2.8355037e-08 5.879981e-13 -6.873371e-16 -9.307988e-15
-1.3106518e-05 -4.756015e-08 2.6421625e-12 3.6848585e-25 -2.67536e-10 -6.1609825e-07 -5.5451786e-05 1.1581351e-08
3.7686845e-17 4.67704e-17 -2.2261172e-08 5.9081803e-13 1.3747939e-15 -1.3133291e-06 4.1225602e-14 -6.2437135e-09
3.7320782e-11 -4.0649276e-11 1.2453869e-14 -9.938906e-07 -1.6628868e-05 3.0088672e-16 -2.5149236e-09 -5.919017e-14
1.0642066e-12 -9.632172e-07 -8.155019e-06 -1.3808413e-16 -4.5944604e-10 1.294084e-15 -1.0157235e-15 6.755408e-25
-1.01077e-15 -1.7037521e-16 -1.6441932e-08 2.4160597e-24 -6.9623604e-07 1.8592024e-11 -1.5363988e-11 -1.5616978e-15
-4.2354564e-09 -9.388908e-08 1.864944e-08 -2.8194026e-07 -1.4691685e-16 3.3381174e-20 -5.5882212e-11 1.6770132e-15
-7.997116e-16 -7.146566e-05 -7.4138773e-10 1.3975311e-25 -1.9384063e-06 1.3236787e-12 -1.4147967e-16 -3.4365675e-21
-3.351531e-05 -4.6426425e-11 8.5058946e-13 -6.532125e-05 1.3613403e-15 -1.7404776e-15 5.749315e-16 1.6801345e-15

predict.predict.1.bias f4 [128]
00000000: 039d 20bc e434 863d 16cc 862f 5c98 95b6
00000010: aa17 9cb1 8a3b 643c 486c c2bc eeb8 98bb
00000020: 6236 3dbc 969b b53c 15e5 413b 582b 013b
00000030: 163e a3a7 1030 90b0 6cbf ccb9 788b a83a
00000040: f610 3abc ce83 5fbb 4db7 703c 3012 6dbc
00000050: 0d7a 3a39 77a5 90b9 c7cc 12bd 312e 2e39
00000060: 02b9 c0b5 186c e8b8 7e07 8bb9 89b8 023c
00000070: eb62 4d3b f244 cabc b71f 9934 3db8 f7bb
00000080: 4c56 e437 64a0 2fba fbed 8c3c 793b 95b8
00000090: 3e7e bf3b c79a 3bbd 3655 9ebc 4289 cf38
000000a0: 50b9 5336 eb24 513c 1b8b 2339 c973 3cb7
000000b0: 0d65 bbbc 6ba7 1f38 149a 1ab9 6838 d4ba
000000c0: d707 c63c 16b3 a2ba a067 81bc f028 4d3d
000000d0: 2f35 1cb7 9398 173c 068c 963c 23bf 04bd
000000e0: 287f 32b9 76f7 edb8 0c07 8d39 3a3e 213c
000000f0: e00b f3bc a4cd 0c3c fc07 833b 9c90 2b3d
00000100: d204 05bc b716 a23c bdff 363c 1a2c 443c
00000110: df29 453b 1ec6 243c 8eca 2abc c14c 04bd
00000120: 5ec8 70bc f881 8a29 8df3 63b2 a615 39bc
00000130: b192 e838 c549 bebc 6c0e fe3c 5759 073c
00000140: db9e f7bb d055 d3bc 7fa8 843d 002a 99b7
00000150: d51d 3cbc 6239 4cbc 3430 52bc 7651 a3bb
00000160: 5426 02bb ae4b f8b9 ef98 abba b71e 8ebc
00000170: 7146 c439 9533 c4bb 0e4d dfb5 5a1f 903c
00000180: ec8c b73a 119d 4abd ee03 79bb b5c4 3db8
00000190: 785a bebc 5af4 1bbd 13a7 0d32 8c06 bebb
000001a0: 3f59 9ab4 69d8 5c37 3918 8d37 5f33 25bc
000001b0: b5fc f63c 0643 4238 22b5 973a 06af 21bc
000001c0: eb92 6f3c a443 da3c b9c9 d9b6 a4b8 8835
000001d0: b526 0f3c 529a e337 fd05 95bc b5a3 8fbc
000001e0: fb96 2b3b cac9 103b dc0d 35bb a7cb c432
000001f0: 6417 8c3c fe46 3cbc c911 1c3d 1210 2bbb
-0.0098030595 0.06553057 2.451947e-10 -4.458283e-06 -4.542888e-09 0.013930211 -0.023733273 -0.004660717
-0.01154861 0.022168916 0.0029586006 0.0019709673 -4.53089e-15 -1.0491039e-09 -0.00039052533 0.0012858948
-0.011356583 -0.0034105661 0.01469214 -0.014469668 0.0001778381 -0.000275891 -0.035839822 0.00016611141
-1.4358959e-06 -0.00011082756 -0.00026517728 0.007978567 0.0031339477 -0.024691079 2.8521546e-07 -0.0075598047
2.7219903e-05 -0.000669962 0.017203322 -7.115951e-05 0.0058439067 -0.045801904 -0.019327741 9.8960954e-05
3.1549316e-06 0.01276515 0.00015596712 -1.1232632e-05 -0.022875333 3.8064474e-05 -0.00014743983 -0.0016191127
0.02417366 -0.0012412991 -0.015796483 0.05008787 -9.310707e-06 0.009252685 0.018377315 -0.032408845
-0.00017022772 -0.00011347134 0.00026898866 0.009841496 -0.029668748 0.00859395 0.0039987545 0.041885957
-0.008118825 0.019786222 0.011169371 0.011973405 0.0030084772 0.010057 -0.010424269 -0.03229976
-0.014696209 6.150977e-14 -1.3268516e-08 -0.011296665 0.000110899455 -0.023228535 0.031012736 0.008261046
-0.007556779 -0.025797755 0.064774506 -1.8258579e-05 -0.011481722 -0.012464853 -0.012828875 -0.004984076
-0.001985927 -0.00047358632 -0.0013091842 -0.01734863 0.00037436516 -0.0059875944 -1.6637221e-06 0.017593075
0.001400379 -0.049466196 -0.0037996727 -4.524431e-05 -0.023236498 -0.03807483 8.2452685e-09 -0.0057991203
-2.874967e-07 1.3163409e-05 1.681979e-05 -0.010083049 0.030149797 4.6315625e-05 0.0011574368 -0.009868389
0.01462243 0.026643582 -6.4905876e-06 1.0186527e-06 0.008737256 2.713237e-05 -0.018191332 -0.017534116
0.002618252 0.0022092932 -0.002762667 2.2910013e-08 0.017100997 -0.011491535 0.0381029 -0.0026102108

predict.predict.3.weight f4 [128]
00000000: b810 fd3b f39b e73e 6332 733c 24af 3b3c
00000010: 2b97 873c 5a51 663e f9a9 163e 8926 b63c
00000020: 036d b23a 1d7e c03e 5409 253e ffae 7c3e
00000030: 9da9 0b3c c72f b23c 258f 4d3c 00e6 5e3c
00000040: 6ca6 fa3b 9ecc be3c 3549 353e 6334 a2ba
00000050: 8380 e93b a6f7 213c f5f5 f33b d056 903c
00000060: e57b 0d3c 6cdb 363c d437 233c 17ef 873e
00000070: e29e ee3c f711 f83b 1d87 9f3c a3a2 9a3e
00000080: 0a3b bc3d 832d 7a3d 38f6 8b3e 37c0 5d3c
00000090: 4dd4 533e 1762 8f3e ce82 cb3c 99aa b03d
000000a0: 9341 1f3c 10e7 863e 80c7 083c 354a 223c
000000b0: 9b61 733d e1cc 9a3c 36cb 563c f507 043c
000000c0: 0e6f 663e 2435 fe3b eac4 2e3c dc42 e03e
000000d0: 412b 003e bc63 a33e 7b69 d73e e2bb 523e
000000e0: ce42 1c3c c4a6 073c 7b17 443d c428 473e
000000f0: d810 403c fef5 543d 0125 fd3b cfda f33e
00000100: 375b 013c 0483 973c ae32 ba3d 6853 0f3e
00000110: 075e 293e 6076 8c3e 7df6 723c 6577 453e
00000120: 1c13 903d 9c60 133c 7173 113d d57d a83d
00000130: 42c9 653c 25aa c63d 53c5 cb3e b230 c03d
00000140: b5fc 643d fc30 1d3e 5159 133f f217 943d
00000150: e9f2 ff3b 152e 173c 6d97 413e d03d f83b
00000160: ef99 363c dbd1 253c 2fb4 d43c 0075 bb3d
00000170: 75e1 473c 169f 743c 2cc6 a13d 4227 973e
00000180: 283e 463e b9e9 f93d c6cf 813b 2e3a 7d3c
00000190: a928 3b3d 99a3 fe3d d903 213d dacf b53c
000001a0: 63e0 3e3c e370 1d3d 1e53 513e 10c4 4f3c
000001b0: 17f9 d93e a7d5 183c a295 f53c 3e2a 993b
000001c0: 1e90 fa3d 88a3 dd3e 7caa 663c d773 2c3c
000001d0: d1f7 d13d 1e63 7f3c 403c 7e3b ea7d 3b3c
000001e0: f2e3 193c d32c 373e bbdf d23c edca 263d
000001f0: 75fa 503e 0f48 283e b031 1c3e 2be5 043c
0.0077229403 0.45236167 0.014843556 0.011455331 0.016551575 0.2249197 0.14713277 0.022235172
0.001361281 0.37596217 0.1611684 0.2467613 0.008524326 0.021751298 0.012546335 0.013604641
0.0076492336 0.023290928 0.17703708 -0.0012375232 0.0071259155 0.009885704 0.007445092 0.01761952
0.008635496 0.011160713 0.009962041 0.265496 0.029128496 0.007570501 0.019473607 0.30202207
0.09190948 0.06107856 0.27336287 0.013534597 0.20686455 0.28004524 0.024842646 0.08626289
0.009720224 0.26348162 0.008348346 0.009905388 0.059419256 0.018896522 0.013109973 0.008058538
0.22503302 0.0077577997 0.010667065 0.4380101 0.125165 0.3191203 0.42072663 0.20579484
0.009537412 0.008279506 0.047873955 0.19449145 0.011722766 0.05199241 0.0077253585 0.47627875
0.0078952825 0.01849509 0.09091698 0.1399666 0.16539775 0.27434063 0.014829275 0.19283827
0.07034895 0.008995201 0.035510484 0.082271256 0.014025034 0.09700421 0.39798984 0.09384288
0.055905063 0.15350717 0.5755816 0.0723113 0.0078109396 0.009227295 0.1890542 0.007575728
0.011145099 0.010120834 0.025964824 0.09153175 0.012199749 0.014930507 0.078991264 0.2952214
0.19359648 0.12202782 0.003961536 0.015455766 0.045693073 0.124335475 0.03931031 0.022193838
0.011650178 0.038437735 0.20441863 0.012681022 0.42572853 0.009328282 0.029978577 0.004674225
0.122345194 0.43288827 0.014078733 0.010525665 0.10252345 0.015587596 0.0038793236 0.0114435945
0.009392725 0.17888193 0.025741449 0.04072087 0.20408042 0.16433738 0.1525333 0.0081112785
