Results/GAT/saved_model/GAT_bst_47.pth (torch, 759480 bytes, 13 tensors)

gnn.gnn_layers.0.gat_conv.attn_l f4 [1, 8, 128]
0.0019645963 0.002401541 -0.0014018578 -7.411865e-05 -0.00088853284 -0.00063187437 -0.004046385 -0.00027468058
-0.0010614593 -0.0017587758 -0.0037755328 0.0011716672 0.00037108437 -0.00066206563 0.0008264641 -0.0038997345
-0.002180409 -0.0015346302 -0.002378288 0.0036299648 -0.0002238653 -0.00023860397 9.3954826e-05 0.00037896747
-0.004455045 -0.0016660392 0.00010757801 0.00025005842 -0.0001387715 0.00014282436 0.0030686085 -0.0023553993
0.00074441894 4.143151e-05 0.003885767 4.5916153e-05 0.0021485023 -0.00021359518 9.811168e-06 -0.00027782677
-0.0006890752 -0.0011006888 -0.001772017 0.0015480437 0.0065403758 0.0007572274 -0.00027659745 -0.0033291744
0.0011602557 -0.00037019988 0.002803395 -0.00177682 -0.0003327231 0.0005899899 0.00033027466 0.0048529753
0.0011178844 0.0015416928 -0.00054789154 -0.00062426494 0.0028410717 0.0008200856 0.0014651563 0.002301455
-0.000936978 -0.0007944506 5.2820058e-05 0.00181722 0.001639082 -0.009095384 -1.8100183e-05 -0.0010497854
0.0003173004 -0.0011920157 -0.0004337104 -0.0009917292 -0.0023981256 0.0008116325 -0.0029844183 0.004896931
0.0006604108 0.000186473 0.0008942654 -0.0002888874 -0.005680853 0.0011862804 0.00048907596 -4.0949926e-05
0.0029130564 -0.0012467719 -0.0003033775 0.00020116326 -0.00052735495 1.9947558e-05 0.00026616975 7.3779986e-05
0.00020925261 0.001148235 -0.0009136719 -0.0010163105 -0.005698306 -0.0002099345 -0.00021861854 0.002661832
-0.0013745283 -0.00021239143 -0.001004222 0.0015003796 6.313095e-05 -0.00018105852 0.002937755 -0.0011968209
0.0008800131 0.0012650342 0.00084402185 -0.00049113843 -0.0014695182 0.0023002308 -0.0002559953 -0.0030246947
0.00010402675 -0.0004087378 -0.0006822573 0.0006072943 0.0003718158 0.00058076804 0.0029783621 0.008377935
0.0005947972 0.006061854 0.00073419034 0.00094056316 -0.001312816 0.0016131481 0.012513854 3.1883486e-05
0.0044055516 -0.012763896 0.0032264625 -0.001506739 0.0011744341 0.0010209732 -0.0029028428 0.0036766287
-0.001244474 0.005071394 0.0007908447 0.0022646112 -0.0010282878 -2.0926493e-05 0.009446607 0.002014029
-0.0125943 0.0019109001 0.0064470014 -0.001037562 0.0045750057 0.00024450026 0.00014515028 -0.00649557
-0.0049976 -0.0023318008 0.00012640904 0.00078275026 0.002813753 -0.0028950763 0.0016895165 0.0009856744
-0.0015203094 0.006130431 -0.002037071 0.00302962 0.0062998575 -0.005961038 -0.00051204994 0.007936672
0.007886663 0.0009443287 0.0026434348 0.003400038 -0.00046364224 0.0030064736 -0.0019486818 0.0063462537
0.001224025 -0.0014058179 -0.00092784094 -0.003304947 0.0010244029 0.006781277 -0.0040774797 -0.001546026
0.0046229945 -0.0020553882 -0.0030814821 -0.005526842 0.008577862 -0.011965356 0.0039375345 -0.0010280862
0.0005827632 -0.005752667 -0.00076808076 -0.0012742516 -0.0045076148 -0.0010764877 0.00015979448 0.011926178
-0.0027586238 -0.00073005643 0.004642052 0.003600936 0.004994307 0.0061247987 0.00016054072 2.4951705e-05
0.003777112 -0.00026753463 -0.0010613343 -0.00037796993 0.0013274936 0.0014953897 0.0079794 0.0067755417
-0.00022502936 0.00075218716 -0.0022157077 0.0005475876 -0.004870518 -0.00037140778 -0.009016674 -0.0002786092
0.0005270886 -0.000753192 0.004825499 0.004059082 -2.823311e-06 -0.00014423407 -0.0125227645 0.0015373066
-0.0007296424 0.0016030513 -0.00085768575 -0.00049271045 -0.0060708546 0.0020367207 0.0019557704 -0.00092018687
0.0015983213 4.496517e-06 -0.00095517986 0.0012258366 -0.0015479097 0.004067969 0.012823259 0.013962574
00000000: 75c0 003b 2c63 1d3b 8bbe b7ba 2670 9bb8
00000010: 6eec 68ba 5fa4 25ba 8a97 84bb 0103 90b9
00000020: aa20 8bba b986 e6ba ee6e 77bb a192 993a
00000030: 1a8e c239 798e 2dba 11a7 583a b092 7fbb
00000040: 31e5 0ebb a525 c9ba 0ddd 1bbb b4e4 6d3b
00000050: 62bd 6ab9 c431 7ab9 9d09 c538 27b0 c639
00000060: a0fb 91bb 005f daba 819b e138 461a 8339
00000070: 3183 11b9 1fc3 1539 b51a 493b 0b5d 1abb
00000080: 1c25 433a bfc6 2d38 5aa8 7e3b 1896 4038
00000090: e3cd 0c3b 85f8 5fb9 a59a 2437 47a9 91b9
000000a0: 0ea3 34ba fd44 90ba 0643 e8ba bae7 ca3a
000000b0: a650 d63b ac80 463a 4804 91b9 472e 5abb
000000c0: b913 983a 6317 c2b9 2ab9 373b 30e4 e8ba
000000d0: 5771 aeb9 8da9 1a3a b728 ad39 b505 9f3b
000000e0: fa85 923a a012 ca3a 61a0 0fba b6a5 23ba
000000f0: 4631 3a3b 03fb 563a 7d0a c03a 02d4 163b
00000100: 879f 75ba ad42 50ba 1b8b 5d38 c92f ee3a
00000110: 77d6 d63a ce04 15bc d9d5 97b7 f498 89ba
00000120: 575b a639 693d 9cba a063 e3b9 e9fc 81ba
00000130: df29 1dbb bcc3 543a 3b96 43bb 6f76 a03b
00000140: 6b1f 2d3a f787 4339 236d 6a3a cf75 97b9
00000150: 7326 babb f77c 9b3a 5535 003a a6c1 2bb8
00000160: fae8 3e3b b96a a3ba a40e 9fb9 5aef 5239
00000170: 313e 0aba 0e55 a737 b38c 8b39 54ba 9a38
00000180: d26a 5b39 6080 963a 7c83 6fba b935 85ba
00000190: dbb8 babb dd21 5cb9 f83c 65b9 2172 2e3b
000001a0: 8429 b4ba 64b5 5eb9 19a0 83ba 63a8 c43a
000001b0: 2c65 8438 87da 3db9 5a87 403b a5de 9cba
000001c0: aeb0 663a 81cf a53a 5941 5d3a bebf 00ba
000001d0: d99c c0ba 78bf 163b 1c37 86b9 f539 46bb
000001e0: f028 da38 dc4b d6b9 83d9 32ba d532 1f3a
000001f0: 46f0 c239 af3e 183a a030 433b 9b43 093c
00000200: 2aec 1b3a 84a2 c63b ae76 403a 2090 763a
00000210: cc12 acba 4570 d33a e806 4d3c a2ba 0538
00000220: 725c 903b a91f 51bc 0f73 533b c57d c5ba
00000230: 78ef 993a 2dd2 853a 9f3d 3ebb 98f3 703b
00000240: 9e1d a3ba f02d a63b b050 4f3a df69 143b
00000250: 9dc7 86ba 4d8b afb7 f1c5 1a3c cdfd 033b
00000260: 5358 4ebc 2b77 fa3a 5e41 d33b cefe 87ba
00000270: eee9 953b 4530 8039 7b33 1839 cad8 d4bb
00000280: e8c2 a3bb 20d1 18bb ab8c 0439 7b31 4d3a
00000290: f166 383b 52bb 3dbb c472 dd3a bf31 813a
000002a0: 1e45 c7ba c8e1 c83b 6180 05bb 978c 463b
000002b0: 096f ce3b d054 c3bb 173b 06ba d108 023c
000002c0: 1037 013c d48c 773a 7a3d 2d3b 2cd3 5e3b
000002d0: 0215 f3b9 4208 453b e96a ffba 3cf4 cf3b
000002e0: 776f a03a 6c43 b8ba 5a3a 73ba cf97 58bb
000002f0: 4245 863a 7935 de3b 619c 85bb 06a4 caba
00000300: 7d7c 973b b1b3 06bb b1f2 49bb 831a b5bb
00000310: 298a 0c3c 570a 44bc 6f06 813b d9c0 86ba
00000320: 94c4 183a de80 bcbb 0759 49ba ca04 a7ba
00000330: 9db4 93bb ef18 8dba 818e 2739 0466 433c
00000340: 07ca 34bb 4261 3fba 5b1c 983b aefd 6b3b
00000350: 49a7 a33b 89b2 c83b d256 2839 614f d137
00000360: 6d89 773b e443 8cb9 781c 8bba 442a c6b9
00000370: 4bff ad3a f400 c43a 08bc 023c 5d05 de3b
00000380: dcf5 6bb9 6d2e 453a 6835 11bb fb8b 0f3a
00000390: de98 9fbb 82b9 c2b9 acba 13bc 4b12 92b9
000003a0: 512c 0a3a dc71 45ba 381f 9e3b 0c02 853b
000003b0: 1d78 3db6 8a3d 17b9 482c 4dbc 737f c93a
000003c0: 7945 3fba 7a1d d23a 51d6 60ba 3d29 01ba
000003d0: 05ee c6bb 817a 053b 622c 003b b238 71ba
000003e0: c37e d13a c9e0 9636 0965 7aba 40ac a03a
000003f0: 3be3 caba 994c 853b a618 523c 48c3 643c

gnn.gnn_layers.0.gat_conv.attn_r f4 [1, 8, 128]
0.0018851898 -0.0025455346 0.00078622636 7.59531e-05 0.0001768051 -0.00072315824 -0.0006156005 -0.00015873199
0.0008684175 0.0027734947 0.0009424968 -0.00055985485 -0.00014520396 8.051501e-05 -0.0019447075 -0.0005330655
-0.0008646923 -0.0023526722 -0.0005204273 7.370071e-05 0.0030784064 0.00012581747 -0.00042263718 0.00028801544
-0.0013643164 0.0006550123 -0.00017094455 0.00032762444 0.0012047855 -0.0003355466 -0.00057100947 -0.00020579124
-0.00024834974 0.0007440787 -2.0155427e-05 0.00017623481 -0.0004962216 -0.00045372226 0.0005407454 -9.7080534e-05
0.001490337 -0.0044719507 -0.00010692539 0.001731609 0.00066936185 -0.00083804387 -6.2667646e-06 -0.0042273076
4.2135016e-05 -0.00031994114 0.000745227 0.001103497 5.4032724e-05 -0.00071601226 0.00019018003 0.0021243193
3.1039206e-05 0.0002656073 -0.0003159582 6.0370072e-05 -0.00037810486 0.0004477274 0.001926795 -0.00017906114
0.00020323471 0.0006076754 0.001626092 0.00012881431 0.0012911995 0.0018170074 0.00014375673 -7.595622e-05
0.000118410295 -0.00037235767 -0.00023103748 8.120857e-05 -0.0005786043 -0.00033434966 -0.0025019953 0.00049036404
-0.0007032272 0.0013258267 3.85866e-05 0.0027032392 -0.0025321424 0.00024133136 -0.00031404506 0.00010518521
-0.00053113664 0.00058474514 -6.90369e-05 0.00040178906 -0.0006395207 -0.00026757288 -5.535776e-05 -0.0005551266
5.5436318e-05 0.00095881993 0.0006412677 -5.6850684e-05 0.004499995 -3.1248797e-05 0.00025539513 0.0003489822
0.00016365643 0.00021347424 1.9153535e-05 3.7690923e-05 -7.378494e-05 -0.00022210421 0.0032970835 -5.604493e-06
-4.2067426e-05 -0.0010856278 0.00042393815 -0.0021817056 0.00012640457 0.000471686 -0.00032638942 -0.001504376
-0.00016293228 -7.619365e-05 0.0012281548 0.0007012836 0.00010757834 0.00097192946 0.003188516 0.002759091
-0.004108411 0.0028685231 0.00057735806 0.0021126077 -0.0013879685 0.0001681989 -0.0005322812 0.0007926629
0.0034364136 0.0012533423 0.004754712 0.00023718848 0.00050542067 0.0006702588 -0.0028423732 -0.0030363563
-0.0034418798 0.0077336216 0.00080267154 0.00079190155 0.0024457828 0.00060818286 0.0014917873 0.0010969718
-0.009482297 0.001970463 0.00084739557 -0.00015603357 0.0060513807 0.000844482 0.00093208154 -0.0043598525
0.00012736533 -0.00014260563 -0.004143757 0.000117949785 -0.0010506174 -0.00013468335 0.0006980668 0.0015560304
0.0022786995 0.0060464335 0.00067628466 -0.0026656142 0.0019853148 -0.0057616634 -0.002099979 -0.0051795617
0.006022606 -0.0041226298 -0.0005359613 0.0051536695 0.0001755693 0.0017467996 -0.00081246765 0.00043484048
-7.306718e-06 -0.004925375 0.0020094279 -0.0025803712 0.001897008 0.0019037953 0.0025735 -0.0021028514
-0.00011337658 -0.0009103217 0.0072816797 -0.00299609 0.0022287162 0.00352316 0.00073051703 0.0010278217
-0.00030051975 -0.0029117921 0.0007171465 0.0015012119 0.00015176904 -0.00014390495 -0.0050211526 0.004563767
0.001807854 0.004393292 0.0040844334 0.008888721 -0.0025714783 -0.0002730349 -0.004095407 -4.8354446e-05
-0.00012680017 -0.0023839734 -0.00023376674 -0.00078986184 -0.0012558214 0.0010291038 0.008940054 0.009467287
-0.00090692134 0.004462782 -0.003198899 -0.0010579218 0.00046500977 -0.0004988417 0.0008086472 0.00040362307
0.005142178 0.0003074272 0.0020510457 0.0018933679 0.00017950666 0.0008797866 0.005186155 5.4846505e-06
3.1556945e-05 0.0040730443 0.0029243382 -0.0062774965 -0.00017396729 0.0011288373 0.00049634714 0.0064603365
0.0022018254 0.0011838798 0.00026258812 0.004647687 -0.0028256713 0.0024071177 -0.000120016106 -0.003705245
00000000: 7918 f73a fcd2 26bb c21a 4e3a 0349 9f38
00000010: c264 3939 5492 3dba 4060 21ba 4b71 26b9
00000020: 83a6 633a 85c3 353b e411 773a 39c3 12ba
00000030: e441 18b9 2bda a838 8ee5 feba 6cbd 0bba
00000040: 85ac 62ba 4a2f 1abb 496d 08ba c48f 9a38
00000050: 17bf 493b dfed 0339 6795 ddb9 c700 9739
00000060: ddd2 b2ba 22b5 2b3a 943f 33b9 02c5 ab39
00000070: e5e9 9d3a 4dec afb9 ccaf 15ba aac9 57b9
00000080: f034 82b9 470e 433a 7313 a9b7 accb 3839
00000090: de14 02ba 92e1 edb9 cfc0 0d3a b797 cbb8
000000a0: 6957 c33a 7189 92bb 223d e0b8 28f7 e23a
000000b0: 1d78 2f3a 2cb0 5bba 1947 d2b6 3a85 8abb
000000c0: 21ba 3038 c6bd a7b9 565b 433a 37a3 903a
000000d0: 32a1 6238 c5b2 3bba 106b 4739 2a38 0b3b
000000e0: 1830 0238 3541 8b39 31a7 a5b9 df35 7d38
000000f0: 603c c6b9 f4bc ea39 838c fc3a 5cc2 3bb9
00000100: 671b 5539 684c 1f3a 9822 d53a 5412 0739
00000110: 773d a93a a728 ee3a 67bd 1639 af4a 9fb8
00000120: 0b53 f838 0039 c3b9 a742 72b9 854e aa38
00000130: 7aad 17ba a74b afb9 84f8 23bb c68b 003a
00000140: c758 38ba 5dc7 ad3a 0cd8 2138 d428 313b
00000150: 4df2 25bb e50d 7d39 6aa6 a4b9 e196 dc38
00000160: fa3b 0bba 9549 193a e7c7 90b8 37a7 d239
00000170: 82a5 27ba 0649 8cb9 f12f 68b8 ea85 11ba
00000180: 4b84 6838 5159 7b3a bf1a 283a f572 6eb8
00000190: b274 933b 2411 03b8 8ee6 8539 99f7 b639
000001a0: 309b 2b39 0ed8 5f39 e7ab a037 5216 1e38
000001b0: fdbc 9ab8 a5e4 68b9 e213 583b 3a0e bcb6
000001c0: 8e71 30b8 a04b 8eba 0444 de39 f2fa 0ebb
000001d0: 788b 0439 a04c f739 3f1f abb9 7b2e c5ba
000001e0: cdd8 2ab9 28ca 9fb8 09fa a03a 59d6 373a
000001f0: ae9b e138 15c9 7e3a 6cf6 503b ded1 343b
00000200: d99f 86bb d5fd 3b3b d859 173a ad73 0a3b
00000210: 7fec b5ba 8c5e 3039 c988 0bba b5ca 4f3a
00000220: 7435 613b 3047 a43a 6acd 9b3b ccb5 7839
00000230: 357e 043a 4fb4 2f3a 1c47 3abb 9bfd 46bb
00000240: 2991 61bb 526a fd3b 606a 523a 9d97 4f3a
00000250: 6d49 203b 766e 1f3a 1388 c33a 44c8 8f3a
00000260: a35b 1bbc e222 013b c123 5e3a f19c 23b9
00000270: a94a c63b 3a60 5d3a ef56 743a 18dd 8ebb
00000280: 5f8d 0539 6888 15b9 5ac8 87bb cf5b f738
00000290: dfb4 89ba c939 0db9 78fe 363a b7f3 cb3a
000002a0: 3c56 153b 2921 c63b b248 313a 96b1 2ebb
000002b0: 0e1c 023b 56cc bcbb cd9f 09bb 50b9 a9bb
000002c0: 4859 c53b 2017 87bb c17f 0cba 1de0 a83b
000002d0: 0619 3839 def4 e43a c8fb 54ba 4dfb e339
000002e0: 3b2c f5b6 0a65 a1bb 9bb0 033b 721b 29bb
000002f0: 07a5 f83a c588 f93a 2aa8 283b fecf 09bb
00000300: 97c4 edb8 a8a2 6eba 289b ee3b 0d5a 44bb
00000310: a70f 123b d1e4 663b 2b80 3f3a f9b7 863a
00000320: 148f 9db9 c4d3 3ebb e3fe 3b3a 50c4 c43a
00000330: 3124 1f39 31e5 16b9 7b88 a4bb a78b 953b
00000340: 84f5 ec3a 9bf5 8f3b b6d6 853b ffa1 113c
00000350: 3f86 28bb 2026 8fb9 c432 86bb 31d0 4ab8
00000360: a9f5 04b9 703c 1cbb 481f 75b9 bb0e 4fba
00000370: 609a a4ba fee2 863a 4e79 123c ae1c 1b3c
00000380: 76be 6dba 873c 923b 9fa4 51bb f7a9 8aba
00000390: 8ecc f339 b3c4 02ba 65fb 533a 5f9d d339
000003a0: b77f a83b 2e2e a139 d66a 063b e22a f83a
000003b0: f439 3c39 7ba1 663a 9ff0 a93b ca08 b836
000003c0: 035c 0438 2c77 853b 41a6 3f3b 75b3 cdbb
000003d0: fd6a 36b9 7ff5 933a 4b1d 023a 3bb1 d33b
000003e0: 804c 103b 6a2c 9b3a fbab 8939 a04b 983b
000003f0: e62e 39bb bcc0 1d3b 28b1 fbb8 b2d3 72bb

gnn.gnn_layers.0.gat_conv.bias f4 [1024]
0.027734943 0.00023684581 0.006629685 -0.007230533 -0.000219181 -0.0006456334 0.008190547 -0.005187458
-0.0024444063 -0.07778566 -0.018391268 -0.0041407547 -0.0023413657 -0.0014658587 0.030116223 0.0100320615
0.0019218724 -0.021170005 -0.018408747 -0.010144719 -0.051901136 -0.0027249993 -0.024002748 0.001323355
0.036615625 0.0035977024 -0.008586889 0.0015442179 -0.024728501 -0.0063430425 -0.006986468 0.013244907
-0.015255564 -0.00039093124 -0.011117563 -0.0010396767 0.0038309274 0.002327943 0.00337903 -0.01220564
-0.05656355 0.0033727777 -0.008873572 0.0072750854 -0.008904203 -0.0003778822 0.0080202995 0.03155443
-0.021120917 0.02361619 0.006047836 -0.012213313 -0.0015544476 -0.006790219 0.0036196262 -0.024554541
0.0032318435 0.008666798 -0.009961286 0.0071133594 -0.003054142 -0.014831926 -0.12188786 0.012573054
-0.0013537674 0.007093712 -0.037830535 0.0090302 -0.003524553 -0.06471086 0.003916382 -0.022796072
0.002098185 0.0038955861 -0.006260732 -0.010075494 -0.0043230685 -0.0050327433 -0.014890915 -0.06025763
0.0043017585 -0.02815147 -0.005811682 -0.035421386 -0.002417439 0.005280887 -0.08118291 0.00050985103
0.003985399 0.011471279 -0.0012933386 0.004562193 0.005547961 -0.00429879 -0.044389687 -0.044005282
0.0013819081 -0.020481987 0.019745745 -0.0013123553 0.015603273 -0.0014308218 -0.020633992 -0.035997465
-0.04087083 -0.004694192 -0.02263242 -0.00047754322 -0.00086086313 -0.0013372962 -0.023272233 -0.0003322253
-0.006736353 -0.012265042 -0.007164222 0.030047538 -0.101547584 -0.018856805 -0.001241576 -0.01828113
-0.00675068 -0.007429327 -0.064926006 -0.025356617 0.0008622346 -0.024345757 -0.051189236 -0.09420437
0.027734943 0.00023684581 0.006629685 -0.007230533 -0.000219181 -0.0006456334 0.008190547 -0.005187458
-0.0024444063 -0.07778566 -0.018391268 -0.0041407547 -0.0023413657 -0.0014658587 0.030116223 0.0100320615
0.0019218724 -0.021170005 -0.018408747 -0.010144719 -0.051901136 -0.0027249993 -0.024002748 0.001323355
0.036615625 0.0035977024 -0.008586889 0.0015442179 -0.024728501 -0.0063430425 -0.006986468 0.013244907
-0.015255564 -0.00039093124 -0.011117563 -0.0010396767 0.0038309274 0.002327943 0.00337903 -0.01220564
-0.05656355 0.0033727777 -0.008873572 0.0072750854 -0.008904203 -0.0003778822 0.0080202995 0.03155443
-0.021120917 0.02361619 0.006047836 -0.012213313 -0.0015544476 -0.006790219 0.0036196262 -0.024554541
0.0032318435 0.008666798 -0.009961286 0.0071133594 -0.003054142 -0.014831926 -0.12188786 0.012573054
-0.0013537674 0.007093712 -0.037830535 0.0090302 -0.003524553 -0.06471086 0.003916382 -0.022796072
0.002098185 0.0038955861 -0.006260732 -0.010075494 -0.0043230685 -0.0050327433 -0.014890915 -0.06025763
0.0043017585 -0.02815147 -0.005811682 -0.035421386 -0.002417439 0.005280887 -0.08118291 0.00050985103
0.003985399 0.011471279 -0.0012933386 0.004562193 0.005547961 -0.00429879 -0.044389687 -0.044005282
0.0013819081 -0.020481987 0.019745745 -0.0013123553 0.015603273 -0.0014308218 -0.020633992 -0.035997465
-0.04087083 -0.004694192 -0.02263242 -0.00047754322 -0.00086086313 -0.0013372962 -0.023272233 -0.0003322253
-0.006736353 -0.012265042 -0.007164222 0.030047538 -0.101547584 -0.018856805 -0.001241576 -0.01828113
-0.00675068 -0.007429327 -0.064926006 -0.025356617 0.0008622346 -0.024345757 -0.051189236 -0.09420437
00000000: 6434 e33c d059 7839 d43d d93b 1bee ecbb
00000010: f4d3 65b9 b93f 29ba a531 063c 8dfb a9bb
00000020: 5532 20bb 174e 9fbd 49a9 96bc 2baf 87bb
00000030: 9971 19bb 0e22 c0ba 4cb6 f63c 845d 243c
00000040: 56e7 fb3a b86c adbc f1cd 96bc 0936 26bc
00000050: 4996 54bd e795 32bb 69a1 c4bc 6d74 ad3a
00000060: 44fa 153d 6ec7 6b3b 06b0 0cbc 5b67 ca3a
00000070: 6d93 cabc 4cd9 cfbb beee e4bb 2b01 593c
00000080: 79f2 79bc e7f5 ccb9 7026 36bc c345 88ba
00000090: 4c10 7b3b 6790 183b b772 5d3b 2afa 47bc
000000a0: 2eaf 67bd d209 5d3b 7562 11bc d763 ee3b
000000b0: efe2 11bc 7e1e c6b9 9367 033c 383f 013d
000000c0: c605 adbc bd76 c13c ed2c c63b 591a 48bc
000000d0: 9bbe cbba 7c80 debb 4037 6d3b 9b26 c9bc
000000e0: 56cd 533b 2fff 0d3c a934 23bc 2f17 e93b
000000f0: 0028 48bb 9b01 73bc 58a0 f9bd 36ff 4d3c
00000100: e570 b1ba 5f72 e83b 31f4 1abd 67f3 133c
00000110: 30fc 66bb 2187 84bd fe54 803b d4be babc
00000120: b481 093b 174d 7f3b d426 cdbb af13 25bc
00000130: 87a8 8dbb b6e9 a4bb 06f9 73bc b4d0 76bd
00000140: c4f5 8c3b e99d e6bc ec6f bebb 0416 11bd
00000150: e56d 1ebb 4a0b ad3b 3a43 a6bd 86a7 053a
00000160: f397 823b 08f2 3b3c 3e85 a9ba 737e 953b
00000170: accb b53b dddc 8cbb f6d1 35bd e23e 34bd
00000180: 2421 b53a d7c9 a7bc d4c1 a13c 5603 acba
00000190: dfa4 7f3c 6a8a bbba 9e08 a9bc 1472 13bd
000001a0: 2c68 27bd bdd1 99bb a067 b9bc c45e fab9
000001b0: 8cab 61ba 3748 afba 69a5 bebc 862e aeb9
000001c0: a0bc dcbb 51f3 48bc dac1 eabb 4126 f63c
000001d0: 2ef8 cfbd 9679 9abc 61bc a2ba 4fc2 95bc
000001e0: cf34 ddbb b671 f3bb edf7 84bd aeb8 cfbc
000001f0: 9607 623a c170 c7bc ceab 51bd 39ee c0bd
00000200: 6434 e33c d059 7839 d43d d93b 1bee ecbb
00000210: f4d3 65b9 b93f 29ba a531 063c 8dfb a9bb
00000220: 5532 20bb 174e 9fbd 49a9 96bc 2baf 87bb
00000230: 9971 19bb 0e22 c0ba 4cb6 f63c 845d 243c
00000240: 56e7 fb3a b86c adbc f1cd 96bc 0936 26bc
00000250: 4996 54bd e795 32bb 69a1 c4bc 6d74 ad3a
00000260: 44fa 153d 6ec7 6b3b 06b0 0cbc 5b67 ca3a
00000270: 6d93 cabc 4cd9 cfbb beee e4bb 2b01 593c
00000280: 79f2 79bc e7f5 ccb9 7026 36bc c345 88ba
00000290: 4c10 7b3b 6790 183b b772 5d3b 2afa 47bc
000002a0: 2eaf 67bd d209 5d3b 7562 11bc d763 ee3b
000002b0: efe2 11bc 7e1e c6b9 9367 033c 383f 013d
000002c0: c605 adbc bd76 c13c ed2c c63b 591a 48bc
000002d0: 9bbe cbba 7c80 debb 4037 6d3b 9b26 c9bc
000002e0: 56cd 533b 2fff 0d3c a934 23bc 2f17 e93b
000002f0: 0028 48bb 9b01 73bc 58a0 f9bd 36ff 4d3c
00000300: e570 b1ba 5f72 e83b 31f4 1abd 67f3 133c
00000310: 30fc 66bb 2187 84bd fe54 803b d4be babc
00000320: b481 093b 174d 7f3b d426 cdbb af13 25bc
00000330: 87a8 8dbb b6e9 a4bb 06f9 73bc b4d0 76bd
00000340: c4f5 8c3b e99d e6bc ec6f bebb 0416 11bd
00000350: e56d 1ebb 4a0b ad3b 3a43 a6bd 86a7 053a
00000360: f397 823b 08f2 3b3c 3e85 a9ba 737e 953b
00000370: accb b53b dddc 8cbb f6d1 35bd e23e 34bd
00000380: 2421 b53a d7c9 a7bc d4c1 a13c 5603 acba
00000390: dfa4 7f3c 6a8a bbba 9e08 a9bc 1472 13bd
000003a0: 2c68 27bd bdd1 99bb a067 b9bc c45e fab9
000003b0: 8cab 61ba 3748 afba 69a5 bebc 862e aeb9
000003c0: a0bc dcbb 51f3 48bc dac1 eabb 4126 f63c
000003d0: 2ef8 cfbd 9679 9abc 61bc a2ba 4fc2 95bc
000003e0: cf34 ddbb b671 f3bb edf7 84bd aeb8 cfbc
000003f0: 9607 623a c170 c7bc ceab 51bd 39ee c0bd

gnn.gnn_layers.0.gat_conv.fc.weight f4 [1024, 74]
0.015770376 0.023778154 0.012729956 0.008739773 -0.00044433135 -0.00060519105 -0.0003275818 -0.0022684953
-0.00045602705 -2.8558208e-13 -4.749e-42 5.984e-42 1.1901e-41 1.0714e-41 -3.938e-42 -0.00030879333
1.3563e-41 9.5e-44 4.781e-42 -7.71e-42 1.9003918e-09 -1.7907718e-19 -1.0999e-41 8.5e-43
4.313e-42 -6.505e-42 6.048e-42 -2.0088e-41 2.8015335e-14 0.00174847 -1.4592e-41 -2.499e-42
-1.9914e-41 1.0906e-41 8.6e-43 -1.8597e-41 4.692e-42 -1.236e-42 -5.129e-42 -1.2738e-41
-5.598e-42 -3.166e-42 3.7045e-41 6.687e-42 0.010082436 0.01776205 0.029298322 0.0027227171
5.209e-42 0.0010702076 -2.255e-42 5.304e-42 -6.377e-42 -1.1662e-41 0.03088494 0.0057556606
0.013752477 0.0007840563 8.462e-42 4.896e-42 5.223e-42 0.0003719355 -1.494e-42 0.0011289428
0.01920218 0.020623052 1.854e-42 0.00084281206 0.008486064 0.017632302 0.013930894 0.017966645
-0.0013335065 -6.31e-42 0.0038259742 0.009535443 0.001420164 0.004979279 -0.0045672 0.001927741
-0.00030201414 -0.0028986218 -9.6848584e-05 8.9386404e-15 -1.518e-41 -3.573e-42 -2.0718e-41 -0.0002587868
7.584e-42 -0.00034654402 -3.659e-42 1.7212e-41 -1.2243e-41 1.027e-41 6.77e-43 -6.52e-43
-8.7363934e-20 1.1971e-41 -6.3360203e-15 1.7121e-41 2.057e-42 4.858e-42 5.81e-42 0.0011166409
-4.1626423e-16 1.704567e-33 -1.4588e-41 1.1324e-41 6.459e-42 -4.706e-42 -2.007e-42 1.6461e-41
1.2385307e-07 -1.3175e-41 1.0587e-41 -8.55e-43 -8.049e-42 5.623e-42 -0.004670872 0.015016842
-0.0030289853 -0.0051097535 -4.857e-42 0.00031274543 2.681e-41 2.0686e-41 6.145e-42 1.3848e-41
-0.009144421 0.0062971953 0.011162066 -0.0024179274 7.945e-42 3.505e-42 -1.05e-42 -0.0018851304
6.279e-42 0.00093556993 0.0014678942 -0.00025517962 -2.376356e-17 0.00048751093 -0.00044478118 -0.0074214377
0.0030209415 0.012145361 0.0013964806 -1.15e-42 2.0486199e-05 0.007214044 0.001333133 0.0012627945
0.0005583579 0.00053900963 0.0003839132 -0.0018009506 -4.6247816e-05 -1.448e-42 7.345505e-06 -3.688e-42
-9.648e-42 -2.4688e-41 5.16e-42 0.0011494039 -1.89e-41 -2.43896e-40 -6.017e-42 -3.081e-42
9.8e-43 -5.303e-42 -4.382e-42 1.6275e-41 1.686e-42 -4.2181674e-18 -2.577e-42 -5.808e-42
5.4e-42 -0.00050453696 3.812e-42 -1.2707e-41 1.0291e-41 2.221e-42 1.656e-42 -9.22e-42
-1.75e-41 4.739e-41 -4.577e-42 -7.362e-42 1.7707e-41 -4.575104e-30 9.867e-42 6.181e-42
0.0019999307 0.004720934 6.9327716e-06 0.00051327964 8.234e-42 -0.0006946884 -1.1208e-41 5.06e-42
4.628e-42 -4.816e-42 0.0068604783 0.00027148868 0.010784947 -0.0011106529 -1.9128e-41 -9.701e-42
-1.149e-42 0.00075613795 -4.514e-42 0.0005192122 -0.003914315 0.015243171 6.219e-42 -0.0006531696
-0.0046574655 0.002790907 0.00015148622 0.010878943 -0.0008648766 4.247e-42 0.0047999546 0.003152347
-0.0058859093 4.063413e-05 0.00014110477 -7.838033e-06 0.0001371593 0.0003369383 -7.676708e-06 4.3e-44
7.343755e-14 -2.346e-42 -2.215e-42 3.231e-42 2.15e-42 -0.0004375679 2.742e-42 2.29e-42
1.04e-42 4.016e-42 3.528e-42 -4.902e-42 -1.5622e-41 6.327e-42 4.057e-42 -6.44e-42
-2.445e-42 -0.00033945605 1.914e-42 6.4037216e-05 9.696e-42 2.274e-41 1.0255e-41 -7.049e-42
00000000: e030 813c 67ca c23c 4e91 503c 4431 0f3c
00000010: 25f5 e8b9 afa5 1eba 49bf abb9 09ab 14bb
00000020: ea16 efb9 b7c4 a0aa 3d0d 0080 ae10 0000
00000030: 2d21 0000 de1d 0000 fa0a 0080 8ae5 a1b9
00000040: cf25 0000 4400 0000 540d 0000 7e15 0080
00000050: 0c98 0231 c26a 53a0 a91e 0080 5f02 0000
00000060: 060c 0000 2212 0080 dc10 0000 ff37 0080
00000070: f756 fc28 eb2c e53a ad28 0080 f706 0080
00000080: 8337 0080 671e 0000 6602 0000 d733 0080
00000090: 140d 0000 7203 0080 4c0e 0080 8223 0080
000000a0: 9b0f 0080 d308 0080 4467 0000 a412 0000
000000b0: cd30 253c b881 913c 0903 f03c 9d6f 323b
000000c0: 850e 0000 3546 8c3a 4906 0080 c90e 0000
000000d0: c711 0080 8220 0080 6a02 fd3c fb99 bc3b
000000e0: 1252 613c 2189 4d3a 9717 0000 a60d 0000
000000f0: 8f0e 0000 5600 c339 2a04 0080 09f9 933a
00000100: e44d 9d3c adf1 a83c 2b05 0000 29f0 5c3a
00000110: 2209 0b3c 9e71 903c 683e 643c c92e 933c
00000120: 0ec9 aeba 9711 0080 32bd 7a3b 8c3a 1c3c
00000130: cc24 ba3a 3829 a33b 73a8 95bb 41ac fc3a
00000140: a757 9eb9 cef6 3dbb 301b cbb8 3406 2128
00000150: 512a 0080 f609 0080 c139 0080 c7ad 87b9
00000160: 2415 0000 5ab0 b5b9 330a 0080 fb2f 0000
00000170: 2122 0080 a11c 0000 e301 0000 d101 0080
00000180: 4248 ce9f 5f21 0000 7947 e4a7 ba2f 0000
00000190: bc05 0000 8b0d 0000 3210 0000 405c 923a
000001a0: c2f5 efa5 219c 0d09 aa28 0080 911f 0000
000001b0: 0112 0000 1e0d 0080 9805 0080 e32d 0000
000001c0: 79fc 0434 ba24 0080 831d 0000 6202 0080
000001d0: 7016 0080 ad0f 0000 1d0e 99bb 3309 763c
000001e0: f181 46bb b86f a7bb 8a0d 0080 fbf7 a339
000001f0: bc4a 0000 aa39 0000 2111 0000 9a26 0000
00000200: 7bd2 15bc b458 ce3b 19e1 363c 1776 1ebb
00000210: 2616 0000 c509 0000 ed02 0080 7b16 f7ba
00000220: 8111 0000 0941 753a 5b66 c03a a1c9 85b9
00000230: 1f2e dba3 9c98 ff39 8531 e9b9 882f f3bb
00000240: fdfa 453b 56fd 463c 1d0a b73a 3503 0080
00000250: c7d9 ab37 ca63 ec3b 85bc ae3a 5a84 a53a
00000260: c45e 123a 534c 0d3a f547 c939 e00d ecba
00000270: 37fa 41b8 0904 0080 6879 f636 480a 0080
00000280: e51a 0080 d244 0080 620e 0000 98a7 963a
00000290: af34 0080 e2a7 0280 c610 0080 9708 0080
000002a0: bb02 0000 c80e 0080 370c 0080 5e2d 0000
000002b0: b304 0000 779f 9ba2 2f07 0080 3110 0080
000002c0: 0e0f 0000 e742 04ba a00a 0000 6c23 0080
000002d0: b01c 0000 3106 0000 9e04 0000 b419 0080
000002e0: c830 0080 1b84 0000 c20c 0080 8614 0080
000002f0: 5c31 0000 9996 b98e 811b 0000 3b11 0000
00000300: 4511 033b 11b2 9a3b 0ea0 e836 9d8d 063a
00000310: f416 0000 c01b 36ba 3e1f 0080 1b0e 0000
00000320: e70c 0000 6d0d 0080 ddcd e03b 9856 8e39
00000330: 59b3 303c 5493 91ba 5235 0080 0b1b 0080
00000340: 3403 0080 8f37 463a 950c 0080 be1b 083a
00000350: a743 80bb 7ebe 793c 5611 0000 7839 2bba
00000360: a79d 98bb a6e7 363b 46d8 1e39 983d 323c
00000370: e3b8 62ba d70b 0000 f048 9d3b 9b97 4e3b
00000380: 96de c0bb 916e 2a38 86f5 1339 1880 03b7
00000390: 6bd2 0f39 18a7 b039 36cb 00b7 1f00 0000
000003a0: de5d a529 8a06 0080 2d06 0080 0209 0000
000003b0: fe05 0000 5f69 e5b9 a507 0000 6206 0000
000003c0: e602 0000 320b 0000 d609 0000 aa0d 0080
000003d0: 8c2b 0080 a311 0000 4f0b 0000 f411 0080
000003e0: d106 0080 05f9 b1b9 5605 0000 b84b 8638
000003f0: 071b 0000 643f 0000 961c 0000 a613 0080

gnn.gnn_layers.0.gat_conv.res_fc.weight f4 [1024, 74]
0.021908808 0.022138983 0.015203905 0.0010271583 -0.0029688284 0.0002106826 -6.103845e-05 -0.0049143783
-0.00019013774 9.704e-42 8.63e-43 -3.346e-42 -2.042e-42 7.444e-42 8.043e-42 -0.00046973515
-3.377e-42 7.413e-42 5.619e-42 5.8848725e-14 -5.752e-42 1.1393e-41 8.633e-42 -8.62e-42
-3.599e-42 1.9859072e-21 9.537e-42 3.3422e-41 -2.527e-42 0.0036049355 -4.197e-42 -5.723e-42
5.772e-42 -1.0333e-41 -1.7015e-41 1.3104813e-31 -2.891e-42 2.0337e-41 -5.27e-43 -1.352e-42
-3.521e-42 4.742e-42 8.028e-42 1.3025121e-22 0.0083751455 0.0149398 0.026577614 0.0011193354
1.3203e-41 0.00064743066 -5.803e-42 3.974e-42 -1.368e-42 1.847e-42 0.025654733 0.014132882
0.018860467 0.002755534 -7.661e-42 1.054812e-18 4.759e-42 0.0039457725 2.497e-42 0.002471975
0.021926578 0.022919342 8.755e-42 0.000759503 0.015794635 0.020508539 0.014046784 0.019357609
0.00035717085 1.834e-42 0.006381654 0.010938834 0.0027857185 0.0012843021 -0.006323986 -0.00016496738
-0.00033862056 -0.0065768845 -0.00013628561 1.93e-43 4.511344e-13 -7.48e-43 -5.2e-44 -4.12e-42
-4.054e-42 -0.00012975307 1.3998e-41 2.573e-42 1.0804e-41 -1.79e-42 9.624e-42 -4.415e-42
6.253e-42 4.759e-42 -4.343e-42 2.923e-42 -2.83e-43 1.0297e-41 -1.8262e-41 0.0027571514
-3.859e-42 1.1226e-41 -3.1661e-41 -2.821e-42 5.291e-42 -4.274e-42 5.937e-42 -7.28e-42
2.992e-42 5.17e-42 -4.556e-42 9.851e-42 1.7347e-41 7.88e-43 -0.006583627 0.0127504915
0.0002918699 -0.0054863747 -6.735e-42 0.00017319582 3.6549e-41 1.675e-42 -2.6594025e-17 -5.347e-42
-0.010257239 0.010726226 0.00917174 -0.0043057734 2.7984583e-12 -7.37e-43 6.945e-42 0.00034110865
-1.2463e-41 0.0010234256 0.004543968 -0.0018780474 -4.774e-42 -0.00032788137 0.0017720852 -0.0094404835
0.0064055976 0.011280495 -0.0013211446 -8.457e-42 0.0070880996 0.007020257 0.0017626476 0.0003174074
-0.0018770292 -0.00046815453 -5.4020587e-05 -0.0037114779 -0.00036038476 -7.665e-42 -5.298e-42 -3.327949e-19
5.017e-42 6.341e-42 8.275e-42 0.0012715547 1.414e-42 -5.884e-42 2.978e-42 -4.519e-42
-1.6633e-41 1.3406e-41 1.2341e-41 4.202e-42 5.3315094e-13 7.3640956e-20 -3.924e-42 -2.266e-42
1.5347e-41 0.0011089394 -1.603e-42 3.9349155e-09 3.575e-42 5.572e-42 2.982e-41 4.727e-42
-2.6759e-41 2.3385e-41 -1.578e-42 5.33e-42 -3.26e-42 1.104e-42 2.151e-42 9.7e-43
0.002834884 0.0037531254 0.0040748906 -0.0017671649 -6.45e-42 -0.0006262343 1.4223e-41 -2.675e-42
1.3126e-41 4.5964137e-17 0.0056472803 0.0027794912 0.011226341 -0.0011603399 3.276e-42 -2.511e-41
3.615e-42 0.0011088531 6.213e-42 0.0002625134 0.0008510277 0.013463884 -4.291e-42 -0.00058148283
-5.6006418e-05 0.005138798 0.0035158144 0.011236729 -0.0011923908 1.095809e-20 -0.001076092 0.00048020764
-0.004423314 0.00010993876 -0.00063118996 0.00012718332 -0.0001051468 -0.001033345 0.0001182656 6.293e-42
1.1879e-41 -2.832e-42 -5.56e-42 6.276e-42 -2.344e-42 -0.00026739473 -3.2546614e-24 8.886e-42
1.1975e-41 -2.0399e-41 -3.471e-42 5.778e-42 -6.394e-42 5.629e-42 -2.871e-42 1.3772e-41
-5.167e-42 8.748e-42 -5.541e-42 -5.5195364e-05 -3.681628e-08 2.657e-42 1.686e-42 4.991e-42
00000000: 1a7a b33c d05c b53c cd19 793c b7a1 863a
00000010: ad90 42bb aeea 5c39 c501 80b8 cb08 a1bb
00000020: b65f 47b9 0d1b 0000 6802 0000 5409 0080
00000030: b105 0080 c014 0000 6c16 0000 c946 f6b9
00000040: 6a09 0080 aa14 0000 aa0f 0000 fb83 8429
00000050: 0910 0080 c21f 0000 1118 0000 0718 0080
00000060: 080a 0080 080d 161d 961a 0000 2b5d 0000
00000070: 0b07 0080 c840 6c3b b30b 0080 f40f 0080
00000080: 1710 0000 ce1c 0080 6e2f 0080 361c 2a0c
00000090: 0f08 0080 b138 0000 7801 0080 c503 0080
000000a0: d109 0080 380d 0000 6116 0000 cc76 1d1b
000000b0: e837 093c 10c6 743c 4cb9 d93c aab6 923a
000000c0: ce24 0000 56b8 293a 2d10 0080 140b 0000
000000d0: d003 0080 2605 0000 e029 d23c 9a8d 673c
000000e0: 4481 9a3c 3096 343b 5b15 0080 aca9 9b21
000000f0: 440d 0000 8a4b 813b f606 0000 dc00 223b
00000100: 5e9f b33c 58c1 bb3c 6818 0000 6219 473a
00000110: c063 813c 8601 a83c 7b24 663c d993 9e3c
00000120: a942 bb39 1d05 0000 321d d13b cc38 333c
00000130: 9a90 363b 0756 a83a 7139 cfbb 18fb 2cb9
00000140: e288 b1b9 e882 d7bb e4e7 0eb9 8a00 0000
00000150: 52f7 fd2a 1602 0080 2500 0080 7c0b 0080
00000160: 4d0b 0080 530e 08b9 0527 0000 2c07 0000
00000170: 1e1e 0000 fd04 0080 d41a 0000 4f0c 0080
00000180: 6e11 0000 440d 0000 1b0c 0080 2608 0000
00000190: ca00 0080 b41c 0000 e832 0080 53b1 343b
000001a0: c20a 0080 4b1f 0000 4258 0080 dd07 0080
000001b0: c00e 0000 ea0b 0080 8d10 0000 4b14 0080
000001c0: 5708 0000 690e 0000 b30c 0080 761b 0000
000001d0: 5b30 0000 3202 0000 77bb d7bb 70e7 503c
000001e0: 1d06 9939 0cc7 b3bb c612 0080 e69b 3539
000001f0: e265 0000 ab04 0000 5e49 f5a3 e80e 0080
00000200: fb0d 28bc 0dbd 2f3c 1145 163c 7217 8dbb
00000210: 8bec 442c 0e02 0080 5c13 0000 d4d6 b239
00000220: be22 0080 7724 863a 91e5 943b d028 f6ba
00000230: 4f0d 0080 7ee7 abb9 5045 e83a 42ac 1abc
00000240: 0ce6 d13b d3d1 383c 422a adba 9317 0080
00000250: 4a43 e83b 2f0a e63b a408 e73a b369 a639
00000260: a606 f6ba a372 f5b9 2a94 62b8 443c 73bb
00000270: 06f2 bcb9 5e15 0080 c50e 0080 8b72 c4a0
00000280: fc0d 0000 ad11 0000 1117 0000 4caa a63a
00000290: f103 0000 6710 0080 4d08 0000 990c 0080
000002a0: 5e2e 0080 5f25 0000 6722 0000 b70b 0000
000002b0: 9311 162b 3ae1 ad1f f00a 0080 5106 0080
000002c0: c82a 0000 d559 913a 7804 0080 e233 8731
000002d0: f709 0000 880f 0000 2053 0000 2d0d 0000
000002e0: 984a 0080 3041 0000 6604 0080 dc0e 0000
000002f0: 1609 0080 1403 0000 ff05 0000 b402 0000
00000300: 76c9 393b fff6 753b a986 853b 37a0 e7ba
00000310: fb11 0080 df29 24ba a627 0000 7507 0080
00000320: 9724 0000 e0f8 5324 d20c b93b 2028 363b
00000330: b0ee 373c 8c16 98ba 2209 0000 ff45 0080
00000340: 140a 0000 f056 913a 5211 0000 f4a1 8939
00000350: 8117 5f3a 9f97 5c3c f60b 0080 a76e 18ba
00000360: 6fe8 6ab8 5d63 a83b 9469 663b 421a 383c
00000370: ff49 9cba 12fe 4e1e a80b 8dba 61c4 fb39
00000380: 72f1 90bb ec8e e638 7176 25ba 835c 0539
00000390: 4282 dcb8 4e71 87ba 5c05 f838 8b11 0000
000003a0: 1d21 0000 e507 0080 800f 0080 7f11 0000
000003b0: 8906 0080 1d31 8cb9 36d1 7b98 c518 0000
000003c0: 6221 0000 dd38 0080 ad09 0080 1b10 0000
000003d0: d311 0080 b10f 0000 0108 0080 6426 0000
000003e0: 670e 0080 6318 0000 720f 0080 9281 67b8
000003f0: ee1f 1eb3 6807 0000 b304 0000 ea0d 0000

readout.weight_and_sum.atom_weighting.0.weight f4 [1, 128]
-0.020114832 0.037410066 -0.0074821166 0.052033536 -9.5349e-05 0.000119929544 -0.25816306 0.029817896
0.021535888 0.3511507 0.034229957 0.059683897 0.032197323 -0.0064455103 -0.116480485 -0.108021855
0.052404888 -0.0044981493 0.12870155 -0.03477984 0.094593056 0.015894493 0.145838 -0.003168764
-0.12479749 0.03302123 0.013531878 -0.02134909 0.15731853 0.027636765 0.040168557 -0.15715319
0.120224446 0.00037617452 0.06819593 0.01633405 -0.02741908 -0.02688619 -0.0036922821 0.06773934
0.24623697 0.019807622 0.08883601 0.0047150725 0.050709493 -0.051825136 0.041254632 -0.20992652
0.054666594 0.008062851 -0.002718669 0.075008556 -0.015638407 0.02326709 -0.010738667 0.1611012
-0.0130162425 -0.02232502 0.015176621 -0.06494735 0.01372488 0.013193898 0.27903178 -0.108910985
0.11803946 -0.01947713 0.08568383 -0.059499588 0.041089002 0.3697615 -0.013238618 0.16564281
-0.015907126 0.018714562 -0.09102541 0.053537983 0.13409328 0.063688934 -0.013922101 0.21972212
-0.00082150777 0.1913717 0.03738011 0.17984775 -0.074622236 0.023151062 0.2888678 -0.0027358963
0.033870097 -0.046215072 0.07751459 -0.023366034 0.023628008 0.029050348 0.09139246 0.062870085
-0.013389743 0.0819359 -0.056505457 -0.0037164423 -0.043414697 -0.001967913 0.109953985 0.23851198
0.12571006 0.08243968 0.14411595 -0.021133443 0.0027431624 -0.018966947 0.28003737 0.026288392
0.0553071 -0.013019983 0.05896998 0.04143108 0.2817894 0.026742911 0.0134351 0.07752322
0.034969497 0.05790923 0.29184887 0.14567691 -0.0035072162 0.087792076 0.17430924 0.29643303
00000000: dcc7 a4bc 4c3b 193d 8b2c f5bb 1e21 553d
00000010: 1bf6 c7b8 af82 fb38 f32d 84be a944 f43c
00000020: 086c b03c 06ca b33e b634 0c3d 1a77 743d
00000030: 57e1 033d dc34 d3bb 528d eebd 903a ddbd
00000040: 82a6 563d 3665 93bb 57ca 033e 4e75 0ebd
00000050: 01ba c13d 2b35 823c 8f56 153e 0aab 4fbb
00000060: d495 ffbd 4541 073d cfb4 5d3c 49e4 aebc
00000070: 1c18 213e 7f66 e23c c987 243d c4ec 20be
00000080: 3c38 f63d 4a39 c539 4faa 8b3d fcce 853c
00000090: fa9d e0bc 6d40 dcbc 37fa 71bb ecba 8a3d
000000a0: 8b25 7c3e 9843 a23c a7ef b53d e580 9a3b
000000b0: c2b4 4f3d 9846 54bd 9efa 283d faf6 56be
000000c0: 14ea 5f3d 0c1a 043c b22b 32bb 169e 993d
000000d0: 1e1c 80bc a09a be3c 3cf1 2fbc b7f7 243e
000000e0: 1442 55bc f6e2 b6bc 5da7 783c 1e03 85bd
000000f0: 52de 603c 382b 583c 41dd 8e3e b90c dfbd
00000100: acbe f13d 818e 9fbc 017b af3d d7b5 73bd
00000110: f14c 283d 6151 bd3e cae6 58bc 459e 293e
00000120: a94f 82bc 484f 993c 886b babd a54a 5b3d
00000130: c04f 093e 586f 823d 8619 64bc d6fe 603e
00000140: 745a 57ba f1f6 433e e31b 193d 022a 383e
00000150: 8bd3 98bd 4ca7 bd3c 7be6 933e b94c 33bb
00000160: 5fbb 0a3d 044c 3dbd f8bf 9e3d 206a bfbc
00000170: 868f c13c fffa ed3c f82b bb3d 08c2 803d
00000180: a760 5bbc 02ce a73d 4472 67bd 8e8f 73bb
00000190: 9cd3 31bd 1af8 00bb 8e2f e13d 7c3c 743e
000001a0: 23ba 003e 23d6 a83d 2293 133e 0b20 adbc
000001b0: a1c6 333b 9260 9bbc 0f61 8f3e c15a d73c
000001c0: b389 623d c451 55bc 818a 713d a3b3 293d
000001d0: b346 903e f313 db3c e51e 5c3c 7ec4 9e3d
000001e0: 2d3c 0f3d 3b32 6d3d 376d 953e 542c 153e
000001f0: 53d9 65bb 55cc b33d 1f7e 323e 12c6 973e

predict.predict.1.weight f4 [128, 256]
-3.862215e-11 2.6017515e-11 6.355795e-12 -1.0799621e-11 6.0145825e-12 2.9151063e-12 2.8044034e-11 1.1984329e-11
1.5407606e-11 1.1302793e-08 7.14939e-13 -2.645164e-10 4.3849055e-13 5.828809e-12 -4.382152e-11 -1.6109961e-12
-2.4993674e-11 6.7864516e-12 -1.2650655e-11 1.0836653e-11 1.6331485e-11 1.0412912e-10 1.6014758e-09 3.352618e-11
-1.4473954e-10 -6.084395e-11 -2.297525e-11 -3.8261187e-12 1.4166142e-10 -2.4755295e-12 2.1272525e-10 -2.6396514e-09
3.6192245e-12 1.6288602e-12 -9.626097e-12 -2.138207e-12 -8.916153e-12 2.2863391e-09 -3.1956935e-12 3.9096195e-11
4.4508796e-11 5.4986515e-11 -5.62821e-11 -3.6248254e-11 2.4077419e-11 -4.128454e-11 -3.3118303e-11 1.8219641e-11
5.3792956e-11 -2.2023132e-11 -2.915089e-11 6.871766e-10 -2.1101906e-10 -6.131371e-12 -4.142631e-12 -1.0476549e-09
-1.2346878e-12 -1.0751804e-11 1.7155251e-11 -2.8254848e-11 -2.6235114e-12 3.228177e-12 -1.4336201e-11 -2.7441844e-11
-1.002063e-11 -8.787589e-12 6.623681e-11 -3.3019868e-11 -3.7436344e-13 -1.775091e-11 -1.0613992e-12 -7.2757395e-12
8.1353864e-13 -2.8739628e-12 5.780643e-11 3.1017234e-11 -2.391078e-12 1.6257486e-12 -1.4022178e-11 5.7882168e-11
-3.7508594e-12 3.2757908e-13 1.31968715e-11 9.486684e-11 -5.9951705e-12 6.2379043e-12 -7.0770898e-12 -1.0568108e-12
-9.967076e-12 -2.4096251e-11 -2.7005034e-12 7.495283e-13 -4.3939626e-12 1.241439e-11 5.735769e-11 6.688299e-12
-5.9415754e-13 1.06819215e-11 -8.323973e-12 4.438316e-12 -7.134837e-12 -2.5400043e-13 3.5884923e-10 1.6626395e-11
1.9524552e-11 -1.2480567e-12 -1.809301e-11 1.681861e-11 2.3511515e-10 -3.526774e-11 -9.1177725e-12 8.623139e-11
-3.648677e-12 -1.9754143e-11 -4.84378e-10 5.6570004e-10 -3.2186528e-12 2.494866e-11 5.668002e-12 2.3240685e-11
2.5061706e-11 -4.5946125e-12 -9.11558e-11 1.2088307e-10 -8.363588e-10 -1.3262869e-09 9.397206e-11 1.2747707e-11
-2.5285184e-11 3.1079557e-12 -1.2701237e-11 -6.404033e-12 -5.2258944e-12 -5.538774e-12 -3.7001957e-11 4.2149322e-12
-4.888098e-12 -2.2698838e-11 -7.4904877e-13 -2.5910015e-11 -2.256867e-12 -3.8888623e-12 -6.6197714e-11 -1.6883706e-11
-8.376203e-11 1.2912728e-11 -1.2123696e-11 1.1650994e-11 3.0592875e-11 3.8913344e-13 1.0153155e-11 -8.436769e-12
-9.2589166e-11 -1.06010626e-11 -2.5458727e-11 -8.36763e-12 1.9111985e-11 -5.1269878e-14 -2.1046716e-11 -1.8059361e-11
-9.740159e-12 -2.296285e-12 -2.3782202e-11 -3.682839e-12 -1.2814939e-11 -9.112835e-12 -1.4001548e-11 5.6483316e-12
6.5933023e-12 1.1033372e-11 -6.098686e-12 -2.2447972e-11 -3.359982e-11 -5.0282715e-11 -1.3132822e-11 -6.4454816e-11
2.5261137e-11 -3.8516933e-11 -3.8250098e-12 3.6037649e-12 -1.4426067e-13 3.0473154e-12 -2.5178717e-11 -1.0939358e-11
-2.6296632e-12 -3.2908443e-11 6.9427003e-12 -6.3879223e-12 -2.2395478e-11 3.861001e-12 -2.140013e-11 -5.4928753e-11
-2.4689067e-11 -1.3879338e-11 -3.4939763e-11 -3.322595e-11 -9.230805e-12 -1.2256282e-11 -1.35666305e-11 -9.493932e-13
-5.0723657e-12 -2.91673e-11 -1.3833291e-12 5.3013097e-12 -3.9170188e-11 -1.1243036e-11 8.109765e-12 9.205783e-12
-2.2611609e-12 1.7217254e-11 1.1689501e-12 3.2905297e-12 -4.3419705e-11 -1.2605041e-11 8.1053254e-12 -1.1525275e-12
-1.8319795e-11 -1.9261709e-11 -8.412351e-12 -6.4008503e-12 -2.9885695e-11 6.97867e-13 2.8524145e-11 4.567207e-12
-4.455412e-12 1.31089965e-11 -1.2988136e-11 -9.143826e-12 -6.984073e-11 -4.599499e-12 -5.430258e-11 -3.4938458e-12
2.979559e-11 -2.1242933e-11 -5.8133606e-12 -7.500216e-12 6.0061835e-13 -3.9430113e-12 -9.889616e-12 -7.0439986e-12
-6.9974197e-13 -8.698467e-12 5.8393017e-12 -8.499875e-11 3.7098376e-12 2.4990344e-12 -8.3640706e-13 1.9738171e-11
7.748812e-12 3.065391e-12 -2.7545488e-12 8.4504495e-12 -3.4716707e-12 8.7963735e-13 -9.714736e-12 2.2649618e-11
00000000: addc 29ae 3cda e42d e99f df2c 2bfd 3dad
00000010: 8b9e d32c e321 4d2c 8dad f62d 9fd4 522d
00000020: d886 872d 362e 4232 c93c 492b 606b 91af
00000030: 26d9 f62a 3e15 cd2c a5ba 40ae 40ba e2ab
00000040: c0d8 dbad ecc6 ee2c 7c8d 5ead f2a3 3e2d
00000050: 3ca7 8f2d 7cfb e42e ec1a dc30 1f73 132e
00000060: 8f24 1faf 19cc 85ae aa17 caad 9d9e 86ac
00000070: 25c2 1b2f 2d33 2eac d6e4 692f 3d65 35b1
00000080: 27ae 7e2c e03d e52b 1658 29ad 8376 16ac
00000090: c9da 1cad b41d 1d31 7fe0 60ac 67f2 2b2e
000000a0: 73c0 432e 50d5 712e 0388 77ae e86b 1fae
000000b0: 87c9 d32d 4292 35ae e5a7 11ae fc42 a02d
000000c0: 7c95 6c2e afb7 c1ad fc34 00ae c1e3 3c30
000000d0: 9604 68af 7bba d7ac 81c1 91ac 14fd 8fb0
000000e0: 51c4 adab d225 3dad 31e6 962d 4388 f8ad
000000f0: fb9c 38ac ab29 632c 8234 7cad 8a61 f1ad
00000100: e848 30ad c897 1aad 02a8 912e 1139 11ae
00000110: 75bf d2aa 7f23 9cad f060 95ab 09fe ffac
00000120: a3fd 642b b63c 4aac 413c 7e2e 4d6a 082e
00000130: d541 28ac c4cd e42b 47ae 76ad 8791 7e2e
00000140: bdf8 83ac 1f69 b82a 6d29 682d 489d d02e
00000150: b2ef d2ac 0c7a db2c c200 f9ac 9fbb 94ab
00000160: b857 2fad eff3 d3ad f207 3eac 35f9 522b
00000170: 4c99 9aac 7165 5a2d 0543 7c2e d752 eb2c
00000180: 903d 27ab 19eb 3b2d d76f 12ad cc28 9c2c
00000190: e608 fbac 52fd 8eaa 8a47 c52f 503f 922d
000001a0: 62bd ab2d fba5 afab d625 9fad 25f0 932d
000001b0: 8441 812f f21b 1bae cc66 20ad f59f bd2e
000001c0: 5c60 80ac 60c2 adad 1225 05b0 9a7f 1b30
000001d0: 187e 62ac 6373 db2d d36c c72c 5f6d cc2d
000001e0: f271 dc2d 97a8 a1ac 2774 c8ae 8fe9 042f
000001f0: 85e5 65b0 9248 b6b0 91a5 ce2e 9242 602d
00000200: 2c69 dead f4b3 5a2c 4971 5fad 6752 e1ac
00000210: acde b7ac d7e0 c2ac 80bc 22ae bc4c 942c
00000220: 13fc abac 3da9 c7ad a7d6 52ab 2be8 e3ad
00000230: 1ad0 1eac c2d3 88ac 0092 91ae ba82 94ad
00000240: d531 b8ae c229 632d 4648 55ad 6af7 4c2d
00000250: 848c 062e 0a10 db2a bf9d 322d d46b 14ad
00000260: 119b cbae f17e 3aad f5ef dfad 7534 13ad
00000270: 5d1c a82d 25e6 66a9 fe20 b9ad 11da 9ead
00000280: c759 2bad 3196 21ac c230 d1ad 1194 81ac
00000290: 5b71 61ad 8f50 20ad 5e51 76ad a6bb c62c
000002a0: 30fb e72c e419 422d 1494 d6ac 5774 c5ad
000002b0: 09c6 13ae 4e25 5dae f908 67ad d6bc 8dae
000002c0: 0633 de2d 3666 29ae a094 86ac a897 7d2c
000002d0: 4f6c 22aa 8e6f 562c 6e79 ddad 7d72 40ad
000002e0: cd0b 39ac 9dbb 10ae 4946 f42c 4ac1 e0ac
000002f0: 22fe c4ad ced8 872c cf3c bcad 4794 71ae
00000300: d62a d9ad fb2a 74ad adaa 19ae 1821 12ae
00000310: da63 22ad 639d 57ad acaa 6ead 7f9d 85ab
00000320: cf77 b2ac 7647 00ae afaf c2ab f485 ba2c
00000330: b645 2cae 22ca 45ad 22ab 0e2d 29f3 212d
00000340: 741d 1fac cf71 972d de83 a42b ea8c 672c
00000350: 3ef6 3eae 0fc0 5dad 2497 0e2d 2e34 a2ab
00000360: 8324 a1ad 836d a9ad dcfd 13ad bc35 e1ac
00000370: 4d70 03ae 9e6e 442b aae6 fa2d beb1 a02c
00000380: c9c2 9cac ac9d 662d 5d7d 64ad 22dc 20ad
00000390: d694 99ae 9bd4 a1ac 45d3 6eae 88db 75ac
000003a0: da0a 032e d5da baad 198a ccac f8f1 03ad
000003b0: 1d0f 292b 7dbb 8aac dffa 2dad b3d6 f7ac
000003c0: b9f5 44ab 6a06 19ad c173 cd2c 0bea baae
000003d0: 3f87 822c 9ada 2f2c 7b6d 6bab 699e ad2d
000003e0: 8c51 082d 2db5 572c 8ad5 41ac 71a9 142d
000003f0: 0f4c 74ac 8d98 772b 48e7 2aad 683a c72d

predict.predict.1.bias f4 [128]
-2.7783062e-10 -3.2491162e-06 -0.0005112097 0.0072458196 -5.5210444e-11 -0.033912674 0.00037222414 -1.567976e-13
-2.0642045e-05 -0.0005270236 3.878161e-05 -0.00076120545 -5.9001115e-05 -2.35e-42 -5.5935022e-08 1.245464e-37
-4.7368536e-11 1.64e-43 1.0097616e-08 -8.39e-42 -0.00020862497 -1.8939441e-07 -0.00012877752 0.00012693381
-0.00023444321 -7.190695e-05 5.918797e-05 1.485e-42 -1.8993925e-08 2.591e-42 -0.00348081 -1.301639e-24
-6.100616e-30 1.9665696e-17 0.023721816 -4.5394765e-05 -2.5565473e-30 5.5634326e-32 -1.6285547e-07 -1.8386013e-16
0.012698656 -5.93172e-07 -6.696014e-05 -2.9082897e-15 2.9179762e-34 -0.0056732316 0.11737101 -0.00017486773
-8.1006416e-05 -2.5015871e-27 -1.9878103e-18 5.548197e-05 -2.676e-42 1.1354219e-11 -0.00034707176 -1.6148937e-21
0.008480138 -1.3947229e-14 4.1072213e-24 0.0009223265 -1.522e-42 -1.0542202e-12 1.1384381e-08 8.1502317e-14
2.205592e-30 -1.28428335e-08 0.00016806844 0.0070534064 0.012421146 2.023863e-37 -1.7359915e-20 -8.2051784e-08
2.8294e-41 0.0018907611 0.17867032 -3.156e-42 -1.9176927e-08 -0.0024787963 -5.417106e-28 -1.5739639e-21
1.0231211e-17 3.6932715e-08 -9.306626e-26 0.0084218625 -0.0005538545 2.5993315e-05 1.9281779e-05 -8.934089e-17
2.58e-43 -1.02048325e-08 -5.93955e-07 -1.2945902e-05 4.280747e-11 -1.2616347e-06 -4.566759e-06 -1.454417e-39
-0.00015420164 -0.004592311 -0.009257776 0.0024044581 3.9409998e-13 -2.143e-42 -7.3862757e-06 -3.3671743e-06
-5.373952e-07 0.0010650663 1.2222017e-38 3.7413843e-24 6.7184965e-07 -1.6381646e-05 -8.8732504e-29 -7.523659e-12
-1.8374896e-05 -0.00015788103 0.00018918177 -4.3253166e-08 -4.54795e-27 9.853728e-07 1.855758e-39 -3.7839067e-07
1.5283875e-35 -0.00030046646 -2.1883611e-06 -2.7353666e-08 1.3e-43 -1.3917415e-34 8.975322e-06 0.06122963
00000000: 2fbd 98af 640b 5ab6 b402 06ba 576e ed3b
00000010: 6fd1 72ae 04e8 0abd 1427 c339 d589 30aa
00000020: 7428 adb7 f527 0aba 70a9 2238 a28b 47ba
00000030: f777 77b8 8d06 0080 353d 70b3 1686 2902
00000040: 3b54 50ae 7500 0000 c979 2d32 6317 0080
00000050: 57c2 5ab9 575c 4bb4 7408 07b9 8919 0539
00000060: dfd4 75b9 c0cc 96b8 9940 7838 2404 0000
00000070: 1528 a3b2 3907 0000 4d1e 64bb 3c6b c997
00000080: 6b78 f78e 5062 b523 4154 c23c 4266 3eb8
00000090: 6969 4f8e 5a6f 900b 5fdd 2eb4 eff9 53a5
000000a0: 060e 503c 783a 1fb5 f46c 8cb8 7a90 51a7
000000b0: cbee c107 84e6 b9bb 3660 f03d b35c 37b9
000000c0: fde1 a9b8 3732 4693 adac 12a2 50b5 6838
000000d0: 7607 0080 dbbe 472d 2ff7 b5b9 2d09 f49c
000000e0: 47f0 0a3c 3e40 7ba8 f3e3 9e18 49c8 713a
000000f0: 3e04 0080 495e 94ab 0a95 4332 e386 b729
00000100: 5bf0 320e 61a3 5cb2 873b 3039 4320 e73b
00000110: 1082 4b3c abbc 8902 b3f5 a39e 7234 b0b3
00000120: df4e 0000 6ad3 f73a 5af5 363e cc08 0080
00000130: 82ba a4b2 4d73 22bb c9ac 2b92 c7d9 ed9c
00000140: 87bb 3c23 f39f 1e33 c06b e695 dafb 093c
00000150: 8c30 11ba 380c da37 4ebf a137 8e01 cea4
00000160: b800 0000 5451 2fb2 4770 1fb5 3a32 59b7
00000170: ed44 3c2e 7055 a9b5 293c 99b6 53d6 0f80
00000180: 30b1 21b9 197b 96bb edad 17bc 1d94 1d3b
00000190: cbdb dd2a f905 0080 a0d7 f7b6 9df7 61b6
000001a0: 8441 10b5 b299 8b3a 0316 8500 e0bc 9018
000001b0: 2859 3435 516b 89b7 b0f6 e090 8c5b 04ad
000001c0: ca23 9ab7 de8c 25b9 185f 4639 5cc5 39b3
000001d0: b129 b493 2741 8435 1935 1400 9e25 cbb4
000001e0: aa86 a205 ed87 9db9 c2db 12b6 59f7 eab2
000001f0: 5d00 0000 82fe 3887 b794 1637 eccb 7a3d

predict.predict.3.weight f4 [128]
5.849938e-10 -1.9940999e-05 -0.01125981 0.0005037071 3.0540067e-11 -0.025673887 -0.0063594263 0.0010213954
0.000203777 0.0002385222 0.07817339 0.037513908 -0.022706175 -7.310165e-39 2.9661437e-06 -4.136769e-30
-0.0018011577 -2.390081e-36 -0.0075850957 -7.797553e-37 -0.00017617476 7.776412e-09 -0.015664887 -0.005654962
0.008475327 0.0028970358 -0.006249864 1.8988e-41 -1.3610077e-07 -6.0366705e-38 0.011638521 1.2368385e-20
-7.514854e-24 1.9596e-14 0.058066387 -5.59965e-05 -1.3215446e-22 -1.7756602e-25 0.0008478006 0.00011655575
0.021194093 -3.1660256e-06 0.00052970706 0.00024938965 1.5216854e-28 0.0040319874 0.6642888 -4.7898218e-17
0.008445631 -7.19177e-19 2.7878115e-13 -0.009682788 -4.0833294e-38 3.9193775e-08 0.00032089165 -3.337524e-16
-0.015736904 -3.4400575e-13 2.7926742e-17 0.0014570783 2.9468046e-38 -6.932921e-05 -1.5112823e-07 -6.0987946e-12
-8.1278035e-24 -6.497641e-08 0.0037099365 -0.008283249 0.0046974346 3.5610045e-34 2.8453046e-18 -0.007604133
-5.8221376e-36 0.023255236 0.7720024 -4.37239e-40 1.3098928e-07 0.019228976 -1.1136558e-23 2.8487756e-17
2.930481e-14 -0.0027138551 0.0008032959 0.012372405 0.0013924767 -0.005509516 -0.003947815 5.852243e-13
-2.2453552e-38 -5.3530035e-05 5.075576e-06 8.507042e-06 7.455117e-06 0.00097629573 0.00039611038 8.13177e-33
5.7843008e-05 0.19631808 -0.020405902 0.011382184 -1.0381337e-09 2.878394e-37 3.0259243e-05 -3.4441755e-06
-8.640945e-06 -0.0039990665 8.556667e-32 -4.0394933e-21 4.0974624e-07 -8.03409e-06 -2.697784e-22 1.5189728e-11
7.469204e-05 -0.01237376 0.009450538 -5.7242492e-11 1.0481625e-21 -0.00689876 -3.5985227e-34 -0.00012527152
-3.8733624e-28 1.01901714e-35 -0.00017438935 -0.0012626689 -8.32034e-39 -2.8286127e-27 0.03196866 0.071948834
00000000: 47cd 2030 f846 a7b7 117b 38bc 360b 043a
00000010: 0f51 062e 0b52 d2bc bc62 d0bb 58e0 853a
00000020: f9ac 5539 d11b 7a39 5f19 a03d 2fa8 193d
00000030: 4d02 babc c499 4f80 f60d 4736 aace a78e
00000040: d314 ecba 5b53 4b84 658c f8bb 22ab 8483
00000050: 8dbb 38b9 0699 0532 a653 80bc 424d b9bb
00000060: 19dc 0a3c 32dc 3d3b a9cb ccbb ee34 0000
00000070: 1823 12b4 7455 a481 7faf 3e3c d7a1 691e
00000080: c15b 1199 4d81 b028 05d7 6d3d c9dd 6ab8
00000090: d3c3 1f9b ebd0 5b96 ef3e 5e3a 646f f438
000000a0: 3c9f ad3c e877 54b6 0adc 0a3a 83c0 8239
000000b0: 84e5 4011 c31e 843b d50e 2a3f 3ce4 5ca4
000000c0: 8b5f 0a3c 7a43 54a1 99f0 9c2a 8ea4 1ebc
000000d0: 4e51 5e81 0356 2833 593d a839 2965 c0a5
000000e0: aeea 80bc 74a8 c1aa 14ca 0024 6ffb be3a
000000f0: 7670 2001 d664 91b8 d045 22b4 0f95 d6ac
00000100: ef36 1d99 2989 8bb3 6822 733b 77b6 07bc
00000110: f0ec 993b 5aab ec07 49f2 5122 172c f9bb
00000120: 77a5 f784 c481 be3c f3a1 453f d8c2 0480
00000130: 0fa6 0c34 1686 9d3c 9069 5799 6860 0324
00000140: 25fa 0329 efda 31bb 4694 523a a1b5 4a3c
00000150: c483 b63a 2c89 b4bb ac5c 81bb dbb9 242b
00000160: 5e7f f480 7085 60b8 de4e aa36 78b9 0e37
00000170: f826 fa36 19ee 7f3a 09ad cf39 e8e3 280a
00000180: 759c 7238 9b07 493e 472a a7bc 577c 3a3c
00000190: 15ae 8eb0 b2e4 c302 3bd5 fd37 7c22 67b6
000001a0: 94f8 10b7 9a0a 83bb ce24 de0b 959b 989d
000001b0: 18fb db34 27ca 06b7 2f12 a39b 3a9c 852d
000001c0: fca3 9c38 50bb 4abc 6ed6 1a3c 51c1 7bae
000001d0: d364 9e1c fe0e e2bb b129 ef87 515b 03b9
000001e0: e680 f591 92b8 5805 49dc 36b9 2380 a5ba
000001f0: b999 5a80 151b 6093 92f1 023d e959 933d
