Results/AFP/30/model.pth (torch, 255325 bytes, 54 tensors)

gnn.init_context.project_node.0.weight f4 [32, 74]
00000000: b6de 20bc fc2a 3dba a2b1 dbbb c306 093b
00000010: f144 abba b3b3 d137 2fbd 1f3b 8f36 973a
00000020: c05f 63b9 a6d6 6737 1abd f2b6 baa5 cf34
00000030: 217f f52b 97bb 2eb7 bd12 beb5 57cf 0d39
00000040: 3bdc 8237 a8a3 d1aa 5629 8a37 b038 beb7
00000050: 3f63 4a9f c8e1 3cb0 357e f6b9 4e66 a22b
00000060: 87b3 8338 42eb 0eb7 c708 643b 34a2 c3b4
00000070: 0cd0 cb38 f0dc f7b8 1549 be28 e417 76b2
00000080: 6259 0b2f eb6c 59af 5bf6 f0bb cec6 9c29
00000090: 67d6 d4b0 18b5 35ac 6ed5 33ba 3ef4 46b9
000000a0: f194 1729 efb1 29ba 29a0 9030 8fb6 2d36
000000b0: b446 3e3b e504 4b3b ae01 323b a859 103a
000000c0: a35c 03aa 671e 843a 9840 413a 3673 58a9
000000d0: 7f8a 813a d908 fba9 355a 86bb 90eb 113c
000000e0: 61be f33b bb0d 9c39 ebb1 3929 df9e ae2c
000000f0: c4c6 95ab 4f8a cbba ce67 3f33 f30a a33a
00000100: 7473 09bc 74a6 b43b 29a5 0c38 24fa 843a
00000110: 2732 0cbb 79af 48bb 8d50 0b3c a2d2 f83b
00000120: 2ed0 a039 8029 ba35 36a6 43b5 dd34 9cb4
00000130: a4b2 d6b4 0362 9fb8 8517 9ab5 b656 2033
00000140: 811c 5e3c e6e7 0ab5 2267 923a 729f 43bb
00000150: c863 d92e fe73 86b1 496e c838 f0e7 0026
00000160: 9163 9735 9ebb c9ba 6b4f 39b7 6a00 bb32
00000170: 5bd5 f735 f1a4 b1b3 0bab 8fac 062f 6428
00000180: be6c 9437 aaa6 76bc 2891 d62c 9bac 0328
00000190: 5e56 ccb2 c4a6 20af db02 3b2a 0f2e 1bb9
000001a0: 3613 5eac 6e40 89aa 92a5 78b5 83e8 2b29
000001b0: 8903 1cb9 73c1 d736 baa4 a732 5131 d9b1
000001c0: 9861 7738 1347 71b3 9697 6f31 166f 92b0
000001d0: d49c 1d2d b917 a829 c076 58b5 169e c7b4
000001e0: f067 25b4 6d1a 03ba 2e2c a3b4 d3ec 883c
000001f0: 8909 55ab 44f3 252c 405b 5234 d8a9 02bd
00000200: 5fa5 bc38 7aa8 c2b5 f390 5c34 e9e1 85b4
00000210: 5fb9 74b9 6bc6 4133 1dd3 2934 e0bd a735
00000220: efb0 4435 6e8a 84b4 7c49 68b5 6b76 1239
00000230: 52fa 492b 1226 fe3b 2e8d 42b5 5ad1 c638
00000240: 7a39 87b5 d2c2 6834 df1e 6fb4 a6b1 5db7
00000250: 96eb 65bb 87b3 5dbb af12 24ba 3f76 6dba
00000260: 3846 56b7 7d31 a4b6 58ca 8f34 7108 87b6
00000270: 9200 0cbb 5935 b3a8 ae76 9639 fc20 bbba
00000280: 282f b02c 99c4 2e3b b0a8 0cb2 7927 c435
00000290: d981 e8aa 0203 142a 6d65 63ba f045 d137
000002a0: 23e2 87a7 3513 3c2a dbf7 af28 1f2a 5eb0
000002b0: d22f 51aa 2abe 5aaf ae8f c62c ae14 5cb1
000002c0: d99d 1cb2 ecc0 08b5 67de ceb0 c51c 5025
000002d0: ce7e 5837 75b0 9533 6229 8336 4978 453b
000002e0: 3cbb 402c e60a 4038 c4fd 2c39 fb41 8039
000002f0: c508 0eb7 61f5 1028 205d 4b2b 9354 b927
00000300: 3668 4fba 679f 83bb 3801 62bb 52f6 cc38
00000310: 3946 4e39 bef4 c638 1ff9 85ab 793f 3daf
00000320: c449 502b e661 3132 016c 50bb cb5c e7ba
00000330: 6178 92bb 5c3e 01b7 2644 1932 73f4 c3a9
00000340: 07f6 0db4 1e43 d4ba 9b2f baac 86c1 cf37
00000350: 3fb6 58bb b928 4ebb 828e 1534 ee41 80b9
00000360: 172d 6dbb 6b4b 3abb 77b3 21bb eee0 93bb
00000370: 524e 01b7 0f33 f230 3f72 0fb9 25ce 32b9
00000380: ab81 113a 8b58 4138 4809 6639 7cee 3eb7
00000390: b523 20b7 5bc0 a2b8 033d 50b5 e935 77a7
000003a0: 1a67 19b8 7ded 92b6 9d34 76a9 5e00 47a8
000003b0: 6d73 a2b5 ae3a 81b7 7427 d32e 201b 623b
000003c0: 4aa3 162d b7e0 5b30 6dfd 8d34 8c5a 9632
000003d0: e332 c339 fd59 9bb6 0458 15ab d852 ee2e
000003e0: af3e 5339 44f7 78bc f2d2 bdac edbc 12b7
000003f0: bc99 6fb6 0a9b 893a 82cb f930 ba34 e0b1
-0.009818723 -0.0007216183 -0.006704525 0.0020908571 -0.0013066811 2.499842e-05 0.0024374237 0.0011536645
-0.00021684077 1.381865e-05 -7.2341763e-06 3.8677337e-07 1.7443582e-12 -1.0414885e-05 -1.4161557e-06 0.00013524048
1.559976e-05 -3.7239417e-13 1.647013e-05 -2.2676162e-05 -4.2857258e-20 -6.8714856e-10 -0.00047014808 1.1539188e-12
6.280006e-05 -8.518635e-06 0.003479527 -3.64396e-07 9.718546e-05 -0.000118190306 2.1125932e-14 -1.4324517e-08
1.2673732e-10 -1.977473e-10 -0.0073535866 6.962279e-14 -1.5485967e-09 -2.5822174e-12 -0.00068601116 -0.00018973739
3.365792e-14 -0.00064733526 1.0522899e-09 2.5885272e-06 0.0029033842 0.003097826 0.0027161646 0.0005506524
-1.1667277e-13 0.0010079861 0.0007371991 -4.8061564e-14 0.0009883194 -1.1148174e-13 -0.004100109 0.00890626
0.0074384664 0.0002976487 4.123257e-14 4.9630157e-12 -1.0642255e-12 -0.001552889 4.4565063e-08 0.0012439176
-0.008389343 0.005513007 3.353242e-05 0.0010145348 -0.0021392198 -0.0030622168 0.0085030915 0.0075934688
0.00030672684 1.3870158e-06 -7.288503e-07 -2.9095727e-07 -3.9990584e-07 -7.599967e-05 -1.1480739e-06 3.7331766e-08
0.013556601 -5.174646e-07 0.0011169652 -0.0029849675 9.885742e-11 -3.9131e-09 9.5572854e-05 4.4723255e-16
1.1279354e-06 -0.0015390997 -1.104535e-05 2.1769853e-08 1.8465029e-06 -8.2722075e-08 -4.083294e-12 1.2666739e-14
1.7693612e-05 -0.015054384 6.0983614e-12 7.309389e-15 -2.3788001e-08 -1.4611162e-10 1.6609927e-13 -0.0001479911
-3.1558762e-12 -2.4380796e-13 -9.2628136e-07 3.81713e-14 -0.00014878636 6.4300198e-06 1.9516268e-08 -6.321138e-09
5.898028e-05 -5.6176827e-08 3.4865244e-09 -1.0654471e-09 8.95924e-12 7.464814e-14 -8.0639074e-07 -3.718166e-07
-1.5404635e-07 -0.0005001191 -3.039326e-07 0.01671449 -7.5686034e-13 2.358295e-12 1.959097e-07 -0.031900257
8.995341e-05 -1.450316e-06 2.0541829e-07 -2.4937552e-07 -0.0002333871 4.5116774e-08 1.5816154e-07 1.249773e-06
7.327316e-07 -2.4687637e-07 -8.653367e-07 0.00013967759 7.1756934e-13 0.007756003 -7.2476075e-07 9.4803705e-05
-1.0075012e-06 2.1677559e-07 -2.226984e-07 -1.32139885e-05 -0.0035083047 -0.003382893 -0.00062588876 -0.00090584526
-1.2771743e-05 -4.893342e-06 2.678305e-07 -4.0242962e-06 -0.0021362645 -1.9896128e-14 0.00028698653 -0.0014276798
5.0074563e-12 0.0026667474 -8.187428e-09 1.4614626e-06 -4.1301579e-13 1.3146084e-13 -0.00086744764 2.4947309e-05
-3.7715205e-15 1.6704418e-13 1.9536393e-14 -8.0822987e-10 -1.857952e-13 -1.9894544e-10 5.64345e-12 -3.2025969e-09
-9.1162855e-09 -5.0944686e-07 -1.5051683e-09 1.8050872e-16 1.2904127e-05 6.9704505e-08 3.908922e-06 0.003013151
2.7388777e-12 4.5786517e-05 0.00016497733 0.00024463222 -8.465901e-06 8.046814e-15 7.2249325e-13 5.143951e-15
-0.0007911952 -0.004016805 -0.003448559 9.773359e-05 0.00019671851 9.4869625e-05 -9.519363e-13 -1.7212e-10
7.3998815e-13 1.03250155e-08 -0.0031802657 -0.0017651556 -0.0044699167 -7.703518e-06 8.921267e-09 -8.702145e-14
-1.3221153e-07 -0.0016194319 -5.2917232e-12 2.476644e-05 -0.0033067612 -0.0031457378 1.392855e-07 -0.00024463184
-0.0036190206 -0.00284263 -0.002467362 -0.0045128977 -7.7072345e-06 1.7622329e-09 -0.00013680103 -0.00017052198
0.0005550633 4.6097248e-05 0.00021937967 -1.1380409e-05 -9.545057e-06 -7.760591e-05 -7.757482e-07 -3.430736e-15
-3.6574063e-05 -4.3787863e-06 -5.4668608e-14 -1.1046799e-14 -1.2103534e-06 -1.5405323e-05 9.6021774e-11 0.003450103
8.56277e-12 7.9991075e-10 2.6447688e-07 1.7503474e-08 0.00037231212 -4.629836e-06 -5.305758e-13 1.0837703e-10
0.0002014588 -0.0151956715 -5.3951227e-12 -8.746266e-06 -3.570326e-06 0.0010498476 1.8174975e-09 -6.5252523e-09

gnn.init_context.project_node.0.bias f4 [32]
00000000: a07b 8fbc 3c77 5738 754b 60bb f5bb 263a
00000010: 8372 fe39 74d4 1ab7 affc 99ba 9c3a 04bb
00000020: d57f 73b9 f5b5 09b1 653c e3b6 6dd4 b73b
00000030: 93a2 0536 7719 c8b5 baca efb8 d134 1839
00000040: c373 dcbd ef23 debb bbc0 4bbe 336d e2ba
00000050: 7254 d236 960b 7ab5 6711 093d be44 c8b1
00000060: e3fb 213d 4433 a0b6 7aba a1be 650c d4ba
00000070: 3b20 2ab7 2900 a1bb 37b1 b4b2 f2aa e2b8
-0.017515004 5.137104e-05 -0.0034224663 0.0006360405 0.00048531973 -9.228581e-06 -0.0011748279 -0.0020176535
-0.00023221907 -2.0039554e-09 -6.772158e-06 0.00561004 1.9913175e-06 -1.4908572e-06 -0.00011434169 0.00014515525
-0.10764267 -0.006779186 -0.1989774 -0.0017274976 6.2683184e-06 -9.314912e-07 0.03346386 -5.828581e-09
0.03954686 -4.7743397e-06 -0.31587583 -0.001617801 -1.0140294e-05 -0.004913349 -2.1035346e-08 -0.00010808361

gnn.init_context.project_edge1.0.weight f4 [32, 87]
00000000: 4da4 9527 1cfb cc24 516f 92a6 28c0 64b3
00000010: 0174 6926 1296 b9bb 8620 73bc f422 0433
00000020: 674f ef31 ea34 aead ffbf 0733 a1eb 4d32
00000030: 830e 612f af3c d52f 2e63 29ab bdf4 d7b1
00000040: 1c74 14a9 0337 87b7 77d9 97a6 bb24 3eb2
00000050: e12f 93b2 5452 33b2 1387 7f2a 1b5c 9aa7
00000060: 2ad7 12b4 d351 3f2a 9694 f32d 2917 b92a
00000070: 2f38 bbac 7450 e13b ee25 f635 6575 10ae
00000080: df5c c939 1062 4c31 6eaf 85b6 ad17 69a7
00000090: 0127 deb0 4b33 41af 5fa2 2cb0 410f 8fa9
000000a0: d44b 33aa 1576 d029 4894 8ba8 b7dc 6db2
000000b0: 4a14 e4a5 4dd0 1127 0ed9 6ba6 2a73 8fa6
000000c0: 2042 ed2c 8e56 67b0 71f2 bb2f f7cb 0caa
000000d0: d8db dbae 78b9 bf29 1aab 4ba7 cf19 bea5
000000e0: fa14 a526 7871 86aa 4fc5 5831 b990 5e3b
000000f0: 8b88 54bb 84ff e735 8420 79a8 0620 0f3a
00000100: c36a f2a6 b43a 4826 b5b5 6aab 282a 3eb2
00000110: 5921 63a7 df1c 2ea7 4f37 dea6 6456 33a7
00000120: ee9b a426 5ea1 dba0 866a 9da4 196a d9b1
00000130: 2031 d9b9 842f 2625 93ae 0f27 2afd 8c26
00000140: 5c5c eca6 b1f2 5cb4 1568 47b2 c0bc a62f
00000150: 48c6 5ca9 6ff8 f739 4384 a2a3 00ed c324
00000160: 5e4c fda3 b084 2d24 d714 e5a4 0a1d 99a4
00000170: 802f a3b1 aab8 a931 d27d e432 05b2 52b7
00000180: 5e0a 1837 c5a7 2c2f 39c5 8c34 4e4b 0f2d
00000190: b57e 09ae 9d8b 7027 fae0 8d32 e5ce dcb7
000001a0: 7bd3 b7a3 cfed 5ea8 4fba 92aa ef83 c628
000001b0: bf5b 58b5 b403 ad3a a08d b13a 98c8 5e38
000001c0: b607 33aa df62 273a 864c 5ca9 504d 0334
000001d0: c40a e0ae 1e90 86aa 59e0 29b7 cb33 972f
000001e0: fa16 972e 452c 29ab 37c3 f837 108b 9837
000001f0: 9049 46ac 94d8 afb7 98e4 81b7 b0d2 6237
00000200: 0eac 643a bfac 59b4 812b 3cb6 fc2a 57a4
00000210: 8bb2 d224 65d9 7324 d7ec eb23 d934 3e34
00000220: e44f 8033 239d e7b2 a657 c037 fd43 b13a
00000230: 94d1 06a9 06ec 2ba4 12c8 a624 f5b4 1e25
00000240: bcf7 f7a3 a15f bc27 c147 b5b5 58f1 9cb4
00000250: c505 bfae 6ae1 9333 3a56 a923 3adb 6023
00000260: 25e3 2323 0c2d 8cac 3621 2038 8185 7423
00000270: 481e b4a4 15c7 07a3 111b 2925 25cd 2fa4
00000280: 5649 9abc 50a2 02a5 e032 0624 3ab1 58b5
00000290: 1cd2 59a4 04fe aca3 c434 d524 22cb 0123
000002a0: fa05 72ba 7265 abb6 d124 c638 6e6c 7b34
000002b0: 15ad 0cb6 2c69 a6a4 1a0a d8a2 a0e1 bc24
000002c0: e716 f7a2 45ca 12a4 5400 4ca2 bad0 d536
000002d0: 9c22 51b1 906c 0d24 efbf 3a33 8235 053b
000002e0: fad8 6f2b 4400 ccb1 9875 3bab b26b 0f33
000002f0: b33d f234 334f 98b4 58af bd38 0d57 353b
00000300: 6885 e52b b466 6528 f0e7 cd2a 4bd0 85a7
00000310: 82da 5437 b4d3 b33a 68bb 042c f613 e02b
00000320: 118c 84af ee35 2231 d9bf 4830 d96c ebb6
00000330: b7c1 c4ad e98d 659d d3c0 563a fd67 3fb2
00000340: 0493 05b3 47e7 c9ac e577 3f2e a0b8 3734
00000350: e0b4 f930 888c 47b7 a8e5 01b6 91a4 403b
00000360: d57b 83b0 8522 beb9 5aaa 38a1 b58e 52a4
00000370: ae93 20a4 753b 30a4 c2bf 1fab 83b9 8e36
00000380: 6e6d 8427 aa67 a0b5 f619 8ea9 8de7 bc2d
00000390: a9c4 2c23 b170 0ca3 7709 3a1e e97d d2a2
000003a0: af9d 7cb5 4939 1cb8 e548 3931 e565 33b6
000003b0: 1dde 2337 3b41 3624 217f d823 24a2 1fa3
000003c0: 97b6 05b2 55cc 26ae ffae 9f23 fb74 3d23
000003d0: 512f 5923 c342 2923 b62f dba2 a3f0 9437
000003e0: 4efd 4624 5587 de23 ac12 372d efa0 7223
000003f0: 6745 81a3 383a 09a4 d4d4 8123 5485 f1b4
4.1533943e-15 8.889629e-17 -1.0160957e-15 -5.3260152e-08 8.099533e-16 -0.0056636417 -0.014839297 3.0765435e-08
6.9648425e-09 -1.9805008e-11 3.1606756e-08 1.1986146e-08 2.0468786e-10 3.8787593e-10 -6.01785e-13 -6.285147e-09
-3.296331e-14 -1.6118871e-05 -1.0536674e-15 -1.1067807e-08 -1.7134825e-08 -1.04378906e-08 2.2695413e-13 -4.2843447e-15
-1.3675586e-07 1.6992596e-13 2.7691887e-11 3.2878672e-13 -5.3210973e-12 0.006876046 1.8339467e-06 -3.2846077e-11
0.00038406902 2.974165e-09 -3.9841316e-06 -3.234808e-15 -1.6163711e-09 -1.757147e-10 -6.280398e-10 -6.353122e-14
-1.5924702e-13 9.2575395e-14 -1.5496407e-14 -1.38454e-08 -3.9565444e-16 2.0235712e-15 -8.1826167e-16 -9.953834e-16
6.7432865e-12 -8.416031e-10 3.4187367e-10 -1.2505262e-13 -9.998019e-11 8.5142776e-14 -2.8264664e-15 -3.2977235e-16
1.1454861e-15 -2.3881916e-13 3.1544294e-09 0.0033960773 -0.0032430019 1.7285206e-06 -1.3829327e-14 0.0005459789
-1.6821061e-15 6.9468497e-16 -8.338567e-13 -1.1069041e-08 -3.1520656e-15 -2.4163002e-15 -1.5419336e-15 -2.4888073e-15
1.1422051e-15 -3.7206827e-19 -6.8268354e-17 -6.327593e-09 -0.00041426066 1.4414304e-16 1.9939873e-15 9.783072e-16
-1.6400824e-15 -2.0577387e-07 -1.160699e-08 3.032934e-10 -4.9021795e-14 0.0004729661 -1.762009e-17 8.496926e-17
-2.7462658e-17 3.7625786e-17 -9.934822e-17 -6.640237e-17 -4.7493245e-09 4.939541e-09 2.659991e-08 -1.2558424e-05
9.06232e-06 1.5702913e-10 2.622053e-07 8.14533e-12 -3.1262732e-11 3.3382375e-15 1.6516868e-08 -2.6322386e-05
-1.9930465e-17 -1.2375042e-14 -2.6064087e-13 2.2039633e-14 -8.059978e-07 0.0013199956 0.0013546236 5.3115742e-05
-1.5901069e-13 0.00063852774 -4.8916187e-14 1.2228452e-07 -1.0188253e-10 -2.3903183e-13 -1.012542e-05 2.750354e-10
6.8707665e-11 -6.01023e-13 2.9654808e-05 1.8184568e-05 -2.8178328e-12 -2.0962478e-05 -1.5484446e-05 1.3519704e-05
0.0008723148 -2.0272545e-07 -2.8039506e-06 -4.6657103e-17 9.1375446e-17 5.2876366e-17 2.5579057e-17 1.7714355e-07
5.9749965e-08 -2.6963397e-08 2.2928998e-05 0.001352429 -2.9935757e-14 -3.7279634e-17 7.2329957e-17 1.3765626e-16
-2.6884713e-17 5.2284163e-15 -1.3506434e-06 -2.9232865e-07 -8.686699e-11 6.8862235e-08 1.8359535e-17 1.2189487e-17
8.8843474e-18 -3.9840405e-12 3.8177903e-05 1.3255537e-17 -7.8113855e-17 -7.360522e-18 1.4667584e-16 -3.812084e-17
-0.018833797 -1.1330696e-16 2.909971e-17 -8.072417e-07 -4.7232344e-17 -1.8755857e-17 9.2463414e-17 7.036119e-18
-0.0009232458 -5.108007e-06 9.448233e-05 2.3415643e-07 -2.0962373e-06 -7.216919e-17 -5.8557613e-18 8.191423e-17
-6.6973733e-18 -3.1830032e-17 -2.764733e-18 6.3721936e-06 -3.0433176e-09 3.0666457e-17 4.3481062e-08 0.0020326083
8.521097e-13 -5.9372116e-09 -6.659894e-13 3.339273e-08 4.5120905e-07 -2.836983e-07 9.0448826e-05 0.0027670295
1.6308456e-12 1.2734324e-14 3.6576254e-13 -3.7140747e-15 1.268706e-05 0.0013719709 1.886236e-12 1.5921698e-12
-2.4110183e-10 2.3604758e-09 7.303221e-10 -7.0162173e-06 -2.2368647e-11 -3.0381263e-21 0.0008192185 -1.1141307e-08
-3.1100186e-08 -5.7384405e-12 4.353486e-11 1.711037e-07 1.8168542e-09 -1.1894044e-05 -1.9356175e-06 0.0029394964
-9.5667e-10 -0.00036265343 -6.2567083e-19 -4.565737e-17 -3.481956e-17 -3.821428e-17 -5.6754265e-13 4.253526e-06
3.6756004e-15 -1.1951099e-06 -6.31057e-14 2.1475955e-11 9.365783e-18 -7.6132785e-18 9.848715e-21 -5.7053927e-18
-9.4106775e-07 -3.724665e-05 2.696248e-09 -2.673239e-06 9.767272e-06 3.952021e-17 2.3472608e-17 -8.653742e-18
-7.783135e-09 -3.7925513e-11 1.7312928e-17 1.0270482e-17 1.1773613e-17 9.175646e-18 -5.9410585e-18 1.775503e-05
4.3148963e-17 2.4126604e-17 1.0406492e-11 1.3152925e-17 -1.4015601e-17 -2.9756453e-17 1.4076344e-17 -4.4986757e-07

gnn.init_context.project_edge1.0.bias f4 [32]
00000000: adb6 31a6 feb1 02a5 db7d 1da4 2457 03a5
00000010: 0de4 cd26 1cc0 baa7 8fce 83a6 5d83 b3a7
00000020: 60f5 6e28 ee78 bb2e 0c9c 1aa4 4128 8ba5
00000030: ee38 2024 7eb9 99a6 13da 9a27 9a3a 30a6
00000040: 48c6 faa7 feaf 9724 5fd6 15a8 0fa1 2a26
00000050: 0667 f1a9 55ba 1ea5 04ae 63a7 530f c1a6
00000060: 6c8c 7923 17b5 0925 b488 3127 9e94 0128
00000070: 64cc 5625 6ea5 afa8 b5cc 62a5 6d0b 59a8
-6.1656783e-16 -1.1336009e-16 -3.4150552e-17 -1.1391963e-16 1.4286546e-15 -5.1833656e-15 -9.145939e-16 -4.9824905e-15
1.3264861e-14 8.525257e-11 -3.3525604e-17 -2.4139933e-16 3.474269e-17 -1.0666785e-15 4.2980023e-15 -6.1141686e-16
-6.9603916e-15 6.5783954e-17 -8.317646e-15 5.9198873e-16 -1.0720422e-13 -1.3767447e-16 -3.1596912e-15 -1.3396219e-15
1.35280525e-17 1.1944211e-16 2.4637791e-15 7.193165e-15 1.8630791e-16 -1.9500647e-14 -1.9671733e-16 -1.2048397e-14

gnn.init_context.project_edge2.1.weight f4 [1, 64]
00000000: d7c0 143a b428 97b7 29b1 9635 dfd0 9ab7
00000010: 20e0 34b0 af3b 9433 dad7 2ca0 4313 5834
00000020: ed5a afb9 f801 e8b9 fa3e 0b32 bd8f 54ab
00000030: 0767 7134 289a b13a 36ba a234 babc 4a21
00000040: 3bdf 14ae f16b d5b3 e500 8d38 dac3 ec31
00000050: 2e6a 0833 65e5 0e38 e7c9 e32e f28b b6af
00000060: 0f2a c3aa 18c3 0938 0e7f 80b7 d382 3a36
00000070: 502a 84b1 7d4b 0eb0 c962 f3b5 e3e0 7c37
00000080: 0a4f 02b7 d74d 999d 458b bb1d df18 e0b3
00000090: e622 97bb aab3 0cb8 67d2 18bb c89c 391e
000000a0: 29eb 363b af94 be24 0cfd ec1c 90f1 1f1a
000000b0: f4c5 7d1e 2269 68ad 795f 2334 9bc5 0836
000000c0: 6868 6c31 326f 8bb7 f6a7 3ab3 8384 12a1
000000d0: 49be 8821 baeb 6420 a511 5db0 92e1 8337
000000e0: ed1a 0e22 5cd8 de23 303e 6335 8a68 7cb7
000000f0: 68cf 03a1 428a c229 d073 079f a4c8 fe21
0.00056744873 -1.8019557e-05 1.1227431e-06 -1.8455494e-05 -6.580212e-10 6.9026434e-08 -1.4640386e-19 2.0123575e-07
-0.00033446346 -0.00044251955 8.105184e-09 -7.5517007e-13 2.2482355e-07 0.001354997 3.0310338e-07 6.869004e-19
-3.3849572e-11 -9.93822e-08 6.7235706e-05 6.8907697e-09 3.1761537e-08 3.406908e-05 1.035863e-10 -3.3205044e-10
-3.4668142e-13 3.284504e-05 -1.5317954e-05 2.779231e-06 -3.846516e-09 -5.1766574e-10 -1.8133661e-06 1.5072731e-05
-7.7670065e-06 -4.0579247e-21 4.964249e-21 -1.0435337e-07 -0.0046123145 -3.3545926e-05 -0.002331877 9.82624e-21
0.0027911162 8.2651245e-17 1.5682581e-21 3.3075562e-23 1.3434644e-20 -1.3211017e-11 1.5215291e-07 2.03806e-06
3.4401868e-09 -1.662187e-05 -4.345926e-08 -4.96421e-19 9.266087e-19 1.9390347e-19 -8.0424406e-10 1.5721456e-05
1.9258843e-18 2.416092e-17 8.4654584e-07 -1.504471e-05 -4.4659026e-19 8.6393146e-14 -2.868316e-20 1.7264819e-18

gnn.init_context.attentive_gru.edge_transform.1.weight f4 [32, 32]
00000000: dd69 312a 0b8e f429 9400 35a8 5caf 1a2c
00000010: 6f4f 222c 5b24 66ac 86cb 622c 2c56 592b
00000020: 454f 8bab 067b 3ab1 2f86 a0a6 a67f 9b29
00000030: 1ccc 9c2b 8113 702b d68c 292c 39ca afa8
00000040: 6e77 aeaa 48e3 eb2e a494 c42b 7da1 9d2b
00000050: 585f b82c 4379 a7ac 5b22 0cad 1803 0eaa
00000060: 1a42 d2aa 03ea b32a 33f5 5e2b 22c6 ba2f
00000070: 1599 d62c 55c7 57ad 7376 b927 36d9 c02d
00000080: 3e61 82a6 82e1 0628 6f09 2ca8 b878 d427
00000090: cb0c 14aa c9e4 8ca7 b9ce c0a6 7396 14aa
000000a0: ae0c 21a9 c009 e92b 8903 0ba7 4b75 a2a7
000000b0: 18c2 a5a7 3be8 6d28 0d2a 3ba9 7ba0 06a9
000000c0: cae3 2caa b94b 7d29 8255 0e2b bf3d 9229
000000d0: 2b40 512b 8c9f a927 9d05 3427 68af 70a9
000000e0: 6a44 3126 35ce e127 0572 c226 1022 6ea9
000000f0: 399b f028 1fa8 b4a8 7c54 2e27 811d 562b
00000100: e709 6faa 92c7 f329 036f 9a29 6805 5c2d
00000110: d8a5 152d 5642 33aa 6dc3 cb28 6293 0b2b
00000120: a8eb 052e 2dcc 852d 8da8 3c27 4262 2c29
00000130: c2d2 8fab 04da d72c 06e6 c82c 5e26 e2aa
00000140: 1e09 bcac bd0b 16ab 2392 aea8 f4fd 71ab
00000150: 3d9b 282d 4df3 222d 4f8c 7e2b 7fd7 7cab
00000160: 331b 08a8 6899 01aa c97a 912d 88c6 24ac
00000170: 4272 00ab 8ed1 e02c 0a40 87aa 712b 072d
00000180: efe7 7125 a0ae 8aa3 9e31 1625 436c 0d24
00000190: eb9b 7da5 b17b 0da5 9cf2 d521 f455 9623
000001a0: e900 56a7 8ff7 03a8 739d 0223 a418 1825
000001b0: 1375 0d24 6341 b3a5 1379 92a4 2d42 4224
000001c0: 4906 d9a5 dbe7 93a4 7527 e326 f12c 0e24
000001d0: 1307 10a6 fd08 0ea3 9dc3 2c21 263e b725
000001e0: 6a29 d523 4daf 8724 5bec 9823 5d91 8b24
000001f0: fb5c d6a4 11f7 95a5 372e 91a1 c068 84a7
00000200: d045 46af 401a 4aab 8055 89aa abd6 b32d
00000210: 8eff 2e2d f8eb c4ae 92bf cead 43b0 87ae
00000220: b3f9 f52c e565 80b0 0f60 8629 4097 e2ab
00000230: 3a13 2d2d 1fc8 332d 59bd c5af 0395 0cad
00000240: 85ff c6ae cc2a 1a2d 0607 cead 6b7e 5cac
00000250: 99c9 b92e 0ad5 77ae 3907 8b2d b79a f92b
00000260: e30d 1429 be6e 942b 4649 812d 3058 e72f
00000270: 9109 742b 1864 39b0 1104 4a2d 4315 c4ad
00000280: b2e2 e1ac b977 c329 f3fd e6a8 9610 892b
00000290: b9a3 27ad c24f cc2b f3c7 aaab 780e 4e2d
000002a0: 6cb8 602b f134 6b2f 63c1 6ba6 c353 88a9
000002b0: 03dc 42ac 837e 97ac bf02 daac 516e 3dac
000002c0: fe42 2ead 0ee8 ca2d b275 d12c cce9 ec29
000002d0: e35a 9b2d 3c8e c2ab f825 122d 7987 be2a
000002e0: b37d 52aa 961b 232a ea46 8c2b fd8b 3c2f
000002f0: f5bc 92ab b7c4 9d2d 1d56 a1aa 66f9 c82c
00000300: 76cc 042d 10ea 6bab fe52 08aa 2025 6bac
00000310: d69d a0ad 2e7c 7dad ae4d 3a2a 6712 43ac
00000320: d8c7 0f2e f557 9a2e 35e8 b828 d9cb a32a
00000330: 3f44 eeac e370 9a2c 4604 402f 22d5 7cac
00000340: 839d c4ac e7bc 782c 7503 32af 2cf8 f32b
00000350: 4a23 bdad 3180 81ab c09d 08ad ecc9 c6aa
00000360: 7e30 7d2a 0f87 bc2a 7ad0 abad ddc7 772a
00000370: 3ccb b02b e5c3 202e f8ba b7ab 9874 1e2c
00000380: 5c4c 0e2e 1454 07ab 1839 50ad 214f 9bac
00000390: ecde f82d cbb1 002e 757a e5ad fc0f af2e
000003a0: 97da 932f e890 0eb1 9a3b 55ab 6762 d42c
000003b0: 3417 4cac 4778 902c 65c7 002e 7ad2 8f2d
000003c0: bc63 a82e 7d06 00ae 19fd 8bad 9eb4 7cad
000003d0: d944 4dac 06b1 78ad a489 542b c64f 87ae
000003e0: f8d8 1e2b 8bf6 15ad 2d6d 11ae 4ddb 682e
000003f0: 73d3 572e 8f24 8baf 52c3 7f2c c603 98af
1.5757487e-13 1.0860417e-13 -1.0047644e-14 2.198206e-12 2.306568e-12 -3.2705147e-12 3.222951e-12 7.7213474e-13
-9.898546e-13 -2.7136493e-09 -1.1138601e-15 6.905526e-14 1.1141118e-12 8.5292195e-13 2.4094524e-12 -1.9516603e-14
-3.099148e-13 1.0726936e-10 1.3967894e-12 1.1200343e-12 5.24018e-12 -4.7598882e-12 -7.965707e-12 -1.2613207e-13
-3.734936e-13 3.1959166e-13 7.9210526e-13 3.3973985e-10 6.0992413e-12 -1.2265596e-11 5.1476238e-15 2.1924334e-11
-9.04692e-16 7.4873935e-15 -9.549964e-15 5.8972704e-15 -1.3149479e-13 -3.9105855e-15 -1.3378709e-15 -1.3197238e-13
-3.576018e-14 1.6558352e-12 -1.9292041e-15 -4.50912e-15 -4.6007137e-15 1.32065e-14 -4.1558814e-14 -2.989317e-14
-1.5355699e-13 5.6242964e-14 5.05672e-13 6.494414e-14 7.4340767e-13 4.7079904e-15 2.498306e-15 -5.3442846e-14
6.150193e-16 6.2673615e-15 1.3492359e-15 -5.287616e-14 2.671267e-14 -2.0056925e-14 2.419315e-15 7.606902e-13
-2.12309e-13 1.0825988e-13 6.858231e-14 1.2506753e-11 8.506494e-12 -1.5921409e-13 2.262228e-14 4.9587255e-13
3.0450004e-11 1.5211022e-11 2.6181613e-15 3.8276897e-14 -1.0219258e-12 6.134872e-12 5.7098796e-12 -4.0172287e-13
-5.3442936e-12 -5.3306995e-13 -1.9381257e-14 -8.597283e-13 9.584164e-12 9.2626575e-12 9.0433645e-13 -8.9827446e-13
-7.5554145e-15 -1.1510725e-13 1.6539119e-11 -2.3416009e-12 -4.56333e-13 6.389728e-12 -2.4025253e-13 7.6835075e-12
2.0982e-16 -1.5035947e-17 1.3027237e-16 3.0666203e-17 -2.1997079e-16 -1.2271709e-16 1.449766e-18 1.6299435e-17
-2.969896e-15 -7.3256415e-15 7.080655e-18 1.3192247e-16 3.0673667e-17 -3.1095858e-16 -6.3522515e-17 4.2123097e-17
-3.7647758e-16 -6.4143866e-17 1.5761984e-15 3.082941e-17 -4.9969623e-16 -7.699739e-18 5.853476e-19 3.1787553e-16
2.3111046e-17 5.884389e-17 1.6579973e-17 6.0527896e-17 -9.296522e-17 -2.6014799e-16 -9.837815e-19 -3.675093e-15
-1.8032797e-10 -7.1801246e-13 -2.4395416e-13 2.0445276e-11 9.947499e-12 -8.9549645e-11 -2.3504563e-11 -6.1703996e-11
6.991041e-12 -9.342186e-10 5.967459e-14 -1.6100246e-12 9.838181e-12 1.0219408e-11 -3.596863e-10 -7.991166e-12
-9.049387e-11 8.763389e-12 -2.3422608e-11 -3.1334056e-12 8.448637e-11 -5.6350515e-11 1.5805678e-11 1.7735456e-12
3.2874646e-14 1.054677e-12 1.4698142e-11 4.2081316e-10 8.669949e-13 -6.744485e-10 1.14832735e-11 -2.2292062e-11
-6.420053e-12 8.680508e-14 -2.5645262e-14 9.739039e-13 -9.529205e-12 1.4517209e-12 -1.2134724e-12 1.1712957e-11
7.9836723e-13 2.1391934e-10 -8.179409e-16 -6.0541436e-14 -2.769119e-12 -4.3057237e-12 -6.1962375e-12 -2.6919753e-12
-9.90563e-12 2.3067794e-11 5.953204e-12 1.05210626e-13 1.7661822e-11 -1.3824007e-12 8.30757e-12 3.3844783e-13
-1.8695357e-13 1.4486879e-13 9.967281e-13 1.7148234e-10 -1.042637e-12 1.7936192e-11 -2.8659098e-13 5.7120307e-12
7.548731e-12 -8.38136e-13 -1.210802e-13 -3.3416117e-12 -1.8259987e-11 -1.4408958e-11 1.6547069e-13 -2.7721382e-12
3.2691932e-11 7.0187335e-11 2.0528807e-14 2.9096064e-13 -6.7719437e-12 4.389476e-12 1.7463817e-10 -3.5929666e-12
-5.5881424e-12 3.5347782e-12 -1.6190234e-10 1.733507e-12 -2.1502484e-11 -9.201582e-13 -7.7657325e-12 -3.5311977e-13
2.2487738e-13 3.3489224e-13 -1.9533031e-11 2.2007348e-13 1.2561961e-12 3.6553777e-11 -1.3054826e-12 2.2517873e-12
3.2354883e-11 -4.8078317e-13 -1.18361085e-11 -4.41415e-12 2.8293333e-11 2.9261742e-11 -2.6088668e-11 7.960918e-11
2.6894462e-10 -2.074609e-09 -7.5755515e-13 6.0363273e-12 -2.9003024e-12 4.1060796e-12 2.928093e-11 1.6350688e-11
7.657472e-11 -2.9109593e-11 -1.5914868e-11 -1.4364647e-11 -2.917047e-12 -1.4136475e-11 7.5508545e-13 -6.15326e-11
5.643398e-13 -8.524413e-12 -3.306615e-11 5.294547e-11 4.9073145e-11 -2.530993e-10 3.6346104e-12 -2.765132e-10

gnn.init_context.attentive_gru.edge_transform.1.bias f4 [32]
00000000: da01 d430 8fbf 3fae 88c2 62b1 3f7b f62a
00000010: 350e 0cb5 b2ef 9233 dd84 5732 9cf1 d633
00000020: b20a a332 06c2 1832 7e9a 88b3 9731 17ac
00000030: ebb1 b12e 543d 25b2 94c0 fba8 b234 342f
00000040: a5d8 1b32 4613 b232 06d6 0b30 b46b d332
00000050: dbd6 3a2e f535 2db3 51b5 4db3 a362 a22e
00000060: 4108 0730 1659 ea30 093f dd2d 3456 25b6
00000070: 3703 cd28 923e 312c 2ae3 2bb3 aefc 6e2c
1.5425556e-09 -4.359851e-11 -3.2997907e-09 4.3783897e-13 -5.217474e-07 6.842255e-08 1.2544857e-08 1.00091e-07
1.8980561e-08 8.89168e-09 -6.3610955e-08 -2.1485919e-12 8.080633e-11 -9.6182085e-09 -2.7950115e-14 1.6389626e-10
9.071447e-09 2.0730692e-08 5.087205e-10 2.461261e-08 4.2482334e-11 -4.0328775e-08 -4.789519e-08 7.3844285e-11
4.9124443e-10 1.7051061e-09 2.5152784e-11 -2.4637093e-06 2.2760966e-14 2.5187946e-12 -4.0020645e-08 3.39621e-12

gnn.init_context.attentive_gru.gru.weight_ih f4 [96, 32]
00000000: 7fc5 54ad 14a8 3baa ccfa d7ac 543e 2aa3
00000010: 36e5 0c3b aaab 8ab7 942f 042f 232c 3b2e
00000020: a026 3c2d e87f 1e2a 1984 e22d 9cf6 b128
00000030: efab 342b ec95 52b5 b0cb 53a1 0a0e 9e2d
00000040: c929 8729 74d8 9eac 5a1f c9b5 6379 a4ac
00000050: 9804 49a6 c2c1 0a2e 8cf1 772c c481 d428
00000060: 3cfc 0b35 e516 ca24 261d 2aa3 c582 4cbb
00000070: 57f0 1ba2 2b8c 78a9 fe49 bb30 43db 70a7
00000080: 6f07 4e38 4115 6ea4 bf0a bbb5 d837 dbb4
00000090: b350 f625 fae8 e825 e484 1aa8 3612 39a9
000000a0: dfff 05a8 85b9 79ae 339a 3824 1d61 8025
000000b0: d1f1 5eaf 02ee 0b26 f1d0 7ea0 d05f 9caa
000000c0: bab5 2935 2362 f52f c911 88bb 221d 9eb9
000000d0: 538f 6e22 f9b2 3826 4627 30ac 82f6 fa23
000000e0: fbea 2c36 87f2 6421 6ff1 0723 c9b9 f3a7
000000f0: f200 deaa 4974 85a4 0850 9da8 c636 a028
00000100: 5e35 c5aa 747e 2ba6 e068 3725 0cbf f5a0
00000110: 2cfc 8a2b a506 f0a9 d53a 8ba9 b610 81aa
00000120: 4788 bfa9 814c e827 46ff a42a af26 56a3
00000130: eec2 11a0 ddd4 d5aa da1a fc98 0bf8 8ba2
00000140: f662 9428 3954 202a 01a5 83a3 d8ce a729
00000150: 7570 4ea5 0878 5a2a 82c4 5529 312a 0525
00000160: 4d8e e525 e5c3 6f22 4810 69a4 6509 102c
00000170: 49c1 7c20 8b10 4524 2835 68aa 97d6 da9c
00000180: 06da 052b f9bc 0830 1b30 3139 128b 15aa
00000190: bfab 40af 0202 d9ad 5549 64ae ccbd 8bb4
000001a0: 8325 982d 0561 05b4 45ca 94b7 b632 91aa
000001b0: d5de bb31 0bc4 a32b b030 f3aa bb4d 1c3a
000001c0: e989 93b3 76fd 173a b2a0 1baf ae1a afab
000001d0: 8974 302f 74ba 4238 5ecf c1b9 13f5 f33b
000001e0: c523 3bb8 ca73 2825 89ec 592b 4a99 8faa
000001f0: 3a8a 7529 60d6 46b0 d8a5 23b8 bc4c 8729
00000200: 6e0e 14a7 0131 1ba4 da5e 8b2a 21c8 c0a4
00000210: 581a 0a29 35e8 7baa 6517 cfa9 61b7 322d
00000220: 29f5 9caa 03e9 b12b a38d f3ab 18f6 e3a7
00000230: 70a3 c8a7 79bd 0aa9 0578 3021 a1aa 3da3
00000240: 28ab a0ab 83c9 2cab fae0 2f28 bc48 04a8
00000250: 4fcf 0ca6 9901 cb2b 8f62 e227 c0b3 b825
00000260: 70dc 50a7 cc73 5321 3e06 1a22 4b26 0b2a
00000270: db1b 9f20 ae8a dca8 1629 782c 7886 1f23
00000280: 31ff 4728 2940 e635 277d e433 ff25 06b6
00000290: b867 09b2 ad9a beaf 212d 5eae 40b6 87ae
000002a0: 6a7c 6db5 4f36 7f30 a3d2 7cb5 ccaf f7ae
000002b0: 7500 06bc aa2b 7b32 8a87 af1b 576d 21b1
000002c0: ab13 1bb4 3c02 8eb7 ad88 0fb2 10e2 d333
000002d0: 940a 1b3b 00cf 022b 0a29 0cb9 ba95 b3b3
000002e0: 15bd c9bb c803 11ba 802e 8ea5 ca01 18b7
000002f0: ff04 0031 0463 41b9 38b8 1bbc 258d 0833
00000300: bbf8 8e9a 838e 15a3 f030 6f97 3e15 ef9b
00000310: cde2 13a5 ea23 1718 3a6e c9a5 53f4 609c
00000320: 600f 5c9e c874 811e 032e 2c18 a80e b822
00000330: bf3d 4599 a0fb 2026 b030 f715 e730 ad99
00000340: e708 ec0b d65f 60a1 c806 f01d fbe8 b220
00000350: 9e3d 7618 a0c6 899f 9c92 b1a0 78d8 8794
00000360: 4b12 d81f 6f5d cf9e a929 2c9c ef25 4696
00000370: bfb3 ea9f ddfe 0816 e4f9 8129 864a d319
00000380: 7b60 3ba8 468c dda1 1d3b 2723 04d2 e41c
00000390: e93a 08aa 6e32 9026 5062 f3a7 1626 0429
000003a0: 4331 f9a2 c2f8 30a3 f276 b628 a2eb 35a3
000003b0: bf96 46a3 577d 30a9 60c1 ef98 ab2a 9ca7
000003c0: c066 8e23 a866 1639 9ba0 4426 5ee4 cf26
000003d0: 4209 f520 b512 b5a5 7573 e8a7 7e57 9ca1
000003e0: 9b99 b3a1 62fd 6427 d696 0d1c 7da0 ce2a
000003f0: 2f1f d199 6518 d6a0 fc88 6b29 a2f8 a41e
-1.2094658e-11 -1.666725e-13 -6.1385116e-12 -9.228917e-18 0.0021498925 -1.653082e-05 1.2022233e-10 4.255808e-11
1.0695139e-11 1.4077595e-13 2.5751888e-11 1.9757897e-14 6.418745e-13 -7.844926e-07 -7.175916e-19 1.7968755e-11
6.002453e-14 -4.514661e-12 -1.4984792e-06 -4.674637e-12 -6.974211e-16 3.154966e-11 3.5234897e-12 2.3593005e-14
5.2148584e-07 8.764232e-17 -9.221891e-18 -0.0031205874 -2.1133652e-18 -5.518864e-14 1.3627071e-09 -3.3425553e-15
4.912115e-05 -5.1626026e-17 -1.3935713e-06 -4.083256e-07 4.2728881e-16 4.0403456e-16 -8.577533e-15 -4.1094047e-14
-7.438466e-15 -5.678082e-11 4.0029252e-17 2.2270267e-16 -2.0276693e-10 4.8547873e-16 -2.158377e-19 -2.777765e-13
6.3221853e-07 4.463497e-10 -0.004152511 -0.00030157814 3.233089e-18 6.4080377e-16 -2.5032905e-12 2.7209454e-17
2.5766774e-06 7.7570387e-19 7.36949e-18 -6.7647477e-15 -3.9435778e-13 -5.787655e-17 -1.746521e-14 1.7787323e-14
-3.503126e-13 -5.949892e-16 1.5908253e-16 -4.1631039e-19 9.875482e-13 -1.0659294e-13 -6.183046e-14 -2.29266e-13
-8.505744e-14 6.447588e-15 2.9309384e-13 -1.1609155e-17 -1.2346475e-19 -3.7984104e-13 -6.5167586e-24 -3.793865e-18
1.6474218e-14 1.4240075e-13 -1.427293e-17 7.4521715e-14 -1.7905754e-16 1.9403934e-13 4.7465944e-14 1.1550206e-16
3.9821594e-16 3.2494246e-18 -5.0537612e-17 2.0468846e-12 2.1409183e-19 4.2731578e-17 -2.0624182e-13 -1.44815e-21
4.755366e-13 4.974506e-10 0.00016897956 -1.3282108e-13 -1.7523315e-10 -2.4670935e-11 -5.190633e-11 -2.6028863e-07
1.7297058e-11 -1.2421886e-07 -1.7737164e-05 -2.5792362e-13 5.4677494e-09 1.1636259e-12 -4.3199255e-13 0.00059625105
-6.8703066e-08 0.00057979615 -1.4154258e-10 -1.2441903e-12 1.6048508e-10 4.6426852e-05 -0.0003696633 0.0074449866
-4.4617587e-05 1.4610908e-16 7.7422145e-13 -2.5508268e-13 5.452082e-14 -7.2336626e-10 -3.9016682e-05 6.0085156e-14
-2.0546948e-15 -3.3651775e-17 2.4757177e-13 -8.360576e-17 3.0665005e-14 -2.2373841e-13 -9.196705e-14 1.0158847e-11
-2.788128e-13 1.264128e-12 -1.7305501e-12 -6.327197e-15 -5.568835e-15 -3.0806497e-14 5.9789964e-19 -1.0281843e-17
-1.1416189e-12 -6.138633e-13 9.7632355e-15 -7.343244e-15 -4.8853213e-16 1.4424461e-12 6.283446e-15 3.2040715e-16
-2.8985298e-15 7.1642837e-19 2.0874196e-18 1.2358966e-13 2.695408e-19 -2.448505e-14 3.5265727e-12 8.647882e-18
1.1102055e-14 1.7155008e-06 1.06398424e-07 -1.9989673e-06 -7.9980325e-09 -3.4670702e-10 -5.051704e-11 -6.171463e-11
-8.8470426e-07 9.2845637e-10 -9.418383e-07 -1.12634874e-10 -0.00817882 1.4620051e-08 2.9038912e-22 -2.3490736e-09
-1.4442655e-07 -1.692876e-05 -8.354772e-09 9.866574e-08 0.0023657428 4.647255e-13 -0.00013366729 -8.362572e-08
-0.0061565735 -0.00055318745 -2.4664583e-16 -9.060323e-06 1.8629291e-09 -0.000184428 -0.00950437 3.1793338e-08
-5.913167e-23 -8.107484e-18 -7.7286833e-25 -3.955296e-22 -1.282706e-16 1.9534425e-24 -3.4942634e-16 -7.4431165e-22
-1.16498825e-20 1.3706706e-20 2.2253709e-24 4.9888818e-18 -1.0197131e-23 5.5852167e-16 9.983932e-26 -1.7907532e-23
9.091729e-32 -7.602099e-19 6.3534483e-21 3.0308546e-19 3.1825864e-24 -5.8350354e-20 -3.0081984e-19 -1.3716898e-26
9.150982e-20 -2.195562e-20 -5.696387e-22 -1.6006282e-25 -9.940022e-20 1.1066413e-25 5.7721e-14 2.1846988e-23
-1.0401506e-14 -1.5012673e-18 9.065606e-18 1.5142062e-21 -1.2099665e-13 1.0005676e-15 -6.755264e-15 2.9342922e-14
-6.7543743e-18 -9.593656e-18 2.0257643e-14 -9.861927e-18 -1.0765523e-17 -3.9188565e-14 -6.197531e-24 -4.334496e-15
1.5439187e-17 0.00014343357 6.821882e-16 1.4425409e-15 4.151074e-19 -3.141117e-16 -6.4518114e-15 -1.059413e-18
-1.2170171e-18 3.1778715e-15 4.6847937e-22 3.6704312e-13 -2.1622688e-23 -3.6269153e-19 5.2299297e-14 1.7467008e-20

gnn.init_context.attentive_gru.gru.weight_hh f4 [96, 32]
00000000: 4701 9338 35d1 d2b0 4295 fdb3 f305 05b8
00000010: 75ee 17b2 99b0 f9b0 7e6b 8231 723b 5638
00000020: 5dfb f1b0 804a 88a8 d588 caaf f55f 9030
00000030: fc75 a9b3 5b1c b5b3 6128 3eb2 847f 8bb1
00000040: 7533 72b4 4e21 76b2 d4b5 0034 2315 1237
00000050: 8623 c831 8d09 562f 8e8b 1b38 25d2 3aaf
00000060: 432a 09b6 e758 9030 a860 65b6 7531 2334
00000070: 4497 a6ae b253 48b4 8abe d2ab 6dc2 742d
00000080: 789e 142e b19a 402b 85b9 7229 9652 f036
00000090: 9398 3eaa f638 0fa9 dcc2 69ac 1843 02bc
000000a0: 0d76 cead c522 2da4 aa56 afa5 b608 5d34
000000b0: f549 4937 0429 002a cd27 702b df90 082b
000000c0: c077 07ad c6a8 66ad 8c7a 612d 81dd 832b
000000d0: ee42 1aa9 c1ba f92a 9390 382d bbba 032a
000000e0: 6c8d 2e2e fabe 54a9 68f4 aa2d b8d7 bfac
000000f0: f618 0c28 31be f7a9 8338 f8a7 b0cb 0428
00000100: fdaa abb0 2782 4aae 6865 0530 0ad9 98ba
00000110: 7d40 ffb0 2317 9ead 6da3 ca2c 96b8 b330
00000120: be9b 41ab cce4 db24 149b 7baa 58f1 9332
00000130: bb4c d2b4 837d e3aa 26af 1eaf b251 02b1
00000140: 0d91 34af 90a2 2733 0523 e7b1 1d7f c52f
00000150: 4ce6 ee2d f9c6 8c29 a705 24b3 1a6c 49ad
00000160: 5a60 6b34 e9f7 592a 6094 8231 8bf9 602f
00000170: 5f31 052a adcd 22ae 0953 7caa 7797 052b
00000180: 3ee3 a436 e372 83b0 1372 be32 c2b3 cc37
00000190: 12e6 0b35 b00b be34 5b53 9a33 b57e 25b0
000001a0: 611d 94b2 f5d0 b0aa 9449 b52e d86b 1c30
000001b0: becb 2f38 3310 3a2d 31c2 c833 dfcc 38b1
000001c0: 7e09 b930 cfb8 91b4 99b6 11b6 c811 e036
000001d0: 1997 5f31 4832 8e2f c130 81b7 99c6 1bb1
000001e0: b60c c537 e371 46ae c227 0835 9639 5b34
000001f0: 69f4 c82e bff8 c333 d52c 702f b4dc a1ad
00000200: 94f4 2530 0a5b 033c 3615 87ab 6d20 be32
00000210: bd23 3130 0d86 bb2e e825 992c e528 ef32
00000220: c77f c3ad 7a07 2d25 8ded ca37 f339 842e
00000230: a714 a3b4 0f3f 6c3a 43c8 0530 a6db 8131
00000240: 5729 2bb0 f964 38b0 7f62 0f32 484b 8333
00000250: cfc4 51b0 c310 f3aa c3de ca33 b81a 12ab
00000260: 15fb ecaf 14d0 82ad b18e 17b2 ee4d 32b0
00000270: da2a 55ab 51b3 d82e 0ad6 6429 4831 8caa
00000280: b790 fdaa 62af b529 61ad 34ac 5ff2 9bb0
00000290: b0c1 a52b 2c28 19ae 1039 bbab 89d8 8830
000002a0: 79de 082a 393b 491f 457c 0228 bd7e 6d2a
000002b0: 8a7b 4438 66ba 5926 4092 cd2b e773 5f2a
000002c0: 4d9b 292d 2600 192f 71d9 c4ad e688 bab0
000002d0: 9249 3fa9 5a93 9ba7 9000 802d 2122 bc2a
000002e0: 2964 012f c67d 4e26 4435 c22d afb8 5bac
000002f0: e373 f024 2ee1 1aae 2928 0426 33e0 b5a7
00000300: 9dd6 b9ad 6560 8726 f0a1 9c27 068f 2ba6
00000310: 2eba dba6 22d3 8aa8 860c 422d 58c8 7fb3
00000320: 0ac6 8e23 7d2a b121 951f 1e22 5293 47a7
00000330: 9a85 58ab cda7 a923 59be 1b25 126d 0d22
00000340: 0c94 87ab c028 d029 3f01 a2aa 0487 8ab4
00000350: 549d c89f 27da bdac 3658 ef23 082c 5828
00000360: 536e 6b2a 12de 2f25 fdfc ce2c ccde e926
00000370: 23c1 08a4 7256 c938 b9f9 25aa 16f8 8e27
00000380: 3b4f 01ac 9f97 b9b8 3b35 713b 772c 6f38
00000390: 7215 adab af03 aea9 3f76 1d2a 7d3a 372c
000003a0: a250 c3a9 9aa1 1423 c843 87a7 603c 812d
000003b0: 28d5 28ae 17db 0d31 fed1 962b 3cbd fbaa
000003c0: ca5f 282e 0906 0b2c 6371 18af bfc0 8130
000003d0: e125 2aab 4392 caa7 659f 5a2f 35cb bd28
000003e0: e952 38b0 b76e 90aa b6e0 2baf 64df 0838
000003f0: 83e8 84a9 9504 1832 cff0 b5a4 da1b c5a8
7.009744e-05 -1.5338971e-09 -1.18083804e-07 -3.171521e-05 -8.843576e-09 -1.8167327e-09 3.7957184e-09 5.107694e-05
-1.76065e-09 -1.5131342e-14 -3.684081e-10 1.0504652e-09 -7.891137e-08 -8.433627e-08 -1.1068637e-08 -4.0599293e-09
-2.2556726e-07 -1.4326657e-08 1.1987078e-07 8.707199e-06 5.8248046e-09 1.946658e-10 3.708485e-05 -1.699126e-10
-2.043919e-06 1.0502647e-09 -3.417992e-06 1.519855e-07 -7.575676e-11 -1.86569e-07 -1.4974283e-12 1.3912965e-11
3.3792052e-11 6.842678e-13 5.3895707e-14 7.1621716e-06 -1.6928325e-13 -3.1801784e-14 -3.321946e-12 -0.007950567
-2.3471914e-11 -3.7542846e-17 -3.0416387e-16 2.0585398e-07 1.1997753e-05 1.1382914e-13 8.5320363e-13 4.8517955e-13
-7.700451e-12 -1.3111462e-11 1.281698e-11 9.36959e-13 -3.425292e-14 4.4360872e-13 1.0491291e-11 1.1699922e-13
3.9688627e-11 -4.7239102e-14 1.94353e-11 -5.452496e-12 7.776974e-15 -1.10019964e-13 -6.8895098e-15 7.37164e-15
-1.2490485e-09 -4.604508e-11 4.8529225e-10 -0.0011661362 -1.8572021e-09 -1.7972795e-11 5.759329e-12 1.3076427e-09
-6.878351e-13 9.536371e-17 -2.2347082e-13 1.7222803e-08 -3.9171377e-07 -4.0410392e-13 -1.4432242e-10 -1.8963928e-09
-1.6422437e-10 3.9030567e-08 -6.726966e-09 3.592441e-10 2.715974e-11 6.251765e-14 -3.8189366e-08 -1.14495306e-11
2.1921133e-07 1.9359483e-13 3.8003662e-09 2.0461337e-10 1.1829902e-13 -3.7017212e-11 -2.2410905e-13 4.746129e-13
4.9140353e-06 -9.564157e-10 2.2170786e-08 2.4402401e-05 5.211633e-07 3.5398762e-07 7.186346e-08 -6.020671e-10
-1.7242828e-08 -3.1408873e-13 8.243997e-11 5.6905725e-10 4.1913e-05 1.0576473e-11 9.348549e-08 -2.689198e-09
1.3463219e-09 -2.714282e-07 -2.171297e-06 6.67779e-06 3.253666e-09 2.5865377e-10 -1.5400701e-05 -2.2668358e-09
2.3490149e-05 -4.512114e-11 5.0721803e-07 2.0416914e-07 9.138363e-11 9.125642e-08 2.18438e-10 -1.8401593e-11
6.0374217e-10 0.008017311 -9.598214e-13 2.2133657e-08 6.444301e-10 8.527588e-11 4.35273e-12 2.7841859e-08
-2.2225678e-11 1.5007891e-16 2.4190895e-05 6.012959e-11 -3.0376142e-07 0.0009012082 4.8669707e-10 3.7793653e-09
-6.2268185e-10 -6.70823e-10 8.346091e-09 6.1138564e-08 -7.631344e-10 -4.3177102e-13 9.446878e-08 -5.19067e-13
-4.3106554e-10 -1.4871694e-11 -8.821801e-09 -6.486677e-10 -7.573227e-13 9.854396e-11 5.081182e-14 -2.4903191e-13
-4.5042244e-13 8.068439e-14 -2.5675783e-12 -1.134662e-09 1.1777714e-12 -3.4823852e-11 -1.3302987e-12 9.956845e-10
1.2156412e-13 4.2612393e-20 7.243396e-15 2.10938e-13 4.6845096e-05 7.5539616e-16 1.4606719e-12 1.984659e-13
9.6410215e-12 1.3915322e-10 -2.2379184e-11 -1.357219e-09 -4.247433e-14 -4.31809e-15 1.4552165e-11 3.341919e-13
1.1768066e-10 7.164106e-16 2.2078901e-11 -3.1224292e-12 1.0427973e-16 -3.5215546e-11 4.5851127e-16 -5.048067e-15
-2.1127372e-11 9.393635e-16 4.347427e-15 -5.9521376e-16 -1.5246642e-15 -1.5412642e-14 1.1030404e-11 -5.9554026e-08
1.5479544e-17 1.2005233e-18 2.1429712e-18 -2.769666e-15 -7.6924025e-13 1.8394083e-17 1.3508599e-16 1.9166805e-18
-9.633418e-13 9.2441246e-14 -2.8777845e-13 -2.580274e-07 -8.496357e-20 -5.395923e-12 2.594979e-17 1.1999956e-14
2.0910469e-13 1.5254071e-16 5.8829595e-12 1.6228012e-15 -2.9653892e-17 9.6005286e-05 -1.4741584e-13 3.9681893e-15
-1.8375984e-12 -8.849729e-05 0.003680541 5.702345e-05 -1.2298342e-12 -7.727791e-14 1.3985426e-13 2.6038332e-12
-8.673727e-14 8.0573165e-18 -3.7543516e-15 1.4692414e-11 -3.8388098e-11 2.0642739e-09 1.0716426e-12 -4.4717864e-13
3.8283855e-11 1.9756438e-12 -1.3864603e-10 9.440767e-10 -6.04487e-13 -5.622484e-15 1.9883613e-10 2.1071342e-14
-6.705663e-10 -2.5656362e-13 -1.5632193e-10 3.2632975e-05 -5.902312e-14 8.848606e-09 -7.890418e-17 -2.1883472e-14

gnn.init_context.attentive_gru.gru.bias_ih f4 [96]
00000000: e156 b539 3082 07b0 94e8 90b4 4859 23b8
00000010: c1b9 5631 6298 02b1 d1a1 abae 660b 3432
00000020: bffb 95b6 0628 b022 38e2 cbb2 139f 00b7
00000030: fc2c d9b7 ba44 2f2d fa8b c931 325a f533
00000040: 1678 be2e e732 8e39 7209 0080 1e98 d6b6
00000050: 2969 eeb4 c117 baac 869a a3b7 defb 7627
00000060: 98fb 2437 5990 a22f 4d00 0000 e972 0333
00000070: 949c 17b1 d20e 46b7 c0e3 d1a5 6849 1834
00000080: bc92 583a 81e0 6634 e569 68b5 5850 48b9
00000090: 3cc6 4134 2b98 9ab1 7499 68ae 2ada 69b1
000000a0: 8413 13b7 2eb4 ca21 ade7 b532 f246 f936
000000b0: a36e 0ab8 438e c8b1 4894 83b4 46dc fcb5
000000c0: d927 ea2d a52a 81bb 2401 0080 adaf dc38
000000d0: b024 3535 ccc4 8c2d b339 71bb c227 ff37
000000e0: e47b f2bb 25db 6f33 552d bb3a c1ca 7bb6
000000f0: e2c5 a033 6454 0c37 8414 642f 3458 a4b4
00000100: 7cee 91bc 7cc8 f138 deed f8bb 9aef f4b9
00000110: 68ae 81b8 82a2 23b7 0eeb 2b2f 81e7 f7ba
00000120: b408 28bc 021f b32e 44b9 32ba 3b11 2d3b
00000130: 896a 7439 d03d b7b9 8808 25b9 0cd8 7a38
00000140: f5f8 a0b2 f390 c6bb fb07 0080 fa70 a63b
00000150: 4c38 f8b9 b9db 1ab6 06d0 2bbc 9190 17b2
00000160: 48fe 47bb 6e88 3736 1806 0080 d1de cbba
00000170: 6e80 35b8 242d a8bb a056 34b3 ef43 4dba
0.0003458774 -4.929772e-10 -2.6991313e-07 -3.8945378e-05 3.1246687e-09 -1.900411e-09 -7.804924e-11 1.0479971e-08
-4.469853e-06 4.774727e-18 -2.3735183e-08 -7.666432e-06 -2.5889363e-05 9.962859e-12 5.8657834e-09 1.1425108e-07
8.661531e-11 0.00027122276 -3.388e-42 -6.3954058e-06 -4.440747e-07 -5.289075e-12 -1.950307e-05 3.4275895e-15
9.8337405e-06 2.9570194e-10 1.08e-43 3.0605324e-08 -2.2062396e-09 -1.180517e-05 -3.641005e-16 1.4182808e-07
0.0008261611 2.1502093e-07 -8.658083e-07 -0.00019103417 1.8046643e-07 -4.4992894e-09 -5.2886986e-11 -3.4029974e-09
-8.766427e-06 1.3735746e-18 2.1176527e-08 7.4290374e-06 -3.3004802e-05 -5.8369394e-09 -2.450854e-07 -1.8839571e-06
2.6620416e-11 -0.003941851 -4.09e-43 0.0001052314 6.748114e-07 1.6003553e-11 -0.0036808073 3.0416883e-05
-0.007400023 5.5845835e-08 0.0014280478 -3.7519933e-06 7.486575e-08 8.364299e-06 2.0743768e-10 -3.0611557e-07
-0.017813914 0.00011529119 -0.0075967154 -0.00046717824 -6.183685e-05 -9.753394e-06 1.5635868e-10 -0.0018913598
-0.010255981 8.145486e-11 -0.0006817768 0.0026407975 0.00023309341 -0.00034950534 -0.00015738804 5.9805854e-05
-1.8739664e-08 -0.0060597598 -2.863e-42 0.005079386 -0.0004734419 -2.3075684e-06 -0.010486608 -8.822227e-09
-0.0030516554 2.7348538e-06 -2.186e-42 -0.0015554075 -4.3273372e-05 -0.0051323343 -4.19883e-08 -0.0007830252

gnn.init_context.attentive_gru.gru.bias_hh f4 [96]
00000000: 5c6a b539 c33b 07b0 37f3 90b4 040b 23b8
00000010: e4bd 5631 6298 02b1 e1a1 abae 2a0b 3432
00000020: 0c2d 96b6 2628 b022 30e2 cbb2 d496 00b7
00000030: d42a d9b7 d14d 2f2d 7e7a c931 4058 f533
00000040: 3942 942e e27c 8d39 e707 0080 94df d2b6
00000050: 126a eeb4 28f6 b9ac 2199 a3b7 e1fa 7627
00000060: cebd 2537 60b9 992f 0b0d 0000 d872 0333
00000070: 289b 17b1 5f06 46b7 c0e3 d1a5 9b49 1834
00000080: 2c92 583a c9d0 6634 bb69 68b5 a65a 48b9
00000090: 41c9 4134 2b98 9ab1 cc9a 68ae 91dc 69b1
000000a0: 520d 13b7 24b4 ca21 ade7 b532 ee46 f936
000000b0: d56e 0ab8 218f c8b1 5094 83b4 46dc fcb5
000000c0: 9bb6 e92d d851 81bb 8102 0080 60b7 dc38
000000d0: 2924 3535 ccc4 8c2d 1a35 71bb d627 ff37
000000e0: 177b f2bb 45dc 6e33 502d bb3a b4ca 7bb6
000000f0: e3c5 a033 3074 0c37 8a14 642f 8956 a4b4
00000100: bce9 de3b a314 af38 7fe2 e7bb 8618 233a
00000110: 9d88 9338 ef89 d9b6 65fd 112d e54b 81ba
00000120: be69 69b9 abc0 9aae e35d 50ba 1d81 44bb
00000130: 93fd 59ba 94d2 57b8 8e30 0db8 1b42 94b9
00000140: 8b86 7cb2 e7df 21bc 4502 0000 7042 ed39
00000150: 2add 0639 b7c7 d434 a417 48bb 6e0a d2b0
00000160: 3bce c13c 92e4 a6b6 2506 0080 fa9e 58ba
00000170: daa6 f6b7 dad9 fb3b e5e3 53b2 3891 1a3a
0.00034602254 -4.919764e-10 -2.6999052e-07 -3.8872487e-05 3.124904e-09 -1.900411e-09 -7.804935e-11 1.0479917e-08
-4.4755925e-06 4.7747404e-18 -2.3735168e-08 -7.664512e-06 -2.588836e-05 9.964877e-12 5.8637957e-09 1.1424754e-07
6.742024e-11 0.0002698666 -2.835e-42 -6.2845156e-06 -4.440813e-07 -5.285345e-12 -1.950242e-05 3.427536e-15
9.878959e-06 2.7962255e-10 4.679e-42 3.0605264e-08 -2.2061588e-09 -1.1803203e-05 -3.641005e-16 1.418288e-07
0.00082615274 2.1496375e-07 -8.6580593e-07 -0.00019107256 1.8047741e-07 -4.4992894e-09 -5.288818e-11 -3.403134e-09
-8.764984e-06 1.3735735e-18 2.1176527e-08 7.4290356e-06 -3.3004984e-05 -5.837038e-09 -2.4508563e-07 -1.8839571e-06
2.6570126e-11 -0.003946524 -8.98e-43 0.00010524574 6.7480374e-07 1.6003553e-11 -0.0036805333 3.0416919e-05
-0.0073999274 5.5614027e-08 0.0014280472 -3.7519903e-06 7.486576e-08 8.371702e-06 2.0743776e-10 -3.0610343e-07
0.0068027657 8.348494e-05 -0.007076561 0.0006221611 7.0349524e-05 -6.4831615e-06 8.298561e-12 -0.0009864537
-0.00022260004 -7.037334e-11 -0.00079485605 -0.0029984184 -0.00083156786 -5.145611e-05 -3.366224e-05 -0.00028278012
-1.4698922e-08 -0.009880043 8.14e-43 0.00045253662 0.00012861626 3.963339e-07 -0.003053167 -1.5282475e-09
0.023657909 -4.9737946e-06 -2.204e-42 -0.00082634354 -2.9403182e-05 0.007685882 -1.2333634e-08 0.0005896273

gnn.gnn_layers.0.project_edge.1.weight f4 [1, 64]
00000000: 8f58 8c2a 02b8 1128 ecf8 01aa 77c2 3aad
00000010: 6fad 72ac 6791 36a9 387a d928 2eaf dea4
00000020: c586 18aa 04cc 81a0 fdd2 9ca5 d83f 0f2b
00000030: 102e 6dac e868 d520 1da3 b028 6fe8 0d2b
00000040: 552b daa5 6742 db2b 8510 0080 b509 ad2b
00000050: f7bf d628 1236 e126 cdbd 652d 22ed e927
00000060: 881f f7ac b971 67a8 7a49 0080 3392 dfa4
00000070: 8a5a 88a4 f494 5aa4 d2e6 bfa6 eca1 c026
00000080: 9695 2a2a bc28 bfa9 9e4e 7a2d de69 dd2d
00000090: db53 12ac 1e6b 09aa 4eae 2828 c898 aea7
000000a0: 2cb7 0e2e d523 c021 acc2 daa6 3ef7 a8ad
000000b0: b183 13ae 1fef 15a4 d2e0 44a9 6913 acac
000000c0: 7386 01aa 24b9 272e a613 0000 836d 12ab
000000d0: 00c0 1b28 868c eda8 d28c f1af 0458 b0aa
000000e0: 5c0a 6631 422c 8aaa 9e2e 0000 e070 20a7
000000f0: 9cd1 86aa a2ad baa5 e055 71a8 a22a 0926
2.4930446e-13 8.089017e-15 -1.1543864e-13 -1.0616056e-11 -3.4486543e-12 -4.0538235e-14 2.4144844e-14 -9.657392e-17
-1.354707e-13 -2.1988456e-19 -2.7204657e-16 5.0892407e-13 -3.3705295e-12 3.6153025e-19 1.9610664e-14 5.041583e-13
-3.7846335e-16 1.5579316e-12 -5.926e-42 1.2295084e-12 2.3842024e-14 1.5627167e-15 1.3059287e-11 6.492759e-15
-7.023663e-12 -1.2847736e-14 -2.6358e-41 -9.6958505e-17 -5.913398e-17 -4.7397383e-17 -1.3315851e-15 1.3366565e-15
1.5150931e-13 -8.48917e-14 1.4228311e-11 2.5171806e-11 -2.0794397e-12 -1.2205208e-13 9.36367e-15 -4.8460347e-15
3.244975e-11 1.3019911e-18 -1.5179555e-15 -1.9209186e-11 -3.3540896e-11 -3.2511768e-17 -4.3715743e-14 -4.890689e-12
-1.1504148e-13 3.813584e-11 7.049e-42 -5.20216e-13 8.645862e-15 -2.6373228e-14 -4.3937703e-10 -3.1324953e-13
3.3475294e-09 -2.4544434e-13 1.6723e-41 -2.226565e-15 -2.3948627e-13 -3.2383515e-16 -1.3396809e-14 4.75892e-16
