Results/GCN/17/model.pth (torch, 123653 bytes, 32 tensors)

gnn.gnn_layers.0.graph_conv.weight f4 [74, 32]
00000000: 50cc 3dbd 21b6 be3d 4a75 c23e bc6e e1bd
00000010: a405 af3f 8bbf 09be 7bcb 8ebb c8f4 bd3d
00000020: 8985 3ebe 63b7 143d 34ac fcbe cf92 513d
00000030: e69b 32bc de49 62be d46e a2bd 7c25 09bf
00000040: 332f ba3d 10f1 dfbd a9bc 523e ce5c c53c
00000050: 0743 35bd 4b42 eebe b7bf 253e b540 77bb
00000060: 49b5 363f 52ff 23bf 99ca b33e 73d3 8ebd
00000070: aa6b 983c 5f74 093e 2633 7ebc a8a7 a9bd
00000080: 1d1b f2bc 8768 1d3f 9702 193e 56dc 433d
00000090: 4527 2fbf 860c cb3c 6b78 87b9 5886 50be
000000a0: 5c0a 0936 432c 12bd 0208 093d 0236 b7bc
000000b0: 6207 c9bb 255b 8cbe 9b7f c0bc 9f66 46bf
000000c0: 7b3c 3f3d 5759 d83b 2f86 20be 8ee3 c0be
000000d0: 0c5d 7fba 9151 e0be 22d1 ddbe a732 a3bd
000000e0: 9d11 46bf 953c 3140 451d 76be ebbc 1abd
000000f0: 6ac7 49be 7394 d9bd 7c48 85bd 5c7a 803f
00000100: c52b f8be bb80 b83e d510 db3e 6041 a33d
00000110: fe9c cd3c c15f 3bba 54bd e23b 53e1 d93d
00000120: 3ebe ecb3 9276 ffbb bd10 e33e 9ff0 5abc
00000130: 471a 1e36 8591 2ebf e07b a53c 0431 08bf
00000140: fd22 133d 625b 353c 5522 56be 1eb9 dbbd
00000150: 32f6 d03b 82a9 79be 757e 8c3d b218 9f3c
00000160: c62f 82be 6168 00bf 0596 d9bd 852d 9aba
00000170: 2d37 4ebf 97cd 3e3d 73f1 edbd db47 9fbd
00000180: 7b8c 6d3d 7833 eabd 7d88 a73c f552 0a3c
00000190: 57cf aa3c 07a4 73ba 32a5 2c39 0d95 5a3e
000001a0: a3ce 71b5 6bc3 b63b e3ca 063e ba6d c9ba
000001b0: ce83 f136 8530 5c3e a437 233b c6d0 3abe
000001c0: 4438 32bc e0d4 adbb f5ff 103e a044 c73c
000001d0: f066 2b3b 8747 0dbe 58e6 7b3f 5023 18bc
000001e0: 2d17 513e 61ef 34bf e708 00bc 1645 13bc
000001f0: 5c59 583e 4911 d23d 945f 37bc 3e5a d7be
00000200: 9d98 3cbe 7de5 863a 688a 72b9 111c 0fbb
00000210: 9699 7f3d dd90 59b9 9be0 813a d707 a83c
00000220: 2c11 74b6 aba5 183c 955c ba36 8609 00bb
00000230: 032b 1fb6 7497 24bc 3943 a93d 3768 993c
00000240: d1c5 b7bc 58c2 d23a f7ac d23d c363 6d3e
00000250: f4a5 b6b9 2072 213e f252 993d 9c5d 1c3c
00000260: 9704 c6be 2adc 78be 80f3 413d 977f 2a3b
00000270: fa25 8a3f 70bd 44bc c682 96b8 064f ebbe
00000280: b2a7 f03d b86e 39bd d828 dd3a 5c57 2b3c
00000290: 6fd2 de3c e83d 0bb9 d553 d0b7 f6bf c63c
000002a0: ae34 c334 05f4 17bb 33d8 17b8 a7f5 70ba
000002b0: f70d 38b4 860c 8e3c 120e af3a ad4c 873b
000002c0: 495e 8e3a c823 2fb9 08f6 b83c 72c9 60b9
000002d0: cd05 e4b9 54e1 6b3e ea8a 9d3b af32 f23b
000002e0: ce00 503d e39b 87be 532e 53bd 933b 66b7
000002f0: 34a0 1ebd 1c13 ab3b a41a d1bb 54e0 9239
00000300: 18f9 573d 526a f73c 8e5b 6fbb 5db0 113c
00000310: 905f 8fbc 6da9 bd39 fa3a bfb9 9422 c4bd
00000320: 3c49 c535 4858 163a 6d04 063d 8e0c 8f3a
00000330: 965a fc34 668d d0bd 23f5 80bc 02ea f8bd
00000340: 2520 3bba a6d0 3dbb 5829 403c 1a2d 0bbd
00000350: 8e31 67ba 3a99 96bc c3dc 45bc 8c93 d23a
00000360: 1f79 dfbc 123e 9dbc 3413 003d d5e6 623b
00000370: 6124 d4bd f736 143b a1dd f8bb 12b0 0c3e
00000380: 1036 853e 456f 92bc 7ae4 92b9 1f20 e8b9
00000390: d7ed 14bd 29db 1439 46c7 f2b7 ec8c 923e
000003a0: 764b be35 409b dfb9 7954 ec37 ae17 0abb
000003b0: e695 3b35 8b36 61bd 3040 08bd 6595 2ebe
000003c0: 5ad2 c2ba 8db4 6b3b 3451 023e f1b4 9ebd
000003d0: 6dfd c038 bee5 f2bb 8cc0 e63d 2a69 ff3b
000003e0: 755e f43d 542b ff3d ea7f cc3c d5c7 173b
000003f0: c3c0 b4be cf79 c0bb 7065 babb 3392 863d
-0.046337426 0.09312082 0.3798011 -0.11007449 1.3673596 -0.13451974 -0.004357753 0.09275204
-0.18605627 0.036307704 -0.4935013 0.0511654 -0.010901427 -0.2209849 -0.07931295 -0.5357282
0.09091034 -0.10934651 0.2057978 0.024092104 -0.044253375 -0.46534953 0.16186415 -0.0037727777
0.7137037 -0.6406146 0.35115507 -0.069739245 0.018606026 0.13423298 -0.015515124 -0.08283931
-0.029553944 0.6148762 0.14942394 0.04781755 -0.68419296 0.024786245 -0.00025838925 -0.20363748
2.042062e-06 -0.035686743 0.033454902 -0.02236462 -0.0061349133 -0.27413288 -0.023498347 -0.7750034
0.046688538 0.006602447 -0.15676187 -0.3767361 -0.0009741343 -0.4381223 -0.43323618 -0.079686455
-0.77370626 2.7693226 -0.24034603 -0.037777822 -0.19704977 -0.106240176 -0.06507966 1.0037341
-0.48470894 0.36035714 0.4278628 0.07971454 0.025099274 -0.00071477523 0.0069195423 0.1063868
-1.1024211e-07 -0.007796117 0.44348708 -0.013363033 2.355913e-06 -0.68190795 0.02020067 -0.5319979
0.03592204 0.011069151 -0.20911534 -0.10728668 0.006377005 -0.24381068 0.06860057 0.019420955
-0.25427073 -0.5015927 -0.10624317 -0.0011762833 -0.8055294 0.046582785 -0.116183184 -0.07777377
0.0579953 -0.11435598 0.020450825 0.00844263 0.02085082 -0.00092941563 0.00016464738 0.21345921
-9.008019e-07 0.005577495 0.13163333 -0.0015367784 7.197704e-06 0.21502884 0.002490499 -0.18243703
-0.010877673 -0.0053049177 0.1416014 0.024324715 0.0026153885 -0.13796817 0.9839835 -0.009285763
0.20418997 -0.70677763 -0.0078146225 -0.008988639 0.21127838 0.10257203 -0.011192221 -0.42061037
-0.18417592 0.0010291782 -0.00023130479 -0.0021836797 0.06240233 -0.00020748698 0.0009908857 0.02051155
-3.6368829e-06 0.009316842 5.55401e-06 -0.0019536926 -2.3717882e-06 -0.010045875 0.08264775 0.018726451
-0.022433193 0.0016079647 0.10286897 0.23182587 -0.0003483739 0.15766191 0.07486524 0.009543803
-0.38675377 -0.24302736 0.04735136 0.002601599 1.079284 -0.012008056 -7.176916e-05 -0.45958728
0.11750735 -0.045271605 0.0016873134 0.01045784 0.027199952 -0.00013279135 -2.483457e-05 0.024261456
3.635991e-07 -0.0023186218 -3.6202557e-05 -0.00091918785 -1.7141416e-07 0.017339956 0.0013355634 0.0041290135
0.0010861839 -0.0001670263 0.022578254 -0.00021437349 -0.0004349187 0.23035175 0.0048078196 0.007391296
0.050782017 -0.2648612 -0.05155785 -1.3722939e-05 -0.038727 0.005220784 -0.0063813496 0.00028014428
0.05272779 0.030202065 -0.0036523077 0.008892146 -0.017501622 0.0003617512 -0.000364743 -0.09576908
1.4698958e-06 0.0005735201 0.032719065 0.0010913776 4.7004568e-07 -0.101832196 -0.01574189 -0.121540084
-0.0007138274 -0.0028963475 0.011728607 -0.03397856 -0.0008819335 -0.018383611 -0.0120765595 0.0016065701
-0.027279435 -0.019194636 0.031268314 0.003462245 -0.10358501 0.002261577 -0.0075947796 0.1373904
0.2601781 -0.017875323 -0.00028017518 -0.0004427442 -0.036359634 0.00014196023 -2.8941442e-05 0.2862314
1.4178065e-06 -0.00042649545 2.8172728e-05 -0.0021071243 6.988106e-07 -0.054983657 -0.03326434 -0.17049177
-0.0014863715 0.003596577 0.12726289 -0.077493556 9.202478e-05 -0.0074126413 0.11267194 0.007794519
0.11932079 0.12459436 0.024963338 0.002315988 -0.35303316 -0.0058738957 -0.005688362 0.06570854

gnn.gnn_layers.0.graph_conv.bias f4 [32]
00000000: 6e5d 27be c6e0 003f f850 7d3d 939a 76bc
00000010: d7ae 5a3e d221 a33b 42d3 073b 32be 153e
00000020: 741c b837 3abe 943b 0ef6 2d3e d99d 333c
00000030: c1ff 1db4 73de a3bd 8e43 603a fe7c 99be
00000040: 3372 803b ccaf 793c 2ac9 8c3c 3928 b5bc
00000050: 7fcf 8ebc d7ca f6be 2638 b4bd 61f8 6a3c
00000060: 5864 58bc 5744 623e caa3 8abd d633 993c
00000070: db8f 743f 1c96 803e 5cbd 81bd 7594 a83e
-0.16344234 0.5034298 0.061844796 -0.015051502 0.21355759 0.004978397 0.0020725285 0.14623335
2.1947759e-05 0.0045392783 0.16988394 0.010962927 -1.4714807e-07 -0.08001413 0.00085549883 -0.29978174
0.0039198636 0.015239667 0.017185766 -0.022113906 -0.017432926 -0.4820163 -0.08799772 0.014341445
-0.013207518 0.22096382 -0.067695215 0.018701475 0.95532006 0.25114524 -0.063349456 0.32925764

gnn.gnn_layers.0.res_connection.weight f4 [32, 74]
00000000: a445 d2bc 7aa4 8dbe b176 cfbd 521c 093e
00000010: 2cb5 cbbe a7cf 4e39 3fad 903d f0f3 a238
00000020: 4025 e53c 0a0b 82b3 8815 8d32 3f4b 38b3
00000030: c540 0534 ef88 f333 72eb 3bb4 fc2d ffbc
00000040: 8c6b 3db3 cf92 3034 a70c 15b3 7381 0034
00000050: 4c02 1a34 38aa 0134 3f40 3034 4e2e e831
00000060: 32dc 29b4 3262 02b4 67d5 c933 e1d2 ee33
00000070: 01f5 37b3 5a75 d5bc 637b 1434 e772 4f34
00000080: b29f dbb2 1690 0a32 aae4 7433 e614 ee31
00000090: e542 26b4 ab7a 5733 1039 af33 74bd ffb3
000000a0: cd22 ec33 2624 2434 b781 ceb3 4433 c933
000000b0: 5f61 353e 147d 923d bd41 a5be 577d 393e
000000c0: 2a9d 8433 5198 063d f889 b233 3ccf a1b3
000000d0: f6fb cd32 10cf 2132 9b1b c5bc da9f 283e
000000e0: 027e f4bd 704e abbd 9d1d 2934 860c 25b2
000000f0: 078d b1b3 fdc5 61bd a460 6c32 1e28 6fbd
00000100: b9aa aa3d f836 0bbe 3321 48b4 bf61 d63c
00000110: 1826 eb3d a409 963d 7095 dd3d e96d 07be
00000120: 007a b4bd 760e 27b4 7f09 4dbd 68c0 913d
00000130: d20e 3bbf d923 a23c 9696 273c e019 3734
00000140: 9c3e 9a34 b3a3 ffbb 2887 37bc 77b4 0cb3
00000150: 0374 1d34 e12c 1db4 9c62 6eb4 cceb 5234
00000160: e348 d8b3 c4b2 4d3b dbd3 e0b3 c39a 4034
00000170: 18aa a733 f9bf 33b4 561b 1434 7049 a0b3
00000180: 8e2f 2334 4bd4 5bb0 7621 2b34 2b72 30b4
00000190: 63d9 5db4 c544 0f34 960c 0434 db72 1c37
000001a0: a801 3034 38a9 7bb3 823d 5e33 1ab9 22b4
000001b0: cca3 a133 5dd7 4833 ca07 39b4 e95d 1e34
000001c0: e030 0ab4 98a5 2932 8457 4ab3 bf45 2034
000001d0: 145b 6334 aec4 d832 6f61 68bf 4088 213e
000001e0: c8be 7abd dd28 d53b 7921 39b4 34ef 76b5
000001f0: 8e16 7e33 fdc0 cab3 8597 57b4 7bd6 d6b3
00000200: 2cb1 3cbe ddb4 bcbe 60d3 60bd b0b6 9ebd
00000210: 2629 01b4 8eb0 1334 7c78 ddb3 e1c7 a93e
00000220: 940a 53b4 25a5 cabc aa2a 93bc 0289 12bf
00000230: 741c 73b4 5d68 0337 ae28 b9bc a7d0 1ebe
00000240: 9e97 e2be 3c0d 8cbd 75c3 bbbd 6331 12b4
00000250: fb10 9f38 9c87 c4bd fd26 3db9 5a8b 0439
00000260: c4d8 fb39 b88a a737 0d77 8fb9 ba20 8c37
00000270: 0dca 19b7 ce7b 1cb4 00b2 bb32 baf7 31b4
00000280: 6c8e 35b4 dc80 30b4 429e 46b4 8017 9e36
00000290: a710 5b33 ec0f 4fb3 d1c7 ffb3 baae 31b4
000002a0: 7dfa 2a34 d56d f8b3 ecc5 3d34 4332 f433
000002b0: ded7 e7b3 7d0f ceb2 1f16 70b4 c58a 1d34
000002c0: f45a 6834 24d8 3437 46c3 0eb4 aebd 0e34
000002d0: 105d 7bb3 6514 8ab2 0801 eeb3 64e3 3c34
000002e0: 3f82 4834 026e 4e34 3707 7cb4 c691 0fb4
000002f0: 9d72 0733 8a6c 39b4 a104 5fb4 afa0 abb3
00000300: 4995 c0bd 2340 c039 fc6a 5d38 6aa6 2439
00000310: b3ac 5833 2a1e ecb8 fb02 0eb3 a119 0834
00000320: 2abd 0034 8096 0a34 e512 d0bd e370 7e39
00000330: 5797 c138 7336 e4b7 4b53 1734 a6b3 6334
00000340: 6e2c fd33 ec30 8839 12cf 3634 93f9 693e
00000350: 9c28 e7ba 25fd 13bb 487d 3a33 5b9d f7b8
00000360: 08e7 3d39 06a5 c3bd aa03 a939 9643 4a39
00000370: 59fd 7eb7 ad0d 03b3 0549 003f c333 debe
00000380: 334b 613e 16fd 1c3e 0fc1 2cbd 9c45 f43d
00000390: 7a0e 26bd f7c6 97bd 4c82 483d b27c cab2
000003a0: 403b 20b4 e15f 52b4 0a33 6db4 e2ac 3b34
000003b0: 733d 1cb4 ee64 e0bc 760c 25b2 23f1 cab3
000003c0: 8c9e 0533 5698 01b2 e12b c4b2 1566 35b3
000003d0: bef9 f2b3 db16 0734 e1d7 3034 ec66 70b4
000003e0: a909 20b4 01db 1fb4 cfcd 7f33 8a10 ff3b
000003f0: 6416 33b4 774c ffb3 88f9 2eb4 e5c1 5b32
-0.025667973 -0.27664548 -0.101300605 0.1338971 -0.3978666 0.00019723047 0.07064294 7.770199e-05
0.027971864 -6.055605e-08 1.6424352e-08 -4.2909274e-08 1.2410153e-07 1.13404774e-07 -1.7501387e-07 -0.031149857
-4.4102805e-08 1.6444686e-07 -3.4703273e-08 1.1968022e-07 1.4343203e-07 1.2075986e-07 1.641465e-07 6.757353e-09
-1.5819458e-07 -1.2142917e-07 9.3986095e-08 1.1121097e-07 -4.2830838e-08 -0.026056934 1.3828462e-07 1.9320179e-07
-2.5567577e-08 8.0654186e-09 5.7018646e-08 6.9290875e-09 -1.5484291e-07 5.0170154e-08 8.159452e-08 -1.1908824e-07
1.09959366e-07 1.5286841e-07 -9.6162175e-08 9.369117e-08 0.17712925 0.07152763 -0.32276717 0.1811422
6.175317e-08 0.032860104 8.313867e-08 -7.5348424e-08 2.397972e-08 9.418514e-09 -0.024061015 0.16467229
-0.119380966 -0.0836457 1.5750125e-07 -9.6071116e-09 -8.2678575e-08 -0.055120457 1.37589815e-08 -0.058387868
0.08333344 -0.13595188 -1.863853e-07 0.026169656 0.11481875 0.073260576 0.108195186 -0.13225521
-0.08812332 -1.5558348e-07 -0.050057884 0.07116777 -0.7306949 0.019792484 0.010228774 1.7052616e-07
2.873029e-07 -0.007801497 -0.011201657 -3.2760422e-08 1.4663969e-07 -1.4638091e-07 -2.2201351e-07 1.9643556e-07
-1.0071542e-07 0.003138707 -1.0469349e-07 1.7937695e-07 7.8074834e-08 -1.6740513e-07 1.3793519e-07 -7.463939e-08
1.5197858e-07 -7.997342e-10 1.5937789e-07 -1.6432811e-07 -2.0661314e-07 1.3342931e-07 1.2298037e-07 9.3250665e-06
1.639188e-07 -5.8594395e-08 5.1744344e-08 -1.5154765e-07 7.526941e-08 4.6762e-08 -1.7232301e-07 1.4749061e-07
-1.2870032e-07 9.874746e-09 -4.7111385e-08 1.4926535e-07 2.1174156e-07 2.5235149e-08 -0.9077367 0.15774632
-0.0612171 0.0065051154 -1.7241645e-07 -9.199023e-07 5.9159497e-08 -9.4414624e-08 -2.0078558e-07 -1.0004165e-07
-0.1842696 -0.36856738 -0.054889083 -0.077496886 -1.2029031e-07 1.3754672e-07 -1.03130304e-07 0.33160308
-1.9654755e-07 -0.02473695 -0.01796468 -0.5724031 -2.264149e-07 7.832507e-06 -0.022602405 -0.15509282
-0.442563 -0.06838462 -0.0916814 -1.3615276e-07 7.584874e-05 -0.09596178 -0.00018038969 0.00012640413
0.00048035954 1.9972547e-05 -0.00027363785 1.670454e-05 -9.166554e-06 -1.4573672e-07 2.185061e-08 -1.6574532e-07
-1.6908751e-07 -1.6438156e-07 -1.8497761e-07 4.7115027e-06 5.1005056e-08 -4.8210424e-08 -1.1910709e-07 -1.6547975e-07
1.5923611e-07 -1.1568378e-07 1.7674e-07 1.1371278e-07 -1.0796042e-07 -2.39886e-08 -2.235979e-07 1.4672248e-07
2.1639772e-07 1.077916e-05 -1.329582e-07 1.3293786e-07 -5.852513e-08 -1.6074589e-08 -1.1082926e-07 1.7591589e-07
1.8673835e-07 1.9225266e-07 -2.3471954e-07 -1.3370945e-07 3.1536377e-08 -1.7268954e-07 -2.0770177e-07 -7.992036e-08
-0.09403474 0.0003666888 5.2790143e-05 0.00015702253 5.0448488e-08 -0.000112589754 -3.3064662e-08 1.2675311e-07
1.1989746e-07 1.2907003e-07 -0.10159854 0.00024265381 9.2311464e-05 -2.7205073e-05 1.4093273e-07 2.1206378e-07
1.1789312e-07 0.0002597639 1.7025403e-07 0.22849111 -0.0017636004 -0.0022581306 4.3420442e-08 -0.000118071875
0.0001811051 -0.0955296 0.00032236922 0.00019289399 -1.5198567e-05 -3.0513252e-08 0.5011142 -0.43398866
0.22001342 0.1533092 -0.042176303 0.119273394 -0.04054115 -0.074109964 0.048952386 -2.35726e-08
-1.4922716e-07 -1.9592655e-07 -2.2090913e-07 1.7478627e-07 -1.4550987e-07 -0.027391877 -9.607097e-09 -9.4502205e-08
3.1110673e-08 -7.543425e-09 -2.2837357e-08 -4.223519e-08 -1.1314431e-07 1.258117e-07 1.6469814e-07 -2.2389185e-07
-1.4904676e-07 -1.4887702e-07 5.9558996e-08 0.007783954 -1.667882e-07 -1.1888272e-07 -1.6295792e-07 1.2791564e-08

gnn.gnn_layers.0.res_connection.bias f4 [32]
00000000: 20de c3bc 247b 59bf 2ef3 dabd 84a0 ac3d
00000010: 14d8 fcbd 440e 873d bd0d 8fbf eb51 24be
00000020: 494c febc 98f7 58bb db0b 9b3d eb3e 553c
00000030: afd8 0f3f 9588 4bbb a8df 0fbf a0a4 1cbd
00000040: 9672 4a3b e778 59bf b8ce ffbd 6381 9ebe
00000050: 70ec 88bb 670e 6bbf f4b7 55be 5c29 413d
00000060: de0b 39be f90b 13bf 4f30 88bd 7ab7 bcbe
00000070: d68f 22bd ddc1 acbb da45 0fbe fe3b 2dbe
-0.023909628 -0.8495352 -0.10690914 0.084290534 -0.12345901 0.06594518 -1.1176068 -0.16046874
-0.031042235 -0.0033106562 0.075706206 0.013015489 0.5619001 -0.003105675 -0.5620065 -0.038242936
0.0030891052 -0.8495011 -0.124906 -0.3095809 -0.004178576 -0.9181885 -0.20870954 0.047158584
-0.18070933 -0.57440144 -0.06649839 -0.36858732 -0.039687954 -0.0052721337 -0.1399149 -0.16917416

gnn.gnn_layers.0.bn_layer.weight f4 [32]
00000000: 0973 4c3f 78ce 9c3e dda5 cd3d 0d78 a63e
00000010: 7b8b f63d 2fd7 d2bd 7717 d5be 028f 103e
00000020: 7847 f33d 7e93 bd3c cf97 23be 0615 55bc
00000030: fef1 f1be caef 0d3f ea60 a1bf e3ab 6fbf
00000040: f3a4 943d c3e4 91bf 7f4f 00bf 6ffe a23e
00000050: 86ae 373d 574c 2b3f 2ce5 e83e 48c8 623d
00000060: 3ebe 543f aade 7a3f 16ed eb3d 1236 1abf
00000070: 1025 47bf 9257 57be 2cfd 05bf 22c7 183f
0.7986303 0.30626273 0.100414015 0.32513466 0.120383225 -0.10294949 -0.41619465 0.14117053
0.11878866 0.023141619 -0.15975879 -0.013005501 -0.47254938 0.55444014 -1.2607701 -0.93621653
0.07258024 -1.1397938 -0.501213 0.31834742 0.044844173 0.6691336 0.45487344 0.055366784
0.83102787 0.9799601 0.1151983 -0.60238755 -0.7779093 -0.21029499 -0.52339435 0.5967885

gnn.gnn_layers.0.bn_layer.bias f4 [32]
00000000: 3c04 cf3d 4c0a 52be d29b 71bc 5adc 173e
00000010: 1bef 70be 9512 8ebc 0ff0 843c 63c7 833d
00000020: 984e 283c 45b8 243d 8778 f0bd 5dae 12bd
00000030: 69e4 fbbe 2233 ddbd 3791 483e da28 96be
00000040: a8d3 3b3d b97d 2b3e 9642 c2bc 3224 733e
00000050: 6149 9bbc d9de c3bd 506b 42bd 4d3d c6bb
00000060: e38d 7dbd b18d cf3d 0a12 67bd fabd bebd
00000070: 0ba4 f83d b55c 47be bf2d 0e3c 7867 603d
0.101082295 -0.2051174 -0.014746623 0.14830151 -0.23528711 -0.017342845 0.01622775 0.064345144
0.010272644 0.040214796 -0.11741739 -0.035810817 -0.491977 -0.108007684 0.19586645 -0.29328042
0.045856148 0.16747178 -0.023713391 0.23744276 -0.018955888 -0.09563989 -0.047465622 -0.006049788
-0.06190289 0.10134447 -0.056413688 -0.09313579 0.12140664 -0.19468959 0.008677899 0.054786175

gnn.gnn_layers.0.bn_layer.running_mean f4 [32]
00000000: fab7 2940 7b69 ff3f b6cf 523e c2e6 203f
00000010: 429f 0440 6afd 813e 575d 033b 9f50 5b40
00000020: 24f8 253a c32f 5b3f 79ab 873e f7a1 823e
00000030: 737b 0540 77cf 913f e209 613d 849f 4d3e
00000040: 4b17 d93f cd38 8e3d e752 da3f 3410 e83f
00000050: 5417 003d 4b81 683c 44e0 823f 5082 143e
00000060: 2180 0040 b80e 513f 386a 5940 e54d 683d
00000070: 357e 7940 d87e 0c41 5dcb eb3e f99e 1b3f
2.651854 1.9954065 0.20587048 0.6285211 2.0722203 0.25388652 0.0020044649 3.4267957
0.00063312263 0.85619754 0.2649801 0.25514194 2.0856597 1.1391438 0.054941066 0.20080382
1.6960233 0.06944428 1.705655 1.8129945 0.031272247 0.014190982 1.022469 0.14502835
2.0078204 0.81663084 3.397108 0.05671491 3.898328 8.780968 0.4605359 0.6078945

gnn.gnn_layers.0.bn_layer.running_var f4 [32]
00000000: f928 9141 07bd a040 8784 4e3f 7b14 973e
00000010: 2f3b 8041 ce3e 703d d7ac a43a 60b5 1a41
00000020: bd5b be38 7712 063f f5dd 543e cc9a fb3d
00000030: 5f1f 3240 5db7 3540 44d9 663d 82c5 1c3f
00000040: ccd9 0440 a6ab e43d 37f7 2840 2527 ba40
00000050: e05b 3e3b 866e 093d d10c c33f 3f14 a23c
00000060: f6a9 0a41 9fa8 7b40 92e9 1c41 4693 963d
00000070: fc47 0642 9eab 6342 8423 593f d9d1 df3f
18.145006 5.0230746 0.8067097 0.29507813 16.028898 0.058653645 0.0012563717 9.669281
9.0769936e-05 0.52371925 0.20787795 0.122853845 2.7831647 2.8393166 0.056359544 0.61238873
2.0757933 0.11165552 2.6400888 5.8172784 0.002904646 0.03355267 1.5238286 0.019785045
8.666494 3.9321668 9.807024 0.07352309 33.570297 56.917595 0.8481982 1.7485915

gnn.gnn_layers.1.graph_conv.weight f4 [32, 32]
00000000: 6453 9c3d 8cbd 033f d850 5dbe 655d ffbe
00000010: 1829 1bbd ac35 203f d937 823d 7a58 163d
00000020: 0013 39be 9aca 60be 45b9 94bc ae01 0fbe
00000030: 3ad5 c2bd 5056 f4bc 898b 30bc d291 55bc
00000040: b125 d6bc 1941 60be 10ba f33c 2f9c b4bb
00000050: 69f2 e53c 0c13 6abb fcff d13d 6db2 303d
00000060: 8623 193d 9d32 133d ad0d 53bd c912 4c3e
00000070: b559 4c3e 0bdd f23d 739d 583d 0c46 37bd
00000080: f71f cf3d 8d24 9ebc 6009 413e 5d82 f03c
00000090: 5c2c 103e bd8d 9abd 5f64 37bb 4b52 9ebe
000000a0: 53a7 c1bc e489 23bd 5289 dd3c a8a4 583e
000000b0: 2be2 9b3e 5878 71bd 946f a33b 8473 113c
000000c0: e461 663e e879 c2bc 74fb 4abc 6646 ee3c
000000d0: 9b4c b8bd 3782 ba3b a377 623d 3936 0cbc
000000e0: c5db 283a 2f6a 2d3c 2894 d9b9 7ef8 1b3d
000000f0: 9814 82bb 010d dabc 4b73 113e a8af d53d
00000100: aab1 65bd 96d4 eabd 5250 823d c5c1 e2bd
00000110: ffd8 bbba be5f 333b 6d0a 28bb 3453 1dbd
00000120: c6e1 323d 2573 dbbc 30db 183d 6ace a83d
00000130: e04e 81bd 833b eebc 0463 86bc aa43 213b
00000140: 7ba7 c2bb 5887 1d3c 7970 283c 61ce 55bc
00000150: dbbb 6f3d 70b8 bc3c 4b80 e3bc a344 39bc
00000160: 8be1 39bc 20bd fabe 8548 b2bc 1ffd 673d
00000170: e9ad 523d bbad 053e 60be acbd d9ab eb3d
00000180: 82c4 30bd 0efa bfbc d323 34be 87d6 39bd
00000190: 71b8 b4bd 679e ddbe 1de3 7cba 1d20 06be
000001a0: abfb 2ebd f73b 73be 7708 ccbc 4661 febd
000001b0: 4e02 c4bd 4e6c 823d 2858 a93b 875a f4ba
000001c0: d903 2fbd a9a7 cc3b 7f4d 08bc c3a8 f43b
000001d0: bfe6 3bbd 5d24 0ebc f65a 8ebd eb6b 25ba
000001e0: 48cb 3cbc 6ace 263c b7e4 fe3b 58d4 e7bc
000001f0: 75e5 503c 07ae 81be 40c1 17bf a4f7 a9bd
00000200: b1d2 1e3b c04e 983f 020b 943e 6fff acbe
00000210: f889 783e 8e5c a83c 3727 fe3d 9e3c e83d
00000220: 4167 1e3e 85e2 163e ef1a debb 883f 723e
00000230: 8c57 1abd 8ef0 dc3d 986c 0e3c 46f0 bf3c
00000240: ff69 363b 7665 a43c b62e 08bc dd33 a93c
00000250: 7d33 cf3c e19f 82ba c535 a03d 4036 203c
00000260: 5a04 c03c caa1 fcbc bb51 043d 3b97 debe
00000270: 577b 493f 3db6 e53e e88b 7e3e 64b0 9dbd
00000280: 3406 96bb efff 06bc b05e f23c 48ba c9bb
00000290: 95cf 853c 15f9 b73b a82e 23bc 595e 3ebd
000002a0: 2e1c d9bb 3df9 043d 509a 8d3b c012 933d
000002b0: 7b87 b6bc cc09 42bb f085 bb3c 841d f43a
000002c0: c098 90be f0d9 153c 1536 0a3b 99c4 35bb
000002d0: 981f 0abc dac5 91bc eca1 5b3c b158 14bb
000002e0: 4427 bebd 1b09 5f3c 9809 413c 2e70 bcbb
000002f0: 6d40 c7ba 1dfd 90bc 8bb1 ff3d f5ef 1a3b
00000300: b092 47bc 5a28 f43c 4369 82bc e5e7 abbc
00000310: 0337 723b b69e e53b 2116 77ba 0c0d 3fbb
00000320: a0f6 6f3d 13ec 053d 04d3 fc3a 0789 0abd
00000330: 6359 e03c dce7 f73c 4fbe ca39 a4cd ba3a
00000340: f51a 56bd 13c6 fc3b 95e2 043b fc60 c7bc
00000350: 8513 1ebd 915d 13bc 23a5 01bd 852b 9939
00000360: 4e7a 82ba 6bec 74bc ae73 6bbb ee81 dd3d
00000370: 8faf bbbb d65f e23c 1d6c d2bd bc27 05bd
00000380: 5ca2 4cbd d1b5 893e e328 883e 143b 58be
00000390: 751f cfbd 1a2e 813d 5d19 273d fc90 aa3d
000003a0: 848f 4d3d 6f07 173e 5ed1 a83b 7ae0 04bc
000003b0: bc58 aabd 9aba 7f3d d267 173d 7099 c63a
000003c0: 6928 833c fecc 03be f069 f73b ab28 acbd
000003d0: 69d9 083e 655a 013d 9657 0b3e e895 793c
000003e0: 137d 0d3d 690a 85bd e9cc 64bd 70ef 5cbc
000003f0: b172 bb3d 389e 2e3e bfea 3c3e 6483 663d
0.07633093 0.514611 -0.2161287 -0.49875942 -0.037880987 0.62581897 0.06358308 0.03670547
-0.18073654 -0.21952286 -0.01815475 -0.13965484 -0.09513326 -0.029826313 -0.010775455 -0.013035255
-0.02614102 -0.21899833 0.029751807 -0.0055117826 0.028069692 -0.003571692 0.10253903 0.04313891
0.037387393 0.03593694 -0.051526714 0.19929041 0.19956096 0.11858567 0.05288453 -0.044744536
0.10113519 -0.019304538 0.18851233 0.029359037 0.14079422 -0.07546566 -0.002798341 -0.3092216
-0.023639357 -0.039926425 0.027043018 0.21156561 0.3044599 -0.05895266 0.0049876664 0.008877639
0.2249828 -0.02373977 -0.012389053 0.029086303 -0.08998986 0.0056917924 0.055289876 -0.00855785
0.00064414396 0.010584398 -0.0004149985 0.038078777 -0.00396974 -0.026617529 0.14204137 0.104338944
-0.056077637 -0.11466329 0.06362976 -0.11072115 -0.0014331638 0.00273703 -0.002564098 -0.038409427
0.043672346 -0.026788304 0.03731841 0.08242495 -0.06313872 -0.029081112 -0.016404636 0.0024606981
-0.0059403754 0.009614788 0.010280722 -0.013049693 0.058528762 0.023037165 -0.027771136 -0.011307868
-0.011345278 -0.48972416 -0.021763096 0.05663788 0.051435385 0.13054554 -0.08434749 0.11507387
-0.043156154 -0.023434665 -0.17591791 -0.045370605 -0.08824242 -0.43284914 -0.00096468796 -0.13098188
-0.042720478 -0.23753344 -0.02490638 -0.12420897 -0.09570752 0.06368314 0.0051679797 -0.0018642702
-0.04272828 0.0062455726 -0.008319258 0.007466407 -0.045874353 -0.008675662 -0.06950943 -0.00063103315
-0.011523075 0.010181049 0.00777873 -0.028299496 0.012750019 -0.25328085 -0.5927925 -0.08299187
0.0024234469 1.1899033 0.28914648 -0.3378863 0.24271381 0.020551946 0.124098234 0.11339687
0.15469076 0.14734848 -0.006778113 0.23657048 -0.037681147 0.1078807 0.008692883 0.023430001
0.0027834175 0.020067912 -0.008311918 0.020654613 0.025293106 -0.000996586 0.07822756 0.009778559
0.023439575 -0.030838866 0.032304507 -0.43474755 0.78703827 0.448656 0.24858057 -0.076996595
-0.004578376 -0.00823973 0.029586166 -0.0061562397 0.016334334 0.0056144097 -0.009959854 -0.046476696
-0.0066256737 0.032464255 0.004321374 0.07181311 -0.022281399 -0.002960789 0.022891015 0.0018624519
-0.2824154 0.009146199 0.0021089364 -0.002773559 -0.008430384 -0.017794538 0.013405304 -0.0022635872
-0.09284833 0.013613011 0.0117820725 -0.0057506775 -0.0015201695 -0.017698819 0.124850355 0.002364156
-0.012180969 0.029804397 -0.015919333 -0.0209846 0.003695906 0.007007445 -0.00094256 -0.0029152064
0.05858481 0.03269584 0.0019288962 -0.033822086 0.027386373 0.030261926 0.00038670233 0.001425196
-0.052271802 0.007714042 0.0020276655 -0.024338238 -0.038592834 -0.008994476 -0.031651627 0.0002921486
-0.0009954663 -0.014948945 -0.0035927105 0.10815798 -0.0057277153 0.027633589 -0.10274527 -0.032508597
-0.049959525 0.26896527 0.26593694 -0.21116287 -0.10113422 0.06307621 0.040795673 0.08328435
0.050185695 0.1474893 0.0051519116 -0.00811016 -0.08317706 0.062433816 0.036964245 0.0015151929
0.01601048 -0.12871167 0.0075504705 -0.08406194 0.13364185 0.031580348 0.1360763 0.015233494
0.03454311 -0.06496126 -0.05585948 -0.013484821 0.09152735 0.17052543 0.18448924 0.056277648

gnn.gnn_layers.1.graph_conv.bias f4 [32]
00000000: 76e7 1dbe 8f65 7dbd 0762 e23c 82c4 14be
00000010: 26a1 e5bc a894 75be 2fa7 28bc 5eec f4bc
00000020: 88c9 213f ae64 923d ac7b ffbb 2347 273d
00000030: 3d9c b5bc 757c f83e dcbf 843c e5e1 a03b
00000040: bbd2 06bb f3ca 27bc 58f0 d3bc f7fa 423d
00000050: 8816 bd3b 6c78 c63d 9e73 1fbd 1682 abbb
00000060: 7386 643d bee4 9a3d 3c99 9d3c 4004 263d
00000070: 6a92 40be c31c 933b 5e37 e13d f846 b7bd
-0.15420327 -0.061864432 0.027634634 -0.14528087 -0.028030943 -0.23982489 -0.010293766 -0.029897865
0.6319814 0.071481094 -0.0077967253 0.040839326 -0.022169227 0.48532453 0.016204767 0.004909741
-0.0020572382 -0.010241258 -0.02587144 0.04760262 0.005770508 0.096909374 -0.03892862 -0.0052340133
0.055792283 0.0756316 0.019238107 0.040531397 -0.18805853 0.0044895126 0.109968886 -0.08949083

gnn.gnn_layers.1.res_connection.weight f4 [32, 32]
00000000: 6c47 e73c 7327 3dbc 7d03 983c eeb9 5abd
00000010: ee54 893d 8c54 09bc 37d6 1f3b 2f5b 803c
00000020: 8cb7 da38 3daa c6bb 97ff 9c3b 7c78 043d
00000030: d02e 0d3d e325 c93c baea 59bb 2d0e 5c3d
00000040: f20a cebb 3bc4 803d c222 a9bc b4c0 0ebe
00000050: 2570 d7bb 1663 e13c 7c28 153d a8e2 34bc
00000060: f2df fcbc 7d94 253e 552c c83c 7494 163b
00000070: e353 ac3c b51f 303d 44d9 163d b818 05be
00000080: 790d a4bd 965b 183e 98f9 093d 9853 d1bd
00000090: d9fd 3c3e 9786 ac3c 26f8 9bbc ec4d c63d
000000a0: c3a8 fcbb a743 4c3c 9523 c33c 8795 1dba
000000b0: 35f3 8e3e d422 f5bb 3f74 aebd 148d be3d
000000c0: 545d 603c b12a d93c f15a 68bd 8968 07be
000000d0: 8f62 763c f401 973c 9937 603c 69f7 86b9
000000e0: 9871 56bd 82e3 a4bd 7e2c 1cbc 3e15 76bd
000000f0: cb30 8fbe f6b9 3e3e 4d65 4cbe ce7b e9bd
00000100: 9945 713e c150 22bd a88b ee3d a641 32bb
00000110: 03ae 223f 9082 d4bc 635b 58bc 78c7 973d
00000120: 50f6 f0ba 38dd c4bc 7256 cf3b 3d5a 0bbb
00000130: c535 9bbe 545c 4abe 95e2 72be 4689 9d3e
00000140: 8c7a 343b 0a97 8c3c 7d9e e0bd 3816 bc3e
00000150: b97a 673b 94a9 a7bc 62df 7a3e bfe6 a13c
00000160: 8e45 853e 8d8f f1be cf1c a3be 5121 9d3d
00000170: 8a65 043f 8504 363c e76e b03d f2c6 cebe
00000180: fd36 13be 6b75 9d3c e048 3cbd 39aa ca3d
00000190: b1dc 38be 81dc 8bbb 5121 4a3c 7c88 b2bd
000001a0: 6359 a5ba 0090 303c d950 a5bd c95b fcba
000001b0: 62f6 eebd 1307 a4bd ebee 893c a95d fabc
000001c0: 2ed4 f2bb bc96 243e 4324 0b3e 7035 1b3d
000001d0: 827e 4ebc 43b7 0f3d af4d 47bd e9c3 61bc
000001e0: 58fc 29bd 2ba9 1d3e a33a a83b 857e 09bb
000001f0: ef03 083d f68b 1d3d 3a5f 703e 4046 873e
00000200: 90da b6bc 98fe 993a a533 cd3a 181b 56bd
00000210: 22ec ac3b 9aad 5fbb a6c3 ffba 9049 1abc
00000220: 06e3 fa35 193d c43b b2f5 cc3c 9165 a3ba
00000230: 23a7 22bc 7424 a8bd ca9d cbbd d209 e2bd
00000240: b5c1 67bb 55ae dabd 2dd4 3e3c e144 783c
00000250: 8e23 fbbb 5973 653d 26e8 93bd d330 173b
00000260: 1eac db3c 5ab6 b93d be4e 803d 5e77 d23c
00000270: 0fd6 01bb ee59 46bc 7aeb a4bc 96dd 80bd
00000280: 8b19 b63c e79c 223e 1e46 8c3e 67a6 44bd
00000290: bb30 583d b6b3 fbbc dabc c3bc 8e87 8f3e
000002a0: d6e0 f2bb 3d07 98bc 63c8 dc3c d9c8 273c
000002b0: e2c3 233e c6de 353d c7e5 723c d905 c23d
000002c0: 50ff 22bd e450 3b3d b61c a2bd e9dc dabd
000002d0: 8f6f ac3c 0798 23bd 7ac4 363e 0120 033b
000002e0: f237 753d e696 cbbe 2927 9bbd 1243 a83d
000002f0: 2739 523e 5c0a cb3d 30f0 2ebe 04b9 23bf
00000300: 469e ad3d 4f4f a1bc d092 9c3c b999 cb3c
00000310: 3b3a ce3b 34bc 1c3a 0e12 5cbc 4f30 843d
00000320: 6b89 bbb9 28b6 00b9 fbee d3bb 6be0 8bba
00000330: bfc5 c53c 4ac8 7a3c d4ac 833b 8445 8bbb
00000340: 2c1d f4bb 10a6 993c 0c26 7cbd 3289 463c
00000350: b571 793a 409d 9bbc cc38 943d c624 ae3a
00000360: ae8a 3e3d 29db d03c 8a48 ab3c 14d7 9ebc
00000370: 8d56 1b3d 77b1 3a3d 4575 79bd 6a7c 0cbe
00000380: 04f3 293e 9cb5 673e 02d5 853e 3b3e 0abd
00000390: 39c6 823d a45a 5dbc 421b 8abc 6439 01be
000003a0: 9ea7 253a cdc0 ffbc 5da9 203e fae6 173e
000003b0: c4f5 1c3f 1572 6d3e 22b3 e13e b442 0bbe
000003c0: e7c5 16be 91f2 f0bf 9fa3 70be e92e 29be
000003d0: 7422 6dbc 7472 303f e601 97bd 007f 26bd
000003e0: 168a 773d 0876 533e 0687 5bbe 2f0f 053e
000003f0: 8593 35bd 0156 4c3f d2fb 72be c0b7 c4bd
0.028232299 -0.01154505 0.01855635 -0.053399973 0.06705652 -0.008381974 0.0024389157 0.01566848
0.00010429238 -0.0060627745 0.004791211 0.032341465 0.034468472 0.024554199 -0.003325148 0.053724457
-0.006287926 0.06287428 -0.020646457 -0.13940698 -0.006574648 0.027513068 0.036415562 -0.011040367
-0.030868504 0.16169925 0.024435202 0.0022976669 0.021036094 0.04299899 0.036828294 -0.1299771
-0.08010382 0.14878687 0.033685297 -0.10221022 0.1845621 0.021060271 -0.019039225 0.09682831
-0.0077105477 0.012467301 0.023820678 -0.0006011356 0.27919927 -0.0074809585 -0.08518266 0.09304252
0.013694126 0.026509615 -0.056727353 -0.13223471 0.015038147 0.018433549 0.0136851305 -0.00025742807
-0.052354425 -0.08051206 -0.009532092 -0.060078852 -0.27966914 0.18625626 -0.19960518 -0.11400567
0.23561706 -0.039627794 0.11647731 -0.0027199774 0.6354677 -0.025941163 -0.013205382 0.074110925
-0.0018383954 -0.024031267 0.0063274438 -0.0021263503 -0.3031446 -0.19761783 -0.23719247 0.30768794
0.0027538864 0.017161865 -0.10967729 0.36735702 0.003532095 -0.020466603 0.24499276 0.019763349
0.2602963 -0.47179833 -0.31857917 0.0767237 0.51717436 0.011109476 0.08614903 -0.40386158
-0.14376445 0.019221028 -0.045967937 0.09895749 -0.18052937 -0.0042682295 0.012337045 -0.087174386
-0.001261514 0.01077652 -0.08072061 -0.0019253428 -0.116680875 -0.08009162 0.016837558 -0.030562239
-0.0074105477 0.16073126 0.13588051 0.03789276 -0.012603404 0.03508688 -0.04865807 -0.013779619
-0.04150042 0.15396564 0.005133943 -0.0020979953 0.033206876 0.038463555 0.23473826 0.26420784
-0.022321016 0.0011748848 0.001565565 -0.052271932 0.0052771727 -0.0034130574 -0.0019513264 -0.009416953
1.8692524e-06 0.0059887287 0.0250195 -0.0012466182 -0.009927544 -0.08210078 -0.09942205 -0.11037029
-0.003536326 -0.106777824 0.011647266 0.015153141 -0.0076641506 0.056018207 -0.07222013 0.0023069873
0.02681547 0.09067984 0.06265019 0.025691684 -0.0019811427 -0.012106402 -0.020131815 -0.06292264
0.022228977 0.15880166 0.27397245 -0.048010256 0.052780848 -0.030725341 -0.023893762 0.28033108
-0.0074120564 -0.018558139 0.02695102 0.010240757 0.15992692 0.044401906 0.014825291 0.094737716
-0.039794266 0.04573144 -0.079156324 -0.106866665 0.021049289 -0.039939906 0.17848387 0.002000809
0.059867807 -0.39763564 -0.075758286 0.08215918 0.20529614 0.09914085 -0.17083812 -0.63954186
0.08477454 -0.019691138 0.019112974 0.024853574 0.0062935627 0.0005978972 -0.013432039 0.06454527
-0.00035769804 -0.0001227489 -0.0064676977 -0.001067174 0.024142144 0.015306542 0.0040184055 -0.0042502303
-0.0074497666 0.018755943 -0.06155972 0.012117671 0.000951554 -0.018995881 0.07237396 0.0013286106
0.046518974 0.025495129 0.020908613 -0.019389667 0.037924338 0.0455794 -0.060902853 -0.13719335
0.1659661 0.22627872 0.26139075 -0.033750754 0.06385464 -0.01351038 -0.0168587 -0.12619549
0.00063192274 -0.031219864 0.15689607 0.14834204 0.6131251 0.2318805 0.4408198 -0.13599664
-0.14723931 -1.8824025 -0.23499916 -0.16521801 -0.014473546 0.6892464 -0.07373409 -0.04064846
0.060434423 0.20650494 -0.21438226 0.12994073 -0.04433014 0.7981873 -0.23728874 -0.0960536

gnn.gnn_layers.1.res_connection.bias f4 [32]
00000000: 452f dcbd d971 10bd bbd3 75be e195 f83d
00000010: 3d85 263d b75b d5be db45 7c3c 864c afbf
00000020: 6a0f 53bd 4d82 183e 5e3a 233d c1e9 20bc
00000030: 0a7c e03d 136b 26be 2743 82ba ef83 8bbb
00000040: a44e 483c bb57 1abe 8a44 98bc 9329 4abd
00000050: 7f91 1b3d 9c07 443d 686c 16bf 6a2b 0d3c
00000060: bc04 53bc 06de 8fbe 99f6 0ebd b0e9 2b3c
00000070: 0787 b63e fd1f 1cbd 557e fdbd 219b 683d
-0.107512034 -0.035264824 -0.2400655 0.12137962 0.04065441 -0.41671535 0.015397514 -1.3695228
-0.051528372 0.14893456 0.039850585 -0.009821356 0.109611586 -0.16251783 -0.0009938226 -0.004257671
0.012225781 -0.15072529 -0.01858737 -0.049356055 0.037980553 0.04785882 -0.58759165 0.008616308
-0.012879547 -0.28099078 -0.034903143 0.010492727 0.35649893 -0.038116444 -0.123776115 0.056788567

gnn.gnn_layers.1.bn_layer.weight f4 [32]
00000000: f0b1 303e 031d c73e b90b 09bf 66a1 25bf
00000010: f3c1 bebc 3969 93bf 03c8 b4bd 0410 373f
00000020: b070 263f 9a2e a83e 5a5b 67bd 49a2 933e
00000030: f2f0 c43e 42e5 273f 22f5 5dbd 8883 b03a
00000040: 8cf7 323e 472d 24be deef 843c 377c 02be
00000050: e1b7 aabd 50b4 febc 9ba3 0a3f 436c 7e3c
00000060: 8165 8ebd 2df7 eb3e c68e ef3c 3b3d 8abe
00000070: d75d cabd 89f6 393d 2365 753f a696 21bd
0.17255378 0.38889322 -0.5353351 -0.646994 -0.023285842 -1.1516486 -0.08827212 0.7150881
0.650157 0.32848054 -0.056483604 0.2883475 0.38465077 0.65584195 -0.054188855 0.0013466934
0.17477244 -0.16032897 0.016227659 -0.12742697 -0.08335853 -0.03109184 0.5415589 0.015528741
-0.06952954 0.46087018 0.029242884 -0.2699984 -0.0988118 0.04540113 0.9585745 -0.03945031

gnn.gnn_layers.1.bn_layer.bias f4 [32]
00000000: 2053 b4bc bc17 2f3e 2e76 80be d4d5 b5be
00000010: ba76 cbbd 3c05 c43c e348 a53c 2021 2c3e
00000020: bfa7 4bbe 560a ab3d 0546 c3bc 333b a93e
00000030: 66fb 3c3e a57f 38be 61b0 fd3b 2b8b 14bc
00000040: 36c5 41be 2545 7a3d 017d 81bd 52ab f6bc
00000050: 29fe 94bd ca60 81bd 073a 60be 52a8 693d
00000060: 0369 223c 405c bc3e 6fb5 83bc 235c 123e
00000070: 892e 22be bc3b 0f3e 3652 59bd 2f07 89be
-0.022012293 0.17098898 -0.25090164 -0.355147 -0.09934755 0.023928277 0.020176357 0.16809511
-0.19888209 0.08351581 -0.023837099 0.33052978 0.18455276 -0.18017443 0.0077419733 -0.009066383
-0.18922886 0.061101098 -0.06322671 -0.030110989 -0.0727504 -0.06317289 -0.21897136 0.05704529
0.009912732 0.3678913 -0.016077725 0.1429296 -0.15838064 0.1398763 -0.053056918 -0.26763293

gnn.gnn_layers.1.bn_layer.running_mean f4 [32]
00000000: 6602 a63e 28d0 c33f ab6f 5c3f 991b 0040
00000010: 70c5 073f fe60 b33f 568f 9f3e 373b d93e
00000020: 6dc0 933f 3fee 363f 0942 363e 48ca 463f
00000030: 5b1d b43f dd27 dd3f aab2 283e cc45 6a3d
00000040: 141c 9f3e 7dca 153f efa0 f73d 9dee 143f
00000050: 14ad 313f a3b5 a43d 0da7 103f 1b57 233e
00000060: 6861 c03d eb4a 993e 6235 173e 2b69 163f
00000070: 0ebf 003f 2771 bc3e 9492 f83e b669 133e
0.32423705 1.5297899 0.8610789 2.0016844 0.5303564 1.4013975 0.31164044 0.4242799
1.1543099 0.71457285 0.17798628 0.77652407 1.4071459 1.727779 0.16474405 0.05719547
0.3107611 0.585121 0.120912425 0.58176595 0.6940472 0.08042457 0.565049 0.15951197
0.09393579 0.2993997 0.14766458 0.58754224 0.50291526 0.36805078 0.4854933 0.14395794

gnn.gnn_layers.1.bn_layer.running_var f4 [32]
00000000: 27a6 4d3f 66d4 8940 3ae4 e440 6ee0 8041
00000010: 2fff c73f 3c40 d240 2e30 ef3e e5cd 3e40
00000020: a90a 9a40 26fc 973f 7780 b73d d42d 6640
00000030: ba86 0441 0320 0b41 87da 283d e1cc 6d3c
00000040: e296 b03e 0bfc c43e 1b0f 573d 311b 0340
00000050: 4c90 9f3f 0864 1c3d d962 3340 8850 8b3d
00000060: ff4e de3c aba6 903f d46f 943d 1322 953f
00000070: cda4 0e40 20e0 c13f d11f 4340 0dc9 cd3e
0.80331653 4.3071775 7.1528597 16.109585 1.5624751 6.570341 0.46716446 2.9813168
4.8138013 1.1873825 0.089600496 3.5965471 8.282892 8.695315 0.04122403 0.014514179
0.34490114 0.38473544 0.05250464 2.0485346 1.2465911 0.038181335 2.8029082 0.068024695
0.027137278 1.1300863 0.07247892 1.1651024 2.2288086 1.5146523 3.048817 0.40192452

gnn.gnn_layers.2.graph_conv.weight f4 [32, 32]
00000000: 6487 133d 96f1 963c c3bc 95bd 5b40 223c
00000010: 698e 4d3d e4a3 43bc 98df 253b 8560 dabe
00000020: 8f42 2abf d5af cc3d ac3f 8fbd d6c9 3c3e
00000030: ffc5 f53d d1be 153e 05a5 c93d 12f7 0a3d
00000040: fa60 cf3c ebdf 28be e354 1fbc 99cd dbbc
00000050: 65f3 df3d 758f 9f3d 8a8b 493d 84fe 08bf
00000060: 37e0 1f3d 2ce5 de3c 7160 f63c 561f 12bd
00000070: 4fc6 e3bd 3fa9 af3b 016c 803e c823 8f3c
00000080: c3af 55bd abab c1bd b46f 603e e8ba 173f
00000090: b35d a1bd b6e1 9ebc cc2f 2dbf c759 f73b
000000a0: 3859 0ebd fb46 2f3d 0853 33bc 3ded 03bf
000000b0: 919d e0bd fb9b 7cbe c994 be3d b967 773e
000000c0: cad3 12bd 3481 45be 6efe 053e ba1e 023e
000000d0: c876 ffbb b11e 8ebd d3c6 4ebe 35a5 013d
000000e0: 3feb fcbe 8134 ad3d 8b6e 9ebe 0de1 af3e
000000f0: 7b63 e73e c5b7 a3bd 76f8 d9be 5f0b aa3e
00000100: a9a0 e03c c1db 39be 5cb8 a0be 547e 92be
00000110: d509 4b3d 2fc7 6bbe 250e a33e 4bb4 b2bd
00000120: 00e3 e7be 86e1 f5bc aff4 1abf fed3 eebb
00000130: c2f5 053e 3537 863e 4b82 babb c5d6 7abd
00000140: 917c 3d3d 9475 dd3d 6ff4 86bd 4891 b8bd
00000150: cdba 8c3a 2d38 383e efa2 123d 06f8 adbe
00000160: 105e 23be 843d 92bd 359e d63c a6e1 31bf
00000170: f53c 71be 241c 90bd a35e e83d ab79 d93d
00000180: f5f2 48bb a59b 803d 4e74 8bbd cb54 4b3e
00000190: 80fb 2fbd 00a5 653e dc05 edbe 235e 923c
000001a0: 2f97 7ebe 6745 863c f5a2 973e ee92 e0be
000001b0: 320f 8fbe 31c7 1cbf 16be f6bd 97c6 803c
000001c0: 3cb3 23be 1fe4 acbd a628 1f3b 4b9b ad3d
000001d0: c110 d5bd a491 b63e c901 6abe 3887 463d
000001e0: 6542 bcbd da8b 51be 6d59 a1be 789f 92ba
000001f0: 1328 f33d b7f4 6a3c 3fea 5fbe f607 b83c
00000200: 3dff 7cbd 5052 7cbc 9df9 883d cb42 3d3c
00000210: 2908 993b 9e1a 72bd 9dd1 9d3d f72d 42bc
00000220: 49b8 eebd 10fd ddbd 51af 6d3d 90b8 3f3d
00000230: 9d7b 1b3d ca52 903d f128 eb3d 6701 aab9
00000240: 2ac0 79bd 4dc9 c93c da1d 313b 092c 8e3c
00000250: 5115 f5bd e737 aa3d 47b8 0b3c 2d2e 433d
00000260: 50ca 41bc 7c7d a33d 1603 3dbd 73e5 8cbd
00000270: 766a d43d 58e3 2dbb 0f57 213e 5b61 a7bd
00000280: 82b4 7a3c 2090 2d3d e84b 8ebe 9c74 9ebd
00000290: 7026 2e3e b408 a73d 7e6a 363f 7f46 fd3c
000002a0: 1274 273f d543 413e 3ecf d73e d0be ba3e
000002b0: 4718 6f3e 9d8e a73e 3c00 363e 8f44 9c3e
000002c0: 1a4e 943d add6 eb3d 64ed 05be 078d d3bd
000002d0: eae1 853e c259 f9be 0d22 843e d244 80be
000002e0: 69f7 0a3f 401a e03d 7020 413e 3b25 c83d
000002f0: 2c88 23be 160b 803d c7ef 9f3e 920d 80be
00000300: 72c2 1ebc 6879 a83c 39fc 5abd fa1a 7ebc
00000310: 86fe 5d3c d3c2 8a3c 55f7 033e 3c0d dabb
00000320: 3f45 7d3b edf6 533d b2f5 523c 3199 d83c
00000330: 68c9 6a3d 82f4 a13d ab65 97bd e16d 26bc
00000340: cbae ff3b c5d7 473d f946 b13c 1206 dcbc
00000350: 79e6 3d3d 0cbd 67be 7576 2f3d 213c 8e3b
00000360: 927d eb3d 32b6 67bb f69d 643d eecd 313d
00000370: 5d3a ddba 0973 ac3c e5eb e73c 5015 46bb
00000380: 37d6 163e 3f1c 1b3c 8b7a 4abd fd23 2cbc
00000390: ed54 ec3d 0666 6cbe f28f ac3e cc6b 12bd
000003a0: 97fb e13c e8ca 033f 52a6 82be e61e a23e
000003b0: 575b 103e cca9 cf3e 7a5c a13e 6ca7 173e
000003c0: 25d8 473e dd61 6bbe c7ef d2bc aac9 bfbd
000003d0: 6d01 e73e b2d1 2e3f 99b7 733e 743e 85bd
000003e0: 1a02 003f 50ef 46be d87a 37be b31d 713e
000003f0: 2d75 c9be 18a7 903b 1bdb 763d 34af 73be
0.03601779 0.018425744 -0.07311394 0.009903039 0.05018464 -0.01194093 0.0025310274 -0.42651764
-0.6650781 0.09994475 -0.06994566 0.1843637 0.120006554 0.14623572 0.09845928 0.03392703
0.025314797 -0.16491668 -0.009724828 -0.026831435 0.10935096 0.07791034 0.04920534 -0.5351336
0.039032187 0.027208887 0.030075284 -0.035674416 -0.11121809 0.005360752 0.250824 0.017473117
-0.052169573 -0.09456571 0.21917611 0.5926957 -0.078792 -0.019394737 -0.6765106 0.007548544
-0.034753054 0.0427923 -0.010945089 -0.5153387 -0.109675534 -0.24668877 0.09305722 0.24160661
-0.03584651 -0.19287568 0.13085338 0.12707034 -0.0077961423 -0.06939448 -0.20193033 0.031651694
-0.4939823 0.0845728 -0.30943713 0.34351388 0.45193085 -0.07994036 -0.42572373 0.332118
0.027420359 -0.18150236 -0.31390655 -0.28612006 0.049569923 -0.23025201 0.3184673 -0.087257944
-0.45290375 -0.030014765 -0.6052961 -0.007288455 0.1308203 0.26213995 -0.0056918017 -0.061239976
0.046261374 0.10813442 -0.06589591 -0.09012085 0.0010736823 0.1799018 0.035799917 -0.3397829
-0.15953851 -0.071406394 0.026198486 -0.6948494 -0.2355841 -0.070366174 0.113461755 0.106189094
-0.0030662392 0.06279687 -0.06809293 0.19856565 -0.04296446 0.22426224 -0.46293533 0.017867154
-0.2486236 0.016390515 0.29616514 -0.43862098 -0.2794128 -0.6124144 -0.12047975 0.015719695
-0.15986341 -0.08441948 0.0024285703 0.084768854 -0.10403586 0.3565799 -0.22852243 0.0484688
-0.09192351 -0.20463505 -0.3151354 -0.0011186441 0.11872878 0.014340571 -0.21866702 0.022464734
-0.06176685 -0.015400484 0.06688235 0.011551569 0.004670162 -0.059107415 0.07705996 -0.011851779
-0.11656243 -0.108392835 0.058028523 0.046806872 0.037959684 0.07047041 0.11482418 -0.00032425972
-0.060974278 0.02463212 0.002702585 0.017354982 -0.119669564 0.08311444 0.008527822 0.04765146
-0.01182802 0.079829186 -0.04614552 -0.068797015 0.10371868 -0.0026533213 0.15755866 -0.08172866
0.0153018255 0.042373776 -0.27792287 -0.07737085 0.1700685 0.08155957 0.71256244 0.030917404
0.65411484 0.18873532 0.421503 0.36473703 0.23349105 0.32725993 0.17773527 0.30521056
0.07241459 0.115155555 -0.13078839 -0.10329633 0.2614892 -0.48701292 0.2580723 -0.25052506
0.5428377 0.10942507 0.1886003 0.09772726 -0.15969914 0.062521145 0.31237623 -0.25010353
-0.009689914 0.020565704 -0.053463195 -0.015509361 0.013549453 0.016938603 0.12887318 -0.0066544097
0.003864601 0.05174916 0.012875961 0.026440235 0.057320982 0.07907964 -0.073924385 -0.010158033
0.0078028194 0.04878976 0.021640288 -0.026858363 0.046362374 -0.2263071 0.04283758 0.004340664
0.1149856 -0.00353564 0.055814706 0.04340928 -0.0016878356 0.021050947 0.028310725 -0.0030225106
0.14730154 0.009467184 -0.049433272 -0.010506627 0.11539636 -0.23085794 0.33703572 -0.035747334
0.027585788 0.51481485 -0.25517517 0.316642 0.14097343 0.40559232 0.31515867 0.1480996
0.19516046 -0.2298655 -0.0257491 -0.09364636 0.45118275 0.6828872 0.23800506 -0.065060526
0.50003207 -0.19427228 -0.17917955 0.23546486 -0.3934721 0.0044144504 0.06026755 -0.23797303

gnn.gnn_layers.2.graph_conv.bias f4 [32]
00000000: 771b 8dbe 6cd6 3f3c a774 b73d cc27 d63e
00000010: 085d e93c 72e6 493e d2d9 5c3e f2cf 7d3c
00000020: 9115 203c 6297 2a3e addb 1b3c 1d6b 16be
00000030: a660 623e c754 2b3e ff2e 493c 73f2 de3e
00000040: 439f ea3d 3ee1 353e e034 d03d 16f4 57bd
00000050: 9eca f73d 4396 e8be a348 c13e 4d04 d93d
00000060: a203 773e fba1 fc3d 0925 863c 4fb6 fe3d
00000070: df4e 553f 7ca5 75ba f383 bb3d 32cb 9bbd
-0.27560017 0.011708837 0.089577965 0.41827238 0.028486744 0.19716814 0.21567467 0.015491473
0.009770767 0.1665931 0.009512824 -0.14689298 0.22107181 0.16731559 0.012279271 0.4354435
0.11456158 0.17761704 0.10166335 -0.052723013 0.12099193 -0.4542714 0.3775073 0.105965234
0.2412248 0.12335583 0.016375082 0.12437116 0.8332347 -0.00093706674 0.09156027 -0.07607116

gnn.gnn_layers.2.res_connection.weight f4 [32, 32]
00000000: 5fbe ffbb 0a58 0f3c 87bf 90bd ff2d a63c
00000010: f6c9 18bc 19bb 16bd 207b bd3c dedb 033d
00000020: 54c0 15bc f032 133e e413 0b3b 44e7 163b
00000030: d545 9fbc 2fde 1d3c 1cce 28ba 0d79 b738
00000040: e85f 13bb b202 423c fcaf 86b9 e567 ae38
00000050: 8d06 d0bb 2570 2abb 3f1e c23d bd3a bc3a
00000060: 4a09 673a 66e3 893d 7642 3b3a 3ad1 bfbb
00000070: 0e16 24bd 96cd 033d d0bf 333e c2ea 00bc
00000080: 7125 e13c 614f b9be 39ea 76be ecbd abbe
00000090: 6e0e 413e fb92 c83c d7ea 513d f97f dd3d
000000a0: caf6 41bd d8ca 33be a658 c83c 4155 d43d
000000b0: 5164 633e d5e2 3ebe 6781 913c 53c9 0c3a
000000c0: f472 3bbd 7efe 3fbd ceb3 0dbc cc0e 14bd
000000d0: cfc6 963c b194 cfbb ae0e 963d 3ce2 22bc
000000e0: c66c 973c eef4 9dbc 9b36 013c 15ec bf3c
000000f0: 0f94 1ebe e615 66be 6a8f d83c 0c8a 103d
00000100: 46ca 15bc 0abd 0b3e 2dbd 26bd 539c de3c
00000110: fd37 69b9 ad89 2bbc 907b d3bc 49d2 eb3d
00000120: 93ad ff3c f33c 9e3d 55ed b53c fa74 cc3b
00000130: 64c9 4dbd f480 69bd 2019 1fbb 18a9 6dbc
00000140: 7768 73ba d4ca 283d e5ed 7d3c c0c6 6b3c
00000150: 5a94 943d 39ff f8bb bcef 4c3d bf1a cd3b
00000160: 69be 92ba 89c7 023c f4cc 11bb 4d82 63bd
00000170: 426d 23bd 8a57 8c3c a440 8cbd f892 b5bc
00000180: 4ebf 70bd e9b0 cd3e b09f f63d 0dbe ea3d
00000190: a0f4 a83d 4c5a 53bd 863d b8bb 3ca0 47be
000001a0: 2245 67be 8b95 a83d 26d6 e7ba 689b 90bd
000001b0: 9227 b6bd b241 62bc 23fa 31ba e488 93bb
000001c0: 9f01 723b a6f5 f03d 92e0 59ba 94bd 953c
000001d0: 9f6b c8bb 86ab cb3a 1823 ad3c 6063 b93b
000001e0: befc 71bc ee8a b6bd 9bdd 95bb 6529 cbbd
000001f0: d13f f1bb 9fa1 9dbd f82b e83d 51a7 803c
00000200: e522 adbb 403f 41bb 438a 903d 76aa 67bc
00000210: 3ab2 3f3c aded 31bd 5917 cabb 0324 98bd
00000220: 57eb 18be 74c2 b6bc b22b b43b 74c4 323d
00000230: b43d cbbd 8f28 063d f34b b5bb 512e b83c
00000240: 8fc5 fabc 6c59 443c 0452 9439 4dad cabc
00000250: 839c f73c 5573 483c 5ce3 11bd d222 3bbb
00000260: 23d8 8ebc e4fb 70be 974e 203c 96fb a7bb
00000270: 87e2 d4bb 9c25 25bd 89da 563c 6e83 123d
00000280: 95ad 82bd 6a1e ae3b c4eb 9f3c 17b1 8d3e
00000290: ba52 c3bc 0673 92bd 9a95 3a3d 3c05 aabe
000002a0: eae4 d4be 33d0 bc3d 2adc f13c d57d 90be
000002b0: 2cca a8be a6b6 943d 5a41 f53b 47e5 3cbc
000002c0: 3861 cb3d 0c33 0bbd 7ee3 453c 8309 f93c
000002d0: 2ee8 183e 7851 183d b84e ac3d 52eb 3fbc
000002e0: 2ac5 83bc fcdc a8be 9f1f 89bb 87eb 02be
000002f0: 891b 0e3e b5cd 29be 50e9 c83d a346 1b3d
00000300: e4fb 0e3e af46 abbe eb33 1d3d 1f47 b6be
00000310: a84f 93bd 7801 393e 5328 e23c 48bc 453f
00000320: 0e36 213f 36d5 e3bd ef9c 693d 63d2 ca3e
00000330: c45e 563e 9379 47be 838c b43c f9a3 ac3c
00000340: 0cc6 0cbe 5182 e3bd 692a 933c 740d 84bd
00000350: 8d2f f43c ab39 163c ad94 d5bd 7c43 e5bb
00000360: 22e7 9c3c 85c1 883e 09f4 a33c 4a78 123e
00000370: a5fa 893d 0d54 c03d dabd a3be eca5 d2bc
00000380: 9ef7 03bb 1d19 cdbb c04a fabb 0bda a9ba
00000390: 703d 9e3a 788c a3bc be4a 703b e23c 6c3a
000003a0: 2aba 9abb 5c26 8ebb b578 d4ba 4436 6e3b
000003b0: ade8 0ebc 24ab 243c 9017 0f3a ed89 b83a
000003c0: c5e0 b63b d986 14b9 112f 28bb 7a52 beba
000003d0: d7f7 233b 5be8 f838 2224 d73c 9d59 a7b9
000003e0: c590 a337 04ee 89ba 444c 023a c79a 7cbb
000003f0: 1b81 12bb 2ad0 a13a 4912 5b3c e590 0cbc
-0.0078046764 0.0087490175 -0.07067781 0.020285605 -0.009325495 -0.036799524 0.02313 0.032192104
-0.009140093 0.143749 0.0021221573 0.0023026029 -0.019442478 0.009635492 -0.0006439404 8.7486675e-05
-0.0022487585 0.011841463 -0.0002568959 8.3163184e-05 -0.006348437 -0.0026006785 0.09478425 0.0014360767
0.0008813335 0.06732826 0.00071433873 -0.005853799 -0.040060095 0.032178484 0.1755364 -0.007868471
0.027483674 -0.36193374 -0.24112786 -0.33543336 0.1885316 0.024484148 0.05124935 0.108154245
-0.047354497 -0.17557847 0.024456333 0.103678234 0.22206236 -0.18641217 0.0177619 0.0005370576
-0.045763925 -0.046873562 -0.008648826 -0.036146924 0.018405346 -0.006334864 0.07327019 -0.009941634
0.018484484 -0.01928183 0.007886554 0.023428002 -0.15486167 -0.22469291 0.026435573 0.0352879
-0.009142464 0.13646331 -0.040707756 0.02717415 -0.00022241469 -0.010469836 -0.025815755 0.11514718
0.031210696 0.07726469 0.022207895 0.0062395306 -0.05024089 -0.057007745 -0.002427645 -0.014505647
-0.0009285281 0.041209057 0.015498613 0.014390647 0.07254858 -0.0075987843 0.050033316 0.006259292
-0.0011195663 0.007982143 -0.0022247406 -0.055544186 -0.03989912 0.017131586 -0.06848267 -0.022164807
-0.058776192 0.40174034 0.12042177 0.114620306 0.082497835 -0.051599786 -0.0056225685 -0.19494718
-0.22584966 0.08231648 -0.0017687723 -0.070608914 -0.08894266 -0.013809608 -0.00067892874 -0.0045024026
0.0036927236 0.11765604 -0.00083113567 0.018278874 -0.006116345 0.0015538789 0.021134898 0.0056575984
-0.014769731 -0.089132175 -0.0045735366 -0.09920005 -0.007362344 -0.076968424 0.113365114 0.015704783
-0.005283701 -0.0029487163 0.07057621 -0.014139762 0.011700207 -0.043439556 -0.006167334 -0.07428744
-0.14933525 -0.02230952 0.005498373 0.043644384 -0.09923878 0.032753523 -0.0055327355 0.022483023
-0.030611781 0.01198421 0.00028289866 -0.02474084 0.030225998 0.012234529 -0.035617217 -0.002855469
-0.017437046 -0.23533589 0.009784362 -0.005126427 -0.0064967307 -0.04031907 0.013113626 0.035769872
-0.063807644 0.005313684 0.019521601 0.2767417 -0.023843158 -0.07150845 0.045552827 -0.3320712
-0.41580898 0.09219398 0.029523928 -0.28221002 -0.32966745 0.072614 0.007484597 -0.011529273
0.099306524 -0.03398423 0.012078164 0.030400043 0.1493232 0.03718707 0.08413452 -0.01171382
-0.016085226 -0.32981098 -0.0041846777 -0.12785159 0.13877691 -0.16582377 0.09810126 0.03790916
0.13963276 -0.33452365 0.03837959 -0.35601136 -0.071929276 0.18066967 0.027607119 0.7724042
0.62973106 -0.11124651 0.05703443 0.39613637 0.20934588 -0.1947997 0.022039657 0.021074282
-0.13747424 -0.1110884 0.017964559 -0.064478785 0.02980783 0.009169023 -0.10428748 -0.00699657
0.019153181 0.26710144 0.020013826 0.14303699 0.0673726 0.093910314 -0.31980783 -0.025713883
-0.0020136605 -0.0062590973 -0.0076383054 -0.0012958659 0.0012072753 -0.019964442 0.0036665644 0.0009011758
-0.0047218995 -0.004338069 -0.001621029 0.0036348263 -0.008722466 0.010050569 0.0005458528 0.0014079191
0.005580994 -0.00014164615 -0.002566282 -0.001452043 0.002501955 0.00011868841 0.026262347 -0.0003191949
1.9498528e-05 -0.0010523205 0.0004970471 -0.0038544403 -0.0022354785 0.0012345363 0.013371059 -0.008579467

gnn.gnn_layers.2.res_connection.bias f4 [32]
00000000: e100 5a3c 0eee d9bd 30a4 943c 9003 7d3c
00000010: 2ddd 8dbe eb5b 55be 645d a1bd 00ce 693c
00000020: 84a3 493d ccee 933d 61dd adbe 72e8 20bd
00000030: 2ed9 c6bd 2cee 933e 2d3e ea3b d7d9 62be
00000040: ba81 b2bd aac0 e6bb f22e 1abd 932a ff3d
00000050: 6947 0bbc 5323 7bbe 5acb 443c 3229 49bd
00000060: 278a 5dbd dcfd abbd 2ea9 383c 08c4 b3bd
00000070: 11c6 59bd 0421 35bc 71a2 83be 0777 d6bb
0.013305874 -0.106411085 0.018144697 0.015442744 -0.27707806 -0.20835845 -0.07879141 0.014270306
0.049228206 0.07223281 -0.3395796 -0.039284177 -0.097093925 0.28892648 0.007148525 -0.22153412
-0.0871615 -0.0070420103 -0.037642427 0.12459292 -0.008500912 -0.24525194 0.012011373 -0.049111553
-0.05408683 -0.08398029 0.011270804 -0.08777624 -0.053167406 -0.011055235 -0.2570987 -0.006544951

gnn.gnn_layers.2.bn_layer.weight f4 [32]
00000000: f177 fcbd 6e5f 523f 7529 343f 85f1 73bf
00000010: a808 2cbf 7f5c 663f 6f6f 4e3f 58a2 d9bb
00000020: d8c7 653e 8dc5 5b3f 1990 603f 95ff 5c3f
00000030: c59e 703f a389 8a3f 7747 4e3f 6554 333f
00000040: c102 173f 898f bf3e 148c 623e 1a62 40be
00000050: d882 433f 9a4c 273f 0297 693f 415b 14bf
00000060: 79da 213f fb05 c93e 1bb2 293f 4540 ce3e
00000070: cb86 653f c04c dabe dd60 943f 4fb0 953e
-0.123275645 0.82176864 0.7037576 -0.95290405 -0.6720071 0.8998489 0.80638784 -0.0066416673
0.22439516 0.85848314 0.87719876 0.8632749 0.93992263 1.0823253 0.80577797 0.7005065
0.5898858 0.37414196 0.22123748 -0.18787423 0.76371527 0.6535126 0.91246045 -0.5795174
0.6322399 0.39262375 0.6628739 0.4028341 0.896588 -0.4263668 1.159206 0.29236075
