Results/AFP/38/model.pth (torch, 525701 bytes, 33 tensors)

gnn.init_context.project_node.0.weight f4 [64, 74]
-5.9051625e-05 8.449181e-07 3.5675253e-06 6.2810415e-08 -2.2558486e-06 -1.4072361e-07 -0.00051933236 2.0962066e-06
1.9655579e-06 0.0034783354 -1.6720737e-13 0.00076423417 1.0712793e-10 3.6509569e-09 1.2036419e-12 6.213362e-07
-2.560874e-14 0.01678149 0.0031086786 -2.0689004e-08 -1.839586e-11 -2.6848872e-08 -0.003191153 4.3290954e-11
2.2306495e-13 1.0175494e-10 1.5906507e-10 -8.8011365e-15 -6.4996874e-15 -0.0004986175 -0.014865787 4.2906313e-06
2.164417e-11 -1.6099666e-17 5.5441364e-15 1.9406482e-15 -6.785537e-12 8.7382263e-14 -3.7373177e-12 4.559947e-09
7.0806394e-10 0.009595374 -3.0078716e-08 -1.3617036e-05 -9.174553e-06 -2.4563204e-05 -5.1865823e-06 6.600316e-06
-5.9332955e-12 -7.921387e-09 3.4988282e-15 -1.0394369e-12 1.1455745e-06 5.3802423e-15 -4.8866215e-05 -9.372267e-06
2.1139062e-06 5.331314e-07 0.0004300437 -2.1297573e-07 1.365936e-07 2.6961908e-08 2.0820274e-09 1.5784121e-07
-4.172212e-05 -3.0071453e-05 -1.6945898e-12 -7.995069e-09 -2.6207881e-05 -4.1267995e-05 -1.2810497e-05 2.3089567e-06
5.3633477e-07 1.4763063e-10 -0.00044036232 -2.0238847e-06 1.0790142e-05 -2.254162e-06 -4.7106796e-06 1.4786239e-06
-0.0012765779 -1.1132585e-06 -5.537271e-07 -0.0011032752 4.7260835e-07 -1.993373e-15 5.0639565e-06 -3.5236484e-05
1.00316725e-11 -2.3995815e-06 -1.7190733e-12 -1.3853626e-05 4.6516945e-14 6.4965314e-15 -3.2563743e-09 1.3465764e-14
-2.64306e-12 2.77347e-13 -1.3523853e-12 -1.3567841e-05 9.608036e-14 -3.205274e-05 1.5543473e-06 -9.091251e-06
-8.529951e-12 -4.618725e-12 0.00022154357 -3.4209267e-09 5.116492e-15 7.646332e-08 4.269878e-09 3.7400027e-12
-7.518315e-13 -2.1300892e-10 0.003078446 9.273042e-11 1.4640469e-07 -5.610524e-11 -5.4433813e-06 -0.00010544246
6.7928318e-06 1.8315217e-05 -4.4916387e-10 -2.1365777e-05 -3.0595677e-07 -1.2488124e-10 1.0160175e-14 -2.6599018e-06
-0.00019326044 -9.697832e-06 -3.7770888e-06 2.3581775e-05 -2.1460823e-10 -0.0016732231 -1.0028806e-11 1.821527e-06
9.057694e-10 2.5432776e-06 -0.00018226379 -0.00010781761 7.250902e-13 3.55457e-05 1.6921416e-05 -0.00014691023
1.1305475e-07 -6.4057517e-06 2.3755745e-05 1.2121637e-06 -0.0028244385 0.00082048937 0.000116373616 -4.2194373e-05
8.0864316e-05 0.00012271029 -0.00015669664 -0.0002593656 -4.5076158e-05 0.006951084 4.4703174e-06 0.0006315846
7.235404e-13 -2.8803115e-10 2.3515794e-12 0.00020786129 -0.00061679765 1.1031378e-06 4.846154e-07 -0.011668582
3.8920388e-07 -1.9122967e-06 9.646709e-08 -7.501446e-09 -0.00030775656 -8.297839e-15 -9.6374e-11 -0.0019122863
0.012512453 4.241268e-05 5.1651296e-06 -1.9464434e-13 0.0011995692 -1.4966711e-14 -4.9218984e-12 2.9296011e-08
-7.849966e-13 3.4079562e-12 -2.8698183e-12 -2.1119555e-09 1.2421347e-11 -1.0906846e-12 3.8456354e-05 -2.5973403e-14
0.0019910752 -0.0012032175 0.0018061195 -0.00028821395 -6.733901e-05 -1.7209108e-05 3.3996226e-08 9.835712e-09
4.4988724e-08 7.551134e-07 -0.0008480972 0.0012590153 -0.0002488313 -0.0019510997 1.5806936e-10 2.911944e-10
5.5936884e-08 -1.9083e-05 -2.2475775e-11 -0.0017393795 -0.002471547 0.00076346734 -1.3420001e-08 3.770819e-05
-0.00076659827 -0.0006814943 0.0014641185 -0.00026854317 -0.0019521032 -1.05173e-09 0.33003893 0.25994456
1.3513686e-05 -0.00016536246 -0.21568576 -3.2349348e-05 -7.472945e-05 0.0007238579 3.0310519e-05 -6.3515545e-13
-1.2621804e-10 -3.621709e-07 3.7422536e-13 -4.5544835e-10 -4.7088392e-11 -0.0002018197 9.123546e-11 3.4813008e-10
-6.587592e-10 -1.9914078e-06 5.5058874e-12 7.6052034e-16 -5.78212e-11 1.0716655e-10 6.038278e-05 1.549213e-11
-3.7985905e-07 8.500244e-13 -3.8483446e-05 -3.2675856e-05 4.0346273e-09 0.0013769595 -3.0507028e-06 -5.7889544e-13
00000000: 33ae 77b8 54ce 6235 9e69 6f36 64e2 8633
00000010: 2f63 17b6 d019 17b4 ce23 08ba 8eac 0c36
00000020: 07e8 0336 c9f4 633b 3e42 3caa e356 483a
00000030: aa93 eb2e 50e4 7a31 c565 a92b e6c9 2635
00000040: bca9 e6a8 5679 893c f9ba 4b3b 9ab7 b1b2
00000050: cbcf a1ad 4ba1 e6b2 aa22 51bb 4865 3e2e
00000060: 1826 7b2a f0c2 df2e d6e4 2e2f 148c 1ea8
00000070: 092d eaa7 a7b5 02ba a18f 73bc 3ef8 8f36
00000080: 5762 be2d 437e 94a3 a2bf c727 a4d6 0b27
00000090: afbe eeac 72c4 c429 c47e 83ac b8ad 9c31
000000a0: 92a1 4230 ea35 1d3c e62f 01b3 b974 64b7
000000b0: 68ec 19b7 140d ceb7 6708 aeb6 4878 dd36
000000c0: 60c2 d0ac a116 08b2 fd1d 7c27 a949 92ab
000000d0: a4c1 9935 fad7 c127 b3f5 4cb8 953d 1db7
000000e0: a2dc 0d36 831c 0f35 7d77 e139 53ae 64b4
000000f0: 90aa 1234 dd99 e732 6a13 0f31 107b 2934
00000100: c9fe 2eb8 f441 fcb7 087e eeab af5a 09b2
00000110: ffd8 dbb7 2c17 2db8 aaec 56b7 93f3 1a36
00000120: a5f8 0f35 5452 222f 6ee0 e6b9 13d2 07b6
00000130: 4f07 3537 3546 17b6 6e10 9eb6 2175 c635
00000140: d952 a7ba 456b 95b5 d6a3 14b5 c69b 90ba
00000150: ccba fd34 3ea3 0fa7 0eeb a936 e3ca 13b8
00000160: a37a 302d 7f08 21b6 25f0 f1ab df6c 68b7
00000170: 637e 5129 ed0f ea27 bec6 5fb1 e093 7228
00000180: 23fd 39ac ea21 9c2a d154 beab 6fa1 63b7
00000190: 8e5a d829 5e70 06b8 f79e d035 a086 18b7
000001a0: 7c0f 16ad c781 a2ac 264e 6839 9415 6bb1
000001b0: 4f57 b827 2834 a433 3eb6 9231 f396 832c
000001c0: 2b9f 53ab ae34 6aaf c1bf 493b 96ea cb2e
000001d0: 6a33 1d34 e2c0 76ae 4aa6 b6b6 fd20 ddb8
000001e0: fbed e336 a1a3 9937 32ee f6af a83a b3b7
000001f0: 6142 a4b4 f24e 09af 8907 3728 c480 32b6
00000200: f4a5 4ab9 dfb3 22b7 e479 7db6 7ad1 c537
00000210: d9f6 6baf 0d50 dbba ba6d 30ad 317b f435
00000220: dbf9 7830 2dad 2a36 101e 3fb9 231c e2b8
00000230: 4118 4c2b e816 1538 77f2 8d37 ea0b 1ab9
00000240: 82c8 f233 fdf0 d6b6 1347 c737 a1b1 a235
00000250: 371a 39bb 1c16 573a 9c0d f438 ddf9 30b8
00000260: b395 a938 cbab 0039 ef4e 24b9 76fb 87b9
00000270: 2810 3db8 ebc5 e33b bcff 9536 ed90 253a
00000280: 95a8 4b2b c858 9eaf 4a7a 252c 57f5 5939
00000290: 97b0 21ba 870f 9435 8416 0235 952d 3fbc
000002a0: c6f3 d034 0255 00b6 5829 cf33 b5df 00b2
000002b0: 635a a1b9 077b 15a8 bded d3ae aea5 faba
000002c0: 0801 4d3c 45e4 3138 2050 ad36 6926 5baa
000002d0: dd3a 9d3a e3ce 86a8 852c adac 9ca6 fb32
000002e0: f7f4 5cab 48d0 6f2c 0df2 49ac ea21 11b1
000002f0: c684 5a2d 0e80 99ab 324c 2138 97f2 e9a8
00000300: b37c 023b 48b5 9dba 50bb ec3a 6c1b 97b9
00000310: 5b38 8db8 475c 90b7 3f03 1233 ebf9 2832
00000320: a039 4133 ffb2 4a35 d752 5eba 8b05 a53a
00000330: 9275 82b9 0bbc ffba 92cc 2d2f f815 a02f
00000340: 413f 7033 6e14 a0b7 f2b2 c5ad e4fb e3ba
00000350: aef9 21bb 6d23 483a ca8d 66b2 dc28 1e38
00000360: 8af5 48ba 4fa6 32ba aae7 bf3a 41cb 8cb9
00000370: b7dd ffba 768c 90b0 ddfa a83e 7417 853e
00000380: d7b8 6237 2665 2db9 badc 5cbe d9ae 07b8
00000390: 11b8 9cb8 48c1 3d3a 5843 fe37 c6c7 32ab
000003a0: 38c7 0aaf 6470 c2b4 8fab d22a a862 faaf
000003b0: d118 4fae 909f 53b9 ffa0 c82e f462 bf2f
000003c0: 0f14 35b0 20a4 05b6 a0b8 c12c 7f34 5b26
000003d0: e24c 7eae 68a9 eb2e 8443 7d38 2d45 882d
000003e0: 6eef cbb4 b742 6f2b 4969 21b8 6f0d 09b8
000003f0: f5a0 8a31 187b b43a adba 4cb6 d0f1 22ab

gnn.init_context.project_node.0.bias f4 [64]
-0.000119500444 -0.0013040649 -0.0047527463 -0.07003355 -0.00017129576 -5.9320402e-05 -9.179344e-05 -0.0001396971
-5.437012e-06 -0.006002936 -3.6716124e-06 -0.011058435 -0.00088032597 -2.7530527e-07 -0.06312291 -0.027461838
-0.00035627256 -0.00016986657 -0.00037234384 -8.958477e-05 -0.15711892 -2.1364409e-05 -0.00059821596 0.06500786
-0.00035564363 -0.005530081 -6.98824e-05 -0.019700116 -0.00015260155 -0.001451232 -0.18913075 -0.053292967
-0.0063249874 -9.552052e-07 -1.6477677e-05 -0.021502996 -0.020287964 -2.5568801e-05 0.004585414 -0.07747949
-0.0006173529 -0.00049597357 -0.036748264 -0.00086027023 -0.017572654 -0.0072260206 -0.00086488907 -0.00013530528
-0.0032237282 -6.3341854e-06 -0.0002485363 -0.003518213 -0.47721303 -0.00023177263 -0.002688953 -0.0001809221
-0.00053551054 -0.0006328368 8.140087e-05 -1.1371773e-07 -0.00022231664 -0.00051935646 -0.024268165 -2.4339834e-05
00000000: 509c fab8 28ed aaba edbc 9bbb c06d 8fbd
00000010: db9d 33b9 ccce 78b8 3a81 c0b8 a87b 12b9
00000020: 946f b6b6 47b4 c4bb d265 76b6 702e 35bc
00000030: adc5 66ba abcd 93b4 9646 81bd a6f7 e0bc
00000040: 18ca bab9 361e 32b9 2537 c3b9 75df bbb8
00000050: c8e3 20be b837 b3b7 98d1 1cba d722 853d
00000060: ae75 bab9 af35 b5bb d48d 92b8 2362 a1bc
00000070: ab03 20b9 4437 beba 7eab 41be ba49 5abd
00000080: d741 cfbb 9a34 80b5 8b39 8ab7 0d27 b0bc
00000090: f232 a6bc 957c d6b7 3e41 963b 91ad 9ebd
000000a0: dad5 21ba 3904 02ba 5985 16bd c283 61ba
000000b0: 87f4 8fbc 41c8 ecbb b9b9 62ba bce0 0db9
000000c0: 2f45 53bb 3d8a d4b6 fa4d 82b9 d291 66bb
000000d0: 4455 f4be fe07 73b9 2539 30bb e8b5 3db9
000000e0: 8161 0cba f5e4 25ba c2b5 aa38 fc34 f4b3
000000f0: ab1d 69b9 6c25 08ba 08ce c6bc 652d ccb7

gnn.init_context.project_edge1.0.weight f4 [64, 87]
-1.7718824e-06 -6.7913845e-07 -3.4639058e-07 2.1447364e-07 -1.3972684e-06 7.936478e-08 -1.1660045e-06 -4.2713322e-07
-8.044595e-09 0.0033655185 1.255615e-07 -9.658649e-12 -9.134352e-13 -1.6372161e-14 -0.019383153 5.86035e-05
9.203584e-09 5.386416e-14 -3.167777e-07 1.1771807e-11 -5.0051646e-13 7.1214424e-14 0.0003784059 -8.884968e-09
1.7679008e-07 4.6768785e-13 -3.764985e-05 4.374814e-08 -7.012933e-11 -0.0011704834 3.0842752e-13 -3.3536462e-08
2.1400071e-12 1.7156705e-08 2.092728e-09 2.334642e-11 -0.00035215268 -1.4629754e-11 -2.4455982e-09 1.0800453e-06
2.600437e-13 -3.3110417e-10 -0.00019183918 -4.2364563e-13 -3.5677266e-07 -1.9992005e-06 -1.5712611e-06 -1.0758988e-06
1.1937697e-12 6.222739e-07 -2.1038004e-06 -3.4902467e-12 -8.4468854e-07 3.070868e-08 -1.6640107e-06 -1.7377048e-06
-1.4332839e-07 2.1079055e-08 4.784593e-11 3.10444e-13 2.5920366e-19 2.0578165e-07 -1.0958712e-08 1.9692059e-06
-1.9606293e-06 5.3614235e-07 -9.550862e-13 6.2104107e-07 -3.1991285e-06 -2.159353e-06 -1.2341968e-06 -1.3993741e-07
2.3515277e-08 -1.5432076e-09 -8.7208605e-07 4.7081556e-07 6.3400456e-08 -2.4556455e-06 -2.3771881e-06 -1.381241e-06
-1.2365208e-06 2.4961344e-12 -7.202507e-08 -1.5097176e-07 5.992408e-09 -5.5498917e-10 -1.6351568e-06 1.5735985e-08
1.3433955e-08 8.9806385e-09 6.406639e-08 4.1440913e-09 -3.153131e-10 -3.1164387e-09 2.3631006e-09 -1.3389762e-09
1.7820045e-06 3.551555e-09 0.00054810295 4.1711315e-13 -0.00011522301 -5.998405e-09 2.0092403e-09 -2.7969152e-08
9.645123e-12 1.5796376e-08 -0.0005024561 -0.004422742 9.2527944e-11 2.64109e-09 2.4092298e-10 -7.94065e-12
1.27169195e-11 -7.1397745e-15 4.9691403e-13 -3.6927274e-11 -0.00010151488 0.0062836697 8.389466e-10 -2.953706e-11
3.8858824e-10 1.3512812e-09 6.4337946e-15 -9.77574e-07 0.0026941774 -2.8301054e-13 0.016560372 -5.751091e-06
-8.941502e-13 -0.0041628857 -1.1407889e-10 5.5359073e-09 7.0828804e-08 5.5551737e-09 8.53909e-09 0.00010421564
3.52671e-09 1.06558815e-07 -1.6585109e-09 -9.526362e-12 -2.158408e-14 1.5103593e-08 6.1503215e-08 1.0528553e-08
1.2632252e-09 7.285331e-12 0.00047491628 2.7823994e-08 -1.3624584e-09 2.2587008e-13 1.1086726e-08 2.697466e-08
1.4506256e-08 6.666199e-08 3.5216414e-09 4.0738044e-08 1.5493212e-08 6.287144e-08 1.0502166e-08 1.2674981e-09
-1.9495172e-12 7.0226616e-09 7.4821144e-10 7.952254e-09 6.8400894e-08 5.252016e-08 4.4441347e-08 1.823277e-08
-1.7255654e-07 -8.0699974e-10 -1.1170139e-09 -1.9914483e-08 -6.282644e-08 9.354101e-09 -4.729018e-06 6.6857604e-07
-7.697293e-08 -7.5438165e-06 1.0478214e-05 -0.00029117838 7.835336e-06 1.3611333e-06 -0.01818394 -6.2151173e-09
-1.3453111e-14 6.0764815e-16 3.8379927e-14 1.6594201e-13 6.685795e-14 3.3938218e-06 7.8073175e-14 -2.4082246e-08
-2.2866355e-13 0.00015828767 -8.835871e-06 7.385608e-12 5.8446954e-13 1.2485043e-09 0.00012842799 -1.8614415e-06
-9.421099e-09 -1.5912305e-14 -1.2945005e-08 -0.0011545476 1.2034586e-13 -2.3543099e-12 -2.748319e-13 2.596786e-14
-2.795568e-05 -1.6255257e-08 6.7151674e-08 -1.0687348e-05 3.2723257e-08 -2.3516109e-06 2.2671502e-12 9.172974e-11
-4.656744e-11 -5.4559188e-15 -2.150415e-06 -4.257624e-07 -3.4946404e-06 2.864474e-06 2.7679026e-09 0.0011113258
1.1014344e-13 1.0097179e-11 -1.17662395e-07 9.995992e-09 -1.358497e-06 -8.196537e-07 1.4488766e-06 6.3970033e-06
-1.1364704e-05 3.691084e-09 -2.397089e-09 -3.437869e-06 1.3743974e-08 1.8382683e-07 -4.291419e-06 -1.2222757e-06
1.7373528e-09 0.00036448296 -3.9532556e-06 -1.8684575e-07 -2.6060222e-06 1.5586426e-06 1.0842313e-05 8.155155e-15
-3.6732329e-06 -3.0299213e-06 1.3488814e-06 -1.3021962e-07 -5.486482e-07 -1.6475082e-06 -2.796012e-06 1.7238537e-05
00000000: 6ad1 edb5 0a4e 36b5 8ff7 b9b4 114a 6634
00000010: c789 bbb5 406f aa33 9c7f 9cb5 be50 e5b4
00000020: 8134 0ab2 0890 5c3b 15d2 0634 b0ea 29ad
00000030: f98d 80ab a277 93a8 6bc9 9ebc 07cd 7538
00000040: ca1d 1e32 2695 7229 9811 aab4 8117 4f2d
00000050: 03e2 0cab 525c a029 c864 c639 81a4 18b2
00000060: b0d3 3d34 76a4 032b 38ea 1db8 97e5 3b33
00000070: 4e37 9aae e86a 99ba 17a1 ad2a bb09 10b3
00000080: f196 162c fe5f 9332 a9cf 0f31 775b cd2d
00000090: 22a1 b8b9 47af 80ad 6b0f 28b1 13f6 9035
000000a0: 3f64 922a c506 b6af 7028 49b9 c57d eeaa
000000b0: 768a bfb4 012a 06b6 1fe4 d2b5 9a67 90b5
000000c0: 1602 a82b 560a 2735 042f 0db6 b29a 75ac
000000d0: 8ebe 62b5 8de4 0333 f956 dfb5 153b e9b5
000000e0: cfe5 19b4 5511 b532 ba6d 522e b2c3 ae2a
000000f0: c001 9920 d4f4 5c34 ed44 3cb2 b326 0436
00000100: 5b93 03b6 6ceb 0f35 9b6a 86ab 9eb5 2635
00000110: 9cb0 56b6 67e9 10b6 aea6 a5b5 b441 16b4
00000120: a4fe c932 ca18 d4b0 4c19 6ab5 66c4 fc34
00000130: c526 8833 abcb 24b6 c887 1fb6 1463 b9b5
00000140: 88f6 a5b5 5ca6 2f2c 33ac 9ab3 cd1a 22b4
00000150: c7e5 cd31 e48d 18b0 8f77 dbb5 cc2b 8732
00000160: 29cb 6632 4449 1a32 df94 8933 d063 8e31
00000170: 6058 adaf f828 56b1 1b64 2231 0907 b8b0
00000180: 352d ef35 9e0f 7431 91ae 0f3a 57d0 ea2a
00000190: e2a3 f1b8 871a ceb1 ee12 0a31 d140 f0b2
000001a0: c6ad 292d 99b0 8732 42b7 03ba a6ec 90bb
000001b0: 9a78 cb2e 8c7e 3531 e572 842f 82b1 0bad
000001c0: eab7 5f2d 669e 00a8 6ede 0b2b 6a68 22ae
000001d0: 63e4 d4b8 3ee7 cd3b 9e9b 6630 c6e7 01ae
000001e0: efa0 d52f fbb7 b930 48cd e727 3035 83b5
000001f0: cc90 303b 1e52 9faa 9ea9 873c 7ff9 c0b6
00000200: 50ae 7bab d168 88bb b5dc faae 5b36 be31
00000210: 8c1a 9833 d3df be31 51b3 1232 588e da38
00000220: 8a5a 7231 54d5 e433 aaf1 e3b0 ec96 27ad
00000230: 8069 c2a8 27bd 8132 c013 8433 11e1 3432
00000240: c99d ad30 372a 002d 2ffe f839 9c01 ef32
00000250: 3e41 bbb0 9e4e 7e2a f077 3e32 e8b5 e732
00000260: 3037 7932 d127 8f33 5f01 7231 f4f7 2e33
00000270: ef15 8532 f103 8733 046d 3432 2034 ae30
00000280: 612f 09ac fc4b f131 b3aa 4d30 629e 0832
00000290: cae3 9233 8792 6133 c7df 3e33 499e 9c32
000002a0: fb47 39b4 8fd3 5db0 6f85 99b0 6910 abb2
000002b0: 33eb 86b3 c5b3 2032 f5ad 9eb6 3278 3335
000002c0: 514c a5b3 e420 fdb6 96cb 2f37 4da9 98b9
000002d0: 8374 0337 2fb0 b635 7cf6 94bc c08c d5b1
000002e0: 8659 72a8 8524 2f26 0bd9 2c29 87d5 3a2a
000002f0: fc8c 9629 6ac1 6336 1fce af29 6bdd ceb2
00000300: e4b9 80aa 06fa 2539 c73d 14b7 d2ed 012d
00000310: 7883 242b d797 ab30 a0aa 0639 a5d6 f9b5
00000320: 6eda 21b2 4753 8fa8 bc64 5eb2 3054 97ba
00000330: 557f 072a 7aab 25ac 73b7 9aaa cfe5 e928
00000340: 5e82 eab7 b0a1 8bb2 0635 9033 cf4d 33b7
00000350: 9a8b 0c33 5ed0 1db6 5989 1f2c 41b7 c92e
00000360: 47ce 4cae f891 c4a7 d94f 10b6 5794 e4b4
00000370: 7785 6ab6 4a3b 4036 7535 3e31 e8a9 913a
00000380: 5f05 f829 a7a1 312d 96ad fcb3 d6ba 2b32
00000390: 9a55 b6b5 2c06 5cb5 0577 c235 d7a5 d636
000003a0: 08ab 3eb7 3da6 7d31 09ba 24b1 24b6 66b6
000003b0: a31e 6c32 ef61 4534 02ff 8fb6 130d a4b5
000003c0: abc7 ee30 1318 bf39 35a6 84b6 c59f 48b4
000003d0: 1fe3 2eb6 8d32 d135 61e7 3537 04e9 1228
000003e0: a981 76b6 a755 4bb6 360b b535 7fd2 0bb4
000003f0: d146 13b5 f31f ddb5 1fa3 3bb6 7a9b 9037

gnn.init_context.project_edge1.0.bias f4 [64]
-9.227285e-07 1.0680304e-08 -2.6985103e-06 -4.2247843e-06 -1.5316955e-07 -2.6623406e-06 -1.4065006e-05 -4.1659018e-07
-6.3569437e-06 -9.700507e-07 -0.00013168485 -3.324714e-07 -4.2869506e-05 -4.9557993e-06 -2.6684352e-06 -2.1336239e-06
-2.1327793e-05 -1.9540353e-06 -1.592805e-06 -1.4234692e-05 -0.012699045 -6.229816e-06 -1.8537463e-07 -7.350965e-08
-1.3615386e-06 -0.00062984193 0.0012076533 -0.007891712 -2.744955e-06 -0.00031571378 -1.753174e-06 -7.0631822e-06
-8.975514e-06 -3.8131355e-07 -2.194327e-07 -5.114591e-07 -0.0003990352 -2.4819486e-05 -0.00012740953 4.529724e-05
-0.108048335 -3.495183e-08 -2.6962045e-05 -6.682581e-06 -1.2555768e-07 -8.8538906e-07 -0.0001467732 -9.056115e-06
-1.5728803e-05 -6.8933755e-06 -2.0128047e-07 -1.0861922e-06 -3.2448688e-06 -6.49269e-06 -0.00011494703 -8.195053e-07
-3.4467295e-05 -9.45354e-07 -4.0897907e-05 -1.2605321e-05 -0.016190356 0.04345754 -0.005044325 -6.071886e-06
00000000: 6bb1 77b5 797c 3732 0e18 35b6 9fc2 8db6
00000010: ed76 24b4 aaaa 32b6 bef8 6bb7 b8a7 dfb4
00000020: bb4d d5b6 b032 82b5 e214 0ab9 857e b2b4
00000030: c8ce 33b8 fe49 a6b6 5e13 33b6 612f 0fb6
00000040: 16e9 b2b7 1222 03b6 5dc8 d5b5 89d1 6eb7
00000050: a80f 50bc b609 d1b6 640b 47b4 5cdc 9db3
00000060: 1cbe b6b5 fa1b 25ba 1f4a 9e3a 3d4c 01bc
00000070: f835 38b6 6386 a5b9 9a4e ebb5 4600 edb6
00000080: 8a95 16b7 56b7 ccb4 349d 6bb4 344b 09b5
00000090: 9935 d1b9 7133 d0b7 3c99 05b9 8bfd 3d38
000000a0: 7248 ddbd f21d 16b3 8d2c e2b7 ef3a e0b6
000000b0: 08d1 06b4 79ab 6db5 22e7 19b9 b8ef 17b7
000000c0: 59f1 83b7 a54d e7b6 8e1f 58b4 48c9 91b5
000000d0: 6cc2 59b6 c8db d9b6 b80f f1b8 fafb 5bb5
000000e0: fa90 10b8 3bc4 7db5 cb89 2bb8 717b 53b7
000000f0: a3a1 84bc 8900 323d dd4a a5bb 1bbd cbb6

gnn.init_context.project_edge2.1.weight f4 [1, 128]
5.5615277e-09 -2.3488629e-07 7.2222674e-06 0.38287574 6.730379e-07 -7.30003e-08 -5.662187e-09 1.9932732e-07
1.3716994e-08 -2.0231231e-07 1.714653e-07 3.199649e-07 -0.0036226877 1.6689037e-12 -7.3650845e-06 -1.0140609e-06
-1.3474495e-08 9.6564584e-08 -8.932819e-08 -0.008670043 -1.7647608e-05 6.5806965e-10 1.9837596e-07 -0.010936815
2.470006e-07 -1.317589e-05 2.6405004e-07 -1.5804414e-06 -9.817869e-08 -7.5604967e-06 6.078313e-05 9.895812e-07
-1.0811917e-05 -8.261134e-10 8.35015e-08 -7.692564e-05 -4.8526068e-05 1.3686935e-08 3.5892215e-05 -4.5471293e-07
-5.3867063e-07 -3.4043918e-08 -1.1910007e-06 1.3355748e-07 0.0012772953 -1.8982788e-06 3.2535716e-08 1.8968707e-08
-5.8248247e-08 5.5452453e-08 -6.7952586e-09 -1.6344966e-06 1.3538484e-05 8.335738e-09 2.783581e-06 -3.3004824e-10
9.404776e-09 -5.508217e-08 8.066855e-07 -3.3096464e-10 1.6789656e-08 -1.4836768e-08 -3.6765687e-05 1.1609615e-10
4.264313e-09 -2.2565333e-08 2.8427651e-08 3.2665064e-08 -8.311459e-09 1.9228204e-07 -3.2187916e-08 -9.968652e-06
2.6944534e-07 1.6369599e-08 -4.5636813e-07 1.11846916e-07 4.6390937e-06 -1.2891253e-07 -8.2244206e-08 -1.2322319e-08
6.6424373e-09 3.6700536e-09 -5.9852483e-09 6.231189e-09 -0.00018377736 -2.0848228e-08 7.61534e-09 -1.1441498e-09
-1.3278094e-07 2.3462567e-06 0.00013117051 0.0037134404 9.189898e-08 -7.210702e-06 0.0069987196 -1.4884168e-07
1.09886734e-07 1.5379364e-08 4.9739675e-08 6.263928e-08 5.047258e-06 2.2472507e-07 1.5160786e-06 -2.9214848e-07
7.0301066e-06 2.1282658e-07 -1.338824e-07 4.8321695e-08 -1.3125419e-08 -6.3706686e-08 3.0202318e-07 -6.340941e-08
1.3710394e-08 -1.1343271e-07 3.3629853e-08 -5.8659985e-08 3.068705e-10 5.5462966e-08 0.34876904 2.9688786e-07
-3.004179e-08 -1.9273221e-08 5.9502185e-07 1.2445442e-07 -2.1316134e-06 0.08991162 0.00057450734 -1.4329869e-08
00000000: b717 bf31 0d35 7cb4 ce56 f236 4a08 c43e
00000010: d0aa 3435 57c4 9cb3 208d c2b1 ad06 5634
00000020: faa7 6b32 2f3b 59b4 061c 3834 a4c7 ab34
00000030: 9d6a 6dbb 98e0 ea2b 9821 f7b6 de1a 88b5
00000040: 757d 67b2 f15e cf33 b1d4 bfb3 cc0c 0ebc
00000050: f309 94b7 89e3 3430 2b01 5534 5430 33bc
00000060: 819b 8434 040e 5db7 c3c2 8d34 8e1f d4b5
00000070: 4ed6 d2b3 2cb0 fdb6 64f1 7e38 c0d1 8435
00000080: d464 35b7 9014 63b0 6f51 b333 2353 a1b8
00000090: 7888 4bb8 c723 6b32 f98a 1638 451f f4b4
000000a0: 2a99 10b5 af37 12b3 79da 9fb5 0068 0f34
000000b0: eb6a a73a 5dc8 feb5 66bd 0b33 a1f0 a232
000000c0: a02c 7ab3 9e2a 6e33 ba7b e9b1 e060 dbb5
000000d0: 5923 6337 f734 0f32 8fcd 3a36 2972 b5af
000000e0: a492 2132 7d93 6cb3 018b 5835 22f3 b5af
000000f0: d838 9032 cce4 7eb2 db34 1ab8 524c ff2e
00000100: 4b85 9231 b1d5 c1b2 1131 f432 9e4b 0c33
00000110: 2fca 0eb2 1676 4e34 fd3e 0ab3 093f 27b7
00000120: 49a8 9034 219d 8c32 c202 f5b4 7e30 f033
00000130: 83a9 9b36 356b 0ab4 3b9e b0b3 22b2 53b2
00000140: 7f3b e431 4434 7c31 cda6 cdb1 1e1a d631
00000150: 5cb4 40b9 bd15 b3b2 9fd4 0232 3140 9db0
00000160: 8c92 0eb4 6274 1d36 d18a 0939 315d 733b
00000170: 005a c533 75f3 f1b6 8455 e53b 4ad1 1fb4
00000180: dffa eb33 941b 8432 5aa1 5533 4f84 8633
00000190: 9e5b a936 f54b 7134 107c cb35 95d8 9cb4
000001a0: 28e4 eb36 5385 6434 50c1 0fb4 448a 4f33
000001b0: 347e 61b2 1fcf 88b3 c025 a234 b12b 88b3
000001c0: f38a 6b32 4b98 f3b3 6a70 1033 56f1 7bb3
000001d0: 2fb4 a82f 2d36 6e33 db91 b23e f563 9f34
000001e0: 4c07 01b3 438e a5b2 97b9 1f35 c5a1 0534
000001f0: d70c 0fb6 9523 b83d 899a 163a 6e2f 76b2

gnn.init_context.attentive_gru.edge_transform.1.weight f4 [64, 64]
-8.867476e-09 -2.521959e-08 -7.5457143e-07 -1.2491873e-07 -1.1985509e-08 4.1582564e-07 -3.261812e-07 -8.1986497e-07
-1.5846551e-07 -1.2944352e-07 -3.9312895e-06 1.9660402e-07 -1.2970828e-07 -8.116611e-07 -3.421168e-06 -5.421284e-06
-2.3625175e-06 -8.250665e-07 -9.146594e-08 -1.7059745e-06 -0.0004501777 -1.1010632e-06 -6.588266e-08 -4.5694666e-09
-3.6441614e-07 6.6387397e-06 -0.0029645574 9.762587e-06 1.1386372e-06 -2.0600864e-05 7.195993e-08 -2.3925716e-07
3.6029313e-08 -4.7760395e-06 -5.0497965e-07 5.14978e-07 7.760127e-06 -1.1904322e-07 -5.828897e-06 -8.831422e-06
4.8998885e-05 -3.1196998e-07 5.252121e-07 5.0855175e-07 -1.6388859e-09 2.2734199e-07 -2.643609e-06 -6.5272815e-07
-2.2310896e-06 1.5849066e-07 -2.3883837e-07 1.3295916e-06 -5.6937456e-06 -3.2784988e-07 1.0269695e-06 1.3834527e-07
-8.694108e-07 -1.567452e-07 -2.0308161e-07 -6.3544553e-07 8.291853e-06 -0.0039667734 -3.791835e-05 1.8838601e-07
-3.4196952e-07 2.2320947e-08 5.9884655e-06 2.8838492e-06 7.4687875e-08 6.423749e-06 4.440041e-06 -1.0222521e-06
2.4947144e-06 -6.384626e-07 -2.8169841e-05 -3.8494045e-06 0.00013918505 1.3317769e-05 1.0352113e-05 1.7390563e-05
-3.5168005e-06 -2.447864e-07 1.7995027e-06 5.9891013e-06 -0.0018223248 -3.9241827e-06 8.8620106e-07 1.8012889e-08
2.2694256e-07 -0.00014342472 0.00027336876 -0.00012334697 0.0002210394 7.961906e-05 -2.9766062e-08 2.8657025e-06
8.904549e-06 1.0768415e-05 2.2753475e-06 1.8881075e-06 -0.00017520467 -1.916328e-05 2.8114231e-05 0.00016703935
-0.001656614 1.7556287e-06 8.148535e-06 -5.8802884e-06 5.337575e-09 -3.2470763e-07 -0.000100907295 1.1351246e-05
1.0180276e-05 -2.2362046e-06 1.5064016e-06 1.1767586e-06 2.7437743e-05 1.1709874e-05 3.964059e-06 3.6291266e-07
3.3026095e-05 3.0253182e-06 1.894571e-06 4.832189e-06 -0.0005535549 -0.010915494 0.000113408234 -2.6710213e-06
1.4992983e-06 4.5298728e-07 1.38923115e-05 -1.2194101e-06 2.8063616e-07 1.5194614e-06 7.000424e-06 6.849436e-07
5.5066444e-06 -5.873561e-06 -1.6001199e-05 -1.5886046e-06 2.0327161e-05 1.36333365e-05 1.4003989e-05 6.0834835e-05
-1.8345581e-05 -1.7283055e-06 1.1407834e-06 1.0491161e-05 0.00024355185 9.792111e-06 8.813449e-07 1.8528178e-07
6.6613984e-06 -0.00018120637 0.004785448 0.09295702 6.43993e-05 0.0003280353 5.814303e-07 3.0147028e-06
-5.9962913e-06 2.8221095e-05 4.8160955e-06 -5.1949323e-06 -0.000274868 2.1950615e-05 7.573357e-05 0.00022331352
0.92144835 4.251822e-06 5.3018157e-06 -3.6622405e-06 4.1929527e-09 1.1894443e-06 -4.7405814e-05 1.4881373e-07
5.3449876e-05 -1.0721019e-05 2.6130667e-06 9.796242e-07 9.6968055e-05 1.5675732e-05 -4.7351987e-06 3.425472e-06
1.7309978e-05 3.779292e-06 -1.2515358e-06 6.8832874e-06 0.0360313 0.09006082 0.00034496572 -3.112085e-06
1.7197115e-08 1.6620136e-08 3.958158e-08 -7.2995164e-08 -3.0062486e-09 -5.7897996e-08 -4.046402e-07 -3.648156e-07
-1.6718822e-07 -1.606816e-08 4.22529e-06 -2.0217149e-08 2.8623786e-06 -4.5791322e-07 -1.3168449e-06 -8.6130973e-07
9.462664e-07 5.8601227e-08 -1.7835946e-07 -3.223968e-07 0.0002447303 -8.0252384e-08 -6.7884365e-09 1.5429279e-09
1.3518844e-07 1.6356747e-05 -0.00013057126 6.2084536e-07 2.4376575e-06 -6.8197705e-06 -2.01819e-09 1.0518768e-07
1.2268771e-06 2.0394817e-08 -9.226574e-08 1.1462103e-07 3.600188e-05 -1.193288e-06 -8.365301e-07 -2.66021e-06
-9.279111e-06 1.4732323e-07 2.92279e-07 1.0738573e-06 -3.9861247e-06 1.5004464e-07 8.301291e-08 4.1605588e-07
-3.1056226e-07 -1.7213858e-07 -9.145974e-09 9.4684304e-07 -9.626025e-07 -2.850336e-07 1.764297e-07 -8.5925606e-08
-4.1484913e-07 1.6097705e-07 8.0580617e-07 -5.632324e-09 -3.2987218e-06 -0.0015251347 -1.5234029e-05 -1.8068499e-07
00000000: 9257 18b2 77a2 d8b2 c18d 4ab5 6621 06b4
00000010: d3e8 4db2 a43e df34 011e afb4 b114 5cb5
00000020: ab26 2ab4 2afd 0ab4 85e9 83b6 1a1a 5334
00000030: f145 0bb4 ede0 59b5 3897 65b6 7ae8 b5b6
00000040: be8b 1eb6 237a 5db5 ef6b c4b3 d6f8 e4b5
00000050: d405 ecb9 3ec8 93b5 607b 8db3 7401 9db1
00000060: f9a4 c3b4 57c2 de36 0549 42bb fec9 2337
00000070: 47d3 9835 05d0 acb7 6488 9a33 4173 80b4
00000080: a6be 1a33 de41 a0b6 f08d 07b5 053d 0a35
00000090: 7e31 0237 b4a4 ffb3 d895 c3b6 ab2a 14b7
000000a0: 2784 4d38 d47c a7b4 4dfc 0c35 6983 0835
000000b0: 2c3f e1b0 4a1b 7434 db68 31b6 2337 2fb5
000000c0: d4b9 15b6 952d 2a34 b239 80b4 6b74 b235
000000d0: e70c bfb6 5803 b0b4 67d6 8935 0f8c 1434
000000e0: 7561 69b5 cb4d 28b4 a60e 5ab4 7c93 2ab5
000000f0: 3d1d 0b37 b5fb 81bb 850a 1fb8 2747 4a34
00000100: ef97 b7b4 48bc bf32 87f0 c836 2788 4136
00000110: 1864 a033 958b d736 a9fb 9436 5134 89b5
00000120: de6a 2736 d162 2bb5 464e ecb7 222a 81b6
00000130: 34f2 1139 626f 5f37 fdad 2d37 f3e1 9137
00000140: 2c02 6cb6 306b 83b4 7186 f135 fdf5 c836
00000150: 13db eeba 79ac 83b6 46e3 6d35 c3ba 9a32
00000160: 7fad 7334 4864 16b9 ef52 8f39 b356 01b9
00000170: d0c6 6739 28f9 a638 43b0 ffb2 6550 4036
00000180: bf64 1537 fea9 3437 2cb2 1836 e16a fd35
00000190: 25b7 37b9 d5c0 a0b7 dad6 eb37 4927 2f39
000001a0: be22 d9ba f1a2 eb35 b1b5 0837 4b4f c5b6
000001b0: ce65 b731 7a53 aeb4 319e d3b8 3b71 3e37
000001c0: f4cb 2a37 b411 16b6 912f ca35 1ef1 9d35
000001d0: 1b2a e637 8775 4437 0203 8536 56d6 c234
000001e0: 8085 0a38 9206 4b36 f748 fe35 3024 a236
000001f0: 711c 11ba e6d6 32bc 95d5 ed38 cc3f 33b6
00000200: 7f3b c935 1932 f334 0613 6937 9daa a3b5
00000210: 57aa 9634 4cf0 cb35 2fe5 ea36 f7dc 3735
00000220: b7c5 b836 8115 c5b6 503a 86b7 0a38 d5b5
00000230: 3f84 aa37 bcba 6437 adf2 6a37 e828 7f38
00000240: d6e4 99b7 20f8 e7b5 051d 9935 3203 3037
00000250: f461 7f39 cc48 2437 8f95 6c35 def1 4634
00000260: fa84 df36 3702 3eb9 3fcf 9c3b 4060 be3d
00000270: 1c0e 8738 27fc ab39 9613 1c35 3350 4a36
00000280: c033 c9b6 57bc ec37 f299 a136 2150 aeb6
00000290: 291c 90b9 9622 b837 27d3 9e38 4429 6a39
000002a0: 0ae4 6b3f dfaa 8e36 40e6 b136 d0c4 75b6
000002b0: 9a11 9031 ffa4 9f35 9bd5 46b8 9bc9 1f34
000002c0: 5e2f 6038 6dde 33b7 255c 2f36 a27b 8335
000002d0: 545b cb38 617f 8337 0ce3 9eb6 29e1 6536
000002e0: e534 9137 be9f 7d36 71fa a7b5 fdf6 e636
000002f0: 8e95 133d cf71 b83d 84dc b439 37d9 50b6
00000300: dbb8 9332 11c4 8e32 6800 2a33 84c1 9cb3
00000310: 7c96 4eb1 85ab 78b3 533d d9b4 e0db c3b4
00000320: 5984 33b4 4206 8ab2 f7c6 8d36 fba9 adb2
00000330: 4a17 4036 1dd7 f5b4 72be b0b5 c134 67b5
00000340: ef02 7e35 bbb0 7b33 1383 3fb4 e115 adb4
00000350: 254f 8039 3757 acb3 b83f e9b1 f30e d430
00000360: 5128 1134 d935 8937 f5e9 08b9 2ba8 2635
00000370: a396 2336 62d5 e4b6 60b0 0ab1 8ae3 e133
00000380: 2dab a435 ad30 af32 a123 c6b3 9425 f633
00000390: b900 1738 1029 a0b5 e98d 60b5 0f86 32b6
000003a0: 7aad 1bb7 e72f 1e34 85ea 9c34 7521 9035
000003b0: 8dc0 85b6 f51b 2134 d444 b233 495e df34
000003c0: 5abb a6b4 18d5 38b4 6b20 1db2 8f2a 7e35
000003d0: c532 81b5 b806 99b4 a070 3d34 1a86 b8b3
000003e0: 6eb8 deb4 09d9 2c34 944e 5835 7286 c1b1
000003f0: 9c5f 5db6 07e7 c7ba a895 7fb7 5002 42b4

gnn.init_context.attentive_gru.edge_transform.1.bias f4 [64]
-0.01762354 -0.12211835 0.056999143 -0.03954343 -0.032707676 0.0069639236 0.0074110855 -0.1892812
-0.73006654 0.065230995 0.084083386 -0.00637142 -0.009186153 -0.03973221 0.049532775 -0.0070274677
0.028429272 -0.0010429372 -0.039999392 -0.018524913 -0.026336694 0.05231087 -0.049153 0.0066064876
-5.9333655e-05 0.06485866 -0.036156684 0.10986445 0.12427762 0.07716694 -0.013028328 -0.043217104
0.03764725 -0.038847618 0.059739456 -0.97938424 0.048367217 -0.018382292 0.060093142 0.0070052575
0.020352563 -0.00027696657 0.062112518 0.18111312 0.0029594963 0.09250485 0.04020523 0.1648211
0.015457218 -0.006502395 0.032559313 -0.037248448 0.15774664 0.05858594 -0.017976178 -0.014295753
0.044409137 -0.03367543 -0.01771525 -0.022412289 0.0127713205 -0.028081669 0.025464676 0.047652952
00000000: 3e5f 90bc 2f19 fabd ef77 693d 4bf8 21bd
00000010: 7cf8 05bd a031 e43b b1d8 f23b eed2 41be
00000020: a4e5 3abf d497 853d e933 ac3d 58c7 d0bb
00000030: 8581 16bc 3ebe 22bd e1e2 4a3d ac46 e6bb
00000040: 81e4 e83c 2ab3 88ba 67d6 23bd 8fc1 97bc
00000050: 0dc0 d7bc ec43 563d a854 49bd 3c7b d83b
00000060: 07dd 78b8 9ed4 843d 0819 14bd 9d00 e13d
00000070: 4485 fe3d b309 9e3d c574 55bc 6b04 31bd
00000080: 0134 1a3d ae1e 1fbd 5cb1 743d edb8 7abf
00000090: b41c 463d 7696 96bc 3a24 763d 5c8c e53b
000000a0: 6bba a63c d335 91b9 b269 7e3d b875 393e
000000b0: 1cf4 413b 2f73 bd3d 3dae 243d ddc6 283e
000000c0: 4540 7d3c 0b12 d5bb ea5c 053d d491 18bd
000000d0: 5688 213e d0f7 6f3d c742 93bc bc38 6abc
000000e0: 5be6 353d 3fef 09bd 921f 91bc fa99 b7bc
000000f0: cd3e 513c 870b e6bc 4c9b d03c be2f 433d

gnn.init_context.attentive_gru.gru.weight_ih f4 [192, 64]
7.9207416e-07 -7.780656e-08 3.5433015e-06 -1.4022838e-06 1.1336733e-06 7.778204e-07 7.6264536e-07 -1.5807419e-06
1.6712425e-05 4.98235e-08 -6.382204e-07 -1.7115153e-07 -1.3219467e-07 -4.0450338e-08 -1.60378e-06 1.1105652e-06
-2.8478345e-07 8.976572e-07 -2.0484704e-06 -1.22318e-06 3.9387018e-07 1.4841983e-06 -2.3901923e-06 2.3802404e-07
-7.2115434e-08 -4.317307e-07 1.2774826e-06 2.9794683e-07 -4.851292e-07 -1.5341524e-07 8.4847574e-07 -1.7451507e-06
6.387953e-07 -1.6302264e-06 1.2740637e-07 1.1936669e-05 -4.899529e-07 -4.929056e-07 -9.774193e-07 3.5949773e-07
5.496018e-07 -4.7682764e-09 -2.5767943e-07 2.9432456e-06 -3.5847145e-07 7.2986865e-07 5.636136e-07 -1.4593417e-07
-1.7957372e-07 -9.753843e-07 -5.2915567e-07 -7.7144153e-07 4.214527e-07 7.712479e-07 -3.952694e-06 -2.0908591e-07
-4.658417e-08 -1.6145027e-06 2.236896e-06 -1.5736344e-06 -1.2761914e-06 -2.0474502e-06 1.5425613e-07 3.0990932e-07
-3.1250864e-05 -0.00017756132 8.109155e-05 -2.2753286e-05 -9.531418e-05 1.0169218e-05 -3.383115e-05 -6.660864e-05
-0.00026812445 -2.9516856e-05 -7.974425e-05 9.509802e-06 3.828086e-06 -8.430311e-05 0.00012519184 2.0301262e-05
-8.4321386e-05 -1.9533669e-05 4.9114635e-05 2.8899083e-05 6.5894266e-05 9.028251e-06 -6.095516e-05 -2.1408065e-05
-4.583373e-06 5.2843272e-05 -0.00010823129 -0.0001632533 -3.4743484e-06 0.000103003236 3.758326e-05 -1.2560025e-05
1.1376732e-05 -1.564993e-05 -1.3880192e-05 0.00031464727 -9.342639e-05 -3.277484e-05 8.303012e-05 2.3727134e-05
7.316296e-05 4.906457e-06 1.7099484e-05 0.00028264424 3.556882e-05 4.688221e-05 2.774956e-05 -5.7795432e-06
-5.4405255e-06 4.2959648e-05 -9.892194e-06 -0.000112610745 -0.00036372826 -4.378227e-05 0.00029300936 -2.072374e-05
3.4692657e-05 0.00019462302 -6.795624e-05 -5.5171244e-05 2.4013769e-05 -6.9275804e-05 -7.0191586e-06 -0.00020089526
-1.0895894e-06 -1.8610112e-06 -3.897872e-06 -6.1339813e-07 -1.7763557e-06 -2.586841e-07 2.9297718e-07 -2.9430676e-06
-3.2786207e-05 6.598349e-07 1.9073086e-06 -2.5333398e-07 -3.9940693e-07 -1.6022263e-06 -9.686388e-07 -2.5383653e-07
3.3992364e-07 1.965723e-07 -2.2347629e-06 -8.688539e-07 8.49087e-07 2.618122e-07 1.1458925e-06 2.9872533e-07
1.3882816e-07 4.3482925e-07 1.05547805e-07 -1.5078434e-06 2.6993007e-08 -2.1144801e-06 5.416806e-07 8.8075143e-07
2.3621192e-06 -1.1441592e-07 2.882314e-07 -8.372214e-06 -3.8142557e-06 7.0578e-07 8.7314095e-07 -3.9029794e-07
-4.3517016e-07 -1.3245701e-08 1.2647209e-06 4.241953e-06 3.3318284e-07 -1.1597808e-06 -7.9801936e-07 1.9459114e-06
-2.1821842e-07 -1.918059e-06 -1.2226353e-06 -1.4940398e-06 -5.763347e-06 1.5246837e-06 2.4543265e-06 -1.864358e-07
1.8442086e-06 2.2593886e-06 2.8208733e-06 -1.2378262e-06 2.755626e-06 -1.6993293e-07 -6.185883e-08 -3.630072e-06
0.00013107035 0.0015278698 0.0012920006 0.0017676891 0.0015961531 -0.00013424728 -0.00020776707 0.0061347927
0.024146829 -0.00016273712 -0.0019619244 0.0004434762 -0.00016354251 0.0018798987 -0.0019532628 0.0005953039
0.0010000527 0.0010319635 0.0014010085 -0.000103263104 0.003618614 -0.0036250148 0.0019194549 -0.00010160443
7.2306466e-05 -0.0009028239 -0.00011725871 -0.0072597447 -0.007173023 -0.003445784 0.000110287445 0.0015904733
-0.00018143075 0.003291286 -0.0015619469 0.036727875 -0.00078689546 -2.3069466e-05 -0.002121562 0.00036170083
-0.0006143619 -2.4872612e-05 -0.0021971588 -0.0043829656 -5.5427314e-05 -0.0011348156 -0.0005566069 -0.009124278
-0.00012971976 0.0018671784 -0.00101606 0.0013730904 -0.002393106 -0.0010235269 0.00013426856 0.0014617665
-0.000855255 0.0021790054 0.0005119442 0.0009508857 -0.0030211876 -0.00012897186 -0.0002969902 -0.0066537247
00000000: ec9e 5435 9c16 a7b3 75c9 6d36 1b36 bcb5
00000010: b828 9835 69cb 5035 97b8 4c35 e129 d4b5
00000020: a931 8c37 85fd 5533 2c52 2bb5 c6c5 37b4
00000030: 65f1 0db4 9ebb 2db3 7641 d7b5 bb0e 9535
00000040: 57e4 98b4 88f6 7035 7478 09b6 252c a4b5
00000050: 1b75 d334 aa34 c735 3167 20b6 8d93 7f34
00000060: e1dd 9ab3 9ec8 e7b4 f875 ab35 80f5 9f34
00000070: d339 02b5 76ba 24b4 cfc2 6335 ec3a eab5
00000080: ae79 2b35 27ce dab5 32cd 0834 9a43 4837
00000090: 4f85 03b5 3750 04b5 df2f 83b5 fe00 c134
000000a0: 5988 1335 34d6 a3b1 3157 8ab4 9384 4536
000000b0: f173 c0b4 31ec 4335 3b4b 1735 14b2 1cb4
000000c0: d9d0 40b4 f3e9 82b5 4d0b 0eb5 0f15 4fb5
000000d0: 0544 e234 c107 4f35 62a1 84b6 1981 60b4
000000e0: d613 48b3 e4b1 d8b5 951d 1636 ab35 d3b5
000000f0: 9a49 abb5 ed66 09b6 9aa1 2534 9d61 a634
00000100: 5c13 03b8 c12f 3ab9 b20f aa38 4fde beb7
00000110: 69e3 c7b8 759c 2a37 ece5 0db8 3eb0 8bb8
00000120: 0e93 8cb9 f79a f7b7 5e3c a7b8 4a8c 1f37
00000130: 0273 8036 e3cb b0b8 ee45 0339 a14c aa37
00000140: b3d5 b0b8 3cdc a3b7 7000 4e38 4f6c f237
00000150: b730 8a38 0b78 1737 1baa 7fb8 7895 b3b7
00000160: e0ca 99b6 08a4 5d38 3bfa e2b8 f92e 2bb9
00000170: da28 69b6 7103 d838 b8a2 1d38 e6b8 52b7
00000180: b1de 3e37 f847 83b7 f8de 68b7 3ef7 a439
00000190: e9ed c3b8 b777 09b8 7520 ae38 a209 c737
000001a0: 116f 9938 25a2 a436 dd70 8f37 de2f 9439
000001b0: bb2f 1538 64a3 4438 bac7 e837 e6ed c1b6
000001c0: c28d b6b6 922f 3438 a6f6 25b7 6f29 ecb8
000001d0: c8b2 beb9 dba2 37b8 0d9f 9939 e5d7 adb7
000001e0: f582 1138 b813 4c39 bb83 8eb8 ac67 67b8
000001f0: 2d71 c937 2a48 91b8 1d86 ebb6 69a7 52b9
00000200: 023e 92b5 dcc7 f9b5 77ca 82b6 66a8 24b5
00000210: 1e6b eeb5 46e1 8ab4 7a4a 9d34 8481 45b6
00000220: ec83 09b8 821f 3135 a0fe ff35 f501 88b4
00000230: 126e d6b4 140c d7b5 2d02 82b5 0747 88b4
00000240: c07e b634 6211 5334 eff8 15b6 2f3b 69b5
00000250: d0ec 6335 328f 8c34 91cc 9935 7f60 a034
00000260: cb10 1534 7a72 e934 85a9 e233 1b61 cab5
00000270: 40de e732 7ee6 0db6 0268 1135 c76c 6c35
00000280: e684 1e36 d1b4 f5b3 39be 9a34 6376 0cb7
00000290: 6af8 7fb6 d574 3d35 ca61 6a35 248a d1b4
000002a0: 55a1 e9b4 368f 63b2 7bbf a935 1956 8e36
000002b0: 4de0 b234 c4a9 9bb5 7937 56b5 8196 0236
000002c0: 6c4f 6ab4 01b8 00b6 6e19 a4b5 d186 c8b5
000002d0: c662 c1b6 bca3 cc35 02b5 2436 152f 48b4
000002e0: 8686 f735 00a0 1736 3c4e 3d36 6223 a6b5
000002f0: 4bed 3836 cf76 36b4 40d7 84b3 299c 73b6
00000300: ee6f 0939 ce42 c83a 5958 a93a ceb1 e73a
00000310: 0336 d13a bbc4 0cb9 0cdc 59b9 5f06 c93b
00000320: 92cf c53c 6aa4 2ab9 a193 00bb 5e82 e839
00000330: 9c7c 2bb9 ef66 f63a 5002 00bb 2b0e 1c3a
00000340: 3314 833a f342 873a 0ba2 b73a f58e d8b8
00000350: 4526 6d3b a891 6dbb 3896 fb3a 7714 d5b8
00000360: 3da3 9738 7cab 6cba cae8 f5b8 27e3 edbb
00000370: ae0b ebbb aad2 61bb 1f4a e738 6e77 d03a
00000380: 723e 3eb9 9eb2 573b 3eba ccba f86f 163d
00000390: a947 4eba 4d85 c1b7 e709 0bbb aaa2 bd39
000003a0: 210d 21ba 87a5 d0b7 35fe 0fbb fb9e 8fbb
000003b0: a07a 68b8 18be 94ba 42e9 11ba ff7d 15bc
000003c0: 6205 08b9 1cbc f43a 512d 85ba 45f9 b33a
000003d0: a8d5 1cbb dd27 86ba 71ca 0c39 bf98 bf3a
000003e0: 3133 60ba a5cd 0e3b fe33 063a dc44 793a
000003f0: 1eff 45bb 9f3c 07b9 5ab5 9bb9 7d07 dabb

gnn.init_context.attentive_gru.gru.weight_hh f4 [192, 64]
-4.418059e-10 0.0004359749 -3.4666744e-05 5.292558e-06 -0.00018215689 -0.00019663417 -1.794935e-10 3.7215727e-06
1.810997e-10 -1.682843e-10 -0.0011477232 -3.7234424e-09 1.5790436e-05 4.4116859e-13 3.475557e-07 -1.048404e-07
0.00032949282 3.7433398e-10 -0.007729566 -3.621539e-11 -2.2590884e-06 9.791437e-12 3.57608e-05 1.2126399e-06
9.925409e-09 -4.2720208e-07 1.0424166e-07 -2.741255e-07 -1.6789968e-09 -4.555714e-06 0.0025786096 1.3303688e-07
0.000515247 7.058927e-08 7.919967e-10 3.9231236e-06 -1.7486105e-06 1.1043715e-07 2.121883e-05 -1.7518737e-08
-0.00029342898 2.2258792e-08 6.502469e-08 -1.07238e-08 2.2160662e-06 -0.00012796394 -1.9487463e-09 -1.9217882e-06
2.7175031e-09 0.0005877495 4.7609955e-10 -0.011978279 1.00174276e-07 4.991819e-08 7.3642994e-08 5.7900227e-09
-8.8534036e-10 7.41098e-09 1.673913e-09 -1.6491758e-10 6.84611e-09 5.142891e-10 8.4410395e-08 6.407037e-12
-1.7689459e-08 6.6607544e-07 5.7765876e-05 0.0003711607 1.65675e-05 -9.713729e-07 -2.5321035e-06 1.6145945e-06
-1.9983405e-08 0.0006440185 -9.071797e-08 -8.713919e-08 1.9435643e-06 2.8299064e-11 -5.663007e-07 2.8234695e-07
-3.1216503e-05 2.385747e-06 0.00040053108 9.7164845e-09 -0.00019607412 2.4561336e-10 -2.5615986e-06 -0.00013757416
1.7953123e-06 1.9427429e-05 -8.397962e-07 0.0004999555 -7.474234e-11 -0.00021620229 9.5399504e-05 8.215027e-06
-0.0002402599 7.402576e-11 1.0131679e-07 -0.0033291033 -0.00032042162 -3.2614498e-06 0.0002659518 -3.9649863e-06
-4.328309e-06 0.012663212 -7.020359e-06 -0.00026414276 2.6375954e-05 9.853834e-07 3.0110023e-08 1.5434931e-07
-2.6516713e-07 -0.000759888 -2.1960403e-08 0.001468931 -3.533255e-05 2.0593944e-07 1.5347728e-06 6.030777e-08
0.012139946 3.64003e-07 -4.1740066e-07 -4.3124342e-05 -3.528197e-09 6.404031e-09 7.693448e-07 3.7690828e-10
6.968036e-10 8.292569e-06 -9.15021e-10 -3.423799e-06 -3.9821552e-06 -6.50398e-05 -2.6795708e-09 2.4335259e-06
-0.0019556617 3.304995e-09 -1.2292359e-09 -3.1272706e-05 5.257674e-09 -4.3694578e-13 -8.273856e-07 4.9043e-08
2.0125955e-05 -6.808914e-11 3.986822e-05 1.402174e-09 -2.2564063e-07 -1.4643436e-05 7.862944e-10 3.5697924e-06
1.35018e-06 2.8759158e-07 1.5473509e-07 -9.4386975e-05 -0.00011836218 -1.50709375e-05 8.546824e-06 8.432223e-09
0.00058295915 8.52714e-09 7.4247253e-10 6.4514467e-07 2.5608002e-05 2.4242918e-05 0.00010971914 1.9775581e-07
-1.2800259e-08 -9.992688e-08 6.2060013e-07 -9.69459e-07 4.6885555e-07 4.852565e-05 7.2239565e-09 3.638984e-05
-1.4504173e-09 3.1920067e-11 -4.996698e-11 -0.0003486025 -4.0019575e-08 1.2239974e-07 -6.5364123e-09 -5.4053548e-05
-7.790404e-09 2.4836323e-08 1.1710343e-08 7.236666e-11 -2.5141413e-09 1.0570208e-09 5.7812135e-06 -4.6699393e-12
-4.0493874e-06 -6.1555846e-05 -0.00014677708 -0.021960637 -6.533344e-05 6.87719e-06 0.00022385086 -0.00021949435
-6.1642105e-08 1.2846256e-05 3.6388272e-07 7.574614e-07 2.9239209e-06 1.3759942e-10 2.4065387e-06 -8.58636e-06
2.035694e-07 1.2635808e-06 1.8179159e-06 1.755655e-07 0.0009946735 -7.604929e-06 1.5411041e-06 -0.009595066
-1.06285925e-05 -2.8313205e-05 -0.0003011534 -1.2483672e-05 -1.7269074e-06 -0.00020153415 -0.00093289936 -0.0005365281
0.0023827734 -5.190361e-09 6.769163e-07 -0.0027251039 -0.00021942156 -8.257369e-06 0.0072023435 -2.1498989e-05
4.9406563e-06 -0.0003373934 0.00018257018 -5.6722547e-07 -0.0026214893 2.0347117e-05 -1.1026983e-06 2.1728836e-06
-3.305843e-05 0.0019252753 -3.727636e-07 -3.841347e-05 0.00040033445 -1.8322378e-07 1.9071063e-05 1.5329499e-07
-1.4163347e-05 1.2122231e-06 -7.1363604e-05 3.456766e-09 -2.1794658e-06 8.594847e-07 -2.0438352e-05 6.0892994e-08
00000000: a7e2 f2af 8f93 e439 2267 11b8 ba96 b136
00000010: 5e01 3fb9 952f 4eb9 ee5a 45af 22c0 7936
00000020: 091f 472f d207 39af 336f 96ba 7edf 7fb1
00000030: b475 8437 185b f82a b197 ba34 9f24 e1b3
00000040: c7bf ac39 d3ca cd2f 4d48 fdbb e746 1fae
00000050: d89a 17b6 b640 2c2d defd 1538 fdc1 a235
00000060: 6984 2a32 355a e5b4 75db df33 862b 93b4
00000070: 73c2 e6b0 49dd 98b6 e4fd 283b e6d8 0e34
00000080: a411 073a dd96 9733 d0b3 5930 60a3 8336
00000090: cdb1 eab5 7729 ed33 17ff b137 1c7c 96b2
000000a0: 5fd7 99b9 9a33 bf32 b4a3 8b33 c53b 38b2
000000b0: bab7 1436 0f2e 06b9 b5ea 05b1 12f8 00b6
000000c0: d2be 3a31 3413 1a3a 87de 0230 8b40 44bc
000000d0: 641f d733 a165 5633 aa25 9e33 94f1 c631
000000e0: 4a5c 73b0 aba3 fe31 940f e630 2c54 35af
000000f0: 053b eb31 e15d 0d30 1b45 b533 756d e12c
00000100: 88f3 97b2 5bcc 3235 a349 7238 5998 c239
00000110: 6ffa 8a37 1e60 82b5 35ed 29b6 0bb5 d835
00000120: f9a7 abb2 5ad3 283a bbd0 c2b3 4721 bbb3
00000130: 2e6e 0236 d4eb f82d e303 18b5 7895 9734
00000140: 77ee 02b8 d21a 2036 5ffe d139 8ded 2632
00000150: 3f99 4db9 0207 872f eee7 2bb6 c841 10b9
00000160: 76f6 f035 16f8 a237 5b6e 61b5 720f 033a
00000170: 325c a4ae 5cb4 62b9 3811 c838 46d3 0937
00000180: 47ee 7bb9 ccc8 a22e 7f93 d933 162d 5abb
00000190: 43fe a7b9 48df 5ab6 726f 8b39 f90a 85b6
000001a0: e43b 91b6 5c79 4f3c 6d90 ebb6 a47c 8ab9
000001b0: ee41 dd37 8441 8435 5252 0133 37bb 2534
000001c0: 4b5c 8eb4 3833 47ba 70a3 bcb2 2589 c03a
000001d0: 0932 14b8 3420 5d34 64fe cd35 8c82 8133
000001e0: a0e6 463c 316c c334 1c17 e0b4 69e0 34b8
000001f0: b374 72b1 740a dc31 f984 4e35 2035 cf2f
00000200: 3289 3f30 5020 0b37 e184 7bb0 6bc4 65b6
00000210: 749e 85b6 fa65 88b8 8223 38b1 a84f 2336
00000220: 8f2a 00bb 161e 6331 e5f1 a8b0 d02a 03b8
00000230: fda6 b431 86fa f5aa 8119 5eb5 59a3 5233
00000240: 29d4 a837 c7ba 95ae 2d38 2738 9db6 c030
00000250: a047 72b4 14ad 75b7 8d22 5830 9190 6f36
00000260: d537 b535 4966 9a34 4225 2634 9ff1 c5b8
00000270: 3639 f8b8 2fd9 7cb7 5464 0f37 4fdd 1032
00000280: bad1 183a c27e 1232 dc16 4c30 012e 2d35
00000290: c4d0 d637 455d cb37 0419 e638 b456 5434
000002a0: 22e8 5bb2 6297 d6b3 5197 2635 5c1e 82b5
000002b0: 04b7 fb34 0588 4b38 9836 f831 4ba1 1838
000002c0: 0658 c7b0 cd62 0c2e d1c1 5bae a3c4 b6b9
000002d0: fde1 2bb3 fc6c 0334 e496 e0b1 8eb7 62b8
000002e0: 8fd6 05b2 a757 d532 a22e 4932 cf22 9f2e
000002f0: 3ec5 2cb1 9d46 9130 3ffc c136 134f a4ac
00000300: f9df 87b6 8b17 81b8 2ce8 19b9 cbe6 b3bc
00000310: a003 89b8 9dc2 e636 82b9 6a39 1128 66b9
00000320: 1b60 84b3 4086 5737 a95b c334 5a54 4b35
00000330: 9438 4436 cb4a 172f 0580 2136 230e 10b7
00000340: bb94 5a34 4e98 a935 1dff f335 1483 3c34
00000350: b45f 823a d82d ffb6 efd7 ce35 a034 1dbc
00000360: 7551 32b7 2582 edb7 20e4 9db9 f770 51b7
00000370: 16c8 e7b5 e952 53b9 d18d 74ba cba5 0cba
00000380: 4e28 1c3b e656 b2b1 55b5 3535 a897 32bb
00000390: 8714 66b9 2189 0ab7 a301 ec3b ba58 b4b7
000003a0: eac7 a536 2de4 b0b9 4f70 3f39 7043 18b5
000003b0: 4bcd 2bbb 1aaf aa37 6d00 94b5 dbd1 1136
000003c0: 38a8 0ab8 8559 fc3a 3d20 c8b4 261e 21b8
000003d0: fbe3 d139 2bbc 44b4 ccfa 9f37 6899 2434
000003e0: 1d9f 6db7 abb3 a235 0ba9 95b8 128c 6d31
000003f0: f042 12b6 57b7 6635 0773 abb7 47c4 8233

gnn.init_context.attentive_gru.gru.bias_ih f4 [192]
-2.3834018e-05 -9.770887e-06 1.244319e-05 -0.014120044 -2.6798567e-08 1.1371345e-07 3.4987638e-12 -6.392731e-05
7.88497e-10 -0.13965134 -3.4028478e-08 2.7702157e-10 -7.189558e-08 -1.5561642e-15 1.704e-42 -6.4435346e-07
7.50765e-07 7.077436e-05 6.7429537e-06 -7.9886395e-06 -3.846107e-19 8.3187285e-07 0.0002335263 -0.002869335
-3.6002343e-06 0.0010568413 -8.739525e-09 1.058513e-35 6.5588024e-06 -6.138943e-05 -0.043618347 -1.7445684e-08
-8.081628e-06 -2.6172e-12 6.830996e-11 0.0022784546 5.068788e-05 -2.6298693e-07 2.5590427e-05 1.25309135e-23
-4.8215736e-07 0.010567136 -1.9213019e-21 1.0704897e-06 -0.058840685 0.00022501723 -0.0029059139 1.3222302e-07
2.0551988e-06 -2.7929448e-09 2.0635915e-07 -2.7143804e-07 1.886889e-24 1.973406e-05 5.9191043e-05 0.0001064779
-0.0008133667 -8.1732e-05 9.201432e-08 -5.451738e-14 5.839751e-05 0.00060174154 0.00014019893 -4.7191566e-09
6.671039e-07 -0.00012814635 0.00030741544 0.06639289 1.2029113e-07 1.0681057e-06 5.60413e-12 3.993029e-06
-1.334664e-09 0.09562446 1.0602918e-06 9.427617e-08 -3.8130165e-06 8.857011e-11 6.3217753e-16 7.949998e-06
0.0024740729 -1.9223924e-05 1.5999856e-06 5.5213604e-05 1.6020267e-07 -1.0594865e-06 0.00057600235 0.24885198
-1.5127434e-05 -5.4673717e-05 7.288967e-07 -2.840813e-34 1.5087317e-05 -4.09649e-05 0.023652079 3.390393e-06
0.0002247769 9.811627e-07 1.0117904e-09 0.027522484 -1.5756531e-06 1.9912586e-05 5.080225e-05 -5.539844e-23
-1.1312619e-07 0.015066461 1.5790126e-22 -2.6001482e-05 -0.12879555 0.00074377947 -0.032538112 -1.3624373e-06
3.6115304e-07 8.119927e-10 -3.211116e-07 2.8030572e-06 2.2492431e-23 -4.238262e-06 -4.1463863e-05 -3.118941e-05
0.002545647 0.00015458377 2.5135336e-07 2.7851459e-11 2.7851944e-05 0.0009805559 -0.001312235 2.965408e-07
2.5989139e-05 -0.0016427886 -0.0055667036 -0.14362098 -4.8555223e-05 -0.019159319 1.3923737e-09 -0.0006854631
6.4059755e-06 -0.391341 -0.00027994427 2.9804063e-05 0.00015335875 2.5575026e-11 9.37e-43 -0.0010525753
-0.060892705 -0.003255763 0.0012569748 0.0026489936 -9.0977176e-10 0.004584776 -0.080389686 0.38424838
-0.001475152 -0.0090562925 -0.0003664816 -2.3214041e-12 -0.002965341 0.0002694216 -0.021844048 -0.003831758
-0.047781277 -0.0012208432 -1.3793532e-06 -0.19198024 -0.01841077 -0.0033620184 -0.004054773 5.7309274e-23
-0.000618592 -0.24990195 6.903081e-20 -0.0016617038 -0.11106122 -0.01515029 -0.08803454 6.178457e-05
0.0017286224 -1.1873524e-05 3.2102806e-05 -0.006341149 -2.3713536e-23 -0.0034729198 -0.03650141 -0.0010590459
-0.048557818 -0.07692367 3.9627314e-05 -1.04235944e-07 -0.008185946 -0.084024705 -0.10511444 -0.0044278507
00000000: 2aef c7b7 a4ed 23b7 18c3 5037 c257 67bc
00000010: ac32 e6b2 a132 f433 2034 762c b710 86b8
00000020: 8bbd 5830 c300 0fbe b526 12b3 524b 982f
00000030: 0365 9ab3 5344 e0a6 c004 0000 a2f7 2cb5
00000040: 2e88 4935 b26c 9438 8841 e236 f206 06b7
00000050: ba08 e3a0 de4d 5f35 bdde 7439 740b 3cbb
00000060: 8e9b 71b6 b685 8a3a d624 16b2 ee1e 6105
00000070: af13 dc36 33be 80b8 27a9 32bd 77db 95b2
00000080: 5496 07b7 492b 38ac 1737 962e 2052 153b
00000090: b299 5438 a630 8db4 06ab d637 1462 7219
000000a0: 9a6d 01b5 c821 2d3c 622b 119d bfad 8f35
000000b0: ee02 71bd 9af2 6b39 2571 3ebb 30f9 0d34
000000c0: 0cec 0936 01ee 3fb1 9293 5d34 29ba 91b4
000000d0: b0fd 1118 928a a537 e643 7838 e34c df38
000000e0: 1e38 55ba 8967 abb8 6899 c533 4386 75a9
000000f0: d9ef 7438 31be 1d3a 5d02 1339 2426 a2b1
00000100: 0813 3335 065f 06b9 9a2c a139 fff8 873d
00000110: 6029 0134 d55b 8f35 842d c52c dcfb 8536
00000120: 516f b7b0 c2d6 c33d 594f 8e35 df74 ca33
00000130: 20e3 7fb6 8ac4 c22e 7836 3626 fb60 0537
00000140: 0e24 223b 1043 a1b7 16bf d635 2895 6738
00000150: 2d04 2c34 ae33 8eb5 ddfe 163a 0ed3 7e3e
00000160: d6cb 7db7 7551 65b8 66a9 4335 eecd bc87
00000170: 881f 7d37 bad1 2bb8 01c2 c13c 8286 6336
00000180: 17b2 6b39 7eb0 8335 360f 8b30 d576 e13c
00000190: 077b d3b5 f409 a737 8014 5538 f9f1 859a
000001a0: c8ef f2b3 51d9 763c 13e4 3e1b c21d dab7
000001b0: fbe2 03be 32fa 423a af46 05bd fddc b6b5
000001c0: 7fe4 c134 e832 5f30 3e65 acb4 281c 3c36
000001d0: 9088 d919 6536 8eb6 7ce9 2db8 60d1 02b8
000001e0: dfd4 263b c417 2239 bef1 8634 e9fb f42d
000001f0: 98a3 e937 ff85 803a 4dff abba 4234 9f34
00000200: 4003 da37 d752 d7ba e568 b6bb 6111 13be
00000210: c6a7 4bb8 01f4 9cbc cb5d bf30 a6b0 33ba
00000220: e9f2 d636 d95d c8be 7cc5 92b9 bd03 fa37
00000230: edce 2039 d7f5 e02d 9d02 0000 91f6 89ba
00000240: a16a 79bd a45e 55bb 13c1 a43a bd9a 2d3b
00000250: 7f13 7ab0 e33b 963b 59a3 a4bd 34bc c43e
00000260: e359 c1ba d860 14bc 5424 c0b9 b35a 23ac
00000270: 2b56 42bb 2841 8d39 4af2 b2bc 3b1e 7bbb
00000280: 4db6 43bd b304 a0ba 3722 b9b5 7896 44be
00000290: 2fd2 96bc 4f55 5cbb e7dd 84bb b990 8a1a
000002a0: 0229 22ba 4ce6 7fbe 90fe a21f 87cd d9ba
000002b0: 1174 e3bd ec38 78bc 744b b4bd 5792 8138
000002c0: f192 e23a 6634 47b7 20a6 0638 6ac9 cfbb
000002d0: df57 e599 ed99 63bb 8182 15bd afcf 8aba
000002e0: 90e4 46bd 288a 9dbd 8135 2638 51d8 dfb3
000002f0: 591e 06bc 2515 acbd 3d46 d7bd 8117 91bb
