Results/AFP/33/model.pth (torch, 222293 bytes, 47 tensors)

gnn.init_context.project_node.0.weight f4 [32, 74]
00000000: ecc2 5b40 1937 943f 974e c03e c1a6 d9bb
00000010: 0dbc 423d b0c5 8638 0ffe 4139 b08b 4dbd
00000020: 50f6 7038 2371 e2a7 596c c227 96a8 aaa8
00000030: 2d69 04a8 672c 7828 80f8 ed27 6d13 38ba
00000040: 15fe b228 2aae 14a8 fb5b e0a7 2892 ac27
00000050: 515b 5528 ac7d fca7 1cd8 5f28 8cd4 88a8
00000060: 506c 20a6 1e3f 1aa8 421e 7328 4894 fca7
00000070: 6985 eaa7 638c b335 ea79 b7a8 45c4 3fa8
00000080: c63d 27a8 9d80 e5a6 3b79 6727 1fbd 8b28
00000090: 2a34 1c28 d6f0 8fa8 62bb 2228 30c8 af28
000000a0: 88ba 90a8 b684 b227 8555 31a8 8965 db28
000000b0: 3567 343f 1424 2240 b584 4e40 4356 bcbd
000000c0: 65bf a328 ccc4 3dbb 0ab9 5528 ad20 a428
000000d0: 8b77 4228 1e5f 25a8 41a1 6840 0c8d f03f
000000e0: a852 993e abeb 9bbc 3f01 5127 e892 5d28
000000f0: b777 9528 724a 1b3c 7dc6 00a8 eb6e 0bbe
00000100: ec67 6040 f79a e33f 6522 1728 59a5 2abb
00000110: b52d 4740 082e 5d40 db43 1440 d31e 9c3e
00000120: c2e1 9bbc 9e53 9ca8 5913 b0bf 49f2 a6be
00000130: 700e 8d3a 3076 9d37 8c82 1dbb 13b2 5935
00000140: f5e4 54b5 8cf3 a036 00bd cfb2 4f14 31a8
00000150: 681a 4928 8e92 b1a8 8868 f627 d71f 8a28
00000160: 8b9c 4aa8 12cf c6b5 5a1a 1328 961c 8c28
00000170: 8e81 22a8 5d58 6728 646b 8728 54a5 ba28
00000180: ad1a 4e28 4100 8128 0bc8 80a8 70f7 2e26
00000190: 97f2 bca8 64ed e027 4401 24a8 c56e 9eb1
000001a0: a3df c3a8 c437 8da8 0f64 c6a8 72c0 4028
000001b0: 0a67 4fa8 76e2 8fa8 0838 8928 0cf1 3928
000001c0: 8694 4c28 4373 98a8 9dda 8528 b26b a7a8
000001d0: c0cf a627 7698 fd27 137b 85be afab 5dbf
000001e0: eb59 53bf 80cb 1ab4 ef48 b3a7 4a78 e6b5
000001f0: 7a58 70a8 ed67 b0a8 61f2 4328 3b2f 9428
00000200: a06d 96bf 83b6 e7be b355 5238 2df7 9bb9
00000210: 2e94 9ea4 7810 ae28 85f5 04a8 92f1 d3b6
00000220: b173 b628 a00e 33b9 5726 adbf e490 86be
00000230: a40c 8ba8 2645 9435 63f6 a6bf de13 92bf
00000240: bd64 08bf d82c 4f38 23f4 9bb9 e349 89a8
00000250: 7047 9e3c 295a 88bc 74d0 a43b d963 8fb9
00000260: 1b9f f838 94ac e0b6 8be8 0536 249c d0b8
00000270: 01c8 6bb6 38d3 80a8 b94d 5728 0b98 2fa8
00000280: 75e2 a327 0e74 bba7 3d0e 0028 a0f8 be36
00000290: d483 5ea8 db09 8f28 7764 8028 7e4a 70a8
000002a0: 5379 5428 65f4 b828 694d 01a8 cd7c fea7
000002b0: 5b93 0e28 2bbf bb28 e7d8 8327 aadf a1a8
000002c0: 9989 59a7 524e 00b6 3c54 1aa7 7252 7928
000002d0: 557d 4a28 b7b4 b2a7 6e43 43a8 6c6c 81a8
000002e0: 0f83 89a8 4c9c 9da8 237d b328 5c78 9928
000002f0: 0951 95a8 dea5 3528 9efb 4825 53c0 69a8
00000300: ddde 2abb 583b adba 073f 8bbc e292 6eb8
00000310: c199 44a8 4d13 c1b5 6faa bb28 32f7 5f28
00000320: 0357 70a6 798e 6228 faad 113c 3a78 283b
00000330: e520 aabb f601 ddba f6ff 4f28 efd3 9aa8
00000340: 0b7a 5da8 24fd 97ba 9f2c 4da8 7267 f7b8
00000350: 7110 b73c 3cd0 fdba 196c 8f28 5635 24b5
00000360: feed 963c 8974 4dbb 0e5f 23bc 86fe a9bb
00000370: 4488 deba e62b 0aa8 891c be33 47a1 34b3
00000380: c445 ad30 cef5 84b1 0cc4 ca31 6380 7daf
00000390: 925c 9c2f 863f 00b1 687b b9ad 6578 3827
000003a0: df99 6528 6a5e e7a7 d5b7 b0a8 a66f 76a8
000003b0: 78ae 8f28 dcac 602f 9bd1 3726 0558 8028
000003c0: aea2 86a8 9b03 4e28 24a1 9d28 c2c9 88a8
000003d0: 2a0e 9ba8 9d24 c0a8 23ee 9628 89c1 bba8
000003e0: 4605 7fa8 5562 8728 c62d a428 158e 82aa
000003f0: 0b48 bfa8 9140 47a8 3374 e726 5042 32a8
3.433772 1.1579314 0.3755996 -0.006642193 0.04754262 6.42644e-05 0.00018500559 -0.050182045
5.7449855e-05 -6.2850264e-15 5.3963287e-15 -1.8946904e-14 -7.350278e-15 1.3776394e-14 6.605014e-15 -0.00070219376
1.987216e-14 -8.253416e-15 -6.2272215e-15 4.7898053e-15 1.1843676e-14 -7.0080304e-15 1.2425848e-14 -1.519121e-14
-5.565794e-16 -8.562404e-15 1.3495771e-14 -7.0104817e-15 -6.509269e-15 1.3377397e-06 -2.0369953e-14 -1.0645189e-14
-9.283757e-15 -1.5924928e-15 3.212341e-15 1.5514118e-14 8.671051e-15 -1.5980635e-14 9.033439e-15 1.951572e-14
-1.6068107e-14 4.954881e-15 -9.844018e-15 2.4357918e-14 0.7046998 2.533452 3.2268498 -0.091961406
1.817964e-14 -0.0028956411 1.1863999e-14 1.8221828e-14 1.0795085e-14 -9.179965e-15 3.6348422 1.8793044
0.29945874 -0.019033274 2.9005252e-15 1.229982e-14 1.6594241e-14 0.009478198 -7.148468e-15 -0.1361653
3.506343 1.7781667 8.389642e-15 -0.0026038496 3.1121647 3.4559345 2.3166416 0.30492267
-0.019028548 -1.7355742e-14 -1.3755904 -0.32606724 0.0010761749 1.8770894e-05 -0.002403411 8.109793e-07
-7.930933e-07 4.796724e-06 -2.4183919e-08 -9.8298775e-15 1.1163467e-14 -1.9714506e-14 6.839205e-15 1.5334886e-14
-1.1247197e-14 -1.4812415e-06 8.165853e-15 1.555552e-14 -9.020899e-15 1.2842237e-14 1.5034584e-14 2.0721848e-14
1.14410815e-14 1.4321987e-14 -1.429761e-14 6.0703717e-16 -2.09774e-14 6.242987e-15 -9.104103e-15 -4.6109982e-09
-2.1746336e-14 -1.5678329e-14 -2.202581e-14 1.0699871e-14 -1.1513151e-14 -1.5974401e-14 1.5234355e-14 1.0321832e-14
1.1356481e-14 -1.6925377e-14 1.4860775e-14 -1.858743e-14 4.62995e-15 7.0386905e-15 -0.2607046 -0.86590093
-0.8255908 -1.44164e-07 -4.9761555e-15 -1.7171344e-06 -1.3341862e-14 -1.9584996e-14 1.0877232e-14 1.6451784e-14
-1.1752205 -0.45256433 5.0147715e-05 -0.00029748064 -6.8772603e-17 1.9325023e-14 -7.3807105e-15 -6.3164125e-06
2.0256232e-14 -0.00017076219 -1.3527325 -0.26282418 -1.5437582e-14 1.1046984e-06 -1.3043941 -1.1412313
-0.53278714 4.939441e-05 -0.000297458 -1.5242099e-14 0.019321173 -0.016644554 0.0050297324 -0.00027349478
0.00011855197 -6.695811e-06 1.9953902e-06 -9.947296e-05 -3.5134146e-06 -1.4302456e-14 1.1951751e-14 -9.7474205e-15
4.5487113e-15 -5.2028753e-15 7.108515e-15 5.691385e-06 -1.2352061e-14 1.5880463e-14 1.4254424e-14 -1.3338829e-14
1.1794672e-14 2.0534093e-14 -7.177724e-15 -7.063447e-15 7.914536e-15 2.0844076e-14 3.659497e-15 -1.797159e-14
-3.0189391e-15 -1.9119075e-06 -2.1417457e-15 1.3840154e-14 1.124043e-14 -4.9600856e-15 -1.0839296e-14 -1.4368898e-14
-1.5266893e-14 -1.7498284e-14 1.9927262e-14 1.703861e-14 -1.6577466e-14 1.0083485e-14 1.7432486e-16 -1.2975802e-14
-0.0026072778 -0.0013216538 -0.016997827 -5.6880417e-05 -1.0913526e-14 -1.4385238e-06 2.0835084e-14 1.2432589e-14
-8.338465e-16 1.2576414e-14 0.008891577 0.0025706426 -0.0051919096 -0.0016861546 1.1546311e-14 -1.7189346e-14
-1.2294428e-14 -0.0011595828 -1.1389462e-14 -0.00011797146 0.022346707 -0.0019364427 1.5923069e-14 -6.1172375e-07
0.01842403 -0.0031349978 -0.009971393 -0.0051878123 -0.0016977866 -7.670058e-15 8.852755e-08 -4.2056197e-08
1.2607235e-09 -3.8696504e-09 5.9012617e-09 -2.3055828e-10 2.844201e-10 -1.866256e-09 -2.1086868e-11 2.5600396e-15
1.2745419e-14 -6.4217744e-15 -1.961965e-14 -1.3679953e-14 1.5951853e-14 2.0434093e-10 6.377495e-16 1.4249027e-14
-1.494754e-14 1.1436079e-14 1.7500385e-14 -1.5186532e-14 -1.72146e-14 -2.133216e-14 1.675662e-14 -2.0845103e-14
-1.4156487e-14 1.5030656e-14 1.8227509e-14 -2.3191228e-13 -2.1236503e-14 -1.106072e-14 1.6060341e-15 -9.895364e-15

gnn.init_context.project_node.0.bias f4 [32]
00000000: 2b01 6b40 bd63 c7bf f957 bbbd ebad 81b4
00000010: ebc5 ddbc 5b11 003c 411b 883c 2cf3 67be
00000020: 7f33 2b3c 4144 cabe 90e7 4840 794c e0b4
00000030: 1e7c 69be c248 e7bd 733e 3ac0 0cd3 94be
00000040: 1ce1 8d3b 1134 a73c 0682 7abf c40c 57bb
00000050: 1d19 16bf a6bc e4bf 02e8 8540 99ca 12bf
00000060: 235f 30b9 ea08 9bbc 07e0 64be b6bc b73d
00000070: 7c60 92bc 0fcf f1bc d9ba cebf b367 37c0
3.6719463 -1.5577313 -0.09147639 -2.4154664e-07 -0.027071914 0.007816638 0.016614558 -0.22651356
0.010449289 -0.395052 3.1391335 -4.1778893e-07 -0.22801253 -0.11293174 -2.9100616 -0.29067266
0.0043298136 0.02041057 -0.9785465 -0.0032814005 -0.5863207 -1.7870071 4.1845713 -0.5734039
-0.00016820109 -0.018925149 -0.22351085 0.08971541 -0.017868273 -0.029517679 -1.6150771 -2.8657043

gnn.init_context.project_edge1.0.weight f4 [32, 87]
00000000: aa6d 06b7 c743 3fb6 2ef9 40b3 206d 8a35
00000010: 0c70 a733 54f6 d331 7f71 102f 599f f531
00000020: 6c01 a22e 9966 6028 830b c027 7026 3ba6
00000030: 99da 8e28 e895 2f28 b22c 0c28 6600 68ad
00000040: 50be b228 638b 8928 df69 58a8 6b55 51a8
00000050: 7bf4 a527 6010 89a8 5bdc 4e28 bfd5 2528
00000060: dc2a 96a8 6139 8528 8f48 0a26 8e06 8fa8
00000070: f3f6 0a28 bb94 d727 aaa2 7828 d360 46a8
00000080: 37b6 5c28 1c81 cca8 0d85 86a7 780f 3da8
00000090: 80dc 22a8 2ce7 b9a8 3c87 9328 d723 43a8
000000a0: 707f 82a8 656f 01a8 3691 a5a8 ec4d 51a6
000000b0: db91 5c36 f087 ddb6 5d38 3636 c396 abb1
000000c0: 3e40 3ca8 8b46 1f30 8aa6 80a8 1f42 0328
000000d0: 7305 9a28 28e8 c1a8 272c 11b6 fa32 88b6
000000e0: 8518 ce35 4c25 0cb6 245e 2aa8 1983 d3a8
000000f0: 6ce5 a0a8 3a1b c430 36a1 8228 53a7 0ab4
00000100: 6866 33b5 a3ce 19b7 1021 6d28 5f39 09af
00000110: f155 12b5 5695 0db6 e6cb 45b6 1983 d435
00000120: c6f6 5537 fdb8 c228 ef9e 2bb6 2e8b 6635
00000130: 2418 abb4 4e04 c2b5 ca09 cf35 fcf3 06b6
00000140: 9878 3eb6 df14 8528 801f 68ab 4756 442d
00000150: b719 c8a7 3656 6128 80b0 f7b4 df81 1a32
00000160: d3d4 c832 37bd 35b2 f667 52ae 06ce b2b0
00000170: ac96 21ae 1958 b8ac 24f6 542f f315 832b
00000180: d324 c6a8 62d9 baa5 d5ba 9928 32a6 a2a7
00000190: 4025 c328 444b 0528 e366 462e 1163 cda5
000001a0: 71ef bda8 45ee c328 8cfe cda8 0a76 93a8
000001b0: c7bc a528 7801 ad27 ba33 f427 a012 c527
000001c0: 4e55 1da8 4d19 17a8 9773 80a8 e569 b9a7
000001d0: 48ed 392a 209c 64a8 6c61 91a8 4f67 4da8
000001e0: a692 d327 1b3a 7ea8 d3df 8e28 8951 7428
000001f0: c516 03a8 9215 caa7 fe09 3528 904f 8228
00000200: e52b 91a8 7c03 84a8 93f2 87a8 3d9b 3432
00000210: f360 1431 b404 56b3 e357 9eb2 983e 0c28
00000220: 28c3 87ad 09b0 5fa7 36e0 7027 516e cea8
00000230: beac a628 05d4 7833 1e3e 6db2 d364 eb32
00000240: 51bc 54b2 b62b 76a8 925b 11a8 c5cb 69a8
00000250: 5f81 07af 5197 7aa6 fe83 0131 d917 8232
00000260: 7097 2233 3ca3 7826 7260 e92d 1ee7 5caf
00000270: c635 3a33 7ba4 66b1 f716 e932 ac15 56b2
00000280: bb16 5aa7 40c9 d032 5630 87b2 7525 092f
00000290: d8db 98b1 5329 edb1 e2f5 b531 9e44 fd32
000002a0: 1e05 9628 8299 832e 89a0 18ab e374 6ea8
000002b0: 3e7c b028 a279 ac32 49e4 97b0 d473 5330
000002c0: ae21 022d ba12 442d 1f16 3a2e 6142 14ac
000002d0: f849 adac 952f b42c 3c1e 32aa 7f87 1ba8
000002e0: cc30 baa8 6e30 9128 cd56 b328 48f5 a0a8
000002f0: 595c dea7 169e e9aa 33d3 af27 bcd9 9da8
00000300: 92bb ec27 0fc3 1427 b7ba 7628 a165 9f26
00000310: 685e 0128 872a 07a8 18ab 8528 1441 a7a8
00000320: 20a5 69a8 5b17 f927 2d64 88a8 886d 9228
00000330: 062b 1e28 1fed 10a8 cfa6 4928 1f2d a8a8
00000340: 5a3d 8928 da06 d628 888c c5a8 ad75 1028
00000350: 476c c528 3087 7828 47b0 59a8 8426 d6a8
00000360: 47f6 4928 7c00 61a7 f793 bc2d 170b 7bb0
00000370: 8984 e1af 8b10 042e 3c1d 3328 efa1 c42a
00000380: 7d70 9aa8 b701 0b27 cc52 db28 bfc0 8aa8
00000390: 004d 31b0 9d94 08ae d13d c2b0 8fd3 512d
000003a0: b073 f0a6 caa6 c728 8d38 8928 7a2a 74ae
000003b0: 6234 c526 08c2 25ae 3f85 5fb0 1c42 2cb0
000003c0: dbcd 3227 bdea 3aab 2ef9 4330 8e0f fdaf
000003d0: 14d5 322f 2a1a c2b0 6db6 532d 2f25 c7a6
000003e0: 2a99 262f 73fb 64ad e823 4bab 00cc d9af
000003f0: dbad fe2f ca8a afae ec4f f1af 1db2 4228
-8.012556e-06 -2.850067e-06 -4.493011e-08 1.0313561e-06 7.796925e-08 6.1689125e-09 1.3137046e-10 7.148554e-09
7.36716e-11 1.2456745e-14 5.3303186e-15 -6.493075e-16 1.5859969e-14 9.746957e-15 7.781253e-15 -1.3187762e-11
1.9844505e-14 1.5270505e-14 -1.2013366e-14 -1.1620353e-14 4.6061766e-15 -1.5217157e-14 1.1483079e-14 9.205689e-15
-1.6671933e-14 1.479085e-14 4.7976703e-16 -1.5879032e-14 7.7140874e-15 5.983574e-15 1.3802038e-14 -1.1012203e-14
1.2251965e-14 -2.2704542e-14 -3.7336725e-15 -1.0494962e-14 -9.04062e-15 -2.063938e-14 1.6378927e-14 -1.0832446e-14
-1.4488167e-14 -7.185093e-15 -1.8381655e-14 -7.2617045e-16 3.2867454e-06 -6.6021385e-06 2.715292e-06 -4.9938946e-09
-1.0450027e-14 5.794411e-10 -1.428308e-14 7.2862985e-15 1.7099798e-14 -2.1527986e-14 -2.1632384e-06 -4.0590503e-06
1.5355332e-06 -2.0883335e-06 -9.457309e-15 -2.348256e-14 -1.7863064e-14 1.4268615e-09 1.4502813e-14 -1.2913124e-07
-6.6831717e-07 -9.167622e-06 1.3163312e-14 -1.248046e-10 -5.45143e-07 -2.1097562e-06 -2.9473972e-06 1.5833385e-06
1.2753246e-05 2.1618553e-14 -2.5573497e-06 8.588421e-07 -3.1868797e-07 -1.4455379e-06 1.5425551e-06 -2.0109574e-06
-2.83824e-06 1.4775018e-14 -8.246667e-13 1.11604675e-11 -5.553903e-15 1.2508703e-14 -4.6135756e-07 8.993509e-09
2.3379846e-08 -1.0578609e-08 -4.7840808e-11 -1.300976e-09 -3.6740985e-11 -5.2393753e-12 1.9368734e-10 9.314202e-13
-2.1998386e-14 -3.241316e-16 1.7067438e-14 -4.514422e-15 2.1665504e-14 7.399304e-15 4.511137e-11 -3.562896e-16
-2.1087056e-14 2.1752682e-14 -2.2869964e-14 -1.637147e-14 1.8400549e-14 4.801874e-15 6.7779687e-15 5.4698677e-15
-8.733748e-15 -8.38767e-15 -1.4260984e-14 -5.1462626e-15 1.6513624e-13 -1.2690397e-14 -1.6140484e-14 -1.14021875e-14
5.872326e-15 -1.4112432e-14 1.5862235e-14 1.3562401e-14 -7.276898e-15 -5.608965e-15 1.0049685e-14 1.4467404e-14
-1.611727e-14 -1.4656455e-14 -1.509321e-14 1.0512676e-08 2.1591944e-09 -4.9830035e-08 -1.8433587e-08 7.785134e-15
-1.543439e-11 -3.1042896e-15 3.3428236e-15 -2.2918436e-14 1.8504617e-14 5.793483e-08 -1.38093394e-08 2.740345e-08
-1.2382842e-08 -1.36652215e-14 -8.068973e-15 -1.2978284e-14 -1.232414e-10 -8.6941246e-16 1.8847e-09 1.5144836e-08
3.7856296e-08 8.626351e-16 2.6531864e-11 -2.0090993e-10 4.3355406e-08 -3.3562901e-09 2.7135213e-08 -1.2461367e-08
-3.02659e-15 2.4305905e-08 -1.5738049e-08 1.2473385e-10 -4.4487756e-09 -6.902306e-09 5.295747e-09 2.948428e-08
1.6655565e-14 5.984459e-11 -5.4224035e-13 -1.3237e-14 1.9593807e-14 2.0078748e-08 -1.1051579e-09 7.6925954e-10
7.397123e-12 1.1145468e-11 4.231115e-11 -2.1068913e-12 -4.925168e-12 5.1211904e-12 -1.5820066e-13 -8.6336095e-15
-2.067131e-14 1.6119237e-14 1.9910636e-14 -1.7869942e-14 -6.17175e-15 -4.1498809e-13 4.880124e-15 -1.7524929e-14
6.5706523e-15 2.0644867e-15 1.36962305e-14 1.1060388e-15 7.18141e-15 -7.503227e-15 1.4840166e-14 -1.8568948e-14
-1.2969904e-14 6.9136705e-15 -1.5142477e-14 1.6256758e-14 8.780091e-15 -8.045023e-15 1.1193912e-14 -1.8671315e-14
1.5236662e-14 2.3761744e-14 -2.193234e-14 8.019123e-15 2.1918351e-14 1.379608e-14 -1.2084144e-14 -2.3775476e-14
1.1211144e-14 -3.1225285e-15 2.1438835e-11 -9.132903e-10 -4.1021433e-10 3.002802e-11 9.942835e-15 3.4928958e-13
-1.7146219e-14 1.9291055e-15 2.4349792e-14 -1.5404668e-14 -6.450165e-10 -3.1054815e-11 -1.4132927e-09 1.192725e-11
-1.6684703e-15 2.2165771e-14 1.523458e-14 -5.5516904e-11 1.3683819e-15 -3.768899e-11 -8.131628e-10 -6.266718e-10
2.4814057e-15 -6.640624e-13 7.129469e-10 -4.6031484e-10 1.6264706e-10 -1.4122794e-09 1.2034468e-11 -1.3818478e-15
1.5152027e-10 -1.30161324e-11 -7.216992e-13 -3.961702e-10 4.6325863e-10 -7.9827325e-11 -4.3894433e-10 1.08077855e-14

gnn.init_context.project_edge1.0.bias f4 [32]
00000000: 8137 feb6 fd4a 3bb3 42cb 4830 6c8e 26b9
00000010: 6a15 32b0 6802 5231 3de5 10b5 c0ba 12b0
00000020: f02e 4eb2 b4b3 95b1 97f2 76b1 38c0 f23f
00000030: f89e bc34 a9a7 95b4 b99f 1fb2 a247 02bd
00000040: 4a02 2633 52b5 bdb8 4c9e b631 35fc eebe
00000050: 4467 0eb4 0a87 b1ba 43a2 c131 d294 01b1
00000060: d0a3 0db7 742e 14b6 a313 2535 695d 0cad
00000070: 124c d1b7 0f86 3332 c2f1 b1b2 be2d c2b3
-7.5762514e-06 -4.3607532e-08 7.3048423e-10 -0.0001588405 -6.4786454e-10 3.056039e-09 -5.3977766e-07 -5.337988e-10
-1.20014505e-08 -4.3569006e-09 -3.5935608e-09 1.896491 3.5133394e-07 -2.7875402e-07 -9.291335e-09 -0.031806596
3.865197e-08 -9.045996e-05 5.3148934e-09 -0.46676794 -1.3262348e-07 -0.0013544273 5.6354863e-09 -1.8856565e-09
-8.4423955e-06 -2.2080758e-06 6.1495865e-07 -7.97882e-12 -2.4950165e-05 1.0449653e-08 -2.071545e-08 -9.0421494e-08

gnn.init_context.project_edge2.1.weight f4 [1, 64]
00000000: a724 fdbe 5843 f03a 77ab 94ba 686e df31
00000010: 85f6 813d ec81 0b3c e0e9 56bc 7807 7fb9
00000020: f397 cebb e319 c2ba 3173 cabe 6da1 b830
00000030: 70b8 6f3b 4b7a c83e 182f 8a3c 1bb4 0dbf
00000040: 8e53 783c 580d f4ba 79a5 003c e341 c8b5
00000050: f09a 52bc 1e4b 423c 1ead 3e3e 5663 80bd
00000060: bac4 89b4 8c58 88b8 a4d3 94bb b27e 62bd
00000070: 939f 3cbd 9bc4 1939 95f3 483b 2aad 7cbc
00000080: 992b 07b8 096b b0b3 de36 5bb0 82bb 1039
00000090: 1a25 07b0 44fe 8730 c07b 2cb7 459e d730
000000a0: 3240 4a33 3886 0fb3 552a 76b2 ac53 2bbc
000000b0: 7b75 54b5 3f91 7135 9015 81b1 3485 5abc
000000c0: 69db 0034 509b 393a 02a7 2bb2 e5e7 08bf
000000d0: 08ba 98b2 a69c ccbb e924 1fb1 be79 b7b1
000000e0: 9fd7 8ab7 29a2 1637 f328 19b6 94c7 a332
000000f0: e8bd dcb7 1049 efb1 cad2 0436 a9f5 99b5
-0.49442026 0.0018330617 -0.0011342604 6.502706e-09 0.06345848 0.0085148625 -0.013117284 -0.00024321477
-0.006304735 -0.001480874 -0.3954101 1.3433642e-09 0.003657844 0.39155802 0.01686816 -0.55352944
0.01515664 -0.0018619699 0.007851952 -1.4920337e-06 -0.012854323 0.01185873 0.18620726 -0.06268947
-2.5661376e-07 -6.5014785e-05 -0.004541831 -0.055296607 -0.04605062 0.00014664458 0.0030662764 -0.015422145
-3.222711e-05 -8.215108e-08 -7.9749707e-10 0.00013802762 -4.916544e-10 9.894809e-10 -1.0280812e-05 1.5688292e-09
4.7090175e-08 -3.3416853e-08 -1.432871e-08 -0.010456961 -7.914711e-07 8.9990857e-07 -3.7568455e-09 -0.013337422
1.200075e-07 0.00070803333 -9.991483e-09 -0.5347884 -1.7779726e-08 -0.00624426 -2.3158526e-09 -5.3398415e-09
-1.6551288e-05 8.978453e-06 -2.2822612e-06 1.9066455e-08 -2.6314476e-05 -6.9641217e-09 1.9792228e-06 -1.1470885e-06

gnn.init_context.attentive_gru.edge_transform.1.weight f4 [32, 32]
00000000: 5ea8 36b4 9dd1 8231 6dc3 3d2f 1837 ff35
00000010: 5972 da2e c924 55b0 247c 22b5 f55b 5d30
00000020: dc12 092c 4910 8332 fe52 08b1 ae05 4ebd
00000030: 6dcb 0634 1ad8 e2b2 9f04 58b0 3af1 bdb8
00000040: 1d08 d0b3 79b0 b936 d340 bd30 e5ab 1a3d
00000050: cee1 0bb2 dd49 a838 842b 06b0 0282 95b0
00000060: 2f6e 27b5 1857 b534 1fb0 06b6 628d b92f
00000070: ab1a 2036 3faf 8431 60cf a833 8433 5f34
00000080: b72a 1a35 c890 3732 a2c4 002f 8082 9737
00000090: f0a1 9daf 00ed 472f 7c0a 96b4 62e5 2b30
000000a0: 6c6e b4b0 33f3 2732 3ef8 7230 fa61 5fbd
000000b0: 0e3f bf33 6a3a 8d33 fde6 032f d93d d9b9
000000c0: 27d1 24b1 7375 b8b7 eca7 38b0 d976 4abd
000000d0: 8990 a932 33de 4438 f3aa 54b1 f578 c7af
000000e0: 71cd e9b5 ddd6 8835 72d0 0e35 4815 3eb0
000000f0: c31f 78b7 4743 b531 336f 93b3 305a 9db3
00000100: c706 fdb6 b6d4 1db2 16fb b82f 31fe 23b9
00000110: de44 37b0 4479 fa2f da1c 9536 fe87 9bb0
00000120: e80b d0b2 16f8 01b4 0bc8 5db2 b217 14c0
00000130: 9581 35b5 b1f0 62b5 3f29 20b3 cb2e 05bd
00000140: 3efc 38b5 e0dd 94b8 86a9 ca31 1d1b 77be
00000150: 7c04 0bb4 6156 39ba 1966 43b1 416c 5131
00000160: 4f24 09b7 7c1f 4bb6 7025 15b8 192e 1e2f
00000170: ab17 bdb7 5728 0832 ee7c 0fb5 78ae d435
00000180: 34e8 ef33 f1b9 7cb1 59df f5ac 50c6 21b7
00000190: e9e4 47ae ba95 b6af 7243 8835 d822 44af
000001a0: cf75 ac31 afb1 d0b1 4e4b 982f 8613 c5bd
000001b0: 1447 c2b2 0376 0ab2 1392 2d2f 54d2 86ba
000001c0: 819b 10b3 89b0 bc37 251f 0730 c315 f2bd
000001d0: 9538 8932 d3ed 0638 2eea 34b0 d6d2 5f30
000001e0: 6b7e 66b2 262b 7333 49f1 f0b5 177a 2730
000001f0: f33e 93b7 3cce 50b1 96fc 82b3 6ab0 b733
00000200: d3c6 a035 b443 6831 850e 0030 c271 60b8
00000210: 9407 93ae 9a91 ad2d 684e 40b6 985e 5130
00000220: d4e8 bbb1 a5c2 8d31 779d 5e31 9b14 3b40
00000230: 4951 3d36 222b a134 80ce 992f 9c95 d4bb
00000240: 1854 1035 1059 43b8 6891 d331 6900 efbc
00000250: 6977 1833 f184 c639 7433 95ae 4a1e 30b1
00000260: dfeb 8835 947f 1535 47cf ebb7 1292 3731
00000270: 5125 08b8 ca6d 2e32 f01c d830 ffd9 90b5
00000280: fa9b 01b5 e78d 16b2 7080 062e 9707 2bb7
00000290: 800e 50af 46d4 d530 1e43 25b3 b99b ceaf
000002a0: 598f 32b1 33a2 06b3 a83e ff31 5e9f 833e
000002b0: 0130 acb2 67de 7db3 2d5a 2ab0 3389 00bb
000002c0: 9a1c a632 f527 01b7 f5fa 41b1 55b5 51bd
000002d0: 007c b631 055b 6937 cd09 9cb1 f810 0cb1
000002e0: 1b22 ccb5 2896 f1b4 c647 82b5 84b7 bbb0
000002f0: 119e 1eb7 de65 f030 e95f feb3 9dee d733
00000300: 3ae9 8a34 213c 8a32 c180 352e 7def 5f38
00000310: 7337 bfaf 8da1 0bb1 0d6d d9b5 e147 3e30
00000320: be5d 2fb2 bb1f 6b33 07d2 edb1 e2bd dabf
00000330: 7dc1 d6b4 ee50 8133 f318 bdb1 7bf9 f0ba
00000340: e286 f4b3 6c33 8c37 9251 1531 a16a 98bc
00000350: 82eb 4933 4ef3 85b9 ae78 d532 8c61 2ab1
00000360: 0d43 24b6 2742 9734 6655 1536 904e 96ae
00000370: 77f6 05b8 787d 2eb2 7c9d 3a32 0d4f a1b4
00000380: 4e5b c436 d383 b6b2 c64d bcb0 38d8 9038
00000390: 9f9f 4730 245f a1b0 d7c3 08b4 3a11 d6af
000003a0: 2a46 b332 b288 80b3 ccc6 6cb1 aab3 1d3f
000003b0: 54cd ea34 392f 56b4 a02d 55b1 59b9 d83c
000003c0: f84a df34 7be1 b836 abcd 77b1 bc78 c1bd
000003d0: fcd6 6bb2 ee6c 35ba 30db f031 a622 5230
000003e0: 51d6 d236 f28f d4b6 fcaf 8637 f948 6830
000003f0: d9c4 8537 7f9d 9633 5fe7 88b5 32ff d2b4
-1.7011322e-07 3.8073282e-09 1.7258879e-10 1.9015015e-06 9.9338045e-11 -7.7541223e-10 -6.053035e-07 8.053001e-10
1.947934e-12 1.5257813e-08 -1.983778e-09 -0.050298385 1.2553728e-07 -2.6408134e-08 -7.858691e-10 -9.057154e-05
-9.6872306e-08 5.5339738e-06 1.3769984e-09 0.037761588 -8.142207e-09 8.0246224e-05 -4.8810755e-10 -1.0878127e-09
-6.2372686e-07 3.3777246e-07 -2.0070072e-06 3.3751762e-10 2.385738e-06 3.861629e-09 7.860831e-08 2.0787235e-07
5.743163e-07 1.0684921e-08 1.171139e-10 1.8061372e-05 -2.8673197e-10 1.8183144e-10 -2.7947306e-07 6.253541e-10
-1.3128107e-09 9.7759765e-09 8.839186e-10 -0.054536797 8.9056e-08 6.5764496e-08 1.1996444e-10 -0.00041435545
-2.398403e-09 -2.19892e-05 -6.717744e-10 -0.04942975 1.9739916e-08 4.693698e-05 -3.0947234e-09 -3.6283834e-10
-1.7419644e-06 1.0195323e-06 5.320245e-07 -6.915184e-10 -1.4789347e-05 5.275442e-09 -6.865448e-08 -7.327287e-08
-7.5407766e-06 -9.186968e-09 3.3647812e-10 -0.00015639585 -6.667288e-10 4.55609e-10 4.443905e-06 -1.1316386e-09
-2.4219801e-08 -1.2104314e-07 -1.2909378e-08 -2.3139462 -6.761632e-07 -8.454181e-07 -3.7290416e-08 -0.03251533
-6.89124e-07 -7.0985174e-05 5.8982463e-09 -0.24131437 -1.2947015e-07 -0.00070700614 -2.843427e-09 3.0475038e-09
-8.17429e-06 -3.0267684e-06 -3.5559235e-05 1.4386393e-10 -2.2541577e-05 7.925414e-09 -5.345345e-07 1.5846008e-06
1.1171542e-07 -3.6776522e-09 -6.9881154e-12 -9.642521e-06 -4.5450674e-11 -3.3211994e-10 1.0152419e-06 -1.7838475e-10
5.019252e-09 -6.073797e-09 2.7702146e-10 -0.096228644 -2.2616895e-08 -8.05949e-09 1.5786154e-10 -0.0010286071
-3.3669043e-08 2.2493552e-05 4.9156973e-10 -0.11820557 1.597463e-08 3.216958e-05 -6.581641e-10 8.1426543e-10
-1.3416506e-08 5.661709e-08 -1.7951617e-06 6.0927746e-10 -1.7553079e-05 -3.0385214e-09 -6.099542e-08 8.553691e-08
1.1978794e-06 3.3798928e-09 4.658676e-10 -5.3511707e-05 -6.686132e-11 1.9732483e-11 -2.8655868e-06 7.6168183e-10
-5.468886e-09 4.1257686e-09 3.239476e-09 2.9231327 2.8210509e-06 3.001997e-07 2.7977265e-10 -0.0064875614
5.376655e-07 -4.657457e-05 6.157439e-09 -0.029175 3.549886e-08 0.00037864552 -6.7848754e-11 -2.5628588e-09
1.0201437e-06 5.5692476e-07 -2.8110704e-05 2.6713036e-09 -3.245968e-05 1.0153096e-08 1.5724293e-09 -1.0792281e-06
-4.828322e-07 -8.763414e-09 3.0582148e-11 -1.0194161e-05 -1.8922641e-10 1.5558121e-09 -3.84781e-08 -3.758183e-10
-2.5983893e-09 -3.1346826e-08 7.4286e-09 0.25707525 -2.0045265e-08 -5.9108427e-08 -6.1973787e-10 -0.0019613027
1.933795e-08 -7.698302e-06 -2.822785e-09 -0.051198322 5.3109943e-09 1.3909074e-05 -4.5413118e-09 -2.0382327e-09
-1.520911e-06 -4.4999e-07 -9.706644e-07 -1.3658199e-09 -9.454337e-06 1.7491251e-09 -1.1845243e-07 1.0055121e-07
2.5874198e-07 1.6092658e-08 4.126899e-11 5.3390384e-05 -3.4782097e-10 -2.0318993e-09 -1.6199498e-06 6.9223743e-10
-1.0207655e-08 5.474406e-08 -6.921485e-09 -1.7089198 -4.0001387e-07 6.0217516e-08 -5.5034604e-09 -0.0018384898
-1.13866705e-07 1.6713246e-05 2.172872e-09 -0.018605532 4.7013152e-08 -0.00025549013 2.4851342e-08 -2.4793705e-09
-2.4476933e-06 2.8174074e-07 2.2252439e-06 -6.835166e-11 -3.193921e-05 -1.0156661e-08 1.0862433e-08 -3.0046104e-07
5.8518845e-06 -2.1247535e-08 -1.3700905e-09 6.906729e-05 7.2622613e-10 -1.1741332e-09 -1.2737233e-07 -3.8938613e-10
2.087025e-08 -5.985329e-08 -3.4455523e-09 0.6160227 4.3735292e-07 -1.9947483e-07 -3.1021514e-09 0.026455568
4.1591534e-07 5.5098767e-06 -3.606014e-09 -0.094468564 -1.3727682e-08 -0.0006920834 7.009838e-09 7.6446793e-10
6.2834374e-06 -6.33485e-06 1.6055994e-05 8.450481e-10 1.59465e-05 7.013568e-08 -1.0200127e-06 -3.9301227e-07

gnn.init_context.attentive_gru.edge_transform.1.bias f4 [32]
00000000: 7986 94be d58b 55be 27f6 003d 1eb6 023d
00000010: ba55 1cbd 6ac8 f7be d5f6 b0bf 1d54 843e
00000020: 267f 0abd 3f40 f13b 0157 8c3d d766 a13d
00000030: ac4e ae3c 8ac8 81be 13ab 81bf fc5d aebe
00000040: 0376 113f 3fff 14be fb59 22bf 6b25 bbbf
00000050: 5f4d adbe 307d 9cbf 7e91 e53f f551 64be
00000060: 3ab1 27bf 818e 04bf ccce 6f3d 621e 0ebf
00000070: 5f43 b5bf d84f 92be 37c0 fdbe a9fb bdbe
-0.29008844 -0.20854123 0.03148475 0.03191196 -0.038167693 -0.4839509 -1.3825327 0.25845423
-0.033812664 0.007362395 0.06852532 0.07880943 0.021277748 -0.25348312 -1.0130333 -0.3405608
0.56820697 -0.14550494 -0.6341855 -1.4620794 -0.33848092 -1.2225704 1.7935026 -0.22296889
-0.655048 -0.51779944 0.058546826 -0.5551511 -1.4161185 -0.2857654 -0.4956071 -0.37106064

gnn.init_context.attentive_gru.gru.weight_ih f4 [96, 32]
00000000: 56f1 acba d9f9 fb3a f7c2 d53c 745e a338
00000010: 1275 bf3c 4c67 cc3a b072 393b 9569 8b3c
00000020: bf38 c03a 2089 c239 4ff5 a33a 4bd8 033d
00000030: ab1b 27bb 151b 68ba f438 033b 62ad 2dbb
00000040: 4e95 0abd 6d73 e43a 1ad5 a3ba c020 2dbc
00000050: f7eb 993b 1420 2aba 9de8 50bb ea87 06ba
00000060: 7c36 d4bb 9bf0 ffb9 0a91 703a 9927 403b
00000070: 6646 e93a f8d1 263b 05f0 003c 9ddb d73a
00000080: 472c 1c2f 61e9 a9af c829 16af f407 f72e
00000090: 4627 ddae 6752 c62f 88d9 38af 9f90 aaad
000000a0: 71d3 0e2f e383 d52e 39fa 55ad 9ec1 ecaf
000000b0: 4cda 11ad d1eb 11af ba80 38ae 3706 c42e
000000c0: c4a4 742e 7362 58af 9b96 842e 9fe4 db2e
000000d0: c496 39ae f6b6 3cb0 f26a b2af dc6f 81ae
000000e0: 0d8e 7d2d 9771 112f bf9e 702f 9e09 32b0
000000f0: f447 96b0 5828 132e 196a 882b 9b3c b1ad
00000100: 5697 a83b b9c0 d13a ccd5 933b 58d2 7939
00000110: 38d2 6a3c 4aa4 a6ba 9bf9 32bb 13bc e6bb
00000120: ac3b a7bb 8205 ddba 60a2 023b a375 483c
00000130: 43a0 7d3b e36e b4ba 66c8 a43a 8624 8639
00000140: ec7f ffba ecf3 f93a 720e e3ba 0b3c e93b
00000150: 8cea fd3a 7eb2 fcba aece 853b 34b4 ebba
00000160: c248 87ba 73b0 f2ba f565 0fbc dc4d 3f3a
00000170: 3812 ad3b 7f9e 153b 403d 88ba 9721 063b
00000180: 0aa8 c231 df56 80b2 e40e 9cb0 e568 8031
00000190: de2a 2a32 4351 fb30 24e8 8bb0 e4c9 e8b1
000001a0: e2da 1cb2 59ac 2931 b746 a8af 374e da31
000001b0: eee8 fab0 8e0c fb2f 71b8 e431 a43b 62b0
000001c0: 265e 87b1 752c 8531 53a5 5ab0 8d68 452e
000001d0: 8978 5eb0 0545 0032 61f1 ea32 ee73 0131
000001e0: 0358 d52f fad9 e031 6889 d432 6f23 5b32
000001f0: 4763 bc32 bc1e 362f d970 4d31 9e8d 892d
00000200: 849f 943b 607c a7bb 76d4 933b 3eca 8d3b
00000210: bf45 cdbb b1c1 573c d5ff ac3b 0a9e a1bb
00000220: 7dee a9ba 53ab d0ba 66c5 3b3b 383b 633a
00000230: 6123 bb3b 4809 403c 6af7 e13b 346f 163c
00000240: e113 d4ba 0c0d 55ba 565a 0abc 72bf 013c
00000250: 2fbe d8bb 6e64 4b3c 3663 c5ba 6749 08bb
00000260: 4d4b 093b a6db 3dbc a3fa 8d3b 618e ebbb
00000270: 1a4e 3c3c 3af1 253c 195d bfbb 2f7e b13b
00000280: 85ab 4bb9 0f98 653b 280e 9cba 428b 20bb
00000290: 12bc 673d c8d8 8d3a a1c3 463a 0785 973c
000002a0: 7e16 9239 408b 60ba bbbb e038 8c7b 54ba
000002b0: 1905 513b 7a57 36bb 0097 093a c9e6 053b
000002c0: d195 c83a 9686 aa3a 17ea 52ba 7797 e1bb
000002d0: 6b1e 563b e621 02bb 92e9 18bd af1e 80ba
000002e0: dca9 3c3a 8c55 61ba 2a76 13ba d1f8 4fbb
000002f0: f320 6ebb 920c f636 17e6 cf38 3720 dfba
00000300: 53da 9437 bb8b 04bc cf3d 54bb 42fb 28bb
00000310: 4e72 0239 240f 103c 6a3e 9ebc fd0e 18bc
00000320: 2ad9 90ba f7a3 c539 72b6 f139 4b8a e2bb
00000330: f70f 233b 53be ac3c b125 d03b ae06 c5bc
00000340: 8aa1 ea3b b7f6 a1bb 34ff 3e3b 7eea 69bc
00000350: d0e3 79bc f72f cfbc f9b0 71bb b5e4 683b
00000360: e21f 453c c26c c737 793b bc3a 863d 89bb
00000370: 9a30 273d 4821 4f3c 4999 85bb 24bc d3bb
00000380: e6d7 103a abde 92b9 b18b 093b 3815 90ba
00000390: 6140 883a 87ae cc3a c270 d7bb 710f efba
000003a0: 4923 a7b8 26ff 96b9 c809 643a 711b 803a
000003b0: d52d 5639 f9e8 27ba cc3c 7ab9 bbf6 81ba
000003c0: 7303 a6bb e26b 90bb 4f53 453a c865 11bb
000003d0: 969e d13a 7b2d c4ba f1c1 46b9 c141 9339
000003e0: 320e 533a dd03 60b9 b2e2 d4b9 465d d739
000003f0: 30d1 77bb 0de2 b13a a581 233a a657 a33a
-0.0013194482 0.0019224241 0.026093943 7.790039e-05 0.023371253 0.001559475 0.002829712 0.017018119
0.0014665349 0.0003710473 0.0012509021 0.032188695 -0.002549867 -0.0008854133 0.002002296 -0.002650105
-0.033833794 0.0017429419 -0.0012499422 -0.01056689 0.0046973187 -0.00064897654 -0.003187693 -0.0005131947
-0.0064762216 -0.00048816655 0.0009176886 0.0029320477 0.001779747 0.002545474 0.007869725 0.0016468648
1.4203848e-10 -3.0906747e-10 -1.3657264e-10 1.1233672e-10 -1.0056893e-10 3.607454e-10 -1.6811985e-10 -1.9390987e-11
1.2989944e-10 9.7095464e-11 -1.2163209e-11 -4.3065723e-10 -8.290767e-12 -1.3271452e-10 -4.195109e-11 8.914152e-11
5.5625518e-11 -1.9680062e-10 6.029418e-11 9.999578e-11 -4.2198037e-11 -6.8654005e-10 -3.2454e-10 -5.886111e-11
1.4412927e-11 1.3228028e-10 2.1884271e-10 -6.476969e-10 -1.0934387e-09 3.3459763e-11 9.692829e-13 -2.0149485e-11
0.005144994 0.001600287 0.0045115706 0.0002382485 0.014332347 -0.0012713757 -0.002730942 -0.007041463
-0.005103549 -0.0016862603 0.0019933209 0.012235078 0.003870026 -0.0013765957 0.001257193 0.00025585684
-0.001949308 0.0019069887 -0.0017323031 0.0071177534 0.0019372269 -0.0019279269 0.004083476 -0.0017982782
-0.0010321366 -0.0018515721 -0.008752336 0.0007297674 0.005281713 0.0022830067 -0.001039423 0.0020466798
5.665247e-09 -1.4940666e-08 -1.1354726e-09 3.7372154e-09 9.905049e-09 1.828575e-09 -1.0179559e-09 -6.775041e-09
-9.130163e-09 2.4690705e-09 -3.0609268e-10 6.353527e-09 -1.8256097e-09 4.5665555e-10 6.656642e-09 -8.2303075e-10
-3.9397205e-09 3.8758636e-09 -7.954288e-10 4.4885474e-11 -8.093442e-10 7.466274e-09 2.7350952e-08 1.883787e-09
3.880701e-10 6.544039e-09 2.4742533e-08 1.2755534e-08 2.1931227e-08 1.6563723e-10 2.9895573e-09 1.5637987e-11
0.0045356173 -0.005111262 0.0045114113 0.0043270877 -0.006264418 0.013168738 0.005279521 -0.00493217
-0.0012964752 -0.0015920199 0.0028651594 0.0008668187 0.0057110046 0.011720963 0.006895949 0.009181786
-0.0016180241 -0.00081272493 -0.008444389 0.007919179 -0.0066144685 0.012414081 -0.0015059474 -0.0020795704
0.0020949424 -0.011588013 0.0043328567 -0.0071886037 0.01149323 0.010128314 -0.0058399555 0.0054166536
-0.00019423485 0.003503326 -0.0011906074 -0.0024497067 0.056575842 0.0010822052 0.00075822516 0.01849605
0.00027864048 -0.0008565672 0.0001071612 -0.0008105568 0.0031893908 -0.0027823136 0.0005248636 0.0020431748
0.0015303438 0.001301008 -0.00080457464 -0.006884511 0.003267194 -0.001985663 -0.037332125 -0.000977477
0.0007196942 -0.00085958163 -0.0005625213 -0.0031734 -0.0036335557 7.3328347e-06 9.913387e-05 -0.001702315
1.774464e-05 -0.008089955 -0.0032385474 -0.0025784527 0.00012440348 0.008792672 -0.01931687 -0.009280917
-0.0011051048 0.0003769693 0.00046103034 -0.0069134585 0.0024881342 0.021086847 0.0063521494 -0.024051037
0.0071603702 -0.004942741 0.0029143812 -0.014277099 -0.015252069 -0.025291426 -0.0036879166 0.003553671
0.012031527 2.3773293e-05 0.0014360986 -0.0041882424 0.040817834 0.012642212 -0.004077111 -0.006461637
0.00055253354 -0.0002801319 0.0020987804 -0.0010992652 0.0010395163 0.0015615978 -0.006574721 -0.0018238855
-7.969753e-05 -0.0002880033 0.0008698967 0.0009773803 0.00020425704 -0.000640526 -0.00023864507 -0.000991545
-0.005066329 -0.004407392 0.00075273676 -0.002218591 0.0015992697 -0.0014967168 -0.00018955 0.00028087015
0.00080511265 -0.00021363744 -0.00040604692 0.0004107749 -0.0037813894 0.0013571397 0.0006237275 0.0012462034

gnn.init_context.attentive_gru.gru.weight_hh f4 [96, 32]
00000000: 7c85 78bc 7764 e2b9 c8b5 9b39 36e5 35b2
00000010: 79b1 31bb b13f c939 4209 2138 cdfa 05b9
00000020: 1aae 11b7 ee4b 8138 4073 18bb 0887 902e
00000030: 12b8 70b9 b4d0 03ba f56c bcba 8825 b636
00000040: a630 d5ba 3900 cb37 33ef b6b8 9c98 43b5
00000050: d832 0839 ef13 a6ba 83a2 44bc 46bd 21bc
00000060: a7dc 8932 8192 4bb7 3e86 20b9 fcc2 a13b
00000070: 43ed 9cba 7dc4 9c36 0584 a93a eda7 3eb9
00000080: c446 44b2 dbb5 462d b3f1 f32c a759 d7ae
00000090: 26c7 b42b e1b8 14ae 7124 ad2e a039 2a31
000000a0: 60c8 8dad ebbc 7830 df3e 87af 3517 93ac
000000b0: ea8a 9fac 5038 ad2e a36d cd31 d287 4b2e
000000c0: e558 f1b0 8d14 2bac 8289 83b0 c21c 9a2c
000000d0: ad01 2830 346c 7532 1d37 72b0 3090 c92f
000000e0: bf88 532e 3bf3 732f 8097 c82e f973 43ab
000000f0: ea87 362d 79d3 1231 6609 732b 341d 9cae
00000100: 1361 23bc 27da a03a 58a7 80bb 4f84 0332
00000110: e999 f1b8 11e4 783a ab21 30b8 45b9 8739
00000120: e553 0b36 6088 4e39 4c0d 0b3b 42a5 b430
00000130: 52ae 74b8 205b 4d39 2892 66bc 3428 1cb7
00000140: 0ccc 7f38 5a45 dab8 3d0f 9dba c0b8 b1b6
00000150: 8934 a739 495c 58bb 867e 0f3c e3a5 f33c
00000160: 9ec0 3035 83b0 71b7 6e21 3cb8 39c3 ac3b
00000170: 9b49 ef38 1afe 4eb7 c087 30b9 3f34 07ba
00000180: b3a6 4334 9b55 10af 319e 7daf 4bc6 4fb0
00000190: f4b0 7c2e d54f f4af 3544 3bb2 56af e4b2
000001a0: 3c34 2b30 5a4f 2832 67cf bc30 c78a 03ae
000001b0: 7ea4 e2ae 8ac8 57b1 dd87 d2b2 929d 0030
000001c0: 3b66 2fb0 a2d5 7730 138c be32 6771 1031
000001d0: afde 0232 f45c 9434 c3f1 0431 9eab 3a30
000001e0: 5975 ec2e 03a9 83b0 6b63 2932 e654 572b
000001f0: 426b 872e d2b9 11b3 cfc5 85ad 5440 7930
00000200: 351d 9cbc e400 44bb acf2 4db9 a69e 5034
00000210: 6079 263a f2e5 863b 3272 18b6 a4c3 16bb
00000220: bb6e 0136 46f0 84ba 759b 5d39 c7be 2bb3
00000230: da4f a3bb ef7d b6ba 2f1e f73a 0d5d 78b7
00000240: 0347 c73c eef3 99b5 f3d1 4c38 3922 0338
00000250: 7b3e 9f3a 0f19 c1b9 0d93 66bb b488 a2ba
00000260: d314 dab5 e5fd 50b8 c4d8 aeb7 6207 e1ba
00000270: 3b82 273b 7146 8e36 0644 dab8 5c87 0bbb
00000280: b0f0 6ebb 19d3 9eb8 19d8 80b8 8869 4632
00000290: b8d9 c039 29aa acba dc07 7835 69c3 1eb9
000002a0: 78bf 0739 78c4 8139 35c9 75b9 aa34 86af
000002b0: a44c 7639 8b13 fc3a 681c e2ba 32e8 daba
000002c0: 0ff0 af39 611e 7a37 b4a3 063a 3bef b4b5
000002d0: bc0e fc38 d91f 04bc 2523 03bd 451d ed3b
000002e0: 9bae d3b4 970e c1b7 4da1 94ba b926 d63a
000002f0: 0ee1 41b6 0d49 0c37 cdc3 c8b8 dc4d 7db8
00000300: 43dc 3e3e 348e f93a 559b bbb8 d79c 0f32
00000310: 9aa9 d1ba 6eea cabc 936a cb39 94a5 123b
00000320: 15dd 07b5 2e27 0b3a 274b ec3b 3116 d2af
00000330: aa3e 8c3b c380 68bc 9489 4fbc 5410 89b7
00000340: 26ae d4bb dc6d 85b9 c526 713b 0575 16b6
00000350: d56c 0dba fdfc 373e 98ae 05be 9a34 9fbc
00000360: 1df3 c2b2 ab49 4fb6 5295 cfba fe66 fbba
00000370: def6 cd38 b060 a838 1fc2 afb8 174b 04ba
00000380: 4310 f83a 12ea 1339 d2bf 353a ec1e a332
00000390: 256b 4bba b80c 15ba b624 90b5 ef1b d1b7
000003a0: 3671 6eb4 347f d138 5e3d ceb9 6da2 32ae
000003b0: eaff 32b9 e390 06b9 3a44 0bba e9dd 42b5
000003c0: 5d26 dab8 85f2 0935 65f3 b537 694d 4fb4
000003d0: bb1b 4bb8 1307 b235 f99d 4739 eb32 f137
000003e0: 6597 4934 e98e e8b5 7777 dab6 2820 38ba
000003f0: 0ac6 e637 6e75 9b35 9612 2b35 acb2 8337
-0.015168544 -0.0004318093 0.0002969934 -1.0587703e-08 -0.0027113839 0.0003838516 3.8394013e-05 -0.00012777299
-8.68321e-06 6.165342e-05 -0.0023262054 6.572348e-11 -0.00022956755 -0.00050283526 -0.0014375733 5.428392e-06
-0.0016265109 2.419959e-05 -8.7229906e-05 -7.2865237e-07 0.00012988911 -0.0012670736 -0.012001636 -0.009871786
1.604924e-08 -1.21338535e-05 -0.00015308798 0.004936574 -0.0011972565 4.6720365e-06 0.0012933022 -0.00018182369
-1.1424792e-08 1.1295377e-11 6.9333094e-12 -9.7929935e-11 1.2845044e-12 -3.381551e-11 7.8736025e-11 2.4771012e-09
-1.6118828e-11 9.0490343e-10 -2.460103e-10 -4.180568e-12 -4.5344744e-12 7.877132e-11 5.9787495e-09 4.627749e-11
-1.7560323e-09 -2.431197e-12 -9.570587e-10 4.380136e-12 6.1120425e-10 1.42854795e-08 -8.811741e-10 3.6664138e-10
4.80973e-11 2.2187134e-10 9.121859e-11 -6.943886e-13 1.0375681e-11 2.1366005e-09 8.6343985e-13 -7.099246e-11
-0.009971875 0.0012272046 -0.003926199 7.655287e-09 -0.000115204435 0.0009494434 -4.1993026e-05 0.00025887243
2.0761447e-06 0.00019696495 0.0021217642 1.3143693e-09 -5.833648e-05 0.0001958427 -0.014072932 -9.307685e-06
6.098677e-05 -0.00010407968 -0.0011982691 -5.296519e-06 0.00031891864 -0.003301399 0.008758193 0.029742187
6.5845404e-07 -1.4405817e-05 -4.4853827e-05 0.005272296 0.00011410118 -1.2337719e-05 -0.00016835239 -0.00051576266
1.8221435e-07 -1.3127137e-10 -2.3066417e-10 -7.558795e-10 5.7455332e-11 -4.4440066e-10 -1.0900341e-08 -2.6622427e-08
6.2283667e-10 9.7969295e-09 1.3737748e-09 -2.990921e-11 -1.030651e-10 -3.140061e-09 -2.4509001e-08 4.679005e-10
-6.380991e-10 9.0161667e-10 2.218261e-08 2.101922e-09 7.617628e-09 2.763478e-07 1.9345954e-09 6.791029e-10
1.07528826e-10 -9.57954e-10 9.8597e-09 7.6501164e-13 6.158142e-11 -3.3929446e-08 -1.5208194e-11 9.067709e-10
-0.019056896 -0.0029907757 -0.00019640726 1.9429226e-07 0.0006350484 0.004116767 -2.2716235e-06 -0.0023004794
1.9286952e-06 -0.0010142408 0.00021134115 -3.998755e-08 -0.0049838843 -0.0013923029 0.00188536 -1.4803617e-05
0.024325853 -1.1470381e-06 4.883292e-05 3.1264706e-05 0.0012149358 -0.000368305 -0.0035182864 -0.001240036
-1.6248326e-06 -4.9827522e-05 -2.0843356e-05 -0.0017168338 0.00255598 4.2401302e-06 -0.000104077204 -0.0021290397
-0.003645938 -7.573347e-05 -6.143767e-05 1.1549112e-08 0.00036783307 -0.001317327 9.2398636e-07 -0.0001514085
0.00012945931 0.00024751178 -0.00023439976 -2.4411878e-10 0.00023488939 0.0019231898 -0.0017250897 -0.001670128
0.0003355746 1.4908234e-05 0.0005136088 -1.348067e-06 0.00012019041 -0.008064234 -0.03201594 0.007236155
-3.9428855e-07 -2.3014187e-05 -0.0011339575 0.0016338445 -2.889024e-06 8.361659e-06 -9.573214e-05 -6.0392413e-05
0.1863871 0.0019039572 -8.945788e-05 8.359357e-09 -0.001599598 -0.024769988 0.0003879858 0.0022376524
-5.0613136e-07 0.00053082674 0.0072111073 -3.8214545e-10 0.004279931 -0.014190855 -0.0126670785 -1.6339276e-05
-0.0064904867 -0.00025449588 0.003679679 -2.2419856e-06 -0.00053949404 0.17967601 -0.13054883 -0.019434262
-2.2695128e-08 -3.0888284e-06 -0.0015837348 -0.0019180474 9.821144e-05 8.028874e-05 -8.380808e-05 -0.00050465896
0.0018925745 0.0001410621 0.00069331855 1.8989759e-08 -0.0007759801 -0.0005685794 -1.073952e-06 -2.492775e-05
-2.2206663e-07 9.98959e-05 -0.00039337104 -4.0616777e-11 -0.00017070738 -0.0001283321 -0.0005312596 -7.2593554e-07
-0.00010402196 5.138939e-07 2.169022e-05 -1.9306539e-07 -4.8424798e-05 1.3264092e-06 0.00019036968 2.875315e-05
1.8774661e-07 -1.7326939e-06 -6.510814e-06 -0.00070238346 2.7510356e-05 1.1582576e-06 6.372951e-07 1.5699618e-05

gnn.init_context.attentive_gru.gru.bias_ih f4 [96]
00000000: dd8a 0e3b b233 df31 9531 903b 2b8b 1133
00000010: 33c4 f63b 55d5 513b 5ee6 6b3c 416c 3fbb
00000020: ea90 b2be f570 3b3b 36e7 a93b a6b2 ddab
00000030: 2942 ffbc bb5e a0be f110 2a3c 7991 363d
00000040: 098e 5ebe 4ddf 3b3d 68cc 1a3b 8971 a0ab
00000050: 533e d628 ba40 6ebb 1751 75bb 9b4f 6e3e
00000060: 1511 a133 60ea 15bb 74e3 533a e566 93bb
00000070: 5b70 0e39 10f7 17bb 8193 99bd c16a 41be
00000080: 2f08 803d f10e 78b3 a87b 333a 6cc2 fc33
00000090: 9092 943c 06e7 eebb dc95 03bc a3e8 0f3d
000000a0: bae1 2dbd 6ccb 683e 849d 553d d3b4 7833
000000b0: e125 973f db74 9e3e 7452 4a3d 63a6 63bb
000000c0: bea8 4e3d 7451 1abc 02f5 ed3b 13db 5baa
000000d0: aca4 50ad 0f9f 2a3e 117f 23bd 5640 1e3e
000000e0: 6201 23b4 4b07 c9bc 1651 a03b a1db 403e
000000f0: ae78 3bbb 2a55 093c 9c01 283a 8bd0 cbbc
00000100: 9ac4 1d3e 1b19 b6b8 9dd7 b0bc 41f8 9433
00000110: 5067 0f40 556a 313a 68ee 5abc ee4a aabe
00000120: 6f95 943e d161 15bc 4a37 a43a 8067 88b8
00000130: dc4f eebe 60ce c83c 3dc4 0cbd a528 9e3a
00000140: e699 3f3f 7a02 083d a63c 2a3d 7302 9dab
00000150: 9c2a c628 ee29 8abb b3b9 9f3c c5e1 e13f
00000160: 0ab0 85b7 2eee 5a3d d83e 0b3b eae7 af3d
00000170: 57ff 6b3c da51 86bd ee43 423d 7e9a 1f40
0.002175025 6.4960313e-09 0.004400442 3.3887016e-08 0.007530713 0.0032018025 0.014398186 -0.0029208811
-0.34876186 0.0028601263 0.005185033 -1.5752579e-12 -0.031159477 -0.31322274 0.010380016 0.044572327
-0.2173387 0.045867253 0.002362037 -1.1400196e-12 2.3785802e-14 -0.0036354498 -0.0037432367 0.23272555
7.500254e-08 -0.0022875294 0.00080829044 -0.00449835 0.00013584031 -0.0023188032 -0.07498837 -0.1888838
0.06251561 -5.775559e-08 0.00068467343 1.17700296e-07 0.018136293 -0.0072907237 -0.008031335 0.03513397
-0.042451598 0.2273385 0.05215217 5.790646e-08 1.1808435 0.3094853 0.04939504 -0.0034736625
0.050453894 -0.009418834 0.007261873 -1.9527114e-13 -1.1859996e-11 0.16662239 -0.0399161 0.1545423
-1.5181061e-07 -0.02453961 0.0048924787 0.18833782 -0.0028605866 0.008382121 0.0006408931 -0.024879714
0.15407029 -8.6831125e-05 -0.021587187 6.936944e-08 2.2406807 0.0006767859 -0.013362505 -0.33260292
0.2902026 -0.0091175595 0.0012528684 -6.504264e-05 -0.46545303 0.02451247 -0.034366835 0.0012066556
0.74844205 0.033205487 0.041561745 -1.1156201e-12 2.2000895e-14 -0.004216424 0.019497728 1.7647024
-1.593681e-05 0.053449802 0.0021247175 0.08589156 0.0144041395 -0.06558581 0.047428064 2.4938045

gnn.init_context.attentive_gru.gru.bias_hh f4 [96]
00000000: 6d95 0e3b b4f6 3432 1a30 903b 917d 1133
00000010: 28bd f63b d3ea 523b 1f05 6c3c 3bfe 3fbb
00000020: 8b90 b2be d971 3b3b 6b4e ab3b caf4 662b
00000030: 53dd ffbc 7d24 9fbe 5bbb 293c d80d 3a3d
00000040: 1a9d 5ebe 0bcd 3b3d 8fb0 1a3b a8fa d32b
00000050: 71df dd29 1142 6ebb 42e4 69bb 874f 6e3e
00000060: d2c9 a233 af3d 0ebb 72e1 533a 41bb a2bb
00000070: 5666 0e39 8132 18bb 9794 99bd 5769 41be
00000080: 1d08 803d d3b2 78b3 a1f7 2f3a 7d49 fc33
00000090: 5884 943c 84f2 eebb 5c83 03bc d1e9 0f3d
000000a0: fab2 2dbd e708 693e 4d84 553d b135 7933
000000b0: c920 973f 0478 9e3e 2960 4a3d 7609 69bb
000000c0: 9ca3 4e3d 1852 1abc 0012 ee3b 2dd8 09ab
000000d0: c967 c3ac 0f9f 2a3e 6395 23bd 9a3f 1e3e
000000e0: 580f 21b4 eb34 c9bc cd33 913b 5235 413e
000000f0: cf8e 3abb cf53 093c 1696 263a fbf1 cbbc
00000100: 17ef f53b 3e49 08b5 96f1 db3c 11a2 16b4
00000110: fd37 ad3f 351e 9dbc 8d85 10bd dd17 7d3d
00000120: 1692 d3bd 710a 82bc 25ae 1d3b c608 ba2f
00000130: 484d f33c b074 1aba 6f7b adbb f5fe 0fbd
00000140: c8f6 e43e 2ce0 293d 9c2a b13b 4be4 08ad
00000150: 1300 9228 3627 ca3a c9d2 1bbc bff3 d63f
00000160: 8bb7 2f36 6459 92bb a6b5 fa3a 749b 01be
00000170: a3e5 083c 6d27 b8b9 267d 0a3c 5c6a e23f
0.0021756545 1.0533473e-08 0.0044002654 3.3874645e-08 0.0075298734 0.0032183423 0.014405518 -0.002929582
-0.34875903 0.0028601794 0.005227854 8.205213e-13 -0.031233465 -0.31082526 0.01035961 0.04542336
-0.21739617 0.04584984 0.0023603772 1.5062023e-12 9.8531324e-14 -0.0036355297 -0.003568903 0.23272525
7.580424e-08 -0.0021704247 0.0008082605 -0.00496617 0.00013580298 -0.0023223462 -0.074990444 -0.1888784
0.062515475 -5.790464e-08 0.000671262 1.1748032e-07 0.018129513 -0.0072920937 -0.008026924 0.035135094
-0.042407013 0.22757302 0.052128125 5.8023662e-08 1.180688 0.3095094 0.04940811 -0.0035558618
0.050449 -0.009418987 0.0072653294 -4.897218e-13 -5.553756e-12 0.16662239 -0.03993739 0.1545395
-1.4999875e-07 -0.024561366 0.004431224 0.18867996 -0.0028466468 0.008381798 0.0006354762 -0.024895659
0.0075053084 -5.077053e-07 0.026848596 -1.4028798e-07 1.3532711 -0.019179443 -0.035283614 0.061790336
-0.10330598 -0.01587412 0.0024060097 3.3839437e-10 0.029699937 -0.00058920216 -0.0052942554 -0.035155255
0.4471953 0.041473553 0.0054066908 -7.781396e-12 1.6209288e-14 0.0015423063 -0.009510704 1.6793135
2.6183868e-06 -0.0044662226 0.0019127622 -0.12656957 0.008355531 -0.0003512459 0.008452689 1.7688708

gnn.gnn_layers.0.project_edge.1.weight f4 [1, 64]
00000000: 2a7e 68bf 286e ee2c b9e0 a6ba 3cb0 db31
00000010: 1331 4abd f70d 703c 8c21 72be da2d b2b8
00000020: 2096 02bf c987 36bc e478 edbe 43d4 3aac
00000030: 59e2 1abe 676f 97bd a4a9 043a a063 55bd
00000040: f93e a13d 8bf1 dc3d 2b53 4dbe a4d1 222c
00000050: 6b63 5d2a 37dc 27bd e942 ecbe dbc1 743c
00000060: 4b1d 3233 a3d3 643a 0053 64bd f417 abbe
00000070: c5f0 9fbe e479 eb38 832e d939 506e a7bd
00000080: 4ff9 debc c49b 532f 793c 3fbd a1c6 e030
00000090: 3590 1b3c ac55 b53a 658e eebd 0c13 b3b9
000000a0: 6cad 1bbf 37fb 07be 6162 d1bf a1a8 132d
000000b0: bb15 d43d ed34 67bd c603 0d3b 1020 213e
000000c0: 9991 ea3d 8762 26be b2a0 3fbe f846 caab
000000d0: fe04 dd2a c84e 6abd 4d7e 70bf 80ef e53d
000000e0: 9bb6 cc33 3209 eb3b a0c9 ffbd 401a 05bf
000000f0: a173 d9bd 408f a2b9 b772 6ebc 0816 10bf
-0.9081751 6.7765966e-12 -0.0012731767 6.3937744e-09 -0.049363207 0.014651767 -0.2364561 -8.496242e-05
-0.5101032 -0.011140772 -0.46381295 -2.6550019e-12 -0.15125407 -0.07394295 0.0005060679 -0.052096963
0.07873339 0.10788258 -0.20051257 2.3137959e-12 1.9663236e-13 -0.040981498 -0.46144798 0.014938797
4.1470496e-08 0.0008729046 -0.055743217 -0.33416712 -0.3123838 0.00011228377 0.0004142412 -0.08175337
-0.027218489 1.9245677e-10 -0.04668853 1.6354599e-09 0.009494831 0.0013834736 -0.11648253 -0.00034155732
-0.60811496 -0.13279425 -1.6358148 8.393426e-12 0.10355707 -0.05644696 0.0021517142 0.15734887
0.11453552 -0.16248523 -0.18713644 -1.4372661e-12 3.926095e-13 -0.057204038 -0.9394272 0.112273216
9.532706e-08 0.007172727 -0.12489629 -0.5199318 -0.106177576 -0.00031005777 -0.014553717 -0.56283617
