Results/AFP/23/model.pth (torch, 189069 bytes, 40 tensors)

gnn.init_context.project_node.0.weight f4 [32, 74]
-0.00068521494 2.4876178e-06 2.7935945e-07 3.3731187e-08 4.1545763e-07 -5.5032675e-08 1.040366e-06 2.4444605e-08
-4.0711143e-08 3.1419902e-05 6.515043e-05 -2.2321602e-07 -4.3889528e-10 8.636047e-12 -3.0014212e-12 -1.4063088e-08
-5.0826283e-12 -6.34806e-12 -6.8741683e-09 -1.1494772e-11 8.6462603e-07 -3.301058e-11 9.841555e-05 -1.6543152e-10
1.0507058e-10 -1.9075612e-06 -2.057314e-12 9.203459e-07 2.688859e-05 -7.5719395e-09 -1.9897246e-10 -9.708867e-06
-0.00072690344 3.5409728e-10 -2.6410692e-08 -1.4005144e-07 1.7900452e-06 3.1477154e-11 -0.00013359588 8.901301e-07
-0.00012490267 5.5678666e-09 8.645241e-12 2.3106442e-10 9.1555063e-07 -3.418867e-05 -4.9148002e-06 5.918995e-08
-9.893689e-10 -8.106403e-09 -3.0711335e-06 -2.5429798e-09 -7.117685e-06 1.2432558e-06 -0.00018040468 2.2732759e-06
1.3523584e-07 4.9085985e-11 -6.039074e-09 -4.935499e-12 -2.266141e-06 -3.6580534e-08 -2.8502328e-10 -5.202113e-08
-0.0002644913 -3.7134905e-05 -1.9233507e-11 -8.103223e-09 -2.1495007e-05 -8.826086e-05 1.5590667e-06 1.2570669e-07
-4.675355e-10 2.4781616e-11 -1.911092e-05 7.259655e-07 -4.66934e-08 -1.14251606e-07 1.9559761e-07 3.639183e-08
-5.828993e-09 6.3549926e-08 8.070151e-06 -7.5473416e-08 -3.7858368e-05 -2.9732904e-08 -9.465311e-10 1.0614654e-11
4.7819483e-12 -2.9831877e-08 -7.447813e-07 -2.3293136e-09 3.3139326e-08 6.062211e-11 4.6394995e-08 8.0668133e-10
-4.597805e-12 1.6354991e-10 -5.785656e-09 -5.0255743e-08 -2.7743897e-11 0.0001487661 4.298394e-08 -4.2138293e-09
-1.7297963e-10 -9.972772e-07 -2.6222573e-11 1.3449e-07 7.1623597e-12 6.166187e-05 -8.284419e-09 1.36103645e-05
7.253876e-08 -0.00041905607 -3.2521726e-08 1.6023745e-07 1.0926907e-05 1.9084129e-07 2.66782e-07 2.7694339e-06
1.4305608e-06 8.44295e-08 -7.775919e-13 -1.1891366e-09 3.278495e-10 -2.0487727e-07 -2.4466164e-05 -3.037443e-12
4.12046e-06 8.5594337e-07 6.9663855e-08 6.7104927e-10 -9.060552e-06 9.843554e-07 -1.3192081e-09 2.21433e-07
-9.987068e-07 5.5134553e-08 -1.5588382e-06 8.4286347e-07 -3.9609185e-14 4.6330207e-11 4.0097602e-06 4.1695057e-06
1.0891501e-06 4.230976e-08 9.48706e-11 8.604143e-05 -0.005456641 1.2015168e-05 1.8011208e-06 -9.358432e-09
2.3308728e-06 -2.7816911e-08 1.2877244e-07 6.5684225e-07 3.922069e-08 7.553698e-12 4.6662535e-11 -2.5172204e-13
-1.9593305e-09 0.00025742358 5.4929988e-05 -1.3806219e-07 -1.4307015e-05 2.001179e-10 1.2743263e-11 -6.911839e-05
-2.9125363e-12 3.0639935e-11 -1.2791809e-11 -2.8988443e-06 -4.4794333e-09 -6.6271038e-09 4.801362e-05 1.6092965e-08
2.7780938e-09 1.9538263e-08 5.661755e-12 -0.0002546613 -1.0370663e-09 1.771047e-10 9.36259e-09 -2.9903347e-11
1.1703019e-09 -2.718587e-10 -1.703716e-12 2.0720691e-07 -3.2424915e-13 1.8911937e-10 -5.2178636e-11 3.8568282e-06
-4.7264343e-06 -0.0010546952 -0.0004486686 5.060127e-07 -1.1457771e-09 -2.1057971e-08 -1.3250834e-13 -1.0937669e-10
-3.242384e-08 -4.6315263e-13 -0.0013238721 -0.00015960883 1.4467216e-06 1.6480888e-09 1.8216711e-09 1.7901059e-12
0.00018018267 -4.511347e-07 -1.0269091e-06 -2.2413179e-08 -0.0030837567 -0.0010560235 -0.00030652777 -2.105794e-08
-0.0006834084 -0.0018418542 -0.00018574357 1.3017795e-06 9.520536e-09 -3.8871415e-12 -4.9713803e-05 2.0429823e-06
1.0128363e-07 3.5195963e-08 2.0922346e-07 1.686674e-09 -5.806397e-09 5.1176045e-08 -3.297647e-09 -1.0398398e-08
1.271599e-12 -5.674231e-12 -4.9934324e-13 5.283921e-06 -3.780251e-11 1.7220548e-09 -5.0089668e-08 -8.417826e-10
4.6763216e-06 -2.387129e-09 1.7464714e-05 2.2725726e-09 -2.0866777e-11 -2.1282965e-07 2.501201e-12 -4.7208184e-12
2.4198403e-07 1.201754e-08 -1.1260956e-11 -1.5456546e-09 -3.7485073e-09 -4.8929924e-05 6.378043e-11 -1.4231522e-09
00000000: ff9f 33ba f3f0 2636 dffa 9534 d5df 1033
00000010: 100c df34 115d 6cb3 b4a2 8b35 41fa d132
00000020: 60da 2eb3 ddc8 0338 5fa1 8838 27ad 6fb4
00000030: 0549 f1af 4ced 172d cc34 53ac 1d9a 71b2
00000040: 3fd4 b2ac 3e5a dfac d331 ecb1 da37 4aad
00000050: a618 6835 9c2e 11ae 7264 ce38 d5e4 35af
00000060: 7a0d e72e a703 00b6 46c5 10ac b00d 7735
00000070: cf8e e137 be15 02b2 c5c5 5aaf 44e3 22b7
00000080: aa8d 3eba c3aa c22f badd e2b2 0c61 16b4
00000090: 7c41 f035 2070 0a2e df15 0cb9 46f1 6e35
000000a0: 4ef8 02b9 794f bf31 b416 182d da0e 7e2f
000000b0: 29c4 7535 ce65 0fb8 d0e9 a4b6 0a38 7e33
000000c0: 53fa 87b0 5644 0bb2 ac19 4eb6 93c0 2eb1
000000d0: 73d4 eeb6 f2dd a635 032b 3db9 958e 1836
000000e0: 5835 1134 e8e1 572e 4280 cfb1 06a7 adac
000000f0: 0214 18b6 b91c 1db3 76b1 9caf d66d 5fb3
00000100: 6cab 8ab9 4dc1 1bb8 022e a9ad 5a36 0bb2
00000110: 2d50 b4b7 b018 b9b8 2041 d135 fef9 0634
00000120: e383 00b0 3dfb d92d 6350 a0b7 f8df 4235
00000130: f08b 48b3 7c5a f5b3 7605 5234 3e4d 1c33
00000140: 5d48 c8b1 f178 8833 0965 0737 f313 a2b3
00000150: 1dca 1eb8 5967 ffb2 1a17 82b0 27bc 3a2d
00000160: f63f a82c 7f20 00b3 fbec 47b5 b811 20b1
00000170: 1355 0e33 374f 852e d643 4733 27bd 5d30
00000180: 59c5 a1ac 35d3 332f 2bcb c6b1 c6d8 57b3
00000190: b409 f4ad 19fe 1b39 589d 3833 3cc9 90b1
000001a0: 7031 3eaf 2fda 85b5 fca7 e6ad 5468 1034
000001b0: cd00 fc2c 7750 8138 4353 0eb2 1258 6437
000001c0: 9bc6 9b33 c1b4 dbb9 04ae 0bb3 bc0d 2c34
000001d0: b552 3737 0eea 4c34 3d3a 8f34 83da 3936
000001e0: b201 c035 9c4f b533 67df 5aab 066f a3b0
000001f0: b73c b42f 3cfc 5bb4 b03c cdb7 b5bd 55ac
00000200: 7b42 8a36 fbc3 6535 1c9a 9533 e574 3830
00000210: c602 18b7 321e 8435 824f b5b0 0ac3 6d34
00000220: 4e0b 86b5 15cd 6c33 4639 d1b5 2341 6235
00000230: 4862 32a9 2dc3 4b2e 948b 8636 c8e7 8b36
00000240: ea2e 9235 13b8 3533 669f d02e 2471 b438
00000250: 9fcd b2bb c194 4937 0abe f135 d2c6 20b2
00000260: 176c 1c36 09f2 eeb2 b344 0a34 db51 3035
00000270: 9b73 2833 d5e2 042d 5839 4d2e f8b4 8daa
00000280: e8a4 06b1 cff6 8639 a064 6638 3f3e 14b4
00000290: 2908 70b7 2e08 5c2f 8e2e 602d a7f3 90b8
000002a0: 97f3 4cac 80c1 062e 3009 61ad c489 42b6
000002b0: 83e9 99b1 9fb4 e3b1 3b62 4938 ce3c 8a32
000002c0: bee8 3e31 18d5 a732 8e34 c72c 1084 85b9
000002d0: 8788 8eb0 8bba 422f 1bd9 2032 2d84 03ae
000002e0: 56d8 a030 b674 95af d7c6 efab 9a7c 5e34
000002f0: 3a89 b6aa 5ff0 4f2f ec7b 65ae e769 8136
00000300: c397 9eb6 b33d 8aba 483b ebb9 eed4 0735
00000310: 7379 9db0 f8e2 b4b2 ee30 15aa 9a85 f0ae
00000320: 6442 0bb3 aa5d 02ab c785 adba ab5c 27b9
00000330: fa2c c235 f882 e230 5b5e fa30 5def fb2b
00000340: 6bef 3c39 7b33 f2b4 54d4 89b5 1a87 c0b2
00000350: da18 4abb 456a 8aba 76b5 a0b9 e6e2 b4b2
00000360: c326 33ba 5f6a f1ba 29c4 42b9 ceb8 ae35
00000370: c38f 2332 42c4 88ac ca83 50b8 2b1a 0936
00000380: 4481 d933 5f2a 1733 e8a6 6034 91d0 e730
00000390: 9c81 c7b1 a8cc 5b33 d29c 62b1 a3a4 32b2
000003a0: 2ff6 b22b eea4 c7ac 798d 0cab 894c b136
000003b0: d841 26ae 6bad ec30 2c22 57b3 2f63 67b0
000003c0: 4ce9 9c36 d10a 24b1 3081 9237 852b 1c31
000003d0: ce8b b7ad 2b86 64b4 a201 302c 5a19 a6ac
000003e0: 08ea 8134 b375 4e32 d61a 46ad e36e d4b0
000003f0: 38cc 80b1 1b3a 4db8 3141 8c2e b798 c3b0

gnn.init_context.project_node.0.bias f4 [32]
-0.002992083 -0.00028434704 -0.009843279 -0.00088368764 -0.00031603104 -0.0130146425 -1.9230354e-05 -0.00019943432
-0.00028519172 0.05651318 -0.00027308433 -1.0380753e-05 -0.013945597 -2.8709648e-05 -0.0014176009 -5.0982167e-06
-1.2173884e-08 -0.00065206626 0.093407124 -0.011309284 -0.012487857 -0.09960833 -2.107998e-05 -8.14531e-05
-0.043425817 -0.05680207 -5.316791e-08 -0.00042275098 -1.2440882e-05 -0.002634586 -0.10631208 -0.0765207
00000000: d316 44bb 6a14 95b9 b445 21bc 46a7 67ba
00000010: f8b0 a5b9 5e3b 55bc df50 a1b7 3e1f 51b9
00000020: c985 95b9 5d7a 673d c22c 8fb9 ff28 2eb7
00000030: 137c 64bc 80d5 f0b7 cbce b9ba 5911 abb6
00000040: 4f25 51b2 6def 2aba 3c4c bf3d 934a 39bc
00000050: de99 4cbc 74ff cbbd ead4 b0b7 cdd1 aab8
00000060: 45df 31bd 4aa9 68bd bc5a 64b3 ada4 ddb9
00000070: 2eb9 50b7 05a9 2cbb 26ba d9bd e2b6 9cbd

gnn.init_context.project_edge1.0.weight f4 [32, 87]
6.464113e-05 -2.0009373e-05 8.362839e-05 -1.2188558e-06 -3.585056e-05 5.4653065e-06 -7.483759e-06 1.0807151e-05
-2.8553704e-06 9.581257e-13 1.6377217e-05 -1.105191e-10 -4.5323998e-11 -1.6464924e-08 -1.2449154e-07 8.024005e-07
-3.910916e-11 -0.00041372998 1.6730227e-11 4.3366152e-10 2.778159e-07 -1.3590656e-09 2.0885416e-09 -1.1630329e-09
1.515101e-12 -6.07873e-12 -7.218987e-12 -1.5711514e-08 3.0132392e-12 2.0651944e-06 1.263898e-10 -0.00012038464
4.439782e-13 -1.010747e-06 -1.4399458e-08 8.354929e-10 5.601114e-13 -2.6422778e-05 -2.8917801e-10 1.1601219e-12
5.7887494e-08 -2.9396033e-10 4.6430316e-05 1.9171334e-07 -7.299553e-05 -0.00010342066 0.0003364305 -9.178463e-05
-1.482062e-10 2.2512997e-06 1.5003893e-12 -6.6388796e-12 -1.0358324e-08 -1.8739016e-06 0.00014937969 -6.458746e-06
-5.8702375e-05 3.055487e-05 1.2880505e-10 -6.323238e-07 -3.1679142e-11 2.88668e-05 2.069803e-12 5.742983e-05
6.0108712e-05 -0.00012576909 -2.167959e-10 2.2914667e-06 9.689936e-05 0.00019775463 -6.8890135e-05 -5.258615e-05
3.054791e-05 4.6342836e-09 -4.791815e-05 0.00011606838 -3.2476735e-05 -2.4238389e-05 0.00022278602 0.00011662795
0.00012856774 -3.4591841e-12 -2.0158282e-06 6.7353845e-08 -3.63223e-11 5.4890247e-08 4.7285073e-05 -3.5010828e-05
1.2530864e-05 -1.6524859e-06 4.676486e-06 -8.261272e-06 -7.9632955e-06 1.1940402e-05 -2.2146942e-06 -2.990608e-05
3.7115757e-09 4.1809568e-07 1.1553066e-05 5.9883187e-05 -4.109722e-12 -3.2022952e-12 1.1769883e-07 -9.418649e-11
-5.78727e-07 8.616769e-07 1.1645556e-06 1.1597292e-08 1.3842113e-11 -1.9131884e-12 0.00024965056 -0.00014754143
9.844615e-06 -2.4898352e-09 -1.4780333e-08 1.8194292e-10 -1.3932916e-07 -0.00019812418 2.5838461e-12 -7.73326e-05
-1.1425024e-11 -1.0651001e-09 -7.250006e-13 1.1340697e-06 -2.4809634e-12 9.227713e-13 2.7252794e-11 -1.5890035e-06
2.1434217e-09 1.2503126e-07 8.027329e-13 1.3009168e-05 -9.70491e-06 -2.6866619e-05 3.5011878e-06 1.8622906e-06
2.5539039e-06 -9.59217e-09 -1.0238026e-09 -2.572333e-07 -2.3688126e-12 -3.1466923e-05 5.157346e-06 -1.2690106e-05
-1.604809e-06 1.797537e-05 1.897217e-08 -1.6359869e-09 -5.8966916e-06 1.3784841e-06 -6.47482e-06 -3.6054025e-05
3.5967548e-06 -9.0599606e-08 -2.437798e-06 -3.055685e-05 -3.419545e-05 -5.125666e-06 -1.2789647e-05 -1.6048365e-06
-6.5913726e-11 8.5492417e-07 -6.17195e-06 -5.5137443e-06 -1.32000705e-05 -2.266878e-05 -1.9182602e-05 -3.4214583e-05
0.00014422595 3.479806e-07 2.4396468e-06 3.7373823e-08 -3.8666542e-08 -7.2565524e-07 -0.0032460438 0.0005087025
-0.0019292015 -0.00027396413 -0.001994714 8.029611e-06 7.912054e-05 0.001220298 -1.428839e-05 -0.0006799079
-5.877161e-12 1.3402594e-06 4.2489493e-12 2.846294e-07 -7.254079e-09 2.7986172e-05 -1.6552883e-06 -6.106205e-15
-7.408069e-07 1.3636174e-10 -1.4212256e-07 -1.3869231e-07 -6.2259285e-13 -7.1907823e-07 -5.3950025e-05 1.3071405e-10
2.2905022e-11 -1.4210896e-10 0.000100193996 2.8213074e-07 4.0505186e-09 3.123615e-11 -9.755661e-06 3.3754499e-12
6.8159445e-10 3.509033e-11 2.70941e-10 -4.92018e-10 -4.7791937e-10 8.70848e-11 -5.2117083e-10 5.97193e-11
3.54216e-12 8.730831e-12 -0.0026270107 -0.0031039184 -0.004782035 0.00020258127 1.9118002e-06 6.132654e-05
-0.00029513356 -9.965726e-15 1.427324e-07 -0.00015246199 -0.0014286081 1.999622e-05 0.0016811349 0.00027403928
1.9977671e-08 4.660576e-09 3.487046e-05 -0.0010200741 1.3010002e-12 3.571393e-05 -0.002587772 -0.0034271388
-5.5141096e-09 3.5484692e-05 -0.0028568497 -0.001889492 -0.00051219144 0.0015057081 0.00029460897 1.1436032e-12
-0.0024520664 -0.0007552585 -0.0005226153 -0.0030299136 -0.0035814508 -0.0031465928 -0.0023844906 7.3962885e-09
00000000: f18f 8738 cdd9 a7b7 a661 af38 9197 a3b5
00000010: 3f5e 16b8 a062 b736 001d fbb6 5c50 3537
00000020: e49e 3fb6 1ed8 862b ce61 8937 b908 f3ae
00000030: 4956 47ae c06e 8db2 f9ab 05b4 8b64 5735
00000040: 0001 2cae e6e9 d8b9 1f29 932d 6f68 ee2f
00000050: ba26 9534 dfc9 bab0 0386 0f31 95d8 9fb0
00000060: 443b d52b 55e0 d5ac dbfe fdac fcf5 86b2
00000070: b109 542c c597 0a36 91f7 0a2f 0377 fcb8
00000080: 00f0 f92a 01a9 87b5 7c61 77b2 96a8 6530
00000090: 48a8 1d2b 7ca6 ddb7 30fa 9eaf cc45 a32b
000000a0: f99f 7833 3d9b a1af 2cbe 4238 c3d9 4d34
000000b0: 2d15 99b8 8be3 d8b8 f062 b039 7f7c c0b8
000000c0: 56f4 22af 0915 1736 3929 d32b b695 e9ac
000000d0: 64f4 31b2 c582 fbb5 cea2 1c39 35b8 d8b6
000000e0: 3237 76b8 0b28 0038 669f 0d2f f6bc 29b5
000000f0: 8b53 0bae fb26 f237 42a6 112c cfe0 7038
00000100: 3d1d 7c38 e2e0 03b9 9f5e 6eaf 19c7 1936
00000110: 7336 cb38 5b5c 4f39 1c79 90b8 f38f 5cb8
00000120: 9220 0038 973b 9f31 b9fb 48b8 bd69 f338
00000130: a137 08b8 8b53 cbb7 ab9b 6939 2796 f438
00000140: 24d0 0639 1f6b 73ac aa47 07b6 2ba4 9033
00000150: 46bf 1fae 77c0 6b33 f653 4638 97d8 12b8
00000160: a73b 5237 fcca ddb5 b5ea 9c36 e599 0ab7
00000170: 189a 05b7 a353 4837 28a0 14b6 d1de fab7
00000180: bb0e 7f31 a276 e034 0ad4 4137 152b 7b38
00000190: 1699 90ac 6c57 61ac 9ec1 fc33 481e cfae
000001a0: d159 1bb5 fc4d 6735 d34d 9c35 6e3d 4732
000001b0: 5683 732d f0a0 06ac 88e3 8239 5ab5 1ab9
000001c0: 4d2a 2537 a519 2bb1 98ec 7db2 610c 482f
000001d0: 829a 15b4 8ebf 4fb9 6fd2 352c a02d a2b8
000001e0: bcfd 48ad e162 92b0 cd11 4cab 5736 9835
000001f0: 1095 2eac 57de 812b d6b7 ef2d bf45 d5b5
00000200: 794b 1331 5540 0634 00f3 612b f341 5a37
00000210: 45d2 22b7 a05f e1b7 f3f5 6a36 d1f3 f935
00000220: bc63 2b36 cfca 24b2 dab5 8cb0 e019 8ab4
00000230: bcb0 26ac 5afb 03b8 440d ad36 97e7 54b7
00000240: d164 d7b5 d0c9 9637 3ef8 a232 2cd9 e0b0
00000250: 32dc c5b6 5a04 b935 4842 d9b6 b738 17b8
00000260: c75f 7136 a98f c2b3 0d99 23b6 2b2a 00b8
00000270: 166d 0fb8 23fd abb6 1e93 56b7 c365 d7b5
00000280: 21f2 90ae f17d 6535 a618 cfb6 b402 b9b6
00000290: df75 5db7 d628 beb7 53ea a0b7 a181 0fb8
000002a0: 5c3b 1739 17d2 ba34 d0b8 2336 f484 2033
000002b0: 5012 26b3 a6ca 42b5 94bb 54bb 725a 053a
000002c0: 43dd fcba d8a2 8fb9 bfb9 02bb ebb6 0637
000002d0: 84ed a538 68f2 9f3a 2bb8 6fb7 d93b 32ba
000002e0: c3c8 ceac f6e2 b335 227f 952c 2bcf 9834
000002f0: 8e3f f9b1 d9c3 ea37 462b deb5 cdff dba7
00000300: dddb 46b5 6bee 152f 5a9a 18b4 74eb 14b4
00000310: 8b3e 2fab ae06 41b5 6648 62b8 bcb8 0f2f
00000320: 8679 c92d 1e40 1caf 3e1f d238 c177 9734
00000330: bd2c 8b31 c760 092e 3fac 23b7 b386 6d2c
00000340: f25a 3b30 3354 1a2e 8ef3 942f b03e 07b0
00000350: 965e 03b0 6280 bf2e 2342 0fb0 fa52 832e
00000360: e241 792c 2b98 192d ed29 2cbb 1c6b 4bbb
00000370: 9eb2 9cbb ff6b 5439 7a4c 0036 6f9c 8038
00000380: 28bc 9ab9 cd86 33a8 fc41 1934 34de 1fb9
00000390: 2240 bbba 8ebd a737 8759 dc3a eeac 8f39
000003a0: 5d9b ab32 dc22 a031 df41 1238 02b4 85ba
000003b0: 7919 b72b 8acb 1538 9c97 29bb d999 60bb
000003c0: 9f76 bdb1 66d5 1438 fc39 3bbb d5a8 f7ba
000003d0: 9644 06ba 2e5b c53a bf75 9a39 a6f2 a02b
000003e0: d9b2 20bb 8afc 45ba 1e00 09ba 8491 46bb
000003f0: c6b6 6abb 1137 4ebb 1d45 1cbb 7122 fe31

gnn.init_context.project_edge1.0.bias f4 [32]
2.465907e-05 -3.4937748e-05 -0.002333059 -0.0015399461 -1.6411085e-09 -0.0016990064 -1.0412401e-09 -7.837774e-16
-9.349209e-19 -0.0033701898 2.513172e-22 -1.09173165e-07 -0.0005580847 -8.8234825e-05 -3.5753006e-13 -2.9171261e-08
-0.0018501767 1.577119e-20 -3.2231967e-13 -6.1446745e-09 -2.3737269e-07 -3.0223525e-08 -2.2077185e-09 -3.4606504e-08
-7.345767e-05 -0.0014035709 -0.001316666 -6.6464096e-15 -0.0007430119 -8.734526e-12 -1.2432956e-26 -2.8286036e-05
00000000: f3da ce37 1f8a 12b8 3ce6 18bb 04d8 c9ba
00000010: 5f8d e1b0 32b1 deba 611b 8fb0 90e8 61a6
00000020: 50f8 89a1 67de 5cbb 74e9 971b 9572 eab3
00000030: 6e4c 12ba b60a b9b8 8345 c9aa 4894 fab2
00000040: a181 f2ba 66f4 941e 2973 b5aa 2121 d3b1
00000050: 82e0 7eb4 1ecf 01b3 98b6 17b1 41a2 14b3
00000060: 490d 9ab8 06f8 b7ba fb93 acba 4f76 efa7
00000070: afc6 42ba cfa8 19ad 9442 7694 cd47 edb7

gnn.init_context.project_edge2.1.weight f4 [1, 64]
2.4072131e-08 5.2490638e-08 1.6339322e-05 2.2750177e-07 -1.0924553e-07 -1.7032731e-05 -5.5734537e-09 0.0001593435
-3.737102e-09 5.0544175e-05 -1.9978086e-06 6.856634e-10 1.7047272e-05 -2.4113206e-10 -1.2697012e-07 4.2500146e-09
-1.5153013e-12 -3.0331964e-07 -0.0003294643 4.6928125e-08 -3.206093e-06 -1.12728e-05 1.4277477e-11 -1.9000244e-07
1.5424105e-06 7.97803e-06 2.9710459e-09 1.000967e-07 5.418202e-08 1.1116485e-08 3.0037558e-05 1.4263845e-05
-2.1564151e-06 3.016769e-08 -3.6892454e-06 0.000753405 5.2099602e-11 -0.0001461996 4.0702368e-12 4.548101e-20
1.1800425e-20 1.5306814e-05 6.7696873e-25 -4.550277e-11 -4.2260804e-06 2.7768756e-05 -2.5791157e-14 1.2453585e-13
9.543575e-07 1.01603e-23 -8.184323e-18 2.3612709e-11 -2.6441647e-13 -1.085902e-09 5.264741e-10 -1.3120952e-09
-2.9654504e-07 -3.460818e-06 1.8140008e-05 -2.286219e-18 8.6520686e-07 1.0250008e-13 1.2798994e-30 2.536523e-10
00000000: 2dc7 ce32 1172 6133 6d10 8937 3647 7434
00000010: 5e9a eab3 83e1 8eb7 9e80 bfb1 7215 2739
00000020: e667 80b1 65ff 5338 1712 06b6 4679 3c30
00000030: bd00 8f37 5290 84af 4855 08b4 8607 9231
00000040: 7c42 d5ab efd7 a2b4 f3bb acb9 058e 4933
00000050: 4228 57b6 4f20 3db7 0a2c 7b2d 7903 4cb4
00000060: d204 cf35 61d9 0537 312b 4c31 bef4 d633
00000070: c3b5 6833 d1fa 3e32 2af9 fb37 bf4e 6f37
00000080: eeb6 10b6 ba91 0133 c194 77b6 2780 453a
00000090: f022 652e 284d 19b9 6f35 8f2c 2bc7 561f
000000a0: 5be7 5e1e 2267 8037 fd82 5117 911f 48ae
000000b0: c1cd 8db6 f3f0 e837 5c4e e8a8 0437 0c2a
000000c0: 7917 8035 5e87 4419 5ff9 16a3 18b3 cf2d
000000d0: 6eda 94aa c83e 95b0 52b7 1030 3f55 b4b0
000000e0: d734 9fb4 6740 68b6 5f2b 9837 75b1 28a2
000000f0: 9040 6835 46cf e629 f1ac cf0d 6372 8b2f

gnn.init_context.attentive_gru.edge_transform.1.weight f4 [32, 32]
3.1826046e-05 1.4320054e-05 -0.0056905784 -0.0024159227 -1.9795787e-09 0.0016162061 4.1385097e-11 -1.623681e-17
1.00172244e-19 0.003041107 9.907819e-23 9.173456e-08 0.00046013846 0.00019787933 1.3135622e-12 1.8821266e-12
0.00019367751 1.5812212e-20 1.0775071e-16 7.3402955e-09 -3.216479e-12 -1.9627894e-08 -1.6492953e-08 2.2591369e-08
-8.393215e-05 -0.0005159165 -0.0010545326 1.224996e-15 0.00045253919 1.0436188e-11 3.9332674e-29 7.417952e-09
0.00010888793 -2.2962036e-05 0.007472888 -0.00735112 3.3454006e-09 -0.0025241664 -3.1533964e-10 1.7364405e-17
1.0053675e-19 -0.008856553 -1.7401504e-22 -6.666338e-08 -0.0015642573 -0.0003339444 -2.6165346e-12 -1.3837018e-11
0.001452842 2.2875746e-20 8.6169996e-16 -2.1708935e-08 -1.9886262e-10 4.372861e-08 2.8224424e-08 -6.805351e-08
-7.5509e-05 0.00065934996 0.0024574657 5.614465e-16 0.0019808905 -5.2373878e-12 5.1492794e-29 4.4349896e-08
-7.2177136e-05 1.354981e-05 0.0015494276 0.0062430263 -7.4682405e-10 -0.0008229804 -1.4955462e-10 8.846062e-17
-1.2249034e-18 0.0011225854 8.958636e-23 -1.1044159e-07 0.0002387837 0.00023937928 -2.537414e-12 1.6451167e-10
-0.0014517412 -2.3215173e-20 2.326625e-17 -7.880231e-09 2.1694118e-12 2.5274324e-10 1.7066654e-08 -6.884281e-09
5.4467296e-06 0.0005916348 -0.00029073755 -9.110679e-15 0.00033916708 7.387789e-11 1.2228904e-28 -2.5617965e-08
0.00022196452 1.1976371e-05 0.00020383661 -0.010307654 2.7573932e-09 0.00013497828 5.9306016e-10 -1.7864862e-16
2.172007e-19 -0.0023277136 -5.9127435e-23 -5.7354512e-08 0.0007955891 0.000107790016 5.3554047e-13 -1.14120234e-10
0.0002283093 5.9455494e-20 1.74736e-16 6.976017e-08 5.3826615e-10 -3.143029e-08 -2.5635837e-08 2.998158e-08
2.7395674e-05 0.00039525566 0.004774966 -1.3970385e-14 0.000760719 4.178825e-11 2.2475918e-28 4.746586e-08
7.0565267e-07 -1.3866749e-07 2.3973293e-05 0.0010643478 3.1632558e-11 1.7126382e-05 -6.2796854e-13 3.0014952e-18
2.0925991e-22 -5.6562865e-05 -2.1180353e-24 -7.396101e-10 3.9014543e-05 -1.0633752e-05 5.761948e-15 1.3047654e-12
-1.2017905e-05 -9.9304244e-21 -3.183441e-18 8.8085533e-10 -9.52838e-12 -4.3971835e-10 -2.0137994e-10 4.409335e-09
3.403017e-07 -9.085142e-07 2.1408172e-05 1.1835335e-16 1.15009125e-05 3.6413727e-13 -7.902494e-30 -1.0277351e-09
1.15584776e-07 5.7818183e-06 -0.00027471056 0.0006836973 -1.10566764e-10 -0.00026345812 -3.6868733e-12 1.2072899e-17
-5.2442273e-21 0.000118469194 -5.075803e-24 -7.5186435e-09 -0.00010165171 -5.3938e-06 -1.3395189e-13 -8.9272914e-13
5.326741e-05 -1.79358e-21 -5.8200105e-18 -1.1556318e-09 -1.5569128e-11 2.79137e-09 1.349995e-09 -3.4996706e-09
3.235122e-06 1.2773264e-05 9.305973e-05 1.025434e-15 -7.860583e-05 -2.1964868e-13 -7.5271643e-31 -1.7514928e-09
-0.00011479375 2.7049635e-05 -0.0040023187 0.014061528 -1.259305e-08 0.00081512594 -4.772024e-10 7.885473e-17
2.9283199e-18 0.005735013 -2.3591437e-22 1.0438881e-07 -0.00091968087 -0.00041061477 1.3811512e-12 1.33164695e-11
-0.0018118432 -2.0774389e-20 3.116502e-16 1.08811795e-08 2.3833574e-10 2.5666417e-08 -1.114999e-09 2.2593344e-08
-8.2965154e-05 0.00070219254 -0.0020326376 1.3036064e-14 0.0008695477 -2.602819e-11 8.254071e-29 3.5323772e-08
-8.836938e-05 2.1494325e-05 -0.0035017892 0.01064655 2.721467e-09 0.002096968 2.925209e-10 4.6644096e-17
9.632332e-20 0.003949343 1.0301802e-22 -1.3337148e-08 0.0004930467 0.00027435337 1.085586e-12 -5.0885633e-12
-7.236781e-05 -1.7831227e-20 1.9114304e-16 6.209913e-09 1.691869e-10 1.5335804e-08 1.1468179e-09 1.8734477e-08
-0.00010168009 6.281022e-05 -0.0015659918 8.982298e-15 -0.0007782233 -1.5257412e-11 -5.730216e-29 1.1352556e-08
00000000: f57c 0538 2a40 7037 0878 babb 7554 1ebb
00000010: 1e09 08b1 e1d6 d33a 7a03 362e 15c2 95a3
00000020: 6886 ec1f 4f4d 473b 6e8e ef1a 9cff c433
00000030: bd3e f139 d47d 4f39 11de b82b 6171 042c
00000040: e915 4b39 9557 951e cb74 f824 ec35 fc31
00000050: ef56 62ac 329a a8b2 63ac 8db2 f20e c232
00000060: bb04 b0b8 923e 07ba 3e38 8aba 608a b026
00000070: c842 ed39 6a98 372d bb70 4710 ffe0 fe31
00000080: c35a e438 999e c0b7 21df f43b aae1 f0bb
00000090: e9e4 6531 7c6c 25bb 1c5c adaf 8b28 a023
000000a0: bd62 ed1f 131b 11bc 0c5f 529b 9528 8fb3
000000b0: c407 cdba 4215 afb9 4c1f 38ac 646c 73ad
000000c0: 4a6d be3a 290e d81e 3c5e 7826 747a bab2
000000d0: daa6 5aaf 1dd0 3b33 2a72 f232 d024 92b3
000000e0: 965a 9eb8 3ad8 2c3a 6f0d 213b 71d3 2126
000000f0: d4d1 013b 3246 b8ac bc8c 8210 3a7b 3e33
00000100: ce5d 97b8 fe53 6337 2a16 cb3a 4d92 cc3b
00000110: 1249 4db0 48bd 57ba e26f 24af eff9 cb24
00000120: 8bc3 b4a1 b723 933a 459b d81a e82b edb3
00000130: 0362 7a39 e301 7b39 fd8d 32ac ebe1 342f
00000140: 5a48 beba d842 db9e e197 d623 9f61 07b2
00000150: a6a8 182c 73f2 8a2f f899 9232 c78a ecb1
00000160: 0dc3 b636 f017 1b3a 226e 98b9 971f 24a8
00000170: 3cd2 b139 8e75 a22e 1005 1b11 800e dcb2
00000180: 26bf 6839 1fee 4837 f9bc 5539 6fe1 28bc
00000190: 937c 3d31 f588 0d39 e604 2330 c4f7 4da5
000001a0: 7136 8020 8e8c 18bb 1cf6 8e9a f455 76b3
000001b0: 158f 503a 530d e238 c2bd 162b fbf3 faae
000001c0: 5066 6f39 a462 8c1f f774 4925 0fcf 9533
000001d0: 1df5 1330 f8fd 06b3 cd35 dcb2 19c5 0033
000001e0: c3cf e537 513a cf39 5177 9c3b 07ab 7ba8
000001f0: fd6a 473a 63c9 372e 4375 8e11 44dd 4b33
00000200: 156c 3d35 a1e4 14b4 411a c937 9681 8b3a
00000210: 181f 0b2e a0aa 8f37 e7c1 30ab a478 5d22
00000220: cefa 7c1b ea3d 6db8 03e0 2398 6f4d 4bb0
00000230: 8ca3 2338 9e67 32b7 9798 cf27 21a1 b72b
00000240: 82a0 49b7 9694 3b9e 80e5 6aa2 af20 7230
00000250: 02a0 27ad dbbc f1af 6a6b 5daf ec80 9731
00000260: b6b2 b634 9fe0 73b5 b395 b337 be73 0825
00000270: 0bf4 4037 b6fd cc2a 1848 208f 3740 8db0
00000280: 6737 f833 7101 c236 0707 90b9 263a 333a
00000290: 8e23 f3ae c020 8ab9 67b8 81ac a7b4 5e23
000002a0: 0e1f c69d aa72 f838 515c c498 582b 01b2
000002b0: d92d d5b8 64fc b4b6 01d1 16aa ea47 7bab
000002c0: 726b 5f38 e284 079d 72b8 d6a2 2ed4 9eb0
000002d0: 8ff2 88ad 4dd2 3f31 ba8a b930 db7e 70b1
000002e0: f91a 5936 c04c 5637 1029 c338 d6c7 9326
000002f0: 2fd9 a4b8 6c4d 77aa 3c45 748d 2db9 f0b0
00000300: 6dbd f0b8 a6e8 e237 e225 83bb 5362 663c
00000310: d258 58b2 2dae 553a 222c 03b0 9ed3 b524
00000320: 6612 5822 c7ec bb3b fb99 8e9b 5b2c e033
00000330: bd16 71ba c847 d7b9 3761 c22b 0c44 6a2d
00000340: 5f7b edba 6435 c49e 74a7 b325 efef 3a32
00000350: c606 832f 0c79 dc32 8a3e 99b0 4a13 c232
00000360: 94fd adb8 5813 383a 0036 05bb 3cd6 6a28
00000370: 5cf2 633a 46f2 e4ad fc43 d110 e6b6 1733
00000380: f352 b9b8 b64e b437 467e 65bb de6e 2e3c
00000390: 8e04 3b31 496d 093b a8d0 a02f a11b 5724
000003a0: e06f e31f 7e69 813b 1115 f91a 6621 65b2
000003b0: ce3f 013a 16d7 8f39 5cc8 982b b409 b3ac
000003c0: 2cc4 97b8 4369 a89e 785f 5c25 f95e d531
000003d0: e105 3a2f cabb 8332 119e 9d30 8ded a032
000003e0: 153d d5b8 fbb8 8338 f741 cdba 8acf 2128
000003f0: ae01 4cba a334 86ad 3a47 9190 1209 4332

gnn.init_context.attentive_gru.edge_transform.1.bias f4 [32]
-0.0021989427 0.005419536 0.0008514484 -0.003406174 -0.00021268464 0.00045361975 -0.0058314675 -0.0038799369
-0.0024934965 -0.00012521885 0.0025659287 0.00444828 0.00018893833 0.0035139034 -0.00030832313 0.0042685647
8.447458e-05 -0.0006898247 -0.00032052628 -0.00471527 -3.1360156e-05 -0.0010660522 0.00052923226 -5.633974e-05
0.0046350276 0.0029449826 -0.001613823 0.0034858517 0.0043563475 -0.0021090994 0.00017489491 0.00020894872
00000000: 231c 10bb 5d96 b13b bc33 5f3a 1e3a 5fbb
00000010: 1904 5fb9 d0d3 ed39 e515 bfbb 8a46 7ebb
00000020: ee69 23bb 2e4d 03b9 2429 283b e1c2 913b
00000030: bf1d 4639 8449 663b 6ea6 a1b9 51df 8b3b
00000040: f227 b138 5ad5 34ba 4f0c a8b9 8d82 9abb
00000050: b688 03b8 c7ba 8bba 2dbc 0a3a 564e 6cb8
00000060: 6ee1 973b 9c00 413b ea86 d3ba e372 643b
00000070: b1bf 8e3b d138 0abb ff63 3739 3f19 5b39

gnn.init_context.attentive_gru.gru.weight_ih f4 [96, 32]
-8.659e-42 6.505e-42 -2.208e-42 1.4443e-41 -6.0368e-41 -1.0141e-41 -1.1796e-41 -3.634e-42
6.073e-42 1.6298719e-21 3.262e-42 1.8e-41 3.9146007e-38 -1.123e-41 -1.6722e-41 1.638e-41
6.461e-42 8.311e-42 1.3293858e-08 2.4366e-40 1.9785e-41 -1.0157e-41 -1.1870346e-09 -2.623e-41
1.0758e-41 1.5112e-41 9.876e-42 -1.6397e-41 -7.139393e-14 -7.839e-42 -1.0054952e-06 1.0814e-41
-2.5421956e-10 2.1662903e-05 2.1109464e-10 1.9484068e-08 -1.1109848e-07 -5.917303e-05 -1.6366759e-21 4.4639646e-11
2.385627e-20 -7.049079e-07 -0.00013647557 1.0687163e-10 2.4199523e-11 6.066138e-21 1.3214702e-10 7.996984e-07
-4.3580559e-10 -2.1129183e-07 -2.7680808e-05 1.545261e-10 -7.720144e-12 1.83107e-23 -5.4251526e-08 -9.8219694e-05
4.666179e-16 2.2556729e-07 3.638143e-20 4.6233178e-10 1.0169503e-08 5.849111e-11 5.6382174e-07 3.5273462e-10
-8.130906e-25 6.013681e-25 -2.3110507e-24 -9.474403e-25 -8.675907e-08 -1.3761382e-24 4.0710276e-26 1.1582183e-24
-6.9175016e-25 -8.619459e-25 3.1855047e-13 1.679164e-24 1.3452718e-24 -7.3739133e-25 1.3258639e-24 4.9820007e-22
-3.8145749e-25 1.5094474e-24 -1.1269071e-07 -1.3975992e-24 5.0777867e-14 2.816961e-25 2.5715297e-10 1.0533179e-24
-1.329426e-24 -1.9970108e-24 1.5433648e-24 1.1585262e-24 4.1184478e-25 -1.7701455e-24 -4.3597246e-25 -2.2227444e-24
-7.5419644e-12 -4.5977263e-12 1.6255128e-10 -9.0817835e-08 1.4154234e-08 -6.185448e-12 5.1257456e-09 1.01520084e-10
-8.195907e-07 -4.341808e-18 1.9391225e-06 2.3805204e-07 -1.5652897e-05 -2.1896014e-08 -9.512251e-08 -3.8143106e-09
-3.9962066e-05 1.9192153e-07 -2.7249365e-08 3.6568268e-09 5.9351933e-06 -1.0025161e-05 6.8350015e-10 -1.7298015e-08
-0.0006798794 -1.05003055e-08 -1.986501e-07 5.0069985e-07 7.12e-43 0.00013009679 -8.779841e-06 5.9350066e-07
-3.759782e-09 -1.498901e-10 -1.4256085e-07 3.990495e-09 -5.7715727e-07 7.4477896e-11 -8.3294616e-10 -2.3268139e-10
-4.038694e-09 -2.7914396e-11 -2.615141e-09 -1.1369036e-07 -1.079996e-11 7.3946453e-09 -2.0570101e-11 -1.1213673e-05
6.167672e-08 9.093201e-08 -6.567966e-08 -2.1924329e-10 -1.2401975e-12 6.2295574e-10 1.12175506e-07 1.5768576e-07
4.075627e-09 7.711105e-12 3.7279118e-09 4.098764e-09 1.0043673e-12 -1.7536406e-09 2.636354e-10 1.6615232e-07
8.9290406e-05 -8.945971e-08 -2.294766e-08 1.1411481e-08 5.941671e-06 3.5753682e-09 -0.00013949379 -4.3465639e-07
8.788881e-06 5.973329e-11 1.1843888e-06 -3.1265976e-08 4.1058352e-09 3.1484447e-07 -6.5229486e-08 2.7189206e-08
1.6628289e-09 -5.6131732e-08 -4.300742e-10 -1.3167186e-06 -8.772494e-10 7.6241063e-10 1.3904932e-09 1.0204896e-09
-1.06588786e-07 3.8713527e-10 -2.0388015e-07 -5.6853245e-05 8.774924e-09 2.3410895e-08 1.1140647e-07 7.8257095e-10
8.802468e-31 7.5198085e-30 5.9806493e-09 -2.3757432e-31 8.4928545e-30 1.3049039e-31 7.0873756e-30 6.311608e-30
1.2974592e-30 7.1617134e-31 -3.4339594e-30 0.00058282685 -2.5738495e-30 7.2696826e-31 -6.2137767e-30 -4.675689e-30
-3.3593405e-30 8.437633e-30 4.571861e-30 -4.9491983e-30 -2.5873136e-31 8.360303e-30 5.6482872e-30 3.6944764e-30
-4.374895e-30 -5.0472613e-30 -8.117969e-31 -3.4505424e-30 -7.19144e-31 3.246745e-30 1.3935746e-29 -4.6446114e-30
-0.0004498456 -0.0006369894 0.00034622318 -7.467707e-05 5.8856604e-06 -7.1084454e-05 0.0008654003 0.0006367491
0.00044138572 0.0002681158 -0.00089793414 -0.001261951 -0.00019093315 -0.0009644867 2.4357794e-05 -0.00069606886
-8.456474e-07 0.00074467296 8.969549e-05 0.00056248263 2.6020834e-05 -0.0001713562 -0.0006215999 -0.00028191265
-0.0012562844 -0.00083298614 0.00065435894 -0.0012403845 -0.0010609337 0.0005596743 -0.00016711857 -7.0515656e-05
00000000: 2318 0080 2212 0000 2806 0080 4328 0000
00000010: 48a8 0080 451c 0080 e220 0080 210a 0080
00000020: ee10 0000 9d4c f61c 1809 0000 2d32 0000
00000030: 9221 5501 4e1f 0080 9d2e 0080 a92d 0000
00000040: 0312 0000 2b17 0000 0163 6432 3aa7 0200
00000050: 2737 0000 501c 0080 1125 a3b0 1e49 0080
00000060: fd1d 0000 202a 0000 881b 0000 b52d 0080
00000070: ccc3 a0a9 da15 0080 8df4 86b5 251e 0000
00000080: 39c2 8baf bbb8 b537 dc19 682f eb5d a732
00000090: 0995 eeb3 8f30 78b8 d553 f79c c653 442e
000000a0: ec50 e11e e738 3db5 e21a 0fb9 6103 eb2e
000000b0: 7bdc d42d 162c e51d 144c 112f dbaa 5635
000000c0: 2f96 efaf 75df 62b4 1534 e8b7 3be7 292f
000000d0: 70d0 07ad 1917 b119 2f02 69b3 4cfb cdb8
000000e0: 537e 0626 7733 7234 73ce 2b1f 6a2b fe2f
000000f0: f2b5 2e32 919f 802e 8959 1735 fcea c12f
00000100: ada3 7b97 4a1d 3a17 13cf 3298 fa9b 9297
00000110: 4e50 bab3 73f2 d497 6896 4915 c139 b317
00000120: 1816 5697 3261 8597 f653 b32a 45eb 0118
00000130: b52b d017 2936 6497 e12a cd17 5d92 161c
00000140: 5a1c ec96 5f93 e917 5f00 f2b3 9c44 d897
00000150: e5ae 6429 875c ae16 105f 8d2f 39fe a217
00000160: fdb7 cd97 e082 1a98 fbd2 ee17 f345 b317
00000170: 69eb fe16 58f5 0898 4ced 0697 fdf9 2b98
00000180: fdad 04ad a3c4 a1ac 1eba 322f a207 c3b3
00000190: fb2a 7332 90a1 d9ac 891e b031 ba3e df2e
000001a0: d801 5cb5 382f a0a2 df21 0236 3f9b 7f34
000001b0: 574e 83b7 d815 bcb2 2746 ccb3 080f 83b1
000001c0: f19c 27b8 fd12 4e34 fd11 eab2 944b 7b31
000001d0: ec26 c736 bd31 28b7 0ce1 3b30 bd96 94b2
000001e0: ef39 32ba d564 34b2 864c 55b4 d567 0635
000001f0: fc01 0000 976a 0839 214d 13b7 0e51 1f35
00000200: 642f 81b1 50ce 24af d412 19b4 c41c 8931
00000210: f2ed 1ab5 54c7 a32e 60f5 64b0 fdd5 7faf
00000220: bac4 8ab1 a289 f5ad 0cb6 33b1 f025 f4b3
00000230: b2fe 3dad fd13 fe31 c0ef b4ad 5c22 3cb7
00000240: 2373 8433 6746 c333 c60b 8db3 800f 71af
00000250: d38a aeab 9d3c 2b30 23e5 f033 5550 2934
00000260: 9809 8c31 bba7 072d 0f17 8031 1cd5 8c31
00000270: 255a 8d2b be04 f1b0 62ef 902f 9a67 3234
00000280: 6c41 bb38 ff1c c0b3 701e c5b2 390c 4432
00000290: 915e c736 8bb2 7531 1445 12b9 b85a e9b4
000002a0: f573 1337 da5a 832e 4af7 9e35 4e49 06b3
000002b0: 4f13 8d31 e507 a934 4a14 8cb3 b28d e932
000002c0: 9789 e430 7e15 71b3 906f ecaf 1bba b0b5
000002d0: f022 71b0 e191 5130 a11b bf30 4941 8c30
000002e0: cee5 e4b3 72d4 d42f 26ea 5ab4 b575 6eb8
000002f0: 86c0 1632 1a19 c932 5b3e ef33 891c 5730
00000300: 06d4 8e0d 1485 180f 597e cd31 ce31 9a8c
00000310: 6c41 2c0f df62 290c c2bf 0f0f be03 000f
00000320: 5986 d20d 3069 680d 464c 8b8e d9c8 183a
00000330: c3d0 508e 29ea 6b0d 8c0f fc8e 21ab bd8e
00000340: 6345 888e b222 2b0f eb74 b90e 6ac3 c88e
00000350: 1fed a78c 2d91 290f 2b1f e50e a3dd 950e
00000360: 8277 b18e c2bd cc8e b9b8 838d 7bf8 8b8e
00000370: 2560 698d 21b4 830e 4453 8d0f 6768 bc8e
00000380: 41d9 ebb9 a3fb 26ba 4a85 b539 f29b 9cb8
00000390: 707d c536 2d13 95b8 08dc 623a 82eb 263a
000003a0: ca69 e739 e591 8c39 5763 6bba 0d68 a5ba
000003b0: 3a35 48b9 9bd5 7cba f753 cc37 6478 36ba
000003c0: 7200 63b5 2836 433a e61a bc38 9273 133a
000003d0: 5147 da37 14ae 33b9 ddf2 22ba adcd 93b9
000003e0: e9a9 a4ba c15c 5aba 4989 2b3a 6694 a2ba
000003f0: 070f 8bba 1bb7 123a 8d3c 2fb9 cee1 93b8

gnn.init_context.attentive_gru.gru.weight_hh f4 [96, 32]
-1.4e-43 -2.6078678e-05 -8.569705e-10 -8.3017385e-06 7.962918e-10 4.7022218e-06 2.3719247e-05 -6.1e-43
-1.288376e-06 3.229e-42 -3.6930365e-09 1.6457881e-10 -7.661801e-10 -3.315051e-06 4.0980517e-08 1.6114231e-17
5.7878656e-16 4.28688e-11 -1.37e-42 -1.8397575e-08 -1.2921169e-11 -0.0001082679 8.19e-42 -1.2344685e-20
-7.198429e-10 -1.055595e-05 -6.87769e-09 1.08861556e-07 9.441517e-05 -1.3714599e-06 0.00018265564 1.533e-42
-8.167819e-09 -2.6973824e-18 1.6482073e-06 -0.00034160342 -3.7723415e-11 1.1738606e-10 -5.2964106e-06 1.9135808e-16
-1.1075009e-09 -2.7374677e-17 -0.00027575498 1.4339784e-09 5.2191812e-05 -5.702365e-12 -6.0502564e-10 -3.1342122e-07
-2.6264941e-09 1.03001526e-07 2.668719e-18 -9.4471875e-07 4.534216e-14 -2.2376673e-10 -1.0965955e-10 6.6509955e-08
-2.5353216e-24 -2.4402916e-06 3.4698348e-06 0.0001513429 -9.8457775e-08 -1.4494974e-06 8.210459e-11 -7.369051e-17
1.7010766e-24 2.484624e-05 5.962995e-24 1.4083352e-24 -9.812071e-08 1.1757541e-05 1.2638811e-06 4.3268626e-23
1.5586814e-24 -3.799991e-23 -3.7108333e-07 -1.3855125e-24 -2.3383655e-09 -1.2117095e-24 -1.8949828e-08 -8.393644e-06
-8.449297e-11 -4.471252e-25 3.4104966e-23 1.5813925e-24 -8.4068406e-14 3.042792e-11 1.7189979e-06 9.2061345e-07
5.8286983e-05 3.0811116e-06 -3.9531733e-09 -8.714783e-10 1.3513809e-12 1.8333928e-24 -2.7299003e-09 -1.104721e-23
-2.0468468e-12 -1.5104191e-12 1.1585735e-07 -1.42669e-40 -5.480846e-11 -4.028006e-10 2.7142413e-11 2.95433e-40
-1.9555e-41 -2.84874e-40 0.0001046471 1.5563166e-06 -2.4152624e-10 -1.1682005e-10 2.6371183e-07 0.00012314443
-4.998999e-10 2.986e-41 -3.4412e-41 1.1465253e-10 6.0404195e-12 5.326311e-17 1.05715964e-10 0.0002313622
7.3035515e-08 1.0655355e-09 -8.356134e-09 1.3897643e-05 -6.4830465e-14 8.803e-42 3.5424662e-06 3.4521e-41
1.131886e-10 5.06241e-07 -1.4888737e-10 -2.5757032e-07 2.4717854e-09 3.1512968e-09 -5.176849e-06 8.361255e-09
1.0492088e-09 4.5459667e-10 5.961087e-08 2.9647335e-06 1.3351271e-08 2.2655508e-06 -2.4371123e-11 3.545175e-06
5.1227764e-16 -1.5980595e-05 -4.4703823e-09 -1.0763545e-10 7.511779e-06 1.8241542e-09 -1.3178935e-09 6.317746e-07
-7.838079e-07 -1.4628768e-09 9.315511e-08 -4.8583004e-12 -1.2011574e-09 -5.1614824e-11 0.00043926865 -2.024081e-09
-2.6812081e-09 -1.2670529e-05 -2.9224204e-05 8.057691e-06 4.0786983e-12 -9.122548e-10 -1.4534984e-11 -1.2260795e-10
6.1521594e-13 3.8547554e-07 9.392098e-12 1.41323535e-05 4.787304e-10 1.1977237e-07 9.792951e-05 1.2998551e-13
-4.949351e-08 -1.6687709e-11 2.4835463e-09 2.066327e-09 -2.0143376e-10 4.785561e-08 -5.762975e-09 2.2649585e-06
-1.1940454e-08 -4.3750372e-08 -6.8495756e-05 9.182895e-11 0.00057495444 -1.102577e-05 5.6012865e-08 -3.2282848e-09
5.326027e-15 -1.0116191e-06 -0.00033060185 1.1451287e-05 -2.8873176e-11 9.8526776e-05 -5.7731214e-32 -8.454303e-30
7.281344e-15 -1.911175e-29 -1.1502296e-05 3.1205335e-08 1.5094537e-05 -1.381533e-30 -1.1230951e-10 -0.00018544515
6.4351476e-11 1.466375e-08 -1.5994863e-29 -1.0595414e-30 2.9322384e-06 -1.3537977e-08 -2.3127038e-06 0.00039392503
2.8059415e-12 5.393931e-11 -2.8032027e-10 -7.742337e-15 -2.0019586e-08 -2.2497224e-09 4.2779846e-09 4.3934276e-30
-5.8036753e-06 -4.704851e-06 -2.0646612e-05 2.5240024e-06 4.4193663e-07 0.00044751473 6.5870663e-06 -0.00804986
1.0754975e-06 0.010691382 -2.6187545e-06 -1.09539045e-07 -1.3125898e-05 5.291192e-08 -2.7143287e-05 -3.293715e-08
-1.7233134e-12 -1.7192564e-06 0.008274773 -5.838746e-05 8.567076e-06 4.5087912e-05 7.01807e-08 -5.722327e-07
-0.00030942343 0.0002106646 2.9974634e-09 8.400864e-06 5.5889573e-09 -5.3686545e-06 9.383794e-05 -0.0020175658
00000000: 6400 0080 89c3 dab7 f08f 6bb0 b247 0bb7
00000010: 0ee2 5a30 c7c7 9d36 b2f8 c637 b301 0080
00000020: 43ec acb5 0009 0000 96c8 7db1 d1f4 342f
00000030: 229b 52b0 2478 5eb6 8e02 3033 a7a0 9423
00000040: e9d2 2626 fa89 3c2e d203 0080 b208 9eb2
00000050: c64f 63ad e30d e3b8 d516 0000 3c2f 699e
00000060: 71de 45b0 7619 31b7 cd50 ecb1 46c7 e933
00000070: c200 c638 0113 b8b5 4087 3f39 4604 0000
00000080: 7352 0cb2 1d08 47a2 f937 dd35 3c19 b3b9
00000090: cae8 25ae 3d11 012f d2b7 b1b6 f09e 5c25
000000a0: b936 98b0 a17c fca3 3593 90b9 a115 c530
000000b0: 88e8 5a38 56a2 c8ac e54e 26b0 4944 a8b4
000000c0: c67d 34b1 b031 dd33 adea 4422 9498 7db5
000000d0: f433 4c29 bc08 76af d724 f1ae 3cd4 8e33
000000e0: 3829 4498 e4c3 23b6 4fdb 6836 cdb1 1e39
000000f0: bc6f d3b3 5a8c c2b5 c68c b42e 33eb a9a4
00000100: 4b9d 0318 e56c d037 a4ae e618 e8ed d917
00000110: 6eb6 d2b3 4142 4537 a0a2 a935 f73b 511a
00000120: bb31 f117 9cc1 379a 4e39 c7b4 ce65 d697
00000130: f6b0 20b1 c280 bb97 1dc7 a2b2 6dd2 0cb7
00000140: 50cd b9ae e860 0a97 e7eb 241a 69b5 f417
00000150: 234e bda9 cbd2 052e 51b8 e635 1320 7735
00000160: 2c79 7438 18c5 4e36 7bd4 87b1 d58c 6fb0
00000170: a130 be2b 16da 0d18 ea98 3bb1 22af 5599
00000180: b708 10ac 9592 d4ab 40cd f833 b48d 0180
00000190: d70c 71ae 2571 ddaf 48bf ee2d 8c37 0300
000001a0: 8336 0080 1d1a 0380 fc75 db38 a2e2 d035
000001b0: ccc7 84af ec71 00af 4794 8d34 5520 0139
000001c0: 5469 09b0 3d53 0000 ed5f 0080 a31f fc2e
000001d0: 4387 d42c fba1 7524 cc78 e82e d199 7239
000001e0: b3d7 9c33 3372 9230 aa8e 0fb2 ec29 6937
000001f0: 38fc 91a9 8a18 0000 1bbb 6d36 3b60 0000
00000200: 84e7 f82e 9ee4 0735 12b4 23af 3248 8ab4
00000210: 1cdc 2931 338e 5831 cbb4 adb6 30a5 0f32
00000220: c133 9030 cbea f92f 6c03 8033 bcf5 4636
00000230: 835f 6532 de09 1836 e45e d6ad a5e9 6d36
00000240: 6ba7 1326 110e 86b7 e699 99b1 5fb1 ecae
00000250: b10d fc36 b8b5 fa30 4121 b5b0 3897 2935
00000260: de66 52b5 670e c9b0 900c c833 aeef aaac
00000270: f815 a5b0 2001 63ae a44d e639 0218 0bb1
00000280: 5040 38b1 8293 54b7 8026 f5b7 852f 0737
00000290: a681 8f2c 3ac2 7ab0 c0b3 7fad 12cf 06af
000002a0: fb2a 2d2b 5bf3 ce34 403a 252d ff19 6d37
000002b0: a897 0330 c79a 0034 815f cd38 c659 122a
000002c0: b192 54b3 61c9 92ad 02ab 2a31 36ff 0d31
000002d0: 907a 5daf cd89 4d33 aa03 c6b1 b1ff 1736
000002e0: ac22 4db2 0be8 3bb3 61a5 8fb8 1aef c92e
000002f0: 8ab8 163a 52fb 38b7 cc92 7033 96d8 5db1
00000300: eee3 bf27 f8c6 87b5 a154 adb9 e71e 4037
00000310: 9df8 fdad 29a0 ce38 f9e0 958b 4079 2b8f
00000320: 462b 0328 f1d0 c18f fcf9 40b7 a106 0633
00000330: 8b3e 7d37 a32a e08d a2f8 f6ae 0e74 42b9
00000340: a982 8d2e dbeb 7b32 0a35 a28f a1eb ab8d
00000350: 79c7 4436 a794 68b2 f333 1bb6 b987 ce39
00000360: 5973 452c 443a 6d2e 921b 9aaf 3a79 0ba8
00000370: 89f7 abb2 8999 1ab1 8dfd 9231 f637 b20e
00000380: 31bd c2b6 5dde 9db6 4332 adb7 0862 2936
00000390: 4f43 ed34 69a0 ea39 7806 dd36 8fe3 03bc
000003a0: d059 9035 e82a 2f3c dcbd 2fb6 ba3b ebb3
000003b0: 4d37 5cb7 4541 6333 c4b1 e3b7 c876 0db3
000003c0: e988 f2ab 33c1 e6b5 ea92 073c 0fe5 74b8
000003d0: 50bb 0f37 c71c 3d38 3fb6 9633 889b 19b5
000003e0: 1c3a a2b9 d9e5 5c39 effb 4d31 70f1 0c37
000003f0: fd08 c031 6424 b4b6 dcca c438 2339 04bb

gnn.init_context.attentive_gru.gru.bias_ih f4 [96]
-7.31e-43 4.2863356e-16 1.0628432e-23 -1.17982e-40 7.932193e-10 -1.5069466e-08 3.0430536e-29 -0.010260537
-4.351e-42 -0.01083182 6.526719e-18 1.0251009e-16 9.374059e-12 7.954845e-31 4.6516392e-20 -1.6764054e-17
-4.638951e-16 3.091e-42 -0.0031110712 7.4106906e-35 -5.7410717e-12 1.061419e-07 1.6766233e-25 -1.2895299e-09
2.4351044e-12 9.008418e-12 -1.02031454e-13 8.051933e-09 -3.673e-42 1.675e-42 1.840858e-05 -0.0017617573
-8.4804033e-16 -6.336691e-16 -3.826641e-15 -4.13113e-40 6.2561554e-08 -2.5344574e-05 4.1987527e-29 0.37619027
1.794e-42 0.25403216 7.235386e-18 6.519554e-14 -8.058573e-12 -2.7028687e-30 1.0392176e-19 2.2528995e-15
-5.1420263e-16 -2.979e-42 0.12868041 -3.358634e-14 1.16384844e-11 -0.007592636 -8.9935937e-23 7.6965834e-10
-9.544629e-13 2.8823747e-11 5.0925956e-12 -1.2476219e-06 3.43e-42 1.0187792e-33 -1.6625976e-05 0.08540726
-0.0010227517 -0.00029978945 -0.005582373 -0.0015985072 -0.005612864 -0.0033766192 -0.00020309667 -0.05006157
-0.0001620181 -0.008311885 -0.00028299767 -1.2807559e-05 -0.015992498 -3.2877717e-05 -0.0010849988 -5.700253e-06
-2.1973433e-07 -0.00041808814 -0.28151897 -0.0049108597 -0.009962976 -0.094722286 -4.4135163e-06 -0.0072008646
-0.03650381 -0.051940847 -9.886211e-07 -0.0071554314 -4.5500412e-05 -0.0011833849 -0.095885776 -0.18751211
00000000: 0a02 0080 2617 f725 7295 4d19 e348 0180
00000010: d909 5a30 1b72 81b2 184d 1a10 d01b 28bc
00000020: 210c 0080 f277 31bc 1ecb f022 475f ec24
00000030: 02e9 242d 2213 810d deaa 5b1f 019f 9aa3
00000040: 6bb5 05a6 9e08 0000 1de3 4bbb 8c02 c506
00000050: fafe c9ac 20f0 e333 508e 4f16 4d3b b1b0
00000060: f15a 2b2c 4f7a 1e2d 21c1 e5a9 c754 0a32
00000070: 3d0a 0080 ab04 0000 206c 9a37 c4ea e6ba
00000080: 556e 74a6 87a4 36a6 89de 89a7 977f 0480
00000090: 9459 8633 0f9b d4b7 ede6 5410 039c c03e
000000a0: 0005 0000 8110 823e 2578 0523 acce 9229
000000b0: 96c4 0dad 6348 5b8e d960 f51f a956 2227
000000c0: 7535 14a6 4e08 0080 ccc4 033e 6a42 17a9
000000d0: 13bf 4c2d a6cb f8bb a673 d99a e48f 5330
000000e0: 2654 86ab 4f89 fd2d 062e b32c f673 a7b5
000000f0: 9009 0000 1346 a908 0378 8bb7 00ea ae3d
00000100: da0d 86ba 0f2d 9db9 57ec b6bb 0085 d1ba
00000110: 1eec b7bb 454a 5dbb 59f6 54b9 5c0d 4dbd
00000120: 67e3 29b9 932e 08bc 4e5f 94b9 0ce0 56b7
00000130: b302 83bc 2ee6 09b8 8536 8eba cd44 bfb6
00000140: 1df0 6bb4 d732 dbb9 4123 90be 47eb a0bb
00000150: c03b 23bc c2fd c1bd d117 94b6 3bf5 ebbb
00000160: 0585 15bd edbf 54bd c3b0 84b5 1c78 eabb
00000170: b2d7 3eb8 cf1b 9bba c35f c4bd 2d03 40be

gnn.init_context.attentive_gru.gru.bias_hh f4 [96]
3.36e-43 4.2863356e-16 1.0628895e-23 -1.17509e-40 7.93215e-10 -1.506988e-08 3.0425938e-29 -0.010260537
-5.216e-42 -0.01083182 6.524192e-18 1.025602e-16 9.374077e-12 7.957936e-31 4.6513917e-20 -1.6764054e-17
-4.638951e-16 3.074e-42 -0.0031110712 7.4106906e-35 -5.7410717e-12 1.0614206e-07 1.6765926e-25 -1.2895299e-09
2.4351007e-12 9.008409e-12 -1.0200891e-13 8.051933e-09 -5.259e-42 5.34e-43 1.8408642e-05 -0.0017617573
-8.4804033e-16 -6.336691e-16 -3.826641e-15 -4.13108e-40 6.256166e-08 -2.5344581e-05 4.198749e-29 0.37639004
1.794e-42 0.25407287 7.235416e-18 6.519832e-14 -8.058573e-12 -2.7028687e-30 1.039217e-19 2.252883e-15
-5.1420263e-16 -3.088e-42 0.1286851 -3.358634e-14 1.16384844e-11 -0.007592636 -8.9935937e-23 7.6965834e-10
-9.544418e-13 2.8823747e-11 5.09088e-12 -1.2476223e-06 3.523e-42 1.0187792e-33 -1.6625958e-05 0.08540726
-2.9747858e-05 -2.9240826e-07 -0.0010018083 -3.5625682e-05 -0.0029653714 -0.0033048352 -3.3114398e-07 -0.03771593
-8.729077e-08 -0.03436985 -1.02985084e-07 1.1812361e-09 -0.0035254885 -5.5913234e-09 -4.226015e-05 1.2084896e-09
-7.4064643e-09 -2.053605e-06 -0.130885 -0.00079201895 -0.0008848458 -0.07096764 -7.401864e-11 -0.001522903
-0.009418387 -0.017795976 2.8269513e-09 -0.0030208575 -1.0262883e-08 -1.726875e-05 -0.08217098 -0.10951609
00000000: f000 0000 2617 f725 bd97 4d19 9147 0180
00000010: 8b09 5a30 0473 81b2 2047 1a10 d01b 28bc
00000020: 8a0e 0080 f277 31bc 40b3 f022 db7c ec24
00000030: 17e9 242d f91f 810d e0a7 5b1f 019f 9aa3
00000040: 6bb5 05a6 9208 0000 1de3 4bbb 8c02 c506
00000050: fafe c9ac 37f0 e333 578d 4f16 4d3b b1b0
00000060: e05a 2b2c 447a 1e2d 22b4 e5a9 c754 0a32
00000070: a90e 0080 7d01 0000 426c 9a37 c4ea e6ba
00000080: 556e 74a6 87a4 36a6 89de 89a7 947f 0480
00000090: a359 8633 139b d4b7 e1e6 5410 32b6 c03e
000000a0: 0005 0000 d715 823e 4978 0523 46d0 9229
000000b0: 96c4 0dad 6348 5b8e d060 f51f 5b56 2227
000000c0: 7535 14a6 9c08 0080 07c6 033e 6a42 17a9
000000d0: 13bf 4c2d a6cb f8bb a673 d99a e48f 5330
000000e0: 6453 86ab 4f89 fd2d 921e b32c fa73 a7b5
000000f0: d209 0000 1346 a908 f977 8bb7 00ea ae3d
00000100: 0a8b f9b7 49fc 9cb4 1c4f 83ba c96c 15b8
00000110: ad56 42bb ef95 58bb 15c8 b1b4 057c 1abd
00000120: 9c74 bbb3 66c7 0cbd a628 ddb3 0d59 a230
00000130: e20b 67bb cd1d c0b1 7e40 31b8 f317 a630
00000140: f37b feb1 aad0 09b6 b806 06be 7e9f 4fba
00000150: fff4 67ba 7b57 91bd cac4 a2ae 259c c7ba
00000160: 944f 1abc dec8 91bc 4144 4231 94f9 45bb
00000170: a350 30b2 5cdc 90b7 4249 a8bd f949 e0bd

gnn.gnn_layers.0.project_edge.1.weight f4 [1, 64]
-3.464211e-08 2.2378102e-09 -1.2801984e-24 -4.799e-41 -8.470322e-09 -0.00047705063 -5.632187e-10 0.0036979062
5.832e-42 -0.0023980513 -0.0004940194 6.9270206e-10 1.6315973e-13 -1.4772e-08 -4.769331e-21 2.7311554e-11
1.3241297e-05 1.9e-43 -0.0005535116 1.3873572e-36 1.7773687e-14 -3.1331808e-09 2.0612512e-10 -1.1535391e-11
-2.2831988e-07 -3.2097145e-14 -7.1214727e-09 7.718363e-08 3.6899e-41 -2.186e-41 -6.7398616e-07 0.0025385183
9.375e-42 8.831083e-09 8.1898435e-25 1.858e-42 -6.486782e-08 -1.5156323e-06 7.8234513e-10 -0.00091167464
4.511e-42 0.0015891319 7.03517e-07 -1.6389668e-08 1.8352743e-13 -2.2356684e-14 1.969893e-21 2.4889937e-11
-2.0210558e-10 -1.42607e-40 -0.00171835 -1.7595351e-36 -1.509142e-13 -2.8901232e-11 -6.07448e-07 -6.186513e-11
3.1416113e-14 -2.0408232e-15 -1.6067368e-05 3.4304225e-07 1.7194e-41 1.0937e-41 1.2071156e-07 -0.0036214457
00000000: 67c9 14b3 f9c7 1931 e219 c697 c785 0080
00000010: df84 11b2 a71c fab9 fed0 1ab0 9258 723b
00000020: 4210 0000 a028 1dbb 1581 01ba 9368 3e30
00000030: 97b3 372a f1c7 7db2 242e b49d 273c f02d
00000040: f026 5e37 8800 0000 8919 11ba ee0b ec03
00000050: 5517 a028 804f 57b1 10a3 622f c8ee 4aad
00000060: 1728 75b4 7d8d 10a9 23b1 f4b1 26c0 a533
00000070: dc66 0000 f03c 0080 faeb 34b5 455d 263b
00000080: 221a 0000 84b7 1732 a076 7d17 2e05 0000
00000090: 764d 8bb3 bb6c cbb5 a50c 5730 73fd 6eba
000000a0: 930c 0000 6b4a d03a 52d9 3c35 43c9 8cb2
000000b0: 2ea2 4e2a 015f c9a8 46d7 141d 28ef da2d
000000c0: aa37 5eaf 888d 0180 423a e1ba 48af 1584
000000d0: 0eea 29aa ca37 fead 820f 23b5 f90a 88ae
000000e0: 507c 0d29 8b0e 13a7 69c8 86b7 5e2b b834
000000f0: ee2f 0000 7d1e 0000 f19c 0134 c755 6dbb
