Results/GAT/49/model.pth (torch, 903275 bytes, 24 tensors)

gnn.gnn_layers.0.gat_conv.attn_l f4 [1, 8, 32]
00000000: 6297 403d df70 5a3d 5ae3 7a3a 253d 89bb
00000010: 9a61 a53d 4306 93bd d759 0d3c beee 14bc
00000020: 3c8e 03be f4e6 54bd 0254 d8bd 00bb 86bd
00000030: ce2b 683d 524d 6ebe 32cf 10bd 7a14 a93d
00000040: 48f4 e6bc 5af8 0a3d fea7 0ebe b80c 593d
00000050: 4e03 113d 84a8 d0bc 008e 713d 3830 ed3d
00000060: e1f6 9b3d f742 2d3d fbb8 b03c b2da d13d
00000070: 3581 a93d 9f68 cdbb 8049 1a3d 59f3 cdbd
00000080: 9448 11be 6de3 ea3c f8d5 80bd e3ff e2bd
00000090: b54f 2a3e b308 6a3c 899c 6cbc 9308 d1bd
000000a0: 0a50 b13c 1b10 8dbd 026b 89bd 6082 273e
000000b0: bd88 043e 70e3 88bd 5d26 a3bd d07c 56bd
000000c0: f99f 8ebc 2a28 5b3d 9761 573d dc61 fdbc
000000d0: 88cc d7bd 68f5 48bb a676 1abe 4144 2abd
000000e0: 0b4d cabc 0866 963d e703 c4bd fb66 153d
000000f0: d78f c33d 4ad7 fe3d 92b1 afbd 73c9 4cbd
00000100: da4b e3bb ec52 003e 36f1 013d 0c15 4a3d
00000110: e980 cdbc 819f 8cbd 619b d3bd 3023 afbd
00000120: 64c1 8e3d f390 8e3d a2c4 95bc 4f3d 323d
00000130: f63f 123d ae9a 183e de20 76bd bbc7 20be
00000140: 05ca fc3d 3a4a ad3c b0ec cdbc e58a 993d
00000150: 096b 03be 27a8 98bd f87b c0bd 5a1a 983d
00000160: e31a 863d 4965 32bd f270 483b 6a97 f6bc
00000170: 3a6e 563c b824 1fbd 4511 f7bc 1d74 fe3d
00000180: f570 82bd 17f1 cbbd 8876 26bd cf22 dcbc
00000190: 9f0f 0e3d 013f b5bd 7914 903d d72b 813d
000001a0: cb3d adbd ef30 1dbd 8c6c 8b3d edca f6bb
000001b0: 0b55 88bb c7a1 fc3c 0f42 0a3d 8c9d a83b
000001c0: 4c14 9dbd 1b66 07be 9eb8 44be 60fa 8ebd
000001d0: ff41 a9bd c5df 8bbd 9e12 e539 b1ef 5bbc
000001e0: a1a1 60bd 9753 973d 0968 853d bf92 46bd
000001f0: eecc ce3c 7060 9cbd 9d9b 5b3d 1c4d 10bd
00000200: 4cdd debd a38b fe3d e1be 383c 41ba 9bbd
00000210: 5d55 8cbd f105 febc 0895 813c 3394 e43c
00000220: 63d2 c5bb a266 933d 83a2 e9bc 318d 0f3d
00000230: 80c2 4a3c 6a27 b4bd fd7d 163d 1754 77bd
00000240: 434d 983d ecca 4abd c324 a33c cd48 833a
00000250: 0638 e63b ada2 cbbd 2e36 86bc c925 84bd
00000260: dc10 48bd 8119 db3b 5115 1cbb c13c 0cbe
00000270: 9426 ed3d ce1d 84bd e068 e53b f5ae a23d
00000280: b8cf 5fbc c23e 09bc bac8 d9bc 49a3 9fbc
00000290: 383c 073d 9301 dbbc 3a65 523d c951 cfbd
000002a0: ff6f 2cbe 23df a63d b708 d43c 1351 ee3a
000002b0: 26d1 4bbc dec3 a33c 06ce 1bbd 7b8e acbb
000002c0: 889e 2fbd 41d5 7b3e 1044 5fbb fad3 aa39
000002d0: 231c 32bc cd68 043c 419b f03b cbe5 32bc
000002e0: 2ef4 263d de08 1a3e 7eb4 2cbd 94a5 60bd
000002f0: fda1 85bd 66e8 843d 6726 19be b702 973c
00000300: 5430 223e 22d3 46bd 1433 36bd 37d0 d13c
00000310: 9671 fc3c 4370 063d dcb0 263d 1783 4a3d
00000320: 4f59 a23b c332 c7bc 8822 9ebd 7d20 2cbb
00000330: 839e 453e 120f 6b3c 457e 97bd dda4 3abc
00000340: e00f 9abd ee16 003e 68fb 303d cbe5 9cbc
00000350: 3980 6dbd adaa e03d 31ee 97bc 87ab 01be
00000360: 98f9 aabd 6785 5e3d 7c60 e1bc 075c c33c
00000370: 40dd d53d 620e e2bd cedd 0c3c fdef 87bc
00000380: e142 043d b2e2 4abe ede4 75bd 57b4 963d
00000390: c975 1c3d 8b98 403d 6667 a63c 08b0 53bd
000003a0: e3c1 073e 2538 573d 3703 9e3c e565 c73d
000003b0: 2d2c 42bc 5bf0 a7bc 4317 193c 3f42 f63b
000003c0: 3137 a3bc 19bd d63d fa92 f1bd 2b2c 69bd
000003d0: 7c2c ed3c 822a 893c ae87 e33c 1b3a c13c
000003e0: 304f 09bc 6fec 69bc a096 40bd 9da7 fd3c
000003f0: 8fbf d03d f6c4 663d 8a25 853d 2f4d 06be
0.04701937 0.0533303 0.0009570621 -0.004188197 0.08075257 -0.07178929 0.0086273765 -0.009090124
-0.12847227 -0.051978067 -0.10562898 -0.06578636 0.0566824 -0.23271683 -0.035353847 0.08255859
-0.028192654 0.033928253 -0.13931271 0.052990645 0.035403542 -0.02547098 0.058973312 0.115814626
0.07615448 0.04230019 0.02157258 0.10246791 0.082765974 -0.0062685753 0.03766775 -0.100561805
-0.14187843 0.028672898 -0.06290811 -0.11083963 0.16631968 0.014284301 -0.014441618 -0.102067135
0.02164461 -0.068878375 -0.06709863 0.16358328 0.12942787 -0.06684005 -0.079663016 -0.052365124
-0.017410265 0.0535051 0.052583303 -0.030930452 -0.10537058 -0.0030663852 -0.15084323 -0.041569
-0.02469494 0.0734368 -0.09571057 0.036475163 0.0954892 0.12443407 -0.08578791 -0.049996804
-0.0069365324 0.12531632 0.031724177 0.049336478 -0.025085883 -0.068663605 -0.103323705 -0.08551633
0.0697048 0.069612406 -0.018282238 0.0435155 0.03570553 0.14902756 -0.06008994 -0.15701191
0.1234322 0.021153558 -0.025137275 0.07497195 -0.128338 -0.074539475 -0.09398645 0.07426901
0.06548097 -0.043553624 0.0030584899 -0.030101497 0.0130878035 -0.038853377 -0.030159602 0.124244906
-0.06369201 -0.099580936 -0.040640384 -0.026872067 0.034682866 -0.08849908 0.07035155 0.0630719
-0.08459052 -0.038376745 0.06807813 -0.007531515 -0.0041605285 0.03083886 0.033754405 0.005145734
-0.07669887 -0.13222544 -0.19211051 -0.06981349 -0.08264541 -0.0682979 0.00043692155 -0.013423846
-0.05484164 0.0738899 0.06513984 -0.04847979 0.025244202 -0.076355815 0.0536152 -0.035229787
-0.10882053 0.12428977 0.011275978 -0.076038845 -0.06852219 -0.031008692 0.015818134 0.027902698
-0.006037043 0.0719731 -0.028519874 0.03504676 0.012375474 -0.0879658 0.036741246 -0.06038293
0.074366115 -0.049509928 0.01991499 0.0010016203 0.0070257215 -0.09943137 -0.016383257 -0.064525194
-0.048844203 0.00668639 -0.0023816417 -0.13695051 0.11579624 -0.06450997 0.0070010275 0.07943527
-0.013660364 -0.008376779 -0.026584972 -0.01948704 0.033016413 -0.02673415 0.05136607 -0.10123021
-0.16839598 0.08148029 0.025883062 0.0018182121 -0.012440002 0.019990858 -0.038038276 -0.0052660084
-0.042875797 0.24593069 -0.0034067668 0.00032582862 -0.010870966 0.008081627 0.0073427265 -0.010919045
0.04076021 0.15042445 -0.04216432 -0.054845408 -0.065250374 0.06489639 -0.14956056 0.018433912
0.15838748 -0.048541196 -0.044482306 0.02561198 0.03081588 0.032821905 0.04069601 0.049441423
0.004954494 -0.024316197 -0.0772143 -0.0026264482 0.19298749 0.014346855 -0.07397131 -0.0113918455
-0.07522559 0.12508747 0.04320851 -0.019152543 -0.05798361 0.10970054 -0.018546196 -0.12663089
-0.083483875 0.05432644 -0.027511828 0.023847593 0.10442591 -0.110378996 0.008597804 -0.016593928
0.032290343 -0.1981304 -0.060032774 0.07358616 0.038198266 0.047020476 0.020312976 -0.05168155
0.13257556 0.052543778 0.019288642 0.09736232 -0.011851353 -0.020500353 0.009343925 0.0075152214
-0.019923778 0.10485286 -0.11795612 -0.056926887 0.028951876 0.016743902 0.027774658 0.023587277
-0.008380696 -0.014277562 -0.047018647 0.030963713 0.10192787 0.05634018 0.06501301 -0.1311538

gnn.gnn_layers.0.gat_conv.attn_r f4 [1, 8, 32]
00000000: 38c9 b53b 5a87 a23c f2fa ecbc 4eaa 1c3a
00000010: 3bb3 36b9 29c4 15ba 92c6 87bd e697 d53b
00000020: d418 38bc 0cfc 023b 9179 81bd 67a8 bd3c
00000030: 4ca9 e1bc 2790 29bd eb70 143a b63b 02ba
00000040: fe04 8f3d de60 ae3c 9204 473b e5d7 e2ba
00000050: 334f 923d 9b4e e7bb 2672 a93c fa70 37bd
00000060: b5f5 19be 9667 963b bdc3 0639 d23f 2d3b
00000070: 67c3 c5bd 0ad6 483c 196e 9bbc d92f 0fbb
00000080: f885 893c 02ad 23bb 0668 643c 865e 17ba
00000090: cbfc cbbb 99a7 8f3c 132b f23a 7ede bebd
000000a0: 8a55 423d 26b3 0b3e cbc8 3e3c 6b04 ce3a
000000b0: 4f2f 2a3c 392d b03a ee2d acbb 9459 94bd
000000c0: 60e4 24ba 4f52 4e3d 9292 29bd 221d ceb9
000000d0: fc95 eb3c 81b9 353c 93be 0b3c c4bc d73b
000000e0: 8161 eebb 89a9 653c 88a3 21bd 5481 1d3b
000000f0: d3d4 2cbc 604d 77b9 a3c2 42bb b704 353a
00000100: 9eae 6b3b 4eaf 52bc ecb4 e1bb dbce c3bd
00000110: d9df 993d ca42 03bc 9220 bc3a f28f 9fbb
00000120: 44fa fdbc d9f0 f43a 368e 553c 517a 7ebb
00000130: a19c a33b 790f b03b 1a0f 9bbb 0863 d6ba
00000140: 124b 04bc 00fd 1bbd 29e8 db3a a7e1 00bd
00000150: fafb 0f3e b40d 40bb cc98 1dbd 119a cd3d
00000160: 9721 96bb 1ae9 833b edf6 4bbd 7d9f 29bb
00000170: c27d adbd 0a9e c0bb bd34 ecbc 6aa1 ef3b
00000180: d32d 68bd c692 be3b 883d 8d3a 454d 4c3c
00000190: ac14 da3a 3faf e13d 1cdd a83a 62ec 9dbb
000001a0: b176 153b 81d7 4a3d ff0c d0bc 539c 5d3d
000001b0: 5ed3 d03a c53d 30bd 230f 44bc 451e b7ba
000001c0: c498 6e3c a181 bfba 2dd9 64bb ba6c 113c
000001d0: cdac a33b 2706 03ba b06e 9b3c 885c 093b
000001e0: fab0 2e3d c485 7dbb e055 0c3d 8bdf 973a
000001f0: c924 113b 1f1a 063d 990f dcb9 50b3 db3b
00000200: 6dcb 82bb 376e a0bc 43c3 83bb 5258 fd37
00000210: 8141 e93b fe82 493b 67cc 66bd 6c05 473d
00000220: e02e 5a3b fe1a aa3b bf46 363a 782d 85bb
00000230: 5cfd 56bb c1a8 a23c 8da1 cf39 80f7 e13c
00000240: 77db 2e3d 551d fcbc 238c 9d3c 9f7f 193b
00000250: 75d6 4e3b 28ee 153b ef6a 12bc df1e c33b
00000260: b5ea 16bc a823 11bb 48c8 753d 2abc d53a
00000270: 43b2 4b3c 940c 88bc a2eb ecba 48f9 23bc
00000280: 26aa 6dbd 7e63 9f3c ae51 ba3d 151d 003c
00000290: 3c1e 08bc 69cb 81bc 6d1c 43bb 9927 053c
000002a0: fcbf 513b 4579 d73b 44f2 63bc 7a8d d63c
000002b0: aa54 953a cea8 49bb 7ee2 173c d7f3 72bb
000002c0: 8c0d 823b 9e78 e4bb 7158 113c ac9f 583c
000002d0: 7b61 c13b 88a0 8b3b e0d4 b2ba 1adb 9abb
000002e0: 796f cdba fc17 daba 41fc f938 9cf2 23bd
000002f0: 4c34 b93a 2c9e 0f3c a15e b6ba 1333 83bc
00000300: 76de 763c a4cd 57bc c11c 243b 4c31 273d
00000310: 0a30 973a be74 cbbb bded 80bb 3cb7 babd
00000320: 7718 803c abdf c23c 3403 5b3a a7a9 b1bc
00000330: 7197 d43c 6767 61b9 ada5 043b 18dc d5bc
00000340: eba7 24bb 67a7 f83a dcce 883a 1b9d 89b9
00000350: 6f52 c539 5fa3 223b 0abe 713c 635f 1ebc
00000360: ee92 bb3b 8bf1 3d3c 011f 19bc 22ff 893c
00000370: e17e c0bc 55c9 003d 0921 10bd f0d5 26bc
00000380: 5347 573d 9507 5d3c cd51 1dbb ebea 1c3d
00000390: a04f eabc 1ef0 93bd 95fe 3c3d 8312 7139
000003a0: f94a 9ebb 6090 40ba e852 9f3c 365e 993d
000003b0: e5b3 b73c 3b15 90bb ff3e cd3a 7b37 413b
000003c0: 554c 313d ae22 81bc 630c 10be 66b8 623a
000003d0: 3605 9a3c d415 0ebc f2d7 c7ba cb03 ed3c
000003e0: 4005 6ebc 8738 e4ba 6d37 443b a608 7c3c
000003f0: 3395 44bb 56f0 443d 739b 23bb d55b 873a
0.005547669 0.019839931 -0.028928254 0.0005976305 -0.00017423641 -0.0005713129 -0.06629671 0.006518352
-0.011236388 0.0019986657 -0.06322015 0.02315159 -0.027546547 -0.04139724 0.0005662578 -0.0004968004
0.06983374 0.021286424 0.0030367714 -0.0017306773 0.07144012 -0.007058931 0.020684313 -0.044785477
-0.15035136 0.004589985 0.00012852154 0.0026435745 -0.09656411 0.012258062 -0.018973397 -0.0021848588
0.016787514 -0.0024974947 0.013940817 -0.0005774278 -0.0062252036 0.017535971 0.0018475972 -0.09319781
0.047444858 0.13642558 0.011644552 0.0015717869 0.010387256 0.0013441212 -0.0052544987 -0.07243648
-0.0006290134 0.050371464 -0.041399546 -0.00039313087 0.028758042 0.011091591 0.008529323 0.006583782
-0.007274807 0.014017471 -0.039462596 0.0024033384 -0.010548788 -0.0002358458 -0.0029718063 0.00069053046
0.0035962234 -0.012859179 -0.0068880226 -0.09560939 0.07513399 -0.008011529 0.0014352968 -0.0048694545
-0.031003125 0.0018687501 0.013034394 -0.003883023 0.004993037 0.0053729382 -0.004732025 -0.0016356418
-0.008074539 -0.038083076 0.0016777563 -0.0314652 0.14060965 -0.0029305043 -0.038475797 0.100391515
-0.004581641 0.0040255906 -0.049796034 -0.0025882416 -0.08471252 -0.0058782147 -0.028833741 0.007312943
-0.056684326 0.0058158366 0.0010775784 0.012469594 0.0016638241 0.11019754 0.0012883279 -0.004819439
0.0022806341 0.049521927 -0.025396822 0.05410416 0.0015932133 -0.043027658 -0.0119664995 -0.0013970813
0.014562789 -0.0014610776 -0.0034919486 0.00887602 0.0049949647 -0.000499817 0.018973678 0.0020959694
0.042649247 -0.0038684467 0.034261584 0.0011587007 0.002214717 0.032739755 -0.0004197329 0.0067047253
-0.0039915354 -0.019583805 -0.0040210797 3.0201078e-05 0.0071184044 0.0030748243 -0.056347277 0.048589155
0.00332921 0.005191206 0.0006953291 -0.004064258 -0.0032804823 0.019855859 0.0003960248 0.027583838
0.042689767 -0.030775705 0.019231861 0.0023422015 0.0031560932 0.0022877548 -0.008936628 0.005954608
-0.009211232 -0.0022146497 0.060005456 0.0016306688 0.012432638 -0.01660756 -0.0018075595 -0.010008164
-0.058023594 0.019456621 0.090976104 0.007819434 -0.00830799 -0.015844064 -0.0029771582 0.008127117
0.00320053 0.0065757358 -0.013912741 0.026190508 0.001139303 -0.0030770781 0.009270309 -0.003707161
0.0039689 -0.0069723865 0.008871184 0.0132216625 0.005901513 0.00426108 -0.0013643764 -0.004725826
-0.001567348 -0.0016639228 0.00011920231 -0.040026292 0.0014129966 0.008765738 -0.00139137 -0.016015565
0.015067687 -0.013171587 0.0025041553 0.040818498 0.0011534702 -0.006208985 -0.0039345906 -0.091169804
0.015636666 0.023788294 0.00083546643 -0.021687342 0.02595112 -0.00021496192 0.0020240352 -0.026105925
-0.00251245 0.0018970788 0.0010437625 -0.0002624773 0.00037636186 0.0024816615 0.0147547815 -0.009666297
0.0057243025 0.011593233 -0.009345771 0.01684529 -0.023498 0.031442005 -0.035187755 -0.010182843
0.052558254 0.013490577 -0.0024005056 0.038309973 -0.028602421 -0.07223533 0.046141226 0.00022990447
-0.004830715 -0.00073457323 0.019448712 0.074886724 0.022424648 -0.004397062 0.0015659033 0.0029482532
0.043285687 -0.015763607 -0.14067225 0.00086486933 0.018801313 -0.008672196 -0.0015246852 0.028932473
-0.014527619 -0.0017411866 0.0029940263 0.015382921 -0.0029996156 0.048080765 -0.002496448 0.0010327051

gnn.gnn_layers.0.gat_conv.bias f4 [256]
00000000: 2ab4 86bc 2b32 5ebc fbb9 5f3b 3e7a a3bb
00000010: 76f9 5f3b 79ab ae3b 1904 93bb 26e7 92bc
00000020: 75b1 f3ba 54ec 053c b124 a5bb dba7 b63b
00000030: d997 1abb edf0 9f3b 7796 083c af88 4fbb
00000040: bcb6 4fbb eec7 0f3c a0bc 6ebc d6c6 51b9
00000050: d25e 103b 87b2 6d3b f5cd 41bb 7266 453b
00000060: 2daa b9bb 6680 d6bb a270 30bb d270 323c
00000070: 0f22 fabb ffda 1c39 4eca 07bb 1f56 7c3b
00000080: 83d8 88bb 8657 213b dbb9 c73a aadc 4f3a
00000090: 3a2d 33ba e0bf 2d3b 6d32 e0bb b929 a7ba
000000a0: 5d5f d03b cda7 133b 9621 713b 1bb2 e33b
000000b0: 6c1e c4ba 62f3 74bb c2cc 813c d102 003b
000000c0: 50f1 8cbc f482 fe3a d652 30bb 7a85 1c3c
000000d0: cedf 4a3b 0c9a cbbb 7f29 8f3b de00 34ba
000000e0: 2c3b e1ba 46f4 053c e322 d1bb 9f73 46bc
000000f0: a5a7 dd37 e77a eaba 836a 71bb 9259 0c3c
00000100: 5319 0f3c c6b6 973c 3680 693c 3005 443b
00000110: 6d76 da3b c91e c03a 763f 9938 399c 4c3c
00000120: bf16 eb3b 062a 2fbc eb79 8cbb 59b0 733c
00000130: 22d6 173c eb5e e13b 58cf 93bc c761 83b9
00000140: f062 c3bb 6675 bdbb 66bb a83b 1f61 f63b
00000150: 713a bfbb 7889 643a d151 913b 1e46 c73b
00000160: 9a85 73bb 1e00 0dba 48cd 10bc 82e3 9ebb
00000170: 332c c53a 338b 44bb a38d 3dbc 1913 39bb
00000180: 6522 543b a6db abbb 7b6c 46bc 1600 6e3b
00000190: 004b bebb 98f6 a1bb 52a2 b6ba 9264 093c
000001a0: 717a 49bc 4890 1cbb af3c b2b8 5470 68bc
000001b0: 3620 4dbc 0db2 ce3b 379a d1ba e449 763b
000001c0: 3c7e 2a3b addb de3b 9bb6 9ebb ce1b f6bb
000001d0: 6928 fc3b db35 083c 9f63 abbc 5794 233b
000001e0: de3c 1d3c 6a33 da3b 42d2 86bb 2ce2 13bb
000001f0: 059b 173c ee13 86bb c61d 0cbc 84f8 c2ba
00000200: a82b a33b cd8b 303b d5e5 03bc c103 213b
00000210: 6013 093c 39c1 7d3b 0364 853c 585c dd3a
00000220: 956a 383c 7b84 243c 064e d93a 4f8b 11bb
00000230: 6adc 7a3c 7984 97bc 7b7e 4c3c 97cf 33b9
00000240: 7458 eb3b 7001 6f3c 9cb7 09bb 9413 103b
00000250: d75b d23b d9bb e3ba a9cb 47bb 8275 81bb
00000260: 5f72 843b e2a7 b93b 8d4a 113a a2da dcba
00000270: c67e 823c b651 e8bb 8387 283a f53e 6f3a
00000280: 950c d9bb e5a1 2cbc 041b 8439 c194 a83b
00000290: b658 e7bb 9a50 193c 3246 a63b c31d bcbc
000002a0: f9b9 d83b 25d5 4c3c 270d 9a3a e883 983b
000002b0: 242d f83a c722 943a 059d 033c 5c4a 1bbc
000002c0: 1992 d73a 3607 733c ae51 d337 6e9c 5f3a
000002d0: 4bdc 99bc 91ab 813b 45e3 cd3b 2756 00bc
000002e0: 449f 46bb 733d cb3b d797 253c 3be9 c83b
000002f0: 7057 16bc 3099 9d3b 6a9f 44bb 3c04 b23b
00000300: d3ae 2cbc c805 053b 4296 5f3c 5546 01bc
00000310: f4de 043c 9803 463a 7a70 183c 28c1 9dbb
00000320: c67b 83bb 8313 6cbb 1292 033c 615e 0aba
00000330: 084e f6bb fb59 06bc 60b9 353c 127a f13a
00000340: 48a1 bd37 ff27 7cbb f16c 82bc 30ce ff3b
00000350: 6076 26bb ca75 d23b ef5f e9bb b92f 90bb
00000360: 6131 823c ad3e 533c 5d2c 7cbb 8a53 49bc
00000370: 5d74 65bc f896 5739 871f 7f3b 5f33 87bb
00000380: dad7 11bb 93ad 66bb 1d71 2b3c 84ce 3ebb
00000390: dd59 2b3b 9459 12bb 3359 b83b 7edc 0c3c
000003a0: 29b4 a13b b8f7 ba3b 08d9 f639 640d 31bc
000003b0: 2616 d9ba e681 69bc 2ca4 053b 2daa d7bb
000003c0: 8166 3cbb c314 e0bb 3bca 6a3b faa8 ae3b
000003d0: 3551 f13b f943 12bc 7682 363b f6c4 38bc
000003e0: 55b5 2cbc 08e2 393b 0373 e83b 1cf0 833c
000003f0: 5be5 77bb 8cd5 4b3b 3b04 0dbc ff8e 06bc
-0.01644333 -0.013561766 0.0034137953 -0.0049889376 0.003417579 0.0053304997 -0.0044865725 -0.017932486
-0.0018592315 0.008174021 -0.0050397743 0.005574209 -0.0023589043 0.0048810155 0.008336655 -0.0031667163
-0.0031694612 0.008775694 -0.014571339 -0.00020005865 0.0022029174 0.003626974 -0.0029572223 0.0030120877
-0.0056660385 -0.006546068 -0.0026922603 0.010891156 -0.0076334546 0.00014958902 -0.0020719948 0.003850348
-0.004176201 0.0024618818 0.0015237884 0.0007929305 -0.00068350474 0.0026512071 -0.0068419487 -0.0012753523
0.0063590244 0.0022530437 0.00367937 0.006948722 -0.001496268 -0.0037376513 0.015844706 0.0019532929
-0.01720491 0.0019417689 -0.0026904843 0.009553308 0.0030956152 -0.006213432 0.0043689604 -0.00068665843
-0.0017183772 0.008175915 -0.0063823326 -0.012112527 2.6423319e-05 -0.0017889411 -0.0036837168 0.008566277
0.008734065 0.01851977 0.014251759 0.0029910319 0.0066669495 0.0014657612 7.307429e-05 0.012488418
0.0071743424 -0.0106911715 -0.0042869947 0.0148735875 0.009267362 0.00687777 -0.018043205 -0.00025059117
-0.005962722 -0.0057818172 0.0051492928 0.007518902 -0.005835824 0.0008717994 0.004434802 0.0060813567
-0.003715849 -0.00053787406 -0.008838005 -0.0048488984 0.001504308 -0.0029990196 -0.011569413 -0.0028240143
0.0032369134 -0.00524469 -0.012110825 0.003631597 -0.0058072805 -0.0049427263 -0.0013933873 0.008385794
-0.012297259 -0.002388971 -8.4990046e-05 -0.014186937 -0.012519887 0.0063078464 -0.0015991394 0.0037580663
0.0026015183 0.0068010897 -0.0048435456 -0.007510639 0.007695247 0.008313621 -0.020921526 0.0024960244
0.009597031 0.006658961 -0.00411442 -0.002256523 0.009253268 -0.0040917313 -0.00855202 -0.0014875089
0.0049795695 0.0026938797 -0.008050402 0.0024568888 0.008366436 0.0038719906 0.01628304 0.0016888482
0.01125588 0.010041351 0.0016579039 -0.0022208279 0.01531134 -0.018495785 0.012481327 -0.00017148104
0.0071821753 0.014587745 -0.002101398 0.0021984326 0.0064196396 -0.0017374709 -0.003048638 -0.0039507756
0.0040419544 0.005665765 0.000554242 -0.0016849826 0.01592959 -0.007089819 0.0006428884 0.0009126508
-0.0066238143 -0.010536646 0.0002519713 0.005144686 -0.0070601357 0.009357596 0.005074286 -0.02296341
0.0066139665 0.0125019895 0.0011753187 0.0046543963 0.0018934351 0.0011301868 0.008033042 -0.009478178
0.0016446739 0.014833262 2.5191195e-05 0.0008530085 -0.018781802 0.00395722 0.006283196 -0.00783304
-0.0030307332 0.0062023937 0.010107002 0.006131319 -0.00917612 0.004809521 -0.0030002245 0.0054326337
-0.010539728 0.0020297635 0.013646664 -0.007890304 0.008109797 0.0007553636 0.00930416 -0.004814286
-0.0040125577 -0.0036022372 0.008030431 -0.0005278346 -0.0075166263 -0.008200164 0.01109156 0.0018423221
2.2605658e-05 -0.0038475988 -0.015921088 0.007806562 -0.0025400147 0.006422733 -0.007122032 -0.0044002202
0.015892686 0.012893361 -0.003847859 -0.012287984 -0.014004794 0.00020560238 0.0038928704 -0.004125997
-0.0022253902 -0.0035198673 0.01046398 -0.0029114792 0.0026146092 -0.0022331225 0.0056258678 0.008597491
0.004934807 0.0057058 0.00047082477 -0.010806415 -0.0016562387 -0.014252162 0.0020392044 -0.006581566
-0.002874762 -0.0068384125 0.0035826105 0.005330202 0.007364417 -0.008927339 0.0027848757 -0.011277428
-0.01054128 0.0028363485 0.0070937886 0.016105704 -0.0037825915 0.0031102626 -0.008606966 -0.008212804

gnn.gnn_layers.0.gat_conv.fc.weight f4 [256, 74]
00000000: 2e92 063d 8944 9bbd 6fb1 c43d 6838 8b3d
00000010: fceb d4bd 5eac d8b9 993b c9bc 9390 ecbb
00000020: 6ff4 cdb9 b2d8 5427 35d0 963c 257f 293c
00000030: 031a bc27 9cf7 cbba 0071 ee2f 155d 06bc
00000040: d56f 93a8 a9bf 4b39 db8c 4839 51a9 0b3d
00000050: ff18 f0a6 5826 3727 5c33 d7bc 5bf0 8dbb
00000060: eb6c 32b9 633a 3b38 0462 77bd 97f3 06b9
00000070: 2883 4cb1 0cb7 89bb 4285 b03c e8f8 7fae
00000080: 6bc6 673c ed2e 10b0 dbcd ec3b 69c7 8eba
00000090: 935f 3fb7 dd86 0039 c8ae 8c29 1396 7229
000000a0: 8d6b 7430 e840 6837 0fff 93bc 5b17 43b7
000000b0: 96e9 053d 1106 0d3e 887e bc3c e8fe 33bd
000000c0: 082b b6b9 c775 3a3b 1043 183c 0e8b c13c
000000d0: adbf 2238 3a10 6ab7 b829 25bd 938e d5bd
000000e0: c1c9 9c3d a2b4 8d3a 2923 aa3c cb3e 7aba
000000f0: 50bb cbba f69d a13d 13cf ed2d ae53 74ba
00000100: 1247 eb3a e49e 5cbb 9512 a6bc 1d3a 06b8
00000110: a6c9 75bc 8474 ad3c fd3b 9d3d ea74 47bd
00000120: c2c0 7f3c d82d bb2e 88da a2bd ee9d 38be
00000130: 8c26 b63d 4369 c039 e637 c13d 6fdf 403c
00000140: 05ab 7b3d ea1f 85bb 9c15 c739 a214 8239
00000150: ebf9 0f29 eaba 0a3c 20d3 2aba 0bea 2427
00000160: 8d29 9f3b 6935 f53c 5e72 ae3a bf5d 8cbc
00000170: ac96 fe3a 5221 afb8 4e73 e9bc 1c61 28a9
00000180: 45c2 1fbd c516 963b e734 51bb 8348 1abd
00000190: a9a1 67a5 7e7d 063b 8107 9336 dd4c deb7
000001a0: 4e56 5eb2 0ff5 a637 0555 01a8 4ade d7b6
000001b0: a9c1 23a8 afa8 09b8 7a39 023c b2e4 0526
000001c0: 8b63 a939 5b56 30ba dfd6 5c3c d2d5 9a33
000001d0: ab89 07ba 726e 73b6 fbec 07be 1ff1 073b
000001e0: f77b 38bd 56b5 08bb 42d0 7528 1c07 943b
000001f0: f747 c727 24a3 9f3c 2c5e 9a2b 45e0 f7aa
00000200: 7e8c e43d 24f0 c2bc db1a c43b f977 0cbe
00000210: 4604 8cbc 7175 17bb bb14 7436 fc96 5ebd
00000220: bc00 9a2b 73f0 073c c17a 78bd 5adc c73d
00000230: 030c 61b9 efcb bc3b 6008 eb3c abf6 143e
00000240: d1b1 fc3b a970 e63d 6137 fe3c 9b05 38ad
00000250: 4e18 9abb 16d7 08be 62d0 683a e416 a5bc
00000260: 8a95 f3bd 5a63 99bb b3f3 6d3a 959f 883c
00000270: eca9 37ba e7c0 c728 6b86 a629 504a 1f3c
00000280: 619c 2fb9 a709 5bad 4910 2bbc 1f93 9cba
00000290: 35a1 b737 d1f6 f5ba a634 093b d352 8abd
000002a0: 9a3b e32a 0a99 2bab cba6 05a8 72c7 a63b
000002b0: d7b4 8f2b d597 6baa 93fb 04a5 6169 f7b4
000002c0: 02f6 e9a7 b107 e0bb 5f9a 093d 0e66 d7ba
000002d0: a562 003c 451f 1c3d effc d838 4e6d bdae
000002e0: f7e8 363b 4e28 7027 b171 4e3c e119 94b8
000002f0: d311 bcbb 811e 1a3c d9ff 3abd 804e b130
00000300: 56e6 a3bd 260d 87bd 4798 aa3d 60ca 613d
00000310: e28c 8f29 42d1 8c3b e02c 3725 d34b 053c
00000320: ae2c 773b 440f f9bd 8e83 d73d b87f 58bd
00000330: 19dd a1bb 2c27 d3ba 1385 30b9 c264 c73c
00000340: b3c5 0b3d e5ce 18bc c3e8 20b4 55a6 bfbc
00000350: 420c 37bd b508 84bd da6e 53b6 bd4c dc3a
00000360: cf35 b6bd b2b7 16be 3ede 25be 2d99 e6bd
00000370: 2e67 3bbd 3ede 2d34 86e7 383d 2734 c33c
00000380: 3027 093d a78f 13bc 3bb7 b83b 243d c93c
00000390: b600 c03a 4ff0 5abd 014f 283a 0f19 40a8
000003a0: 0c73 a732 0841 813c 7635 6f3b 614e e1b7
000003b0: 37b1 25bd 2bff 4a3d 4f7d 27a4 4df8 b7ba
000003c0: e407 e63c 4007 86b9 cb55 ea3c ef75 4fbd
000003d0: f18a 8c37 bb23 0d29 7ff3 41a5 c060 33ba
000003e0: 79fc 21a8 9828 86ba 80e8 94b7 d3a8 4a3b
000003f0: 3656 973b 7e3e c83b 415e 78b8 cfee 382a
0.03285425 -0.075814314 0.09604155 0.06797868 -0.10396573 -0.00041327154 -0.024564551 -0.007219383
-0.00039282764 2.953838e-15 0.018409828 0.010345255 5.2208684e-15 -0.0015561464 4.337224e-10 -0.008200903
-1.6368778e-14 0.00019430988 0.00019125959 0.03409702 -1.6660121e-15 2.5417138e-15 -0.026269607 -0.004331631
-0.00017015978 4.463865e-05 -0.06039621 -0.0001286998 -2.976046e-09 -0.004202729 0.021547917 -5.820136e-11
0.014146428 -5.245358e-10 0.0072266883 -0.0010893169 -1.140674e-05 0.00012257272 6.2475687e-14 5.3864963e-14
8.891952e-10 1.384339e-05 -0.018065957 -1.1628344e-05 0.032693468 0.13771845 0.023009554 -0.04394427
-0.00034745806 0.0028451548 0.009293333 0.023625877 3.880232e-05 -1.3951265e-05 -0.04032299 -0.104275845
0.07655669 0.0010811279 0.020768719 -0.00095461 -0.0015543494 0.07891457 2.703574e-11 -0.00093203306
0.0017950258 -0.0033664042 -0.020272532 -3.200221e-05 -0.01500169 0.021173723 0.076774575 -0.048695482
0.015609922 8.511919e-11 -0.07951838 -0.18028995 0.08894071 0.0003669952 0.0943449 0.011772021
0.061442394 -0.0040626423 0.00037972338 0.00024810905 3.1969148e-14 0.008467415 -0.00065164454 2.2886447e-15
0.004857248 0.029932695 0.001330923 -0.017134545 0.0019423566 -8.350857e-05 -0.028497364 -3.7387723e-14
-0.03900363 0.004580351 -0.0031922401 -0.03766681 -2.0090829e-16 0.0020521577 4.381815e-06 -2.6500255e-05
-1.2941724e-08 1.9902856e-05 -7.179374e-15 -6.433377e-06 -9.090311e-15 -3.2820444e-05 0.007948274 4.6453584e-16
0.00032308357 -0.0006726735 0.013478964 7.2100775e-08 -0.00051703554 -3.627411e-06 -0.13273995 0.0020743085
-0.045040097 -0.0020860038 1.3645391e-14 0.004517449 5.531162e-15 0.019486971 1.0968496e-12 -4.4031632e-13
0.11159609 -0.023796149 0.0059846467 -0.13717641 -0.017091881 -0.0023110772 3.63709e-06 -0.05434321
1.0942562e-12 0.008297074 -0.060663942 0.097588256 -0.00021462147 0.0057616155 0.028690517 0.14547221
0.007711627 0.11251957 0.031032266 -1.0460434e-11 -0.0047026044 -0.13363299 0.0008881149 -0.020152517
-0.11893757 -0.004681033 0.00090771465 0.016677657 -0.00070062163 2.2177096e-14 7.395199e-14 0.009722307
-0.00016747556 -1.2450852e-11 -0.010440894 -0.0011945701 2.1890368e-05 -0.0018765574 0.0020935922 -0.06754079
4.0364657e-13 -6.096379e-13 -7.4191506e-15 0.0050896937 1.0210954e-12 -2.092487e-13 -1.1534412e-16 -4.6084008e-07
-6.4937213e-15 -0.0068368544 0.033594485 -0.0016433613 0.007836019 0.03811576 0.00010346795 -8.614141e-11
0.0027909854 3.332854e-15 0.012600348 -7.06201e-05 -0.0057394295 0.009406687 -0.04565415 1.2900756e-09
-0.080029175 -0.06594305 0.08329826 0.05512464 6.374915e-14 0.0042974064 1.5887924e-16 0.008135754
0.003771584 -0.12161115 0.10523139 -0.052856177 -0.004939687 -0.0016109697 -0.00016834242 0.024340037
0.034124088 -0.009326671 -1.498584e-07 -0.023394743 -0.044689424 -0.06446973 -3.1505974e-06 0.0016807538
-0.08896982 -0.14718512 -0.1619806 -0.11259685 -0.045752697 1.6192732e-07 0.045142673 0.02382858
0.033484638 -0.009006417 0.005637077 0.024565287 0.0014648649 -0.053451832 0.0006420464 -1.0663575e-14
1.9493676e-08 0.01577808 0.003650037 -2.6858588e-05 -0.04045221 0.049559753 -3.6318493e-17 -0.0014035791
0.028079934 -0.00025563873 0.028605362 -0.05064958 1.6754e-05 3.133928e-14 -1.6822581e-16 -0.0006842725
-8.992042e-15 -0.0010235487 -1.7751241e-05 0.003092338 0.0046184314 0.0061109653 -5.921559e-05 1.6425336e-13

gnn.gnn_layers.1.gat_conv.attn_l f4 [1, 8, 32]
00000000: dddc 0b3d 4887 bd3c 8e91 3fbd 8f6b 57bc
00000010: 5d0c e6bd f3ae d4bd dfb6 073e c556 c6bc
00000020: 4e1d 10bd 3974 bf3d d4fe 9b3d 7958 7d3b
00000030: 4c5b 803e 129c 8abd 728a f5bd 66e5 533d
00000040: 7402 8c3c e8bb b9bc f69b a2bd 86f8 73bc
00000050: 0792 30bd c71f 70bd 080c e2bc f326 b4bd
00000060: 4749 67bd 31f1 d03c 04aa 543d dd9f 6c3d
00000070: 5f2d f73d 58fc 03be 86e6 dcbb 8a76 db3a
00000080: 089a 723b c6f0 3e3d 962d fc3d 7d6b 9abc
00000090: 34f9 fa3c 4dd9 16bd 6ad0 0d3d 1480 643d
000000a0: 514e 42be be12 3f3e 7f57 8f3d 9767 46bd
000000b0: 473c 633d b45f b23d a193 66bc 993d d03d
000000c0: b6b1 283e 1632 89bd 0698 97bd 930a 9a3d
000000d0: eb07 08be edba e33c 9021 d2b9 4a87 7a3d
000000e0: 4eb5 51bd fdae 4b3d 4b36 e63c a051 d23d
000000f0: 107d cfbd 6991 88be a084 873d ea74 bf3d
00000100: 6f05 1e3d 3249 163d 95f9 9ebd e6f5 0abd
00000110: 9af6 fa3d 6ddd 21be ab5b cd3c 6028 0bbe
00000120: d34e b23c 1fdf 45bc 63fa ff3d ee6f 0f3d
00000130: 5f2f 74bc a751 c0bc f93f f63b badf 73bd
00000140: 7a30 a8bd a8b0 933c c9e2 7dbd 4c2f 06be
00000150: 0128 f13c 4e1b 85bd f0e7 9dbd 7b57 80bd
00000160: cd36 9abd a263 6f3d c27e 5e3d 6e3e 44bb
00000170: a788 0e3e ba32 bbbb fc71 3bbc e581 2c3e
00000180: 8d83 853d 71e8 d7bb 5b34 f8bd d003 3c3c
00000190: 1fe4 adbd 2453 853d 98c7 af3d 4ee6 f6bd
000001a0: 92e4 87bc 9ed4 1dbe 7281 193d 138a fcbc
000001b0: 3e9e 103d 7799 443d 6af4 e83d 2763 203e
000001c0: 061d 543d e552 76be 4d22 a8bd 6dd5 993d
000001d0: 5557 853b 5e94 ba3d 86ac 9fbd d363 5a3e
000001e0: 3d52 023e 10cf 7bbc 441e f33d 4b0d 7dbd
000001f0: 2880 033e b195 91bb f3bf 85bd f2a0 4d3c
00000200: a2fc acbe 283b 01be 588a 0bbd 5767 85bd
00000210: d5ab b3bd ae25 72bd c4d6 09be 9ceb 3b3d
00000220: 9044 5dbd 2dcf b83d 5798 823d f27f 53bd
00000230: 2962 04be 4486 68bd 7a33 473d 14b0 7bbe
00000240: 7264 bb3c 8ecf 1d3e 5be1 1dbb 5656 aebd
00000250: 94db 5dbc 299f c93d a9e0 1f3e 0095 413d
00000260: 7937 cd3d 0f13 3abd 6768 833d 9d77 b4bd
00000270: f7e7 d3bc b359 d7bd fe95 46bc cbec 483d
00000280: 79ef 01bd f1ed 8dbe 8a30 a7bd 177b edbd
00000290: 2079 023c 5025 21be e77d 85bd a26f 54bb
000002a0: 88c8 053c 7b1f c33d 3019 043e 0d38 cf3c
000002b0: 112c a4bd a231 6a3c ffb3 f23b 7046 cd3c
000002c0: 9465 6f3d 73be 21bd afea 67bc 39bf 1bbd
000002d0: 1486 1fbb 69c4 b6bd ced1 d73d b003 073e
000002e0: 2e93 333d ee29 7a3d 0486 9a3c c60e cebc
000002f0: 28b7 87bd 320c 1f3e 3e2f 34be a4a0 653c
00000300: b7f1 7f3d 16d9 95bd 3bbf ce3d 2a42 533d
00000310: c9da 823d 8aab 4cbd e662 ae3d a465 93bd
00000320: 2509 e3bd b102 f8bb 1d12 30be 8622 083d
00000330: 95e6 29bd 02e2 f4bd adf0 01be 8bb6 eebd
00000340: a15d 1ebe bdc8 7eba 56ce 11be b856 953d
00000350: 7eb1 d33d 46ee 283c e6aa ee3c 6726 edbc
00000360: 8c8f 463e 95e7 f43c e697 62bd 0358 2ebe
00000370: 0317 37bd 20e2 c93d e355 53bd 01e2 27bd
00000380: 2974 e13d 92fd 4fbd 1334 353d 1141 9dbd
00000390: 9c61 94bc 36d1 1dbe 828d e1bd 4ca1 2e3e
000003a0: e7e3 b53b c3a7 0d3d 5c88 69bd 3da7 043e
000003b0: 4f75 6b3d d8d9 4d3d f345 1c3e b46b a23d
000003c0: ba25 593d 1986 8f3d 4c2b 193c 6176 b7bd
000003d0: 92b4 813d 6018 a7bd a084 553d 6f6a db3d
000003e0: 34c2 00be 0898 0b3c ea8f a93c c164 473d
000003f0: ea54 553d 77dc 853d 1491 c13c b2fd b9bd
0.03414618 0.023135796 -0.04676967 -0.013148203 -0.11232827 -0.103849314 0.13253354 -0.024211297
-0.035184197 0.093483396 0.07616964 0.003865747 0.25069654 -0.06768049 -0.11989297 0.051732443
0.017091013 -0.022672608 -0.079399034 -0.014890796 -0.043108013 -0.058624055 -0.027593628 -0.087964915
-0.056466367 0.025505634 0.051919952 0.057769645 0.12069201 -0.1288923 -0.0067413477 0.0016743701
0.003701808 0.04661634 0.12313382 -0.018850083 0.030636407 -0.036828328 0.034622587 0.055786207
-0.18975188 0.18659493 0.069991104 -0.048438635 0.055477407 0.0870966 -0.014073283 0.10167999
0.16474041 -0.06699006 -0.07402043 0.07521548 -0.1328427 0.027799094 -0.00040079327 0.061164178
-0.051198296 0.04972743 0.02810206 0.10269475 -0.10131276 -0.2667344 0.06617093 0.093484715
0.0385794 0.0366909 -0.07762448 -0.033925913 0.12254067 -0.15807123 0.025068125 -0.1358962
0.021766102 -0.012077122 0.12498929 0.035018854 -0.014903872 -0.023476435 0.0075149504 -0.059539534
-0.08212371 0.018028572 -0.061983857 -0.1310398 0.02943802 -0.064993486 -0.07710254 -0.062666856
-0.07529984 0.058444627 0.054320104 -0.0029944438 0.13919316 -0.005712834 -0.01144075 0.16846426
0.06519232 -0.0065889885 -0.12119361 0.011475518 -0.08490776 0.065099984 0.08582991 -0.12055646
-0.016588483 -0.15413138 0.037476964 -0.030827558 0.03530716 0.047997918 0.11374743 0.15662824
0.05178549 -0.24055059 -0.08209667 0.07511411 0.0040692487 0.0911033 -0.07796578 0.21327142
0.12726684 -0.015369192 0.11871007 -0.061780255 0.12841856 -0.0044428934 -0.06530752 0.012550579
-0.33786494 -0.12620223 -0.03406748 -0.06513851 -0.08773009 -0.059117965 -0.13460833 0.04587899
-0.054020464 0.09023891 0.06376713 -0.05163569 -0.1292807 -0.05676867 0.048633076 -0.24578887
0.022875044 0.15411207 -0.002409062 -0.08512561 -0.013541121 0.098448105 0.15613045 0.047261238
0.10020346 -0.045428332 0.064163975 -0.08811877 -0.025867445 -0.10515156 -0.012120722 0.04905395
-0.03172252 -0.27720597 -0.08163555 -0.11595743 0.007963449 -0.1573689 -0.065181546 -0.003241517
0.008165486 0.09527489 0.12900233 0.025295282 -0.080162175 0.01429406 0.007406711 0.025058001
0.05844648 -0.039488267 -0.014155074 -0.03802416 -0.0024341391 -0.08924181 0.10538064 0.13185
0.043841533 0.061075144 0.018862732 -0.025153529 -0.06626731 0.15531996 -0.17596146 0.0140153505
0.062486377 -0.073167965 0.10095068 0.05157677 0.06389386 -0.04996828 0.08514957 -0.07197121
-0.110857286 -0.00756868 -0.1719441 0.03323605 -0.041479666 -0.1195717 -0.12689467 -0.11655911
-0.15465404 -0.00097192434 -0.14238867 0.07291931 0.10336588 0.010310715 0.029134225 -0.028948976
0.19390696 0.029895583 -0.055320643 -0.17025761 -0.04469968 0.09857583 -0.05159558 -0.04098702
0.11008484 -0.050778933 0.044239115 -0.07678426 -0.01811295 -0.15411839 -0.110133186 0.17053717
0.0055508497 0.03458382 -0.057014808 0.12954421 0.05748492 0.05025658 0.15261059 0.07930699
0.053014494 0.07007999 0.009348702 -0.08958126 0.06333269 -0.08158946 0.052128434 0.1071366
-0.12574083 0.008520134 0.020698506 0.04868007 0.052082933 0.06536191 0.023628749 -0.09081592

gnn.gnn_layers.1.gat_conv.attn_r f4 [1, 8, 32]
00000000: daed 3f3c 8db3 89bb 8026 343c 76f0 b6ba
00000010: e489 e6bc b2c7 133d 49ba e9bb 423b 833b
00000020: ab9f 1dbc 0f02 bf3c f46f 7d3c e989 833d
00000030: 7966 9d3d 25cb 3abc 5aee d7bb dea9 6a3a
00000040: 06b8 2cbd f7c6 8e3d 9e87 613d d525 b23b
00000050: 3a66 1b3d 3705 9abc 0778 33bb f71b 1b3c
00000060: b67d a13a cd1f 09bb 50d4 87bc dbb7 083d
00000070: 5e96 b63a e89e b3bb dbed 1a3e 0222 08bc
00000080: 7692 c6bb 567c 253b f256 223b 2c99 fdbb
00000090: 7f99 b1bb eaa8 14bc 0cdb bebc f200 32bc
000000a0: c64f 2a3c 493b 9bbc bfa8 90bd c578 08be
000000b0: 1bce 88bd efaf 6b3b b1de bfbd ef9f beba
000000c0: eed9 70bc 8fa9 e73b a2e3 f93d 363d eb3c
000000d0: e847 fd3a f5f8 7abd ed5e 81bc f21f cb3b
000000e0: 6433 b93c 6c1e 543c b47b 1bbd 5f7a 52bd
000000f0: 5166 43bc 4468 4fbb e35f 153d 8d46 b23b
00000100: da4a 0e3b cf0e 6f3c 303b 75bd ae37 1a3c
00000110: caab f6bc 425b 55bd b141 913d 730b 963c
00000120: 7088 f6bd 2f9d 3b3c d5ec 4c3c 9074 2c3d
00000130: d3cb 483b a7b4 993c c87e 9a3c 6cd4 aabb
00000140: 89fc f0bc e05a 71bd 7957 d53c e8e8 60bc
00000150: 27f5 a4ba 475c edbc 45af babc 8076 e33c
00000160: 1335 323a 8be2 263b 52f4 9ebd 2a15 a3bd
00000170: 96ff b73c dcba aabb f964 1ebd 6ecd eb3c
00000180: d912 d7bc 226c 24ba 31d2 5ebd ec54 983b
00000190: 651a 1bbc 3b40 343c 12fa 733c c893 fb3c
000001a0: 9f37 8eba 54b8 85bc 49e2 18bd f4cf febc
000001b0: 9871 aa3b 59ab d3bb b539 09ba 3e79 113c
000001c0: 3046 09bb ddc9 b3bc d3d8 9b39 7d65 c03d
000001d0: 9aa8 8f3b 5b98 a2ba 3dee 193e fc3a 6dbb
000001e0: 6423 e3bb bf11 863d 6247 e33b 3951 463b
000001f0: df0e 313d 4e51 48bc b0aa a7bc aae7 68bb
00000200: 79d2 403c da21 3ebd b761 a6bc 7c12 8cbc
00000210: 0e77 9ebc 60d5 1b3d 18c5 103b 4283 61bc
00000220: 812a 2cbc 3268 563c 74db bebb 7ae3 1a3c
00000230: 1e26 c638 d202 fa3d 005a dd3c 54be 933c
00000240: d8b7 8639 b606 ce3c 90c5 203c 0574 9c3d
00000250: 9bf4 00bd 2c46 ffbc 37db 56bb 3257 92bc
00000260: be6c 55bc 2cde 303c 94ef 18bd 8fca d73c
00000270: 5625 c6bc 50d0 3c3b 529f e83c 20ff 07bb
00000280: 8b0a 433b b3a2 073c fde2 3aba 4e78 48ba
00000290: ffdd a33c 7c56 9e3c 6951 093d 9868 3cbd
000002a0: 9ab5 893c 1fc1 d5b9 128b e638 f4f3 203c
000002b0: ea76 f83b b659 003d cd00 7a3d 9323 2bbd
000002c0: 5bef b3bc fad4 d6bb 0065 67bc d1cb 4d3b
000002d0: 106e 8e3d f7bd cf3c 2a5e 313b f057 e6bb
000002e0: b586 92bd 46f4 54bc cfde 303c e33f df39
000002f0: 5d77 0f3d cd3d 183d 9109 7ebb 92e2 80bd
00000300: 51e2 bdbc 923d d13b 55c2 4fbc a17c 7f3c
00000310: d3db 2a3c 9cc3 2a3b 1112 873c 0116 1e3c
00000320: f184 7c3d 56e9 d9bc ccc0 55bd cd0f 5fbc
00000330: 4ea8 3f3c 5c26 b3bd e5cb 0abd 12fd eb3b
00000340: f962 a03c dd94 ef3c 45ae 72bd 0c13 dcbd
00000350: 50a0 453d 7967 adbb ea28 d93b 7eca 72bd
00000360: 26c7 dcba 8085 95bc ad0e 8ebb 3e12 0b3d
00000370: 5c42 f93b 6396 ef3c 7301 c0bc 3938 ec3b
00000380: a9cf 19bc 8232 983a 438b b6bb 9aab 38bd
00000390: 75fd 7dba 382d 29bc 626f 613b e4dd b3bd
000003a0: 8214 62bd 1e5c e33d 01db 1d3d 5389 35bd
000003b0: efd9 babb dc05 a13c b922 75bc a857 98bd
000003c0: 5eba 70bc 0dc8 8b3c 01a4 553c 0c60 aabd
000003d0: c2c9 0c3a aa69 85bd 7f3b e63c 1d9e d13b
000003e0: ede9 6d3c 3426 09bc 651e bdb9 1b07 9fbc
000003f0: 3663 763a 9dae c3ba cf01 c7bc 67ab 19bd
0.011714423 -0.0042023123 0.010995507 -0.0013957161 -0.028141923 0.036079116 -0.0071328026 0.004004867
-0.009620587 0.023316411 0.015468586 0.06422789 0.07685561 -0.0114009725 -0.006589693 0.0008951704
-0.042167686 0.06971543 0.055060975 0.005436639 0.037939288 -0.018801315 -0.0027384774 0.009467117
0.001232079 -0.0020923496 -0.01658073 0.033378463 0.0013930311 -0.0054815896 0.15129797 -0.008308889
-0.00605994 0.0025251112 0.0024771062 -0.007739207 -0.0054199095 -0.009073475 -0.023297809 -0.010864483
0.010394996 -0.018949168 -0.07063436 -0.1332732 -0.066799365 0.003596302 -0.09368647 -0.0014543514
-0.014700396 0.0070697735 0.12201621 0.028715711 0.0019323798 -0.06127258 -0.015792334 0.0061988765
0.022607513 0.012946706 -0.03795977 -0.051386233 -0.01192625 -0.003164784 0.036468398 0.005440539
0.0021712095 0.014590933 -0.0598709 0.009412689 -0.030111212 -0.052088983 0.07092608 0.018316006
-0.12037742 0.01145105 0.012507637 0.04210335 0.0030639067 0.0187629 0.018859282 -0.005213311
-0.029417293 -0.058924556 0.026042687 -0.013727404 -0.0012585268 -0.028974665 -0.022788653 0.027766466
0.000679807 0.002546462 -0.07761444 -0.07963021 0.02246074 -0.0052102637 -0.038670514 0.02878448
-0.026254104 -0.00062722166 -0.054399673 0.0046487954 -0.009466742 0.011001642 0.014891164 0.030710116
-0.0010850317 -0.016323246 -0.037325177 -0.03110502 0.0052015297 -0.006459635 -0.0005234734 0.008879004
-0.0020946376 -0.021946842 0.0002972545 0.09394357 0.0043841125 -0.0012405025 0.15032287 -0.0036198488
-0.006931709 0.065463535 0.0069359997 0.0030260815 0.043227073 -0.012226416 -0.020467132 -0.0035538473
0.011768931 -0.046419002 -0.020310266 -0.017098658 -0.01934388 0.038045287 0.0022090133 -0.013764204
-0.010508181 0.013086366 -0.0058245007 0.009453649 9.4484756e-05 0.12207569 0.027020454 0.018035091
0.00025695446 0.025149684 0.009812728 0.076393165 -0.031483274 -0.03116139 -0.003278447 -0.017863844
-0.013026414 0.010795157 -0.037337855 0.026341705 -0.024187725 0.0028810687 0.028396282 -0.0020751432
0.0029760923 0.008278537 -0.0007129161 -0.00076473213 0.020003317 0.019328348 0.033524904 -0.045998186
0.016810227 -0.00040770412 0.000109931585 0.009823788 0.007582535 0.031335555 0.06103592 -0.041781973
-0.02196472 -0.0065561505 -0.014123201 0.0031402002 0.069545865 0.025359137 0.0027064183 -0.007029526
-0.071545996 -0.012997692 0.010795309 0.00042581474 0.035025943 0.037168313 -0.0038763026 -0.06293215
-0.023179205 0.0063855136 -0.01268061 0.015593679 0.010428387 0.0026056534 0.016488107 0.009648801
0.06165022 -0.026600521 -0.05218582 -0.013614607 0.011697842 -0.08747551 -0.033885855 0.007201799
0.019578444 0.029245788 -0.059248228 -0.107458204 0.04824859 -0.005291876 0.006627192 -0.059275143
-0.0016844019 -0.018252134 -0.0043352456 0.033952944 0.0076067876 0.029246515 -0.023438191 0.0072088507
-0.009387889 0.0011611732 -0.0055708005 -0.045085527 -0.0009688952 -0.010325722 0.0034398665 -0.08782557
-0.05519534 0.11101554 0.038538937 -0.044320416 -0.0057022492 0.019656114 -0.014961892 -0.07438594
-0.014692871 0.017063165 0.01303959 -0.08319101 0.00053706404 -0.065142944 0.028104542 0.0063970224
0.014521104 -0.008370925 -0.00036071535 -0.019412568 0.0009398939 -0.0014929358 -0.024292855 -0.037516978

gnn.gnn_layers.1.gat_conv.bias f4 [256]
00000000: 533c 31bc 764a a2bb 5238 3dbb 8906 ef3b
00000010: 6eb0 25bc 082b d53a 03d3 f3ba 909b a13b
00000020: b1fe 4a3b 555f f1bb 3edb 903b 08b9 b5bb
00000030: 7d98 39bc adcb 92bb e12d 13bb 3c5b c2bb
00000040: 6262 043b a0dc 1bbc 0f91 9dbb 7954 98bb
00000050: 08fd d8b9 8849 a7bb 6abd 4cbb a011 02bb
00000060: f1d4 29bb c231 be3b 0d20 01bc 6306 ea3b
00000070: 2db3 4cbc fb03 df3b ea35 1dbc 2801 223a
00000080: e0ab cb3a 8600 fbb9 fb81 c3ba fc72 cebb
00000090: 4620 8c3b 49e7 cabb 8721 5cbb 5b12 333b
000000a0: 2772 db3b 5122 4a3c 5608 d8bb 5569 c93b
000000b0: a16e 913a c8b0 9f3a 9775 86b9 931b 8c3b
000000c0: 623f 303c aa45 d439 aead d13b 7ff6 f4bb
000000d0: da39 c3bb 5c03 e6bb 7a2b bf3b c964 0ebc
000000e0: 49bd 28ba aa9e b43a 6879 a9bb bd00 9e3b
000000f0: 95f0 a23b 7a6c 103b d0e5 cf3b 9fbd 5dbb
00000100: 77f7 14bc 0dd2 1abc cd3d 1c3c 9ac2 e3bb
00000110: 9bfd 3cbb 0827 00bc 5212 8ebb 3cec b9ba
00000120: 0d4d 333a 68ed e3bb c4ea 623b 643e 0a3c
00000130: 8d63 3b3b 4dc1 4dbc d84f 403b d255 f13b
00000140: 8a8b 513c 7a90 883a 0282 ae3a eb43 16bc
00000150: afb2 a0bb 573f 173c 281a 34bb ca99 f6bb
00000160: b123 413c 7c1e 21bc 60a3 e83b 3014 86bb
00000170: 2d76 82b9 b43f c6ba 7c41 43bb 2623 e23b
00000180: ddb5 83bb 032f fcbb 73c0 0439 19b7 0cba
00000190: 00af c7ba 55c3 d3ba 2daa d0bb d2ef 4c3a
000001a0: 724b 533b 9a93 b6bb c8cc 5dbb 1f20 23bc
000001b0: f586 95bb aef7 9bbb 471c 3cbc ece8 49bb
000001c0: c810 78bb e6b9 213c 88e8 c4bb b316 d13b
000001d0: bfc4 96bb 3ea5 99bb 1cea a7bb 897d 1b3a
000001e0: d7c7 933b 972a 79bb 5422 cabb 0f61 1d3c
000001f0: 10c2 813b bd89 543c 9e84 8bbb 5b45 32bb
00000200: 0867 3f3c b7f4 2b3c 9c87 32bc e4f0 c839
00000210: 4973 47bb b0ff 34bb 17c0 e9ba a5eb cbbb
00000220: ae04 34bc dbe4 163c cd2d c9ba 6787 aabb
00000230: 4e9d a1bb 49f2 91ba f27a 01bc a75c d43b
00000240: b240 82ba a166 0abc 2a79 513b 3941 1b3c
00000250: fcc8 b8bb 00de 323c 3ad0 afbb 7efe 8d3b
00000260: 48ed 94b9 365e 0f3b 9c1f 1b3b e933 2f3c
00000270: ecc0 a43a a422 08bc 9f3b 99bb da64 42bb
00000280: c930 b43b 736f dc3b ff83 c0bb 2d3b 143c
00000290: f83d dcbb b01a 023c 400c d4bb 9820 11bc
000002a0: a039 123b 5842 4f3c 6efb 0cbc 39d4 603a
000002b0: 4f16 1c3b 7186 a83b d560 063b 30e4 babb
000002c0: 46ac 1f3b dc18 203c 4fe2 853c 84e0 b4b8
000002d0: 2c67 c9bb 62c3 5a3a 4386 5f3b 3949 b5bb
000002e0: 4fc1 aa3b 5015 dd3b 81bd a13a 15d4 b7bb
000002f0: b063 213c f5e9 1abc 94fb 53bb 5763 b23a
00000300: 0119 2bbb 951d 10bc 0b51 09bc dbd4 163b
00000310: d1b9 c4ba b7f3 f1ba 9159 483c 95f1 4dbb
00000320: 728a 8cba 4641 9c3c 4ff7 45bb 9115 ebba
00000330: 6c2d 283b 3716 93bb b52c bdbb b971 24bc
00000340: 550b 403c 2667 8dbb 0573 aa3b 18b4 6b3c
00000350: 6639 2bbc 4430 7ebb d76c 32bb d62e 7ebb
00000360: 8674 fb3a df50 77bb e728 7d3b 1da4 163c
00000370: b248 55bc 83d5 543b 6212 31bb bdd1 66bb
00000380: 32b9 2c3c fff1 22bc f527 ae3b 4d0b f9bb
00000390: 94d1 2bbb b797 083c 6bc0 a33a 204c 453c
000003a0: ebd4 cc3a 3867 17bc e41e e9b9 195d 12bc
000003b0: 5c8c 79bb b1b2 ddb9 2522 c8bb e74c df3b
000003c0: b629 873b 57df 36bb 61b4 9bbb 4160 503b
000003d0: 1384 08bc 48c9 0b3b 5418 553b 15e5 abbb
000003e0: c5b0 c83b e593 1d3b 391b 81bb 256d a8ba
000003f0: 75c0 f53b 8c66 fabb 5d36 373b f01f c4bb
-0.010817605 -0.004952724 -0.002887268 0.00729448 -0.010112865 0.0016263435 -0.0018602315 0.0049318746
0.0030974562 -0.007366101 0.004420667 -0.005545739 -0.01132786 -0.0044798465 -0.0022457766 -0.005931286
0.0020200242 -0.00951305 -0.004808552 -0.004648742 -0.00041387253 -0.005105201 -0.003124083 -0.001984693
-0.0025914276 0.0058042714 -0.007881177 0.0071418746 -0.012493891 0.0068058944 -0.009595374 0.0006179982
0.0015538894 -0.0004787484 -0.0014916057 -0.0063003283 0.004276308 -0.006192122 -0.003358932 0.0027324173
0.0066969576 0.012337283 -0.0065927906 0.0061465898 0.0011095592 0.0012183422 -0.00025646083 0.004275748
0.010757299 0.00040487695 0.006398878 -0.0074756737 -0.005957824 -0.0070194434 0.00583404 -0.008691021
-0.0006436897 0.0013780196 -0.0051719435 0.0048218654 0.0049725273 0.0022037313 0.0063445345 -0.0033834947
-0.009092203 -0.009449494 0.009536219 -0.0069506885 -0.0028837684 -0.007821806 -0.00433568 -0.0014184783
0.00068397896 -0.0069557913 0.0034624794 0.008437727 0.0028593272 -0.0125582935 0.0029344466 0.007364967
0.012789616 0.0010419034 0.0013313892 -0.009171466 -0.0049041132 0.00923141 -0.002748141 -0.0075256573
0.011788295 -0.009833928 0.007099554 -0.004091762 -0.0002488358 -0.0015125186 -0.002979367 0.0069011627
-0.0040194825 -0.007696034 0.00012660194 -0.000536786 -0.0015234649 -0.0016156236 -0.006367943 0.00078177184
0.0032241014 -0.0055717947 -0.0033843983 -0.009956389 -0.0045632073 -0.0047597503 -0.011481351 -0.0030808998
-0.00378518 0.009870982 -0.006009165 0.00638088 -0.0046010907 -0.004688888 -0.0051243436 0.0005931487
0.0045099068 -0.003801977 -0.006168643 0.00960566 0.0039599016 0.0129722925 -0.0042577526 -0.0027201984
0.011682279 0.010495356 -0.01089659 0.0003832645 -0.0030433706 -0.0027618222 -0.0017833736 -0.0062231594
-0.010987444 0.009209837 -0.0015348733 -0.0052041295 -0.0049320823 -0.0011134829 -0.007902848 0.0064807716
-0.0009937494 -0.00844732 0.0031963089 0.0094759995 -0.0056391936 0.010917187 -0.0053653987 0.0043333163
-0.00028405548 0.0021876222 0.0023669964 0.010693529 0.0012569702 -0.00830904 -0.004676297 -0.0029662163
0.0054989797 0.006727153 -0.00587511 0.009047312 -0.0067212544 0.007940933 -0.006471187 -0.008857869
0.002231218 0.012650095 -0.008604867 0.00085765455 0.0023817008 0.00514298 0.0020504494 -0.0057034716
0.0024364158 0.009771552 0.016343264 -8.624888e-05 -0.0061463322 0.00083451543 0.0034107126 -0.0055324105
0.0052110325 0.0067469254 0.0012339802 -0.005609999 0.0098504275 -0.009455194 -0.0032345997 0.0013609928
-0.0026107433 -0.008796115 -0.008381139 0.0023015055 -0.0015008991 -0.0018459474 0.012228386 -0.0031424512
-0.0010722412 0.019074094 -0.0030207222 -0.0017935504 0.002566184 -0.004488732 -0.0057731518 -0.010036879
0.011721452 -0.004315275 0.0052016997 0.014386199 -0.010450697 -0.0038786093 -0.0027225518 -0.003878524
0.0019184507 -0.0037737412 0.0038629116 0.009194401 -0.01301782 0.0032475896 -0.0027019014 -0.0035220229
0.010542201 -0.009945392 0.005314822 -0.007600224 -0.0026217448 0.008336953 0.0012493258 0.012042075
0.0015627419 -0.009240918 -0.00044464238 -0.008933329 -0.0038078045 -0.0004228554 -0.006107586 0.0068145874
0.0041248454 -0.0027904117 -0.0047517275 0.0031795653 -0.00833227 0.002132969 0.0032515721 -0.0052458146
0.006124588 0.002404445 -0.003940013 -0.001284991 0.0074997493 -0.007641619 0.0027955987 -0.0059852526
